…
snapshot: 0
snapshot_prefix: "resnet101_rfcn_ohem"
iter_size: 2
I0106 20:37:04.294302  2545 solver.cpp:81] Creating training net from train_net file: models/pascal_voc/ResNet-101/rfcn_end2end/train_agnostic_ohem.prototxt
I0106 20:37:04.301821  2545 net.cpp:58] Initializing net from parameters: 
name: "ResNet-101"
state {
  phase: TRAIN
}
layer {
  name: "input-data"
  type: "Python"
  top: "data"
  top: "im_info"
  top: "gt_boxes"
  python_param {
    module: "roi_data_layer.layer"
    layer: "RoIDataLayer"
    param_str: "\'num_classes\': 2 #cls_num"
  }
}
layer {
  name: "conv1"
  type: "Convolution"
  bottom: "data"
  top: "conv1"
  param {
    lr_mult: 0
  }
  convolution_param {
    num_output: 64
    bias_term: false
    pad: 3
    kernel_size: 7
    stride: 2
  }
}
layer {
  name: "bn_conv1"
  type: "BatchNorm"
  bottom: "conv1"
  top: "conv1"
  param {
    lr_mult: 0
    decay_mult: 0
  }
  param {
    lr_mult: 0
    decay_mult: 0
  }
  param {
    lr_mult: 0
    decay_mult: 0
  }
  batch_norm_param {
    use_global_stats: true
  }
}
layer {
  name: "scale_conv1"
  type: "Scale"
  bottom: "conv1"
  top: "conv1"
  param {
    lr_mult: 0
    decay_mult: 0
  }
  param {
    lr_mult: 0
    decay_mult: 0
  }
  scale_param {
    bias_term: true
  }
}
layer {
  name: "conv1_relu"
  type: "ReLU"
  bottom: "conv1"
  top: "conv1"
}
layer {
  name: "pool1"
  type: "Pooling"
  bottom: "conv1"
  top: "pool1"
  pooling_param {
    pool: MAX
    kernel_size: 3
    stride: 2
  }
}
layer {
  name: "res2a_branch1"
  type: "Convolution"
  bottom: "pool1"
  top: "res2a_branch1"
  param {
    lr_mult: 0
  }
  convolution_param {
    num_output: 256
    bias_term: false
    pad: 0
    kernel_size: 1
    stride: 1
  }
}
layer {
  name: "bn2a_branch1"
  type: "BatchNorm"
  bottom: "res2a_branch1"
  top: "res2a_branch1"
  param {
    lr_mult: 0
    decay_mult: 0
  }
  param {
    lr_mult: 0
    decay_mult: 0
  }
  param {
    lr_mult: 0
    decay_mult: 0
  }
  batch_norm_param {
    use_global_stats: true
  }
}
layer {
  name: "scale2a_branch1"
  type: "Scale"
  bottom: "res2a_branch1"
  top: "res2a_branch1"
  param {
    lr_mult: 0
    decay_mult: 0
  }
  param {
    lr_mult: 0
    decay_mult: 0
  }
  scale_param {
    bias_term: true
  }
}
layer {
  name: "res2a_branch2a"
  type: "Convolution"
  bottom: "pool1"
  top: "res2a_branch2a"
  param {
    lr_mult: 0
  }
  convolution_param {
    num_output: 64
    bias_term: false
    pad: 0
    kernel_size: 1
    stride: 1
  }
}
layer {
  name: "bn2a_branch2a"
  type: "BatchNorm"
  bottom: "res2a_branch2a"
  top: "res2a_branch2a"
  param {
    lr_mult: 0
    decay_mult: 0
  }
  param {
    lr_mult: 0
    decay_mult: 0
  }
  param {
    lr_mult: 0
    decay_mult: 0
  }
  batch_norm_param {
    use_global_stats: true
  }
}
layer {
  name: "scale2a_branch2a"
  type: "Scale"
  bottom: "res2a_branch2a"
  top: "res2a_branch2a"
  param {
    lr_mult: 0
    decay_mult: 0
  }
  param {
    lr_mult: 0
    decay_mult: 0
  }
  scale_param {
    bias_term: true
  }
}
layer {
  name: "res2a_branch2a_relu"
  type: "ReLU"
  bottom: "res2a_branch2a"
  top: "res2a_branch2a"
}
layer {
  name: "res2a_branch2b"
  type: "Convolution"
  bottom: "res2a_branch2a"
  top: "res2a_branch2b"
  param {
    lr_mult: 0
  }
  convolution_param {
    num_output: 64
    bias_term: false
    pad: 1
    kernel_size: 3
    stride: 1
  }
}
layer {
  name: "bn2a_branch2b"
  type: "BatchNorm"
  bottom: "res2a_branch2b"
  top: "res2a_branch2b"
  param {
    lr_mult: 0
    decay_mult: 0
  }
  param {
    lr_mult: 0
    decay_mult: 0
  }
  param {
    lr_mult: 0
    decay_mult: 0
  }
  batch_norm_param {
    use_global_stats: true
  }
}
layer {
  name: "scale2a_branch2b"
  type: "Scale"
  bottom: "res2a_branch2b"
  top: "res2a_branch2b"
  param {
    lr_mult: 0
    decay_mult: 0
  }
  param {
    lr_mult: 0
    decay_mult: 0
  }
  scale_param {
    bias_term: true
  }
}
layer {
  name: "res2a_branch2b_relu"
  type: "ReLU"
  bottom: "res2a_branch2b"
  top: "res2a_branch2b"
}
layer {
  name: "res2a_branch2c"
  type: "Convolution"
  bottom: "res2a_branch2b"
  top: "res2a_branch2c"
  param {
    lr_mult: 0
  }
  convolution_param {
    num_output: 256
    bias_term: false
    pad: 0
    kernel_size: 1
    stride: 1
  }
}
layer {
  name: "bn2a_branch2c"
  type: "BatchNorm"
  bottom: "res2a_branch2c"
  top: "res2a_branch2c"
  param {
    lr_mult: 0
    decay_mult: 0
  }
  param {
    lr_mult: 0
    decay_mult: 0
  }
  param {
    lr_mult: 0
    decay_mult: 0
  }
  batch_norm_param {
    use_global_stats: true
  }
}
layer {
  name: "scale2a_branch2c"
  type: "Scale"
  bottom: "res2a_branch2c"
  top: "res2a_branch2c"
  param {
    lr_mult: 0
    decay_mult: 0
  }
  param {
    lr_mult: 0
    decay_mult: 0
  }
  scale_param {
    bias_term: true
  }
}
layer {
  name: "res2a"
  type: "Eltwise"
  bottom: "res2a_branch1"
  bottom: "res2a_branch2c"
  top: "res2a"
}
layer {
  name: "res2a_relu"
  type: "ReLU"
  bottom: "res2a"
  top: "res2a"
}
layer {
  name: "res2b_branch2a"
  type: "Convolution"
  bottom: "res2a"
  top: "res2b_branch2a"
  param {
    lr_mult: 0
  }
  convolution_param {
    num_output: 64
    bias_term: false
    pad: 0
    kernel_size: 1
    stride: 1
  }
}
layer {
  name: "bn2b_branch2a"
  type: "BatchNorm"
  bottom: "res2b_branch2a"
  top: "res2b_branch2a"
  param {
    lr_mult: 0
    decay_mult: 0
  }
  param {
    lr_mult: 0
    decay_mult: 0
  }
  param {
    lr_mult: 0
    decay_mult: 0
  }
  batch_norm_param {
    use_global_stats: true
  }
}
layer {
  name: "scale2b_branch2a"
  type: "Scale"
  bottom: "res2b_branch2a"
  top: "res2b_branch2a"
  param {
    lr_mult: 0
    decay_mult: 0
  }
  param {
    lr_mult: 0
    decay_mult: 0
  }
  scale_param {
    bias_term: true
  }
}
layer {
  name: "res2b_branch2a_relu"
  type: "ReLU"
  bottom: "res2b_branch2a"
  top: "res2b_branch2a"
}
layer {
  name: "res2b_branch2b"
  type: "Convolution"
  bottom: "res2b_branch2a"
  top: "res2b_branch2b"
  param {
    lr_mult: 0
  }
  convolution_param {
    num_output: 64
    bias_term: false
    pad: 1
    kernel_size: 3
    stride: 1
  }
}
layer {
  name: "bn2b_branch2b"
  type: "BatchNorm"
  bottom: "res2b_branch2b"
  top: "res2b_branch2b"
  param {
    lr_mult: 0
    decay_mult: 0
  }
  param {
    lr_mult: 0
    decay_mult: 0
  }
  param {
    lr_mult: 0
    decay_mult: 0
  }
  batch_norm_param {
    use_global_stats: true
  }
}
layer {
  name: "scale2b_branch2b"
  type: "Scale"
  bottom: "res2b_branch2b"
  top: "res2b_branch2b"
  param {
    lr_mult: 0
    decay_mult: 0
  }
  param {
    lr_mult: 0
    decay_mult: 0
  }
  scale_param {
    bias_term: true
  }
}
layer {
  name: "res2b_branch2b_relu"
  type: "ReLU"
  bottom: "res2b_branch2b"
  top: "res2b_branch2b"
}
layer {
  name: "res2b_branch2c"
  type: "Convolution"
  bottom: "res2b_branch2b"
  top: "res2b_branch2c"
  param {
    lr_mult: 0
  }
  convolution_param {
    num_output: 256
    bias_term: false
    pad: 0
    kernel_size: 1
    stride: 1
  }
}
layer {
  name: "bn2b_branch2c"
  type: "BatchNorm"
  bottom: "res2b_branch2c"
  top: "res2b_branch2c"
  param {
    lr_mult: 0
    decay_mult: 0
  }
  param {
    lr_mult: 0
    decay_mult: 0
  }
  param {
    lr_mult: 0
    decay_mult: 0
  }
  batch_norm_param {
    use_global_stats: true
  }
}
layer {
  name: "scale2b_branch2c"
  type: "Scale"
  bottom: "res2b_branch2c"
  top: "res2b_branch2c"
  param {
    lr_mult: 0
    decay_mult: 0
  }
  param {
    lr_mult: 0
    decay_mult: 0
  }
  scale_param {
    bias_term: true
  }
}
layer {
  name: "res2b"
  type: "Eltwise"
  bottom: "res2a"
  bottom: "res2b_branch2c"
  top: "res2b"
}
layer {
  name: "res2b_relu"
  type: "ReLU"
  bottom: "res2b"
  top: "res2b"
}
layer {
  name: "res2c_branch2a"
  type: "Convolution"
  bottom: "res2b"
  top: "res2c_branch2a"
  param {
    lr_mult: 0
  }
  convolution_param {
    num_output: 64
    bias_term: false
    pad: 0
    kernel_size: 1
    stride: 1
  }
}
layer {
  name: "bn2c_branch2a"
  type: "BatchNorm"
  bottom: "res2c_branch2a"
  top: "res2c_branch2a"
  param {
    lr_mult: 0
    decay_mult: 0
  }
  param {
    lr_mult: 0
    decay_mult: 0
  }
  param {
    lr_mult: 0
    decay_mult: 0
  }
  batch_norm_param {
    use_global_stats: true
  }
}
layer {
  name: "scale2c_branch2a"
  type: "Scale"
  bottom: "res2c_branch2a"
  top: "res2c_branch2a"
  param {
    lr_mult: 0
    decay_mult: 0
  }
  param {
    lr_mult: 0
    decay_mult: 0
  }
  scale_param {
    bias_term: true
  }
}
layer {
  name: "res2c_branch2a_relu"
  type: "ReLU"
  bottom: "res2c_branch2a"
  top: "res2c_branch2a"
}
layer {
  name: "res2c_branch2b"
  type: "Convolution"
  bottom: "res2c_branch2a"
  top: "res2c_branch2b"
  param {
    lr_mult: 0
  }
  convolution_param {
    num_output: 64
    bias_term: false
    pad: 1
    kernel_size: 3
    stride: 1
  }
}
layer {
  name: "bn2c_branch2b"
  type: "BatchNorm"
  bottom: "res2c_branch2b"
  top: "res2c_branch2b"
  param {
    lr_mult: 0
    decay_mult: 0
  }
  param {
    lr_mult: 0
    decay_mult: 0
  }
  param {
    lr_mult: 0
    decay_mult: 0
  }
  batch_norm_param {
    use_global_stats: true
  }
}
layer {
  name: "scale2c_branch2b"
  type: "Scale"
  bottom: "res2c_branch2b"
  top: "res2c_branch2b"
  param {
    lr_mult: 0
    decay_mult: 0
  }
  param {
    lr_mult: 0
    decay_mult: 0
  }
  scale_param {
    bias_term: true
  }
}
layer {
  name: "res2c_branch2b_relu"
  type: "ReLU"
  bottom: "res2c_branch2b"
  top: "res2c_branch2b"
}
layer {
  name: "res2c_branch2c"
  type: "Convolution"
  bottom: "res2c_branch2b"
  top: "res2c_branch2c"
  param {
    lr_mult: 0
  }
  convolution_param {
    num_output: 256
    bias_term: false
    pad: 0
    kernel_size: 1
    stride: 1
  }
}
layer {
  name: "bn2c_branch2c"
  type: "BatchNorm"
  bottom: "res2c_branch2c"
  top: "res2c_branch2c"
  param {
    lr_mult: 0
    decay_mult: 0
  }
  param {
    lr_mult: 0
    decay_mult: 0
  }
  param {
    lr_mult: 0
    decay_mult: 0
  }
  batch_norm_param {
    use_global_stats: true
  }
}
layer {
  name: "scale2c_branch2c"
  type: "Scale"
  bottom: "res2c_branch2c"
  top: "res2c_branch2c"
  param {
    lr_mult: 0
    decay_mult: 0
  }
  param {
    lr_mult: 0
    decay_mult: 0
  }
  scale_param {
    bias_term: true
  }
}
layer {
  name: "res2c"
  type: "Eltwise"
  bottom: "res2b"
  bottom: "res2c_branch2c"
  top: "res2c"
}
layer {
  name: "res2c_relu"
  type: "ReLU"
  bottom: "res2c"
  top: "res2c"
}
layer {
  name: "res3a_branch1"
  type: "Convolution"
  bottom: "res2c"
  top: "res3a_branch1"
  param {
    lr_mult: 1
  }
  convolution_param {
    num_output: 512
    bias_term: false
    pad: 0
    kernel_size: 1
    stride: 2
  }
}
layer {
  name: "bn3a_branch1"
  type: "BatchNorm"
  bottom: "res3a_branch1"
  top: "res3a_branch1"
  param {
    lr_mult: 0
    decay_mult: 0
  }
  param {
    lr_mult: 0
    decay_mult: 0
  }
  param {
    lr_mult: 0
    decay_mult: 0
  }
  batch_norm_param {
    use_global_stats: true
  }
}
layer {
  name: "scale3a_branch1"
  type: "Scale"
  bottom: "res3a_branch1"
  top: "res3a_branch1"
  param {
    lr_mult: 0
    decay_mult: 0
  }
  param {
    lr_mult: 0
    decay_mult: 0
  }
  scale_param {
    bias_term: true
  }
}
layer {
  name: "res3a_branch2a"
  type: "Convolution"
  bottom: "res2c"
  top: "res3a_branch2a"
  param {
    lr_mult: 1
  }
  convolution_param {
    num_output: 128
    bias_term: false
    pad: 0
    kernel_size: 1
    stride: 2
  }
}
layer {
  name: "bn3a_branch2a"
  type: "BatchNorm"
  bottom: "res3a_branch2a"
  top: "res3a_branch2a"
  param {
    lr_mult: 0
    decay_mult: 0
  }
  param {
    lr_mult: 0
    decay_mult: 0
  }
  param {
    lr_mult: 0
    decay_mult: 0
  }
  batch_norm_param {
    use_global_stats: true
  }
}
layer {
  name: "scale3a_branch2a"
  type: "Scale"
  bottom: "res3a_branch2a"
  top: "res3a_branch2a"
  param {
    lr_mult: 0
    decay_mult: 0
  }
  param {
    lr_mult: 0
    decay_mult: 0
  }
  scale_param {
    bias_term: true
  }
}
layer {
  name: "res3a_branch2a_relu"
  type: "ReLU"
  bottom: "res3a_branch2a"
  top: "res3a_branch2a"
}
layer {
  name: "res3a_branch2b"
  type: "Convolution"
  bottom: "res3a_branch2a"
  top: "res3a_branch2b"
  param {
    lr_mult: 1
  }
  convolution_param {
    num_output: 128
    bias_term: false
    pad: 1
    kernel_size: 3
    stride: 1
  }
}
layer {
  name: "bn3a_branch2b"
  type: "BatchNorm"
  bottom: "res3a_branch2b"
  top: "res3a_branch2b"
  param {
    lr_mult: 0
    decay_mult: 0
  }
  param {
    lr_mult: 0
    decay_mult: 0
  }
  param {
    lr_mult: 0
    decay_mult: 0
  }
  batch_norm_param {
    use_global_stats: true
  }
}
layer {
  name: "scale3a_branch2b"
  type: "Scale"
  bottom: "res3a_branch2b"
  top: "res3a_branch2b"
  param {
    lr_mult: 0
    decay_mult: 0
  }
  param {
    lr_mult: 0
    decay_mult: 0
  }
  scale_param {
    bias_term: true
  }
}
layer {
  name: "res3a_branch2b_relu"
  type: "ReLU"
  bottom: "res3a_branch2b"
  top: "res3a_branch2b"
}
layer {
  name: "res3a_branch2c"
  type: "Convolution"
  bottom: "res3a_branch2b"
  top: "res3a_branch2c"
  param {
    lr_mult: 1
  }
  convolution_param {
    num_output: 512
    bias_term: false
    pad: 0
    kernel_size: 1
    stride: 1
  }
}
layer {
  name: "bn3a_branch2c"
  type: "BatchNorm"
  bottom: "res3a_branch2c"
  top: "res3a_branch2c"
  param {
    lr_mult: 0
    decay_mult: 0
  }
  param {
    lr_mult: 0
    decay_mult: 0
  }
  param {
    lr_mult: 0
    decay_mult: 0
  }
  batch_norm_param {
    use_global_stats: true
  }
}
layer {
  name: "scale3a_branch2c"
  type: "Scale"
  bottom: "res3a_branch2c"
  top: "res3a_branch2c"
  param {
    lr_mult: 0
    decay_mult: 0
  }
  param {
    lr_mult: 0
    decay_mult: 0
  }
  scale_param {
    bias_term: true
  }
}
layer {
  name: "res3a"
  type: "Eltwise"
  bottom: "res3a_branch1"
  bottom: "res3a_branch2c"
  top: "res3a"
}
layer {
  name: "res3a_relu"
  type: "ReLU"
  bottom: "res3a"
  top: "res3a"
}
layer {
  name: "res3b1_branch2a"
  type: "Convolution"
  bottom: "res3a"
  top: "res3b1_branch2a"
  param {
    lr_mult: 1
  }
  convolution_param {
    num_output: 128
    bias_term: false
    pad: 0
    kernel_size: 1
    stride: 1
  }
}
layer {
  name: "bn3b1_branch2a"
  type: "BatchNorm"
  bottom: "res3b1_branch2a"
  top: "res3b1_branch2a"
  param {
    lr_mult: 0
    decay_mult: 0
  }
  param {
    lr_mult: 0
    decay_mult: 0
  }
  param {
    lr_mult: 0
    decay_mult: 0
  }
  batch_norm_param {
    use_global_stats: true
  }
}
layer {
  name: "scale3b1_branch2a"
  type: "Scale"
  bottom: "res3b1_branch2a"
  top: "res3b1_branch2a"
  param {
    lr_mult: 0
    decay_mult: 0
  }
  param {
    lr_mult: 0
    decay_mult: 0
  }
  scale_param {
    bias_term: true
  }
}
layer {
  name: "res3b1_branch2a_relu"
  type: "ReLU"
  bottom: "res3b1_branch2a"
  top: "res3b1_branch2a"
}
layer {
  name: "res3b1_branch2b"
  type: "Convolution"
  bottom: "res3b1_branch2a"
  top: "res3b1_branch2b"
  param {
    lr_mult: 1
  }
  convolution_param {
    num_output: 128
    bias_term: false
    pad: 1
    kernel_size: 3
    stride: 1
  }
}
layer {
  name: "bn3b1_branch2b"
  type: "BatchNorm"
  bottom: "res3b1_branch2b"
  top: "res3b1_branch2b"
  param {
    lr_mult: 0
    decay_mult: 0
  }
  param {
    lr_mult: 0
    decay_mult: 0
  }
  param {
    lr_mult: 0
    decay_mult: 0
  }
  batch_norm_param {
    use_global_stats: true
  }
}
layer {
  name: "scale3b1_branch2b"
  type: "Scale"
  bottom: "res3b1_branch2b"
  top: "res3b1_branch2b"
  param {
    lr_mult: 0
    decay_mult: 0
  }
  param {
    lr_mult: 0
    decay_mult: 0
  }
  scale_param {
    bias_term: true
  }
}
layer {
  name: "res3b1_branch2b_relu"
  type: "ReLU"
  bottom: "res3b1_branch2b"
  top: "res3b1_branch2b"
}
layer {
  name: "res3b1_branch2c"
  type: "Convolution"
  bottom: "res3b1_branch2b"
  top: "res3b1_branch2c"
  param {
    lr_mult: 1
  }
  convolution_param {
    num_output: 512
    bias_term: false
    pad: 0
    kernel_size: 1
    stride: 1
  }
}
layer {
  name: "bn3b1_branch2c"
  type: "BatchNorm"
  bottom: "res3b1_branch2c"
  top: "res3b1_branch2c"
  param {
    lr_mult: 0
    decay_mult: 0
  }
  param {
    lr_mult: 0
    decay_mult: 0
  }
  param {
    lr_mult: 0
    decay_mult: 0
  }
  batch_norm_param {
    use_global_stats: true
  }
}
layer {
  name: "scale3b1_branch2c"
  type: "Scale"
  bottom: "res3b1_branch2c"
  top: "res3b1_branch2c"
  param {
    lr_mult: 0
    decay_mult: 0
  }
  param {
    lr_mult: 0
    decay_mult: 0
  }
  scale_param {
    bias_term: true
  }
}
layer {
  name: "res3b1"
  type: "Eltwise"
  bottom: "res3a"
  bottom: "res3b1_branch2c"
  top: "res3b1"
}
layer {
  name: "res3b1_relu"
  type: "ReLU"
  bottom: "res3b1"
  top: "res3b1"
}
layer {
  name: "res3b2_branch2a"
  type: "Convolution"
  bottom: "res3b1"
  top: "res3b2_branch2a"
  param {
    lr_mult: 1
  }
  convolution_param {
    num_output: 128
    bias_term: false
    pad: 0
    kernel_size: 1
    stride: 1
  }
}
layer {
  name: "bn3b2_branch2a"
  type: "BatchNorm"
  bottom: "res3b2_branch2a"
  top: "res3b2_branch2a"
  param {
    lr_mult: 0
    decay_mult: 0
  }
  param {
    lr_mult: 0
    decay_mult: 0
  }
  param {
    lr_mult: 0
    decay_mult: 0
  }
  batch_norm_param {
    use_global_stats: true
  }
}
layer {
  name: "scale3b2_branch2a"
  type: "Scale"
  bottom: "res3b2_branch2a"
  top: "res3b2_branch2a"
  param {
    lr_mult: 0
    decay_mult: 0
  }
  param {
    lr_mult: 0
    decay_mult: 0
  }
  scale_param {
    bias_term: true
  }
}
layer {
  name: "res3b2_branch2a_relu"
  type: "ReLU"
  bottom: "res3b2_branch2a"
  top: "res3b2_branch2a"
}
layer {
  name: "res3b2_branch2b"
  type: "Convolution"
  bottom: "res3b2_branch2a"
  top: "res3b2_branch2b"
  param {
    lr_mult: 1
  }
  convolution_param {
    num_output: 128
    bias_term: false
    pad: 1
    kernel_size: 3
    stride: 1
  }
}
layer {
  name: "bn3b2_branch2b"
  type: "BatchNorm"
  bottom: "res3b2_branch2b"
  top: "res3b2_branch2b"
  param {
    lr_mult: 0
    decay_mult: 0
  }
  param {
    lr_mult: 0
    decay_mult: 0
  }
  param {
    lr_mult: 0
    decay_mult: 0
  }
  batch_norm_param {
    use_global_stats: true
  }
}
layer {
  name: "scale3b2_branch2b"
  type: "Scale"
  bottom: "res3b2_branch2b"
  top: "res3b2_branch2b"
  param {
    lr_mult: 0
    decay_mult: 0
  }
  param {
    lr_mult: 0
    decay_mult: 0
  }
  scale_param {
    bias_term: true
  }
}
layer {
  name: "res3b2_branch2b_relu"
  type: "ReLU"
  bottom: "res3b2_branch2b"
  top: "res3b2_branch2b"
}
layer {
  name: "res3b2_branch2c"
  type: "Convolution"
  bottom: "res3b2_branch2b"
  top: "res3b2_branch2c"
  param {
    lr_mult: 1
  }
  convolution_param {
    num_output: 512
    bias_term: false
    pad: 0
    kernel_size: 1
    stride: 1
  }
}
layer {
  name: "bn3b2_branch2c"
  type: "BatchNorm"
  bottom: "res3b2_branch2c"
  top: "res3b2_branch2c"
  param {
    lr_mult: 0
    decay_mult: 0
  }
  param {
    lr_mult: 0
    decay_mult: 0
  }
  param {
    lr_mult: 0
    decay_mult: 0
  }
  batch_norm_param {
    use_global_stats: true
  }
}
layer {
  name: "scale3b2_branch2c"
  type: "Scale"
  bottom: "res3b2_branch2c"
  top: "res3b2_branch2c"
  param {
    lr_mult: 0
    decay_mult: 0
  }
  param {
    lr_mult: 0
    decay_mult: 0
  }
  scale_param {
    bias_term: true
  }
}
layer {
  name: "res3b2"
  type: "Eltwise"
  bottom: "res3b1"
  bottom: "res3b2_branch2c"
  top: "res3b2"
}
layer {
  name: "res3b2_relu"
  type: "ReLU"
  bottom: "res3b2"
  top: "res3b2"
}
layer {
  name: "res3b3_branch2a"
  type: "Convolution"
  bottom: "res3b2"
  top: "res3b3_branch2a"
  param {
    lr_mult: 1
  }
  convolution_param {
    num_output: 128
    bias_term: false
    pad: 0
    kernel_size: 1
    stride: 1
  }
}
layer {
  name: "bn3b3_branch2a"
  type: "BatchNorm"
  bottom: "res3b3_branch2a"
  top: "res3b3_branch2a"
  param {
    lr_mult: 0
    decay_mult: 0
  }
  param {
    lr_mult: 0
    decay_mult: 0
  }
  param {
    lr_mult: 0
    decay_mult: 0
  }
  batch_norm_param {
    use_global_stats: true
  }
}
layer {
  name: "scale3b3_branch2a"
  type: "Scale"
  bottom: "res3b3_branch2a"
  top: "res3b3_branch2a"
  param {
    lr_mult: 0
    decay_mult: 0
  }
  param {
    lr_mult: 0
    decay_mult: 0
  }
  scale_param {
    bias_term: true
  }
}
layer {
  name: "res3b3_branch2a_relu"
  type: "ReLU"
  bottom: "res3b3_branch2a"
  top: "res3b3_branch2a"
}
layer {
  name: "res3b3_branch2b"
  type: "Convolution"
  bottom: "res3b3_branch2a"
  top: "res3b3_branch2b"
  param {
    lr_mult: 1
  }
  convolution_param {
    num_output: 128
    bias_term: false
    pad: 1
    kernel_size: 3
    stride: 1
  }
}
layer {
  name: "bn3b3_branch2b"
  type: "BatchNorm"
  bottom: "res3b3_branch2b"
  top: "res3b3_branch2b"
  param {
    lr_mult: 0
    decay_mult: 0
  }
  param {
    lr_mult: 0
    decay_mult: 0
  }
  param {
    lr_mult: 0
    decay_mult: 0
  }
  batch_norm_param {
    use_global_stats: true
  }
}
layer {
  name: "scale3b3_branch2b"
  type: "Scale"
  bottom: "res3b3_branch2b"
  top: "res3b3_branch2b"
  param {
    lr_mult: 0
    decay_mult: 0
  }
  param {
    lr_mult: 0
    decay_mult: 0
  }
  scale_param {
    bias_term: true
  }
}
layer {
  name: "res3b3_branch2b_relu"
  type: "ReLU"
  bottom: "res3b3_branch2b"
  top: "res3b3_branch2b"
}
layer {
  name: "res3b3_branch2c"
  type: "Convolution"
  bottom: "res3b3_branch2b"
  top: "res3b3_branch2c"
  param {
    lr_mult: 1
  }
  convolution_param {
    num_output: 512
    bias_term: false
    pad: 0
    kernel_size: 1
    stride: 1
  }
}
layer {
  name: "bn3b3_branch2c"
  type: "BatchNorm"
  bottom: "res3b3_branch2c"
  top: "res3b3_branch2c"
  param {
    lr_mult: 0
    decay_mult: 0
  }
  param {
    lr_mult: 0
    decay_mult: 0
  }
  param {
    lr_mult: 0
    decay_mult: 0
  }
  batch_norm_param {
    use_global_stats: true
  }
}
layer {
  name: "scale3b3_branch2c"
  type: "Scale"
  bottom: "res3b3_branch2c"
  top: "res3b3_branch2c"
  param {
    lr_mult: 0
    decay_mult: 0
  }
  param {
    lr_mult: 0
    decay_mult: 0
  }
  scale_param {
    bias_term: true
  }
}
layer {
  name: "res3b3"
  type: "Eltwise"
  bottom: "res3b2"
  bottom: "res3b3_branch2c"
  top: "res3b3"
}
layer {
  name: "res3b3_relu"
  type: "ReLU"
  bottom: "res3b3"
  top: "res3b3"
}
layer {
  name: "res4a_branch1"
  type: "Convolution"
  bottom: "res3b3"
  top: "res4a_branch1"
  param {
    lr_mult: 1
  }
  convolution_param {
    num_output: 1024
    bias_term: false
    pad: 0
    kernel_size: 1
    stride: 2
  }
}
layer {
  name: "bn4a_branch1"
  type: "BatchNorm"
  bottom: "res4a_branch1"
  top: "res4a_branch1"
  param {
    lr_mult: 0
    decay_mult: 0
  }
  param {
    lr_mult: 0
    decay_mult: 0
  }
  param {
    lr_mult: 0
    decay_mult: 0
  }
  batch_norm_param {
    use_global_stats: true
  }
}
layer {
  name: "scale4a_branch1"
  type: "Scale"
  bottom: "res4a_branch1"
  top: "res4a_branch1"
  param {
    lr_mult: 0
    decay_mult: 0
  }
  param {
    lr_mult: 0
    decay_mult: 0
  }
  scale_param {
    bias_term: true
  }
}
layer {
  name: "res4a_branch2a"
  type: "Convolution"
  bottom: "res3b3"
  top: "res4a_branch2a"
  param {
    lr_mult: 1
  }
  convolution_param {
    num_output: 256
    bias_term: false
    pad: 0
    kernel_size: 1
    stride: 2
  }
}
layer {
  name: "bn4a_branch2a"
  type: "BatchNorm"
  bottom: "res4a_branch2a"
  top: "res4a_branch2a"
  param {
    lr_mult: 0
    decay_mult: 0
  }
  param {
    lr_mult: 0
    decay_mult: 0
  }
  param {
    lr_mult: 0
    decay_mult: 0
  }
  batch_norm_param {
    use_global_stats: true
  }
}
layer {
  name: "scale4a_branch2a"
  type: "Scale"
  bottom: "res4a_branch2a"
  top: "res4a_branch2a"
  param {
    lr_mult: 0
    decay_mult: 0
  }
  param {
    lr_mult: 0
    decay_mult: 0
  }
  scale_param {
    bias_term: true
  }
}
layer {
  name: "res4a_branch2a_relu"
  type: "ReLU"
  bottom: "res4a_branch2a"
  top: "res4a_branch2a"
}
layer {
  name: "res4a_branch2b"
  type: "Convolution"
  bottom: "res4a_branch2a"
  top: "res4a_branch2b"
  param {
    lr_mult: 1
  }
  convolution_param {
    num_output: 256
    bias_term: false
    pad: 1
    kernel_size: 3
    stride: 1
  }
}
layer {
  name: "bn4a_branch2b"
  type: "BatchNorm"
  bottom: "res4a_branch2b"
  top: "res4a_branch2b"
  param {
    lr_mult: 0
    decay_mult: 0
  }
  param {
    lr_mult: 0
    decay_mult: 0
  }
  param {
    lr_mult: 0
    decay_mult: 0
  }
  batch_norm_param {
    use_global_stats: true
  }
}
layer {
  name: "scale4a_branch2b"
  type: "Scale"
  bottom: "res4a_branch2b"
  top: "res4a_branch2b"
  param {
    lr_mult: 0
    decay_mult: 0
  }
  param {
    lr_mult: 0
    decay_mult: 0
  }
  scale_param {
    bias_term: true
  }
}
layer {
  name: "res4a_branch2b_relu"
  type: "ReLU"
  bottom: "res4a_branch2b"
  top: "res4a_branch2b"
}
layer {
  name: "res4a_branch2c"
  type: "Convolution"
  bottom: "res4a_branch2b"
  top: "res4a_branch2c"
  param {
    lr_mult: 1
  }
  convolution_param {
    num_output: 1024
    bias_term: false
    pad: 0
    kernel_size: 1
    stride: 1
  }
}
layer {
  name: "bn4a_branch2c"
  type: "BatchNorm"
  bottom: "res4a_branch2c"
  top: "res4a_branch2c"
  param {
    lr_mult: 0
    decay_mult: 0
  }
  param {
    lr_mult: 0
    decay_mult: 0
  }
  param {
    lr_mult: 0
    decay_mult: 0
  }
  batch_norm_param {
    use_global_stats: true
  }
}
layer {
  name: "scale4a_branch2c"
  type: "Scale"
  bottom: "res4a_branch2c"
  top: "res4a_branch2c"
  param {
    lr_mult: 0
    decay_mult: 0
  }
  param {
    lr_mult: 0
    decay_mult: 0
  }
  scale_param {
    bias_term: true
  }
}
layer {
  name: "res4a"
  type: "Eltwise"
  bottom: "res4a_branch1"
  bottom: "res4a_branch2c"
  top: "res4a"
}
layer {
  name: "res4a_relu"
  type: "ReLU"
  bottom: "res4a"
  top: "res4a"
}
layer {
  name: "res4b1_branch2a"
  type: "Convolution"
  bottom: "res4a"
  top: "res4b1_branch2a"
  param {
    lr_mult: 1
  }
  convolution_param {
    num_output: 256
    bias_term: false
    pad: 0
    kernel_size: 1
    stride: 1
  }
}
layer {
  name: "bn4b1_branch2a"
  type: "BatchNorm"
  bottom: "res4b1_branch2a"
  top: "res4b1_branch2a"
  param {
    lr_mult: 0
    decay_mult: 0
  }
  param {
    lr_mult: 0
    decay_mult: 0
  }
  param {
    lr_mult: 0
    decay_mult: 0
  }
  batch_norm_param {
    use_global_stats: true
  }
}
layer {
  name: "scale4b1_branch2a"
  type: "Scale"
  bottom: "res4b1_branch2a"
  top: "res4b1_branch2a"
  param {
    lr_mult: 0
    decay_mult: 0
  }
  param {
    lr_mult: 0
    decay_mult: 0
  }
  scale_param {
    bias_term: true
  }
}
layer {
  name: "res4b1_branch2a_relu"
  type: "ReLU"
  bottom: "res4b1_branch2a"
  top: "res4b1_branch2a"
}
layer {
  name: "res4b1_branch2b"
  type: "Convolution"
  bottom: "res4b1_branch2a"
  top: "res4b1_branch2b"
  param {
    lr_mult: 1
  }
  convolution_param {
    num_output: 256
    bias_term: false
    pad: 1
    kernel_size: 3
    stride: 1
  }
}
layer {
  name: "bn4b1_branch2b"
  type: "BatchNorm"
  bottom: "res4b1_branch2b"
  top: "res4b1_branch2b"
  param {
    lr_mult: 0
    decay_mult: 0
  }
  param {
    lr_mult: 0
    decay_mult: 0
  }
  param {
    lr_mult: 0
    decay_mult: 0
  }
  batch_norm_param {
    use_global_stats: true
  }
}
layer {
  name: "scale4b1_branch2b"
  type: "Scale"
  bottom: "res4b1_branch2b"
  top: "res4b1_branch2b"
  param {
    lr_mult: 0
    decay_mult: 0
  }
  param {
    lr_mult: 0
    decay_mult: 0
  }
  scale_param {
    bias_term: true
  }
}
layer {
  name: "res4b1_branch2b_relu"
  type: "ReLU"
  bottom: "res4b1_branch2b"
  top: "res4b1_branch2b"
}
layer {
  name: "res4b1_branch2c"
  type: "Convolution"
  bottom: "res4b1_branch2b"
  top: "res4b1_branch2c"
  param {
    lr_mult: 1
  }
  convolution_param {
    num_output: 1024
    bias_term: false
    pad: 0
    kernel_size: 1
    stride: 1
  }
}
layer {
  name: "bn4b1_branch2c"
  type: "BatchNorm"
  bottom: "res4b1_branch2c"
  top: "res4b1_branch2c"
  param {
    lr_mult: 0
    decay_mult: 0
  }
  param {
    lr_mult: 0
    decay_mult: 0
  }
  param {
    lr_mult: 0
    decay_mult: 0
  }
  batch_norm_param {
    use_global_stats: true
  }
}
layer {
  name: "scale4b1_branch2c"
  type: "Scale"
  bottom: "res4b1_branch2c"
  top: "res4b1_branch2c"
  param {
    lr_mult: 0
    decay_mult: 0
  }
  param {
    lr_mult: 0
    decay_mult: 0
  }
  scale_param {
    bias_term: true
  }
}
layer {
  name: "res4b1"
  type: "Eltwise"
  bottom: "res4a"
  bottom: "res4b1_branch2c"
  top: "res4b1"
}
layer {
  name: "res4b1_relu"
  type: "ReLU"
  bottom: "res4b1"
  top: "res4b1"
}
layer {
  name: "res4b2_branch2a"
  type: "Convolution"
  bottom: "res4b1"
  top: "res4b2_branch2a"
  param {
    lr_mult: 1
  }
  convolution_param {
    num_output: 256
    bias_term: false
    pad: 0
    kernel_size: 1
    stride: 1
  }
}
layer {
  name: "bn4b2_branch2a"
  type: "BatchNorm"
  bottom: "res4b2_branch2a"
  top: "res4b2_branch2a"
  param {
    lr_mult: 0
    decay_mult: 0
  }
  param {
    lr_mult: 0
    decay_mult: 0
  }
  param {
    lr_mult: 0
    decay_mult: 0
  }
  batch_norm_param {
    use_global_stats: true
  }
}
layer {
  name: "scale4b2_branch2a"
  type: "Scale"
  bottom: "res4b2_branch2a"
  top: "res4b2_branch2a"
  param {
    lr_mult: 0
    decay_mult: 0
  }
  param {
    lr_mult: 0
    decay_mult: 0
  }
  scale_param {
    bias_term: true
  }
}
layer {
  name: "res4b2_branch2a_relu"
  type: "ReLU"
  bottom: "res4b2_branch2a"
  top: "res4b2_branch2a"
}
layer {
  name: "res4b2_branch2b"
  type: "Convolution"
  bottom: "res4b2_branch2a"
  top: "res4b2_branch2b"
  param {
    lr_mult: 1
  }
  convolution_param {
    num_output: 256
    bias_term: false
    pad: 1
    kernel_size: 3
    stride: 1
  }
}
layer {
  name: "bn4b2_branch2b"
  type: "BatchNorm"
  bottom: "res4b2_branch2b"
  top: "res4b2_branch2b"
  param {
    lr_mult: 0
    decay_mult: 0
  }
  param {
    lr_mult: 0
    decay_mult: 0
  }
  param {
    lr_mult: 0
    decay_mult: 0
  }
  batch_norm_param {
    use_global_stats: true
  }
}
layer {
  name: "scale4b2_branch2b"
  type: "Scale"
  bottom: "res4b2_branch2b"
  top: "res4b2_branch2b"
  param {
    lr_mult: 0
    decay_mult: 0
  }
  
I0106 20:37:04.304889  2545 layer_factory.hpp:77] Creating layer input-data
I0106 20:37:04.669606  2545 net.cpp:100] Creating Layer input-data
I0106 20:37:04.669948  2545 net.cpp:418] input-data -> data
I0106 20:37:04.669987  2545 net.cpp:418] input-data -> im_info
I0106 20:37:04.670011  2545 net.cpp:418] input-data -> gt_boxes
RoiDataLayer: name_to_top: {'gt_boxes': 2, 'data': 0, 'im_info': 1}
I0106 20:37:08.050127  2545 net.cpp:150] Setting up input-data
I0106 20:37:08.050160  2545 net.cpp:157] Top shape: 1 3 600 1000 (1800000)
I0106 20:37:08.050174  2545 net.cpp:157] Top shape: 1 3 (3)
I0106 20:37:08.050189  2545 net.cpp:157] Top shape: 1 4 (4)
I0106 20:37:08.050199  2545 net.cpp:165] Memory required for data: 7200028
I0106 20:37:08.050215  2545 layer_factory.hpp:77] Creating layer data_input-data_0_split
I0106 20:37:08.050235  2545 net.cpp:100] Creating Layer data_input-data_0_split
I0106 20:37:08.050249  2545 net.cpp:444] data_input-data_0_split <- data
I0106 20:37:08.050266  2545 net.cpp:418] data_input-data_0_split -> data_input-data_0_split_0
I0106 20:37:08.050287  2545 net.cpp:418] data_input-data_0_split -> data_input-data_0_split_1
I0106 20:37:08.050345  2545 net.cpp:150] Setting up data_input-data_0_split
I0106 20:37:08.050362  2545 net.cpp:157] Top shape: 1 3 600 1000 (1800000)
I0106 20:37:08.050376  2545 net.cpp:157] Top shape: 1 3 600 1000 (1800000)
I0106 20:37:08.050388  2545 net.cpp:165] Memory required for data: 21600028
I0106 20:37:08.050400  2545 layer_factory.hpp:77] Creating layer im_info_input-data_1_split
I0106 20:37:08.050415  2545 net.cpp:100] Creating Layer im_info_input-data_1_split
I0106 20:37:08.050427  2545 net.cpp:444] im_info_input-data_1_split <- im_info
I0106 20:37:08.050442  2545 net.cpp:418] im_info_input-data_1_split -> im_info_input-data_1_split_0
I0106 20:37:08.050459  2545 net.cpp:418] im_info_input-data_1_split -> im_info_input-data_1_split_1
I0106 20:37:08.050508  2545 net.cpp:150] Setting up im_info_input-data_1_split
I0106 20:37:08.050524  2545 net.cpp:157] Top shape: 1 3 (3)
I0106 20:37:08.050537  2545 net.cpp:157] Top shape: 1 3 (3)
I0106 20:37:08.050549  2545 net.cpp:165] Memory required for data: 21600052
I0106 20:37:08.050560  2545 layer_factory.hpp:77] Creating layer gt_boxes_input-data_2_split
I0106 20:37:08.050575  2545 net.cpp:100] Creating Layer gt_boxes_input-data_2_split
I0106 20:37:08.050587  2545 net.cpp:444] gt_boxes_input-data_2_split <- gt_boxes
I0106 20:37:08.050601  2545 net.cpp:418] gt_boxes_input-data_2_split -> gt_boxes_input-data_2_split_0
I0106 20:37:08.050618  2545 net.cpp:418] gt_boxes_input-data_2_split -> gt_boxes_input-data_2_split_1
I0106 20:37:08.050674  2545 net.cpp:150] Setting up gt_boxes_input-data_2_split
I0106 20:37:08.050691  2545 net.cpp:157] Top shape: 1 4 (4)
I0106 20:37:08.050705  2545 net.cpp:157] Top shape: 1 4 (4)
I0106 20:37:08.050716  2545 net.cpp:165] Memory required for data: 21600084
I0106 20:37:08.050727  2545 layer_factory.hpp:77] Creating layer conv1
I0106 20:37:08.050748  2545 net.cpp:100] Creating Layer conv1
I0106 20:37:08.050760  2545 net.cpp:444] conv1 <- data_input-data_0_split_0
I0106 20:37:08.050776  2545 net.cpp:418] conv1 -> conv1
I0106 20:37:09.118999  2545 net.cpp:150] Setting up conv1
I0106 20:37:09.119053  2545 net.cpp:157] Top shape: 1 64 300 500 (9600000)
I0106 20:37:09.119076  2545 net.cpp:165] Memory required for data: 60000084
I0106 20:37:09.119132  2545 layer_factory.hpp:77] Creating layer bn_conv1
I0106 20:37:09.119148  2545 net.cpp:100] Creating Layer bn_conv1
I0106 20:37:09.119158  2545 net.cpp:444] bn_conv1 <- conv1
I0106 20:37:09.119166  2545 net.cpp:405] bn_conv1 -> conv1 (in-place)
I0106 20:37:09.119982  2545 net.cpp:150] Setting up bn_conv1
I0106 20:37:09.120000  2545 net.cpp:157] Top shape: 1 64 300 500 (9600000)
I0106 20:37:09.120008  2545 net.cpp:165] Memory required for data: 98400084
I0106 20:37:09.120035  2545 layer_factory.hpp:77] Creating layer scale_conv1
I0106 20:37:09.120061  2545 net.cpp:100] Creating Layer scale_conv1
I0106 20:37:09.120080  2545 net.cpp:444] scale_conv1 <- conv1
I0106 20:37:09.120105  2545 net.cpp:405] scale_conv1 -> conv1 (in-place)
I0106 20:37:09.120172  2545 layer_factory.hpp:77] Creating layer scale_conv1
I0106 20:37:09.120450  2545 net.cpp:150] Setting up scale_conv1
I0106 20:37:09.120460  2545 net.cpp:157] Top shape: 1 64 300 500 (9600000)
I0106 20:37:09.120466  2545 net.cpp:165] Memory required for data: 136800084
I0106 20:37:09.120491  2545 layer_factory.hpp:77] Creating layer conv1_relu
I0106 20:37:09.120501  2545 net.cpp:100] Creating Layer conv1_relu
I0106 20:37:09.120522  2545 net.cpp:444] conv1_relu <- conv1
I0106 20:37:09.120543  2545 net.cpp:405] conv1_relu -> conv1 (in-place)
I0106 20:37:09.121008  2545 net.cpp:150] Setting up conv1_relu
I0106 20:37:09.121024  2545 net.cpp:157] Top shape: 1 64 300 500 (9600000)
I0106 20:37:09.121031  2545 net.cpp:165] Memory required for data: 175200084
I0106 20:37:09.121052  2545 layer_factory.hpp:77] Creating layer pool1
I0106 20:37:09.121063  2545 net.cpp:100] Creating Layer pool1
I0106 20:37:09.121084  2545 net.cpp:444] pool1 <- conv1
I0106 20:37:09.121106  2545 net.cpp:418] pool1 -> pool1
I0106 20:37:09.121186  2545 net.cpp:150] Setting up pool1
I0106 20:37:09.121209  2545 net.cpp:157] Top shape: 1 64 150 250 (2400000)
I0106 20:37:09.121217  2545 net.cpp:165] Memory required for data: 184800084
I0106 20:37:09.121237  2545 layer_factory.hpp:77] Creating layer pool1_pool1_0_split
I0106 20:37:09.121245  2545 net.cpp:100] Creating Layer pool1_pool1_0_split
I0106 20:37:09.121268  2545 net.cpp:444] pool1_pool1_0_split <- pool1
I0106 20:37:09.121289  2545 net.cpp:418] pool1_pool1_0_split -> pool1_pool1_0_split_0
I0106 20:37:09.121299  2545 net.cpp:418] pool1_pool1_0_split -> pool1_pool1_0_split_1
I0106 20:37:09.121361  2545 net.cpp:150] Setting up pool1_pool1_0_split
I0106 20:37:09.121383  2545 net.cpp:157] Top shape: 1 64 150 250 (2400000)
I0106 20:37:09.121403  2545 net.cpp:157] Top shape: 1 64 150 250 (2400000)
I0106 20:37:09.121423  2545 net.cpp:165] Memory required for data: 204000084
I0106 20:37:09.121430  2545 layer_factory.hpp:77] Creating layer res2a_branch1
I0106 20:37:09.121470  2545 net.cpp:100] Creating Layer res2a_branch1
I0106 20:37:09.121477  2545 net.cpp:444] res2a_branch1 <- pool1_pool1_0_split_0
I0106 20:37:09.121487  2545 net.cpp:418] res2a_branch1 -> res2a_branch1
I0106 20:37:09.122568  2545 net.cpp:150] Setting up res2a_branch1
I0106 20:37:09.122584  2545 net.cpp:157] Top shape: 1 256 150 250 (9600000)
I0106 20:37:09.122592  2545 net.cpp:165] Memory required for data: 242400084
I0106 20:37:09.122629  2545 layer_factory.hpp:77] Creating layer bn2a_branch1
I0106 20:37:09.122647  2545 net.cpp:100] Creating Layer bn2a_branch1
I0106 20:37:09.122654  2545 net.cpp:444] bn2a_branch1 <- res2a_branch1
I0106 20:37:09.122664  2545 net.cpp:405] bn2a_branch1 -> res2a_branch1 (in-place)
I0106 20:37:09.123399  2545 net.cpp:150] Setting up bn2a_branch1
I0106 20:37:09.123421  2545 net.cpp:157] Top shape: 1 256 150 250 (9600000)
I0106 20:37:09.123443  2545 net.cpp:165] Memory required for data: 280800084
I0106 20:37:09.123458  2545 layer_factory.hpp:77] Creating layer scale2a_branch1
I0106 20:37:09.123471  2545 net.cpp:100] Creating Layer scale2a_branch1
I0106 20:37:09.123479  2545 net.cpp:444] scale2a_branch1 <- res2a_branch1
I0106 20:37:09.123502  2545 net.cpp:405] scale2a_branch1 -> res2a_branch1 (in-place)
I0106 20:37:09.123594  2545 layer_factory.hpp:77] Creating layer scale2a_branch1
I0106 20:37:09.123824  2545 net.cpp:150] Setting up scale2a_branch1
I0106 20:37:09.123837  2545 net.cpp:157] Top shape: 1 256 150 250 (9600000)
I0106 20:37:09.123843  2545 net.cpp:165] Memory required for data: 319200084
I0106 20:37:09.123867  2545 layer_factory.hpp:77] Creating layer res2a_branch2a
I0106 20:37:09.123890  2545 net.cpp:100] Creating Layer res2a_branch2a
I0106 20:37:09.123914  2545 net.cpp:444] res2a_branch2a <- pool1_pool1_0_split_1
I0106 20:37:09.123935  2545 net.cpp:418] res2a_branch2a -> res2a_branch2a
I0106 20:37:09.125908  2545 net.cpp:150] Setting up res2a_branch2a
I0106 20:37:09.125929  2545 net.cpp:157] Top shape: 1 64 150 250 (2400000)
I0106 20:37:09.125952  2545 net.cpp:165] Memory required for data: 328800084
I0106 20:37:09.125962  2545 layer_factory.hpp:77] Creating layer bn2a_branch2a
I0106 20:37:09.125988  2545 net.cpp:100] Creating Layer bn2a_branch2a
I0106 20:37:09.126008  2545 net.cpp:444] bn2a_branch2a <- res2a_branch2a
I0106 20:37:09.126031  2545 net.cpp:405] bn2a_branch2a -> res2a_branch2a (in-place)
I0106 20:37:09.126247  2545 net.cpp:150] Setting up bn2a_branch2a
I0106 20:37:09.126258  2545 net.cpp:157] Top shape: 1 64 150 250 (2400000)
I0106 20:37:09.126266  2545 net.cpp:165] Memory required for data: 338400084
I0106 20:37:09.126289  2545 layer_factory.hpp:77] Creating layer scale2a_branch2a
I0106 20:37:09.126310  2545 net.cpp:100] Creating Layer scale2a_branch2a
I0106 20:37:09.126332  2545 net.cpp:444] scale2a_branch2a <- res2a_branch2a
I0106 20:37:09.126353  2545 net.cpp:405] scale2a_branch2a -> res2a_branch2a (in-place)
I0106 20:37:09.126427  2545 layer_factory.hpp:77] Creating layer scale2a_branch2a
I0106 20:37:09.126631  2545 net.cpp:150] Setting up scale2a_branch2a
I0106 20:37:09.126642  2545 net.cpp:157] Top shape: 1 64 150 250 (2400000)
I0106 20:37:09.126648  2545 net.cpp:165] Memory required for data: 348000084
I0106 20:37:09.126674  2545 layer_factory.hpp:77] Creating layer res2a_branch2a_relu
I0106 20:37:09.126713  2545 net.cpp:100] Creating Layer res2a_branch2a_relu
I0106 20:37:09.126720  2545 net.cpp:444] res2a_branch2a_relu <- res2a_branch2a
I0106 20:37:09.126744  2545 net.cpp:405] res2a_branch2a_relu -> res2a_branch2a (in-place)
I0106 20:37:09.127213  2545 net.cpp:150] Setting up res2a_branch2a_relu
I0106 20:37:09.127228  2545 net.cpp:157] Top shape: 1 64 150 250 (2400000)
I0106 20:37:09.127249  2545 net.cpp:165] Memory required for data: 357600084
I0106 20:37:09.127256  2545 layer_factory.hpp:77] Creating layer res2a_branch2b
I0106 20:37:09.127295  2545 net.cpp:100] Creating Layer res2a_branch2b
I0106 20:37:09.127302  2545 net.cpp:444] res2a_branch2b <- res2a_branch2a
I0106 20:37:09.127323  2545 net.cpp:418] res2a_branch2b -> res2a_branch2b
I0106 20:37:09.128196  2545 net.cpp:150] Setting up res2a_branch2b
I0106 20:37:09.128214  2545 net.cpp:157] Top shape: 1 64 150 250 (2400000)
I0106 20:37:09.128237  2545 net.cpp:165] Memory required for data: 367200084
I0106 20:37:09.128247  2545 layer_factory.hpp:77] Creating layer bn2a_branch2b
I0106 20:37:09.128273  2545 net.cpp:100] Creating Layer bn2a_branch2b
I0106 20:37:09.128293  2545 net.cpp:444] bn2a_branch2b <- res2a_branch2b
I0106 20:37:09.128301  2545 net.cpp:405] bn2a_branch2b -> res2a_branch2b (in-place)
I0106 20:37:09.128499  2545 net.cpp:150] Setting up bn2a_branch2b
I0106 20:37:09.128509  2545 net.cpp:157] Top shape: 1 64 150 250 (2400000)
I0106 20:37:09.128516  2545 net.cpp:165] Memory required for data: 376800084
I0106 20:37:09.128526  2545 layer_factory.hpp:77] Creating layer scale2a_branch2b
I0106 20:37:09.128535  2545 net.cpp:100] Creating Layer scale2a_branch2b
I0106 20:37:09.128541  2545 net.cpp:444] scale2a_branch2b <- res2a_branch2b
I0106 20:37:09.128564  2545 net.cpp:405] scale2a_branch2b -> res2a_branch2b (in-place)
I0106 20:37:09.128638  2545 layer_factory.hpp:77] Creating layer scale2a_branch2b
I0106 20:37:09.128839  2545 net.cpp:150] Setting up scale2a_branch2b
I0106 20:37:09.128849  2545 net.cpp:157] Top shape: 1 64 150 250 (2400000)
I0106 20:37:09.128855  2545 net.cpp:165] Memory required for data: 386400084
I0106 20:37:09.128864  2545 layer_factory.hpp:77] Creating layer res2a_branch2b_relu
I0106 20:37:09.128871  2545 net.cpp:100] Creating Layer res2a_branch2b_relu
I0106 20:37:09.128880  2545 net.cpp:444] res2a_branch2b_relu <- res2a_branch2b
I0106 20:37:09.128887  2545 net.cpp:405] res2a_branch2b_relu -> res2a_branch2b (in-place)
I0106 20:37:09.129364  2545 net.cpp:150] Setting up res2a_branch2b_relu
I0106 20:37:09.129379  2545 net.cpp:157] Top shape: 1 64 150 250 (2400000)
I0106 20:37:09.129400  2545 net.cpp:165] Memory required for data: 396000084
I0106 20:37:09.129421  2545 layer_factory.hpp:77] Creating layer res2a_branch2c
I0106 20:37:09.129446  2545 net.cpp:100] Creating Layer res2a_branch2c
I0106 20:37:09.129453  2545 net.cpp:444] res2a_branch2c <- res2a_branch2b
I0106 20:37:09.129462  2545 net.cpp:418] res2a_branch2c -> res2a_branch2c
I0106 20:37:09.130329  2545 net.cpp:150] Setting up res2a_branch2c
I0106 20:37:09.130360  2545 net.cpp:157] Top shape: 1 256 150 250 (9600000)
I0106 20:37:09.130368  2545 net.cpp:165] Memory required for data: 434400084
I0106 20:37:09.130378  2545 layer_factory.hpp:77] Creating layer bn2a_branch2c
I0106 20:37:09.130388  2545 net.cpp:100] Creating Layer bn2a_branch2c
I0106 20:37:09.130395  2545 net.cpp:444] bn2a_branch2c <- res2a_branch2c
I0106 20:37:09.130404  2545 net.cpp:405] bn2a_branch2c -> res2a_branch2c (in-place)
I0106 20:37:09.130575  2545 net.cpp:150] Setting up bn2a_branch2c
I0106 20:37:09.130586  2545 net.cpp:157] Top shape: 1 256 150 250 (9600000)
I0106 20:37:09.130594  2545 net.cpp:165] Memory required for data: 472800084
I0106 20:37:09.130604  2545 layer_factory.hpp:77] Creating layer scale2a_branch2c
I0106 20:37:09.130614  2545 net.cpp:100] Creating Layer scale2a_branch2c
I0106 20:37:09.130621  2545 net.cpp:444] scale2a_branch2c <- res2a_branch2c
I0106 20:37:09.130630  2545 net.cpp:405] scale2a_branch2c -> res2a_branch2c (in-place)
I0106 20:37:09.130666  2545 layer_factory.hpp:77] Creating layer scale2a_branch2c
I0106 20:37:09.130823  2545 net.cpp:150] Setting up scale2a_branch2c
I0106 20:37:09.130834  2545 net.cpp:157] Top shape: 1 256 150 250 (9600000)
I0106 20:37:09.130841  2545 net.cpp:165] Memory required for data: 511200084
I0106 20:37:09.130864  2545 layer_factory.hpp:77] Creating layer res2a
I0106 20:37:09.130874  2545 net.cpp:100] Creating Layer res2a
I0106 20:37:09.130882  2545 net.cpp:444] res2a <- res2a_branch1
I0106 20:37:09.130904  2545 net.cpp:444] res2a <- res2a_branch2c
I0106 20:37:09.130928  2545 net.cpp:418] res2a -> res2a
I0106 20:37:09.130964  2545 net.cpp:150] Setting up res2a
I0106 20:37:09.130990  2545 net.cpp:157] Top shape: 1 256 150 250 (9600000)
I0106 20:37:09.130996  2545 net.cpp:165] Memory required for data: 549600084
I0106 20:37:09.131019  2545 layer_factory.hpp:77] Creating layer res2a_relu
I0106 20:37:09.131043  2545 net.cpp:100] Creating Layer res2a_relu
I0106 20:37:09.131064  2545 net.cpp:444] res2a_relu <- res2a
I0106 20:37:09.131073  2545 net.cpp:405] res2a_relu -> res2a (in-place)
I0106 20:37:09.131268  2545 net.cpp:150] Setting up res2a_relu
I0106 20:37:09.131280  2545 net.cpp:157] Top shape: 1 256 150 250 (9600000)
I0106 20:37:09.131287  2545 net.cpp:165] Memory required for data: 588000084
I0106 20:37:09.131316  2545 layer_factory.hpp:77] Creating layer res2a_res2a_relu_0_split
I0106 20:37:09.131340  2545 net.cpp:100] Creating Layer res2a_res2a_relu_0_split
I0106 20:37:09.131347  2545 net.cpp:444] res2a_res2a_relu_0_split <- res2a
I0106 20:37:09.131356  2545 net.cpp:418] res2a_res2a_relu_0_split -> res2a_res2a_relu_0_split_0
I0106 20:37:09.131366  2545 net.cpp:418] res2a_res2a_relu_0_split -> res2a_res2a_relu_0_split_1
I0106 20:37:09.131454  2545 net.cpp:150] Setting up res2a_res2a_relu_0_split
I0106 20:37:09.131477  2545 net.cpp:157] Top shape: 1 256 150 250 (9600000)
I0106 20:37:09.131485  2545 net.cpp:157] Top shape: 1 256 150 250 (9600000)
I0106 20:37:09.131505  2545 net.cpp:165] Memory required for data: 664800084
I0106 20:37:09.131513  2545 layer_factory.hpp:77] Creating layer res2b_branch2a
I0106 20:37:09.131551  2545 net.cpp:100] Creating Layer res2b_branch2a
I0106 20:37:09.131572  2545 net.cpp:444] res2b_branch2a <- res2a_res2a_relu_0_split_0
I0106 20:37:09.131582  2545 net.cpp:418] res2b_branch2a -> res2b_branch2a
I0106 20:37:09.132921  2545 net.cpp:150] Setting up res2b_branch2a
I0106 20:37:09.132944  2545 net.cpp:157] Top shape: 1 64 150 250 (2400000)
I0106 20:37:09.132966  2545 net.cpp:165] Memory required for data: 674400084
I0106 20:37:09.132977  2545 layer_factory.hpp:77] Creating layer bn2b_branch2a
I0106 20:37:09.133000  2545 net.cpp:100] Creating Layer bn2b_branch2a
I0106 20:37:09.133021  2545 net.cpp:444] bn2b_branch2a <- res2b_branch2a
I0106 20:37:09.133044  2545 net.cpp:405] bn2b_branch2a -> res2b_branch2a (in-place)
I0106 20:37:09.133818  2545 net.cpp:150] Setting up bn2b_branch2a
I0106 20:37:09.133836  2545 net.cpp:157] Top shape: 1 64 150 250 (2400000)
I0106 20:37:09.133857  2545 net.cpp:165] Memory required for data: 684000084
I0106 20:37:09.133872  2545 layer_factory.hpp:77] Creating layer scale2b_branch2a
I0106 20:37:09.133898  2545 net.cpp:100] Creating Layer scale2b_branch2a
I0106 20:37:09.133918  2545 net.cpp:444] scale2b_branch2a <- res2b_branch2a
I0106 20:37:09.133942  2545 net.cpp:405] scale2b_branch2a -> res2b_branch2a (in-place)
I0106 20:37:09.134034  2545 layer_factory.hpp:77] Creating layer scale2b_branch2a
I0106 20:37:09.134184  2545 net.cpp:150] Setting up scale2b_branch2a
I0106 20:37:09.134196  2545 net.cpp:157] Top shape: 1 64 150 250 (2400000)
I0106 20:37:09.134202  2545 net.cpp:165] Memory required for data: 693600084
I0106 20:37:09.134227  2545 layer_factory.hpp:77] Creating layer res2b_branch2a_relu
I0106 20:37:09.134235  2545 net.cpp:100] Creating Layer res2b_branch2a_relu
I0106 20:37:09.134243  2545 net.cpp:444] res2b_branch2a_relu <- res2b_branch2a
I0106 20:37:09.134251  2545 net.cpp:405] res2b_branch2a_relu -> res2b_branch2a (in-place)
I0106 20:37:09.134438  2545 net.cpp:150] Setting up res2b_branch2a_relu
I0106 20:37:09.134450  2545 net.cpp:157] Top shape: 1 64 150 250 (2400000)
I0106 20:37:09.134457  2545 net.cpp:165] Memory required for data: 703200084
I0106 20:37:09.134477  2545 layer_factory.hpp:77] Creating layer res2b_branch2b
I0106 20:37:09.134490  2545 net.cpp:100] Creating Layer res2b_branch2b
I0106 20:37:09.134496  2545 net.cpp:444] res2b_branch2b <- res2b_branch2a
I0106 20:37:09.134521  2545 net.cpp:418] res2b_branch2b -> res2b_branch2b
I0106 20:37:09.135390  2545 net.cpp:150] Setting up res2b_branch2b
I0106 20:37:09.135408  2545 net.cpp:157] Top shape: 1 64 150 250 (2400000)
I0106 20:37:09.135416  2545 net.cpp:165] Memory required for data: 712800084
I0106 20:37:09.135426  2545 layer_factory.hpp:77] Creating layer bn2b_branch2b
I0106 20:37:09.135437  2545 net.cpp:100] Creating Layer bn2b_branch2b
I0106 20:37:09.135445  2545 net.cpp:444] bn2b_branch2b <- res2b_branch2b
I0106 20:37:09.135454  2545 net.cpp:405] bn2b_branch2b -> res2b_branch2b (in-place)
I0106 20:37:09.135609  2545 net.cpp:150] Setting up bn2b_branch2b
I0106 20:37:09.135620  2545 net.cpp:157] Top shape: 1 64 150 250 (2400000)
I0106 20:37:09.135627  2545 net.cpp:165] Memory required for data: 722400084
I0106 20:37:09.135674  2545 layer_factory.hpp:77] Creating layer scale2b_branch2b
I0106 20:37:09.135716  2545 net.cpp:100] Creating Layer scale2b_branch2b
I0106 20:37:09.135728  2545 net.cpp:444] scale2b_branch2b <- res2b_branch2b
I0106 20:37:09.135737  2545 net.cpp:405] scale2b_branch2b -> res2b_branch2b (in-place)
I0106 20:37:09.135787  2545 layer_factory.hpp:77] Creating layer scale2b_branch2b
I0106 20:37:09.135913  2545 net.cpp:150] Setting up scale2b_branch2b
I0106 20:37:09.135924  2545 net.cpp:157] Top shape: 1 64 150 250 (2400000)
I0106 20:37:09.135931  2545 net.cpp:165] Memory required for data: 732000084
I0106 20:37:09.135941  2545 layer_factory.hpp:77] Creating layer res2b_branch2b_relu
I0106 20:37:09.135951  2545 net.cpp:100] Creating Layer res2b_branch2b_relu
I0106 20:37:09.135957  2545 net.cpp:444] res2b_branch2b_relu <- res2b_branch2b
I0106 20:37:09.135967  2545 net.cpp:405] res2b_branch2b_relu -> res2b_branch2b (in-place)
I0106 20:37:09.136101  2545 net.cpp:150] Setting up res2b_branch2b_relu
I0106 20:37:09.136114  2545 net.cpp:157] Top shape: 1 64 150 250 (2400000)
I0106 20:37:09.136121  2545 net.cpp:165] Memory required for data: 741600084
I0106 20:37:09.136129  2545 layer_factory.hpp:77] Creating layer res2b_branch2c
I0106 20:37:09.136139  2545 net.cpp:100] Creating Layer res2b_branch2c
I0106 20:37:09.136147  2545 net.cpp:444] res2b_branch2c <- res2b_branch2b
I0106 20:37:09.136157  2545 net.cpp:418] res2b_branch2c -> res2b_branch2c
I0106 20:37:09.137238  2545 net.cpp:150] Setting up res2b_branch2c
I0106 20:37:09.137255  2545 net.cpp:157] Top shape: 1 256 150 250 (9600000)
I0106 20:37:09.137264  2545 net.cpp:165] Memory required for data: 780000084
I0106 20:37:09.137272  2545 layer_factory.hpp:77] Creating layer bn2b_branch2c
I0106 20:37:09.137284  2545 net.cpp:100] Creating Layer bn2b_branch2c
I0106 20:37:09.137291  2545 net.cpp:444] bn2b_branch2c <- res2b_branch2c
I0106 20:37:09.137300  2545 net.cpp:405] bn2b_branch2c -> res2b_branch2c (in-place)
I0106 20:37:09.137457  2545 net.cpp:150] Setting up bn2b_branch2c
I0106 20:37:09.137470  2545 net.cpp:157] Top shape: 1 256 150 250 (9600000)
I0106 20:37:09.137476  2545 net.cpp:165] Memory required for data: 818400084
I0106 20:37:09.137486  2545 layer_factory.hpp:77] Creating layer scale2b_branch2c
I0106 20:37:09.137511  2545 net.cpp:100] Creating Layer scale2b_branch2c
I0106 20:37:09.137519  2545 net.cpp:444] scale2b_branch2c <- res2b_branch2c
I0106 20:37:09.137531  2545 net.cpp:405] scale2b_branch2c -> res2b_branch2c (in-place)
I0106 20:37:09.137607  2545 layer_factory.hpp:77] Creating layer scale2b_branch2c
I0106 20:37:09.137753  2545 net.cpp:150] Setting up scale2b_branch2c
I0106 20:37:09.137765  2545 net.cpp:157] Top shape: 1 256 150 250 (9600000)
I0106 20:37:09.137771  2545 net.cpp:165] Memory required for data: 856800084
I0106 20:37:09.137795  2545 layer_factory.hpp:77] Creating layer res2b
I0106 20:37:09.137820  2545 net.cpp:100] Creating Layer res2b
I0106 20:37:09.137841  2545 net.cpp:444] res2b <- res2a_res2a_relu_0_split_1
I0106 20:37:09.137862  2545 net.cpp:444] res2b <- res2b_branch2c
I0106 20:37:09.137886  2545 net.cpp:418] res2b -> res2b
I0106 20:37:09.137923  2545 net.cpp:150] Setting up res2b
I0106 20:37:09.137946  2545 net.cpp:157] Top shape: 1 256 150 250 (9600000)
I0106 20:37:09.137966  2545 net.cpp:165] Memory required for data: 895200084
I0106 20:37:09.137974  2545 layer_factory.hpp:77] Creating layer res2b_relu
I0106 20:37:09.137995  2545 net.cpp:100] Creating Layer res2b_relu
I0106 20:37:09.138001  2545 net.cpp:444] res2b_relu <- res2b
I0106 20:37:09.138010  2545 net.cpp:405] res2b_relu -> res2b (in-place)
I0106 20:37:09.138149  2545 net.cpp:150] Setting up res2b_relu
I0106 20:37:09.138161  2545 net.cpp:157] Top shape: 1 256 150 250 (9600000)
I0106 20:37:09.138169  2545 net.cpp:165] Memory required for data: 933600084
I0106 20:37:09.138176  2545 layer_factory.hpp:77] Creating layer res2b_res2b_relu_0_split
I0106 20:37:09.138185  2545 net.cpp:100] Creating Layer res2b_res2b_relu_0_split
I0106 20:37:09.138192  2545 net.cpp:444] res2b_res2b_relu_0_split <- res2b
I0106 20:37:09.138202  2545 net.cpp:418] res2b_res2b_relu_0_split -> res2b_res2b_relu_0_split_0
I0106 20:37:09.138216  2545 net.cpp:418] res2b_res2b_relu_0_split -> res2b_res2b_relu_0_split_1
I0106 20:37:09.138252  2545 net.cpp:150] Setting up res2b_res2b_relu_0_split
I0106 20:37:09.138262  2545 net.cpp:157] Top shape: 1 256 150 250 (9600000)
I0106 20:37:09.138270  2545 net.cpp:157] Top shape: 1 256 150 250 (9600000)
I0106 20:37:09.138278  2545 net.cpp:165] Memory required for data: 1010400084
I0106 20:37:09.138284  2545 layer_factory.hpp:77] Creating layer res2c_branch2a
I0106 20:37:09.138294  2545 net.cpp:100] Creating Layer res2c_branch2a
I0106 20:37:09.138317  2545 net.cpp:444] res2c_branch2a <- res2b_res2b_relu_0_split_0
I0106 20:37:09.138327  2545 net.cpp:418] res2c_branch2a -> res2c_branch2a
I0106 20:37:09.139145  2545 net.cpp:150] Setting up res2c_branch2a
I0106 20:37:09.139163  2545 net.cpp:157] Top shape: 1 64 150 250 (2400000)
I0106 20:37:09.139170  2545 net.cpp:165] Memory required for data: 1020000084
I0106 20:37:09.139180  2545 layer_factory.hpp:77] Creating layer bn2c_branch2a
I0106 20:37:09.139190  2545 net.cpp:100] Creating Layer bn2c_branch2a
I0106 20:37:09.139199  2545 net.cpp:444] bn2c_branch2a <- res2c_branch2a
I0106 20:37:09.139207  2545 net.cpp:405] bn2c_branch2a -> res2c_branch2a (in-place)
I0106 20:37:09.139370  2545 net.cpp:150] Setting up bn2c_branch2a
I0106 20:37:09.139381  2545 net.cpp:157] Top shape: 1 64 150 250 (2400000)
I0106 20:37:09.139389  2545 net.cpp:165] Memory required for data: 1029600084
I0106 20:37:09.139400  2545 layer_factory.hpp:77] Creating layer scale2c_branch2a
I0106 20:37:09.139408  2545 net.cpp:100] Creating Layer scale2c_branch2a
I0106 20:37:09.139416  2545 net.cpp:444] scale2c_branch2a <- res2c_branch2a
I0106 20:37:09.139425  2545 net.cpp:405] scale2c_branch2a -> res2c_branch2a (in-place)
I0106 20:37:09.139461  2545 layer_factory.hpp:77] Creating layer scale2c_branch2a
I0106 20:37:09.139582  2545 net.cpp:150] Setting up scale2c_branch2a
I0106 20:37:09.139595  2545 net.cpp:157] Top shape: 1 64 150 250 (2400000)
I0106 20:37:09.139601  2545 net.cpp:165] Memory required for data: 1039200084
I0106 20:37:09.139611  2545 layer_factory.hpp:77] Creating layer res2c_branch2a_relu
I0106 20:37:09.139619  2545 net.cpp:100] Creating Layer res2c_branch2a_relu
I0106 20:37:09.139627  2545 net.cpp:444] res2c_branch2a_relu <- res2c_branch2a
I0106 20:37:09.139636  2545 net.cpp:405] res2c_branch2a_relu -> res2c_branch2a (in-place)
I0106 20:37:09.140090  2545 net.cpp:150] Setting up res2c_branch2a_relu
I0106 20:37:09.140106  2545 net.cpp:157] Top shape: 1 64 150 250 (2400000)
I0106 20:37:09.140115  2545 net.cpp:165] Memory required for data: 1048800084
I0106 20:37:09.140121  2545 layer_factory.hpp:77] Creating layer res2c_branch2b
I0106 20:37:09.140132  2545 net.cpp:100] Creating Layer res2c_branch2b
I0106 20:37:09.140141  2545 net.cpp:444] res2c_branch2b <- res2c_branch2a
I0106 20:37:09.140151  2545 net.cpp:418] res2c_branch2b -> res2c_branch2b
I0106 20:37:09.140962  2545 net.cpp:150] Setting up res2c_branch2b
I0106 20:37:09.140980  2545 net.cpp:157] Top shape: 1 64 150 250 (2400000)
I0106 20:37:09.140986  2545 net.cpp:165] Memory required for data: 1058400084
I0106 20:37:09.140996  2545 layer_factory.hpp:77] Creating layer bn2c_branch2b
I0106 20:37:09.141006  2545 net.cpp:100] Creating Layer bn2c_branch2b
I0106 20:37:09.141014  2545 net.cpp:444] bn2c_branch2b <- res2c_branch2b
I0106 20:37:09.141023  2545 net.cpp:405] bn2c_branch2b -> res2c_branch2b (in-place)
I0106 20:37:09.141731  2545 net.cpp:150] Setting up bn2c_branch2b
I0106 20:37:09.141752  2545 net.cpp:157] Top shape: 1 64 150 250 (2400000)
I0106 20:37:09.141759  2545 net.cpp:165] Memory required for data: 1068000084
I0106 20:37:09.141770  2545 layer_factory.hpp:77] Creating layer scale2c_branch2b
I0106 20:37:09.141796  2545 net.cpp:100] Creating Layer scale2c_branch2b
I0106 20:37:09.141818  2545 net.cpp:444] scale2c_branch2b <- res2c_branch2b
I0106 20:37:09.141827  2545 net.cpp:405] scale2c_branch2b -> res2c_branch2b (in-place)
I0106 20:37:09.141880  2545 layer_factory.hpp:77] Creating layer scale2c_branch2b
I0106 20:37:09.142015  2545 net.cpp:150] Setting up scale2c_branch2b
I0106 20:37:09.142027  2545 net.cpp:157] Top shape: 1 64 150 250 (2400000)
I0106 20:37:09.142035  2545 net.cpp:165] Memory required for data: 1077600084
I0106 20:37:09.142045  2545 layer_factory.hpp:77] Creating layer res2c_branch2b_relu
I0106 20:37:09.142053  2545 net.cpp:100] Creating Layer res2c_branch2b_relu
I0106 20:37:09.142060  2545 net.cpp:444] res2c_branch2b_relu <- res2c_branch2b
I0106 20:37:09.142069  2545 net.cpp:405] res2c_branch2b_relu -> res2c_branch2b (in-place)
I0106 20:37:09.142499  2545 net.cpp:150] Setting up res2c_branch2b_relu
I0106 20:37:09.142515  2545 net.cpp:157] Top shape: 1 64 150 250 (2400000)
I0106 20:37:09.142524  2545 net.cpp:165] Memory required for data: 1087200084
I0106 20:37:09.142531  2545 layer_factory.hpp:77] Creating layer res2c_branch2c
I0106 20:37:09.142542  2545 net.cpp:100] Creating Layer res2c_branch2c
I0106 20:37:09.142549  2545 net.cpp:444] res2c_branch2c <- res2c_branch2b
I0106 20:37:09.142560  2545 net.cpp:418] res2c_branch2c -> res2c_branch2c
I0106 20:37:09.143379  2545 net.cpp:150] Setting up res2c_branch2c
I0106 20:37:09.143396  2545 net.cpp:157] Top shape: 1 256 150 250 (9600000)
I0106 20:37:09.143404  2545 net.cpp:165] Memory required for data: 1125600084
I0106 20:37:09.143414  2545 layer_factory.hpp:77] Creating layer bn2c_branch2c
I0106 20:37:09.143424  2545 net.cpp:100] Creating Layer bn2c_branch2c
I0106 20:37:09.143432  2545 net.cpp:444] bn2c_branch2c <- res2c_branch2c
I0106 20:37:09.143441  2545 net.cpp:405] bn2c_branch2c -> res2c_branch2c (in-place)
I0106 20:37:09.143601  2545 net.cpp:150] Setting up bn2c_branch2c
I0106 20:37:09.143612  2545 net.cpp:157] Top shape: 1 256 150 250 (9600000)
I0106 20:37:09.143620  2545 net.cpp:165] Memory required for data: 1164000084
I0106 20:37:09.143630  2545 layer_factory.hpp:77] Creating layer scale2c_branch2c
I0106 20:37:09.143643  2545 net.cpp:100] Creating Layer scale2c_branch2c
I0106 20:37:09.143668  2545 net.cpp:444] scale2c_branch2c <- res2c_branch2c
I0106 20:37:09.143695  2545 net.cpp:405] scale2c_branch2c -> res2c_branch2c (in-place)
I0106 20:37:09.143759  2545 layer_factory.hpp:77] Creating layer scale2c_branch2c
I0106 20:37:09.143889  2545 net.cpp:150] Setting up scale2c_branch2c
I0106 20:37:09.143895  2545 net.cpp:157] Top shape: 1 256 150 250 (9600000)
I0106 20:37:09.143898  2545 net.cpp:165] Memory required for data: 1202400084
I0106 20:37:09.143905  2545 layer_factory.hpp:77] Creating layer res2c
I0106 20:37:09.143924  2545 net.cpp:100] Creating Layer res2c
I0106 20:37:09.143927  2545 net.cpp:444] res2c <- res2b_res2b_relu_0_split_1
I0106 20:37:09.143929  2545 net.cpp:444] res2c <- res2c_branch2c
I0106 20:37:09.143932  2545 net.cpp:418] res2c -> res2c
I0106 20:37:09.143965  2545 net.cpp:150] Setting up res2c
I0106 20:37:09.143968  2545 net.cpp:157] Top shape: 1 256 150 250 (9600000)
I0106 20:37:09.143970  2545 net.cpp:165] Memory required for data: 1240800084
I0106 20:37:09.143985  2545 layer_factory.hpp:77] Creating layer res2c_relu
I0106 20:37:09.143988  2545 net.cpp:100] Creating Layer res2c_relu
I0106 20:37:09.143990  2545 net.cpp:444] res2c_relu <- res2c
I0106 20:37:09.143993  2545 net.cpp:405] res2c_relu -> res2c (in-place)
I0106 20:37:09.144152  2545 net.cpp:150] Setting up res2c_relu
I0106 20:37:09.144158  2545 net.cpp:157] Top shape: 1 256 150 250 (9600000)
I0106 20:37:09.144160  2545 net.cpp:165] Memory required for data: 1279200084
I0106 20:37:09.144162  2545 layer_factory.hpp:77] Creating layer res2c_res2c_relu_0_split
I0106 20:37:09.144166  2545 net.cpp:100] Creating Layer res2c_res2c_relu_0_split
I0106 20:37:09.144167  2545 net.cpp:444] res2c_res2c_relu_0_split <- res2c
I0106 20:37:09.144186  2545 net.cpp:418] res2c_res2c_relu_0_split -> res2c_res2c_relu_0_split_0
I0106 20:37:09.144191  2545 net.cpp:418] res2c_res2c_relu_0_split -> res2c_res2c_relu_0_split_1
I0106 20:37:09.144232  2545 net.cpp:150] Setting up res2c_res2c_relu_0_split
I0106 20:37:09.144235  2545 net.cpp:157] Top shape: 1 256 150 250 (9600000)
I0106 20:37:09.144251  2545 net.cpp:157] Top shape: 1 256 150 250 (9600000)
I0106 20:37:09.144253  2545 net.cpp:165] Memory required for data: 1356000084
I0106 20:37:09.144254  2545 layer_factory.hpp:77] Creating layer res3a_branch1
I0106 20:37:09.144273  2545 net.cpp:100] Creating Layer res3a_branch1
I0106 20:37:09.144275  2545 net.cpp:444] res3a_branch1 <- res2c_res2c_relu_0_split_0
I0106 20:37:09.144279  2545 net.cpp:418] res3a_branch1 -> res3a_branch1
I0106 20:37:09.145946  2545 net.cpp:150] Setting up res3a_branch1
I0106 20:37:09.145957  2545 net.cpp:157] Top shape: 1 512 75 125 (4800000)
I0106 20:37:09.145961  2545 net.cpp:165] Memory required for data: 1375200084
I0106 20:37:09.145964  2545 layer_factory.hpp:77] Creating layer bn3a_branch1
I0106 20:37:09.145983  2545 net.cpp:100] Creating Layer bn3a_branch1
I0106 20:37:09.145987  2545 net.cpp:444] bn3a_branch1 <- res3a_branch1
I0106 20:37:09.145990  2545 net.cpp:405] bn3a_branch1 -> res3a_branch1 (in-place)
I0106 20:37:09.146708  2545 net.cpp:150] Setting up bn3a_branch1
I0106 20:37:09.146731  2545 net.cpp:157] Top shape: 1 512 75 125 (4800000)
I0106 20:37:09.146733  2545 net.cpp:165] Memory required for data: 1394400084
I0106 20:37:09.146754  2545 layer_factory.hpp:77] Creating layer scale3a_branch1
I0106 20:37:09.146760  2545 net.cpp:100] Creating Layer scale3a_branch1
I0106 20:37:09.146775  2545 net.cpp:444] scale3a_branch1 <- res3a_branch1
I0106 20:37:09.146780  2545 net.cpp:405] scale3a_branch1 -> res3a_branch1 (in-place)
I0106 20:37:09.146812  2545 layer_factory.hpp:77] Creating layer scale3a_branch1
I0106 20:37:09.146939  2545 net.cpp:150] Setting up scale3a_branch1
I0106 20:37:09.146944  2545 net.cpp:157] Top shape: 1 512 75 125 (4800000)
I0106 20:37:09.146945  2545 net.cpp:165] Memory required for data: 1413600084
I0106 20:37:09.146950  2545 layer_factory.hpp:77] Creating layer res3a_branch2a
I0106 20:37:09.146955  2545 net.cpp:100] Creating Layer res3a_branch2a
I0106 20:37:09.146972  2545 net.cpp:444] res3a_branch2a <- res2c_res2c_relu_0_split_1
I0106 20:37:09.146976  2545 net.cpp:418] res3a_branch2a -> res3a_branch2a
I0106 20:37:09.148129  2545 net.cpp:150] Setting up res3a_branch2a
I0106 20:37:09.148157  2545 net.cpp:157] Top shape: 1 128 75 125 (1200000)
I0106 20:37:09.148165  2545 net.cpp:165] Memory required for data: 1418400084
I0106 20:37:09.148192  2545 layer_factory.hpp:77] Creating layer bn3a_branch2a
I0106 20:37:09.148218  2545 net.cpp:100] Creating Layer bn3a_branch2a
I0106 20:37:09.148239  2545 net.cpp:444] bn3a_branch2a <- res3a_branch2a
I0106 20:37:09.148262  2545 net.cpp:405] bn3a_branch2a -> res3a_branch2a (in-place)
I0106 20:37:09.148457  2545 net.cpp:150] Setting up bn3a_branch2a
I0106 20:37:09.148468  2545 net.cpp:157] Top shape: 1 128 75 125 (1200000)
I0106 20:37:09.148473  2545 net.cpp:165] Memory required for data: 1423200084
I0106 20:37:09.148483  2545 layer_factory.hpp:77] Creating layer scale3a_branch2a
I0106 20:37:09.148492  2545 net.cpp:100] Creating Layer scale3a_branch2a
I0106 20:37:09.148500  2545 net.cpp:444] scale3a_branch2a <- res3a_branch2a
I0106 20:37:09.148509  2545 net.cpp:405] scale3a_branch2a -> res3a_branch2a (in-place)
I0106 20:37:09.148598  2545 layer_factory.hpp:77] Creating layer scale3a_branch2a
I0106 20:37:09.148777  2545 net.cpp:150] Setting up scale3a_branch2a
I0106 20:37:09.148787  2545 net.cpp:157] Top shape: 1 128 75 125 (1200000)
I0106 20:37:09.148793  2545 net.cpp:165] Memory required for data: 1428000084
I0106 20:37:09.148816  2545 layer_factory.hpp:77] Creating layer res3a_branch2a_relu
I0106 20:37:09.148838  2545 net.cpp:100] Creating Layer res3a_branch2a_relu
I0106 20:37:09.148859  2545 net.cpp:444] res3a_branch2a_relu <- res3a_branch2a
I0106 20:37:09.148869  2545 net.cpp:405] res3a_branch2a_relu -> res3a_branch2a (in-place)
I0106 20:37:09.149037  2545 net.cpp:150] Setting up res3a_branch2a_relu
I0106 20:37:09.149049  2545 net.cpp:157] Top shape: 1 128 75 125 (1200000)
I0106 20:37:09.149056  2545 net.cpp:165] Memory required for data: 1432800084
I0106 20:37:09.149076  2545 layer_factory.hpp:77] Creating layer res3a_branch2b
I0106 20:37:09.149093  2545 net.cpp:100] Creating Layer res3a_branch2b
I0106 20:37:09.149102  2545 net.cpp:444] res3a_branch2b <- res3a_branch2a
I0106 20:37:09.149112  2545 net.cpp:418] res3a_branch2b -> res3a_branch2b
I0106 20:37:09.151037  2545 net.cpp:150] Setting up res3a_branch2b
I0106 20:37:09.151060  2545 net.cpp:157] Top shape: 1 128 75 125 (1200000)
I0106 20:37:09.151082  2545 net.cpp:165] Memory required for data: 1437600084
I0106 20:37:09.151104  2545 layer_factory.hpp:77] Creating layer bn3a_branch2b
I0106 20:37:09.151127  2545 net.cpp:100] Creating Layer bn3a_branch2b
I0106 20:37:09.151149  2545 net.cpp:444] bn3a_branch2b <- res3a_branch2b
I0106 20:37:09.151172  2545 net.cpp:405] bn3a_branch2b -> res3a_branch2b (in-place)
I0106 20:37:09.151342  2545 net.cpp:150] Setting up bn3a_branch2b
I0106 20:37:09.151353  2545 net.cpp:157] Top shape: 1 128 75 125 (1200000)
I0106 20:37:09.151360  2545 net.cpp:165] Memory required for data: 1442400084
I0106 20:37:09.151386  2545 layer_factory.hpp:77] Creating layer scale3a_branch2b
I0106 20:37:09.151399  2545 net.cpp:100] Creating Layer scale3a_branch2b
I0106 20:37:09.151407  2545 net.cpp:444] scale3a_branch2b <- res3a_branch2b
I0106 20:37:09.151417  2545 net.cpp:405] scale3a_branch2b -> res3a_branch2b (in-place)
I0106 20:37:09.151479  2545 layer_factory.hpp:77] Creating layer scale3a_branch2b
I0106 20:37:09.151582  2545 net.cpp:150] Setting up scale3a_branch2b
I0106 20:37:09.151592  2545 net.cpp:157] Top shape: 1 128 75 125 (1200000)
I0106 20:37:09.151600  2545 net.cpp:165] Memory required for data: 1447200084
I0106 20:37:09.151609  2545 layer_factory.hpp:77] Creating layer res3a_branch2b_relu
I0106 20:37:09.151619  2545 net.cpp:100] Creating Layer res3a_branch2b_relu
I0106 20:37:09.151675  2545 net.cpp:444] res3a_branch2b_relu <- res3a_branch2b
I0106 20:37:09.151698  2545 net.cpp:405] res3a_branch2b_relu -> res3a_branch2b (in-place)
I0106 20:37:09.151865  2545 net.cpp:150] Setting up res3a_branch2b_relu
I0106 20:37:09.151877  2545 net.cpp:157] Top shape: 1 128 75 125 (1200000)
I0106 20:37:09.151885  2545 net.cpp:165] Memory required for data: 1452000084
I0106 20:37:09.151892  2545 layer_factory.hpp:77] Creating layer res3a_branch2c
I0106 20:37:09.151903  2545 net.cpp:100] Creating Layer res3a_branch2c
I0106 20:37:09.151911  2545 net.cpp:444] res3a_branch2c <- res3a_branch2b
I0106 20:37:09.151921  2545 net.cpp:418] res3a_branch2c -> res3a_branch2c
I0106 20:37:09.153061  2545 net.cpp:150] Setting up res3a_branch2c
I0106 20:37:09.153079  2545 net.cpp:157] Top shape: 1 512 75 125 (4800000)
I0106 20:37:09.153087  2545 net.cpp:165] Memory required for data: 1471200084
I0106 20:37:09.153096  2545 layer_factory.hpp:77] Creating layer bn3a_branch2c
I0106 20:37:09.153106  2545 net.cpp:100] Creating Layer bn3a_branch2c
I0106 20:37:09.153115  2545 net.cpp:444] bn3a_branch2c <- res3a_branch2c
I0106 20:37:09.153125  2545 net.cpp:405] bn3a_branch2c -> res3a_branch2c (in-place)
I0106 20:37:09.153280  2545 net.cpp:150] Setting up bn3a_branch2c
I0106 20:37:09.153291  2545 net.cpp:157] Top shape: 1 512 75 125 (4800000)
I0106 20:37:09.153298  2545 net.cpp:165] Memory required for data: 1490400084
I0106 20:37:09.153309  2545 layer_factory.hpp:77] Creating layer scale3a_branch2c
I0106 20:37:09.153318  2545 net.cpp:100] Creating Layer scale3a_branch2c
I0106 20:37:09.153326  2545 net.cpp:444] scale3a_branch2c <- res3a_branch2c
I0106 20:37:09.153336  2545 net.cpp:405] scale3a_branch2c -> res3a_branch2c (in-place)
I0106 20:37:09.153369  2545 layer_factory.hpp:77] Creating layer scale3a_branch2c
I0106 20:37:09.153472  2545 net.cpp:150] Setting up scale3a_branch2c
I0106 20:37:09.153483  2545 net.cpp:157] Top shape: 1 512 75 125 (4800000)
I0106 20:37:09.153491  2545 net.cpp:165] Memory required for data: 1509600084
I0106 20:37:09.153501  2545 layer_factory.hpp:77] Creating layer res3a
I0106 20:37:09.153509  2545 net.cpp:100] Creating Layer res3a
I0106 20:37:09.153517  2545 net.cpp:444] res3a <- res3a_branch1
I0106 20:37:09.153525  2545 net.cpp:444] res3a <- res3a_branch2c
I0106 20:37:09.153539  2545 net.cpp:418] res3a -> res3a
I0106 20:37:09.153565  2545 net.cpp:150] Setting up res3a
I0106 20:37:09.153576  2545 net.cpp:157] Top shape: 1 512 75 125 (4800000)
I0106 20:37:09.153584  2545 net.cpp:165] Memory required for data: 1528800084
I0106 20:37:09.153591  2545 layer_factory.hpp:77] Creating layer res3a_relu
I0106 20:37:09.153600  2545 net.cpp:100] Creating Layer res3a_relu
I0106 20:37:09.153607  2545 net.cpp:444] res3a_relu <- res3a
I0106 20:37:09.153616  2545 net.cpp:405] res3a_relu -> res3a (in-place)
I0106 20:37:09.153764  2545 net.cpp:150] Setting up res3a_relu
I0106 20:37:09.153776  2545 net.cpp:157] Top shape: 1 512 75 125 (4800000)
I0106 20:37:09.153784  2545 net.cpp:165] Memory required for data: 1548000084
I0106 20:37:09.153791  2545 layer_factory.hpp:77] Creating layer res3a_res3a_relu_0_split
I0106 20:37:09.153801  2545 net.cpp:100] Creating Layer res3a_res3a_relu_0_split
I0106 20:37:09.153808  2545 net.cpp:444] res3a_res3a_relu_0_split <- res3a
I0106 20:37:09.153818  2545 net.cpp:418] res3a_res3a_relu_0_split -> res3a_res3a_relu_0_split_0
I0106 20:37:09.153828  2545 net.cpp:418] res3a_res3a_relu_0_split -> res3a_res3a_relu_0_split_1
I0106 20:37:09.153865  2545 net.cpp:150] Setting up res3a_res3a_relu_0_split
I0106 20:37:09.153877  2545 net.cpp:157] Top shape: 1 512 75 125 (4800000)
I0106 20:37:09.153884  2545 net.cpp:157] Top shape: 1 512 75 125 (4800000)
I0106 20:37:09.153892  2545 net.cpp:165] Memory required for data: 1586400084
I0106 20:37:09.153899  2545 layer_factory.hpp:77] Creating layer res3b1_branch2a
I0106 20:37:09.153924  2545 net.cpp:100] Creating Layer res3b1_branch2a
I0106 20:37:09.153939  2545 net.cpp:444] res3b1_branch2a <- res3a_res3a_relu_0_split_0
I0106 20:37:09.153964  2545 net.cpp:418] res3b1_branch2a -> res3b1_branch2a
I0106 20:37:09.154871  2545 net.cpp:150] Setting up res3b1_branch2a
I0106 20:37:09.154889  2545 net.cpp:157] Top shape: 1 128 75 125 (1200000)
I0106 20:37:09.154911  2545 net.cpp:165] Memory required for data: 1591200084
I0106 20:37:09.154922  2545 layer_factory.hpp:77] Creating layer bn3b1_branch2a
I0106 20:37:09.154944  2545 net.cpp:100] Creating Layer bn3b1_branch2a
I0106 20:37:09.154966  2545 net.cpp:444] bn3b1_branch2a <- res3b1_branch2a
I0106 20:37:09.154976  2545 net.cpp:405] bn3b1_branch2a -> res3b1_branch2a (in-place)
I0106 20:37:09.155143  2545 net.cpp:150] Setting up bn3b1_branch2a
I0106 20:37:09.155154  2545 net.cpp:157] Top shape: 1 128 75 125 (1200000)
I0106 20:37:09.155161  2545 net.cpp:165] Memory required for data: 1596000084
I0106 20:37:09.155171  2545 layer_factory.hpp:77] Creating layer scale3b1_branch2a
I0106 20:37:09.155181  2545 net.cpp:100] Creating Layer scale3b1_branch2a
I0106 20:37:09.155190  2545 net.cpp:444] scale3b1_branch2a <- res3b1_branch2a
I0106 20:37:09.155198  2545 net.cpp:405] scale3b1_branch2a -> res3b1_branch2a (in-place)
I0106 20:37:09.155236  2545 layer_factory.hpp:77] Creating layer scale3b1_branch2a
I0106 20:37:09.155334  2545 net.cpp:150] Setting up scale3b1_branch2a
I0106 20:37:09.155345  2545 net.cpp:157] Top shape: 1 128 75 125 (1200000)
I0106 20:37:09.155352  2545 net.cpp:165] Memory required for data: 1600800084
I0106 20:37:09.155362  2545 layer_factory.hpp:77] Creating layer res3b1_branch2a_relu
I0106 20:37:09.155371  2545 net.cpp:100] Creating Layer res3b1_branch2a_relu
I0106 20:37:09.155380  2545 net.cpp:444] res3b1_branch2a_relu <- res3b1_branch2a
I0106 20:37:09.155387  2545 net.cpp:405] res3b1_branch2a_relu -> res3b1_branch2a (in-place)
I0106 20:37:09.155527  2545 net.cpp:150] Setting up res3b1_branch2a_relu
I0106 20:37:09.155540  2545 net.cpp:157] Top shape: 1 128 75 125 (1200000)
I0106 20:37:09.155547  2545 net.cpp:165] Memory required for data: 1605600084
I0106 20:37:09.155555  2545 layer_factory.hpp:77] Creating layer res3b1_branch2b
I0106 20:37:09.155565  2545 net.cpp:100] Creating Layer res3b1_branch2b
I0106 20:37:09.155573  2545 net.cpp:444] res3b1_branch2b <- res3b1_branch2a
I0106 20:37:09.155583  2545 net.cpp:418] res3b1_branch2b -> res3b1_branch2b
I0106 20:37:09.157080  2545 net.cpp:150] Setting up res3b1_branch2b
I0106 20:37:09.157104  2545 net.cpp:157] Top shape: 1 128 75 125 (1200000)
I0106 20:37:09.157125  2545 net.cpp:165] Memory required for data: 1610400084
I0106 20:37:09.157155  2545 layer_factory.hpp:77] Creating layer bn3b1_branch2b
I0106 20:37:09.157165  2545 net.cpp:100] Creating Layer bn3b1_branch2b
I0106 20:37:09.157172  2545 net.cpp:444] bn3b1_branch2b <- res3b1_branch2b
I0106 20:37:09.157182  2545 net.cpp:405] bn3b1_branch2b -> res3b1_branch2b (in-place)
I0106 20:37:09.157366  2545 net.cpp:150] Setting up bn3b1_branch2b
I0106 20:37:09.157377  2545 net.cpp:157] Top shape: 1 128 75 125 (1200000)
I0106 20:37:09.157384  2545 net.cpp:165] Memory required for data: 1615200084
I0106 20:37:09.157409  2545 layer_factory.hpp:77] Creating layer scale3b1_branch2b
I0106 20:37:09.157433  2545 net.cpp:100] Creating Layer scale3b1_branch2b
I0106 20:37:09.157440  2545 net.cpp:444] scale3b1_branch2b <- res3b1_branch2b
I0106 20:37:09.157449  2545 net.cpp:405] scale3b1_branch2b -> res3b1_branch2b (in-place)
I0106 20:37:09.157502  2545 layer_factory.hpp:77] Creating layer scale3b1_branch2b
I0106 20:37:09.157619  2545 net.cpp:150] Setting up scale3b1_branch2b
I0106 20:37:09.157631  2545 net.cpp:157] Top shape: 1 128 75 125 (1200000)
I0106 20:37:09.157639  2545 net.cpp:165] Memory required for data: 1620000084
I0106 20:37:09.157649  2545 layer_factory.hpp:77] Creating layer res3b1_branch2b_relu
I0106 20:37:09.157657  2545 net.cpp:100] Creating Layer res3b1_branch2b_relu
I0106 20:37:09.157665  2545 net.cpp:444] res3b1_branch2b_relu <- res3b1_branch2b
I0106 20:37:09.157675  2545 net.cpp:405] res3b1_branch2b_relu -> res3b1_branch2b (in-place)
I0106 20:37:09.158114  2545 net.cpp:150] Setting up res3b1_branch2b_relu
I0106 20:37:09.158133  2545 net.cpp:157] Top shape: 1 128 75 125 (1200000)
I0106 20:37:09.158140  2545 net.cpp:165] Memory required for data: 1624800084
I0106 20:37:09.158149  2545 layer_factory.hpp:77] Creating layer res3b1_branch2c
I0106 20:37:09.158160  2545 net.cpp:100] Creating Layer res3b1_branch2c
I0106 20:37:09.158169  2545 net.cpp:444] res3b1_branch2c <- res3b1_branch2b
I0106 20:37:09.158179  2545 net.cpp:418] res3b1_branch2c -> res3b1_branch2c
I0106 20:37:09.159067  2545 net.cpp:150] Setting up res3b1_branch2c
I0106 20:37:09.159085  2545 net.cpp:157] Top shape: 1 512 75 125 (4800000)
I0106 20:37:09.159095  2545 net.cpp:165] Memory required for data: 1644000084
I0106 20:37:09.159103  2545 layer_factory.hpp:77] Creating layer bn3b1_branch2c
I0106 20:37:09.159114  2545 net.cpp:100] Creating Layer bn3b1_branch2c
I0106 20:37:09.159122  2545 net.cpp:444] bn3b1_branch2c <- res3b1_branch2c
I0106 20:37:09.159132  2545 net.cpp:405] bn3b1_branch2c -> res3b1_branch2c (in-place)
I0106 20:37:09.159292  2545 net.cpp:150] Setting up bn3b1_branch2c
I0106 20:37:09.159304  2545 net.cpp:157] Top shape: 1 512 75 125 (4800000)
I0106 20:37:09.159312  2545 net.cpp:165] Memory required for data: 1663200084
I0106 20:37:09.159323  2545 layer_factory.hpp:77] Creating layer scale3b1_branch2c
I0106 20:37:09.159332  2545 net.cpp:100] Creating Layer scale3b1_branch2c
I0106 20:37:09.159340  2545 net.cpp:444] scale3b1_branch2c <- res3b1_branch2c
I0106 20:37:09.159349  2545 net.cpp:405] scale3b1_branch2c -> res3b1_branch2c (in-place)
I0106 20:37:09.159386  2545 layer_factory.hpp:77] Creating layer scale3b1_branch2c
I0106 20:37:09.159493  2545 net.cpp:150] Setting up scale3b1_branch2c
I0106 20:37:09.159505  2545 net.cpp:157] Top shape: 1 512 75 125 (4800000)
I0106 20:37:09.159512  2545 net.cpp:165] Memory required for data: 1682400084
I0106 20:37:09.159523  2545 layer_factory.hpp:77] Creating layer res3b1
I0106 20:37:09.159531  2545 net.cpp:100] Creating Layer res3b1
I0106 20:37:09.159539  2545 net.cpp:444] res3b1 <- res3a_res3a_relu_0_split_1
I0106 20:37:09.159548  2545 net.cpp:444] res3b1 <- res3b1_branch2c
I0106 20:37:09.159559  2545 net.cpp:418] res3b1 -> res3b1
I0106 20:37:09.159584  2545 net.cpp:150] Setting up res3b1
I0106 20:37:09.159595  2545 net.cpp:157] Top shape: 1 512 75 125 (4800000)
I0106 20:37:09.159606  2545 net.cpp:165] Memory required for data: 1701600084
I0106 20:37:09.159615  2545 layer_factory.hpp:77] Creating layer res3b1_relu
I0106 20:37:09.159623  2545 net.cpp:100] Creating Layer res3b1_relu
I0106 20:37:09.159631  2545 net.cpp:444] res3b1_relu <- res3b1
I0106 20:37:09.159648  2545 net.cpp:405] res3b1_relu -> res3b1 (in-place)
I0106 20:37:09.159795  2545 net.cpp:150] Setting up res3b1_relu
I0106 20:37:09.159807  2545 net.cpp:157] Top shape: 1 512 75 125 (4800000)
I0106 20:37:09.159816  2545 net.cpp:165] Memory required for data: 1720800084
I0106 20:37:09.159822  2545 layer_factory.hpp:77] Creating layer res3b1_res3b1_relu_0_split
I0106 20:37:09.159832  2545 net.cpp:100] Creating Layer res3b1_res3b1_relu_0_split
I0106 20:37:09.159840  2545 net.cpp:444] res3b1_res3b1_relu_0_split <- res3b1
I0106 20:37:09.159849  2545 net.cpp:418] res3b1_res3b1_relu_0_split -> res3b1_res3b1_relu_0_split_0
I0106 20:37:09.159860  2545 net.cpp:418] res3b1_res3b1_relu_0_split -> res3b1_res3b1_relu_0_split_1
I0106 20:37:09.159899  2545 net.cpp:150] Setting up res3b1_res3b1_relu_0_split
I0106 20:37:09.159910  2545 net.cpp:157] Top shape: 1 512 75 125 (4800000)
I0106 20:37:09.159919  2545 net.cpp:157] Top shape: 1 512 75 125 (4800000)
I0106 20:37:09.159926  2545 net.cpp:165] Memory required for data: 1759200084
I0106 20:37:09.159934  2545 layer_factory.hpp:77] Creating layer res3b2_branch2a
I0106 20:37:09.159945  2545 net.cpp:100] Creating Layer res3b2_branch2a
I0106 20:37:09.159953  2545 net.cpp:444] res3b2_branch2a <- res3b1_res3b1_relu_0_split_0
I0106 20:37:09.159962  2545 net.cpp:418] res3b2_branch2a -> res3b2_branch2a
I0106 20:37:09.160854  2545 net.cpp:150] Setting up res3b2_branch2a
I0106 20:37:09.160873  2545 net.cpp:157] Top shape: 1 128 75 125 (1200000)
I0106 20:37:09.160881  2545 net.cpp:165] Memory required for data: 1764000084
I0106 20:37:09.160890  2545 layer_factory.hpp:77] Creating layer bn3b2_branch2a
I0106 20:37:09.160902  2545 net.cpp:100] Creating Layer bn3b2_branch2a
I0106 20:37:09.160908  2545 net.cpp:444] bn3b2_branch2a <- res3b2_branch2a
I0106 20:37:09.160918  2545 net.cpp:405] bn3b2_branch2a -> res3b2_branch2a (in-place)
I0106 20:37:09.161077  2545 net.cpp:150] Setting up bn3b2_branch2a
I0106 20:37:09.161088  2545 net.cpp:157] Top shape: 1 128 75 125 (1200000)
I0106 20:37:09.161095  2545 net.cpp:165] Memory required for data: 1768800084
I0106 20:37:09.161106  2545 layer_factory.hpp:77] Creating layer scale3b2_branch2a
I0106 20:37:09.161116  2545 net.cpp:100] Creating Layer scale3b2_branch2a
I0106 20:37:09.161125  2545 net.cpp:444] scale3b2_branch2a <- res3b2_branch2a
I0106 20:37:09.161134  2545 net.cpp:405] scale3b2_branch2a -> res3b2_branch2a (in-place)
I0106 20:37:09.161171  2545 layer_factory.hpp:77] Creating layer scale3b2_branch2a
I0106 20:37:09.161274  2545 net.cpp:150] Setting up scale3b2_branch2a
I0106 20:37:09.161288  2545 net.cpp:157] Top shape: 1 128 75 125 (1200000)
I0106 20:37:09.161294  2545 net.cpp:165] Memory required for data: 1773600084
I0106 20:37:09.161304  2545 layer_factory.hpp:77] Creating layer res3b2_branch2a_relu
I0106 20:37:09.161314  2545 net.cpp:100] Creating Layer res3b2_branch2a_relu
I0106 20:37:09.161322  2545 net.cpp:444] res3b2_branch2a_relu <- res3b2_branch2a
I0106 20:37:09.161330  2545 net.cpp:405] res3b2_branch2a_relu -> res3b2_branch2a (in-place)
I0106 20:37:09.161474  2545 net.cpp:150] Setting up res3b2_branch2a_relu
I0106 20:37:09.161487  2545 net.cpp:157] Top shape: 1 128 75 125 (1200000)
I0106 20:37:09.161494  2545 net.cpp:165] Memory required for data: 1778400084
I0106 20:37:09.161502  2545 layer_factory.hpp:77] Creating layer res3b2_branch2b
I0106 20:37:09.161514  2545 net.cpp:100] Creating Layer res3b2_branch2b
I0106 20:37:09.161521  2545 net.cpp:444] res3b2_branch2b <- res3b2_branch2a
I0106 20:37:09.161531  2545 net.cpp:418] res3b2_branch2b -> res3b2_branch2b
I0106 20:37:09.163306  2545 net.cpp:150] Setting up res3b2_branch2b
I0106 20:37:09.163327  2545 net.cpp:157] Top shape: 1 128 75 125 (1200000)
I0106 20:37:09.163336  2545 net.cpp:165] Memory required for data: 1783200084
I0106 20:37:09.163350  2545 layer_factory.hpp:77] Creating layer bn3b2_branch2b
I0106 20:37:09.163362  2545 net.cpp:100] Creating Layer bn3b2_branch2b
I0106 20:37:09.163372  2545 net.cpp:444] bn3b2_branch2b <- res3b2_branch2b
I0106 20:37:09.163380  2545 net.cpp:405] bn3b2_branch2b -> res3b2_branch2b (in-place)
I0106 20:37:09.163547  2545 net.cpp:150] Setting up bn3b2_branch2b
I0106 20:37:09.163559  2545 net.cpp:157] Top shape: 1 128 75 125 (1200000)
I0106 20:37:09.163566  2545 net.cpp:165] Memory required for data: 1788000084
I0106 20:37:09.163578  2545 layer_factory.hpp:77] Creating layer scale3b2_branch2b
I0106 20:37:09.163589  2545 net.cpp:100] Creating Layer scale3b2_branch2b
I0106 20:37:09.163596  2545 net.cpp:444] scale3b2_branch2b <- res3b2_branch2b
I0106 20:37:09.163605  2545 net.cpp:405] scale3b2_branch2b -> res3b2_branch2b (in-place)
I0106 20:37:09.163650  2545 layer_factory.hpp:77] Creating layer scale3b2_branch2b
I0106 20:37:09.163758  2545 net.cpp:150] Setting up scale3b2_branch2b
I0106 20:37:09.163769  2545 net.cpp:157] Top shape: 1 128 75 125 (1200000)
I0106 20:37:09.163777  2545 net.cpp:165] Memory required for data: 1792800084
I0106 20:37:09.163787  2545 layer_factory.hpp:77] Creating layer res3b2_branch2b_relu
I0106 20:37:09.163796  2545 net.cpp:100] Creating Layer res3b2_branch2b_relu
I0106 20:37:09.163805  2545 net.cpp:444] res3b2_branch2b_relu <- res3b2_branch2b
I0106 20:37:09.163813  2545 net.cpp:405] res3b2_branch2b_relu -> res3b2_branch2b (in-place)
I0106 20:37:09.163961  2545 net.cpp:150] Setting up res3b2_branch2b_relu
I0106 20:37:09.163975  2545 net.cpp:157] Top shape: 1 128 75 125 (1200000)
I0106 20:37:09.163982  2545 net.cpp:165] Memory required for data: 1797600084
I0106 20:37:09.163990  2545 layer_factory.hpp:77] Creating layer res3b2_branch2c
I0106 20:37:09.164000  2545 net.cpp:100] Creating Layer res3b2_branch2c
I0106 20:37:09.164010  2545 net.cpp:444] res3b2_branch2c <- res3b2_branch2b
I0106 20:37:09.164018  2545 net.cpp:418] res3b2_branch2c -> res3b2_branch2c
I0106 20:37:09.165475  2545 net.cpp:150] Setting up res3b2_branch2c
I0106 20:37:09.165495  2545 net.cpp:157] Top shape: 1 512 75 125 (4800000)
I0106 20:37:09.165504  2545 net.cpp:165] Memory required for data: 1816800084
I0106 20:37:09.165514  2545 layer_factory.hpp:77] Creating layer bn3b2_branch2c
I0106 20:37:09.165525  2545 net.cpp:100] Creating Layer bn3b2_branch2c
I0106 20:37:09.165534  2545 net.cpp:444] bn3b2_branch2c <- res3b2_branch2c
I0106 20:37:09.165544  2545 net.cpp:405] bn3b2_branch2c -> res3b2_branch2c (in-place)
I0106 20:37:09.165710  2545 net.cpp:150] Setting up bn3b2_branch2c
I0106 20:37:09.165721  2545 net.cpp:157] Top shape: 1 512 75 125 (4800000)
I0106 20:37:09.165729  2545 net.cpp:165] Memory required for data: 1836000084
I0106 20:37:09.165740  2545 layer_factory.hpp:77] Creating layer scale3b2_branch2c
I0106 20:37:09.165750  2545 net.cpp:100] Creating Layer scale3b2_branch2c
I0106 20:37:09.165758  2545 net.cpp:444] scale3b2_branch2c <- res3b2_branch2c
I0106 20:37:09.165767  2545 net.cpp:405] scale3b2_branch2c -> res3b2_branch2c (in-place)
I0106 20:37:09.165804  2545 layer_factory.hpp:77] Creating layer scale3b2_branch2c
I0106 20:37:09.165913  2545 net.cpp:150] Setting up scale3b2_branch2c
I0106 20:37:09.165925  2545 net.cpp:157] Top shape: 1 512 75 125 (4800000)
I0106 20:37:09.165932  2545 net.cpp:165] Memory required for data: 1855200084
I0106 20:37:09.165942  2545 layer_factory.hpp:77] Creating layer res3b2
I0106 20:37:09.165951  2545 net.cpp:100] Creating Layer res3b2
I0106 20:37:09.165959  2545 net.cpp:444] res3b2 <- res3b1_res3b1_relu_0_split_1
I0106 20:37:09.165968  2545 net.cpp:444] res3b2 <- res3b2_branch2c
I0106 20:37:09.165977  2545 net.cpp:418] res3b2 -> res3b2
I0106 20:37:09.166005  2545 net.cpp:150] Setting up res3b2
I0106 20:37:09.166015  2545 net.cpp:157] Top shape: 1 512 75 125 (4800000)
I0106 20:37:09.166023  2545 net.cpp:165] Memory required for data: 1874400084
I0106 20:37:09.166030  2545 layer_factory.hpp:77] Creating layer res3b2_relu
I0106 20:37:09.166039  2545 net.cpp:100] Creating Layer res3b2_relu
I0106 20:37:09.166052  2545 net.cpp:444] res3b2_relu <- res3b2
I0106 20:37:09.166061  2545 net.cpp:405] res3b2_relu -> res3b2 (in-place)
I0106 20:37:09.166204  2545 net.cpp:150] Setting up res3b2_relu
I0106 20:37:09.166218  2545 net.cpp:157] Top shape: 1 512 75 125 (4800000)
I0106 20:37:09.166225  2545 net.cpp:165] Memory required for data: 1893600084
I0106 20:37:09.166232  2545 layer_factory.hpp:77] Creating layer res3b2_res3b2_relu_0_split
I0106 20:37:09.166242  2545 net.cpp:100] Creating Layer res3b2_res3b2_relu_0_split
I0106 20:37:09.166250  2545 net.cpp:444] res3b2_res3b2_relu_0_split <- res3b2
I0106 20:37:09.166260  2545 net.cpp:418] res3b2_res3b2_relu_0_split -> res3b2_res3b2_relu_0_split_0
I0106 20:37:09.166270  2545 net.cpp:418] res3b2_res3b2_relu_0_split -> res3b2_res3b2_relu_0_split_1
I0106 20:37:09.166309  2545 net.cpp:150] Setting up res3b2_res3b2_relu_0_split
I0106 20:37:09.166321  2545 net.cpp:157] Top shape: 1 512 75 125 (4800000)
I0106 20:37:09.166329  2545 net.cpp:157] Top shape: 1 512 75 125 (4800000)
I0106 20:37:09.166337  2545 net.cpp:165] Memory required for data: 1932000084
I0106 20:37:09.166343  2545 layer_factory.hpp:77] Creating layer res3b3_branch2a
I0106 20:37:09.166354  2545 net.cpp:100] Creating Layer res3b3_branch2a
I0106 20:37:09.166363  2545 net.cpp:444] res3b3_branch2a <- res3b2_res3b2_relu_0_split_0
I0106 20:37:09.166371  2545 net.cpp:418] res3b3_branch2a -> res3b3_branch2a
I0106 20:37:09.167264  2545 net.cpp:150] Setting up res3b3_branch2a
I0106 20:37:09.167282  2545 net.cpp:157] Top shape: 1 128 75 125 (1200000)
I0106 20:37:09.167290  2545 net.cpp:165] Memory required for data: 1936800084
I0106 20:37:09.167300  2545 layer_factory.hpp:77] Creating layer bn3b3_branch2a
I0106 20:37:09.167311  2545 net.cpp:100] Creating Layer bn3b3_branch2a
I0106 20:37:09.167320  2545 net.cpp:444] bn3b3_branch2a <- res3b3_branch2a
I0106 20:37:09.167328  2545 net.cpp:405] bn3b3_branch2a -> res3b3_branch2a (in-place)
I0106 20:37:09.167500  2545 net.cpp:150] Setting up bn3b3_branch2a
I0106 20:37:09.167512  2545 net.cpp:157] Top shape: 1 128 75 125 (1200000)
I0106 20:37:09.167520  2545 net.cpp:165] Memory required for data: 1941600084
I0106 20:37:09.167536  2545 layer_factory.hpp:77] Creating layer scale3b3_branch2a
I0106 20:37:09.167544  2545 net.cpp:100] Creating Layer scale3b3_branch2a
I0106 20:37:09.167553  2545 net.cpp:444] scale3b3_branch2a <- res3b3_branch2a
I0106 20:37:09.167562  2545 net.cpp:405] scale3b3_branch2a -> res3b3_branch2a (in-place)
I0106 20:37:09.167601  2545 layer_factory.hpp:77] Creating layer scale3b3_branch2a
I0106 20:37:09.167719  2545 net.cpp:150] Setting up scale3b3_branch2a
I0106 20:37:09.167733  2545 net.cpp:157] Top shape: 1 128 75 125 (1200000)
I0106 20:37:09.167742  2545 net.cpp:165] Memory required for data: 1946400084
I0106 20:37:09.167750  2545 layer_factory.hpp:77] Creating layer res3b3_branch2a_relu
I0106 20:37:09.167759  2545 net.cpp:100] Creating Layer res3b3_branch2a_relu
I0106 20:37:09.167768  2545 net.cpp:444] res3b3_branch2a_relu <- res3b3_branch2a
I0106 20:37:09.167776  2545 net.cpp:405] res3b3_branch2a_relu -> res3b3_branch2a (in-place)
I0106 20:37:09.167922  2545 net.cpp:150] Setting up res3b3_branch2a_relu
I0106 20:37:09.167934  2545 net.cpp:157] Top shape: 1 128 75 125 (1200000)
I0106 20:37:09.167942  2545 net.cpp:165] Memory required for data: 1951200084
I0106 20:37:09.167949  2545 layer_factory.hpp:77] Creating layer res3b3_branch2b
I0106 20:37:09.167960  2545 net.cpp:100] Creating Layer res3b3_branch2b
I0106 20:37:09.167968  2545 net.cpp:444] res3b3_branch2b <- res3b3_branch2a
I0106 20:37:09.167979  2545 net.cpp:418] res3b3_branch2b -> res3b3_branch2b
I0106 20:37:09.169199  2545 net.cpp:150] Setting up res3b3_branch2b
I0106 20:37:09.169217  2545 net.cpp:157] Top shape: 1 128 75 125 (1200000)
I0106 20:37:09.169226  2545 net.cpp:165] Memory required for data: 1956000084
I0106 20:37:09.169236  2545 layer_factory.hpp:77] Creating layer bn3b3_branch2b
I0106 20:37:09.169248  2545 net.cpp:100] Creating Layer bn3b3_branch2b
I0106 20:37:09.169260  2545 net.cpp:444] bn3b3_branch2b <- res3b3_branch2b
I0106 20:37:09.169270  2545 net.cpp:405] bn3b3_branch2b -> res3b3_branch2b (in-place)
I0106 20:37:09.169432  2545 net.cpp:150] Setting up bn3b3_branch2b
I0106 20:37:09.169443  2545 net.cpp:157] Top shape: 1 128 75 125 (1200000)
I0106 20:37:09.169450  2545 net.cpp:165] Memory required for data: 1960800084
I0106 20:37:09.169461  2545 layer_factory.hpp:77] Creating layer scale3b3_branch2b
I0106 20:37:09.169469  2545 net.cpp:100] Creating Layer scale3b3_branch2b
I0106 20:37:09.169477  2545 net.cpp:444] scale3b3_branch2b <- res3b3_branch2b
I0106 20:37:09.169486  2545 net.cpp:405] scale3b3_branch2b -> res3b3_branch2b (in-place)
I0106 20:37:09.169524  2545 layer_factory.hpp:77] Creating layer scale3b3_branch2b
I0106 20:37:09.169631  2545 net.cpp:150] Setting up scale3b3_branch2b
I0106 20:37:09.169641  2545 net.cpp:157] Top shape: 1 128 75 125 (1200000)
I0106 20:37:09.169649  2545 net.cpp:165] Memory required for data: 1965600084
I0106 20:37:09.169657  2545 layer_factory.hpp:77] Creating layer res3b3_branch2b_relu
I0106 20:37:09.169667  2545 net.cpp:100] Creating Layer res3b3_branch2b_relu
I0106 20:37:09.169673  2545 net.cpp:444] res3b3_branch2b_relu <- res3b3_branch2b
I0106 20:37:09.169682  2545 net.cpp:405] res3b3_branch2b_relu -> res3b3_branch2b (in-place)
I0106 20:37:09.170125  2545 net.cpp:150] Setting up res3b3_branch2b_relu
I0106 20:37:09.170142  2545 net.cpp:157] Top shape: 1 128 75 125 (1200000)
I0106 20:37:09.170150  2545 net.cpp:165] Memory required for data: 1970400084
I0106 20:37:09.170158  2545 layer_factory.hpp:77] Creating layer res3b3_branch2c
I0106 20:37:09.170169  2545 net.cpp:100] Creating Layer res3b3_branch2c
I0106 20:37:09.170177  2545 net.cpp:444] res3b3_branch2c <- res3b3_branch2b
I0106 20:37:09.170187  2545 net.cpp:418] res3b3_branch2c -> res3b3_branch2c
I0106 20:37:09.171075  2545 net.cpp:150] Setting up res3b3_branch2c
I0106 20:37:09.171093  2545 net.cpp:157] Top shape: 1 512 75 125 (4800000)
I0106 20:37:09.171102  2545 net.cpp:165] Memory required for data: 1989600084
I0106 20:37:09.171111  2545 layer_factory.hpp:77] Creating layer bn3b3_branch2c
I0106 20:37:09.171121  2545 net.cpp:100] Creating Layer bn3b3_branch2c
I0106 20:37:09.171130  2545 net.cpp:444] bn3b3_branch2c <- res3b3_branch2c
I0106 20:37:09.171139  2545 net.cpp:405] bn3b3_branch2c -> res3b3_branch2c (in-place)
I0106 20:37:09.171304  2545 net.cpp:150] Setting up bn3b3_branch2c
I0106 20:37:09.171315  2545 net.cpp:157] Top shape: 1 512 75 125 (4800000)
I0106 20:37:09.171324  2545 net.cpp:165] Memory required for data: 2008800084
I0106 20:37:09.171334  2545 layer_factory.hpp:77] Creating layer scale3b3_branch2c
I0106 20:37:09.171344  2545 net.cpp:100] Creating Layer scale3b3_branch2c
I0106 20:37:09.171352  2545 net.cpp:444] scale3b3_branch2c <- res3b3_branch2c
I0106 20:37:09.171361  2545 net.cpp:405] scale3b3_branch2c -> res3b3_branch2c (in-place)
I0106 20:37:09.171398  2545 layer_factory.hpp:77] Creating layer scale3b3_branch2c
I0106 20:37:09.171506  2545 net.cpp:150] Setting up scale3b3_branch2c
I0106 20:37:09.171517  2545 net.cpp:157] Top shape: 1 512 75 125 (4800000)
I0106 20:37:09.171525  2545 net.cpp:165] Memory required for data: 2028000084
I0106 20:37:09.171535  2545 layer_factory.hpp:77] Creating layer res3b3
I0106 20:37:09.171545  2545 net.cpp:100] Creating Layer res3b3
I0106 20:37:09.171552  2545 net.cpp:444] res3b3 <- res3b2_res3b2_relu_0_split_1
I0106 20:37:09.171561  2545 net.cpp:444] res3b3 <- res3b3_branch2c
I0106 20:37:09.171571  2545 net.cpp:418] res3b3 -> res3b3
I0106 20:37:09.171597  2545 net.cpp:150] Setting up res3b3
I0106 20:37:09.171608  2545 net.cpp:157] Top shape: 1 512 75 125 (4800000)
I0106 20:37:09.171615  2545 net.cpp:165] Memory required for data: 2047200084
I0106 20:37:09.171623  2545 layer_factory.hpp:77] Creating layer res3b3_relu
I0106 20:37:09.171633  2545 net.cpp:100] Creating Layer res3b3_relu
I0106 20:37:09.171651  2545 net.cpp:444] res3b3_relu <- res3b3
I0106 20:37:09.171661  2545 net.cpp:405] res3b3_relu -> res3b3 (in-place)
I0106 20:37:09.171810  2545 net.cpp:150] Setting up res3b3_relu
I0106 20:37:09.171823  2545 net.cpp:157] Top shape: 1 512 75 125 (4800000)
I0106 20:37:09.171830  2545 net.cpp:165] Memory required for data: 2066400084
I0106 20:37:09.171838  2545 layer_factory.hpp:77] Creating layer res3b3_res3b3_relu_0_split
I0106 20:37:09.171847  2545 net.cpp:100] Creating Layer res3b3_res3b3_relu_0_split
I0106 20:37:09.171855  2545 net.cpp:444] res3b3_res3b3_relu_0_split <- res3b3
I0106 20:37:09.171865  2545 net.cpp:418] res3b3_res3b3_relu_0_split -> res3b3_res3b3_relu_0_split_0
I0106 20:37:09.171876  2545 net.cpp:418] res3b3_res3b3_relu_0_split -> res3b3_res3b3_relu_0_split_1
I0106 20:37:09.171916  2545 net.cpp:150] Setting up res3b3_res3b3_relu_0_split
I0106 20:37:09.171927  2545 net.cpp:157] Top shape: 1 512 75 125 (4800000)
I0106 20:37:09.171936  2545 net.cpp:157] Top shape: 1 512 75 125 (4800000)
I0106 20:37:09.171942  2545 net.cpp:165] Memory required for data: 2104800084
I0106 20:37:09.171950  2545 layer_factory.hpp:77] Creating layer res4a_branch1
I0106 20:37:09.171962  2545 net.cpp:100] Creating Layer res4a_branch1
I0106 20:37:09.171970  2545 net.cpp:444] res4a_branch1 <- res3b3_res3b3_relu_0_split_0
I0106 20:37:09.171979  2545 net.cpp:418] res4a_branch1 -> res4a_branch1
I0106 20:37:09.173645  2545 net.cpp:150] Setting up res4a_branch1
I0106 20:37:09.173668  2545 net.cpp:157] Top shape: 1 1024 38 63 (2451456)
I0106 20:37:09.173676  2545 net.cpp:165] Memory required for data: 2114605908
I0106 20:37:09.173687  2545 layer_factory.hpp:77] Creating layer bn4a_branch1
I0106 20:37:09.173698  2545 net.cpp:100] Creating Layer bn4a_branch1
I0106 20:37:09.173707  2545 net.cpp:444] bn4a_branch1 <- res4a_branch1
I0106 20:37:09.173717  2545 net.cpp:405] bn4a_branch1 -> res4a_branch1 (in-place)
I0106 20:37:09.173877  2545 net.cpp:150] Setting up bn4a_branch1
I0106 20:37:09.173888  2545 net.cpp:157] Top shape: 1 1024 38 63 (2451456)
I0106 20:37:09.173895  2545 net.cpp:165] Memory required for data: 2124411732
I0106 20:37:09.173907  2545 layer_factory.hpp:77] Creating layer scale4a_branch1
I0106 20:37:09.173918  2545 net.cpp:100] Creating Layer scale4a_branch1
I0106 20:37:09.173925  2545 net.cpp:444] scale4a_branch1 <- res4a_branch1
I0106 20:37:09.173934  2545 net.cpp:405] scale4a_branch1 -> res4a_branch1 (in-place)
I0106 20:37:09.173971  2545 layer_factory.hpp:77] Creating layer scale4a_branch1
I0106 20:37:09.174078  2545 net.cpp:150] Setting up scale4a_branch1
I0106 20:37:09.174090  2545 net.cpp:157] Top shape: 1 1024 38 63 (2451456)
I0106 20:37:09.174098  2545 net.cpp:165] Memory required for data: 2134217556
I0106 20:37:09.174108  2545 layer_factory.hpp:77] Creating layer res4a_branch2a
I0106 20:37:09.174118  2545 net.cpp:100] Creating Layer res4a_branch2a
I0106 20:37:09.174127  2545 net.cpp:444] res4a_branch2a <- res3b3_res3b3_relu_0_split_1
I0106 20:37:09.174137  2545 net.cpp:418] res4a_branch2a -> res4a_branch2a
I0106 20:37:09.175083  2545 net.cpp:150] Setting up res4a_branch2a
I0106 20:37:09.175101  2545 net.cpp:157] Top shape: 1 256 38 63 (612864)
I0106 20:37:09.175110  2545 net.cpp:165] Memory required for data: 2136669012
I0106 20:37:09.175119  2545 layer_factory.hpp:77] Creating layer bn4a_branch2a
I0106 20:37:09.175130  2545 net.cpp:100] Creating Layer bn4a_branch2a
I0106 20:37:09.175138  2545 net.cpp:444] bn4a_branch2a <- res4a_branch2a
I0106 20:37:09.175149  2545 net.cpp:405] bn4a_branch2a -> res4a_branch2a (in-place)
I0106 20:37:09.175317  2545 net.cpp:150] Setting up bn4a_branch2a
I0106 20:37:09.175328  2545 net.cpp:157] Top shape: 1 256 38 63 (612864)
I0106 20:37:09.175335  2545 net.cpp:165] Memory required for data: 2139120468
I0106 20:37:09.175346  2545 layer_factory.hpp:77] Creating layer scale4a_branch2a
I0106 20:37:09.175356  2545 net.cpp:100] Creating Layer scale4a_branch2a
I0106 20:37:09.175364  2545 net.cpp:444] scale4a_branch2a <- res4a_branch2a
I0106 20:37:09.175374  2545 net.cpp:405] scale4a_branch2a -> res4a_branch2a (in-place)
I0106 20:37:09.175413  2545 layer_factory.hpp:77] Creating layer scale4a_branch2a
I0106 20:37:09.175511  2545 net.cpp:150] Setting up scale4a_branch2a
I0106 20:37:09.175528  2545 net.cpp:157] Top shape: 1 256 38 63 (612864)
I0106 20:37:09.175535  2545 net.cpp:165] Memory required for data: 2141571924
I0106 20:37:09.175545  2545 layer_factory.hpp:77] Creating layer res4a_branch2a_relu
I0106 20:37:09.175555  2545 net.cpp:100] Creating Layer res4a_branch2a_relu
I0106 20:37:09.175563  2545 net.cpp:444] res4a_branch2a_relu <- res4a_branch2a
I0106 20:37:09.175571  2545 net.cpp:405] res4a_branch2a_relu -> res4a_branch2a (in-place)
I0106 20:37:09.175731  2545 net.cpp:150] Setting up res4a_branch2a_relu
I0106 20:37:09.175746  2545 net.cpp:157] Top shape: 1 256 38 63 (612864)
I0106 20:37:09.175753  2545 net.cpp:165] Memory required for data: 2144023380
I0106 20:37:09.175761  2545 layer_factory.hpp:77] Creating layer res4a_branch2b
I0106 20:37:09.175772  2545 net.cpp:100] Creating Layer res4a_branch2b
I0106 20:37:09.175781  2545 net.cpp:444] res4a_branch2b <- res4a_branch2a
I0106 20:37:09.175791  2545 net.cpp:418] res4a_branch2b -> res4a_branch2b
I0106 20:37:09.179810  2545 net.cpp:150] Setting up res4a_branch2b
I0106 20:37:09.179842  2545 net.cpp:157] Top shape: 1 256 38 63 (612864)
I0106 20:37:09.179852  2545 net.cpp:165] Memory required for data: 2146474836
I0106 20:37:09.179862  2545 layer_factory.hpp:77] Creating layer bn4a_branch2b
I0106 20:37:09.179874  2545 net.cpp:100] Creating Layer bn4a_branch2b
I0106 20:37:09.179884  2545 net.cpp:444] bn4a_branch2b <- res4a_branch2b
I0106 20:37:09.179894  2545 net.cpp:405] bn4a_branch2b -> res4a_branch2b (in-place)
I0106 20:37:09.180073  2545 net.cpp:150] Setting up bn4a_branch2b
I0106 20:37:09.180083  2545 net.cpp:157] Top shape: 1 256 38 63 (612864)
I0106 20:37:09.180091  2545 net.cpp:165] Memory required for data: 2148926292
I0106 20:37:09.180102  2545 layer_factory.hpp:77] Creating layer scale4a_branch2b
I0106 20:37:09.180112  2545 net.cpp:100] Creating Layer scale4a_branch2b
I0106 20:37:09.180120  2545 net.cpp:444] scale4a_branch2b <- res4a_branch2b
I0106 20:37:09.180130  2545 net.cpp:405] scale4a_branch2b -> res4a_branch2b (in-place)
I0106 20:37:09.180171  2545 layer_factory.hpp:77] Creating layer scale4a_branch2b
I0106 20:37:09.180272  2545 net.cpp:150] Setting up scale4a_branch2b
I0106 20:37:09.180284  2545 net.cpp:157] Top shape: 1 256 38 63 (612864)
I0106 20:37:09.180292  2545 net.cpp:165] Memory required for data: 2151377748
I0106 20:37:09.180301  2545 layer_factory.hpp:77] Creating layer res4a_branch2b_relu
I0106 20:37:09.180310  2545 net.cpp:100] Creating Layer res4a_branch2b_relu
I0106 20:37:09.180318  2545 net.cpp:444] res4a_branch2b_relu <- res4a_branch2b
I0106 20:37:09.180327  2545 net.cpp:405] res4a_branch2b_relu -> res4a_branch2b (in-place)
I0106 20:37:09.180482  2545 net.cpp:150] Setting up res4a_branch2b_relu
I0106 20:37:09.180495  2545 net.cpp:157] Top shape: 1 256 38 63 (612864)
I0106 20:37:09.180502  2545 net.cpp:165] Memory required for data: 2153829204
I0106 20:37:09.180510  2545 layer_factory.hpp:77] Creating layer res4a_branch2c
I0106 20:37:09.180522  2545 net.cpp:100] Creating Layer res4a_branch2c
I0106 20:37:09.180531  2545 net.cpp:444] res4a_branch2c <- res4a_branch2b
I0106 20:37:09.180539  2545 net.cpp:418] res4a_branch2c -> res4a_branch2c
I0106 20:37:09.182202  2545 net.cpp:150] Setting up res4a_branch2c
I0106 20:37:09.182237  2545 net.cpp:157] Top shape: 1 1024 38 63 (2451456)
I0106 20:37:09.182245  2545 net.cpp:165] Memory required for data: 2163635028
I0106 20:37:09.182256  2545 layer_factory.hpp:77] Creating layer bn4a_branch2c
I0106 20:37:09.182267  2545 net.cpp:100] Creating Layer bn4a_branch2c
I0106 20:37:09.182276  2545 net.cpp:444] bn4a_branch2c <- res4a_branch2c
I0106 20:37:09.182284  2545 net.cpp:405] bn4a_branch2c -> res4a_branch2c (in-place)
I0106 20:37:09.182521  2545 net.cpp:150] Setting up bn4a_branch2c
I0106 20:37:09.182533  2545 net.cpp:157] Top shape: 1 1024 38 63 (2451456)
I0106 20:37:09.182543  2545 net.cpp:165] Memory required for data: 2173440852
I0106 20:37:09.182554  2545 layer_factory.hpp:77] Creating layer scale4a_branch2c
I0106 20:37:09.182571  2545 net.cpp:100] Creating Layer scale4a_branch2c
I0106 20:37:09.182580  2545 net.cpp:444] scale4a_branch2c <- res4a_branch2c
I0106 20:37:09.182590  2545 net.cpp:405] scale4a_branch2c -> res4a_branch2c (in-place)
I0106 20:37:09.182631  2545 layer_factory.hpp:77] Creating layer scale4a_branch2c
I0106 20:37:09.182739  2545 net.cpp:150] Setting up scale4a_branch2c
I0106 20:37:09.182750  2545 net.cpp:157] Top shape: 1 1024 38 63 (2451456)
I0106 20:37:09.182759  2545 net.cpp:165] Memory required for data: 2183246676
I0106 20:37:09.182767  2545 layer_factory.hpp:77] Creating layer res4a
I0106 20:37:09.182780  2545 net.cpp:100] Creating Layer res4a
I0106 20:37:09.182788  2545 net.cpp:444] res4a <- res4a_branch1
I0106 20:37:09.182797  2545 net.cpp:444] res4a <- res4a_branch2c
I0106 20:37:09.182806  2545 net.cpp:418] res4a -> res4a
I0106 20:37:09.182835  2545 net.cpp:150] Setting up res4a
I0106 20:37:09.182847  2545 net.cpp:157] Top shape: 1 1024 38 63 (2451456)
I0106 20:37:09.182853  2545 net.cpp:165] Memory required for data: 2193052500
I0106 20:37:09.182862  2545 layer_factory.hpp:77] Creating layer res4a_relu
I0106 20:37:09.182873  2545 net.cpp:100] Creating Layer res4a_relu
I0106 20:37:09.182881  2545 net.cpp:444] res4a_relu <- res4a
I0106 20:37:09.182889  2545 net.cpp:405] res4a_relu -> res4a (in-place)
I0106 20:37:09.183105  2545 net.cpp:150] Setting up res4a_relu
I0106 20:37:09.183118  2545 net.cpp:157] Top shape: 1 1024 38 63 (2451456)
I0106 20:37:09.183125  2545 net.cpp:165] Memory required for data: 2202858324
I0106 20:37:09.183146  2545 layer_factory.hpp:77] Creating layer res4a_res4a_relu_0_split
I0106 20:37:09.183156  2545 net.cpp:100] Creating Layer res4a_res4a_relu_0_split
I0106 20:37:09.183176  2545 net.cpp:444] res4a_res4a_relu_0_split <- res4a
I0106 20:37:09.183202  2545 net.cpp:418] res4a_res4a_relu_0_split -> res4a_res4a_relu_0_split_0
I0106 20:37:09.183224  2545 net.cpp:418] res4a_res4a_relu_0_split -> res4a_res4a_relu_0_split_1
I0106 20:37:09.183290  2545 net.cpp:150] Setting up res4a_res4a_relu_0_split
I0106 20:37:09.183312  2545 net.cpp:157] Top shape: 1 1024 38 63 (2451456)
I0106 20:37:09.183336  2545 net.cpp:157] Top shape: 1 1024 38 63 (2451456)
I0106 20:37:09.183342  2545 net.cpp:165] Memory required for data: 2222469972
I0106 20:37:09.183349  2545 layer_factory.hpp:77] Creating layer res4b1_branch2a
I0106 20:37:09.183388  2545 net.cpp:100] Creating Layer res4b1_branch2a
I0106 20:37:09.183396  2545 net.cpp:444] res4b1_branch2a <- res4a_res4a_relu_0_split_0
I0106 20:37:09.183419  2545 net.cpp:418] res4b1_branch2a -> res4b1_branch2a
I0106 20:37:09.184700  2545 net.cpp:150] Setting up res4b1_branch2a
I0106 20:37:09.184725  2545 net.cpp:157] Top shape: 1 256 38 63 (612864)
I0106 20:37:09.184733  2545 net.cpp:165] Memory required for data: 2224921428
I0106 20:37:09.184743  2545 layer_factory.hpp:77] Creating layer bn4b1_branch2a
I0106 20:37:09.184769  2545 net.cpp:100] Creating Layer bn4b1_branch2a
I0106 20:37:09.184792  2545 net.cpp:444] bn4b1_branch2a <- res4b1_branch2a
I0106 20:37:09.184816  2545 net.cpp:405] bn4b1_branch2a -> res4b1_branch2a (in-place)
I0106 20:37:09.185008  2545 net.cpp:150] Setting up bn4b1_branch2a
I0106 20:37:09.185019  2545 net.cpp:157] Top shape: 1 256 38 63 (612864)
I0106 20:37:09.185024  2545 net.cpp:165] Memory required for data: 2227372884
I0106 20:37:09.185050  2545 layer_factory.hpp:77] Creating layer scale4b1_branch2a
I0106 20:37:09.185071  2545 net.cpp:100] Creating Layer scale4b1_branch2a
I0106 20:37:09.185092  2545 net.cpp:444] scale4b1_branch2a <- res4b1_branch2a
I0106 20:37:09.185115  2545 net.cpp:405] scale4b1_branch2a -> res4b1_branch2a (in-place)
I0106 20:37:09.185212  2545 layer_factory.hpp:77] Creating layer scale4b1_branch2a
I0106 20:37:09.185366  2545 net.cpp:150] Setting up scale4b1_branch2a
I0106 20:37:09.185379  2545 net.cpp:157] Top shape: 1 256 38 63 (612864)
I0106 20:37:09.185385  2545 net.cpp:165] Memory required for data: 2229824340
I0106 20:37:09.185407  2545 layer_factory.hpp:77] Creating layer res4b1_branch2a_relu
I0106 20:37:09.185446  2545 net.cpp:100] Creating Layer res4b1_branch2a_relu
I0106 20:37:09.185467  2545 net.cpp:444] res4b1_branch2a_relu <- res4b1_branch2a
I0106 20:37:09.185475  2545 net.cpp:405] res4b1_branch2a_relu -> res4b1_branch2a (in-place)
I0106 20:37:09.185662  2545 net.cpp:150] Setting up res4b1_branch2a_relu
I0106 20:37:09.185673  2545 net.cpp:157] Top shape: 1 256 38 63 (612864)
I0106 20:37:09.185680  2545 net.cpp:165] Memory required for data: 2232275796
I0106 20:37:09.185688  2545 layer_factory.hpp:77] Creating layer res4b1_branch2b
I0106 20:37:09.185714  2545 net.cpp:100] Creating Layer res4b1_branch2b
I0106 20:37:09.185736  2545 net.cpp:444] res4b1_branch2b <- res4b1_branch2a
I0106 20:37:09.185760  2545 net.cpp:418] res4b1_branch2b -> res4b1_branch2b
I0106 20:37:09.187947  2545 net.cpp:150] Setting up res4b1_branch2b
I0106 20:37:09.187974  2545 net.cpp:157] Top shape: 1 256 38 63 (612864)
I0106 20:37:09.187996  2545 net.cpp:165] Memory required for data: 2234727252
I0106 20:37:09.188007  2545 layer_factory.hpp:77] Creating layer bn4b1_branch2b
I0106 20:37:09.188032  2545 net.cpp:100] Creating Layer bn4b1_branch2b
I0106 20:37:09.188055  2545 net.cpp:444] bn4b1_branch2b <- res4b1_branch2b
I0106 20:37:09.188066  2545 net.cpp:405] bn4b1_branch2b -> res4b1_branch2b (in-place)
I0106 20:37:09.188263  2545 net.cpp:150] Setting up bn4b1_branch2b
I0106 20:37:09.188274  2545 net.cpp:157] Top shape: 1 256 38 63 (612864)
I0106 20:37:09.188282  2545 net.cpp:165] Memory required for data: 2237178708
I0106 20:37:09.188305  2545 layer_factory.hpp:77] Creating layer scale4b1_branch2b
I0106 20:37:09.188318  2545 net.cpp:100] Creating Layer scale4b1_branch2b
I0106 20:37:09.188338  2545 net.cpp:444] scale4b1_branch2b <- res4b1_branch2b
I0106 20:37:09.188347  2545 net.cpp:405] scale4b1_branch2b -> res4b1_branch2b (in-place)
I0106 20:37:09.188418  2545 layer_factory.hpp:77] Creating layer scale4b1_branch2b
I0106 20:37:09.188526  2545 net.cpp:150] Setting up scale4b1_branch2b
I0106 20:37:09.188539  2545 net.cpp:157] Top shape: 1 256 38 63 (612864)
I0106 20:37:09.188546  2545 net.cpp:165] Memory required for data: 2239630164
I0106 20:37:09.188555  2545 layer_factory.hpp:77] Creating layer res4b1_branch2b_relu
I0106 20:37:09.188565  2545 net.cpp:100] Creating Layer res4b1_branch2b_relu
I0106 20:37:09.188575  2545 net.cpp:444] res4b1_branch2b_relu <- res4b1_branch2b
I0106 20:37:09.188583  2545 net.cpp:405] res4b1_branch2b_relu -> res4b1_branch2b (in-place)
I0106 20:37:09.189061  2545 net.cpp:150] Setting up res4b1_branch2b_relu
I0106 20:37:09.189079  2545 net.cpp:157] Top shape: 1 256 38 63 (612864)
I0106 20:37:09.189087  2545 net.cpp:165] Memory required for data: 2242081620
I0106 20:37:09.189095  2545 layer_factory.hpp:77] Creating layer res4b1_branch2c
I0106 20:37:09.189108  2545 net.cpp:100] Creating Layer res4b1_branch2c
I0106 20:37:09.189116  2545 net.cpp:444] res4b1_branch2c <- res4b1_branch2b
I0106 20:37:09.189127  2545 net.cpp:418] res4b1_branch2c -> res4b1_branch2c
I0106 20:37:09.190755  2545 net.cpp:150] Setting up res4b1_branch2c
I0106 20:37:09.190781  2545 net.cpp:157] Top shape: 1 1024 38 63 (2451456)
I0106 20:37:09.190790  2545 net.cpp:165] Memory required for data: 2251887444
I0106 20:37:09.190800  2545 layer_factory.hpp:77] Creating layer bn4b1_branch2c
I0106 20:37:09.190812  2545 net.cpp:100] Creating Layer bn4b1_branch2c
I0106 20:37:09.190821  2545 net.cpp:444] bn4b1_branch2c <- res4b1_branch2c
I0106 20:37:09.190836  2545 net.cpp:405] bn4b1_branch2c -> res4b1_branch2c (in-place)
I0106 20:37:09.191046  2545 net.cpp:150] Setting up bn4b1_branch2c
I0106 20:37:09.191058  2545 net.cpp:157] Top shape: 1 1024 38 63 (2451456)
I0106 20:37:09.191064  2545 net.cpp:165] Memory required for data: 2261693268
I0106 20:37:09.191089  2545 layer_factory.hpp:77] Creating layer scale4b1_branch2c
I0106 20:37:09.191118  2545 net.cpp:100] Creating Layer scale4b1_branch2c
I0106 20:37:09.191138  2545 net.cpp:444] scale4b1_branch2c <- res4b1_branch2c
I0106 20:37:09.191146  2545 net.cpp:405] scale4b1_branch2c -> res4b1_branch2c (in-place)
I0106 20:37:09.191220  2545 layer_factory.hpp:77] Creating layer scale4b1_branch2c
I0106 20:37:09.191356  2545 net.cpp:150] Setting up scale4b1_branch2c
I0106 20:37:09.191368  2545 net.cpp:157] Top shape: 1 1024 38 63 (2451456)
I0106 20:37:09.191375  2545 net.cpp:165] Memory required for data: 2271499092
I0106 20:37:09.191385  2545 layer_factory.hpp:77] Creating layer res4b1
I0106 20:37:09.191421  2545 net.cpp:100] Creating Layer res4b1
I0106 20:37:09.191431  2545 net.cpp:444] res4b1 <- res4a_res4a_relu_0_split_1
I0106 20:37:09.191438  2545 net.cpp:444] res4b1 <- res4b1_branch2c
I0106 20:37:09.191462  2545 net.cpp:418] res4b1 -> res4b1
I0106 20:37:09.191490  2545 net.cpp:150] Setting up res4b1
I0106 20:37:09.191501  2545 net.cpp:157] Top shape: 1 1024 38 63 (2451456)
I0106 20:37:09.191509  2545 net.cpp:165] Memory required for data: 2281304916
I0106 20:37:09.191515  2545 layer_factory.hpp:77] Creating layer res4b1_relu
I0106 20:37:09.191526  2545 net.cpp:100] Creating Layer res4b1_relu
I0106 20:37:09.191534  2545 net.cpp:444] res4b1_relu <- res4b1
I0106 20:37:09.191541  2545 net.cpp:405] res4b1_relu -> res4b1 (in-place)
I0106 20:37:09.192045  2545 net.cpp:150] Setting up res4b1_relu
I0106 20:37:09.192064  2545 net.cpp:157] Top shape: 1 1024 38 63 (2451456)
I0106 20:37:09.192072  2545 net.cpp:165] Memory required for data: 2291110740
I0106 20:37:09.192080  2545 layer_factory.hpp:77] Creating layer res4b1_res4b1_relu_0_split
I0106 20:37:09.192088  2545 net.cpp:100] Creating Layer res4b1_res4b1_relu_0_split
I0106 20:37:09.192095  2545 net.cpp:444] res4b1_res4b1_relu_0_split <- res4b1
I0106 20:37:09.192123  2545 net.cpp:418] res4b1_res4b1_relu_0_split -> res4b1_res4b1_relu_0_split_0
I0106 20:37:09.192148  2545 net.cpp:418] res4b1_res4b1_relu_0_split -> res4b1_res4b1_relu_0_split_1
I0106 20:37:09.192216  2545 net.cpp:150] Setting up res4b1_res4b1_relu_0_split
I0106 20:37:09.192227  2545 net.cpp:157] Top shape: 1 1024 38 63 (2451456)
I0106 20:37:09.192234  2545 net.cpp:157] Top shape: 1 1024 38 63 (2451456)
I0106 20:37:09.192255  2545 net.cpp:165] Memory required for data: 2310722388
I0106 20:37:09.192275  2545 layer_factory.hpp:77] Creating layer res4b2_branch2a
I0106 20:37:09.192298  2545 net.cpp:100] Creating Layer res4b2_branch2a
I0106 20:37:09.192319  2545 net.cpp:444] res4b2_branch2a <- res4b1_res4b1_relu_0_split_0
I0106 20:37:09.192342  2545 net.cpp:418] res4b2_branch2a -> res4b2_branch2a
I0106 20:37:09.193404  2545 net.cpp:150] Setting up res4b2_branch2a
I0106 20:37:09.193423  2545 net.cpp:157] Top shape: 1 256 38 63 (612864)
I0106 20:37:09.193431  2545 net.cpp:165] Memory required for data: 2313173844
I0106 20:37:09.193440  2545 layer_factory.hpp:77] Creating layer bn4b2_branch2a
I0106 20:37:09.193452  2545 net.cpp:100] Creating Layer bn4b2_branch2a
I0106 20:37:09.193460  2545 net.cpp:444] bn4b2_branch2a <- res4b2_branch2a
I0106 20:37:09.193471  2545 net.cpp:405] bn4b2_branch2a -> res4b2_branch2a (in-place)
I0106 20:37:09.193651  2545 net.cpp:150] Setting up bn4b2_branch2a
I0106 20:37:09.193662  2545 net.cpp:157] Top shape: 1 256 38 63 (612864)
I0106 20:37:09.193670  2545 net.cpp:165] Memory required for data: 2315625300
I0106 20:37:09.193680  2545 layer_factory.hpp:77] Creating layer scale4b2_branch2a
I0106 20:37:09.193689  2545 net.cpp:100] Creating Layer scale4b2_branch2a
I0106 20:37:09.193697  2545 net.cpp:444] scale4b2_branch2a <- res4b2_branch2a
I0106 20:37:09.193706  2545 net.cpp:405] scale4b2_branch2a -> res4b2_branch2a (in-place)
I0106 20:37:09.193747  2545 layer_factory.hpp:77] Creating layer scale4b2_branch2a
I0106 20:37:09.193851  2545 net.cpp:150] Setting up scale4b2_branch2a
I0106 20:37:09.193863  2545 net.cpp:157] Top shape: 1 256 38 63 (612864)
I0106 20:37:09.193871  2545 net.cpp:165] Memory required for data: 2318076756
I0106 20:37:09.193879  2545 layer_factory.hpp:77] Creating layer res4b2_branch2a_relu
I0106 20:37:09.193888  2545 net.cpp:100] Creating Layer res4b2_branch2a_relu
I0106 20:37:09.193897  2545 net.cpp:444] res4b2_branch2a_relu <- res4b2_branch2a
I0106 20:37:09.193905  2545 net.cpp:405] res4b2_branch2a_relu -> res4b2_branch2a (in-place)
I0106 20:37:09.194061  2545 net.cpp:150] Setting up res4b2_branch2a_relu
I0106 20:37:09.194075  2545 net.cpp:157] Top shape: 1 256 38 63 (612864)
I0106 20:37:09.194082  2545 net.cpp:165] Memory required for data: 2320528212
I0106 20:37:09.194090  2545 layer_factory.hpp:77] Creating layer res4b2_branch2b
I0106 20:37:09.194100  2545 net.cpp:100] Creating Layer res4b2_branch2b
I0106 20:37:09.194108  2545 net.cpp:444] res4b2_branch2b <- res4b2_branch2a
I0106 20:37:09.194119  2545 net.cpp:418] res4b2_branch2b -> res4b2_branch2b
I0106 20:37:09.196238  2545 net.cpp:150] Setting up res4b2_branch2b
I0106 20:37:09.196264  2545 net.cpp:157] Top shape: 1 256 38 63 (612864)
I0106 20:37:09.196272  2545 net.cpp:165] Memory required for data: 2322979668
I0106 20:37:09.196282  2545 layer_factory.hpp:77] Creating layer bn4b2_branch2b
I0106 20:37:09.196295  2545 net.cpp:100] Creating Layer bn4b2_branch2b
I0106 20:37:09.196305  2545 net.cpp:444] bn4b2_branch2b <- res4b2_branch2b
I0106 20:37:09.196315  2545 net.cpp:405] bn4b2_branch2b -> res4b2_branch2b (in-place)
I0106 20:37:09.196535  2545 net.cpp:150] Setting up bn4b2_branch2b
I0106 20:37:09.196547  2545 net.cpp:157] Top shape: 1 256 38 63 (612864)
I0106 20:37:09.196553  2545 net.cpp:165] Memory required for data: 2325431124
I0106 20:37:09.196578  2545 layer_factory.hpp:77] Creating layer scale4b2_branch2b
I0106 20:37:09.196604  2545 net.cpp:100] Creating Layer scale4b2_branch2b
I0106 20:37:09.196611  2545 net.cpp:444] scale4b2_branch2b <- res4b2_branch2b
I0106 20:37:09.196621  2545 net.cpp:405] scale4b2_branch2b -> res4b2_branch2b (in-place)
I0106 20:37:09.196693  2545 layer_factory.hpp:77] Creating layer scale4b2_branch2b
I0106 20:37:09.196844  2545 net.cpp:150] Setting up scale4b2_branch2b
I0106 20:37:09.196856  2545 net.cpp:157] Top shape: 1 256 38 63 (612864)
I0106 20:37:09.196862  2545 net.cpp:165] Memory required for data: 2327882580
I0106 20:37:09.196885  2545 layer_factory.hpp:77] Creating layer res4b2_branch2b_relu
I0106 20:37:09.196895  2545 net.cpp:100] Creating Layer res4b2_branch2b_relu
I0106 20:37:09.196918  2545 net.cpp:444] res4b2_branch2b_relu <- res4b2_branch2b
I0106 20:37:09.196943  2545 net.cpp:405] res4b2_branch2b_relu -> res4b2_branch2b (in-place)
I0106 20:37:09.197191  2545 net.cpp:150] Setting up res4b2_branch2b_relu
I0106 20:37:09.197203  2545 net.cpp:157] Top shape: 1 256 38 63 (612864)
I0106 20:37:09.197211  2545 net.cpp:165] Memory required for data: 2330334036
I0106 20:37:09.197232  2545 layer_factory.hpp:77] Creating layer res4b2_branch2c
I0106 20:37:09.197244  2545 net.cpp:100] Creating Layer res4b2_branch2c
I0106 20:37:09.197265  2545 net.cpp:444] res4b2_branch2c <- res4b2_branch2b
I0106 20:37:09.197290  2545 net.cpp:418] res4b2_branch2c -> res4b2_branch2c
I0106 20:37:09.198994  2545 net.cpp:150] Setting up res4b2_branch2c
I0106 20:37:09.199029  2545 net.cpp:157] Top shape: 1 1024 38 63 (2451456)
I0106 20:37:09.199038  2545 net.cpp:165] Memory required for data: 2340139860
I0106 20:37:09.199048  2545 layer_factory.hpp:77] Creating layer bn4b2_branch2c
I0106 20:37:09.199060  2545 net.cpp:100] Creating Layer bn4b2_branch2c
I0106 20:37:09.199069  2545 net.cpp:444] bn4b2_branch2c <- res4b2_branch2c
I0106 20:37:09.199092  2545 net.cpp:405] bn4b2_branch2c -> res4b2_branch2c (in-place)
I0106 20:37:09.199291  2545 net.cpp:150] Setting up bn4b2_branch2c
I0106 20:37:09.199303  2545 net.cpp:157] Top shape: 1 1024 38 63 (2451456)
I0106 20:37:09.199311  2545 net.cpp:165] Memory required for data: 2349945684
I0106 20:37:09.199321  2545 layer_factory.hpp:77] Creating layer scale4b2_branch2c
I0106 20:37:09.199331  2545 net.cpp:100] Creating Layer scale4b2_branch2c
I0106 20:37:09.199340  2545 net.cpp:444] scale4b2_branch2c <- res4b2_branch2c
I0106 20:37:09.199350  2545 net.cpp:405] scale4b2_branch2c -> res4b2_branch2c (in-place)
I0106 20:37:09.199389  2545 layer_factory.hpp:77] Creating layer scale4b2_branch2c
I0106 20:37:09.199502  2545 net.cpp:150] Setting up scale4b2_branch2c
I0106 20:37:09.199515  2545 net.cpp:157] Top shape: 1 1024 38 63 (2451456)
I0106 20:37:09.199528  2545 net.cpp:165] Memory required for data: 2359751508
I0106 20:37:09.199538  2545 layer_factory.hpp:77] Creating layer res4b2
I0106 20:37:09.199548  2545 net.cpp:100] Creating Layer res4b2
I0106 20:37:09.199556  2545 net.cpp:444] res4b2 <- res4b1_res4b1_relu_0_split_1
I0106 20:37:09.199565  2545 net.cpp:444] res4b2 <- res4b2_branch2c
I0106 20:37:09.199575  2545 net.cpp:418] res4b2 -> res4b2
I0106 20:37:09.199604  2545 net.cpp:150] Setting up res4b2
I0106 20:37:09.199616  2545 net.cpp:157] Top shape: 1 1024 38 63 (2451456)
I0106 20:37:09.199623  2545 net.cpp:165] Memory required for data: 2369557332
I0106 20:37:09.199630  2545 layer_factory.hpp:77] Creating layer res4b2_relu
I0106 20:37:09.199647  2545 net.cpp:100] Creating Layer res4b2_relu
I0106 20:37:09.199666  2545 net.cpp:444] res4b2_relu <- res4b2
I0106 20:37:09.199676  2545 net.cpp:405] res4b2_relu -> res4b2 (in-place)
I0106 20:37:09.199836  2545 net.cpp:150] Setting up res4b2_relu
I0106 20:37:09.199851  2545 net.cpp:157] Top shape: 1 1024 38 63 (2451456)
I0106 20:37:09.199858  2545 net.cpp:165] Memory required for data: 2379363156
I0106 20:37:09.199864  2545 layer_factory.hpp:77] Creating layer res4b2_res4b2_relu_0_split
I0106 20:37:09.199873  2545 net.cpp:100] Creating Layer res4b2_res4b2_relu_0_split
I0106 20:37:09.199880  2545 net.cpp:444] res4b2_res4b2_relu_0_split <- res4b2
I0106 20:37:09.199890  2545 net.cpp:418] res4b2_res4b2_relu_0_split -> res4b2_res4b2_relu_0_split_0
I0106 20:37:09.199903  2545 net.cpp:418] res4b2_res4b2_relu_0_split -> res4b2_res4b2_relu_0_split_1
I0106 20:37:09.200000  2545 net.cpp:150] Setting up res4b2_res4b2_relu_0_split
I0106 20:37:09.200009  2545 net.cpp:157] Top shape: 1 1024 38 63 (2451456)
I0106 20:37:09.200017  2545 net.cpp:157] Top shape: 1 1024 38 63 (2451456)
I0106 20:37:09.200038  2545 net.cpp:165] Memory required for data: 2398974804
I0106 20:37:09.200045  2545 layer_factory.hpp:77] Creating layer res4b3_branch2a
I0106 20:37:09.200057  2545 net.cpp:100] Creating Layer res4b3_branch2a
I0106 20:37:09.200079  2545 net.cpp:444] res4b3_branch2a <- res4b2_res4b2_relu_0_split_0
I0106 20:37:09.200089  2545 net.cpp:418] res4b3_branch2a -> res4b3_branch2a
I0106 20:37:09.201155  2545 net.cpp:150] Setting up res4b3_branch2a
I0106 20:37:09.201174  2545 net.cpp:157] Top shape: 1 256 38 63 (612864)
I0106 20:37:09.201195  2545 net.cpp:165] Memory required for data: 2401426260
I0106 20:37:09.201205  2545 layer_factory.hpp:77] Creating layer bn4b3_branch2a
I0106 20:37:09.201215  2545 net.cpp:100] Creating Layer bn4b3_branch2a
I0106 20:37:09.201225  2545 net.cpp:444] bn4b3_branch2a <- res4b3_branch2a
I0106 20:37:09.201234  2545 net.cpp:405] bn4b3_branch2a -> res4b3_branch2a (in-place)
I0106 20:37:09.201409  2545 net.cpp:150] Setting up bn4b3_branch2a
I0106 20:37:09.201421  2545 net.cpp:157] Top shape: 1 256 38 63 (612864)
I0106 20:37:09.201428  2545 net.cpp:165] Memory required for data: 2403877716
I0106 20:37:09.201438  2545 layer_factory.hpp:77] Creating layer scale4b3_branch2a
I0106 20:37:09.201452  2545 net.cpp:100] Creating Layer scale4b3_branch2a
I0106 20:37:09.201460  2545 net.cpp:444] scale4b3_branch2a <- res4b3_branch2a
I0106 20:37:09.201469  2545 net.cpp:405] scale4b3_branch2a -> res4b3_branch2a (in-place)
I0106 20:37:09.201511  2545 layer_factory.hpp:77] Creating layer scale4b3_branch2a
I0106 20:37:09.201622  2545 net.cpp:150] Setting up scale4b3_branch2a
I0106 20:37:09.201633  2545 net.cpp:157] Top shape: 1 256 38 63 (612864)
I0106 20:37:09.201640  2545 net.cpp:165] Memory required for data: 2406329172
I0106 20:37:09.201650  2545 layer_factory.hpp:77] Creating layer res4b3_branch2a_relu
I0106 20:37:09.201660  2545 net.cpp:100] Creating Layer res4b3_branch2a_relu
I0106 20:37:09.201668  2545 net.cpp:444] res4b3_branch2a_relu <- res4b3_branch2a
I0106 20:37:09.201678  2545 net.cpp:405] res4b3_branch2a_relu -> res4b3_branch2a (in-place)
I0106 20:37:09.201833  2545 net.cpp:150] Setting up res4b3_branch2a_relu
I0106 20:37:09.201848  2545 net.cpp:157] Top shape: 1 256 38 63 (612864)
I0106 20:37:09.201858  2545 net.cpp:165] Memory required for data: 2408780628
I0106 20:37:09.201866  2545 layer_factory.hpp:77] Creating layer res4b3_branch2b
I0106 20:37:09.201879  2545 net.cpp:100] Creating Layer res4b3_branch2b
I0106 20:37:09.201886  2545 net.cpp:444] res4b3_branch2b <- res4b3_branch2a
I0106 20:37:09.201896  2545 net.cpp:418] res4b3_branch2b -> res4b3_branch2b
I0106 20:37:09.204056  2545 net.cpp:150] Setting up res4b3_branch2b
I0106 20:37:09.204087  2545 net.cpp:157] Top shape: 1 256 38 63 (612864)
I0106 20:37:09.204095  2545 net.cpp:165] Memory required for data: 2411232084
I0106 20:37:09.204105  2545 layer_factory.hpp:77] Creating layer bn4b3_branch2b
I0106 20:37:09.204116  2545 net.cpp:100] Creating Layer bn4b3_branch2b
I0106 20:37:09.204124  2545 net.cpp:444] bn4b3_branch2b <- res4b3_branch2b
I0106 20:37:09.204135  2545 net.cpp:405] bn4b3_branch2b -> res4b3_branch2b (in-place)
I0106 20:37:09.204321  2545 net.cpp:150] Setting up bn4b3_branch2b
I0106 20:37:09.204334  2545 net.cpp:157] Top shape: 1 256 38 63 (612864)
I0106 20:37:09.204340  2545 net.cpp:165] Memory required for data: 2413683540
I0106 20:37:09.204351  2545 layer_factory.hpp:77] Creating layer scale4b3_branch2b
I0106 20:37:09.204361  2545 net.cpp:100] Creating Layer scale4b3_branch2b
I0106 20:37:09.204370  2545 net.cpp:444] scale4b3_branch2b <- res4b3_branch2b
I0106 20:37:09.204380  2545 net.cpp:405] scale4b3_branch2b -> res4b3_branch2b (in-place)
I0106 20:37:09.204422  2545 layer_factory.hpp:77] Creating layer scale4b3_branch2b
I0106 20:37:09.204532  2545 net.cpp:150] Setting up scale4b3_branch2b
I0106 20:37:09.204545  2545 net.cpp:157] Top shape: 1 256 38 63 (612864)
I0106 20:37:09.204552  2545 net.cpp:165] Memory required for data: 2416134996
I0106 20:37:09.204561  2545 layer_factory.hpp:77] Creating layer res4b3_branch2b_relu
I0106 20:37:09.204572  2545 net.cpp:100] Creating Layer res4b3_branch2b_relu
I0106 20:37:09.204581  2545 net.cpp:444] res4b3_branch2b_relu <- res4b3_branch2b
I0106 20:37:09.204591  2545 net.cpp:405] res4b3_branch2b_relu -> res4b3_branch2b (in-place)
I0106 20:37:09.205063  2545 net.cpp:150] Setting up res4b3_branch2b_relu
I0106 20:37:09.205080  2545 net.cpp:157] Top shape: 1 256 38 63 (612864)
I0106 20:37:09.205088  2545 net.cpp:165] Memory required for data: 2418586452
I0106 20:37:09.205096  2545 layer_factory.hpp:77] Creating layer res4b3_branch2c
I0106 20:37:09.205108  2545 net.cpp:100] Creating Layer res4b3_branch2c
I0106 20:37:09.205130  2545 net.cpp:444] res4b3_branch2c <- res4b3_branch2b
I0106 20:37:09.205154  2545 net.cpp:418] res4b3_branch2c -> res4b3_branch2c
I0106 20:37:09.206499  2545 net.cpp:150] Setting up res4b3_branch2c
I0106 20:37:09.206521  2545 net.cpp:157] Top shape: 1 1024 38 63 (2451456)
I0106 20:37:09.206528  2545 net.cpp:165] Memory required for data: 2428392276
I0106 20:37:09.206537  2545 layer_factory.hpp:77] Creating layer bn4b3_branch2c
I0106 20:37:09.206549  2545 net.cpp:100] Creating Layer bn4b3_branch2c
I0106 20:37:09.206558  2545 net.cpp:444] bn4b3_branch2c <- res4b3_branch2c
I0106 20:37:09.206568  2545 net.cpp:405] bn4b3_branch2c -> res4b3_branch2c (in-place)
I0106 20:37:09.206753  2545 net.cpp:150] Setting up bn4b3_branch2c
I0106 20:37:09.206765  2545 net.cpp:157] Top shape: 1 1024 38 63 (2451456)
I0106 20:37:09.206773  2545 net.cpp:165] Memory required for data: 2438198100
I0106 20:37:09.206784  2545 layer_factory.hpp:77] Creating layer scale4b3_branch2c
I0106 20:37:09.206795  2545 net.cpp:100] Creating Layer scale4b3_branch2c
I0106 20:37:09.206804  2545 net.cpp:444] scale4b3_branch2c <- res4b3_branch2c
I0106 20:37:09.206812  2545 net.cpp:405] scale4b3_branch2c -> res4b3_branch2c (in-place)
I0106 20:37:09.206853  2545 layer_factory.hpp:77] Creating layer scale4b3_branch2c
I0106 20:37:09.206969  2545 net.cpp:150] Setting up scale4b3_branch2c
I0106 20:37:09.206981  2545 net.cpp:157] Top shape: 1 1024 38 63 (2451456)
I0106 20:37:09.206989  2545 net.cpp:165] Memory required for data: 2448003924
I0106 20:37:09.206998  2545 layer_factory.hpp:77] Creating layer res4b3
I0106 20:37:09.207007  2545 net.cpp:100] Creating Layer res4b3
I0106 20:37:09.207022  2545 net.cpp:444] res4b3 <- res4b2_res4b2_relu_0_split_1
I0106 20:37:09.207031  2545 net.cpp:444] res4b3 <- res4b3_branch2c
I0106 20:37:09.207042  2545 net.cpp:418] res4b3 -> res4b3
I0106 20:37:09.207072  2545 net.cpp:150] Setting up res4b3
I0106 20:37:09.207082  2545 net.cpp:157] Top shape: 1 1024 38 63 (2451456)
I0106 20:37:09.207089  2545 net.cpp:165] Memory required for data: 2457809748
I0106 20:37:09.207096  2545 layer_factory.hpp:77] Creating layer res4b3_relu
I0106 20:37:09.207108  2545 net.cpp:100] Creating Layer res4b3_relu
I0106 20:37:09.207116  2545 net.cpp:444] res4b3_relu <- res4b3
I0106 20:37:09.207125  2545 net.cpp:405] res4b3_relu -> res4b3 (in-place)
I0106 20:37:09.207607  2545 net.cpp:150] Setting up res4b3_relu
I0106 20:37:09.207624  2545 net.cpp:157] Top shape: 1 1024 38 63 (2451456)
I0106 20:37:09.207633  2545 net.cpp:165] Memory required for data: 2467615572
I0106 20:37:09.207676  2545 layer_factory.hpp:77] Creating layer res4b3_res4b3_relu_0_split
I0106 20:37:09.207687  2545 net.cpp:100] Creating Layer res4b3_res4b3_relu_0_split
I0106 20:37:09.207708  2545 net.cpp:444] res4b3_res4b3_relu_0_split <- res4b3
I0106 20:37:09.207732  2545 net.cpp:418] res4b3_res4b3_relu_0_split -> res4b3_res4b3_relu_0_split_0
I0106 20:37:09.207744  2545 net.cpp:418] res4b3_res4b3_relu_0_split -> res4b3_res4b3_relu_0_split_1
I0106 20:37:09.207788  2545 net.cpp:150] Setting up res4b3_res4b3_relu_0_split
I0106 20:37:09.207799  2545 net.cpp:157] Top shape: 1 1024 38 63 (2451456)
I0106 20:37:09.207808  2545 net.cpp:157] Top shape: 1 1024 38 63 (2451456)
I0106 20:37:09.207814  2545 net.cpp:165] Memory required for data: 2487227220
I0106 20:37:09.207821  2545 layer_factory.hpp:77] Creating layer res4b4_branch2a
I0106 20:37:09.207834  2545 net.cpp:100] Creating Layer res4b4_branch2a
I0106 20:37:09.207856  2545 net.cpp:444] res4b4_branch2a <- res4b3_res4b3_relu_0_split_0
I0106 20:37:09.207865  2545 net.cpp:418] res4b4_branch2a -> res4b4_branch2a
I0106 20:37:09.208947  2545 net.cpp:150] Setting up res4b4_branch2a
I0106 20:37:09.208964  2545 net.cpp:157] Top shape: 1 256 38 63 (612864)
I0106 20:37:09.208987  2545 net.cpp:165] Memory required for data: 2489678676
I0106 20:37:09.208997  2545 layer_factory.hpp:77] Creating layer bn4b4_branch2a
I0106 20:37:09.209022  2545 net.cpp:100] Creating Layer bn4b4_branch2a
I0106 20:37:09.209044  2545 net.cpp:444] bn4b4_branch2a <- res4b4_branch2a
I0106 20:37:09.209055  2545 net.cpp:405] bn4b4_branch2a -> res4b4_branch2a (in-place)
I0106 20:37:09.209290  2545 net.cpp:150] Setting up bn4b4_branch2a
I0106 20:37:09.209301  2545 net.cpp:157] Top shape: 1 256 38 63 (612864)
I0106 20:37:09.209308  2545 net.cpp:165] Memory required for data: 2492130132
I0106 20:37:09.209333  2545 layer_factory.hpp:77] Creating layer scale4b4_branch2a
I0106 20:37:09.209357  2545 net.cpp:100] Creating Layer scale4b4_branch2a
I0106 20:37:09.209364  2545 net.cpp:444] scale4b4_branch2a <- res4b4_branch2a
I0106 20:37:09.209373  2545 net.cpp:405] scale4b4_branch2a -> res4b4_branch2a (in-place)
I0106 20:37:09.209416  2545 layer_factory.hpp:77] Creating layer scale4b4_branch2a
I0106 20:37:09.209528  2545 net.cpp:150] Setting up scale4b4_branch2a
I0106 20:37:09.209540  2545 net.cpp:157] Top shape: 1 256 38 63 (612864)
I0106 20:37:09.209547  2545 net.cpp:165] Memory required for data: 2494581588
I0106 20:37:09.209558  2545 layer_factory.hpp:77] Creating layer res4b4_branch2a_relu
I0106 20:37:09.209568  2545 net.cpp:100] Creating Layer res4b4_branch2a_relu
I0106 20:37:09.209575  2545 net.cpp:444] res4b4_branch2a_relu <- res4b4_branch2a
I0106 20:37:09.209585  2545 net.cpp:405] res4b4_branch2a_relu -> res4b4_branch2a (in-place)
I0106 20:37:09.209740  2545 net.cpp:150] Setting up res4b4_branch2a_relu
I0106 20:37:09.209753  2545 net.cpp:157] Top shape: 1 256 38 63 (612864)
I0106 20:37:09.209760  2545 net.cpp:165] Memory required for data: 2497033044
I0106 20:37:09.209769  2545 layer_factory.hpp:77] Creating layer res4b4_branch2b
I0106 20:37:09.209780  2545 net.cpp:100] Creating Layer res4b4_branch2b
I0106 20:37:09.209791  2545 net.cpp:444] res4b4_branch2b <- res4b4_branch2a
I0106 20:37:09.209803  2545 net.cpp:418] res4b4_branch2b -> res4b4_branch2b
I0106 20:37:09.213862  2545 net.cpp:150] Setting up res4b4_branch2b
I0106 20:37:09.213894  2545 net.cpp:157] Top shape: 1 256 38 63 (612864)
I0106 20:37:09.213902  2545 net.cpp:165] Memory required for data: 2499484500
I0106 20:37:09.213914  2545 layer_factory.hpp:77] Creating layer bn4b4_branch2b
I0106 20:37:09.213927  2545 net.cpp:100] Creating Layer bn4b4_branch2b
I0106 20:37:09.213937  2545 net.cpp:444] bn4b4_branch2b <- res4b4_branch2b
I0106 20:37:09.213946  2545 net.cpp:405] bn4b4_branch2b -> res4b4_branch2b (in-place)
I0106 20:37:09.214144  2545 net.cpp:150] Setting up bn4b4_branch2b
I0106 20:37:09.214156  2545 net.cpp:157] Top shape: 1 256 38 63 (612864)
I0106 20:37:09.214164  2545 net.cpp:165] Memory required for data: 2501935956
I0106 20:37:09.214174  2545 layer_factory.hpp:77] Creating layer scale4b4_branch2b
I0106 20:37:09.214184  2545 net.cpp:100] Creating Layer scale4b4_branch2b
I0106 20:37:09.214192  2545 net.cpp:444] scale4b4_branch2b <- res4b4_branch2b
I0106 20:37:09.214203  2545 net.cpp:405] scale4b4_branch2b -> res4b4_branch2b (in-place)
I0106 20:37:09.214247  2545 layer_factory.hpp:77] Creating layer scale4b4_branch2b
I0106 20:37:09.214362  2545 net.cpp:150] Setting up scale4b4_branch2b
I0106 20:37:09.214375  2545 net.cpp:157] Top shape: 1 256 38 63 (612864)
I0106 20:37:09.214382  2545 net.cpp:165] Memory required for data: 2504387412
I0106 20:37:09.214391  2545 layer_factory.hpp:77] Creating layer res4b4_branch2b_relu
I0106 20:37:09.214401  2545 net.cpp:100] Creating Layer res4b4_branch2b_relu
I0106 20:37:09.214409  2545 net.cpp:444] res4b4_branch2b_relu <- res4b4_branch2b
I0106 20:37:09.214417  2545 net.cpp:405] res4b4_branch2b_relu -> res4b4_branch2b (in-place)
I0106 20:37:09.214583  2545 net.cpp:150] Setting up res4b4_branch2b_relu
I0106 20:37:09.214597  2545 net.cpp:157] Top shape: 1 256 38 63 (612864)
I0106 20:37:09.214604  2545 net.cpp:165] Memory required for data: 2506838868
I0106 20:37:09.214612  2545 layer_factory.hpp:77] Creating layer res4b4_branch2c
I0106 20:37:09.214624  2545 net.cpp:100] Creating Layer res4b4_branch2c
I0106 20:37:09.214633  2545 net.cpp:444] res4b4_branch2c <- res4b4_branch2b
I0106 20:37:09.214643  2545 net.cpp:418] res4b4_branch2c -> res4b4_branch2c
I0106 20:37:09.216464  2545 net.cpp:150] Setting up res4b4_branch2c
I0106 20:37:09.216500  2545 net.cpp:157] Top shape: 1 1024 38 63 (2451456)
I0106 20:37:09.216507  2545 net.cpp:165] Memory required for data: 2516644692
I0106 20:37:09.216531  2545 layer_factory.hpp:77] Creating layer bn4b4_branch2c
I0106 20:37:09.216543  2545 net.cpp:100] Creating Layer bn4b4_branch2c
I0106 20:37:09.216552  2545 net.cpp:444] bn4b4_branch2c <- res4b4_branch2c
I0106 20:37:09.216563  2545 net.cpp:405] bn4b4_branch2c -> res4b4_branch2c (in-place)
I0106 20:37:09.216792  2545 net.cpp:150] Setting up bn4b4_branch2c
I0106 20:37:09.216804  2545 net.cpp:157] Top shape: 1 1024 38 63 (2451456)
I0106 20:37:09.216825  2545 net.cpp:165] Memory required for data: 2526450516
I0106 20:37:09.216836  2545 layer_factory.hpp:77] Creating layer scale4b4_branch2c
I0106 20:37:09.216847  2545 net.cpp:100] Creating Layer scale4b4_branch2c
I0106 20:37:09.216856  2545 net.cpp:444] scale4b4_branch2c <- res4b4_branch2c
I0106 20:37:09.216864  2545 net.cpp:405] scale4b4_branch2c -> res4b4_branch2c (in-place)
I0106 20:37:09.216908  2545 layer_factory.hpp:77] Creating layer scale4b4_branch2c
I0106 20:37:09.217028  2545 net.cpp:150] Setting up scale4b4_branch2c
I0106 20:37:09.217041  2545 net.cpp:157] Top shape: 1 1024 38 63 (2451456)
I0106 20:37:09.217047  2545 net.cpp:165] Memory required for data: 2536256340
I0106 20:37:09.217056  2545 layer_factory.hpp:77] Creating layer res4b4
I0106 20:37:09.217067  2545 net.cpp:100] Creating Layer res4b4
I0106 20:37:09.217077  2545 net.cpp:444] res4b4 <- res4b3_res4b3_relu_0_split_1
I0106 20:37:09.217085  2545 net.cpp:444] res4b4 <- res4b4_branch2c
I0106 20:37:09.217099  2545 net.cpp:418] res4b4 -> res4b4
I0106 20:37:09.217130  2545 net.cpp:150] Setting up res4b4
I0106 20:37:09.217141  2545 net.cpp:157] Top shape: 1 1024 38 63 (2451456)
I0106 20:37:09.217149  2545 net.cpp:165] Memory required for data: 2546062164
I0106 20:37:09.217156  2545 layer_factory.hpp:77] Creating layer res4b4_relu
I0106 20:37:09.217165  2545 net.cpp:100] Creating Layer res4b4_relu
I0106 20:37:09.217173  2545 net.cpp:444] res4b4_relu <- res4b4
I0106 20:37:09.217183  2545 net.cpp:405] res4b4_relu -> res4b4 (in-place)
I0106 20:37:09.217411  2545 net.cpp:150] Setting up res4b4_relu
I0106 20:37:09.217423  2545 net.cpp:157] Top shape: 1 1024 38 63 (2451456)
I0106 20:37:09.217430  2545 net.cpp:165] Memory required for data: 2555867988
I0106 20:37:09.217452  2545 layer_factory.hpp:77] Creating layer res4b4_res4b4_relu_0_split
I0106 20:37:09.217466  2545 net.cpp:100] Creating Layer res4b4_res4b4_relu_0_split
I0106 20:37:09.217488  2545 net.cpp:444] res4b4_res4b4_relu_0_split <- res4b4
I0106 20:37:09.217509  2545 net.cpp:418] res4b4_res4b4_relu_0_split -> res4b4_res4b4_relu_0_split_0
I0106 20:37:09.217533  2545 net.cpp:418] res4b4_res4b4_relu_0_split -> res4b4_res4b4_relu_0_split_1
I0106 20:37:09.217577  2545 net.cpp:150] Setting up res4b4_res4b4_relu_0_split
I0106 20:37:09.217587  2545 net.cpp:157] Top shape: 1 1024 38 63 (2451456)
I0106 20:37:09.217595  2545 net.cpp:157] Top shape: 1 1024 38 63 (2451456)
I0106 20:37:09.217602  2545 net.cpp:165] Memory required for data: 2575479636
I0106 20:37:09.217609  2545 layer_factory.hpp:77] Creating layer res4b5_branch2a
I0106 20:37:09.217622  2545 net.cpp:100] Creating Layer res4b5_branch2a
I0106 20:37:09.217629  2545 net.cpp:444] res4b5_branch2a <- res4b4_res4b4_relu_0_split_0
I0106 20:37:09.217653  2545 net.cpp:418] res4b5_branch2a -> res4b5_branch2a
I0106 20:37:09.218886  2545 net.cpp:150] Setting up res4b5_branch2a
I0106 20:37:09.218910  2545 net.cpp:157] Top shape: 1 256 38 63 (612864)
I0106 20:37:09.218930  2545 net.cpp:165] Memory required for data: 2577931092
I0106 20:37:09.218942  2545 layer_factory.hpp:77] Creating layer bn4b5_branch2a
I0106 20:37:09.218967  2545 net.cpp:100] Creating Layer bn4b5_branch2a
I0106 20:37:09.218988  2545 net.cpp:444] bn4b5_branch2a <- res4b5_branch2a
I0106 20:37:09.219012  2545 net.cpp:405] bn4b5_branch2a -> res4b5_branch2a (in-place)
I0106 20:37:09.219233  2545 net.cpp:150] Setting up bn4b5_branch2a
I0106 20:37:09.219244  2545 net.cpp:157] Top shape: 1 256 38 63 (612864)
I0106 20:37:09.219264  2545 net.cpp:165] Memory required for data: 2580382548
I0106 20:37:09.219275  2545 layer_factory.hpp:77] Creating layer scale4b5_branch2a
I0106 20:37:09.219286  2545 net.cpp:100] Creating Layer scale4b5_branch2a
I0106 20:37:09.219307  2545 net.cpp:444] scale4b5_branch2a <- res4b5_branch2a
I0106 20:37:09.219317  2545 net.cpp:405] scale4b5_branch2a -> res4b5_branch2a (in-place)
I0106 20:37:09.219375  2545 layer_factory.hpp:77] Creating layer scale4b5_branch2a
I0106 20:37:09.219491  2545 net.cpp:150] Setting up scale4b5_branch2a
I0106 20:37:09.219502  2545 net.cpp:157] Top shape: 1 256 38 63 (612864)
I0106 20:37:09.219509  2545 net.cpp:165] Memory required for data: 2582834004
I0106 20:37:09.219519  2545 layer_factory.hpp:77] Creating layer res4b5_branch2a_relu
I0106 20:37:09.219528  2545 net.cpp:100] Creating Layer res4b5_branch2a_relu
I0106 20:37:09.219537  2545 net.cpp:444] res4b5_branch2a_relu <- res4b5_branch2a
I0106 20:37:09.219547  2545 net.cpp:405] res4b5_branch2a_relu -> res4b5_branch2a (in-place)
I0106 20:37:09.219717  2545 net.cpp:150] Setting up res4b5_branch2a_relu
I0106 20:37:09.219732  2545 net.cpp:157] Top shape: 1 256 38 63 (612864)
I0106 20:37:09.219739  2545 net.cpp:165] Memory required for data: 2585285460
I0106 20:37:09.219746  2545 layer_factory.hpp:77] Creating layer res4b5_branch2b
I0106 20:37:09.219759  2545 net.cpp:100] Creating Layer res4b5_branch2b
I0106 20:37:09.219768  2545 net.cpp:444] res4b5_branch2b <- res4b5_branch2a
I0106 20:37:09.219779  2545 net.cpp:418] res4b5_branch2b -> res4b5_branch2b
I0106 20:37:09.222043  2545 net.cpp:150] Setting up res4b5_branch2b
I0106 20:37:09.222080  2545 net.cpp:157] Top shape: 1 256 38 63 (612864)
I0106 20:37:09.222090  2545 net.cpp:165] Memory required for data: 2587736916
I0106 20:37:09.222100  2545 layer_factory.hpp:77] Creating layer bn4b5_branch2b
I0106 20:37:09.222112  2545 net.cpp:100] Creating Layer bn4b5_branch2b
I0106 20:37:09.222121  2545 net.cpp:444] bn4b5_branch2b <- res4b5_branch2b
I0106 20:37:09.222132  2545 net.cpp:405] bn4b5_branch2b -> res4b5_branch2b (in-place)
I0106 20:37:09.222329  2545 net.cpp:150] Setting up bn4b5_branch2b
I0106 20:37:09.222342  2545 net.cpp:157] Top shape: 1 256 38 63 (612864)
I0106 20:37:09.222349  2545 net.cpp:165] Memory required for data: 2590188372
I0106 20:37:09.222359  2545 layer_factory.hpp:77] Creating layer scale4b5_branch2b
I0106 20:37:09.222370  2545 net.cpp:100] Creating Layer scale4b5_branch2b
I0106 20:37:09.222378  2545 net.cpp:444] scale4b5_branch2b <- res4b5_branch2b
I0106 20:37:09.222388  2545 net.cpp:405] scale4b5_branch2b -> res4b5_branch2b (in-place)
I0106 20:37:09.222432  2545 layer_factory.hpp:77] Creating layer scale4b5_branch2b
I0106 20:37:09.222548  2545 net.cpp:150] Setting up scale4b5_branch2b
I0106 20:37:09.222559  2545 net.cpp:157] Top shape: 1 256 38 63 (612864)
I0106 20:37:09.222568  2545 net.cpp:165] Memory required for data: 2592639828
I0106 20:37:09.222576  2545 layer_factory.hpp:77] Creating layer res4b5_branch2b_relu
I0106 20:37:09.222585  2545 net.cpp:100] Creating Layer res4b5_branch2b_relu
I0106 20:37:09.222594  2545 net.cpp:444] res4b5_branch2b_relu <- res4b5_branch2b
I0106 20:37:09.222604  2545 net.cpp:405] res4b5_branch2b_relu -> res4b5_branch2b (in-place)
I0106 20:37:09.223080  2545 net.cpp:150] Setting up res4b5_branch2b_relu
I0106 20:37:09.223098  2545 net.cpp:157] Top shape: 1 256 38 63 (612864)
I0106 20:37:09.223105  2545 net.cpp:165] Memory required for data: 2595091284
I0106 20:37:09.223114  2545 layer_factory.hpp:77] Creating layer res4b5_branch2c
I0106 20:37:09.223126  2545 net.cpp:100] Creating Layer res4b5_branch2c
I0106 20:37:09.223135  2545 net.cpp:444] res4b5_branch2c <- res4b5_branch2b
I0106 20:37:09.223146  2545 net.cpp:418] res4b5_branch2c -> res4b5_branch2c
I0106 20:37:09.224511  2545 net.cpp:150] Setting up res4b5_branch2c
I0106 20:37:09.224534  2545 net.cpp:157] Top shape: 1 1024 38 63 (2451456)
I0106 20:37:09.224542  2545 net.cpp:165] Memory required for data: 2604897108
I0106 20:37:09.224552  2545 layer_factory.hpp:77] Creating layer bn4b5_branch2c
I0106 20:37:09.224565  2545 net.cpp:100] Creating Layer bn4b5_branch2c
I0106 20:37:09.224573  2545 net.cpp:444] bn4b5_branch2c <- res4b5_branch2c
I0106 20:37:09.224582  2545 net.cpp:405] bn4b5_branch2c -> res4b5_branch2c (in-place)
I0106 20:37:09.224792  2545 net.cpp:150] Setting up bn4b5_branch2c
I0106 20:37:09.224805  2545 net.cpp:157] Top shape: 1 1024 38 63 (2451456)
I0106 20:37:09.224812  2545 net.cpp:165] Memory required for data: 2614702932
I0106 20:37:09.224823  2545 layer_factory.hpp:77] Creating layer scale4b5_branch2c
I0106 20:37:09.224834  2545 net.cpp:100] Creating Layer scale4b5_branch2c
I0106 20:37:09.224843  2545 net.cpp:444] scale4b5_branch2c <- res4b5_branch2c
I0106 20:37:09.224851  2545 net.cpp:405] scale4b5_branch2c -> res4b5_branch2c (in-place)
I0106 20:37:09.224895  2545 layer_factory.hpp:77] Creating layer scale4b5_branch2c
I0106 20:37:09.225013  2545 net.cpp:150] Setting up scale4b5_branch2c
I0106 20:37:09.225025  2545 net.cpp:157] Top shape: 1 1024 38 63 (2451456)
I0106 20:37:09.225033  2545 net.cpp:165] Memory required for data: 2624508756
I0106 20:37:09.225052  2545 layer_factory.hpp:77] Creating layer res4b5
I0106 20:37:09.225064  2545 net.cpp:100] Creating Layer res4b5
I0106 20:37:09.225071  2545 net.cpp:444] res4b5 <- res4b4_res4b4_relu_0_split_1
I0106 20:37:09.225080  2545 net.cpp:444] res4b5 <- res4b5_branch2c
I0106 20:37:09.225090  2545 net.cpp:418] res4b5 -> res4b5
I0106 20:37:09.225119  2545 net.cpp:150] Setting up res4b5
I0106 20:37:09.225131  2545 net.cpp:157] Top shape: 1 1024 38 63 (2451456)
I0106 20:37:09.225138  2545 net.cpp:165] Memory required for data: 2634314580
I0106 20:37:09.225149  2545 layer_factory.hpp:77] Creating layer res4b5_relu
I0106 20:37:09.225158  2545 net.cpp:100] Creating Layer res4b5_relu
I0106 20:37:09.225167  2545 net.cpp:444] res4b5_relu <- res4b5
I0106 20:37:09.225175  2545 net.cpp:405] res4b5_relu -> res4b5 (in-place)
I0106 20:37:09.225677  2545 net.cpp:150] Setting up res4b5_relu
I0106 20:37:09.225694  2545 net.cpp:157] Top shape: 1 1024 38 63 (2451456)
I0106 20:37:09.225703  2545 net.cpp:165] Memory required for data: 2644120404
I0106 20:37:09.225710  2545 layer_factory.hpp:77] Creating layer res4b5_res4b5_relu_0_split
I0106 20:37:09.225720  2545 net.cpp:100] Creating Layer res4b5_res4b5_relu_0_split
I0106 20:37:09.225728  2545 net.cpp:444] res4b5_res4b5_relu_0_split <- res4b5
I0106 20:37:09.225740  2545 net.cpp:418] res4b5_res4b5_relu_0_split -> res4b5_res4b5_relu_0_split_0
I0106 20:37:09.225752  2545 net.cpp:418] res4b5_res4b5_relu_0_split -> res4b5_res4b5_relu_0_split_1
I0106 20:37:09.225798  2545 net.cpp:150] Setting up res4b5_res4b5_relu_0_split
I0106 20:37:09.225809  2545 net.cpp:157] Top shape: 1 1024 38 63 (2451456)
I0106 20:37:09.225818  2545 net.cpp:157] Top shape: 1 1024 38 63 (2451456)
I0106 20:37:09.225826  2545 net.cpp:165] Memory required for data: 2663732052
I0106 20:37:09.225832  2545 layer_factory.hpp:77] Creating layer res4b6_branch2a
I0106 20:37:09.225847  2545 net.cpp:100] Creating Layer res4b6_branch2a
I0106 20:37:09.225855  2545 net.cpp:444] res4b6_branch2a <- res4b5_res4b5_relu_0_split_0
I0106 20:37:09.225865  2545 net.cpp:418] res4b6_branch2a -> res4b6_branch2a
I0106 20:37:09.227250  2545 net.cpp:150] Setting up res4b6_branch2a
I0106 20:37:09.227269  2545 net.cpp:157] Top shape: 1 256 38 63 (612864)
I0106 20:37:09.227278  2545 net.cpp:165] Memory required for data: 2666183508
I0106 20:37:09.227288  2545 layer_factory.hpp:77] Creating layer bn4b6_branch2a
I0106 20:37:09.227300  2545 net.cpp:100] Creating Layer bn4b6_branch2a
I0106 20:37:09.227308  2545 net.cpp:444] bn4b6_branch2a <- res4b6_branch2a
I0106 20:37:09.227319  2545 net.cpp:405] bn4b6_branch2a -> res4b6_branch2a (in-place)
I0106 20:37:09.227507  2545 net.cpp:150] Setting up bn4b6_branch2a
I0106 20:37:09.227519  2545 net.cpp:157] Top shape: 1 256 38 63 (612864)
I0106 20:37:09.227526  2545 net.cpp:165] Memory required for data: 2668634964
I0106 20:37:09.227537  2545 layer_factory.hpp:77] Creating layer scale4b6_branch2a
I0106 20:37:09.227547  2545 net.cpp:100] Creating Layer scale4b6_branch2a
I0106 20:37:09.227555  2545 net.cpp:444] scale4b6_branch2a <- res4b6_branch2a
I0106 20:37:09.227566  2545 net.cpp:405] scale4b6_branch2a -> res4b6_branch2a (in-place)
I0106 20:37:09.227609  2545 layer_factory.hpp:77] Creating layer scale4b6_branch2a
I0106 20:37:09.227730  2545 net.cpp:150] Setting up scale4b6_branch2a
I0106 20:37:09.227744  2545 net.cpp:157] Top shape: 1 256 38 63 (612864)
I0106 20:37:09.227751  2545 net.cpp:165] Memory required for data: 2671086420
I0106 20:37:09.227761  2545 layer_factory.hpp:77] Creating layer res4b6_branch2a_relu
I0106 20:37:09.227771  2545 net.cpp:100] Creating Layer res4b6_branch2a_relu
I0106 20:37:09.227778  2545 net.cpp:444] res4b6_branch2a_relu <- res4b6_branch2a
I0106 20:37:09.227787  2545 net.cpp:405] res4b6_branch2a_relu -> res4b6_branch2a (in-place)
I0106 20:37:09.227954  2545 net.cpp:150] Setting up res4b6_branch2a_relu
I0106 20:37:09.227967  2545 net.cpp:157] Top shape: 1 256 38 63 (612864)
I0106 20:37:09.227975  2545 net.cpp:165] Memory required for data: 2673537876
I0106 20:37:09.227982  2545 layer_factory.hpp:77] Creating layer res4b6_branch2b
I0106 20:37:09.227995  2545 net.cpp:100] Creating Layer res4b6_branch2b
I0106 20:37:09.228003  2545 net.cpp:444] res4b6_branch2b <- res4b6_branch2a
I0106 20:37:09.228014  2545 net.cpp:418] res4b6_branch2b -> res4b6_branch2b
I0106 20:37:09.230257  2545 net.cpp:150] Setting up res4b6_branch2b
I0106 20:37:09.230286  2545 net.cpp:157] Top shape: 1 256 38 63 (612864)
I0106 20:37:09.230295  2545 net.cpp:165] Memory required for data: 2675989332
I0106 20:37:09.230311  2545 layer_factory.hpp:77] Creating layer bn4b6_branch2b
I0106 20:37:09.230324  2545 net.cpp:100] Creating Layer bn4b6_branch2b
I0106 20:37:09.230334  2545 net.cpp:444] bn4b6_branch2b <- res4b6_branch2b
I0106 20:37:09.230342  2545 net.cpp:405] bn4b6_branch2b -> res4b6_branch2b (in-place)
I0106 20:37:09.230578  2545 net.cpp:150] Setting up bn4b6_branch2b
I0106 20:37:09.230589  2545 net.cpp:157] Top shape: 1 256 38 63 (612864)
I0106 20:37:09.230597  2545 net.cpp:165] Memory required for data: 2678440788
I0106 20:37:09.230623  2545 layer_factory.hpp:77] Creating layer scale4b6_branch2b
I0106 20:37:09.230634  2545 net.cpp:100] Creating Layer scale4b6_branch2b
I0106 20:37:09.230643  2545 net.cpp:444] scale4b6_branch2b <- res4b6_branch2b
I0106 20:37:09.230653  2545 net.cpp:405] scale4b6_branch2b -> res4b6_branch2b (in-place)
I0106 20:37:09.230712  2545 layer_factory.hpp:77] Creating layer scale4b6_branch2b
I0106 20:37:09.230870  2545 net.cpp:150] Setting up scale4b6_branch2b
I0106 20:37:09.230881  2545 net.cpp:157] Top shape: 1 256 38 63 (612864)
I0106 20:37:09.230888  2545 net.cpp:165] Memory required for data: 2680892244
I0106 20:37:09.230912  2545 layer_factory.hpp:77] Creating layer res4b6_branch2b_relu
I0106 20:37:09.230937  2545 net.cpp:100] Creating Layer res4b6_branch2b_relu
I0106 20:37:09.230944  2545 net.cpp:444] res4b6_branch2b_relu <- res4b6_branch2b
I0106 20:37:09.230954  2545 net.cpp:405] res4b6_branch2b_relu -> res4b6_branch2b (in-place)
I0106 20:37:09.231138  2545 net.cpp:150] Setting up res4b6_branch2b_relu
I0106 20:37:09.231151  2545 net.cpp:157] Top shape: 1 256 38 63 (612864)
I0106 20:37:09.231158  2545 net.cpp:165] Memory required for data: 2683343700
I0106 20:37:09.231181  2545 layer_factory.hpp:77] Creating layer res4b6_branch2c
I0106 20:37:09.231194  2545 net.cpp:100] Creating Layer res4b6_branch2c
I0106 20:37:09.231202  2545 net.cpp:444] res4b6_branch2c <- res4b6_branch2b
I0106 20:37:09.231212  2545 net.cpp:418] res4b6_branch2c -> res4b6_branch2c
I0106 20:37:09.232887  2545 net.cpp:150] Setting up res4b6_branch2c
I0106 20:37:09.232908  2545 net.cpp:157] Top shape: 1 1024 38 63 (2451456)
I0106 20:37:09.232931  2545 net.cpp:165] Memory required for data: 2693149524
I0106 20:37:09.232941  2545 layer_factory.hpp:77] Creating layer bn4b6_branch2c
I0106 20:37:09.232967  2545 net.cpp:100] Creating Layer bn4b6_branch2c
I0106 20:37:09.232975  2545 net.cpp:444] bn4b6_branch2c <- res4b6_branch2c
…
I0107 07:23:58.549085  6980 net.cpp:150] Setting up scale4b21_branch2b
I0107 07:23:58.549090  6980 net.cpp:157] Top shape: 1 256 14 14 (50176)
I0107 07:23:58.549093  6980 net.cpp:165] Memory required for data: 330358796
I0107 07:23:58.549096  6980 layer_factory.hpp:77] Creating layer res4b21_branch2b_relu
I0107 07:23:58.549099  6980 net.cpp:100] Creating Layer res4b21_branch2b_relu
I0107 07:23:58.549101  6980 net.cpp:444] res4b21_branch2b_relu <- res4b21_branch2b
I0107 07:23:58.549105  6980 net.cpp:405] res4b21_branch2b_relu -> res4b21_branch2b (in-place)
I0107 07:23:58.549643  6980 net.cpp:150] Setting up res4b21_branch2b_relu
I0107 07:23:58.549650  6980 net.cpp:157] Top shape: 1 256 14 14 (50176)
I0107 07:23:58.549652  6980 net.cpp:165] Memory required for data: 330559500
I0107 07:23:58.549655  6980 layer_factory.hpp:77] Creating layer res4b21_branch2c
I0107 07:23:58.549661  6980 net.cpp:100] Creating Layer res4b21_branch2c
I0107 07:23:58.549664  6980 net.cpp:444] res4b21_branch2c <- res4b21_branch2b
I0107 07:23:58.549669  6980 net.cpp:418] res4b21_branch2c -> res4b21_branch2c
I0107 07:23:58.551102  6980 net.cpp:150] Setting up res4b21_branch2c
I0107 07:23:58.551112  6980 net.cpp:157] Top shape: 1 1024 14 14 (200704)
I0107 07:23:58.551115  6980 net.cpp:165] Memory required for data: 331362316
I0107 07:23:58.551118  6980 layer_factory.hpp:77] Creating layer bn4b21_branch2c
I0107 07:23:58.551123  6980 net.cpp:100] Creating Layer bn4b21_branch2c
I0107 07:23:58.551126  6980 net.cpp:444] bn4b21_branch2c <- res4b21_branch2c
I0107 07:23:58.551131  6980 net.cpp:405] bn4b21_branch2c -> res4b21_branch2c (in-place)
I0107 07:23:58.551381  6980 net.cpp:150] Setting up bn4b21_branch2c
I0107 07:23:58.551386  6980 net.cpp:157] Top shape: 1 1024 14 14 (200704)
I0107 07:23:58.551388  6980 net.cpp:165] Memory required for data: 332165132
I0107 07:23:58.551393  6980 layer_factory.hpp:77] Creating layer scale4b21_branch2c
I0107 07:23:58.551396  6980 net.cpp:100] Creating Layer scale4b21_branch2c
I0107 07:23:58.551399  6980 net.cpp:444] scale4b21_branch2c <- res4b21_branch2c
I0107 07:23:58.551401  6980 net.cpp:405] scale4b21_branch2c -> res4b21_branch2c (in-place)
I0107 07:23:58.551452  6980 layer_factory.hpp:77] Creating layer scale4b21_branch2c
I0107 07:23:58.551591  6980 net.cpp:150] Setting up scale4b21_branch2c
I0107 07:23:58.551596  6980 net.cpp:157] Top shape: 1 1024 14 14 (200704)
I0107 07:23:58.551599  6980 net.cpp:165] Memory required for data: 332967948
I0107 07:23:58.551601  6980 layer_factory.hpp:77] Creating layer res4b21
I0107 07:23:58.551605  6980 net.cpp:100] Creating Layer res4b21
I0107 07:23:58.551609  6980 net.cpp:444] res4b21 <- res4b20_res4b20_relu_0_split_1
I0107 07:23:58.551611  6980 net.cpp:444] res4b21 <- res4b21_branch2c
I0107 07:23:58.551615  6980 net.cpp:418] res4b21 -> res4b21
I0107 07:23:58.551664  6980 net.cpp:150] Setting up res4b21
I0107 07:23:58.551682  6980 net.cpp:157] Top shape: 1 1024 14 14 (200704)
I0107 07:23:58.551684  6980 net.cpp:165] Memory required for data: 333770764
I0107 07:23:58.551687  6980 layer_factory.hpp:77] Creating layer res4b21_relu
I0107 07:23:58.551692  6980 net.cpp:100] Creating Layer res4b21_relu
I0107 07:23:58.551694  6980 net.cpp:444] res4b21_relu <- res4b21
I0107 07:23:58.551697  6980 net.cpp:405] res4b21_relu -> res4b21 (in-place)
I0107 07:23:58.552253  6980 net.cpp:150] Setting up res4b21_relu
I0107 07:23:58.552260  6980 net.cpp:157] Top shape: 1 1024 14 14 (200704)
I0107 07:23:58.552263  6980 net.cpp:165] Memory required for data: 334573580
I0107 07:23:58.552264  6980 layer_factory.hpp:77] Creating layer res4b21_res4b21_relu_0_split
I0107 07:23:58.552268  6980 net.cpp:100] Creating Layer res4b21_res4b21_relu_0_split
I0107 07:23:58.552271  6980 net.cpp:444] res4b21_res4b21_relu_0_split <- res4b21
I0107 07:23:58.552275  6980 net.cpp:418] res4b21_res4b21_relu_0_split -> res4b21_res4b21_relu_0_split_0
I0107 07:23:58.552280  6980 net.cpp:418] res4b21_res4b21_relu_0_split -> res4b21_res4b21_relu_0_split_1
I0107 07:23:58.552351  6980 net.cpp:150] Setting up res4b21_res4b21_relu_0_split
I0107 07:23:58.552356  6980 net.cpp:157] Top shape: 1 1024 14 14 (200704)
I0107 07:23:58.552359  6980 net.cpp:157] Top shape: 1 1024 14 14 (200704)
I0107 07:23:58.552361  6980 net.cpp:165] Memory required for data: 336179212
I0107 07:23:58.552362  6980 layer_factory.hpp:77] Creating layer res4b22_branch2a
I0107 07:23:58.552368  6980 net.cpp:100] Creating Layer res4b22_branch2a
I0107 07:23:58.552371  6980 net.cpp:444] res4b22_branch2a <- res4b21_res4b21_relu_0_split_0
I0107 07:23:58.552374  6980 net.cpp:418] res4b22_branch2a -> res4b22_branch2a
I0107 07:23:58.553556  6980 net.cpp:150] Setting up res4b22_branch2a
I0107 07:23:58.553565  6980 net.cpp:157] Top shape: 1 256 14 14 (50176)
I0107 07:23:58.553567  6980 net.cpp:165] Memory required for data: 336379916
I0107 07:23:58.553570  6980 layer_factory.hpp:77] Creating layer bn4b22_branch2a
I0107 07:23:58.553576  6980 net.cpp:100] Creating Layer bn4b22_branch2a
I0107 07:23:58.553580  6980 net.cpp:444] bn4b22_branch2a <- res4b22_branch2a
I0107 07:23:58.553583  6980 net.cpp:405] bn4b22_branch2a -> res4b22_branch2a (in-place)
I0107 07:23:58.553828  6980 net.cpp:150] Setting up bn4b22_branch2a
I0107 07:23:58.553833  6980 net.cpp:157] Top shape: 1 256 14 14 (50176)
I0107 07:23:58.553834  6980 net.cpp:165] Memory required for data: 336580620
I0107 07:23:58.553839  6980 layer_factory.hpp:77] Creating layer scale4b22_branch2a
I0107 07:23:58.553843  6980 net.cpp:100] Creating Layer scale4b22_branch2a
I0107 07:23:58.553845  6980 net.cpp:444] scale4b22_branch2a <- res4b22_branch2a
I0107 07:23:58.553848  6980 net.cpp:405] scale4b22_branch2a -> res4b22_branch2a (in-place)
I0107 07:23:58.553901  6980 layer_factory.hpp:77] Creating layer scale4b22_branch2a
I0107 07:23:58.554088  6980 net.cpp:150] Setting up scale4b22_branch2a
I0107 07:23:58.554093  6980 net.cpp:157] Top shape: 1 256 14 14 (50176)
I0107 07:23:58.554095  6980 net.cpp:165] Memory required for data: 336781324
I0107 07:23:58.554100  6980 layer_factory.hpp:77] Creating layer res4b22_branch2a_relu
I0107 07:23:58.554102  6980 net.cpp:100] Creating Layer res4b22_branch2a_relu
I0107 07:23:58.554105  6980 net.cpp:444] res4b22_branch2a_relu <- res4b22_branch2a
I0107 07:23:58.554110  6980 net.cpp:405] res4b22_branch2a_relu -> res4b22_branch2a (in-place)
I0107 07:23:58.554285  6980 net.cpp:150] Setting up res4b22_branch2a_relu
I0107 07:23:58.554291  6980 net.cpp:157] Top shape: 1 256 14 14 (50176)
I0107 07:23:58.554292  6980 net.cpp:165] Memory required for data: 336982028
I0107 07:23:58.554294  6980 layer_factory.hpp:77] Creating layer res4b22_branch2b
I0107 07:23:58.554299  6980 net.cpp:100] Creating Layer res4b22_branch2b
I0107 07:23:58.554302  6980 net.cpp:444] res4b22_branch2b <- res4b22_branch2a
I0107 07:23:58.554306  6980 net.cpp:418] res4b22_branch2b -> res4b22_branch2b
I0107 07:23:58.556644  6980 net.cpp:150] Setting up res4b22_branch2b
I0107 07:23:58.556655  6980 net.cpp:157] Top shape: 1 256 14 14 (50176)
I0107 07:23:58.556658  6980 net.cpp:165] Memory required for data: 337182732
I0107 07:23:58.556663  6980 layer_factory.hpp:77] Creating layer bn4b22_branch2b
I0107 07:23:58.556669  6980 net.cpp:100] Creating Layer bn4b22_branch2b
I0107 07:23:58.556673  6980 net.cpp:444] bn4b22_branch2b <- res4b22_branch2b
I0107 07:23:58.556677  6980 net.cpp:405] bn4b22_branch2b -> res4b22_branch2b (in-place)
I0107 07:23:58.556946  6980 net.cpp:150] Setting up bn4b22_branch2b
I0107 07:23:58.556951  6980 net.cpp:157] Top shape: 1 256 14 14 (50176)
I0107 07:23:58.556952  6980 net.cpp:165] Memory required for data: 337383436
I0107 07:23:58.556957  6980 layer_factory.hpp:77] Creating layer scale4b22_branch2b
I0107 07:23:58.556962  6980 net.cpp:100] Creating Layer scale4b22_branch2b
I0107 07:23:58.556965  6980 net.cpp:444] scale4b22_branch2b <- res4b22_branch2b
I0107 07:23:58.556968  6980 net.cpp:405] scale4b22_branch2b -> res4b22_branch2b (in-place)
I0107 07:23:58.557034  6980 layer_factory.hpp:77] Creating layer scale4b22_branch2b
I0107 07:23:58.557168  6980 net.cpp:150] Setting up scale4b22_branch2b
I0107 07:23:58.557173  6980 net.cpp:157] Top shape: 1 256 14 14 (50176)
I0107 07:23:58.557175  6980 net.cpp:165] Memory required for data: 337584140
I0107 07:23:58.557179  6980 layer_factory.hpp:77] Creating layer res4b22_branch2b_relu
I0107 07:23:58.557183  6980 net.cpp:100] Creating Layer res4b22_branch2b_relu
I0107 07:23:58.557185  6980 net.cpp:444] res4b22_branch2b_relu <- res4b22_branch2b
I0107 07:23:58.557188  6980 net.cpp:405] res4b22_branch2b_relu -> res4b22_branch2b (in-place)
I0107 07:23:58.557369  6980 net.cpp:150] Setting up res4b22_branch2b_relu
I0107 07:23:58.557375  6980 net.cpp:157] Top shape: 1 256 14 14 (50176)
I0107 07:23:58.557377  6980 net.cpp:165] Memory required for data: 337784844
I0107 07:23:58.557379  6980 layer_factory.hpp:77] Creating layer res4b22_branch2c
I0107 07:23:58.557385  6980 net.cpp:100] Creating Layer res4b22_branch2c
I0107 07:23:58.557389  6980 net.cpp:444] res4b22_branch2c <- res4b22_branch2b
I0107 07:23:58.557392  6980 net.cpp:418] res4b22_branch2c -> res4b22_branch2c
I0107 07:23:58.559204  6980 net.cpp:150] Setting up res4b22_branch2c
I0107 07:23:58.559214  6980 net.cpp:157] Top shape: 1 1024 14 14 (200704)
I0107 07:23:58.559216  6980 net.cpp:165] Memory required for data: 338587660
I0107 07:23:58.559221  6980 layer_factory.hpp:77] Creating layer bn4b22_branch2c
I0107 07:23:58.559226  6980 net.cpp:100] Creating Layer bn4b22_branch2c
I0107 07:23:58.559229  6980 net.cpp:444] bn4b22_branch2c <- res4b22_branch2c
I0107 07:23:58.559233  6980 net.cpp:405] bn4b22_branch2c -> res4b22_branch2c (in-place)
I0107 07:23:58.559502  6980 net.cpp:150] Setting up bn4b22_branch2c
I0107 07:23:58.559507  6980 net.cpp:157] Top shape: 1 1024 14 14 (200704)
I0107 07:23:58.559509  6980 net.cpp:165] Memory required for data: 339390476
I0107 07:23:58.559514  6980 layer_factory.hpp:77] Creating layer scale4b22_branch2c
I0107 07:23:58.559518  6980 net.cpp:100] Creating Layer scale4b22_branch2c
I0107 07:23:58.559520  6980 net.cpp:444] scale4b22_branch2c <- res4b22_branch2c
I0107 07:23:58.559523  6980 net.cpp:405] scale4b22_branch2c -> res4b22_branch2c (in-place)
I0107 07:23:58.559576  6980 layer_factory.hpp:77] Creating layer scale4b22_branch2c
I0107 07:23:58.559725  6980 net.cpp:150] Setting up scale4b22_branch2c
I0107 07:23:58.559731  6980 net.cpp:157] Top shape: 1 1024 14 14 (200704)
I0107 07:23:58.559732  6980 net.cpp:165] Memory required for data: 340193292
I0107 07:23:58.559736  6980 layer_factory.hpp:77] Creating layer res4b22
I0107 07:23:58.559741  6980 net.cpp:100] Creating Layer res4b22
I0107 07:23:58.559743  6980 net.cpp:444] res4b22 <- res4b21_res4b21_relu_0_split_1
I0107 07:23:58.559746  6980 net.cpp:444] res4b22 <- res4b22_branch2c
I0107 07:23:58.559749  6980 net.cpp:418] res4b22 -> res4b22
I0107 07:23:58.559773  6980 net.cpp:150] Setting up res4b22
I0107 07:23:58.559777  6980 net.cpp:157] Top shape: 1 1024 14 14 (200704)
I0107 07:23:58.559793  6980 net.cpp:165] Memory required for data: 340996108
I0107 07:23:58.559795  6980 layer_factory.hpp:77] Creating layer res4b22_relu
I0107 07:23:58.559798  6980 net.cpp:100] Creating Layer res4b22_relu
I0107 07:23:58.559800  6980 net.cpp:444] res4b22_relu <- res4b22
I0107 07:23:58.559818  6980 net.cpp:405] res4b22_relu -> res4b22 (in-place)
I0107 07:23:58.559978  6980 net.cpp:150] Setting up res4b22_relu
I0107 07:23:58.559984  6980 net.cpp:157] Top shape: 1 1024 14 14 (200704)
I0107 07:23:58.559986  6980 net.cpp:165] Memory required for data: 341798924
I0107 07:23:58.559988  6980 layer_factory.hpp:77] Creating layer res4b22_res4b22_relu_0_split
I0107 07:23:58.559993  6980 net.cpp:100] Creating Layer res4b22_res4b22_relu_0_split
I0107 07:23:58.559995  6980 net.cpp:444] res4b22_res4b22_relu_0_split <- res4b22
I0107 07:23:58.559998  6980 net.cpp:418] res4b22_res4b22_relu_0_split -> res4b22_res4b22_relu_0_split_0
I0107 07:23:58.560004  6980 net.cpp:418] res4b22_res4b22_relu_0_split -> res4b22_res4b22_relu_0_split_1
I0107 07:23:58.560009  6980 net.cpp:418] res4b22_res4b22_relu_0_split -> res4b22_res4b22_relu_0_split_2
I0107 07:23:58.560092  6980 net.cpp:150] Setting up res4b22_res4b22_relu_0_split
I0107 07:23:58.560096  6980 net.cpp:157] Top shape: 1 1024 14 14 (200704)
I0107 07:23:58.560099  6980 net.cpp:157] Top shape: 1 1024 14 14 (200704)
I0107 07:23:58.560101  6980 net.cpp:157] Top shape: 1 1024 14 14 (200704)
I0107 07:23:58.560103  6980 net.cpp:165] Memory required for data: 344207372
I0107 07:23:58.560106  6980 layer_factory.hpp:77] Creating layer res5a_branch1
I0107 07:23:58.560111  6980 net.cpp:100] Creating Layer res5a_branch1
I0107 07:23:58.560113  6980 net.cpp:444] res5a_branch1 <- res4b22_res4b22_relu_0_split_0
I0107 07:23:58.560118  6980 net.cpp:418] res5a_branch1 -> res5a_branch1
I0107 07:23:58.564790  6980 net.cpp:150] Setting up res5a_branch1
I0107 07:23:58.564812  6980 net.cpp:157] Top shape: 1 2048 14 14 (401408)
I0107 07:23:58.564815  6980 net.cpp:165] Memory required for data: 345813004
I0107 07:23:58.564821  6980 layer_factory.hpp:77] Creating layer bn5a_branch1
I0107 07:23:58.564831  6980 net.cpp:100] Creating Layer bn5a_branch1
I0107 07:23:58.564837  6980 net.cpp:444] bn5a_branch1 <- res5a_branch1
I0107 07:23:58.564842  6980 net.cpp:405] bn5a_branch1 -> res5a_branch1 (in-place)
I0107 07:23:58.565150  6980 net.cpp:150] Setting up bn5a_branch1
I0107 07:23:58.565155  6980 net.cpp:157] Top shape: 1 2048 14 14 (401408)
I0107 07:23:58.565157  6980 net.cpp:165] Memory required for data: 347418636
I0107 07:23:58.565161  6980 layer_factory.hpp:77] Creating layer scale5a_branch1
I0107 07:23:58.565167  6980 net.cpp:100] Creating Layer scale5a_branch1
I0107 07:23:58.565170  6980 net.cpp:444] scale5a_branch1 <- res5a_branch1
I0107 07:23:58.565172  6980 net.cpp:405] scale5a_branch1 -> res5a_branch1 (in-place)
I0107 07:23:58.565227  6980 layer_factory.hpp:77] Creating layer scale5a_branch1
I0107 07:23:58.565369  6980 net.cpp:150] Setting up scale5a_branch1
I0107 07:23:58.565374  6980 net.cpp:157] Top shape: 1 2048 14 14 (401408)
I0107 07:23:58.565376  6980 net.cpp:165] Memory required for data: 349024268
I0107 07:23:58.565379  6980 layer_factory.hpp:77] Creating layer res5a_branch2a
I0107 07:23:58.565387  6980 net.cpp:100] Creating Layer res5a_branch2a
I0107 07:23:58.565389  6980 net.cpp:444] res5a_branch2a <- res4b22_res4b22_relu_0_split_1
I0107 07:23:58.565393  6980 net.cpp:418] res5a_branch2a -> res5a_branch2a
I0107 07:23:58.567329  6980 net.cpp:150] Setting up res5a_branch2a
I0107 07:23:58.567342  6980 net.cpp:157] Top shape: 1 512 14 14 (100352)
I0107 07:23:58.567344  6980 net.cpp:165] Memory required for data: 349425676
I0107 07:23:58.567348  6980 layer_factory.hpp:77] Creating layer bn5a_branch2a
I0107 07:23:58.567369  6980 net.cpp:100] Creating Layer bn5a_branch2a
I0107 07:23:58.567373  6980 net.cpp:444] bn5a_branch2a <- res5a_branch2a
I0107 07:23:58.567378  6980 net.cpp:405] bn5a_branch2a -> res5a_branch2a (in-place)
I0107 07:23:58.567631  6980 net.cpp:150] Setting up bn5a_branch2a
I0107 07:23:58.567642  6980 net.cpp:157] Top shape: 1 512 14 14 (100352)
I0107 07:23:58.567646  6980 net.cpp:165] Memory required for data: 349827084
I0107 07:23:58.567663  6980 layer_factory.hpp:77] Creating layer scale5a_branch2a
I0107 07:23:58.567669  6980 net.cpp:100] Creating Layer scale5a_branch2a
I0107 07:23:58.567672  6980 net.cpp:444] scale5a_branch2a <- res5a_branch2a
I0107 07:23:58.567674  6980 net.cpp:405] scale5a_branch2a -> res5a_branch2a (in-place)
I0107 07:23:58.567744  6980 layer_factory.hpp:77] Creating layer scale5a_branch2a
I0107 07:23:58.567899  6980 net.cpp:150] Setting up scale5a_branch2a
I0107 07:23:58.567904  6980 net.cpp:157] Top shape: 1 512 14 14 (100352)
I0107 07:23:58.567906  6980 net.cpp:165] Memory required for data: 350228492
I0107 07:23:58.567909  6980 layer_factory.hpp:77] Creating layer res5a_branch2a_relu
I0107 07:23:58.567914  6980 net.cpp:100] Creating Layer res5a_branch2a_relu
I0107 07:23:58.567915  6980 net.cpp:444] res5a_branch2a_relu <- res5a_branch2a
I0107 07:23:58.567934  6980 net.cpp:405] res5a_branch2a_relu -> res5a_branch2a (in-place)
I0107 07:23:58.568114  6980 net.cpp:150] Setting up res5a_branch2a_relu
I0107 07:23:58.568120  6980 net.cpp:157] Top shape: 1 512 14 14 (100352)
I0107 07:23:58.568121  6980 net.cpp:165] Memory required for data: 350629900
I0107 07:23:58.568123  6980 layer_factory.hpp:77] Creating layer res5a_branch2b
I0107 07:23:58.568130  6980 net.cpp:100] Creating Layer res5a_branch2b
I0107 07:23:58.568145  6980 net.cpp:444] res5a_branch2b <- res5a_branch2a
I0107 07:23:58.568150  6980 net.cpp:418] res5a_branch2b -> res5a_branch2b
I0107 07:23:58.572005  6980 net.cpp:150] Setting up res5a_branch2b
I0107 07:23:58.572031  6980 net.cpp:157] Top shape: 1 512 14 14 (100352)
I0107 07:23:58.572032  6980 net.cpp:165] Memory required for data: 351031308
I0107 07:23:58.572039  6980 layer_factory.hpp:77] Creating layer bn5a_branch2b
I0107 07:23:58.572067  6980 net.cpp:100] Creating Layer bn5a_branch2b
I0107 07:23:58.572073  6980 net.cpp:444] bn5a_branch2b <- res5a_branch2b
I0107 07:23:58.572078  6980 net.cpp:405] bn5a_branch2b -> res5a_branch2b (in-place)
I0107 07:23:58.572372  6980 net.cpp:150] Setting up bn5a_branch2b
I0107 07:23:58.572377  6980 net.cpp:157] Top shape: 1 512 14 14 (100352)
I0107 07:23:58.572381  6980 net.cpp:165] Memory required for data: 351432716
I0107 07:23:58.572384  6980 layer_factory.hpp:77] Creating layer scale5a_branch2b
I0107 07:23:58.572388  6980 net.cpp:100] Creating Layer scale5a_branch2b
I0107 07:23:58.572391  6980 net.cpp:444] scale5a_branch2b <- res5a_branch2b
I0107 07:23:58.572408  6980 net.cpp:405] scale5a_branch2b -> res5a_branch2b (in-place)
I0107 07:23:58.572474  6980 layer_factory.hpp:77] Creating layer scale5a_branch2b
I0107 07:23:58.572629  6980 net.cpp:150] Setting up scale5a_branch2b
I0107 07:23:58.572633  6980 net.cpp:157] Top shape: 1 512 14 14 (100352)
I0107 07:23:58.572635  6980 net.cpp:165] Memory required for data: 351834124
I0107 07:23:58.572639  6980 layer_factory.hpp:77] Creating layer res5a_branch2b_relu
I0107 07:23:58.572643  6980 net.cpp:100] Creating Layer res5a_branch2b_relu
I0107 07:23:58.572644  6980 net.cpp:444] res5a_branch2b_relu <- res5a_branch2b
I0107 07:23:58.572664  6980 net.cpp:405] res5a_branch2b_relu -> res5a_branch2b (in-place)
I0107 07:23:58.573365  6980 net.cpp:150] Setting up res5a_branch2b_relu
I0107 07:23:58.573374  6980 net.cpp:157] Top shape: 1 512 14 14 (100352)
I0107 07:23:58.573376  6980 net.cpp:165] Memory required for data: 352235532
I0107 07:23:58.573379  6980 layer_factory.hpp:77] Creating layer res5a_branch2c
I0107 07:23:58.573385  6980 net.cpp:100] Creating Layer res5a_branch2c
I0107 07:23:58.573387  6980 net.cpp:444] res5a_branch2c <- res5a_branch2b
I0107 07:23:58.573392  6980 net.cpp:418] res5a_branch2c -> res5a_branch2c
I0107 07:23:58.575629  6980 net.cpp:150] Setting up res5a_branch2c
I0107 07:23:58.575680  6980 net.cpp:157] Top shape: 1 2048 14 14 (401408)
I0107 07:23:58.575681  6980 net.cpp:165] Memory required for data: 353841164
I0107 07:23:58.575690  6980 layer_factory.hpp:77] Creating layer bn5a_branch2c
I0107 07:23:58.575718  6980 net.cpp:100] Creating Layer bn5a_branch2c
I0107 07:23:58.575737  6980 net.cpp:444] bn5a_branch2c <- res5a_branch2c
I0107 07:23:58.575742  6980 net.cpp:405] bn5a_branch2c -> res5a_branch2c (in-place)
I0107 07:23:58.576017  6980 net.cpp:150] Setting up bn5a_branch2c
I0107 07:23:58.576022  6980 net.cpp:157] Top shape: 1 2048 14 14 (401408)
I0107 07:23:58.576025  6980 net.cpp:165] Memory required for data: 355446796
I0107 07:23:58.576030  6980 layer_factory.hpp:77] Creating layer scale5a_branch2c
I0107 07:23:58.576033  6980 net.cpp:100] Creating Layer scale5a_branch2c
I0107 07:23:58.576036  6980 net.cpp:444] scale5a_branch2c <- res5a_branch2c
I0107 07:23:58.576040  6980 net.cpp:405] scale5a_branch2c -> res5a_branch2c (in-place)
I0107 07:23:58.576093  6980 layer_factory.hpp:77] Creating layer scale5a_branch2c
I0107 07:23:58.576236  6980 net.cpp:150] Setting up scale5a_branch2c
I0107 07:23:58.576241  6980 net.cpp:157] Top shape: 1 2048 14 14 (401408)
I0107 07:23:58.576243  6980 net.cpp:165] Memory required for data: 357052428
I0107 07:23:58.576246  6980 layer_factory.hpp:77] Creating layer res5a
I0107 07:23:58.576251  6980 net.cpp:100] Creating Layer res5a
I0107 07:23:58.576253  6980 net.cpp:444] res5a <- res5a_branch1
I0107 07:23:58.576256  6980 net.cpp:444] res5a <- res5a_branch2c
I0107 07:23:58.576258  6980 net.cpp:418] res5a -> res5a
I0107 07:23:58.576282  6980 net.cpp:150] Setting up res5a
I0107 07:23:58.576287  6980 net.cpp:157] Top shape: 1 2048 14 14 (401408)
I0107 07:23:58.576303  6980 net.cpp:165] Memory required for data: 358658060
I0107 07:23:58.576305  6980 layer_factory.hpp:77] Creating layer res5a_relu
I0107 07:23:58.576309  6980 net.cpp:100] Creating Layer res5a_relu
I0107 07:23:58.576311  6980 net.cpp:444] res5a_relu <- res5a
I0107 07:23:58.576314  6980 net.cpp:405] res5a_relu -> res5a (in-place)
I0107 07:23:58.576933  6980 net.cpp:150] Setting up res5a_relu
I0107 07:23:58.576941  6980 net.cpp:157] Top shape: 1 2048 14 14 (401408)
I0107 07:23:58.576944  6980 net.cpp:165] Memory required for data: 360263692
I0107 07:23:58.576946  6980 layer_factory.hpp:77] Creating layer res5a_res5a_relu_0_split
I0107 07:23:58.576951  6980 net.cpp:100] Creating Layer res5a_res5a_relu_0_split
I0107 07:23:58.576954  6980 net.cpp:444] res5a_res5a_relu_0_split <- res5a
I0107 07:23:58.576958  6980 net.cpp:418] res5a_res5a_relu_0_split -> res5a_res5a_relu_0_split_0
I0107 07:23:58.576964  6980 net.cpp:418] res5a_res5a_relu_0_split -> res5a_res5a_relu_0_split_1
I0107 07:23:58.577024  6980 net.cpp:150] Setting up res5a_res5a_relu_0_split
I0107 07:23:58.577029  6980 net.cpp:157] Top shape: 1 2048 14 14 (401408)
I0107 07:23:58.577033  6980 net.cpp:157] Top shape: 1 2048 14 14 (401408)
I0107 07:23:58.577034  6980 net.cpp:165] Memory required for data: 363474956
I0107 07:23:58.577049  6980 layer_factory.hpp:77] Creating layer res5b_branch2a
I0107 07:23:58.577054  6980 net.cpp:100] Creating Layer res5b_branch2a
I0107 07:23:58.577057  6980 net.cpp:444] res5b_branch2a <- res5a_res5a_relu_0_split_0
I0107 07:23:58.577061  6980 net.cpp:418] res5b_branch2a -> res5b_branch2a
I0107 07:23:58.579761  6980 net.cpp:150] Setting up res5b_branch2a
I0107 07:23:58.579780  6980 net.cpp:157] Top shape: 1 512 14 14 (100352)
I0107 07:23:58.579783  6980 net.cpp:165] Memory required for data: 363876364
I0107 07:23:58.579788  6980 layer_factory.hpp:77] Creating layer bn5b_branch2a
I0107 07:23:58.579813  6980 net.cpp:100] Creating Layer bn5b_branch2a
I0107 07:23:58.579818  6980 net.cpp:444] bn5b_branch2a <- res5b_branch2a
I0107 07:23:58.579821  6980 net.cpp:405] bn5b_branch2a -> res5b_branch2a (in-place)
I0107 07:23:58.580142  6980 net.cpp:150] Setting up bn5b_branch2a
I0107 07:23:58.580147  6980 net.cpp:157] Top shape: 1 512 14 14 (100352)
I0107 07:23:58.580148  6980 net.cpp:165] Memory required for data: 364277772
I0107 07:23:58.580153  6980 layer_factory.hpp:77] Creating layer scale5b_branch2a
I0107 07:23:58.580173  6980 net.cpp:100] Creating Layer scale5b_branch2a
I0107 07:23:58.580175  6980 net.cpp:444] scale5b_branch2a <- res5b_branch2a
I0107 07:23:58.580178  6980 net.cpp:405] scale5b_branch2a -> res5b_branch2a (in-place)
I0107 07:23:58.580258  6980 layer_factory.hpp:77] Creating layer scale5b_branch2a
I0107 07:23:58.580442  6980 net.cpp:150] Setting up scale5b_branch2a
I0107 07:23:58.580446  6980 net.cpp:157] Top shape: 1 512 14 14 (100352)
I0107 07:23:58.580448  6980 net.cpp:165] Memory required for data: 364679180
I0107 07:23:58.580452  6980 layer_factory.hpp:77] Creating layer res5b_branch2a_relu
I0107 07:23:58.580456  6980 net.cpp:100] Creating Layer res5b_branch2a_relu
I0107 07:23:58.580458  6980 net.cpp:444] res5b_branch2a_relu <- res5b_branch2a
I0107 07:23:58.580476  6980 net.cpp:405] res5b_branch2a_relu -> res5b_branch2a (in-place)
I0107 07:23:58.580680  6980 net.cpp:150] Setting up res5b_branch2a_relu
I0107 07:23:58.580685  6980 net.cpp:157] Top shape: 1 512 14 14 (100352)
I0107 07:23:58.580687  6980 net.cpp:165] Memory required for data: 365080588
I0107 07:23:58.580689  6980 layer_factory.hpp:77] Creating layer res5b_branch2b
I0107 07:23:58.580696  6980 net.cpp:100] Creating Layer res5b_branch2b
I0107 07:23:58.580713  6980 net.cpp:444] res5b_branch2b <- res5b_branch2a
I0107 07:23:58.580716  6980 net.cpp:418] res5b_branch2b -> res5b_branch2b
I0107 07:23:58.584571  6980 net.cpp:150] Setting up res5b_branch2b
I0107 07:23:58.584594  6980 net.cpp:157] Top shape: 1 512 14 14 (100352)
I0107 07:23:58.584596  6980 net.cpp:165] Memory required for data: 365481996
I0107 07:23:58.584616  6980 layer_factory.hpp:77] Creating layer bn5b_branch2b
I0107 07:23:58.584627  6980 net.cpp:100] Creating Layer bn5b_branch2b
I0107 07:23:58.584633  6980 net.cpp:444] bn5b_branch2b <- res5b_branch2b
I0107 07:23:58.584638  6980 net.cpp:405] bn5b_branch2b -> res5b_branch2b (in-place)
I0107 07:23:58.585603  6980 net.cpp:150] Setting up bn5b_branch2b
I0107 07:23:58.585611  6980 net.cpp:157] Top shape: 1 512 14 14 (100352)
I0107 07:23:58.585614  6980 net.cpp:165] Memory required for data: 365883404
I0107 07:23:58.585620  6980 layer_factory.hpp:77] Creating layer scale5b_branch2b
I0107 07:23:58.585625  6980 net.cpp:100] Creating Layer scale5b_branch2b
I0107 07:23:58.585628  6980 net.cpp:444] scale5b_branch2b <- res5b_branch2b
I0107 07:23:58.585633  6980 net.cpp:405] scale5b_branch2b -> res5b_branch2b (in-place)
I0107 07:23:58.585690  6980 layer_factory.hpp:77] Creating layer scale5b_branch2b
I0107 07:23:58.585809  6980 net.cpp:150] Setting up scale5b_branch2b
I0107 07:23:58.585814  6980 net.cpp:157] Top shape: 1 512 14 14 (100352)
I0107 07:23:58.585816  6980 net.cpp:165] Memory required for data: 366284812
I0107 07:23:58.585819  6980 layer_factory.hpp:77] Creating layer res5b_branch2b_relu
I0107 07:23:58.585824  6980 net.cpp:100] Creating Layer res5b_branch2b_relu
I0107 07:23:58.585825  6980 net.cpp:444] res5b_branch2b_relu <- res5b_branch2b
I0107 07:23:58.585829  6980 net.cpp:405] res5b_branch2b_relu -> res5b_branch2b (in-place)
I0107 07:23:58.586052  6980 net.cpp:150] Setting up res5b_branch2b_relu
I0107 07:23:58.586058  6980 net.cpp:157] Top shape: 1 512 14 14 (100352)
I0107 07:23:58.586061  6980 net.cpp:165] Memory required for data: 366686220
I0107 07:23:58.586063  6980 layer_factory.hpp:77] Creating layer res5b_branch2c
I0107 07:23:58.586069  6980 net.cpp:100] Creating Layer res5b_branch2c
I0107 07:23:58.586071  6980 net.cpp:444] res5b_branch2c <- res5b_branch2b
I0107 07:23:58.586076  6980 net.cpp:418] res5b_branch2c -> res5b_branch2c
I0107 07:23:58.588665  6980 net.cpp:150] Setting up res5b_branch2c
I0107 07:23:58.588685  6980 net.cpp:157] Top shape: 1 2048 14 14 (401408)
I0107 07:23:58.588686  6980 net.cpp:165] Memory required for data: 368291852
I0107 07:23:58.588692  6980 layer_factory.hpp:77] Creating layer bn5b_branch2c
I0107 07:23:58.588701  6980 net.cpp:100] Creating Layer bn5b_branch2c
I0107 07:23:58.588704  6980 net.cpp:444] bn5b_branch2c <- res5b_branch2c
I0107 07:23:58.588709  6980 net.cpp:405] bn5b_branch2c -> res5b_branch2c (in-place)
I0107 07:23:58.588932  6980 net.cpp:150] Setting up bn5b_branch2c
I0107 07:23:58.588937  6980 net.cpp:157] Top shape: 1 2048 14 14 (401408)
I0107 07:23:58.588939  6980 net.cpp:165] Memory required for data: 369897484
I0107 07:23:58.588944  6980 layer_factory.hpp:77] Creating layer scale5b_branch2c
I0107 07:23:58.588949  6980 net.cpp:100] Creating Layer scale5b_branch2c
I0107 07:23:58.588951  6980 net.cpp:444] scale5b_branch2c <- res5b_branch2c
I0107 07:23:58.588955  6980 net.cpp:405] scale5b_branch2c -> res5b_branch2c (in-place)
I0107 07:23:58.589004  6980 layer_factory.hpp:77] Creating layer scale5b_branch2c
I0107 07:23:58.589109  6980 net.cpp:150] Setting up scale5b_branch2c
I0107 07:23:58.589115  6980 net.cpp:157] Top shape: 1 2048 14 14 (401408)
I0107 07:23:58.589118  6980 net.cpp:165] Memory required for data: 371503116
I0107 07:23:58.589120  6980 layer_factory.hpp:77] Creating layer res5b
I0107 07:23:58.589124  6980 net.cpp:100] Creating Layer res5b
I0107 07:23:58.589126  6980 net.cpp:444] res5b <- res5a_res5a_relu_0_split_1
I0107 07:23:58.589129  6980 net.cpp:444] res5b <- res5b_branch2c
I0107 07:23:58.589133  6980 net.cpp:418] res5b -> res5b
I0107 07:23:58.589148  6980 net.cpp:150] Setting up res5b
I0107 07:23:58.589152  6980 net.cpp:157] Top shape: 1 2048 14 14 (401408)
I0107 07:23:58.589154  6980 net.cpp:165] Memory required for data: 373108748
I0107 07:23:58.589155  6980 layer_factory.hpp:77] Creating layer res5b_relu
I0107 07:23:58.589159  6980 net.cpp:100] Creating Layer res5b_relu
I0107 07:23:58.589176  6980 net.cpp:444] res5b_relu <- res5b
I0107 07:23:58.589179  6980 net.cpp:405] res5b_relu -> res5b (in-place)
I0107 07:23:58.589360  6980 net.cpp:150] Setting up res5b_relu
I0107 07:23:58.589366  6980 net.cpp:157] Top shape: 1 2048 14 14 (401408)
I0107 07:23:58.589368  6980 net.cpp:165] Memory required for data: 374714380
I0107 07:23:58.589370  6980 layer_factory.hpp:77] Creating layer res5b_res5b_relu_0_split
I0107 07:23:58.589375  6980 net.cpp:100] Creating Layer res5b_res5b_relu_0_split
I0107 07:23:58.589376  6980 net.cpp:444] res5b_res5b_relu_0_split <- res5b
I0107 07:23:58.589380  6980 net.cpp:418] res5b_res5b_relu_0_split -> res5b_res5b_relu_0_split_0
I0107 07:23:58.589385  6980 net.cpp:418] res5b_res5b_relu_0_split -> res5b_res5b_relu_0_split_1
I0107 07:23:58.589426  6980 net.cpp:150] Setting up res5b_res5b_relu_0_split
I0107 07:23:58.589431  6980 net.cpp:157] Top shape: 1 2048 14 14 (401408)
I0107 07:23:58.589433  6980 net.cpp:157] Top shape: 1 2048 14 14 (401408)
I0107 07:23:58.589435  6980 net.cpp:165] Memory required for data: 377925644
I0107 07:23:58.589437  6980 layer_factory.hpp:77] Creating layer res5c_branch2a
I0107 07:23:58.589443  6980 net.cpp:100] Creating Layer res5c_branch2a
I0107 07:23:58.589447  6980 net.cpp:444] res5c_branch2a <- res5b_res5b_relu_0_split_0
I0107 07:23:58.589450  6980 net.cpp:418] res5c_branch2a -> res5c_branch2a
I0107 07:23:58.592051  6980 net.cpp:150] Setting up res5c_branch2a
I0107 07:23:58.592067  6980 net.cpp:157] Top shape: 1 512 14 14 (100352)
I0107 07:23:58.592070  6980 net.cpp:165] Memory required for data: 378327052
I0107 07:23:58.592075  6980 layer_factory.hpp:77] Creating layer bn5c_branch2a
I0107 07:23:58.592083  6980 net.cpp:100] Creating Layer bn5c_branch2a
I0107 07:23:58.592087  6980 net.cpp:444] bn5c_branch2a <- res5c_branch2a
I0107 07:23:58.592092  6980 net.cpp:405] bn5c_branch2a -> res5c_branch2a (in-place)
I0107 07:23:58.592295  6980 net.cpp:150] Setting up bn5c_branch2a
I0107 07:23:58.592300  6980 net.cpp:157] Top shape: 1 512 14 14 (100352)
I0107 07:23:58.592303  6980 net.cpp:165] Memory required for data: 378728460
I0107 07:23:58.592308  6980 layer_factory.hpp:77] Creating layer scale5c_branch2a
I0107 07:23:58.592311  6980 net.cpp:100] Creating Layer scale5c_branch2a
I0107 07:23:58.592314  6980 net.cpp:444] scale5c_branch2a <- res5c_branch2a
I0107 07:23:58.592317  6980 net.cpp:405] scale5c_branch2a -> res5c_branch2a (in-place)
I0107 07:23:58.592350  6980 layer_factory.hpp:77] Creating layer scale5c_branch2a
I0107 07:23:58.592485  6980 net.cpp:150] Setting up scale5c_branch2a
I0107 07:23:58.592490  6980 net.cpp:157] Top shape: 1 512 14 14 (100352)
I0107 07:23:58.592492  6980 net.cpp:165] Memory required for data: 379129868
I0107 07:23:58.592496  6980 layer_factory.hpp:77] Creating layer res5c_branch2a_relu
I0107 07:23:58.592500  6980 net.cpp:100] Creating Layer res5c_branch2a_relu
I0107 07:23:58.592502  6980 net.cpp:444] res5c_branch2a_relu <- res5c_branch2a
I0107 07:23:58.592505  6980 net.cpp:405] res5c_branch2a_relu -> res5c_branch2a (in-place)
I0107 07:23:58.592689  6980 net.cpp:150] Setting up res5c_branch2a_relu
I0107 07:23:58.592695  6980 net.cpp:157] Top shape: 1 512 14 14 (100352)
I0107 07:23:58.592697  6980 net.cpp:165] Memory required for data: 379531276
I0107 07:23:58.592700  6980 layer_factory.hpp:77] Creating layer res5c_branch2b
I0107 07:23:58.592705  6980 net.cpp:100] Creating Layer res5c_branch2b
I0107 07:23:58.592707  6980 net.cpp:444] res5c_branch2b <- res5c_branch2a
I0107 07:23:58.592711  6980 net.cpp:418] res5c_branch2b -> res5c_branch2b
I0107 07:23:58.596310  6980 net.cpp:150] Setting up res5c_branch2b
I0107 07:23:58.596341  6980 net.cpp:157] Top shape: 1 512 14 14 (100352)
I0107 07:23:58.596343  6980 net.cpp:165] Memory required for data: 379932684
I0107 07:23:58.596351  6980 layer_factory.hpp:77] Creating layer bn5c_branch2b
I0107 07:23:58.596376  6980 net.cpp:100] Creating Layer bn5c_branch2b
I0107 07:23:58.596382  6980 net.cpp:444] bn5c_branch2b <- res5c_branch2b
I0107 07:23:58.596443  6980 net.cpp:405] bn5c_branch2b -> res5c_branch2b (in-place)
I0107 07:23:58.596665  6980 net.cpp:150] Setting up bn5c_branch2b
I0107 07:23:58.596670  6980 net.cpp:157] Top shape: 1 512 14 14 (100352)
I0107 07:23:58.596673  6980 net.cpp:165] Memory required for data: 380334092
I0107 07:23:58.596678  6980 layer_factory.hpp:77] Creating layer scale5c_branch2b
I0107 07:23:58.596683  6980 net.cpp:100] Creating Layer scale5c_branch2b
I0107 07:23:58.596684  6980 net.cpp:444] scale5c_branch2b <- res5c_branch2b
I0107 07:23:58.596688  6980 net.cpp:405] scale5c_branch2b -> res5c_branch2b (in-place)
I0107 07:23:58.596735  6980 layer_factory.hpp:77] Creating layer scale5c_branch2b
I0107 07:23:58.596838  6980 net.cpp:150] Setting up scale5c_branch2b
I0107 07:23:58.596843  6980 net.cpp:157] Top shape: 1 512 14 14 (100352)
I0107 07:23:58.596844  6980 net.cpp:165] Memory required for data: 380735500
I0107 07:23:58.596848  6980 layer_factory.hpp:77] Creating layer res5c_branch2b_relu
I0107 07:23:58.596853  6980 net.cpp:100] Creating Layer res5c_branch2b_relu
I0107 07:23:58.596854  6980 net.cpp:444] res5c_branch2b_relu <- res5c_branch2b
I0107 07:23:58.596858  6980 net.cpp:405] res5c_branch2b_relu -> res5c_branch2b (in-place)
I0107 07:23:58.597591  6980 net.cpp:150] Setting up res5c_branch2b_relu
I0107 07:23:58.597601  6980 net.cpp:157] Top shape: 1 512 14 14 (100352)
I0107 07:23:58.597604  6980 net.cpp:165] Memory required for data: 381136908
I0107 07:23:58.597605  6980 layer_factory.hpp:77] Creating layer res5c_branch2c
I0107 07:23:58.597612  6980 net.cpp:100] Creating Layer res5c_branch2c
I0107 07:23:58.597615  6980 net.cpp:444] res5c_branch2c <- res5c_branch2b
I0107 07:23:58.597618  6980 net.cpp:418] res5c_branch2c -> res5c_branch2c
I0107 07:23:58.600239  6980 net.cpp:150] Setting up res5c_branch2c
I0107 07:23:58.600256  6980 net.cpp:157] Top shape: 1 2048 14 14 (401408)
I0107 07:23:58.600260  6980 net.cpp:165] Memory required for data: 382742540
I0107 07:23:58.600281  6980 layer_factory.hpp:77] Creating layer bn5c_branch2c
I0107 07:23:58.600289  6980 net.cpp:100] Creating Layer bn5c_branch2c
I0107 07:23:58.600293  6980 net.cpp:444] bn5c_branch2c <- res5c_branch2c
I0107 07:23:58.600298  6980 net.cpp:405] bn5c_branch2c -> res5c_branch2c (in-place)
I0107 07:23:58.600497  6980 net.cpp:150] Setting up bn5c_branch2c
I0107 07:23:58.600502  6980 net.cpp:157] Top shape: 1 2048 14 14 (401408)
I0107 07:23:58.600504  6980 net.cpp:165] Memory required for data: 384348172
I0107 07:23:58.600508  6980 layer_factory.hpp:77] Creating layer scale5c_branch2c
I0107 07:23:58.600513  6980 net.cpp:100] Creating Layer scale5c_branch2c
I0107 07:23:58.600531  6980 net.cpp:444] scale5c_branch2c <- res5c_branch2c
I0107 07:23:58.600534  6980 net.cpp:405] scale5c_branch2c -> res5c_branch2c (in-place)
I0107 07:23:58.600584  6980 layer_factory.hpp:77] Creating layer scale5c_branch2c
I0107 07:23:58.600677  6980 net.cpp:150] Setting up scale5c_branch2c
I0107 07:23:58.600682  6980 net.cpp:157] Top shape: 1 2048 14 14 (401408)
I0107 07:23:58.600684  6980 net.cpp:165] Memory required for data: 385953804
I0107 07:23:58.600687  6980 layer_factory.hpp:77] Creating layer res5c
I0107 07:23:58.600692  6980 net.cpp:100] Creating Layer res5c
I0107 07:23:58.600694  6980 net.cpp:444] res5c <- res5b_res5b_relu_0_split_1
I0107 07:23:58.600697  6980 net.cpp:444] res5c <- res5c_branch2c
I0107 07:23:58.600702  6980 net.cpp:418] res5c -> res5c
I0107 07:23:58.600731  6980 net.cpp:150] Setting up res5c
I0107 07:23:58.600735  6980 net.cpp:157] Top shape: 1 2048 14 14 (401408)
I0107 07:23:58.600736  6980 net.cpp:165] Memory required for data: 387559436
I0107 07:23:58.600739  6980 layer_factory.hpp:77] Creating layer res5c_relu
I0107 07:23:58.600742  6980 net.cpp:100] Creating Layer res5c_relu
I0107 07:23:58.600744  6980 net.cpp:444] res5c_relu <- res5c
I0107 07:23:58.600760  6980 net.cpp:405] res5c_relu -> res5c (in-place)
I0107 07:23:58.600924  6980 net.cpp:150] Setting up res5c_relu
I0107 07:23:58.600930  6980 net.cpp:157] Top shape: 1 2048 14 14 (401408)
I0107 07:23:58.600934  6980 net.cpp:165] Memory required for data: 389165068
I0107 07:23:58.600934  6980 layer_factory.hpp:77] Creating layer rpn_conv/3x3
I0107 07:23:58.600942  6980 net.cpp:100] Creating Layer rpn_conv/3x3
I0107 07:23:58.600960  6980 net.cpp:444] rpn_conv/3x3 <- res4b22_res4b22_relu_0_split_2
I0107 07:23:58.600966  6980 net.cpp:418] rpn_conv/3x3 -> rpn/output
I0107 07:23:58.640544  6980 net.cpp:150] Setting up rpn_conv/3x3
I0107 07:23:58.640561  6980 net.cpp:157] Top shape: 1 512 14 14 (100352)
I0107 07:23:58.640563  6980 net.cpp:165] Memory required for data: 389566476
I0107 07:23:58.640585  6980 layer_factory.hpp:77] Creating layer rpn_relu/3x3
I0107 07:23:58.640592  6980 net.cpp:100] Creating Layer rpn_relu/3x3
I0107 07:23:58.640596  6980 net.cpp:444] rpn_relu/3x3 <- rpn/output
I0107 07:23:58.640600  6980 net.cpp:405] rpn_relu/3x3 -> rpn/output (in-place)
I0107 07:23:58.640815  6980 net.cpp:150] Setting up rpn_relu/3x3
I0107 07:23:58.640821  6980 net.cpp:157] Top shape: 1 512 14 14 (100352)
I0107 07:23:58.640823  6980 net.cpp:165] Memory required for data: 389967884
I0107 07:23:58.640825  6980 layer_factory.hpp:77] Creating layer rpn/output_rpn_relu/3x3_0_split
I0107 07:23:58.640830  6980 net.cpp:100] Creating Layer rpn/output_rpn_relu/3x3_0_split
I0107 07:23:58.640830  6980 net.cpp:444] rpn/output_rpn_relu/3x3_0_split <- rpn/output
I0107 07:23:58.640849  6980 net.cpp:418] rpn/output_rpn_relu/3x3_0_split -> rpn/output_rpn_relu/3x3_0_split_0
I0107 07:23:58.640856  6980 net.cpp:418] rpn/output_rpn_relu/3x3_0_split -> rpn/output_rpn_relu/3x3_0_split_1
I0107 07:23:58.640931  6980 net.cpp:150] Setting up rpn/output_rpn_relu/3x3_0_split
I0107 07:23:58.640935  6980 net.cpp:157] Top shape: 1 512 14 14 (100352)
I0107 07:23:58.640938  6980 net.cpp:157] Top shape: 1 512 14 14 (100352)
I0107 07:23:58.640940  6980 net.cpp:165] Memory required for data: 390770700
I0107 07:23:58.640943  6980 layer_factory.hpp:77] Creating layer rpn_cls_score
I0107 07:23:58.640950  6980 net.cpp:100] Creating Layer rpn_cls_score
I0107 07:23:58.640954  6980 net.cpp:444] rpn_cls_score <- rpn/output_rpn_relu/3x3_0_split_0
I0107 07:23:58.640957  6980 net.cpp:418] rpn_cls_score -> rpn_cls_score
I0107 07:23:58.642119  6980 net.cpp:150] Setting up rpn_cls_score
I0107 07:23:58.642127  6980 net.cpp:157] Top shape: 1 18 14 14 (3528)
I0107 07:23:58.642129  6980 net.cpp:165] Memory required for data: 390784812
I0107 07:23:58.642133  6980 layer_factory.hpp:77] Creating layer rpn_bbox_pred
I0107 07:23:58.642154  6980 net.cpp:100] Creating Layer rpn_bbox_pred
I0107 07:23:58.642158  6980 net.cpp:444] rpn_bbox_pred <- rpn/output_rpn_relu/3x3_0_split_1
I0107 07:23:58.642163  6980 net.cpp:418] rpn_bbox_pred -> rpn_bbox_pred
I0107 07:23:58.643378  6980 net.cpp:150] Setting up rpn_bbox_pred
I0107 07:23:58.643388  6980 net.cpp:157] Top shape: 1 36 14 14 (7056)
I0107 07:23:58.643389  6980 net.cpp:165] Memory required for data: 390813036
I0107 07:23:58.643394  6980 layer_factory.hpp:77] Creating layer rpn_cls_score_reshape
I0107 07:23:58.643414  6980 net.cpp:100] Creating Layer rpn_cls_score_reshape
I0107 07:23:58.643417  6980 net.cpp:444] rpn_cls_score_reshape <- rpn_cls_score
I0107 07:23:58.643421  6980 net.cpp:418] rpn_cls_score_reshape -> rpn_cls_score_reshape
I0107 07:23:58.643455  6980 net.cpp:150] Setting up rpn_cls_score_reshape
I0107 07:23:58.643477  6980 net.cpp:157] Top shape: 1 2 126 14 (3528)
I0107 07:23:58.643481  6980 net.cpp:165] Memory required for data: 390827148
I0107 07:23:58.643481  6980 layer_factory.hpp:77] Creating layer rpn_cls_prob
I0107 07:23:58.643486  6980 net.cpp:100] Creating Layer rpn_cls_prob
I0107 07:23:58.643488  6980 net.cpp:444] rpn_cls_prob <- rpn_cls_score_reshape
I0107 07:23:58.643492  6980 net.cpp:418] rpn_cls_prob -> rpn_cls_prob
I0107 07:23:58.643738  6980 net.cpp:150] Setting up rpn_cls_prob
I0107 07:23:58.643756  6980 net.cpp:157] Top shape: 1 2 126 14 (3528)
I0107 07:23:58.643759  6980 net.cpp:165] Memory required for data: 390841260
I0107 07:23:58.643760  6980 layer_factory.hpp:77] Creating layer rpn_cls_prob_reshape
I0107 07:23:58.643764  6980 net.cpp:100] Creating Layer rpn_cls_prob_reshape
I0107 07:23:58.643766  6980 net.cpp:444] rpn_cls_prob_reshape <- rpn_cls_prob
I0107 07:23:58.643784  6980 net.cpp:418] rpn_cls_prob_reshape -> rpn_cls_prob_reshape
I0107 07:23:58.643801  6980 net.cpp:150] Setting up rpn_cls_prob_reshape
I0107 07:23:58.643805  6980 net.cpp:157] Top shape: 1 18 14 14 (3528)
I0107 07:23:58.643806  6980 net.cpp:165] Memory required for data: 390855372
I0107 07:23:58.643822  6980 layer_factory.hpp:77] Creating layer proposal
I0107 07:23:58.644870  6980 net.cpp:100] Creating Layer proposal
I0107 07:23:58.644878  6980 net.cpp:444] proposal <- rpn_cls_prob_reshape
I0107 07:23:58.644882  6980 net.cpp:444] proposal <- rpn_bbox_pred
I0107 07:23:58.644886  6980 net.cpp:444] proposal <- im_info
I0107 07:23:58.644889  6980 net.cpp:418] proposal -> rois
I0107 07:23:58.645350  6980 net.cpp:150] Setting up proposal
I0107 07:23:58.645359  6980 net.cpp:157] Top shape: 1 5 (5)
I0107 07:23:58.645360  6980 net.cpp:165] Memory required for data: 390855392
I0107 07:23:58.645362  6980 layer_factory.hpp:77] Creating layer rois_proposal_0_split
I0107 07:23:58.645366  6980 net.cpp:100] Creating Layer rois_proposal_0_split
I0107 07:23:58.645370  6980 net.cpp:444] rois_proposal_0_split <- rois
I0107 07:23:58.645372  6980 net.cpp:418] rois_proposal_0_split -> rois_proposal_0_split_0
I0107 07:23:58.645378  6980 net.cpp:418] rois_proposal_0_split -> rois_proposal_0_split_1
I0107 07:23:58.645404  6980 net.cpp:150] Setting up rois_proposal_0_split
I0107 07:23:58.645407  6980 net.cpp:157] Top shape: 1 5 (5)
I0107 07:23:58.645409  6980 net.cpp:157] Top shape: 1 5 (5)
I0107 07:23:58.645411  6980 net.cpp:165] Memory required for data: 390855432
I0107 07:23:58.645413  6980 layer_factory.hpp:77] Creating layer conv_new_1
I0107 07:23:58.645418  6980 net.cpp:100] Creating Layer conv_new_1
I0107 07:23:58.645421  6980 net.cpp:444] conv_new_1 <- res5c
I0107 07:23:58.645424  6980 net.cpp:418] conv_new_1 -> conv_new_1
I0107 07:23:58.663543  6980 net.cpp:150] Setting up conv_new_1
I0107 07:23:58.663589  6980 net.cpp:157] Top shape: 1 1024 14 14 (200704)
I0107 07:23:58.663599  6980 net.cpp:165] Memory required for data: 391658248
I0107 07:23:58.663615  6980 layer_factory.hpp:77] Creating layer conv_new_1_relu
I0107 07:23:58.663633  6980 net.cpp:100] Creating Layer conv_new_1_relu
I0107 07:23:58.663673  6980 net.cpp:444] conv_new_1_relu <- conv_new_1
I0107 07:23:58.663699  6980 net.cpp:405] conv_new_1_relu -> conv_new_1 (in-place)
I0107 07:23:58.663883  6980 net.cpp:150] Setting up conv_new_1_relu
I0107 07:23:58.663897  6980 net.cpp:157] Top shape: 1 1024 14 14 (200704)
I0107 07:23:58.663903  6980 net.cpp:165] Memory required for data: 392461064
I0107 07:23:58.663910  6980 layer_factory.hpp:77] Creating layer conv_new_1_conv_new_1_relu_0_split
I0107 07:23:58.663921  6980 net.cpp:100] Creating Layer conv_new_1_conv_new_1_relu_0_split
I0107 07:23:58.663929  6980 net.cpp:444] conv_new_1_conv_new_1_relu_0_split <- conv_new_1
I0107 07:23:58.663938  6980 net.cpp:418] conv_new_1_conv_new_1_relu_0_split -> conv_new_1_conv_new_1_relu_0_split_0
I0107 07:23:58.663949  6980 net.cpp:418] conv_new_1_conv_new_1_relu_0_split -> conv_new_1_conv_new_1_relu_0_split_1
I0107 07:23:58.663997  6980 net.cpp:150] Setting up conv_new_1_conv_new_1_relu_0_split
I0107 07:23:58.664007  6980 net.cpp:157] Top shape: 1 1024 14 14 (200704)
I0107 07:23:58.664016  6980 net.cpp:157] Top shape: 1 1024 14 14 (200704)
I0107 07:23:58.664022  6980 net.cpp:165] Memory required for data: 394066696
I0107 07:23:58.664031  6980 layer_factory.hpp:77] Creating layer rfcn_cls
I0107 07:23:58.664042  6980 net.cpp:100] Creating Layer rfcn_cls
I0107 07:23:58.664052  6980 net.cpp:444] rfcn_cls <- conv_new_1_conv_new_1_relu_0_split_0
I0107 07:23:58.664062  6980 net.cpp:418] rfcn_cls -> rfcn_cls
I0107 07:23:58.666352  6980 net.cpp:150] Setting up rfcn_cls
I0107 07:23:58.666378  6980 net.cpp:157] Top shape: 1 98 14 14 (19208)
I0107 07:23:58.666386  6980 net.cpp:165] Memory required for data: 394143528
I0107 07:23:58.666396  6980 layer_factory.hpp:77] Creating layer rfcn_bbox
I0107 07:23:58.666419  6980 net.cpp:100] Creating Layer rfcn_bbox
I0107 07:23:58.666429  6980 net.cpp:444] rfcn_bbox <- conv_new_1_conv_new_1_relu_0_split_1
I0107 07:23:58.666442  6980 net.cpp:418] rfcn_bbox -> rfcn_bbox
I0107 07:23:58.671068  6980 net.cpp:150] Setting up rfcn_bbox
I0107 07:23:58.671092  6980 net.cpp:157] Top shape: 1 392 14 14 (76832)
I0107 07:23:58.671099  6980 net.cpp:165] Memory required for data: 394450856
I0107 07:23:58.671109  6980 layer_factory.hpp:77] Creating layer psroipooled_cls_rois
I0107 07:23:58.671125  6980 net.cpp:100] Creating Layer psroipooled_cls_rois
I0107 07:23:58.671136  6980 net.cpp:444] psroipooled_cls_rois <- rfcn_cls
I0107 07:23:58.671155  6980 net.cpp:444] psroipooled_cls_rois <- rois_proposal_0_split_0
I0107 07:23:58.671169  6980 net.cpp:418] psroipooled_cls_rois -> psroipooled_cls_rois
I0107 07:23:58.671190  6980 psroi_pooling_layer.cpp:26] Spatial scale: 0.0625
I0107 07:23:58.671238  6980 net.cpp:150] Setting up psroipooled_cls_rois
I0107 07:23:58.671257  6980 net.cpp:157] Top shape: 1 2 7 7 (98)
I0107 07:23:58.671267  6980 net.cpp:165] Memory required for data: 394451248
I0107 07:23:58.671275  6980 layer_factory.hpp:77] Creating layer ave_cls_score_rois
I0107 07:23:58.671288  6980 net.cpp:100] Creating Layer ave_cls_score_rois
I0107 07:23:58.671298  6980 net.cpp:444] ave_cls_score_rois <- psroipooled_cls_rois
I0107 07:23:58.671309  6980 net.cpp:418] ave_cls_score_rois -> cls_score
I0107 07:23:58.671489  6980 net.cpp:150] Setting up ave_cls_score_rois
I0107 07:23:58.671506  6980 net.cpp:157] Top shape: 1 2 1 1 (2)
I0107 07:23:58.671515  6980 net.cpp:165] Memory required for data: 394451256
I0107 07:23:58.671525  6980 layer_factory.hpp:77] Creating layer psroipooled_loc_rois
I0107 07:23:58.671535  6980 net.cpp:100] Creating Layer psroipooled_loc_rois
I0107 07:23:58.671545  6980 net.cpp:444] psroipooled_loc_rois <- rfcn_bbox
I0107 07:23:58.671555  6980 net.cpp:444] psroipooled_loc_rois <- rois_proposal_0_split_1
I0107 07:23:58.671567  6980 net.cpp:418] psroipooled_loc_rois -> psroipooled_loc_rois
I0107 07:23:58.671581  6980 psroi_pooling_layer.cpp:26] Spatial scale: 0.0625
I0107 07:23:58.671617  6980 net.cpp:150] Setting up psroipooled_loc_rois
I0107 07:23:58.671629  6980 net.cpp:157] Top shape: 1 8 7 7 (392)
I0107 07:23:58.671645  6980 net.cpp:165] Memory required for data: 394452824
I0107 07:23:58.671670  6980 layer_factory.hpp:77] Creating layer ave_bbox_pred_rois
I0107 07:23:58.671697  6980 net.cpp:100] Creating Layer ave_bbox_pred_rois
I0107 07:23:58.671721  6980 net.cpp:444] ave_bbox_pred_rois <- psroipooled_loc_rois
I0107 07:23:58.671735  6980 net.cpp:418] ave_bbox_pred_rois -> bbox_pred_pre
I0107 07:23:58.672339  6980 net.cpp:150] Setting up ave_bbox_pred_rois
I0107 07:23:58.672359  6980 net.cpp:157] Top shape: 1 8 1 1 (8)
I0107 07:23:58.672369  6980 net.cpp:165] Memory required for data: 394452856
I0107 07:23:58.672379  6980 layer_factory.hpp:77] Creating layer cls_prob
I0107 07:23:58.672390  6980 net.cpp:100] Creating Layer cls_prob
I0107 07:23:58.672400  6980 net.cpp:444] cls_prob <- cls_score
I0107 07:23:58.672412  6980 net.cpp:418] cls_prob -> cls_prob_pre
I0107 07:23:58.672618  6980 net.cpp:150] Setting up cls_prob
I0107 07:23:58.672634  6980 net.cpp:157] Top shape: 1 2 1 1 (2)
I0107 07:23:58.672643  6980 net.cpp:165] Memory required for data: 394452864
I0107 07:23:58.672652  6980 layer_factory.hpp:77] Creating layer cls_prob_reshape
I0107 07:23:58.672665  6980 net.cpp:100] Creating Layer cls_prob_reshape
I0107 07:23:58.672675  6980 net.cpp:444] cls_prob_reshape <- cls_prob_pre
I0107 07:23:58.672688  6980 net.cpp:418] cls_prob_reshape -> cls_prob
I0107 07:23:58.672715  6980 net.cpp:150] Setting up cls_prob_reshape
I0107 07:23:58.672727  6980 net.cpp:157] Top shape: 1 2 (2)
I0107 07:23:58.672735  6980 net.cpp:165] Memory required for data: 394452872
I0107 07:23:58.672744  6980 layer_factory.hpp:77] Creating layer bbox_pred_reshape
I0107 07:23:58.672756  6980 net.cpp:100] Creating Layer bbox_pred_reshape
I0107 07:23:58.672765  6980 net.cpp:444] bbox_pred_reshape <- bbox_pred_pre
I0107 07:23:58.672776  6980 net.cpp:418] bbox_pred_reshape -> bbox_pred
I0107 07:23:58.672803  6980 net.cpp:150] Setting up bbox_pred_reshape
I0107 07:23:58.672816  6980 net.cpp:157] Top shape: 1 8 (8)
I0107 07:23:58.672824  6980 net.cpp:165] Memory required for data: 394452904
I0107 07:23:58.672833  6980 net.cpp:228] bbox_pred_reshape does not need backward computation.
I0107 07:23:58.672842  6980 net.cpp:228] cls_prob_reshape does not need backward computation.
I0107 07:23:58.672852  6980 net.cpp:228] cls_prob does not need backward computation.
I0107 07:23:58.672861  6980 net.cpp:228] ave_bbox_pred_rois does not need backward computation.
…
