…
snapshot: 10000
snapshot_prefix: "resnet50_rfcn_ohem"
iter_size: 4
I0115 23:08:06.257386 17703 solver.cpp:81] Creating training net from train_net file: models/pascal_voc/ResNet-50/rfcn_end2end/train_agnostic_ohem.prototxt
I0115 23:08:06.262298 17703 net.cpp:58] Initializing net from parameters: 
name: "ResNet-50"
state {
  phase: TRAIN
}
layer {
  name: "input-data"
  type: "Python"
  top: "data"
  top: "im_info"
  top: "gt_boxes"
  python_param {
    module: "roi_data_layer.layer"
    layer: "RoIDataLayer"
    param_str: "\'num_classes\': 2"
  }
}
layer {
  name: "conv1"
  type: "Convolution"
  bottom: "data"
  top: "conv1"
  param {
    lr_mult: 0
  }
  param {
    lr_mult: 0
  }
  convolution_param {
    num_output: 64
    pad: 3
    kernel_size: 7
    stride: 2
  }
}
layer {
  name: "bn_conv1"
  type: "BatchNorm"
  bottom: "conv1"
  top: "conv1"
  param {
    lr_mult: 0
    decay_mult: 0
  }
  param {
    lr_mult: 0
    decay_mult: 0
  }
  param {
    lr_mult: 0
    decay_mult: 0
  }
  batch_norm_param {
    use_global_stats: true
  }
}
layer {
  name: "scale_conv1"
  type: "Scale"
  bottom: "conv1"
  top: "conv1"
  param {
    lr_mult: 0
    decay_mult: 0
  }
  param {
    lr_mult: 0
    decay_mult: 0
  }
  scale_param {
    bias_term: true
  }
}
layer {
  name: "conv1_relu"
  type: "ReLU"
  bottom: "conv1"
  top: "conv1"
}
layer {
  name: "pool1"
  type: "Pooling"
  bottom: "conv1"
  top: "pool1"
  pooling_param {
    pool: MAX
    kernel_size: 3
    stride: 2
  }
}
layer {
  name: "res2a_branch1"
  type: "Convolution"
  bottom: "pool1"
  top: "res2a_branch1"
  param {
    lr_mult: 0
  }
  convolution_param {
    num_output: 256
    bias_term: false
    pad: 0
    kernel_size: 1
    stride: 1
  }
}
layer {
  name: "bn2a_branch1"
  type: "BatchNorm"
  bottom: "res2a_branch1"
  top: "res2a_branch1"
  param {
    lr_mult: 0
    decay_mult: 0
  }
  param {
    lr_mult: 0
    decay_mult: 0
  }
  param {
    lr_mult: 0
    decay_mult: 0
  }
  batch_norm_param {
    use_global_stats: true
  }
}
layer {
  name: "scale2a_branch1"
  type: "Scale"
  bottom: "res2a_branch1"
  top: "res2a_branch1"
  param {
    lr_mult: 0
    decay_mult: 0
  }
  param {
    lr_mult: 0
    decay_mult: 0
  }
  scale_param {
    bias_term: true
  }
}
layer {
  name: "res2a_branch2a"
  type: "Convolution"
  bottom: "pool1"
  top: "res2a_branch2a"
  param {
    lr_mult: 0
  }
  convolution_param {
    num_output: 64
    bias_term: false
    pad: 0
    kernel_size: 1
    stride: 1
  }
}
layer {
  name: "bn2a_branch2a"
  type: "BatchNorm"
  bottom: "res2a_branch2a"
  top: "res2a_branch2a"
  param {
    lr_mult: 0
    decay_mult: 0
  }
  param {
    lr_mult: 0
    decay_mult: 0
  }
  param {
    lr_mult: 0
    decay_mult: 0
  }
  batch_norm_param {
    use_global_stats: true
  }
}
layer {
  name: "scale2a_branch2a"
  type: "Scale"
  bottom: "res2a_branch2a"
  top: "res2a_branch2a"
  param {
    lr_mult: 0
    decay_mult: 0
  }
  param {
    lr_mult: 0
    decay_mult: 0
  }
  scale_param {
    bias_term: true
  }
}
layer {
  name: "res2a_branch2a_relu"
  type: "ReLU"
  bottom: "res2a_branch2a"
  top: "res2a_branch2a"
}
layer {
  name: "res2a_branch2b"
  type: "Convolution"
  bottom: "res2a_branch2a"
  top: "res2a_branch2b"
  param {
    lr_mult: 0
  }
  convolution_param {
    num_output: 64
    bias_term: false
    pad: 1
    kernel_size: 3
    stride: 1
  }
}
layer {
  name: "bn2a_branch2b"
  type: "BatchNorm"
  bottom: "res2a_branch2b"
  top: "res2a_branch2b"
  param {
    lr_mult: 0
    decay_mult: 0
  }
  param {
    lr_mult: 0
    decay_mult: 0
  }
  param {
    lr_mult: 0
    decay_mult: 0
  }
  batch_norm_param {
    use_global_stats: true
  }
}
layer {
  name: "scale2a_branch2b"
  type: "Scale"
  bottom: "res2a_branch2b"
  top: "res2a_branch2b"
  param {
    lr_mult: 0
    decay_mult: 0
  }
  param {
    lr_mult: 0
    decay_mult: 0
  }
  scale_param {
    bias_term: true
  }
}
layer {
  name: "res2a_branch2b_relu"
  type: "ReLU"
  bottom: "res2a_branch2b"
  top: "res2a_branch2b"
}
layer {
  name: "res2a_branch2c"
  type: "Convolution"
  bottom: "res2a_branch2b"
  top: "res2a_branch2c"
  param {
    lr_mult: 0
  }
  convolution_param {
    num_output: 256
    bias_term: false
    pad: 0
    kernel_size: 1
    stride: 1
  }
}
layer {
  name: "bn2a_branch2c"
  type: "BatchNorm"
  bottom: "res2a_branch2c"
  top: "res2a_branch2c"
  param {
    lr_mult: 0
    decay_mult: 0
  }
  param {
    lr_mult: 0
    decay_mult: 0
  }
  param {
    lr_mult: 0
    decay_mult: 0
  }
  batch_norm_param {
    use_global_stats: true
  }
}
layer {
  name: "scale2a_branch2c"
  type: "Scale"
  bottom: "res2a_branch2c"
  top: "res2a_branch2c"
  param {
    lr_mult: 0
    decay_mult: 0
  }
  param {
    lr_mult: 0
    decay_mult: 0
  }
  scale_param {
    bias_term: true
  }
}
layer {
  name: "res2a"
  type: "Eltwise"
  bottom: "res2a_branch1"
  bottom: "res2a_branch2c"
  top: "res2a"
}
layer {
  name: "res2a_relu"
  type: "ReLU"
  bottom: "res2a"
  top: "res2a"
}
layer {
  name: "res2b_branch2a"
  type: "Convolution"
  bottom: "res2a"
  top: "res2b_branch2a"
  param {
    lr_mult: 0
  }
  convolution_param {
    num_output: 64
    bias_term: false
    pad: 0
    kernel_size: 1
    stride: 1
  }
}
layer {
  name: "bn2b_branch2a"
  type: "BatchNorm"
  bottom: "res2b_branch2a"
  top: "res2b_branch2a"
  param {
    lr_mult: 0
    decay_mult: 0
  }
  param {
    lr_mult: 0
    decay_mult: 0
  }
  param {
    lr_mult: 0
    decay_mult: 0
  }
  batch_norm_param {
    use_global_stats: true
  }
}
layer {
  name: "scale2b_branch2a"
  type: "Scale"
  bottom: "res2b_branch2a"
  top: "res2b_branch2a"
  param {
    lr_mult: 0
    decay_mult: 0
  }
  param {
    lr_mult: 0
    decay_mult: 0
  }
  scale_param {
    bias_term: true
  }
}
layer {
  name: "res2b_branch2a_relu"
  type: "ReLU"
  bottom: "res2b_branch2a"
  top: "res2b_branch2a"
}
layer {
  name: "res2b_branch2b"
  type: "Convolution"
  bottom: "res2b_branch2a"
  top: "res2b_branch2b"
  param {
    lr_mult: 0
  }
  convolution_param {
    num_output: 64
    bias_term: false
    pad: 1
    kernel_size: 3
    stride: 1
  }
}
layer {
  name: "bn2b_branch2b"
  type: "BatchNorm"
  bottom: "res2b_branch2b"
  top: "res2b_branch2b"
  param {
    lr_mult: 0
    decay_mult: 0
  }
  param {
    lr_mult: 0
    decay_mult: 0
  }
  param {
    lr_mult: 0
    decay_mult: 0
  }
  batch_norm_param {
    use_global_stats: true
  }
}
layer {
  name: "scale2b_branch2b"
  type: "Scale"
  bottom: "res2b_branch2b"
  top: "res2b_branch2b"
  param {
    lr_mult: 0
    decay_mult: 0
  }
  param {
    lr_mult: 0
    decay_mult: 0
  }
  scale_param {
    bias_term: true
  }
}
layer {
  name: "res2b_branch2b_relu"
  type: "ReLU"
  bottom: "res2b_branch2b"
  top: "res2b_branch2b"
}
layer {
  name: "res2b_branch2c"
  type: "Convolution"
  bottom: "res2b_branch2b"
  top: "res2b_branch2c"
  param {
    lr_mult: 0
  }
  convolution_param {
    num_output: 256
    bias_term: false
    pad: 0
    kernel_size: 1
    stride: 1
  }
}
layer {
  name: "bn2b_branch2c"
  type: "BatchNorm"
  bottom: "res2b_branch2c"
  top: "res2b_branch2c"
  param {
    lr_mult: 0
    decay_mult: 0
  }
  param {
    lr_mult: 0
    decay_mult: 0
  }
  param {
    lr_mult: 0
    decay_mult: 0
  }
  batch_norm_param {
    use_global_stats: true
  }
}
layer {
  name: "scale2b_branch2c"
  type: "Scale"
  bottom: "res2b_branch2c"
  top: "res2b_branch2c"
  param {
    lr_mult: 0
    decay_mult: 0
  }
  param {
    lr_mult: 0
    decay_mult: 0
  }
  scale_param {
    bias_term: true
  }
}
layer {
  name: "res2b"
  type: "Eltwise"
  bottom: "res2a"
  bottom: "res2b_branch2c"
  top: "res2b"
}
layer {
  name: "res2b_relu"
  type: "ReLU"
  bottom: "res2b"
  top: "res2b"
}
layer {
  name: "res2c_branch2a"
  type: "Convolution"
  bottom: "res2b"
  top: "res2c_branch2a"
  param {
    lr_mult: 0
  }
  convolution_param {
    num_output: 64
    bias_term: false
    pad: 0
    kernel_size: 1
    stride: 1
  }
}
layer {
  name: "bn2c_branch2a"
  type: "BatchNorm"
  bottom: "res2c_branch2a"
  top: "res2c_branch2a"
  param {
    lr_mult: 0
    decay_mult: 0
  }
  param {
    lr_mult: 0
    decay_mult: 0
  }
  param {
    lr_mult: 0
    decay_mult: 0
  }
  batch_norm_param {
    use_global_stats: true
  }
}
layer {
  name: "scale2c_branch2a"
  type: "Scale"
  bottom: "res2c_branch2a"
  top: "res2c_branch2a"
  param {
    lr_mult: 0
    decay_mult: 0
  }
  param {
    lr_mult: 0
    decay_mult: 0
  }
  scale_param {
    bias_term: true
  }
}
layer {
  name: "res2c_branch2a_relu"
  type: "ReLU"
  bottom: "res2c_branch2a"
  top: "res2c_branch2a"
}
layer {
  name: "res2c_branch2b"
  type: "Convolution"
  bottom: "res2c_branch2a"
  top: "res2c_branch2b"
  param {
    lr_mult: 0
  }
  convolution_param {
    num_output: 64
    bias_term: false
    pad: 1
    kernel_size: 3
    stride: 1
  }
}
layer {
  name: "bn2c_branch2b"
  type: "BatchNorm"
  bottom: "res2c_branch2b"
  top: "res2c_branch2b"
  param {
    lr_mult: 0
    decay_mult: 0
  }
  param {
    lr_mult: 0
    decay_mult: 0
  }
  param {
    lr_mult: 0
    decay_mult: 0
  }
  batch_norm_param {
    use_global_stats: true
  }
}
layer {
  name: "scale2c_branch2b"
  type: "Scale"
  bottom: "res2c_branch2b"
  top: "res2c_branch2b"
  param {
    lr_mult: 0
    decay_mult: 0
  }
  param {
    lr_mult: 0
    decay_mult: 0
  }
  scale_param {
    bias_term: true
  }
}
layer {
  name: "res2c_branch2b_relu"
  type: "ReLU"
  bottom: "res2c_branch2b"
  top: "res2c_branch2b"
}
layer {
  name: "res2c_branch2c"
  type: "Convolution"
  bottom: "res2c_branch2b"
  top: "res2c_branch2c"
  param {
    lr_mult: 0
  }
  convolution_param {
    num_output: 256
    bias_term: false
    pad: 0
    kernel_size: 1
    stride: 1
  }
}
layer {
  name: "bn2c_branch2c"
  type: "BatchNorm"
  bottom: "res2c_branch2c"
  top: "res2c_branch2c"
  param {
    lr_mult: 0
    decay_mult: 0
  }
  param {
    lr_mult: 0
    decay_mult: 0
  }
  param {
    lr_mult: 0
    decay_mult: 0
  }
  batch_norm_param {
    use_global_stats: true
  }
}
layer {
  name: "scale2c_branch2c"
  type: "Scale"
  bottom: "res2c_branch2c"
  top: "res2c_branch2c"
  param {
    lr_mult: 0
    decay_mult: 0
  }
  param {
    lr_mult: 0
    decay_mult: 0
  }
  scale_param {
    bias_term: true
  }
}
layer {
  name: "res2c"
  type: "Eltwise"
  bottom: "res2b"
  bottom: "res2c_branch2c"
  top: "res2c"
}
layer {
  name: "res2c_relu"
  type: "ReLU"
  bottom: "res2c"
  top: "res2c"
}
layer {
  name: "res3a_branch1"
  type: "Convolution"
  bottom: "res2c"
  top: "res3a_branch1"
  param {
    lr_mult: 1
  }
  convolution_param {
    num_output: 512
    bias_term: false
    pad: 0
    kernel_size: 1
    stride: 2
  }
}
layer {
  name: "bn3a_branch1"
  type: "BatchNorm"
  bottom: "res3a_branch1"
  top: "res3a_branch1"
  param {
    lr_mult: 0
    decay_mult: 0
  }
  param {
    lr_mult: 0
    decay_mult: 0
  }
  param {
    lr_mult: 0
    decay_mult: 0
  }
  batch_norm_param {
    use_global_stats: true
  }
}
layer {
  name: "scale3a_branch1"
  type: "Scale"
  bottom: "res3a_branch1"
  top: "res3a_branch1"
  param {
    lr_mult: 0
    decay_mult: 0
  }
  param {
    lr_mult: 0
    decay_mult: 0
  }
  scale_param {
    bias_term: true
  }
}
layer {
  name: "res3a_branch2a"
  type: "Convolution"
  bottom: "res2c"
  top: "res3a_branch2a"
  param {
    lr_mult: 1
  }
  convolution_param {
    num_output: 128
    bias_term: false
    pad: 0
    kernel_size: 1
    stride: 2
  }
}
layer {
  name: "bn3a_branch2a"
  type: "BatchNorm"
  bottom: "res3a_branch2a"
  top: "res3a_branch2a"
  param {
    lr_mult: 0
    decay_mult: 0
  }
  param {
    lr_mult: 0
    decay_mult: 0
  }
  param {
    lr_mult: 0
    decay_mult: 0
  }
  batch_norm_param {
    use_global_stats: true
  }
}
layer {
  name: "scale3a_branch2a"
  type: "Scale"
  bottom: "res3a_branch2a"
  top: "res3a_branch2a"
  param {
    lr_mult: 0
    decay_mult: 0
  }
  param {
    lr_mult: 0
    decay_mult: 0
  }
  scale_param {
    bias_term: true
  }
}
layer {
  name: "res3a_branch2a_relu"
  type: "ReLU"
  bottom: "res3a_branch2a"
  top: "res3a_branch2a"
}
layer {
  name: "res3a_branch2b"
  type: "Convolution"
  bottom: "res3a_branch2a"
  top: "res3a_branch2b"
  param {
    lr_mult: 1
  }
  convolution_param {
    num_output: 128
    bias_term: false
    pad: 1
    kernel_size: 3
    stride: 1
  }
}
layer {
  name: "bn3a_branch2b"
  type: "BatchNorm"
  bottom: "res3a_branch2b"
  top: "res3a_branch2b"
  param {
    lr_mult: 0
    decay_mult: 0
  }
  param {
    lr_mult: 0
    decay_mult: 0
  }
  param {
    lr_mult: 0
    decay_mult: 0
  }
  batch_norm_param {
    use_global_stats: true
  }
}
layer {
  name: "scale3a_branch2b"
  type: "Scale"
  bottom: "res3a_branch2b"
  top: "res3a_branch2b"
  param {
    lr_mult: 0
    decay_mult: 0
  }
  param {
    lr_mult: 0
    decay_mult: 0
  }
  scale_param {
    bias_term: true
  }
}
layer {
  name: "res3a_branch2b_relu"
  type: "ReLU"
  bottom: "res3a_branch2b"
  top: "res3a_branch2b"
}
layer {
  name: "res3a_branch2c"
  type: "Convolution"
  bottom: "res3a_branch2b"
  top: "res3a_branch2c"
  param {
    lr_mult: 1
  }
  convolution_param {
    num_output: 512
    bias_term: false
    pad: 0
    kernel_size: 1
    stride: 1
  }
}
layer {
  name: "bn3a_branch2c"
  type: "BatchNorm"
  bottom: "res3a_branch2c"
  top: "res3a_branch2c"
  param {
    lr_mult: 0
    decay_mult: 0
  }
  param {
    lr_mult: 0
    decay_mult: 0
  }
  param {
    lr_mult: 0
    decay_mult: 0
  }
  batch_norm_param {
    use_global_stats: true
  }
}
layer {
  name: "scale3a_branch2c"
  type: "Scale"
  bottom: "res3a_branch2c"
  top: "res3a_branch2c"
  param {
    lr_mult: 0
    decay_mult: 0
  }
  param {
    lr_mult: 0
    decay_mult: 0
  }
  scale_param {
    bias_term: true
  }
}
layer {
  name: "res3a"
  type: "Eltwise"
  bottom: "res3a_branch1"
  bottom: "res3a_branch2c"
  top: "res3a"
}
layer {
  name: "res3a_relu"
  type: "ReLU"
  bottom: "res3a"
  top: "res3a"
}
layer {
  name: "res3b_branch2a"
  type: "Convolution"
  bottom: "res3a"
  top: "res3b_branch2a"
  param {
    lr_mult: 1
  }
  convolution_param {
    num_output: 128
    bias_term: false
    pad: 0
    kernel_size: 1
    stride: 1
  }
}
layer {
  name: "bn3b_branch2a"
  type: "BatchNorm"
  bottom: "res3b_branch2a"
  top: "res3b_branch2a"
  param {
    lr_mult: 0
    decay_mult: 0
  }
  param {
    lr_mult: 0
    decay_mult: 0
  }
  param {
    lr_mult: 0
    decay_mult: 0
  }
  batch_norm_param {
    use_global_stats: true
  }
}
layer {
  name: "scale3b_branch2a"
  type: "Scale"
  bottom: "res3b_branch2a"
  top: "res3b_branch2a"
  param {
    lr_mult: 0
    decay_mult: 0
  }
  param {
    lr_mult: 0
    decay_mult: 0
  }
  scale_param {
    bias_term: true
  }
}
layer {
  name: "res3b_branch2a_relu"
  type: "ReLU"
  bottom: "res3b_branch2a"
  top: "res3b_branch2a"
}
layer {
  name: "res3b_branch2b"
  type: "Convolution"
  bottom: "res3b_branch2a"
  top: "res3b_branch2b"
  param {
    lr_mult: 1
  }
  convolution_param {
    num_output: 128
    bias_term: false
    pad: 1
    kernel_size: 3
    stride: 1
  }
}
layer {
  name: "bn3b_branch2b"
  type: "BatchNorm"
  bottom: "res3b_branch2b"
  top: "res3b_branch2b"
  param {
    lr_mult: 0
    decay_mult: 0
  }
  param {
    lr_mult: 0
    decay_mult: 0
  }
  param {
    lr_mult: 0
    decay_mult: 0
  }
  batch_norm_param {
    use_global_stats: true
  }
}
layer {
  name: "scale3b_branch2b"
  type: "Scale"
  bottom: "res3b_branch2b"
  top: "res3b_branch2b"
  param {
    lr_mult: 0
    decay_mult: 0
  }
  param {
    lr_mult: 0
    decay_mult: 0
  }
  scale_param {
    bias_term: true
  }
}
layer {
  name: "res3b_branch2b_relu"
  type: "ReLU"
  bottom: "res3b_branch2b"
  top: "res3b_branch2b"
}
layer {
  name: "res3b_branch2c"
  type: "Convolution"
  bottom: "res3b_branch2b"
  top: "res3b_branch2c"
  param {
    lr_mult: 1
  }
  convolution_param {
    num_output: 512
    bias_term: false
    pad: 0
    kernel_size: 1
    stride: 1
  }
}
layer {
  name: "bn3b_branch2c"
  type: "BatchNorm"
  bottom: "res3b_branch2c"
  top: "res3b_branch2c"
  param {
    lr_mult: 0
    decay_mult: 0
  }
  param {
    lr_mult: 0
    decay_mult: 0
  }
  param {
    lr_mult: 0
    decay_mult: 0
  }
  batch_norm_param {
    use_global_stats: true
  }
}
layer {
  name: "scale3b_branch2c"
  type: "Scale"
  bottom: "res3b_branch2c"
  top: "res3b_branch2c"
  param {
    lr_mult: 0
    decay_mult: 0
  }
  param {
    lr_mult: 0
    decay_mult: 0
  }
  scale_param {
    bias_term: true
  }
}
layer {
  name: "res3b"
  type: "Eltwise"
  bottom: "res3a"
  bottom: "res3b_branch2c"
  top: "res3b"
}
layer {
  name: "res3b_relu"
  type: "ReLU"
  bottom: "res3b"
  top: "res3b"
}
layer {
  name: "res3c_branch2a"
  type: "Convolution"
  bottom: "res3b"
  top: "res3c_branch2a"
  param {
    lr_mult: 1
  }
  convolution_param {
    num_output: 128
    bias_term: false
    pad: 0
    kernel_size: 1
    stride: 1
  }
}
layer {
  name: "bn3c_branch2a"
  type: "BatchNorm"
  bottom: "res3c_branch2a"
  top: "res3c_branch2a"
  param {
    lr_mult: 0
    decay_mult: 0
  }
  param {
    lr_mult: 0
    decay_mult: 0
  }
  param {
    lr_mult: 0
    decay_mult: 0
  }
  batch_norm_param {
    use_global_stats: true
  }
}
layer {
  name: "scale3c_branch2a"
  type: "Scale"
  bottom: "res3c_branch2a"
  top: "res3c_branch2a"
  param {
    lr_mult: 0
    decay_mult: 0
  }
  param {
    lr_mult: 0
    decay_mult: 0
  }
  scale_param {
    bias_term: true
  }
}
layer {
  name: "res3c_branch2a_relu"
  type: "ReLU"
  bottom: "res3c_branch2a"
  top: "res3c_branch2a"
}
layer {
  name: "res3c_branch2b"
  type: "Convolution"
  bottom: "res3c_branch2a"
  top: "res3c_branch2b"
  param {
    lr_mult: 1
  }
  convolution_param {
    num_output: 128
    bias_term: false
    pad: 1
    kernel_size: 3
    stride: 1
  }
}
layer {
  name: "bn3c_branch2b"
  type: "BatchNorm"
  bottom: "res3c_branch2b"
  top: "res3c_branch2b"
  param {
    lr_mult: 0
    decay_mult: 0
  }
  param {
    lr_mult: 0
    decay_mult: 0
  }
  param {
    lr_mult: 0
    decay_mult: 0
  }
  batch_norm_param {
    use_global_stats: true
  }
}
layer {
  name: "scale3c_branch2b"
  type: "Scale"
  bottom: "res3c_branch2b"
  top: "res3c_branch2b"
  param {
    lr_mult: 0
    decay_mult: 0
  }
  param {
    lr_mult: 0
    decay_mult: 0
  }
  scale_param {
    bias_term: true
  }
}
layer {
  name: "res3c_branch2b_relu"
  type: "ReLU"
  bottom: "res3c_branch2b"
  top: "res3c_branch2b"
}
layer {
  name: "res3c_branch2c"
  type: "Convolution"
  bottom: "res3c_branch2b"
  top: "res3c_branch2c"
  param {
    lr_mult: 1
  }
  convolution_param {
    num_output: 512
    bias_term: false
    pad: 0
    kernel_size: 1
    stride: 1
  }
}
layer {
  name: "bn3c_branch2c"
  type: "BatchNorm"
  bottom: "res3c_branch2c"
  top: "res3c_branch2c"
  param {
    lr_mult: 0
    decay_mult: 0
  }
  param {
    lr_mult: 0
    decay_mult: 0
  }
  param {
    lr_mult: 0
    decay_mult: 0
  }
  batch_norm_param {
    use_global_stats: true
  }
}
layer {
  name: "scale3c_branch2c"
  type: "Scale"
  bottom: "res3c_branch2c"
  top: "res3c_branch2c"
  param {
    lr_mult: 0
    decay_mult: 0
  }
  param {
    lr_mult: 0
    decay_mult: 0
  }
  scale_param {
    bias_term: true
  }
}
layer {
  name: "res3c"
  type: "Eltwise"
  bottom: "res3b"
  bottom: "res3c_branch2c"
  top: "res3c"
}
layer {
  name: "res3c_relu"
  type: "ReLU"
  bottom: "res3c"
  top: "res3c"
}
layer {
  name: "res3d_branch2a"
  type: "Convolution"
  bottom: "res3c"
  top: "res3d_branch2a"
  param {
    lr_mult: 1
  }
  convolution_param {
    num_output: 128
    bias_term: false
    pad: 0
    kernel_size: 1
    stride: 1
  }
}
layer {
  name: "bn3d_branch2a"
  type: "BatchNorm"
  bottom: "res3d_branch2a"
  top: "res3d_branch2a"
  param {
    lr_mult: 0
    decay_mult: 0
  }
  param {
    lr_mult: 0
    decay_mult: 0
  }
  param {
    lr_mult: 0
    decay_mult: 0
  }
  batch_norm_param {
    use_global_stats: true
  }
}
layer {
  name: "scale3d_branch2a"
  type: "Scale"
  bottom: "res3d_branch2a"
  top: "res3d_branch2a"
  param {
    lr_mult: 0
    decay_mult: 0
  }
  param {
    lr_mult: 0
    decay_mult: 0
  }
  scale_param {
    bias_term: true
  }
}
layer {
  name: "res3d_branch2a_relu"
  type: "ReLU"
  bottom: "res3d_branch2a"
  top: "res3d_branch2a"
}
layer {
  name: "res3d_branch2b"
  type: "Convolution"
  bottom: "res3d_branch2a"
  top: "res3d_branch2b"
  param {
    lr_mult: 1
  }
  convolution_param {
    num_output: 128
    bias_term: false
    pad: 1
    kernel_size: 3
    stride: 1
  }
}
layer {
  name: "bn3d_branch2b"
  type: "BatchNorm"
  bottom: "res3d_branch2b"
  top: "res3d_branch2b"
  param {
    lr_mult: 0
    decay_mult: 0
  }
  param {
    lr_mult: 0
    decay_mult: 0
  }
  param {
    lr_mult: 0
    decay_mult: 0
  }
  batch_norm_param {
    use_global_stats: true
  }
}
layer {
  name: "scale3d_branch2b"
  type: "Scale"
  bottom: "res3d_branch2b"
  top: "res3d_branch2b"
  param {
    lr_mult: 0
    decay_mult: 0
  }
  param {
    lr_mult: 0
    decay_mult: 0
  }
  scale_param {
    bias_term: true
  }
}
layer {
  name: "res3d_branch2b_relu"
  type: "ReLU"
  bottom: "res3d_branch2b"
  top: "res3d_branch2b"
}
layer {
  name: "res3d_branch2c"
  type: "Convolution"
  bottom: "res3d_branch2b"
  top: "res3d_branch2c"
  param {
    lr_mult: 1
  }
  convolution_param {
    num_output: 512
    bias_term: false
    pad: 0
    kernel_size: 1
    stride: 1
  }
}
layer {
  name: "bn3d_branch2c"
  type: "BatchNorm"
  bottom: "res3d_branch2c"
  top: "res3d_branch2c"
  param {
    lr_mult: 0
    decay_mult: 0
  }
  param {
    lr_mult: 0
    decay_mult: 0
  }
  param {
    lr_mult: 0
    decay_mult: 0
  }
  batch_norm_param {
    use_global_stats: true
  }
}
layer {
  name: "scale3d_branch2c"
  type: "Scale"
  bottom: "res3d_branch2c"
  top: "res3d_branch2c"
  param {
    lr_mult: 0
    decay_mult: 0
  }
  param {
    lr_mult: 0
    decay_mult: 0
  }
  scale_param {
    bias_term: true
  }
}
layer {
  name: "res3d"
  type: "Eltwise"
  bottom: "res3c"
  bottom: "res3d_branch2c"
  top: "res3d"
}
layer {
  name: "res3d_relu"
  type: "ReLU"
  bottom: "res3d"
  top: "res3d"
}
layer {
  name: "res4a_branch1"
  type: "Convolution"
  bottom: "res3d"
  top: "res4a_branch1"
  param {
    lr_mult: 1
  }
  convolution_param {
    num_output: 1024
    bias_term: false
    pad: 0
    kernel_size: 1
    stride: 2
  }
}
layer {
  name: "bn4a_branch1"
  type: "BatchNorm"
  bottom: "res4a_branch1"
  top: "res4a_branch1"
  param {
    lr_mult: 0
    decay_mult: 0
  }
  param {
    lr_mult: 0
    decay_mult: 0
  }
  param {
    lr_mult: 0
    decay_mult: 0
  }
  batch_norm_param {
    use_global_stats: true
  }
}
layer {
  name: "scale4a_branch1"
  type: "Scale"
  bottom: "res4a_branch1"
  top: "res4a_branch1"
  param {
    lr_mult: 0
    decay_mult: 0
  }
  param {
    lr_mult: 0
    decay_mult: 0
  }
  scale_param {
    bias_term: true
  }
}
layer {
  name: "res4a_branch2a"
  type: "Convolution"
  bottom: "res3d"
  top: "res4a_branch2a"
  param {
    lr_mult: 1
  }
  convolution_param {
    num_output: 256
    bias_term: false
    pad: 0
    kernel_size: 1
    stride: 2
  }
}
layer {
  name: "bn4a_branch2a"
  type: "BatchNorm"
  bottom: "res4a_branch2a"
  top: "res4a_branch2a"
  param {
    lr_mult: 0
    decay_mult: 0
  }
  param {
    lr_mult: 0
    decay_mult: 0
  }
  param {
    lr_mult: 0
    decay_mult: 0
  }
  batch_norm_param {
    use_global_stats: true
  }
}
layer {
  name: "scale4a_branch2a"
  type: "Scale"
  bottom: "res4a_branch2a"
  top: "res4a_branch2a"
  param {
    lr_mult: 0
    decay_mult: 0
  }
  param {
    lr_mult: 0
    decay_mult: 0
  }
  scale_param {
    bias_term: true
  }
}
layer {
  name: "res4a_branch2a_relu"
  type: "ReLU"
  bottom: "res4a_branch2a"
  top: "res4a_branch2a"
}
layer {
  name: "res4a_branch2b"
  type: "Convolution"
  bottom: "res4a_branch2a"
  top: "res4a_branch2b"
  param {
    lr_mult: 1
  }
  convolution_param {
    num_output: 256
    bias_term: false
    pad: 1
    kernel_size: 3
    stride: 1
  }
}
layer {
  name: "bn4a_branch2b"
  type: "BatchNorm"
  bottom: "res4a_branch2b"
  top: "res4a_branch2b"
  param {
    lr_mult: 0
    decay_mult: 0
  }
  param {
    lr_mult: 0
    decay_mult: 0
  }
  param {
    lr_mult: 0
    decay_mult: 0
  }
  batch_norm_param {
    use_global_stats: true
  }
}
layer {
  name: "scale4a_branch2b"
  type: "Scale"
  bottom: "res4a_branch2b"
  top: "res4a_branch2b"
  param {
    lr_mult: 0
    decay_mult: 0
  }
  param {
    lr_mult: 0
    decay_mult: 0
  }
  scale_param {
    bias_term: true
  }
}
layer {
  name: "res4a_branch2b_relu"
  type: "ReLU"
  bottom: "res4a_branch2b"
  top: "res4a_branch2b"
}
layer {
  name: "res4a_branch2c"
  type: "Convolution"
  bottom: "res4a_branch2b"
  top: "res4a_branch2c"
  param {
    lr_mult: 1
  }
  convolution_param {
    num_output: 1024
    bias_term: false
    pad: 0
    kernel_size: 1
    stride: 1
  }
}
layer {
  name: "bn4a_branch2c"
  type: "BatchNorm"
  bottom: "res4a_branch2c"
  top: "res4a_branch2c"
  param {
    lr_mult: 0
    decay_mult: 0
  }
  param {
    lr_mult: 0
    decay_mult: 0
  }
  param {
    lr_mult: 0
    decay_mult: 0
  }
  batch_norm_param {
    use_global_stats: true
  }
}
layer {
  name: "scale4a_branch2c"
  type: "Scale"
  bottom: "res4a_branch2c"
  top: "res4a_branch2c"
  param {
    lr_mult: 0
    decay_mult: 0
  }
  param {
    lr_mult: 0
    decay_mult: 0
  }
  scale_param {
    bias_term: true
  }
}
layer {
  name: "res4a"
  type: "Eltwise"
  bottom: "res4a_branch1"
  bottom: "res4a_branch2c"
  top: "res4a"
}
layer {
  name: "res4a_relu"
  type: "ReLU"
  bottom: "res4a"
  top: "res4a"
}
layer {
  name: "res4b_branch2a"
  type: "Convolution"
  bottom: "res4a"
  top: "res4b_branch2a"
  param {
    lr_mult: 1
  }
  convolution_param {
    num_output: 256
    bias_term: false
    pad: 0
    kernel_size: 1
    stride: 1
  }
}
layer {
  name: "bn4b_branch2a"
  type: "BatchNorm"
  bottom: "res4b_branch2a"
  top: "res4b_branch2a"
  param {
    lr_mult: 0
    decay_mult: 0
  }
  param {
    lr_mult: 0
    decay_mult: 0
  }
  param {
    lr_mult: 0
    decay_mult: 0
  }
  batch_norm_param {
    use_global_stats: true
  }
}
layer {
  name: "scale4b_branch2a"
  type: "Scale"
  bottom: "res4b_branch2a"
  top: "res4b_branch2a"
  param {
    lr_mult: 0
    decay_mult: 0
  }
  param {
    lr_mult: 0
    decay_mult: 0
  }
  scale_param {
    bias_term: true
  }
}
layer {
  name: "res4b_branch2a_relu"
  type: "ReLU"
  bottom: "res4b_branch2a"
  top: "res4b_branch2a"
}
layer {
  name: "res4b_branch2b"
  type: "Convolution"
  bottom: "res4b_branch2a"
  top: "res4b_branch2b"
  param {
    lr_mult: 1
  }
  convolution_param {
    num_output: 256
    bias_term: false
    pad: 1
    kernel_size: 3
    stride: 1
  }
}
layer {
  name: "bn4b_branch2b"
  type: "BatchNorm"
  bottom: "res4b_branch2b"
  top: "res4b_branch2b"
  param {
    lr_mult: 0
    decay_mult: 0
  }
  param {
    lr_mult: 0
    decay_mult: 0
  }
  param {
    lr_mult: 0
    decay_mult: 0
  }
  batch_norm_param {
    use_global_stats: true
  }
}
layer {
  name: "scale4b_branch2b"
  type: "Scale"
  bottom: "res4b_branch2b"
  top: "res4b_branch2b"
  param {
    lr_mult: 0
    decay_mult: 0
  }
  param {
    lr_mult: 0
    decay_mult: 0
  }
  scale_param {
    bias_term: true
  }
}
layer {
  name: "res4b_branch2b_relu"
  type: "ReLU"
  bottom: "res4b_branch2b"
  top: "res4b_branch2b"
}
layer {
  name: "res4b_branch2c"
  type: "Convolution"
  bottom: "res4b_branch2b"
  top: "res4b_branch2c"
  param {
    lr_mult: 1
  }
  convolution_param {
    num_output: 1024
    bias_term: false
    pad: 0
    kernel_size: 1
    stride: 1
  }
}
layer {
  name: "bn4b_branch2c"
  type: "BatchNorm"
  bottom: "res4b_branch2c"
  top: "res4b_branch2c"
  param {
    lr_mult: 0
    decay_mult: 0
  }
  param {
    lr_mult: 0
    decay_mult: 0
  }
  param {
    lr_mult: 0
    decay_mult: 0
  }
  batch_norm_param {
    use_global_stats: true
  }
}
layer {
  name: "scale4b_branch2c"
  type: "Scale"
  bottom: "res4b_branch2c"
  top: "res4b_branch2c"
  param {
    lr_mult: 0
    decay_mult: 0
  }
  param {
    lr_mult: 0
    decay_mult: 0
  }
  scale_param {
    bias_term: true
  }
}
layer {
  name: "res4b"
  type: "Eltwise"
  bottom: "res4a"
  bottom: "res4b_branch2c"
  top: "res4b"
}
layer {
  name: "res4b_relu"
  type: "ReLU"
  bottom: "res4b"
  top: "res4b"
}
layer {
  name: "res4c_branch2a"
  type: "Convolution"
  bottom: "res4b"
  top: "res4c_branch2a"
  param {
    lr_mult: 1
  }
  convolution_param {
    num_output: 256
    bias_term: false
    pad: 0
    kernel_size: 1
    stride: 1
  }
}
layer {
  name: "bn4c_branch2a"
  type: "BatchNorm"
  bottom: "res4c_branch2a"
  top: "res4c_branch2a"
  param {
    lr_mult: 0
    decay_mult: 0
  }
  param {
    lr_mult: 0
    decay_mult: 0
  }
  param {
    lr_mult: 0
    decay_mult: 0
  }
  batch_norm_param {
    use_global_stats: true
  }
}
layer {
  name: "scale4c_branch2a"
  type: "Scale"
  bottom: "res4c_branch2a"
  top: "res4c_branch2a"
  param {
    lr_mult: 0
    decay_mult: 0
  }
  param {
    lr_mult: 0
    decay_mult: 0
  }
  scale_param {
    bias_term: true
  }
}
layer {
  name: "res4c_branch2a_relu"
  type: "ReLU"
  bottom: "res4c_branch2a"
  top: "res4c_branch2a"
}
layer {
  name: "res4c_branch2b"
  type: "Convolution"
  bottom: "res4c_branch2a"
  top: "res4c_branch2b"
  param {
    lr_mult: 1
  }
  convolution_param {
    num_output: 256
    bias_term: false
    pad: 1
    kernel_size: 3
    stride: 1
  }
}
layer {
  name: "bn4c_branch2b"
  type: "BatchNorm"
  bottom: "res4c_branch2b"
  top: "res4c_branch2b"
  param {
    lr_mult: 0
    decay_mult: 0
  }
  param {
    lr_mult: 0
    decay_mult: 0
  }
  param {
    lr_mult: 0
    decay_mult: 0
  }
  batch_norm_param {
    use_global_stats: true
  }
}
layer {
  name: "scale4c_branch2b"
  type: "Scale"
  bottom: "res4c_branch2b"
  top: "res4c_branch2b"
  param {
    lr_mult: 0
    decay_mult: 0
  }
  param {
    lr_mult: 0
    decay_mult: 0
  }
  scale_param {
    bias_term: true
  }
}
layer {
  name: "res4c_branch2b_relu"
  type: "ReLU"
  bottom: "res4c_branch2b"
  top: "res4c_
I0115 23:08:06.268745 17703 layer_factory.hpp:77] Creating layer input-data
I0115 23:08:06.833007 17703 net.cpp:100] Creating Layer input-data
I0115 23:08:06.833299 17703 net.cpp:418] input-data -> data
I0115 23:08:06.833330 17703 net.cpp:418] input-data -> im_info
I0115 23:08:06.833349 17703 net.cpp:418] input-data -> gt_boxes
RoiDataLayer: name_to_top: {'gt_boxes': 2, 'data': 0, 'im_info': 1}
I0115 23:08:10.481279 17703 net.cpp:150] Setting up input-data
I0115 23:08:10.481305 17703 net.cpp:157] Top shape: 1 3 600 1000 (1800000)
I0115 23:08:10.481313 17703 net.cpp:157] Top shape: 1 3 (3)
I0115 23:08:10.481334 17703 net.cpp:157] Top shape: 1 4 (4)
I0115 23:08:10.481341 17703 net.cpp:165] Memory required for data: 7200028
I0115 23:08:10.481353 17703 layer_factory.hpp:77] Creating layer data_input-data_0_split
I0115 23:08:10.482046 17703 net.cpp:100] Creating Layer data_input-data_0_split
I0115 23:08:10.482059 17703 net.cpp:444] data_input-data_0_split <- data
I0115 23:08:10.482071 17703 net.cpp:418] data_input-data_0_split -> data_input-data_0_split_0
I0115 23:08:10.482085 17703 net.cpp:418] data_input-data_0_split -> data_input-data_0_split_1
I0115 23:08:10.482136 17703 net.cpp:150] Setting up data_input-data_0_split
I0115 23:08:10.482146 17703 net.cpp:157] Top shape: 1 3 600 1000 (1800000)
I0115 23:08:10.482153 17703 net.cpp:157] Top shape: 1 3 600 1000 (1800000)
I0115 23:08:10.482161 17703 net.cpp:165] Memory required for data: 21600028
I0115 23:08:10.482168 17703 layer_factory.hpp:77] Creating layer im_info_input-data_1_split
I0115 23:08:10.482177 17703 net.cpp:100] Creating Layer im_info_input-data_1_split
I0115 23:08:10.482184 17703 net.cpp:444] im_info_input-data_1_split <- im_info
I0115 23:08:10.482193 17703 net.cpp:418] im_info_input-data_1_split -> im_info_input-data_1_split_0
I0115 23:08:10.482203 17703 net.cpp:418] im_info_input-data_1_split -> im_info_input-data_1_split_1
I0115 23:08:10.482234 17703 net.cpp:150] Setting up im_info_input-data_1_split
I0115 23:08:10.482242 17703 net.cpp:157] Top shape: 1 3 (3)
I0115 23:08:10.482264 17703 net.cpp:157] Top shape: 1 3 (3)
I0115 23:08:10.482270 17703 net.cpp:165] Memory required for data: 21600052
I0115 23:08:10.482277 17703 layer_factory.hpp:77] Creating layer gt_boxes_input-data_2_split
I0115 23:08:10.482285 17703 net.cpp:100] Creating Layer gt_boxes_input-data_2_split
I0115 23:08:10.482306 17703 net.cpp:444] gt_boxes_input-data_2_split <- gt_boxes
I0115 23:08:10.482316 17703 net.cpp:418] gt_boxes_input-data_2_split -> gt_boxes_input-data_2_split_0
I0115 23:08:10.482326 17703 net.cpp:418] gt_boxes_input-data_2_split -> gt_boxes_input-data_2_split_1
I0115 23:08:10.482355 17703 net.cpp:150] Setting up gt_boxes_input-data_2_split
I0115 23:08:10.482372 17703 net.cpp:157] Top shape: 1 4 (4)
I0115 23:08:10.482379 17703 net.cpp:157] Top shape: 1 4 (4)
I0115 23:08:10.482385 17703 net.cpp:165] Memory required for data: 21600084
I0115 23:08:10.482393 17703 layer_factory.hpp:77] Creating layer conv1
I0115 23:08:10.482408 17703 net.cpp:100] Creating Layer conv1
I0115 23:08:10.482414 17703 net.cpp:444] conv1 <- data_input-data_0_split_0
I0115 23:08:10.482424 17703 net.cpp:418] conv1 -> conv1
I0115 23:08:11.598712 17703 net.cpp:150] Setting up conv1
I0115 23:08:11.598764 17703 net.cpp:157] Top shape: 1 64 300 500 (9600000)
I0115 23:08:11.598779 17703 net.cpp:165] Memory required for data: 60000084
I0115 23:08:11.598809 17703 layer_factory.hpp:77] Creating layer bn_conv1
I0115 23:08:11.599434 17703 net.cpp:100] Creating Layer bn_conv1
I0115 23:08:11.599454 17703 net.cpp:444] bn_conv1 <- conv1
I0115 23:08:11.599469 17703 net.cpp:405] bn_conv1 -> conv1 (in-place)
I0115 23:08:11.599833 17703 net.cpp:150] Setting up bn_conv1
I0115 23:08:11.599853 17703 net.cpp:157] Top shape: 1 64 300 500 (9600000)
I0115 23:08:11.599864 17703 net.cpp:165] Memory required for data: 98400084
I0115 23:08:11.599882 17703 layer_factory.hpp:77] Creating layer scale_conv1
I0115 23:08:11.599900 17703 net.cpp:100] Creating Layer scale_conv1
I0115 23:08:11.599912 17703 net.cpp:444] scale_conv1 <- conv1
I0115 23:08:11.599927 17703 net.cpp:405] scale_conv1 -> conv1 (in-place)
I0115 23:08:11.599987 17703 layer_factory.hpp:77] Creating layer scale_conv1
I0115 23:08:11.601217 17703 net.cpp:150] Setting up scale_conv1
I0115 23:08:11.601248 17703 net.cpp:157] Top shape: 1 64 300 500 (9600000)
I0115 23:08:11.601260 17703 net.cpp:165] Memory required for data: 136800084
I0115 23:08:11.601277 17703 layer_factory.hpp:77] Creating layer conv1_relu
I0115 23:08:11.601294 17703 net.cpp:100] Creating Layer conv1_relu
I0115 23:08:11.601325 17703 net.cpp:444] conv1_relu <- conv1
I0115 23:08:11.601346 17703 net.cpp:405] conv1_relu -> conv1 (in-place)
I0115 23:08:11.602679 17703 net.cpp:150] Setting up conv1_relu
I0115 23:08:11.602707 17703 net.cpp:157] Top shape: 1 64 300 500 (9600000)
I0115 23:08:11.602718 17703 net.cpp:165] Memory required for data: 175200084
I0115 23:08:11.602730 17703 layer_factory.hpp:77] Creating layer pool1
I0115 23:08:11.602749 17703 net.cpp:100] Creating Layer pool1
I0115 23:08:11.602762 17703 net.cpp:444] pool1 <- conv1
I0115 23:08:11.602777 17703 net.cpp:418] pool1 -> pool1
I0115 23:08:11.602846 17703 net.cpp:150] Setting up pool1
I0115 23:08:11.602864 17703 net.cpp:157] Top shape: 1 64 150 250 (2400000)
I0115 23:08:11.602874 17703 net.cpp:165] Memory required for data: 184800084
I0115 23:08:11.602885 17703 layer_factory.hpp:77] Creating layer pool1_pool1_0_split
I0115 23:08:11.602901 17703 net.cpp:100] Creating Layer pool1_pool1_0_split
I0115 23:08:11.602913 17703 net.cpp:444] pool1_pool1_0_split <- pool1
I0115 23:08:11.602927 17703 net.cpp:418] pool1_pool1_0_split -> pool1_pool1_0_split_0
I0115 23:08:11.602943 17703 net.cpp:418] pool1_pool1_0_split -> pool1_pool1_0_split_1
I0115 23:08:11.602995 17703 net.cpp:150] Setting up pool1_pool1_0_split
I0115 23:08:11.603013 17703 net.cpp:157] Top shape: 1 64 150 250 (2400000)
I0115 23:08:11.603024 17703 net.cpp:157] Top shape: 1 64 150 250 (2400000)
I0115 23:08:11.603034 17703 net.cpp:165] Memory required for data: 204000084
I0115 23:08:11.603045 17703 layer_factory.hpp:77] Creating layer res2a_branch1
I0115 23:08:11.603063 17703 net.cpp:100] Creating Layer res2a_branch1
I0115 23:08:11.603076 17703 net.cpp:444] res2a_branch1 <- pool1_pool1_0_split_0
I0115 23:08:11.603098 17703 net.cpp:418] res2a_branch1 -> res2a_branch1
I0115 23:08:11.603997 17703 net.cpp:150] Setting up res2a_branch1
I0115 23:08:11.604025 17703 net.cpp:157] Top shape: 1 256 150 250 (9600000)
I0115 23:08:11.604037 17703 net.cpp:165] Memory required for data: 242400084
I0115 23:08:11.604050 17703 layer_factory.hpp:77] Creating layer bn2a_branch1
I0115 23:08:11.604069 17703 net.cpp:100] Creating Layer bn2a_branch1
I0115 23:08:11.604082 17703 net.cpp:444] bn2a_branch1 <- res2a_branch1
I0115 23:08:11.604104 17703 net.cpp:405] bn2a_branch1 -> res2a_branch1 (in-place)
I0115 23:08:11.605227 17703 net.cpp:150] Setting up bn2a_branch1
I0115 23:08:11.605257 17703 net.cpp:157] Top shape: 1 256 150 250 (9600000)
I0115 23:08:11.605269 17703 net.cpp:165] Memory required for data: 280800084
I0115 23:08:11.605290 17703 layer_factory.hpp:77] Creating layer scale2a_branch1
I0115 23:08:11.605309 17703 net.cpp:100] Creating Layer scale2a_branch1
I0115 23:08:11.605321 17703 net.cpp:444] scale2a_branch1 <- res2a_branch1
I0115 23:08:11.605336 17703 net.cpp:405] scale2a_branch1 -> res2a_branch1 (in-place)
I0115 23:08:11.605397 17703 layer_factory.hpp:77] Creating layer scale2a_branch1
I0115 23:08:11.605593 17703 net.cpp:150] Setting up scale2a_branch1
I0115 23:08:11.605612 17703 net.cpp:157] Top shape: 1 256 150 250 (9600000)
I0115 23:08:11.605623 17703 net.cpp:165] Memory required for data: 319200084
I0115 23:08:11.605638 17703 layer_factory.hpp:77] Creating layer res2a_branch2a
I0115 23:08:11.605654 17703 net.cpp:100] Creating Layer res2a_branch2a
I0115 23:08:11.605669 17703 net.cpp:444] res2a_branch2a <- pool1_pool1_0_split_1
I0115 23:08:11.605684 17703 net.cpp:418] res2a_branch2a -> res2a_branch2a
I0115 23:08:11.608429 17703 net.cpp:150] Setting up res2a_branch2a
I0115 23:08:11.608464 17703 net.cpp:157] Top shape: 1 64 150 250 (2400000)
I0115 23:08:11.608476 17703 net.cpp:165] Memory required for data: 328800084
I0115 23:08:11.608492 17703 layer_factory.hpp:77] Creating layer bn2a_branch2a
I0115 23:08:11.608510 17703 net.cpp:100] Creating Layer bn2a_branch2a
I0115 23:08:11.608546 17703 net.cpp:444] bn2a_branch2a <- res2a_branch2a
I0115 23:08:11.608566 17703 net.cpp:405] bn2a_branch2a -> res2a_branch2a (in-place)
I0115 23:08:11.608831 17703 net.cpp:150] Setting up bn2a_branch2a
I0115 23:08:11.608850 17703 net.cpp:157] Top shape: 1 64 150 250 (2400000)
I0115 23:08:11.608860 17703 net.cpp:165] Memory required for data: 338400084
I0115 23:08:11.608881 17703 layer_factory.hpp:77] Creating layer scale2a_branch2a
I0115 23:08:11.608899 17703 net.cpp:100] Creating Layer scale2a_branch2a
I0115 23:08:11.608911 17703 net.cpp:444] scale2a_branch2a <- res2a_branch2a
I0115 23:08:11.608924 17703 net.cpp:405] scale2a_branch2a -> res2a_branch2a (in-place)
I0115 23:08:11.608983 17703 layer_factory.hpp:77] Creating layer scale2a_branch2a
I0115 23:08:11.609199 17703 net.cpp:150] Setting up scale2a_branch2a
I0115 23:08:11.609216 17703 net.cpp:157] Top shape: 1 64 150 250 (2400000)
I0115 23:08:11.609226 17703 net.cpp:165] Memory required for data: 348000084
I0115 23:08:11.609241 17703 layer_factory.hpp:77] Creating layer res2a_branch2a_relu
I0115 23:08:11.609257 17703 net.cpp:100] Creating Layer res2a_branch2a_relu
I0115 23:08:11.609269 17703 net.cpp:444] res2a_branch2a_relu <- res2a_branch2a
I0115 23:08:11.609282 17703 net.cpp:405] res2a_branch2a_relu -> res2a_branch2a (in-place)
I0115 23:08:11.609987 17703 net.cpp:150] Setting up res2a_branch2a_relu
I0115 23:08:11.610014 17703 net.cpp:157] Top shape: 1 64 150 250 (2400000)
I0115 23:08:11.610025 17703 net.cpp:165] Memory required for data: 357600084
I0115 23:08:11.610036 17703 layer_factory.hpp:77] Creating layer res2a_branch2b
I0115 23:08:11.610055 17703 net.cpp:100] Creating Layer res2a_branch2b
I0115 23:08:11.610067 17703 net.cpp:444] res2a_branch2b <- res2a_branch2a
I0115 23:08:11.610097 17703 net.cpp:418] res2a_branch2b -> res2a_branch2b
I0115 23:08:11.611495 17703 net.cpp:150] Setting up res2a_branch2b
I0115 23:08:11.611528 17703 net.cpp:157] Top shape: 1 64 150 250 (2400000)
I0115 23:08:11.611543 17703 net.cpp:165] Memory required for data: 367200084
I0115 23:08:11.611558 17703 layer_factory.hpp:77] Creating layer bn2a_branch2b
I0115 23:08:11.611574 17703 net.cpp:100] Creating Layer bn2a_branch2b
I0115 23:08:11.611588 17703 net.cpp:444] bn2a_branch2b <- res2a_branch2b
I0115 23:08:11.611604 17703 net.cpp:405] bn2a_branch2b -> res2a_branch2b (in-place)
I0115 23:08:11.611919 17703 net.cpp:150] Setting up bn2a_branch2b
I0115 23:08:11.611941 17703 net.cpp:157] Top shape: 1 64 150 250 (2400000)
I0115 23:08:11.611961 17703 net.cpp:165] Memory required for data: 376800084
I0115 23:08:11.611977 17703 layer_factory.hpp:77] Creating layer scale2a_branch2b
I0115 23:08:11.611991 17703 net.cpp:100] Creating Layer scale2a_branch2b
I0115 23:08:11.612004 17703 net.cpp:444] scale2a_branch2b <- res2a_branch2b
I0115 23:08:11.612018 17703 net.cpp:405] scale2a_branch2b -> res2a_branch2b (in-place)
I0115 23:08:11.612079 17703 layer_factory.hpp:77] Creating layer scale2a_branch2b
I0115 23:08:11.612293 17703 net.cpp:150] Setting up scale2a_branch2b
I0115 23:08:11.612313 17703 net.cpp:157] Top shape: 1 64 150 250 (2400000)
I0115 23:08:11.612324 17703 net.cpp:165] Memory required for data: 386400084
I0115 23:08:11.612339 17703 layer_factory.hpp:77] Creating layer res2a_branch2b_relu
I0115 23:08:11.612351 17703 net.cpp:100] Creating Layer res2a_branch2b_relu
I0115 23:08:11.612365 17703 net.cpp:444] res2a_branch2b_relu <- res2a_branch2b
I0115 23:08:11.612380 17703 net.cpp:405] res2a_branch2b_relu -> res2a_branch2b (in-place)
I0115 23:08:11.613114 17703 net.cpp:150] Setting up res2a_branch2b_relu
I0115 23:08:11.613142 17703 net.cpp:157] Top shape: 1 64 150 250 (2400000)
I0115 23:08:11.613154 17703 net.cpp:165] Memory required for data: 396000084
I0115 23:08:11.613168 17703 layer_factory.hpp:77] Creating layer res2a_branch2c
I0115 23:08:11.613188 17703 net.cpp:100] Creating Layer res2a_branch2c
I0115 23:08:11.613200 17703 net.cpp:444] res2a_branch2c <- res2a_branch2b
I0115 23:08:11.613217 17703 net.cpp:418] res2a_branch2c -> res2a_branch2c
I0115 23:08:11.614603 17703 net.cpp:150] Setting up res2a_branch2c
I0115 23:08:11.614634 17703 net.cpp:157] Top shape: 1 256 150 250 (9600000)
I0115 23:08:11.614646 17703 net.cpp:165] Memory required for data: 434400084
I0115 23:08:11.614661 17703 layer_factory.hpp:77] Creating layer bn2a_branch2c
I0115 23:08:11.614681 17703 net.cpp:100] Creating Layer bn2a_branch2c
I0115 23:08:11.614696 17703 net.cpp:444] bn2a_branch2c <- res2a_branch2c
I0115 23:08:11.614711 17703 net.cpp:405] bn2a_branch2c -> res2a_branch2c (in-place)
I0115 23:08:11.614972 17703 net.cpp:150] Setting up bn2a_branch2c
I0115 23:08:11.614990 17703 net.cpp:157] Top shape: 1 256 150 250 (9600000)
I0115 23:08:11.615002 17703 net.cpp:165] Memory required for data: 472800084
I0115 23:08:11.615020 17703 layer_factory.hpp:77] Creating layer scale2a_branch2c
I0115 23:08:11.615034 17703 net.cpp:100] Creating Layer scale2a_branch2c
I0115 23:08:11.615047 17703 net.cpp:444] scale2a_branch2c <- res2a_branch2c
I0115 23:08:11.615063 17703 net.cpp:405] scale2a_branch2c -> res2a_branch2c (in-place)
I0115 23:08:11.615123 17703 layer_factory.hpp:77] Creating layer scale2a_branch2c
I0115 23:08:11.615326 17703 net.cpp:150] Setting up scale2a_branch2c
I0115 23:08:11.615345 17703 net.cpp:157] Top shape: 1 256 150 250 (9600000)
I0115 23:08:11.615356 17703 net.cpp:165] Memory required for data: 511200084
I0115 23:08:11.615371 17703 layer_factory.hpp:77] Creating layer res2a
I0115 23:08:11.615386 17703 net.cpp:100] Creating Layer res2a
I0115 23:08:11.615398 17703 net.cpp:444] res2a <- res2a_branch1
I0115 23:08:11.615413 17703 net.cpp:444] res2a <- res2a_branch2c
I0115 23:08:11.615429 17703 net.cpp:418] res2a -> res2a
I0115 23:08:11.615470 17703 net.cpp:150] Setting up res2a
I0115 23:08:11.615489 17703 net.cpp:157] Top shape: 1 256 150 250 (9600000)
I0115 23:08:11.615499 17703 net.cpp:165] Memory required for data: 549600084
I0115 23:08:11.615509 17703 layer_factory.hpp:77] Creating layer res2a_relu
I0115 23:08:11.615523 17703 net.cpp:100] Creating Layer res2a_relu
I0115 23:08:11.615535 17703 net.cpp:444] res2a_relu <- res2a
I0115 23:08:11.615548 17703 net.cpp:405] res2a_relu -> res2a (in-place)
I0115 23:08:11.615780 17703 net.cpp:150] Setting up res2a_relu
I0115 23:08:11.615803 17703 net.cpp:157] Top shape: 1 256 150 250 (9600000)
I0115 23:08:11.615814 17703 net.cpp:165] Memory required for data: 588000084
I0115 23:08:11.615828 17703 layer_factory.hpp:77] Creating layer res2a_res2a_relu_0_split
I0115 23:08:11.615842 17703 net.cpp:100] Creating Layer res2a_res2a_relu_0_split
I0115 23:08:11.615862 17703 net.cpp:444] res2a_res2a_relu_0_split <- res2a
I0115 23:08:11.615880 17703 net.cpp:418] res2a_res2a_relu_0_split -> res2a_res2a_relu_0_split_0
I0115 23:08:11.615897 17703 net.cpp:418] res2a_res2a_relu_0_split -> res2a_res2a_relu_0_split_1
I0115 23:08:11.615958 17703 net.cpp:150] Setting up res2a_res2a_relu_0_split
I0115 23:08:11.615975 17703 net.cpp:157] Top shape: 1 256 150 250 (9600000)
I0115 23:08:11.615988 17703 net.cpp:157] Top shape: 1 256 150 250 (9600000)
I0115 23:08:11.615999 17703 net.cpp:165] Memory required for data: 664800084
I0115 23:08:11.616011 17703 layer_factory.hpp:77] Creating layer res2b_branch2a
I0115 23:08:11.616030 17703 net.cpp:100] Creating Layer res2b_branch2a
I0115 23:08:11.616044 17703 net.cpp:444] res2b_branch2a <- res2a_res2a_relu_0_split_0
I0115 23:08:11.616058 17703 net.cpp:418] res2b_branch2a -> res2b_branch2a
I0115 23:08:11.618279 17703 net.cpp:150] Setting up res2b_branch2a
I0115 23:08:11.618311 17703 net.cpp:157] Top shape: 1 64 150 250 (2400000)
I0115 23:08:11.618325 17703 net.cpp:165] Memory required for data: 674400084
I0115 23:08:11.618341 17703 layer_factory.hpp:77] Creating layer bn2b_branch2a
I0115 23:08:11.618358 17703 net.cpp:100] Creating Layer bn2b_branch2a
I0115 23:08:11.618371 17703 net.cpp:444] bn2b_branch2a <- res2b_branch2a
I0115 23:08:11.618387 17703 net.cpp:405] bn2b_branch2a -> res2b_branch2a (in-place)
I0115 23:08:11.619513 17703 net.cpp:150] Setting up bn2b_branch2a
I0115 23:08:11.619541 17703 net.cpp:157] Top shape: 1 64 150 250 (2400000)
I0115 23:08:11.619554 17703 net.cpp:165] Memory required for data: 684000084
I0115 23:08:11.619577 17703 layer_factory.hpp:77] Creating layer scale2b_branch2a
I0115 23:08:11.619596 17703 net.cpp:100] Creating Layer scale2b_branch2a
I0115 23:08:11.619611 17703 net.cpp:444] scale2b_branch2a <- res2b_branch2a
I0115 23:08:11.619626 17703 net.cpp:405] scale2b_branch2a -> res2b_branch2a (in-place)
I0115 23:08:11.619700 17703 layer_factory.hpp:77] Creating layer scale2b_branch2a
I0115 23:08:11.619921 17703 net.cpp:150] Setting up scale2b_branch2a
I0115 23:08:11.619940 17703 net.cpp:157] Top shape: 1 64 150 250 (2400000)
I0115 23:08:11.619952 17703 net.cpp:165] Memory required for data: 693600084
I0115 23:08:11.619967 17703 layer_factory.hpp:77] Creating layer res2b_branch2a_relu
I0115 23:08:11.619982 17703 net.cpp:100] Creating Layer res2b_branch2a_relu
I0115 23:08:11.619994 17703 net.cpp:444] res2b_branch2a_relu <- res2b_branch2a
I0115 23:08:11.620009 17703 net.cpp:405] res2b_branch2a_relu -> res2b_branch2a (in-place)
I0115 23:08:11.620275 17703 net.cpp:150] Setting up res2b_branch2a_relu
I0115 23:08:11.620296 17703 net.cpp:157] Top shape: 1 64 150 250 (2400000)
I0115 23:08:11.620306 17703 net.cpp:165] Memory required for data: 703200084
I0115 23:08:11.620318 17703 layer_factory.hpp:77] Creating layer res2b_branch2b
I0115 23:08:11.620337 17703 net.cpp:100] Creating Layer res2b_branch2b
I0115 23:08:11.620350 17703 net.cpp:444] res2b_branch2b <- res2b_branch2a
I0115 23:08:11.620365 17703 net.cpp:418] res2b_branch2b -> res2b_branch2b
I0115 23:08:11.621783 17703 net.cpp:150] Setting up res2b_branch2b
I0115 23:08:11.621814 17703 net.cpp:157] Top shape: 1 64 150 250 (2400000)
I0115 23:08:11.621825 17703 net.cpp:165] Memory required for data: 712800084
I0115 23:08:11.621840 17703 layer_factory.hpp:77] Creating layer bn2b_branch2b
I0115 23:08:11.621858 17703 net.cpp:100] Creating Layer bn2b_branch2b
I0115 23:08:11.621871 17703 net.cpp:444] bn2b_branch2b <- res2b_branch2b
I0115 23:08:11.621887 17703 net.cpp:405] bn2b_branch2b -> res2b_branch2b (in-place)
I0115 23:08:11.622159 17703 net.cpp:150] Setting up bn2b_branch2b
I0115 23:08:11.622176 17703 net.cpp:157] Top shape: 1 64 150 250 (2400000)
I0115 23:08:11.622187 17703 net.cpp:165] Memory required for data: 722400084
I0115 23:08:11.622205 17703 layer_factory.hpp:77] Creating layer scale2b_branch2b
I0115 23:08:11.622220 17703 net.cpp:100] Creating Layer scale2b_branch2b
I0115 23:08:11.622233 17703 net.cpp:444] scale2b_branch2b <- res2b_branch2b
I0115 23:08:11.622259 17703 net.cpp:405] scale2b_branch2b -> res2b_branch2b (in-place)
I0115 23:08:11.622321 17703 layer_factory.hpp:77] Creating layer scale2b_branch2b
I0115 23:08:11.622531 17703 net.cpp:150] Setting up scale2b_branch2b
I0115 23:08:11.622550 17703 net.cpp:157] Top shape: 1 64 150 250 (2400000)
I0115 23:08:11.622560 17703 net.cpp:165] Memory required for data: 732000084
I0115 23:08:11.622573 17703 layer_factory.hpp:77] Creating layer res2b_branch2b_relu
I0115 23:08:11.622588 17703 net.cpp:100] Creating Layer res2b_branch2b_relu
I0115 23:08:11.622601 17703 net.cpp:444] res2b_branch2b_relu <- res2b_branch2b
I0115 23:08:11.622615 17703 net.cpp:405] res2b_branch2b_relu -> res2b_branch2b (in-place)
I0115 23:08:11.622849 17703 net.cpp:150] Setting up res2b_branch2b_relu
I0115 23:08:11.622870 17703 net.cpp:157] Top shape: 1 64 150 250 (2400000)
I0115 23:08:11.622880 17703 net.cpp:165] Memory required for data: 741600084
I0115 23:08:11.622892 17703 layer_factory.hpp:77] Creating layer res2b_branch2c
I0115 23:08:11.622911 17703 net.cpp:100] Creating Layer res2b_branch2c
I0115 23:08:11.622925 17703 net.cpp:444] res2b_branch2c <- res2b_branch2b
I0115 23:08:11.622941 17703 net.cpp:418] res2b_branch2c -> res2b_branch2c
I0115 23:08:11.624778 17703 net.cpp:150] Setting up res2b_branch2c
I0115 23:08:11.624809 17703 net.cpp:157] Top shape: 1 256 150 250 (9600000)
I0115 23:08:11.624821 17703 net.cpp:165] Memory required for data: 780000084
I0115 23:08:11.624836 17703 layer_factory.hpp:77] Creating layer bn2b_branch2c
I0115 23:08:11.624855 17703 net.cpp:100] Creating Layer bn2b_branch2c
I0115 23:08:11.624867 17703 net.cpp:444] bn2b_branch2c <- res2b_branch2c
I0115 23:08:11.624884 17703 net.cpp:405] bn2b_branch2c -> res2b_branch2c (in-place)
I0115 23:08:11.625154 17703 net.cpp:150] Setting up bn2b_branch2c
I0115 23:08:11.625171 17703 net.cpp:157] Top shape: 1 256 150 250 (9600000)
I0115 23:08:11.625182 17703 net.cpp:165] Memory required for data: 818400084
I0115 23:08:11.625197 17703 layer_factory.hpp:77] Creating layer scale2b_branch2c
I0115 23:08:11.625211 17703 net.cpp:100] Creating Layer scale2b_branch2c
I0115 23:08:11.625222 17703 net.cpp:444] scale2b_branch2c <- res2b_branch2c
I0115 23:08:11.625237 17703 net.cpp:405] scale2b_branch2c -> res2b_branch2c (in-place)
I0115 23:08:11.625293 17703 layer_factory.hpp:77] Creating layer scale2b_branch2c
I0115 23:08:11.625497 17703 net.cpp:150] Setting up scale2b_branch2c
I0115 23:08:11.625515 17703 net.cpp:157] Top shape: 1 256 150 250 (9600000)
I0115 23:08:11.625526 17703 net.cpp:165] Memory required for data: 856800084
I0115 23:08:11.625541 17703 layer_factory.hpp:77] Creating layer res2b
I0115 23:08:11.625557 17703 net.cpp:100] Creating Layer res2b
I0115 23:08:11.625569 17703 net.cpp:444] res2b <- res2a_res2a_relu_0_split_1
I0115 23:08:11.625582 17703 net.cpp:444] res2b <- res2b_branch2c
I0115 23:08:11.625598 17703 net.cpp:418] res2b -> res2b
I0115 23:08:11.625640 17703 net.cpp:150] Setting up res2b
I0115 23:08:11.625658 17703 net.cpp:157] Top shape: 1 256 150 250 (9600000)
I0115 23:08:11.625670 17703 net.cpp:165] Memory required for data: 895200084
I0115 23:08:11.625681 17703 layer_factory.hpp:77] Creating layer res2b_relu
I0115 23:08:11.625695 17703 net.cpp:100] Creating Layer res2b_relu
I0115 23:08:11.625707 17703 net.cpp:444] res2b_relu <- res2b
I0115 23:08:11.625721 17703 net.cpp:405] res2b_relu -> res2b (in-place)
I0115 23:08:11.625988 17703 net.cpp:150] Setting up res2b_relu
I0115 23:08:11.626010 17703 net.cpp:157] Top shape: 1 256 150 250 (9600000)
I0115 23:08:11.626022 17703 net.cpp:165] Memory required for data: 933600084
I0115 23:08:11.626034 17703 layer_factory.hpp:77] Creating layer res2b_res2b_relu_0_split
I0115 23:08:11.626049 17703 net.cpp:100] Creating Layer res2b_res2b_relu_0_split
I0115 23:08:11.626061 17703 net.cpp:444] res2b_res2b_relu_0_split <- res2b
I0115 23:08:11.626090 17703 net.cpp:418] res2b_res2b_relu_0_split -> res2b_res2b_relu_0_split_0
I0115 23:08:11.626109 17703 net.cpp:418] res2b_res2b_relu_0_split -> res2b_res2b_relu_0_split_1
I0115 23:08:11.626176 17703 net.cpp:150] Setting up res2b_res2b_relu_0_split
I0115 23:08:11.626194 17703 net.cpp:157] Top shape: 1 256 150 250 (9600000)
I0115 23:08:11.626207 17703 net.cpp:157] Top shape: 1 256 150 250 (9600000)
I0115 23:08:11.626219 17703 net.cpp:165] Memory required for data: 1010400084
I0115 23:08:11.626230 17703 layer_factory.hpp:77] Creating layer res2c_branch2a
I0115 23:08:11.626248 17703 net.cpp:100] Creating Layer res2c_branch2a
I0115 23:08:11.626261 17703 net.cpp:444] res2c_branch2a <- res2b_res2b_relu_0_split_0
I0115 23:08:11.626276 17703 net.cpp:418] res2c_branch2a -> res2c_branch2a
I0115 23:08:11.627532 17703 net.cpp:150] Setting up res2c_branch2a
I0115 23:08:11.627559 17703 net.cpp:157] Top shape: 1 64 150 250 (2400000)
I0115 23:08:11.627569 17703 net.cpp:165] Memory required for data: 1020000084
I0115 23:08:11.627583 17703 layer_factory.hpp:77] Creating layer bn2c_branch2a
I0115 23:08:11.627600 17703 net.cpp:100] Creating Layer bn2c_branch2a
I0115 23:08:11.627612 17703 net.cpp:444] bn2c_branch2a <- res2c_branch2a
I0115 23:08:11.627624 17703 net.cpp:405] bn2c_branch2a -> res2c_branch2a (in-place)
I0115 23:08:11.627879 17703 net.cpp:150] Setting up bn2c_branch2a
I0115 23:08:11.627895 17703 net.cpp:157] Top shape: 1 64 150 250 (2400000)
I0115 23:08:11.627904 17703 net.cpp:165] Memory required for data: 1029600084
I0115 23:08:11.627918 17703 layer_factory.hpp:77] Creating layer scale2c_branch2a
I0115 23:08:11.627930 17703 net.cpp:100] Creating Layer scale2c_branch2a
I0115 23:08:11.627939 17703 net.cpp:444] scale2c_branch2a <- res2c_branch2a
I0115 23:08:11.627951 17703 net.cpp:405] scale2c_branch2a -> res2c_branch2a (in-place)
I0115 23:08:11.628001 17703 layer_factory.hpp:77] Creating layer scale2c_branch2a
I0115 23:08:11.628182 17703 net.cpp:150] Setting up scale2c_branch2a
I0115 23:08:11.628199 17703 net.cpp:157] Top shape: 1 64 150 250 (2400000)
I0115 23:08:11.628209 17703 net.cpp:165] Memory required for data: 1039200084
I0115 23:08:11.628221 17703 layer_factory.hpp:77] Creating layer res2c_branch2a_relu
I0115 23:08:11.628234 17703 net.cpp:100] Creating Layer res2c_branch2a_relu
I0115 23:08:11.628244 17703 net.cpp:444] res2c_branch2a_relu <- res2c_branch2a
I0115 23:08:11.628257 17703 net.cpp:405] res2c_branch2a_relu -> res2c_branch2a (in-place)
I0115 23:08:11.628864 17703 net.cpp:150] Setting up res2c_branch2a_relu
I0115 23:08:11.628886 17703 net.cpp:157] Top shape: 1 64 150 250 (2400000)
I0115 23:08:11.628895 17703 net.cpp:165] Memory required for data: 1048800084
I0115 23:08:11.628904 17703 layer_factory.hpp:77] Creating layer res2c_branch2b
I0115 23:08:11.628921 17703 net.cpp:100] Creating Layer res2c_branch2b
I0115 23:08:11.628932 17703 net.cpp:444] res2c_branch2b <- res2c_branch2a
I0115 23:08:11.628947 17703 net.cpp:418] res2c_branch2b -> res2c_branch2b
I0115 23:08:11.630147 17703 net.cpp:150] Setting up res2c_branch2b
I0115 23:08:11.630173 17703 net.cpp:157] Top shape: 1 64 150 250 (2400000)
I0115 23:08:11.630183 17703 net.cpp:165] Memory required for data: 1058400084
I0115 23:08:11.630195 17703 layer_factory.hpp:77] Creating layer bn2c_branch2b
I0115 23:08:11.630239 17703 net.cpp:100] Creating Layer bn2c_branch2b
I0115 23:08:11.630250 17703 net.cpp:444] bn2c_branch2b <- res2c_branch2b
I0115 23:08:11.630264 17703 net.cpp:405] bn2c_branch2b -> res2c_branch2b (in-place)
I0115 23:08:11.631260 17703 net.cpp:150] Setting up bn2c_branch2b
I0115 23:08:11.631290 17703 net.cpp:157] Top shape: 1 64 150 250 (2400000)
I0115 23:08:11.631299 17703 net.cpp:165] Memory required for data: 1068000084
I0115 23:08:11.631315 17703 layer_factory.hpp:77] Creating layer scale2c_branch2b
I0115 23:08:11.631330 17703 net.cpp:100] Creating Layer scale2c_branch2b
I0115 23:08:11.631340 17703 net.cpp:444] scale2c_branch2b <- res2c_branch2b
I0115 23:08:11.631356 17703 net.cpp:405] scale2c_branch2b -> res2c_branch2b (in-place)
I0115 23:08:11.631420 17703 layer_factory.hpp:77] Creating layer scale2c_branch2b
I0115 23:08:11.631608 17703 net.cpp:150] Setting up scale2c_branch2b
I0115 23:08:11.631623 17703 net.cpp:157] Top shape: 1 64 150 250 (2400000)
I0115 23:08:11.631659 17703 net.cpp:165] Memory required for data: 1077600084
I0115 23:08:11.631681 17703 layer_factory.hpp:77] Creating layer res2c_branch2b_relu
I0115 23:08:11.631693 17703 net.cpp:100] Creating Layer res2c_branch2b_relu
I0115 23:08:11.631702 17703 net.cpp:444] res2c_branch2b_relu <- res2c_branch2b
I0115 23:08:11.631713 17703 net.cpp:405] res2c_branch2b_relu -> res2c_branch2b (in-place)
I0115 23:08:11.632256 17703 net.cpp:150] Setting up res2c_branch2b_relu
I0115 23:08:11.632275 17703 net.cpp:157] Top shape: 1 64 150 250 (2400000)
I0115 23:08:11.632283 17703 net.cpp:165] Memory required for data: 1087200084
I0115 23:08:11.632290 17703 layer_factory.hpp:77] Creating layer res2c_branch2c
I0115 23:08:11.632304 17703 net.cpp:100] Creating Layer res2c_branch2c
I0115 23:08:11.632313 17703 net.cpp:444] res2c_branch2c <- res2c_branch2b
I0115 23:08:11.632326 17703 net.cpp:418] res2c_branch2c -> res2c_branch2c
I0115 23:08:11.633342 17703 net.cpp:150] Setting up res2c_branch2c
I0115 23:08:11.633363 17703 net.cpp:157] Top shape: 1 256 150 250 (9600000)
I0115 23:08:11.633371 17703 net.cpp:165] Memory required for data: 1125600084
I0115 23:08:11.633381 17703 layer_factory.hpp:77] Creating layer bn2c_branch2c
I0115 23:08:11.633394 17703 net.cpp:100] Creating Layer bn2c_branch2c
I0115 23:08:11.633404 17703 net.cpp:444] bn2c_branch2c <- res2c_branch2c
I0115 23:08:11.633415 17703 net.cpp:405] bn2c_branch2c -> res2c_branch2c (in-place)
I0115 23:08:11.633612 17703 net.cpp:150] Setting up bn2c_branch2c
I0115 23:08:11.633625 17703 net.cpp:157] Top shape: 1 256 150 250 (9600000)
I0115 23:08:11.633633 17703 net.cpp:165] Memory required for data: 1164000084
I0115 23:08:11.633648 17703 layer_factory.hpp:77] Creating layer scale2c_branch2c
I0115 23:08:11.633662 17703 net.cpp:100] Creating Layer scale2c_branch2c
I0115 23:08:11.633671 17703 net.cpp:444] scale2c_branch2c <- res2c_branch2c
I0115 23:08:11.633682 17703 net.cpp:405] scale2c_branch2c -> res2c_branch2c (in-place)
I0115 23:08:11.633725 17703 layer_factory.hpp:77] Creating layer scale2c_branch2c
I0115 23:08:11.633877 17703 net.cpp:150] Setting up scale2c_branch2c
I0115 23:08:11.633889 17703 net.cpp:157] Top shape: 1 256 150 250 (9600000)
I0115 23:08:11.633898 17703 net.cpp:165] Memory required for data: 1202400084
I0115 23:08:11.633908 17703 layer_factory.hpp:77] Creating layer res2c
I0115 23:08:11.633918 17703 net.cpp:100] Creating Layer res2c
I0115 23:08:11.633925 17703 net.cpp:444] res2c <- res2b_res2b_relu_0_split_1
I0115 23:08:11.633934 17703 net.cpp:444] res2c <- res2c_branch2c
I0115 23:08:11.633946 17703 net.cpp:418] res2c -> res2c
I0115 23:08:11.633976 17703 net.cpp:150] Setting up res2c
I0115 23:08:11.633988 17703 net.cpp:157] Top shape: 1 256 150 250 (9600000)
I0115 23:08:11.633997 17703 net.cpp:165] Memory required for data: 1240800084
I0115 23:08:11.634006 17703 layer_factory.hpp:77] Creating layer res2c_relu
I0115 23:08:11.634016 17703 net.cpp:100] Creating Layer res2c_relu
I0115 23:08:11.634024 17703 net.cpp:444] res2c_relu <- res2c
I0115 23:08:11.634035 17703 net.cpp:405] res2c_relu -> res2c (in-place)
I0115 23:08:11.634203 17703 net.cpp:150] Setting up res2c_relu
I0115 23:08:11.634218 17703 net.cpp:157] Top shape: 1 256 150 250 (9600000)
I0115 23:08:11.634227 17703 net.cpp:165] Memory required for data: 1279200084
I0115 23:08:11.634236 17703 layer_factory.hpp:77] Creating layer res2c_res2c_relu_0_split
I0115 23:08:11.634246 17703 net.cpp:100] Creating Layer res2c_res2c_relu_0_split
I0115 23:08:11.634255 17703 net.cpp:444] res2c_res2c_relu_0_split <- res2c
I0115 23:08:11.634268 17703 net.cpp:418] res2c_res2c_relu_0_split -> res2c_res2c_relu_0_split_0
I0115 23:08:11.634281 17703 net.cpp:418] res2c_res2c_relu_0_split -> res2c_res2c_relu_0_split_1
I0115 23:08:11.634327 17703 net.cpp:150] Setting up res2c_res2c_relu_0_split
I0115 23:08:11.634340 17703 net.cpp:157] Top shape: 1 256 150 250 (9600000)
I0115 23:08:11.634349 17703 net.cpp:157] Top shape: 1 256 150 250 (9600000)
I0115 23:08:11.634357 17703 net.cpp:165] Memory required for data: 1356000084
I0115 23:08:11.634371 17703 layer_factory.hpp:77] Creating layer res3a_branch1
I0115 23:08:11.634383 17703 net.cpp:100] Creating Layer res3a_branch1
I0115 23:08:11.634393 17703 net.cpp:444] res3a_branch1 <- res2c_res2c_relu_0_split_0
I0115 23:08:11.634405 17703 net.cpp:418] res3a_branch1 -> res3a_branch1
I0115 23:08:11.635812 17703 net.cpp:150] Setting up res3a_branch1
I0115 23:08:11.635835 17703 net.cpp:157] Top shape: 1 512 75 125 (4800000)
I0115 23:08:11.635845 17703 net.cpp:165] Memory required for data: 1375200084
I0115 23:08:11.635857 17703 layer_factory.hpp:77] Creating layer bn3a_branch1
I0115 23:08:11.635869 17703 net.cpp:100] Creating Layer bn3a_branch1
I0115 23:08:11.635879 17703 net.cpp:444] bn3a_branch1 <- res3a_branch1
I0115 23:08:11.635890 17703 net.cpp:405] bn3a_branch1 -> res3a_branch1 (in-place)
I0115 23:08:11.636708 17703 net.cpp:150] Setting up bn3a_branch1
I0115 23:08:11.636725 17703 net.cpp:157] Top shape: 1 512 75 125 (4800000)
I0115 23:08:11.636734 17703 net.cpp:165] Memory required for data: 1394400084
I0115 23:08:11.636745 17703 layer_factory.hpp:77] Creating layer scale3a_branch1
I0115 23:08:11.636757 17703 net.cpp:100] Creating Layer scale3a_branch1
I0115 23:08:11.636766 17703 net.cpp:444] scale3a_branch1 <- res3a_branch1
I0115 23:08:11.636775 17703 net.cpp:405] scale3a_branch1 -> res3a_branch1 (in-place)
I0115 23:08:11.636814 17703 layer_factory.hpp:77] Creating layer scale3a_branch1
I0115 23:08:11.636926 17703 net.cpp:150] Setting up scale3a_branch1
I0115 23:08:11.636939 17703 net.cpp:157] Top shape: 1 512 75 125 (4800000)
I0115 23:08:11.636946 17703 net.cpp:165] Memory required for data: 1413600084
I0115 23:08:11.636955 17703 layer_factory.hpp:77] Creating layer res3a_branch2a
I0115 23:08:11.636967 17703 net.cpp:100] Creating Layer res3a_branch2a
I0115 23:08:11.636976 17703 net.cpp:444] res3a_branch2a <- res2c_res2c_relu_0_split_1
I0115 23:08:11.636987 17703 net.cpp:418] res3a_branch2a -> res3a_branch2a
I0115 23:08:11.637943 17703 net.cpp:150] Setting up res3a_branch2a
I0115 23:08:11.637961 17703 net.cpp:157] Top shape: 1 128 75 125 (1200000)
I0115 23:08:11.637969 17703 net.cpp:165] Memory required for data: 1418400084
I0115 23:08:11.637977 17703 layer_factory.hpp:77] Creating layer bn3a_branch2a
I0115 23:08:11.637987 17703 net.cpp:100] Creating Layer bn3a_branch2a
I0115 23:08:11.637996 17703 net.cpp:444] bn3a_branch2a <- res3a_branch2a
I0115 23:08:11.638006 17703 net.cpp:405] bn3a_branch2a -> res3a_branch2a (in-place)
I0115 23:08:11.638170 17703 net.cpp:150] Setting up bn3a_branch2a
I0115 23:08:11.638182 17703 net.cpp:157] Top shape: 1 128 75 125 (1200000)
I0115 23:08:11.638190 17703 net.cpp:165] Memory required for data: 1423200084
I0115 23:08:11.638200 17703 layer_factory.hpp:77] Creating layer scale3a_branch2a
I0115 23:08:11.638208 17703 net.cpp:100] Creating Layer scale3a_branch2a
I0115 23:08:11.638216 17703 net.cpp:444] scale3a_branch2a <- res3a_branch2a
I0115 23:08:11.638226 17703 net.cpp:405] scale3a_branch2a -> res3a_branch2a (in-place)
I0115 23:08:11.638267 17703 layer_factory.hpp:77] Creating layer scale3a_branch2a
I0115 23:08:11.638372 17703 net.cpp:150] Setting up scale3a_branch2a
I0115 23:08:11.638383 17703 net.cpp:157] Top shape: 1 128 75 125 (1200000)
I0115 23:08:11.638391 17703 net.cpp:165] Memory required for data: 1428000084
I0115 23:08:11.638398 17703 layer_factory.hpp:77] Creating layer res3a_branch2a_relu
I0115 23:08:11.638407 17703 net.cpp:100] Creating Layer res3a_branch2a_relu
I0115 23:08:11.638415 17703 net.cpp:444] res3a_branch2a_relu <- res3a_branch2a
I0115 23:08:11.638424 17703 net.cpp:405] res3a_branch2a_relu -> res3a_branch2a (in-place)
I0115 23:08:11.638576 17703 net.cpp:150] Setting up res3a_branch2a_relu
I0115 23:08:11.638589 17703 net.cpp:157] Top shape: 1 128 75 125 (1200000)
I0115 23:08:11.638595 17703 net.cpp:165] Memory required for data: 1432800084
I0115 23:08:11.638602 17703 layer_factory.hpp:77] Creating layer res3a_branch2b
I0115 23:08:11.638613 17703 net.cpp:100] Creating Layer res3a_branch2b
I0115 23:08:11.638622 17703 net.cpp:444] res3a_branch2b <- res3a_branch2a
I0115 23:08:11.638638 17703 net.cpp:418] res3a_branch2b -> res3a_branch2b
I0115 23:08:11.639901 17703 net.cpp:150] Setting up res3a_branch2b
I0115 23:08:11.639921 17703 net.cpp:157] Top shape: 1 128 75 125 (1200000)
I0115 23:08:11.639930 17703 net.cpp:165] Memory required for data: 1437600084
I0115 23:08:11.639938 17703 layer_factory.hpp:77] Creating layer bn3a_branch2b
I0115 23:08:11.639951 17703 net.cpp:100] Creating Layer bn3a_branch2b
I0115 23:08:11.639961 17703 net.cpp:444] bn3a_branch2b <- res3a_branch2b
I0115 23:08:11.639971 17703 net.cpp:405] bn3a_branch2b -> res3a_branch2b (in-place)
I0115 23:08:11.640153 17703 net.cpp:150] Setting up bn3a_branch2b
I0115 23:08:11.640166 17703 net.cpp:157] Top shape: 1 128 75 125 (1200000)
I0115 23:08:11.640172 17703 net.cpp:165] Memory required for data: 1442400084
I0115 23:08:11.640182 17703 layer_factory.hpp:77] Creating layer scale3a_branch2b
I0115 23:08:11.640197 17703 net.cpp:100] Creating Layer scale3a_branch2b
I0115 23:08:11.640204 17703 net.cpp:444] scale3a_branch2b <- res3a_branch2b
I0115 23:08:11.640214 17703 net.cpp:405] scale3a_branch2b -> res3a_branch2b (in-place)
I0115 23:08:11.640254 17703 layer_factory.hpp:77] Creating layer scale3a_branch2b
I0115 23:08:11.640381 17703 net.cpp:150] Setting up scale3a_branch2b
I0115 23:08:11.640393 17703 net.cpp:157] Top shape: 1 128 75 125 (1200000)
I0115 23:08:11.640400 17703 net.cpp:165] Memory required for data: 1447200084
I0115 23:08:11.640409 17703 layer_factory.hpp:77] Creating layer res3a_branch2b_relu
I0115 23:08:11.640419 17703 net.cpp:100] Creating Layer res3a_branch2b_relu
I0115 23:08:11.640427 17703 net.cpp:444] res3a_branch2b_relu <- res3a_branch2b
I0115 23:08:11.640435 17703 net.cpp:405] res3a_branch2b_relu -> res3a_branch2b (in-place)
I0115 23:08:11.640591 17703 net.cpp:150] Setting up res3a_branch2b_relu
I0115 23:08:11.640604 17703 net.cpp:157] Top shape: 1 128 75 125 (1200000)
I0115 23:08:11.640611 17703 net.cpp:165] Memory required for data: 1452000084
I0115 23:08:11.640619 17703 layer_factory.hpp:77] Creating layer res3a_branch2c
I0115 23:08:11.640630 17703 net.cpp:100] Creating Layer res3a_branch2c
I0115 23:08:11.640640 17703 net.cpp:444] res3a_branch2c <- res3a_branch2b
I0115 23:08:11.640650 17703 net.cpp:418] res3a_branch2c -> res3a_branch2c
I0115 23:08:11.642309 17703 net.cpp:150] Setting up res3a_branch2c
I0115 23:08:11.642329 17703 net.cpp:157] Top shape: 1 512 75 125 (4800000)
I0115 23:08:11.642352 17703 net.cpp:165] Memory required for data: 1471200084
I0115 23:08:11.642362 17703 layer_factory.hpp:77] Creating layer bn3a_branch2c
I0115 23:08:11.642390 17703 net.cpp:100] Creating Layer bn3a_branch2c
I0115 23:08:11.642397 17703 net.cpp:444] bn3a_branch2c <- res3a_branch2c
I0115 23:08:11.642407 17703 net.cpp:405] bn3a_branch2c -> res3a_branch2c (in-place)
I0115 23:08:11.642587 17703 net.cpp:150] Setting up bn3a_branch2c
I0115 23:08:11.642598 17703 net.cpp:157] Top shape: 1 512 75 125 (4800000)
I0115 23:08:11.642606 17703 net.cpp:165] Memory required for data: 1490400084
I0115 23:08:11.642627 17703 layer_factory.hpp:77] Creating layer scale3a_branch2c
I0115 23:08:11.642639 17703 net.cpp:100] Creating Layer scale3a_branch2c
I0115 23:08:11.642647 17703 net.cpp:444] scale3a_branch2c <- res3a_branch2c
I0115 23:08:11.642657 17703 net.cpp:405] scale3a_branch2c -> res3a_branch2c (in-place)
I0115 23:08:11.642710 17703 layer_factory.hpp:77] Creating layer scale3a_branch2c
I0115 23:08:11.642874 17703 net.cpp:150] Setting up scale3a_branch2c
I0115 23:08:11.642884 17703 net.cpp:157] Top shape: 1 512 75 125 (4800000)
I0115 23:08:11.642890 17703 net.cpp:165] Memory required for data: 1509600084
I0115 23:08:11.642912 17703 layer_factory.hpp:77] Creating layer res3a
I0115 23:08:11.642922 17703 net.cpp:100] Creating Layer res3a
I0115 23:08:11.642943 17703 net.cpp:444] res3a <- res3a_branch1
I0115 23:08:11.642952 17703 net.cpp:444] res3a <- res3a_branch2c
I0115 23:08:11.642962 17703 net.cpp:418] res3a -> res3a
I0115 23:08:11.642990 17703 net.cpp:150] Setting up res3a
I0115 23:08:11.643007 17703 net.cpp:157] Top shape: 1 512 75 125 (4800000)
I0115 23:08:11.643014 17703 net.cpp:165] Memory required for data: 1528800084
I0115 23:08:11.643021 17703 layer_factory.hpp:77] Creating layer res3a_relu
I0115 23:08:11.643033 17703 net.cpp:100] Creating Layer res3a_relu
I0115 23:08:11.643040 17703 net.cpp:444] res3a_relu <- res3a
I0115 23:08:11.643049 17703 net.cpp:405] res3a_relu -> res3a (in-place)
I0115 23:08:11.643231 17703 net.cpp:150] Setting up res3a_relu
I0115 23:08:11.643270 17703 net.cpp:157] Top shape: 1 512 75 125 (4800000)
I0115 23:08:11.643278 17703 net.cpp:165] Memory required for data: 1548000084
I0115 23:08:11.643285 17703 layer_factory.hpp:77] Creating layer res3a_res3a_relu_0_split
I0115 23:08:11.643308 17703 net.cpp:100] Creating Layer res3a_res3a_relu_0_split
I0115 23:08:11.643316 17703 net.cpp:444] res3a_res3a_relu_0_split <- res3a
I0115 23:08:11.643326 17703 net.cpp:418] res3a_res3a_relu_0_split -> res3a_res3a_relu_0_split_0
I0115 23:08:11.643337 17703 net.cpp:418] res3a_res3a_relu_0_split -> res3a_res3a_relu_0_split_1
I0115 23:08:11.643376 17703 net.cpp:150] Setting up res3a_res3a_relu_0_split
I0115 23:08:11.643386 17703 net.cpp:157] Top shape: 1 512 75 125 (4800000)
I0115 23:08:11.643394 17703 net.cpp:157] Top shape: 1 512 75 125 (4800000)
I0115 23:08:11.643400 17703 net.cpp:165] Memory required for data: 1586400084
I0115 23:08:11.643406 17703 layer_factory.hpp:77] Creating layer res3b_branch2a
I0115 23:08:11.643434 17703 net.cpp:100] Creating Layer res3b_branch2a
I0115 23:08:11.643442 17703 net.cpp:444] res3b_branch2a <- res3a_res3a_relu_0_split_0
I0115 23:08:11.643451 17703 net.cpp:418] res3b_branch2a -> res3b_branch2a
I0115 23:08:11.645331 17703 net.cpp:150] Setting up res3b_branch2a
I0115 23:08:11.645356 17703 net.cpp:157] Top shape: 1 128 75 125 (1200000)
I0115 23:08:11.645364 17703 net.cpp:165] Memory required for data: 1591200084
I0115 23:08:11.645373 17703 layer_factory.hpp:77] Creating layer bn3b_branch2a
I0115 23:08:11.645385 17703 net.cpp:100] Creating Layer bn3b_branch2a
I0115 23:08:11.645408 17703 net.cpp:444] bn3b_branch2a <- res3b_branch2a
I0115 23:08:11.645421 17703 net.cpp:405] bn3b_branch2a -> res3b_branch2a (in-place)
I0115 23:08:11.645597 17703 net.cpp:150] Setting up bn3b_branch2a
I0115 23:08:11.645608 17703 net.cpp:157] Top shape: 1 128 75 125 (1200000)
I0115 23:08:11.645614 17703 net.cpp:165] Memory required for data: 1596000084
I0115 23:08:11.645624 17703 layer_factory.hpp:77] Creating layer scale3b_branch2a
I0115 23:08:11.645634 17703 net.cpp:100] Creating Layer scale3b_branch2a
I0115 23:08:11.645642 17703 net.cpp:444] scale3b_branch2a <- res3b_branch2a
I0115 23:08:11.645649 17703 net.cpp:405] scale3b_branch2a -> res3b_branch2a (in-place)
I0115 23:08:11.645686 17703 layer_factory.hpp:77] Creating layer scale3b_branch2a
I0115 23:08:11.645793 17703 net.cpp:150] Setting up scale3b_branch2a
I0115 23:08:11.645818 17703 net.cpp:157] Top shape: 1 128 75 125 (1200000)
I0115 23:08:11.645824 17703 net.cpp:165] Memory required for data: 1600800084
I0115 23:08:11.645833 17703 layer_factory.hpp:77] Creating layer res3b_branch2a_relu
I0115 23:08:11.645855 17703 net.cpp:100] Creating Layer res3b_branch2a_relu
I0115 23:08:11.645861 17703 net.cpp:444] res3b_branch2a_relu <- res3b_branch2a
I0115 23:08:11.645870 17703 net.cpp:405] res3b_branch2a_relu -> res3b_branch2a (in-place)
I0115 23:08:11.646056 17703 net.cpp:150] Setting up res3b_branch2a_relu
I0115 23:08:11.646070 17703 net.cpp:157] Top shape: 1 128 75 125 (1200000)
I0115 23:08:11.646088 17703 net.cpp:165] Memory required for data: 1605600084
I0115 23:08:11.646095 17703 layer_factory.hpp:77] Creating layer res3b_branch2b
I0115 23:08:11.646121 17703 net.cpp:100] Creating Layer res3b_branch2b
I0115 23:08:11.646143 17703 net.cpp:444] res3b_branch2b <- res3b_branch2a
I0115 23:08:11.646167 17703 net.cpp:418] res3b_branch2b -> res3b_branch2b
I0115 23:08:11.648624 17703 net.cpp:150] Setting up res3b_branch2b
I0115 23:08:11.648695 17703 net.cpp:157] Top shape: 1 128 75 125 (1200000)
I0115 23:08:11.648703 17703 net.cpp:165] Memory required for data: 1610400084
I0115 23:08:11.648722 17703 layer_factory.hpp:77] Creating layer bn3b_branch2b
I0115 23:08:11.648741 17703 net.cpp:100] Creating Layer bn3b_branch2b
I0115 23:08:11.648748 17703 net.cpp:444] bn3b_branch2b <- res3b_branch2b
I0115 23:08:11.648759 17703 net.cpp:405] bn3b_branch2b -> res3b_branch2b (in-place)
I0115 23:08:11.648970 17703 net.cpp:150] Setting up bn3b_branch2b
I0115 23:08:11.648983 17703 net.cpp:157] Top shape: 1 128 75 125 (1200000)
I0115 23:08:11.648988 17703 net.cpp:165] Memory required for data: 1615200084
I0115 23:08:11.649013 17703 layer_factory.hpp:77] Creating layer scale3b_branch2b
I0115 23:08:11.649037 17703 net.cpp:100] Creating Layer scale3b_branch2b
I0115 23:08:11.649060 17703 net.cpp:444] scale3b_branch2b <- res3b_branch2b
I0115 23:08:11.649077 17703 net.cpp:405] scale3b_branch2b -> res3b_branch2b (in-place)
I0115 23:08:11.649132 17703 layer_factory.hpp:77] Creating layer scale3b_branch2b
I0115 23:08:11.649271 17703 net.cpp:150] Setting up scale3b_branch2b
I0115 23:08:11.649296 17703 net.cpp:157] Top shape: 1 128 75 125 (1200000)
I0115 23:08:11.649302 17703 net.cpp:165] Memory required for data: 1620000084
I0115 23:08:11.649324 17703 layer_factory.hpp:77] Creating layer res3b_branch2b_relu
I0115 23:08:11.649334 17703 net.cpp:100] Creating Layer res3b_branch2b_relu
I0115 23:08:11.649341 17703 net.cpp:444] res3b_branch2b_relu <- res3b_branch2b
I0115 23:08:11.649351 17703 net.cpp:405] res3b_branch2b_relu -> res3b_branch2b (in-place)
I0115 23:08:11.649832 17703 net.cpp:150] Setting up res3b_branch2b_relu
I0115 23:08:11.649848 17703 net.cpp:157] Top shape: 1 128 75 125 (1200000)
I0115 23:08:11.649869 17703 net.cpp:165] Memory required for data: 1624800084
I0115 23:08:11.649876 17703 layer_factory.hpp:77] Creating layer res3b_branch2c
I0115 23:08:11.649889 17703 net.cpp:100] Creating Layer res3b_branch2c
I0115 23:08:11.649911 17703 net.cpp:444] res3b_branch2c <- res3b_branch2b
I0115 23:08:11.649921 17703 net.cpp:418] res3b_branch2c -> res3b_branch2c
I0115 23:08:11.650996 17703 net.cpp:150] Setting up res3b_branch2c
I0115 23:08:11.651015 17703 net.cpp:157] Top shape: 1 512 75 125 (4800000)
I0115 23:08:11.651022 17703 net.cpp:165] Memory required for data: 1644000084
I0115 23:08:11.651031 17703 layer_factory.hpp:77] Creating layer bn3b_branch2c
I0115 23:08:11.651041 17703 net.cpp:100] Creating Layer bn3b_branch2c
I0115 23:08:11.651049 17703 net.cpp:444] bn3b_branch2c <- res3b_branch2c
I0115 23:08:11.651058 17703 net.cpp:405] bn3b_branch2c -> res3b_branch2c (in-place)
I0115 23:08:11.651221 17703 net.cpp:150] Setting up bn3b_branch2c
I0115 23:08:11.651232 17703 net.cpp:157] Top shape: 1 512 75 125 (4800000)
I0115 23:08:11.651238 17703 net.cpp:165] Memory required for data: 1663200084
I0115 23:08:11.651247 17703 layer_factory.hpp:77] Creating layer scale3b_branch2c
I0115 23:08:11.651255 17703 net.cpp:100] Creating Layer scale3b_branch2c
I0115 23:08:11.651263 17703 net.cpp:444] scale3b_branch2c <- res3b_branch2c
I0115 23:08:11.651273 17703 net.cpp:405] scale3b_branch2c -> res3b_branch2c (in-place)
I0115 23:08:11.651309 17703 layer_factory.hpp:77] Creating layer scale3b_branch2c
I0115 23:08:11.651413 17703 net.cpp:150] Setting up scale3b_branch2c
I0115 23:08:11.651427 17703 net.cpp:157] Top shape: 1 512 75 125 (4800000)
I0115 23:08:11.651432 17703 net.cpp:165] Memory required for data: 1682400084
I0115 23:08:11.651440 17703 layer_factory.hpp:77] Creating layer res3b
I0115 23:08:11.651449 17703 net.cpp:100] Creating Layer res3b
I0115 23:08:11.651456 17703 net.cpp:444] res3b <- res3a_res3a_relu_0_split_1
I0115 23:08:11.651464 17703 net.cpp:444] res3b <- res3b_branch2c
I0115 23:08:11.651473 17703 net.cpp:418] res3b -> res3b
I0115 23:08:11.651500 17703 net.cpp:150] Setting up res3b
I0115 23:08:11.651510 17703 net.cpp:157] Top shape: 1 512 75 125 (4800000)
I0115 23:08:11.651516 17703 net.cpp:165] Memory required for data: 1701600084
I0115 23:08:11.651522 17703 layer_factory.hpp:77] Creating layer res3b_relu
I0115 23:08:11.651530 17703 net.cpp:100] Creating Layer res3b_relu
I0115 23:08:11.651543 17703 net.cpp:444] res3b_relu <- res3b
I0115 23:08:11.651566 17703 net.cpp:405] res3b_relu -> res3b (in-place)
I0115 23:08:11.651765 17703 net.cpp:150] Setting up res3b_relu
I0115 23:08:11.651779 17703 net.cpp:157] Top shape: 1 512 75 125 (4800000)
I0115 23:08:11.651787 17703 net.cpp:165] Memory required for data: 1720800084
I0115 23:08:11.651793 17703 layer_factory.hpp:77] Creating layer res3b_res3b_relu_0_split
I0115 23:08:11.651801 17703 net.cpp:100] Creating Layer res3b_res3b_relu_0_split
I0115 23:08:11.651808 17703 net.cpp:444] res3b_res3b_relu_0_split <- res3b
I0115 23:08:11.651818 17703 net.cpp:418] res3b_res3b_relu_0_split -> res3b_res3b_relu_0_split_0
I0115 23:08:11.651840 17703 net.cpp:418] res3b_res3b_relu_0_split -> res3b_res3b_relu_0_split_1
I0115 23:08:11.651918 17703 net.cpp:150] Setting up res3b_res3b_relu_0_split
I0115 23:08:11.651929 17703 net.cpp:157] Top shape: 1 512 75 125 (4800000)
I0115 23:08:11.651937 17703 net.cpp:157] Top shape: 1 512 75 125 (4800000)
I0115 23:08:11.651957 17703 net.cpp:165] Memory required for data: 1759200084
I0115 23:08:11.651963 17703 layer_factory.hpp:77] Creating layer res3c_branch2a
I0115 23:08:11.651974 17703 net.cpp:100] Creating Layer res3c_branch2a
I0115 23:08:11.651983 17703 net.cpp:444] res3c_branch2a <- res3b_res3b_relu_0_split_0
I0115 23:08:11.651993 17703 net.cpp:418] res3c_branch2a -> res3c_branch2a
I0115 23:08:11.652906 17703 net.cpp:150] Setting up res3c_branch2a
I0115 23:08:11.652923 17703 net.cpp:157] Top shape: 1 128 75 125 (1200000)
I0115 23:08:11.652931 17703 net.cpp:165] Memory required for data: 1764000084
I0115 23:08:11.652953 17703 layer_factory.hpp:77] Creating layer bn3c_branch2a
I0115 23:08:11.652964 17703 net.cpp:100] Creating Layer bn3c_branch2a
I0115 23:08:11.652972 17703 net.cpp:444] bn3c_branch2a <- res3c_branch2a
I0115 23:08:11.652995 17703 net.cpp:405] bn3c_branch2a -> res3c_branch2a (in-place)
I0115 23:08:11.653162 17703 net.cpp:150] Setting up bn3c_branch2a
I0115 23:08:11.653172 17703 net.cpp:157] Top shape: 1 128 75 125 (1200000)
I0115 23:08:11.653179 17703 net.cpp:165] Memory required for data: 1768800084
I0115 23:08:11.653190 17703 layer_factory.hpp:77] Creating layer scale3c_branch2a
I0115 23:08:11.653199 17703 net.cpp:100] Creating Layer scale3c_branch2a
I0115 23:08:11.653208 17703 net.cpp:444] scale3c_branch2a <- res3c_branch2a
I0115 23:08:11.653216 17703 net.cpp:405] scale3c_branch2a -> res3c_branch2a (in-place)
I0115 23:08:11.653255 17703 layer_factory.hpp:77] Creating layer scale3c_branch2a
I0115 23:08:11.653359 17703 net.cpp:150] Setting up scale3c_branch2a
I0115 23:08:11.653370 17703 net.cpp:157] Top shape: 1 128 75 125 (1200000)
I0115 23:08:11.653378 17703 net.cpp:165] Memory required for data: 1773600084
I0115 23:08:11.653386 17703 layer_factory.hpp:77] Creating layer res3c_branch2a_relu
I0115 23:08:11.653395 17703 net.cpp:100] Creating Layer res3c_branch2a_relu
I0115 23:08:11.653403 17703 net.cpp:444] res3c_branch2a_relu <- res3c_branch2a
I0115 23:08:11.653412 17703 net.cpp:405] res3c_branch2a_relu -> res3c_branch2a (in-place)
I0115 23:08:11.653581 17703 net.cpp:150] Setting up res3c_branch2a_relu
I0115 23:08:11.653594 17703 net.cpp:157] Top shape: 1 128 75 125 (1200000)
I0115 23:08:11.653600 17703 net.cpp:165] Memory required for data: 1778400084
I0115 23:08:11.653607 17703 layer_factory.hpp:77] Creating layer res3c_branch2b
I0115 23:08:11.653618 17703 net.cpp:100] Creating Layer res3c_branch2b
I0115 23:08:11.653626 17703 net.cpp:444] res3c_branch2b <- res3c_branch2a
I0115 23:08:11.653636 17703 net.cpp:418] res3c_branch2b -> res3c_branch2b
I0115 23:08:11.654911 17703 net.cpp:150] Setting up res3c_branch2b
I0115 23:08:11.654929 17703 net.cpp:157] Top shape: 1 128 75 125 (1200000)
I0115 23:08:11.654952 17703 net.cpp:165] Memory required for data: 1783200084
I0115 23:08:11.654961 17703 layer_factory.hpp:77] Creating layer bn3c_branch2b
I0115 23:08:11.654973 17703 net.cpp:100] Creating Layer bn3c_branch2b
I0115 23:08:11.654980 17703 net.cpp:444] bn3c_branch2b <- res3c_branch2b
I0115 23:08:11.654989 17703 net.cpp:405] bn3c_branch2b -> res3c_branch2b (in-place)
I0115 23:08:11.655180 17703 net.cpp:150] Setting up bn3c_branch2b
I0115 23:08:11.655191 17703 net.cpp:157] Top shape: 1 128 75 125 (1200000)
I0115 23:08:11.655198 17703 net.cpp:165] Memory required for data: 1788000084
I0115 23:08:11.655221 17703 layer_factory.hpp:77] Creating layer scale3c_branch2b
I0115 23:08:11.655232 17703 net.cpp:100] Creating Layer scale3c_branch2b
I0115 23:08:11.655241 17703 net.cpp:444] scale3c_branch2b <- res3c_branch2b
I0115 23:08:11.655248 17703 net.cpp:405] scale3c_branch2b -> res3c_branch2b (in-place)
I0115 23:08:11.655300 17703 layer_factory.hpp:77] Creating layer scale3c_branch2b
I0115 23:08:11.655445 17703 net.cpp:150] Setting up scale3c_branch2b
I0115 23:08:11.655457 17703 net.cpp:157] Top shape: 1 128 75 125 (1200000)
I0115 23:08:11.655477 17703 net.cpp:165] Memory required for data: 1792800084
I0115 23:08:11.655485 17703 layer_factory.hpp:77] Creating layer res3c_branch2b_relu
I0115 23:08:11.655495 17703 net.cpp:100] Creating Layer res3c_branch2b_relu
I0115 23:08:11.655503 17703 net.cpp:444] res3c_branch2b_relu <- res3c_branch2b
I0115 23:08:11.655511 17703 net.cpp:405] res3c_branch2b_relu -> res3c_branch2b (in-place)
I0115 23:08:11.655722 17703 net.cpp:150] Setting up res3c_branch2b_relu
I0115 23:08:11.655736 17703 net.cpp:157] Top shape: 1 128 75 125 (1200000)
I0115 23:08:11.655743 17703 net.cpp:165] Memory required for data: 1797600084
I0115 23:08:11.655750 17703 layer_factory.hpp:77] Creating layer res3c_branch2c
I0115 23:08:11.655763 17703 net.cpp:100] Creating Layer res3c_branch2c
I0115 23:08:11.655772 17703 net.cpp:444] res3c_branch2c <- res3c_branch2b
I0115 23:08:11.655781 17703 net.cpp:418] res3c_branch2c -> res3c_branch2c
I0115 23:08:11.657294 17703 net.cpp:150] Setting up res3c_branch2c
I0115 23:08:11.657361 17703 net.cpp:157] Top shape: 1 512 75 125 (4800000)
I0115 23:08:11.657369 17703 net.cpp:165] Memory required for data: 1816800084
I0115 23:08:11.657392 17703 layer_factory.hpp:77] Creating layer bn3c_branch2c
I0115 23:08:11.657404 17703 net.cpp:100] Creating Layer bn3c_branch2c
I0115 23:08:11.657413 17703 net.cpp:444] bn3c_branch2c <- res3c_branch2c
I0115 23:08:11.657423 17703 net.cpp:405] bn3c_branch2c -> res3c_branch2c (in-place)
I0115 23:08:11.657606 17703 net.cpp:150] Setting up bn3c_branch2c
I0115 23:08:11.657616 17703 net.cpp:157] Top shape: 1 512 75 125 (4800000)
I0115 23:08:11.657624 17703 net.cpp:165] Memory required for data: 1836000084
I0115 23:08:11.657646 17703 layer_factory.hpp:77] Creating layer scale3c_branch2c
I0115 23:08:11.657656 17703 net.cpp:100] Creating Layer scale3c_branch2c
I0115 23:08:11.657665 17703 net.cpp:444] scale3c_branch2c <- res3c_branch2c
I0115 23:08:11.657672 17703 net.cpp:405] scale3c_branch2c -> res3c_branch2c (in-place)
I0115 23:08:11.657722 17703 layer_factory.hpp:77] Creating layer scale3c_branch2c
I0115 23:08:11.657857 17703 net.cpp:150] Setting up scale3c_branch2c
I0115 23:08:11.657868 17703 net.cpp:157] Top shape: 1 512 75 125 (4800000)
I0115 23:08:11.657876 17703 net.cpp:165] Memory required for data: 1855200084
I0115 23:08:11.657897 17703 layer_factory.hpp:77] Creating layer res3c
I0115 23:08:11.657920 17703 net.cpp:100] Creating Layer res3c
I0115 23:08:11.657928 17703 net.cpp:444] res3c <- res3b_res3b_relu_0_split_1
I0115 23:08:11.657937 17703 net.cpp:444] res3c <- res3c_branch2c
I0115 23:08:11.657946 17703 net.cpp:418] res3c -> res3c
I0115 23:08:11.657974 17703 net.cpp:150] Setting up res3c
I0115 23:08:11.657984 17703 net.cpp:157] Top shape: 1 512 75 125 (4800000)
I0115 23:08:11.657990 17703 net.cpp:165] Memory required for data: 1874400084
I0115 23:08:11.657997 17703 layer_factory.hpp:77] Creating layer res3c_relu
I0115 23:08:11.658005 17703 net.cpp:100] Creating Layer res3c_relu
I0115 23:08:11.658012 17703 net.cpp:444] res3c_relu <- res3c
I0115 23:08:11.658035 17703 net.cpp:405] res3c_relu -> res3c (in-place)
I0115 23:08:11.658205 17703 net.cpp:150] Setting up res3c_relu
I0115 23:08:11.658218 17703 net.cpp:157] Top shape: 1 512 75 125 (4800000)
I0115 23:08:11.658226 17703 net.cpp:165] Memory required for data: 1893600084
I0115 23:08:11.658237 17703 layer_factory.hpp:77] Creating layer res3c_res3c_relu_0_split
I0115 23:08:11.658248 17703 net.cpp:100] Creating Layer res3c_res3c_relu_0_split
I0115 23:08:11.658269 17703 net.cpp:444] res3c_res3c_relu_0_split <- res3c
I0115 23:08:11.658277 17703 net.cpp:418] res3c_res3c_relu_0_split -> res3c_res3c_relu_0_split_0
I0115 23:08:11.658289 17703 net.cpp:418] res3c_res3c_relu_0_split -> res3c_res3c_relu_0_split_1
I0115 23:08:11.658329 17703 net.cpp:150] Setting up res3c_res3c_relu_0_split
I0115 23:08:11.658340 17703 net.cpp:157] Top shape: 1 512 75 125 (4800000)
I0115 23:08:11.658349 17703 net.cpp:157] Top shape: 1 512 75 125 (4800000)
I0115 23:08:11.658355 17703 net.cpp:165] Memory required for data: 1932000084
I0115 23:08:11.658362 17703 layer_factory.hpp:77] Creating layer res3d_branch2a
I0115 23:08:11.658373 17703 net.cpp:100] Creating Layer res3d_branch2a
I0115 23:08:11.658381 17703 net.cpp:444] res3d_branch2a <- res3c_res3c_relu_0_split_0
I0115 23:08:11.658391 17703 net.cpp:418] res3d_branch2a -> res3d_branch2a
I0115 23:08:11.659307 17703 net.cpp:150] Setting up res3d_branch2a
I0115 23:08:11.659324 17703 net.cpp:157] Top shape: 1 128 75 125 (1200000)
I0115 23:08:11.659332 17703 net.cpp:165] Memory required for data: 1936800084
I0115 23:08:11.659342 17703 layer_factory.hpp:77] Creating layer bn3d_branch2a
I0115 23:08:11.659353 17703 net.cpp:100] Creating Layer bn3d_branch2a
I0115 23:08:11.659363 17703 net.cpp:444] bn3d_branch2a <- res3d_branch2a
I0115 23:08:11.659373 17703 net.cpp:405] bn3d_branch2a -> res3d_branch2a (in-place)
I0115 23:08:11.659538 17703 net.cpp:150] Setting up bn3d_branch2a
I0115 23:08:11.659549 17703 net.cpp:157] Top shape: 1 128 75 125 (1200000)
I0115 23:08:11.659557 17703 net.cpp:165] Memory required for data: 1941600084
I0115 23:08:11.659574 17703 layer_factory.hpp:77] Creating layer scale3d_branch2a
I0115 23:08:11.659584 17703 net.cpp:100] Creating Layer scale3d_branch2a
I0115 23:08:11.659591 17703 net.cpp:444] scale3d_branch2a <- res3d_branch2a
I0115 23:08:11.659601 17703 net.cpp:405] scale3d_branch2a -> res3d_branch2a (in-place)
I0115 23:08:11.659647 17703 layer_factory.hpp:77] Creating layer scale3d_branch2a
I0115 23:08:11.659787 17703 net.cpp:150] Setting up scale3d_branch2a
I0115 23:08:11.659799 17703 net.cpp:157] Top shape: 1 128 75 125 (1200000)
I0115 23:08:11.659807 17703 net.cpp:165] Memory required for data: 1946400084
I0115 23:08:11.659816 17703 layer_factory.hpp:77] Creating layer res3d_branch2a_relu
I0115 23:08:11.659826 17703 net.cpp:100] Creating Layer res3d_branch2a_relu
I0115 23:08:11.659833 17703 net.cpp:444] res3d_branch2a_relu <- res3d_branch2a
I0115 23:08:11.659842 17703 net.cpp:405] res3d_branch2a_relu -> res3d_branch2a (in-place)
I0115 23:08:11.659986 17703 net.cpp:150] Setting up res3d_branch2a_relu
I0115 23:08:11.659999 17703 net.cpp:157] Top shape: 1 128 75 125 (1200000)
I0115 23:08:11.660006 17703 net.cpp:165] Memory required for data: 1951200084
I0115 23:08:11.660013 17703 layer_factory.hpp:77] Creating layer res3d_branch2b
I0115 23:08:11.660025 17703 net.cpp:100] Creating Layer res3d_branch2b
I0115 23:08:11.660033 17703 net.cpp:444] res3d_branch2b <- res3d_branch2a
I0115 23:08:11.660043 17703 net.cpp:418] res3d_branch2b -> res3d_branch2b
I0115 23:08:11.661458 17703 net.cpp:150] Setting up res3d_branch2b
I0115 23:08:11.661481 17703 net.cpp:157] Top shape: 1 128 75 125 (1200000)
I0115 23:08:11.661504 17703 net.cpp:165] Memory required for data: 1956000084
I0115 23:08:11.661515 17703 layer_factory.hpp:77] Creating layer bn3d_branch2b
I0115 23:08:11.661552 17703 net.cpp:100] Creating Layer bn3d_branch2b
I0115 23:08:11.661573 17703 net.cpp:444] bn3d_branch2b <- res3d_branch2b
I0115 23:08:11.661583 17703 net.cpp:405] bn3d_branch2b -> res3d_branch2b (in-place)
I0115 23:08:11.661846 17703 net.cpp:150] Setting up bn3d_branch2b
I0115 23:08:11.661859 17703 net.cpp:157] Top shape: 1 128 75 125 (1200000)
I0115 23:08:11.661865 17703 net.cpp:165] Memory required for data: 1960800084
I0115 23:08:11.661875 17703 layer_factory.hpp:77] Creating layer scale3d_branch2b
I0115 23:08:11.661892 17703 net.cpp:100] Creating Layer scale3d_branch2b
I0115 23:08:11.661901 17703 net.cpp:444] scale3d_branch2b <- res3d_branch2b
I0115 23:08:11.661911 17703 net.cpp:405] scale3d_branch2b -> res3d_branch2b (in-place)
I0115 23:08:11.661962 17703 layer_factory.hpp:77] Creating layer scale3d_branch2b
I0115 23:08:11.662096 17703 net.cpp:150] Setting up scale3d_branch2b
I0115 23:08:11.662107 17703 net.cpp:157] Top shape: 1 128 75 125 (1200000)
I0115 23:08:11.662115 17703 net.cpp:165] Memory required for data: 1965600084
I0115 23:08:11.662124 17703 layer_factory.hpp:77] Creating layer res3d_branch2b_relu
I0115 23:08:11.662137 17703 net.cpp:100] Creating Layer res3d_branch2b_relu
I0115 23:08:11.662144 17703 net.cpp:444] res3d_branch2b_relu <- res3d_branch2b
I0115 23:08:11.662166 17703 net.cpp:405] res3d_branch2b_relu -> res3d_branch2b (in-place)
I0115 23:08:11.662649 17703 net.cpp:150] Setting up res3d_branch2b_relu
I0115 23:08:11.662667 17703 net.cpp:157] Top shape: 1 128 75 125 (1200000)
I0115 23:08:11.662673 17703 net.cpp:165] Memory required for data: 1970400084
I0115 23:08:11.662681 17703 layer_factory.hpp:77] Creating layer res3d_branch2c
I0115 23:08:11.662693 17703 net.cpp:100] Creating Layer res3d_branch2c
I0115 23:08:11.662699 17703 net.cpp:444] res3d_branch2c <- res3d_branch2b
I0115 23:08:11.662711 17703 net.cpp:418] res3d_branch2c -> res3d_branch2c
I0115 23:08:11.663724 17703 net.cpp:150] Setting up res3d_branch2c
I0115 23:08:11.663772 17703 net.cpp:157] Top shape: 1 512 75 125 (4800000)
I0115 23:08:11.663779 17703 net.cpp:165] Memory required for data: 1989600084
I0115 23:08:11.663803 17703 layer_factory.hpp:77] Creating layer bn3d_branch2c
I0115 23:08:11.663830 17703 net.cpp:100] Creating Layer bn3d_branch2c
I0115 23:08:11.663837 17703 net.cpp:444] bn3d_branch2c <- res3d_branch2c
I0115 23:08:11.663848 17703 net.cpp:405] bn3d_branch2c -> res3d_branch2c (in-place)
I0115 23:08:11.664032 17703 net.cpp:150] Setting up bn3d_branch2c
I0115 23:08:11.664044 17703 net.cpp:157] Top shape: 1 512 75 125 (4800000)
I0115 23:08:11.664050 17703 net.cpp:165] Memory required for data: 2008800084
I0115 23:08:11.664073 17703 layer_factory.hpp:77] Creating layer scale3d_branch2c
I0115 23:08:11.664085 17703 net.cpp:100] Creating Layer scale3d_branch2c
I0115 23:08:11.664106 17703 net.cpp:444] scale3d_branch2c <- res3d_branch2c
I0115 23:08:11.664115 17703 net.cpp:405] scale3d_branch2c -> res3d_branch2c (in-place)
I0115 23:08:11.664168 17703 layer_factory.hpp:77] Creating layer scale3d_branch2c
I0115 23:08:11.664347 17703 net.cpp:150] Setting up scale3d_branch2c
I0115 23:08:11.664358 17703 net.cpp:157] Top shape: 1 512 75 125 (4800000)
I0115 23:08:11.664364 17703 net.cpp:165] Memory required for data: 2028000084
I0115 23:08:11.664387 17703 layer_factory.hpp:77] Creating layer res3d
I0115 23:08:11.664397 17703 net.cpp:100] Creating Layer res3d
I0115 23:08:11.664418 17703 net.cpp:444] res3d <- res3c_res3c_relu_0_split_1
I0115 23:08:11.664427 17703 net.cpp:444] res3d <- res3d_branch2c
I0115 23:08:11.664436 17703 net.cpp:418] res3d -> res3d
I0115 23:08:11.664465 17703 net.cpp:150] Setting up res3d
I0115 23:08:11.664475 17703 net.cpp:157] Top shape: 1 512 75 125 (4800000)
I0115 23:08:11.664482 17703 net.cpp:165] Memory required for data: 2047200084
I0115 23:08:11.664489 17703 layer_factory.hpp:77] Creating layer res3d_relu
I0115 23:08:11.664496 17703 net.cpp:100] Creating Layer res3d_relu
I0115 23:08:11.664503 17703 net.cpp:444] res3d_relu <- res3d
I0115 23:08:11.664512 17703 net.cpp:405] res3d_relu -> res3d (in-place)
I0115 23:08:11.664686 17703 net.cpp:150] Setting up res3d_relu
I0115 23:08:11.664700 17703 net.cpp:157] Top shape: 1 512 75 125 (4800000)
I0115 23:08:11.664706 17703 net.cpp:165] Memory required for data: 2066400084
I0115 23:08:11.664712 17703 layer_factory.hpp:77] Creating layer res3d_res3d_relu_0_split
I0115 23:08:11.664721 17703 net.cpp:100] Creating Layer res3d_res3d_relu_0_split
I0115 23:08:11.664728 17703 net.cpp:444] res3d_res3d_relu_0_split <- res3d
I0115 23:08:11.664743 17703 net.cpp:418] res3d_res3d_relu_0_split -> res3d_res3d_relu_0_split_0
I0115 23:08:11.664754 17703 net.cpp:418] res3d_res3d_relu_0_split -> res3d_res3d_relu_0_split_1
I0115 23:08:11.664794 17703 net.cpp:150] Setting up res3d_res3d_relu_0_split
I0115 23:08:11.664804 17703 net.cpp:157] Top shape: 1 512 75 125 (4800000)
I0115 23:08:11.664811 17703 net.cpp:157] Top shape: 1 512 75 125 (4800000)
I0115 23:08:11.664818 17703 net.cpp:165] Memory required for data: 2104800084
I0115 23:08:11.664824 17703 layer_factory.hpp:77] Creating layer res4a_branch1
I0115 23:08:11.664834 17703 net.cpp:100] Creating Layer res4a_branch1
I0115 23:08:11.664841 17703 net.cpp:444] res4a_branch1 <- res3d_res3d_relu_0_split_0
I0115 23:08:11.664851 17703 net.cpp:418] res4a_branch1 -> res4a_branch1
I0115 23:08:11.666577 17703 net.cpp:150] Setting up res4a_branch1
I0115 23:08:11.666604 17703 net.cpp:157] Top shape: 1 1024 38 63 (2451456)
I0115 23:08:11.666611 17703 net.cpp:165] Memory required for data: 2114605908
I0115 23:08:11.666620 17703 layer_factory.hpp:77] Creating layer bn4a_branch1
I0115 23:08:11.666632 17703 net.cpp:100] Creating Layer bn4a_branch1
I0115 23:08:11.666640 17703 net.cpp:444] bn4a_branch1 <- res4a_branch1
I0115 23:08:11.666651 17703 net.cpp:405] bn4a_branch1 -> res4a_branch1 (in-place)
I0115 23:08:11.666807 17703 net.cpp:150] Setting up bn4a_branch1
I0115 23:08:11.666818 17703 net.cpp:157] Top shape: 1 1024 38 63 (2451456)
I0115 23:08:11.666824 17703 net.cpp:165] Memory required for data: 2124411732
I0115 23:08:11.666834 17703 layer_factory.hpp:77] Creating layer scale4a_branch1
I0115 23:08:11.666842 17703 net.cpp:100] Creating Layer scale4a_branch1
I0115 23:08:11.666849 17703 net.cpp:444] scale4a_branch1 <- res4a_branch1
I0115 23:08:11.666859 17703 net.cpp:405] scale4a_branch1 -> res4a_branch1 (in-place)
I0115 23:08:11.666895 17703 layer_factory.hpp:77] Creating layer scale4a_branch1
I0115 23:08:11.666998 17703 net.cpp:150] Setting up scale4a_branch1
I0115 23:08:11.667009 17703 net.cpp:157] Top shape: 1 1024 38 63 (2451456)
I0115 23:08:11.667016 17703 net.cpp:165] Memory required for data: 2134217556
I0115 23:08:11.667023 17703 layer_factory.hpp:77] Creating layer res4a_branch2a
I0115 23:08:11.667033 17703 net.cpp:100] Creating Layer res4a_branch2a
I0115 23:08:11.667042 17703 net.cpp:444] res4a_branch2a <- res3d_res3d_relu_0_split_1
I0115 23:08:11.667052 17703 net.cpp:418] res4a_branch2a -> res4a_branch2a
I0115 23:08:11.668567 17703 net.cpp:150] Setting up res4a_branch2a
I0115 23:08:11.668591 17703 net.cpp:157] Top shape: 1 256 38 63 (612864)
I0115 23:08:11.668597 17703 net.cpp:165] Memory required for data: 2136669012
I0115 23:08:11.668606 17703 layer_factory.hpp:77] Creating layer bn4a_branch2a
I0115 23:08:11.668617 17703 net.cpp:100] Creating Layer bn4a_branch2a
I0115 23:08:11.668625 17703 net.cpp:444] bn4a_branch2a <- res4a_branch2a
I0115 23:08:11.668635 17703 net.cpp:405] bn4a_branch2a -> res4a_branch2a (in-place)
I0115 23:08:11.668794 17703 net.cpp:150] Setting up bn4a_branch2a
I0115 23:08:11.668805 17703 net.cpp:157] Top shape: 1 256 38 63 (612864)
I0115 23:08:11.668812 17703 net.cpp:165] Memory required for data: 2139120468
I0115 23:08:11.668822 17703 layer_factory.hpp:77] Creating layer scale4a_branch2a
I0115 23:08:11.668831 17703 net.cpp:100] Creating Layer scale4a_branch2a
I0115 23:08:11.668839 17703 net.cpp:444] scale4a_branch2a <- res4a_branch2a
I0115 23:08:11.668864 17703 net.cpp:405] scale4a_branch2a -> res4a_branch2a (in-place)
I0115 23:08:11.668926 17703 layer_factory.hpp:77] Creating layer scale4a_branch2a
I0115 23:08:11.669052 17703 net.cpp:150] Setting up scale4a_branch2a
I0115 23:08:11.669064 17703 net.cpp:157] Top shape: 1 256 38 63 (612864)
I0115 23:08:11.669070 17703 net.cpp:165] Memory required for data: 2141571924
I0115 23:08:11.669080 17703 layer_factory.hpp:77] Creating layer res4a_branch2a_relu
I0115 23:08:11.669087 17703 net.cpp:100] Creating Layer res4a_branch2a_relu
I0115 23:08:11.669095 17703 net.cpp:444] res4a_branch2a_relu <- res4a_branch2a
I0115 23:08:11.669104 17703 net.cpp:405] res4a_branch2a_relu -> res4a_branch2a (in-place)
I0115 23:08:11.669303 17703 net.cpp:150] Setting up res4a_branch2a_relu
I0115 23:08:11.669315 17703 net.cpp:157] Top shape: 1 256 38 63 (612864)
I0115 23:08:11.669322 17703 net.cpp:165] Memory required for data: 2144023380
I0115 23:08:11.669328 17703 layer_factory.hpp:77] Creating layer res4a_branch2b
I0115 23:08:11.669339 17703 net.cpp:100] Creating Layer res4a_branch2b
I0115 23:08:11.669347 17703 net.cpp:444] res4a_branch2b <- res4a_branch2a
I0115 23:08:11.669355 17703 net.cpp:418] res4a_branch2b -> res4a_branch2b
I0115 23:08:11.671521 17703 net.cpp:150] Setting up res4a_branch2b
I0115 23:08:11.671545 17703 net.cpp:157] Top shape: 1 256 38 63 (612864)
I0115 23:08:11.671553 17703 net.cpp:165] Memory required for data: 2146474836
I0115 23:08:11.671562 17703 layer_factory.hpp:77] Creating layer bn4a_branch2b
I0115 23:08:11.671576 17703 net.cpp:100] Creating Layer bn4a_branch2b
I0115 23:08:11.671608 17703 net.cpp:444] bn4a_branch2b <- res4a_branch2b
I0115 23:08:11.671617 17703 net.cpp:405] bn4a_branch2b -> res4a_branch2b (in-place)
I0115 23:08:11.671860 17703 net.cpp:150] Setting up bn4a_branch2b
I0115 23:08:11.671874 17703 net.cpp:157] Top shape: 1 256 38 63 (612864)
I0115 23:08:11.671880 17703 net.cpp:165] Memory required for data: 2148926292
I0115 23:08:11.671905 17703 layer_factory.hpp:77] Creating layer scale4a_branch2b
I0115 23:08:11.671926 17703 net.cpp:100] Creating Layer scale4a_branch2b
I0115 23:08:11.671952 17703 net.cpp:444] scale4a_branch2b <- res4a_branch2b
I0115 23:08:11.671972 17703 net.cpp:405] scale4a_branch2b -> res4a_branch2b (in-place)
I0115 23:08:11.672042 17703 layer_factory.hpp:77] Creating layer scale4a_branch2b
I0115 23:08:11.672170 17703 net.cpp:150] Setting up scale4a_branch2b
I0115 23:08:11.672181 17703 net.cpp:157] Top shape: 1 256 38 63 (612864)
I0115 23:08:11.672188 17703 net.cpp:165] Memory required for data: 2151377748
I0115 23:08:11.672195 17703 layer_factory.hpp:77] Creating layer res4a_branch2b_relu
I0115 23:08:11.672205 17703 net.cpp:100] Creating Layer res4a_branch2b_relu
I0115 23:08:11.672214 17703 net.cpp:444] res4a_branch2b_relu <- res4a_branch2b
I0115 23:08:11.672220 17703 net.cpp:405] res4a_branch2b_relu -> res4a_branch2b (in-place)
I0115 23:08:11.672464 17703 net.cpp:150] Setting up res4a_branch2b_relu
I0115 23:08:11.672477 17703 net.cpp:157] Top shape: 1 256 38 63 (612864)
I0115 23:08:11.672483 17703 net.cpp:165] Memory required for data: 2153829204
I0115 23:08:11.672489 17703 layer_factory.hpp:77] Creating layer res4a_branch2c
I0115 23:08:11.672502 17703 net.cpp:100] Creating Layer res4a_branch2c
I0115 23:08:11.672508 17703 net.cpp:444] res4a_branch2c <- res4a_branch2b
I0115 23:08:11.672535 17703 net.cpp:418] res4a_branch2c -> res4a_branch2c
I0115 23:08:11.673660 17703 net.cpp:150] Setting up res4a_branch2c
I0115 23:08:11.673677 17703 net.cpp:157] Top shape: 1 1024 38 63 (2451456)
I0115 23:08:11.673684 17703 net.cpp:165] Memory required for data: 2163635028
I0115 23:08:11.673692 17703 layer_factory.hpp:77] Creating layer bn4a_branch2c
I0115 23:08:11.673702 17703 net.cpp:100] Creating Layer bn4a_branch2c
I0115 23:08:11.673710 17703 net.cpp:444] bn4a_branch2c <- res4a_branch2c
I0115 23:08:11.673735 17703 net.cpp:405] bn4a_branch2c -> res4a_branch2c (in-place)
I0115 23:08:11.673965 17703 net.cpp:150] Setting up bn4a_branch2c
I0115 23:08:11.673976 17703 net.cpp:157] Top shape: 1 1024 38 63 (2451456)
I0115 23:08:11.673982 17703 net.cpp:165] Memory required for data: 2173440852
I0115 23:08:11.673991 17703 layer_factory.hpp:77] Creating layer scale4a_branch2c
I0115 23:08:11.674019 17703 net.cpp:100] Creating Layer scale4a_branch2c
I0115 23:08:11.674041 17703 net.cpp:444] scale4a_branch2c <- res4a_branch2c
I0115 23:08:11.674049 17703 net.cpp:405] scale4a_branch2c -> res4a_branch2c (in-place)
I0115 23:08:11.674154 17703 layer_factory.hpp:77] Creating layer scale4a_branch2c
I0115 23:08:11.674316 17703 net.cpp:150] Setting up scale4a_branch2c
I0115 23:08:11.674327 17703 net.cpp:157] Top shape: 1 1024 38 63 (2451456)
I0115 23:08:11.674335 17703 net.cpp:165] Memory required for data: 2183246676
I0115 23:08:11.674348 17703 layer_factory.hpp:77] Creating layer res4a
I0115 23:08:11.674362 17703 net.cpp:100] Creating Layer res4a
I0115 23:08:11.674383 17703 net.cpp:444] res4a <- res4a_branch1
I0115 23:08:11.674404 17703 net.cpp:444] res4a <- res4a_branch2c
I0115 23:08:11.674428 17703 net.cpp:418] res4a -> res4a
I0115 23:08:11.674456 17703 net.cpp:150] Setting up res4a
I0115 23:08:11.674479 17703 net.cpp:157] Top shape: 1 1024 38 63 (2451456)
I0115 23:08:11.674485 17703 net.cpp:165] Memory required for data: 2193052500
I0115 23:08:11.674505 17703 layer_factory.hpp:77] Creating layer res4a_relu
I0115 23:08:11.674527 17703 net.cpp:100] Creating Layer res4a_relu
I0115 23:08:11.674535 17703 net.cpp:444] res4a_relu <- res4a
I0115 23:08:11.674543 17703 net.cpp:405] res4a_relu -> res4a (in-place)
I0115 23:08:11.674711 17703 net.cpp:150] Setting up res4a_relu
I0115 23:08:11.674724 17703 net.cpp:157] Top shape: 1 1024 38 63 (2451456)
I0115 23:08:11.674731 17703 net.cpp:165] Memory required for data: 2202858324
I0115 23:08:11.674738 17703 layer_factory.hpp:77] Creating layer res4a_res4a_relu_0_split
I0115 23:08:11.674762 17703 net.cpp:100] Creating Layer res4a_res4a_relu_0_split
I0115 23:08:11.674768 17703 net.cpp:444] res4a_res4a_relu_0_split <- res4a
I0115 23:08:11.674778 17703 net.cpp:418] res4a_res4a_relu_0_split -> res4a_res4a_relu_0_split_0
I0115 23:08:11.674789 17703 net.cpp:418] res4a_res4a_relu_0_split -> res4a_res4a_relu_0_split_1
I0115 23:08:11.674830 17703 net.cpp:150] Setting up res4a_res4a_relu_0_split
I0115 23:08:11.674840 17703 net.cpp:157] Top shape: 1 1024 38 63 (2451456)
I0115 23:08:11.674849 17703 net.cpp:157] Top shape: 1 1024 38 63 (2451456)
I0115 23:08:11.674855 17703 net.cpp:165] Memory required for data: 2222469972
I0115 23:08:11.674862 17703 layer_factory.hpp:77] Creating layer res4b_branch2a
I0115 23:08:11.674875 17703 net.cpp:100] Creating Layer res4b_branch2a
I0115 23:08:11.674883 17703 net.cpp:444] res4b_branch2a <- res4a_res4a_relu_0_split_0
I0115 23:08:11.674892 17703 net.cpp:418] res4b_branch2a -> res4b_branch2a
I0115 23:08:11.676713 17703 net.cpp:150] Setting up res4b_branch2a
I0115 23:08:11.676750 17703 net.cpp:157] Top shape: 1 256 38 63 (612864)
I0115 23:08:11.676759 17703 net.cpp:165] Memory required for data: 2224921428
I0115 23:08:11.676771 17703 layer_factory.hpp:77] Creating layer bn4b_branch2a
I0115 23:08:11.676784 17703 net.cpp:100] Creating Layer bn4b_branch2a
I0115 23:08:11.676795 17703 net.cpp:444] bn4b_branch2a <- res4b_branch2a
I0115 23:08:11.676805 17703 net.cpp:405] bn4b_branch2a -> res4b_branch2a (in-place)
I0115 23:08:11.676986 17703 net.cpp:150] Setting up bn4b_branch2a
I0115 23:08:11.676998 17703 net.cpp:157] Top shape: 1 256 38 63 (612864)
I0115 23:08:11.677006 17703 net.cpp:165] Memory required for data: 2227372884
I0115 23:08:11.677016 17703 layer_factory.hpp:77] Creating layer scale4b_branch2a
I0115 23:08:11.677027 17703 net.cpp:100] Creating Layer scale4b_branch2a
I0115 23:08:11.677036 17703 net.cpp:444] scale4b_branch2a <- res4b_branch2a
I0115 23:08:11.677045 17703 net.cpp:405] scale4b_branch2a -> res4b_branch2a (in-place)
I0115 23:08:11.677115 17703 layer_factory.hpp:77] Creating layer scale4b_branch2a
I0115 23:08:11.677264 17703 net.cpp:150] Setting up scale4b_branch2a
I0115 23:08:11.677276 17703 net.cpp:157] Top shape: 1 256 38 63 (612864)
I0115 23:08:11.677297 17703 net.cpp:165] Memory required for data: 2229824340
I0115 23:08:11.677306 17703 layer_factory.hpp:77] Creating layer res4b_branch2a_relu
I0115 23:08:11.677316 17703 net.cpp:100] Creating Layer res4b_branch2a_relu
I0115 23:08:11.677325 17703 net.cpp:444] res4b_branch2a_relu <- res4b_branch2a
I0115 23:08:11.677335 17703 net.cpp:405] res4b_branch2a_relu -> res4b_branch2a (in-place)
I0115 23:08:11.677512 17703 net.cpp:150] Setting up res4b_branch2a_relu
I0115 23:08:11.677525 17703 net.cpp:157] Top shape: 1 256 38 63 (612864)
I0115 23:08:11.677546 17703 net.cpp:165] Memory required for data: 2232275796
I0115 23:08:11.677552 17703 layer_factory.hpp:77] Creating layer res4b_branch2b
I0115 23:08:11.677572 17703 net.cpp:100] Creating Layer res4b_branch2b
I0115 23:08:11.677579 17703 net.cpp:444] res4b_branch2b <- res4b_branch2a
I0115 23:08:11.677590 17703 net.cpp:418] res4b_branch2b -> res4b_branch2b
I0115 23:08:11.679960 17703 net.cpp:150] Setting up res4b_branch2b
I0115 23:08:11.679997 17703 net.cpp:157] Top shape: 1 256 38 63 (612864)
I0115 23:08:11.680019 17703 net.cpp:165] Memory required for data: 2234727252
I0115 23:08:11.680047 17703 layer_factory.hpp:77] Creating layer bn4b_branch2b
I0115 23:08:11.680064 17703 net.cpp:100] Creating Layer bn4b_branch2b
I0115 23:08:11.680074 17703 net.cpp:444] bn4b_branch2b <- res4b_branch2b
I0115 23:08:11.680085 17703 net.cpp:405] bn4b_branch2b -> res4b_branch2b (in-place)
I0115 23:08:11.680290 17703 net.cpp:150] Setting up bn4b_branch2b
I0115 23:08:11.680302 17703 net.cpp:157] Top shape: 1 256 38 63 (612864)
I0115 23:08:11.680310 17703 net.cpp:165] Memory required for data: 2237178708
I0115 23:08:11.680335 17703 layer_factory.hpp:77] Creating layer scale4b_branch2b
I0115 23:08:11.680358 17703 net.cpp:100] Creating Layer scale4b_branch2b
I0115 23:08:11.680366 17703 net.cpp:444] scale4b_branch2b <- res4b_branch2b
I0115 23:08:11.680375 17703 net.cpp:405] scale4b_branch2b -> res4b_branch2b (in-place)
I0115 23:08:11.680420 17703 layer_factory.hpp:77] Creating layer scale4b_branch2b
I0115 23:08:11.680554 17703 net.cpp:150] Setting up scale4b_branch2b
I0115 23:08:11.680565 17703 net.cpp:157] Top shape: 1 256 38 63 (612864)
I0115 23:08:11.680572 17703 net.cpp:165] Memory required for data: 2239630164
I0115 23:08:11.680580 17703 layer_factory.hpp:77] Creating layer res4b_branch2b_relu
I0115 23:08:11.680588 17703 net.cpp:100] Creating Layer res4b_branch2b_relu
I0115 23:08:11.680596 17703 net.cpp:444] res4b_branch2b_relu <- res4b_branch2b
I0115 23:08:11.680644 17703 net.cpp:405] res4b_branch2b_relu -> res4b_branch2b (in-place)
I0115 23:08:11.681133 17703 net.cpp:150] Setting up res4b_branch2b_relu
I0115 23:08:11.681149 17703 net.cpp:157] Top shape: 1 256 38 63 (612864)
I0115 23:08:11.681170 17703 net.cpp:165] Memory required for data: 2242081620
I0115 23:08:11.681179 17703 layer_factory.hpp:77] Creating layer res4b_branch2c
I0115 23:08:11.681191 17703 net.cpp:100] Creating Layer res4b_branch2c
I0115 23:08:11.681221 17703 net.cpp:444] res4b_branch2c <- res4b_branch2b
I0115 23:08:11.681232 17703 net.cpp:418] res4b_branch2c -> res4b_branch2c
I0115 23:08:11.682250 17703 net.cpp:150] Setting up res4b_branch2c
I0115 23:08:11.682268 17703 net.cpp:157] Top shape: 1 1024 38 63 (2451456)
I0115 23:08:11.682276 17703 net.cpp:165] Memory required for data: 2251887444
I0115 23:08:11.682307 17703 layer_factory.hpp:77] Creating layer bn4b_branch2c
I0115 23:08:11.682332 17703 net.cpp:100] Creating Layer bn4b_branch2c
I0115 23:08:11.682356 17703 net.cpp:444] bn4b_branch2c <- res4b_branch2c
I0115 23:08:11.682379 17703 net.cpp:405] bn4b_branch2c -> res4b_branch2c (in-place)
I0115 23:08:11.682651 17703 net.cpp:150] Setting up bn4b_branch2c
I0115 23:08:11.682662 17703 net.cpp:157] Top shape: 1 1024 38 63 (2451456)
I0115 23:08:11.682669 17703 net.cpp:165] Memory required for data: 2261693268
I0115 23:08:11.682679 17703 layer_factory.hpp:77] Creating layer scale4b_branch2c
I0115 23:08:11.682689 17703 net.cpp:100] Creating Layer scale4b_branch2c
I0115 23:08:11.682709 17703 net.cpp:444] scale4b_branch2c <- res4b_branch2c
I0115 23:08:11.682719 17703 net.cpp:405] scale4b_branch2c -> res4b_branch2c (in-place)
I0115 23:08:11.682771 17703 layer_factory.hpp:77] Creating layer scale4b_branch2c
I0115 23:08:11.682893 17703 net.cpp:150] Setting up scale4b_branch2c
I0115 23:08:11.682904 17703 net.cpp:157] Top shape: 1 1024 38 63 (2451456)
I0115 23:08:11.682911 17703 net.cpp:165] Memory required for data: 2271499092
I0115 23:08:11.682920 17703 layer_factory.hpp:77] Creating layer res4b
I0115 23:08:11.682930 17703 net.cpp:100] Creating Layer res4b
I0115 23:08:11.682938 17703 net.cpp:444] res4b <- res4a_res4a_relu_0_split_1
I0115 23:08:11.682946 17703 net.cpp:444] res4b <- res4b_branch2c
I0115 23:08:11.682965 17703 net.cpp:418] res4b -> res4b
I0115 23:08:11.682992 17703 net.cpp:150] Setting up res4b
I0115 23:08:11.683003 17703 net.cpp:157] Top shape: 1 1024 38 63 (2451456)
I0115 23:08:11.683023 17703 net.cpp:165] Memory required for data: 2281304916
I0115 23:08:11.683032 17703 layer_factory.hpp:77] Creating layer res4b_relu
I0115 23:08:11.683040 17703 net.cpp:100] Creating Layer res4b_relu
I0115 23:08:11.683048 17703 net.cpp:444] res4b_relu <- res4b
I0115 23:08:11.683068 17703 net.cpp:405] res4b_relu -> res4b (in-place)
I0115 23:08:11.683540 17703 net.cpp:150] Setting up res4b_relu
I0115 23:08:11.683557 17703 net.cpp:157] Top shape: 1 1024 38 63 (2451456)
I0115 23:08:11.683565 17703 net.cpp:165] Memory required for data: 2291110740
I0115 23:08:11.683573 17703 layer_factory.hpp:77] Creating layer res4b_res4b_relu_0_split
I0115 23:08:11.683583 17703 net.cpp:100] Creating Layer res4b_res4b_relu_0_split
I0115 23:08:11.683590 17703 net.cpp:444] res4b_res4b_relu_0_split <- res4b
I0115 23:08:11.683604 17703 net.cpp:418] res4b_res4b_relu_0_split -> res4b_res4b_relu_0_split_0
I0115 23:08:11.683614 17703 net.cpp:418] res4b_res4b_relu_0_split -> res4b_res4b_relu_0_split_1
I0115 23:08:11.683679 17703 net.cpp:150] Setting up res4b_res4b_relu_0_split
I0115 23:08:11.683706 17703 net.cpp:157] Top shape: 1 1024 38 63 (2451456)
I0115 23:08:11.683714 17703 net.cpp:157] Top shape: 1 1024 38 63 (2451456)
I0115 23:08:11.683722 17703 net.cpp:165] Memory required for data: 2310722388
I0115 23:08:11.683728 17703 layer_factory.hpp:77] Creating layer res4c_branch2a
I0115 23:08:11.683743 17703 net.cpp:100] Creating Layer res4c_branch2a
I0115 23:08:11.683750 17703 net.cpp:444] res4c_branch2a <- res4b_res4b_relu_0_split_0
I0115 23:08:11.683761 17703 net.cpp:418] res4c_branch2a -> res4c_branch2a
I0115 23:08:11.685470 17703 net.cpp:150] Setting up res4c_branch2a
I0115 23:08:11.685494 17703 net.cpp:157] Top shape: 1 256 38 63 (612864)
I0115 23:08:11.685501 17703 net.cpp:165] Memory required for data: 2313173844
I0115 23:08:11.685510 17703 layer_factory.hpp:77] Creating layer bn4c_branch2a
I0115 23:08:11.685524 17703 net.cpp:100] Creating Layer bn4c_branch2a
I0115 23:08:11.685534 17703 net.cpp:444] bn4c_branch2a <- res4c_branch2a
I0115 23:08:11.685542 17703 net.cpp:405] bn4c_branch2a -> res4c_branch2a (in-place)
I0115 23:08:11.685717 17703 net.cpp:150] Setting up bn4c_branch2a
I0115 23:08:11.685729 17703 net.cpp:157] Top shape: 1 256 38 63 (612864)
I0115 23:08:11.685734 17703 net.cpp:165] Memory required for data: 2315625300
I0115 23:08:11.685744 17703 layer_factory.hpp:77] Creating layer scale4c_branch2a
I0115 23:08:11.685752 17703 net.cpp:100] Creating Layer scale4c_branch2a
I0115 23:08:11.685760 17703 net.cpp:444] scale4c_branch2a <- res4c_branch2a
I0115 23:08:11.685770 17703 net.cpp:405] scale4c_branch2a -> res4c_branch2a (in-place)
I0115 23:08:11.685811 17703 layer_factory.hpp:77] Creating layer scale4c_branch2a
I0115 23:08:11.685916 17703 net.cpp:150] Setting up scale4c_branch2a
I0115 23:08:11.685927 17703 net.cpp:157] Top shape: 1 256 38 63 (612864)
I0115 23:08:11.685935 17703 net.cpp:165] Memory required for data: 2318076756
I0115 23:08:11.685942 17703 layer_factory.hpp:77] Creating layer res4c_branch2a_relu
I0115 23:08:11.685950 17703 net.cpp:100] Creating Layer res4c_branch2a_relu
I0115 23:08:11.685958 17703 net.cpp:444] res4c_branch2a_relu <- res4c_branch2a
I0115 23:08:11.685966 17703 net.cpp:405] res4c_branch2a_relu -> res4c_branch2a (in-place)
I0115 23:08:11.686118 17703 net.cpp:150] Setting up res4c_branch2a_relu
I0115 23:08:11.686131 17703 net.cpp:157] Top shape: 1 256 38 63 (612864)
I0115 23:08:11.686136 17703 net.cpp:165] Memory required for data: 2320528212
I0115 23:08:11.686143 17703 layer_factory.hpp:77] Creating layer res4c_branch2b
I0115 23:08:11.686153 17703 net.cpp:100] Creating Layer res4c_branch2b
I0115 23:08:11.686161 17703 net.cpp:444] res4c_branch2b <- res4c_branch2a
I0115 23:08:11.686172 17703 net.cpp:418] res4c_branch2b -> res4c_branch2b
I0115 23:08:11.688380 17703 net.cpp:150] Setting up res4c_branch2b
I0115 23:08:11.688417 17703 net.cpp:157] Top shape: 1 256 38 63 (612864)
I0115 23:08:11.688426 17703 net.cpp:165] Memory required for data: 2322979668
I0115 23:08:11.688438 17703 layer_factory.hpp:77] Creating layer bn4c_branch2b
I0115 23:08:11.688452 17703 net.cpp:100] Creating Layer bn4c_branch2b
I0115 23:08:11.688462 17703 net.cpp:444] bn4c_branch2b <- res4c_branch2b
I0115 23:08:11.688472 17703 net.cpp:405] bn4c_branch2b -> res4c_branch2b (in-place)
I0115 23:08:11.688659 17703 net.cpp:150] Setting up bn4c_branch2b
I0115 23:08:11.688671 17703 net.cpp:157] Top shape: 1 256 38 63 (612864)
I0115 23:08:11.688678 17703 net.cpp:165] Memory required for data: 2325431124
I0115 23:08:11.688688 17703 layer_factory.hpp:77] Creating layer scale4c_branch2b
I0115 23:08:11.688696 17703 net.cpp:100] Creating Layer scale4c_branch2b
I0115 23:08:11.688705 17703 net.cpp:444] scale4c_branch2b <- res4c_branch2b
I0115 23:08:11.688714 17703 net.cpp:405] scale4c_branch2b -> res4c_branch2b (in-place)
I0115 23:08:11.688755 17703 layer_factory.hpp:77] Creating layer scale4c_branch2b
I0115 23:08:11.688863 17703 net.cpp:150] Setting up scale4c_branch2b
I0115 23:08:11.688874 17703 net.cpp:157] Top shape: 1 256 38 63 (612864)
I0115 23:08:11.688880 17703 net.cpp:165] Memory required for data: 2327882580
I0115 23:08:11.688889 17703 layer_factory.hpp:77] Creating layer res4c_branch2b_relu
I0115 23:08:11.688897 17703 net.cpp:100] Creating Layer res4c_branch2b_relu
I0115 23:08:11.688905 17703 net.cpp:444] res4c_branch2b_relu <- res4c_branch2b
I0115 23:08:11.688913 17703 net.cpp:405] res4c_branch2b_relu -> res4c_branch2b (in-place)
I0115 23:08:11.689064 17703 net.cpp:150] Setting up res4c_branch2b_relu
I0115 23:08:11.689077 17703 net.cpp:157] Top shape: 1 256 38 63 (612864)
I0115 23:08:11.689085 17703 net.cpp:165] Memory required for data: 2330334036
I0115 23:08:11.689090 17703 layer_factory.hpp:77] Creating layer res4c_branch2c
I0115 23:08:11.689102 17703 net.cpp:100] Creating Layer res4c_branch2c
I0115 23:08:11.689110 17703 net.cpp:444] res4c_branch2c <- res4c_branch2b
I0115 23:08:11.689121 17703 net.cpp:418] res4c_branch2c -> res4c_branch2c
I0115 23:08:11.690153 17703 net.cpp:150] Setting up res4c_branch2c
I0115 23:08:11.690171 17703 net.cpp:157] Top shape: 1 1024 38 63 (2451456)
I0115 23:08:11.690178 17703 net.cpp:165] Memory required for data: 2340139860
I0115 23:08:11.690186 17703 layer_factory.hpp:77] Creating layer bn4c_branch2c
I0115 23:08:11.690198 17703 net.cpp:100] Creating Layer bn4c_branch2c
I0115 23:08:11.690207 17703 net.cpp:444] bn4c_branch2c <- res4c_branch2c
I0115 23:08:11.690215 17703 net.cpp:405] bn4c_branch2c -> res4c_branch2c (in-place)
I0115 23:08:11.690389 17703 net.cpp:150] Setting up bn4c_branch2c
I0115 23:08:11.690400 17703 net.cpp:157] Top shape: 1 1024 38 63 (2451456)
I0115 23:08:11.690407 17703 net.cpp:165] Memory required for data: 2349945684
I0115 23:08:11.690415 17703 layer_factory.hpp:77] Creating layer scale4c_branch2c
I0115 23:08:11.690425 17703 net.cpp:100] Creating Layer scale4c_branch2c
I0115 23:08:11.690433 17703 net.cpp:444] scale4c_branch2c <- res4c_branch2c
I0115 23:08:11.690441 17703 net.cpp:405] scale4c_branch2c -> res4c_branch2c (in-place)
I0115 23:08:11.690479 17703 layer_factory.hpp:77] Creating layer scale4c_branch2c
I0115 23:08:11.690587 17703 net.cpp:150] Setting up scale4c_branch2c
I0115 23:08:11.690598 17703 net.cpp:157] Top shape: 1 1024 38 63 (2451456)
I0115 23:08:11.690604 17703 net.cpp:165] Memory required for data: 2359751508
I0115 23:08:11.690611 17703 layer_factory.hpp:77] Creating layer res4c
I0115 23:08:11.690621 17703 net.cpp:100] Creating Layer res4c
I0115 23:08:11.690629 17703 net.cpp:444] res4c <- res4b_res4b_relu_0_split_1
I0115 23:08:11.690637 17703 net.cpp:444] res4c <- res4c_branch2c
I0115 23:08:11.690646 17703 net.cpp:418] res4c -> res4c
I0115 23:08:11.690686 17703 net.cpp:150] Setting up res4c
I0115 23:08:11.690696 17703 net.cpp:157] Top shape: 1 1024 38 63 (2451456)
I0115 23:08:11.690702 17703 net.cpp:165] Memory required for data: 2369557332
I0115 23:08:11.690709 17703 layer_factory.hpp:77] Creating layer res4c_relu
I0115 23:08:11.690721 17703 net.cpp:100] Creating Layer res4c_relu
I0115 23:08:11.690728 17703 net.cpp:444] res4c_relu <- res4c
I0115 23:08:11.690738 17703 net.cpp:405] res4c_relu -> res4c (in-place)
I0115 23:08:11.690886 17703 net.cpp:150] Setting up res4c_relu
I0115 23:08:11.690898 17703 net.cpp:157] Top shape: 1 1024 38 63 (2451456)
I0115 23:08:11.690904 17703 net.cpp:165] Memory required for data: 2379363156
I0115 23:08:11.690910 17703 layer_factory.hpp:77] Creating layer res4c_res4c_relu_0_split
I0115 23:08:11.690919 17703 net.cpp:100] Creating Layer res4c_res4c_relu_0_split
I0115 23:08:11.690927 17703 net.cpp:444] res4c_res4c_relu_0_split <- res4c
I0115 23:08:11.690937 17703 net.cpp:418] res4c_res4c_relu_0_split -> res4c_res4c_relu_0_split_0
I0115 23:08:11.690948 17703 net.cpp:418] res4c_res4c_relu_0_split -> res4c_res4c_relu_0_split_1
I0115 23:08:11.690989 17703 net.cpp:150] Setting up res4c_res4c_relu_0_split
I0115 23:08:11.690999 17703 net.cpp:157] Top shape: 1 1024 38 63 (2451456)
I0115 23:08:11.691007 17703 net.cpp:157] Top shape: 1 1024 38 63 (2451456)
I0115 23:08:11.691013 17703 net.cpp:165] Memory required for data: 2398974804
I0115 23:08:11.691020 17703 layer_factory.hpp:77] Creating layer res4d_branch2a
I0115 23:08:11.691030 17703 net.cpp:100] Creating Layer res4d_branch2a
I0115 23:08:11.691037 17703 net.cpp:444] res4d_branch2a <- res4c_res4c_relu_0_split_0
I0115 23:08:11.691047 17703 net.cpp:418] res4d_branch2a -> res4d_branch2a
I0115 23:08:11.692687 17703 net.cpp:150] Setting up res4d_branch2a
I0115 23:08:11.692713 17703 net.cpp:157] Top shape: 1 256 38 63 (612864)
I0115 23:08:11.692721 17703 net.cpp:165] Memory required for data: 2401426260
I0115 23:08:11.692730 17703 layer_factory.hpp:77] Creating layer bn4d_branch2a
I0115 23:08:11.692741 17703 net.cpp:100] Creating Layer bn4d_branch2a
I0115 23:08:11.692751 17703 net.cpp:444] bn4d_branch2a <- res4d_branch2a
I0115 23:08:11.692760 17703 net.cpp:405] bn4d_branch2a -> res4d_branch2a (in-place)
I0115 23:08:11.692939 17703 net.cpp:150] Setting up bn4d_branch2a
I0115 23:08:11.692950 17703 net.cpp:157] Top shape: 1 256 38 63 (612864)
I0115 23:08:11.692957 17703 net.cpp:165] Memory required for data: 2403877716
I0115 23:08:11.692967 17703 layer_factory.hpp:77] Creating layer scale4d_branch2a
I0115 23:08:11.692977 17703 net.cpp:100] Creating Layer scale4d_branch2a
I0115 23:08:11.692984 17703 net.cpp:444] scale4d_branch2a <- res4d_branch2a
I0115 23:08:11.692993 17703 net.cpp:405] scale4d_branch2a -> res4d_branch2a (in-place)
I0115 23:08:11.693033 17703 layer_factory.hpp:77] Creating layer scale4d_branch2a
I0115 23:08:11.693140 17703 net.cpp:150] Setting up scale4d_branch2a
I0115 23:08:11.693150 17703 net.cpp:157] Top shape: 1 256 38 63 (612864)
I0115 23:08:11.693157 17703 net.cpp:165] Memory required for data: 2406329172
I0115 23:08:11.693166 17703 layer_factory.hpp:77] Creating layer res4d_branch2a_relu
I0115 23:08:11.693176 17703 net.cpp:100] Creating Layer res4d_branch2a_relu
I0115 23:08:11.693184 17703 net.cpp:444] res4d_branch2a_relu <- res4d_branch2a
I0115 23:08:11.693192 17703 net.cpp:405] res4d_branch2a_relu -> res4d_branch2a (in-place)
I0115 23:08:11.693344 17703 net.cpp:150] Setting up res4d_branch2a_relu
I0115 23:08:11.693357 17703 net.cpp:157] Top shape: 1 256 38 63 (612864)
I0115 23:08:11.693365 17703 net.cpp:165] Memory required for data: 2408780628
I0115 23:08:11.693372 17703 layer_factory.hpp:77] Creating layer res4d_branch2b
I0115 23:08:11.693382 17703 net.cpp:100] Creating Layer res4d_branch2b
I0115 23:08:11.693390 17703 net.cpp:444] res4d_branch2b <- res4d_branch2a
I0115 23:08:11.693400 17703 net.cpp:418] res4d_branch2b -> res4d_branch2b
I0115 23:08:11.696102 17703 net.cpp:150] Setting up res4d_branch2b
I0115 23:08:11.696135 17703 net.cpp:157] Top shape: 1 256 38 63 (612864)
I0115 23:08:11.696143 17703 net.cpp:165] Memory required for data: 2411232084
I0115 23:08:11.696156 17703 layer_factory.hpp:77] Creating layer bn4d_branch2b
I0115 23:08:11.696169 17703 net.cpp:100] Creating Layer bn4d_branch2b
I0115 23:08:11.696184 17703 net.cpp:444] bn4d_branch2b <- res4d_branch2b
I0115 23:08:11.696197 17703 net.cpp:405] bn4d_branch2b -> res4d_branch2b (in-place)
I0115 23:08:11.696382 17703 net.cpp:150] Setting up bn4d_branch2b
I0115 23:08:11.696393 17703 net.cpp:157] Top shape: 1 256 38 63 (612864)
I0115 23:08:11.696399 17703 net.cpp:165] Memory required for data: 2413683540
I0115 23:08:11.696409 17703 layer_factory.hpp:77] Creating layer scale4d_branch2b
I0115 23:08:11.696419 17703 net.cpp:100] Creating Layer scale4d_branch2b
I0115 23:08:11.696426 17703 net.cpp:444] scale4d_branch2b <- res4d_branch2b
I0115 23:08:11.696435 17703 net.cpp:405] scale4d_branch2b -> res4d_branch2b (in-place)
I0115 23:08:11.696478 17703 layer_factory.hpp:77] Creating layer scale4d_branch2b
I0115 23:08:11.696584 17703 net.cpp:150] Setting up scale4d_branch2b
I0115 23:08:11.696595 17703 net.cpp:157] Top shape: 1 256 38 63 (612864)
I0115 23:08:11.696602 17703 net.cpp:165] Memory required for data: 2416134996
I0115 23:08:11.696609 17703 layer_factory.hpp:77] Creating layer res4d_branch2b_relu
I0115 23:08:11.696619 17703 net.cpp:100] Creating Layer res4d_branch2b_relu
I0115 23:08:11.696626 17703 net.cpp:444] res4d_branch2b_relu <- res4d_branch2b
I0115 23:08:11.696650 17703 net.cpp:405] res4d_branch2b_relu -> res4d_branch2b (in-place)
I0115 23:08:11.697329 17703 net.cpp:150] Setting up res4d_branch2b_relu
I0115 23:08:11.697355 17703 net.cpp:157] Top shape: 1 256 38 63 (612864)
I0115 23:08:11.697363 17703 net.cpp:165] Memory required for data: 2418586452
I0115 23:08:11.697371 17703 layer_factory.hpp:77] Creating layer res4d_branch2c
I0115 23:08:11.697383 17703 net.cpp:100] Creating Layer res4d_branch2c
I0115 23:08:11.697392 17703 net.cpp:444] res4d_branch2c <- res4d_branch2b
I0115 23:08:11.697415 17703 net.cpp:418] res4d_branch2c -> res4d_branch2c
I0115 23:08:11.698390 17703 net.cpp:150] Setting up res4d_branch2c
I0115 23:08:11.698417 17703 net.cpp:157] Top shape: 1 1024 38 63 (2451456)
I0115 23:08:11.698438 17703 net.cpp:165] Memory required for data: 2428392276
I0115 23:08:11.698465 17703 layer_factory.hpp:77] Creating layer bn4d_branch2c
I0115 23:08:11.698485 17703 net.cpp:100] Creating Layer bn4d_branch2c
I0115 23:08:11.698493 17703 net.cpp:444] bn4d_branch2c <- res4d_branch2c
I0115 23:08:11.698516 17703 net.cpp:405] bn4d_branch2c -> res4d_branch2c (in-place)
I0115 23:08:11.698740 17703 net.cpp:150] Setting up bn4d_branch2c
I0115 23:08:11.698751 17703 net.cpp:157] Top shape: 1 1024 38 63 (2451456)
I0115 23:08:11.698757 17703 net.cpp:165] Memory required for data: 2438198100
I0115 23:08:11.698781 17703 layer_factory.hpp:77] Creating layer scale4d_branch2c
I0115 23:08:11.698792 17703 net.cpp:100] Creating Layer scale4d_branch2c
I0115 23:08:11.698813 17703 net.cpp:444] scale4d_branch2c <- res4d_branch2c
I0115 23:08:11.698820 17703 net.cpp:405] scale4d_branch2c -> res4d_branch2c (in-place)
I0115 23:08:11.698913 17703 layer_factory.hpp:77] Creating layer scale4d_branch2c
I0115 23:08:11.699079 17703 net.cpp:150] Setting up scale4d_branch2c
I0115 23:08:11.699090 17703 net.cpp:157] Top shape: 1 1024 38 63 (2451456)
I0115 23:08:11.699096 17703 net.cpp:165] Memory required for data: 2448003924
I0115 23:08:11.699118 17703 layer_factory.hpp:77] Creating layer res4d
I0115 23:08:11.699128 17703 net.cpp:100] Creating Layer res4d
I0115 23:08:11.699149 17703 net.cpp:444] res4d <- res4c_res4c_relu_0_split_1
I0115 23:08:11.699158 17703 net.cpp:444] res4d <- res4d_branch2c
I0115 23:08:11.699168 17703 net.cpp:418] res4d -> res4d
I0115 23:08:11.699198 17703 net.cpp:150] Setting up res4d
I0115 23:08:11.699208 17703 net.cpp:157] Top shape: 1 1024 38 63 (2451456)
I0115 23:08:11.699214 17703 net.cpp:165] Memory required for data: 2457809748
I0115 23:08:11.699221 17703 layer_factory.hpp:77] Creating layer res4d_relu
I0115 23:08:11.699229 17703 net.cpp:100] Creating Layer res4d_relu
I0115 23:08:11.699237 17703 net.cpp:444] res4d_relu <- res4d
I0115 23:08:11.699245 17703 net.cpp:405] res4d_relu -> res4d (in-place)
I0115 23:08:11.699810 17703 net.cpp:150] Setting up res4d_relu
I0115 23:08:11.699833 17703 net.cpp:157] Top shape: 1 1024 38 63 (2451456)
I0115 23:08:11.699856 17703 net.cpp:165] Memory required for data: 2467615572
I0115 23:08:11.699862 17703 layer_factory.hpp:77] Creating layer res4d_res4d_relu_0_split
I0115 23:08:11.699887 17703 net.cpp:100] Creating Layer res4d_res4d_relu_0_split
I0115 23:08:11.699894 17703 net.cpp:444] res4d_res4d_relu_0_split <- res4d
I0115 23:08:11.699904 17703 net.cpp:418] res4d_res4d_relu_0_split -> res4d_res4d_relu_0_split_0
I0115 23:08:11.699915 17703 net.cpp:418] res4d_res4d_relu_0_split -> res4d_res4d_relu_0_split_1
I0115 23:08:11.699961 17703 net.cpp:150] Setting up res4d_res4d_relu_0_split
I0115 23:08:11.699972 17703 net.cpp:157] Top shape: 1 1024 38 63 (2451456)
I0115 23:08:11.699980 17703 net.cpp:157] Top shape: 1 1024 38 63 (2451456)
I0115 23:08:11.699986 17703 net.cpp:165] Memory required for data: 2487227220
I0115 23:08:11.699992 17703 layer_factory.hpp:77] Creating layer res4e_branch2a
I0115 23:08:11.700021 17703 net.cpp:100] Creating Layer res4e_branch2a
I0115 23:08:11.700043 17703 net.cpp:444] res4e_branch2a <- res4d_res4d_relu_0_split_0
I0115 23:08:11.700067 17703 net.cpp:418] res4e_branch2a -> res4e_branch2a
I0115 23:08:11.701741 17703 net.cpp:150] Setting up res4e_branch2a
I0115 23:08:11.701764 17703 net.cpp:157] Top shape: 1 256 38 63 (612864)
I0115 23:08:11.701771 17703 net.cpp:165] Memory required for data: 2489678676
I0115 23:08:11.701781 17703 layer_factory.hpp:77] Creating layer bn4e_branch2a
I0115 23:08:11.701793 17703 net.cpp:100] Creating Layer bn4e_branch2a
I0115 23:08:11.701814 17703 net.cpp:444] bn4e_branch2a <- res4e_branch2a
I0115 23:08:11.701836 17703 net.cpp:405] bn4e_branch2a -> res4e_branch2a (in-place)
I0115 23:08:11.702045 17703 net.cpp:150] Setting up bn4e_branch2a
I0115 23:08:11.702056 17703 net.cpp:157] Top shape: 1 256 38 63 (612864)
I0115 23:08:11.702062 17703 net.cpp:165] Memory required for data: 2492130132
I0115 23:08:11.702072 17703 layer_factory.hpp:77] Creating layer scale4e_branch2a
I0115 23:08:11.702081 17703 net.cpp:100] Creating Layer scale4e_branch2a
I0115 23:08:11.702088 17703 net.cpp:444] scale4e_branch2a <- res4e_branch2a
I0115 23:08:11.702111 17703 net.cpp:405] scale4e_branch2a -> res4e_branch2a (in-place)
I0115 23:08:11.702191 17703 layer_factory.hpp:77] Creating layer scale4e_branch2a
I0115 23:08:11.702339 17703 net.cpp:150] Setting up scale4e_branch2a
I0115 23:08:11.702349 17703 net.cpp:157] Top shape: 1 256 38 63 (612864)
I0115 23:08:11.702356 17703 net.cpp:165] Memory required for data: 2494581588
I0115 23:08:11.702364 17703 layer_factory.hpp:77] Creating layer res4e_branch2a_relu
I0115 23:08:11.702373 17703 net.cpp:100] Creating Layer res4e_branch2a_relu
I0115 23:08:11.702379 17703 net.cpp:444] res4e_branch2a_relu <- res4e_branch2a
I0115 23:08:11.702386 17703 net.cpp:405] res4e_branch2a_relu -> res4e_branch2a (in-place)
I0115 23:08:11.702556 17703 net.cpp:150] Setting up res4e_branch2a_relu
I0115 23:08:11.702569 17703 net.cpp:157] Top shape: 1 256 38 63 (612864)
I0115 23:08:11.702589 17703 net.cpp:165] Memory required for data: 2497033044
I0115 23:08:11.702595 17703 layer_factory.hpp:77] Creating layer res4e_branch2b
I0115 23:08:11.702633 17703 net.cpp:100] Creating Layer res4e_branch2b
I0115 23:08:11.702641 17703 net.cpp:444] res4e_branch2b <- res4e_branch2a
I0115 23:08:11.702666 17703 net.cpp:418] res4e_branch2b -> res4e_branch2b
I0115 23:08:11.704927 17703 net.cpp:150] Setting up res4e_branch2b
I0115 23:08:11.704957 17703 net.cpp:157] Top shape: 1 256 38 63 (612864)
I0115 23:08:11.704979 17703 net.cpp:165] Memory required for data: 2499484500
I0115 23:08:11.705001 17703 layer_factory.hpp:77] Creating layer bn4e_branch2b
I0115 23:08:11.705026 17703 net.cpp:100] Creating Layer bn4e_branch2b
I0115 23:08:11.705049 17703 net.cpp:444] bn4e_branch2b <- res4e_branch2b
I0115 23:08:11.705070 17703 net.cpp:405] bn4e_branch2b -> res4e_branch2b (in-place)
I0115 23:08:11.705322 17703 net.cpp:150] Setting up bn4e_branch2b
I0115 23:08:11.705332 17703 net.cpp:157] Top shape: 1 256 38 63 (612864)
I0115 23:08:11.705339 17703 net.cpp:165] Memory required for data: 2501935956
I0115 23:08:11.705382 17703 layer_factory.hpp:77] Creating layer scale4e_branch2b
I0115 23:08:11.705410 17703 net.cpp:100] Creating Layer scale4e_branch2b
I0115 23:08:11.705430 17703 net.cpp:444] scale4e_branch2b <- res4e_branch2b
I0115 23:08:11.705437 17703 net.cpp:405] scale4e_branch2b -> res4e_branch2b (in-place)
I0115 23:08:11.705513 17703 layer_factory.hpp:77] Creating layer scale4e_branch2b
I0115 23:08:11.705675 17703 net.cpp:150] Setting up scale4e_branch2b
I0115 23:08:11.705685 17703 net.cpp:157] Top shape: 1 256 38 63 (612864)
I0115 23:08:11.705693 17703 net.cpp:165] Memory required for data: 2504387412
I0115 23:08:11.705700 17703 layer_factory.hpp:77] Creating layer res4e_branch2b_relu
I0115 23:08:11.705709 17703 net.cpp:100] Creating Layer res4e_branch2b_relu
I0115 23:08:11.705718 17703 net.cpp:444] res4e_branch2b_relu <- res4e_branch2b
I0115 23:08:11.705725 17703 net.cpp:405] res4e_branch2b_relu -> res4e_branch2b (in-place)
I0115 23:08:11.705904 17703 net.cpp:150] Setting up res4e_branch2b_relu
I0115 23:08:11.705916 17703 net.cpp:157] Top shape: 1 256 38 63 (612864)
I0115 23:08:11.705922 17703 net.cpp:165] Memory required for data: 2506838868
I0115 23:08:11.705943 17703 layer_factory.hpp:77] Creating layer res4e_branch2c
I0115 23:08:11.705956 17703 net.cpp:100] Creating Layer res4e_branch2c
I0115 23:08:11.705965 17703 net.cpp:444] res4e_branch2c <- res4e_branch2b
I0115 23:08:11.705974 17703 net.cpp:418] res4e_branch2c -> res4e_branch2c
I0115 23:08:11.707067 17703 net.cpp:150] Setting up res4e_branch2c
I0115 23:08:11.707085 17703 net.cpp:157] Top shape: 1 1024 38 63 (2451456)
I0115 23:08:11.707093 17703 net.cpp:165] Memory required for data: 2516644692
I0115 23:08:11.707103 17703 layer_factory.hpp:77] Creating layer bn4e_branch2c
I0115 23:08:11.707126 17703 net.cpp:100] Creating Layer bn4e_branch2c
I0115 23:08:11.707134 17703 net.cpp:444] bn4e_branch2c <- res4e_branch2c
I0115 23:08:11.707144 17703 net.cpp:405] bn4e_branch2c -> res4e_branch2c (in-place)
I0115 23:08:11.707347 17703 net.cpp:150] Setting up bn4e_branch2c
I0115 23:08:11.707360 17703 net.cpp:157] Top shape: 1 1024 38 63 (2451456)
I0115 23:08:11.707366 17703 net.cpp:165] Memory required for data: 2526450516
I0115 23:08:11.707389 17703 layer_factory.hpp:77] Creating layer scale4e_branch2c
I0115 23:08:11.707399 17703 net.cpp:100] Creating Layer scale4e_branch2c
I0115 23:08:11.707407 17703 net.cpp:444] scale4e_branch2c <- res4e_branch2c
I0115 23:08:11.707417 17703 net.cpp:405] scale4e_branch2c -> res4e_branch2c (in-place)
I0115 23:08:11.707469 17703 layer_factory.hpp:77] Creating layer scale4e_branch2c
I0115 23:08:11.707582 17703 net.cpp:150] Setting up scale4e_branch2c
I0115 23:08:11.707594 17703 net.cpp:157] Top shape: 1 1024 38 63 (2451456)
I0115 23:08:11.707602 17703 net.cpp:165] Memory required for data: 2536256340
I0115 23:08:11.707610 17703 layer_factory.hpp:77] Creating layer res4e
I0115 23:08:11.707620 17703 net.cpp:100] Creating Layer res4e
I0115 23:08:11.707629 17703 net.cpp:444] res4e <- res4d_res4d_relu_0_split_1
I0115 23:08:11.707643 17703 net.cpp:444] res4e <- res4e_branch2c
I0115 23:08:11.707690 17703 net.cpp:418] res4e -> res4e
I0115 23:08:11.707746 17703 net.cpp:150] Setting up res4e
I0115 23:08:11.707757 17703 net.cpp:157] Top shape: 1 1024 38 63 (2451456)
I0115 23:08:11.707764 17703 net.cpp:165] Memory required for data: 2546062164
I0115 23:08:11.707772 17703 layer_factory.hpp:77] Creating layer res4e_relu
I0115 23:08:11.707779 17703 net.cpp:100] Creating Layer res4e_relu
I0115 23:08:11.707787 17703 net.cpp:444] res4e_relu <- res4e
I0115 23:08:11.707798 17703 net.cpp:405] res4e_relu -> res4e (in-place)
I0115 23:08:11.707952 17703 net.cpp:150] Setting up res4e_relu
I0115 23:08:11.707964 17703 net.cpp:157] Top shape: 1 1024 38 63 (2451456)
I0115 23:08:11.707972 17703 net.cpp:165] Memory required for data: 2555867988
I0115 23:08:11.707979 17703 layer_factory.hpp:77] Creating layer res4e_res4e_relu_0_split
I0115 23:08:11.707989 17703 net.cpp:100] Creating Layer res4e_res4e_relu_0_split
I0115 23:08:11.708001 17703 net.cpp:444] res4e_res4e_relu_0_split <- res4e
I0115 23:08:11.708011 17703 net.cpp:418] res4e_res4e_relu_0_split -> res4e_res4e_relu_0_split_0
I0115 23:08:11.708022 17703 net.cpp:418] res4e_res4e_relu_0_split -> res4e_res4e_relu_0_split_1
I0115 23:08:11.708065 17703 net.cpp:150] Setting up res4e_res4e_relu_0_split
I0115 23:08:11.708076 17703 net.cpp:157] Top shape: 1 1024 38 63 (2451456)
I0115 23:08:11.708084 17703 net.cpp:157] Top shape: 1 1024 38 63 (2451456)
I0115 23:08:11.708091 17703 net.cpp:165] Memory required for data: 2575479636
I0115 23:08:11.708098 17703 layer_factory.hpp:77] Creating layer res4f_branch2a
I0115 23:08:11.708109 17703 net.cpp:100] Creating Layer res4f_branch2a
I0115 23:08:11.708117 17703 net.cpp:444] res4f_branch2a <- res4e_res4e_relu_0_split_0
I0115 23:08:11.708127 17703 net.cpp:418] res4f_branch2a -> res4f_branch2a
I0115 23:08:11.709811 17703 net.cpp:150] Setting up res4f_branch2a
I0115 23:08:11.709834 17703 net.cpp:157] Top shape: 1 256 38 63 (612864)
I0115 23:08:11.709843 17703 net.cpp:165] Memory required for data: 2577931092
I0115 23:08:11.709853 17703 layer_factory.hpp:77] Creating layer bn4f_branch2a
I0115 23:08:11.709864 17703 net.cpp:100] Creating Layer bn4f_branch2a
I0115 23:08:11.709873 17703 net.cpp:444] bn4f_branch2a <- res4f_branch2a
I0115 23:08:11.709884 17703 net.cpp:405] bn4f_branch2a -> res4f_branch2a (in-place)
I0115 23:08:11.710072 17703 net.cpp:150] Setting up bn4f_branch2a
I0115 23:08:11.710083 17703 net.cpp:157] Top shape: 1 256 38 63 (612864)
I0115 23:08:11.710090 17703 net.cpp:165] Memory required for data: 2580382548
I0115 23:08:11.710101 17703 layer_factory.hpp:77] Creating layer scale4f_branch2a
I0115 23:08:11.710111 17703 net.cpp:100] Creating Layer scale4f_branch2a
I0115 23:08:11.710119 17703 net.cpp:444] scale4f_branch2a <- res4f_branch2a
I0115 23:08:11.710129 17703 net.cpp:405] scale4f_branch2a -> res4f_branch2a (in-place)
I0115 23:08:11.710172 17703 layer_factory.hpp:77] Creating layer scale4f_branch2a
I0115 23:08:11.710325 17703 net.cpp:150] Setting up scale4f_branch2a
I0115 23:08:11.710335 17703 net.cpp:157] Top shape: 1 256 38 63 (612864)
I0115 23:08:11.710341 17703 net.cpp:165] Memory required for data: 2582834004
I0115 23:08:11.710362 17703 layer_factory.hpp:77] Creating layer res4f_branch2a_relu
I0115 23:08:11.710372 17703 net.cpp:100] Creating Layer res4f_branch2a_relu
I0115 23:08:11.710379 17703 net.cpp:444] res4f_branch2a_relu <- res4f_branch2a
I0115 23:08:11.710389 17703 net.cpp:405] res4f_branch2a_relu -> res4f_branch2a (in-place)
I0115 23:08:11.710557 17703 net.cpp:150] Setting up res4f_branch2a_relu
I0115 23:08:11.710570 17703 net.cpp:157] Top shape: 1 256 38 63 (612864)
I0115 23:08:11.710577 17703 net.cpp:165] Memory required for data: 2585285460
I0115 23:08:11.710585 17703 layer_factory.hpp:77] Creating layer res4f_branch2b
I0115 23:08:11.710597 17703 net.cpp:100] Creating Layer res4f_branch2b
I0115 23:08:11.710604 17703 net.cpp:444] res4f_branch2b <- res4f_branch2a
I0115 23:08:11.710615 17703 net.cpp:418] res4f_branch2b -> res4f_branch2b
I0115 23:08:11.712951 17703 net.cpp:150] Setting up res4f_branch2b
I0115 23:08:11.712998 17703 net.cpp:157] Top shape: 1 256 38 63 (612864)
I0115 23:08:11.713021 17703 net.cpp:165] Memory required for data: 2587736916
I0115 23:08:11.713033 17703 layer_factory.hpp:77] Creating layer bn4f_branch2b
I0115 23:08:11.713047 17703 net.cpp:100] Creating Layer bn4f_branch2b
I0115 23:08:11.713057 17703 net.cpp:444] bn4f_branch2b <- res4f_branch2b
I0115 23:08:11.713068 17703 net.cpp:405] bn4f_branch2b -> res4f_branch2b (in-place)
I0115 23:08:11.713289 17703 net.cpp:150] Setting up bn4f_branch2b
I0115 23:08:11.713299 17703 net.cpp:157] Top shape: 1 256 38 63 (612864)
I0115 23:08:11.713305 17703 net.cpp:165] Memory required for data: 2590188372
I0115 23:08:11.713330 17703 layer_factory.hpp:77] Creating layer scale4f_branch2b
I0115 23:08:11.713341 17703 net.cpp:100] Creating Layer scale4f_branch2b
I0115 23:08:11.713349 17703 net.cpp:444] scale4f_branch2b <- res4f_branch2b
I0115 23:08:11.713358 17703 net.cpp:405] scale4f_branch2b -> res4f_branch2b (in-place)
I0115 23:08:11.713423 17703 layer_factory.hpp:77] Creating layer scale4f_branch2b
I0115 23:08:11.713578 17703 net.cpp:150] Setting up scale4f_branch2b
I0115 23:08:11.713588 17703 net.cpp:157] Top shape: 1 256 38 63 (612864)
I0115 23:08:11.713595 17703 net.cpp:165] Memory required for data: 2592639828
I0115 23:08:11.713603 17703 layer_factory.hpp:77] Creating layer res4f_branch2b_relu
I0115 23:08:11.713613 17703 net.cpp:100] Creating Layer res4f_branch2b_relu
I0115 23:08:11.713619 17703 net.cpp:444] res4f_branch2b_relu <- res4f_branch2b
I0115 23:08:11.713629 17703 net.cpp:405] res4f_branch2b_relu -> res4f_branch2b (in-place)
I0115 23:08:11.714105 17703 net.cpp:150] Setting up res4f_branch2b_relu
I0115 23:08:11.714121 17703 net.cpp:157] Top shape: 1 256 38 63 (612864)
I0115 23:08:11.714128 17703 net.cpp:165] Memory required for data: 2595091284
I0115 23:08:11.714135 17703 layer_factory.hpp:77] Creating layer res4f_branch2c
I0115 23:08:11.714145 17703 net.cpp:100] Creating Layer res4f_branch2c
I0115 23:08:11.714154 17703 net.cpp:444] res4f_branch2c <- res4f_branch2b
I0115 23:08:11.714164 17703 net.cpp:418] res4f_branch2c -> res4f_branch2c
I0115 23:08:11.714882 17703 net.cpp:150] Setting up res4f_branch2c
I0115 23:08:11.714898 17703 net.cpp:157] Top shape: 1 1024 38 63 (2451456)
I0115 23:08:11.714905 17703 net.cpp:165] Memory required for data: 2604897108
I0115 23:08:11.714912 17703 layer_factory.hpp:77] Creating layer bn4f_branch2c
I0115 23:08:11.714923 17703 net.cpp:100] Creating Layer bn4f_branch2c
I0115 23:08:11.714931 17703 net.cpp:444] bn4f_branch2c <- res4f_branch2c
I0115 23:08:11.714956 17703 net.cpp:405] bn4f_branch2c -> res4f_branch2c (in-place)
I0115 23:08:11.715171 17703 net.cpp:150] Setting up bn4f_branch2c
I0115 23:08:11.715183 17703 net.cpp:157] Top shape: 1 1024 38 63 (2451456)
I0115 23:08:11.715189 17703 net.cpp:165] Memory required for data: 2614702932
I0115 23:08:11.715207 17703 layer_factory.hpp:77] Creating layer scale4f_branch2c
I0115 23:08:11.715237 17703 net.cpp:100] Creating Layer scale4f_branch2c
I0115 23:08:11.715245 17703 net.cpp:444] scale4f_branch2c <- res4f_branch2c
I0115 23:08:11.715265 17703 net.cpp:405] scale4f_branch2c -> res4f_branch2c (in-place)
I0115 23:08:11.715337 17703 layer_factory.hpp:77] Creating layer scale4f_branch2c
I0115 23:08:11.715502 17703 net.cpp:150] Setting up scale4f_branch2c
I0115 23:08:11.715513 17703 net.cpp:157] Top shape: 1 1024 38 63 (2451456)
I0115 23:08:11.715519 17703 net.cpp:165] Memory required for data: 2624508756
I0115 23:08:11.715543 17703 layer_factory.hpp:77] Creating layer res4f
I0115 23:08:11.715551 17703 net.cpp:100] Creating Layer res4f
I0115 23:08:11.715572 17703 net.cpp:444] res4f <- res4e_res4e_relu_0_split_1
I0115 23:08:11.715579 17703 net.cpp:444] res4f <- res4f_branch2c
I0115 23:08:11.715603 17703 net.cpp:418] res4f -> res4f
I0115 23:08:11.715665 17703 net.cpp:150] Setting up res4f
I0115 23:08:11.715677 17703 net.cpp:157] Top shape: 1 1024 38 63 (2451456)
I0115 23:08:11.715683 17703 net.cpp:165] Memory required for data: 2634314580
I0115 23:08:11.715704 17703 layer_factory.hpp:77] Creating layer res4f_relu
I0115 23:08:11.715725 17703 net.cpp:100] Creating Layer res4f_relu
I0115 23:08:11.715734 17703 net.cpp:444] res4f_relu <- res4f
I0115 23:08:11.715742 17703 net.cpp:405] res4f_relu -> res4f (in-place)
I0115 23:08:11.716248 17703 net.cpp:150] Setting up res4f_relu
I0115 23:08:11.716264 17703 net.cpp:157] Top shape: 1 1024 38 63 (2451456)
I0115 23:08:11.716271 17703 net.cpp:165] Memory required for data: 2644120404
I0115 23:08:11.716279 17703 layer_factory.hpp:77] Creating layer res4f_res4f_relu_0_split
I0115 23:08:11.716289 17703 net.cpp:100] Creating Layer res4f_res4f_relu_0_split
I0115 23:08:11.716297 17703 net.cpp:444] res4f_res4f_relu_0_split <- res4f
I0115 23:08:11.716308 17703 net.cpp:418] res4f_res4f_relu_0_split -> res4f_res4f_relu_0_split_0
I0115 23:08:11.716320 17703 net.cpp:418] res4f_res4f_relu_0_split -> res4f_res4f_relu_0_split_1
I0115 23:08:11.716331 17703 net.cpp:418] res4f_res4f_relu_0_split -> res4f_res4f_relu_0_split_2
I0115 23:08:11.716392 17703 net.cpp:150] Setting up res4f_res4f_relu_0_split
I0115 23:08:11.716403 17703 net.cpp:157] Top shape: 1 1024 38 63 (2451456)
I0115 23:08:11.716410 17703 net.cpp:157] Top shape: 1 1024 38 63 (2451456)
I0115 23:08:11.716418 17703 net.cpp:157] Top shape: 1 1024 38 63 (2451456)
I0115 23:08:11.716425 17703 net.cpp:165] Memory required for data: 2673537876
I0115 23:08:11.716434 17703 layer_factory.hpp:77] Creating layer res5a_branch1
I0115 23:08:11.716444 17703 net.cpp:100] Creating Layer res5a_branch1
I0115 23:08:11.716452 17703 net.cpp:444] res5a_branch1 <- res4f_res4f_relu_0_split_0
I0115 23:08:11.716462 17703 net.cpp:418] res5a_branch1 -> res5a_branch1
I0115 23:08:11.721609 17703 net.cpp:150] Setting up res5a_branch1
I0115 23:08:11.721664 17703 net.cpp:157] Top shape: 1 2048 38 63 (4902912)
I0115 23:08:11.721675 17703 net.cpp:165] Memory required for data: 2693149524
I0115 23:08:11.721704 17703 layer_factory.hpp:77] Creating layer bn5a_branch1
I0115 23:08:11.721720 17703 net.cpp:100] Creating Layer bn5a_branch1
I0115 23:08:11.721731 17703 net.cpp:444] bn5a_branch1 <- res5a_branch1
I0115 23:08:11.721742 17703 net.cpp:405] bn5a_branch1 -> res5a_branch1 (in-place)
I0115 23:08:11.721974 17703 net.cpp:150] Setting up bn5a_branch1
I0115 23:08:11.721987 17703 net.cpp:157] Top shape: 1 2048 38 63 (4902912)
I0115 23:08:11.721993 17703 net.cpp:165] Memory required for data: 2712761172
I0115 23:08:11.722018 17703 layer_factory.hpp:77] Creating layer scale5a_branch1
I0115 23:08:11.722029 17703 net.cpp:100] Creating Layer scale5a_branch1
I0115 23:08:11.722038 17703 net.cpp:444] scale5a_branch1 <- res5a_branch1
I0115 23:08:11.722048 17703 net.cpp:405] scale5a_branch1 -> res5a_branch1 (in-place)
I0115 23:08:11.722111 17703 layer_factory.hpp:77] Creating layer scale5a_branch1
I0115 23:08:11.722291 17703 net.cpp:150] Setting up scale5a_branch1
I0115 23:08:11.722306 17703 net.cpp:157] Top shape: 1 2048 38 63 (4902912)
I0115 23:08:11.722311 17703 net.cpp:165] Memory required for data: 2732372820
I0115 23:08:11.722334 17703 layer_factory.hpp:77] Creating layer res5a_branch2a
I0115 23:08:11.722347 17703 net.cpp:100] Creating Layer res5a_branch2a
I0115 23:08:11.722357 17703 net.cpp:444] res5a_branch2a <- res4f_res4f_relu_0_split_1
I0115 23:08:11.722380 17703 net.cpp:418] res5a_branch2a -> res5a_branch2a
I0115 23:08:11.724333 17703 net.cpp:150] Setting up res5a_branch2a
I0115 23:08:11.724359 17703 net.cpp:157] Top shape: 1 512 38 63 (1225728)
I0115 23:08:11.724366 17703 net.cpp:165] Memory required for data: 2737275732
I0115 23:08:11.724375 17703 layer_factory.hpp:77] Creating layer bn5a_branch2a
I0115 23:08:11.724388 17703 net.cpp:100] Creating Layer bn5a_branch2a
I0115 23:08:11.724412 17703 net.cpp:444] bn5a_branch2a <- res5a_branch2a
I0115 23:08:11.724447 17703 net.cpp:405] bn5a_branch2a -> res5a_branch2a (in-place)
I0115 23:08:11.724653 17703 net.cpp:150] Setting up bn5a_branch2a
I0115 23:08:11.724663 17703 net.cpp:157] Top shape: 1 512 38 63 (1225728)
I0115 23:08:11.724669 17703 net.cpp:165] Memory required for data: 2742178644
I0115 23:08:11.724679 17703 layer_factory.hpp:77] Creating layer scale5a_branch2a
I0115 23:08:11.724687 17703 net.cpp:100] Creating Layer scale5a_branch2a
I0115 23:08:11.724695 17703 net.cpp:444] scale5a_branch2a <- res5a_branch2a
I0115 23:08:11.724704 17703 net.cpp:405] scale5a_branch2a -> res5a_branch2a (in-place)
I0115 23:08:11.724745 17703 layer_factory.hpp:77] Creating layer scale5a_branch2a
I0115 23:08:11.724858 17703 net.cpp:150] Setting up scale5a_branch2a
I0115 23:08:11.724869 17703 net.cpp:157] Top shape: 1 512 38 63 (1225728)
I0115 23:08:11.724875 17703 net.cpp:165] Memory required for data: 2747081556
I0115 23:08:11.724884 17703 layer_factory.hpp:77] Creating layer res5a_branch2a_relu
I0115 23:08:11.724892 17703 net.cpp:100] Creating Layer res5a_branch2a_relu
I0115 23:08:11.724900 17703 net.cpp:444] res5a_branch2a_relu <- res5a_branch2a
I0115 23:08:11.724910 17703 net.cpp:405] res5a_branch2a_relu -> res5a_branch2a (in-place)
I0115 23:08:11.725069 17703 net.cpp:150] Setting up res5a_branch2a_relu
I0115 23:08:11.725083 17703 net.cpp:157] Top shape: 1 512 38 63 (1225728)
I0115 23:08:11.725090 17703 net.cpp:165] Memory required for data: 2751984468
I0115 23:08:11.725096 17703 layer_factory.hpp:77] Creating layer res5a_branch2b
I0115 23:08:11.725106 17703 net.cpp:100] Creating Layer res5a_branch2b
I0115 23:08:11.725114 17703 net.cpp:444] res5a_branch2b <- res5a_branch2a
I0115 23:08:11.725124 17703 net.cpp:418] res5a_branch2b -> res5a_branch2b
I0115 23:08:11.729835 17703 net.cpp:150] Setting up res5a_branch2b
I0115 23:08:11.729900 17703 net.cpp:157] Top shape: 1 512 38 63 (1225728)
I0115 23:08:11.729910 17703 net.cpp:165] Memory required for data: 2756887380
I0115 23:08:11.729923 17703 layer_factory.hpp:77] Creating layer bn5a_branch2b
I0115 23:08:11.729938 17703 net.cpp:100] Creating Layer bn5a_branch2b
I0115 23:08:11.729959 17703 net.cpp:444] bn5a_branch2b <- res5a_branch2b
I0115 23:08:11.729971 17703 net.cpp:405] bn5a_branch2b -> res5a_branch2b (in-place)
I0115 23:08:11.730202 17703 net.cpp:150] Setting up bn5a_branch2b
I0115 23:08:11.730213 17703 net.cpp:157] Top shape: 1 512 38 63 (1225728)
I0115 23:08:11.730219 17703 net.cpp:165] Memory required for data: 2761790292
I0115 23:08:11.730243 17703 layer_factory.hpp:77] Creating layer scale5a_branch2b
I0115 23:08:11.730253 17703 net.cpp:100] Creating Layer scale5a_branch2b
I0115 23:08:11.730274 17703 net.cpp:444] scale5a_branch2b <- res5a_branch2b
I0115 23:08:11.730283 17703 net.cpp:405] scale5a_branch2b -> res5a_branch2b (in-place)
I0115 23:08:11.730326 17703 layer_factory.hpp:77] Creating layer scale5a_branch2b
I0115 23:08:11.730473 17703 net.cpp:150] Setting up scale5a_branch2b
I0115 23:08:11.730484 17703 net.cpp:157] Top shape: 1 512 38 63 (1225728)
I0115 23:08:11.730490 17703 net.cpp:165] Memory required for data: 2766693204
I0115 23:08:11.730499 17703 layer_factory.hpp:77] Creating layer res5a_branch2b_relu
I0115 23:08:11.730510 17703 net.cpp:100] Creating Layer res5a_branch2b_relu
I0115 23:08:11.730531 17703 net.cpp:444] res5a_branch2b_relu <- res5a_branch2b
I0115 23:08:11.730540 17703 net.cpp:405] res5a_branch2b_relu -> res5a_branch2b (in-place)
I0115 23:08:11.730779 17703 net.cpp:150] Setting up res5a_branch2b_relu
…
I0116 13:06:44.350602 24136 layer_factory.hpp:77] Creating layer scale4e_branch2b
I0116 13:06:44.350611 24136 net.cpp:100] Creating Layer scale4e_branch2b
I0116 13:06:44.350620 24136 net.cpp:444] scale4e_branch2b <- res4e_branch2b
I0116 13:06:44.350630 24136 net.cpp:405] scale4e_branch2b -> res4e_branch2b (in-place)
I0116 13:06:44.350673 24136 layer_factory.hpp:77] Creating layer scale4e_branch2b
I0116 13:06:44.350775 24136 net.cpp:150] Setting up scale4e_branch2b
I0116 13:06:44.350786 24136 net.cpp:157] Top shape: 1 256 14 14 (50176)
I0116 13:06:44.350792 24136 net.cpp:165] Memory required for data: 207527948
I0116 13:06:44.350800 24136 layer_factory.hpp:77] Creating layer res4e_branch2b_relu
I0116 13:06:44.350808 24136 net.cpp:100] Creating Layer res4e_branch2b_relu
I0116 13:06:44.350816 24136 net.cpp:444] res4e_branch2b_relu <- res4e_branch2b
I0116 13:06:44.350826 24136 net.cpp:405] res4e_branch2b_relu -> res4e_branch2b (in-place)
I0116 13:06:44.350975 24136 net.cpp:150] Setting up res4e_branch2b_relu
I0116 13:06:44.350986 24136 net.cpp:157] Top shape: 1 256 14 14 (50176)
I0116 13:06:44.350993 24136 net.cpp:165] Memory required for data: 207728652
I0116 13:06:44.350999 24136 layer_factory.hpp:77] Creating layer res4e_branch2c
I0116 13:06:44.351016 24136 net.cpp:100] Creating Layer res4e_branch2c
I0116 13:06:44.351024 24136 net.cpp:444] res4e_branch2c <- res4e_branch2b
I0116 13:06:44.351034 24136 net.cpp:418] res4e_branch2c -> res4e_branch2c
I0116 13:06:44.352794 24136 net.cpp:150] Setting up res4e_branch2c
I0116 13:06:44.352819 24136 net.cpp:157] Top shape: 1 1024 14 14 (200704)
I0116 13:06:44.352828 24136 net.cpp:165] Memory required for data: 208531468
I0116 13:06:44.352835 24136 layer_factory.hpp:77] Creating layer bn4e_branch2c
I0116 13:06:44.352849 24136 net.cpp:100] Creating Layer bn4e_branch2c
I0116 13:06:44.352857 24136 net.cpp:444] bn4e_branch2c <- res4e_branch2c
I0116 13:06:44.352867 24136 net.cpp:405] bn4e_branch2c -> res4e_branch2c (in-place)
I0116 13:06:44.353050 24136 net.cpp:150] Setting up bn4e_branch2c
I0116 13:06:44.353061 24136 net.cpp:157] Top shape: 1 1024 14 14 (200704)
I0116 13:06:44.353067 24136 net.cpp:165] Memory required for data: 209334284
I0116 13:06:44.353076 24136 layer_factory.hpp:77] Creating layer scale4e_branch2c
I0116 13:06:44.353085 24136 net.cpp:100] Creating Layer scale4e_branch2c
I0116 13:06:44.353092 24136 net.cpp:444] scale4e_branch2c <- res4e_branch2c
I0116 13:06:44.353101 24136 net.cpp:405] scale4e_branch2c -> res4e_branch2c (in-place)
I0116 13:06:44.353140 24136 layer_factory.hpp:77] Creating layer scale4e_branch2c
I0116 13:06:44.353247 24136 net.cpp:150] Setting up scale4e_branch2c
I0116 13:06:44.353257 24136 net.cpp:157] Top shape: 1 1024 14 14 (200704)
I0116 13:06:44.353263 24136 net.cpp:165] Memory required for data: 210137100
I0116 13:06:44.353271 24136 layer_factory.hpp:77] Creating layer res4e
I0116 13:06:44.353279 24136 net.cpp:100] Creating Layer res4e
I0116 13:06:44.353287 24136 net.cpp:444] res4e <- res4d_res4d_relu_0_split_1
I0116 13:06:44.353294 24136 net.cpp:444] res4e <- res4e_branch2c
I0116 13:06:44.353303 24136 net.cpp:418] res4e -> res4e
I0116 13:06:44.353332 24136 net.cpp:150] Setting up res4e
I0116 13:06:44.353343 24136 net.cpp:157] Top shape: 1 1024 14 14 (200704)
I0116 13:06:44.353348 24136 net.cpp:165] Memory required for data: 210939916
I0116 13:06:44.353354 24136 layer_factory.hpp:77] Creating layer res4e_relu
I0116 13:06:44.353363 24136 net.cpp:100] Creating Layer res4e_relu
I0116 13:06:44.353369 24136 net.cpp:444] res4e_relu <- res4e
I0116 13:06:44.353377 24136 net.cpp:405] res4e_relu -> res4e (in-place)
I0116 13:06:44.353524 24136 net.cpp:150] Setting up res4e_relu
I0116 13:06:44.353538 24136 net.cpp:157] Top shape: 1 1024 14 14 (200704)
I0116 13:06:44.353543 24136 net.cpp:165] Memory required for data: 211742732
I0116 13:06:44.353549 24136 layer_factory.hpp:77] Creating layer res4e_res4e_relu_0_split
I0116 13:06:44.353559 24136 net.cpp:100] Creating Layer res4e_res4e_relu_0_split
I0116 13:06:44.353566 24136 net.cpp:444] res4e_res4e_relu_0_split <- res4e
I0116 13:06:44.353576 24136 net.cpp:418] res4e_res4e_relu_0_split -> res4e_res4e_relu_0_split_0
I0116 13:06:44.353586 24136 net.cpp:418] res4e_res4e_relu_0_split -> res4e_res4e_relu_0_split_1
I0116 13:06:44.353629 24136 net.cpp:150] Setting up res4e_res4e_relu_0_split
I0116 13:06:44.353638 24136 net.cpp:157] Top shape: 1 1024 14 14 (200704)
I0116 13:06:44.353646 24136 net.cpp:157] Top shape: 1 1024 14 14 (200704)
I0116 13:06:44.353652 24136 net.cpp:165] Memory required for data: 213348364
I0116 13:06:44.353657 24136 layer_factory.hpp:77] Creating layer res4f_branch2a
I0116 13:06:44.353668 24136 net.cpp:100] Creating Layer res4f_branch2a
I0116 13:06:44.353677 24136 net.cpp:444] res4f_branch2a <- res4e_res4e_relu_0_split_0
I0116 13:06:44.353685 24136 net.cpp:418] res4f_branch2a -> res4f_branch2a
I0116 13:06:44.354725 24136 net.cpp:150] Setting up res4f_branch2a
I0116 13:06:44.354743 24136 net.cpp:157] Top shape: 1 256 14 14 (50176)
I0116 13:06:44.354749 24136 net.cpp:165] Memory required for data: 213549068
I0116 13:06:44.354758 24136 layer_factory.hpp:77] Creating layer bn4f_branch2a
I0116 13:06:44.354768 24136 net.cpp:100] Creating Layer bn4f_branch2a
I0116 13:06:44.354776 24136 net.cpp:444] bn4f_branch2a <- res4f_branch2a
I0116 13:06:44.354791 24136 net.cpp:405] bn4f_branch2a -> res4f_branch2a (in-place)
I0116 13:06:44.354962 24136 net.cpp:150] Setting up bn4f_branch2a
I0116 13:06:44.354972 24136 net.cpp:157] Top shape: 1 256 14 14 (50176)
I0116 13:06:44.354979 24136 net.cpp:165] Memory required for data: 213749772
I0116 13:06:44.354987 24136 layer_factory.hpp:77] Creating layer scale4f_branch2a
I0116 13:06:44.354997 24136 net.cpp:100] Creating Layer scale4f_branch2a
I0116 13:06:44.355005 24136 net.cpp:444] scale4f_branch2a <- res4f_branch2a
I0116 13:06:44.355012 24136 net.cpp:405] scale4f_branch2a -> res4f_branch2a (in-place)
I0116 13:06:44.355052 24136 layer_factory.hpp:77] Creating layer scale4f_branch2a
I0116 13:06:44.355154 24136 net.cpp:150] Setting up scale4f_branch2a
I0116 13:06:44.355165 24136 net.cpp:157] Top shape: 1 256 14 14 (50176)
I0116 13:06:44.355172 24136 net.cpp:165] Memory required for data: 213950476
I0116 13:06:44.355181 24136 layer_factory.hpp:77] Creating layer res4f_branch2a_relu
I0116 13:06:44.355190 24136 net.cpp:100] Creating Layer res4f_branch2a_relu
I0116 13:06:44.355198 24136 net.cpp:444] res4f_branch2a_relu <- res4f_branch2a
I0116 13:06:44.355206 24136 net.cpp:405] res4f_branch2a_relu -> res4f_branch2a (in-place)
I0116 13:06:44.355350 24136 net.cpp:150] Setting up res4f_branch2a_relu
I0116 13:06:44.355361 24136 net.cpp:157] Top shape: 1 256 14 14 (50176)
I0116 13:06:44.355368 24136 net.cpp:165] Memory required for data: 214151180
I0116 13:06:44.355376 24136 layer_factory.hpp:77] Creating layer res4f_branch2b
I0116 13:06:44.355387 24136 net.cpp:100] Creating Layer res4f_branch2b
I0116 13:06:44.355396 24136 net.cpp:444] res4f_branch2b <- res4f_branch2a
I0116 13:06:44.355404 24136 net.cpp:418] res4f_branch2b -> res4f_branch2b
I0116 13:06:44.357565 24136 net.cpp:150] Setting up res4f_branch2b
I0116 13:06:44.357592 24136 net.cpp:157] Top shape: 1 256 14 14 (50176)
I0116 13:06:44.357599 24136 net.cpp:165] Memory required for data: 214351884
I0116 13:06:44.357609 24136 layer_factory.hpp:77] Creating layer bn4f_branch2b
I0116 13:06:44.357621 24136 net.cpp:100] Creating Layer bn4f_branch2b
I0116 13:06:44.357630 24136 net.cpp:444] bn4f_branch2b <- res4f_branch2b
I0116 13:06:44.357640 24136 net.cpp:405] bn4f_branch2b -> res4f_branch2b (in-place)
I0116 13:06:44.357821 24136 net.cpp:150] Setting up bn4f_branch2b
I0116 13:06:44.357832 24136 net.cpp:157] Top shape: 1 256 14 14 (50176)
I0116 13:06:44.357838 24136 net.cpp:165] Memory required for data: 214552588
I0116 13:06:44.357847 24136 layer_factory.hpp:77] Creating layer scale4f_branch2b
I0116 13:06:44.357856 24136 net.cpp:100] Creating Layer scale4f_branch2b
I0116 13:06:44.357863 24136 net.cpp:444] scale4f_branch2b <- res4f_branch2b
I0116 13:06:44.357873 24136 net.cpp:405] scale4f_branch2b -> res4f_branch2b (in-place)
I0116 13:06:44.357915 24136 layer_factory.hpp:77] Creating layer scale4f_branch2b
I0116 13:06:44.358019 24136 net.cpp:150] Setting up scale4f_branch2b
I0116 13:06:44.358031 24136 net.cpp:157] Top shape: 1 256 14 14 (50176)
I0116 13:06:44.358037 24136 net.cpp:165] Memory required for data: 214753292
I0116 13:06:44.358045 24136 layer_factory.hpp:77] Creating layer res4f_branch2b_relu
I0116 13:06:44.358054 24136 net.cpp:100] Creating Layer res4f_branch2b_relu
I0116 13:06:44.358062 24136 net.cpp:444] res4f_branch2b_relu <- res4f_branch2b
I0116 13:06:44.358069 24136 net.cpp:405] res4f_branch2b_relu -> res4f_branch2b (in-place)
I0116 13:06:44.358521 24136 net.cpp:150] Setting up res4f_branch2b_relu
I0116 13:06:44.358537 24136 net.cpp:157] Top shape: 1 256 14 14 (50176)
I0116 13:06:44.358544 24136 net.cpp:165] Memory required for data: 214953996
I0116 13:06:44.358551 24136 layer_factory.hpp:77] Creating layer res4f_branch2c
I0116 13:06:44.358561 24136 net.cpp:100] Creating Layer res4f_branch2c
I0116 13:06:44.358570 24136 net.cpp:444] res4f_branch2c <- res4f_branch2b
I0116 13:06:44.358582 24136 net.cpp:418] res4f_branch2c -> res4f_branch2c
I0116 13:06:44.359944 24136 net.cpp:150] Setting up res4f_branch2c
I0116 13:06:44.359969 24136 net.cpp:157] Top shape: 1 1024 14 14 (200704)
I0116 13:06:44.359984 24136 net.cpp:165] Memory required for data: 215756812
I0116 13:06:44.359995 24136 layer_factory.hpp:77] Creating layer bn4f_branch2c
I0116 13:06:44.360005 24136 net.cpp:100] Creating Layer bn4f_branch2c
I0116 13:06:44.360013 24136 net.cpp:444] bn4f_branch2c <- res4f_branch2c
I0116 13:06:44.360023 24136 net.cpp:405] bn4f_branch2c -> res4f_branch2c (in-place)
I0116 13:06:44.360209 24136 net.cpp:150] Setting up bn4f_branch2c
I0116 13:06:44.360220 24136 net.cpp:157] Top shape: 1 1024 14 14 (200704)
I0116 13:06:44.360227 24136 net.cpp:165] Memory required for data: 216559628
I0116 13:06:44.360245 24136 layer_factory.hpp:77] Creating layer scale4f_branch2c
I0116 13:06:44.360255 24136 net.cpp:100] Creating Layer scale4f_branch2c
I0116 13:06:44.360263 24136 net.cpp:444] scale4f_branch2c <- res4f_branch2c
I0116 13:06:44.360271 24136 net.cpp:405] scale4f_branch2c -> res4f_branch2c (in-place)
I0116 13:06:44.360312 24136 layer_factory.hpp:77] Creating layer scale4f_branch2c
I0116 13:06:44.360420 24136 net.cpp:150] Setting up scale4f_branch2c
I0116 13:06:44.360431 24136 net.cpp:157] Top shape: 1 1024 14 14 (200704)
I0116 13:06:44.360438 24136 net.cpp:165] Memory required for data: 217362444
I0116 13:06:44.360447 24136 layer_factory.hpp:77] Creating layer res4f
I0116 13:06:44.360458 24136 net.cpp:100] Creating Layer res4f
I0116 13:06:44.360466 24136 net.cpp:444] res4f <- res4e_res4e_relu_0_split_1
I0116 13:06:44.360473 24136 net.cpp:444] res4f <- res4f_branch2c
I0116 13:06:44.360482 24136 net.cpp:418] res4f -> res4f
I0116 13:06:44.360512 24136 net.cpp:150] Setting up res4f
I0116 13:06:44.360522 24136 net.cpp:157] Top shape: 1 1024 14 14 (200704)
I0116 13:06:44.360528 24136 net.cpp:165] Memory required for data: 218165260
I0116 13:06:44.360535 24136 layer_factory.hpp:77] Creating layer res4f_relu
I0116 13:06:44.360544 24136 net.cpp:100] Creating Layer res4f_relu
I0116 13:06:44.360551 24136 net.cpp:444] res4f_relu <- res4f
I0116 13:06:44.360560 24136 net.cpp:405] res4f_relu -> res4f (in-place)
I0116 13:06:44.361099 24136 net.cpp:150] Setting up res4f_relu
I0116 13:06:44.361116 24136 net.cpp:157] Top shape: 1 1024 14 14 (200704)
I0116 13:06:44.361124 24136 net.cpp:165] Memory required for data: 218968076
I0116 13:06:44.361131 24136 layer_factory.hpp:77] Creating layer res4f_res4f_relu_0_split
I0116 13:06:44.361142 24136 net.cpp:100] Creating Layer res4f_res4f_relu_0_split
I0116 13:06:44.361150 24136 net.cpp:444] res4f_res4f_relu_0_split <- res4f
I0116 13:06:44.361158 24136 net.cpp:418] res4f_res4f_relu_0_split -> res4f_res4f_relu_0_split_0
I0116 13:06:44.361169 24136 net.cpp:418] res4f_res4f_relu_0_split -> res4f_res4f_relu_0_split_1
I0116 13:06:44.361179 24136 net.cpp:418] res4f_res4f_relu_0_split -> res4f_res4f_relu_0_split_2
I0116 13:06:44.361240 24136 net.cpp:150] Setting up res4f_res4f_relu_0_split
I0116 13:06:44.361250 24136 net.cpp:157] Top shape: 1 1024 14 14 (200704)
I0116 13:06:44.361258 24136 net.cpp:157] Top shape: 1 1024 14 14 (200704)
I0116 13:06:44.361264 24136 net.cpp:157] Top shape: 1 1024 14 14 (200704)
I0116 13:06:44.361270 24136 net.cpp:165] Memory required for data: 221376524
I0116 13:06:44.361289 24136 layer_factory.hpp:77] Creating layer res5a_branch1
I0116 13:06:44.361300 24136 net.cpp:100] Creating Layer res5a_branch1
I0116 13:06:44.361307 24136 net.cpp:444] res5a_branch1 <- res4f_res4f_relu_0_split_0
I0116 13:06:44.361316 24136 net.cpp:418] res5a_branch1 -> res5a_branch1
I0116 13:06:44.366197 24136 net.cpp:150] Setting up res5a_branch1
I0116 13:06:44.366236 24136 net.cpp:157] Top shape: 1 2048 14 14 (401408)
I0116 13:06:44.366245 24136 net.cpp:165] Memory required for data: 222982156
I0116 13:06:44.366256 24136 layer_factory.hpp:77] Creating layer bn5a_branch1
I0116 13:06:44.366271 24136 net.cpp:100] Creating Layer bn5a_branch1
I0116 13:06:44.366281 24136 net.cpp:444] bn5a_branch1 <- res5a_branch1
I0116 13:06:44.366291 24136 net.cpp:405] bn5a_branch1 -> res5a_branch1 (in-place)
I0116 13:06:44.366490 24136 net.cpp:150] Setting up bn5a_branch1
I0116 13:06:44.366503 24136 net.cpp:157] Top shape: 1 2048 14 14 (401408)
I0116 13:06:44.366514 24136 net.cpp:165] Memory required for data: 224587788
I0116 13:06:44.366524 24136 layer_factory.hpp:77] Creating layer scale5a_branch1
I0116 13:06:44.366534 24136 net.cpp:100] Creating Layer scale5a_branch1
I0116 13:06:44.366541 24136 net.cpp:444] scale5a_branch1 <- res5a_branch1
I0116 13:06:44.366550 24136 net.cpp:405] scale5a_branch1 -> res5a_branch1 (in-place)
I0116 13:06:44.366593 24136 layer_factory.hpp:77] Creating layer scale5a_branch1
I0116 13:06:44.366705 24136 net.cpp:150] Setting up scale5a_branch1
I0116 13:06:44.366715 24136 net.cpp:157] Top shape: 1 2048 14 14 (401408)
I0116 13:06:44.366721 24136 net.cpp:165] Memory required for data: 226193420
I0116 13:06:44.366729 24136 layer_factory.hpp:77] Creating layer res5a_branch2a
I0116 13:06:44.366741 24136 net.cpp:100] Creating Layer res5a_branch2a
I0116 13:06:44.366750 24136 net.cpp:444] res5a_branch2a <- res4f_res4f_relu_0_split_1
I0116 13:06:44.366758 24136 net.cpp:418] res5a_branch2a -> res5a_branch2a
I0116 13:06:44.368517 24136 net.cpp:150] Setting up res5a_branch2a
I0116 13:06:44.368541 24136 net.cpp:157] Top shape: 1 512 14 14 (100352)
I0116 13:06:44.368548 24136 net.cpp:165] Memory required for data: 226594828
I0116 13:06:44.368557 24136 layer_factory.hpp:77] Creating layer bn5a_branch2a
I0116 13:06:44.368616 24136 net.cpp:100] Creating Layer bn5a_branch2a
I0116 13:06:44.368626 24136 net.cpp:444] bn5a_branch2a <- res5a_branch2a
I0116 13:06:44.368635 24136 net.cpp:405] bn5a_branch2a -> res5a_branch2a (in-place)
I0116 13:06:44.368827 24136 net.cpp:150] Setting up bn5a_branch2a
I0116 13:06:44.368839 24136 net.cpp:157] Top shape: 1 512 14 14 (100352)
I0116 13:06:44.368845 24136 net.cpp:165] Memory required for data: 226996236
I0116 13:06:44.368854 24136 layer_factory.hpp:77] Creating layer scale5a_branch2a
I0116 13:06:44.368863 24136 net.cpp:100] Creating Layer scale5a_branch2a
I0116 13:06:44.368871 24136 net.cpp:444] scale5a_branch2a <- res5a_branch2a
I0116 13:06:44.368880 24136 net.cpp:405] scale5a_branch2a -> res5a_branch2a (in-place)
I0116 13:06:44.368921 24136 layer_factory.hpp:77] Creating layer scale5a_branch2a
I0116 13:06:44.369029 24136 net.cpp:150] Setting up scale5a_branch2a
I0116 13:06:44.369040 24136 net.cpp:157] Top shape: 1 512 14 14 (100352)
I0116 13:06:44.369047 24136 net.cpp:165] Memory required for data: 227397644
I0116 13:06:44.369056 24136 layer_factory.hpp:77] Creating layer res5a_branch2a_relu
I0116 13:06:44.369066 24136 net.cpp:100] Creating Layer res5a_branch2a_relu
I0116 13:06:44.369074 24136 net.cpp:444] res5a_branch2a_relu <- res5a_branch2a
I0116 13:06:44.369082 24136 net.cpp:405] res5a_branch2a_relu -> res5a_branch2a (in-place)
I0116 13:06:44.369235 24136 net.cpp:150] Setting up res5a_branch2a_relu
I0116 13:06:44.369248 24136 net.cpp:157] Top shape: 1 512 14 14 (100352)
I0116 13:06:44.369256 24136 net.cpp:165] Memory required for data: 227799052
I0116 13:06:44.369262 24136 layer_factory.hpp:77] Creating layer res5a_branch2b
I0116 13:06:44.369273 24136 net.cpp:100] Creating Layer res5a_branch2b
I0116 13:06:44.369280 24136 net.cpp:444] res5a_branch2b <- res5a_branch2a
I0116 13:06:44.369290 24136 net.cpp:418] res5a_branch2b -> res5a_branch2b
I0116 13:06:44.373046 24136 net.cpp:150] Setting up res5a_branch2b
I0116 13:06:44.373102 24136 net.cpp:157] Top shape: 1 512 14 14 (100352)
I0116 13:06:44.373111 24136 net.cpp:165] Memory required for data: 228200460
I0116 13:06:44.373126 24136 layer_factory.hpp:77] Creating layer bn5a_branch2b
I0116 13:06:44.373141 24136 net.cpp:100] Creating Layer bn5a_branch2b
I0116 13:06:44.373149 24136 net.cpp:444] bn5a_branch2b <- res5a_branch2b
I0116 13:06:44.373159 24136 net.cpp:405] bn5a_branch2b -> res5a_branch2b (in-place)
I0116 13:06:44.373387 24136 net.cpp:150] Setting up bn5a_branch2b
I0116 13:06:44.373399 24136 net.cpp:157] Top shape: 1 512 14 14 (100352)
I0116 13:06:44.373405 24136 net.cpp:165] Memory required for data: 228601868
I0116 13:06:44.373415 24136 layer_factory.hpp:77] Creating layer scale5a_branch2b
I0116 13:06:44.373432 24136 net.cpp:100] Creating Layer scale5a_branch2b
I0116 13:06:44.373440 24136 net.cpp:444] scale5a_branch2b <- res5a_branch2b
I0116 13:06:44.373450 24136 net.cpp:405] scale5a_branch2b -> res5a_branch2b (in-place)
I0116 13:06:44.373489 24136 layer_factory.hpp:77] Creating layer scale5a_branch2b
I0116 13:06:44.373600 24136 net.cpp:150] Setting up scale5a_branch2b
I0116 13:06:44.373610 24136 net.cpp:157] Top shape: 1 512 14 14 (100352)
I0116 13:06:44.373615 24136 net.cpp:165] Memory required for data: 229003276
I0116 13:06:44.373623 24136 layer_factory.hpp:77] Creating layer res5a_branch2b_relu
I0116 13:06:44.373633 24136 net.cpp:100] Creating Layer res5a_branch2b_relu
I0116 13:06:44.373641 24136 net.cpp:444] res5a_branch2b_relu <- res5a_branch2b
I0116 13:06:44.373649 24136 net.cpp:405] res5a_branch2b_relu -> res5a_branch2b (in-place)
I0116 13:06:44.373849 24136 net.cpp:150] Setting up res5a_branch2b_relu
I0116 13:06:44.373863 24136 net.cpp:157] Top shape: 1 512 14 14 (100352)
I0116 13:06:44.373869 24136 net.cpp:165] Memory required for data: 229404684
I0116 13:06:44.373875 24136 layer_factory.hpp:77] Creating layer res5a_branch2c
I0116 13:06:44.373885 24136 net.cpp:100] Creating Layer res5a_branch2c
I0116 13:06:44.373893 24136 net.cpp:444] res5a_branch2c <- res5a_branch2b
I0116 13:06:44.373903 24136 net.cpp:418] res5a_branch2c -> res5a_branch2c
I0116 13:06:44.376767 24136 net.cpp:150] Setting up res5a_branch2c
I0116 13:06:44.376807 24136 net.cpp:157] Top shape: 1 2048 14 14 (401408)
I0116 13:06:44.376814 24136 net.cpp:165] Memory required for data: 231010316
I0116 13:06:44.376826 24136 layer_factory.hpp:77] Creating layer bn5a_branch2c
I0116 13:06:44.376840 24136 net.cpp:100] Creating Layer bn5a_branch2c
I0116 13:06:44.376850 24136 net.cpp:444] bn5a_branch2c <- res5a_branch2c
I0116 13:06:44.376863 24136 net.cpp:405] bn5a_branch2c -> res5a_branch2c (in-place)
I0116 13:06:44.377059 24136 net.cpp:150] Setting up bn5a_branch2c
I0116 13:06:44.377070 24136 net.cpp:157] Top shape: 1 2048 14 14 (401408)
I0116 13:06:44.377076 24136 net.cpp:165] Memory required for data: 232615948
I0116 13:06:44.377086 24136 layer_factory.hpp:77] Creating layer scale5a_branch2c
I0116 13:06:44.377095 24136 net.cpp:100] Creating Layer scale5a_branch2c
I0116 13:06:44.377102 24136 net.cpp:444] scale5a_branch2c <- res5a_branch2c
I0116 13:06:44.377110 24136 net.cpp:405] scale5a_branch2c -> res5a_branch2c (in-place)
I0116 13:06:44.377153 24136 layer_factory.hpp:77] Creating layer scale5a_branch2c
I0116 13:06:44.377264 24136 net.cpp:150] Setting up scale5a_branch2c
I0116 13:06:44.377274 24136 net.cpp:157] Top shape: 1 2048 14 14 (401408)
I0116 13:06:44.377280 24136 net.cpp:165] Memory required for data: 234221580
I0116 13:06:44.377290 24136 layer_factory.hpp:77] Creating layer res5a
I0116 13:06:44.377298 24136 net.cpp:100] Creating Layer res5a
I0116 13:06:44.377305 24136 net.cpp:444] res5a <- res5a_branch1
I0116 13:06:44.377311 24136 net.cpp:444] res5a <- res5a_branch2c
I0116 13:06:44.377321 24136 net.cpp:418] res5a -> res5a
I0116 13:06:44.377377 24136 net.cpp:150] Setting up res5a
I0116 13:06:44.377387 24136 net.cpp:157] Top shape: 1 2048 14 14 (401408)
I0116 13:06:44.377393 24136 net.cpp:165] Memory required for data: 235827212
I0116 13:06:44.377413 24136 layer_factory.hpp:77] Creating layer res5a_relu
I0116 13:06:44.377424 24136 net.cpp:100] Creating Layer res5a_relu
I0116 13:06:44.377432 24136 net.cpp:444] res5a_relu <- res5a
I0116 13:06:44.377440 24136 net.cpp:405] res5a_relu -> res5a (in-place)
I0116 13:06:44.377616 24136 net.cpp:150] Setting up res5a_relu
I0116 13:06:44.377629 24136 net.cpp:157] Top shape: 1 2048 14 14 (401408)
I0116 13:06:44.377635 24136 net.cpp:165] Memory required for data: 237432844
I0116 13:06:44.377640 24136 layer_factory.hpp:77] Creating layer res5a_res5a_relu_0_split
I0116 13:06:44.377648 24136 net.cpp:100] Creating Layer res5a_res5a_relu_0_split
I0116 13:06:44.377656 24136 net.cpp:444] res5a_res5a_relu_0_split <- res5a
I0116 13:06:44.377666 24136 net.cpp:418] res5a_res5a_relu_0_split -> res5a_res5a_relu_0_split_0
I0116 13:06:44.377684 24136 net.cpp:418] res5a_res5a_relu_0_split -> res5a_res5a_relu_0_split_1
I0116 13:06:44.377728 24136 net.cpp:150] Setting up res5a_res5a_relu_0_split
I0116 13:06:44.377737 24136 net.cpp:157] Top shape: 1 2048 14 14 (401408)
I0116 13:06:44.377744 24136 net.cpp:157] Top shape: 1 2048 14 14 (401408)
I0116 13:06:44.377750 24136 net.cpp:165] Memory required for data: 240644108
I0116 13:06:44.377756 24136 layer_factory.hpp:77] Creating layer res5b_branch2a
I0116 13:06:44.377768 24136 net.cpp:100] Creating Layer res5b_branch2a
I0116 13:06:44.377774 24136 net.cpp:444] res5b_branch2a <- res5a_res5a_relu_0_split_0
I0116 13:06:44.377784 24136 net.cpp:418] res5b_branch2a -> res5b_branch2a
I0116 13:06:44.380589 24136 net.cpp:150] Setting up res5b_branch2a
I0116 13:06:44.380625 24136 net.cpp:157] Top shape: 1 512 14 14 (100352)
I0116 13:06:44.380631 24136 net.cpp:165] Memory required for data: 241045516
I0116 13:06:44.380642 24136 layer_factory.hpp:77] Creating layer bn5b_branch2a
I0116 13:06:44.380658 24136 net.cpp:100] Creating Layer bn5b_branch2a
I0116 13:06:44.380667 24136 net.cpp:444] bn5b_branch2a <- res5b_branch2a
I0116 13:06:44.380678 24136 net.cpp:405] bn5b_branch2a -> res5b_branch2a (in-place)
I0116 13:06:44.380872 24136 net.cpp:150] Setting up bn5b_branch2a
I0116 13:06:44.380882 24136 net.cpp:157] Top shape: 1 512 14 14 (100352)
I0116 13:06:44.380888 24136 net.cpp:165] Memory required for data: 241446924
I0116 13:06:44.380897 24136 layer_factory.hpp:77] Creating layer scale5b_branch2a
I0116 13:06:44.380908 24136 net.cpp:100] Creating Layer scale5b_branch2a
I0116 13:06:44.380915 24136 net.cpp:444] scale5b_branch2a <- res5b_branch2a
I0116 13:06:44.380923 24136 net.cpp:405] scale5b_branch2a -> res5b_branch2a (in-place)
I0116 13:06:44.380964 24136 layer_factory.hpp:77] Creating layer scale5b_branch2a
I0116 13:06:44.381074 24136 net.cpp:150] Setting up scale5b_branch2a
I0116 13:06:44.381086 24136 net.cpp:157] Top shape: 1 512 14 14 (100352)
I0116 13:06:44.381093 24136 net.cpp:165] Memory required for data: 241848332
I0116 13:06:44.381100 24136 layer_factory.hpp:77] Creating layer res5b_branch2a_relu
I0116 13:06:44.381108 24136 net.cpp:100] Creating Layer res5b_branch2a_relu
I0116 13:06:44.381116 24136 net.cpp:444] res5b_branch2a_relu <- res5b_branch2a
I0116 13:06:44.381126 24136 net.cpp:405] res5b_branch2a_relu -> res5b_branch2a (in-place)
I0116 13:06:44.381280 24136 net.cpp:150] Setting up res5b_branch2a_relu
I0116 13:06:44.381294 24136 net.cpp:157] Top shape: 1 512 14 14 (100352)
I0116 13:06:44.381300 24136 net.cpp:165] Memory required for data: 242249740
I0116 13:06:44.381307 24136 layer_factory.hpp:77] Creating layer res5b_branch2b
I0116 13:06:44.381319 24136 net.cpp:100] Creating Layer res5b_branch2b
I0116 13:06:44.381327 24136 net.cpp:444] res5b_branch2b <- res5b_branch2a
I0116 13:06:44.381337 24136 net.cpp:418] res5b_branch2b -> res5b_branch2b
I0116 13:06:44.385040 24136 net.cpp:150] Setting up res5b_branch2b
I0116 13:06:44.385084 24136 net.cpp:157] Top shape: 1 512 14 14 (100352)
I0116 13:06:44.385092 24136 net.cpp:165] Memory required for data: 242651148
I0116 13:06:44.385103 24136 layer_factory.hpp:77] Creating layer bn5b_branch2b
I0116 13:06:44.385120 24136 net.cpp:100] Creating Layer bn5b_branch2b
I0116 13:06:44.385130 24136 net.cpp:444] bn5b_branch2b <- res5b_branch2b
I0116 13:06:44.385140 24136 net.cpp:405] bn5b_branch2b -> res5b_branch2b (in-place)
I0116 13:06:44.385347 24136 net.cpp:150] Setting up bn5b_branch2b
I0116 13:06:44.385359 24136 net.cpp:157] Top shape: 1 512 14 14 (100352)
I0116 13:06:44.385365 24136 net.cpp:165] Memory required for data: 243052556
I0116 13:06:44.385373 24136 layer_factory.hpp:77] Creating layer scale5b_branch2b
I0116 13:06:44.385382 24136 net.cpp:100] Creating Layer scale5b_branch2b
I0116 13:06:44.385390 24136 net.cpp:444] scale5b_branch2b <- res5b_branch2b
I0116 13:06:44.385399 24136 net.cpp:405] scale5b_branch2b -> res5b_branch2b (in-place)
I0116 13:06:44.385439 24136 layer_factory.hpp:77] Creating layer scale5b_branch2b
I0116 13:06:44.385551 24136 net.cpp:150] Setting up scale5b_branch2b
I0116 13:06:44.385570 24136 net.cpp:157] Top shape: 1 512 14 14 (100352)
I0116 13:06:44.385576 24136 net.cpp:165] Memory required for data: 243453964
I0116 13:06:44.385583 24136 layer_factory.hpp:77] Creating layer res5b_branch2b_relu
I0116 13:06:44.385594 24136 net.cpp:100] Creating Layer res5b_branch2b_relu
I0116 13:06:44.385601 24136 net.cpp:444] res5b_branch2b_relu <- res5b_branch2b
I0116 13:06:44.385610 24136 net.cpp:405] res5b_branch2b_relu -> res5b_branch2b (in-place)
I0116 13:06:44.386279 24136 net.cpp:150] Setting up res5b_branch2b_relu
I0116 13:06:44.386296 24136 net.cpp:157] Top shape: 1 512 14 14 (100352)
I0116 13:06:44.386302 24136 net.cpp:165] Memory required for data: 243855372
I0116 13:06:44.386308 24136 layer_factory.hpp:77] Creating layer res5b_branch2c
I0116 13:06:44.386319 24136 net.cpp:100] Creating Layer res5b_branch2c
I0116 13:06:44.386328 24136 net.cpp:444] res5b_branch2c <- res5b_branch2b
I0116 13:06:44.386338 24136 net.cpp:418] res5b_branch2c -> res5b_branch2c
I0116 13:06:44.388845 24136 net.cpp:150] Setting up res5b_branch2c
I0116 13:06:44.388880 24136 net.cpp:157] Top shape: 1 2048 14 14 (401408)
I0116 13:06:44.388887 24136 net.cpp:165] Memory required for data: 245461004
I0116 13:06:44.388898 24136 layer_factory.hpp:77] Creating layer bn5b_branch2c
I0116 13:06:44.388912 24136 net.cpp:100] Creating Layer bn5b_branch2c
I0116 13:06:44.388922 24136 net.cpp:444] bn5b_branch2c <- res5b_branch2c
I0116 13:06:44.388932 24136 net.cpp:405] bn5b_branch2c -> res5b_branch2c (in-place)
I0116 13:06:44.389132 24136 net.cpp:150] Setting up bn5b_branch2c
I0116 13:06:44.389143 24136 net.cpp:157] Top shape: 1 2048 14 14 (401408)
I0116 13:06:44.389149 24136 net.cpp:165] Memory required for data: 247066636
I0116 13:06:44.389158 24136 layer_factory.hpp:77] Creating layer scale5b_branch2c
I0116 13:06:44.389168 24136 net.cpp:100] Creating Layer scale5b_branch2c
I0116 13:06:44.389176 24136 net.cpp:444] scale5b_branch2c <- res5b_branch2c
I0116 13:06:44.389184 24136 net.cpp:405] scale5b_branch2c -> res5b_branch2c (in-place)
I0116 13:06:44.389228 24136 layer_factory.hpp:77] Creating layer scale5b_branch2c
I0116 13:06:44.389343 24136 net.cpp:150] Setting up scale5b_branch2c
I0116 13:06:44.389353 24136 net.cpp:157] Top shape: 1 2048 14 14 (401408)
I0116 13:06:44.389358 24136 net.cpp:165] Memory required for data: 248672268
I0116 13:06:44.389367 24136 layer_factory.hpp:77] Creating layer res5b
I0116 13:06:44.389375 24136 net.cpp:100] Creating Layer res5b
I0116 13:06:44.389381 24136 net.cpp:444] res5b <- res5a_res5a_relu_0_split_1
I0116 13:06:44.389390 24136 net.cpp:444] res5b <- res5b_branch2c
I0116 13:06:44.389401 24136 net.cpp:418] res5b -> res5b
I0116 13:06:44.389430 24136 net.cpp:150] Setting up res5b
I0116 13:06:44.389441 24136 net.cpp:157] Top shape: 1 2048 14 14 (401408)
I0116 13:06:44.389446 24136 net.cpp:165] Memory required for data: 250277900
I0116 13:06:44.389452 24136 layer_factory.hpp:77] Creating layer res5b_relu
I0116 13:06:44.389461 24136 net.cpp:100] Creating Layer res5b_relu
I0116 13:06:44.389468 24136 net.cpp:444] res5b_relu <- res5b
I0116 13:06:44.389477 24136 net.cpp:405] res5b_relu -> res5b (in-place)
I0116 13:06:44.389626 24136 net.cpp:150] Setting up res5b_relu
I0116 13:06:44.389637 24136 net.cpp:157] Top shape: 1 2048 14 14 (401408)
I0116 13:06:44.389643 24136 net.cpp:165] Memory required for data: 251883532
I0116 13:06:44.389649 24136 layer_factory.hpp:77] Creating layer res5b_res5b_relu_0_split
I0116 13:06:44.389659 24136 net.cpp:100] Creating Layer res5b_res5b_relu_0_split
I0116 13:06:44.389667 24136 net.cpp:444] res5b_res5b_relu_0_split <- res5b
I0116 13:06:44.389678 24136 net.cpp:418] res5b_res5b_relu_0_split -> res5b_res5b_relu_0_split_0
I0116 13:06:44.389688 24136 net.cpp:418] res5b_res5b_relu_0_split -> res5b_res5b_relu_0_split_1
I0116 13:06:44.389732 24136 net.cpp:150] Setting up res5b_res5b_relu_0_split
I0116 13:06:44.389742 24136 net.cpp:157] Top shape: 1 2048 14 14 (401408)
I0116 13:06:44.389749 24136 net.cpp:157] Top shape: 1 2048 14 14 (401408)
I0116 13:06:44.389760 24136 net.cpp:165] Memory required for data: 255094796
I0116 13:06:44.389767 24136 layer_factory.hpp:77] Creating layer res5c_branch2a
I0116 13:06:44.389778 24136 net.cpp:100] Creating Layer res5c_branch2a
I0116 13:06:44.389786 24136 net.cpp:444] res5c_branch2a <- res5b_res5b_relu_0_split_0
I0116 13:06:44.389796 24136 net.cpp:418] res5c_branch2a -> res5c_branch2a
I0116 13:06:44.392300 24136 net.cpp:150] Setting up res5c_branch2a
I0116 13:06:44.392338 24136 net.cpp:157] Top shape: 1 512 14 14 (100352)
I0116 13:06:44.392346 24136 net.cpp:165] Memory required for data: 255496204
I0116 13:06:44.392356 24136 layer_factory.hpp:77] Creating layer bn5c_branch2a
I0116 13:06:44.392370 24136 net.cpp:100] Creating Layer bn5c_branch2a
I0116 13:06:44.392379 24136 net.cpp:444] bn5c_branch2a <- res5c_branch2a
I0116 13:06:44.392390 24136 net.cpp:405] bn5c_branch2a -> res5c_branch2a (in-place)
I0116 13:06:44.392590 24136 net.cpp:150] Setting up bn5c_branch2a
I0116 13:06:44.392602 24136 net.cpp:157] Top shape: 1 512 14 14 (100352)
I0116 13:06:44.392609 24136 net.cpp:165] Memory required for data: 255897612
I0116 13:06:44.392618 24136 layer_factory.hpp:77] Creating layer scale5c_branch2a
I0116 13:06:44.392628 24136 net.cpp:100] Creating Layer scale5c_branch2a
I0116 13:06:44.392637 24136 net.cpp:444] scale5c_branch2a <- res5c_branch2a
I0116 13:06:44.392644 24136 net.cpp:405] scale5c_branch2a -> res5c_branch2a (in-place)
I0116 13:06:44.392688 24136 layer_factory.hpp:77] Creating layer scale5c_branch2a
I0116 13:06:44.392802 24136 net.cpp:150] Setting up scale5c_branch2a
I0116 13:06:44.392812 24136 net.cpp:157] Top shape: 1 512 14 14 (100352)
I0116 13:06:44.392819 24136 net.cpp:165] Memory required for data: 256299020
I0116 13:06:44.392828 24136 layer_factory.hpp:77] Creating layer res5c_branch2a_relu
I0116 13:06:44.392838 24136 net.cpp:100] Creating Layer res5c_branch2a_relu
I0116 13:06:44.392844 24136 net.cpp:444] res5c_branch2a_relu <- res5c_branch2a
I0116 13:06:44.392854 24136 net.cpp:405] res5c_branch2a_relu -> res5c_branch2a (in-place)
I0116 13:06:44.393003 24136 net.cpp:150] Setting up res5c_branch2a_relu
I0116 13:06:44.393016 24136 net.cpp:157] Top shape: 1 512 14 14 (100352)
I0116 13:06:44.393023 24136 net.cpp:165] Memory required for data: 256700428
I0116 13:06:44.393030 24136 layer_factory.hpp:77] Creating layer res5c_branch2b
I0116 13:06:44.393041 24136 net.cpp:100] Creating Layer res5c_branch2b
I0116 13:06:44.393049 24136 net.cpp:444] res5c_branch2b <- res5c_branch2a
I0116 13:06:44.393059 24136 net.cpp:418] res5c_branch2b -> res5c_branch2b
I0116 13:06:44.397260 24136 net.cpp:150] Setting up res5c_branch2b
I0116 13:06:44.397310 24136 net.cpp:157] Top shape: 1 512 14 14 (100352)
I0116 13:06:44.397318 24136 net.cpp:165] Memory required for data: 257101836
I0116 13:06:44.397330 24136 layer_factory.hpp:77] Creating layer bn5c_branch2b
I0116 13:06:44.397344 24136 net.cpp:100] Creating Layer bn5c_branch2b
I0116 13:06:44.397353 24136 net.cpp:444] bn5c_branch2b <- res5c_branch2b
I0116 13:06:44.397362 24136 net.cpp:405] bn5c_branch2b -> res5c_branch2b (in-place)
I0116 13:06:44.397580 24136 net.cpp:150] Setting up bn5c_branch2b
I0116 13:06:44.397591 24136 net.cpp:157] Top shape: 1 512 14 14 (100352)
I0116 13:06:44.397598 24136 net.cpp:165] Memory required for data: 257503244
I0116 13:06:44.397606 24136 layer_factory.hpp:77] Creating layer scale5c_branch2b
I0116 13:06:44.397615 24136 net.cpp:100] Creating Layer scale5c_branch2b
I0116 13:06:44.397621 24136 net.cpp:444] scale5c_branch2b <- res5c_branch2b
I0116 13:06:44.397629 24136 net.cpp:405] scale5c_branch2b -> res5c_branch2b (in-place)
I0116 13:06:44.397671 24136 layer_factory.hpp:77] Creating layer scale5c_branch2b
I0116 13:06:44.397792 24136 net.cpp:150] Setting up scale5c_branch2b
I0116 13:06:44.397802 24136 net.cpp:157] Top shape: 1 512 14 14 (100352)
I0116 13:06:44.397809 24136 net.cpp:165] Memory required for data: 257904652
I0116 13:06:44.397816 24136 layer_factory.hpp:77] Creating layer res5c_branch2b_relu
I0116 13:06:44.397825 24136 net.cpp:100] Creating Layer res5c_branch2b_relu
I0116 13:06:44.397840 24136 net.cpp:444] res5c_branch2b_relu <- res5c_branch2b
I0116 13:06:44.397848 24136 net.cpp:405] res5c_branch2b_relu -> res5c_branch2b (in-place)
I0116 13:06:44.398049 24136 net.cpp:150] Setting up res5c_branch2b_relu
I0116 13:06:44.398063 24136 net.cpp:157] Top shape: 1 512 14 14 (100352)
I0116 13:06:44.398069 24136 net.cpp:165] Memory required for data: 258306060
I0116 13:06:44.398077 24136 layer_factory.hpp:77] Creating layer res5c_branch2c
I0116 13:06:44.398087 24136 net.cpp:100] Creating Layer res5c_branch2c
I0116 13:06:44.398095 24136 net.cpp:444] res5c_branch2c <- res5c_branch2b
I0116 13:06:44.398104 24136 net.cpp:418] res5c_branch2c -> res5c_branch2c
I0116 13:06:44.400743 24136 net.cpp:150] Setting up res5c_branch2c
I0116 13:06:44.400780 24136 net.cpp:157] Top shape: 1 2048 14 14 (401408)
I0116 13:06:44.400787 24136 net.cpp:165] Memory required for data: 259911692
I0116 13:06:44.400799 24136 layer_factory.hpp:77] Creating layer bn5c_branch2c
I0116 13:06:44.400812 24136 net.cpp:100] Creating Layer bn5c_branch2c
I0116 13:06:44.400822 24136 net.cpp:444] bn5c_branch2c <- res5c_branch2c
I0116 13:06:44.400833 24136 net.cpp:405] bn5c_branch2c -> res5c_branch2c (in-place)
I0116 13:06:44.401052 24136 net.cpp:150] Setting up bn5c_branch2c
I0116 13:06:44.401063 24136 net.cpp:157] Top shape: 1 2048 14 14 (401408)
I0116 13:06:44.401070 24136 net.cpp:165] Memory required for data: 261517324
I0116 13:06:44.401079 24136 layer_factory.hpp:77] Creating layer scale5c_branch2c
I0116 13:06:44.401090 24136 net.cpp:100] Creating Layer scale5c_branch2c
I0116 13:06:44.401098 24136 net.cpp:444] scale5c_branch2c <- res5c_branch2c
I0116 13:06:44.401106 24136 net.cpp:405] scale5c_branch2c -> res5c_branch2c (in-place)
I0116 13:06:44.401152 24136 layer_factory.hpp:77] Creating layer scale5c_branch2c
I0116 13:06:44.401273 24136 net.cpp:150] Setting up scale5c_branch2c
I0116 13:06:44.401283 24136 net.cpp:157] Top shape: 1 2048 14 14 (401408)
I0116 13:06:44.401289 24136 net.cpp:165] Memory required for data: 263122956
I0116 13:06:44.401298 24136 layer_factory.hpp:77] Creating layer res5c
I0116 13:06:44.401307 24136 net.cpp:100] Creating Layer res5c
I0116 13:06:44.401315 24136 net.cpp:444] res5c <- res5b_res5b_relu_0_split_1
I0116 13:06:44.401324 24136 net.cpp:444] res5c <- res5c_branch2c
I0116 13:06:44.401334 24136 net.cpp:418] res5c -> res5c
I0116 13:06:44.401365 24136 net.cpp:150] Setting up res5c
I0116 13:06:44.401374 24136 net.cpp:157] Top shape: 1 2048 14 14 (401408)
I0116 13:06:44.401379 24136 net.cpp:165] Memory required for data: 264728588
I0116 13:06:44.401386 24136 layer_factory.hpp:77] Creating layer res5c_relu
I0116 13:06:44.401396 24136 net.cpp:100] Creating Layer res5c_relu
I0116 13:06:44.401402 24136 net.cpp:444] res5c_relu <- res5c
I0116 13:06:44.401410 24136 net.cpp:405] res5c_relu -> res5c (in-place)
I0116 13:06:44.401566 24136 net.cpp:150] Setting up res5c_relu
I0116 13:06:44.401579 24136 net.cpp:157] Top shape: 1 2048 14 14 (401408)
I0116 13:06:44.401585 24136 net.cpp:165] Memory required for data: 266334220
I0116 13:06:44.401592 24136 layer_factory.hpp:77] Creating layer rpn_conv/3x3
I0116 13:06:44.401605 24136 net.cpp:100] Creating Layer rpn_conv/3x3
I0116 13:06:44.401614 24136 net.cpp:444] rpn_conv/3x3 <- res4f_res4f_relu_0_split_2
I0116 13:06:44.401624 24136 net.cpp:418] rpn_conv/3x3 -> rpn/output
I0116 13:06:44.442414 24136 net.cpp:150] Setting up rpn_conv/3x3
I0116 13:06:44.442452 24136 net.cpp:157] Top shape: 1 512 14 14 (100352)
I0116 13:06:44.442459 24136 net.cpp:165] Memory required for data: 266735628
I0116 13:06:44.442471 24136 layer_factory.hpp:77] Creating layer rpn_relu/3x3
I0116 13:06:44.442483 24136 net.cpp:100] Creating Layer rpn_relu/3x3
I0116 13:06:44.442492 24136 net.cpp:444] rpn_relu/3x3 <- rpn/output
I0116 13:06:44.442503 24136 net.cpp:405] rpn_relu/3x3 -> rpn/output (in-place)
I0116 13:06:44.442976 24136 net.cpp:150] Setting up rpn_relu/3x3
I0116 13:06:44.442992 24136 net.cpp:157] Top shape: 1 512 14 14 (100352)
I0116 13:06:44.442999 24136 net.cpp:165] Memory required for data: 267137036
I0116 13:06:44.443011 24136 layer_factory.hpp:77] Creating layer rpn/output_rpn_relu/3x3_0_split
I0116 13:06:44.443022 24136 net.cpp:100] Creating Layer rpn/output_rpn_relu/3x3_0_split
I0116 13:06:44.443030 24136 net.cpp:444] rpn/output_rpn_relu/3x3_0_split <- rpn/output
I0116 13:06:44.443040 24136 net.cpp:418] rpn/output_rpn_relu/3x3_0_split -> rpn/output_rpn_relu/3x3_0_split_0
I0116 13:06:44.443051 24136 net.cpp:418] rpn/output_rpn_relu/3x3_0_split -> rpn/output_rpn_relu/3x3_0_split_1
I0116 13:06:44.443104 24136 net.cpp:150] Setting up rpn/output_rpn_relu/3x3_0_split
I0116 13:06:44.443115 24136 net.cpp:157] Top shape: 1 512 14 14 (100352)
I0116 13:06:44.443122 24136 net.cpp:157] Top shape: 1 512 14 14 (100352)
I0116 13:06:44.443128 24136 net.cpp:165] Memory required for data: 267939852
I0116 13:06:44.443135 24136 layer_factory.hpp:77] Creating layer rpn_cls_score
I0116 13:06:44.443147 24136 net.cpp:100] Creating Layer rpn_cls_score
I0116 13:06:44.443156 24136 net.cpp:444] rpn_cls_score <- rpn/output_rpn_relu/3x3_0_split_0
I0116 13:06:44.443164 24136 net.cpp:418] rpn_cls_score -> rpn_cls_score
I0116 13:06:44.443918 24136 net.cpp:150] Setting up rpn_cls_score
I0116 13:06:44.443935 24136 net.cpp:157] Top shape: 1 18 14 14 (3528)
I0116 13:06:44.443943 24136 net.cpp:165] Memory required for data: 267953964
I0116 13:06:44.443951 24136 layer_factory.hpp:77] Creating layer rpn_bbox_pred
I0116 13:06:44.443962 24136 net.cpp:100] Creating Layer rpn_bbox_pred
I0116 13:06:44.443971 24136 net.cpp:444] rpn_bbox_pred <- rpn/output_rpn_relu/3x3_0_split_1
I0116 13:06:44.443981 24136 net.cpp:418] rpn_bbox_pred -> rpn_bbox_pred
I0116 13:06:44.445188 24136 net.cpp:150] Setting up rpn_bbox_pred
I0116 13:06:44.445205 24136 net.cpp:157] Top shape: 1 36 14 14 (7056)
I0116 13:06:44.445227 24136 net.cpp:165] Memory required for data: 267982188
I0116 13:06:44.445237 24136 layer_factory.hpp:77] Creating layer rpn_cls_score_reshape
I0116 13:06:44.445248 24136 net.cpp:100] Creating Layer rpn_cls_score_reshape
I0116 13:06:44.445256 24136 net.cpp:444] rpn_cls_score_reshape <- rpn_cls_score
I0116 13:06:44.445267 24136 net.cpp:418] rpn_cls_score_reshape -> rpn_cls_score_reshape
I0116 13:06:44.445317 24136 net.cpp:150] Setting up rpn_cls_score_reshape
I0116 13:06:44.445327 24136 net.cpp:157] Top shape: 1 2 126 14 (3528)
I0116 13:06:44.445333 24136 net.cpp:165] Memory required for data: 267996300
I0116 13:06:44.445339 24136 layer_factory.hpp:77] Creating layer rpn_cls_prob
I0116 13:06:44.445348 24136 net.cpp:100] Creating Layer rpn_cls_prob
I0116 13:06:44.445369 24136 net.cpp:444] rpn_cls_prob <- rpn_cls_score_reshape
I0116 13:06:44.445392 24136 net.cpp:418] rpn_cls_prob -> rpn_cls_prob
I0116 13:06:44.445925 24136 net.cpp:150] Setting up rpn_cls_prob
I0116 13:06:44.445942 24136 net.cpp:157] Top shape: 1 2 126 14 (3528)
I0116 13:06:44.445948 24136 net.cpp:165] Memory required for data: 268010412
I0116 13:06:44.445955 24136 layer_factory.hpp:77] Creating layer rpn_cls_prob_reshape
I0116 13:06:44.445966 24136 net.cpp:100] Creating Layer rpn_cls_prob_reshape
I0116 13:06:44.445976 24136 net.cpp:444] rpn_cls_prob_reshape <- rpn_cls_prob
I0116 13:06:44.445986 24136 net.cpp:418] rpn_cls_prob_reshape -> rpn_cls_prob_reshape
I0116 13:06:44.446017 24136 net.cpp:150] Setting up rpn_cls_prob_reshape
I0116 13:06:44.446027 24136 net.cpp:157] Top shape: 1 18 14 14 (3528)
I0116 13:06:44.446033 24136 net.cpp:165] Memory required for data: 268024524
I0116 13:06:44.446039 24136 layer_factory.hpp:77] Creating layer proposal
I0116 13:06:44.447073 24136 net.cpp:100] Creating Layer proposal
I0116 13:06:44.447089 24136 net.cpp:444] proposal <- rpn_cls_prob_reshape
I0116 13:06:44.447098 24136 net.cpp:444] proposal <- rpn_bbox_pred
I0116 13:06:44.447106 24136 net.cpp:444] proposal <- im_info
I0116 13:06:44.447114 24136 net.cpp:418] proposal -> rois
I0116 13:06:44.447631 24136 net.cpp:150] Setting up proposal
I0116 13:06:44.447671 24136 net.cpp:157] Top shape: 1 5 (5)
I0116 13:06:44.447679 24136 net.cpp:165] Memory required for data: 268024544
I0116 13:06:44.447685 24136 layer_factory.hpp:77] Creating layer rois_proposal_0_split
I0116 13:06:44.447697 24136 net.cpp:100] Creating Layer rois_proposal_0_split
I0116 13:06:44.447706 24136 net.cpp:444] rois_proposal_0_split <- rois
I0116 13:06:44.447715 24136 net.cpp:418] rois_proposal_0_split -> rois_proposal_0_split_0
I0116 13:06:44.447726 24136 net.cpp:418] rois_proposal_0_split -> rois_proposal_0_split_1
I0116 13:06:44.447773 24136 net.cpp:150] Setting up rois_proposal_0_split
I0116 13:06:44.447783 24136 net.cpp:157] Top shape: 1 5 (5)
I0116 13:06:44.447789 24136 net.cpp:157] Top shape: 1 5 (5)
I0116 13:06:44.447795 24136 net.cpp:165] Memory required for data: 268024584
I0116 13:06:44.447801 24136 layer_factory.hpp:77] Creating layer conv_new_1
I0116 13:06:44.447813 24136 net.cpp:100] Creating Layer conv_new_1
I0116 13:06:44.447820 24136 net.cpp:444] conv_new_1 <- res5c
I0116 13:06:44.447829 24136 net.cpp:418] conv_new_1 -> conv_new_1
I0116 13:06:44.466567 24136 net.cpp:150] Setting up conv_new_1
I0116 13:06:44.466605 24136 net.cpp:157] Top shape: 1 1024 14 14 (200704)
I0116 13:06:44.466612 24136 net.cpp:165] Memory required for data: 268827400
I0116 13:06:44.466624 24136 layer_factory.hpp:77] Creating layer conv_new_1_relu
I0116 13:06:44.466635 24136 net.cpp:100] Creating Layer conv_new_1_relu
I0116 13:06:44.466645 24136 net.cpp:444] conv_new_1_relu <- conv_new_1
I0116 13:06:44.466655 24136 net.cpp:405] conv_new_1_relu -> conv_new_1 (in-place)
I0116 13:06:44.466809 24136 net.cpp:150] Setting up conv_new_1_relu
I0116 13:06:44.466822 24136 net.cpp:157] Top shape: 1 1024 14 14 (200704)
I0116 13:06:44.466828 24136 net.cpp:165] Memory required for data: 269630216
I0116 13:06:44.466835 24136 layer_factory.hpp:77] Creating layer conv_new_1_conv_new_1_relu_0_split
I0116 13:06:44.466842 24136 net.cpp:100] Creating Layer conv_new_1_conv_new_1_relu_0_split
I0116 13:06:44.466850 24136 net.cpp:444] conv_new_1_conv_new_1_relu_0_split <- conv_new_1
I0116 13:06:44.466859 24136 net.cpp:418] conv_new_1_conv_new_1_relu_0_split -> conv_new_1_conv_new_1_relu_0_split_0
I0116 13:06:44.466871 24136 net.cpp:418] conv_new_1_conv_new_1_relu_0_split -> conv_new_1_conv_new_1_relu_0_split_1
I0116 13:06:44.466922 24136 net.cpp:150] Setting up conv_new_1_conv_new_1_relu_0_split
I0116 13:06:44.466931 24136 net.cpp:157] Top shape: 1 1024 14 14 (200704)
I0116 13:06:44.466938 24136 net.cpp:157] Top shape: 1 1024 14 14 (200704)
I0116 13:06:44.466944 24136 net.cpp:165] Memory required for data: 271235848
I0116 13:06:44.466950 24136 layer_factory.hpp:77] Creating layer rfcn_cls
I0116 13:06:44.466962 24136 net.cpp:100] Creating Layer rfcn_cls
I0116 13:06:44.466970 24136 net.cpp:444] rfcn_cls <- conv_new_1_conv_new_1_relu_0_split_0
I0116 13:06:44.466981 24136 net.cpp:418] rfcn_cls -> rfcn_cls
I0116 13:06:44.469202 24136 net.cpp:150] Setting up rfcn_cls
I0116 13:06:44.469221 24136 net.cpp:157] Top shape: 1 98 14 14 (19208)
I0116 13:06:44.469229 24136 net.cpp:165] Memory required for data: 271312680
I0116 13:06:44.469238 24136 layer_factory.hpp:77] Creating layer rfcn_bbox
I0116 13:06:44.469257 24136 net.cpp:100] Creating Layer rfcn_bbox
I0116 13:06:44.469266 24136 net.cpp:444] rfcn_bbox <- conv_new_1_conv_new_1_relu_0_split_1
I0116 13:06:44.469277 24136 net.cpp:418] rfcn_bbox -> rfcn_bbox
I0116 13:06:44.473835 24136 net.cpp:150] Setting up rfcn_bbox
I0116 13:06:44.473862 24136 net.cpp:157] Top shape: 1 392 14 14 (76832)
I0116 13:06:44.473870 24136 net.cpp:165] Memory required for data: 271620008
I0116 13:06:44.473881 24136 layer_factory.hpp:77] Creating layer psroipooled_cls_rois
I0116 13:06:44.473894 24136 net.cpp:100] Creating Layer psroipooled_cls_rois
I0116 13:06:44.473904 24136 net.cpp:444] psroipooled_cls_rois <- rfcn_cls
I0116 13:06:44.473913 24136 net.cpp:444] psroipooled_cls_rois <- rois_proposal_0_split_0
I0116 13:06:44.473925 24136 net.cpp:418] psroipooled_cls_rois -> psroipooled_cls_rois
I0116 13:06:44.473937 24136 psroi_pooling_layer.cpp:26] Spatial scale: 0.0625
I0116 13:06:44.474001 24136 net.cpp:150] Setting up psroipooled_cls_rois
I0116 13:06:44.474012 24136 net.cpp:157] Top shape: 1 2 7 7 (98)
I0116 13:06:44.474025 24136 net.cpp:165] Memory required for data: 271620400
I0116 13:06:44.474030 24136 layer_factory.hpp:77] Creating layer ave_cls_score_rois
I0116 13:06:44.474038 24136 net.cpp:100] Creating Layer ave_cls_score_rois
I0116 13:06:44.474046 24136 net.cpp:444] ave_cls_score_rois <- psroipooled_cls_rois
I0116 13:06:44.474056 24136 net.cpp:418] ave_cls_score_rois -> cls_score
I0116 13:06:44.474221 24136 net.cpp:150] Setting up ave_cls_score_rois
I0116 13:06:44.474234 24136 net.cpp:157] Top shape: 1 2 1 1 (2)
I0116 13:06:44.474241 24136 net.cpp:165] Memory required for data: 271620408
I0116 13:06:44.474246 24136 layer_factory.hpp:77] Creating layer psroipooled_loc_rois
I0116 13:06:44.474254 24136 net.cpp:100] Creating Layer psroipooled_loc_rois
I0116 13:06:44.474263 24136 net.cpp:444] psroipooled_loc_rois <- rfcn_bbox
I0116 13:06:44.474272 24136 net.cpp:444] psroipooled_loc_rois <- rois_proposal_0_split_1
I0116 13:06:44.474282 24136 net.cpp:418] psroipooled_loc_rois -> psroipooled_loc_rois
I0116 13:06:44.474292 24136 psroi_pooling_layer.cpp:26] Spatial scale: 0.0625
I0116 13:06:44.474342 24136 net.cpp:150] Setting up psroipooled_loc_rois
I0116 13:06:44.474351 24136 net.cpp:157] Top shape: 1 8 7 7 (392)
I0116 13:06:44.474357 24136 net.cpp:165] Memory required for data: 271621976
I0116 13:06:44.474364 24136 layer_factory.hpp:77] Creating layer ave_bbox_pred_rois
I0116 13:06:44.474371 24136 net.cpp:100] Creating Layer ave_bbox_pred_rois
I0116 13:06:44.474378 24136 net.cpp:444] ave_bbox_pred_rois <- psroipooled_loc_rois
I0116 13:06:44.474388 24136 net.cpp:418] ave_bbox_pred_rois -> bbox_pred_pre
I0116 13:06:44.474545 24136 net.cpp:150] Setting up ave_bbox_pred_rois
I0116 13:06:44.474558 24136 net.cpp:157] Top shape: 1 8 1 1 (8)
I0116 13:06:44.474565 24136 net.cpp:165] Memory required for data: 271622008
I0116 13:06:44.474570 24136 layer_factory.hpp:77] Creating layer cls_prob
I0116 13:06:44.474580 24136 net.cpp:100] Creating Layer cls_prob
I0116 13:06:44.474586 24136 net.cpp:444] cls_prob <- cls_score
I0116 13:06:44.474596 24136 net.cpp:418] cls_prob -> cls_prob_pre
I0116 13:06:44.474798 24136 net.cpp:150] Setting up cls_prob
I0116 13:06:44.474812 24136 net.cpp:157] Top shape: 1 2 1 1 (2)
I0116 13:06:44.474817 24136 net.cpp:165] Memory required for data: 271622016
I0116 13:06:44.474838 24136 layer_factory.hpp:77] Creating layer cls_prob_reshape
I0116 13:06:44.474864 24136 net.cpp:100] Creating Layer cls_prob_reshape
I0116 13:06:44.474871 24136 net.cpp:444] cls_prob_reshape <- cls_prob_pre
I0116 13:06:44.474879 24136 net.cpp:418] cls_prob_reshape -> cls_prob
I0116 13:06:44.474912 24136 net.cpp:150] Setting up cls_prob_reshape
I0116 13:06:44.474922 24136 net.cpp:157] Top shape: 1 2 (2)
I0116 13:06:44.474928 24136 net.cpp:165] Memory required for data: 271622024
I0116 13:06:44.474933 24136 layer_factory.hpp:77] Creating layer bbox_pred_reshape
I0116 13:06:44.474941 24136 net.cpp:100] Creating Layer bbox_pred_reshape
I0116 13:06:44.474948 24136 net.cpp:444] bbox_pred_reshape <- bbox_pred_pre
I0116 13:06:44.474958 24136 net.cpp:418] bbox_pred_reshape -> bbox_pred
I0116 13:06:44.474999 24136 net.cpp:150] Setting up bbox_pred_reshape
I0116 13:06:44.475009 24136 net.cpp:157] Top shape: 1 8 (8)
I0116 13:06:44.475015 24136 net.cpp:165] Memory required for data: 271622056
I0116 13:06:44.475021 24136 net.cpp:228] bbox_pred_reshape does not need backward computation.
I0116 13:06:44.475028 24136 net.cpp:228] cls_prob_reshape does not need backward computation.
I0116 13:06:44.475033 24136 net.cpp:228] cls_prob does not need backward computation.
I0116 13:06:44.475040 24136 net.cpp:228] ave_bbox_pred_rois does not need backward computation.
…
