…
snapshot: 5000
snapshot_prefix: "resnet50_rfcn_ohem"
iter_size: 4
I0111 23:22:49.465770  7366 solver.cpp:81] Creating training net from train_net file: models/pascal_voc/ResNet-50/rfcn_end2end/train_agnostic_ohem.prototxt
I0111 23:22:49.468662  7366 net.cpp:58] Initializing net from parameters: 
name: "ResNet-50"
state {
  phase: TRAIN
}
layer {
  name: "input-data"
  type: "Python"
  top: "data"
  top: "im_info"
  top: "gt_boxes"
  python_param {
    module: "roi_data_layer.layer"
    layer: "RoIDataLayer"
    param_str: "\'num_classes\': 2"
  }
}
layer {
  name: "conv1"
  type: "Convolution"
  bottom: "data"
  top: "conv1"
  param {
    lr_mult: 0
  }
  param {
    lr_mult: 0
  }
  convolution_param {
    num_output: 64
    pad: 3
    kernel_size: 7
    stride: 2
  }
}
layer {
  name: "bn_conv1"
  type: "BatchNorm"
  bottom: "conv1"
  top: "conv1"
  param {
    lr_mult: 0
    decay_mult: 0
  }
  param {
    lr_mult: 0
    decay_mult: 0
  }
  param {
    lr_mult: 0
    decay_mult: 0
  }
  batch_norm_param {
    use_global_stats: true
  }
}
layer {
  name: "scale_conv1"
  type: "Scale"
  bottom: "conv1"
  top: "conv1"
  param {
    lr_mult: 0
    decay_mult: 0
  }
  param {
    lr_mult: 0
    decay_mult: 0
  }
  scale_param {
    bias_term: true
  }
}
layer {
  name: "conv1_relu"
  type: "ReLU"
  bottom: "conv1"
  top: "conv1"
}
layer {
  name: "pool1"
  type: "Pooling"
  bottom: "conv1"
  top: "pool1"
  pooling_param {
    pool: MAX
    kernel_size: 3
    stride: 2
  }
}
layer {
  name: "res2a_branch1"
  type: "Convolution"
  bottom: "pool1"
  top: "res2a_branch1"
  param {
    lr_mult: 0
  }
  convolution_param {
    num_output: 256
    bias_term: false
    pad: 0
    kernel_size: 1
    stride: 1
  }
}
layer {
  name: "bn2a_branch1"
  type: "BatchNorm"
  bottom: "res2a_branch1"
  top: "res2a_branch1"
  param {
    lr_mult: 0
    decay_mult: 0
  }
  param {
    lr_mult: 0
    decay_mult: 0
  }
  param {
    lr_mult: 0
    decay_mult: 0
  }
  batch_norm_param {
    use_global_stats: true
  }
}
layer {
  name: "scale2a_branch1"
  type: "Scale"
  bottom: "res2a_branch1"
  top: "res2a_branch1"
  param {
    lr_mult: 0
    decay_mult: 0
  }
  param {
    lr_mult: 0
    decay_mult: 0
  }
  scale_param {
    bias_term: true
  }
}
layer {
  name: "res2a_branch2a"
  type: "Convolution"
  bottom: "pool1"
  top: "res2a_branch2a"
  param {
    lr_mult: 0
  }
  convolution_param {
    num_output: 64
    bias_term: false
    pad: 0
    kernel_size: 1
    stride: 1
  }
}
layer {
  name: "bn2a_branch2a"
  type: "BatchNorm"
  bottom: "res2a_branch2a"
  top: "res2a_branch2a"
  param {
    lr_mult: 0
    decay_mult: 0
  }
  param {
    lr_mult: 0
    decay_mult: 0
  }
  param {
    lr_mult: 0
    decay_mult: 0
  }
  batch_norm_param {
    use_global_stats: true
  }
}
layer {
  name: "scale2a_branch2a"
  type: "Scale"
  bottom: "res2a_branch2a"
  top: "res2a_branch2a"
  param {
    lr_mult: 0
    decay_mult: 0
  }
  param {
    lr_mult: 0
    decay_mult: 0
  }
  scale_param {
    bias_term: true
  }
}
layer {
  name: "res2a_branch2a_relu"
  type: "ReLU"
  bottom: "res2a_branch2a"
  top: "res2a_branch2a"
}
layer {
  name: "res2a_branch2b"
  type: "Convolution"
  bottom: "res2a_branch2a"
  top: "res2a_branch2b"
  param {
    lr_mult: 0
  }
  convolution_param {
    num_output: 64
    bias_term: false
    pad: 1
    kernel_size: 3
    stride: 1
  }
}
layer {
  name: "bn2a_branch2b"
  type: "BatchNorm"
  bottom: "res2a_branch2b"
  top: "res2a_branch2b"
  param {
    lr_mult: 0
    decay_mult: 0
  }
  param {
    lr_mult: 0
    decay_mult: 0
  }
  param {
    lr_mult: 0
    decay_mult: 0
  }
  batch_norm_param {
    use_global_stats: true
  }
}
layer {
  name: "scale2a_branch2b"
  type: "Scale"
  bottom: "res2a_branch2b"
  top: "res2a_branch2b"
  param {
    lr_mult: 0
    decay_mult: 0
  }
  param {
    lr_mult: 0
    decay_mult: 0
  }
  scale_param {
    bias_term: true
  }
}
layer {
  name: "res2a_branch2b_relu"
  type: "ReLU"
  bottom: "res2a_branch2b"
  top: "res2a_branch2b"
}
layer {
  name: "res2a_branch2c"
  type: "Convolution"
  bottom: "res2a_branch2b"
  top: "res2a_branch2c"
  param {
    lr_mult: 0
  }
  convolution_param {
    num_output: 256
    bias_term: false
    pad: 0
    kernel_size: 1
    stride: 1
  }
}
layer {
  name: "bn2a_branch2c"
  type: "BatchNorm"
  bottom: "res2a_branch2c"
  top: "res2a_branch2c"
  param {
    lr_mult: 0
    decay_mult: 0
  }
  param {
    lr_mult: 0
    decay_mult: 0
  }
  param {
    lr_mult: 0
    decay_mult: 0
  }
  batch_norm_param {
    use_global_stats: true
  }
}
layer {
  name: "scale2a_branch2c"
  type: "Scale"
  bottom: "res2a_branch2c"
  top: "res2a_branch2c"
  param {
    lr_mult: 0
    decay_mult: 0
  }
  param {
    lr_mult: 0
    decay_mult: 0
  }
  scale_param {
    bias_term: true
  }
}
layer {
  name: "res2a"
  type: "Eltwise"
  bottom: "res2a_branch1"
  bottom: "res2a_branch2c"
  top: "res2a"
}
layer {
  name: "res2a_relu"
  type: "ReLU"
  bottom: "res2a"
  top: "res2a"
}
layer {
  name: "res2b_branch2a"
  type: "Convolution"
  bottom: "res2a"
  top: "res2b_branch2a"
  param {
    lr_mult: 0
  }
  convolution_param {
    num_output: 64
    bias_term: false
    pad: 0
    kernel_size: 1
    stride: 1
  }
}
layer {
  name: "bn2b_branch2a"
  type: "BatchNorm"
  bottom: "res2b_branch2a"
  top: "res2b_branch2a"
  param {
    lr_mult: 0
    decay_mult: 0
  }
  param {
    lr_mult: 0
    decay_mult: 0
  }
  param {
    lr_mult: 0
    decay_mult: 0
  }
  batch_norm_param {
    use_global_stats: true
  }
}
layer {
  name: "scale2b_branch2a"
  type: "Scale"
  bottom: "res2b_branch2a"
  top: "res2b_branch2a"
  param {
    lr_mult: 0
    decay_mult: 0
  }
  param {
    lr_mult: 0
    decay_mult: 0
  }
  scale_param {
    bias_term: true
  }
}
layer {
  name: "res2b_branch2a_relu"
  type: "ReLU"
  bottom: "res2b_branch2a"
  top: "res2b_branch2a"
}
layer {
  name: "res2b_branch2b"
  type: "Convolution"
  bottom: "res2b_branch2a"
  top: "res2b_branch2b"
  param {
    lr_mult: 0
  }
  convolution_param {
    num_output: 64
    bias_term: false
    pad: 1
    kernel_size: 3
    stride: 1
  }
}
layer {
  name: "bn2b_branch2b"
  type: "BatchNorm"
  bottom: "res2b_branch2b"
  top: "res2b_branch2b"
  param {
    lr_mult: 0
    decay_mult: 0
  }
  param {
    lr_mult: 0
    decay_mult: 0
  }
  param {
    lr_mult: 0
    decay_mult: 0
  }
  batch_norm_param {
    use_global_stats: true
  }
}
layer {
  name: "scale2b_branch2b"
  type: "Scale"
  bottom: "res2b_branch2b"
  top: "res2b_branch2b"
  param {
    lr_mult: 0
    decay_mult: 0
  }
  param {
    lr_mult: 0
    decay_mult: 0
  }
  scale_param {
    bias_term: true
  }
}
layer {
  name: "res2b_branch2b_relu"
  type: "ReLU"
  bottom: "res2b_branch2b"
  top: "res2b_branch2b"
}
layer {
  name: "res2b_branch2c"
  type: "Convolution"
  bottom: "res2b_branch2b"
  top: "res2b_branch2c"
  param {
    lr_mult: 0
  }
  convolution_param {
    num_output: 256
    bias_term: false
    pad: 0
    kernel_size: 1
    stride: 1
  }
}
layer {
  name: "bn2b_branch2c"
  type: "BatchNorm"
  bottom: "res2b_branch2c"
  top: "res2b_branch2c"
  param {
    lr_mult: 0
    decay_mult: 0
  }
  param {
    lr_mult: 0
    decay_mult: 0
  }
  param {
    lr_mult: 0
    decay_mult: 0
  }
  batch_norm_param {
    use_global_stats: true
  }
}
layer {
  name: "scale2b_branch2c"
  type: "Scale"
  bottom: "res2b_branch2c"
  top: "res2b_branch2c"
  param {
    lr_mult: 0
    decay_mult: 0
  }
  param {
    lr_mult: 0
    decay_mult: 0
  }
  scale_param {
    bias_term: true
  }
}
layer {
  name: "res2b"
  type: "Eltwise"
  bottom: "res2a"
  bottom: "res2b_branch2c"
  top: "res2b"
}
layer {
  name: "res2b_relu"
  type: "ReLU"
  bottom: "res2b"
  top: "res2b"
}
layer {
  name: "res2c_branch2a"
  type: "Convolution"
  bottom: "res2b"
  top: "res2c_branch2a"
  param {
    lr_mult: 0
  }
  convolution_param {
    num_output: 64
    bias_term: false
    pad: 0
    kernel_size: 1
    stride: 1
  }
}
layer {
  name: "bn2c_branch2a"
  type: "BatchNorm"
  bottom: "res2c_branch2a"
  top: "res2c_branch2a"
  param {
    lr_mult: 0
    decay_mult: 0
  }
  param {
    lr_mult: 0
    decay_mult: 0
  }
  param {
    lr_mult: 0
    decay_mult: 0
  }
  batch_norm_param {
    use_global_stats: true
  }
}
layer {
  name: "scale2c_branch2a"
  type: "Scale"
  bottom: "res2c_branch2a"
  top: "res2c_branch2a"
  param {
    lr_mult: 0
    decay_mult: 0
  }
  param {
    lr_mult: 0
    decay_mult: 0
  }
  scale_param {
    bias_term: true
  }
}
layer {
  name: "res2c_branch2a_relu"
  type: "ReLU"
  bottom: "res2c_branch2a"
  top: "res2c_branch2a"
}
layer {
  name: "res2c_branch2b"
  type: "Convolution"
  bottom: "res2c_branch2a"
  top: "res2c_branch2b"
  param {
    lr_mult: 0
  }
  convolution_param {
    num_output: 64
    bias_term: false
    pad: 1
    kernel_size: 3
    stride: 1
  }
}
layer {
  name: "bn2c_branch2b"
  type: "BatchNorm"
  bottom: "res2c_branch2b"
  top: "res2c_branch2b"
  param {
    lr_mult: 0
    decay_mult: 0
  }
  param {
    lr_mult: 0
    decay_mult: 0
  }
  param {
    lr_mult: 0
    decay_mult: 0
  }
  batch_norm_param {
    use_global_stats: true
  }
}
layer {
  name: "scale2c_branch2b"
  type: "Scale"
  bottom: "res2c_branch2b"
  top: "res2c_branch2b"
  param {
    lr_mult: 0
    decay_mult: 0
  }
  param {
    lr_mult: 0
    decay_mult: 0
  }
  scale_param {
    bias_term: true
  }
}
layer {
  name: "res2c_branch2b_relu"
  type: "ReLU"
  bottom: "res2c_branch2b"
  top: "res2c_branch2b"
}
layer {
  name: "res2c_branch2c"
  type: "Convolution"
  bottom: "res2c_branch2b"
  top: "res2c_branch2c"
  param {
    lr_mult: 0
  }
  convolution_param {
    num_output: 256
    bias_term: false
    pad: 0
    kernel_size: 1
    stride: 1
  }
}
layer {
  name: "bn2c_branch2c"
  type: "BatchNorm"
  bottom: "res2c_branch2c"
  top: "res2c_branch2c"
  param {
    lr_mult: 0
    decay_mult: 0
  }
  param {
    lr_mult: 0
    decay_mult: 0
  }
  param {
    lr_mult: 0
    decay_mult: 0
  }
  batch_norm_param {
    use_global_stats: true
  }
}
layer {
  name: "scale2c_branch2c"
  type: "Scale"
  bottom: "res2c_branch2c"
  top: "res2c_branch2c"
  param {
    lr_mult: 0
    decay_mult: 0
  }
  param {
    lr_mult: 0
    decay_mult: 0
  }
  scale_param {
    bias_term: true
  }
}
layer {
  name: "res2c"
  type: "Eltwise"
  bottom: "res2b"
  bottom: "res2c_branch2c"
  top: "res2c"
}
layer {
  name: "res2c_relu"
  type: "ReLU"
  bottom: "res2c"
  top: "res2c"
}
layer {
  name: "res3a_branch1"
  type: "Convolution"
  bottom: "res2c"
  top: "res3a_branch1"
  param {
    lr_mult: 1
  }
  convolution_param {
    num_output: 512
    bias_term: false
    pad: 0
    kernel_size: 1
    stride: 2
  }
}
layer {
  name: "bn3a_branch1"
  type: "BatchNorm"
  bottom: "res3a_branch1"
  top: "res3a_branch1"
  param {
    lr_mult: 0
    decay_mult: 0
  }
  param {
    lr_mult: 0
    decay_mult: 0
  }
  param {
    lr_mult: 0
    decay_mult: 0
  }
  batch_norm_param {
    use_global_stats: true
  }
}
layer {
  name: "scale3a_branch1"
  type: "Scale"
  bottom: "res3a_branch1"
  top: "res3a_branch1"
  param {
    lr_mult: 0
    decay_mult: 0
  }
  param {
    lr_mult: 0
    decay_mult: 0
  }
  scale_param {
    bias_term: true
  }
}
layer {
  name: "res3a_branch2a"
  type: "Convolution"
  bottom: "res2c"
  top: "res3a_branch2a"
  param {
    lr_mult: 1
  }
  convolution_param {
    num_output: 128
    bias_term: false
    pad: 0
    kernel_size: 1
    stride: 2
  }
}
layer {
  name: "bn3a_branch2a"
  type: "BatchNorm"
  bottom: "res3a_branch2a"
  top: "res3a_branch2a"
  param {
    lr_mult: 0
    decay_mult: 0
  }
  param {
    lr_mult: 0
    decay_mult: 0
  }
  param {
    lr_mult: 0
    decay_mult: 0
  }
  batch_norm_param {
    use_global_stats: true
  }
}
layer {
  name: "scale3a_branch2a"
  type: "Scale"
  bottom: "res3a_branch2a"
  top: "res3a_branch2a"
  param {
    lr_mult: 0
    decay_mult: 0
  }
  param {
    lr_mult: 0
    decay_mult: 0
  }
  scale_param {
    bias_term: true
  }
}
layer {
  name: "res3a_branch2a_relu"
  type: "ReLU"
  bottom: "res3a_branch2a"
  top: "res3a_branch2a"
}
layer {
  name: "res3a_branch2b"
  type: "Convolution"
  bottom: "res3a_branch2a"
  top: "res3a_branch2b"
  param {
    lr_mult: 1
  }
  convolution_param {
    num_output: 128
    bias_term: false
    pad: 1
    kernel_size: 3
    stride: 1
  }
}
layer {
  name: "bn3a_branch2b"
  type: "BatchNorm"
  bottom: "res3a_branch2b"
  top: "res3a_branch2b"
  param {
    lr_mult: 0
    decay_mult: 0
  }
  param {
    lr_mult: 0
    decay_mult: 0
  }
  param {
    lr_mult: 0
    decay_mult: 0
  }
  batch_norm_param {
    use_global_stats: true
  }
}
layer {
  name: "scale3a_branch2b"
  type: "Scale"
  bottom: "res3a_branch2b"
  top: "res3a_branch2b"
  param {
    lr_mult: 0
    decay_mult: 0
  }
  param {
    lr_mult: 0
    decay_mult: 0
  }
  scale_param {
    bias_term: true
  }
}
layer {
  name: "res3a_branch2b_relu"
  type: "ReLU"
  bottom: "res3a_branch2b"
  top: "res3a_branch2b"
}
layer {
  name: "res3a_branch2c"
  type: "Convolution"
  bottom: "res3a_branch2b"
  top: "res3a_branch2c"
  param {
    lr_mult: 1
  }
  convolution_param {
    num_output: 512
    bias_term: false
    pad: 0
    kernel_size: 1
    stride: 1
  }
}
layer {
  name: "bn3a_branch2c"
  type: "BatchNorm"
  bottom: "res3a_branch2c"
  top: "res3a_branch2c"
  param {
    lr_mult: 0
    decay_mult: 0
  }
  param {
    lr_mult: 0
    decay_mult: 0
  }
  param {
    lr_mult: 0
    decay_mult: 0
  }
  batch_norm_param {
    use_global_stats: true
  }
}
layer {
  name: "scale3a_branch2c"
  type: "Scale"
  bottom: "res3a_branch2c"
  top: "res3a_branch2c"
  param {
    lr_mult: 0
    decay_mult: 0
  }
  param {
    lr_mult: 0
    decay_mult: 0
  }
  scale_param {
    bias_term: true
  }
}
layer {
  name: "res3a"
  type: "Eltwise"
  bottom: "res3a_branch1"
  bottom: "res3a_branch2c"
  top: "res3a"
}
layer {
  name: "res3a_relu"
  type: "ReLU"
  bottom: "res3a"
  top: "res3a"
}
layer {
  name: "res3b_branch2a"
  type: "Convolution"
  bottom: "res3a"
  top: "res3b_branch2a"
  param {
    lr_mult: 1
  }
  convolution_param {
    num_output: 128
    bias_term: false
    pad: 0
    kernel_size: 1
    stride: 1
  }
}
layer {
  name: "bn3b_branch2a"
  type: "BatchNorm"
  bottom: "res3b_branch2a"
  top: "res3b_branch2a"
  param {
    lr_mult: 0
    decay_mult: 0
  }
  param {
    lr_mult: 0
    decay_mult: 0
  }
  param {
    lr_mult: 0
    decay_mult: 0
  }
  batch_norm_param {
    use_global_stats: true
  }
}
layer {
  name: "scale3b_branch2a"
  type: "Scale"
  bottom: "res3b_branch2a"
  top: "res3b_branch2a"
  param {
    lr_mult: 0
    decay_mult: 0
  }
  param {
    lr_mult: 0
    decay_mult: 0
  }
  scale_param {
    bias_term: true
  }
}
layer {
  name: "res3b_branch2a_relu"
  type: "ReLU"
  bottom: "res3b_branch2a"
  top: "res3b_branch2a"
}
layer {
  name: "res3b_branch2b"
  type: "Convolution"
  bottom: "res3b_branch2a"
  top: "res3b_branch2b"
  param {
    lr_mult: 1
  }
  convolution_param {
    num_output: 128
    bias_term: false
    pad: 1
    kernel_size: 3
    stride: 1
  }
}
layer {
  name: "bn3b_branch2b"
  type: "BatchNorm"
  bottom: "res3b_branch2b"
  top: "res3b_branch2b"
  param {
    lr_mult: 0
    decay_mult: 0
  }
  param {
    lr_mult: 0
    decay_mult: 0
  }
  param {
    lr_mult: 0
    decay_mult: 0
  }
  batch_norm_param {
    use_global_stats: true
  }
}
layer {
  name: "scale3b_branch2b"
  type: "Scale"
  bottom: "res3b_branch2b"
  top: "res3b_branch2b"
  param {
    lr_mult: 0
    decay_mult: 0
  }
  param {
    lr_mult: 0
    decay_mult: 0
  }
  scale_param {
    bias_term: true
  }
}
layer {
  name: "res3b_branch2b_relu"
  type: "ReLU"
  bottom: "res3b_branch2b"
  top: "res3b_branch2b"
}
layer {
  name: "res3b_branch2c"
  type: "Convolution"
  bottom: "res3b_branch2b"
  top: "res3b_branch2c"
  param {
    lr_mult: 1
  }
  convolution_param {
    num_output: 512
    bias_term: false
    pad: 0
    kernel_size: 1
    stride: 1
  }
}
layer {
  name: "bn3b_branch2c"
  type: "BatchNorm"
  bottom: "res3b_branch2c"
  top: "res3b_branch2c"
  param {
    lr_mult: 0
    decay_mult: 0
  }
  param {
    lr_mult: 0
    decay_mult: 0
  }
  param {
    lr_mult: 0
    decay_mult: 0
  }
  batch_norm_param {
    use_global_stats: true
  }
}
layer {
  name: "scale3b_branch2c"
  type: "Scale"
  bottom: "res3b_branch2c"
  top: "res3b_branch2c"
  param {
    lr_mult: 0
    decay_mult: 0
  }
  param {
    lr_mult: 0
    decay_mult: 0
  }
  scale_param {
    bias_term: true
  }
}
layer {
  name: "res3b"
  type: "Eltwise"
  bottom: "res3a"
  bottom: "res3b_branch2c"
  top: "res3b"
}
layer {
  name: "res3b_relu"
  type: "ReLU"
  bottom: "res3b"
  top: "res3b"
}
layer {
  name: "res3c_branch2a"
  type: "Convolution"
  bottom: "res3b"
  top: "res3c_branch2a"
  param {
    lr_mult: 1
  }
  convolution_param {
    num_output: 128
    bias_term: false
    pad: 0
    kernel_size: 1
    stride: 1
  }
}
layer {
  name: "bn3c_branch2a"
  type: "BatchNorm"
  bottom: "res3c_branch2a"
  top: "res3c_branch2a"
  param {
    lr_mult: 0
    decay_mult: 0
  }
  param {
    lr_mult: 0
    decay_mult: 0
  }
  param {
    lr_mult: 0
    decay_mult: 0
  }
  batch_norm_param {
    use_global_stats: true
  }
}
layer {
  name: "scale3c_branch2a"
  type: "Scale"
  bottom: "res3c_branch2a"
  top: "res3c_branch2a"
  param {
    lr_mult: 0
    decay_mult: 0
  }
  param {
    lr_mult: 0
    decay_mult: 0
  }
  scale_param {
    bias_term: true
  }
}
layer {
  name: "res3c_branch2a_relu"
  type: "ReLU"
  bottom: "res3c_branch2a"
  top: "res3c_branch2a"
}
layer {
  name: "res3c_branch2b"
  type: "Convolution"
  bottom: "res3c_branch2a"
  top: "res3c_branch2b"
  param {
    lr_mult: 1
  }
  convolution_param {
    num_output: 128
    bias_term: false
    pad: 1
    kernel_size: 3
    stride: 1
  }
}
layer {
  name: "bn3c_branch2b"
  type: "BatchNorm"
  bottom: "res3c_branch2b"
  top: "res3c_branch2b"
  param {
    lr_mult: 0
    decay_mult: 0
  }
  param {
    lr_mult: 0
    decay_mult: 0
  }
  param {
    lr_mult: 0
    decay_mult: 0
  }
  batch_norm_param {
    use_global_stats: true
  }
}
layer {
  name: "scale3c_branch2b"
  type: "Scale"
  bottom: "res3c_branch2b"
  top: "res3c_branch2b"
  param {
    lr_mult: 0
    decay_mult: 0
  }
  param {
    lr_mult: 0
    decay_mult: 0
  }
  scale_param {
    bias_term: true
  }
}
layer {
  name: "res3c_branch2b_relu"
  type: "ReLU"
  bottom: "res3c_branch2b"
  top: "res3c_branch2b"
}
layer {
  name: "res3c_branch2c"
  type: "Convolution"
  bottom: "res3c_branch2b"
  top: "res3c_branch2c"
  param {
    lr_mult: 1
  }
  convolution_param {
    num_output: 512
    bias_term: false
    pad: 0
    kernel_size: 1
    stride: 1
  }
}
layer {
  name: "bn3c_branch2c"
  type: "BatchNorm"
  bottom: "res3c_branch2c"
  top: "res3c_branch2c"
  param {
    lr_mult: 0
    decay_mult: 0
  }
  param {
    lr_mult: 0
    decay_mult: 0
  }
  param {
    lr_mult: 0
    decay_mult: 0
  }
  batch_norm_param {
    use_global_stats: true
  }
}
layer {
  name: "scale3c_branch2c"
  type: "Scale"
  bottom: "res3c_branch2c"
  top: "res3c_branch2c"
  param {
    lr_mult: 0
    decay_mult: 0
  }
  param {
    lr_mult: 0
    decay_mult: 0
  }
  scale_param {
    bias_term: true
  }
}
layer {
  name: "res3c"
  type: "Eltwise"
  bottom: "res3b"
  bottom: "res3c_branch2c"
  top: "res3c"
}
layer {
  name: "res3c_relu"
  type: "ReLU"
  bottom: "res3c"
  top: "res3c"
}
layer {
  name: "res3d_branch2a"
  type: "Convolution"
  bottom: "res3c"
  top: "res3d_branch2a"
  param {
    lr_mult: 1
  }
  convolution_param {
    num_output: 128
    bias_term: false
    pad: 0
    kernel_size: 1
    stride: 1
  }
}
layer {
  name: "bn3d_branch2a"
  type: "BatchNorm"
  bottom: "res3d_branch2a"
  top: "res3d_branch2a"
  param {
    lr_mult: 0
    decay_mult: 0
  }
  param {
    lr_mult: 0
    decay_mult: 0
  }
  param {
    lr_mult: 0
    decay_mult: 0
  }
  batch_norm_param {
    use_global_stats: true
  }
}
layer {
  name: "scale3d_branch2a"
  type: "Scale"
  bottom: "res3d_branch2a"
  top: "res3d_branch2a"
  param {
    lr_mult: 0
    decay_mult: 0
  }
  param {
    lr_mult: 0
    decay_mult: 0
  }
  scale_param {
    bias_term: true
  }
}
layer {
  name: "res3d_branch2a_relu"
  type: "ReLU"
  bottom: "res3d_branch2a"
  top: "res3d_branch2a"
}
layer {
  name: "res3d_branch2b"
  type: "Convolution"
  bottom: "res3d_branch2a"
  top: "res3d_branch2b"
  param {
    lr_mult: 1
  }
  convolution_param {
    num_output: 128
    bias_term: false
    pad: 1
    kernel_size: 3
    stride: 1
  }
}
layer {
  name: "bn3d_branch2b"
  type: "BatchNorm"
  bottom: "res3d_branch2b"
  top: "res3d_branch2b"
  param {
    lr_mult: 0
    decay_mult: 0
  }
  param {
    lr_mult: 0
    decay_mult: 0
  }
  param {
    lr_mult: 0
    decay_mult: 0
  }
  batch_norm_param {
    use_global_stats: true
  }
}
layer {
  name: "scale3d_branch2b"
  type: "Scale"
  bottom: "res3d_branch2b"
  top: "res3d_branch2b"
  param {
    lr_mult: 0
    decay_mult: 0
  }
  param {
    lr_mult: 0
    decay_mult: 0
  }
  scale_param {
    bias_term: true
  }
}
layer {
  name: "res3d_branch2b_relu"
  type: "ReLU"
  bottom: "res3d_branch2b"
  top: "res3d_branch2b"
}
layer {
  name: "res3d_branch2c"
  type: "Convolution"
  bottom: "res3d_branch2b"
  top: "res3d_branch2c"
  param {
    lr_mult: 1
  }
  convolution_param {
    num_output: 512
    bias_term: false
    pad: 0
    kernel_size: 1
    stride: 1
  }
}
layer {
  name: "bn3d_branch2c"
  type: "BatchNorm"
  bottom: "res3d_branch2c"
  top: "res3d_branch2c"
  param {
    lr_mult: 0
    decay_mult: 0
  }
  param {
    lr_mult: 0
    decay_mult: 0
  }
  param {
    lr_mult: 0
    decay_mult: 0
  }
  batch_norm_param {
    use_global_stats: true
  }
}
layer {
  name: "scale3d_branch2c"
  type: "Scale"
  bottom: "res3d_branch2c"
  top: "res3d_branch2c"
  param {
    lr_mult: 0
    decay_mult: 0
  }
  param {
    lr_mult: 0
    decay_mult: 0
  }
  scale_param {
    bias_term: true
  }
}
layer {
  name: "res3d"
  type: "Eltwise"
  bottom: "res3c"
  bottom: "res3d_branch2c"
  top: "res3d"
}
layer {
  name: "res3d_relu"
  type: "ReLU"
  bottom: "res3d"
  top: "res3d"
}
layer {
  name: "res4a_branch1"
  type: "Convolution"
  bottom: "res3d"
  top: "res4a_branch1"
  param {
    lr_mult: 1
  }
  convolution_param {
    num_output: 1024
    bias_term: false
    pad: 0
    kernel_size: 1
    stride: 2
  }
}
layer {
  name: "bn4a_branch1"
  type: "BatchNorm"
  bottom: "res4a_branch1"
  top: "res4a_branch1"
  param {
    lr_mult: 0
    decay_mult: 0
  }
  param {
    lr_mult: 0
    decay_mult: 0
  }
  param {
    lr_mult: 0
    decay_mult: 0
  }
  batch_norm_param {
    use_global_stats: true
  }
}
layer {
  name: "scale4a_branch1"
  type: "Scale"
  bottom: "res4a_branch1"
  top: "res4a_branch1"
  param {
    lr_mult: 0
    decay_mult: 0
  }
  param {
    lr_mult: 0
    decay_mult: 0
  }
  scale_param {
    bias_term: true
  }
}
layer {
  name: "res4a_branch2a"
  type: "Convolution"
  bottom: "res3d"
  top: "res4a_branch2a"
  param {
    lr_mult: 1
  }
  convolution_param {
    num_output: 256
    bias_term: false
    pad: 0
    kernel_size: 1
    stride: 2
  }
}
layer {
  name: "bn4a_branch2a"
  type: "BatchNorm"
  bottom: "res4a_branch2a"
  top: "res4a_branch2a"
  param {
    lr_mult: 0
    decay_mult: 0
  }
  param {
    lr_mult: 0
    decay_mult: 0
  }
  param {
    lr_mult: 0
    decay_mult: 0
  }
  batch_norm_param {
    use_global_stats: true
  }
}
layer {
  name: "scale4a_branch2a"
  type: "Scale"
  bottom: "res4a_branch2a"
  top: "res4a_branch2a"
  param {
    lr_mult: 0
    decay_mult: 0
  }
  param {
    lr_mult: 0
    decay_mult: 0
  }
  scale_param {
    bias_term: true
  }
}
layer {
  name: "res4a_branch2a_relu"
  type: "ReLU"
  bottom: "res4a_branch2a"
  top: "res4a_branch2a"
}
layer {
  name: "res4a_branch2b"
  type: "Convolution"
  bottom: "res4a_branch2a"
  top: "res4a_branch2b"
  param {
    lr_mult: 1
  }
  convolution_param {
    num_output: 256
    bias_term: false
    pad: 1
    kernel_size: 3
    stride: 1
  }
}
layer {
  name: "bn4a_branch2b"
  type: "BatchNorm"
  bottom: "res4a_branch2b"
  top: "res4a_branch2b"
  param {
    lr_mult: 0
    decay_mult: 0
  }
  param {
    lr_mult: 0
    decay_mult: 0
  }
  param {
    lr_mult: 0
    decay_mult: 0
  }
  batch_norm_param {
    use_global_stats: true
  }
}
layer {
  name: "scale4a_branch2b"
  type: "Scale"
  bottom: "res4a_branch2b"
  top: "res4a_branch2b"
  param {
    lr_mult: 0
    decay_mult: 0
  }
  param {
    lr_mult: 0
    decay_mult: 0
  }
  scale_param {
    bias_term: true
  }
}
layer {
  name: "res4a_branch2b_relu"
  type: "ReLU"
  bottom: "res4a_branch2b"
  top: "res4a_branch2b"
}
layer {
  name: "res4a_branch2c"
  type: "Convolution"
  bottom: "res4a_branch2b"
  top: "res4a_branch2c"
  param {
    lr_mult: 1
  }
  convolution_param {
    num_output: 1024
    bias_term: false
    pad: 0
    kernel_size: 1
    stride: 1
  }
}
layer {
  name: "bn4a_branch2c"
  type: "BatchNorm"
  bottom: "res4a_branch2c"
  top: "res4a_branch2c"
  param {
    lr_mult: 0
    decay_mult: 0
  }
  param {
    lr_mult: 0
    decay_mult: 0
  }
  param {
    lr_mult: 0
    decay_mult: 0
  }
  batch_norm_param {
    use_global_stats: true
  }
}
layer {
  name: "scale4a_branch2c"
  type: "Scale"
  bottom: "res4a_branch2c"
  top: "res4a_branch2c"
  param {
    lr_mult: 0
    decay_mult: 0
  }
  param {
    lr_mult: 0
    decay_mult: 0
  }
  scale_param {
    bias_term: true
  }
}
layer {
  name: "res4a"
  type: "Eltwise"
  bottom: "res4a_branch1"
  bottom: "res4a_branch2c"
  top: "res4a"
}
layer {
  name: "res4a_relu"
  type: "ReLU"
  bottom: "res4a"
  top: "res4a"
}
layer {
  name: "res4b_branch2a"
  type: "Convolution"
  bottom: "res4a"
  top: "res4b_branch2a"
  param {
    lr_mult: 1
  }
  convolution_param {
    num_output: 256
    bias_term: false
    pad: 0
    kernel_size: 1
    stride: 1
  }
}
layer {
  name: "bn4b_branch2a"
  type: "BatchNorm"
  bottom: "res4b_branch2a"
  top: "res4b_branch2a"
  param {
    lr_mult: 0
    decay_mult: 0
  }
  param {
    lr_mult: 0
    decay_mult: 0
  }
  param {
    lr_mult: 0
    decay_mult: 0
  }
  batch_norm_param {
    use_global_stats: true
  }
}
layer {
  name: "scale4b_branch2a"
  type: "Scale"
  bottom: "res4b_branch2a"
  top: "res4b_branch2a"
  param {
    lr_mult: 0
    decay_mult: 0
  }
  param {
    lr_mult: 0
    decay_mult: 0
  }
  scale_param {
    bias_term: true
  }
}
layer {
  name: "res4b_branch2a_relu"
  type: "ReLU"
  bottom: "res4b_branch2a"
  top: "res4b_branch2a"
}
layer {
  name: "res4b_branch2b"
  type: "Convolution"
  bottom: "res4b_branch2a"
  top: "res4b_branch2b"
  param {
    lr_mult: 1
  }
  convolution_param {
    num_output: 256
    bias_term: false
    pad: 1
    kernel_size: 3
    stride: 1
  }
}
layer {
  name: "bn4b_branch2b"
  type: "BatchNorm"
  bottom: "res4b_branch2b"
  top: "res4b_branch2b"
  param {
    lr_mult: 0
    decay_mult: 0
  }
  param {
    lr_mult: 0
    decay_mult: 0
  }
  param {
    lr_mult: 0
    decay_mult: 0
  }
  batch_norm_param {
    use_global_stats: true
  }
}
layer {
  name: "scale4b_branch2b"
  type: "Scale"
  bottom: "res4b_branch2b"
  top: "res4b_branch2b"
  param {
    lr_mult: 0
    decay_mult: 0
  }
  param {
    lr_mult: 0
    decay_mult: 0
  }
  scale_param {
    bias_term: true
  }
}
layer {
  name: "res4b_branch2b_relu"
  type: "ReLU"
  bottom: "res4b_branch2b"
  top: "res4b_branch2b"
}
layer {
  name: "res4b_branch2c"
  type: "Convolution"
  bottom: "res4b_branch2b"
  top: "res4b_branch2c"
  param {
    lr_mult: 1
  }
  convolution_param {
    num_output: 1024
    bias_term: false
    pad: 0
    kernel_size: 1
    stride: 1
  }
}
layer {
  name: "bn4b_branch2c"
  type: "BatchNorm"
  bottom: "res4b_branch2c"
  top: "res4b_branch2c"
  param {
    lr_mult: 0
    decay_mult: 0
  }
  param {
    lr_mult: 0
    decay_mult: 0
  }
  param {
    lr_mult: 0
    decay_mult: 0
  }
  batch_norm_param {
    use_global_stats: true
  }
}
layer {
  name: "scale4b_branch2c"
  type: "Scale"
  bottom: "res4b_branch2c"
  top: "res4b_branch2c"
  param {
    lr_mult: 0
    decay_mult: 0
  }
  param {
    lr_mult: 0
    decay_mult: 0
  }
  scale_param {
    bias_term: true
  }
}
layer {
  name: "res4b"
  type: "Eltwise"
  bottom: "res4a"
  bottom: "res4b_branch2c"
  top: "res4b"
}
layer {
  name: "res4b_relu"
  type: "ReLU"
  bottom: "res4b"
  top: "res4b"
}
layer {
  name: "res4c_branch2a"
  type: "Convolution"
  bottom: "res4b"
  top: "res4c_branch2a"
  param {
    lr_mult: 1
  }
  convolution_param {
    num_output: 256
    bias_term: false
    pad: 0
    kernel_size: 1
    stride: 1
  }
}
layer {
  name: "bn4c_branch2a"
  type: "BatchNorm"
  bottom: "res4c_branch2a"
  top: "res4c_branch2a"
  param {
    lr_mult: 0
    decay_mult: 0
  }
  param {
    lr_mult: 0
    decay_mult: 0
  }
  param {
    lr_mult: 0
    decay_mult: 0
  }
  batch_norm_param {
    use_global_stats: true
  }
}
layer {
  name: "scale4c_branch2a"
  type: "Scale"
  bottom: "res4c_branch2a"
  top: "res4c_branch2a"
  param {
    lr_mult: 0
    decay_mult: 0
  }
  param {
    lr_mult: 0
    decay_mult: 0
  }
  scale_param {
    bias_term: true
  }
}
layer {
  name: "res4c_branch2a_relu"
  type: "ReLU"
  bottom: "res4c_branch2a"
  top: "res4c_branch2a"
}
layer {
  name: "res4c_branch2b"
  type: "Convolution"
  bottom: "res4c_branch2a"
  top: "res4c_branch2b"
  param {
    lr_mult: 1
  }
  convolution_param {
    num_output: 256
    bias_term: false
    pad: 1
    kernel_size: 3
    stride: 1
  }
}
layer {
  name: "bn4c_branch2b"
  type: "BatchNorm"
  bottom: "res4c_branch2b"
  top: "res4c_branch2b"
  param {
    lr_mult: 0
    decay_mult: 0
  }
  param {
    lr_mult: 0
    decay_mult: 0
  }
  param {
    lr_mult: 0
    decay_mult: 0
  }
  batch_norm_param {
    use_global_stats: true
  }
}
layer {
  name: "scale4c_branch2b"
  type: "Scale"
  bottom: "res4c_branch2b"
  top: "res4c_branch2b"
  param {
    lr_mult: 0
    decay_mult: 0
  }
  param {
    lr_mult: 0
    decay_mult: 0
  }
  scale_param {
    bias_term: true
  }
}
layer {
  name: "res4c_branch2b_relu"
  type: "ReLU"
  bottom: "res4c_branch2b"
  top: "res4c_
I0111 23:22:49.470253  7366 layer_factory.hpp:77] Creating layer input-data
I0111 23:22:49.796845  7366 net.cpp:100] Creating Layer input-data
I0111 23:22:49.796902  7366 net.cpp:418] input-data -> data
I0111 23:22:49.796929  7366 net.cpp:418] input-data -> im_info
I0111 23:22:49.796950  7366 net.cpp:418] input-data -> gt_boxes
RoiDataLayer: name_to_top: {'gt_boxes': 2, 'data': 0, 'im_info': 1}
I0111 23:22:53.155043  7366 net.cpp:150] Setting up input-data
I0111 23:22:53.155068  7366 net.cpp:157] Top shape: 1 3 600 1000 (1800000)
I0111 23:22:53.155076  7366 net.cpp:157] Top shape: 1 3 (3)
I0111 23:22:53.155084  7366 net.cpp:157] Top shape: 1 4 (4)
I0111 23:22:53.155092  7366 net.cpp:165] Memory required for data: 7200028
I0111 23:22:53.155102  7366 layer_factory.hpp:77] Creating layer data_input-data_0_split
I0111 23:22:53.155117  7366 net.cpp:100] Creating Layer data_input-data_0_split
I0111 23:22:53.155125  7366 net.cpp:444] data_input-data_0_split <- data
I0111 23:22:53.155136  7366 net.cpp:418] data_input-data_0_split -> data_input-data_0_split_0
I0111 23:22:53.155156  7366 net.cpp:418] data_input-data_0_split -> data_input-data_0_split_1
I0111 23:22:53.155195  7366 net.cpp:150] Setting up data_input-data_0_split
I0111 23:22:53.155206  7366 net.cpp:157] Top shape: 1 3 600 1000 (1800000)
I0111 23:22:53.155215  7366 net.cpp:157] Top shape: 1 3 600 1000 (1800000)
I0111 23:22:53.155221  7366 net.cpp:165] Memory required for data: 21600028
I0111 23:22:53.155230  7366 layer_factory.hpp:77] Creating layer im_info_input-data_1_split
I0111 23:22:53.155241  7366 net.cpp:100] Creating Layer im_info_input-data_1_split
I0111 23:22:53.155248  7366 net.cpp:444] im_info_input-data_1_split <- im_info
I0111 23:22:53.155258  7366 net.cpp:418] im_info_input-data_1_split -> im_info_input-data_1_split_0
I0111 23:22:53.155272  7366 net.cpp:418] im_info_input-data_1_split -> im_info_input-data_1_split_1
I0111 23:22:53.155303  7366 net.cpp:150] Setting up im_info_input-data_1_split
I0111 23:22:53.155313  7366 net.cpp:157] Top shape: 1 3 (3)
I0111 23:22:53.155321  7366 net.cpp:157] Top shape: 1 3 (3)
I0111 23:22:53.155328  7366 net.cpp:165] Memory required for data: 21600052
I0111 23:22:53.155335  7366 layer_factory.hpp:77] Creating layer gt_boxes_input-data_2_split
I0111 23:22:53.155344  7366 net.cpp:100] Creating Layer gt_boxes_input-data_2_split
I0111 23:22:53.155354  7366 net.cpp:444] gt_boxes_input-data_2_split <- gt_boxes
I0111 23:22:53.155364  7366 net.cpp:418] gt_boxes_input-data_2_split -> gt_boxes_input-data_2_split_0
I0111 23:22:53.155374  7366 net.cpp:418] gt_boxes_input-data_2_split -> gt_boxes_input-data_2_split_1
I0111 23:22:53.155406  7366 net.cpp:150] Setting up gt_boxes_input-data_2_split
I0111 23:22:53.155416  7366 net.cpp:157] Top shape: 1 4 (4)
I0111 23:22:53.155424  7366 net.cpp:157] Top shape: 1 4 (4)
I0111 23:22:53.155437  7366 net.cpp:165] Memory required for data: 21600084
I0111 23:22:53.155445  7366 layer_factory.hpp:77] Creating layer conv1
I0111 23:22:53.155459  7366 net.cpp:100] Creating Layer conv1
I0111 23:22:53.155468  7366 net.cpp:444] conv1 <- data_input-data_0_split_0
I0111 23:22:53.155479  7366 net.cpp:418] conv1 -> conv1
I0111 23:22:53.795938  7366 net.cpp:150] Setting up conv1
I0111 23:22:53.795992  7366 net.cpp:157] Top shape: 1 64 300 500 (9600000)
I0111 23:22:53.796017  7366 net.cpp:165] Memory required for data: 60000084
I0111 23:22:53.796036  7366 layer_factory.hpp:77] Creating layer bn_conv1
I0111 23:22:53.796051  7366 net.cpp:100] Creating Layer bn_conv1
I0111 23:22:53.796061  7366 net.cpp:444] bn_conv1 <- conv1
I0111 23:22:53.796070  7366 net.cpp:405] bn_conv1 -> conv1 (in-place)
I0111 23:22:53.796298  7366 net.cpp:150] Setting up bn_conv1
I0111 23:22:53.796308  7366 net.cpp:157] Top shape: 1 64 300 500 (9600000)
I0111 23:22:53.796315  7366 net.cpp:165] Memory required for data: 98400084
I0111 23:22:53.796341  7366 layer_factory.hpp:77] Creating layer scale_conv1
I0111 23:22:53.796366  7366 net.cpp:100] Creating Layer scale_conv1
I0111 23:22:53.796386  7366 net.cpp:444] scale_conv1 <- conv1
I0111 23:22:53.796408  7366 net.cpp:405] scale_conv1 -> conv1 (in-place)
I0111 23:22:53.796447  7366 layer_factory.hpp:77] Creating layer scale_conv1
I0111 23:22:53.797302  7366 net.cpp:150] Setting up scale_conv1
I0111 23:22:53.797328  7366 net.cpp:157] Top shape: 1 64 300 500 (9600000)
I0111 23:22:53.797351  7366 net.cpp:165] Memory required for data: 136800084
I0111 23:22:53.797363  7366 layer_factory.hpp:77] Creating layer conv1_relu
I0111 23:22:53.797376  7366 net.cpp:100] Creating Layer conv1_relu
I0111 23:22:53.797384  7366 net.cpp:444] conv1_relu <- conv1
I0111 23:22:53.797407  7366 net.cpp:405] conv1_relu -> conv1 (in-place)
I0111 23:22:53.797904  7366 net.cpp:150] Setting up conv1_relu
I0111 23:22:53.797921  7366 net.cpp:157] Top shape: 1 64 300 500 (9600000)
I0111 23:22:53.797943  7366 net.cpp:165] Memory required for data: 175200084
I0111 23:22:53.797966  7366 layer_factory.hpp:77] Creating layer pool1
I0111 23:22:53.797978  7366 net.cpp:100] Creating Layer pool1
I0111 23:22:53.797987  7366 net.cpp:444] pool1 <- conv1
I0111 23:22:53.797996  7366 net.cpp:418] pool1 -> pool1
I0111 23:22:53.798043  7366 net.cpp:150] Setting up pool1
I0111 23:22:53.798054  7366 net.cpp:157] Top shape: 1 64 150 250 (2400000)
I0111 23:22:53.798061  7366 net.cpp:165] Memory required for data: 184800084
I0111 23:22:53.798068  7366 layer_factory.hpp:77] Creating layer pool1_pool1_0_split
I0111 23:22:53.798076  7366 net.cpp:100] Creating Layer pool1_pool1_0_split
I0111 23:22:53.798084  7366 net.cpp:444] pool1_pool1_0_split <- pool1
I0111 23:22:53.798094  7366 net.cpp:418] pool1_pool1_0_split -> pool1_pool1_0_split_0
I0111 23:22:53.798105  7366 net.cpp:418] pool1_pool1_0_split -> pool1_pool1_0_split_1
I0111 23:22:53.798143  7366 net.cpp:150] Setting up pool1_pool1_0_split
I0111 23:22:53.798154  7366 net.cpp:157] Top shape: 1 64 150 250 (2400000)
I0111 23:22:53.798162  7366 net.cpp:157] Top shape: 1 64 150 250 (2400000)
I0111 23:22:53.798180  7366 net.cpp:165] Memory required for data: 204000084
I0111 23:22:53.798202  7366 layer_factory.hpp:77] Creating layer res2a_branch1
I0111 23:22:53.798215  7366 net.cpp:100] Creating Layer res2a_branch1
I0111 23:22:53.798223  7366 net.cpp:444] res2a_branch1 <- pool1_pool1_0_split_0
I0111 23:22:53.798233  7366 net.cpp:418] res2a_branch1 -> res2a_branch1
I0111 23:22:53.798821  7366 net.cpp:150] Setting up res2a_branch1
I0111 23:22:53.798837  7366 net.cpp:157] Top shape: 1 256 150 250 (9600000)
I0111 23:22:53.798859  7366 net.cpp:165] Memory required for data: 242400084
I0111 23:22:53.798882  7366 layer_factory.hpp:77] Creating layer bn2a_branch1
I0111 23:22:53.798894  7366 net.cpp:100] Creating Layer bn2a_branch1
I0111 23:22:53.798902  7366 net.cpp:444] bn2a_branch1 <- res2a_branch1
I0111 23:22:53.798913  7366 net.cpp:405] bn2a_branch1 -> res2a_branch1 (in-place)
I0111 23:22:53.799746  7366 net.cpp:150] Setting up bn2a_branch1
I0111 23:22:53.799783  7366 net.cpp:157] Top shape: 1 256 150 250 (9600000)
I0111 23:22:53.799805  7366 net.cpp:165] Memory required for data: 280800084
I0111 23:22:53.799827  7366 layer_factory.hpp:77] Creating layer scale2a_branch1
I0111 23:22:53.799840  7366 net.cpp:100] Creating Layer scale2a_branch1
I0111 23:22:53.799861  7366 net.cpp:444] scale2a_branch1 <- res2a_branch1
I0111 23:22:53.799870  7366 net.cpp:405] scale2a_branch1 -> res2a_branch1 (in-place)
I0111 23:22:53.799911  7366 layer_factory.hpp:77] Creating layer scale2a_branch1
I0111 23:22:53.800094  7366 net.cpp:150] Setting up scale2a_branch1
I0111 23:22:53.800120  7366 net.cpp:157] Top shape: 1 256 150 250 (9600000)
I0111 23:22:53.800127  7366 net.cpp:165] Memory required for data: 319200084
I0111 23:22:53.800137  7366 layer_factory.hpp:77] Creating layer res2a_branch2a
I0111 23:22:53.800163  7366 net.cpp:100] Creating Layer res2a_branch2a
I0111 23:22:53.800170  7366 net.cpp:444] res2a_branch2a <- pool1_pool1_0_split_1
I0111 23:22:53.800180  7366 net.cpp:418] res2a_branch2a -> res2a_branch2a
I0111 23:22:53.801738  7366 net.cpp:150] Setting up res2a_branch2a
I0111 23:22:53.801762  7366 net.cpp:157] Top shape: 1 64 150 250 (2400000)
I0111 23:22:53.801784  7366 net.cpp:165] Memory required for data: 328800084
I0111 23:22:53.801796  7366 layer_factory.hpp:77] Creating layer bn2a_branch2a
I0111 23:22:53.801821  7366 net.cpp:100] Creating Layer bn2a_branch2a
I0111 23:22:53.801831  7366 net.cpp:444] bn2a_branch2a <- res2a_branch2a
I0111 23:22:53.801841  7366 net.cpp:405] bn2a_branch2a -> res2a_branch2a (in-place)
I0111 23:22:53.802016  7366 net.cpp:150] Setting up bn2a_branch2a
I0111 23:22:53.802027  7366 net.cpp:157] Top shape: 1 64 150 250 (2400000)
I0111 23:22:53.802034  7366 net.cpp:165] Memory required for data: 338400084
I0111 23:22:53.802062  7366 layer_factory.hpp:77] Creating layer scale2a_branch2a
I0111 23:22:53.802073  7366 net.cpp:100] Creating Layer scale2a_branch2a
I0111 23:22:53.802080  7366 net.cpp:444] scale2a_branch2a <- res2a_branch2a
I0111 23:22:53.802089  7366 net.cpp:405] scale2a_branch2a -> res2a_branch2a (in-place)
I0111 23:22:53.802139  7366 layer_factory.hpp:77] Creating layer scale2a_branch2a
I0111 23:22:53.802376  7366 net.cpp:150] Setting up scale2a_branch2a
I0111 23:22:53.802389  7366 net.cpp:157] Top shape: 1 64 150 250 (2400000)
I0111 23:22:53.802395  7366 net.cpp:165] Memory required for data: 348000084
I0111 23:22:53.802419  7366 layer_factory.hpp:77] Creating layer res2a_branch2a_relu
I0111 23:22:53.802431  7366 net.cpp:100] Creating Layer res2a_branch2a_relu
I0111 23:22:53.802439  7366 net.cpp:444] res2a_branch2a_relu <- res2a_branch2a
I0111 23:22:53.802448  7366 net.cpp:405] res2a_branch2a_relu -> res2a_branch2a (in-place)
I0111 23:22:53.802912  7366 net.cpp:150] Setting up res2a_branch2a_relu
I0111 23:22:53.802928  7366 net.cpp:157] Top shape: 1 64 150 250 (2400000)
I0111 23:22:53.802950  7366 net.cpp:165] Memory required for data: 357600084
I0111 23:22:53.802959  7366 layer_factory.hpp:77] Creating layer res2a_branch2b
I0111 23:22:53.802984  7366 net.cpp:100] Creating Layer res2a_branch2b
I0111 23:22:53.802992  7366 net.cpp:444] res2a_branch2b <- res2a_branch2a
I0111 23:22:53.803002  7366 net.cpp:418] res2a_branch2b -> res2a_branch2b
I0111 23:22:53.803871  7366 net.cpp:150] Setting up res2a_branch2b
I0111 23:22:53.803889  7366 net.cpp:157] Top shape: 1 64 150 250 (2400000)
I0111 23:22:53.803911  7366 net.cpp:165] Memory required for data: 367200084
I0111 23:22:53.803921  7366 layer_factory.hpp:77] Creating layer bn2a_branch2b
I0111 23:22:53.803932  7366 net.cpp:100] Creating Layer bn2a_branch2b
I0111 23:22:53.803941  7366 net.cpp:444] bn2a_branch2b <- res2a_branch2b
I0111 23:22:53.803961  7366 net.cpp:405] bn2a_branch2b -> res2a_branch2b (in-place)
I0111 23:22:53.804157  7366 net.cpp:150] Setting up bn2a_branch2b
I0111 23:22:53.804168  7366 net.cpp:157] Top shape: 1 64 150 250 (2400000)
I0111 23:22:53.804175  7366 net.cpp:165] Memory required for data: 376800084
I0111 23:22:53.804219  7366 layer_factory.hpp:77] Creating layer scale2a_branch2b
I0111 23:22:53.804229  7366 net.cpp:100] Creating Layer scale2a_branch2b
I0111 23:22:53.804236  7366 net.cpp:444] scale2a_branch2b <- res2a_branch2b
I0111 23:22:53.804246  7366 net.cpp:405] scale2a_branch2b -> res2a_branch2b (in-place)
I0111 23:22:53.804293  7366 layer_factory.hpp:77] Creating layer scale2a_branch2b
I0111 23:22:53.804451  7366 net.cpp:150] Setting up scale2a_branch2b
I0111 23:22:53.804463  7366 net.cpp:157] Top shape: 1 64 150 250 (2400000)
I0111 23:22:53.804471  7366 net.cpp:165] Memory required for data: 386400084
I0111 23:22:53.804479  7366 layer_factory.hpp:77] Creating layer res2a_branch2b_relu
I0111 23:22:53.804488  7366 net.cpp:100] Creating Layer res2a_branch2b_relu
I0111 23:22:53.804497  7366 net.cpp:444] res2a_branch2b_relu <- res2a_branch2b
I0111 23:22:53.804517  7366 net.cpp:405] res2a_branch2b_relu -> res2a_branch2b (in-place)
I0111 23:22:53.804986  7366 net.cpp:150] Setting up res2a_branch2b_relu
I0111 23:22:53.805001  7366 net.cpp:157] Top shape: 1 64 150 250 (2400000)
I0111 23:22:53.805022  7366 net.cpp:165] Memory required for data: 396000084
I0111 23:22:53.805029  7366 layer_factory.hpp:77] Creating layer res2a_branch2c
I0111 23:22:53.805040  7366 net.cpp:100] Creating Layer res2a_branch2c
I0111 23:22:53.805048  7366 net.cpp:444] res2a_branch2c <- res2a_branch2b
I0111 23:22:53.805058  7366 net.cpp:418] res2a_branch2c -> res2a_branch2c
I0111 23:22:53.805862  7366 net.cpp:150] Setting up res2a_branch2c
I0111 23:22:53.805892  7366 net.cpp:157] Top shape: 1 256 150 250 (9600000)
I0111 23:22:53.805901  7366 net.cpp:165] Memory required for data: 434400084
I0111 23:22:53.805910  7366 layer_factory.hpp:77] Creating layer bn2a_branch2c
I0111 23:22:53.805920  7366 net.cpp:100] Creating Layer bn2a_branch2c
I0111 23:22:53.805928  7366 net.cpp:444] bn2a_branch2c <- res2a_branch2c
I0111 23:22:53.805938  7366 net.cpp:405] bn2a_branch2c -> res2a_branch2c (in-place)
I0111 23:22:53.806102  7366 net.cpp:150] Setting up bn2a_branch2c
I0111 23:22:53.806113  7366 net.cpp:157] Top shape: 1 256 150 250 (9600000)
I0111 23:22:53.806119  7366 net.cpp:165] Memory required for data: 472800084
I0111 23:22:53.806129  7366 layer_factory.hpp:77] Creating layer scale2a_branch2c
I0111 23:22:53.806139  7366 net.cpp:100] Creating Layer scale2a_branch2c
I0111 23:22:53.806147  7366 net.cpp:444] scale2a_branch2c <- res2a_branch2c
I0111 23:22:53.806156  7366 net.cpp:405] scale2a_branch2c -> res2a_branch2c (in-place)
I0111 23:22:53.806202  7366 layer_factory.hpp:77] Creating layer scale2a_branch2c
I0111 23:22:53.806316  7366 net.cpp:150] Setting up scale2a_branch2c
I0111 23:22:53.806329  7366 net.cpp:157] Top shape: 1 256 150 250 (9600000)
I0111 23:22:53.806335  7366 net.cpp:165] Memory required for data: 511200084
I0111 23:22:53.806345  7366 layer_factory.hpp:77] Creating layer res2a
I0111 23:22:53.806354  7366 net.cpp:100] Creating Layer res2a
I0111 23:22:53.806361  7366 net.cpp:444] res2a <- res2a_branch1
I0111 23:22:53.806370  7366 net.cpp:444] res2a <- res2a_branch2c
I0111 23:22:53.806378  7366 net.cpp:418] res2a -> res2a
I0111 23:22:53.806402  7366 net.cpp:150] Setting up res2a
I0111 23:22:53.806412  7366 net.cpp:157] Top shape: 1 256 150 250 (9600000)
I0111 23:22:53.806419  7366 net.cpp:165] Memory required for data: 549600084
I0111 23:22:53.806427  7366 layer_factory.hpp:77] Creating layer res2a_relu
I0111 23:22:53.806435  7366 net.cpp:100] Creating Layer res2a_relu
I0111 23:22:53.806442  7366 net.cpp:444] res2a_relu <- res2a
I0111 23:22:53.806452  7366 net.cpp:405] res2a_relu -> res2a (in-place)
I0111 23:22:53.806581  7366 net.cpp:150] Setting up res2a_relu
I0111 23:22:53.806592  7366 net.cpp:157] Top shape: 1 256 150 250 (9600000)
I0111 23:22:53.806599  7366 net.cpp:165] Memory required for data: 588000084
I0111 23:22:53.806607  7366 layer_factory.hpp:77] Creating layer res2a_res2a_relu_0_split
I0111 23:22:53.806617  7366 net.cpp:100] Creating Layer res2a_res2a_relu_0_split
I0111 23:22:53.806623  7366 net.cpp:444] res2a_res2a_relu_0_split <- res2a
I0111 23:22:53.806637  7366 net.cpp:418] res2a_res2a_relu_0_split -> res2a_res2a_relu_0_split_0
I0111 23:22:53.806648  7366 net.cpp:418] res2a_res2a_relu_0_split -> res2a_res2a_relu_0_split_1
I0111 23:22:53.806682  7366 net.cpp:150] Setting up res2a_res2a_relu_0_split
I0111 23:22:53.806692  7366 net.cpp:157] Top shape: 1 256 150 250 (9600000)
I0111 23:22:53.806700  7366 net.cpp:157] Top shape: 1 256 150 250 (9600000)
I0111 23:22:53.806708  7366 net.cpp:165] Memory required for data: 664800084
I0111 23:22:53.806715  7366 layer_factory.hpp:77] Creating layer res2b_branch2a
I0111 23:22:53.806725  7366 net.cpp:100] Creating Layer res2b_branch2a
I0111 23:22:53.806733  7366 net.cpp:444] res2b_branch2a <- res2a_res2a_relu_0_split_0
I0111 23:22:53.806742  7366 net.cpp:418] res2b_branch2a -> res2b_branch2a
I0111 23:22:53.807992  7366 net.cpp:150] Setting up res2b_branch2a
I0111 23:22:53.808015  7366 net.cpp:157] Top shape: 1 64 150 250 (2400000)
I0111 23:22:53.808024  7366 net.cpp:165] Memory required for data: 674400084
I0111 23:22:53.808035  7366 layer_factory.hpp:77] Creating layer bn2b_branch2a
I0111 23:22:53.808046  7366 net.cpp:100] Creating Layer bn2b_branch2a
I0111 23:22:53.808054  7366 net.cpp:444] bn2b_branch2a <- res2b_branch2a
I0111 23:22:53.808064  7366 net.cpp:405] bn2b_branch2a -> res2b_branch2a (in-place)
I0111 23:22:53.808936  7366 net.cpp:150] Setting up bn2b_branch2a
I0111 23:22:53.808964  7366 net.cpp:157] Top shape: 1 64 150 250 (2400000)
I0111 23:22:53.808972  7366 net.cpp:165] Memory required for data: 684000084
I0111 23:22:53.808989  7366 layer_factory.hpp:77] Creating layer scale2b_branch2a
I0111 23:22:53.809001  7366 net.cpp:100] Creating Layer scale2b_branch2a
I0111 23:22:53.809010  7366 net.cpp:444] scale2b_branch2a <- res2b_branch2a
I0111 23:22:53.809020  7366 net.cpp:405] scale2b_branch2a -> res2b_branch2a (in-place)
I0111 23:22:53.809063  7366 layer_factory.hpp:77] Creating layer scale2b_branch2a
I0111 23:22:53.809192  7366 net.cpp:150] Setting up scale2b_branch2a
I0111 23:22:53.809204  7366 net.cpp:157] Top shape: 1 64 150 250 (2400000)
I0111 23:22:53.809211  7366 net.cpp:165] Memory required for data: 693600084
I0111 23:22:53.809221  7366 layer_factory.hpp:77] Creating layer res2b_branch2a_relu
I0111 23:22:53.809231  7366 net.cpp:100] Creating Layer res2b_branch2a_relu
I0111 23:22:53.809237  7366 net.cpp:444] res2b_branch2a_relu <- res2b_branch2a
I0111 23:22:53.809247  7366 net.cpp:405] res2b_branch2a_relu -> res2b_branch2a (in-place)
I0111 23:22:53.809417  7366 net.cpp:150] Setting up res2b_branch2a_relu
I0111 23:22:53.809429  7366 net.cpp:157] Top shape: 1 64 150 250 (2400000)
I0111 23:22:53.809437  7366 net.cpp:165] Memory required for data: 703200084
I0111 23:22:53.809444  7366 layer_factory.hpp:77] Creating layer res2b_branch2b
I0111 23:22:53.809456  7366 net.cpp:100] Creating Layer res2b_branch2b
I0111 23:22:53.809464  7366 net.cpp:444] res2b_branch2b <- res2b_branch2a
I0111 23:22:53.809473  7366 net.cpp:418] res2b_branch2b -> res2b_branch2b
I0111 23:22:53.810353  7366 net.cpp:150] Setting up res2b_branch2b
I0111 23:22:53.810372  7366 net.cpp:157] Top shape: 1 64 150 250 (2400000)
I0111 23:22:53.810379  7366 net.cpp:165] Memory required for data: 712800084
I0111 23:22:53.810389  7366 layer_factory.hpp:77] Creating layer bn2b_branch2b
I0111 23:22:53.810401  7366 net.cpp:100] Creating Layer bn2b_branch2b
I0111 23:22:53.810410  7366 net.cpp:444] bn2b_branch2b <- res2b_branch2b
I0111 23:22:53.810418  7366 net.cpp:405] bn2b_branch2b -> res2b_branch2b (in-place)
I0111 23:22:53.810577  7366 net.cpp:150] Setting up bn2b_branch2b
I0111 23:22:53.810587  7366 net.cpp:157] Top shape: 1 64 150 250 (2400000)
I0111 23:22:53.810595  7366 net.cpp:165] Memory required for data: 722400084
I0111 23:22:53.810603  7366 layer_factory.hpp:77] Creating layer scale2b_branch2b
I0111 23:22:53.810613  7366 net.cpp:100] Creating Layer scale2b_branch2b
I0111 23:22:53.810621  7366 net.cpp:444] scale2b_branch2b <- res2b_branch2b
I0111 23:22:53.810629  7366 net.cpp:405] scale2b_branch2b -> res2b_branch2b (in-place)
I0111 23:22:53.810673  7366 layer_factory.hpp:77] Creating layer scale2b_branch2b
I0111 23:22:53.810829  7366 net.cpp:150] Setting up scale2b_branch2b
I0111 23:22:53.810842  7366 net.cpp:157] Top shape: 1 64 150 250 (2400000)
I0111 23:22:53.810849  7366 net.cpp:165] Memory required for data: 732000084
I0111 23:22:53.810858  7366 layer_factory.hpp:77] Creating layer res2b_branch2b_relu
I0111 23:22:53.810868  7366 net.cpp:100] Creating Layer res2b_branch2b_relu
I0111 23:22:53.810875  7366 net.cpp:444] res2b_branch2b_relu <- res2b_branch2b
I0111 23:22:53.810883  7366 net.cpp:405] res2b_branch2b_relu -> res2b_branch2b (in-place)
I0111 23:22:53.811018  7366 net.cpp:150] Setting up res2b_branch2b_relu
I0111 23:22:53.811031  7366 net.cpp:157] Top shape: 1 64 150 250 (2400000)
I0111 23:22:53.811058  7366 net.cpp:165] Memory required for data: 741600084
I0111 23:22:53.811064  7366 layer_factory.hpp:77] Creating layer res2b_branch2c
I0111 23:22:53.811075  7366 net.cpp:100] Creating Layer res2b_branch2c
I0111 23:22:53.811084  7366 net.cpp:444] res2b_branch2c <- res2b_branch2b
I0111 23:22:53.811092  7366 net.cpp:418] res2b_branch2c -> res2b_branch2c
I0111 23:22:53.812222  7366 net.cpp:150] Setting up res2b_branch2c
I0111 23:22:53.812240  7366 net.cpp:157] Top shape: 1 256 150 250 (9600000)
I0111 23:22:53.812249  7366 net.cpp:165] Memory required for data: 780000084
I0111 23:22:53.812259  7366 layer_factory.hpp:77] Creating layer bn2b_branch2c
I0111 23:22:53.812269  7366 net.cpp:100] Creating Layer bn2b_branch2c
I0111 23:22:53.812278  7366 net.cpp:444] bn2b_branch2c <- res2b_branch2c
I0111 23:22:53.812288  7366 net.cpp:405] bn2b_branch2c -> res2b_branch2c (in-place)
I0111 23:22:53.812544  7366 net.cpp:150] Setting up bn2b_branch2c
I0111 23:22:53.812571  7366 net.cpp:157] Top shape: 1 256 150 250 (9600000)
I0111 23:22:53.812578  7366 net.cpp:165] Memory required for data: 818400084
I0111 23:22:53.812599  7366 layer_factory.hpp:77] Creating layer scale2b_branch2c
I0111 23:22:53.812610  7366 net.cpp:100] Creating Layer scale2b_branch2c
I0111 23:22:53.812618  7366 net.cpp:444] scale2b_branch2c <- res2b_branch2c
I0111 23:22:53.812635  7366 net.cpp:405] scale2b_branch2c -> res2b_branch2c (in-place)
I0111 23:22:53.812671  7366 layer_factory.hpp:77] Creating layer scale2b_branch2c
I0111 23:22:53.812788  7366 net.cpp:150] Setting up scale2b_branch2c
I0111 23:22:53.812799  7366 net.cpp:157] Top shape: 1 256 150 250 (9600000)
I0111 23:22:53.812806  7366 net.cpp:165] Memory required for data: 856800084
I0111 23:22:53.812815  7366 layer_factory.hpp:77] Creating layer res2b
I0111 23:22:53.812825  7366 net.cpp:100] Creating Layer res2b
I0111 23:22:53.812834  7366 net.cpp:444] res2b <- res2a_res2a_relu_0_split_1
I0111 23:22:53.812841  7366 net.cpp:444] res2b <- res2b_branch2c
I0111 23:22:53.812850  7366 net.cpp:418] res2b -> res2b
I0111 23:22:53.812875  7366 net.cpp:150] Setting up res2b
I0111 23:22:53.812885  7366 net.cpp:157] Top shape: 1 256 150 250 (9600000)
I0111 23:22:53.812893  7366 net.cpp:165] Memory required for data: 895200084
I0111 23:22:53.812901  7366 layer_factory.hpp:77] Creating layer res2b_relu
I0111 23:22:53.812909  7366 net.cpp:100] Creating Layer res2b_relu
I0111 23:22:53.812916  7366 net.cpp:444] res2b_relu <- res2b
I0111 23:22:53.812924  7366 net.cpp:405] res2b_relu -> res2b (in-place)
I0111 23:22:53.813063  7366 net.cpp:150] Setting up res2b_relu
I0111 23:22:53.813076  7366 net.cpp:157] Top shape: 1 256 150 250 (9600000)
I0111 23:22:53.813083  7366 net.cpp:165] Memory required for data: 933600084
I0111 23:22:53.813091  7366 layer_factory.hpp:77] Creating layer res2b_res2b_relu_0_split
I0111 23:22:53.813099  7366 net.cpp:100] Creating Layer res2b_res2b_relu_0_split
I0111 23:22:53.813107  7366 net.cpp:444] res2b_res2b_relu_0_split <- res2b
I0111 23:22:53.813115  7366 net.cpp:418] res2b_res2b_relu_0_split -> res2b_res2b_relu_0_split_0
I0111 23:22:53.813127  7366 net.cpp:418] res2b_res2b_relu_0_split -> res2b_res2b_relu_0_split_1
I0111 23:22:53.813161  7366 net.cpp:150] Setting up res2b_res2b_relu_0_split
I0111 23:22:53.813171  7366 net.cpp:157] Top shape: 1 256 150 250 (9600000)
I0111 23:22:53.813184  7366 net.cpp:157] Top shape: 1 256 150 250 (9600000)
I0111 23:22:53.813190  7366 net.cpp:165] Memory required for data: 1010400084
I0111 23:22:53.813199  7366 layer_factory.hpp:77] Creating layer res2c_branch2a
I0111 23:22:53.813208  7366 net.cpp:100] Creating Layer res2c_branch2a
I0111 23:22:53.813216  7366 net.cpp:444] res2c_branch2a <- res2b_res2b_relu_0_split_0
I0111 23:22:53.813225  7366 net.cpp:418] res2c_branch2a -> res2c_branch2a
I0111 23:22:53.814039  7366 net.cpp:150] Setting up res2c_branch2a
I0111 23:22:53.814056  7366 net.cpp:157] Top shape: 1 64 150 250 (2400000)
I0111 23:22:53.814065  7366 net.cpp:165] Memory required for data: 1020000084
I0111 23:22:53.814074  7366 layer_factory.hpp:77] Creating layer bn2c_branch2a
I0111 23:22:53.814085  7366 net.cpp:100] Creating Layer bn2c_branch2a
I0111 23:22:53.814093  7366 net.cpp:444] bn2c_branch2a <- res2c_branch2a
I0111 23:22:53.814102  7366 net.cpp:405] bn2c_branch2a -> res2c_branch2a (in-place)
I0111 23:22:53.814267  7366 net.cpp:150] Setting up bn2c_branch2a
I0111 23:22:53.814278  7366 net.cpp:157] Top shape: 1 64 150 250 (2400000)
I0111 23:22:53.814285  7366 net.cpp:165] Memory required for data: 1029600084
I0111 23:22:53.814294  7366 layer_factory.hpp:77] Creating layer scale2c_branch2a
I0111 23:22:53.814303  7366 net.cpp:100] Creating Layer scale2c_branch2a
I0111 23:22:53.814311  7366 net.cpp:444] scale2c_branch2a <- res2c_branch2a
I0111 23:22:53.814319  7366 net.cpp:405] scale2c_branch2a -> res2c_branch2a (in-place)
I0111 23:22:53.814355  7366 layer_factory.hpp:77] Creating layer scale2c_branch2a
I0111 23:22:53.814477  7366 net.cpp:150] Setting up scale2c_branch2a
I0111 23:22:53.814488  7366 net.cpp:157] Top shape: 1 64 150 250 (2400000)
I0111 23:22:53.814496  7366 net.cpp:165] Memory required for data: 1039200084
I0111 23:22:53.814503  7366 layer_factory.hpp:77] Creating layer res2c_branch2a_relu
I0111 23:22:53.814512  7366 net.cpp:100] Creating Layer res2c_branch2a_relu
I0111 23:22:53.814519  7366 net.cpp:444] res2c_branch2a_relu <- res2c_branch2a
I0111 23:22:53.814527  7366 net.cpp:405] res2c_branch2a_relu -> res2c_branch2a (in-place)
I0111 23:22:53.814939  7366 net.cpp:150] Setting up res2c_branch2a_relu
I0111 23:22:53.814954  7366 net.cpp:157] Top shape: 1 64 150 250 (2400000)
I0111 23:22:53.814962  7366 net.cpp:165] Memory required for data: 1048800084
I0111 23:22:53.814968  7366 layer_factory.hpp:77] Creating layer res2c_branch2b
I0111 23:22:53.814996  7366 net.cpp:100] Creating Layer res2c_branch2b
I0111 23:22:53.815017  7366 net.cpp:444] res2c_branch2b <- res2c_branch2a
I0111 23:22:53.815027  7366 net.cpp:418] res2c_branch2b -> res2c_branch2b
I0111 23:22:53.815963  7366 net.cpp:150] Setting up res2c_branch2b
I0111 23:22:53.815980  7366 net.cpp:157] Top shape: 1 64 150 250 (2400000)
I0111 23:22:53.815987  7366 net.cpp:165] Memory required for data: 1058400084
I0111 23:22:53.815997  7366 layer_factory.hpp:77] Creating layer bn2c_branch2b
I0111 23:22:53.816006  7366 net.cpp:100] Creating Layer bn2c_branch2b
I0111 23:22:53.816015  7366 net.cpp:444] bn2c_branch2b <- res2c_branch2b
I0111 23:22:53.816025  7366 net.cpp:405] bn2c_branch2b -> res2c_branch2b (in-place)
I0111 23:22:53.816764  7366 net.cpp:150] Setting up bn2c_branch2b
I0111 23:22:53.816781  7366 net.cpp:157] Top shape: 1 64 150 250 (2400000)
I0111 23:22:53.816788  7366 net.cpp:165] Memory required for data: 1068000084
I0111 23:22:53.816799  7366 layer_factory.hpp:77] Creating layer scale2c_branch2b
I0111 23:22:53.816810  7366 net.cpp:100] Creating Layer scale2c_branch2b
I0111 23:22:53.816818  7366 net.cpp:444] scale2c_branch2b <- res2c_branch2b
I0111 23:22:53.816828  7366 net.cpp:405] scale2c_branch2b -> res2c_branch2b (in-place)
I0111 23:22:53.816866  7366 layer_factory.hpp:77] Creating layer scale2c_branch2b
I0111 23:22:53.816990  7366 net.cpp:150] Setting up scale2c_branch2b
I0111 23:22:53.817001  7366 net.cpp:157] Top shape: 1 64 150 250 (2400000)
I0111 23:22:53.817008  7366 net.cpp:165] Memory required for data: 1077600084
I0111 23:22:53.817023  7366 layer_factory.hpp:77] Creating layer res2c_branch2b_relu
I0111 23:22:53.817032  7366 net.cpp:100] Creating Layer res2c_branch2b_relu
I0111 23:22:53.817039  7366 net.cpp:444] res2c_branch2b_relu <- res2c_branch2b
I0111 23:22:53.817047  7366 net.cpp:405] res2c_branch2b_relu -> res2c_branch2b (in-place)
I0111 23:22:53.817469  7366 net.cpp:150] Setting up res2c_branch2b_relu
I0111 23:22:53.817486  7366 net.cpp:157] Top shape: 1 64 150 250 (2400000)
I0111 23:22:53.817492  7366 net.cpp:165] Memory required for data: 1087200084
I0111 23:22:53.817499  7366 layer_factory.hpp:77] Creating layer res2c_branch2c
I0111 23:22:53.817509  7366 net.cpp:100] Creating Layer res2c_branch2c
I0111 23:22:53.817517  7366 net.cpp:444] res2c_branch2c <- res2c_branch2b
I0111 23:22:53.817528  7366 net.cpp:418] res2c_branch2c -> res2c_branch2c
I0111 23:22:53.818341  7366 net.cpp:150] Setting up res2c_branch2c
I0111 23:22:53.818356  7366 net.cpp:157] Top shape: 1 256 150 250 (9600000)
I0111 23:22:53.818364  7366 net.cpp:165] Memory required for data: 1125600084
I0111 23:22:53.818387  7366 layer_factory.hpp:77] Creating layer bn2c_branch2c
I0111 23:22:53.818397  7366 net.cpp:100] Creating Layer bn2c_branch2c
I0111 23:22:53.818405  7366 net.cpp:444] bn2c_branch2c <- res2c_branch2c
I0111 23:22:53.818428  7366 net.cpp:405] bn2c_branch2c -> res2c_branch2c (in-place)
I0111 23:22:53.818594  7366 net.cpp:150] Setting up bn2c_branch2c
I0111 23:22:53.818604  7366 net.cpp:157] Top shape: 1 256 150 250 (9600000)
I0111 23:22:53.818611  7366 net.cpp:165] Memory required for data: 1164000084
I0111 23:22:53.818639  7366 layer_factory.hpp:77] Creating layer scale2c_branch2c
I0111 23:22:53.818650  7366 net.cpp:100] Creating Layer scale2c_branch2c
I0111 23:22:53.818658  7366 net.cpp:444] scale2c_branch2c <- res2c_branch2c
I0111 23:22:53.818667  7366 net.cpp:405] scale2c_branch2c -> res2c_branch2c (in-place)
I0111 23:22:53.818716  7366 layer_factory.hpp:77] Creating layer scale2c_branch2c
I0111 23:22:53.818882  7366 net.cpp:150] Setting up scale2c_branch2c
I0111 23:22:53.818893  7366 net.cpp:157] Top shape: 1 256 150 250 (9600000)
I0111 23:22:53.818899  7366 net.cpp:165] Memory required for data: 1202400084
I0111 23:22:53.818922  7366 layer_factory.hpp:77] Creating layer res2c
I0111 23:22:53.818933  7366 net.cpp:100] Creating Layer res2c
I0111 23:22:53.818953  7366 net.cpp:444] res2c <- res2b_res2b_relu_0_split_1
I0111 23:22:53.818960  7366 net.cpp:444] res2c <- res2c_branch2c
I0111 23:22:53.818969  7366 net.cpp:418] res2c -> res2c
I0111 23:22:53.818994  7366 net.cpp:150] Setting up res2c
I0111 23:22:53.819016  7366 net.cpp:157] Top shape: 1 256 150 250 (9600000)
I0111 23:22:53.819022  7366 net.cpp:165] Memory required for data: 1240800084
I0111 23:22:53.819042  7366 layer_factory.hpp:77] Creating layer res2c_relu
I0111 23:22:53.819064  7366 net.cpp:100] Creating Layer res2c_relu
I0111 23:22:53.819072  7366 net.cpp:444] res2c_relu <- res2c
I0111 23:22:53.819092  7366 net.cpp:405] res2c_relu -> res2c (in-place)
I0111 23:22:53.819234  7366 net.cpp:150] Setting up res2c_relu
I0111 23:22:53.819247  7366 net.cpp:157] Top shape: 1 256 150 250 (9600000)
I0111 23:22:53.819252  7366 net.cpp:165] Memory required for data: 1279200084
I0111 23:22:53.819273  7366 layer_factory.hpp:77] Creating layer res2c_res2c_relu_0_split
I0111 23:22:53.819295  7366 net.cpp:100] Creating Layer res2c_res2c_relu_0_split
I0111 23:22:53.819303  7366 net.cpp:444] res2c_res2c_relu_0_split <- res2c
I0111 23:22:53.819313  7366 net.cpp:418] res2c_res2c_relu_0_split -> res2c_res2c_relu_0_split_0
I0111 23:22:53.819322  7366 net.cpp:418] res2c_res2c_relu_0_split -> res2c_res2c_relu_0_split_1
I0111 23:22:53.819358  7366 net.cpp:150] Setting up res2c_res2c_relu_0_split
I0111 23:22:53.819368  7366 net.cpp:157] Top shape: 1 256 150 250 (9600000)
I0111 23:22:53.819376  7366 net.cpp:157] Top shape: 1 256 150 250 (9600000)
I0111 23:22:53.819382  7366 net.cpp:165] Memory required for data: 1356000084
I0111 23:22:53.819388  7366 layer_factory.hpp:77] Creating layer res3a_branch1
I0111 23:22:53.819416  7366 net.cpp:100] Creating Layer res3a_branch1
I0111 23:22:53.819437  7366 net.cpp:444] res3a_branch1 <- res2c_res2c_relu_0_split_0
I0111 23:22:53.819445  7366 net.cpp:418] res3a_branch1 -> res3a_branch1
I0111 23:22:53.820713  7366 net.cpp:150] Setting up res3a_branch1
I0111 23:22:53.820744  7366 net.cpp:157] Top shape: 1 512 75 125 (4800000)
I0111 23:22:53.820767  7366 net.cpp:165] Memory required for data: 1375200084
I0111 23:22:53.820778  7366 layer_factory.hpp:77] Creating layer bn3a_branch1
I0111 23:22:53.820791  7366 net.cpp:100] Creating Layer bn3a_branch1
I0111 23:22:53.820798  7366 net.cpp:444] bn3a_branch1 <- res3a_branch1
I0111 23:22:53.820821  7366 net.cpp:405] bn3a_branch1 -> res3a_branch1 (in-place)
I0111 23:22:53.821516  7366 net.cpp:150] Setting up bn3a_branch1
I0111 23:22:53.821532  7366 net.cpp:157] Top shape: 1 512 75 125 (4800000)
I0111 23:22:53.821539  7366 net.cpp:165] Memory required for data: 1394400084
I0111 23:22:53.821563  7366 layer_factory.hpp:77] Creating layer scale3a_branch1
I0111 23:22:53.821573  7366 net.cpp:100] Creating Layer scale3a_branch1
I0111 23:22:53.821581  7366 net.cpp:444] scale3a_branch1 <- res3a_branch1
I0111 23:22:53.821604  7366 net.cpp:405] scale3a_branch1 -> res3a_branch1 (in-place)
I0111 23:22:53.821640  7366 layer_factory.hpp:77] Creating layer scale3a_branch1
I0111 23:22:53.821852  7366 net.cpp:150] Setting up scale3a_branch1
I0111 23:22:53.821868  7366 net.cpp:157] Top shape: 1 512 75 125 (4800000)
I0111 23:22:53.821876  7366 net.cpp:165] Memory required for data: 1413600084
I0111 23:22:53.821885  7366 layer_factory.hpp:77] Creating layer res3a_branch2a
I0111 23:22:53.821897  7366 net.cpp:100] Creating Layer res3a_branch2a
I0111 23:22:53.821918  7366 net.cpp:444] res3a_branch2a <- res2c_res2c_relu_0_split_1
I0111 23:22:53.821928  7366 net.cpp:418] res3a_branch2a -> res3a_branch2a
I0111 23:22:53.822882  7366 net.cpp:150] Setting up res3a_branch2a
I0111 23:22:53.822901  7366 net.cpp:157] Top shape: 1 128 75 125 (1200000)
I0111 23:22:53.822908  7366 net.cpp:165] Memory required for data: 1418400084
I0111 23:22:53.822918  7366 layer_factory.hpp:77] Creating layer bn3a_branch2a
I0111 23:22:53.822928  7366 net.cpp:100] Creating Layer bn3a_branch2a
I0111 23:22:53.822937  7366 net.cpp:444] bn3a_branch2a <- res3a_branch2a
I0111 23:22:53.822945  7366 net.cpp:405] bn3a_branch2a -> res3a_branch2a (in-place)
I0111 23:22:53.823096  7366 net.cpp:150] Setting up bn3a_branch2a
I0111 23:22:53.823107  7366 net.cpp:157] Top shape: 1 128 75 125 (1200000)
I0111 23:22:53.823113  7366 net.cpp:165] Memory required for data: 1423200084
I0111 23:22:53.823139  7366 layer_factory.hpp:77] Creating layer scale3a_branch2a
I0111 23:22:53.823150  7366 net.cpp:100] Creating Layer scale3a_branch2a
I0111 23:22:53.823171  7366 net.cpp:444] scale3a_branch2a <- res3a_branch2a
I0111 23:22:53.823180  7366 net.cpp:405] scale3a_branch2a -> res3a_branch2a (in-place)
I0111 23:22:53.823218  7366 layer_factory.hpp:77] Creating layer scale3a_branch2a
I0111 23:22:53.823319  7366 net.cpp:150] Setting up scale3a_branch2a
I0111 23:22:53.823330  7366 net.cpp:157] Top shape: 1 128 75 125 (1200000)
I0111 23:22:53.823338  7366 net.cpp:165] Memory required for data: 1428000084
I0111 23:22:53.823348  7366 layer_factory.hpp:77] Creating layer res3a_branch2a_relu
I0111 23:22:53.823357  7366 net.cpp:100] Creating Layer res3a_branch2a_relu
I0111 23:22:53.823365  7366 net.cpp:444] res3a_branch2a_relu <- res3a_branch2a
I0111 23:22:53.823374  7366 net.cpp:405] res3a_branch2a_relu -> res3a_branch2a (in-place)
I0111 23:22:53.823523  7366 net.cpp:150] Setting up res3a_branch2a_relu
I0111 23:22:53.823536  7366 net.cpp:157] Top shape: 1 128 75 125 (1200000)
I0111 23:22:53.823544  7366 net.cpp:165] Memory required for data: 1432800084
I0111 23:22:53.823550  7366 layer_factory.hpp:77] Creating layer res3a_branch2b
I0111 23:22:53.823561  7366 net.cpp:100] Creating Layer res3a_branch2b
I0111 23:22:53.823568  7366 net.cpp:444] res3a_branch2b <- res3a_branch2a
I0111 23:22:53.823577  7366 net.cpp:418] res3a_branch2b -> res3a_branch2b
I0111 23:22:53.824859  7366 net.cpp:150] Setting up res3a_branch2b
I0111 23:22:53.824878  7366 net.cpp:157] Top shape: 1 128 75 125 (1200000)
I0111 23:22:53.824887  7366 net.cpp:165] Memory required for data: 1437600084
I0111 23:22:53.824909  7366 layer_factory.hpp:77] Creating layer bn3a_branch2b
I0111 23:22:53.824920  7366 net.cpp:100] Creating Layer bn3a_branch2b
I0111 23:22:53.824941  7366 net.cpp:444] bn3a_branch2b <- res3a_branch2b
I0111 23:22:53.824950  7366 net.cpp:405] bn3a_branch2b -> res3a_branch2b (in-place)
I0111 23:22:53.825135  7366 net.cpp:150] Setting up bn3a_branch2b
I0111 23:22:53.825146  7366 net.cpp:157] Top shape: 1 128 75 125 (1200000)
I0111 23:22:53.825153  7366 net.cpp:165] Memory required for data: 1442400084
I0111 23:22:53.825162  7366 layer_factory.hpp:77] Creating layer scale3a_branch2b
I0111 23:22:53.825173  7366 net.cpp:100] Creating Layer scale3a_branch2b
I0111 23:22:53.825181  7366 net.cpp:444] scale3a_branch2b <- res3a_branch2b
I0111 23:22:53.825189  7366 net.cpp:405] scale3a_branch2b -> res3a_branch2b (in-place)
I0111 23:22:53.825227  7366 layer_factory.hpp:77] Creating layer scale3a_branch2b
I0111 23:22:53.825323  7366 net.cpp:150] Setting up scale3a_branch2b
I0111 23:22:53.825335  7366 net.cpp:157] Top shape: 1 128 75 125 (1200000)
I0111 23:22:53.825340  7366 net.cpp:165] Memory required for data: 1447200084
I0111 23:22:53.825350  7366 layer_factory.hpp:77] Creating layer res3a_branch2b_relu
I0111 23:22:53.825358  7366 net.cpp:100] Creating Layer res3a_branch2b_relu
I0111 23:22:53.825366  7366 net.cpp:444] res3a_branch2b_relu <- res3a_branch2b
I0111 23:22:53.825373  7366 net.cpp:405] res3a_branch2b_relu -> res3a_branch2b (in-place)
I0111 23:22:53.825520  7366 net.cpp:150] Setting up res3a_branch2b_relu
I0111 23:22:53.825531  7366 net.cpp:157] Top shape: 1 128 75 125 (1200000)
I0111 23:22:53.825538  7366 net.cpp:165] Memory required for data: 1452000084
I0111 23:22:53.825546  7366 layer_factory.hpp:77] Creating layer res3a_branch2c
I0111 23:22:53.825556  7366 net.cpp:100] Creating Layer res3a_branch2c
I0111 23:22:53.825562  7366 net.cpp:444] res3a_branch2c <- res3a_branch2b
I0111 23:22:53.825570  7366 net.cpp:418] res3a_branch2c -> res3a_branch2c
I0111 23:22:53.826588  7366 net.cpp:150] Setting up res3a_branch2c
I0111 23:22:53.826609  7366 net.cpp:157] Top shape: 1 512 75 125 (4800000)
I0111 23:22:53.826632  7366 net.cpp:165] Memory required for data: 1471200084
I0111 23:22:53.826642  7366 layer_factory.hpp:77] Creating layer bn3a_branch2c
I0111 23:22:53.826655  7366 net.cpp:100] Creating Layer bn3a_branch2c
I0111 23:22:53.826676  7366 net.cpp:444] bn3a_branch2c <- res3a_branch2c
I0111 23:22:53.826686  7366 net.cpp:405] bn3a_branch2c -> res3a_branch2c (in-place)
I0111 23:22:53.826858  7366 net.cpp:150] Setting up bn3a_branch2c
I0111 23:22:53.826869  7366 net.cpp:157] Top shape: 1 512 75 125 (4800000)
I0111 23:22:53.826876  7366 net.cpp:165] Memory required for data: 1490400084
I0111 23:22:53.826885  7366 layer_factory.hpp:77] Creating layer scale3a_branch2c
I0111 23:22:53.826894  7366 net.cpp:100] Creating Layer scale3a_branch2c
I0111 23:22:53.826902  7366 net.cpp:444] scale3a_branch2c <- res3a_branch2c
I0111 23:22:53.826911  7366 net.cpp:405] scale3a_branch2c -> res3a_branch2c (in-place)
I0111 23:22:53.826946  7366 layer_factory.hpp:77] Creating layer scale3a_branch2c
I0111 23:22:53.827049  7366 net.cpp:150] Setting up scale3a_branch2c
I0111 23:22:53.827059  7366 net.cpp:157] Top shape: 1 512 75 125 (4800000)
I0111 23:22:53.827065  7366 net.cpp:165] Memory required for data: 1509600084
I0111 23:22:53.827073  7366 layer_factory.hpp:77] Creating layer res3a
I0111 23:22:53.827082  7366 net.cpp:100] Creating Layer res3a
I0111 23:22:53.827090  7366 net.cpp:444] res3a <- res3a_branch1
I0111 23:22:53.827098  7366 net.cpp:444] res3a <- res3a_branch2c
I0111 23:22:53.827106  7366 net.cpp:418] res3a -> res3a
I0111 23:22:53.827132  7366 net.cpp:150] Setting up res3a
I0111 23:22:53.827142  7366 net.cpp:157] Top shape: 1 512 75 125 (4800000)
I0111 23:22:53.827148  7366 net.cpp:165] Memory required for data: 1528800084
I0111 23:22:53.827162  7366 layer_factory.hpp:77] Creating layer res3a_relu
I0111 23:22:53.827170  7366 net.cpp:100] Creating Layer res3a_relu
I0111 23:22:53.827178  7366 net.cpp:444] res3a_relu <- res3a
I0111 23:22:53.827186  7366 net.cpp:405] res3a_relu -> res3a (in-place)
I0111 23:22:53.827360  7366 net.cpp:150] Setting up res3a_relu
I0111 23:22:53.827371  7366 net.cpp:157] Top shape: 1 512 75 125 (4800000)
I0111 23:22:53.827378  7366 net.cpp:165] Memory required for data: 1548000084
I0111 23:22:53.827385  7366 layer_factory.hpp:77] Creating layer res3a_res3a_relu_0_split
I0111 23:22:53.827394  7366 net.cpp:100] Creating Layer res3a_res3a_relu_0_split
I0111 23:22:53.827402  7366 net.cpp:444] res3a_res3a_relu_0_split <- res3a
I0111 23:22:53.827411  7366 net.cpp:418] res3a_res3a_relu_0_split -> res3a_res3a_relu_0_split_0
I0111 23:22:53.827421  7366 net.cpp:418] res3a_res3a_relu_0_split -> res3a_res3a_relu_0_split_1
I0111 23:22:53.827458  7366 net.cpp:150] Setting up res3a_res3a_relu_0_split
I0111 23:22:53.827468  7366 net.cpp:157] Top shape: 1 512 75 125 (4800000)
I0111 23:22:53.827476  7366 net.cpp:157] Top shape: 1 512 75 125 (4800000)
I0111 23:22:53.827481  7366 net.cpp:165] Memory required for data: 1586400084
I0111 23:22:53.827487  7366 layer_factory.hpp:77] Creating layer res3b_branch2a
I0111 23:22:53.827498  7366 net.cpp:100] Creating Layer res3b_branch2a
I0111 23:22:53.827507  7366 net.cpp:444] res3b_branch2a <- res3a_res3a_relu_0_split_0
I0111 23:22:53.827515  7366 net.cpp:418] res3b_branch2a -> res3b_branch2a
I0111 23:22:53.828444  7366 net.cpp:150] Setting up res3b_branch2a
I0111 23:22:53.828462  7366 net.cpp:157] Top shape: 1 128 75 125 (1200000)
I0111 23:22:53.828470  7366 net.cpp:165] Memory required for data: 1591200084
I0111 23:22:53.828480  7366 layer_factory.hpp:77] Creating layer bn3b_branch2a
I0111 23:22:53.828490  7366 net.cpp:100] Creating Layer bn3b_branch2a
I0111 23:22:53.828498  7366 net.cpp:444] bn3b_branch2a <- res3b_branch2a
I0111 23:22:53.828507  7366 net.cpp:405] bn3b_branch2a -> res3b_branch2a (in-place)
I0111 23:22:53.828656  7366 net.cpp:150] Setting up bn3b_branch2a
I0111 23:22:53.828666  7366 net.cpp:157] Top shape: 1 128 75 125 (1200000)
I0111 23:22:53.828673  7366 net.cpp:165] Memory required for data: 1596000084
I0111 23:22:53.828685  7366 layer_factory.hpp:77] Creating layer scale3b_branch2a
I0111 23:22:53.828694  7366 net.cpp:100] Creating Layer scale3b_branch2a
I0111 23:22:53.828701  7366 net.cpp:444] scale3b_branch2a <- res3b_branch2a
I0111 23:22:53.828711  7366 net.cpp:405] scale3b_branch2a -> res3b_branch2a (in-place)
I0111 23:22:53.828747  7366 layer_factory.hpp:77] Creating layer scale3b_branch2a
I0111 23:22:53.828842  7366 net.cpp:150] Setting up scale3b_branch2a
I0111 23:22:53.828852  7366 net.cpp:157] Top shape: 1 128 75 125 (1200000)
I0111 23:22:53.828860  7366 net.cpp:165] Memory required for data: 1600800084
I0111 23:22:53.828867  7366 layer_factory.hpp:77] Creating layer res3b_branch2a_relu
I0111 23:22:53.828876  7366 net.cpp:100] Creating Layer res3b_branch2a_relu
I0111 23:22:53.828883  7366 net.cpp:444] res3b_branch2a_relu <- res3b_branch2a
I0111 23:22:53.828891  7366 net.cpp:405] res3b_branch2a_relu -> res3b_branch2a (in-place)
I0111 23:22:53.829027  7366 net.cpp:150] Setting up res3b_branch2a_relu
I0111 23:22:53.829040  7366 net.cpp:157] Top shape: 1 128 75 125 (1200000)
I0111 23:22:53.829047  7366 net.cpp:165] Memory required for data: 1605600084
I0111 23:22:53.829054  7366 layer_factory.hpp:77] Creating layer res3b_branch2b
I0111 23:22:53.829064  7366 net.cpp:100] Creating Layer res3b_branch2b
I0111 23:22:53.829072  7366 net.cpp:444] res3b_branch2b <- res3b_branch2a
I0111 23:22:53.829082  7366 net.cpp:418] res3b_branch2b -> res3b_branch2b
I0111 23:22:53.831125  7366 net.cpp:150] Setting up res3b_branch2b
I0111 23:22:53.831204  7366 net.cpp:157] Top shape: 1 128 75 125 (1200000)
I0111 23:22:53.831213  7366 net.cpp:165] Memory required for data: 1610400084
I0111 23:22:53.831224  7366 layer_factory.hpp:77] Creating layer bn3b_branch2b
I0111 23:22:53.831240  7366 net.cpp:100] Creating Layer bn3b_branch2b
I0111 23:22:53.831249  7366 net.cpp:444] bn3b_branch2b <- res3b_branch2b
I0111 23:22:53.831259  7366 net.cpp:405] bn3b_branch2b -> res3b_branch2b (in-place)
I0111 23:22:53.831414  7366 net.cpp:150] Setting up bn3b_branch2b
I0111 23:22:53.831424  7366 net.cpp:157] Top shape: 1 128 75 125 (1200000)
I0111 23:22:53.831432  7366 net.cpp:165] Memory required for data: 1615200084
I0111 23:22:53.831442  7366 layer_factory.hpp:77] Creating layer scale3b_branch2b
I0111 23:22:53.831452  7366 net.cpp:100] Creating Layer scale3b_branch2b
I0111 23:22:53.831460  7366 net.cpp:444] scale3b_branch2b <- res3b_branch2b
I0111 23:22:53.831470  7366 net.cpp:405] scale3b_branch2b -> res3b_branch2b (in-place)
I0111 23:22:53.831506  7366 layer_factory.hpp:77] Creating layer scale3b_branch2b
I0111 23:22:53.831604  7366 net.cpp:150] Setting up scale3b_branch2b
I0111 23:22:53.831614  7366 net.cpp:157] Top shape: 1 128 75 125 (1200000)
I0111 23:22:53.831621  7366 net.cpp:165] Memory required for data: 1620000084
I0111 23:22:53.831630  7366 layer_factory.hpp:77] Creating layer res3b_branch2b_relu
I0111 23:22:53.831645  7366 net.cpp:100] Creating Layer res3b_branch2b_relu
I0111 23:22:53.831691  7366 net.cpp:444] res3b_branch2b_relu <- res3b_branch2b
I0111 23:22:53.831712  7366 net.cpp:405] res3b_branch2b_relu -> res3b_branch2b (in-place)
I0111 23:22:53.832181  7366 net.cpp:150] Setting up res3b_branch2b_relu
I0111 23:22:53.832197  7366 net.cpp:157] Top shape: 1 128 75 125 (1200000)
I0111 23:22:53.832206  7366 net.cpp:165] Memory required for data: 1624800084
I0111 23:22:53.832213  7366 layer_factory.hpp:77] Creating layer res3b_branch2c
I0111 23:22:53.832224  7366 net.cpp:100] Creating Layer res3b_branch2c
I0111 23:22:53.832232  7366 net.cpp:444] res3b_branch2c <- res3b_branch2b
I0111 23:22:53.832242  7366 net.cpp:418] res3b_branch2c -> res3b_branch2c
I0111 23:22:53.833106  7366 net.cpp:150] Setting up res3b_branch2c
I0111 23:22:53.833122  7366 net.cpp:157] Top shape: 1 512 75 125 (4800000)
I0111 23:22:53.833144  7366 net.cpp:165] Memory required for data: 1644000084
I0111 23:22:53.833154  7366 layer_factory.hpp:77] Creating layer bn3b_branch2c
I0111 23:22:53.833165  7366 net.cpp:100] Creating Layer bn3b_branch2c
I0111 23:22:53.833173  7366 net.cpp:444] bn3b_branch2c <- res3b_branch2c
I0111 23:22:53.833195  7366 net.cpp:405] bn3b_branch2c -> res3b_branch2c (in-place)
I0111 23:22:53.833356  7366 net.cpp:150] Setting up bn3b_branch2c
I0111 23:22:53.833366  7366 net.cpp:157] Top shape: 1 512 75 125 (4800000)
I0111 23:22:53.833374  7366 net.cpp:165] Memory required for data: 1663200084
I0111 23:22:53.833397  7366 layer_factory.hpp:77] Creating layer scale3b_branch2c
I0111 23:22:53.833407  7366 net.cpp:100] Creating Layer scale3b_branch2c
I0111 23:22:53.833415  7366 net.cpp:444] scale3b_branch2c <- res3b_branch2c
I0111 23:22:53.833425  7366 net.cpp:405] scale3b_branch2c -> res3b_branch2c (in-place)
I0111 23:22:53.833472  7366 layer_factory.hpp:77] Creating layer scale3b_branch2c
I0111 23:22:53.833602  7366 net.cpp:150] Setting up scale3b_branch2c
I0111 23:22:53.833612  7366 net.cpp:157] Top shape: 1 512 75 125 (4800000)
I0111 23:22:53.833619  7366 net.cpp:165] Memory required for data: 1682400084
I0111 23:22:53.833642  7366 layer_factory.hpp:77] Creating layer res3b
I0111 23:22:53.833652  7366 net.cpp:100] Creating Layer res3b
I0111 23:22:53.833660  7366 net.cpp:444] res3b <- res3a_res3a_relu_0_split_1
I0111 23:22:53.833668  7366 net.cpp:444] res3b <- res3b_branch2c
I0111 23:22:53.833690  7366 net.cpp:418] res3b -> res3b
I0111 23:22:53.833716  7366 net.cpp:150] Setting up res3b
I0111 23:22:53.833726  7366 net.cpp:157] Top shape: 1 512 75 125 (4800000)
I0111 23:22:53.833734  7366 net.cpp:165] Memory required for data: 1701600084
I0111 23:22:53.833751  7366 layer_factory.hpp:77] Creating layer res3b_relu
I0111 23:22:53.833773  7366 net.cpp:100] Creating Layer res3b_relu
I0111 23:22:53.833794  7366 net.cpp:444] res3b_relu <- res3b
I0111 23:22:53.833802  7366 net.cpp:405] res3b_relu -> res3b (in-place)
I0111 23:22:53.833948  7366 net.cpp:150] Setting up res3b_relu
I0111 23:22:53.833961  7366 net.cpp:157] Top shape: 1 512 75 125 (4800000)
I0111 23:22:53.833966  7366 net.cpp:165] Memory required for data: 1720800084
I0111 23:22:53.833986  7366 layer_factory.hpp:77] Creating layer res3b_res3b_relu_0_split
I0111 23:22:53.834007  7366 net.cpp:100] Creating Layer res3b_res3b_relu_0_split
I0111 23:22:53.834015  7366 net.cpp:444] res3b_res3b_relu_0_split <- res3b
I0111 23:22:53.834024  7366 net.cpp:418] res3b_res3b_relu_0_split -> res3b_res3b_relu_0_split_0
I0111 23:22:53.834034  7366 net.cpp:418] res3b_res3b_relu_0_split -> res3b_res3b_relu_0_split_1
I0111 23:22:53.834071  7366 net.cpp:150] Setting up res3b_res3b_relu_0_split
I0111 23:22:53.834081  7366 net.cpp:157] Top shape: 1 512 75 125 (4800000)
I0111 23:22:53.834101  7366 net.cpp:157] Top shape: 1 512 75 125 (4800000)
I0111 23:22:53.834120  7366 net.cpp:165] Memory required for data: 1759200084
I0111 23:22:53.834141  7366 layer_factory.hpp:77] Creating layer res3c_branch2a
I0111 23:22:53.834151  7366 net.cpp:100] Creating Layer res3c_branch2a
I0111 23:22:53.834158  7366 net.cpp:444] res3c_branch2a <- res3b_res3b_relu_0_split_0
I0111 23:22:53.834167  7366 net.cpp:418] res3c_branch2a -> res3c_branch2a
I0111 23:22:53.835003  7366 net.cpp:150] Setting up res3c_branch2a
I0111 23:22:53.835021  7366 net.cpp:157] Top shape: 1 128 75 125 (1200000)
I0111 23:22:53.835026  7366 net.cpp:165] Memory required for data: 1764000084
I0111 23:22:53.835048  7366 layer_factory.hpp:77] Creating layer bn3c_branch2a
I0111 23:22:53.835059  7366 net.cpp:100] Creating Layer bn3c_branch2a
I0111 23:22:53.835067  7366 net.cpp:444] bn3c_branch2a <- res3c_branch2a
I0111 23:22:53.835077  7366 net.cpp:405] bn3c_branch2a -> res3c_branch2a (in-place)
I0111 23:22:53.835258  7366 net.cpp:150] Setting up bn3c_branch2a
I0111 23:22:53.835268  7366 net.cpp:157] Top shape: 1 128 75 125 (1200000)
I0111 23:22:53.835276  7366 net.cpp:165] Memory required for data: 1768800084
I0111 23:22:53.835286  7366 layer_factory.hpp:77] Creating layer scale3c_branch2a
I0111 23:22:53.835296  7366 net.cpp:100] Creating Layer scale3c_branch2a
I0111 23:22:53.835304  7366 net.cpp:444] scale3c_branch2a <- res3c_branch2a
I0111 23:22:53.835325  7366 net.cpp:405] scale3c_branch2a -> res3c_branch2a (in-place)
I0111 23:22:53.835361  7366 layer_factory.hpp:77] Creating layer scale3c_branch2a
I0111 23:22:53.835510  7366 net.cpp:150] Setting up scale3c_branch2a
I0111 23:22:53.835520  7366 net.cpp:157] Top shape: 1 128 75 125 (1200000)
I0111 23:22:53.835525  7366 net.cpp:165] Memory required for data: 1773600084
I0111 23:22:53.835546  7366 layer_factory.hpp:77] Creating layer res3c_branch2a_relu
I0111 23:22:53.835556  7366 net.cpp:100] Creating Layer res3c_branch2a_relu
I0111 23:22:53.835563  7366 net.cpp:444] res3c_branch2a_relu <- res3c_branch2a
I0111 23:22:53.835572  7366 net.cpp:405] res3c_branch2a_relu -> res3c_branch2a (in-place)
I0111 23:22:53.835765  7366 net.cpp:150] Setting up res3c_branch2a_relu
I0111 23:22:53.835779  7366 net.cpp:157] Top shape: 1 128 75 125 (1200000)
I0111 23:22:53.835785  7366 net.cpp:165] Memory required for data: 1778400084
I0111 23:22:53.835805  7366 layer_factory.hpp:77] Creating layer res3c_branch2b
I0111 23:22:53.835829  7366 net.cpp:100] Creating Layer res3c_branch2b
I0111 23:22:53.835836  7366 net.cpp:444] res3c_branch2b <- res3c_branch2a
I0111 23:22:53.835845  7366 net.cpp:418] res3c_branch2b -> res3c_branch2b
I0111 23:22:53.837123  7366 net.cpp:150] Setting up res3c_branch2b
I0111 23:22:53.837141  7366 net.cpp:157] Top shape: 1 128 75 125 (1200000)
I0111 23:22:53.837147  7366 net.cpp:165] Memory required for data: 1783200084
I0111 23:22:53.837169  7366 layer_factory.hpp:77] Creating layer bn3c_branch2b
I0111 23:22:53.837179  7366 net.cpp:100] Creating Layer bn3c_branch2b
I0111 23:22:53.837200  7366 net.cpp:444] bn3c_branch2b <- res3c_branch2b
I0111 23:22:53.837209  7366 net.cpp:405] bn3c_branch2b -> res3c_branch2b (in-place)
I0111 23:22:53.837376  7366 net.cpp:150] Setting up bn3c_branch2b
I0111 23:22:53.837390  7366 net.cpp:157] Top shape: 1 128 75 125 (1200000)
I0111 23:22:53.837410  7366 net.cpp:165] Memory required for data: 1788000084
I0111 23:22:53.837420  7366 layer_factory.hpp:77] Creating layer scale3c_branch2b
I0111 23:22:53.837431  7366 net.cpp:100] Creating Layer scale3c_branch2b
I0111 23:22:53.837438  7366 net.cpp:444] scale3c_branch2b <- res3c_branch2b
I0111 23:22:53.837460  7366 net.cpp:405] scale3c_branch2b -> res3c_branch2b (in-place)
I0111 23:22:53.837525  7366 layer_factory.hpp:77] Creating layer scale3c_branch2b
I0111 23:22:53.837666  7366 net.cpp:150] Setting up scale3c_branch2b
I0111 23:22:53.837677  7366 net.cpp:157] Top shape: 1 128 75 125 (1200000)
I0111 23:22:53.837682  7366 net.cpp:165] Memory required for data: 1792800084
I0111 23:22:53.837704  7366 layer_factory.hpp:77] Creating layer res3c_branch2b_relu
I0111 23:22:53.837713  7366 net.cpp:100] Creating Layer res3c_branch2b_relu
I0111 23:22:53.837721  7366 net.cpp:444] res3c_branch2b_relu <- res3c_branch2b
I0111 23:22:53.837729  7366 net.cpp:405] res3c_branch2b_relu -> res3c_branch2b (in-place)
I0111 23:22:53.837896  7366 net.cpp:150] Setting up res3c_branch2b_relu
I0111 23:22:53.837908  7366 net.cpp:157] Top shape: 1 128 75 125 (1200000)
I0111 23:22:53.837915  7366 net.cpp:165] Memory required for data: 1797600084
I0111 23:22:53.837934  7366 layer_factory.hpp:77] Creating layer res3c_branch2c
I0111 23:22:53.837958  7366 net.cpp:100] Creating Layer res3c_branch2c
I0111 23:22:53.837966  7366 net.cpp:444] res3c_branch2c <- res3c_branch2b
I0111 23:22:53.837976  7366 net.cpp:418] res3c_branch2c -> res3c_branch2c
I0111 23:22:53.839475  7366 net.cpp:150] Setting up res3c_branch2c
I0111 23:22:53.839498  7366 net.cpp:157] Top shape: 1 512 75 125 (4800000)
I0111 23:22:53.839516  7366 net.cpp:165] Memory required for data: 1816800084
I0111 23:22:53.839527  7366 layer_factory.hpp:77] Creating layer bn3c_branch2c
I0111 23:22:53.839538  7366 net.cpp:100] Creating Layer bn3c_branch2c
I0111 23:22:53.839561  7366 net.cpp:444] bn3c_branch2c <- res3c_branch2c
I0111 23:22:53.839570  7366 net.cpp:405] bn3c_branch2c -> res3c_branch2c (in-place)
I0111 23:22:53.839793  7366 net.cpp:150] Setting up bn3c_branch2c
I0111 23:22:53.839805  7366 net.cpp:157] Top shape: 1 512 75 125 (4800000)
I0111 23:22:53.839812  7366 net.cpp:165] Memory required for data: 1836000084
I0111 23:22:53.839835  7366 layer_factory.hpp:77] Creating layer scale3c_branch2c
I0111 23:22:53.839846  7366 net.cpp:100] Creating Layer scale3c_branch2c
I0111 23:22:53.839854  7366 net.cpp:444] scale3c_branch2c <- res3c_branch2c
I0111 23:22:53.839875  7366 net.cpp:405] scale3c_branch2c -> res3c_branch2c (in-place)
I0111 23:22:53.839911  7366 layer_factory.hpp:77] Creating layer scale3c_branch2c
I0111 23:22:53.840065  7366 net.cpp:150] Setting up scale3c_branch2c
I0111 23:22:53.840075  7366 net.cpp:157] Top shape: 1 512 75 125 (4800000)
I0111 23:22:53.840082  7366 net.cpp:165] Memory required for data: 1855200084
I0111 23:22:53.840103  7366 layer_factory.hpp:77] Creating layer res3c
I0111 23:22:53.840113  7366 net.cpp:100] Creating Layer res3c
I0111 23:22:53.840133  7366 net.cpp:444] res3c <- res3b_res3b_relu_0_split_1
I0111 23:22:53.840142  7366 net.cpp:444] res3c <- res3c_branch2c
I0111 23:22:53.840150  7366 net.cpp:418] res3c -> res3c
I0111 23:22:53.840176  7366 net.cpp:150] Setting up res3c
I0111 23:22:53.840186  7366 net.cpp:157] Top shape: 1 512 75 125 (4800000)
I0111 23:22:53.840193  7366 net.cpp:165] Memory required for data: 1874400084
I0111 23:22:53.840199  7366 layer_factory.hpp:77] Creating layer res3c_relu
I0111 23:22:53.840207  7366 net.cpp:100] Creating Layer res3c_relu
I0111 23:22:53.840215  7366 net.cpp:444] res3c_relu <- res3c
I0111 23:22:53.840224  7366 net.cpp:405] res3c_relu -> res3c (in-place)
I0111 23:22:53.840371  7366 net.cpp:150] Setting up res3c_relu
I0111 23:22:53.840384  7366 net.cpp:157] Top shape: 1 512 75 125 (4800000)
I0111 23:22:53.840389  7366 net.cpp:165] Memory required for data: 1893600084
I0111 23:22:53.840409  7366 layer_factory.hpp:77] Creating layer res3c_res3c_relu_0_split
I0111 23:22:53.840423  7366 net.cpp:100] Creating Layer res3c_res3c_relu_0_split
I0111 23:22:53.840431  7366 net.cpp:444] res3c_res3c_relu_0_split <- res3c
I0111 23:22:53.840452  7366 net.cpp:418] res3c_res3c_relu_0_split -> res3c_res3c_relu_0_split_0
I0111 23:22:53.840474  7366 net.cpp:418] res3c_res3c_relu_0_split -> res3c_res3c_relu_0_split_1
I0111 23:22:53.840524  7366 net.cpp:150] Setting up res3c_res3c_relu_0_split
I0111 23:22:53.840534  7366 net.cpp:157] Top shape: 1 512 75 125 (4800000)
I0111 23:22:53.840541  7366 net.cpp:157] Top shape: 1 512 75 125 (4800000)
I0111 23:22:53.840548  7366 net.cpp:165] Memory required for data: 1932000084
I0111 23:22:53.840554  7366 layer_factory.hpp:77] Creating layer res3d_branch2a
I0111 23:22:53.840577  7366 net.cpp:100] Creating Layer res3d_branch2a
I0111 23:22:53.840598  7366 net.cpp:444] res3d_branch2a <- res3c_res3c_relu_0_split_0
I0111 23:22:53.840607  7366 net.cpp:418] res3d_branch2a -> res3d_branch2a
I0111 23:22:53.841647  7366 net.cpp:150] Setting up res3d_branch2a
I0111 23:22:53.841665  7366 net.cpp:157] Top shape: 1 128 75 125 (1200000)
I0111 23:22:53.841675  7366 net.cpp:165] Memory required for data: 1936800084
I0111 23:22:53.841683  7366 layer_factory.hpp:77] Creating layer bn3d_branch2a
I0111 23:22:53.841694  7366 net.cpp:100] Creating Layer bn3d_branch2a
I0111 23:22:53.841702  7366 net.cpp:444] bn3d_branch2a <- res3d_branch2a
I0111 23:22:53.841723  7366 net.cpp:405] bn3d_branch2a -> res3d_branch2a (in-place)
I0111 23:22:53.841902  7366 net.cpp:150] Setting up bn3d_branch2a
I0111 23:22:53.841912  7366 net.cpp:157] Top shape: 1 128 75 125 (1200000)
I0111 23:22:53.841917  7366 net.cpp:165] Memory required for data: 1941600084
I0111 23:22:53.841944  7366 layer_factory.hpp:77] Creating layer scale3d_branch2a
I0111 23:22:53.841967  7366 net.cpp:100] Creating Layer scale3d_branch2a
I0111 23:22:53.841975  7366 net.cpp:444] scale3d_branch2a <- res3d_branch2a
I0111 23:22:53.841984  7366 net.cpp:405] scale3d_branch2a -> res3d_branch2a (in-place)
I0111 23:22:53.842021  7366 layer_factory.hpp:77] Creating layer scale3d_branch2a
I0111 23:22:53.842133  7366 net.cpp:150] Setting up scale3d_branch2a
I0111 23:22:53.842144  7366 net.cpp:157] Top shape: 1 128 75 125 (1200000)
I0111 23:22:53.842149  7366 net.cpp:165] Memory required for data: 1946400084
I0111 23:22:53.842170  7366 layer_factory.hpp:77] Creating layer res3d_branch2a_relu
I0111 23:22:53.842180  7366 net.cpp:100] Creating Layer res3d_branch2a_relu
I0111 23:22:53.842187  7366 net.cpp:444] res3d_branch2a_relu <- res3d_branch2a
I0111 23:22:53.842208  7366 net.cpp:405] res3d_branch2a_relu -> res3d_branch2a (in-place)
I0111 23:22:53.842352  7366 net.cpp:150] Setting up res3d_branch2a_relu
I0111 23:22:53.842365  7366 net.cpp:157] Top shape: 1 128 75 125 (1200000)
I0111 23:22:53.842370  7366 net.cpp:165] Memory required for data: 1951200084
I0111 23:22:53.842389  7366 layer_factory.hpp:77] Creating layer res3d_branch2b
I0111 23:22:53.842412  7366 net.cpp:100] Creating Layer res3d_branch2b
I0111 23:22:53.842420  7366 net.cpp:444] res3d_branch2b <- res3d_branch2a
I0111 23:22:53.842429  7366 net.cpp:418] res3d_branch2b -> res3d_branch2b
I0111 23:22:53.843605  7366 net.cpp:150] Setting up res3d_branch2b
I0111 23:22:53.843636  7366 net.cpp:157] Top shape: 1 128 75 125 (1200000)
I0111 23:22:53.843677  7366 net.cpp:165] Memory required for data: 1956000084
I0111 23:22:53.843701  7366 layer_factory.hpp:77] Creating layer bn3d_branch2b
I0111 23:22:53.843713  7366 net.cpp:100] Creating Layer bn3d_branch2b
I0111 23:22:53.843721  7366 net.cpp:444] bn3d_branch2b <- res3d_branch2b
I0111 23:22:53.843731  7366 net.cpp:405] bn3d_branch2b -> res3d_branch2b (in-place)
I0111 23:22:53.843909  7366 net.cpp:150] Setting up bn3d_branch2b
I0111 23:22:53.843919  7366 net.cpp:157] Top shape: 1 128 75 125 (1200000)
I0111 23:22:53.843927  7366 net.cpp:165] Memory required for data: 1960800084
I0111 23:22:53.843951  7366 layer_factory.hpp:77] Creating layer scale3d_branch2b
I0111 23:22:53.843961  7366 net.cpp:100] Creating Layer scale3d_branch2b
I0111 23:22:53.843973  7366 net.cpp:444] scale3d_branch2b <- res3d_branch2b
I0111 23:22:53.843982  7366 net.cpp:405] scale3d_branch2b -> res3d_branch2b (in-place)
I0111 23:22:53.844033  7366 layer_factory.hpp:77] Creating layer scale3d_branch2b
I0111 23:22:53.844172  7366 net.cpp:150] Setting up scale3d_branch2b
I0111 23:22:53.844183  7366 net.cpp:157] Top shape: 1 128 75 125 (1200000)
I0111 23:22:53.844190  7366 net.cpp:165] Memory required for data: 1965600084
I0111 23:22:53.844213  7366 layer_factory.hpp:77] Creating layer res3d_branch2b_relu
I0111 23:22:53.844234  7366 net.cpp:100] Creating Layer res3d_branch2b_relu
I0111 23:22:53.844254  7366 net.cpp:444] res3d_branch2b_relu <- res3d_branch2b
I0111 23:22:53.844262  7366 net.cpp:405] res3d_branch2b_relu -> res3d_branch2b (in-place)
I0111 23:22:53.844702  7366 net.cpp:150] Setting up res3d_branch2b_relu
I0111 23:22:53.844717  7366 net.cpp:157] Top shape: 1 128 75 125 (1200000)
I0111 23:22:53.844736  7366 net.cpp:165] Memory required for data: 1970400084
I0111 23:22:53.844744  7366 layer_factory.hpp:77] Creating layer res3d_branch2c
I0111 23:22:53.844769  7366 net.cpp:100] Creating Layer res3d_branch2c
I0111 23:22:53.844776  7366 net.cpp:444] res3d_branch2c <- res3d_branch2b
I0111 23:22:53.844785  7366 net.cpp:418] res3d_branch2c -> res3d_branch2c
I0111 23:22:53.845671  7366 net.cpp:150] Setting up res3d_branch2c
I0111 23:22:53.845688  7366 net.cpp:157] Top shape: 1 512 75 125 (4800000)
I0111 23:22:53.845708  7366 net.cpp:165] Memory required for data: 1989600084
I0111 23:22:53.845717  7366 layer_factory.hpp:77] Creating layer bn3d_branch2c
I0111 23:22:53.845727  7366 net.cpp:100] Creating Layer bn3d_branch2c
I0111 23:22:53.845736  7366 net.cpp:444] bn3d_branch2c <- res3d_branch2c
I0111 23:22:53.845758  7366 net.cpp:405] bn3d_branch2c -> res3d_branch2c (in-place)
I0111 23:22:53.845926  7366 net.cpp:150] Setting up bn3d_branch2c
I0111 23:22:53.845935  7366 net.cpp:157] Top shape: 1 512 75 125 (4800000)
I0111 23:22:53.845942  7366 net.cpp:165] Memory required for data: 2008800084
I0111 23:22:53.845965  7366 layer_factory.hpp:77] Creating layer scale3d_branch2c
I0111 23:22:53.845975  7366 net.cpp:100] Creating Layer scale3d_branch2c
I0111 23:22:53.845983  7366 net.cpp:444] scale3d_branch2c <- res3d_branch2c
I0111 23:22:53.846004  7366 net.cpp:405] scale3d_branch2c -> res3d_branch2c (in-place)
I0111 23:22:53.846040  7366 layer_factory.hpp:77] Creating layer scale3d_branch2c
I0111 23:22:53.846144  7366 net.cpp:150] Setting up scale3d_branch2c
I0111 23:22:53.846168  7366 net.cpp:157] Top shape: 1 512 75 125 (4800000)
I0111 23:22:53.846174  7366 net.cpp:165] Memory required for data: 2028000084
I0111 23:22:53.846196  7366 layer_factory.hpp:77] Creating layer res3d
I0111 23:22:53.846206  7366 net.cpp:100] Creating Layer res3d
I0111 23:22:53.846213  7366 net.cpp:444] res3d <- res3c_res3c_relu_0_split_1
I0111 23:22:53.846222  7366 net.cpp:444] res3d <- res3d_branch2c
I0111 23:22:53.846231  7366 net.cpp:418] res3d -> res3d
I0111 23:22:53.846269  7366 net.cpp:150] Setting up res3d
I0111 23:22:53.846279  7366 net.cpp:157] Top shape: 1 512 75 125 (4800000)
I0111 23:22:53.846287  7366 net.cpp:165] Memory required for data: 2047200084
I0111 23:22:53.846292  7366 layer_factory.hpp:77] Creating layer res3d_relu
I0111 23:22:53.846300  7366 net.cpp:100] Creating Layer res3d_relu
I0111 23:22:53.846307  7366 net.cpp:444] res3d_relu <- res3d
I0111 23:22:53.846328  7366 net.cpp:405] res3d_relu -> res3d (in-place)
I0111 23:22:53.846499  7366 net.cpp:150] Setting up res3d_relu
I0111 23:22:53.846511  7366 net.cpp:157] Top shape: 1 512 75 125 (4800000)
I0111 23:22:53.846518  7366 net.cpp:165] Memory required for data: 2066400084
I0111 23:22:53.846539  7366 layer_factory.hpp:77] Creating layer res3d_res3d_relu_0_split
I0111 23:22:53.846547  7366 net.cpp:100] Creating Layer res3d_res3d_relu_0_split
I0111 23:22:53.846555  7366 net.cpp:444] res3d_res3d_relu_0_split <- res3d
I0111 23:22:53.846577  7366 net.cpp:418] res3d_res3d_relu_0_split -> res3d_res3d_relu_0_split_0
I0111 23:22:53.846591  7366 net.cpp:418] res3d_res3d_relu_0_split -> res3d_res3d_relu_0_split_1
I0111 23:22:53.846631  7366 net.cpp:150] Setting up res3d_res3d_relu_0_split
I0111 23:22:53.846640  7366 net.cpp:157] Top shape: 1 512 75 125 (4800000)
I0111 23:22:53.846647  7366 net.cpp:157] Top shape: 1 512 75 125 (4800000)
I0111 23:22:53.846654  7366 net.cpp:165] Memory required for data: 2104800084
I0111 23:22:53.846660  7366 layer_factory.hpp:77] Creating layer res4a_branch1
I0111 23:22:53.846670  7366 net.cpp:100] Creating Layer res4a_branch1
I0111 23:22:53.846678  7366 net.cpp:444] res4a_branch1 <- res3d_res3d_relu_0_split_0
I0111 23:22:53.846688  7366 net.cpp:418] res4a_branch1 -> res4a_branch1
I0111 23:22:53.848436  7366 net.cpp:150] Setting up res4a_branch1
I0111 23:22:53.848460  7366 net.cpp:157] Top shape: 1 1024 38 63 (2451456)
I0111 23:22:53.848469  7366 net.cpp:165] Memory required for data: 2114605908
I0111 23:22:53.848479  7366 layer_factory.hpp:77] Creating layer bn4a_branch1
I0111 23:22:53.848490  7366 net.cpp:100] Creating Layer bn4a_branch1
I0111 23:22:53.848498  7366 net.cpp:444] bn4a_branch1 <- res4a_branch1
I0111 23:22:53.848508  7366 net.cpp:405] bn4a_branch1 -> res4a_branch1 (in-place)
I0111 23:22:53.848662  7366 net.cpp:150] Setting up bn4a_branch1
I0111 23:22:53.848673  7366 net.cpp:157] Top shape: 1 1024 38 63 (2451456)
I0111 23:22:53.848680  7366 net.cpp:165] Memory required for data: 2124411732
I0111 23:22:53.848691  7366 layer_factory.hpp:77] Creating layer scale4a_branch1
I0111 23:22:53.848701  7366 net.cpp:100] Creating Layer scale4a_branch1
I0111 23:22:53.848708  7366 net.cpp:444] scale4a_branch1 <- res4a_branch1
I0111 23:22:53.848717  7366 net.cpp:405] scale4a_branch1 -> res4a_branch1 (in-place)
I0111 23:22:53.848753  7366 layer_factory.hpp:77] Creating layer scale4a_branch1
I0111 23:22:53.848882  7366 net.cpp:150] Setting up scale4a_branch1
I0111 23:22:53.848907  7366 net.cpp:157] Top shape: 1 1024 38 63 (2451456)
I0111 23:22:53.848928  7366 net.cpp:165] Memory required for data: 2134217556
I0111 23:22:53.848951  7366 layer_factory.hpp:77] Creating layer res4a_branch2a
I0111 23:22:53.848963  7366 net.cpp:100] Creating Layer res4a_branch2a
I0111 23:22:53.848970  7366 net.cpp:444] res4a_branch2a <- res3d_res3d_relu_0_split_1
I0111 23:22:53.848979  7366 net.cpp:418] res4a_branch2a -> res4a_branch2a
I0111 23:22:53.850744  7366 net.cpp:150] Setting up res4a_branch2a
I0111 23:22:53.850774  7366 net.cpp:157] Top shape: 1 256 38 63 (612864)
I0111 23:22:53.850781  7366 net.cpp:165] Memory required for data: 2136669012
I0111 23:22:53.850791  7366 layer_factory.hpp:77] Creating layer bn4a_branch2a
I0111 23:22:53.850821  7366 net.cpp:100] Creating Layer bn4a_branch2a
I0111 23:22:53.850842  7366 net.cpp:444] bn4a_branch2a <- res4a_branch2a
I0111 23:22:53.850853  7366 net.cpp:405] bn4a_branch2a -> res4a_branch2a (in-place)
I0111 23:22:53.851068  7366 net.cpp:150] Setting up bn4a_branch2a
I0111 23:22:53.851080  7366 net.cpp:157] Top shape: 1 256 38 63 (612864)
I0111 23:22:53.851086  7366 net.cpp:165] Memory required for data: 2139120468
I0111 23:22:53.851111  7366 layer_factory.hpp:77] Creating layer scale4a_branch2a
I0111 23:22:53.851133  7366 net.cpp:100] Creating Layer scale4a_branch2a
I0111 23:22:53.851141  7366 net.cpp:444] scale4a_branch2a <- res4a_branch2a
I0111 23:22:53.851150  7366 net.cpp:405] scale4a_branch2a -> res4a_branch2a (in-place)
I0111 23:22:53.851200  7366 layer_factory.hpp:77] Creating layer scale4a_branch2a
I0111 23:22:53.851347  7366 net.cpp:150] Setting up scale4a_branch2a
I0111 23:22:53.851358  7366 net.cpp:157] Top shape: 1 256 38 63 (612864)
I0111 23:22:53.851364  7366 net.cpp:165] Memory required for data: 2141571924
I0111 23:22:53.851387  7366 layer_factory.hpp:77] Creating layer res4a_branch2a_relu
I0111 23:22:53.851397  7366 net.cpp:100] Creating Layer res4a_branch2a_relu
I0111 23:22:53.851405  7366 net.cpp:444] res4a_branch2a_relu <- res4a_branch2a
I0111 23:22:53.851413  7366 net.cpp:405] res4a_branch2a_relu -> res4a_branch2a (in-place)
I0111 23:22:53.851595  7366 net.cpp:150] Setting up res4a_branch2a_relu
I0111 23:22:53.851614  7366 net.cpp:157] Top shape: 1 256 38 63 (612864)
I0111 23:22:53.851636  7366 net.cpp:165] Memory required for data: 2144023380
I0111 23:22:53.851673  7366 layer_factory.hpp:77] Creating layer res4a_branch2b
I0111 23:22:53.851697  7366 net.cpp:100] Creating Layer res4a_branch2b
I0111 23:22:53.851718  7366 net.cpp:444] res4a_branch2b <- res4a_branch2a
I0111 23:22:53.851728  7366 net.cpp:418] res4a_branch2b -> res4a_branch2b
I0111 23:22:53.853790  7366 net.cpp:150] Setting up res4a_branch2b
I0111 23:22:53.853816  7366 net.cpp:157] Top shape: 1 256 38 63 (612864)
I0111 23:22:53.853837  7366 net.cpp:165] Memory required for data: 2146474836
I0111 23:22:53.853862  7366 layer_factory.hpp:77] Creating layer bn4a_branch2b
I0111 23:22:53.853873  7366 net.cpp:100] Creating Layer bn4a_branch2b
I0111 23:22:53.853881  7366 net.cpp:444] bn4a_branch2b <- res4a_branch2b
I0111 23:22:53.853891  7366 net.cpp:405] bn4a_branch2b -> res4a_branch2b (in-place)
I0111 23:22:53.854063  7366 net.cpp:150] Setting up bn4a_branch2b
I0111 23:22:53.854074  7366 net.cpp:157] Top shape: 1 256 38 63 (612864)
I0111 23:22:53.854079  7366 net.cpp:165] Memory required for data: 2148926292
I0111 23:22:53.854102  7366 layer_factory.hpp:77] Creating layer scale4a_branch2b
I0111 23:22:53.854112  7366 net.cpp:100] Creating Layer scale4a_branch2b
I0111 23:22:53.854120  7366 net.cpp:444] scale4a_branch2b <- res4a_branch2b
I0111 23:22:53.854130  7366 net.cpp:405] scale4a_branch2b -> res4a_branch2b (in-place)
I0111 23:22:53.854180  7366 layer_factory.hpp:77] Creating layer scale4a_branch2b
I0111 23:22:53.854276  7366 net.cpp:150] Setting up scale4a_branch2b
I0111 23:22:53.854287  7366 net.cpp:157] Top shape: 1 256 38 63 (612864)
I0111 23:22:53.854295  7366 net.cpp:165] Memory required for data: 2151377748
I0111 23:22:53.854303  7366 layer_factory.hpp:77] Creating layer res4a_branch2b_relu
I0111 23:22:53.854312  7366 net.cpp:100] Creating Layer res4a_branch2b_relu
I0111 23:22:53.854321  7366 net.cpp:444] res4a_branch2b_relu <- res4a_branch2b
I0111 23:22:53.854329  7366 net.cpp:405] res4a_branch2b_relu -> res4a_branch2b (in-place)
I0111 23:22:53.854475  7366 net.cpp:150] Setting up res4a_branch2b_relu
I0111 23:22:53.854488  7366 net.cpp:157] Top shape: 1 256 38 63 (612864)
I0111 23:22:53.854496  7366 net.cpp:165] Memory required for data: 2153829204
I0111 23:22:53.854503  7366 layer_factory.hpp:77] Creating layer res4a_branch2c
I0111 23:22:53.854514  7366 net.cpp:100] Creating Layer res4a_branch2c
I0111 23:22:53.854522  7366 net.cpp:444] res4a_branch2c <- res4a_branch2b
I0111 23:22:53.854532  7366 net.cpp:418] res4a_branch2c -> res4a_branch2c
I0111 23:22:53.855599  7366 net.cpp:150] Setting up res4a_branch2c
I0111 23:22:53.855618  7366 net.cpp:157] Top shape: 1 1024 38 63 (2451456)
I0111 23:22:53.855626  7366 net.cpp:165] Memory required for data: 2163635028
I0111 23:22:53.855635  7366 layer_factory.hpp:77] Creating layer bn4a_branch2c
I0111 23:22:53.855676  7366 net.cpp:100] Creating Layer bn4a_branch2c
I0111 23:22:53.855685  7366 net.cpp:444] bn4a_branch2c <- res4a_branch2c
I0111 23:22:53.855707  7366 net.cpp:405] bn4a_branch2c -> res4a_branch2c (in-place)
I0111 23:22:53.855870  7366 net.cpp:150] Setting up bn4a_branch2c
I0111 23:22:53.855880  7366 net.cpp:157] Top shape: 1 1024 38 63 (2451456)
I0111 23:22:53.855887  7366 net.cpp:165] Memory required for data: 2173440852
I0111 23:22:53.855897  7366 layer_factory.hpp:77] Creating layer scale4a_branch2c
I0111 23:22:53.855906  7366 net.cpp:100] Creating Layer scale4a_branch2c
I0111 23:22:53.855914  7366 net.cpp:444] scale4a_branch2c <- res4a_branch2c
I0111 23:22:53.855923  7366 net.cpp:405] scale4a_branch2c -> res4a_branch2c (in-place)
I0111 23:22:53.855959  7366 layer_factory.hpp:77] Creating layer scale4a_branch2c
I0111 23:22:53.856057  7366 net.cpp:150] Setting up scale4a_branch2c
I0111 23:22:53.856070  7366 net.cpp:157] Top shape: 1 1024 38 63 (2451456)
I0111 23:22:53.856076  7366 net.cpp:165] Memory required for data: 2183246676
I0111 23:22:53.856086  7366 layer_factory.hpp:77] Creating layer res4a
I0111 23:22:53.856101  7366 net.cpp:100] Creating Layer res4a
I0111 23:22:53.856111  7366 net.cpp:444] res4a <- res4a_branch1
I0111 23:22:53.856118  7366 net.cpp:444] res4a <- res4a_branch2c
I0111 23:22:53.856127  7366 net.cpp:418] res4a -> res4a
I0111 23:22:53.856154  7366 net.cpp:150] Setting up res4a
I0111 23:22:53.856164  7366 net.cpp:157] Top shape: 1 1024 38 63 (2451456)
I0111 23:22:53.856171  7366 net.cpp:165] Memory required for data: 2193052500
I0111 23:22:53.856179  7366 layer_factory.hpp:77] Creating layer res4a_relu
I0111 23:22:53.856187  7366 net.cpp:100] Creating Layer res4a_relu
I0111 23:22:53.856195  7366 net.cpp:444] res4a_relu <- res4a
I0111 23:22:53.856204  7366 net.cpp:405] res4a_relu -> res4a (in-place)
I0111 23:22:53.856350  7366 net.cpp:150] Setting up res4a_relu
I0111 23:22:53.856364  7366 net.cpp:157] Top shape: 1 1024 38 63 (2451456)
I0111 23:22:53.856371  7366 net.cpp:165] Memory required for data: 2202858324
I0111 23:22:53.856379  7366 layer_factory.hpp:77] Creating layer res4a_res4a_relu_0_split
I0111 23:22:53.856387  7366 net.cpp:100] Creating Layer res4a_res4a_relu_0_split
I0111 23:22:53.856395  7366 net.cpp:444] res4a_res4a_relu_0_split <- res4a
I0111 23:22:53.856405  7366 net.cpp:418] res4a_res4a_relu_0_split -> res4a_res4a_relu_0_split_0
I0111 23:22:53.856415  7366 net.cpp:418] res4a_res4a_relu_0_split -> res4a_res4a_relu_0_split_1
I0111 23:22:53.856454  7366 net.cpp:150] Setting up res4a_res4a_relu_0_split
I0111 23:22:53.856464  7366 net.cpp:157] Top shape: 1 1024 38 63 (2451456)
I0111 23:22:53.856472  7366 net.cpp:157] Top shape: 1 1024 38 63 (2451456)
I0111 23:22:53.856479  7366 net.cpp:165] Memory required for data: 2222469972
I0111 23:22:53.856487  7366 layer_factory.hpp:77] Creating layer res4b_branch2a
I0111 23:22:53.856497  7366 net.cpp:100] Creating Layer res4b_branch2a
I0111 23:22:53.856504  7366 net.cpp:444] res4b_branch2a <- res4a_res4a_relu_0_split_0
I0111 23:22:53.856513  7366 net.cpp:418] res4b_branch2a -> res4b_branch2a
I0111 23:22:53.858274  7366 net.cpp:150] Setting up res4b_branch2a
I0111 23:22:53.858304  7366 net.cpp:157] Top shape: 1 256 38 63 (612864)
I0111 23:22:53.858326  7366 net.cpp:165] Memory required for data: 2224921428
I0111 23:22:53.858338  7366 layer_factory.hpp:77] Creating layer bn4b_branch2a
I0111 23:22:53.858351  7366 net.cpp:100] Creating Layer bn4b_branch2a
I0111 23:22:53.858361  7366 net.cpp:444] bn4b_branch2a <- res4b_branch2a
I0111 23:22:53.858383  7366 net.cpp:405] bn4b_branch2a -> res4b_branch2a (in-place)
I0111 23:22:53.858556  7366 net.cpp:150] Setting up bn4b_branch2a
I0111 23:22:53.858566  7366 net.cpp:157] Top shape: 1 256 38 63 (612864)
I0111 23:22:53.858572  7366 net.cpp:165] Memory required for data: 2227372884
I0111 23:22:53.858595  7366 layer_factory.hpp:77] Creating layer scale4b_branch2a
I0111 23:22:53.858605  7366 net.cpp:100] Creating Layer scale4b_branch2a
I0111 23:22:53.858613  7366 net.cpp:444] scale4b_branch2a <- res4b_branch2a
I0111 23:22:53.858623  7366 net.cpp:405] scale4b_branch2a -> res4b_branch2a (in-place)
I0111 23:22:53.858675  7366 layer_factory.hpp:77] Creating layer scale4b_branch2a
I0111 23:22:53.858783  7366 net.cpp:150] Setting up scale4b_branch2a
I0111 23:22:53.858794  7366 net.cpp:157] Top shape: 1 256 38 63 (612864)
I0111 23:22:53.858801  7366 net.cpp:165] Memory required for data: 2229824340
I0111 23:22:53.858810  7366 layer_factory.hpp:77] Creating layer res4b_branch2a_relu
I0111 23:22:53.858820  7366 net.cpp:100] Creating Layer res4b_branch2a_relu
I0111 23:22:53.858827  7366 net.cpp:444] res4b_branch2a_relu <- res4b_branch2a
I0111 23:22:53.858853  7366 net.cpp:405] res4b_branch2a_relu -> res4b_branch2a (in-place)
I0111 23:22:53.859005  7366 net.cpp:150] Setting up res4b_branch2a_relu
I0111 23:22:53.859017  7366 net.cpp:157] Top shape: 1 256 38 63 (612864)
I0111 23:22:53.859025  7366 net.cpp:165] Memory required for data: 2232275796
I0111 23:22:53.859031  7366 layer_factory.hpp:77] Creating layer res4b_branch2b
I0111 23:22:53.859043  7366 net.cpp:100] Creating Layer res4b_branch2b
I0111 23:22:53.859057  7366 net.cpp:444] res4b_branch2b <- res4b_branch2a
I0111 23:22:53.859067  7366 net.cpp:418] res4b_branch2b -> res4b_branch2b
I0111 23:22:53.861798  7366 net.cpp:150] Setting up res4b_branch2b
I0111 23:22:53.861848  7366 net.cpp:157] Top shape: 1 256 38 63 (612864)
I0111 23:22:53.861858  7366 net.cpp:165] Memory required for data: 2234727252
I0111 23:22:53.861872  7366 layer_factory.hpp:77] Creating layer bn4b_branch2b
I0111 23:22:53.861898  7366 net.cpp:100] Creating Layer bn4b_branch2b
I0111 23:22:53.861908  7366 net.cpp:444] bn4b_branch2b <- res4b_branch2b
I0111 23:22:53.861919  7366 net.cpp:405] bn4b_branch2b -> res4b_branch2b (in-place)
I0111 23:22:53.862109  7366 net.cpp:150] Setting up bn4b_branch2b
I0111 23:22:53.862120  7366 net.cpp:157] Top shape: 1 256 38 63 (612864)
I0111 23:22:53.862128  7366 net.cpp:165] Memory required for data: 2237178708
I0111 23:22:53.862152  7366 layer_factory.hpp:77] Creating layer scale4b_branch2b
I0111 23:22:53.862164  7366 net.cpp:100] Creating Layer scale4b_branch2b
I0111 23:22:53.862171  7366 net.cpp:444] scale4b_branch2b <- res4b_branch2b
I0111 23:22:53.862193  7366 net.cpp:405] scale4b_branch2b -> res4b_branch2b (in-place)
I0111 23:22:53.862234  7366 layer_factory.hpp:77] Creating layer scale4b_branch2b
I0111 23:22:53.862387  7366 net.cpp:150] Setting up scale4b_branch2b
I0111 23:22:53.862398  7366 net.cpp:157] Top shape: 1 256 38 63 (612864)
I0111 23:22:53.862406  7366 net.cpp:165] Memory required for data: 2239630164
I0111 23:22:53.862428  7366 layer_factory.hpp:77] Creating layer res4b_branch2b_relu
I0111 23:22:53.862438  7366 net.cpp:100] Creating Layer res4b_branch2b_relu
I0111 23:22:53.862458  7366 net.cpp:444] res4b_branch2b_relu <- res4b_branch2b
I0111 23:22:53.862468  7366 net.cpp:405] res4b_branch2b_relu -> res4b_branch2b (in-place)
I0111 23:22:53.862954  7366 net.cpp:150] Setting up res4b_branch2b_relu
I0111 23:22:53.862972  7366 net.cpp:157] Top shape: 1 256 38 63 (612864)
I0111 23:22:53.862993  7366 net.cpp:165] Memory required for data: 2242081620
I0111 23:22:53.863015  7366 layer_factory.hpp:77] Creating layer res4b_branch2c
I0111 23:22:53.863029  7366 net.cpp:100] Creating Layer res4b_branch2c
I0111 23:22:53.863037  7366 net.cpp:444] res4b_branch2c <- res4b_branch2b
I0111 23:22:53.863047  7366 net.cpp:418] res4b_branch2c -> res4b_branch2c
I0111 23:22:53.864099  7366 net.cpp:150] Setting up res4b_branch2c
I0111 23:22:53.864120  7366 net.cpp:157] Top shape: 1 1024 38 63 (2451456)
I0111 23:22:53.864141  7366 net.cpp:165] Memory required for data: 2251887444
I0111 23:22:53.864151  7366 layer_factory.hpp:77] Creating layer bn4b_branch2c
I0111 23:22:53.864164  7366 net.cpp:100] Creating Layer bn4b_branch2c
I0111 23:22:53.864186  7366 net.cpp:444] bn4b_branch2c <- res4b_branch2c
I0111 23:22:53.864195  7366 net.cpp:405] bn4b_branch2c -> res4b_branch2c (in-place)
I0111 23:22:53.864392  7366 net.cpp:150] Setting up bn4b_branch2c
I0111 23:22:53.864403  7366 net.cpp:157] Top shape: 1 1024 38 63 (2451456)
I0111 23:22:53.864410  7366 net.cpp:165] Memory required for data: 2261693268
I0111 23:22:53.864434  7366 layer_factory.hpp:77] Creating layer scale4b_branch2c
I0111 23:22:53.864445  7366 net.cpp:100] Creating Layer scale4b_branch2c
I0111 23:22:53.864454  7366 net.cpp:444] scale4b_branch2c <- res4b_branch2c
I0111 23:22:53.864462  7366 net.cpp:405] scale4b_branch2c -> res4b_branch2c (in-place)
I0111 23:22:53.864514  7366 layer_factory.hpp:77] Creating layer scale4b_branch2c
I0111 23:22:53.864646  7366 net.cpp:150] Setting up scale4b_branch2c
I0111 23:22:53.864657  7366 net.cpp:157] Top shape: 1 1024 38 63 (2451456)
I0111 23:22:53.864676  7366 net.cpp:165] Memory required for data: 2271499092
I0111 23:22:53.864702  7366 layer_factory.hpp:77] Creating layer res4b
I0111 23:22:53.864725  7366 net.cpp:100] Creating Layer res4b
I0111 23:22:53.864734  7366 net.cpp:444] res4b <- res4a_res4a_relu_0_split_1
I0111 23:22:53.864743  7366 net.cpp:444] res4b <- res4b_branch2c
I0111 23:22:53.864753  7366 net.cpp:418] res4b -> res4b
I0111 23:22:53.864781  7366 net.cpp:150] Setting up res4b
I0111 23:22:53.864800  7366 net.cpp:157] Top shape: 1 1024 38 63 (2451456)
I0111 23:22:53.864807  7366 net.cpp:165] Memory required for data: 2281304916
I0111 23:22:53.864814  7366 layer_factory.hpp:77] Creating layer res4b_relu
I0111 23:22:53.864823  7366 net.cpp:100] Creating Layer res4b_relu
I0111 23:22:53.864845  7366 net.cpp:444] res4b_relu <- res4b
I0111 23:22:53.864852  7366 net.cpp:405] res4b_relu -> res4b (in-place)
I0111 23:22:53.865329  7366 net.cpp:150] Setting up res4b_relu
I0111 23:22:53.865345  7366 net.cpp:157] Top shape: 1 1024 38 63 (2451456)
I0111 23:22:53.865352  7366 net.cpp:165] Memory required for data: 2291110740
I0111 23:22:53.865375  7366 layer_factory.hpp:77] Creating layer res4b_res4b_relu_0_split
I0111 23:22:53.865384  7366 net.cpp:100] Creating Layer res4b_res4b_relu_0_split
I0111 23:22:53.865392  7366 net.cpp:444] res4b_res4b_relu_0_split <- res4b
I0111 23:22:53.865416  7366 net.cpp:418] res4b_res4b_relu_0_split -> res4b_res4b_relu_0_split_0
I0111 23:22:53.865442  7366 net.cpp:418] res4b_res4b_relu_0_split -> res4b_res4b_relu_0_split_1
I0111 23:22:53.865499  7366 net.cpp:150] Setting up res4b_res4b_relu_0_split
I0111 23:22:53.865510  7366 net.cpp:157] Top shape: 1 1024 38 63 (2451456)
I0111 23:22:53.865519  7366 net.cpp:157] Top shape: 1 1024 38 63 (2451456)
I0111 23:22:53.865525  7366 net.cpp:165] Memory required for data: 2310722388
I0111 23:22:53.865531  7366 layer_factory.hpp:77] Creating layer res4c_branch2a
I0111 23:22:53.865543  7366 net.cpp:100] Creating Layer res4c_branch2a
I0111 23:22:53.865564  7366 net.cpp:444] res4c_branch2a <- res4b_res4b_relu_0_split_0
I0111 23:22:53.865573  7366 net.cpp:418] res4c_branch2a -> res4c_branch2a
I0111 23:22:53.867305  7366 net.cpp:150] Setting up res4c_branch2a
I0111 23:22:53.867362  7366 net.cpp:157] Top shape: 1 256 38 63 (612864)
I0111 23:22:53.867372  7366 net.cpp:165] Memory required for data: 2313173844
I0111 23:22:53.867383  7366 layer_factory.hpp:77] Creating layer bn4c_branch2a
I0111 23:22:53.867396  7366 net.cpp:100] Creating Layer bn4c_branch2a
I0111 23:22:53.867405  7366 net.cpp:444] bn4c_branch2a <- res4c_branch2a
I0111 23:22:53.867415  7366 net.cpp:405] bn4c_branch2a -> res4c_branch2a (in-place)
I0111 23:22:53.867599  7366 net.cpp:150] Setting up bn4c_branch2a
I0111 23:22:53.867609  7366 net.cpp:157] Top shape: 1 256 38 63 (612864)
I0111 23:22:53.867615  7366 net.cpp:165] Memory required for data: 2315625300
I0111 23:22:53.867625  7366 layer_factory.hpp:77] Creating layer scale4c_branch2a
I0111 23:22:53.867635  7366 net.cpp:100] Creating Layer scale4c_branch2a
I0111 23:22:53.867686  7366 net.cpp:444] scale4c_branch2a <- res4c_branch2a
I0111 23:22:53.867697  7366 net.cpp:405] scale4c_branch2a -> res4c_branch2a (in-place)
I0111 23:22:53.867765  7366 layer_factory.hpp:77] Creating layer scale4c_branch2a
I0111 23:22:53.867908  7366 net.cpp:150] Setting up scale4c_branch2a
I0111 23:22:53.867918  7366 net.cpp:157] Top shape: 1 256 38 63 (612864)
I0111 23:22:53.867925  7366 net.cpp:165] Memory required for data: 2318076756
I0111 23:22:53.867934  7366 layer_factory.hpp:77] Creating layer res4c_branch2a_relu
I0111 23:22:53.867943  7366 net.cpp:100] Creating Layer res4c_branch2a_relu
I0111 23:22:53.867950  7366 net.cpp:444] res4c_branch2a_relu <- res4c_branch2a
I0111 23:22:53.867959  7366 net.cpp:405] res4c_branch2a_relu -> res4c_branch2a (in-place)
I0111 23:22:53.868105  7366 net.cpp:150] Setting up res4c_branch2a_relu
I0111 23:22:53.868119  7366 net.cpp:157] Top shape: 1 256 38 63 (612864)
I0111 23:22:53.868124  7366 net.cpp:165] Memory required for data: 2320528212
I0111 23:22:53.868131  7366 layer_factory.hpp:77] Creating layer res4c_branch2b
I0111 23:22:53.868141  7366 net.cpp:100] Creating Layer res4c_branch2b
I0111 23:22:53.868150  7366 net.cpp:444] res4c_branch2b <- res4c_branch2a
I0111 23:22:53.868160  7366 net.cpp:418] res4c_branch2b -> res4c_branch2b
I0111 23:22:53.870362  7366 net.cpp:150] Setting up res4c_branch2b
I0111 23:22:53.870391  7366 net.cpp:157] Top shape: 1 256 38 63 (612864)
I0111 23:22:53.870414  7366 net.cpp:165] Memory required for data: 2322979668
I0111 23:22:53.870434  7366 layer_factory.hpp:77] Creating layer bn4c_branch2b
I0111 23:22:53.870460  7366 net.cpp:100] Creating Layer bn4c_branch2b
I0111 23:22:53.870470  7366 net.cpp:444] bn4c_branch2b <- res4c_branch2b
I0111 23:22:53.870481  7366 net.cpp:405] bn4c_branch2b -> res4c_branch2b (in-place)
I0111 23:22:53.870658  7366 net.cpp:150] Setting up bn4c_branch2b
I0111 23:22:53.870669  7366 net.cpp:157] Top shape: 1 256 38 63 (612864)
I0111 23:22:53.870676  7366 net.cpp:165] Memory required for data: 2325431124
I0111 23:22:53.870687  7366 layer_factory.hpp:77] Creating layer scale4c_branch2b
I0111 23:22:53.870695  7366 net.cpp:100] Creating Layer scale4c_branch2b
I0111 23:22:53.870703  7366 net.cpp:444] scale4c_branch2b <- res4c_branch2b
I0111 23:22:53.870712  7366 net.cpp:405] scale4c_branch2b -> res4c_branch2b (in-place)
I0111 23:22:53.870753  7366 layer_factory.hpp:77] Creating layer scale4c_branch2b
I0111 23:22:53.870854  7366 net.cpp:150] Setting up scale4c_branch2b
I0111 23:22:53.870865  7366 net.cpp:157] Top shape: 1 256 38 63 (612864)
I0111 23:22:53.870872  7366 net.cpp:165] Memory required for data: 2327882580
I0111 23:22:53.870879  7366 layer_factory.hpp:77] Creating layer res4c_branch2b_relu
I0111 23:22:53.870888  7366 net.cpp:100] Creating Layer res4c_branch2b_relu
I0111 23:22:53.870895  7366 net.cpp:444] res4c_branch2b_relu <- res4c_branch2b
I0111 23:22:53.870904  7366 net.cpp:405] res4c_branch2b_relu -> res4c_branch2b (in-place)
I0111 23:22:53.871057  7366 net.cpp:150] Setting up res4c_branch2b_relu
I0111 23:22:53.871069  7366 net.cpp:157] Top shape: 1 256 38 63 (612864)
I0111 23:22:53.871076  7366 net.cpp:165] Memory required for data: 2330334036
I0111 23:22:53.871083  7366 layer_factory.hpp:77] Creating layer res4c_branch2c
I0111 23:22:53.871094  7366 net.cpp:100] Creating Layer res4c_branch2c
I0111 23:22:53.871103  7366 net.cpp:444] res4c_branch2c <- res4c_branch2b
I0111 23:22:53.871111  7366 net.cpp:418] res4c_branch2c -> res4c_branch2c
I0111 23:22:53.872170  7366 net.cpp:150] Setting up res4c_branch2c
I0111 23:22:53.872189  7366 net.cpp:157] Top shape: 1 1024 38 63 (2451456)
I0111 23:22:53.872196  7366 net.cpp:165] Memory required for data: 2340139860
I0111 23:22:53.872205  7366 layer_factory.hpp:77] Creating layer bn4c_branch2c
I0111 23:22:53.872215  7366 net.cpp:100] Creating Layer bn4c_branch2c
I0111 23:22:53.872222  7366 net.cpp:444] bn4c_branch2c <- res4c_branch2c
I0111 23:22:53.872232  7366 net.cpp:405] bn4c_branch2c -> res4c_branch2c (in-place)
I0111 23:22:53.872401  7366 net.cpp:150] Setting up bn4c_branch2c
I0111 23:22:53.872412  7366 net.cpp:157] Top shape: 1 1024 38 63 (2451456)
I0111 23:22:53.872418  7366 net.cpp:165] Memory required for data: 2349945684
I0111 23:22:53.872427  7366 layer_factory.hpp:77] Creating layer scale4c_branch2c
I0111 23:22:53.872437  7366 net.cpp:100] Creating Layer scale4c_branch2c
I0111 23:22:53.872444  7366 net.cpp:444] scale4c_branch2c <- res4c_branch2c
I0111 23:22:53.872453  7366 net.cpp:405] scale4c_branch2c -> res4c_branch2c (in-place)
I0111 23:22:53.872490  7366 layer_factory.hpp:77] Creating layer scale4c_branch2c
I0111 23:22:53.872596  7366 net.cpp:150] Setting up scale4c_branch2c
I0111 23:22:53.872606  7366 net.cpp:157] Top shape: 1 1024 38 63 (2451456)
I0111 23:22:53.872612  7366 net.cpp:165] Memory required for data: 2359751508
I0111 23:22:53.872620  7366 layer_factory.hpp:77] Creating layer res4c
I0111 23:22:53.872629  7366 net.cpp:100] Creating Layer res4c
I0111 23:22:53.872637  7366 net.cpp:444] res4c <- res4b_res4b_relu_0_split_1
I0111 23:22:53.872647  7366 net.cpp:444] res4c <- res4c_branch2c
I0111 23:22:53.872654  7366 net.cpp:418] res4c -> res4c
I0111 23:22:53.872683  7366 net.cpp:150] Setting up res4c
I0111 23:22:53.872692  7366 net.cpp:157] Top shape: 1 1024 38 63 (2451456)
I0111 23:22:53.872699  7366 net.cpp:165] Memory required for data: 2369557332
I0111 23:22:53.872705  7366 layer_factory.hpp:77] Creating layer res4c_relu
I0111 23:22:53.872712  7366 net.cpp:100] Creating Layer res4c_relu
I0111 23:22:53.872723  7366 net.cpp:444] res4c_relu <- res4c
I0111 23:22:53.872732  7366 net.cpp:405] res4c_relu -> res4c (in-place)
I0111 23:22:53.872882  7366 net.cpp:150] Setting up res4c_relu
I0111 23:22:53.872895  7366 net.cpp:157] Top shape: 1 1024 38 63 (2451456)
I0111 23:22:53.872900  7366 net.cpp:165] Memory required for data: 2379363156
I0111 23:22:53.872907  7366 layer_factory.hpp:77] Creating layer res4c_res4c_relu_0_split
I0111 23:22:53.872915  7366 net.cpp:100] Creating Layer res4c_res4c_relu_0_split
I0111 23:22:53.872923  7366 net.cpp:444] res4c_res4c_relu_0_split <- res4c
I0111 23:22:53.872932  7366 net.cpp:418] res4c_res4c_relu_0_split -> res4c_res4c_relu_0_split_0
I0111 23:22:53.872943  7366 net.cpp:418] res4c_res4c_relu_0_split -> res4c_res4c_relu_0_split_1
I0111 23:22:53.872983  7366 net.cpp:150] Setting up res4c_res4c_relu_0_split
I0111 23:22:53.872993  7366 net.cpp:157] Top shape: 1 1024 38 63 (2451456)
I0111 23:22:53.873000  7366 net.cpp:157] Top shape: 1 1024 38 63 (2451456)
I0111 23:22:53.873008  7366 net.cpp:165] Memory required for data: 2398974804
I0111 23:22:53.873013  7366 layer_factory.hpp:77] Creating layer res4d_branch2a
I0111 23:22:53.873023  7366 net.cpp:100] Creating Layer res4d_branch2a
I0111 23:22:53.873031  7366 net.cpp:444] res4d_branch2a <- res4c_res4c_relu_0_split_0
I0111 23:22:53.873041  7366 net.cpp:418] res4d_branch2a -> res4d_branch2a
I0111 23:22:53.874631  7366 net.cpp:150] Setting up res4d_branch2a
I0111 23:22:53.874652  7366 net.cpp:157] Top shape: 1 256 38 63 (612864)
I0111 23:22:53.874660  7366 net.cpp:165] Memory required for data: 2401426260
I0111 23:22:53.874670  7366 layer_factory.hpp:77] Creating layer bn4d_branch2a
I0111 23:22:53.874681  7366 net.cpp:100] Creating Layer bn4d_branch2a
I0111 23:22:53.874689  7366 net.cpp:444] bn4d_branch2a <- res4d_branch2a
I0111 23:22:53.874698  7366 net.cpp:405] bn4d_branch2a -> res4d_branch2a (in-place)
I0111 23:22:53.874864  7366 net.cpp:150] Setting up bn4d_branch2a
I0111 23:22:53.874876  7366 net.cpp:157] Top shape: 1 256 38 63 (612864)
I0111 23:22:53.874881  7366 net.cpp:165] Memory required for data: 2403877716
I0111 23:22:53.874891  7366 layer_factory.hpp:77] Creating layer scale4d_branch2a
I0111 23:22:53.874899  7366 net.cpp:100] Creating Layer scale4d_branch2a
I0111 23:22:53.874907  7366 net.cpp:444] scale4d_branch2a <- res4d_branch2a
I0111 23:22:53.874915  7366 net.cpp:405] scale4d_branch2a -> res4d_branch2a (in-place)
I0111 23:22:53.874954  7366 layer_factory.hpp:77] Creating layer scale4d_branch2a
I0111 23:22:53.875056  7366 net.cpp:150] Setting up scale4d_branch2a
I0111 23:22:53.875066  7366 net.cpp:157] Top shape: 1 256 38 63 (612864)
I0111 23:22:53.875072  7366 net.cpp:165] Memory required for data: 2406329172
I0111 23:22:53.875082  7366 layer_factory.hpp:77] Creating layer res4d_branch2a_relu
I0111 23:22:53.875089  7366 net.cpp:100] Creating Layer res4d_branch2a_relu
I0111 23:22:53.875097  7366 net.cpp:444] res4d_branch2a_relu <- res4d_branch2a
I0111 23:22:53.875105  7366 net.cpp:405] res4d_branch2a_relu -> res4d_branch2a (in-place)
I0111 23:22:53.875248  7366 net.cpp:150] Setting up res4d_branch2a_relu
I0111 23:22:53.875260  7366 net.cpp:157] Top shape: 1 256 38 63 (612864)
I0111 23:22:53.875267  7366 net.cpp:165] Memory required for data: 2408780628
I0111 23:22:53.875273  7366 layer_factory.hpp:77] Creating layer res4d_branch2b
I0111 23:22:53.875283  7366 net.cpp:100] Creating Layer res4d_branch2b
I0111 23:22:53.875291  7366 net.cpp:444] res4d_branch2b <- res4d_branch2a
I0111 23:22:53.875300  7366 net.cpp:418] res4d_branch2b -> res4d_branch2b
I0111 23:22:53.877490  7366 net.cpp:150] Setting up res4d_branch2b
I0111 23:22:53.877517  7366 net.cpp:157] Top shape: 1 256 38 63 (612864)
I0111 23:22:53.877526  7366 net.cpp:165] Memory required for data: 2411232084
I0111 23:22:53.877537  7366 layer_factory.hpp:77] Creating layer bn4d_branch2b
I0111 23:22:53.877548  7366 net.cpp:100] Creating Layer bn4d_branch2b
I0111 23:22:53.877558  7366 net.cpp:444] bn4d_branch2b <- res4d_branch2b
I0111 23:22:53.877568  7366 net.cpp:405] bn4d_branch2b -> res4d_branch2b (in-place)
I0111 23:22:53.877749  7366 net.cpp:150] Setting up bn4d_branch2b
I0111 23:22:53.877760  7366 net.cpp:157] Top shape: 1 256 38 63 (612864)
I0111 23:22:53.877768  7366 net.cpp:165] Memory required for data: 2413683540
I0111 23:22:53.877777  7366 layer_factory.hpp:77] Creating layer scale4d_branch2b
I0111 23:22:53.877786  7366 net.cpp:100] Creating Layer scale4d_branch2b
I0111 23:22:53.877794  7366 net.cpp:444] scale4d_branch2b <- res4d_branch2b
I0111 23:22:53.877802  7366 net.cpp:405] scale4d_branch2b -> res4d_branch2b (in-place)
I0111 23:22:53.877845  7366 layer_factory.hpp:77] Creating layer scale4d_branch2b
I0111 23:22:53.877946  7366 net.cpp:150] Setting up scale4d_branch2b
I0111 23:22:53.877956  7366 net.cpp:157] Top shape: 1 256 38 63 (612864)
I0111 23:22:53.877964  7366 net.cpp:165] Memory required for data: 2416134996
I0111 23:22:53.877972  7366 layer_factory.hpp:77] Creating layer res4d_branch2b_relu
I0111 23:22:53.877980  7366 net.cpp:100] Creating Layer res4d_branch2b_relu
I0111 23:22:53.877988  7366 net.cpp:444] res4d_branch2b_relu <- res4d_branch2b
I0111 23:22:53.877996  7366 net.cpp:405] res4d_branch2b_relu -> res4d_branch2b (in-place)
I0111 23:22:53.878444  7366 net.cpp:150] Setting up res4d_branch2b_relu
I0111 23:22:53.878460  7366 net.cpp:157] Top shape: 1 256 38 63 (612864)
I0111 23:22:53.878468  7366 net.cpp:165] Memory required for data: 2418586452
I0111 23:22:53.878474  7366 layer_factory.hpp:77] Creating layer res4d_branch2c
I0111 23:22:53.878484  7366 net.cpp:100] Creating Layer res4d_branch2c
I0111 23:22:53.878494  7366 net.cpp:444] res4d_branch2c <- res4d_branch2b
I0111 23:22:53.878502  7366 net.cpp:418] res4d_branch2c -> res4d_branch2c
I0111 23:22:53.879182  7366 net.cpp:150] Setting up res4d_branch2c
I0111 23:22:53.879197  7366 net.cpp:157] Top shape: 1 1024 38 63 (2451456)
I0111 23:22:53.879204  7366 net.cpp:165] Memory required for data: 2428392276
I0111 23:22:53.879214  7366 layer_factory.hpp:77] Creating layer bn4d_branch2c
I0111 23:22:53.879222  7366 net.cpp:100] Creating Layer bn4d_branch2c
I0111 23:22:53.879230  7366 net.cpp:444] bn4d_branch2c <- res4d_branch2c
I0111 23:22:53.879240  7366 net.cpp:405] bn4d_branch2c -> res4d_branch2c (in-place)
I0111 23:22:53.879407  7366 net.cpp:150] Setting up bn4d_branch2c
I0111 23:22:53.879418  7366 net.cpp:157] Top shape: 1 1024 38 63 (2451456)
I0111 23:22:53.879425  7366 net.cpp:165] Memory required for data: 2438198100
I0111 23:22:53.879434  7366 layer_factory.hpp:77] Creating layer scale4d_branch2c
I0111 23:22:53.879442  7366 net.cpp:100] Creating Layer scale4d_branch2c
I0111 23:22:53.879451  7366 net.cpp:444] scale4d_branch2c <- res4d_branch2c
I0111 23:22:53.879459  7366 net.cpp:405] scale4d_branch2c -> res4d_branch2c (in-place)
I0111 23:22:53.879498  7366 layer_factory.hpp:77] Creating layer scale4d_branch2c
I0111 23:22:53.879601  7366 net.cpp:150] Setting up scale4d_branch2c
I0111 23:22:53.879611  7366 net.cpp:157] Top shape: 1 1024 38 63 (2451456)
I0111 23:22:53.879618  7366 net.cpp:165] Memory required for data: 2448003924
I0111 23:22:53.879627  7366 layer_factory.hpp:77] Creating layer res4d
I0111 23:22:53.879636  7366 net.cpp:100] Creating Layer res4d
I0111 23:22:53.879716  7366 net.cpp:444] res4d <- res4c_res4c_relu_0_split_1
I0111 23:22:53.879726  7366 net.cpp:444] res4d <- res4d_branch2c
I0111 23:22:53.879736  7366 net.cpp:418] res4d -> res4d
I0111 23:22:53.879766  7366 net.cpp:150] Setting up res4d
I0111 23:22:53.879788  7366 net.cpp:157] Top shape: 1 1024 38 63 (2451456)
I0111 23:22:53.879796  7366 net.cpp:165] Memory required for data: 2457809748
I0111 23:22:53.879801  7366 layer_factory.hpp:77] Creating layer res4d_relu
I0111 23:22:53.879907  7366 net.cpp:100] Creating Layer res4d_relu
I0111 23:22:53.879930  7366 net.cpp:444] res4d_relu <- res4d
I0111 23:22:53.879941  7366 net.cpp:405] res4d_relu -> res4d (in-place)
I0111 23:22:53.880504  7366 net.cpp:150] Setting up res4d_relu
I0111 23:22:53.880520  7366 net.cpp:157] Top shape: 1 1024 38 63 (2451456)
I0111 23:22:53.880527  7366 net.cpp:165] Memory required for data: 2467615572
I0111 23:22:53.880539  7366 layer_factory.hpp:77] Creating layer res4d_res4d_relu_0_split
I0111 23:22:53.880551  7366 net.cpp:100] Creating Layer res4d_res4d_relu_0_split
I0111 23:22:53.880559  7366 net.cpp:444] res4d_res4d_relu_0_split <- res4d
I0111 23:22:53.880569  7366 net.cpp:418] res4d_res4d_relu_0_split -> res4d_res4d_relu_0_split_0
I0111 23:22:53.880581  7366 net.cpp:418] res4d_res4d_relu_0_split -> res4d_res4d_relu_0_split_1
I0111 23:22:53.880626  7366 net.cpp:150] Setting up res4d_res4d_relu_0_split
I0111 23:22:53.880637  7366 net.cpp:157] Top shape: 1 1024 38 63 (2451456)
I0111 23:22:53.880645  7366 net.cpp:157] Top shape: 1 1024 38 63 (2451456)
I0111 23:22:53.880651  7366 net.cpp:165] Memory required for data: 2487227220
I0111 23:22:53.880657  7366 layer_factory.hpp:77] Creating layer res4e_branch2a
I0111 23:22:53.880668  7366 net.cpp:100] Creating Layer res4e_branch2a
I0111 23:22:53.880676  7366 net.cpp:444] res4e_branch2a <- res4d_res4d_relu_0_split_0
I0111 23:22:53.880687  7366 net.cpp:418] res4e_branch2a -> res4e_branch2a
I0111 23:22:53.882347  7366 net.cpp:150] Setting up res4e_branch2a
I0111 23:22:53.882371  7366 net.cpp:157] Top shape: 1 256 38 63 (612864)
I0111 23:22:53.882393  7366 net.cpp:165] Memory required for data: 2489678676
I0111 23:22:53.882405  7366 layer_factory.hpp:77] Creating layer bn4e_branch2a
I0111 23:22:53.882417  7366 net.cpp:100] Creating Layer bn4e_branch2a
I0111 23:22:53.882439  7366 net.cpp:444] bn4e_branch2a <- res4e_branch2a
I0111 23:22:53.882449  7366 net.cpp:405] bn4e_branch2a -> res4e_branch2a (in-place)
I0111 23:22:53.882692  7366 net.cpp:150] Setting up bn4e_branch2a
I0111 23:22:53.882704  7366 net.cpp:157] Top shape: 1 256 38 63 (612864)
I0111 23:22:53.882710  7366 net.cpp:165] Memory required for data: 2492130132
I0111 23:22:53.882720  7366 layer_factory.hpp:77] Creating layer scale4e_branch2a
I0111 23:22:53.882731  7366 net.cpp:100] Creating Layer scale4e_branch2a
I0111 23:22:53.882738  7366 net.cpp:444] scale4e_branch2a <- res4e_branch2a
I0111 23:22:53.882747  7366 net.cpp:405] scale4e_branch2a -> res4e_branch2a (in-place)
I0111 23:22:53.882788  7366 layer_factory.hpp:77] Creating layer scale4e_branch2a
I0111 23:22:53.882891  7366 net.cpp:150] Setting up scale4e_branch2a
I0111 23:22:53.882901  7366 net.cpp:157] Top shape: 1 256 38 63 (612864)
I0111 23:22:53.882910  7366 net.cpp:165] Memory required for data: 2494581588
I0111 23:22:53.882918  7366 layer_factory.hpp:77] Creating layer res4e_branch2a_relu
I0111 23:22:53.882927  7366 net.cpp:100] Creating Layer res4e_branch2a_relu
I0111 23:22:53.882936  7366 net.cpp:444] res4e_branch2a_relu <- res4e_branch2a
I0111 23:22:53.882943  7366 net.cpp:405] res4e_branch2a_relu -> res4e_branch2a (in-place)
I0111 23:22:53.883092  7366 net.cpp:150] Setting up res4e_branch2a_relu
I0111 23:22:53.883105  7366 net.cpp:157] Top shape: 1 256 38 63 (612864)
I0111 23:22:53.883112  7366 net.cpp:165] Memory required for data: 2497033044
I0111 23:22:53.883119  7366 layer_factory.hpp:77] Creating layer res4e_branch2b
I0111 23:22:53.883131  7366 net.cpp:100] Creating Layer res4e_branch2b
I0111 23:22:53.883139  7366 net.cpp:444] res4e_branch2b <- res4e_branch2a
I0111 23:22:53.883148  7366 net.cpp:418] res4e_branch2b -> res4e_branch2b
I0111 23:22:53.885320  7366 net.cpp:150] Setting up res4e_branch2b
I0111 23:22:53.885346  7366 net.cpp:157] Top shape: 1 256 38 63 (612864)
I0111 23:22:53.885354  7366 net.cpp:165] Memory required for data: 2499484500
I0111 23:22:53.885365  7366 layer_factory.hpp:77] Creating layer bn4e_branch2b
I0111 23:22:53.885377  7366 net.cpp:100] Creating Layer bn4e_branch2b
I0111 23:22:53.885386  7366 net.cpp:444] bn4e_branch2b <- res4e_branch2b
I0111 23:22:53.885396  7366 net.cpp:405] bn4e_branch2b -> res4e_branch2b (in-place)
I0111 23:22:53.885576  7366 net.cpp:150] Setting up bn4e_branch2b
I0111 23:22:53.885586  7366 net.cpp:157] Top shape: 1 256 38 63 (612864)
I0111 23:22:53.885592  7366 net.cpp:165] Memory required for data: 2501935956
I0111 23:22:53.885617  7366 layer_factory.hpp:77] Creating layer scale4e_branch2b
I0111 23:22:53.885648  7366 net.cpp:100] Creating Layer scale4e_branch2b
I0111 23:22:53.885656  7366 net.cpp:444] scale4e_branch2b <- res4e_branch2b
I0111 23:22:53.885665  7366 net.cpp:405] scale4e_branch2b -> res4e_branch2b (in-place)
I0111 23:22:53.885709  7366 layer_factory.hpp:77] Creating layer scale4e_branch2b
I0111 23:22:53.885830  7366 net.cpp:150] Setting up scale4e_branch2b
I0111 23:22:53.885841  7366 net.cpp:157] Top shape: 1 256 38 63 (612864)
I0111 23:22:53.885848  7366 net.cpp:165] Memory required for data: 2504387412
I0111 23:22:53.885856  7366 layer_factory.hpp:77] Creating layer res4e_branch2b_relu
I0111 23:22:53.885864  7366 net.cpp:100] Creating Layer res4e_branch2b_relu
I0111 23:22:53.885872  7366 net.cpp:444] res4e_branch2b_relu <- res4e_branch2b
I0111 23:22:53.885880  7366 net.cpp:405] res4e_branch2b_relu -> res4e_branch2b (in-place)
I0111 23:22:53.886030  7366 net.cpp:150] Setting up res4e_branch2b_relu
I0111 23:22:53.886044  7366 net.cpp:157] Top shape: 1 256 38 63 (612864)
I0111 23:22:53.886049  7366 net.cpp:165] Memory required for data: 2506838868
I0111 23:22:53.886056  7366 layer_factory.hpp:77] Creating layer res4e_branch2c
I0111 23:22:53.886066  7366 net.cpp:100] Creating Layer res4e_branch2c
I0111 23:22:53.886075  7366 net.cpp:444] res4e_branch2c <- res4e_branch2b
I0111 23:22:53.886085  7366 net.cpp:418] res4e_branch2c -> res4e_branch2c
I0111 23:22:53.887107  7366 net.cpp:150] Setting up res4e_branch2c
I0111 23:22:53.887125  7366 net.cpp:157] Top shape: 1 1024 38 63 (2451456)
I0111 23:22:53.887132  7366 net.cpp:165] Memory required for data: 2516644692
I0111 23:22:53.887141  7366 layer_factory.hpp:77] Creating layer bn4e_branch2c
I0111 23:22:53.887151  7366 net.cpp:100] Creating Layer bn4e_branch2c
I0111 23:22:53.887161  7366 net.cpp:444] bn4e_branch2c <- res4e_branch2c
I0111 23:22:53.887169  7366 net.cpp:405] bn4e_branch2c -> res4e_branch2c (in-place)
I0111 23:22:53.887344  7366 net.cpp:150] Setting up bn4e_branch2c
I0111 23:22:53.887354  7366 net.cpp:157] Top shape: 1 1024 38 63 (2451456)
I0111 23:22:53.887362  7366 net.cpp:165] Memory required for data: 2526450516
I0111 23:22:53.887370  7366 layer_factory.hpp:77] Creating layer scale4e_branch2c
I0111 23:22:53.887380  7366 net.cpp:100] Creating Layer scale4e_branch2c
I0111 23:22:53.887388  7366 net.cpp:444] scale4e_branch2c <- res4e_branch2c
I0111 23:22:53.887398  7366 net.cpp:405] scale4e_branch2c -> res4e_branch2c (in-place)
I0111 23:22:53.887436  7366 layer_factory.hpp:77] Creating layer scale4e_branch2c
I0111 23:22:53.887542  7366 net.cpp:150] Setting up scale4e_branch2c
I0111 23:22:53.887553  7366 net.cpp:157] Top shape: 1 1024 38 63 (2451456)
I0111 23:22:53.887559  7366 net.cpp:165] Memory required for data: 2536256340
I0111 23:22:53.887568  7366 layer_factory.hpp:77] Creating layer res4e
I0111 23:22:53.887578  7366 net.cpp:100] Creating Layer res4e
I0111 23:22:53.887585  7366 net.cpp:444] res4e <- res4d_res4d_relu_0_split_1
I0111 23:22:53.887594  7366 net.cpp:444] res4e <- res4e_branch2c
I0111 23:22:53.887603  7366 net.cpp:418] res4e -> res4e
I0111 23:22:53.887631  7366 net.cpp:150] Setting up res4e
I0111 23:22:53.887647  7366 net.cpp:157] Top shape: 1 1024 38 63 (2451456)
I0111 23:22:53.887673  7366 net.cpp:165] Memory required for data: 2546062164
I0111 23:22:53.887681  7366 layer_factory.hpp:77] Creating layer res4e_relu
I0111 23:22:53.887691  7366 net.cpp:100] Creating Layer res4e_relu
I0111 23:22:53.887699  7366 net.cpp:444] res4e_relu <- res4e
I0111 23:22:53.887722  7366 net.cpp:405] res4e_relu -> res4e (in-place)
I0111 23:22:53.887895  7366 net.cpp:150] Setting up res4e_relu
I0111 23:22:53.887907  7366 net.cpp:157] Top shape: 1 1024 38 63 (2451456)
I0111 23:22:53.887914  7366 net.cpp:165] Memory required for data: 2555867988
I0111 23:22:53.887923  7366 layer_factory.hpp:77] Creating layer res4e_res4e_relu_0_split
I0111 23:22:53.887931  7366 net.cpp:100] Creating Layer res4e_res4e_relu_0_split
I0111 23:22:53.887939  7366 net.cpp:444] res4e_res4e_relu_0_split <- res4e
I0111 23:22:53.887948  7366 net.cpp:418] res4e_res4e_relu_0_split -> res4e_res4e_relu_0_split_0
I0111 23:22:53.887964  7366 net.cpp:418] res4e_res4e_relu_0_split -> res4e_res4e_relu_0_split_1
I0111 23:22:53.888005  7366 net.cpp:150] Setting up res4e_res4e_relu_0_split
I0111 23:22:53.888016  7366 net.cpp:157] Top shape: 1 1024 38 63 (2451456)
I0111 23:22:53.888025  7366 net.cpp:157] Top shape: 1 1024 38 63 (2451456)
I0111 23:22:53.888031  7366 net.cpp:165] Memory required for data: 2575479636
I0111 23:22:53.888038  7366 layer_factory.hpp:77] Creating layer res4f_branch2a
I0111 23:22:53.888048  7366 net.cpp:100] Creating Layer res4f_branch2a
I0111 23:22:53.888056  7366 net.cpp:444] res4f_branch2a <- res4e_res4e_relu_0_split_0
I0111 23:22:53.888065  7366 net.cpp:418] res4f_branch2a -> res4f_branch2a
I0111 23:22:53.889695  7366 net.cpp:150] Setting up res4f_branch2a
I0111 23:22:53.889719  7366 net.cpp:157] Top shape: 1 256 38 63 (612864)
I0111 23:22:53.889727  7366 net.cpp:165] Memory required for data: 2577931092
I0111 23:22:53.889737  7366 layer_factory.hpp:77] Creating layer bn4f_branch2a
I0111 23:22:53.889750  7366 net.cpp:100] Creating Layer bn4f_branch2a
I0111 23:22:53.889757  7366 net.cpp:444] bn4f_branch2a <- res4f_branch2a
I0111 23:22:53.889766  7366 net.cpp:405] bn4f_branch2a -> res4f_branch2a (in-place)
I0111 23:22:53.889945  7366 net.cpp:150] Setting up bn4f_branch2a
I0111 23:22:53.889957  7366 net.cpp:157] Top shape: 1 256 38 63 (612864)
I0111 23:22:53.889964  7366 net.cpp:165] Memory required for data: 2580382548
I0111 23:22:53.889974  7366 layer_factory.hpp:77] Creating layer scale4f_branch2a
I0111 23:22:53.889986  7366 net.cpp:100] Creating Layer scale4f_branch2a
I0111 23:22:53.889992  7366 net.cpp:444] scale4f_branch2a <- res4f_branch2a
I0111 23:22:53.890002  7366 net.cpp:405] scale4f_branch2a -> res4f_branch2a (in-place)
I0111 23:22:53.890045  7366 layer_factory.hpp:77] Creating layer scale4f_branch2a
I0111 23:22:53.890154  7366 net.cpp:150] Setting up scale4f_branch2a
I0111 23:22:53.890166  7366 net.cpp:157] Top shape: 1 256 38 63 (612864)
I0111 23:22:53.890172  7366 net.cpp:165] Memory required for data: 2582834004
I0111 23:22:53.890182  7366 layer_factory.hpp:77] Creating layer res4f_branch2a_relu
I0111 23:22:53.890192  7366 net.cpp:100] Creating Layer res4f_branch2a_relu
I0111 23:22:53.890198  7366 net.cpp:444] res4f_branch2a_relu <- res4f_branch2a
I0111 23:22:53.890208  7366 net.cpp:405] res4f_branch2a_relu -> res4f_branch2a (in-place)
I0111 23:22:53.890362  7366 net.cpp:150] Setting up res4f_branch2a_relu
I0111 23:22:53.890374  7366 net.cpp:157] Top shape: 1 256 38 63 (612864)
I0111 23:22:53.890381  7366 net.cpp:165] Memory required for data: 2585285460
I0111 23:22:53.890458  7366 layer_factory.hpp:77] Creating layer res4f_branch2b
I0111 23:22:53.890472  7366 net.cpp:100] Creating Layer res4f_branch2b
I0111 23:22:53.890480  7366 net.cpp:444] res4f_branch2b <- res4f_branch2a
I0111 23:22:53.890489  7366 net.cpp:418] res4f_branch2b -> res4f_branch2b
I0111 23:22:53.893014  7366 net.cpp:150] Setting up res4f_branch2b
I0111 23:22:53.893051  7366 net.cpp:157] Top shape: 1 256 38 63 (612864)
I0111 23:22:53.893059  7366 net.cpp:165] Memory required for data: 2587736916
I0111 23:22:53.893071  7366 layer_factory.hpp:77] Creating layer bn4f_branch2b
I0111 23:22:53.893084  7366 net.cpp:100] Creating Layer bn4f_branch2b
I0111 23:22:53.893092  7366 net.cpp:444] bn4f_branch2b <- res4f_branch2b
I0111 23:22:53.893101  7366 net.cpp:405] bn4f_branch2b -> res4f_branch2b (in-place)
I0111 23:22:53.893296  7366 net.cpp:150] Setting up bn4f_branch2b
I0111 23:22:53.893307  7366 net.cpp:157] Top shape: 1 256 38 63 (612864)
I0111 23:22:53.893313  7366 net.cpp:165] Memory required for data: 2590188372
I0111 23:22:53.893323  7366 layer_factory.hpp:77] Creating layer scale4f_branch2b
I0111 23:22:53.893333  7366 net.cpp:100] Creating Layer scale4f_branch2b
I0111 23:22:53.893340  7366 net.cpp:444] scale4f_branch2b <- res4f_branch2b
I0111 23:22:53.893348  7366 net.cpp:405] scale4f_branch2b -> res4f_branch2b (in-place)
I0111 23:22:53.893393  7366 layer_factory.hpp:77] Creating layer scale4f_branch2b
I0111 23:22:53.893512  7366 net.cpp:150] Setting up scale4f_branch2b
I0111 23:22:53.893523  7366 net.cpp:157] Top shape: 1 256 38 63 (612864)
I0111 23:22:53.893529  7366 net.cpp:165] Memory required for data: 2592639828
I0111 23:22:53.893538  7366 layer_factory.hpp:77] Creating layer res4f_branch2b_relu
I0111 23:22:53.893548  7366 net.cpp:100] Creating Layer res4f_branch2b_relu
I0111 23:22:53.893554  7366 net.cpp:444] res4f_branch2b_relu <- res4f_branch2b
I0111 23:22:53.893563  7366 net.cpp:405] res4f_branch2b_relu -> res4f_branch2b (in-place)
I0111 23:22:53.894054  7366 net.cpp:150] Setting up res4f_branch2b_relu
I0111 23:22:53.894071  7366 net.cpp:157] Top shape: 1 256 38 63 (612864)
I0111 23:22:53.894078  7366 net.cpp:165] Memory required for data: 2595091284
I0111 23:22:53.894085  7366 layer_factory.hpp:77] Creating layer res4f_branch2c
I0111 23:22:53.894098  7366 net.cpp:100] Creating Layer res4f_branch2c
I0111 23:22:53.894106  7366 net.cpp:444] res4f_branch2c <- res4f_branch2b
I0111 23:22:53.894116  7366 net.cpp:418] res4f_branch2c -> res4f_branch2c
I0111 23:22:53.894817  7366 net.cpp:150] Setting up res4f_branch2c
I0111 23:22:53.894834  7366 net.cpp:157] Top shape: 1 1024 38 63 (2451456)
I0111 23:22:53.894840  7366 net.cpp:165] Memory required for data: 2604897108
I0111 23:22:53.894848  7366 layer_factory.hpp:77] Creating layer bn4f_branch2c
I0111 23:22:53.894858  7366 net.cpp:100] Creating Layer bn4f_branch2c
I0111 23:22:53.894866  7366 net.cpp:444] bn4f_branch2c <- res4f_branch2c
I0111 23:22:53.894876  7366 net.cpp:405] bn4f_branch2c -> res4f_branch2c (in-place)
I0111 23:22:53.895051  7366 net.cpp:150] Setting up bn4f_branch2c
I0111 23:22:53.895061  7366 net.cpp:157] Top shape: 1 1024 38 63 (2451456)
I0111 23:22:53.895067  7366 net.cpp:165] Memory required for data: 2614702932
I0111 23:22:53.895082  7366 layer_factory.hpp:77] Creating layer scale4f_branch2c
I0111 23:22:53.895093  7366 net.cpp:100] Creating Layer scale4f_branch2c
I0111 23:22:53.895102  7366 net.cpp:444] scale4f_branch2c <- res4f_branch2c
I0111 23:22:53.895110  7366 net.cpp:405] scale4f_branch2c -> res4f_branch2c (in-place)
I0111 23:22:53.895150  7366 layer_factory.hpp:77] Creating layer scale4f_branch2c
I0111 23:22:53.895261  7366 net.cpp:150] Setting up scale4f_branch2c
I0111 23:22:53.895272  7366 net.cpp:157] Top shape: 1 1024 38 63 (2451456)
I0111 23:22:53.895278  7366 net.cpp:165] Memory required for data: 2624508756
I0111 23:22:53.895287  7366 layer_factory.hpp:77] Creating layer res4f
I0111 23:22:53.895295  7366 net.cpp:100] Creating Layer res4f
I0111 23:22:53.895303  7366 net.cpp:444] res4f <- res4e_res4e_relu_0_split_1
I0111 23:22:53.895311  7366 net.cpp:444] res4f <- res4f_branch2c
I0111 23:22:53.895320  7366 net.cpp:418] res4f -> res4f
I0111 23:22:53.895349  7366 net.cpp:150] Setting up res4f
I0111 23:22:53.895359  7366 net.cpp:157] Top shape: 1 1024 38 63 (2451456)
I0111 23:22:53.895365  7366 net.cpp:165] Memory required for data: 2634314580
I0111 23:22:53.895371  7366 layer_factory.hpp:77] Creating layer res4f_relu
I0111 23:22:53.895380  7366 net.cpp:100] Creating Layer res4f_relu
I0111 23:22:53.895386  7366 net.cpp:444] res4f_relu <- res4f
I0111 23:22:53.895395  7366 net.cpp:405] res4f_relu -> res4f (in-place)
I0111 23:22:53.895943  7366 net.cpp:150] Setting up res4f_relu
I0111 23:22:53.895961  7366 net.cpp:157] Top shape: 1 1024 38 63 (2451456)
I0111 23:22:53.895967  7366 net.cpp:165] Memory required for data: 2644120404
I0111 23:22:53.895975  7366 layer_factory.hpp:77] Creating layer res4f_res4f_relu_0_split
I0111 23:22:53.895983  7366 net.cpp:100] Creating Layer res4f_res4f_relu_0_split
I0111 23:22:53.895992  7366 net.cpp:444] res4f_res4f_relu_0_split <- res4f
I0111 23:22:53.896001  7366 net.cpp:418] res4f_res4f_relu_0_split -> res4f_res4f_relu_0_split_0
I0111 23:22:53.896013  7366 net.cpp:418] res4f_res4f_relu_0_split -> res4f_res4f_relu_0_split_1
I0111 23:22:53.896023  7366 net.cpp:418] res4f_res4f_relu_0_split -> res4f_res4f_relu_0_split_2
I0111 23:22:53.896077  7366 net.cpp:150] Setting up res4f_res4f_relu_0_split
I0111 23:22:53.896092  7366 net.cpp:157] Top shape: 1 1024 38 63 (2451456)
I0111 23:22:53.896100  7366 net.cpp:157] Top shape: 1 1024 38 63 (2451456)
I0111 23:22:53.896107  7366 net.cpp:157] Top shape: 1 1024 38 63 (2451456)
I0111 23:22:53.896114  7366 net.cpp:165] Memory required for data: 2673537876
I0111 23:22:53.896121  7366 layer_factory.hpp:77] Creating layer res5a_branch1
I0111 23:22:53.896132  7366 net.cpp:100] Creating Layer res5a_branch1
I0111 23:22:53.896140  7366 net.cpp:444] res5a_branch1 <- res4f_res4f_relu_0_split_0
I0111 23:22:53.896150  7366 net.cpp:418] res5a_branch1 -> res5a_branch1
I0111 23:22:53.901199  7366 net.cpp:150] Setting up res5a_branch1
I0111 23:22:53.901257  7366 net.cpp:157] Top shape: 1 2048 38 63 (4902912)
I0111 23:22:53.901266  7366 net.cpp:165] Memory required for data: 2693149524
I0111 23:22:53.901295  7366 layer_factory.hpp:77] Creating layer bn5a_branch1
I0111 23:22:53.901314  7366 net.cpp:100] Creating Layer bn5a_branch1
I0111 23:22:53.901324  7366 net.cpp:444] bn5a_branch1 <- res5a_branch1
I0111 23:22:53.901335  7366 net.cpp:405] bn5a_branch1 -> res5a_branch1 (in-place)
I0111 23:22:53.901547  7366 net.cpp:150] Setting up bn5a_branch1
I0111 23:22:53.901557  7366 net.cpp:157] Top shape: 1 2048 38 63 (4902912)
I0111 23:22:53.901564  7366 net.cpp:165] Memory required for data: 2712761172
I0111 23:22:53.901589  7366 layer_factory.hpp:77] Creating layer scale5a_branch1
I0111 23:22:53.901613  7366 net.cpp:100] Creating Layer scale5a_branch1
I0111 23:22:53.901621  7366 net.cpp:444] scale5a_branch1 <- res5a_branch1
I0111 23:22:53.901630  7366 net.cpp:405] scale5a_branch1 -> res5a_branch1 (in-place)
I0111 23:22:53.901676  7366 layer_factory.hpp:77] Creating layer scale5a_branch1
I0111 23:22:53.901816  7366 net.cpp:150] Setting up scale5a_branch1
I0111 23:22:53.901839  7366 net.cpp:157] Top shape: 1 2048 38 63 (4902912)
I0111 23:22:53.901846  7366 net.cpp:165] Memory required for data: 2732372820
I0111 23:22:53.901870  7366 layer_factory.hpp:77] Creating layer res5a_branch2a
I0111 23:22:53.901883  7366 net.cpp:100] Creating Layer res5a_branch2a
I0111 23:22:53.901892  7366 net.cpp:444] res5a_branch2a <- res4f_res4f_relu_0_split_1
I0111 23:22:53.901916  7366 net.cpp:418] res5a_branch2a -> res5a_branch2a
I0111 23:22:53.903887  7366 net.cpp:150] Setting up res5a_branch2a
I0111 23:22:53.903921  7366 net.cpp:157] Top shape: 1 512 38 63 (1225728)
I0111 23:22:53.903944  7366 net.cpp:165] Memory required for data: 2737275732
I0111 23:22:53.903970  7366 layer_factory.hpp:77] Creating layer bn5a_branch2a
I0111 23:22:53.903986  7366 net.cpp:100] Creating Layer bn5a_branch2a
I0111 23:22:53.903997  7366 net.cpp:444] bn5a_branch2a <- res5a_branch2a
I0111 23:22:53.904007  7366 net.cpp:405] bn5a_branch2a -> res5a_branch2a (in-place)
I0111 23:22:53.904242  7366 net.cpp:150] Setting up bn5a_branch2a
I0111 23:22:53.904253  7366 net.cpp:157] Top shape: 1 512 38 63 (1225728)
I0111 23:22:53.904259  7366 net.cpp:165] Memory required for data: 2742178644
I0111 23:22:53.904284  7366 layer_factory.hpp:77] Creating layer scale5a_branch2a
I0111 23:22:53.904296  7366 net.cpp:100] Creating Layer scale5a_branch2a
I0111 23:22:53.904304  7366 net.cpp:444] scale5a_branch2a <- res5a_branch2a
I0111 23:22:53.904312  7366 net.cpp:405] scale5a_branch2a -> res5a_branch2a (in-place)
I0111 23:22:53.904368  7366 layer_factory.hpp:77] Creating layer scale5a_branch2a
I0111 23:22:53.904531  7366 net.cpp:150] Setting up scale5a_branch2a
I0111 23:22:53.904542  7366 net.cpp:157] Top shape: 1 512 38 63 (1225728)
I0111 23:22:53.904549  7366 net.cpp:165] Memory required for data: 2747081556
I0111 23:22:53.904572  7366 layer_factory.hpp:77] Creating layer res5a_branch2a_relu
I0111 23:22:53.904582  7366 net.cpp:100] Creating Layer res5a_branch2a_relu
I0111 23:22:53.904590  7366 net.cpp:444] res5a_branch2a_relu <- res5a_branch2a
I0111 23:22:53.904599  7366 net.cpp:405] res5a_branch2a_relu -> res5a_branch2a (in-place)
I0111 23:22:53.904788  7366 net.cpp:150] Setting up res5a_branch2a_relu
I0111 23:22:53.904800  7366 net.cpp:157] Top shape: 1 512 38 63 (1225728)
I0111 23:22:53.904812  7366 net.cpp:165] Memory required for data: 2751984468
I0111 23:22:53.904819  7366 layer_factory.hpp:77] Creating layer res5a_branch2b
I0111 23:22:53.904831  7366 net.cpp:100] Creating Layer res5a_branch2b
I0111 23:22:53.904839  7366 net.cpp:444] res5a_branch2b <- res5a_branch2a
I0111 23:22:53.904850  7366 net.cpp:418] res5a_branch2b -> res5a_branch2b
I0111 23:22:53.908995  7366 net.cpp:150] Setting up res5a_branch2b
I0111 23:22:53.909054  7366 net.cpp:157] Top shape: 1 512 38 63 (1225728)
I0111 23:22:53.909065  7366 net.cpp:165] Memory required for data: 2756887380
I0111 23:22:53.909078  7366 layer_factory.hpp:77] Creating layer bn5a_branch2b
I0111 23:22:53.909093  7366 net.cpp:100] Creating Layer bn5a_branch2b
I0111 23:22:53.909103  7366 net.cpp:444] bn5a_branch2b <- res5a_branch2b
I0111 23:22:53.909114  7366 net.cpp:405] bn5a_branch2b -> res5a_branch2b (in-place)
I0111 23:22:53.909332  7366 net.cpp:150] Setting up bn5a_branch2b
I0111 23:22:53.909342  7366 net.cpp:157] Top shape: 1 512 38 63 (1225728)
I0111 23:22:53.909348  7366 net.cpp:165] Memory required for data: 2761790292
I0111 23:22:53.909373  7366 layer_factory.hpp:77] Creating layer scale5a_branch2b
I0111 23:22:53.909384  7366 net.cpp:100] Creating Layer scale5a_branch2b
I0111 23:22:53.909391  7366 net.cpp:444] scale5a_branch2b <- res5a_branch2b
I0111 23:22:53.909400  7366 net.cpp:405] scale5a_branch2b -> res5a_branch2b (in-place)
I0111 23:22:53.909454  7366 layer_factory.hpp:77] Creating layer scale5a_branch2b
I0111 23:22:53.909595  7366 net.cpp:150] Setting up scale5a_branch2b
I0111 23:22:53.909606  7366 net.cpp:157] Top shape: 1 512 38 63 (1225728)
I0111 23:22:53.909612  7366 net.cpp:165] Memory required for data: 2766693204
I0111 23:22:53.909636  7366 layer_factory.hpp:77] Creating layer res5a_branch2b_relu
I0111 23:22:53.909646  7366 net.cpp:100] Creating Layer res5a_branch2b_relu
I0111 23:22:53.909654  7366 net.cpp:444] res5a_branch2b_relu <- res5a_branch2b
I0111 23:22:53.909662  7366 net.cpp:405] res5a_branch2b_relu -> res5a_branch2b (in-place)
I0111 23:22:53.909868  7366 net.cpp:150] Setting up res5a_branch2b_relu
I0111 23:22:53.909881  7366 net.cpp:157] Top shape: 1 512 38 63 (1225728)
I0111 23:22:53.909888  7366 net.cpp:165] Memory required for data: 2771596116
I0111 23:22:53.909909  7366 layer_factory.hpp:77] Creating layer res5a_branch2c
I0111 23:22:53.909921  7366 net.cpp:100] Creating Layer res5a_branch2c
I0111 23:22:53.909929  7366 net.cpp:444] res5a_branch2c <- res5a_branch2b
I0111 23:22:53.909940  7366 net.cpp:418] res5a_branch2c -> res5a_branch2c
I0111 23:22:53.912809  7366 net.cpp:150] Setting up res5a_branch2c
I0111 23:22:53.912863  7366 net.cpp:157] Top shape: 1 2048 38 63 (4902912)
I0111 23:22:53.912873  7366 net.cpp:165] Memory required for data: 2791207764
I0111 23:22:53.912886  7366 layer_factory.hpp:77] Creating layer bn5a_branch2c
I0111 23:22:53.912901  7366 net.cpp:100] Creating Layer bn5a_branch2c
I0111 23:22:53.912912  7366 net.cpp:444] bn5a_branch2c <- res5a_branch2c
I0111 23:22:53.912922  7366 net.cpp:405] bn5a_branch2c -> res5a_branch2c (in-place)
I0111 23:22:53.913128  7366 net.cpp:150] Setting up bn5a_branch2c
I0111 23:22:53.913139  7366 net.cpp:157] Top shape: 1 2048 38 63 (4902912)
I0111 23:22:53.913146  7366 net.cpp:165] Memory required for data: 2810819412
I0111 23:22:53.913170  7366 layer_factory.hpp:77] Creating layer scale5a_branch2c
I0111 23:22:53.913182  7366 net.cpp:100] Creating Layer scale5a_branch2c
I0111 23:22:53.913189  7366 net.cpp:444] scale5a_branch2c <- res5a_branch2c
I0111 23:22:53.913199  7366 net.cpp:405] scale5a_branch2c -> res5a_branch2c (in-place)
I0111 23:22:53.913259  7366 layer_factory.hpp:77] Creating layer scale5a_branch2c
I0111 23:22:53.913396  7366 net.cpp:150] Setting up scale5a_branch2c
I0111 23:22:53.913408  7366 net.cpp:157] Top shape: 1 2048 38 63 (4902912)
I0111 23:22:53.913414  7366 net.cpp:165] Memory required for data: 2830431060
I0111 23:22:53.913436  7366 layer_factory.hpp:77] Creating layer res5a
I0111 23:22:53.913446  7366 net.cpp:100] Creating Layer res5a
I0111 23:22:53.913461  7366 net.cpp:444] res5a <- res5a_branch1
I0111 23:22:53.913470  7366 net.cpp:444] res5a <- res5a_branch2c
I0111 23:22:53.913480  7366 net.cpp:418] res5a -> res5a
I0111 23:22:53.913523  7366 net.cpp:150] Setting up res5a
I0111 23:22:53.913533  7366 net.cpp:157] Top shape: 1 2048 38 63 (4902912)
I0111 23:22:53.913539  7366 net.cpp:165] Memory required for data: 2850042708
I0111 23:22:53.913560  7366 layer_factory.hpp:77] Creating layer res5a_relu
I0111 23:22:53.913569  7366 net.cpp:100] Creating Layer res5a_relu
I0111 23:22:53.913578  7366 net.cpp:444] res5a_relu <- res5a
I0111 23:22:53.913586  7366 net.cpp:405] res5a_relu -> res5a (in-place)
I0111 23:22:53.913753  7366 net.cpp:150] Setting up res5a_relu
I0111 23:22:53.913765  7366 net.cpp:157] Top shape: 1 2048 38 63 (4902912)
I0111 23:22:53.913771  7366 net.cpp:165] Memory required for data: 2869654356
I0111 23:22:53.913794  7366 layer_factory.hpp:77] Creating layer res5a_res5a_relu_0_split
I0111 23:22:53.913802  7366 net.cpp:100] Creating Layer res5a_res5a_relu_0_split
I0111 23:22:53.913810  7366 net.cpp:444] res5a_res5a_relu_0_split <- res5a
I0111 23:22:53.913820  7366 net.cpp:418] res5a_res5a_relu_0_split -> res5a_res5a_relu_0_split_0
I0111 23:22:53.913830  7366 net.cpp:418] res5a_res5a_relu_0_split -> res5a_res5a_relu_0_split_1
I0111 23:22:53.913887  7366 net.cpp:150] Setting up res5a_res5a_relu_0_split
I0111 23:22:53.913897  7366 net.cpp:157] Top shape: 1 2048 38 63 (4902912)
I0111 23:22:53.913904  7366 net.cpp:157] Top shape: 1 2048 38 63 (4902912)
I0111 23:22:53.913925  7366 net.cpp:165] Memory required for data: 2908877652
I0111 23:22:53.913933  7366 layer_factory.hpp:77] Creating layer res5b_branch2a
I0111 23:22:53.913945  7366 net.cpp:100] Creating Layer res5b_branch2a
I0111 23:22:53.913954  7366 net.cpp:444] res5b_branch2a <- res5a_res5a_relu_0_split_0
I0111 23:22:53.913964  7366 net.cpp:418] res5b_branch2a -> res5b_branch2a
I0111 23:22:53.916610  7366 net.cpp:150] Setting up res5b_branch2a
I0111 23:22:53.916648  7366 net.cpp:157] Top shape: 1 512 38 63 (1225728)
I0111 23:22:53.916657  7366 net.cpp:165] Memory required for data: 2913780564
I0111 23:22:53.916671  7366 layer_factory.hpp:77] Creating layer bn5b_branch2a
I0111 23:22:53.916685  7366 net.cpp:100] Creating Layer bn5b_branch2a
I0111 23:22:53.916694  7366 net.cpp:444] bn5b_branch2a <- res5b_branch2a
I0111 23:22:53.916705  7366 net.cpp:405] bn5b_branch2a -> res5b_branch2a (in-place)
I0111 23:22:53.916909  7366 net.cpp:150] Setting up bn5b_branch2a
I0111 23:22:53.916920  7366 net.cpp:157] Top shape: 1 512 38 63 (1225728)
I0111 23:22:53.916927  7366 net.cpp:165] Memory required for data: 2918683476
I0111 23:22:53.916951  7366 layer_factory.hpp:77] Creating layer scale5b_branch2a
I0111 23:22:53.916962  7366 net.cpp:100] Creating Layer scale5b_branch2a
I0111 23:22:53.916970  7366 net.cpp:444] scale5b_branch2a <- res5b_branch2a
I0111 23:22:53.916980  7366 net.cpp:405] scale5b_branch2a -> res5b_branch2a (in-place)
I0111 23:22:53.917034  7366 layer_factory.hpp:77] Creating layer scale5b_branch2a
I0111 23:22:53.917165  7366 net.cpp:150] Setting up scale5b_branch2a
I0111 23:22:53.917176  7366 net.cpp:157] Top shape: 1 512 38 63 (1225728)
I0111 23:22:53.917183  7366 net.cpp:165] Memory required for data: 2923586388
I0111 23:22:53.917192  7366 layer_factory.hpp:77] Creating layer res5b_branch2a_relu
I0111 23:22:53.917202  7366 net.cpp:100] Creating Layer res5b_branch2a_relu
I0111 23:22:53.917210  7366 net.cpp:444] res5b_branch2a_relu <- res5b_branch2a
I0111 23:22:53.917219  7366 net.cpp:405] res5b_branch2a_relu -> res5b_branch2a (in-place)
I0111 23:22:53.917382  7366 net.cpp:150] Setting up res5b_branch2a_relu
I0111 23:22:53.917393  7366 net.cpp:157] Top shape: 1 512 38 63 (1225728)
I0111 23:22:53.917400  7366 net.cpp:165] Memory required for data: 2928489300
I0111 23:22:53.917421  7366 layer_factory.hpp:77] Creating layer res5b_branch2b
I0111 23:22:53.917434  7366 net.cpp:100] Creating Layer res5b_branch2b
I0111 23:22:53.917443  7366 net.cpp:444] res5b_branch2b <- res5b_branch2a
I0111 23:22:53.917460  7366 net.cpp:418] res5b_branch2b -> res5b_branch2b
I0111 23:22:53.921813  7366 net.cpp:150] Setting up res5b_branch2b
I0111 23:22:53.921869  7366 net.cpp:157] Top shape: 1 512 38 63 (1225728)
I0111 23:22:53.921877  7366 net.cpp:165] Memory required for data: 2933392212
I0111 23:22:53.921890  7366 layer_factory.hpp:77] Creating layer bn5b_branch2b
I0111 23:22:53.921905  7366 net.cpp:100] Creating Layer bn5b_branch2b
I0111 23:22:53.921914  7366 net.cpp:444] bn5b_branch2b <- res5b_branch2b
I0111 23:22:53.921924  7366 net.cpp:405] bn5b_branch2b -> res5b_branch2b (in-place)
I0111 23:22:53.922129  7366 net.cpp:150] Setting up bn5b_branch2b
I0111 23:22:53.922140  7366 net.cpp:157] Top shape: 1 512 38 63 (1225728)
I0111 23:22:53.922148  7366 net.cpp:165] Memory required for data: 2938295124
I0111 23:22:53.922159  7366 layer_factory.hpp:77] Creating layer scale5b_branch2b
I0111 23:22:53.922170  7366 net.cpp:100] Creating Layer scale5b_branch2b
I0111 23:22:53.922178  7366 net.cpp:444] scale5b_branch2b <- res5b_branch2b
I0111 23:22:53.922214  7366 net.cpp:405] scale5b_branch2b -> res5b_branch2b (in-place)
I0111 23:22:53.922284  7366 layer_factory.hpp:77] Creating layer scale5b_branch2b
I0111 23:22:53.922475  7366 net.cpp:150] Setting up scale5b_branch2b
I0111 23:22:53.922487  7366 net.cpp:157] Top shape: 1 512 38 63 (1225728)
I0111 23:22:53.922495  7366 net.cpp:165] Memory required for data: 2943198036
I0111 23:22:53.922505  7366 layer_factory.hpp:77] Creating layer res5b_branch2b_relu
I0111 23:22:53.922515  7366 net.cpp:100] Creating Layer res5b_branch2b_relu
I0111 23:22:53.922523  7366 net.cpp:444] res5b_branch2b_relu <- res5b_branch2b
I0111 23:22:53.922531  7366 net.cpp:405] res5b_branch2b_relu -> res5b_branch2b (in-place)
I0111 23:22:53.923190  7366 net.cpp:150] Setting up res5b_branch2b_relu
I0111 23:22:53.923208  7366 net.cpp:157] Top shape: 1 512 38 63 (1225728)
I0111 23:22:53.923216  7366 net.cpp:165] Memory required for data: 2948100948
I0111 23:22:53.923224  7366 layer_factory.hpp:77] Creating layer res5b_branch2c
I0111 23:22:53.923238  7366 net.cpp:100] Creating Layer res5b_branch2c
I0111 23:22:53.923246  7366 net.cpp:444] res5b_branch2c <- res5b_branch2b
I0111 23:22:53.923256  7366 net.cpp:418] res5b_branch2c -> res5b_branch2c
I0111 23:22:53.926806  7366 net.cpp:150] Setting up res5b_branch2c
I0111 23:22:53.926854  7366 net.cpp:157] Top shape: 1 2048 38 63 (4902912)
I0111 23:22:53.926862  7366 net.cpp:165] Memory required for data: 2967712596
I0111 23:22:53.926877  7366 layer_factory.hpp:77] Creating layer bn5b_branch2c
I0111 23:22:53.926892  7366 net.cpp:100] Creating Layer bn5b_branch2c
I0111 23:22:53.926901  7366 net.cpp:444] bn5b_branch2c <- res5b_branch2c
I0111 23:22:53.926911  7366 net.cpp:405] bn5b_branch2c -> res5b_branch2c (in-place)
I0111 23:22:53.927126  7366 net.cpp:150] Setting up bn5b_branch2c
I0111 23:22:53.927139  7366 net.cpp:157] Top shape: 1 2048 38 63 (4902912)
I0111 23:22:53.927145  7366 net.cpp:165] Memory required for data: 2987324244
I0111 23:22:53.927155  7366 layer_factory.hpp:77] Creating layer scale5b_branch2c
I0111 23:22:53.927165  7366 net.cpp:100] Creating Layer scale5b_branch2c
I0111 23:22:53.927173  7366 net.cpp:444] scale5b_branch2c <- res5b_branch2c
I0111 23:22:53.927181  7366 net.cpp:405] scale5b_branch2c -> res5b_branch2c (in-place)
I0111 23:22:53.927233  7366 layer_factory.hpp:77] Creating layer scale5b_branch2c
I0111 23:22:53.927348  7366 net.cpp:150] Setting up scale5b_branch2c
I0111 23:22:53.927359  7366 net.cpp:157] Top shape: 1 2048 38 63 (4902912)
I0111 23:22:53.927366  7366 net.cpp:165] Memory required for data: 3006935892
I0111 23:22:53.927376  7366 layer_factory.hpp:77] Creating layer res5b
I0111 23:22:53.927384  7366 net.cpp:100] Creating Layer res5b
I0111 23:22:53.927393  7366 net.cpp:444] res5b <- res5a_res5a_relu_0_split_1
I0111 23:22:53.927402  7366 net.cpp:444] res5b <- res5b_branch2c
I0111 23:22:53.927410  7366 net.cpp:418] res5b -> res5b
I0111 23:22:53.927440  7366 net.cpp:150] Setting up res5b
I0111 23:22:53.927459  7366 net.cpp:157] Top shape: 1 2048 38 63 (4902912)
I0111 23:22:53.927467  7366 net.cpp:165] Memory required for data: 3026547540
I0111 23:22:53.927474  7366 layer_factory.hpp:77] Creating layer res5b_relu
I0111 23:22:53.927482  7366 net.cpp:100] Creating Layer res5b_relu
I0111 23:22:53.927489  7366 net.cpp:444] res5b_relu <- res5b
I0111 23:22:53.927497  7366 net.cpp:405] res5b_relu -> res5b (in-place)
I0111 23:22:53.927742  7366 net.cpp:150] Setting up res5b_relu
I0111 23:22:53.927757  7366 net.cpp:157] Top shape: 1 2048 38 63 (4902912)
I0111 23:22:53.927764  7366 net.cpp:165] Memory required for data: 3046159188
I0111 23:22:53.927772  7366 layer_factory.hpp:77] Creating layer res5b_res5b_relu_0_split
I0111 23:22:53.927780  7366 net.cpp:100] Creating Layer res5b_res5b_relu_0_split
I0111 23:22:53.927789  7366 net.cpp:444] res5b_res5b_relu_0_split <- res5b
I0111 23:22:53.927798  7366 net.cpp:418] res5b_res5b_relu_0_split -> res5b_res5b_relu_0_split_0
I0111 23:22:53.927809  7366 net.cpp:418] res5b_res5b_relu_0_split -> res5b_res5b_relu_0_split_1
I0111 23:22:53.927856  7366 net.cpp:150] Setting up res5b_res5b_relu_0_split
I0111 23:22:53.927866  7366 net.cpp:157] Top shape: 1 2048 38 63 (4902912)
I0111 23:22:53.927875  7366 net.cpp:157] Top shape: 1 2048 38 63 (4902912)
I0111 23:22:53.927881  7366 net.cpp:165] Memory required for data: 3085382484
I0111 23:22:53.927887  7366 layer_factory.hpp:77] Creating layer res5c_branch2a
I0111 23:22:53.927899  7366 net.cpp:100] Creating Layer res5c_branch2a
I0111 23:22:53.927908  7366 net.cpp:444] res5c_branch2a <- res5b_res5b_relu_0_split_0
I0111 23:22:53.927918  7366 net.cpp:418] res5c_branch2a -> res5c_branch2a
I0111 23:22:53.930879  7366 net.cpp:150] Setting up res5c_branch2a
I0111 23:22:53.930920  7366 net.cpp:157] Top shape: 1 512 38 63 (1225728)
I0111 23:22:53.930929  7366 net.cpp:165] Memory required for data: 3090285396
I0111 23:22:53.930945  7366 layer_factory.hpp:77] Creating layer bn5c_branch2a
I0111 23:22:53.930963  7366 net.cpp:100] Creating Layer bn5c_branch2a
I0111 23:22:53.930974  7366 net.cpp:444] bn5c_branch2a <- res5c_branch2a
I0111 23:22:53.930985  7366 net.cpp:405] bn5c_branch2a -> res5c_branch2a (in-place)
I0111 23:22:53.931205  7366 net.cpp:150] Setting up bn5c_branch2a
I0111 23:22:53.931216  7366 net.cpp:157] Top shape: 1 512 38 63 (1225728)
I0111 23:22:53.931223  7366 net.cpp:165] Memory required for data: 3095188308
I0111 23:22:53.931234  7366 layer_factory.hpp:77] Creating layer scale5c_branch2a
I0111 23:22:53.931244  7366 net.cpp:100] Creating Layer scale5c_branch2a
I0111 23:22:53.931252  7366 net.cpp:444] scale5c_branch2a <- res5c_branch2a
I0111 23:22:53.931262  7366 net.cpp:405] scale5c_branch2a -> res5c_branch2a (in-place)
I0111 23:22:53.931308  7366 layer_factory.hpp:77] Creating layer scale5c_branch2a
I0111 23:22:53.931433  7366 net.cpp:150] Setting up scale5c_branch2a
I0111 23:22:53.931445  7366 net.cpp:157] Top shape: 1 512 38 63 (1225728)
I0111 23:22:53.931452  7366 net.cpp:165] Memory required for data: 3100091220
I0111 23:22:53.931460  7366 layer_factory.hpp:77] Creating layer res5c_branch2a_relu
I0111 23:22:53.931470  7366 net.cpp:100] Creating Layer res5c_branch2a_relu
I0111 23:22:53.931478  7366 net.cpp:444] res5c_branch2a_relu <- res5c_branch2a
I0111 23:22:53.931488  7366 net.cpp:405] res5c_branch2a_relu -> res5c_branch2a (in-place)
I0111 23:22:53.931664  7366 net.cpp:150] Setting up res5c_branch2a_relu
I0111 23:22:53.931680  7366 net.cpp:157] Top shape: 1 512 38 63 (1225728)
I0111 23:22:53.931687  7366 net.cpp:165] Memory required for data: 3104994132
I0111 23:22:53.931694  7366 layer_factory.hpp:77] Creating layer res5c_branch2b
I0111 23:22:53.931706  7366 net.cpp:100] Creating Layer res5c_branch2b
I0111 23:22:53.931715  7366 net.cpp:444] res5c_branch2b <- res5c_branch2a
I0111 23:22:53.931725  7366 net.cpp:418] res5c_branch2b -> res5c_branch2b
I0111 23:22:53.936311  7366 net.cpp:150] Setting up res5c_branch2b
I0111 23:22:53.936367  7366 net.cpp:157] Top shape: 1 512 38 63 (1225728)
I0111 23:22:53.936375  7366 net.cpp:165] Memory required for data: 3109897044
I0111 23:22:53.936409  7366 layer_factory.hpp:77] Creating layer bn5c_branch2b
I0111 23:22:53.936430  7366 net.cpp:100] Creating Layer bn5c_branch2b
I0111 23:22:53.936442  7366 net.cpp:444] bn5c_branch2b <- res5c_branch2b
I0111 23:22:53.936455  7366 net.cpp:405] bn5c_branch2b -> res5c_branch2b (in-place)
I0111 23:22:53.936687  7366 net.cpp:150] Setting up bn5c_branch2b
I0111 23:22:53.936699  7366 net.cpp:157] Top shape: 1 512 38 63 (1225728)
I0111 23:22:53.936707  7366 net.cpp:165] Memory required for data: 3114799956
I0111 23:22:53.936718  7366 layer_factory.hpp:77] Creating layer scale5c_branch2b
I0111 23:22:53.936730  7366 net.cpp:100] Creating Layer scale5c_branch2b
I0111 23:22:53.936738  7366 net.cpp:444] scale5c_branch2b <- res5c_branch2b
I0111 23:22:53.936748  7366 net.cpp:405] scale5c_branch2b -> res5c_branch2b (in-place)
I0111 23:22:53.936796  7366 layer_factory.hpp:77] Creating layer scale5c_branch2b
I0111 23:22:53.936926  7366 net.cpp:150] Setting up scale5c_branch2b
I0111 23:22:53.936939  7366 net.cpp:157] Top shape: 1 512 38 63 (1225728)
I0111 23:22:53.936946  7366 net.cpp:165] Memory required for data: 3119702868
I0111 23:22:53.936956  7366 layer_factory.hpp:77] Creating layer res5c_branch2b_relu
I0111 23:22:53.936965  7366 net.cpp:100] Creating Layer res5c_branch2b_relu
I0111 23:22:53.936975  7366 net.cpp:444] res5c_branch2b_relu <- res5c_branch2b
I0111 23:22:53.936983  7366 net.cpp:405] res5c_branch2b_relu -> res5c_branch2b (in-place)
I0111 23:22:53.937202  7366 net.cpp:150] Setting up res5c_branch2b_relu
I0111 23:22:53.937216  7366 net.cpp:157] Top shape: 1 512 38 63 (1225728)
I0111 23:22:53.937223  7366 net.cpp:165] Memory required for data: 3124605780
I0111 23:22:53.937232  7366 layer_factory.hpp:77] Creating layer res5c_branch2c
I0111 23:22:53.937243  7366 net.cpp:100] Creating Layer res5c_branch2c
I0111 23:22:53.937252  7366 net.cpp:444] res5c_branch2c <- res5c_branch2b
I0111 23:22:53.937263  7366 net.cpp:418] res5c_branch2c -> res5c_branch2c
I0111 23:22:53.940361  7366 net.cpp:150] Setting up res5c_branch2c
I0111 23:22:53.940402  7366 net.cpp:157] Top shape: 1 2048 38 63 (4902912)
I0111 23:22:53.940410  7366 net.cpp:165] Memory required for data: 3144217428
I0111 23:22:53.940425  7366 layer_factory.hpp:77] Creating layer bn5c_branch2c
I0111 23:22:53.940441  7366 net.cpp:100] Creating Layer bn5c_branch2c
I0111 23:22:53.940454  7366 net.cpp:444] bn5c_branch2c <- res5c_branch2c
I0111 23:22:53.940464  7366 net.cpp:405] bn5c_branch2c -> res5c_branch2c (in-place)
I0111 23:22:53.940697  7366 net.cpp:150] Setting up bn5c_branch2c
I0111 23:22:53.940709  7366 net.cpp:157] Top shape: 1 2048 38 63 (4902912)
I0111 23:22:53.940717  7366 net.cpp:165] Memory required for data: 3163829076
I0111 23:22:53.940728  7366 layer_factory.hpp:77] Creating layer scale5c_branch2c
I0111 23:22:53.940738  7366 net.cpp:100] Creating Layer scale5c_branch2c
I0111 23:22:53.940747  7366 net.cpp:444] scale5c_branch2c <- res5c_branch2c
I0111 23:22:53.940757  7366 net.cpp:405] scale5c_branch2c -> res5c_branch2c (in-place)
I0111 23:22:53.940809  7366 layer_factory.hpp:77] Creating layer scale5c_branch2c
I0111 23:22:53.940937  7366 net.cpp:150] Setting up scale5c_branch2c
I0111 23:22:53.940949  7366 net.cpp:157] Top shape: 1 2048 38 63 (4902912)
I0111 23:22:53.940958  7366 net.cpp:165] Memory required for data: 3183440724
I0111 23:22:53.940966  7366 layer_factory.hpp:77] Creating layer res5c
I0111 23:22:53.940976  7366 net.cpp:100] Creating Layer res5c
I0111 23:22:53.940985  7366 net.cpp:444] res5c <- res5b_res5b_relu_0_split_1
I0111 23:22:53.940994  7366 net.cpp:444] res5c <- res5c_branch2c
I0111 23:22:53.941004  7366 net.cpp:418] res5c -> res5c
I0111 23:22:53.941038  7366 net.cpp:150] Setting up res5c
I0111 23:22:53.941049  7366 net.cpp:157] Top shape: 1 2048 38 63 (4902912)
I0111 23:22:53.941057  7366 net.cpp:165] Memory required for data: 3203052372
I0111 23:22:53.941064  7366 layer_factory.hpp:77] Creating layer res5c_relu
I0111 23:22:53.941073  7366 net.cpp:100] Creating Layer res5c_relu
I0111 23:22:53.941082  7366 net.cpp:444] res5c_relu <- res5c
I0111 23:22:53.941112  7366 net.cpp:405] res5c_relu -> res5c (in-place)
I0111 23:22:53.941282  7366 net.cpp:150] Setting up res5c_relu
I0111 23:22:53.941294  7366 net.cpp:157] Top shape: 1 2048 38 63 (4902912)
I0111 23:22:53.941301  7366 net.cpp:165] Memory required for data: 3222664020
I0111 23:22:53.941309  7366 layer_factory.hpp:77] Creating layer rpn_conv/3x3
I0111 23:22:53.941323  7366 net.cpp:100] Creating Layer rpn_conv/3x3
I0111 23:22:53.941331  7366 net.cpp:444] rpn_conv/3x3 <- res4f_res4f_relu_0_split_2
I0111 23:22:53.941341  7366 net.cpp:418] rpn_conv/3x3 -> rpn/output
I0111 23:22:53.985126  7366 net.cpp:150] Setting up rpn_conv/3x3
I0111 23:22:53.985185  7366 net.cpp:157] Top shape: 1 512 38 63 (1225728)
I0111 23:22:53.985208  7366 net.cpp:165] Memory required for data: 3227566932
I0111 23:22:53.985224  7366 layer_factory.hpp:77] Creating layer rpn_relu/3x3
I0111 23:22:53.985239  7366 net.cpp:100] Creating Layer rpn_relu/3x3
I0111 23:22:53.985249  7366 net.cpp:444] rpn_relu/3x3 <- rpn/output
I0111 23:22:53.985260  7366 net.cpp:405] rpn_relu/3x3 -> rpn/output (in-place)
I0111 23:22:53.985869  7366 net.cpp:150] Setting up rpn_relu/3x3
I0111 23:22:53.985886  7366 net.cpp:157] Top shape: 1 512 38 63 (1225728)
I0111 23:22:53.985893  7366 net.cpp:165] Memory required for data: 3232469844
I0111 23:22:53.985915  7366 layer_factory.hpp:77] Creating layer rpn/output_rpn_relu/3x3_0_split
I0111 23:22:53.985926  7366 net.cpp:100] Creating Layer rpn/output_rpn_relu/3x3_0_split
I0111 23:22:53.985934  7366 net.cpp:444] rpn/output_rpn_relu/3x3_0_split <- rpn/output
I0111 23:22:53.985957  7366 net.cpp:418] rpn/output_rpn_relu/3x3_0_split -> rpn/output_rpn_relu/3x3_0_split_0
I0111 23:22:53.985970  7366 net.cpp:418] rpn/output_rpn_relu/3x3_0_split -> rpn/output_rpn_relu/3x3_0_split_1
I0111 23:22:53.986021  7366 net.cpp:150] Setting up rpn/output_rpn_relu/3x3_0_split
I0111 23:22:53.986032  7366 net.cpp:157] Top shape: 1 512 38 63 (1225728)
I0111 23:22:53.986040  7366 net.cpp:157] Top shape: 1 512 38 63 (1225728)
I0111 23:22:53.986047  7366 net.cpp:165] Memory required for data: 3242275668
I0111 23:22:53.986053  7366 layer_factory.hpp:77] Creating layer rpn_cls_score
I0111 23:22:53.986068  7366 net.cpp:100] Creating Layer rpn_cls_score
I0111 23:22:53.986076  7366 net.cpp:444] rpn_cls_score <- rpn/output_rpn_relu/3x3_0_split_0
I0111 23:22:53.986086  7366 net.cpp:418] rpn_cls_score -> rpn_cls_score
I0111 23:22:53.986855  7366 net.cpp:150] Setting up rpn_cls_score
I0111 23:22:53.986871  7366 net.cpp:157] Top shape: 1 18 38 63 (43092)
I0111 23:22:53.986893  7366 net.cpp:165] Memory required for data: 3242448036
I0111 23:22:53.986904  7366 layer_factory.hpp:77] Creating layer rpn_cls_score_rpn_cls_score_0_split
I0111 23:22:53.986914  7366 net.cpp:100] Creating Layer rpn_cls_score_rpn_cls_score_0_split
I0111 23:22:53.986922  7366 net.cpp:444] rpn_cls_score_rpn_cls_score_0_split <- rpn_cls_score
I0111 23:22:53.986945  7366 net.cpp:418] rpn_cls_score_rpn_cls_score_0_split -> rpn_cls_score_rpn_cls_score_0_split_0
I0111 23:22:53.986958  7366 net.cpp:418] rpn_cls_score_rpn_cls_score_0_split -> rpn_cls_score_rpn_cls_score_0_split_1
I0111 23:22:53.987001  7366 net.cpp:150] Setting up rpn_cls_score_rpn_cls_score_0_split
I0111 23:22:53.987012  7366 net.cpp:157] Top shape: 1 18 38 63 (43092)
I0111 23:22:53.987020  7366 net.cpp:157] Top shape: 1 18 38 63 (43092)
I0111 23:22:53.987026  7366 net.cpp:165] Memory required for data: 3242792772
I0111 23:22:53.987032  7366 layer_factory.hpp:77] Creating layer rpn_bbox_pred
I0111 23:22:53.987045  7366 net.cpp:100] Creating Layer rpn_bbox_pred
I0111 23:22:53.987053  7366 net.cpp:444] rpn_bbox_pred <- rpn/output_rpn_relu/3x3_0_split_1
I0111 23:22:53.987062  7366 net.cpp:418] rpn_bbox_pred -> rpn_bbox_pred
I0111 23:22:53.988306  7366 net.cpp:150] Setting up rpn_bbox_pred
I0111 23:22:53.988324  7366 net.cpp:157] Top shape: 1 36 38 63 (86184)
I0111 23:22:53.988333  7366 net.cpp:165] Memory required for data: 3243137508
I0111 23:22:53.988343  7366 layer_factory.hpp:77] Creating layer rpn_bbox_pred_rpn_bbox_pred_0_split
I0111 23:22:53.988360  7366 net.cpp:100] Creating Layer rpn_bbox_pred_rpn_bbox_pred_0_split
I0111 23:22:53.988369  7366 net.cpp:444] rpn_bbox_pred_rpn_bbox_pred_0_split <- rpn_bbox_pred
I0111 23:22:53.988379  7366 net.cpp:418] rpn_bbox_pred_rpn_bbox_pred_0_split -> rpn_bbox_pred_rpn_bbox_pred_0_split_0
I0111 23:22:53.988391  7366 net.cpp:418] rpn_bbox_pred_rpn_bbox_pred_0_split -> rpn_bbox_pred_rpn_bbox_pred_0_split_1
I0111 23:22:53.988436  7366 net.cpp:150] Setting up rpn_bbox_pred_rpn_bbox_pred_0_split
I0111 23:22:53.988447  7366 net.cpp:157] Top shape: 1 36 38 63 (86184)
I0111 23:22:53.988456  7366 net.cpp:157] Top shape: 1 36 38 63 (86184)
I0111 23:22:53.988463  7366 net.cpp:165] Memory required for data: 3243826980
I0111 23:22:53.988471  7366 layer_factory.hpp:77] Creating layer rpn_cls_score_reshape
I0111 23:22:53.988482  7366 net.cpp:100] Creating Layer rpn_cls_score_reshape
I0111 23:22:53.988492  7366 net.cpp:444] rpn_cls_score_reshape <- rpn_cls_score_rpn_cls_score_0_split_0
I0111 23:22:53.988500  7366 net.cpp:418] rpn_cls_score_reshape -> rpn_cls_score_reshape
I0111 23:22:53.988533  7366 net.cpp:150] Setting up rpn_cls_score_reshape
I0111 23:22:53.988544  7366 net.cpp:157] Top shape: 1 2 342 63 (43092)
I0111 23:22:53.988553  7366 net.cpp:165] Memory required for data: 3243999348
I0111 23:22:53.988559  7366 layer_factory.hpp:77] Creating layer rpn_cls_score_reshape_rpn_cls_score_reshape_0_split
I0111 23:22:53.988569  7366 net.cpp:100] Creating Layer rpn_cls_score_reshape_rpn_cls_score_reshape_0_split
I0111 23:22:53.988577  7366 net.cpp:444] rpn_cls_score_reshape_rpn_cls_score_reshape_0_split <- rpn_cls_score_reshape
I0111 23:22:53.988586  7366 net.cpp:418] rpn_cls_score_reshape_rpn_cls_score_reshape_0_split -> rpn_cls_score_reshape_rpn_cls_score_reshape_0_split_0
I0111 23:22:53.988597  7366 net.cpp:418] rpn_cls_score_reshape_rpn_cls_score_reshape_0_split -> rpn_cls_score_reshape_rpn_cls_score_reshape_0_split_1
I0111 23:22:53.988639  7366 net.cpp:150] Setting up rpn_cls_score_reshape_rpn_cls_score_reshape_0_split
I0111 23:22:53.988651  7366 net.cpp:157] Top shape: 1 2 342 63 (43092)
I0111 23:22:53.988659  7366 net.cpp:157] Top shape: 1 2 342 63 (43092)
I0111 23:22:53.988667  7366 net.cpp:165] Memory required for data: 3244344084
I0111 23:22:53.988673  7366 layer_factory.hpp:77] Creating layer rpn-data
I0111 23:22:53.989732  7366 net.cpp:100] Creating Layer rpn-data
I0111 23:22:53.989758  7366 net.cpp:444] rpn-data <- rpn_cls_score_rpn_cls_score_0_split_1
I0111 23:22:53.989768  7366 net.cpp:444] rpn-data <- gt_boxes_input-data_2_split_0
I0111 23:22:53.989776  7366 net.cpp:444] rpn-data <- im_info_input-data_1_split_0
I0111 23:22:53.989784  7366 net.cpp:444] rpn-data <- data_input-data_0_split_1
I0111 23:22:53.989794  7366 net.cpp:418] rpn-data -> rpn_labels
I0111 23:22:53.989806  7366 net.cpp:418] rpn-data -> rpn_bbox_targets
I0111 23:22:53.989819  7366 net.cpp:418] rpn-data -> rpn_bbox_inside_weights
I0111 23:22:53.989830  7366 net.cpp:418] rpn-data -> rpn_bbox_outside_weights
I0111 23:22:53.990622  7366 net.cpp:150] Setting up rpn-data
I0111 23:22:53.990669  7366 net.cpp:157] Top shape: 1 1 342 63 (21546)
I0111 23:22:53.990694  7366 net.cpp:157] Top shape: 1 36 38 63 (86184)
I0111 23:22:53.990703  7366 net.cpp:157] Top shape: 1 36 38 63 (86184)
I0111 23:22:53.990712  7366 net.cpp:157] Top shape: 1 36 38 63 (86184)
I0111 23:22:53.990720  7366 net.cpp:165] Memory required for data: 3245464476
I0111 23:22:53.990730  7366 layer_factory.hpp:77] Creating layer rpn_loss_cls
I0111 23:22:53.990744  7366 net.cpp:100] Creating Layer rpn_loss_cls
I0111 23:22:53.990754  7366 net.cpp:444] rpn_loss_cls <- rpn_cls_score_reshape_rpn_cls_score_reshape_0_split_0
I0111 23:22:53.990764  7366 net.cpp:444] rpn_loss_cls <- rpn_labels
…
I0111 23:22:53.992417  7366 net.cpp:157] Top shape: (1)
I0111 23:22:53.992424  7366 net.cpp:160]     with loss weight 1
I0111 23:22:53.992431  7366 net.cpp:165] Memory required for data: 3245464484
I0111 23:22:53.992439  7366 layer_factory.hpp:77] Creating layer rpn_cls_prob
I0111 23:22:53.992449  7366 net.cpp:100] Creating Layer rpn_cls_prob
I0111 23:22:53.992455  7366 net.cpp:444] rpn_cls_prob <- rpn_cls_score_reshape_rpn_cls_score_reshape_0_split_1
I0111 23:22:53.992465  7366 net.cpp:418] rpn_cls_prob -> rpn_cls_prob
I0111 23:22:53.992729  7366 net.cpp:150] Setting up rpn_cls_prob
I0111 23:22:53.992745  7366 net.cpp:157] Top shape: 1 2 342 63 (43092)
I0111 23:22:53.992753  7366 net.cpp:165] Memory required for data: 3245636852
I0111 23:22:53.992759  7366 layer_factory.hpp:77] Creating layer rpn_cls_prob_reshape
I0111 23:22:53.992770  7366 net.cpp:100] Creating Layer rpn_cls_prob_reshape
I0111 23:22:53.992779  7366 net.cpp:444] rpn_cls_prob_reshape <- rpn_cls_prob
I0111 23:22:53.992789  7366 net.cpp:418] rpn_cls_prob_reshape -> rpn_cls_prob_reshape
I0111 23:22:53.992822  7366 net.cpp:150] Setting up rpn_cls_prob_reshape
I0111 23:22:53.992832  7366 net.cpp:157] Top shape: 1 18 38 63 (43092)
I0111 23:22:53.992841  7366 net.cpp:165] Memory required for data: 3245809220
I0111 23:22:53.992848  7366 layer_factory.hpp:77] Creating layer proposal
I0111 23:22:53.996012  7366 net.cpp:100] Creating Layer proposal
I0111 23:22:53.996038  7366 net.cpp:444] proposal <- rpn_cls_prob_reshape
I0111 23:22:53.996045  7366 net.cpp:444] proposal <- rpn_bbox_pred_rpn_bbox_pred_0_split_1
I0111 23:22:53.996049  7366 net.cpp:444] proposal <- im_info_input-data_1_split_1
I0111 23:22:53.996054  7366 net.cpp:418] proposal -> rpn_rois
I0111 23:22:54.007254  7366 net.cpp:150] Setting up proposal
I0111 23:22:54.007282  7366 net.cpp:157] Top shape: 1 5 (5)
I0111 23:22:54.007285  7366 net.cpp:165] Memory required for data: 3245809240
I0111 23:22:54.007290  7366 layer_factory.hpp:77] Creating layer roi-data
I0111 23:22:54.007815  7366 net.cpp:100] Creating Layer roi-data
I0111 23:22:54.007827  7366 net.cpp:444] roi-data <- rpn_rois
I0111 23:22:54.007834  7366 net.cpp:444] roi-data <- gt_boxes_input-data_2_split_1
I0111 23:22:54.007840  7366 net.cpp:418] roi-data -> rois
I0111 23:22:54.007848  7366 net.cpp:418] roi-data -> labels
I0111 23:22:54.007853  7366 net.cpp:418] roi-data -> bbox_targets
I0111 23:22:54.007859  7366 net.cpp:418] roi-data -> bbox_inside_weights
I0111 23:22:54.007864  7366 net.cpp:418] roi-data -> bbox_outside_weights
I0111 23:22:54.008368  7366 net.cpp:150] Setting up roi-data
I0111 23:22:54.008379  7366 net.cpp:157] Top shape: 1 5 1 1 (5)
I0111 23:22:54.008383  7366 net.cpp:157] Top shape: 1 1 1 1 (1)
I0111 23:22:54.008385  7366 net.cpp:157] Top shape: 1 8 1 1 (8)
I0111 23:22:54.008388  7366 net.cpp:157] Top shape: 1 8 1 1 (8)
I0111 23:22:54.008391  7366 net.cpp:157] Top shape: 1 8 1 1 (8)
I0111 23:22:54.008394  7366 net.cpp:165] Memory required for data: 3245809360
I0111 23:22:54.008396  7366 layer_factory.hpp:77] Creating layer rois_roi-data_0_split
I0111 23:22:54.008402  7366 net.cpp:100] Creating Layer rois_roi-data_0_split
I0111 23:22:54.008406  7366 net.cpp:444] rois_roi-data_0_split <- rois
I0111 23:22:54.008411  7366 net.cpp:418] rois_roi-data_0_split -> rois_roi-data_0_split_0
I0111 23:22:54.008419  7366 net.cpp:418] rois_roi-data_0_split -> rois_roi-data_0_split_1
I0111 23:22:54.008424  7366 net.cpp:418] rois_roi-data_0_split -> rois_roi-data_0_split_2
I0111 23:22:54.008477  7366 net.cpp:150] Setting up rois_roi-data_0_split
I0111 23:22:54.008482  7366 net.cpp:157] Top shape: 1 5 1 1 (5)
I0111 23:22:54.008486  7366 net.cpp:157] Top shape: 1 5 1 1 (5)
I0111 23:22:54.008487  7366 net.cpp:157] Top shape: 1 5 1 1 (5)
I0111 23:22:54.008491  7366 net.cpp:165] Memory required for data: 3245809420
I0111 23:22:54.008492  7366 layer_factory.hpp:77] Creating layer labels_roi-data_1_split
I0111 23:22:54.008496  7366 net.cpp:100] Creating Layer labels_roi-data_1_split
I0111 23:22:54.008499  7366 net.cpp:444] labels_roi-data_1_split <- labels
I0111 23:22:54.008503  7366 net.cpp:418] labels_roi-data_1_split -> labels_roi-data_1_split_0
I0111 23:22:54.008508  7366 net.cpp:418] labels_roi-data_1_split -> labels_roi-data_1_split_1
I0111 23:22:54.008543  7366 net.cpp:150] Setting up labels_roi-data_1_split
I0111 23:22:54.008548  7366 net.cpp:157] Top shape: 1 1 1 1 (1)
I0111 23:22:54.008550  7366 net.cpp:157] Top shape: 1 1 1 1 (1)
I0111 23:22:54.008553  7366 net.cpp:165] Memory required for data: 3245809428
I0111 23:22:54.008554  7366 layer_factory.hpp:77] Creating layer bbox_targets_roi-data_2_split
I0111 23:22:54.008558  7366 net.cpp:100] Creating Layer bbox_targets_roi-data_2_split
I0111 23:22:54.008560  7366 net.cpp:444] bbox_targets_roi-data_2_split <- bbox_targets
I0111 23:22:54.008564  7366 net.cpp:418] bbox_targets_roi-data_2_split -> bbox_targets_roi-data_2_split_0
I0111 23:22:54.008569  7366 net.cpp:418] bbox_targets_roi-data_2_split -> bbox_targets_roi-data_2_split_1
I0111 23:22:54.008605  7366 net.cpp:150] Setting up bbox_targets_roi-data_2_split
I0111 23:22:54.008610  7366 net.cpp:157] Top shape: 1 8 1 1 (8)
I0111 23:22:54.008612  7366 net.cpp:157] Top shape: 1 8 1 1 (8)
I0111 23:22:54.008615  7366 net.cpp:165] Memory required for data: 3245809492
I0111 23:22:54.008616  7366 layer_factory.hpp:77] Creating layer bbox_inside_weights_roi-data_3_split
I0111 23:22:54.008620  7366 net.cpp:100] Creating Layer bbox_inside_weights_roi-data_3_split
I0111 23:22:54.008622  7366 net.cpp:444] bbox_inside_weights_roi-data_3_split <- bbox_inside_weights
I0111 23:22:54.008626  7366 net.cpp:418] bbox_inside_weights_roi-data_3_split -> bbox_inside_weights_roi-data_3_split_0
I0111 23:22:54.008631  7366 net.cpp:418] bbox_inside_weights_roi-data_3_split -> bbox_inside_weights_roi-data_3_split_1
I0111 23:22:54.008667  7366 net.cpp:150] Setting up bbox_inside_weights_roi-data_3_split
I0111 23:22:54.008671  7366 net.cpp:157] Top shape: 1 8 1 1 (8)
I0111 23:22:54.008674  7366 net.cpp:157] Top shape: 1 8 1 1 (8)
I0111 23:22:54.008677  7366 net.cpp:165] Memory required for data: 3245809556
I0111 23:22:54.008678  7366 layer_factory.hpp:77] Creating layer conv_new_1
I0111 23:22:54.008688  7366 net.cpp:100] Creating Layer conv_new_1
I0111 23:22:54.008692  7366 net.cpp:444] conv_new_1 <- res5c
I0111 23:22:54.008695  7366 net.cpp:418] conv_new_1 -> conv_new_1
I0111 23:22:54.029409  7366 net.cpp:150] Setting up conv_new_1
I0111 23:22:54.029428  7366 net.cpp:157] Top shape: 1 1024 38 63 (2451456)
I0111 23:22:54.029429  7366 net.cpp:165] Memory required for data: 3255615380
I0111 23:22:54.029438  7366 layer_factory.hpp:77] Creating layer conv_new_1_relu
I0111 23:22:54.029444  7366 net.cpp:100] Creating Layer conv_new_1_relu
I0111 23:22:54.029448  7366 net.cpp:444] conv_new_1_relu <- conv_new_1
I0111 23:22:54.029453  7366 net.cpp:405] conv_new_1_relu -> conv_new_1 (in-place)
I0111 23:22:54.029592  7366 net.cpp:150] Setting up conv_new_1_relu
I0111 23:22:54.029598  7366 net.cpp:157] Top shape: 1 1024 38 63 (2451456)
I0111 23:22:54.029600  7366 net.cpp:165] Memory required for data: 3265421204
I0111 23:22:54.029603  7366 layer_factory.hpp:77] Creating layer conv_new_1_conv_new_1_relu_0_split
I0111 23:22:54.029606  7366 net.cpp:100] Creating Layer conv_new_1_conv_new_1_relu_0_split
I0111 23:22:54.029608  7366 net.cpp:444] conv_new_1_conv_new_1_relu_0_split <- conv_new_1
I0111 23:22:54.029613  7366 net.cpp:418] conv_new_1_conv_new_1_relu_0_split -> conv_new_1_conv_new_1_relu_0_split_0
I0111 23:22:54.029618  7366 net.cpp:418] conv_new_1_conv_new_1_relu_0_split -> conv_new_1_conv_new_1_relu_0_split_1
I0111 23:22:54.029654  7366 net.cpp:150] Setting up conv_new_1_conv_new_1_relu_0_split
I0111 23:22:54.029657  7366 net.cpp:157] Top shape: 1 1024 38 63 (2451456)
I0111 23:22:54.029660  7366 net.cpp:157] Top shape: 1 1024 38 63 (2451456)
I0111 23:22:54.029661  7366 net.cpp:165] Memory required for data: 3285032852
I0111 23:22:54.029664  7366 layer_factory.hpp:77] Creating layer rfcn_cls
I0111 23:22:54.029671  7366 net.cpp:100] Creating Layer rfcn_cls
I0111 23:22:54.029673  7366 net.cpp:444] rfcn_cls <- conv_new_1_conv_new_1_relu_0_split_0
I0111 23:22:54.029678  7366 net.cpp:418] rfcn_cls -> rfcn_cls
I0111 23:22:54.032447  7366 net.cpp:150] Setting up rfcn_cls
I0111 23:22:54.032459  7366 net.cpp:157] Top shape: 1 98 38 63 (234612)
I0111 23:22:54.032462  7366 net.cpp:165] Memory required for data: 3285971300
I0111 23:22:54.032469  7366 layer_factory.hpp:77] Creating layer rfcn_bbox
I0111 23:22:54.032475  7366 net.cpp:100] Creating Layer rfcn_bbox
I0111 23:22:54.032479  7366 net.cpp:444] rfcn_bbox <- conv_new_1_conv_new_1_relu_0_split_1
I0111 23:22:54.032483  7366 net.cpp:418] rfcn_bbox -> rfcn_bbox
I0111 23:22:54.036514  7366 net.cpp:150] Setting up rfcn_bbox
I0111 23:22:54.036526  7366 net.cpp:157] Top shape: 1 392 38 63 (938448)
I0111 23:22:54.036528  7366 net.cpp:165] Memory required for data: 3289725092
I0111 23:22:54.036535  7366 layer_factory.hpp:77] Creating layer psroipooled_cls_rois
I0111 23:22:54.036540  7366 net.cpp:100] Creating Layer psroipooled_cls_rois
I0111 23:22:54.036542  7366 net.cpp:444] psroipooled_cls_rois <- rfcn_cls
I0111 23:22:54.036546  7366 net.cpp:444] psroipooled_cls_rois <- rois_roi-data_0_split_0
I0111 23:22:54.036550  7366 net.cpp:418] psroipooled_cls_rois -> psroipooled_cls_rois
I0111 23:22:54.036556  7366 psroi_pooling_layer.cpp:26] Spatial scale: 0.0625
I0111 23:22:54.036597  7366 net.cpp:150] Setting up psroipooled_cls_rois
I0111 23:22:54.036600  7366 net.cpp:157] Top shape: 1 2 7 7 (98)
I0111 23:22:54.036602  7366 net.cpp:165] Memory required for data: 3289725484
I0111 23:22:54.036604  7366 layer_factory.hpp:77] Creating layer ave_cls_score_rois
I0111 23:22:54.036609  7366 net.cpp:100] Creating Layer ave_cls_score_rois
I0111 23:22:54.036612  7366 net.cpp:444] ave_cls_score_rois <- psroipooled_cls_rois
I0111 23:22:54.036615  7366 net.cpp:418] ave_cls_score_rois -> cls_score
I0111 23:22:54.036768  7366 net.cpp:150] Setting up ave_cls_score_rois
I0111 23:22:54.036773  7366 net.cpp:157] Top shape: 1 2 1 1 (2)
I0111 23:22:54.036775  7366 net.cpp:165] Memory required for data: 3289725492
I0111 23:22:54.036777  7366 layer_factory.hpp:77] Creating layer cls_score_ave_cls_score_rois_0_split
I0111 23:22:54.036782  7366 net.cpp:100] Creating Layer cls_score_ave_cls_score_rois_0_split
I0111 23:22:54.036783  7366 net.cpp:444] cls_score_ave_cls_score_rois_0_split <- cls_score
I0111 23:22:54.036787  7366 net.cpp:418] cls_score_ave_cls_score_rois_0_split -> cls_score_ave_cls_score_rois_0_split_0
I0111 23:22:54.036792  7366 net.cpp:418] cls_score_ave_cls_score_rois_0_split -> cls_score_ave_cls_score_rois_0_split_1
I0111 23:22:54.036795  7366 net.cpp:418] cls_score_ave_cls_score_rois_0_split -> cls_score_ave_cls_score_rois_0_split_2
I0111 23:22:54.036837  7366 net.cpp:150] Setting up cls_score_ave_cls_score_rois_0_split
I0111 23:22:54.036841  7366 net.cpp:157] Top shape: 1 2 1 1 (2)
I0111 23:22:54.036844  7366 net.cpp:157] Top shape: 1 2 1 1 (2)
I0111 23:22:54.036845  7366 net.cpp:157] Top shape: 1 2 1 1 (2)
I0111 23:22:54.036847  7366 net.cpp:165] Memory required for data: 3289725516
I0111 23:22:54.036849  7366 layer_factory.hpp:77] Creating layer psroipooled_loc_rois
I0111 23:22:54.036852  7366 net.cpp:100] Creating Layer psroipooled_loc_rois
I0111 23:22:54.036854  7366 net.cpp:444] psroipooled_loc_rois <- rfcn_bbox
I0111 23:22:54.036857  7366 net.cpp:444] psroipooled_loc_rois <- rois_roi-data_0_split_1
I0111 23:22:54.036860  7366 net.cpp:418] psroipooled_loc_rois -> psroipooled_loc_rois
I0111 23:22:54.036864  7366 psroi_pooling_layer.cpp:26] Spatial scale: 0.0625
I0111 23:22:54.036895  7366 net.cpp:150] Setting up psroipooled_loc_rois
I0111 23:22:54.036898  7366 net.cpp:157] Top shape: 1 8 7 7 (392)
I0111 23:22:54.036900  7366 net.cpp:165] Memory required for data: 3289727084
I0111 23:22:54.036901  7366 layer_factory.hpp:77] Creating layer ave_bbox_pred_rois
I0111 23:22:54.036906  7366 net.cpp:100] Creating Layer ave_bbox_pred_rois
I0111 23:22:54.036907  7366 net.cpp:444] ave_bbox_pred_rois <- psroipooled_loc_rois
I0111 23:22:54.036911  7366 net.cpp:418] ave_bbox_pred_rois -> bbox_pred
I0111 23:22:54.037081  7366 net.cpp:150] Setting up ave_bbox_pred_rois
I0111 23:22:54.037086  7366 net.cpp:157] Top shape: 1 8 1 1 (8)
I0111 23:22:54.037087  7366 net.cpp:165] Memory required for data: 3289727116
I0111 23:22:54.037089  7366 layer_factory.hpp:77] Creating layer bbox_pred_ave_bbox_pred_rois_0_split
I0111 23:22:54.037092  7366 net.cpp:100] Creating Layer bbox_pred_ave_bbox_pred_rois_0_split
I0111 23:22:54.037094  7366 net.cpp:444] bbox_pred_ave_bbox_pred_rois_0_split <- bbox_pred
I0111 23:22:54.037098  7366 net.cpp:418] bbox_pred_ave_bbox_pred_rois_0_split -> bbox_pred_ave_bbox_pred_rois_0_split_0
I0111 23:22:54.037102  7366 net.cpp:418] bbox_pred_ave_bbox_pred_rois_0_split -> bbox_pred_ave_bbox_pred_rois_0_split_1
I0111 23:22:54.037132  7366 net.cpp:150] Setting up bbox_pred_ave_bbox_pred_rois_0_split
I0111 23:22:54.037135  7366 net.cpp:157] Top shape: 1 8 1 1 (8)
I0111 23:22:54.037138  7366 net.cpp:157] Top shape: 1 8 1 1 (8)
I0111 23:22:54.037139  7366 net.cpp:165] Memory required for data: 3289727180
I0111 23:22:54.037142  7366 layer_factory.hpp:77] Creating layer per_roi_loss_cls
I0111 23:22:54.037145  7366 net.cpp:100] Creating Layer per_roi_loss_cls
I0111 23:22:54.037147  7366 net.cpp:444] per_roi_loss_cls <- cls_score_ave_cls_score_rois_0_split_0
I0111 23:22:54.037151  7366 net.cpp:444] per_roi_loss_cls <- labels_roi-data_1_split_0
I0111 23:22:54.037154  7366 net.cpp:418] per_roi_loss_cls -> temp_loss_cls
I0111 23:22:54.037158  7366 net.cpp:418] per_roi_loss_cls -> temp_prob_cls
I0111 23:22:54.037163  7366 net.cpp:418] per_roi_loss_cls -> per_roi_loss_cls
I0111 23:22:54.037168  7366 layer_factory.hpp:77] Creating layer per_roi_loss_cls
I0111 23:22:54.037715  7366 net.cpp:150] Setting up per_roi_loss_cls
I0111 23:22:54.037722  7366 net.cpp:157] Top shape: (1)
I0111 23:22:54.037725  7366 net.cpp:157] Top shape: 1 2 1 1 (2)
I0111 23:22:54.037727  7366 net.cpp:157] Top shape: 1 1 1 1 (1)
I0111 23:22:54.037729  7366 net.cpp:165] Memory required for data: 3289727196
I0111 23:22:54.037731  7366 layer_factory.hpp:77] Creating layer per_roi_loss_bbox
I0111 23:22:54.037736  7366 net.cpp:100] Creating Layer per_roi_loss_bbox
I0111 23:22:54.037739  7366 net.cpp:444] per_roi_loss_bbox <- bbox_pred_ave_bbox_pred_rois_0_split_0
I0111 23:22:54.037742  7366 net.cpp:444] per_roi_loss_bbox <- bbox_targets_roi-data_2_split_0
I0111 23:22:54.037744  7366 net.cpp:444] per_roi_loss_bbox <- bbox_inside_weights_roi-data_3_split_0
I0111 23:22:54.037748  7366 net.cpp:418] per_roi_loss_bbox -> temp_loss_bbox
I0111 23:22:54.037755  7366 net.cpp:418] per_roi_loss_bbox -> per_roi_loss_bbox
I0111 23:22:54.037801  7366 net.cpp:150] Setting up per_roi_loss_bbox
I0111 23:22:54.037804  7366 net.cpp:157] Top shape: (1)
I0111 23:22:54.037807  7366 net.cpp:157] Top shape: 1 1 1 1 (1)
I0111 23:22:54.037809  7366 net.cpp:165] Memory required for data: 3289727204
I0111 23:22:54.037811  7366 layer_factory.hpp:77] Creating layer per_roi_loss
I0111 23:22:54.037814  7366 net.cpp:100] Creating Layer per_roi_loss
I0111 23:22:54.037817  7366 net.cpp:444] per_roi_loss <- per_roi_loss_cls
I0111 23:22:54.037819  7366 net.cpp:444] per_roi_loss <- per_roi_loss_bbox
I0111 23:22:54.037822  7366 net.cpp:418] per_roi_loss -> per_roi_loss
I0111 23:22:54.037840  7366 net.cpp:150] Setting up per_roi_loss
I0111 23:22:54.037843  7366 net.cpp:157] Top shape: 1 1 1 1 (1)
I0111 23:22:54.037845  7366 net.cpp:165] Memory required for data: 3289727208
I0111 23:22:54.037847  7366 layer_factory.hpp:77] Creating layer annotator_detector
I0111 23:22:54.037852  7366 net.cpp:100] Creating Layer annotator_detector
I0111 23:22:54.037854  7366 net.cpp:444] annotator_detector <- rois_roi-data_0_split_2
I0111 23:22:54.037858  7366 net.cpp:444] annotator_detector <- per_roi_loss
I0111 23:22:54.037859  7366 net.cpp:444] annotator_detector <- labels_roi-data_1_split_1
I0111 23:22:54.037863  7366 net.cpp:444] annotator_detector <- bbox_inside_weights_roi-data_3_split_1
I0111 23:22:54.037865  7366 net.cpp:418] annotator_detector -> labels_ohem
I0111 23:22:54.037870  7366 net.cpp:418] annotator_detector -> bbox_loss_weights_ohem
I0111 23:22:54.037901  7366 net.cpp:150] Setting up annotator_detector
I0111 23:22:54.037904  7366 net.cpp:157] Top shape: 1 1 1 1 (1)
I0111 23:22:54.037907  7366 net.cpp:157] Top shape: 1 8 1 1 (8)
I0111 23:22:54.037909  7366 net.cpp:165] Memory required for data: 3289727244
I0111 23:22:54.037910  7366 layer_factory.hpp:77] Creating layer labels_ohem_annotator_detector_0_split
I0111 23:22:54.037914  7366 net.cpp:100] Creating Layer labels_ohem_annotator_detector_0_split
I0111 23:22:54.037915  7366 net.cpp:444] labels_ohem_annotator_detector_0_split <- labels_ohem
I0111 23:22:54.037919  7366 net.cpp:418] labels_ohem_annotator_detector_0_split -> labels_ohem_annotator_detector_0_split_0
I0111 23:22:54.037923  7366 net.cpp:418] labels_ohem_annotator_detector_0_split -> labels_ohem_annotator_detector_0_split_1
I0111 23:22:54.037951  7366 net.cpp:150] Setting up labels_ohem_annotator_detector_0_split
I0111 23:22:54.037955  7366 net.cpp:157] Top shape: 1 1 1 1 (1)
I0111 23:22:54.037957  7366 net.cpp:157] Top shape: 1 1 1 1 (1)
I0111 23:22:54.037959  7366 net.cpp:165] Memory required for data: 3289727252
I0111 23:22:54.037961  7366 layer_factory.hpp:77] Creating layer silence
I0111 23:22:54.037964  7366 net.cpp:100] Creating Layer silence
I0111 23:22:54.037966  7366 net.cpp:444] silence <- bbox_outside_weights
I0111 23:22:54.037969  7366 net.cpp:444] silence <- temp_loss_cls
I0111 23:22:54.037971  7366 net.cpp:444] silence <- temp_prob_cls
…
