…
snapshot: 10000
snapshot_prefix: "resnet50_rfcn_ohem"
iter_size: 2
I0311 23:08:51.166679 17663 solver.cpp:81] Creating training net from train_net file: models/pascal_voc/ResNet-50/rfcn_end2end/train_agnostic_ohem.prototxt
I0311 23:08:51.168937 17663 net.cpp:58] Initializing net from parameters: 
name: "ResNet-50"
state {
  phase: TRAIN
}
layer {
  name: "input-data"
  type: "Python"
  top: "data"
  top: "im_info"
  top: "gt_boxes"
  python_param {
    module: "roi_data_layer.layer"
    layer: "RoIDataLayer"
    param_str: "\'num_classes\': 2"
  }
}
layer {
  name: "conv1"
  type: "Convolution"
  bottom: "data"
  top: "conv1"
  param {
    lr_mult: 0
  }
  param {
    lr_mult: 0
  }
  convolution_param {
    num_output: 64
    pad: 3
    kernel_size: 7
    stride: 2
  }
}
layer {
  name: "bn_conv1"
  type: "BatchNorm"
  bottom: "conv1"
  top: "conv1"
  param {
    lr_mult: 0
    decay_mult: 0
  }
  param {
    lr_mult: 0
    decay_mult: 0
  }
  param {
    lr_mult: 0
    decay_mult: 0
  }
  batch_norm_param {
    use_global_stats: true
  }
}
layer {
  name: "scale_conv1"
  type: "Scale"
  bottom: "conv1"
  top: "conv1"
  param {
    lr_mult: 0
    decay_mult: 0
  }
  param {
    lr_mult: 0
    decay_mult: 0
  }
  scale_param {
    bias_term: true
  }
}
layer {
  name: "conv1_relu"
  type: "ReLU"
  bottom: "conv1"
  top: "conv1"
}
layer {
  name: "pool1"
  type: "Pooling"
  bottom: "conv1"
  top: "pool1"
  pooling_param {
    pool: MAX
    kernel_size: 3
    stride: 2
  }
}
layer {
  name: "res2a_branch1"
  type: "Convolution"
  bottom: "pool1"
  top: "res2a_branch1"
  param {
    lr_mult: 0
  }
  convolution_param {
    num_output: 256
    bias_term: false
    pad: 0
    kernel_size: 1
    stride: 1
  }
}
layer {
  name: "bn2a_branch1"
  type: "BatchNorm"
  bottom: "res2a_branch1"
  top: "res2a_branch1"
  param {
    lr_mult: 0
    decay_mult: 0
  }
  param {
    lr_mult: 0
    decay_mult: 0
  }
  param {
    lr_mult: 0
    decay_mult: 0
  }
  batch_norm_param {
    use_global_stats: true
  }
}
layer {
  name: "scale2a_branch1"
  type: "Scale"
  bottom: "res2a_branch1"
  top: "res2a_branch1"
  param {
    lr_mult: 0
    decay_mult: 0
  }
  param {
    lr_mult: 0
    decay_mult: 0
  }
  scale_param {
    bias_term: true
  }
}
layer {
  name: "res2a_branch2a"
  type: "Convolution"
  bottom: "pool1"
  top: "res2a_branch2a"
  param {
    lr_mult: 0
  }
  convolution_param {
    num_output: 64
    bias_term: false
    pad: 0
    kernel_size: 1
    stride: 1
  }
}
layer {
  name: "bn2a_branch2a"
  type: "BatchNorm"
  bottom: "res2a_branch2a"
  top: "res2a_branch2a"
  param {
    lr_mult: 0
    decay_mult: 0
  }
  param {
    lr_mult: 0
    decay_mult: 0
  }
  param {
    lr_mult: 0
    decay_mult: 0
  }
  batch_norm_param {
    use_global_stats: true
  }
}
layer {
  name: "scale2a_branch2a"
  type: "Scale"
  bottom: "res2a_branch2a"
  top: "res2a_branch2a"
  param {
    lr_mult: 0
    decay_mult: 0
  }
  param {
    lr_mult: 0
    decay_mult: 0
  }
  scale_param {
    bias_term: true
  }
}
layer {
  name: "res2a_branch2a_relu"
  type: "ReLU"
  bottom: "res2a_branch2a"
  top: "res2a_branch2a"
}
layer {
  name: "res2a_branch2b"
  type: "Convolution"
  bottom: "res2a_branch2a"
  top: "res2a_branch2b"
  param {
    lr_mult: 0
  }
  convolution_param {
    num_output: 64
    bias_term: false
    pad: 1
    kernel_size: 3
    stride: 1
  }
}
layer {
  name: "bn2a_branch2b"
  type: "BatchNorm"
  bottom: "res2a_branch2b"
  top: "res2a_branch2b"
  param {
    lr_mult: 0
    decay_mult: 0
  }
  param {
    lr_mult: 0
    decay_mult: 0
  }
  param {
    lr_mult: 0
    decay_mult: 0
  }
  batch_norm_param {
    use_global_stats: true
  }
}
layer {
  name: "scale2a_branch2b"
  type: "Scale"
  bottom: "res2a_branch2b"
  top: "res2a_branch2b"
  param {
    lr_mult: 0
    decay_mult: 0
  }
  param {
    lr_mult: 0
    decay_mult: 0
  }
  scale_param {
    bias_term: true
  }
}
layer {
  name: "res2a_branch2b_relu"
  type: "ReLU"
  bottom: "res2a_branch2b"
  top: "res2a_branch2b"
}
layer {
  name: "res2a_branch2c"
  type: "Convolution"
  bottom: "res2a_branch2b"
  top: "res2a_branch2c"
  param {
    lr_mult: 0
  }
  convolution_param {
    num_output: 256
    bias_term: false
    pad: 0
    kernel_size: 1
    stride: 1
  }
}
layer {
  name: "bn2a_branch2c"
  type: "BatchNorm"
  bottom: "res2a_branch2c"
  top: "res2a_branch2c"
  param {
    lr_mult: 0
    decay_mult: 0
  }
  param {
    lr_mult: 0
    decay_mult: 0
  }
  param {
    lr_mult: 0
    decay_mult: 0
  }
  batch_norm_param {
    use_global_stats: true
  }
}
layer {
  name: "scale2a_branch2c"
  type: "Scale"
  bottom: "res2a_branch2c"
  top: "res2a_branch2c"
  param {
    lr_mult: 0
    decay_mult: 0
  }
  param {
    lr_mult: 0
    decay_mult: 0
  }
  scale_param {
    bias_term: true
  }
}
layer {
  name: "res2a"
  type: "Eltwise"
  bottom: "res2a_branch1"
  bottom: "res2a_branch2c"
  top: "res2a"
}
layer {
  name: "res2a_relu"
  type: "ReLU"
  bottom: "res2a"
  top: "res2a"
}
layer {
  name: "res2b_branch2a"
  type: "Convolution"
  bottom: "res2a"
  top: "res2b_branch2a"
  param {
    lr_mult: 0
  }
  convolution_param {
    num_output: 64
    bias_term: false
    pad: 0
    kernel_size: 1
    stride: 1
  }
}
layer {
  name: "bn2b_branch2a"
  type: "BatchNorm"
  bottom: "res2b_branch2a"
  top: "res2b_branch2a"
  param {
    lr_mult: 0
    decay_mult: 0
  }
  param {
    lr_mult: 0
    decay_mult: 0
  }
  param {
    lr_mult: 0
    decay_mult: 0
  }
  batch_norm_param {
    use_global_stats: true
  }
}
layer {
  name: "scale2b_branch2a"
  type: "Scale"
  bottom: "res2b_branch2a"
  top: "res2b_branch2a"
  param {
    lr_mult: 0
    decay_mult: 0
  }
  param {
    lr_mult: 0
    decay_mult: 0
  }
  scale_param {
    bias_term: true
  }
}
layer {
  name: "res2b_branch2a_relu"
  type: "ReLU"
  bottom: "res2b_branch2a"
  top: "res2b_branch2a"
}
layer {
  name: "res2b_branch2b"
  type: "Convolution"
  bottom: "res2b_branch2a"
  top: "res2b_branch2b"
  param {
    lr_mult: 0
  }
  convolution_param {
    num_output: 64
    bias_term: false
    pad: 1
    kernel_size: 3
    stride: 1
  }
}
layer {
  name: "bn2b_branch2b"
  type: "BatchNorm"
  bottom: "res2b_branch2b"
  top: "res2b_branch2b"
  param {
    lr_mult: 0
    decay_mult: 0
  }
  param {
    lr_mult: 0
    decay_mult: 0
  }
  param {
    lr_mult: 0
    decay_mult: 0
  }
  batch_norm_param {
    use_global_stats: true
  }
}
layer {
  name: "scale2b_branch2b"
  type: "Scale"
  bottom: "res2b_branch2b"
  top: "res2b_branch2b"
  param {
    lr_mult: 0
    decay_mult: 0
  }
  param {
    lr_mult: 0
    decay_mult: 0
  }
  scale_param {
    bias_term: true
  }
}
layer {
  name: "res2b_branch2b_relu"
  type: "ReLU"
  bottom: "res2b_branch2b"
  top: "res2b_branch2b"
}
layer {
  name: "res2b_branch2c"
  type: "Convolution"
  bottom: "res2b_branch2b"
  top: "res2b_branch2c"
  param {
    lr_mult: 0
  }
  convolution_param {
    num_output: 256
    bias_term: false
    pad: 0
    kernel_size: 1
    stride: 1
  }
}
layer {
  name: "bn2b_branch2c"
  type: "BatchNorm"
  bottom: "res2b_branch2c"
  top: "res2b_branch2c"
  param {
    lr_mult: 0
    decay_mult: 0
  }
  param {
    lr_mult: 0
    decay_mult: 0
  }
  param {
    lr_mult: 0
    decay_mult: 0
  }
  batch_norm_param {
    use_global_stats: true
  }
}
layer {
  name: "scale2b_branch2c"
  type: "Scale"
  bottom: "res2b_branch2c"
  top: "res2b_branch2c"
  param {
    lr_mult: 0
    decay_mult: 0
  }
  param {
    lr_mult: 0
    decay_mult: 0
  }
  scale_param {
    bias_term: true
  }
}
layer {
  name: "res2b"
  type: "Eltwise"
  bottom: "res2a"
  bottom: "res2b_branch2c"
  top: "res2b"
}
layer {
  name: "res2b_relu"
  type: "ReLU"
  bottom: "res2b"
  top: "res2b"
}
layer {
  name: "res2c_branch2a"
  type: "Convolution"
  bottom: "res2b"
  top: "res2c_branch2a"
  param {
    lr_mult: 0
  }
  convolution_param {
    num_output: 64
    bias_term: false
    pad: 0
    kernel_size: 1
    stride: 1
  }
}
layer {
  name: "bn2c_branch2a"
  type: "BatchNorm"
  bottom: "res2c_branch2a"
  top: "res2c_branch2a"
  param {
    lr_mult: 0
    decay_mult: 0
  }
  param {
    lr_mult: 0
    decay_mult: 0
  }
  param {
    lr_mult: 0
    decay_mult: 0
  }
  batch_norm_param {
    use_global_stats: true
  }
}
layer {
  name: "scale2c_branch2a"
  type: "Scale"
  bottom: "res2c_branch2a"
  top: "res2c_branch2a"
  param {
    lr_mult: 0
    decay_mult: 0
  }
  param {
    lr_mult: 0
    decay_mult: 0
  }
  scale_param {
    bias_term: true
  }
}
layer {
  name: "res2c_branch2a_relu"
  type: "ReLU"
  bottom: "res2c_branch2a"
  top: "res2c_branch2a"
}
layer {
  name: "res2c_branch2b"
  type: "Convolution"
  bottom: "res2c_branch2a"
  top: "res2c_branch2b"
  param {
    lr_mult: 0
  }
  convolution_param {
    num_output: 64
    bias_term: false
    pad: 1
    kernel_size: 3
    stride: 1
  }
}
layer {
  name: "bn2c_branch2b"
  type: "BatchNorm"
  bottom: "res2c_branch2b"
  top: "res2c_branch2b"
  param {
    lr_mult: 0
    decay_mult: 0
  }
  param {
    lr_mult: 0
    decay_mult: 0
  }
  param {
    lr_mult: 0
    decay_mult: 0
  }
  batch_norm_param {
    use_global_stats: true
  }
}
layer {
  name: "scale2c_branch2b"
  type: "Scale"
  bottom: "res2c_branch2b"
  top: "res2c_branch2b"
  param {
    lr_mult: 0
    decay_mult: 0
  }
  param {
    lr_mult: 0
    decay_mult: 0
  }
  scale_param {
    bias_term: true
  }
}
layer {
  name: "res2c_branch2b_relu"
  type: "ReLU"
  bottom: "res2c_branch2b"
  top: "res2c_branch2b"
}
layer {
  name: "res2c_branch2c"
  type: "Convolution"
  bottom: "res2c_branch2b"
  top: "res2c_branch2c"
  param {
    lr_mult: 0
  }
  convolution_param {
    num_output: 256
    bias_term: false
    pad: 0
    kernel_size: 1
    stride: 1
  }
}
layer {
  name: "bn2c_branch2c"
  type: "BatchNorm"
  bottom: "res2c_branch2c"
  top: "res2c_branch2c"
  param {
    lr_mult: 0
    decay_mult: 0
  }
  param {
    lr_mult: 0
    decay_mult: 0
  }
  param {
    lr_mult: 0
    decay_mult: 0
  }
  batch_norm_param {
    use_global_stats: true
  }
}
layer {
  name: "scale2c_branch2c"
  type: "Scale"
  bottom: "res2c_branch2c"
  top: "res2c_branch2c"
  param {
    lr_mult: 0
    decay_mult: 0
  }
  param {
    lr_mult: 0
    decay_mult: 0
  }
  scale_param {
    bias_term: true
  }
}
layer {
  name: "res2c"
  type: "Eltwise"
  bottom: "res2b"
  bottom: "res2c_branch2c"
  top: "res2c"
}
layer {
  name: "res2c_relu"
  type: "ReLU"
  bottom: "res2c"
  top: "res2c"
}
layer {
  name: "res3a_branch1"
  type: "Convolution"
  bottom: "res2c"
  top: "res3a_branch1"
  param {
    lr_mult: 1
  }
  convolution_param {
    num_output: 512
    bias_term: false
    pad: 0
    kernel_size: 1
    stride: 2
  }
}
layer {
  name: "bn3a_branch1"
  type: "BatchNorm"
  bottom: "res3a_branch1"
  top: "res3a_branch1"
  param {
    lr_mult: 0
    decay_mult: 0
  }
  param {
    lr_mult: 0
    decay_mult: 0
  }
  param {
    lr_mult: 0
    decay_mult: 0
  }
  batch_norm_param {
    use_global_stats: true
  }
}
layer {
  name: "scale3a_branch1"
  type: "Scale"
  bottom: "res3a_branch1"
  top: "res3a_branch1"
  param {
    lr_mult: 0
    decay_mult: 0
  }
  param {
    lr_mult: 0
    decay_mult: 0
  }
  scale_param {
    bias_term: true
  }
}
layer {
  name: "res3a_branch2a"
  type: "Convolution"
  bottom: "res2c"
  top: "res3a_branch2a"
  param {
    lr_mult: 1
  }
  convolution_param {
    num_output: 128
    bias_term: false
    pad: 0
    kernel_size: 1
    stride: 2
  }
}
layer {
  name: "bn3a_branch2a"
  type: "BatchNorm"
  bottom: "res3a_branch2a"
  top: "res3a_branch2a"
  param {
    lr_mult: 0
    decay_mult: 0
  }
  param {
    lr_mult: 0
    decay_mult: 0
  }
  param {
    lr_mult: 0
    decay_mult: 0
  }
  batch_norm_param {
    use_global_stats: true
  }
}
layer {
  name: "scale3a_branch2a"
  type: "Scale"
  bottom: "res3a_branch2a"
  top: "res3a_branch2a"
  param {
    lr_mult: 0
    decay_mult: 0
  }
  param {
    lr_mult: 0
    decay_mult: 0
  }
  scale_param {
    bias_term: true
  }
}
layer {
  name: "res3a_branch2a_relu"
  type: "ReLU"
  bottom: "res3a_branch2a"
  top: "res3a_branch2a"
}
layer {
  name: "res3a_branch2b"
  type: "Convolution"
  bottom: "res3a_branch2a"
  top: "res3a_branch2b"
  param {
    lr_mult: 1
  }
  convolution_param {
    num_output: 128
    bias_term: false
    pad: 1
    kernel_size: 3
    stride: 1
  }
}
layer {
  name: "bn3a_branch2b"
  type: "BatchNorm"
  bottom: "res3a_branch2b"
  top: "res3a_branch2b"
  param {
    lr_mult: 0
    decay_mult: 0
  }
  param {
    lr_mult: 0
    decay_mult: 0
  }
  param {
    lr_mult: 0
    decay_mult: 0
  }
  batch_norm_param {
    use_global_stats: true
  }
}
layer {
  name: "scale3a_branch2b"
  type: "Scale"
  bottom: "res3a_branch2b"
  top: "res3a_branch2b"
  param {
    lr_mult: 0
    decay_mult: 0
  }
  param {
    lr_mult: 0
    decay_mult: 0
  }
  scale_param {
    bias_term: true
  }
}
layer {
  name: "res3a_branch2b_relu"
  type: "ReLU"
  bottom: "res3a_branch2b"
  top: "res3a_branch2b"
}
layer {
  name: "res3a_branch2c"
  type: "Convolution"
  bottom: "res3a_branch2b"
  top: "res3a_branch2c"
  param {
    lr_mult: 1
  }
  convolution_param {
    num_output: 512
    bias_term: false
    pad: 0
    kernel_size: 1
    stride: 1
  }
}
layer {
  name: "bn3a_branch2c"
  type: "BatchNorm"
  bottom: "res3a_branch2c"
  top: "res3a_branch2c"
  param {
    lr_mult: 0
    decay_mult: 0
  }
  param {
    lr_mult: 0
    decay_mult: 0
  }
  param {
    lr_mult: 0
    decay_mult: 0
  }
  batch_norm_param {
    use_global_stats: true
  }
}
layer {
  name: "scale3a_branch2c"
  type: "Scale"
  bottom: "res3a_branch2c"
  top: "res3a_branch2c"
  param {
    lr_mult: 0
    decay_mult: 0
  }
  param {
    lr_mult: 0
    decay_mult: 0
  }
  scale_param {
    bias_term: true
  }
}
layer {
  name: "res3a"
  type: "Eltwise"
  bottom: "res3a_branch1"
  bottom: "res3a_branch2c"
  top: "res3a"
}
layer {
  name: "res3a_relu"
  type: "ReLU"
  bottom: "res3a"
  top: "res3a"
}
layer {
  name: "res3b_branch2a"
  type: "Convolution"
  bottom: "res3a"
  top: "res3b_branch2a"
  param {
    lr_mult: 1
  }
  convolution_param {
    num_output: 128
    bias_term: false
    pad: 0
    kernel_size: 1
    stride: 1
  }
}
layer {
  name: "bn3b_branch2a"
  type: "BatchNorm"
  bottom: "res3b_branch2a"
  top: "res3b_branch2a"
  param {
    lr_mult: 0
    decay_mult: 0
  }
  param {
    lr_mult: 0
    decay_mult: 0
  }
  param {
    lr_mult: 0
    decay_mult: 0
  }
  batch_norm_param {
    use_global_stats: true
  }
}
layer {
  name: "scale3b_branch2a"
  type: "Scale"
  bottom: "res3b_branch2a"
  top: "res3b_branch2a"
  param {
    lr_mult: 0
    decay_mult: 0
  }
  param {
    lr_mult: 0
    decay_mult: 0
  }
  scale_param {
    bias_term: true
  }
}
layer {
  name: "res3b_branch2a_relu"
  type: "ReLU"
  bottom: "res3b_branch2a"
  top: "res3b_branch2a"
}
layer {
  name: "res3b_branch2b"
  type: "Convolution"
  bottom: "res3b_branch2a"
  top: "res3b_branch2b"
  param {
    lr_mult: 1
  }
  convolution_param {
    num_output: 128
    bias_term: false
    pad: 1
    kernel_size: 3
    stride: 1
  }
}
layer {
  name: "bn3b_branch2b"
  type: "BatchNorm"
  bottom: "res3b_branch2b"
  top: "res3b_branch2b"
  param {
    lr_mult: 0
    decay_mult: 0
  }
  param {
    lr_mult: 0
    decay_mult: 0
  }
  param {
    lr_mult: 0
    decay_mult: 0
  }
  batch_norm_param {
    use_global_stats: true
  }
}
layer {
  name: "scale3b_branch2b"
  type: "Scale"
  bottom: "res3b_branch2b"
  top: "res3b_branch2b"
  param {
    lr_mult: 0
    decay_mult: 0
  }
  param {
    lr_mult: 0
    decay_mult: 0
  }
  scale_param {
    bias_term: true
  }
}
layer {
  name: "res3b_branch2b_relu"
  type: "ReLU"
  bottom: "res3b_branch2b"
  top: "res3b_branch2b"
}
layer {
  name: "res3b_branch2c"
  type: "Convolution"
  bottom: "res3b_branch2b"
  top: "res3b_branch2c"
  param {
    lr_mult: 1
  }
  convolution_param {
    num_output: 512
    bias_term: false
    pad: 0
    kernel_size: 1
    stride: 1
  }
}
layer {
  name: "bn3b_branch2c"
  type: "BatchNorm"
  bottom: "res3b_branch2c"
  top: "res3b_branch2c"
  param {
    lr_mult: 0
    decay_mult: 0
  }
  param {
    lr_mult: 0
    decay_mult: 0
  }
  param {
    lr_mult: 0
    decay_mult: 0
  }
  batch_norm_param {
    use_global_stats: true
  }
}
layer {
  name: "scale3b_branch2c"
  type: "Scale"
  bottom: "res3b_branch2c"
  top: "res3b_branch2c"
  param {
    lr_mult: 0
    decay_mult: 0
  }
  param {
    lr_mult: 0
    decay_mult: 0
  }
  scale_param {
    bias_term: true
  }
}
layer {
  name: "res3b"
  type: "Eltwise"
  bottom: "res3a"
  bottom: "res3b_branch2c"
  top: "res3b"
}
layer {
  name: "res3b_relu"
  type: "ReLU"
  bottom: "res3b"
  top: "res3b"
}
layer {
  name: "res3c_branch2a"
  type: "Convolution"
  bottom: "res3b"
  top: "res3c_branch2a"
  param {
    lr_mult: 1
  }
  convolution_param {
    num_output: 128
    bias_term: false
    pad: 0
    kernel_size: 1
    stride: 1
  }
}
layer {
  name: "bn3c_branch2a"
  type: "BatchNorm"
  bottom: "res3c_branch2a"
  top: "res3c_branch2a"
  param {
    lr_mult: 0
    decay_mult: 0
  }
  param {
    lr_mult: 0
    decay_mult: 0
  }
  param {
    lr_mult: 0
    decay_mult: 0
  }
  batch_norm_param {
    use_global_stats: true
  }
}
layer {
  name: "scale3c_branch2a"
  type: "Scale"
  bottom: "res3c_branch2a"
  top: "res3c_branch2a"
  param {
    lr_mult: 0
    decay_mult: 0
  }
  param {
    lr_mult: 0
    decay_mult: 0
  }
  scale_param {
    bias_term: true
  }
}
layer {
  name: "res3c_branch2a_relu"
  type: "ReLU"
  bottom: "res3c_branch2a"
  top: "res3c_branch2a"
}
layer {
  name: "res3c_branch2b"
  type: "Convolution"
  bottom: "res3c_branch2a"
  top: "res3c_branch2b"
  param {
    lr_mult: 1
  }
  convolution_param {
    num_output: 128
    bias_term: false
    pad: 1
    kernel_size: 3
    stride: 1
  }
}
layer {
  name: "bn3c_branch2b"
  type: "BatchNorm"
  bottom: "res3c_branch2b"
  top: "res3c_branch2b"
  param {
    lr_mult: 0
    decay_mult: 0
  }
  param {
    lr_mult: 0
    decay_mult: 0
  }
  param {
    lr_mult: 0
    decay_mult: 0
  }
  batch_norm_param {
    use_global_stats: true
  }
}
layer {
  name: "scale3c_branch2b"
  type: "Scale"
  bottom: "res3c_branch2b"
  top: "res3c_branch2b"
  param {
    lr_mult: 0
    decay_mult: 0
  }
  param {
    lr_mult: 0
    decay_mult: 0
  }
  scale_param {
    bias_term: true
  }
}
layer {
  name: "res3c_branch2b_relu"
  type: "ReLU"
  bottom: "res3c_branch2b"
  top: "res3c_branch2b"
}
layer {
  name: "res3c_branch2c"
  type: "Convolution"
  bottom: "res3c_branch2b"
  top: "res3c_branch2c"
  param {
    lr_mult: 1
  }
  convolution_param {
    num_output: 512
    bias_term: false
    pad: 0
    kernel_size: 1
    stride: 1
  }
}
layer {
  name: "bn3c_branch2c"
  type: "BatchNorm"
  bottom: "res3c_branch2c"
  top: "res3c_branch2c"
  param {
    lr_mult: 0
    decay_mult: 0
  }
  param {
    lr_mult: 0
    decay_mult: 0
  }
  param {
    lr_mult: 0
    decay_mult: 0
  }
  batch_norm_param {
    use_global_stats: true
  }
}
layer {
  name: "scale3c_branch2c"
  type: "Scale"
  bottom: "res3c_branch2c"
  top: "res3c_branch2c"
  param {
    lr_mult: 0
    decay_mult: 0
  }
  param {
    lr_mult: 0
    decay_mult: 0
  }
  scale_param {
    bias_term: true
  }
}
layer {
  name: "res3c"
  type: "Eltwise"
  bottom: "res3b"
  bottom: "res3c_branch2c"
  top: "res3c"
}
layer {
  name: "res3c_relu"
  type: "ReLU"
  bottom: "res3c"
  top: "res3c"
}
layer {
  name: "res3d_branch2a"
  type: "Convolution"
  bottom: "res3c"
  top: "res3d_branch2a"
  param {
    lr_mult: 1
  }
  convolution_param {
    num_output: 128
    bias_term: false
    pad: 0
    kernel_size: 1
    stride: 1
  }
}
layer {
  name: "bn3d_branch2a"
  type: "BatchNorm"
  bottom: "res3d_branch2a"
  top: "res3d_branch2a"
  param {
    lr_mult: 0
    decay_mult: 0
  }
  param {
    lr_mult: 0
    decay_mult: 0
  }
  param {
    lr_mult: 0
    decay_mult: 0
  }
  batch_norm_param {
    use_global_stats: true
  }
}
layer {
  name: "scale3d_branch2a"
  type: "Scale"
  bottom: "res3d_branch2a"
  top: "res3d_branch2a"
  param {
    lr_mult: 0
    decay_mult: 0
  }
  param {
    lr_mult: 0
    decay_mult: 0
  }
  scale_param {
    bias_term: true
  }
}
layer {
  name: "res3d_branch2a_relu"
  type: "ReLU"
  bottom: "res3d_branch2a"
  top: "res3d_branch2a"
}
layer {
  name: "res3d_branch2b"
  type: "Convolution"
  bottom: "res3d_branch2a"
  top: "res3d_branch2b"
  param {
    lr_mult: 1
  }
  convolution_param {
    num_output: 128
    bias_term: false
    pad: 1
    kernel_size: 3
    stride: 1
  }
}
layer {
  name: "bn3d_branch2b"
  type: "BatchNorm"
  bottom: "res3d_branch2b"
  top: "res3d_branch2b"
  param {
    lr_mult: 0
    decay_mult: 0
  }
  param {
    lr_mult: 0
    decay_mult: 0
  }
  param {
    lr_mult: 0
    decay_mult: 0
  }
  batch_norm_param {
    use_global_stats: true
  }
}
layer {
  name: "scale3d_branch2b"
  type: "Scale"
  bottom: "res3d_branch2b"
  top: "res3d_branch2b"
  param {
    lr_mult: 0
    decay_mult: 0
  }
  param {
    lr_mult: 0
    decay_mult: 0
  }
  scale_param {
    bias_term: true
  }
}
layer {
  name: "res3d_branch2b_relu"
  type: "ReLU"
  bottom: "res3d_branch2b"
  top: "res3d_branch2b"
}
layer {
  name: "res3d_branch2c"
  type: "Convolution"
  bottom: "res3d_branch2b"
  top: "res3d_branch2c"
  param {
    lr_mult: 1
  }
  convolution_param {
    num_output: 512
    bias_term: false
    pad: 0
    kernel_size: 1
    stride: 1
  }
}
layer {
  name: "bn3d_branch2c"
  type: "BatchNorm"
  bottom: "res3d_branch2c"
  top: "res3d_branch2c"
  param {
    lr_mult: 0
    decay_mult: 0
  }
  param {
    lr_mult: 0
    decay_mult: 0
  }
  param {
    lr_mult: 0
    decay_mult: 0
  }
  batch_norm_param {
    use_global_stats: true
  }
}
layer {
  name: "scale3d_branch2c"
  type: "Scale"
  bottom: "res3d_branch2c"
  top: "res3d_branch2c"
  param {
    lr_mult: 0
    decay_mult: 0
  }
  param {
    lr_mult: 0
    decay_mult: 0
  }
  scale_param {
    bias_term: true
  }
}
layer {
  name: "res3d"
  type: "Eltwise"
  bottom: "res3c"
  bottom: "res3d_branch2c"
  top: "res3d"
}
layer {
  name: "res3d_relu"
  type: "ReLU"
  bottom: "res3d"
  top: "res3d"
}
layer {
  name: "res4a_branch1"
  type: "Convolution"
  bottom: "res3d"
  top: "res4a_branch1"
  param {
    lr_mult: 1
  }
  convolution_param {
    num_output: 1024
    bias_term: false
    pad: 0
    kernel_size: 1
    stride: 2
  }
}
layer {
  name: "bn4a_branch1"
  type: "BatchNorm"
  bottom: "res4a_branch1"
  top: "res4a_branch1"
  param {
    lr_mult: 0
    decay_mult: 0
  }
  param {
    lr_mult: 0
    decay_mult: 0
  }
  param {
    lr_mult: 0
    decay_mult: 0
  }
  batch_norm_param {
    use_global_stats: true
  }
}
layer {
  name: "scale4a_branch1"
  type: "Scale"
  bottom: "res4a_branch1"
  top: "res4a_branch1"
  param {
    lr_mult: 0
    decay_mult: 0
  }
  param {
    lr_mult: 0
    decay_mult: 0
  }
  scale_param {
    bias_term: true
  }
}
layer {
  name: "res4a_branch2a"
  type: "Convolution"
  bottom: "res3d"
  top: "res4a_branch2a"
  param {
    lr_mult: 1
  }
  convolution_param {
    num_output: 256
    bias_term: false
    pad: 0
    kernel_size: 1
    stride: 2
  }
}
layer {
  name: "bn4a_branch2a"
  type: "BatchNorm"
  bottom: "res4a_branch2a"
  top: "res4a_branch2a"
  param {
    lr_mult: 0
    decay_mult: 0
  }
  param {
    lr_mult: 0
    decay_mult: 0
  }
  param {
    lr_mult: 0
    decay_mult: 0
  }
  batch_norm_param {
    use_global_stats: true
  }
}
layer {
  name: "scale4a_branch2a"
  type: "Scale"
  bottom: "res4a_branch2a"
  top: "res4a_branch2a"
  param {
    lr_mult: 0
    decay_mult: 0
  }
  param {
    lr_mult: 0
    decay_mult: 0
  }
  scale_param {
    bias_term: true
  }
}
layer {
  name: "res4a_branch2a_relu"
  type: "ReLU"
  bottom: "res4a_branch2a"
  top: "res4a_branch2a"
}
layer {
  name: "res4a_branch2b"
  type: "Convolution"
  bottom: "res4a_branch2a"
  top: "res4a_branch2b"
  param {
    lr_mult: 1
  }
  convolution_param {
    num_output: 256
    bias_term: false
    pad: 1
    kernel_size: 3
    stride: 1
  }
}
layer {
  name: "bn4a_branch2b"
  type: "BatchNorm"
  bottom: "res4a_branch2b"
  top: "res4a_branch2b"
  param {
    lr_mult: 0
    decay_mult: 0
  }
  param {
    lr_mult: 0
    decay_mult: 0
  }
  param {
    lr_mult: 0
    decay_mult: 0
  }
  batch_norm_param {
    use_global_stats: true
  }
}
layer {
  name: "scale4a_branch2b"
  type: "Scale"
  bottom: "res4a_branch2b"
  top: "res4a_branch2b"
  param {
    lr_mult: 0
    decay_mult: 0
  }
  param {
    lr_mult: 0
    decay_mult: 0
  }
  scale_param {
    bias_term: true
  }
}
layer {
  name: "res4a_branch2b_relu"
  type: "ReLU"
  bottom: "res4a_branch2b"
  top: "res4a_branch2b"
}
layer {
  name: "res4a_branch2c"
  type: "Convolution"
  bottom: "res4a_branch2b"
  top: "res4a_branch2c"
  param {
    lr_mult: 1
  }
  convolution_param {
    num_output: 1024
    bias_term: false
    pad: 0
    kernel_size: 1
    stride: 1
  }
}
layer {
  name: "bn4a_branch2c"
  type: "BatchNorm"
  bottom: "res4a_branch2c"
  top: "res4a_branch2c"
  param {
    lr_mult: 0
    decay_mult: 0
  }
  param {
    lr_mult: 0
    decay_mult: 0
  }
  param {
    lr_mult: 0
    decay_mult: 0
  }
  batch_norm_param {
    use_global_stats: true
  }
}
layer {
  name: "scale4a_branch2c"
  type: "Scale"
  bottom: "res4a_branch2c"
  top: "res4a_branch2c"
  param {
    lr_mult: 0
    decay_mult: 0
  }
  param {
    lr_mult: 0
    decay_mult: 0
  }
  scale_param {
    bias_term: true
  }
}
layer {
  name: "res4a"
  type: "Eltwise"
  bottom: "res4a_branch1"
  bottom: "res4a_branch2c"
  top: "res4a"
}
layer {
  name: "res4a_relu"
  type: "ReLU"
  bottom: "res4a"
  top: "res4a"
}
layer {
  name: "res4b_branch2a"
  type: "Convolution"
  bottom: "res4a"
  top: "res4b_branch2a"
  param {
    lr_mult: 1
  }
  convolution_param {
    num_output: 256
    bias_term: false
    pad: 0
    kernel_size: 1
    stride: 1
  }
}
layer {
  name: "bn4b_branch2a"
  type: "BatchNorm"
  bottom: "res4b_branch2a"
  top: "res4b_branch2a"
  param {
    lr_mult: 0
    decay_mult: 0
  }
  param {
    lr_mult: 0
    decay_mult: 0
  }
  param {
    lr_mult: 0
    decay_mult: 0
  }
  batch_norm_param {
    use_global_stats: true
  }
}
layer {
  name: "scale4b_branch2a"
  type: "Scale"
  bottom: "res4b_branch2a"
  top: "res4b_branch2a"
  param {
    lr_mult: 0
    decay_mult: 0
  }
  param {
    lr_mult: 0
    decay_mult: 0
  }
  scale_param {
    bias_term: true
  }
}
layer {
  name: "res4b_branch2a_relu"
  type: "ReLU"
  bottom: "res4b_branch2a"
  top: "res4b_branch2a"
}
layer {
  name: "res4b_branch2b"
  type: "Convolution"
  bottom: "res4b_branch2a"
  top: "res4b_branch2b"
  param {
    lr_mult: 1
  }
  convolution_param {
    num_output: 256
    bias_term: false
    pad: 1
    kernel_size: 3
    stride: 1
  }
}
layer {
  name: "bn4b_branch2b"
  type: "BatchNorm"
  bottom: "res4b_branch2b"
  top: "res4b_branch2b"
  param {
    lr_mult: 0
    decay_mult: 0
  }
  param {
    lr_mult: 0
    decay_mult: 0
  }
  param {
    lr_mult: 0
    decay_mult: 0
  }
  batch_norm_param {
    use_global_stats: true
  }
}
layer {
  name: "scale4b_branch2b"
  type: "Scale"
  bottom: "res4b_branch2b"
  top: "res4b_branch2b"
  param {
    lr_mult: 0
    decay_mult: 0
  }
  param {
    lr_mult: 0
    decay_mult: 0
  }
  scale_param {
    bias_term: true
  }
}
layer {
  name: "res4b_branch2b_relu"
  type: "ReLU"
  bottom: "res4b_branch2b"
  top: "res4b_branch2b"
}
layer {
  name: "res4b_branch2c"
  type: "Convolution"
  bottom: "res4b_branch2b"
  top: "res4b_branch2c"
  param {
    lr_mult: 1
  }
  convolution_param {
    num_output: 1024
    bias_term: false
    pad: 0
    kernel_size: 1
    stride: 1
  }
}
layer {
  name: "bn4b_branch2c"
  type: "BatchNorm"
  bottom: "res4b_branch2c"
  top: "res4b_branch2c"
  param {
    lr_mult: 0
    decay_mult: 0
  }
  param {
    lr_mult: 0
    decay_mult: 0
  }
  param {
    lr_mult: 0
    decay_mult: 0
  }
  batch_norm_param {
    use_global_stats: true
  }
}
layer {
  name: "scale4b_branch2c"
  type: "Scale"
  bottom: "res4b_branch2c"
  top: "res4b_branch2c"
  param {
    lr_mult: 0
    decay_mult: 0
  }
  param {
    lr_mult: 0
    decay_mult: 0
  }
  scale_param {
    bias_term: true
  }
}
layer {
  name: "res4b"
  type: "Eltwise"
  bottom: "res4a"
  bottom: "res4b_branch2c"
  top: "res4b"
}
layer {
  name: "res4b_relu"
  type: "ReLU"
  bottom: "res4b"
  top: "res4b"
}
layer {
  name: "res4c_branch2a"
  type: "Convolution"
  bottom: "res4b"
  top: "res4c_branch2a"
  param {
    lr_mult: 1
  }
  convolution_param {
    num_output: 256
    bias_term: false
    pad: 0
    kernel_size: 1
    stride: 1
  }
}
layer {
  name: "bn4c_branch2a"
  type: "BatchNorm"
  bottom: "res4c_branch2a"
  top: "res4c_branch2a"
  param {
    lr_mult: 0
    decay_mult: 0
  }
  param {
    lr_mult: 0
    decay_mult: 0
  }
  param {
    lr_mult: 0
    decay_mult: 0
  }
  batch_norm_param {
    use_global_stats: true
  }
}
layer {
  name: "scale4c_branch2a"
  type: "Scale"
  bottom: "res4c_branch2a"
  top: "res4c_branch2a"
  param {
    lr_mult: 0
    decay_mult: 0
  }
  param {
    lr_mult: 0
    decay_mult: 0
  }
  scale_param {
    bias_term: true
  }
}
layer {
  name: "res4c_branch2a_relu"
  type: "ReLU"
  bottom: "res4c_branch2a"
  top: "res4c_branch2a"
}
layer {
  name: "res4c_branch2b"
  type: "Convolution"
  bottom: "res4c_branch2a"
  top: "res4c_branch2b"
  param {
    lr_mult: 1
  }
  convolution_param {
    num_output: 256
    bias_term: false
    pad: 1
    kernel_size: 3
    stride: 1
  }
}
layer {
  name: "bn4c_branch2b"
  type: "BatchNorm"
  bottom: "res4c_branch2b"
  top: "res4c_branch2b"
  param {
    lr_mult: 0
    decay_mult: 0
  }
  param {
    lr_mult: 0
    decay_mult: 0
  }
  param {
    lr_mult: 0
    decay_mult: 0
  }
  batch_norm_param {
    use_global_stats: true
  }
}
layer {
  name: "scale4c_branch2b"
  type: "Scale"
  bottom: "res4c_branch2b"
  top: "res4c_branch2b"
  param {
    lr_mult: 0
    decay_mult: 0
  }
  param {
    lr_mult: 0
    decay_mult: 0
  }
  scale_param {
    bias_term: true
  }
}
layer {
  name: "res4c_branch2b_relu"
  type: "ReLU"
  bottom: "res4c_branch2b"
  top: "res4c_
I0311 23:08:51.169728 17663 layer_factory.hpp:77] Creating layer input-data
I0311 23:08:51.229250 17663 net.cpp:100] Creating Layer input-data
I0311 23:08:51.229271 17663 net.cpp:418] input-data -> data
I0311 23:08:51.229281 17663 net.cpp:418] input-data -> im_info
I0311 23:08:51.229288 17663 net.cpp:418] input-data -> gt_boxes
RoiDataLayer: name_to_top: {'gt_boxes': 2, 'data': 0, 'im_info': 1}
I0311 23:08:53.694437 17663 net.cpp:150] Setting up input-data
I0311 23:08:53.694485 17663 net.cpp:157] Top shape: 1 3 600 1000 (1800000)
I0311 23:08:53.694489 17663 net.cpp:157] Top shape: 1 3 (3)
I0311 23:08:53.694492 17663 net.cpp:157] Top shape: 1 4 (4)
I0311 23:08:53.694494 17663 net.cpp:165] Memory required for data: 7200028
I0311 23:08:53.694499 17663 layer_factory.hpp:77] Creating layer data_input-data_0_split
I0311 23:08:53.694524 17663 net.cpp:100] Creating Layer data_input-data_0_split
I0311 23:08:53.694527 17663 net.cpp:444] data_input-data_0_split <- data
I0311 23:08:53.694545 17663 net.cpp:418] data_input-data_0_split -> data_input-data_0_split_0
I0311 23:08:53.694567 17663 net.cpp:418] data_input-data_0_split -> data_input-data_0_split_1
I0311 23:08:53.694619 17663 net.cpp:150] Setting up data_input-data_0_split
I0311 23:08:53.694639 17663 net.cpp:157] Top shape: 1 3 600 1000 (1800000)
I0311 23:08:53.694643 17663 net.cpp:157] Top shape: 1 3 600 1000 (1800000)
I0311 23:08:53.694658 17663 net.cpp:165] Memory required for data: 21600028
I0311 23:08:53.694659 17663 layer_factory.hpp:77] Creating layer im_info_input-data_1_split
I0311 23:08:53.694664 17663 net.cpp:100] Creating Layer im_info_input-data_1_split
I0311 23:08:53.694665 17663 net.cpp:444] im_info_input-data_1_split <- im_info
I0311 23:08:53.694684 17663 net.cpp:418] im_info_input-data_1_split -> im_info_input-data_1_split_0
I0311 23:08:53.694689 17663 net.cpp:418] im_info_input-data_1_split -> im_info_input-data_1_split_1
I0311 23:08:53.694725 17663 net.cpp:150] Setting up im_info_input-data_1_split
I0311 23:08:53.694728 17663 net.cpp:157] Top shape: 1 3 (3)
I0311 23:08:53.694744 17663 net.cpp:157] Top shape: 1 3 (3)
I0311 23:08:53.694746 17663 net.cpp:165] Memory required for data: 21600052
I0311 23:08:53.694748 17663 layer_factory.hpp:77] Creating layer gt_boxes_input-data_2_split
I0311 23:08:53.694768 17663 net.cpp:100] Creating Layer gt_boxes_input-data_2_split
I0311 23:08:53.694772 17663 net.cpp:444] gt_boxes_input-data_2_split <- gt_boxes
I0311 23:08:53.694775 17663 net.cpp:418] gt_boxes_input-data_2_split -> gt_boxes_input-data_2_split_0
I0311 23:08:53.694792 17663 net.cpp:418] gt_boxes_input-data_2_split -> gt_boxes_input-data_2_split_1
I0311 23:08:53.694828 17663 net.cpp:150] Setting up gt_boxes_input-data_2_split
I0311 23:08:53.694833 17663 net.cpp:157] Top shape: 1 4 (4)
I0311 23:08:53.694835 17663 net.cpp:157] Top shape: 1 4 (4)
I0311 23:08:53.694838 17663 net.cpp:165] Memory required for data: 21600084
I0311 23:08:53.694839 17663 layer_factory.hpp:77] Creating layer conv1
I0311 23:08:53.694847 17663 net.cpp:100] Creating Layer conv1
I0311 23:08:53.694850 17663 net.cpp:444] conv1 <- data_input-data_0_split_0
I0311 23:08:53.694854 17663 net.cpp:418] conv1 -> conv1
I0311 23:08:53.696303 17663 net.cpp:150] Setting up conv1
I0311 23:08:53.696316 17663 net.cpp:157] Top shape: 1 64 300 500 (9600000)
I0311 23:08:53.696318 17663 net.cpp:165] Memory required for data: 60000084
I0311 23:08:53.696341 17663 layer_factory.hpp:77] Creating layer bn_conv1
I0311 23:08:53.696348 17663 net.cpp:100] Creating Layer bn_conv1
I0311 23:08:53.696352 17663 net.cpp:444] bn_conv1 <- conv1
I0311 23:08:53.696357 17663 net.cpp:405] bn_conv1 -> conv1 (in-place)
I0311 23:08:53.696669 17663 net.cpp:150] Setting up bn_conv1
I0311 23:08:53.696674 17663 net.cpp:157] Top shape: 1 64 300 500 (9600000)
I0311 23:08:53.696677 17663 net.cpp:165] Memory required for data: 98400084
I0311 23:08:53.696684 17663 layer_factory.hpp:77] Creating layer scale_conv1
I0311 23:08:53.696691 17663 net.cpp:100] Creating Layer scale_conv1
I0311 23:08:53.696708 17663 net.cpp:444] scale_conv1 <- conv1
I0311 23:08:53.696713 17663 net.cpp:405] scale_conv1 -> conv1 (in-place)
I0311 23:08:53.696751 17663 layer_factory.hpp:77] Creating layer scale_conv1
I0311 23:08:53.697681 17663 net.cpp:150] Setting up scale_conv1
I0311 23:08:53.697692 17663 net.cpp:157] Top shape: 1 64 300 500 (9600000)
I0311 23:08:53.697695 17663 net.cpp:165] Memory required for data: 136800084
I0311 23:08:53.697701 17663 layer_factory.hpp:77] Creating layer conv1_relu
I0311 23:08:53.697722 17663 net.cpp:100] Creating Layer conv1_relu
I0311 23:08:53.697726 17663 net.cpp:444] conv1_relu <- conv1
I0311 23:08:53.697731 17663 net.cpp:405] conv1_relu -> conv1 (in-place)
I0311 23:08:53.697736 17663 net.cpp:150] Setting up conv1_relu
I0311 23:08:53.697739 17663 net.cpp:157] Top shape: 1 64 300 500 (9600000)
I0311 23:08:53.697741 17663 net.cpp:165] Memory required for data: 175200084
I0311 23:08:53.697744 17663 layer_factory.hpp:77] Creating layer pool1
I0311 23:08:53.697751 17663 net.cpp:100] Creating Layer pool1
I0311 23:08:53.697753 17663 net.cpp:444] pool1 <- conv1
I0311 23:08:53.697757 17663 net.cpp:418] pool1 -> pool1
I0311 23:08:53.697813 17663 net.cpp:150] Setting up pool1
I0311 23:08:53.697818 17663 net.cpp:157] Top shape: 1 64 150 250 (2400000)
I0311 23:08:53.697819 17663 net.cpp:165] Memory required for data: 184800084
I0311 23:08:53.697823 17663 layer_factory.hpp:77] Creating layer pool1_pool1_0_split
I0311 23:08:53.697826 17663 net.cpp:100] Creating Layer pool1_pool1_0_split
I0311 23:08:53.697829 17663 net.cpp:444] pool1_pool1_0_split <- pool1
I0311 23:08:53.697834 17663 net.cpp:418] pool1_pool1_0_split -> pool1_pool1_0_split_0
I0311 23:08:53.697854 17663 net.cpp:418] pool1_pool1_0_split -> pool1_pool1_0_split_1
I0311 23:08:53.697875 17663 net.cpp:150] Setting up pool1_pool1_0_split
I0311 23:08:53.697880 17663 net.cpp:157] Top shape: 1 64 150 250 (2400000)
I0311 23:08:53.697916 17663 net.cpp:157] Top shape: 1 64 150 250 (2400000)
I0311 23:08:53.697917 17663 net.cpp:165] Memory required for data: 204000084
I0311 23:08:53.697921 17663 layer_factory.hpp:77] Creating layer res2a_branch1
I0311 23:08:53.697942 17663 net.cpp:100] Creating Layer res2a_branch1
I0311 23:08:53.697944 17663 net.cpp:444] res2a_branch1 <- pool1_pool1_0_split_0
I0311 23:08:53.697962 17663 net.cpp:418] res2a_branch1 -> res2a_branch1
I0311 23:08:53.698112 17663 net.cpp:150] Setting up res2a_branch1
I0311 23:08:53.698117 17663 net.cpp:157] Top shape: 1 256 150 250 (9600000)
I0311 23:08:53.698120 17663 net.cpp:165] Memory required for data: 242400084
I0311 23:08:53.698123 17663 layer_factory.hpp:77] Creating layer bn2a_branch1
I0311 23:08:53.698128 17663 net.cpp:100] Creating Layer bn2a_branch1
I0311 23:08:53.698132 17663 net.cpp:444] bn2a_branch1 <- res2a_branch1
I0311 23:08:53.698150 17663 net.cpp:405] bn2a_branch1 -> res2a_branch1 (in-place)
I0311 23:08:53.698917 17663 net.cpp:150] Setting up bn2a_branch1
I0311 23:08:53.698926 17663 net.cpp:157] Top shape: 1 256 150 250 (9600000)
I0311 23:08:53.698930 17663 net.cpp:165] Memory required for data: 280800084
I0311 23:08:53.698936 17663 layer_factory.hpp:77] Creating layer scale2a_branch1
I0311 23:08:53.698956 17663 net.cpp:100] Creating Layer scale2a_branch1
I0311 23:08:53.698958 17663 net.cpp:444] scale2a_branch1 <- res2a_branch1
I0311 23:08:53.698963 17663 net.cpp:405] scale2a_branch1 -> res2a_branch1 (in-place)
I0311 23:08:53.699018 17663 layer_factory.hpp:77] Creating layer scale2a_branch1
I0311 23:08:53.699188 17663 net.cpp:150] Setting up scale2a_branch1
I0311 23:08:53.699193 17663 net.cpp:157] Top shape: 1 256 150 250 (9600000)
I0311 23:08:53.699196 17663 net.cpp:165] Memory required for data: 319200084
I0311 23:08:53.699199 17663 layer_factory.hpp:77] Creating layer res2a_branch2a
I0311 23:08:53.699205 17663 net.cpp:100] Creating Layer res2a_branch2a
I0311 23:08:53.699208 17663 net.cpp:444] res2a_branch2a <- pool1_pool1_0_split_1
I0311 23:08:53.699213 17663 net.cpp:418] res2a_branch2a -> res2a_branch2a
I0311 23:08:53.700048 17663 net.cpp:150] Setting up res2a_branch2a
I0311 23:08:53.700057 17663 net.cpp:157] Top shape: 1 64 150 250 (2400000)
I0311 23:08:53.700060 17663 net.cpp:165] Memory required for data: 328800084
I0311 23:08:53.700064 17663 layer_factory.hpp:77] Creating layer bn2a_branch2a
I0311 23:08:53.700070 17663 net.cpp:100] Creating Layer bn2a_branch2a
I0311 23:08:53.700088 17663 net.cpp:444] bn2a_branch2a <- res2a_branch2a
I0311 23:08:53.700093 17663 net.cpp:405] bn2a_branch2a -> res2a_branch2a (in-place)
I0311 23:08:53.700270 17663 net.cpp:150] Setting up bn2a_branch2a
I0311 23:08:53.700274 17663 net.cpp:157] Top shape: 1 64 150 250 (2400000)
I0311 23:08:53.700278 17663 net.cpp:165] Memory required for data: 338400084
I0311 23:08:53.700284 17663 layer_factory.hpp:77] Creating layer scale2a_branch2a
I0311 23:08:53.700304 17663 net.cpp:100] Creating Layer scale2a_branch2a
I0311 23:08:53.700305 17663 net.cpp:444] scale2a_branch2a <- res2a_branch2a
I0311 23:08:53.700309 17663 net.cpp:405] scale2a_branch2a -> res2a_branch2a (in-place)
I0311 23:08:53.700350 17663 layer_factory.hpp:77] Creating layer scale2a_branch2a
I0311 23:08:53.700563 17663 net.cpp:150] Setting up scale2a_branch2a
I0311 23:08:53.700580 17663 net.cpp:157] Top shape: 1 64 150 250 (2400000)
I0311 23:08:53.700583 17663 net.cpp:165] Memory required for data: 348000084
I0311 23:08:53.700587 17663 layer_factory.hpp:77] Creating layer res2a_branch2a_relu
I0311 23:08:53.700593 17663 net.cpp:100] Creating Layer res2a_branch2a_relu
I0311 23:08:53.700614 17663 net.cpp:444] res2a_branch2a_relu <- res2a_branch2a
I0311 23:08:53.700618 17663 net.cpp:405] res2a_branch2a_relu -> res2a_branch2a (in-place)
I0311 23:08:53.700623 17663 net.cpp:150] Setting up res2a_branch2a_relu
I0311 23:08:53.700637 17663 net.cpp:157] Top shape: 1 64 150 250 (2400000)
I0311 23:08:53.700639 17663 net.cpp:165] Memory required for data: 357600084
I0311 23:08:53.700642 17663 layer_factory.hpp:77] Creating layer res2a_branch2b
I0311 23:08:53.700661 17663 net.cpp:100] Creating Layer res2a_branch2b
I0311 23:08:53.700666 17663 net.cpp:444] res2a_branch2b <- res2a_branch2a
I0311 23:08:53.700685 17663 net.cpp:418] res2a_branch2b -> res2a_branch2b
I0311 23:08:53.700845 17663 net.cpp:150] Setting up res2a_branch2b
I0311 23:08:53.700850 17663 net.cpp:157] Top shape: 1 64 150 250 (2400000)
I0311 23:08:53.700851 17663 net.cpp:165] Memory required for data: 367200084
I0311 23:08:53.700855 17663 layer_factory.hpp:77] Creating layer bn2a_branch2b
I0311 23:08:53.700858 17663 net.cpp:100] Creating Layer bn2a_branch2b
I0311 23:08:53.700861 17663 net.cpp:444] bn2a_branch2b <- res2a_branch2b
I0311 23:08:53.700865 17663 net.cpp:405] bn2a_branch2b -> res2a_branch2b (in-place)
I0311 23:08:53.701046 17663 net.cpp:150] Setting up bn2a_branch2b
I0311 23:08:53.701051 17663 net.cpp:157] Top shape: 1 64 150 250 (2400000)
I0311 23:08:53.701055 17663 net.cpp:165] Memory required for data: 376800084
I0311 23:08:53.701058 17663 layer_factory.hpp:77] Creating layer scale2a_branch2b
I0311 23:08:53.701062 17663 net.cpp:100] Creating Layer scale2a_branch2b
I0311 23:08:53.701066 17663 net.cpp:444] scale2a_branch2b <- res2a_branch2b
I0311 23:08:53.701068 17663 net.cpp:405] scale2a_branch2b -> res2a_branch2b (in-place)
I0311 23:08:53.701118 17663 layer_factory.hpp:77] Creating layer scale2a_branch2b
I0311 23:08:53.701252 17663 net.cpp:150] Setting up scale2a_branch2b
I0311 23:08:53.701257 17663 net.cpp:157] Top shape: 1 64 150 250 (2400000)
I0311 23:08:53.701259 17663 net.cpp:165] Memory required for data: 386400084
I0311 23:08:53.701263 17663 layer_factory.hpp:77] Creating layer res2a_branch2b_relu
I0311 23:08:53.701268 17663 net.cpp:100] Creating Layer res2a_branch2b_relu
I0311 23:08:53.701272 17663 net.cpp:444] res2a_branch2b_relu <- res2a_branch2b
I0311 23:08:53.701289 17663 net.cpp:405] res2a_branch2b_relu -> res2a_branch2b (in-place)
I0311 23:08:53.701294 17663 net.cpp:150] Setting up res2a_branch2b_relu
I0311 23:08:53.701297 17663 net.cpp:157] Top shape: 1 64 150 250 (2400000)
I0311 23:08:53.701299 17663 net.cpp:165] Memory required for data: 396000084
I0311 23:08:53.701303 17663 layer_factory.hpp:77] Creating layer res2a_branch2c
I0311 23:08:53.701308 17663 net.cpp:100] Creating Layer res2a_branch2c
I0311 23:08:53.701310 17663 net.cpp:444] res2a_branch2c <- res2a_branch2b
I0311 23:08:53.701314 17663 net.cpp:418] res2a_branch2c -> res2a_branch2c
I0311 23:08:53.701501 17663 net.cpp:150] Setting up res2a_branch2c
I0311 23:08:53.701506 17663 net.cpp:157] Top shape: 1 256 150 250 (9600000)
I0311 23:08:53.701508 17663 net.cpp:165] Memory required for data: 434400084
I0311 23:08:53.701511 17663 layer_factory.hpp:77] Creating layer bn2a_branch2c
I0311 23:08:53.701517 17663 net.cpp:100] Creating Layer bn2a_branch2c
I0311 23:08:53.701534 17663 net.cpp:444] bn2a_branch2c <- res2a_branch2c
I0311 23:08:53.701537 17663 net.cpp:405] bn2a_branch2c -> res2a_branch2c (in-place)
I0311 23:08:53.701704 17663 net.cpp:150] Setting up bn2a_branch2c
I0311 23:08:53.701709 17663 net.cpp:157] Top shape: 1 256 150 250 (9600000)
I0311 23:08:53.701710 17663 net.cpp:165] Memory required for data: 472800084
I0311 23:08:53.701715 17663 layer_factory.hpp:77] Creating layer scale2a_branch2c
I0311 23:08:53.701719 17663 net.cpp:100] Creating Layer scale2a_branch2c
I0311 23:08:53.701722 17663 net.cpp:444] scale2a_branch2c <- res2a_branch2c
I0311 23:08:53.701725 17663 net.cpp:405] scale2a_branch2c -> res2a_branch2c (in-place)
I0311 23:08:53.701748 17663 layer_factory.hpp:77] Creating layer scale2a_branch2c
I0311 23:08:53.701903 17663 net.cpp:150] Setting up scale2a_branch2c
I0311 23:08:53.701910 17663 net.cpp:157] Top shape: 1 256 150 250 (9600000)
I0311 23:08:53.701912 17663 net.cpp:165] Memory required for data: 511200084
I0311 23:08:53.701915 17663 layer_factory.hpp:77] Creating layer res2a
I0311 23:08:53.701920 17663 net.cpp:100] Creating Layer res2a
I0311 23:08:53.701922 17663 net.cpp:444] res2a <- res2a_branch1
I0311 23:08:53.701925 17663 net.cpp:444] res2a <- res2a_branch2c
I0311 23:08:53.701928 17663 net.cpp:418] res2a -> res2a
I0311 23:08:53.701944 17663 net.cpp:150] Setting up res2a
I0311 23:08:53.701948 17663 net.cpp:157] Top shape: 1 256 150 250 (9600000)
I0311 23:08:53.701951 17663 net.cpp:165] Memory required for data: 549600084
I0311 23:08:53.701952 17663 layer_factory.hpp:77] Creating layer res2a_relu
I0311 23:08:53.701956 17663 net.cpp:100] Creating Layer res2a_relu
I0311 23:08:53.701972 17663 net.cpp:444] res2a_relu <- res2a
I0311 23:08:53.701974 17663 net.cpp:405] res2a_relu -> res2a (in-place)
I0311 23:08:53.701978 17663 net.cpp:150] Setting up res2a_relu
I0311 23:08:53.701982 17663 net.cpp:157] Top shape: 1 256 150 250 (9600000)
I0311 23:08:53.701984 17663 net.cpp:165] Memory required for data: 588000084
I0311 23:08:53.701987 17663 layer_factory.hpp:77] Creating layer res2a_res2a_relu_0_split
I0311 23:08:53.702008 17663 net.cpp:100] Creating Layer res2a_res2a_relu_0_split
I0311 23:08:53.702009 17663 net.cpp:444] res2a_res2a_relu_0_split <- res2a
I0311 23:08:53.702026 17663 net.cpp:418] res2a_res2a_relu_0_split -> res2a_res2a_relu_0_split_0
I0311 23:08:53.702031 17663 net.cpp:418] res2a_res2a_relu_0_split -> res2a_res2a_relu_0_split_1
I0311 23:08:53.702081 17663 net.cpp:150] Setting up res2a_res2a_relu_0_split
I0311 23:08:53.702086 17663 net.cpp:157] Top shape: 1 256 150 250 (9600000)
I0311 23:08:53.702102 17663 net.cpp:157] Top shape: 1 256 150 250 (9600000)
I0311 23:08:53.702105 17663 net.cpp:165] Memory required for data: 664800084
I0311 23:08:53.702108 17663 layer_factory.hpp:77] Creating layer res2b_branch2a
I0311 23:08:53.702112 17663 net.cpp:100] Creating Layer res2b_branch2a
I0311 23:08:53.702116 17663 net.cpp:444] res2b_branch2a <- res2a_res2a_relu_0_split_0
I0311 23:08:53.702136 17663 net.cpp:418] res2b_branch2a -> res2b_branch2a
I0311 23:08:53.702280 17663 net.cpp:150] Setting up res2b_branch2a
I0311 23:08:53.702286 17663 net.cpp:157] Top shape: 1 64 150 250 (2400000)
I0311 23:08:53.702288 17663 net.cpp:165] Memory required for data: 674400084
I0311 23:08:53.702291 17663 layer_factory.hpp:77] Creating layer bn2b_branch2a
I0311 23:08:53.702296 17663 net.cpp:100] Creating Layer bn2b_branch2a
I0311 23:08:53.702299 17663 net.cpp:444] bn2b_branch2a <- res2b_branch2a
I0311 23:08:53.702316 17663 net.cpp:405] bn2b_branch2a -> res2b_branch2a (in-place)
I0311 23:08:53.703119 17663 net.cpp:150] Setting up bn2b_branch2a
I0311 23:08:53.703128 17663 net.cpp:157] Top shape: 1 64 150 250 (2400000)
I0311 23:08:53.703131 17663 net.cpp:165] Memory required for data: 684000084
I0311 23:08:53.703140 17663 layer_factory.hpp:77] Creating layer scale2b_branch2a
I0311 23:08:53.703161 17663 net.cpp:100] Creating Layer scale2b_branch2a
I0311 23:08:53.703164 17663 net.cpp:444] scale2b_branch2a <- res2b_branch2a
I0311 23:08:53.703168 17663 net.cpp:405] scale2b_branch2a -> res2b_branch2a (in-place)
I0311 23:08:53.703236 17663 layer_factory.hpp:77] Creating layer scale2b_branch2a
I0311 23:08:53.703418 17663 net.cpp:150] Setting up scale2b_branch2a
I0311 23:08:53.703423 17663 net.cpp:157] Top shape: 1 64 150 250 (2400000)
I0311 23:08:53.703424 17663 net.cpp:165] Memory required for data: 693600084
I0311 23:08:53.703428 17663 layer_factory.hpp:77] Creating layer res2b_branch2a_relu
I0311 23:08:53.703433 17663 net.cpp:100] Creating Layer res2b_branch2a_relu
I0311 23:08:53.703449 17663 net.cpp:444] res2b_branch2a_relu <- res2b_branch2a
I0311 23:08:53.703451 17663 net.cpp:405] res2b_branch2a_relu -> res2b_branch2a (in-place)
I0311 23:08:53.703455 17663 net.cpp:150] Setting up res2b_branch2a_relu
I0311 23:08:53.703459 17663 net.cpp:157] Top shape: 1 64 150 250 (2400000)
I0311 23:08:53.703460 17663 net.cpp:165] Memory required for data: 703200084
I0311 23:08:53.703464 17663 layer_factory.hpp:77] Creating layer res2b_branch2b
I0311 23:08:53.703481 17663 net.cpp:100] Creating Layer res2b_branch2b
I0311 23:08:53.703485 17663 net.cpp:444] res2b_branch2b <- res2b_branch2a
I0311 23:08:53.703501 17663 net.cpp:418] res2b_branch2b -> res2b_branch2b
I0311 23:08:53.703672 17663 net.cpp:150] Setting up res2b_branch2b
I0311 23:08:53.703678 17663 net.cpp:157] Top shape: 1 64 150 250 (2400000)
I0311 23:08:53.703680 17663 net.cpp:165] Memory required for data: 712800084
I0311 23:08:53.703685 17663 layer_factory.hpp:77] Creating layer bn2b_branch2b
I0311 23:08:53.703691 17663 net.cpp:100] Creating Layer bn2b_branch2b
I0311 23:08:53.703707 17663 net.cpp:444] bn2b_branch2b <- res2b_branch2b
I0311 23:08:53.703711 17663 net.cpp:405] bn2b_branch2b -> res2b_branch2b (in-place)
I0311 23:08:53.703856 17663 net.cpp:150] Setting up bn2b_branch2b
I0311 23:08:53.703861 17663 net.cpp:157] Top shape: 1 64 150 250 (2400000)
I0311 23:08:53.703864 17663 net.cpp:165] Memory required for data: 722400084
I0311 23:08:53.703868 17663 layer_factory.hpp:77] Creating layer scale2b_branch2b
I0311 23:08:53.703873 17663 net.cpp:100] Creating Layer scale2b_branch2b
I0311 23:08:53.703876 17663 net.cpp:444] scale2b_branch2b <- res2b_branch2b
I0311 23:08:53.703893 17663 net.cpp:405] scale2b_branch2b -> res2b_branch2b (in-place)
I0311 23:08:53.703943 17663 layer_factory.hpp:77] Creating layer scale2b_branch2b
I0311 23:08:53.704077 17663 net.cpp:150] Setting up scale2b_branch2b
I0311 23:08:53.704082 17663 net.cpp:157] Top shape: 1 64 150 250 (2400000)
I0311 23:08:53.704085 17663 net.cpp:165] Memory required for data: 732000084
I0311 23:08:53.704089 17663 layer_factory.hpp:77] Creating layer res2b_branch2b_relu
I0311 23:08:53.704107 17663 net.cpp:100] Creating Layer res2b_branch2b_relu
I0311 23:08:53.704110 17663 net.cpp:444] res2b_branch2b_relu <- res2b_branch2b
I0311 23:08:53.704114 17663 net.cpp:405] res2b_branch2b_relu -> res2b_branch2b (in-place)
I0311 23:08:53.704118 17663 net.cpp:150] Setting up res2b_branch2b_relu
I0311 23:08:53.704121 17663 net.cpp:157] Top shape: 1 64 150 250 (2400000)
I0311 23:08:53.704123 17663 net.cpp:165] Memory required for data: 741600084
I0311 23:08:53.704126 17663 layer_factory.hpp:77] Creating layer res2b_branch2c
I0311 23:08:53.704130 17663 net.cpp:100] Creating Layer res2b_branch2c
I0311 23:08:53.704133 17663 net.cpp:444] res2b_branch2c <- res2b_branch2b
I0311 23:08:53.704138 17663 net.cpp:418] res2b_branch2c -> res2b_branch2c
I0311 23:08:53.704278 17663 net.cpp:150] Setting up res2b_branch2c
I0311 23:08:53.704283 17663 net.cpp:157] Top shape: 1 256 150 250 (9600000)
I0311 23:08:53.704285 17663 net.cpp:165] Memory required for data: 780000084
I0311 23:08:53.704288 17663 layer_factory.hpp:77] Creating layer bn2b_branch2c
I0311 23:08:53.704293 17663 net.cpp:100] Creating Layer bn2b_branch2c
I0311 23:08:53.704309 17663 net.cpp:444] bn2b_branch2c <- res2b_branch2c
I0311 23:08:53.704313 17663 net.cpp:405] bn2b_branch2c -> res2b_branch2c (in-place)
I0311 23:08:53.704459 17663 net.cpp:150] Setting up bn2b_branch2c
I0311 23:08:53.704465 17663 net.cpp:157] Top shape: 1 256 150 250 (9600000)
I0311 23:08:53.704468 17663 net.cpp:165] Memory required for data: 818400084
I0311 23:08:53.704473 17663 layer_factory.hpp:77] Creating layer scale2b_branch2c
I0311 23:08:53.704478 17663 net.cpp:100] Creating Layer scale2b_branch2c
I0311 23:08:53.704481 17663 net.cpp:444] scale2b_branch2c <- res2b_branch2c
I0311 23:08:53.704485 17663 net.cpp:405] scale2b_branch2c -> res2b_branch2c (in-place)
I0311 23:08:53.704535 17663 layer_factory.hpp:77] Creating layer scale2b_branch2c
I0311 23:08:53.704689 17663 net.cpp:150] Setting up scale2b_branch2c
I0311 23:08:53.704694 17663 net.cpp:157] Top shape: 1 256 150 250 (9600000)
I0311 23:08:53.704696 17663 net.cpp:165] Memory required for data: 856800084
I0311 23:08:53.704699 17663 layer_factory.hpp:77] Creating layer res2b
I0311 23:08:53.704704 17663 net.cpp:100] Creating Layer res2b
I0311 23:08:53.704721 17663 net.cpp:444] res2b <- res2a_res2a_relu_0_split_1
I0311 23:08:53.704725 17663 net.cpp:444] res2b <- res2b_branch2c
I0311 23:08:53.704728 17663 net.cpp:418] res2b -> res2b
I0311 23:08:53.704743 17663 net.cpp:150] Setting up res2b
I0311 23:08:53.704763 17663 net.cpp:157] Top shape: 1 256 150 250 (9600000)
I0311 23:08:53.704766 17663 net.cpp:165] Memory required for data: 895200084
I0311 23:08:53.704768 17663 layer_factory.hpp:77] Creating layer res2b_relu
I0311 23:08:53.704784 17663 net.cpp:100] Creating Layer res2b_relu
I0311 23:08:53.704787 17663 net.cpp:444] res2b_relu <- res2b
I0311 23:08:53.704790 17663 net.cpp:405] res2b_relu -> res2b (in-place)
I0311 23:08:53.704808 17663 net.cpp:150] Setting up res2b_relu
I0311 23:08:53.704812 17663 net.cpp:157] Top shape: 1 256 150 250 (9600000)
I0311 23:08:53.704813 17663 net.cpp:165] Memory required for data: 933600084
I0311 23:08:53.704828 17663 layer_factory.hpp:77] Creating layer res2b_res2b_relu_0_split
I0311 23:08:53.704833 17663 net.cpp:100] Creating Layer res2b_res2b_relu_0_split
I0311 23:08:53.704834 17663 net.cpp:444] res2b_res2b_relu_0_split <- res2b
I0311 23:08:53.704838 17663 net.cpp:418] res2b_res2b_relu_0_split -> res2b_res2b_relu_0_split_0
I0311 23:08:53.704843 17663 net.cpp:418] res2b_res2b_relu_0_split -> res2b_res2b_relu_0_split_1
I0311 23:08:53.704877 17663 net.cpp:150] Setting up res2b_res2b_relu_0_split
I0311 23:08:53.704882 17663 net.cpp:157] Top shape: 1 256 150 250 (9600000)
I0311 23:08:53.704898 17663 net.cpp:157] Top shape: 1 256 150 250 (9600000)
I0311 23:08:53.704900 17663 net.cpp:165] Memory required for data: 1010400084
I0311 23:08:53.704902 17663 layer_factory.hpp:77] Creating layer res2c_branch2a
I0311 23:08:53.704907 17663 net.cpp:100] Creating Layer res2c_branch2a
I0311 23:08:53.704922 17663 net.cpp:444] res2c_branch2a <- res2b_res2b_relu_0_split_0
I0311 23:08:53.704926 17663 net.cpp:418] res2c_branch2a -> res2c_branch2a
I0311 23:08:53.705087 17663 net.cpp:150] Setting up res2c_branch2a
I0311 23:08:53.705092 17663 net.cpp:157] Top shape: 1 64 150 250 (2400000)
I0311 23:08:53.705094 17663 net.cpp:165] Memory required for data: 1020000084
I0311 23:08:53.705097 17663 layer_factory.hpp:77] Creating layer bn2c_branch2a
I0311 23:08:53.705101 17663 net.cpp:100] Creating Layer bn2c_branch2a
I0311 23:08:53.705104 17663 net.cpp:444] bn2c_branch2a <- res2c_branch2a
I0311 23:08:53.705121 17663 net.cpp:405] bn2c_branch2a -> res2c_branch2a (in-place)
I0311 23:08:53.705286 17663 net.cpp:150] Setting up bn2c_branch2a
I0311 23:08:53.705291 17663 net.cpp:157] Top shape: 1 64 150 250 (2400000)
I0311 23:08:53.705293 17663 net.cpp:165] Memory required for data: 1029600084
I0311 23:08:53.705298 17663 layer_factory.hpp:77] Creating layer scale2c_branch2a
I0311 23:08:53.705303 17663 net.cpp:100] Creating Layer scale2c_branch2a
I0311 23:08:53.705307 17663 net.cpp:444] scale2c_branch2a <- res2c_branch2a
I0311 23:08:53.705312 17663 net.cpp:405] scale2c_branch2a -> res2c_branch2a (in-place)
I0311 23:08:53.705337 17663 layer_factory.hpp:77] Creating layer scale2c_branch2a
I0311 23:08:53.705456 17663 net.cpp:150] Setting up scale2c_branch2a
I0311 23:08:53.705461 17663 net.cpp:157] Top shape: 1 64 150 250 (2400000)
I0311 23:08:53.705463 17663 net.cpp:165] Memory required for data: 1039200084
I0311 23:08:53.705468 17663 layer_factory.hpp:77] Creating layer res2c_branch2a_relu
I0311 23:08:53.705472 17663 net.cpp:100] Creating Layer res2c_branch2a_relu
I0311 23:08:53.705489 17663 net.cpp:444] res2c_branch2a_relu <- res2c_branch2a
I0311 23:08:53.705492 17663 net.cpp:405] res2c_branch2a_relu -> res2c_branch2a (in-place)
I0311 23:08:53.705497 17663 net.cpp:150] Setting up res2c_branch2a_relu
I0311 23:08:53.705513 17663 net.cpp:157] Top shape: 1 64 150 250 (2400000)
I0311 23:08:53.705515 17663 net.cpp:165] Memory required for data: 1048800084
I0311 23:08:53.705518 17663 layer_factory.hpp:77] Creating layer res2c_branch2b
I0311 23:08:53.705523 17663 net.cpp:100] Creating Layer res2c_branch2b
I0311 23:08:53.705524 17663 net.cpp:444] res2c_branch2b <- res2c_branch2a
I0311 23:08:53.705528 17663 net.cpp:418] res2c_branch2b -> res2c_branch2b
I0311 23:08:53.705687 17663 net.cpp:150] Setting up res2c_branch2b
I0311 23:08:53.705693 17663 net.cpp:157] Top shape: 1 64 150 250 (2400000)
I0311 23:08:53.705695 17663 net.cpp:165] Memory required for data: 1058400084
I0311 23:08:53.705698 17663 layer_factory.hpp:77] Creating layer bn2c_branch2b
I0311 23:08:53.705703 17663 net.cpp:100] Creating Layer bn2c_branch2b
I0311 23:08:53.705704 17663 net.cpp:444] bn2c_branch2b <- res2c_branch2b
I0311 23:08:53.705708 17663 net.cpp:405] bn2c_branch2b -> res2c_branch2b (in-place)
I0311 23:08:53.706622 17663 net.cpp:150] Setting up bn2c_branch2b
I0311 23:08:53.706647 17663 net.cpp:157] Top shape: 1 64 150 250 (2400000)
I0311 23:08:53.706650 17663 net.cpp:165] Memory required for data: 1068000084
I0311 23:08:53.706671 17663 layer_factory.hpp:77] Creating layer scale2c_branch2b
I0311 23:08:53.706678 17663 net.cpp:100] Creating Layer scale2c_branch2b
I0311 23:08:53.706681 17663 net.cpp:444] scale2c_branch2b <- res2c_branch2b
I0311 23:08:53.706686 17663 net.cpp:405] scale2c_branch2b -> res2c_branch2b (in-place)
I0311 23:08:53.706758 17663 layer_factory.hpp:77] Creating layer scale2c_branch2b
I0311 23:08:53.706918 17663 net.cpp:150] Setting up scale2c_branch2b
I0311 23:08:53.706923 17663 net.cpp:157] Top shape: 1 64 150 250 (2400000)
I0311 23:08:53.706926 17663 net.cpp:165] Memory required for data: 1077600084
I0311 23:08:53.706929 17663 layer_factory.hpp:77] Creating layer res2c_branch2b_relu
I0311 23:08:53.706933 17663 net.cpp:100] Creating Layer res2c_branch2b_relu
I0311 23:08:53.706949 17663 net.cpp:444] res2c_branch2b_relu <- res2c_branch2b
I0311 23:08:53.706954 17663 net.cpp:405] res2c_branch2b_relu -> res2c_branch2b (in-place)
I0311 23:08:53.706957 17663 net.cpp:150] Setting up res2c_branch2b_relu
I0311 23:08:53.706960 17663 net.cpp:157] Top shape: 1 64 150 250 (2400000)
I0311 23:08:53.706962 17663 net.cpp:165] Memory required for data: 1087200084
I0311 23:08:53.706965 17663 layer_factory.hpp:77] Creating layer res2c_branch2c
I0311 23:08:53.706984 17663 net.cpp:100] Creating Layer res2c_branch2c
I0311 23:08:53.706987 17663 net.cpp:444] res2c_branch2c <- res2c_branch2b
I0311 23:08:53.706992 17663 net.cpp:418] res2c_branch2c -> res2c_branch2c
I0311 23:08:53.707168 17663 net.cpp:150] Setting up res2c_branch2c
I0311 23:08:53.707175 17663 net.cpp:157] Top shape: 1 256 150 250 (9600000)
I0311 23:08:53.707176 17663 net.cpp:165] Memory required for data: 1125600084
I0311 23:08:53.707180 17663 layer_factory.hpp:77] Creating layer bn2c_branch2c
I0311 23:08:53.707185 17663 net.cpp:100] Creating Layer bn2c_branch2c
I0311 23:08:53.707186 17663 net.cpp:444] bn2c_branch2c <- res2c_branch2c
I0311 23:08:53.707202 17663 net.cpp:405] bn2c_branch2c -> res2c_branch2c (in-place)
I0311 23:08:53.707365 17663 net.cpp:150] Setting up bn2c_branch2c
I0311 23:08:53.707370 17663 net.cpp:157] Top shape: 1 256 150 250 (9600000)
I0311 23:08:53.707373 17663 net.cpp:165] Memory required for data: 1164000084
I0311 23:08:53.707381 17663 layer_factory.hpp:77] Creating layer scale2c_branch2c
I0311 23:08:53.707401 17663 net.cpp:100] Creating Layer scale2c_branch2c
I0311 23:08:53.707403 17663 net.cpp:444] scale2c_branch2c <- res2c_branch2c
I0311 23:08:53.707407 17663 net.cpp:405] scale2c_branch2c -> res2c_branch2c (in-place)
I0311 23:08:53.707468 17663 layer_factory.hpp:77] Creating layer scale2c_branch2c
I0311 23:08:53.707595 17663 net.cpp:150] Setting up scale2c_branch2c
I0311 23:08:53.707600 17663 net.cpp:157] Top shape: 1 256 150 250 (9600000)
I0311 23:08:53.707602 17663 net.cpp:165] Memory required for data: 1202400084
I0311 23:08:53.707607 17663 layer_factory.hpp:77] Creating layer res2c
I0311 23:08:53.707612 17663 net.cpp:100] Creating Layer res2c
I0311 23:08:53.707630 17663 net.cpp:444] res2c <- res2b_res2b_relu_0_split_1
I0311 23:08:53.707633 17663 net.cpp:444] res2c <- res2c_branch2c
I0311 23:08:53.707638 17663 net.cpp:418] res2c -> res2c
I0311 23:08:53.707653 17663 net.cpp:150] Setting up res2c
I0311 23:08:53.707670 17663 net.cpp:157] Top shape: 1 256 150 250 (9600000)
I0311 23:08:53.707674 17663 net.cpp:165] Memory required for data: 1240800084
I0311 23:08:53.707675 17663 layer_factory.hpp:77] Creating layer res2c_relu
I0311 23:08:53.707679 17663 net.cpp:100] Creating Layer res2c_relu
I0311 23:08:53.707682 17663 net.cpp:444] res2c_relu <- res2c
I0311 23:08:53.707686 17663 net.cpp:405] res2c_relu -> res2c (in-place)
I0311 23:08:53.707705 17663 net.cpp:150] Setting up res2c_relu
I0311 23:08:53.707710 17663 net.cpp:157] Top shape: 1 256 150 250 (9600000)
I0311 23:08:53.707711 17663 net.cpp:165] Memory required for data: 1279200084
I0311 23:08:53.707715 17663 layer_factory.hpp:77] Creating layer res2c_res2c_relu_0_split
I0311 23:08:53.707717 17663 net.cpp:100] Creating Layer res2c_res2c_relu_0_split
I0311 23:08:53.707720 17663 net.cpp:444] res2c_res2c_relu_0_split <- res2c
I0311 23:08:53.707725 17663 net.cpp:418] res2c_res2c_relu_0_split -> res2c_res2c_relu_0_split_0
I0311 23:08:53.707729 17663 net.cpp:418] res2c_res2c_relu_0_split -> res2c_res2c_relu_0_split_1
I0311 23:08:53.707767 17663 net.cpp:150] Setting up res2c_res2c_relu_0_split
I0311 23:08:53.707770 17663 net.cpp:157] Top shape: 1 256 150 250 (9600000)
I0311 23:08:53.707774 17663 net.cpp:157] Top shape: 1 256 150 250 (9600000)
I0311 23:08:53.707777 17663 net.cpp:165] Memory required for data: 1356000084
I0311 23:08:53.707778 17663 layer_factory.hpp:77] Creating layer res3a_branch1
I0311 23:08:53.707783 17663 net.cpp:100] Creating Layer res3a_branch1
I0311 23:08:53.707787 17663 net.cpp:444] res3a_branch1 <- res2c_res2c_relu_0_split_0
I0311 23:08:53.707792 17663 net.cpp:418] res3a_branch1 -> res3a_branch1
I0311 23:08:53.707993 17663 net.cpp:150] Setting up res3a_branch1
I0311 23:08:53.707999 17663 net.cpp:157] Top shape: 1 512 75 125 (4800000)
I0311 23:08:53.708003 17663 net.cpp:165] Memory required for data: 1375200084
I0311 23:08:53.708006 17663 layer_factory.hpp:77] Creating layer bn3a_branch1
I0311 23:08:53.708010 17663 net.cpp:100] Creating Layer bn3a_branch1
I0311 23:08:53.708014 17663 net.cpp:444] bn3a_branch1 <- res3a_branch1
I0311 23:08:53.708019 17663 net.cpp:405] bn3a_branch1 -> res3a_branch1 (in-place)
I0311 23:08:53.708853 17663 net.cpp:150] Setting up bn3a_branch1
I0311 23:08:53.708863 17663 net.cpp:157] Top shape: 1 512 75 125 (4800000)
I0311 23:08:53.708865 17663 net.cpp:165] Memory required for data: 1394400084
I0311 23:08:53.708873 17663 layer_factory.hpp:77] Creating layer scale3a_branch1
I0311 23:08:53.708878 17663 net.cpp:100] Creating Layer scale3a_branch1
I0311 23:08:53.708881 17663 net.cpp:444] scale3a_branch1 <- res3a_branch1
I0311 23:08:53.708886 17663 net.cpp:405] scale3a_branch1 -> res3a_branch1 (in-place)
I0311 23:08:53.708912 17663 layer_factory.hpp:77] Creating layer scale3a_branch1
I0311 23:08:53.709002 17663 net.cpp:150] Setting up scale3a_branch1
I0311 23:08:53.709008 17663 net.cpp:157] Top shape: 1 512 75 125 (4800000)
I0311 23:08:53.709010 17663 net.cpp:165] Memory required for data: 1413600084
I0311 23:08:53.709015 17663 layer_factory.hpp:77] Creating layer res3a_branch2a
I0311 23:08:53.709020 17663 net.cpp:100] Creating Layer res3a_branch2a
I0311 23:08:53.709024 17663 net.cpp:444] res3a_branch2a <- res2c_res2c_relu_0_split_1
I0311 23:08:53.709028 17663 net.cpp:418] res3a_branch2a -> res3a_branch2a
I0311 23:08:53.709172 17663 net.cpp:150] Setting up res3a_branch2a
I0311 23:08:53.709178 17663 net.cpp:157] Top shape: 1 128 75 125 (1200000)
I0311 23:08:53.709180 17663 net.cpp:165] Memory required for data: 1418400084
I0311 23:08:53.709184 17663 layer_factory.hpp:77] Creating layer bn3a_branch2a
I0311 23:08:53.709189 17663 net.cpp:100] Creating Layer bn3a_branch2a
I0311 23:08:53.709192 17663 net.cpp:444] bn3a_branch2a <- res3a_branch2a
I0311 23:08:53.709197 17663 net.cpp:405] bn3a_branch2a -> res3a_branch2a (in-place)
I0311 23:08:53.709323 17663 net.cpp:150] Setting up bn3a_branch2a
I0311 23:08:53.709328 17663 net.cpp:157] Top shape: 1 128 75 125 (1200000)
I0311 23:08:53.709331 17663 net.cpp:165] Memory required for data: 1423200084
I0311 23:08:53.709336 17663 layer_factory.hpp:77] Creating layer scale3a_branch2a
I0311 23:08:53.709341 17663 net.cpp:100] Creating Layer scale3a_branch2a
I0311 23:08:53.709344 17663 net.cpp:444] scale3a_branch2a <- res3a_branch2a
I0311 23:08:53.709348 17663 net.cpp:405] scale3a_branch2a -> res3a_branch2a (in-place)
I0311 23:08:53.709373 17663 layer_factory.hpp:77] Creating layer scale3a_branch2a
I0311 23:08:53.709470 17663 net.cpp:150] Setting up scale3a_branch2a
I0311 23:08:53.709475 17663 net.cpp:157] Top shape: 1 128 75 125 (1200000)
I0311 23:08:53.709478 17663 net.cpp:165] Memory required for data: 1428000084
I0311 23:08:53.709482 17663 layer_factory.hpp:77] Creating layer res3a_branch2a_relu
I0311 23:08:53.709486 17663 net.cpp:100] Creating Layer res3a_branch2a_relu
I0311 23:08:53.709489 17663 net.cpp:444] res3a_branch2a_relu <- res3a_branch2a
I0311 23:08:53.709496 17663 net.cpp:405] res3a_branch2a_relu -> res3a_branch2a (in-place)
I0311 23:08:53.709501 17663 net.cpp:150] Setting up res3a_branch2a_relu
I0311 23:08:53.709503 17663 net.cpp:157] Top shape: 1 128 75 125 (1200000)
I0311 23:08:53.709506 17663 net.cpp:165] Memory required for data: 1432800084
I0311 23:08:53.709508 17663 layer_factory.hpp:77] Creating layer res3a_branch2b
I0311 23:08:53.709513 17663 net.cpp:100] Creating Layer res3a_branch2b
I0311 23:08:53.709517 17663 net.cpp:444] res3a_branch2b <- res3a_branch2a
I0311 23:08:53.709534 17663 net.cpp:418] res3a_branch2b -> res3a_branch2b
I0311 23:08:53.709758 17663 net.cpp:150] Setting up res3a_branch2b
I0311 23:08:53.709764 17663 net.cpp:157] Top shape: 1 128 75 125 (1200000)
I0311 23:08:53.709765 17663 net.cpp:165] Memory required for data: 1437600084
I0311 23:08:53.709769 17663 layer_factory.hpp:77] Creating layer bn3a_branch2b
I0311 23:08:53.709774 17663 net.cpp:100] Creating Layer bn3a_branch2b
I0311 23:08:53.709789 17663 net.cpp:444] bn3a_branch2b <- res3a_branch2b
I0311 23:08:53.709792 17663 net.cpp:405] bn3a_branch2b -> res3a_branch2b (in-place)
I0311 23:08:53.709939 17663 net.cpp:150] Setting up bn3a_branch2b
I0311 23:08:53.709945 17663 net.cpp:157] Top shape: 1 128 75 125 (1200000)
I0311 23:08:53.709947 17663 net.cpp:165] Memory required for data: 1442400084
I0311 23:08:53.709952 17663 layer_factory.hpp:77] Creating layer scale3a_branch2b
I0311 23:08:53.709973 17663 net.cpp:100] Creating Layer scale3a_branch2b
I0311 23:08:53.709976 17663 net.cpp:444] scale3a_branch2b <- res3a_branch2b
I0311 23:08:53.709992 17663 net.cpp:405] scale3a_branch2b -> res3a_branch2b (in-place)
I0311 23:08:53.710016 17663 layer_factory.hpp:77] Creating layer scale3a_branch2b
I0311 23:08:53.710117 17663 net.cpp:150] Setting up scale3a_branch2b
I0311 23:08:53.710124 17663 net.cpp:157] Top shape: 1 128 75 125 (1200000)
I0311 23:08:53.710140 17663 net.cpp:165] Memory required for data: 1447200084
I0311 23:08:53.710144 17663 layer_factory.hpp:77] Creating layer res3a_branch2b_relu
I0311 23:08:53.710162 17663 net.cpp:100] Creating Layer res3a_branch2b_relu
I0311 23:08:53.710165 17663 net.cpp:444] res3a_branch2b_relu <- res3a_branch2b
I0311 23:08:53.710168 17663 net.cpp:405] res3a_branch2b_relu -> res3a_branch2b (in-place)
I0311 23:08:53.710172 17663 net.cpp:150] Setting up res3a_branch2b_relu
I0311 23:08:53.710176 17663 net.cpp:157] Top shape: 1 128 75 125 (1200000)
I0311 23:08:53.710180 17663 net.cpp:165] Memory required for data: 1452000084
I0311 23:08:53.710181 17663 layer_factory.hpp:77] Creating layer res3a_branch2c
I0311 23:08:53.710187 17663 net.cpp:100] Creating Layer res3a_branch2c
I0311 23:08:53.710203 17663 net.cpp:444] res3a_branch2c <- res3a_branch2b
I0311 23:08:53.710207 17663 net.cpp:418] res3a_branch2c -> res3a_branch2c
I0311 23:08:53.710398 17663 net.cpp:150] Setting up res3a_branch2c
I0311 23:08:53.710403 17663 net.cpp:157] Top shape: 1 512 75 125 (4800000)
I0311 23:08:53.710407 17663 net.cpp:165] Memory required for data: 1471200084
I0311 23:08:53.710410 17663 layer_factory.hpp:77] Creating layer bn3a_branch2c
I0311 23:08:53.710414 17663 net.cpp:100] Creating Layer bn3a_branch2c
I0311 23:08:53.710417 17663 net.cpp:444] bn3a_branch2c <- res3a_branch2c
I0311 23:08:53.710422 17663 net.cpp:405] bn3a_branch2c -> res3a_branch2c (in-place)
I0311 23:08:53.710568 17663 net.cpp:150] Setting up bn3a_branch2c
I0311 23:08:53.710573 17663 net.cpp:157] Top shape: 1 512 75 125 (4800000)
I0311 23:08:53.710575 17663 net.cpp:165] Memory required for data: 1490400084
I0311 23:08:53.710580 17663 layer_factory.hpp:77] Creating layer scale3a_branch2c
I0311 23:08:53.710587 17663 net.cpp:100] Creating Layer scale3a_branch2c
I0311 23:08:53.710589 17663 net.cpp:444] scale3a_branch2c <- res3a_branch2c
I0311 23:08:53.710593 17663 net.cpp:405] scale3a_branch2c -> res3a_branch2c (in-place)
I0311 23:08:53.710616 17663 layer_factory.hpp:77] Creating layer scale3a_branch2c
I0311 23:08:53.710705 17663 net.cpp:150] Setting up scale3a_branch2c
I0311 23:08:53.710711 17663 net.cpp:157] Top shape: 1 512 75 125 (4800000)
I0311 23:08:53.710713 17663 net.cpp:165] Memory required for data: 1509600084
I0311 23:08:53.710717 17663 layer_factory.hpp:77] Creating layer res3a
I0311 23:08:53.710722 17663 net.cpp:100] Creating Layer res3a
I0311 23:08:53.710726 17663 net.cpp:444] res3a <- res3a_branch1
I0311 23:08:53.710729 17663 net.cpp:444] res3a <- res3a_branch2c
I0311 23:08:53.710734 17663 net.cpp:418] res3a -> res3a
I0311 23:08:53.710750 17663 net.cpp:150] Setting up res3a
I0311 23:08:53.710755 17663 net.cpp:157] Top shape: 1 512 75 125 (4800000)
I0311 23:08:53.710757 17663 net.cpp:165] Memory required for data: 1528800084
I0311 23:08:53.710760 17663 layer_factory.hpp:77] Creating layer res3a_relu
I0311 23:08:53.710765 17663 net.cpp:100] Creating Layer res3a_relu
I0311 23:08:53.710769 17663 net.cpp:444] res3a_relu <- res3a
I0311 23:08:53.710772 17663 net.cpp:405] res3a_relu -> res3a (in-place)
I0311 23:08:53.710777 17663 net.cpp:150] Setting up res3a_relu
I0311 23:08:53.710780 17663 net.cpp:157] Top shape: 1 512 75 125 (4800000)
I0311 23:08:53.710783 17663 net.cpp:165] Memory required for data: 1548000084
I0311 23:08:53.710785 17663 layer_factory.hpp:77] Creating layer res3a_res3a_relu_0_split
I0311 23:08:53.710789 17663 net.cpp:100] Creating Layer res3a_res3a_relu_0_split
I0311 23:08:53.710791 17663 net.cpp:444] res3a_res3a_relu_0_split <- res3a
I0311 23:08:53.710795 17663 net.cpp:418] res3a_res3a_relu_0_split -> res3a_res3a_relu_0_split_0
I0311 23:08:53.710799 17663 net.cpp:418] res3a_res3a_relu_0_split -> res3a_res3a_relu_0_split_1
I0311 23:08:53.710824 17663 net.cpp:150] Setting up res3a_res3a_relu_0_split
I0311 23:08:53.710829 17663 net.cpp:157] Top shape: 1 512 75 125 (4800000)
I0311 23:08:53.710831 17663 net.cpp:157] Top shape: 1 512 75 125 (4800000)
I0311 23:08:53.710834 17663 net.cpp:165] Memory required for data: 1586400084
I0311 23:08:53.710835 17663 layer_factory.hpp:77] Creating layer res3b_branch2a
I0311 23:08:53.710841 17663 net.cpp:100] Creating Layer res3b_branch2a
I0311 23:08:53.710844 17663 net.cpp:444] res3b_branch2a <- res3a_res3a_relu_0_split_0
I0311 23:08:53.710849 17663 net.cpp:418] res3b_branch2a -> res3b_branch2a
I0311 23:08:53.711007 17663 net.cpp:150] Setting up res3b_branch2a
I0311 23:08:53.711012 17663 net.cpp:157] Top shape: 1 128 75 125 (1200000)
I0311 23:08:53.711014 17663 net.cpp:165] Memory required for data: 1591200084
I0311 23:08:53.711017 17663 layer_factory.hpp:77] Creating layer bn3b_branch2a
I0311 23:08:53.711021 17663 net.cpp:100] Creating Layer bn3b_branch2a
I0311 23:08:53.711024 17663 net.cpp:444] bn3b_branch2a <- res3b_branch2a
I0311 23:08:53.711027 17663 net.cpp:405] bn3b_branch2a -> res3b_branch2a (in-place)
I0311 23:08:53.711156 17663 net.cpp:150] Setting up bn3b_branch2a
I0311 23:08:53.711160 17663 net.cpp:157] Top shape: 1 128 75 125 (1200000)
I0311 23:08:53.711163 17663 net.cpp:165] Memory required for data: 1596000084
I0311 23:08:53.711167 17663 layer_factory.hpp:77] Creating layer scale3b_branch2a
I0311 23:08:53.711172 17663 net.cpp:100] Creating Layer scale3b_branch2a
I0311 23:08:53.711175 17663 net.cpp:444] scale3b_branch2a <- res3b_branch2a
I0311 23:08:53.711179 17663 net.cpp:405] scale3b_branch2a -> res3b_branch2a (in-place)
I0311 23:08:53.711203 17663 layer_factory.hpp:77] Creating layer scale3b_branch2a
I0311 23:08:53.711290 17663 net.cpp:150] Setting up scale3b_branch2a
I0311 23:08:53.711295 17663 net.cpp:157] Top shape: 1 128 75 125 (1200000)
I0311 23:08:53.711297 17663 net.cpp:165] Memory required for data: 1600800084
I0311 23:08:53.711302 17663 layer_factory.hpp:77] Creating layer res3b_branch2a_relu
I0311 23:08:53.711307 17663 net.cpp:100] Creating Layer res3b_branch2a_relu
I0311 23:08:53.711309 17663 net.cpp:444] res3b_branch2a_relu <- res3b_branch2a
I0311 23:08:53.711313 17663 net.cpp:405] res3b_branch2a_relu -> res3b_branch2a (in-place)
I0311 23:08:53.711318 17663 net.cpp:150] Setting up res3b_branch2a_relu
I0311 23:08:53.711320 17663 net.cpp:157] Top shape: 1 128 75 125 (1200000)
I0311 23:08:53.711323 17663 net.cpp:165] Memory required for data: 1605600084
I0311 23:08:53.711325 17663 layer_factory.hpp:77] Creating layer res3b_branch2b
I0311 23:08:53.711329 17663 net.cpp:100] Creating Layer res3b_branch2b
I0311 23:08:53.711331 17663 net.cpp:444] res3b_branch2b <- res3b_branch2a
I0311 23:08:53.711336 17663 net.cpp:418] res3b_branch2b -> res3b_branch2b
I0311 23:08:53.712203 17663 net.cpp:150] Setting up res3b_branch2b
I0311 23:08:53.712211 17663 net.cpp:157] Top shape: 1 128 75 125 (1200000)
I0311 23:08:53.712213 17663 net.cpp:165] Memory required for data: 1610400084
I0311 23:08:53.712218 17663 layer_factory.hpp:77] Creating layer bn3b_branch2b
I0311 23:08:53.712224 17663 net.cpp:100] Creating Layer bn3b_branch2b
I0311 23:08:53.712226 17663 net.cpp:444] bn3b_branch2b <- res3b_branch2b
I0311 23:08:53.712231 17663 net.cpp:405] bn3b_branch2b -> res3b_branch2b (in-place)
I0311 23:08:53.712369 17663 net.cpp:150] Setting up bn3b_branch2b
I0311 23:08:53.712374 17663 net.cpp:157] Top shape: 1 128 75 125 (1200000)
I0311 23:08:53.712376 17663 net.cpp:165] Memory required for data: 1615200084
I0311 23:08:53.712381 17663 layer_factory.hpp:77] Creating layer scale3b_branch2b
I0311 23:08:53.712386 17663 net.cpp:100] Creating Layer scale3b_branch2b
I0311 23:08:53.712389 17663 net.cpp:444] scale3b_branch2b <- res3b_branch2b
I0311 23:08:53.712393 17663 net.cpp:405] scale3b_branch2b -> res3b_branch2b (in-place)
I0311 23:08:53.712419 17663 layer_factory.hpp:77] Creating layer scale3b_branch2b
I0311 23:08:53.712503 17663 net.cpp:150] Setting up scale3b_branch2b
I0311 23:08:53.712508 17663 net.cpp:157] Top shape: 1 128 75 125 (1200000)
I0311 23:08:53.712510 17663 net.cpp:165] Memory required for data: 1620000084
I0311 23:08:53.712514 17663 layer_factory.hpp:77] Creating layer res3b_branch2b_relu
I0311 23:08:53.712519 17663 net.cpp:100] Creating Layer res3b_branch2b_relu
I0311 23:08:53.712522 17663 net.cpp:444] res3b_branch2b_relu <- res3b_branch2b
I0311 23:08:53.712525 17663 net.cpp:405] res3b_branch2b_relu -> res3b_branch2b (in-place)
I0311 23:08:53.712529 17663 net.cpp:150] Setting up res3b_branch2b_relu
I0311 23:08:53.712532 17663 net.cpp:157] Top shape: 1 128 75 125 (1200000)
I0311 23:08:53.712534 17663 net.cpp:165] Memory required for data: 1624800084
I0311 23:08:53.712537 17663 layer_factory.hpp:77] Creating layer res3b_branch2c
I0311 23:08:53.712543 17663 net.cpp:100] Creating Layer res3b_branch2c
I0311 23:08:53.712545 17663 net.cpp:444] res3b_branch2c <- res3b_branch2b
I0311 23:08:53.712549 17663 net.cpp:418] res3b_branch2c -> res3b_branch2c
I0311 23:08:53.712716 17663 net.cpp:150] Setting up res3b_branch2c
I0311 23:08:53.712721 17663 net.cpp:157] Top shape: 1 512 75 125 (4800000)
I0311 23:08:53.712723 17663 net.cpp:165] Memory required for data: 1644000084
I0311 23:08:53.712726 17663 layer_factory.hpp:77] Creating layer bn3b_branch2c
I0311 23:08:53.712730 17663 net.cpp:100] Creating Layer bn3b_branch2c
I0311 23:08:53.712733 17663 net.cpp:444] bn3b_branch2c <- res3b_branch2c
I0311 23:08:53.712736 17663 net.cpp:405] bn3b_branch2c -> res3b_branch2c (in-place)
I0311 23:08:53.712870 17663 net.cpp:150] Setting up bn3b_branch2c
I0311 23:08:53.712874 17663 net.cpp:157] Top shape: 1 512 75 125 (4800000)
I0311 23:08:53.712877 17663 net.cpp:165] Memory required for data: 1663200084
I0311 23:08:53.712882 17663 layer_factory.hpp:77] Creating layer scale3b_branch2c
I0311 23:08:53.712888 17663 net.cpp:100] Creating Layer scale3b_branch2c
I0311 23:08:53.712889 17663 net.cpp:444] scale3b_branch2c <- res3b_branch2c
I0311 23:08:53.712893 17663 net.cpp:405] scale3b_branch2c -> res3b_branch2c (in-place)
I0311 23:08:53.712916 17663 layer_factory.hpp:77] Creating layer scale3b_branch2c
I0311 23:08:53.713006 17663 net.cpp:150] Setting up scale3b_branch2c
I0311 23:08:53.713011 17663 net.cpp:157] Top shape: 1 512 75 125 (4800000)
I0311 23:08:53.713013 17663 net.cpp:165] Memory required for data: 1682400084
I0311 23:08:53.713017 17663 layer_factory.hpp:77] Creating layer res3b
I0311 23:08:53.713023 17663 net.cpp:100] Creating Layer res3b
I0311 23:08:53.713026 17663 net.cpp:444] res3b <- res3a_res3a_relu_0_split_1
I0311 23:08:53.713029 17663 net.cpp:444] res3b <- res3b_branch2c
I0311 23:08:53.713032 17663 net.cpp:418] res3b -> res3b
I0311 23:08:53.713049 17663 net.cpp:150] Setting up res3b
I0311 23:08:53.713053 17663 net.cpp:157] Top shape: 1 512 75 125 (4800000)
I0311 23:08:53.713055 17663 net.cpp:165] Memory required for data: 1701600084
I0311 23:08:53.713057 17663 layer_factory.hpp:77] Creating layer res3b_relu
I0311 23:08:53.713062 17663 net.cpp:100] Creating Layer res3b_relu
I0311 23:08:53.713063 17663 net.cpp:444] res3b_relu <- res3b
I0311 23:08:53.713068 17663 net.cpp:405] res3b_relu -> res3b (in-place)
I0311 23:08:53.713070 17663 net.cpp:150] Setting up res3b_relu
I0311 23:08:53.713073 17663 net.cpp:157] Top shape: 1 512 75 125 (4800000)
I0311 23:08:53.713076 17663 net.cpp:165] Memory required for data: 1720800084
I0311 23:08:53.713078 17663 layer_factory.hpp:77] Creating layer res3b_res3b_relu_0_split
I0311 23:08:53.713083 17663 net.cpp:100] Creating Layer res3b_res3b_relu_0_split
I0311 23:08:53.713084 17663 net.cpp:444] res3b_res3b_relu_0_split <- res3b
I0311 23:08:53.713088 17663 net.cpp:418] res3b_res3b_relu_0_split -> res3b_res3b_relu_0_split_0
I0311 23:08:53.713093 17663 net.cpp:418] res3b_res3b_relu_0_split -> res3b_res3b_relu_0_split_1
I0311 23:08:53.713116 17663 net.cpp:150] Setting up res3b_res3b_relu_0_split
I0311 23:08:53.713120 17663 net.cpp:157] Top shape: 1 512 75 125 (4800000)
I0311 23:08:53.713124 17663 net.cpp:157] Top shape: 1 512 75 125 (4800000)
I0311 23:08:53.713125 17663 net.cpp:165] Memory required for data: 1759200084
I0311 23:08:53.713129 17663 layer_factory.hpp:77] Creating layer res3c_branch2a
I0311 23:08:53.713135 17663 net.cpp:100] Creating Layer res3c_branch2a
I0311 23:08:53.713136 17663 net.cpp:444] res3c_branch2a <- res3b_res3b_relu_0_split_0
I0311 23:08:53.713140 17663 net.cpp:418] res3c_branch2a -> res3c_branch2a
I0311 23:08:53.713301 17663 net.cpp:150] Setting up res3c_branch2a
I0311 23:08:53.713305 17663 net.cpp:157] Top shape: 1 128 75 125 (1200000)
I0311 23:08:53.713309 17663 net.cpp:165] Memory required for data: 1764000084
I0311 23:08:53.713311 17663 layer_factory.hpp:77] Creating layer bn3c_branch2a
I0311 23:08:53.713317 17663 net.cpp:100] Creating Layer bn3c_branch2a
I0311 23:08:53.713320 17663 net.cpp:444] bn3c_branch2a <- res3c_branch2a
I0311 23:08:53.713323 17663 net.cpp:405] bn3c_branch2a -> res3c_branch2a (in-place)
I0311 23:08:53.713452 17663 net.cpp:150] Setting up bn3c_branch2a
I0311 23:08:53.713456 17663 net.cpp:157] Top shape: 1 128 75 125 (1200000)
I0311 23:08:53.713459 17663 net.cpp:165] Memory required for data: 1768800084
I0311 23:08:53.713464 17663 layer_factory.hpp:77] Creating layer scale3c_branch2a
I0311 23:08:53.713469 17663 net.cpp:100] Creating Layer scale3c_branch2a
I0311 23:08:53.713472 17663 net.cpp:444] scale3c_branch2a <- res3c_branch2a
I0311 23:08:53.713475 17663 net.cpp:405] scale3c_branch2a -> res3c_branch2a (in-place)
I0311 23:08:53.713500 17663 layer_factory.hpp:77] Creating layer scale3c_branch2a
I0311 23:08:53.713585 17663 net.cpp:150] Setting up scale3c_branch2a
I0311 23:08:53.713589 17663 net.cpp:157] Top shape: 1 128 75 125 (1200000)
I0311 23:08:53.713591 17663 net.cpp:165] Memory required for data: 1773600084
I0311 23:08:53.713595 17663 layer_factory.hpp:77] Creating layer res3c_branch2a_relu
I0311 23:08:53.713600 17663 net.cpp:100] Creating Layer res3c_branch2a_relu
I0311 23:08:53.713603 17663 net.cpp:444] res3c_branch2a_relu <- res3c_branch2a
I0311 23:08:53.713606 17663 net.cpp:405] res3c_branch2a_relu -> res3c_branch2a (in-place)
I0311 23:08:53.713610 17663 net.cpp:150] Setting up res3c_branch2a_relu
I0311 23:08:53.713613 17663 net.cpp:157] Top shape: 1 128 75 125 (1200000)
I0311 23:08:53.713616 17663 net.cpp:165] Memory required for data: 1778400084
I0311 23:08:53.713618 17663 layer_factory.hpp:77] Creating layer res3c_branch2b
I0311 23:08:53.713624 17663 net.cpp:100] Creating Layer res3c_branch2b
I0311 23:08:53.713626 17663 net.cpp:444] res3c_branch2b <- res3c_branch2a
I0311 23:08:53.713630 17663 net.cpp:418] res3c_branch2b -> res3c_branch2b
I0311 23:08:53.713820 17663 net.cpp:150] Setting up res3c_branch2b
I0311 23:08:53.713825 17663 net.cpp:157] Top shape: 1 128 75 125 (1200000)
I0311 23:08:53.713827 17663 net.cpp:165] Memory required for data: 1783200084
I0311 23:08:53.713830 17663 layer_factory.hpp:77] Creating layer bn3c_branch2b
I0311 23:08:53.713836 17663 net.cpp:100] Creating Layer bn3c_branch2b
I0311 23:08:53.713838 17663 net.cpp:444] bn3c_branch2b <- res3c_branch2b
I0311 23:08:53.713841 17663 net.cpp:405] bn3c_branch2b -> res3c_branch2b (in-place)
I0311 23:08:53.713984 17663 net.cpp:150] Setting up bn3c_branch2b
I0311 23:08:53.713990 17663 net.cpp:157] Top shape: 1 128 75 125 (1200000)
I0311 23:08:53.713992 17663 net.cpp:165] Memory required for data: 1788000084
I0311 23:08:53.713997 17663 layer_factory.hpp:77] Creating layer scale3c_branch2b
I0311 23:08:53.714002 17663 net.cpp:100] Creating Layer scale3c_branch2b
I0311 23:08:53.714004 17663 net.cpp:444] scale3c_branch2b <- res3c_branch2b
I0311 23:08:53.714009 17663 net.cpp:405] scale3c_branch2b -> res3c_branch2b (in-place)
I0311 23:08:53.714033 17663 layer_factory.hpp:77] Creating layer scale3c_branch2b
I0311 23:08:53.714123 17663 net.cpp:150] Setting up scale3c_branch2b
I0311 23:08:53.714128 17663 net.cpp:157] Top shape: 1 128 75 125 (1200000)
I0311 23:08:53.714130 17663 net.cpp:165] Memory required for data: 1792800084
I0311 23:08:53.714134 17663 layer_factory.hpp:77] Creating layer res3c_branch2b_relu
I0311 23:08:53.714138 17663 net.cpp:100] Creating Layer res3c_branch2b_relu
I0311 23:08:53.714140 17663 net.cpp:444] res3c_branch2b_relu <- res3c_branch2b
I0311 23:08:53.714143 17663 net.cpp:405] res3c_branch2b_relu -> res3c_branch2b (in-place)
I0311 23:08:53.714148 17663 net.cpp:150] Setting up res3c_branch2b_relu
I0311 23:08:53.714150 17663 net.cpp:157] Top shape: 1 128 75 125 (1200000)
I0311 23:08:53.714154 17663 net.cpp:165] Memory required for data: 1797600084
I0311 23:08:53.714155 17663 layer_factory.hpp:77] Creating layer res3c_branch2c
I0311 23:08:53.714160 17663 net.cpp:100] Creating Layer res3c_branch2c
I0311 23:08:53.714164 17663 net.cpp:444] res3c_branch2c <- res3c_branch2b
I0311 23:08:53.714169 17663 net.cpp:418] res3c_branch2c -> res3c_branch2c
I0311 23:08:53.715004 17663 net.cpp:150] Setting up res3c_branch2c
I0311 23:08:53.715013 17663 net.cpp:157] Top shape: 1 512 75 125 (4800000)
I0311 23:08:53.715016 17663 net.cpp:165] Memory required for data: 1816800084
I0311 23:08:53.715020 17663 layer_factory.hpp:77] Creating layer bn3c_branch2c
I0311 23:08:53.715026 17663 net.cpp:100] Creating Layer bn3c_branch2c
I0311 23:08:53.715029 17663 net.cpp:444] bn3c_branch2c <- res3c_branch2c
I0311 23:08:53.715034 17663 net.cpp:405] bn3c_branch2c -> res3c_branch2c (in-place)
I0311 23:08:53.715173 17663 net.cpp:150] Setting up bn3c_branch2c
I0311 23:08:53.715178 17663 net.cpp:157] Top shape: 1 512 75 125 (4800000)
I0311 23:08:53.715180 17663 net.cpp:165] Memory required for data: 1836000084
I0311 23:08:53.715185 17663 layer_factory.hpp:77] Creating layer scale3c_branch2c
I0311 23:08:53.715190 17663 net.cpp:100] Creating Layer scale3c_branch2c
I0311 23:08:53.715193 17663 net.cpp:444] scale3c_branch2c <- res3c_branch2c
I0311 23:08:53.715196 17663 net.cpp:405] scale3c_branch2c -> res3c_branch2c (in-place)
I0311 23:08:53.715219 17663 layer_factory.hpp:77] Creating layer scale3c_branch2c
I0311 23:08:53.715309 17663 net.cpp:150] Setting up scale3c_branch2c
I0311 23:08:53.715314 17663 net.cpp:157] Top shape: 1 512 75 125 (4800000)
I0311 23:08:53.715317 17663 net.cpp:165] Memory required for data: 1855200084
I0311 23:08:53.715320 17663 layer_factory.hpp:77] Creating layer res3c
I0311 23:08:53.715324 17663 net.cpp:100] Creating Layer res3c
I0311 23:08:53.715327 17663 net.cpp:444] res3c <- res3b_res3b_relu_0_split_1
I0311 23:08:53.715330 17663 net.cpp:444] res3c <- res3c_branch2c
I0311 23:08:53.715335 17663 net.cpp:418] res3c -> res3c
I0311 23:08:53.715351 17663 net.cpp:150] Setting up res3c
I0311 23:08:53.715355 17663 net.cpp:157] Top shape: 1 512 75 125 (4800000)
I0311 23:08:53.715358 17663 net.cpp:165] Memory required for data: 1874400084
I0311 23:08:53.715360 17663 layer_factory.hpp:77] Creating layer res3c_relu
I0311 23:08:53.715364 17663 net.cpp:100] Creating Layer res3c_relu
I0311 23:08:53.715366 17663 net.cpp:444] res3c_relu <- res3c
I0311 23:08:53.715369 17663 net.cpp:405] res3c_relu -> res3c (in-place)
I0311 23:08:53.715374 17663 net.cpp:150] Setting up res3c_relu
I0311 23:08:53.715378 17663 net.cpp:157] Top shape: 1 512 75 125 (4800000)
I0311 23:08:53.715379 17663 net.cpp:165] Memory required for data: 1893600084
I0311 23:08:53.715381 17663 layer_factory.hpp:77] Creating layer res3c_res3c_relu_0_split
I0311 23:08:53.715386 17663 net.cpp:100] Creating Layer res3c_res3c_relu_0_split
I0311 23:08:53.715389 17663 net.cpp:444] res3c_res3c_relu_0_split <- res3c
I0311 23:08:53.715392 17663 net.cpp:418] res3c_res3c_relu_0_split -> res3c_res3c_relu_0_split_0
I0311 23:08:53.715396 17663 net.cpp:418] res3c_res3c_relu_0_split -> res3c_res3c_relu_0_split_1
I0311 23:08:53.715420 17663 net.cpp:150] Setting up res3c_res3c_relu_0_split
I0311 23:08:53.715423 17663 net.cpp:157] Top shape: 1 512 75 125 (4800000)
I0311 23:08:53.715426 17663 net.cpp:157] Top shape: 1 512 75 125 (4800000)
I0311 23:08:53.715430 17663 net.cpp:165] Memory required for data: 1932000084
I0311 23:08:53.715432 17663 layer_factory.hpp:77] Creating layer res3d_branch2a
I0311 23:08:53.715437 17663 net.cpp:100] Creating Layer res3d_branch2a
I0311 23:08:53.715440 17663 net.cpp:444] res3d_branch2a <- res3c_res3c_relu_0_split_0
I0311 23:08:53.715445 17663 net.cpp:418] res3d_branch2a -> res3d_branch2a
I0311 23:08:53.715600 17663 net.cpp:150] Setting up res3d_branch2a
I0311 23:08:53.715605 17663 net.cpp:157] Top shape: 1 128 75 125 (1200000)
I0311 23:08:53.715606 17663 net.cpp:165] Memory required for data: 1936800084
I0311 23:08:53.715610 17663 layer_factory.hpp:77] Creating layer bn3d_branch2a
I0311 23:08:53.715615 17663 net.cpp:100] Creating Layer bn3d_branch2a
I0311 23:08:53.715618 17663 net.cpp:444] bn3d_branch2a <- res3d_branch2a
I0311 23:08:53.715621 17663 net.cpp:405] bn3d_branch2a -> res3d_branch2a (in-place)
I0311 23:08:53.715749 17663 net.cpp:150] Setting up bn3d_branch2a
I0311 23:08:53.715754 17663 net.cpp:157] Top shape: 1 128 75 125 (1200000)
I0311 23:08:53.715756 17663 net.cpp:165] Memory required for data: 1941600084
I0311 23:08:53.715767 17663 layer_factory.hpp:77] Creating layer scale3d_branch2a
I0311 23:08:53.715772 17663 net.cpp:100] Creating Layer scale3d_branch2a
I0311 23:08:53.715775 17663 net.cpp:444] scale3d_branch2a <- res3d_branch2a
I0311 23:08:53.715780 17663 net.cpp:405] scale3d_branch2a -> res3d_branch2a (in-place)
I0311 23:08:53.715807 17663 layer_factory.hpp:77] Creating layer scale3d_branch2a
I0311 23:08:53.715890 17663 net.cpp:150] Setting up scale3d_branch2a
I0311 23:08:53.715895 17663 net.cpp:157] Top shape: 1 128 75 125 (1200000)
I0311 23:08:53.715898 17663 net.cpp:165] Memory required for data: 1946400084
I0311 23:08:53.715901 17663 layer_factory.hpp:77] Creating layer res3d_branch2a_relu
I0311 23:08:53.715905 17663 net.cpp:100] Creating Layer res3d_branch2a_relu
I0311 23:08:53.715909 17663 net.cpp:444] res3d_branch2a_relu <- res3d_branch2a
I0311 23:08:53.715912 17663 net.cpp:405] res3d_branch2a_relu -> res3d_branch2a (in-place)
I0311 23:08:53.715916 17663 net.cpp:150] Setting up res3d_branch2a_relu
I0311 23:08:53.715919 17663 net.cpp:157] Top shape: 1 128 75 125 (1200000)
I0311 23:08:53.715921 17663 net.cpp:165] Memory required for data: 1951200084
I0311 23:08:53.715924 17663 layer_factory.hpp:77] Creating layer res3d_branch2b
I0311 23:08:53.715931 17663 net.cpp:100] Creating Layer res3d_branch2b
I0311 23:08:53.715934 17663 net.cpp:444] res3d_branch2b <- res3d_branch2a
I0311 23:08:53.715939 17663 net.cpp:418] res3d_branch2b -> res3d_branch2b
I0311 23:08:53.716140 17663 net.cpp:150] Setting up res3d_branch2b
I0311 23:08:53.716145 17663 net.cpp:157] Top shape: 1 128 75 125 (1200000)
I0311 23:08:53.716147 17663 net.cpp:165] Memory required for data: 1956000084
I0311 23:08:53.716150 17663 layer_factory.hpp:77] Creating layer bn3d_branch2b
I0311 23:08:53.716156 17663 net.cpp:100] Creating Layer bn3d_branch2b
I0311 23:08:53.716158 17663 net.cpp:444] bn3d_branch2b <- res3d_branch2b
I0311 23:08:53.716162 17663 net.cpp:405] bn3d_branch2b -> res3d_branch2b (in-place)
I0311 23:08:53.716295 17663 net.cpp:150] Setting up bn3d_branch2b
I0311 23:08:53.716298 17663 net.cpp:157] Top shape: 1 128 75 125 (1200000)
I0311 23:08:53.716300 17663 net.cpp:165] Memory required for data: 1960800084
I0311 23:08:53.716305 17663 layer_factory.hpp:77] Creating layer scale3d_branch2b
I0311 23:08:53.716310 17663 net.cpp:100] Creating Layer scale3d_branch2b
I0311 23:08:53.716313 17663 net.cpp:444] scale3d_branch2b <- res3d_branch2b
I0311 23:08:53.716316 17663 net.cpp:405] scale3d_branch2b -> res3d_branch2b (in-place)
I0311 23:08:53.716341 17663 layer_factory.hpp:77] Creating layer scale3d_branch2b
I0311 23:08:53.716429 17663 net.cpp:150] Setting up scale3d_branch2b
I0311 23:08:53.716434 17663 net.cpp:157] Top shape: 1 128 75 125 (1200000)
I0311 23:08:53.716436 17663 net.cpp:165] Memory required for data: 1965600084
I0311 23:08:53.716440 17663 layer_factory.hpp:77] Creating layer res3d_branch2b_relu
I0311 23:08:53.716445 17663 net.cpp:100] Creating Layer res3d_branch2b_relu
I0311 23:08:53.716449 17663 net.cpp:444] res3d_branch2b_relu <- res3d_branch2b
I0311 23:08:53.716452 17663 net.cpp:405] res3d_branch2b_relu -> res3d_branch2b (in-place)
I0311 23:08:53.716456 17663 net.cpp:150] Setting up res3d_branch2b_relu
I0311 23:08:53.716459 17663 net.cpp:157] Top shape: 1 128 75 125 (1200000)
I0311 23:08:53.716461 17663 net.cpp:165] Memory required for data: 1970400084
I0311 23:08:53.716464 17663 layer_factory.hpp:77] Creating layer res3d_branch2c
I0311 23:08:53.716470 17663 net.cpp:100] Creating Layer res3d_branch2c
I0311 23:08:53.716472 17663 net.cpp:444] res3d_branch2c <- res3d_branch2b
I0311 23:08:53.716476 17663 net.cpp:418] res3d_branch2c -> res3d_branch2c
I0311 23:08:53.716629 17663 net.cpp:150] Setting up res3d_branch2c
I0311 23:08:53.716634 17663 net.cpp:157] Top shape: 1 512 75 125 (4800000)
I0311 23:08:53.716636 17663 net.cpp:165] Memory required for data: 1989600084
I0311 23:08:53.716639 17663 layer_factory.hpp:77] Creating layer bn3d_branch2c
I0311 23:08:53.716644 17663 net.cpp:100] Creating Layer bn3d_branch2c
I0311 23:08:53.716645 17663 net.cpp:444] bn3d_branch2c <- res3d_branch2c
I0311 23:08:53.716650 17663 net.cpp:405] bn3d_branch2c -> res3d_branch2c (in-place)
I0311 23:08:53.716785 17663 net.cpp:150] Setting up bn3d_branch2c
I0311 23:08:53.716789 17663 net.cpp:157] Top shape: 1 512 75 125 (4800000)
I0311 23:08:53.716791 17663 net.cpp:165] Memory required for data: 2008800084
I0311 23:08:53.716796 17663 layer_factory.hpp:77] Creating layer scale3d_branch2c
I0311 23:08:53.716800 17663 net.cpp:100] Creating Layer scale3d_branch2c
I0311 23:08:53.716804 17663 net.cpp:444] scale3d_branch2c <- res3d_branch2c
I0311 23:08:53.716809 17663 net.cpp:405] scale3d_branch2c -> res3d_branch2c (in-place)
I0311 23:08:53.716832 17663 layer_factory.hpp:77] Creating layer scale3d_branch2c
I0311 23:08:53.716920 17663 net.cpp:150] Setting up scale3d_branch2c
I0311 23:08:53.716926 17663 net.cpp:157] Top shape: 1 512 75 125 (4800000)
I0311 23:08:53.716929 17663 net.cpp:165] Memory required for data: 2028000084
I0311 23:08:53.716933 17663 layer_factory.hpp:77] Creating layer res3d
I0311 23:08:53.716938 17663 net.cpp:100] Creating Layer res3d
I0311 23:08:53.716940 17663 net.cpp:444] res3d <- res3c_res3c_relu_0_split_1
I0311 23:08:53.716943 17663 net.cpp:444] res3d <- res3d_branch2c
I0311 23:08:53.716948 17663 net.cpp:418] res3d -> res3d
I0311 23:08:53.716962 17663 net.cpp:150] Setting up res3d
I0311 23:08:53.716966 17663 net.cpp:157] Top shape: 1 512 75 125 (4800000)
I0311 23:08:53.716969 17663 net.cpp:165] Memory required for data: 2047200084
I0311 23:08:53.716971 17663 layer_factory.hpp:77] Creating layer res3d_relu
I0311 23:08:53.716975 17663 net.cpp:100] Creating Layer res3d_relu
I0311 23:08:53.716977 17663 net.cpp:444] res3d_relu <- res3d
I0311 23:08:53.716981 17663 net.cpp:405] res3d_relu -> res3d (in-place)
I0311 23:08:53.716985 17663 net.cpp:150] Setting up res3d_relu
I0311 23:08:53.716989 17663 net.cpp:157] Top shape: 1 512 75 125 (4800000)
I0311 23:08:53.716990 17663 net.cpp:165] Memory required for data: 2066400084
I0311 23:08:53.716994 17663 layer_factory.hpp:77] Creating layer res3d_res3d_relu_0_split
I0311 23:08:53.716997 17663 net.cpp:100] Creating Layer res3d_res3d_relu_0_split
I0311 23:08:53.717000 17663 net.cpp:444] res3d_res3d_relu_0_split <- res3d
I0311 23:08:53.717005 17663 net.cpp:418] res3d_res3d_relu_0_split -> res3d_res3d_relu_0_split_0
I0311 23:08:53.717008 17663 net.cpp:418] res3d_res3d_relu_0_split -> res3d_res3d_relu_0_split_1
I0311 23:08:53.717032 17663 net.cpp:150] Setting up res3d_res3d_relu_0_split
I0311 23:08:53.717036 17663 net.cpp:157] Top shape: 1 512 75 125 (4800000)
I0311 23:08:53.717038 17663 net.cpp:157] Top shape: 1 512 75 125 (4800000)
I0311 23:08:53.717041 17663 net.cpp:165] Memory required for data: 2104800084
I0311 23:08:53.717043 17663 layer_factory.hpp:77] Creating layer res4a_branch1
I0311 23:08:53.717048 17663 net.cpp:100] Creating Layer res4a_branch1
I0311 23:08:53.717051 17663 net.cpp:444] res4a_branch1 <- res3d_res3d_relu_0_split_0
I0311 23:08:53.717054 17663 net.cpp:418] res4a_branch1 -> res4a_branch1
I0311 23:08:53.718144 17663 net.cpp:150] Setting up res4a_branch1
I0311 23:08:53.718158 17663 net.cpp:157] Top shape: 1 1024 38 63 (2451456)
I0311 23:08:53.718159 17663 net.cpp:165] Memory required for data: 2114605908
I0311 23:08:53.718164 17663 layer_factory.hpp:77] Creating layer bn4a_branch1
I0311 23:08:53.718170 17663 net.cpp:100] Creating Layer bn4a_branch1
I0311 23:08:53.718173 17663 net.cpp:444] bn4a_branch1 <- res4a_branch1
I0311 23:08:53.718178 17663 net.cpp:405] bn4a_branch1 -> res4a_branch1 (in-place)
I0311 23:08:53.718318 17663 net.cpp:150] Setting up bn4a_branch1
I0311 23:08:53.718323 17663 net.cpp:157] Top shape: 1 1024 38 63 (2451456)
I0311 23:08:53.718325 17663 net.cpp:165] Memory required for data: 2124411732
I0311 23:08:53.718330 17663 layer_factory.hpp:77] Creating layer scale4a_branch1
I0311 23:08:53.718335 17663 net.cpp:100] Creating Layer scale4a_branch1
I0311 23:08:53.718338 17663 net.cpp:444] scale4a_branch1 <- res4a_branch1
I0311 23:08:53.718343 17663 net.cpp:405] scale4a_branch1 -> res4a_branch1 (in-place)
I0311 23:08:53.718367 17663 layer_factory.hpp:77] Creating layer scale4a_branch1
I0311 23:08:53.718523 17663 net.cpp:150] Setting up scale4a_branch1
I0311 23:08:53.718528 17663 net.cpp:157] Top shape: 1 1024 38 63 (2451456)
I0311 23:08:53.718530 17663 net.cpp:165] Memory required for data: 2134217556
I0311 23:08:53.718534 17663 layer_factory.hpp:77] Creating layer res4a_branch2a
I0311 23:08:53.718540 17663 net.cpp:100] Creating Layer res4a_branch2a
I0311 23:08:53.718544 17663 net.cpp:444] res4a_branch2a <- res3d_res3d_relu_0_split_1
I0311 23:08:53.718549 17663 net.cpp:418] res4a_branch2a -> res4a_branch2a
I0311 23:08:53.719804 17663 net.cpp:150] Setting up res4a_branch2a
I0311 23:08:53.719818 17663 net.cpp:157] Top shape: 1 256 38 63 (612864)
I0311 23:08:53.719821 17663 net.cpp:165] Memory required for data: 2136669012
I0311 23:08:53.719826 17663 layer_factory.hpp:77] Creating layer bn4a_branch2a
I0311 23:08:53.719848 17663 net.cpp:100] Creating Layer bn4a_branch2a
I0311 23:08:53.719851 17663 net.cpp:444] bn4a_branch2a <- res4a_branch2a
I0311 23:08:53.719856 17663 net.cpp:405] bn4a_branch2a -> res4a_branch2a (in-place)
I0311 23:08:53.720021 17663 net.cpp:150] Setting up bn4a_branch2a
I0311 23:08:53.720026 17663 net.cpp:157] Top shape: 1 256 38 63 (612864)
I0311 23:08:53.720028 17663 net.cpp:165] Memory required for data: 2139120468
I0311 23:08:53.720033 17663 layer_factory.hpp:77] Creating layer scale4a_branch2a
I0311 23:08:53.720038 17663 net.cpp:100] Creating Layer scale4a_branch2a
I0311 23:08:53.720055 17663 net.cpp:444] scale4a_branch2a <- res4a_branch2a
I0311 23:08:53.720060 17663 net.cpp:405] scale4a_branch2a -> res4a_branch2a (in-place)
I0311 23:08:53.720099 17663 layer_factory.hpp:77] Creating layer scale4a_branch2a
I0311 23:08:53.720182 17663 net.cpp:150] Setting up scale4a_branch2a
I0311 23:08:53.720188 17663 net.cpp:157] Top shape: 1 256 38 63 (612864)
I0311 23:08:53.720191 17663 net.cpp:165] Memory required for data: 2141571924
I0311 23:08:53.720196 17663 layer_factory.hpp:77] Creating layer res4a_branch2a_relu
I0311 23:08:53.720199 17663 net.cpp:100] Creating Layer res4a_branch2a_relu
I0311 23:08:53.720203 17663 net.cpp:444] res4a_branch2a_relu <- res4a_branch2a
I0311 23:08:53.720206 17663 net.cpp:405] res4a_branch2a_relu -> res4a_branch2a (in-place)
I0311 23:08:53.720211 17663 net.cpp:150] Setting up res4a_branch2a_relu
I0311 23:08:53.720214 17663 net.cpp:157] Top shape: 1 256 38 63 (612864)
I0311 23:08:53.720216 17663 net.cpp:165] Memory required for data: 2144023380
I0311 23:08:53.720219 17663 layer_factory.hpp:77] Creating layer res4a_branch2b
I0311 23:08:53.720227 17663 net.cpp:100] Creating Layer res4a_branch2b
I0311 23:08:53.720229 17663 net.cpp:444] res4a_branch2b <- res4a_branch2a
I0311 23:08:53.720234 17663 net.cpp:418] res4a_branch2b -> res4a_branch2b
I0311 23:08:53.721731 17663 net.cpp:150] Setting up res4a_branch2b
I0311 23:08:53.721771 17663 net.cpp:157] Top shape: 1 256 38 63 (612864)
I0311 23:08:53.721773 17663 net.cpp:165] Memory required for data: 2146474836
I0311 23:08:53.721782 17663 layer_factory.hpp:77] Creating layer bn4a_branch2b
I0311 23:08:53.721791 17663 net.cpp:100] Creating Layer bn4a_branch2b
I0311 23:08:53.721799 17663 net.cpp:444] bn4a_branch2b <- res4a_branch2b
I0311 23:08:53.721807 17663 net.cpp:405] bn4a_branch2b -> res4a_branch2b (in-place)
I0311 23:08:53.721990 17663 net.cpp:150] Setting up bn4a_branch2b
I0311 23:08:53.721999 17663 net.cpp:157] Top shape: 1 256 38 63 (612864)
I0311 23:08:53.722002 17663 net.cpp:165] Memory required for data: 2148926292
I0311 23:08:53.722009 17663 layer_factory.hpp:77] Creating layer scale4a_branch2b
I0311 23:08:53.722018 17663 net.cpp:100] Creating Layer scale4a_branch2b
I0311 23:08:53.722021 17663 net.cpp:444] scale4a_branch2b <- res4a_branch2b
I0311 23:08:53.722025 17663 net.cpp:405] scale4a_branch2b -> res4a_branch2b (in-place)
I0311 23:08:53.722060 17663 layer_factory.hpp:77] Creating layer scale4a_branch2b
I0311 23:08:53.722154 17663 net.cpp:150] Setting up scale4a_branch2b
I0311 23:08:53.722160 17663 net.cpp:157] Top shape: 1 256 38 63 (612864)
I0311 23:08:53.722162 17663 net.cpp:165] Memory required for data: 2151377748
I0311 23:08:53.722167 17663 layer_factory.hpp:77] Creating layer res4a_branch2b_relu
I0311 23:08:53.722173 17663 net.cpp:100] Creating Layer res4a_branch2b_relu
I0311 23:08:53.722177 17663 net.cpp:444] res4a_branch2b_relu <- res4a_branch2b
I0311 23:08:53.722183 17663 net.cpp:405] res4a_branch2b_relu -> res4a_branch2b (in-place)
I0311 23:08:53.722189 17663 net.cpp:150] Setting up res4a_branch2b_relu
I0311 23:08:53.722193 17663 net.cpp:157] Top shape: 1 256 38 63 (612864)
I0311 23:08:53.722195 17663 net.cpp:165] Memory required for data: 2153829204
I0311 23:08:53.722198 17663 layer_factory.hpp:77] Creating layer res4a_branch2c
I0311 23:08:53.722208 17663 net.cpp:100] Creating Layer res4a_branch2c
I0311 23:08:53.722210 17663 net.cpp:444] res4a_branch2c <- res4a_branch2b
I0311 23:08:53.722214 17663 net.cpp:418] res4a_branch2c -> res4a_branch2c
I0311 23:08:53.722555 17663 net.cpp:150] Setting up res4a_branch2c
I0311 23:08:53.722563 17663 net.cpp:157] Top shape: 1 1024 38 63 (2451456)
I0311 23:08:53.722565 17663 net.cpp:165] Memory required for data: 2163635028
I0311 23:08:53.722569 17663 layer_factory.hpp:77] Creating layer bn4a_branch2c
I0311 23:08:53.722575 17663 net.cpp:100] Creating Layer bn4a_branch2c
I0311 23:08:53.722579 17663 net.cpp:444] bn4a_branch2c <- res4a_branch2c
I0311 23:08:53.722584 17663 net.cpp:405] bn4a_branch2c -> res4a_branch2c (in-place)
I0311 23:08:53.722738 17663 net.cpp:150] Setting up bn4a_branch2c
I0311 23:08:53.722744 17663 net.cpp:157] Top shape: 1 1024 38 63 (2451456)
I0311 23:08:53.722746 17663 net.cpp:165] Memory required for data: 2173440852
I0311 23:08:53.722751 17663 layer_factory.hpp:77] Creating layer scale4a_branch2c
I0311 23:08:53.722759 17663 net.cpp:100] Creating Layer scale4a_branch2c
I0311 23:08:53.722761 17663 net.cpp:444] scale4a_branch2c <- res4a_branch2c
I0311 23:08:53.722765 17663 net.cpp:405] scale4a_branch2c -> res4a_branch2c (in-place)
I0311 23:08:53.722792 17663 layer_factory.hpp:77] Creating layer scale4a_branch2c
I0311 23:08:53.722885 17663 net.cpp:150] Setting up scale4a_branch2c
I0311 23:08:53.722892 17663 net.cpp:157] Top shape: 1 1024 38 63 (2451456)
I0311 23:08:53.722893 17663 net.cpp:165] Memory required for data: 2183246676
I0311 23:08:53.722898 17663 layer_factory.hpp:77] Creating layer res4a
I0311 23:08:53.722915 17663 net.cpp:100] Creating Layer res4a
I0311 23:08:53.722921 17663 net.cpp:444] res4a <- res4a_branch1
I0311 23:08:53.722924 17663 net.cpp:444] res4a <- res4a_branch2c
I0311 23:08:53.722929 17663 net.cpp:418] res4a -> res4a
I0311 23:08:53.722949 17663 net.cpp:150] Setting up res4a
I0311 23:08:53.722954 17663 net.cpp:157] Top shape: 1 1024 38 63 (2451456)
I0311 23:08:53.722957 17663 net.cpp:165] Memory required for data: 2193052500
I0311 23:08:53.722960 17663 layer_factory.hpp:77] Creating layer res4a_relu
I0311 23:08:53.722964 17663 net.cpp:100] Creating Layer res4a_relu
I0311 23:08:53.722967 17663 net.cpp:444] res4a_relu <- res4a
I0311 23:08:53.722971 17663 net.cpp:405] res4a_relu -> res4a (in-place)
I0311 23:08:53.722975 17663 net.cpp:150] Setting up res4a_relu
I0311 23:08:53.722980 17663 net.cpp:157] Top shape: 1 1024 38 63 (2451456)
I0311 23:08:53.722982 17663 net.cpp:165] Memory required for data: 2202858324
I0311 23:08:53.722985 17663 layer_factory.hpp:77] Creating layer res4a_res4a_relu_0_split
I0311 23:08:53.722990 17663 net.cpp:100] Creating Layer res4a_res4a_relu_0_split
I0311 23:08:53.722992 17663 net.cpp:444] res4a_res4a_relu_0_split <- res4a
I0311 23:08:53.722996 17663 net.cpp:418] res4a_res4a_relu_0_split -> res4a_res4a_relu_0_split_0
I0311 23:08:53.723001 17663 net.cpp:418] res4a_res4a_relu_0_split -> res4a_res4a_relu_0_split_1
I0311 23:08:53.723029 17663 net.cpp:150] Setting up res4a_res4a_relu_0_split
I0311 23:08:53.723037 17663 net.cpp:157] Top shape: 1 1024 38 63 (2451456)
I0311 23:08:53.723039 17663 net.cpp:157] Top shape: 1 1024 38 63 (2451456)
I0311 23:08:53.723042 17663 net.cpp:165] Memory required for data: 2222469972
I0311 23:08:53.723044 17663 layer_factory.hpp:77] Creating layer res4b_branch2a
I0311 23:08:53.723049 17663 net.cpp:100] Creating Layer res4b_branch2a
I0311 23:08:53.723053 17663 net.cpp:444] res4b_branch2a <- res4a_res4a_relu_0_split_0
I0311 23:08:53.723058 17663 net.cpp:418] res4b_branch2a -> res4b_branch2a
I0311 23:08:53.724725 17663 net.cpp:150] Setting up res4b_branch2a
I0311 23:08:53.724776 17663 net.cpp:157] Top shape: 1 256 38 63 (612864)
I0311 23:08:53.724778 17663 net.cpp:165] Memory required for data: 2224921428
I0311 23:08:53.724792 17663 layer_factory.hpp:77] Creating layer bn4b_branch2a
I0311 23:08:53.724825 17663 net.cpp:100] Creating Layer bn4b_branch2a
I0311 23:08:53.724845 17663 net.cpp:444] bn4b_branch2a <- res4b_branch2a
I0311 23:08:53.724858 17663 net.cpp:405] bn4b_branch2a -> res4b_branch2a (in-place)
I0311 23:08:53.725075 17663 net.cpp:150] Setting up bn4b_branch2a
I0311 23:08:53.725081 17663 net.cpp:157] Top shape: 1 256 38 63 (612864)
I0311 23:08:53.725083 17663 net.cpp:165] Memory required for data: 2227372884
I0311 23:08:53.725091 17663 layer_factory.hpp:77] Creating layer scale4b_branch2a
I0311 23:08:53.725100 17663 net.cpp:100] Creating Layer scale4b_branch2a
I0311 23:08:53.725102 17663 net.cpp:444] scale4b_branch2a <- res4b_branch2a
I0311 23:08:53.725106 17663 net.cpp:405] scale4b_branch2a -> res4b_branch2a (in-place)
I0311 23:08:53.725170 17663 layer_factory.hpp:77] Creating layer scale4b_branch2a
I0311 23:08:53.725275 17663 net.cpp:150] Setting up scale4b_branch2a
I0311 23:08:53.725281 17663 net.cpp:157] Top shape: 1 256 38 63 (612864)
I0311 23:08:53.725282 17663 net.cpp:165] Memory required for data: 2229824340
I0311 23:08:53.725301 17663 layer_factory.hpp:77] Creating layer res4b_branch2a_relu
I0311 23:08:53.725306 17663 net.cpp:100] Creating Layer res4b_branch2a_relu
I0311 23:08:53.725311 17663 net.cpp:444] res4b_branch2a_relu <- res4b_branch2a
I0311 23:08:53.725314 17663 net.cpp:405] res4b_branch2a_relu -> res4b_branch2a (in-place)
I0311 23:08:53.725320 17663 net.cpp:150] Setting up res4b_branch2a_relu
I0311 23:08:53.725323 17663 net.cpp:157] Top shape: 1 256 38 63 (612864)
I0311 23:08:53.725325 17663 net.cpp:165] Memory required for data: 2232275796
I0311 23:08:53.725327 17663 layer_factory.hpp:77] Creating layer res4b_branch2b
I0311 23:08:53.725337 17663 net.cpp:100] Creating Layer res4b_branch2b
I0311 23:08:53.725339 17663 net.cpp:444] res4b_branch2b <- res4b_branch2a
I0311 23:08:53.725343 17663 net.cpp:418] res4b_branch2b -> res4b_branch2b
I0311 23:08:53.726855 17663 net.cpp:150] Setting up res4b_branch2b
I0311 23:08:53.726868 17663 net.cpp:157] Top shape: 1 256 38 63 (612864)
I0311 23:08:53.726871 17663 net.cpp:165] Memory required for data: 2234727252
I0311 23:08:53.726876 17663 layer_factory.hpp:77] Creating layer bn4b_branch2b
I0311 23:08:53.726884 17663 net.cpp:100] Creating Layer bn4b_branch2b
I0311 23:08:53.726902 17663 net.cpp:444] bn4b_branch2b <- res4b_branch2b
I0311 23:08:53.726907 17663 net.cpp:405] bn4b_branch2b -> res4b_branch2b (in-place)
I0311 23:08:53.727089 17663 net.cpp:150] Setting up bn4b_branch2b
I0311 23:08:53.727095 17663 net.cpp:157] Top shape: 1 256 38 63 (612864)
I0311 23:08:53.727097 17663 net.cpp:165] Memory required for data: 2237178708
I0311 23:08:53.727102 17663 layer_factory.hpp:77] Creating layer scale4b_branch2b
I0311 23:08:53.727108 17663 net.cpp:100] Creating Layer scale4b_branch2b
I0311 23:08:53.727123 17663 net.cpp:444] scale4b_branch2b <- res4b_branch2b
I0311 23:08:53.727128 17663 net.cpp:405] scale4b_branch2b -> res4b_branch2b (in-place)
I0311 23:08:53.727167 17663 layer_factory.hpp:77] Creating layer scale4b_branch2b
I0311 23:08:53.727277 17663 net.cpp:150] Setting up scale4b_branch2b
I0311 23:08:53.727283 17663 net.cpp:157] Top shape: 1 256 38 63 (612864)
I0311 23:08:53.727285 17663 net.cpp:165] Memory required for data: 2239630164
I0311 23:08:53.727289 17663 layer_factory.hpp:77] Creating layer res4b_branch2b_relu
I0311 23:08:53.727293 17663 net.cpp:100] Creating Layer res4b_branch2b_relu
I0311 23:08:53.727296 17663 net.cpp:444] res4b_branch2b_relu <- res4b_branch2b
I0311 23:08:53.727299 17663 net.cpp:405] res4b_branch2b_relu -> res4b_branch2b (in-place)
I0311 23:08:53.727304 17663 net.cpp:150] Setting up res4b_branch2b_relu
I0311 23:08:53.727308 17663 net.cpp:157] Top shape: 1 256 38 63 (612864)
I0311 23:08:53.727309 17663 net.cpp:165] Memory required for data: 2242081620
I0311 23:08:53.727324 17663 layer_factory.hpp:77] Creating layer res4b_branch2c
I0311 23:08:53.727331 17663 net.cpp:100] Creating Layer res4b_branch2c
I0311 23:08:53.727334 17663 net.cpp:444] res4b_branch2c <- res4b_branch2b
I0311 23:08:53.727339 17663 net.cpp:418] res4b_branch2c -> res4b_branch2c
I0311 23:08:53.727608 17663 net.cpp:150] Setting up res4b_branch2c
I0311 23:08:53.727615 17663 net.cpp:157] Top shape: 1 1024 38 63 (2451456)
I0311 23:08:53.727617 17663 net.cpp:165] Memory required for data: 2251887444
I0311 23:08:53.727622 17663 layer_factory.hpp:77] Creating layer bn4b_branch2c
I0311 23:08:53.727627 17663 net.cpp:100] Creating Layer bn4b_branch2c
I0311 23:08:53.727629 17663 net.cpp:444] bn4b_branch2c <- res4b_branch2c
I0311 23:08:53.727632 17663 net.cpp:405] bn4b_branch2c -> res4b_branch2c (in-place)
I0311 23:08:53.727782 17663 net.cpp:150] Setting up bn4b_branch2c
I0311 23:08:53.727787 17663 net.cpp:157] Top shape: 1 1024 38 63 (2451456)
I0311 23:08:53.727789 17663 net.cpp:165] Memory required for data: 2261693268
I0311 23:08:53.727793 17663 layer_factory.hpp:77] Creating layer scale4b_branch2c
I0311 23:08:53.727798 17663 net.cpp:100] Creating Layer scale4b_branch2c
I0311 23:08:53.727815 17663 net.cpp:444] scale4b_branch2c <- res4b_branch2c
I0311 23:08:53.727818 17663 net.cpp:405] scale4b_branch2c -> res4b_branch2c (in-place)
I0311 23:08:53.727843 17663 layer_factory.hpp:77] Creating layer scale4b_branch2c
I0311 23:08:53.727954 17663 net.cpp:150] Setting up scale4b_branch2c
I0311 23:08:53.727959 17663 net.cpp:157] Top shape: 1 1024 38 63 (2451456)
I0311 23:08:53.727962 17663 net.cpp:165] Memory required for data: 2271499092
I0311 23:08:53.727979 17663 layer_factory.hpp:77] Creating layer res4b
I0311 23:08:53.727984 17663 net.cpp:100] Creating Layer res4b
I0311 23:08:53.727988 17663 net.cpp:444] res4b <- res4a_res4a_relu_0_split_1
I0311 23:08:53.727991 17663 net.cpp:444] res4b <- res4b_branch2c
I0311 23:08:53.727995 17663 net.cpp:418] res4b -> res4b
I0311 23:08:53.728013 17663 net.cpp:150] Setting up res4b
I0311 23:08:53.728016 17663 net.cpp:157] Top shape: 1 1024 38 63 (2451456)
I0311 23:08:53.728018 17663 net.cpp:165] Memory required for data: 2281304916
I0311 23:08:53.728021 17663 layer_factory.hpp:77] Creating layer res4b_relu
I0311 23:08:53.728024 17663 net.cpp:100] Creating Layer res4b_relu
I0311 23:08:53.728027 17663 net.cpp:444] res4b_relu <- res4b
I0311 23:08:53.728032 17663 net.cpp:405] res4b_relu -> res4b (in-place)
I0311 23:08:53.728035 17663 net.cpp:150] Setting up res4b_relu
I0311 23:08:53.728039 17663 net.cpp:157] Top shape: 1 1024 38 63 (2451456)
I0311 23:08:53.728041 17663 net.cpp:165] Memory required for data: 2291110740
I0311 23:08:53.728044 17663 layer_factory.hpp:77] Creating layer res4b_res4b_relu_0_split
I0311 23:08:53.728047 17663 net.cpp:100] Creating Layer res4b_res4b_relu_0_split
I0311 23:08:53.728050 17663 net.cpp:444] res4b_res4b_relu_0_split <- res4b
I0311 23:08:53.728055 17663 net.cpp:418] res4b_res4b_relu_0_split -> res4b_res4b_relu_0_split_0
I0311 23:08:53.728058 17663 net.cpp:418] res4b_res4b_relu_0_split -> res4b_res4b_relu_0_split_1
I0311 23:08:53.728083 17663 net.cpp:150] Setting up res4b_res4b_relu_0_split
I0311 23:08:53.728087 17663 net.cpp:157] Top shape: 1 1024 38 63 (2451456)
I0311 23:08:53.728091 17663 net.cpp:157] Top shape: 1 1024 38 63 (2451456)
I0311 23:08:53.728093 17663 net.cpp:165] Memory required for data: 2310722388
I0311 23:08:53.728096 17663 layer_factory.hpp:77] Creating layer res4c_branch2a
I0311 23:08:53.728101 17663 net.cpp:100] Creating Layer res4c_branch2a
I0311 23:08:53.728104 17663 net.cpp:444] res4c_branch2a <- res4b_res4b_relu_0_split_0
I0311 23:08:53.728108 17663 net.cpp:418] res4c_branch2a -> res4c_branch2a
I0311 23:08:53.729137 17663 net.cpp:150] Setting up res4c_branch2a
I0311 23:08:53.729149 17663 net.cpp:157] Top shape: 1 256 38 63 (612864)
I0311 23:08:53.729152 17663 net.cpp:165] Memory required for data: 2313173844
I0311 23:08:53.729157 17663 layer_factory.hpp:77] Creating layer bn4c_branch2a
I0311 23:08:53.729164 17663 net.cpp:100] Creating Layer bn4c_branch2a
I0311 23:08:53.729167 17663 net.cpp:444] bn4c_branch2a <- res4c_branch2a
I0311 23:08:53.729172 17663 net.cpp:405] bn4c_branch2a -> res4c_branch2a (in-place)
I0311 23:08:53.729334 17663 net.cpp:150] Setting up bn4c_branch2a
I0311 23:08:53.729341 17663 net.cpp:157] Top shape: 1 256 38 63 (612864)
I0311 23:08:53.729342 17663 net.cpp:165] Memory required for data: 2315625300
I0311 23:08:53.729347 17663 layer_factory.hpp:77] Creating layer scale4c_branch2a
I0311 23:08:53.729351 17663 net.cpp:100] Creating Layer scale4c_branch2a
I0311 23:08:53.729354 17663 net.cpp:444] scale4c_branch2a <- res4c_branch2a
I0311 23:08:53.729372 17663 net.cpp:405] scale4c_branch2a -> res4c_branch2a (in-place)
I0311 23:08:53.729410 17663 layer_factory.hpp:77] Creating layer scale4c_branch2a
I0311 23:08:53.729506 17663 net.cpp:150] Setting up scale4c_branch2a
I0311 23:08:53.729511 17663 net.cpp:157] Top shape: 1 256 38 63 (612864)
I0311 23:08:53.729513 17663 net.cpp:165] Memory required for data: 2318076756
I0311 23:08:53.729517 17663 layer_factory.hpp:77] Creating layer res4c_branch2a_relu
I0311 23:08:53.729521 17663 net.cpp:100] Creating Layer res4c_branch2a_relu
I0311 23:08:53.729524 17663 net.cpp:444] res4c_branch2a_relu <- res4c_branch2a
I0311 23:08:53.729540 17663 net.cpp:405] res4c_branch2a_relu -> res4c_branch2a (in-place)
I0311 23:08:53.729544 17663 net.cpp:150] Setting up res4c_branch2a_relu
I0311 23:08:53.729547 17663 net.cpp:157] Top shape: 1 256 38 63 (612864)
I0311 23:08:53.729563 17663 net.cpp:165] Memory required for data: 2320528212
I0311 23:08:53.729565 17663 layer_factory.hpp:77] Creating layer res4c_branch2b
I0311 23:08:53.729571 17663 net.cpp:100] Creating Layer res4c_branch2b
I0311 23:08:53.729574 17663 net.cpp:444] res4c_branch2b <- res4c_branch2a
I0311 23:08:53.729579 17663 net.cpp:418] res4c_branch2b -> res4c_branch2b
I0311 23:08:53.730788 17663 net.cpp:150] Setting up res4c_branch2b
I0311 23:08:53.730803 17663 net.cpp:157] Top shape: 1 256 38 63 (612864)
I0311 23:08:53.730806 17663 net.cpp:165] Memory required for data: 2322979668
I0311 23:08:53.730811 17663 layer_factory.hpp:77] Creating layer bn4c_branch2b
I0311 23:08:53.730832 17663 net.cpp:100] Creating Layer bn4c_branch2b
I0311 23:08:53.730836 17663 net.cpp:444] bn4c_branch2b <- res4c_branch2b
I0311 23:08:53.730840 17663 net.cpp:405] bn4c_branch2b -> res4c_branch2b (in-place)
I0311 23:08:53.731009 17663 net.cpp:150] Setting up bn4c_branch2b
I0311 23:08:53.731014 17663 net.cpp:157] Top shape: 1 256 38 63 (612864)
I0311 23:08:53.731016 17663 net.cpp:165] Memory required for data: 2325431124
I0311 23:08:53.731021 17663 layer_factory.hpp:77] Creating layer scale4c_branch2b
I0311 23:08:53.731041 17663 net.cpp:100] Creating Layer scale4c_branch2b
I0311 23:08:53.731045 17663 net.cpp:444] scale4c_branch2b <- res4c_branch2b
I0311 23:08:53.731048 17663 net.cpp:405] scale4c_branch2b -> res4c_branch2b (in-place)
I0311 23:08:53.731088 17663 layer_factory.hpp:77] Creating layer scale4c_branch2b
I0311 23:08:53.731185 17663 net.cpp:150] Setting up scale4c_branch2b
I0311 23:08:53.731190 17663 net.cpp:157] Top shape: 1 256 38 63 (612864)
I0311 23:08:53.731192 17663 net.cpp:165] Memory required for data: 2327882580
I0311 23:08:53.731196 17663 layer_factory.hpp:77] Creating layer res4c_branch2b_relu
I0311 23:08:53.731200 17663 net.cpp:100] Creating Layer res4c_branch2b_relu
I0311 23:08:53.731217 17663 net.cpp:444] res4c_branch2b_relu <- res4c_branch2b
I0311 23:08:53.731221 17663 net.cpp:405] res4c_branch2b_relu -> res4c_branch2b (in-place)
I0311 23:08:53.731226 17663 net.cpp:150] Setting up res4c_branch2b_relu
I0311 23:08:53.731228 17663 net.cpp:157] Top shape: 1 256 38 63 (612864)
I0311 23:08:53.731231 17663 net.cpp:165] Memory required for data: 2330334036
I0311 23:08:53.731233 17663 layer_factory.hpp:77] Creating layer res4c_branch2c
I0311 23:08:53.731252 17663 net.cpp:100] Creating Layer res4c_branch2c
I0311 23:08:53.731256 17663 net.cpp:444] res4c_branch2c <- res4c_branch2b
I0311 23:08:53.731261 17663 net.cpp:418] res4c_branch2c -> res4c_branch2c
I0311 23:08:53.731598 17663 net.cpp:150] Setting up res4c_branch2c
I0311 23:08:53.731604 17663 net.cpp:157] Top shape: 1 1024 38 63 (2451456)
I0311 23:08:53.731606 17663 net.cpp:165] Memory required for data: 2340139860
I0311 23:08:53.731611 17663 layer_factory.hpp:77] Creating layer bn4c_branch2c
I0311 23:08:53.731614 17663 net.cpp:100] Creating Layer bn4c_branch2c
I0311 23:08:53.731617 17663 net.cpp:444] bn4c_branch2c <- res4c_branch2c
I0311 23:08:53.731637 17663 net.cpp:405] bn4c_branch2c -> res4c_branch2c (in-place)
I0311 23:08:53.731806 17663 net.cpp:150] Setting up bn4c_branch2c
I0311 23:08:53.731812 17663 net.cpp:157] Top shape: 1 1024 38 63 (2451456)
I0311 23:08:53.731814 17663 net.cpp:165] Memory required for data: 2349945684
I0311 23:08:53.731818 17663 layer_factory.hpp:77] Creating layer scale4c_branch2c
I0311 23:08:53.731823 17663 net.cpp:100] Creating Layer scale4c_branch2c
I0311 23:08:53.731825 17663 net.cpp:444] scale4c_branch2c <- res4c_branch2c
I0311 23:08:53.731842 17663 net.cpp:405] scale4c_branch2c -> res4c_branch2c (in-place)
I0311 23:08:53.731879 17663 layer_factory.hpp:77] Creating layer scale4c_branch2c
I0311 23:08:53.731988 17663 net.cpp:150] Setting up scale4c_branch2c
I0311 23:08:53.731993 17663 net.cpp:157] Top shape: 1 1024 38 63 (2451456)
I0311 23:08:53.731997 17663 net.cpp:165] Memory required for data: 2359751508
I0311 23:08:53.731999 17663 layer_factory.hpp:77] Creating layer res4c
I0311 23:08:53.732004 17663 net.cpp:100] Creating Layer res4c
I0311 23:08:53.732019 17663 net.cpp:444] res4c <- res4b_res4b_relu_0_split_1
I0311 23:08:53.732023 17663 net.cpp:444] res4c <- res4c_branch2c
I0311 23:08:53.732028 17663 net.cpp:418] res4c -> res4c
I0311 23:08:53.732058 17663 net.cpp:150] Setting up res4c
I0311 23:08:53.732061 17663 net.cpp:157] Top shape: 1 1024 38 63 (2451456)
I0311 23:08:53.732064 17663 net.cpp:165] Memory required for data: 2369557332
I0311 23:08:53.732066 17663 layer_factory.hpp:77] Creating layer res4c_relu
I0311 23:08:53.732070 17663 net.cpp:100] Creating Layer res4c_relu
I0311 23:08:53.732074 17663 net.cpp:444] res4c_relu <- res4c
I0311 23:08:53.732077 17663 net.cpp:405] res4c_relu -> res4c (in-place)
I0311 23:08:53.732081 17663 net.cpp:150] Setting up res4c_relu
I0311 23:08:53.732084 17663 net.cpp:157] Top shape: 1 1024 38 63 (2451456)
I0311 23:08:53.732086 17663 net.cpp:165] Memory required for data: 2379363156
I0311 23:08:53.732089 17663 layer_factory.hpp:77] Creating layer res4c_res4c_relu_0_split
I0311 23:08:53.732092 17663 net.cpp:100] Creating Layer res4c_res4c_relu_0_split
I0311 23:08:53.732095 17663 net.cpp:444] res4c_res4c_relu_0_split <- res4c
I0311 23:08:53.732098 17663 net.cpp:418] res4c_res4c_relu_0_split -> res4c_res4c_relu_0_split_0
I0311 23:08:53.732103 17663 net.cpp:418] res4c_res4c_relu_0_split -> res4c_res4c_relu_0_split_1
I0311 23:08:53.732127 17663 net.cpp:150] Setting up res4c_res4c_relu_0_split
I0311 23:08:53.732131 17663 net.cpp:157] Top shape: 1 1024 38 63 (2451456)
I0311 23:08:53.732134 17663 net.cpp:157] Top shape: 1 1024 38 63 (2451456)
I0311 23:08:53.732136 17663 net.cpp:165] Memory required for data: 2398974804
I0311 23:08:53.732139 17663 layer_factory.hpp:77] Creating layer res4d_branch2a
I0311 23:08:53.732144 17663 net.cpp:100] Creating Layer res4d_branch2a
I0311 23:08:53.732148 17663 net.cpp:444] res4d_branch2a <- res4c_res4c_relu_0_split_0
I0311 23:08:53.732151 17663 net.cpp:418] res4d_branch2a -> res4d_branch2a
I0311 23:08:53.733172 17663 net.cpp:150] Setting up res4d_branch2a
I0311 23:08:53.733184 17663 net.cpp:157] Top shape: 1 256 38 63 (612864)
I0311 23:08:53.733187 17663 net.cpp:165] Memory required for data: 2401426260
I0311 23:08:53.733191 17663 layer_factory.hpp:77] Creating layer bn4d_branch2a
I0311 23:08:53.733198 17663 net.cpp:100] Creating Layer bn4d_branch2a
I0311 23:08:53.733214 17663 net.cpp:444] bn4d_branch2a <- res4d_branch2a
I0311 23:08:53.733219 17663 net.cpp:405] bn4d_branch2a -> res4d_branch2a (in-place)
I0311 23:08:53.733371 17663 net.cpp:150] Setting up bn4d_branch2a
I0311 23:08:53.733376 17663 net.cpp:157] Top shape: 1 256 38 63 (612864)
I0311 23:08:53.733377 17663 net.cpp:165] Memory required for data: 2403877716
I0311 23:08:53.733382 17663 layer_factory.hpp:77] Creating layer scale4d_branch2a
I0311 23:08:53.733402 17663 net.cpp:100] Creating Layer scale4d_branch2a
I0311 23:08:53.733404 17663 net.cpp:444] scale4d_branch2a <- res4d_branch2a
I0311 23:08:53.733407 17663 net.cpp:405] scale4d_branch2a -> res4d_branch2a (in-place)
I0311 23:08:53.733448 17663 layer_factory.hpp:77] Creating layer scale4d_branch2a
I0311 23:08:53.733556 17663 net.cpp:150] Setting up scale4d_branch2a
I0311 23:08:53.733561 17663 net.cpp:157] Top shape: 1 256 38 63 (612864)
I0311 23:08:53.733562 17663 net.cpp:165] Memory required for data: 2406329172
I0311 23:08:53.733566 17663 layer_factory.hpp:77] Creating layer res4d_branch2a_relu
I0311 23:08:53.733572 17663 net.cpp:100] Creating Layer res4d_branch2a_relu
I0311 23:08:53.733587 17663 net.cpp:444] res4d_branch2a_relu <- res4d_branch2a
I0311 23:08:53.733592 17663 net.cpp:405] res4d_branch2a_relu -> res4d_branch2a (in-place)
I0311 23:08:53.733595 17663 net.cpp:150] Setting up res4d_branch2a_relu
I0311 23:08:53.733598 17663 net.cpp:157] Top shape: 1 256 38 63 (612864)
I0311 23:08:53.733602 17663 net.cpp:165] Memory required for data: 2408780628
I0311 23:08:53.733603 17663 layer_factory.hpp:77] Creating layer res4d_branch2b
I0311 23:08:53.733609 17663 net.cpp:100] Creating Layer res4d_branch2b
I0311 23:08:53.733611 17663 net.cpp:444] res4d_branch2b <- res4d_branch2a
I0311 23:08:53.733615 17663 net.cpp:418] res4d_branch2b -> res4d_branch2b
I0311 23:08:53.734802 17663 net.cpp:150] Setting up res4d_branch2b
I0311 23:08:53.734814 17663 net.cpp:157] Top shape: 1 256 38 63 (612864)
I0311 23:08:53.734817 17663 net.cpp:165] Memory required for data: 2411232084
I0311 23:08:53.734822 17663 layer_factory.hpp:77] Creating layer bn4d_branch2b
I0311 23:08:53.734843 17663 net.cpp:100] Creating Layer bn4d_branch2b
I0311 23:08:53.734845 17663 net.cpp:444] bn4d_branch2b <- res4d_branch2b
I0311 23:08:53.734863 17663 net.cpp:405] bn4d_branch2b -> res4d_branch2b (in-place)
I0311 23:08:53.735021 17663 net.cpp:150] Setting up bn4d_branch2b
I0311 23:08:53.735028 17663 net.cpp:157] Top shape: 1 256 38 63 (612864)
I0311 23:08:53.735029 17663 net.cpp:165] Memory required for data: 2413683540
I0311 23:08:53.735034 17663 layer_factory.hpp:77] Creating layer scale4d_branch2b
I0311 23:08:53.735054 17663 net.cpp:100] Creating Layer scale4d_branch2b
I0311 23:08:53.735057 17663 net.cpp:444] scale4d_branch2b <- res4d_branch2b
I0311 23:08:53.735061 17663 net.cpp:405] scale4d_branch2b -> res4d_branch2b (in-place)
I0311 23:08:53.735102 17663 layer_factory.hpp:77] Creating layer scale4d_branch2b
I0311 23:08:53.735225 17663 net.cpp:150] Setting up scale4d_branch2b
I0311 23:08:53.735230 17663 net.cpp:157] Top shape: 1 256 38 63 (612864)
I0311 23:08:53.735234 17663 net.cpp:165] Memory required for data: 2416134996
I0311 23:08:53.735237 17663 layer_factory.hpp:77] Creating layer res4d_branch2b_relu
I0311 23:08:53.735242 17663 net.cpp:100] Creating Layer res4d_branch2b_relu
I0311 23:08:53.735258 17663 net.cpp:444] res4d_branch2b_relu <- res4d_branch2b
I0311 23:08:53.735262 17663 net.cpp:405] res4d_branch2b_relu -> res4d_branch2b (in-place)
I0311 23:08:53.735280 17663 net.cpp:150] Setting up res4d_branch2b_relu
I0311 23:08:53.735282 17663 net.cpp:157] Top shape: 1 256 38 63 (612864)
I0311 23:08:53.735285 17663 net.cpp:165] Memory required for data: 2418586452
I0311 23:08:53.735287 17663 layer_factory.hpp:77] Creating layer res4d_branch2c
I0311 23:08:53.735293 17663 net.cpp:100] Creating Layer res4d_branch2c
I0311 23:08:53.735296 17663 net.cpp:444] res4d_branch2c <- res4d_branch2b
I0311 23:08:53.735301 17663 net.cpp:418] res4d_branch2c -> res4d_branch2c
I0311 23:08:53.735589 17663 net.cpp:150] Setting up res4d_branch2c
I0311 23:08:53.735595 17663 net.cpp:157] Top shape: 1 1024 38 63 (2451456)
I0311 23:08:53.735597 17663 net.cpp:165] Memory required for data: 2428392276
I0311 23:08:53.735600 17663 layer_factory.hpp:77] Creating layer bn4d_branch2c
I0311 23:08:53.735605 17663 net.cpp:100] Creating Layer bn4d_branch2c
I0311 23:08:53.735622 17663 net.cpp:444] bn4d_branch2c <- res4d_branch2c
I0311 23:08:53.735626 17663 net.cpp:405] bn4d_branch2c -> res4d_branch2c (in-place)
I0311 23:08:53.735774 17663 net.cpp:150] Setting up bn4d_branch2c
I0311 23:08:53.735780 17663 net.cpp:157] Top shape: 1 1024 38 63 (2451456)
I0311 23:08:53.735782 17663 net.cpp:165] Memory required for data: 2438198100
I0311 23:08:53.735786 17663 layer_factory.hpp:77] Creating layer scale4d_branch2c
I0311 23:08:53.735791 17663 net.cpp:100] Creating Layer scale4d_branch2c
I0311 23:08:53.735808 17663 net.cpp:444] scale4d_branch2c <- res4d_branch2c
I0311 23:08:53.735812 17663 net.cpp:405] scale4d_branch2c -> res4d_branch2c (in-place)
I0311 23:08:53.735849 17663 layer_factory.hpp:77] Creating layer scale4d_branch2c
I0311 23:08:53.735944 17663 net.cpp:150] Setting up scale4d_branch2c
I0311 23:08:53.735950 17663 net.cpp:157] Top shape: 1 1024 38 63 (2451456)
I0311 23:08:53.735954 17663 net.cpp:165] Memory required for data: 2448003924
I0311 23:08:53.735957 17663 layer_factory.hpp:77] Creating layer res4d
I0311 23:08:53.735961 17663 net.cpp:100] Creating Layer res4d
I0311 23:08:53.735977 17663 net.cpp:444] res4d <- res4c_res4c_relu_0_split_1
I0311 23:08:53.735980 17663 net.cpp:444] res4d <- res4d_branch2c
I0311 23:08:53.735997 17663 net.cpp:418] res4d -> res4d
I0311 23:08:53.736014 17663 net.cpp:150] Setting up res4d
I0311 23:08:53.736018 17663 net.cpp:157] Top shape: 1 1024 38 63 (2451456)
I0311 23:08:53.736021 17663 net.cpp:165] Memory required for data: 2457809748
I0311 23:08:53.736023 17663 layer_factory.hpp:77] Creating layer res4d_relu
I0311 23:08:53.736027 17663 net.cpp:100] Creating Layer res4d_relu
I0311 23:08:53.736029 17663 net.cpp:444] res4d_relu <- res4d
I0311 23:08:53.736034 17663 net.cpp:405] res4d_relu -> res4d (in-place)
I0311 23:08:53.736038 17663 net.cpp:150] Setting up res4d_relu
I0311 23:08:53.736042 17663 net.cpp:157] Top shape: 1 1024 38 63 (2451456)
I0311 23:08:53.736043 17663 net.cpp:165] Memory required for data: 2467615572
I0311 23:08:53.736045 17663 layer_factory.hpp:77] Creating layer res4d_res4d_relu_0_split
I0311 23:08:53.736049 17663 net.cpp:100] Creating Layer res4d_res4d_relu_0_split
I0311 23:08:53.736052 17663 net.cpp:444] res4d_res4d_relu_0_split <- res4d
I0311 23:08:53.736057 17663 net.cpp:418] res4d_res4d_relu_0_split -> res4d_res4d_relu_0_split_0
I0311 23:08:53.736063 17663 net.cpp:418] res4d_res4d_relu_0_split -> res4d_res4d_relu_0_split_1
I0311 23:08:53.736085 17663 net.cpp:150] Setting up res4d_res4d_relu_0_split
I0311 23:08:53.736089 17663 net.cpp:157] Top shape: 1 1024 38 63 (2451456)
I0311 23:08:53.736093 17663 net.cpp:157] Top shape: 1 1024 38 63 (2451456)
I0311 23:08:53.736094 17663 net.cpp:165] Memory required for data: 2487227220
I0311 23:08:53.736097 17663 layer_factory.hpp:77] Creating layer res4e_branch2a
I0311 23:08:53.736105 17663 net.cpp:100] Creating Layer res4e_branch2a
I0311 23:08:53.736109 17663 net.cpp:444] res4e_branch2a <- res4d_res4d_relu_0_split_0
I0311 23:08:53.736112 17663 net.cpp:418] res4e_branch2a -> res4e_branch2a
I0311 23:08:53.737093 17663 net.cpp:150] Setting up res4e_branch2a
I0311 23:08:53.737104 17663 net.cpp:157] Top shape: 1 256 38 63 (612864)
I0311 23:08:53.737107 17663 net.cpp:165] Memory required for data: 2489678676
I0311 23:08:53.737112 17663 layer_factory.hpp:77] Creating layer bn4e_branch2a
I0311 23:08:53.737130 17663 net.cpp:100] Creating Layer bn4e_branch2a
I0311 23:08:53.737133 17663 net.cpp:444] bn4e_branch2a <- res4e_branch2a
I0311 23:08:53.737138 17663 net.cpp:405] bn4e_branch2a -> res4e_branch2a (in-place)
I0311 23:08:53.737304 17663 net.cpp:150] Setting up bn4e_branch2a
I0311 23:08:53.737310 17663 net.cpp:157] Top shape: 1 256 38 63 (612864)
I0311 23:08:53.737313 17663 net.cpp:165] Memory required for data: 2492130132
I0311 23:08:53.737318 17663 layer_factory.hpp:77] Creating layer scale4e_branch2a
I0311 23:08:53.737337 17663 net.cpp:100] Creating Layer scale4e_branch2a
I0311 23:08:53.737340 17663 net.cpp:444] scale4e_branch2a <- res4e_branch2a
I0311 23:08:53.737344 17663 net.cpp:405] scale4e_branch2a -> res4e_branch2a (in-place)
I0311 23:08:53.737385 17663 layer_factory.hpp:77] Creating layer scale4e_branch2a
I0311 23:08:53.737478 17663 net.cpp:150] Setting up scale4e_branch2a
I0311 23:08:53.737483 17663 net.cpp:157] Top shape: 1 256 38 63 (612864)
I0311 23:08:53.737485 17663 net.cpp:165] Memory required for data: 2494581588
I0311 23:08:53.737489 17663 layer_factory.hpp:77] Creating layer res4e_branch2a_relu
I0311 23:08:53.737494 17663 net.cpp:100] Creating Layer res4e_branch2a_relu
I0311 23:08:53.737509 17663 net.cpp:444] res4e_branch2a_relu <- res4e_branch2a
I0311 23:08:53.737514 17663 net.cpp:405] res4e_branch2a_relu -> res4e_branch2a (in-place)
I0311 23:08:53.737519 17663 net.cpp:150] Setting up res4e_branch2a_relu
I0311 23:08:53.737521 17663 net.cpp:157] Top shape: 1 256 38 63 (612864)
I0311 23:08:53.737537 17663 net.cpp:165] Memory required for data: 2497033044
I0311 23:08:53.737540 17663 layer_factory.hpp:77] Creating layer res4e_branch2b
I0311 23:08:53.737545 17663 net.cpp:100] Creating Layer res4e_branch2b
I0311 23:08:53.737546 17663 net.cpp:444] res4e_branch2b <- res4e_branch2a
I0311 23:08:53.737551 17663 net.cpp:418] res4e_branch2b -> res4e_branch2b
I0311 23:08:53.738899 17663 net.cpp:150] Setting up res4e_branch2b
I0311 23:08:53.738929 17663 net.cpp:157] Top shape: 1 256 38 63 (612864)
I0311 23:08:53.738932 17663 net.cpp:165] Memory required for data: 2499484500
I0311 23:08:53.738956 17663 layer_factory.hpp:77] Creating layer bn4e_branch2b
I0311 23:08:53.738967 17663 net.cpp:100] Creating Layer bn4e_branch2b
I0311 23:08:53.738975 17663 net.cpp:444] bn4e_branch2b <- res4e_branch2b
I0311 23:08:53.738996 17663 net.cpp:405] bn4e_branch2b -> res4e_branch2b (in-place)
I0311 23:08:53.739192 17663 net.cpp:150] Setting up bn4e_branch2b
I0311 23:08:53.739198 17663 net.cpp:157] Top shape: 1 256 38 63 (612864)
I0311 23:08:53.739202 17663 net.cpp:165] Memory required for data: 2501935956
I0311 23:08:53.739207 17663 layer_factory.hpp:77] Creating layer scale4e_branch2b
I0311 23:08:53.739228 17663 net.cpp:100] Creating Layer scale4e_branch2b
I0311 23:08:53.739230 17663 net.cpp:444] scale4e_branch2b <- res4e_branch2b
I0311 23:08:53.739234 17663 net.cpp:405] scale4e_branch2b -> res4e_branch2b (in-place)
I0311 23:08:53.739279 17663 layer_factory.hpp:77] Creating layer scale4e_branch2b
I0311 23:08:53.739399 17663 net.cpp:150] Setting up scale4e_branch2b
I0311 23:08:53.739404 17663 net.cpp:157] Top shape: 1 256 38 63 (612864)
I0311 23:08:53.739408 17663 net.cpp:165] Memory required for data: 2504387412
I0311 23:08:53.739411 17663 layer_factory.hpp:77] Creating layer res4e_branch2b_relu
I0311 23:08:53.739418 17663 net.cpp:100] Creating Layer res4e_branch2b_relu
I0311 23:08:53.739434 17663 net.cpp:444] res4e_branch2b_relu <- res4e_branch2b
I0311 23:08:53.739439 17663 net.cpp:405] res4e_branch2b_relu -> res4e_branch2b (in-place)
I0311 23:08:53.739457 17663 net.cpp:150] Setting up res4e_branch2b_relu
I0311 23:08:53.739461 17663 net.cpp:157] Top shape: 1 256 38 63 (612864)
I0311 23:08:53.739476 17663 net.cpp:165] Memory required for data: 2506838868
I0311 23:08:53.739480 17663 layer_factory.hpp:77] Creating layer res4e_branch2c
I0311 23:08:53.739490 17663 net.cpp:100] Creating Layer res4e_branch2c
I0311 23:08:53.739491 17663 net.cpp:444] res4e_branch2c <- res4e_branch2b
I0311 23:08:53.739495 17663 net.cpp:418] res4e_branch2c -> res4e_branch2c
I0311 23:08:53.739898 17663 net.cpp:150] Setting up res4e_branch2c
I0311 23:08:53.739905 17663 net.cpp:157] Top shape: 1 1024 38 63 (2451456)
I0311 23:08:53.739908 17663 net.cpp:165] Memory required for data: 2516644692
I0311 23:08:53.739912 17663 layer_factory.hpp:77] Creating layer bn4e_branch2c
I0311 23:08:53.739918 17663 net.cpp:100] Creating Layer bn4e_branch2c
I0311 23:08:53.739920 17663 net.cpp:444] bn4e_branch2c <- res4e_branch2c
I0311 23:08:53.739924 17663 net.cpp:405] bn4e_branch2c -> res4e_branch2c (in-place)
I0311 23:08:53.740097 17663 net.cpp:150] Setting up bn4e_branch2c
I0311 23:08:53.740101 17663 net.cpp:157] Top shape: 1 1024 38 63 (2451456)
I0311 23:08:53.740104 17663 net.cpp:165] Memory required for data: 2526450516
I0311 23:08:53.740108 17663 layer_factory.hpp:77] Creating layer scale4e_branch2c
I0311 23:08:53.740113 17663 net.cpp:100] Creating Layer scale4e_branch2c
I0311 23:08:53.740116 17663 net.cpp:444] scale4e_branch2c <- res4e_branch2c
I0311 23:08:53.740121 17663 net.cpp:405] scale4e_branch2c -> res4e_branch2c (in-place)
I0311 23:08:53.740145 17663 layer_factory.hpp:77] Creating layer scale4e_branch2c
I0311 23:08:53.740236 17663 net.cpp:150] Setting up scale4e_branch2c
I0311 23:08:53.740242 17663 net.cpp:157] Top shape: 1 1024 38 63 (2451456)
I0311 23:08:53.740243 17663 net.cpp:165] Memory required for data: 2536256340
I0311 23:08:53.740248 17663 layer_factory.hpp:77] Creating layer res4e
I0311 23:08:53.740252 17663 net.cpp:100] Creating Layer res4e
I0311 23:08:53.740257 17663 net.cpp:444] res4e <- res4d_res4d_relu_0_split_1
I0311 23:08:53.740260 17663 net.cpp:444] res4e <- res4e_branch2c
I0311 23:08:53.740265 17663 net.cpp:418] res4e -> res4e
I0311 23:08:53.740283 17663 net.cpp:150] Setting up res4e
I0311 23:08:53.740288 17663 net.cpp:157] Top shape: 1 1024 38 63 (2451456)
I0311 23:08:53.740291 17663 net.cpp:165] Memory required for data: 2546062164
I0311 23:08:53.740293 17663 layer_factory.hpp:77] Creating layer res4e_relu
I0311 23:08:53.740298 17663 net.cpp:100] Creating Layer res4e_relu
I0311 23:08:53.740301 17663 net.cpp:444] res4e_relu <- res4e
I0311 23:08:53.740305 17663 net.cpp:405] res4e_relu -> res4e (in-place)
I0311 23:08:53.740309 17663 net.cpp:150] Setting up res4e_relu
I0311 23:08:53.740314 17663 net.cpp:157] Top shape: 1 1024 38 63 (2451456)
I0311 23:08:53.740315 17663 net.cpp:165] Memory required for data: 2555867988
I0311 23:08:53.740319 17663 layer_factory.hpp:77] Creating layer res4e_res4e_relu_0_split
I0311 23:08:53.740322 17663 net.cpp:100] Creating Layer res4e_res4e_relu_0_split
I0311 23:08:53.740325 17663 net.cpp:444] res4e_res4e_relu_0_split <- res4e
I0311 23:08:53.740329 17663 net.cpp:418] res4e_res4e_relu_0_split -> res4e_res4e_relu_0_split_0
I0311 23:08:53.740334 17663 net.cpp:418] res4e_res4e_relu_0_split -> res4e_res4e_relu_0_split_1
I0311 23:08:53.740360 17663 net.cpp:150] Setting up res4e_res4e_relu_0_split
I0311 23:08:53.740365 17663 net.cpp:157] Top shape: 1 1024 38 63 (2451456)
I0311 23:08:53.740367 17663 net.cpp:157] Top shape: 1 1024 38 63 (2451456)
I0311 23:08:53.740370 17663 net.cpp:165] Memory required for data: 2575479636
I0311 23:08:53.740372 17663 layer_factory.hpp:77] Creating layer res4f_branch2a
I0311 23:08:53.740377 17663 net.cpp:100] Creating Layer res4f_branch2a
I0311 23:08:53.740381 17663 net.cpp:444] res4f_branch2a <- res4e_res4e_relu_0_split_0
I0311 23:08:53.740386 17663 net.cpp:418] res4f_branch2a -> res4f_branch2a
I0311 23:08:53.741482 17663 net.cpp:150] Setting up res4f_branch2a
I0311 23:08:53.741506 17663 net.cpp:157] Top shape: 1 256 38 63 (612864)
I0311 23:08:53.741509 17663 net.cpp:165] Memory required for data: 2577931092
I0311 23:08:53.741518 17663 layer_factory.hpp:77] Creating layer bn4f_branch2a
I0311 23:08:53.741524 17663 net.cpp:100] Creating Layer bn4f_branch2a
I0311 23:08:53.741529 17663 net.cpp:444] bn4f_branch2a <- res4f_branch2a
I0311 23:08:53.741536 17663 net.cpp:405] bn4f_branch2a -> res4f_branch2a (in-place)
I0311 23:08:53.741698 17663 net.cpp:150] Setting up bn4f_branch2a
I0311 23:08:53.741704 17663 net.cpp:157] Top shape: 1 256 38 63 (612864)
I0311 23:08:53.741706 17663 net.cpp:165] Memory required for data: 2580382548
I0311 23:08:53.741713 17663 layer_factory.hpp:77] Creating layer scale4f_branch2a
I0311 23:08:53.741719 17663 net.cpp:100] Creating Layer scale4f_branch2a
I0311 23:08:53.741722 17663 net.cpp:444] scale4f_branch2a <- res4f_branch2a
I0311 23:08:53.741725 17663 net.cpp:405] scale4f_branch2a -> res4f_branch2a (in-place)
I0311 23:08:53.741755 17663 layer_factory.hpp:77] Creating layer scale4f_branch2a
I0311 23:08:53.741842 17663 net.cpp:150] Setting up scale4f_branch2a
I0311 23:08:53.741847 17663 net.cpp:157] Top shape: 1 256 38 63 (612864)
I0311 23:08:53.741849 17663 net.cpp:165] Memory required for data: 2582834004
I0311 23:08:53.741853 17663 layer_factory.hpp:77] Creating layer res4f_branch2a_relu
I0311 23:08:53.741858 17663 net.cpp:100] Creating Layer res4f_branch2a_relu
I0311 23:08:53.741861 17663 net.cpp:444] res4f_branch2a_relu <- res4f_branch2a
I0311 23:08:53.741866 17663 net.cpp:405] res4f_branch2a_relu -> res4f_branch2a (in-place)
I0311 23:08:53.741870 17663 net.cpp:150] Setting up res4f_branch2a_relu
I0311 23:08:53.741874 17663 net.cpp:157] Top shape: 1 256 38 63 (612864)
I0311 23:08:53.741876 17663 net.cpp:165] Memory required for data: 2585285460
I0311 23:08:53.741878 17663 layer_factory.hpp:77] Creating layer res4f_branch2b
I0311 23:08:53.741885 17663 net.cpp:100] Creating Layer res4f_branch2b
I0311 23:08:53.741889 17663 net.cpp:444] res4f_branch2b <- res4f_branch2a
I0311 23:08:53.741905 17663 net.cpp:418] res4f_branch2b -> res4f_branch2b
I0311 23:08:53.743185 17663 net.cpp:150] Setting up res4f_branch2b
I0311 23:08:53.743209 17663 net.cpp:157] Top shape: 1 256 38 63 (612864)
I0311 23:08:53.743212 17663 net.cpp:165] Memory required for data: 2587736916
I0311 23:08:53.743233 17663 layer_factory.hpp:77] Creating layer bn4f_branch2b
I0311 23:08:53.743259 17663 net.cpp:100] Creating Layer bn4f_branch2b
I0311 23:08:53.743264 17663 net.cpp:444] bn4f_branch2b <- res4f_branch2b
I0311 23:08:53.743271 17663 net.cpp:405] bn4f_branch2b -> res4f_branch2b (in-place)
I0311 23:08:53.743449 17663 net.cpp:150] Setting up bn4f_branch2b
I0311 23:08:53.743454 17663 net.cpp:157] Top shape: 1 256 38 63 (612864)
I0311 23:08:53.743458 17663 net.cpp:165] Memory required for data: 2590188372
I0311 23:08:53.743463 17663 layer_factory.hpp:77] Creating layer scale4f_branch2b
I0311 23:08:53.743482 17663 net.cpp:100] Creating Layer scale4f_branch2b
I0311 23:08:53.743484 17663 net.cpp:444] scale4f_branch2b <- res4f_branch2b
I0311 23:08:53.743489 17663 net.cpp:405] scale4f_branch2b -> res4f_branch2b (in-place)
I0311 23:08:53.743533 17663 layer_factory.hpp:77] Creating layer scale4f_branch2b
I0311 23:08:53.743638 17663 net.cpp:150] Setting up scale4f_branch2b
I0311 23:08:53.743644 17663 net.cpp:157] Top shape: 1 256 38 63 (612864)
I0311 23:08:53.743646 17663 net.cpp:165] Memory required for data: 2592639828
I0311 23:08:53.743650 17663 layer_factory.hpp:77] Creating layer res4f_branch2b_relu
I0311 23:08:53.743655 17663 net.cpp:100] Creating Layer res4f_branch2b_relu
I0311 23:08:53.743672 17663 net.cpp:444] res4f_branch2b_relu <- res4f_branch2b
I0311 23:08:53.743676 17663 net.cpp:405] res4f_branch2b_relu -> res4f_branch2b (in-place)
I0311 23:08:53.743680 17663 net.cpp:150] Setting up res4f_branch2b_relu
I0311 23:08:53.743683 17663 net.cpp:157] Top shape: 1 256 38 63 (612864)
I0311 23:08:53.743686 17663 net.cpp:165] Memory required for data: 2595091284
I0311 23:08:53.743688 17663 layer_factory.hpp:77] Creating layer res4f_branch2c
I0311 23:08:53.743695 17663 net.cpp:100] Creating Layer res4f_branch2c
I0311 23:08:53.743713 17663 net.cpp:444] res4f_branch2c <- res4f_branch2b
I0311 23:08:53.743718 17663 net.cpp:418] res4f_branch2c -> res4f_branch2c
I0311 23:08:53.744033 17663 net.cpp:150] Setting up res4f_branch2c
I0311 23:08:53.744040 17663 net.cpp:157] Top shape: 1 1024 38 63 (2451456)
I0311 23:08:53.744042 17663 net.cpp:165] Memory required for data: 2604897108
I0311 23:08:53.744046 17663 layer_factory.hpp:77] Creating layer bn4f_branch2c
I0311 23:08:53.744066 17663 net.cpp:100] Creating Layer bn4f_branch2c
I0311 23:08:53.744069 17663 net.cpp:444] bn4f_branch2c <- res4f_branch2c
I0311 23:08:53.744073 17663 net.cpp:405] bn4f_branch2c -> res4f_branch2c (in-place)
I0311 23:08:53.744242 17663 net.cpp:150] Setting up bn4f_branch2c
I0311 23:08:53.744248 17663 net.cpp:157] Top shape: 1 1024 38 63 (2451456)
I0311 23:08:53.744251 17663 net.cpp:165] Memory required for data: 2614702932
I0311 23:08:53.744282 17663 layer_factory.hpp:77] Creating layer scale4f_branch2c
I0311 23:08:53.744287 17663 net.cpp:100] Creating Layer scale4f_branch2c
I0311 23:08:53.744289 17663 net.cpp:444] scale4f_branch2c <- res4f_branch2c
I0311 23:08:53.744293 17663 net.cpp:405] scale4f_branch2c -> res4f_branch2c (in-place)
I0311 23:08:53.744335 17663 layer_factory.hpp:77] Creating layer scale4f_branch2c
I0311 23:08:53.744436 17663 net.cpp:150] Setting up scale4f_branch2c
I0311 23:08:53.744441 17663 net.cpp:157] Top shape: 1 1024 38 63 (2451456)
I0311 23:08:53.744443 17663 net.cpp:165] Memory required for data: 2624508756
I0311 23:08:53.744447 17663 layer_factory.hpp:77] Creating layer res4f
I0311 23:08:53.744452 17663 net.cpp:100] Creating Layer res4f
I0311 23:08:53.744468 17663 net.cpp:444] res4f <- res4e_res4e_relu_0_split_1
I0311 23:08:53.744472 17663 net.cpp:444] res4f <- res4f_branch2c
I0311 23:08:53.744475 17663 net.cpp:418] res4f -> res4f
I0311 23:08:53.744493 17663 net.cpp:150] Setting up res4f
I0311 23:08:53.744498 17663 net.cpp:157] Top shape: 1 1024 38 63 (2451456)
I0311 23:08:53.744501 17663 net.cpp:165] Memory required for data: 2634314580
I0311 23:08:53.744503 17663 layer_factory.hpp:77] Creating layer res4f_relu
I0311 23:08:53.744508 17663 net.cpp:100] Creating Layer res4f_relu
I0311 23:08:53.744524 17663 net.cpp:444] res4f_relu <- res4f
I0311 23:08:53.744529 17663 net.cpp:405] res4f_relu -> res4f (in-place)
I0311 23:08:53.744535 17663 net.cpp:150] Setting up res4f_relu
I0311 23:08:53.744539 17663 net.cpp:157] Top shape: 1 1024 38 63 (2451456)
I0311 23:08:53.744540 17663 net.cpp:165] Memory required for data: 2644120404
I0311 23:08:53.744544 17663 layer_factory.hpp:77] Creating layer res4f_res4f_relu_0_split
I0311 23:08:53.744547 17663 net.cpp:100] Creating Layer res4f_res4f_relu_0_split
I0311 23:08:53.744549 17663 net.cpp:444] res4f_res4f_relu_0_split <- res4f
I0311 23:08:53.744555 17663 net.cpp:418] res4f_res4f_relu_0_split -> res4f_res4f_relu_0_split_0
I0311 23:08:53.744560 17663 net.cpp:418] res4f_res4f_relu_0_split -> res4f_res4f_relu_0_split_1
I0311 23:08:53.744566 17663 net.cpp:418] res4f_res4f_relu_0_split -> res4f_res4f_relu_0_split_2
I0311 23:08:53.744602 17663 net.cpp:150] Setting up res4f_res4f_relu_0_split
I0311 23:08:53.744606 17663 net.cpp:157] Top shape: 1 1024 38 63 (2451456)
I0311 23:08:53.744609 17663 net.cpp:157] Top shape: 1 1024 38 63 (2451456)
I0311 23:08:53.744612 17663 net.cpp:157] Top shape: 1 1024 38 63 (2451456)
I0311 23:08:53.744616 17663 net.cpp:165] Memory required for data: 2673537876
I0311 23:08:53.744617 17663 layer_factory.hpp:77] Creating layer res5a_branch1
I0311 23:08:53.744623 17663 net.cpp:100] Creating Layer res5a_branch1
I0311 23:08:53.744626 17663 net.cpp:444] res5a_branch1 <- res4f_res4f_relu_0_split_0
I0311 23:08:53.744630 17663 net.cpp:418] res5a_branch1 -> res5a_branch1
I0311 23:08:53.749286 17663 net.cpp:150] Setting up res5a_branch1
I0311 23:08:53.749310 17663 net.cpp:157] Top shape: 1 2048 38 63 (4902912)
I0311 23:08:53.749313 17663 net.cpp:165] Memory required for data: 2693149524
I0311 23:08:53.749334 17663 layer_factory.hpp:77] Creating layer bn5a_branch1
I0311 23:08:53.749346 17663 net.cpp:100] Creating Layer bn5a_branch1
I0311 23:08:53.749351 17663 net.cpp:444] bn5a_branch1 <- res5a_branch1
I0311 23:08:53.749357 17663 net.cpp:405] bn5a_branch1 -> res5a_branch1 (in-place)
I0311 23:08:53.749549 17663 net.cpp:150] Setting up bn5a_branch1
I0311 23:08:53.749555 17663 net.cpp:157] Top shape: 1 2048 38 63 (4902912)
I0311 23:08:53.749557 17663 net.cpp:165] Memory required for data: 2712761172
I0311 23:08:53.749564 17663 layer_factory.hpp:77] Creating layer scale5a_branch1
I0311 23:08:53.749572 17663 net.cpp:100] Creating Layer scale5a_branch1
I0311 23:08:53.749577 17663 net.cpp:444] scale5a_branch1 <- res5a_branch1
I0311 23:08:53.749581 17663 net.cpp:405] scale5a_branch1 -> res5a_branch1 (in-place)
I0311 23:08:53.749632 17663 layer_factory.hpp:77] Creating layer scale5a_branch1
I0311 23:08:53.749732 17663 net.cpp:150] Setting up scale5a_branch1
I0311 23:08:53.749738 17663 net.cpp:157] Top shape: 1 2048 38 63 (4902912)
I0311 23:08:53.749742 17663 net.cpp:165] Memory required for data: 2732372820
I0311 23:08:53.749745 17663 layer_factory.hpp:77] Creating layer res5a_branch2a
I0311 23:08:53.749755 17663 net.cpp:100] Creating Layer res5a_branch2a
I0311 23:08:53.749758 17663 net.cpp:444] res5a_branch2a <- res4f_res4f_relu_0_split_1
I0311 23:08:53.749763 17663 net.cpp:418] res5a_branch2a -> res5a_branch2a
I0311 23:08:53.751158 17663 net.cpp:150] Setting up res5a_branch2a
I0311 23:08:53.751193 17663 net.cpp:157] Top shape: 1 512 38 63 (1225728)
I0311 23:08:53.751195 17663 net.cpp:165] Memory required for data: 2737275732
I0311 23:08:53.751236 17663 layer_factory.hpp:77] Creating layer bn5a_branch2a
I0311 23:08:53.751251 17663 net.cpp:100] Creating Layer bn5a_branch2a
I0311 23:08:53.751256 17663 net.cpp:444] bn5a_branch2a <- res5a_branch2a
I0311 23:08:53.751266 17663 net.cpp:405] bn5a_branch2a -> res5a_branch2a (in-place)
I0311 23:08:53.751471 17663 net.cpp:150] Setting up bn5a_branch2a
I0311 23:08:53.751477 17663 net.cpp:157] Top shape: 1 512 38 63 (1225728)
I0311 23:08:53.751480 17663 net.cpp:165] Memory required for data: 2742178644
I0311 23:08:53.751485 17663 layer_factory.hpp:77] Creating layer scale5a_branch2a
I0311 23:08:53.751494 17663 net.cpp:100] Creating Layer scale5a_branch2a
I0311 23:08:53.751498 17663 net.cpp:444] scale5a_branch2a <- res5a_branch2a
I0311 23:08:53.751502 17663 net.cpp:405] scale5a_branch2a -> res5a_branch2a (in-place)
I0311 23:08:53.751549 17663 layer_factory.hpp:77] Creating layer scale5a_branch2a
I0311 23:08:53.751652 17663 net.cpp:150] Setting up scale5a_branch2a
I0311 23:08:53.751657 17663 net.cpp:157] Top shape: 1 512 38 63 (1225728)
I0311 23:08:53.751659 17663 net.cpp:165] Memory required for data: 2747081556
I0311 23:08:53.751664 17663 layer_factory.hpp:77] Creating layer res5a_branch2a_relu
I0311 23:08:53.751670 17663 net.cpp:100] Creating Layer res5a_branch2a_relu
I0311 23:08:53.751673 17663 net.cpp:444] res5a_branch2a_relu <- res5a_branch2a
I0311 23:08:53.751678 17663 net.cpp:405] res5a_branch2a_relu -> res5a_branch2a (in-place)
I0311 23:08:53.751684 17663 net.cpp:150] Setting up res5a_branch2a_relu
I0311 23:08:53.751688 17663 net.cpp:157] Top shape: 1 512 38 63 (1225728)
I0311 23:08:53.751690 17663 net.cpp:165] Memory required for data: 2751984468
I0311 23:08:53.751693 17663 layer_factory.hpp:77] Creating layer res5a_branch2b
I0311 23:08:53.751703 17663 net.cpp:100] Creating Layer res5a_branch2b
I0311 23:08:53.751705 17663 net.cpp:444] res5a_branch2b <- res5a_branch2a
I0311 23:08:53.751709 17663 net.cpp:418] res5a_branch2b -> res5a_branch2b
I0311 23:08:53.756763 17663 net.cpp:150] Setting up res5a_branch2b
I0311 23:08:53.756809 17663 net.cpp:157] Top shape: 1 512 38 63 (1225728)
I0311 23:08:53.756813 17663 net.cpp:165] Memory required for data: 2756887380
I0311 23:08:53.756836 17663 layer_factory.hpp:77] Creating layer bn5a_branch2b
I0311 23:08:53.756866 17663 net.cpp:100] Creating Layer bn5a_branch2b
I0311 23:08:53.756875 17663 net.cpp:444] bn5a_branch2b <- res5a_branch2b
I0311 23:08:53.756896 17663 net.cpp:405] bn5a_branch2b -> res5a_branch2b (in-place)
I0311 23:08:53.757102 17663 net.cpp:150] Setting up bn5a_branch2b
I0311 23:08:53.757107 17663 net.cpp:157] Top shape: 1 512 38 63 (1225728)
I0311 23:08:53.757110 17663 net.cpp:165] Memory required for data: 2761790292
I0311 23:08:53.757115 17663 layer_factory.hpp:77] Creating layer scale5a_branch2b
I0311 23:08:53.757138 17663 net.cpp:100] Creating Layer scale5a_branch2b
I0311 23:08:53.757140 17663 net.cpp:444] scale5a_branch2b <- res5a_branch2b
I0311 23:08:53.757156 17663 net.cpp:405] scale5a_branch2b -> res5a_branch2b (in-place)
I0311 23:08:53.757185 17663 layer_factory.hpp:77] Creating layer scale5a_branch2b
I0311 23:08:53.757287 17663 net.cpp:150] Setting up scale5a_branch2b
I0311 23:08:53.757292 17663 net.cpp:157] Top shape: 1 512 38 63 (1225728)
I0311 23:08:53.757294 17663 net.cpp:165] Memory required for data: 2766693204
I0311 23:08:53.757298 17663 layer_factory.hpp:77] Creating layer res5a_branch2b_relu
I0311 23:08:53.757302 17663 net.cpp:100] Creating Layer res5a_branch2b_relu
I0311 23:08:53.757305 17663 net.cpp:444] res5a_branch2b_relu <- res5a_branch2b
I0311 23:08:53.757324 17663 net.cpp:405] res5a_branch2b_relu -> res5a_branch2b (in-place)
I0311 23:08:53.757329 17663 net.cpp:150] Setting up res5a_branch2b_relu
…
I0312 16:39:07.481683 24897 layer_factory.hpp:77] Creating layer scale4e_branch2b
I0312 16:39:07.481690 24897 net.cpp:100] Creating Layer scale4e_branch2b
I0312 16:39:07.481705 24897 net.cpp:444] scale4e_branch2b <- res4e_branch2b
I0312 16:39:07.481709 24897 net.cpp:405] scale4e_branch2b -> res4e_branch2b (in-place)
I0312 16:39:07.481735 24897 layer_factory.hpp:77] Creating layer scale4e_branch2b
I0312 16:39:07.481829 24897 net.cpp:150] Setting up scale4e_branch2b
I0312 16:39:07.481834 24897 net.cpp:157] Top shape: 1 256 14 14 (50176)
I0312 16:39:07.481837 24897 net.cpp:165] Memory required for data: 207527948
I0312 16:39:07.481840 24897 layer_factory.hpp:77] Creating layer res4e_branch2b_relu
I0312 16:39:07.481847 24897 net.cpp:100] Creating Layer res4e_branch2b_relu
I0312 16:39:07.481849 24897 net.cpp:444] res4e_branch2b_relu <- res4e_branch2b
I0312 16:39:07.481853 24897 net.cpp:405] res4e_branch2b_relu -> res4e_branch2b (in-place)
I0312 16:39:07.481856 24897 net.cpp:150] Setting up res4e_branch2b_relu
I0312 16:39:07.481873 24897 net.cpp:157] Top shape: 1 256 14 14 (50176)
I0312 16:39:07.481875 24897 net.cpp:165] Memory required for data: 207728652
I0312 16:39:07.481878 24897 layer_factory.hpp:77] Creating layer res4e_branch2c
I0312 16:39:07.481884 24897 net.cpp:100] Creating Layer res4e_branch2c
I0312 16:39:07.481886 24897 net.cpp:444] res4e_branch2c <- res4e_branch2b
I0312 16:39:07.481902 24897 net.cpp:418] res4e_branch2c -> res4e_branch2c
I0312 16:39:07.482884 24897 net.cpp:150] Setting up res4e_branch2c
I0312 16:39:07.482897 24897 net.cpp:157] Top shape: 1 1024 14 14 (200704)
I0312 16:39:07.482899 24897 net.cpp:165] Memory required for data: 208531468
I0312 16:39:07.482903 24897 layer_factory.hpp:77] Creating layer bn4e_branch2c
I0312 16:39:07.482909 24897 net.cpp:100] Creating Layer bn4e_branch2c
I0312 16:39:07.482926 24897 net.cpp:444] bn4e_branch2c <- res4e_branch2c
I0312 16:39:07.482933 24897 net.cpp:405] bn4e_branch2c -> res4e_branch2c (in-place)
I0312 16:39:07.483104 24897 net.cpp:150] Setting up bn4e_branch2c
I0312 16:39:07.483109 24897 net.cpp:157] Top shape: 1 1024 14 14 (200704)
I0312 16:39:07.483111 24897 net.cpp:165] Memory required for data: 209334284
I0312 16:39:07.483116 24897 layer_factory.hpp:77] Creating layer scale4e_branch2c
I0312 16:39:07.483121 24897 net.cpp:100] Creating Layer scale4e_branch2c
I0312 16:39:07.483139 24897 net.cpp:444] scale4e_branch2c <- res4e_branch2c
I0312 16:39:07.483142 24897 net.cpp:405] scale4e_branch2c -> res4e_branch2c (in-place)
I0312 16:39:07.483181 24897 layer_factory.hpp:77] Creating layer scale4e_branch2c
I0312 16:39:07.483260 24897 net.cpp:150] Setting up scale4e_branch2c
I0312 16:39:07.483265 24897 net.cpp:157] Top shape: 1 1024 14 14 (200704)
I0312 16:39:07.483268 24897 net.cpp:165] Memory required for data: 210137100
I0312 16:39:07.483284 24897 layer_factory.hpp:77] Creating layer res4e
I0312 16:39:07.483289 24897 net.cpp:100] Creating Layer res4e
I0312 16:39:07.483307 24897 net.cpp:444] res4e <- res4d_res4d_relu_0_split_1
I0312 16:39:07.483311 24897 net.cpp:444] res4e <- res4e_branch2c
I0312 16:39:07.483315 24897 net.cpp:418] res4e -> res4e
I0312 16:39:07.483343 24897 net.cpp:150] Setting up res4e
I0312 16:39:07.483347 24897 net.cpp:157] Top shape: 1 1024 14 14 (200704)
I0312 16:39:07.483350 24897 net.cpp:165] Memory required for data: 210939916
I0312 16:39:07.483352 24897 layer_factory.hpp:77] Creating layer res4e_relu
I0312 16:39:07.483357 24897 net.cpp:100] Creating Layer res4e_relu
I0312 16:39:07.483361 24897 net.cpp:444] res4e_relu <- res4e
I0312 16:39:07.483363 24897 net.cpp:405] res4e_relu -> res4e (in-place)
I0312 16:39:07.483367 24897 net.cpp:150] Setting up res4e_relu
I0312 16:39:07.483371 24897 net.cpp:157] Top shape: 1 1024 14 14 (200704)
I0312 16:39:07.483373 24897 net.cpp:165] Memory required for data: 211742732
I0312 16:39:07.483376 24897 layer_factory.hpp:77] Creating layer res4e_res4e_relu_0_split
I0312 16:39:07.483379 24897 net.cpp:100] Creating Layer res4e_res4e_relu_0_split
I0312 16:39:07.483381 24897 net.cpp:444] res4e_res4e_relu_0_split <- res4e
I0312 16:39:07.483384 24897 net.cpp:418] res4e_res4e_relu_0_split -> res4e_res4e_relu_0_split_0
I0312 16:39:07.483391 24897 net.cpp:418] res4e_res4e_relu_0_split -> res4e_res4e_relu_0_split_1
I0312 16:39:07.483414 24897 net.cpp:150] Setting up res4e_res4e_relu_0_split
I0312 16:39:07.483418 24897 net.cpp:157] Top shape: 1 1024 14 14 (200704)
I0312 16:39:07.483422 24897 net.cpp:157] Top shape: 1 1024 14 14 (200704)
I0312 16:39:07.483423 24897 net.cpp:165] Memory required for data: 213348364
I0312 16:39:07.483427 24897 layer_factory.hpp:77] Creating layer res4f_branch2a
I0312 16:39:07.483433 24897 net.cpp:100] Creating Layer res4f_branch2a
I0312 16:39:07.483435 24897 net.cpp:444] res4f_branch2a <- res4e_res4e_relu_0_split_0
I0312 16:39:07.483439 24897 net.cpp:418] res4f_branch2a -> res4f_branch2a
I0312 16:39:07.483702 24897 net.cpp:150] Setting up res4f_branch2a
I0312 16:39:07.483707 24897 net.cpp:157] Top shape: 1 256 14 14 (50176)
I0312 16:39:07.483709 24897 net.cpp:165] Memory required for data: 213549068
I0312 16:39:07.483713 24897 layer_factory.hpp:77] Creating layer bn4f_branch2a
I0312 16:39:07.483717 24897 net.cpp:100] Creating Layer bn4f_branch2a
I0312 16:39:07.483734 24897 net.cpp:444] bn4f_branch2a <- res4f_branch2a
I0312 16:39:07.483739 24897 net.cpp:405] bn4f_branch2a -> res4f_branch2a (in-place)
I0312 16:39:07.483897 24897 net.cpp:150] Setting up bn4f_branch2a
I0312 16:39:07.483902 24897 net.cpp:157] Top shape: 1 256 14 14 (50176)
I0312 16:39:07.483904 24897 net.cpp:165] Memory required for data: 213749772
I0312 16:39:07.483909 24897 layer_factory.hpp:77] Creating layer scale4f_branch2a
I0312 16:39:07.483913 24897 net.cpp:100] Creating Layer scale4f_branch2a
I0312 16:39:07.483930 24897 net.cpp:444] scale4f_branch2a <- res4f_branch2a
I0312 16:39:07.483934 24897 net.cpp:405] scale4f_branch2a -> res4f_branch2a (in-place)
I0312 16:39:07.483959 24897 layer_factory.hpp:77] Creating layer scale4f_branch2a
I0312 16:39:07.484064 24897 net.cpp:150] Setting up scale4f_branch2a
I0312 16:39:07.484069 24897 net.cpp:157] Top shape: 1 256 14 14 (50176)
I0312 16:39:07.484072 24897 net.cpp:165] Memory required for data: 213950476
I0312 16:39:07.484076 24897 layer_factory.hpp:77] Creating layer res4f_branch2a_relu
I0312 16:39:07.484079 24897 net.cpp:100] Creating Layer res4f_branch2a_relu
I0312 16:39:07.484082 24897 net.cpp:444] res4f_branch2a_relu <- res4f_branch2a
I0312 16:39:07.484102 24897 net.cpp:405] res4f_branch2a_relu -> res4f_branch2a (in-place)
I0312 16:39:07.484107 24897 net.cpp:150] Setting up res4f_branch2a_relu
I0312 16:39:07.484109 24897 net.cpp:157] Top shape: 1 256 14 14 (50176)
I0312 16:39:07.484112 24897 net.cpp:165] Memory required for data: 214151180
I0312 16:39:07.484113 24897 layer_factory.hpp:77] Creating layer res4f_branch2b
I0312 16:39:07.484118 24897 net.cpp:100] Creating Layer res4f_branch2b
I0312 16:39:07.484120 24897 net.cpp:444] res4f_branch2b <- res4f_branch2a
I0312 16:39:07.484125 24897 net.cpp:418] res4f_branch2b -> res4f_branch2b
I0312 16:39:07.485347 24897 net.cpp:150] Setting up res4f_branch2b
I0312 16:39:07.485363 24897 net.cpp:157] Top shape: 1 256 14 14 (50176)
I0312 16:39:07.485365 24897 net.cpp:165] Memory required for data: 214351884
I0312 16:39:07.485388 24897 layer_factory.hpp:77] Creating layer bn4f_branch2b
I0312 16:39:07.485399 24897 net.cpp:100] Creating Layer bn4f_branch2b
I0312 16:39:07.485405 24897 net.cpp:444] bn4f_branch2b <- res4f_branch2b
I0312 16:39:07.485426 24897 net.cpp:405] bn4f_branch2b -> res4f_branch2b (in-place)
I0312 16:39:07.485591 24897 net.cpp:150] Setting up bn4f_branch2b
I0312 16:39:07.485599 24897 net.cpp:157] Top shape: 1 256 14 14 (50176)
I0312 16:39:07.485600 24897 net.cpp:165] Memory required for data: 214552588
I0312 16:39:07.485606 24897 layer_factory.hpp:77] Creating layer scale4f_branch2b
I0312 16:39:07.485613 24897 net.cpp:100] Creating Layer scale4f_branch2b
I0312 16:39:07.485615 24897 net.cpp:444] scale4f_branch2b <- res4f_branch2b
I0312 16:39:07.485620 24897 net.cpp:405] scale4f_branch2b -> res4f_branch2b (in-place)
I0312 16:39:07.485651 24897 layer_factory.hpp:77] Creating layer scale4f_branch2b
I0312 16:39:07.485793 24897 net.cpp:150] Setting up scale4f_branch2b
I0312 16:39:07.485798 24897 net.cpp:157] Top shape: 1 256 14 14 (50176)
I0312 16:39:07.485800 24897 net.cpp:165] Memory required for data: 214753292
I0312 16:39:07.485805 24897 layer_factory.hpp:77] Creating layer res4f_branch2b_relu
I0312 16:39:07.485810 24897 net.cpp:100] Creating Layer res4f_branch2b_relu
I0312 16:39:07.485813 24897 net.cpp:444] res4f_branch2b_relu <- res4f_branch2b
I0312 16:39:07.485832 24897 net.cpp:405] res4f_branch2b_relu -> res4f_branch2b (in-place)
I0312 16:39:07.485837 24897 net.cpp:150] Setting up res4f_branch2b_relu
I0312 16:39:07.485841 24897 net.cpp:157] Top shape: 1 256 14 14 (50176)
I0312 16:39:07.485843 24897 net.cpp:165] Memory required for data: 214953996
I0312 16:39:07.485846 24897 layer_factory.hpp:77] Creating layer res4f_branch2c
I0312 16:39:07.485854 24897 net.cpp:100] Creating Layer res4f_branch2c
I0312 16:39:07.485858 24897 net.cpp:444] res4f_branch2c <- res4f_branch2b
I0312 16:39:07.485862 24897 net.cpp:418] res4f_branch2c -> res4f_branch2c
I0312 16:39:07.487181 24897 net.cpp:150] Setting up res4f_branch2c
I0312 16:39:07.487195 24897 net.cpp:157] Top shape: 1 1024 14 14 (200704)
I0312 16:39:07.487198 24897 net.cpp:165] Memory required for data: 215756812
I0312 16:39:07.487224 24897 layer_factory.hpp:77] Creating layer bn4f_branch2c
I0312 16:39:07.487246 24897 net.cpp:100] Creating Layer bn4f_branch2c
I0312 16:39:07.487249 24897 net.cpp:444] bn4f_branch2c <- res4f_branch2c
I0312 16:39:07.487254 24897 net.cpp:405] bn4f_branch2c -> res4f_branch2c (in-place)
I0312 16:39:07.487426 24897 net.cpp:150] Setting up bn4f_branch2c
I0312 16:39:07.487431 24897 net.cpp:157] Top shape: 1 1024 14 14 (200704)
I0312 16:39:07.487432 24897 net.cpp:165] Memory required for data: 216559628
I0312 16:39:07.487449 24897 layer_factory.hpp:77] Creating layer scale4f_branch2c
I0312 16:39:07.487455 24897 net.cpp:100] Creating Layer scale4f_branch2c
I0312 16:39:07.487458 24897 net.cpp:444] scale4f_branch2c <- res4f_branch2c
I0312 16:39:07.487462 24897 net.cpp:405] scale4f_branch2c -> res4f_branch2c (in-place)
I0312 16:39:07.487510 24897 layer_factory.hpp:77] Creating layer scale4f_branch2c
I0312 16:39:07.487591 24897 net.cpp:150] Setting up scale4f_branch2c
I0312 16:39:07.487597 24897 net.cpp:157] Top shape: 1 1024 14 14 (200704)
I0312 16:39:07.487599 24897 net.cpp:165] Memory required for data: 217362444
I0312 16:39:07.487604 24897 layer_factory.hpp:77] Creating layer res4f
I0312 16:39:07.487608 24897 net.cpp:100] Creating Layer res4f
I0312 16:39:07.487612 24897 net.cpp:444] res4f <- res4e_res4e_relu_0_split_1
I0312 16:39:07.487614 24897 net.cpp:444] res4f <- res4f_branch2c
I0312 16:39:07.487618 24897 net.cpp:418] res4f -> res4f
I0312 16:39:07.487649 24897 net.cpp:150] Setting up res4f
I0312 16:39:07.487653 24897 net.cpp:157] Top shape: 1 1024 14 14 (200704)
I0312 16:39:07.487655 24897 net.cpp:165] Memory required for data: 218165260
I0312 16:39:07.487658 24897 layer_factory.hpp:77] Creating layer res4f_relu
I0312 16:39:07.487664 24897 net.cpp:100] Creating Layer res4f_relu
I0312 16:39:07.487668 24897 net.cpp:444] res4f_relu <- res4f
I0312 16:39:07.487670 24897 net.cpp:405] res4f_relu -> res4f (in-place)
I0312 16:39:07.487674 24897 net.cpp:150] Setting up res4f_relu
I0312 16:39:07.487677 24897 net.cpp:157] Top shape: 1 1024 14 14 (200704)
I0312 16:39:07.487679 24897 net.cpp:165] Memory required for data: 218968076
I0312 16:39:07.487681 24897 layer_factory.hpp:77] Creating layer res4f_res4f_relu_0_split
I0312 16:39:07.487686 24897 net.cpp:100] Creating Layer res4f_res4f_relu_0_split
I0312 16:39:07.487689 24897 net.cpp:444] res4f_res4f_relu_0_split <- res4f
I0312 16:39:07.487694 24897 net.cpp:418] res4f_res4f_relu_0_split -> res4f_res4f_relu_0_split_0
I0312 16:39:07.487697 24897 net.cpp:418] res4f_res4f_relu_0_split -> res4f_res4f_relu_0_split_1
I0312 16:39:07.487704 24897 net.cpp:418] res4f_res4f_relu_0_split -> res4f_res4f_relu_0_split_2
I0312 16:39:07.487736 24897 net.cpp:150] Setting up res4f_res4f_relu_0_split
I0312 16:39:07.487740 24897 net.cpp:157] Top shape: 1 1024 14 14 (200704)
I0312 16:39:07.487743 24897 net.cpp:157] Top shape: 1 1024 14 14 (200704)
I0312 16:39:07.487746 24897 net.cpp:157] Top shape: 1 1024 14 14 (200704)
I0312 16:39:07.487748 24897 net.cpp:165] Memory required for data: 221376524
I0312 16:39:07.487751 24897 layer_factory.hpp:77] Creating layer res5a_branch1
I0312 16:39:07.487756 24897 net.cpp:100] Creating Layer res5a_branch1
I0312 16:39:07.487759 24897 net.cpp:444] res5a_branch1 <- res4f_res4f_relu_0_split_0
I0312 16:39:07.487764 24897 net.cpp:418] res5a_branch1 -> res5a_branch1
I0312 16:39:07.493077 24897 net.cpp:150] Setting up res5a_branch1
I0312 16:39:07.493130 24897 net.cpp:157] Top shape: 1 2048 14 14 (401408)
I0312 16:39:07.493134 24897 net.cpp:165] Memory required for data: 222982156
I0312 16:39:07.493155 24897 layer_factory.hpp:77] Creating layer bn5a_branch1
I0312 16:39:07.493170 24897 net.cpp:100] Creating Layer bn5a_branch1
I0312 16:39:07.493175 24897 net.cpp:444] bn5a_branch1 <- res5a_branch1
I0312 16:39:07.493180 24897 net.cpp:405] bn5a_branch1 -> res5a_branch1 (in-place)
I0312 16:39:07.493387 24897 net.cpp:150] Setting up bn5a_branch1
I0312 16:39:07.493393 24897 net.cpp:157] Top shape: 1 2048 14 14 (401408)
I0312 16:39:07.493396 24897 net.cpp:165] Memory required for data: 224587788
I0312 16:39:07.493413 24897 layer_factory.hpp:77] Creating layer scale5a_branch1
I0312 16:39:07.493420 24897 net.cpp:100] Creating Layer scale5a_branch1
I0312 16:39:07.493423 24897 net.cpp:444] scale5a_branch1 <- res5a_branch1
I0312 16:39:07.493427 24897 net.cpp:405] scale5a_branch1 -> res5a_branch1 (in-place)
I0312 16:39:07.493459 24897 layer_factory.hpp:77] Creating layer scale5a_branch1
I0312 16:39:07.493546 24897 net.cpp:150] Setting up scale5a_branch1
I0312 16:39:07.493551 24897 net.cpp:157] Top shape: 1 2048 14 14 (401408)
I0312 16:39:07.493553 24897 net.cpp:165] Memory required for data: 226193420
I0312 16:39:07.493557 24897 layer_factory.hpp:77] Creating layer res5a_branch2a
I0312 16:39:07.493572 24897 net.cpp:100] Creating Layer res5a_branch2a
I0312 16:39:07.493576 24897 net.cpp:444] res5a_branch2a <- res4f_res4f_relu_0_split_1
I0312 16:39:07.493580 24897 net.cpp:418] res5a_branch2a -> res5a_branch2a
I0312 16:39:07.494973 24897 net.cpp:150] Setting up res5a_branch2a
I0312 16:39:07.495021 24897 net.cpp:157] Top shape: 1 512 14 14 (100352)
I0312 16:39:07.495025 24897 net.cpp:165] Memory required for data: 226594828
I0312 16:39:07.495038 24897 layer_factory.hpp:77] Creating layer bn5a_branch2a
I0312 16:39:07.495055 24897 net.cpp:100] Creating Layer bn5a_branch2a
I0312 16:39:07.495074 24897 net.cpp:444] bn5a_branch2a <- res5a_branch2a
I0312 16:39:07.495080 24897 net.cpp:405] bn5a_branch2a -> res5a_branch2a (in-place)
I0312 16:39:07.495271 24897 net.cpp:150] Setting up bn5a_branch2a
I0312 16:39:07.495290 24897 net.cpp:157] Top shape: 1 512 14 14 (100352)
I0312 16:39:07.495292 24897 net.cpp:165] Memory required for data: 226996236
I0312 16:39:07.495297 24897 layer_factory.hpp:77] Creating layer scale5a_branch2a
I0312 16:39:07.495321 24897 net.cpp:100] Creating Layer scale5a_branch2a
I0312 16:39:07.495337 24897 net.cpp:444] scale5a_branch2a <- res5a_branch2a
I0312 16:39:07.495342 24897 net.cpp:405] scale5a_branch2a -> res5a_branch2a (in-place)
I0312 16:39:07.495370 24897 layer_factory.hpp:77] Creating layer scale5a_branch2a
I0312 16:39:07.495458 24897 net.cpp:150] Setting up scale5a_branch2a
I0312 16:39:07.495466 24897 net.cpp:157] Top shape: 1 512 14 14 (100352)
I0312 16:39:07.495468 24897 net.cpp:165] Memory required for data: 227397644
I0312 16:39:07.495472 24897 layer_factory.hpp:77] Creating layer res5a_branch2a_relu
I0312 16:39:07.495478 24897 net.cpp:100] Creating Layer res5a_branch2a_relu
I0312 16:39:07.495482 24897 net.cpp:444] res5a_branch2a_relu <- res5a_branch2a
I0312 16:39:07.495498 24897 net.cpp:405] res5a_branch2a_relu -> res5a_branch2a (in-place)
I0312 16:39:07.495503 24897 net.cpp:150] Setting up res5a_branch2a_relu
I0312 16:39:07.495522 24897 net.cpp:157] Top shape: 1 512 14 14 (100352)
I0312 16:39:07.495523 24897 net.cpp:165] Memory required for data: 227799052
I0312 16:39:07.495525 24897 layer_factory.hpp:77] Creating layer res5a_branch2b
I0312 16:39:07.495533 24897 net.cpp:100] Creating Layer res5a_branch2b
I0312 16:39:07.495537 24897 net.cpp:444] res5a_branch2b <- res5a_branch2a
I0312 16:39:07.495543 24897 net.cpp:418] res5a_branch2b -> res5a_branch2b
I0312 16:39:07.500632 24897 net.cpp:150] Setting up res5a_branch2b
I0312 16:39:07.500660 24897 net.cpp:157] Top shape: 1 512 14 14 (100352)
I0312 16:39:07.500663 24897 net.cpp:165] Memory required for data: 228200460
I0312 16:39:07.500672 24897 layer_factory.hpp:77] Creating layer bn5a_branch2b
I0312 16:39:07.500684 24897 net.cpp:100] Creating Layer bn5a_branch2b
I0312 16:39:07.500689 24897 net.cpp:444] bn5a_branch2b <- res5a_branch2b
I0312 16:39:07.500696 24897 net.cpp:405] bn5a_branch2b -> res5a_branch2b (in-place)
I0312 16:39:07.500870 24897 net.cpp:150] Setting up bn5a_branch2b
I0312 16:39:07.500875 24897 net.cpp:157] Top shape: 1 512 14 14 (100352)
I0312 16:39:07.500877 24897 net.cpp:165] Memory required for data: 228601868
I0312 16:39:07.500882 24897 layer_factory.hpp:77] Creating layer scale5a_branch2b
I0312 16:39:07.500888 24897 net.cpp:100] Creating Layer scale5a_branch2b
I0312 16:39:07.500891 24897 net.cpp:444] scale5a_branch2b <- res5a_branch2b
I0312 16:39:07.500902 24897 net.cpp:405] scale5a_branch2b -> res5a_branch2b (in-place)
I0312 16:39:07.500931 24897 layer_factory.hpp:77] Creating layer scale5a_branch2b
I0312 16:39:07.501018 24897 net.cpp:150] Setting up scale5a_branch2b
I0312 16:39:07.501024 24897 net.cpp:157] Top shape: 1 512 14 14 (100352)
I0312 16:39:07.501026 24897 net.cpp:165] Memory required for data: 229003276
I0312 16:39:07.501030 24897 layer_factory.hpp:77] Creating layer res5a_branch2b_relu
I0312 16:39:07.501034 24897 net.cpp:100] Creating Layer res5a_branch2b_relu
I0312 16:39:07.501039 24897 net.cpp:444] res5a_branch2b_relu <- res5a_branch2b
I0312 16:39:07.501042 24897 net.cpp:405] res5a_branch2b_relu -> res5a_branch2b (in-place)
I0312 16:39:07.501046 24897 net.cpp:150] Setting up res5a_branch2b_relu
I0312 16:39:07.501050 24897 net.cpp:157] Top shape: 1 512 14 14 (100352)
I0312 16:39:07.501052 24897 net.cpp:165] Memory required for data: 229404684
I0312 16:39:07.501055 24897 layer_factory.hpp:77] Creating layer res5a_branch2c
I0312 16:39:07.501062 24897 net.cpp:100] Creating Layer res5a_branch2c
I0312 16:39:07.501066 24897 net.cpp:444] res5a_branch2c <- res5a_branch2b
I0312 16:39:07.501071 24897 net.cpp:418] res5a_branch2c -> res5a_branch2c
I0312 16:39:07.502929 24897 net.cpp:150] Setting up res5a_branch2c
I0312 16:39:07.502950 24897 net.cpp:157] Top shape: 1 2048 14 14 (401408)
I0312 16:39:07.502954 24897 net.cpp:165] Memory required for data: 231010316
I0312 16:39:07.502959 24897 layer_factory.hpp:77] Creating layer bn5a_branch2c
I0312 16:39:07.502967 24897 net.cpp:100] Creating Layer bn5a_branch2c
I0312 16:39:07.502971 24897 net.cpp:444] bn5a_branch2c <- res5a_branch2c
I0312 16:39:07.502979 24897 net.cpp:405] bn5a_branch2c -> res5a_branch2c (in-place)
I0312 16:39:07.503145 24897 net.cpp:150] Setting up bn5a_branch2c
I0312 16:39:07.503151 24897 net.cpp:157] Top shape: 1 2048 14 14 (401408)
I0312 16:39:07.503154 24897 net.cpp:165] Memory required for data: 232615948
I0312 16:39:07.503159 24897 layer_factory.hpp:77] Creating layer scale5a_branch2c
I0312 16:39:07.503165 24897 net.cpp:100] Creating Layer scale5a_branch2c
I0312 16:39:07.503167 24897 net.cpp:444] scale5a_branch2c <- res5a_branch2c
I0312 16:39:07.503171 24897 net.cpp:405] scale5a_branch2c -> res5a_branch2c (in-place)
I0312 16:39:07.503199 24897 layer_factory.hpp:77] Creating layer scale5a_branch2c
I0312 16:39:07.503288 24897 net.cpp:150] Setting up scale5a_branch2c
I0312 16:39:07.503293 24897 net.cpp:157] Top shape: 1 2048 14 14 (401408)
I0312 16:39:07.503296 24897 net.cpp:165] Memory required for data: 234221580
I0312 16:39:07.503300 24897 layer_factory.hpp:77] Creating layer res5a
I0312 16:39:07.503304 24897 net.cpp:100] Creating Layer res5a
I0312 16:39:07.503307 24897 net.cpp:444] res5a <- res5a_branch1
I0312 16:39:07.503310 24897 net.cpp:444] res5a <- res5a_branch2c
I0312 16:39:07.503315 24897 net.cpp:418] res5a -> res5a
I0312 16:39:07.503334 24897 net.cpp:150] Setting up res5a
I0312 16:39:07.503338 24897 net.cpp:157] Top shape: 1 2048 14 14 (401408)
I0312 16:39:07.503340 24897 net.cpp:165] Memory required for data: 235827212
I0312 16:39:07.503343 24897 layer_factory.hpp:77] Creating layer res5a_relu
I0312 16:39:07.503347 24897 net.cpp:100] Creating Layer res5a_relu
I0312 16:39:07.503351 24897 net.cpp:444] res5a_relu <- res5a
I0312 16:39:07.503355 24897 net.cpp:405] res5a_relu -> res5a (in-place)
I0312 16:39:07.503360 24897 net.cpp:150] Setting up res5a_relu
I0312 16:39:07.503362 24897 net.cpp:157] Top shape: 1 2048 14 14 (401408)
I0312 16:39:07.503365 24897 net.cpp:165] Memory required for data: 237432844
I0312 16:39:07.503367 24897 layer_factory.hpp:77] Creating layer res5a_res5a_relu_0_split
I0312 16:39:07.503371 24897 net.cpp:100] Creating Layer res5a_res5a_relu_0_split
I0312 16:39:07.503373 24897 net.cpp:444] res5a_res5a_relu_0_split <- res5a
I0312 16:39:07.503376 24897 net.cpp:418] res5a_res5a_relu_0_split -> res5a_res5a_relu_0_split_0
I0312 16:39:07.503382 24897 net.cpp:418] res5a_res5a_relu_0_split -> res5a_res5a_relu_0_split_1
I0312 16:39:07.503409 24897 net.cpp:150] Setting up res5a_res5a_relu_0_split
I0312 16:39:07.503414 24897 net.cpp:157] Top shape: 1 2048 14 14 (401408)
I0312 16:39:07.503417 24897 net.cpp:157] Top shape: 1 2048 14 14 (401408)
I0312 16:39:07.503419 24897 net.cpp:165] Memory required for data: 240644108
I0312 16:39:07.503422 24897 layer_factory.hpp:77] Creating layer res5b_branch2a
I0312 16:39:07.503427 24897 net.cpp:100] Creating Layer res5b_branch2a
I0312 16:39:07.503432 24897 net.cpp:444] res5b_branch2a <- res5a_res5a_relu_0_split_0
I0312 16:39:07.503437 24897 net.cpp:418] res5b_branch2a -> res5b_branch2a
I0312 16:39:07.505338 24897 net.cpp:150] Setting up res5b_branch2a
I0312 16:39:07.505360 24897 net.cpp:157] Top shape: 1 512 14 14 (100352)
I0312 16:39:07.505362 24897 net.cpp:165] Memory required for data: 241045516
I0312 16:39:07.505368 24897 layer_factory.hpp:77] Creating layer bn5b_branch2a
I0312 16:39:07.505395 24897 net.cpp:100] Creating Layer bn5b_branch2a
I0312 16:39:07.505399 24897 net.cpp:444] bn5b_branch2a <- res5b_branch2a
I0312 16:39:07.505406 24897 net.cpp:405] bn5b_branch2a -> res5b_branch2a (in-place)
I0312 16:39:07.505595 24897 net.cpp:150] Setting up bn5b_branch2a
I0312 16:39:07.505600 24897 net.cpp:157] Top shape: 1 512 14 14 (100352)
I0312 16:39:07.505602 24897 net.cpp:165] Memory required for data: 241446924
I0312 16:39:07.505607 24897 layer_factory.hpp:77] Creating layer scale5b_branch2a
I0312 16:39:07.505625 24897 net.cpp:100] Creating Layer scale5b_branch2a
I0312 16:39:07.505628 24897 net.cpp:444] scale5b_branch2a <- res5b_branch2a
I0312 16:39:07.505632 24897 net.cpp:405] scale5b_branch2a -> res5b_branch2a (in-place)
I0312 16:39:07.505662 24897 layer_factory.hpp:77] Creating layer scale5b_branch2a
I0312 16:39:07.505766 24897 net.cpp:150] Setting up scale5b_branch2a
I0312 16:39:07.505785 24897 net.cpp:157] Top shape: 1 512 14 14 (100352)
I0312 16:39:07.505789 24897 net.cpp:165] Memory required for data: 241848332
I0312 16:39:07.505792 24897 layer_factory.hpp:77] Creating layer res5b_branch2a_relu
I0312 16:39:07.505797 24897 net.cpp:100] Creating Layer res5b_branch2a_relu
I0312 16:39:07.505801 24897 net.cpp:444] res5b_branch2a_relu <- res5b_branch2a
I0312 16:39:07.505805 24897 net.cpp:405] res5b_branch2a_relu -> res5b_branch2a (in-place)
I0312 16:39:07.505810 24897 net.cpp:150] Setting up res5b_branch2a_relu
I0312 16:39:07.505828 24897 net.cpp:157] Top shape: 1 512 14 14 (100352)
I0312 16:39:07.505831 24897 net.cpp:165] Memory required for data: 242249740
I0312 16:39:07.505832 24897 layer_factory.hpp:77] Creating layer res5b_branch2b
I0312 16:39:07.505838 24897 net.cpp:100] Creating Layer res5b_branch2b
I0312 16:39:07.505841 24897 net.cpp:444] res5b_branch2b <- res5b_branch2a
I0312 16:39:07.505847 24897 net.cpp:418] res5b_branch2b -> res5b_branch2b
I0312 16:39:07.511224 24897 net.cpp:150] Setting up res5b_branch2b
I0312 16:39:07.511317 24897 net.cpp:157] Top shape: 1 512 14 14 (100352)
I0312 16:39:07.511320 24897 net.cpp:165] Memory required for data: 242651148
I0312 16:39:07.511337 24897 layer_factory.hpp:77] Creating layer bn5b_branch2b
I0312 16:39:07.511358 24897 net.cpp:100] Creating Layer bn5b_branch2b
I0312 16:39:07.511365 24897 net.cpp:444] bn5b_branch2b <- res5b_branch2b
I0312 16:39:07.511379 24897 net.cpp:405] bn5b_branch2b -> res5b_branch2b (in-place)
I0312 16:39:07.511660 24897 net.cpp:150] Setting up bn5b_branch2b
I0312 16:39:07.511667 24897 net.cpp:157] Top shape: 1 512 14 14 (100352)
I0312 16:39:07.511669 24897 net.cpp:165] Memory required for data: 243052556
I0312 16:39:07.511675 24897 layer_factory.hpp:77] Creating layer scale5b_branch2b
I0312 16:39:07.511683 24897 net.cpp:100] Creating Layer scale5b_branch2b
I0312 16:39:07.511685 24897 net.cpp:444] scale5b_branch2b <- res5b_branch2b
I0312 16:39:07.511688 24897 net.cpp:405] scale5b_branch2b -> res5b_branch2b (in-place)
I0312 16:39:07.511723 24897 layer_factory.hpp:77] Creating layer scale5b_branch2b
I0312 16:39:07.511816 24897 net.cpp:150] Setting up scale5b_branch2b
I0312 16:39:07.511821 24897 net.cpp:157] Top shape: 1 512 14 14 (100352)
I0312 16:39:07.511823 24897 net.cpp:165] Memory required for data: 243453964
I0312 16:39:07.511828 24897 layer_factory.hpp:77] Creating layer res5b_branch2b_relu
I0312 16:39:07.511834 24897 net.cpp:100] Creating Layer res5b_branch2b_relu
I0312 16:39:07.511837 24897 net.cpp:444] res5b_branch2b_relu <- res5b_branch2b
I0312 16:39:07.511842 24897 net.cpp:405] res5b_branch2b_relu -> res5b_branch2b (in-place)
I0312 16:39:07.511847 24897 net.cpp:150] Setting up res5b_branch2b_relu
I0312 16:39:07.511850 24897 net.cpp:157] Top shape: 1 512 14 14 (100352)
I0312 16:39:07.511852 24897 net.cpp:165] Memory required for data: 243855372
I0312 16:39:07.511854 24897 layer_factory.hpp:77] Creating layer res5b_branch2c
I0312 16:39:07.511864 24897 net.cpp:100] Creating Layer res5b_branch2c
I0312 16:39:07.511868 24897 net.cpp:444] res5b_branch2c <- res5b_branch2b
I0312 16:39:07.511873 24897 net.cpp:418] res5b_branch2c -> res5b_branch2c
I0312 16:39:07.514082 24897 net.cpp:150] Setting up res5b_branch2c
I0312 16:39:07.514120 24897 net.cpp:157] Top shape: 1 2048 14 14 (401408)
I0312 16:39:07.514124 24897 net.cpp:165] Memory required for data: 245461004
I0312 16:39:07.514135 24897 layer_factory.hpp:77] Creating layer bn5b_branch2c
I0312 16:39:07.514150 24897 net.cpp:100] Creating Layer bn5b_branch2c
I0312 16:39:07.514156 24897 net.cpp:444] bn5b_branch2c <- res5b_branch2c
I0312 16:39:07.514164 24897 net.cpp:405] bn5b_branch2c -> res5b_branch2c (in-place)
I0312 16:39:07.514344 24897 net.cpp:150] Setting up bn5b_branch2c
I0312 16:39:07.514350 24897 net.cpp:157] Top shape: 1 2048 14 14 (401408)
I0312 16:39:07.514353 24897 net.cpp:165] Memory required for data: 247066636
I0312 16:39:07.514358 24897 layer_factory.hpp:77] Creating layer scale5b_branch2c
I0312 16:39:07.514364 24897 net.cpp:100] Creating Layer scale5b_branch2c
I0312 16:39:07.514369 24897 net.cpp:444] scale5b_branch2c <- res5b_branch2c
I0312 16:39:07.514374 24897 net.cpp:405] scale5b_branch2c -> res5b_branch2c (in-place)
I0312 16:39:07.514405 24897 layer_factory.hpp:77] Creating layer scale5b_branch2c
I0312 16:39:07.514497 24897 net.cpp:150] Setting up scale5b_branch2c
I0312 16:39:07.514503 24897 net.cpp:157] Top shape: 1 2048 14 14 (401408)
I0312 16:39:07.514506 24897 net.cpp:165] Memory required for data: 248672268
I0312 16:39:07.514510 24897 layer_factory.hpp:77] Creating layer res5b
I0312 16:39:07.514516 24897 net.cpp:100] Creating Layer res5b
I0312 16:39:07.514520 24897 net.cpp:444] res5b <- res5a_res5a_relu_0_split_1
I0312 16:39:07.514523 24897 net.cpp:444] res5b <- res5b_branch2c
I0312 16:39:07.514529 24897 net.cpp:418] res5b -> res5b
I0312 16:39:07.514549 24897 net.cpp:150] Setting up res5b
I0312 16:39:07.514554 24897 net.cpp:157] Top shape: 1 2048 14 14 (401408)
I0312 16:39:07.514556 24897 net.cpp:165] Memory required for data: 250277900
I0312 16:39:07.514559 24897 layer_factory.hpp:77] Creating layer res5b_relu
I0312 16:39:07.514564 24897 net.cpp:100] Creating Layer res5b_relu
I0312 16:39:07.514569 24897 net.cpp:444] res5b_relu <- res5b
I0312 16:39:07.514572 24897 net.cpp:405] res5b_relu -> res5b (in-place)
I0312 16:39:07.514576 24897 net.cpp:150] Setting up res5b_relu
I0312 16:39:07.514581 24897 net.cpp:157] Top shape: 1 2048 14 14 (401408)
I0312 16:39:07.514583 24897 net.cpp:165] Memory required for data: 251883532
I0312 16:39:07.514585 24897 layer_factory.hpp:77] Creating layer res5b_res5b_relu_0_split
I0312 16:39:07.514590 24897 net.cpp:100] Creating Layer res5b_res5b_relu_0_split
I0312 16:39:07.514592 24897 net.cpp:444] res5b_res5b_relu_0_split <- res5b
I0312 16:39:07.514597 24897 net.cpp:418] res5b_res5b_relu_0_split -> res5b_res5b_relu_0_split_0
I0312 16:39:07.514603 24897 net.cpp:418] res5b_res5b_relu_0_split -> res5b_res5b_relu_0_split_1
I0312 16:39:07.514632 24897 net.cpp:150] Setting up res5b_res5b_relu_0_split
I0312 16:39:07.514637 24897 net.cpp:157] Top shape: 1 2048 14 14 (401408)
I0312 16:39:07.514641 24897 net.cpp:157] Top shape: 1 2048 14 14 (401408)
I0312 16:39:07.514642 24897 net.cpp:165] Memory required for data: 255094796
I0312 16:39:07.514645 24897 layer_factory.hpp:77] Creating layer res5c_branch2a
I0312 16:39:07.514652 24897 net.cpp:100] Creating Layer res5c_branch2a
I0312 16:39:07.514655 24897 net.cpp:444] res5c_branch2a <- res5b_res5b_relu_0_split_0
I0312 16:39:07.514659 24897 net.cpp:418] res5c_branch2a -> res5c_branch2a
I0312 16:39:07.516789 24897 net.cpp:150] Setting up res5c_branch2a
I0312 16:39:07.516834 24897 net.cpp:157] Top shape: 1 512 14 14 (100352)
I0312 16:39:07.516836 24897 net.cpp:165] Memory required for data: 255496204
I0312 16:39:07.516849 24897 layer_factory.hpp:77] Creating layer bn5c_branch2a
I0312 16:39:07.516863 24897 net.cpp:100] Creating Layer bn5c_branch2a
I0312 16:39:07.516870 24897 net.cpp:444] bn5c_branch2a <- res5c_branch2a
I0312 16:39:07.516876 24897 net.cpp:405] bn5c_branch2a -> res5c_branch2a (in-place)
I0312 16:39:07.517058 24897 net.cpp:150] Setting up bn5c_branch2a
I0312 16:39:07.517065 24897 net.cpp:157] Top shape: 1 512 14 14 (100352)
I0312 16:39:07.517066 24897 net.cpp:165] Memory required for data: 255897612
I0312 16:39:07.517071 24897 layer_factory.hpp:77] Creating layer scale5c_branch2a
I0312 16:39:07.517078 24897 net.cpp:100] Creating Layer scale5c_branch2a
I0312 16:39:07.517082 24897 net.cpp:444] scale5c_branch2a <- res5c_branch2a
I0312 16:39:07.517086 24897 net.cpp:405] scale5c_branch2a -> res5c_branch2a (in-place)
I0312 16:39:07.517119 24897 layer_factory.hpp:77] Creating layer scale5c_branch2a
I0312 16:39:07.517216 24897 net.cpp:150] Setting up scale5c_branch2a
I0312 16:39:07.517222 24897 net.cpp:157] Top shape: 1 512 14 14 (100352)
I0312 16:39:07.517225 24897 net.cpp:165] Memory required for data: 256299020
I0312 16:39:07.517228 24897 layer_factory.hpp:77] Creating layer res5c_branch2a_relu
I0312 16:39:07.517236 24897 net.cpp:100] Creating Layer res5c_branch2a_relu
I0312 16:39:07.517241 24897 net.cpp:444] res5c_branch2a_relu <- res5c_branch2a
I0312 16:39:07.517243 24897 net.cpp:405] res5c_branch2a_relu -> res5c_branch2a (in-place)
I0312 16:39:07.517248 24897 net.cpp:150] Setting up res5c_branch2a_relu
I0312 16:39:07.517251 24897 net.cpp:157] Top shape: 1 512 14 14 (100352)
I0312 16:39:07.517254 24897 net.cpp:165] Memory required for data: 256700428
I0312 16:39:07.517256 24897 layer_factory.hpp:77] Creating layer res5c_branch2b
I0312 16:39:07.517264 24897 net.cpp:100] Creating Layer res5c_branch2b
I0312 16:39:07.517267 24897 net.cpp:444] res5c_branch2b <- res5c_branch2a
I0312 16:39:07.517271 24897 net.cpp:418] res5c_branch2b -> res5c_branch2b
I0312 16:39:07.523362 24897 net.cpp:150] Setting up res5c_branch2b
I0312 16:39:07.523402 24897 net.cpp:157] Top shape: 1 512 14 14 (100352)
I0312 16:39:07.523406 24897 net.cpp:165] Memory required for data: 257101836
I0312 16:39:07.523416 24897 layer_factory.hpp:77] Creating layer bn5c_branch2b
I0312 16:39:07.523432 24897 net.cpp:100] Creating Layer bn5c_branch2b
I0312 16:39:07.523437 24897 net.cpp:444] bn5c_branch2b <- res5c_branch2b
I0312 16:39:07.523443 24897 net.cpp:405] bn5c_branch2b -> res5c_branch2b (in-place)
I0312 16:39:07.523632 24897 net.cpp:150] Setting up bn5c_branch2b
I0312 16:39:07.523638 24897 net.cpp:157] Top shape: 1 512 14 14 (100352)
I0312 16:39:07.523639 24897 net.cpp:165] Memory required for data: 257503244
I0312 16:39:07.523645 24897 layer_factory.hpp:77] Creating layer scale5c_branch2b
I0312 16:39:07.523654 24897 net.cpp:100] Creating Layer scale5c_branch2b
I0312 16:39:07.523658 24897 net.cpp:444] scale5c_branch2b <- res5c_branch2b
I0312 16:39:07.523660 24897 net.cpp:405] scale5c_branch2b -> res5c_branch2b (in-place)
I0312 16:39:07.523691 24897 layer_factory.hpp:77] Creating layer scale5c_branch2b
I0312 16:39:07.523787 24897 net.cpp:150] Setting up scale5c_branch2b
I0312 16:39:07.523792 24897 net.cpp:157] Top shape: 1 512 14 14 (100352)
I0312 16:39:07.523794 24897 net.cpp:165] Memory required for data: 257904652
I0312 16:39:07.523798 24897 layer_factory.hpp:77] Creating layer res5c_branch2b_relu
I0312 16:39:07.523807 24897 net.cpp:100] Creating Layer res5c_branch2b_relu
I0312 16:39:07.523809 24897 net.cpp:444] res5c_branch2b_relu <- res5c_branch2b
I0312 16:39:07.523813 24897 net.cpp:405] res5c_branch2b_relu -> res5c_branch2b (in-place)
I0312 16:39:07.523818 24897 net.cpp:150] Setting up res5c_branch2b_relu
I0312 16:39:07.523820 24897 net.cpp:157] Top shape: 1 512 14 14 (100352)
I0312 16:39:07.523823 24897 net.cpp:165] Memory required for data: 258306060
I0312 16:39:07.523825 24897 layer_factory.hpp:77] Creating layer res5c_branch2c
I0312 16:39:07.523833 24897 net.cpp:100] Creating Layer res5c_branch2c
I0312 16:39:07.523836 24897 net.cpp:444] res5c_branch2c <- res5c_branch2b
I0312 16:39:07.523843 24897 net.cpp:418] res5c_branch2c -> res5c_branch2c
I0312 16:39:07.526222 24897 net.cpp:150] Setting up res5c_branch2c
I0312 16:39:07.526253 24897 net.cpp:157] Top shape: 1 2048 14 14 (401408)
I0312 16:39:07.526257 24897 net.cpp:165] Memory required for data: 259911692
I0312 16:39:07.526270 24897 layer_factory.hpp:77] Creating layer bn5c_branch2c
I0312 16:39:07.526283 24897 net.cpp:100] Creating Layer bn5c_branch2c
I0312 16:39:07.526286 24897 net.cpp:444] bn5c_branch2c <- res5c_branch2c
I0312 16:39:07.526294 24897 net.cpp:405] bn5c_branch2c -> res5c_branch2c (in-place)
I0312 16:39:07.526500 24897 net.cpp:150] Setting up bn5c_branch2c
I0312 16:39:07.526507 24897 net.cpp:157] Top shape: 1 2048 14 14 (401408)
I0312 16:39:07.526510 24897 net.cpp:165] Memory required for data: 261517324
I0312 16:39:07.526516 24897 layer_factory.hpp:77] Creating layer scale5c_branch2c
I0312 16:39:07.526522 24897 net.cpp:100] Creating Layer scale5c_branch2c
I0312 16:39:07.526525 24897 net.cpp:444] scale5c_branch2c <- res5c_branch2c
I0312 16:39:07.526528 24897 net.cpp:405] scale5c_branch2c -> res5c_branch2c (in-place)
I0312 16:39:07.526569 24897 layer_factory.hpp:77] Creating layer scale5c_branch2c
I0312 16:39:07.526669 24897 net.cpp:150] Setting up scale5c_branch2c
I0312 16:39:07.526674 24897 net.cpp:157] Top shape: 1 2048 14 14 (401408)
I0312 16:39:07.526677 24897 net.cpp:165] Memory required for data: 263122956
I0312 16:39:07.526684 24897 layer_factory.hpp:77] Creating layer res5c
I0312 16:39:07.526687 24897 net.cpp:100] Creating Layer res5c
I0312 16:39:07.526690 24897 net.cpp:444] res5c <- res5b_res5b_relu_0_split_1
I0312 16:39:07.526693 24897 net.cpp:444] res5c <- res5c_branch2c
I0312 16:39:07.526698 24897 net.cpp:418] res5c -> res5c
I0312 16:39:07.526716 24897 net.cpp:150] Setting up res5c
I0312 16:39:07.526721 24897 net.cpp:157] Top shape: 1 2048 14 14 (401408)
I0312 16:39:07.526722 24897 net.cpp:165] Memory required for data: 264728588
I0312 16:39:07.526726 24897 layer_factory.hpp:77] Creating layer res5c_relu
I0312 16:39:07.526731 24897 net.cpp:100] Creating Layer res5c_relu
I0312 16:39:07.526733 24897 net.cpp:444] res5c_relu <- res5c
I0312 16:39:07.526736 24897 net.cpp:405] res5c_relu -> res5c (in-place)
I0312 16:39:07.526741 24897 net.cpp:150] Setting up res5c_relu
I0312 16:39:07.526744 24897 net.cpp:157] Top shape: 1 2048 14 14 (401408)
I0312 16:39:07.526746 24897 net.cpp:165] Memory required for data: 266334220
I0312 16:39:07.526748 24897 layer_factory.hpp:77] Creating layer rpn_conv/3x3
I0312 16:39:07.526758 24897 net.cpp:100] Creating Layer rpn_conv/3x3
I0312 16:39:07.526762 24897 net.cpp:444] rpn_conv/3x3 <- res4f_res4f_relu_0_split_2
I0312 16:39:07.526767 24897 net.cpp:418] rpn_conv/3x3 -> rpn/output
I0312 16:39:07.571204 24897 net.cpp:150] Setting up rpn_conv/3x3
I0312 16:39:07.571234 24897 net.cpp:157] Top shape: 1 512 14 14 (100352)
I0312 16:39:07.571238 24897 net.cpp:165] Memory required for data: 266735628
I0312 16:39:07.571260 24897 layer_factory.hpp:77] Creating layer rpn_relu/3x3
I0312 16:39:07.571272 24897 net.cpp:100] Creating Layer rpn_relu/3x3
I0312 16:39:07.571277 24897 net.cpp:444] rpn_relu/3x3 <- rpn/output
I0312 16:39:07.571283 24897 net.cpp:405] rpn_relu/3x3 -> rpn/output (in-place)
I0312 16:39:07.571293 24897 net.cpp:150] Setting up rpn_relu/3x3
I0312 16:39:07.571296 24897 net.cpp:157] Top shape: 1 512 14 14 (100352)
I0312 16:39:07.571298 24897 net.cpp:165] Memory required for data: 267137036
I0312 16:39:07.571301 24897 layer_factory.hpp:77] Creating layer rpn/output_rpn_relu/3x3_0_split
I0312 16:39:07.571319 24897 net.cpp:100] Creating Layer rpn/output_rpn_relu/3x3_0_split
I0312 16:39:07.571323 24897 net.cpp:444] rpn/output_rpn_relu/3x3_0_split <- rpn/output
I0312 16:39:07.571328 24897 net.cpp:418] rpn/output_rpn_relu/3x3_0_split -> rpn/output_rpn_relu/3x3_0_split_0
I0312 16:39:07.571334 24897 net.cpp:418] rpn/output_rpn_relu/3x3_0_split -> rpn/output_rpn_relu/3x3_0_split_1
I0312 16:39:07.571377 24897 net.cpp:150] Setting up rpn/output_rpn_relu/3x3_0_split
I0312 16:39:07.571382 24897 net.cpp:157] Top shape: 1 512 14 14 (100352)
I0312 16:39:07.571385 24897 net.cpp:157] Top shape: 1 512 14 14 (100352)
I0312 16:39:07.571388 24897 net.cpp:165] Memory required for data: 267939852
I0312 16:39:07.571389 24897 layer_factory.hpp:77] Creating layer rpn_cls_score
I0312 16:39:07.571398 24897 net.cpp:100] Creating Layer rpn_cls_score
I0312 16:39:07.571403 24897 net.cpp:444] rpn_cls_score <- rpn/output_rpn_relu/3x3_0_split_0
I0312 16:39:07.571408 24897 net.cpp:418] rpn_cls_score -> rpn_cls_score
I0312 16:39:07.571691 24897 net.cpp:150] Setting up rpn_cls_score
I0312 16:39:07.571696 24897 net.cpp:157] Top shape: 1 18 14 14 (3528)
I0312 16:39:07.571697 24897 net.cpp:165] Memory required for data: 267953964
I0312 16:39:07.571702 24897 layer_factory.hpp:77] Creating layer rpn_bbox_pred
I0312 16:39:07.571724 24897 net.cpp:100] Creating Layer rpn_bbox_pred
I0312 16:39:07.571727 24897 net.cpp:444] rpn_bbox_pred <- rpn/output_rpn_relu/3x3_0_split_1
I0312 16:39:07.571745 24897 net.cpp:418] rpn_bbox_pred -> rpn_bbox_pred
I0312 16:39:07.572101 24897 net.cpp:150] Setting up rpn_bbox_pred
I0312 16:39:07.572106 24897 net.cpp:157] Top shape: 1 36 14 14 (7056)
I0312 16:39:07.572108 24897 net.cpp:165] Memory required for data: 267982188
I0312 16:39:07.572113 24897 layer_factory.hpp:77] Creating layer rpn_cls_score_reshape
I0312 16:39:07.572134 24897 net.cpp:100] Creating Layer rpn_cls_score_reshape
I0312 16:39:07.572136 24897 net.cpp:444] rpn_cls_score_reshape <- rpn_cls_score
I0312 16:39:07.572140 24897 net.cpp:418] rpn_cls_score_reshape -> rpn_cls_score_reshape
I0312 16:39:07.572178 24897 net.cpp:150] Setting up rpn_cls_score_reshape
I0312 16:39:07.572196 24897 net.cpp:157] Top shape: 1 2 126 14 (3528)
I0312 16:39:07.572197 24897 net.cpp:165] Memory required for data: 267996300
I0312 16:39:07.572201 24897 layer_factory.hpp:77] Creating layer rpn_cls_prob
I0312 16:39:07.572219 24897 net.cpp:100] Creating Layer rpn_cls_prob
I0312 16:39:07.572222 24897 net.cpp:444] rpn_cls_prob <- rpn_cls_score_reshape
I0312 16:39:07.572227 24897 net.cpp:418] rpn_cls_prob -> rpn_cls_prob
I0312 16:39:07.572288 24897 net.cpp:150] Setting up rpn_cls_prob
I0312 16:39:07.572293 24897 net.cpp:157] Top shape: 1 2 126 14 (3528)
I0312 16:39:07.572295 24897 net.cpp:165] Memory required for data: 268010412
I0312 16:39:07.572298 24897 layer_factory.hpp:77] Creating layer rpn_cls_prob_reshape
I0312 16:39:07.572302 24897 net.cpp:100] Creating Layer rpn_cls_prob_reshape
I0312 16:39:07.572305 24897 net.cpp:444] rpn_cls_prob_reshape <- rpn_cls_prob
I0312 16:39:07.572324 24897 net.cpp:418] rpn_cls_prob_reshape -> rpn_cls_prob_reshape
I0312 16:39:07.572340 24897 net.cpp:150] Setting up rpn_cls_prob_reshape
I0312 16:39:07.572345 24897 net.cpp:157] Top shape: 1 18 14 14 (3528)
I0312 16:39:07.572347 24897 net.cpp:165] Memory required for data: 268024524
I0312 16:39:07.572350 24897 layer_factory.hpp:77] Creating layer proposal
I0312 16:39:07.573464 24897 net.cpp:100] Creating Layer proposal
I0312 16:39:07.573473 24897 net.cpp:444] proposal <- rpn_cls_prob_reshape
I0312 16:39:07.573477 24897 net.cpp:444] proposal <- rpn_bbox_pred
I0312 16:39:07.573480 24897 net.cpp:444] proposal <- im_info
I0312 16:39:07.573484 24897 net.cpp:418] proposal -> rois
I0312 16:39:07.574168 24897 net.cpp:150] Setting up proposal
I0312 16:39:07.574179 24897 net.cpp:157] Top shape: 1 5 (5)
I0312 16:39:07.574182 24897 net.cpp:165] Memory required for data: 268024544
I0312 16:39:07.574184 24897 layer_factory.hpp:77] Creating layer rois_proposal_0_split
I0312 16:39:07.574189 24897 net.cpp:100] Creating Layer rois_proposal_0_split
I0312 16:39:07.574208 24897 net.cpp:444] rois_proposal_0_split <- rois
I0312 16:39:07.574211 24897 net.cpp:418] rois_proposal_0_split -> rois_proposal_0_split_0
I0312 16:39:07.574230 24897 net.cpp:418] rois_proposal_0_split -> rois_proposal_0_split_1
I0312 16:39:07.574290 24897 net.cpp:150] Setting up rois_proposal_0_split
I0312 16:39:07.574309 24897 net.cpp:157] Top shape: 1 5 (5)
I0312 16:39:07.574312 24897 net.cpp:157] Top shape: 1 5 (5)
I0312 16:39:07.574314 24897 net.cpp:165] Memory required for data: 268024584
I0312 16:39:07.574329 24897 layer_factory.hpp:77] Creating layer conv_new_1
I0312 16:39:07.574337 24897 net.cpp:100] Creating Layer conv_new_1
I0312 16:39:07.574354 24897 net.cpp:444] conv_new_1 <- res5c
I0312 16:39:07.574358 24897 net.cpp:418] conv_new_1 -> conv_new_1
I0312 16:39:07.594636 24897 net.cpp:150] Setting up conv_new_1
I0312 16:39:07.594660 24897 net.cpp:157] Top shape: 1 1024 14 14 (200704)
I0312 16:39:07.594662 24897 net.cpp:165] Memory required for data: 268827400
I0312 16:39:07.594671 24897 layer_factory.hpp:77] Creating layer conv_new_1_relu
I0312 16:39:07.594694 24897 net.cpp:100] Creating Layer conv_new_1_relu
I0312 16:39:07.594698 24897 net.cpp:444] conv_new_1_relu <- conv_new_1
I0312 16:39:07.594717 24897 net.cpp:405] conv_new_1_relu -> conv_new_1 (in-place)
I0312 16:39:07.594727 24897 net.cpp:150] Setting up conv_new_1_relu
I0312 16:39:07.594743 24897 net.cpp:157] Top shape: 1 1024 14 14 (200704)
I0312 16:39:07.594745 24897 net.cpp:165] Memory required for data: 269630216
I0312 16:39:07.594748 24897 layer_factory.hpp:77] Creating layer conv_new_1_conv_new_1_relu_0_split
I0312 16:39:07.594751 24897 net.cpp:100] Creating Layer conv_new_1_conv_new_1_relu_0_split
I0312 16:39:07.594768 24897 net.cpp:444] conv_new_1_conv_new_1_relu_0_split <- conv_new_1
I0312 16:39:07.594774 24897 net.cpp:418] conv_new_1_conv_new_1_relu_0_split -> conv_new_1_conv_new_1_relu_0_split_0
I0312 16:39:07.594780 24897 net.cpp:418] conv_new_1_conv_new_1_relu_0_split -> conv_new_1_conv_new_1_relu_0_split_1
I0312 16:39:07.594830 24897 net.cpp:150] Setting up conv_new_1_conv_new_1_relu_0_split
I0312 16:39:07.594837 24897 net.cpp:157] Top shape: 1 1024 14 14 (200704)
I0312 16:39:07.594841 24897 net.cpp:157] Top shape: 1 1024 14 14 (200704)
I0312 16:39:07.594844 24897 net.cpp:165] Memory required for data: 271235848
I0312 16:39:07.594846 24897 layer_factory.hpp:77] Creating layer rfcn_cls
I0312 16:39:07.594867 24897 net.cpp:100] Creating Layer rfcn_cls
I0312 16:39:07.594884 24897 net.cpp:444] rfcn_cls <- conv_new_1_conv_new_1_relu_0_split_0
I0312 16:39:07.594889 24897 net.cpp:418] rfcn_cls -> rfcn_cls
I0312 16:39:07.595914 24897 net.cpp:150] Setting up rfcn_cls
I0312 16:39:07.595927 24897 net.cpp:157] Top shape: 1 98 14 14 (19208)
I0312 16:39:07.595929 24897 net.cpp:165] Memory required for data: 271312680
I0312 16:39:07.595935 24897 layer_factory.hpp:77] Creating layer rfcn_bbox
I0312 16:39:07.595984 24897 net.cpp:100] Creating Layer rfcn_bbox
I0312 16:39:07.596004 24897 net.cpp:444] rfcn_bbox <- conv_new_1_conv_new_1_relu_0_split_1
I0312 16:39:07.596009 24897 net.cpp:418] rfcn_bbox -> rfcn_bbox
I0312 16:39:07.600481 24897 net.cpp:150] Setting up rfcn_bbox
I0312 16:39:07.600505 24897 net.cpp:157] Top shape: 1 392 14 14 (76832)
I0312 16:39:07.600508 24897 net.cpp:165] Memory required for data: 271620008
I0312 16:39:07.600519 24897 layer_factory.hpp:77] Creating layer psroipooled_cls_rois
I0312 16:39:07.600533 24897 net.cpp:100] Creating Layer psroipooled_cls_rois
I0312 16:39:07.600538 24897 net.cpp:444] psroipooled_cls_rois <- rfcn_cls
I0312 16:39:07.600544 24897 net.cpp:444] psroipooled_cls_rois <- rois_proposal_0_split_0
I0312 16:39:07.600550 24897 net.cpp:418] psroipooled_cls_rois -> psroipooled_cls_rois
I0312 16:39:07.600564 24897 psroi_pooling_layer.cpp:26] Spatial scale: 0.0625
I0312 16:39:07.600615 24897 net.cpp:150] Setting up psroipooled_cls_rois
I0312 16:39:07.600633 24897 net.cpp:157] Top shape: 1 2 7 7 (98)
I0312 16:39:07.600636 24897 net.cpp:165] Memory required for data: 271620400
I0312 16:39:07.600638 24897 layer_factory.hpp:77] Creating layer ave_cls_score_rois
I0312 16:39:07.600656 24897 net.cpp:100] Creating Layer ave_cls_score_rois
I0312 16:39:07.600658 24897 net.cpp:444] ave_cls_score_rois <- psroipooled_cls_rois
I0312 16:39:07.600664 24897 net.cpp:418] ave_cls_score_rois -> cls_score
I0312 16:39:07.600682 24897 net.cpp:150] Setting up ave_cls_score_rois
I0312 16:39:07.600685 24897 net.cpp:157] Top shape: 1 2 1 1 (2)
I0312 16:39:07.600688 24897 net.cpp:165] Memory required for data: 271620408
I0312 16:39:07.600690 24897 layer_factory.hpp:77] Creating layer psroipooled_loc_rois
I0312 16:39:07.600694 24897 net.cpp:100] Creating Layer psroipooled_loc_rois
I0312 16:39:07.600697 24897 net.cpp:444] psroipooled_loc_rois <- rfcn_bbox
I0312 16:39:07.600700 24897 net.cpp:444] psroipooled_loc_rois <- rois_proposal_0_split_1
I0312 16:39:07.600708 24897 net.cpp:418] psroipooled_loc_rois -> psroipooled_loc_rois
I0312 16:39:07.600713 24897 psroi_pooling_layer.cpp:26] Spatial scale: 0.0625
I0312 16:39:07.600740 24897 net.cpp:150] Setting up psroipooled_loc_rois
I0312 16:39:07.600744 24897 net.cpp:157] Top shape: 1 8 7 7 (392)
I0312 16:39:07.600747 24897 net.cpp:165] Memory required for data: 271621976
I0312 16:39:07.600749 24897 layer_factory.hpp:77] Creating layer ave_bbox_pred_rois
I0312 16:39:07.600754 24897 net.cpp:100] Creating Layer ave_bbox_pred_rois
I0312 16:39:07.600756 24897 net.cpp:444] ave_bbox_pred_rois <- psroipooled_loc_rois
I0312 16:39:07.600761 24897 net.cpp:418] ave_bbox_pred_rois -> bbox_pred_pre
I0312 16:39:07.600777 24897 net.cpp:150] Setting up ave_bbox_pred_rois
I0312 16:39:07.600782 24897 net.cpp:157] Top shape: 1 8 1 1 (8)
I0312 16:39:07.600785 24897 net.cpp:165] Memory required for data: 271622008
I0312 16:39:07.600787 24897 layer_factory.hpp:77] Creating layer cls_prob
I0312 16:39:07.600792 24897 net.cpp:100] Creating Layer cls_prob
I0312 16:39:07.600795 24897 net.cpp:444] cls_prob <- cls_score
I0312 16:39:07.600798 24897 net.cpp:418] cls_prob -> cls_prob_pre
I0312 16:39:07.600888 24897 net.cpp:150] Setting up cls_prob
I0312 16:39:07.600893 24897 net.cpp:157] Top shape: 1 2 1 1 (2)
I0312 16:39:07.600908 24897 net.cpp:165] Memory required for data: 271622016
I0312 16:39:07.600910 24897 layer_factory.hpp:77] Creating layer cls_prob_reshape
I0312 16:39:07.600931 24897 net.cpp:100] Creating Layer cls_prob_reshape
I0312 16:39:07.600934 24897 net.cpp:444] cls_prob_reshape <- cls_prob_pre
I0312 16:39:07.600937 24897 net.cpp:418] cls_prob_reshape -> cls_prob
I0312 16:39:07.600970 24897 net.cpp:150] Setting up cls_prob_reshape
I0312 16:39:07.600975 24897 net.cpp:157] Top shape: 1 2 (2)
I0312 16:39:07.600976 24897 net.cpp:165] Memory required for data: 271622024
I0312 16:39:07.600978 24897 layer_factory.hpp:77] Creating layer bbox_pred_reshape
I0312 16:39:07.600983 24897 net.cpp:100] Creating Layer bbox_pred_reshape
I0312 16:39:07.600987 24897 net.cpp:444] bbox_pred_reshape <- bbox_pred_pre
I0312 16:39:07.600991 24897 net.cpp:418] bbox_pred_reshape -> bbox_pred
I0312 16:39:07.601007 24897 net.cpp:150] Setting up bbox_pred_reshape
I0312 16:39:07.601012 24897 net.cpp:157] Top shape: 1 8 (8)
I0312 16:39:07.601014 24897 net.cpp:165] Memory required for data: 271622056
I0312 16:39:07.601017 24897 net.cpp:228] bbox_pred_reshape does not need backward computation.
I0312 16:39:07.601019 24897 net.cpp:228] cls_prob_reshape does not need backward computation.
I0312 16:39:07.601022 24897 net.cpp:228] cls_prob does not need backward computation.
I0312 16:39:07.601024 24897 net.cpp:228] ave_bbox_pred_rois does not need backward computation.
…
