…
snapshot: 10000
snapshot_prefix: "resnet50_rfcn_ohem"
iter_size: 4
I0118 23:34:19.181799 30106 solver.cpp:81] Creating training net from train_net file: models/pascal_voc/ResNet-50/rfcn_end2end/train_agnostic_ohem-1.prototxt
I0118 23:34:19.184586 30106 net.cpp:58] Initializing net from parameters: 
name: "ResNet-50"
state {
  phase: TRAIN
}
layer {
  name: "input-data"
  type: "Python"
  top: "data"
  top: "im_info"
  top: "gt_boxes"
  python_param {
    module: "roi_data_layer.layer"
    layer: "RoIDataLayer"
    param_str: "\'num_classes\': 2"
  }
}
layer {
  name: "conv1"
  type: "Convolution"
  bottom: "data"
  top: "conv1"
  param {
    lr_mult: 0
  }
  param {
    lr_mult: 0
  }
  convolution_param {
    num_output: 64
    pad: 3
    kernel_size: 7
    stride: 2
  }
}
layer {
  name: "bn_conv1"
  type: "BatchNorm"
  bottom: "conv1"
  top: "conv1"
  param {
    lr_mult: 0
    decay_mult: 0
  }
  param {
    lr_mult: 0
    decay_mult: 0
  }
  param {
    lr_mult: 0
    decay_mult: 0
  }
  batch_norm_param {
    use_global_stats: true
  }
}
layer {
  name: "scale_conv1"
  type: "Scale"
  bottom: "conv1"
  top: "conv1"
  param {
    lr_mult: 0
    decay_mult: 0
  }
  param {
    lr_mult: 0
    decay_mult: 0
  }
  scale_param {
    bias_term: true
  }
}
layer {
  name: "conv1_relu"
  type: "ReLU"
  bottom: "conv1"
  top: "conv1"
}
layer {
  name: "pool1"
  type: "Pooling"
  bottom: "conv1"
  top: "pool1"
  pooling_param {
    pool: MAX
    kernel_size: 3
    stride: 2
  }
}
layer {
  name: "res2a_branch1"
  type: "Convolution"
  bottom: "pool1"
  top: "res2a_branch1"
  param {
    lr_mult: 0
  }
  convolution_param {
    num_output: 256
    bias_term: false
    pad: 0
    kernel_size: 1
    stride: 1
  }
}
layer {
  name: "bn2a_branch1"
  type: "BatchNorm"
  bottom: "res2a_branch1"
  top: "res2a_branch1"
  param {
    lr_mult: 0
    decay_mult: 0
  }
  param {
    lr_mult: 0
    decay_mult: 0
  }
  param {
    lr_mult: 0
    decay_mult: 0
  }
  batch_norm_param {
    use_global_stats: true
  }
}
layer {
  name: "scale2a_branch1"
  type: "Scale"
  bottom: "res2a_branch1"
  top: "res2a_branch1"
  param {
    lr_mult: 0
    decay_mult: 0
  }
  param {
    lr_mult: 0
    decay_mult: 0
  }
  scale_param {
    bias_term: true
  }
}
layer {
  name: "res2a_branch2a"
  type: "Convolution"
  bottom: "pool1"
  top: "res2a_branch2a"
  param {
    lr_mult: 0
  }
  convolution_param {
    num_output: 64
    bias_term: false
    pad: 0
    kernel_size: 1
    stride: 1
  }
}
layer {
  name: "bn2a_branch2a"
  type: "BatchNorm"
  bottom: "res2a_branch2a"
  top: "res2a_branch2a"
  param {
    lr_mult: 0
    decay_mult: 0
  }
  param {
    lr_mult: 0
    decay_mult: 0
  }
  param {
    lr_mult: 0
    decay_mult: 0
  }
  batch_norm_param {
    use_global_stats: true
  }
}
layer {
  name: "scale2a_branch2a"
  type: "Scale"
  bottom: "res2a_branch2a"
  top: "res2a_branch2a"
  param {
    lr_mult: 0
    decay_mult: 0
  }
  param {
    lr_mult: 0
    decay_mult: 0
  }
  scale_param {
    bias_term: true
  }
}
layer {
  name: "res2a_branch2a_relu"
  type: "ReLU"
  bottom: "res2a_branch2a"
  top: "res2a_branch2a"
}
layer {
  name: "res2a_branch2b"
  type: "Convolution"
  bottom: "res2a_branch2a"
  top: "res2a_branch2b"
  param {
    lr_mult: 0
  }
  convolution_param {
    num_output: 64
    bias_term: false
    pad: 1
    kernel_size: 3
    stride: 1
  }
}
layer {
  name: "bn2a_branch2b"
  type: "BatchNorm"
  bottom: "res2a_branch2b"
  top: "res2a_branch2b"
  param {
    lr_mult: 0
    decay_mult: 0
  }
  param {
    lr_mult: 0
    decay_mult: 0
  }
  param {
    lr_mult: 0
    decay_mult: 0
  }
  batch_norm_param {
    use_global_stats: true
  }
}
layer {
  name: "scale2a_branch2b"
  type: "Scale"
  bottom: "res2a_branch2b"
  top: "res2a_branch2b"
  param {
    lr_mult: 0
    decay_mult: 0
  }
  param {
    lr_mult: 0
    decay_mult: 0
  }
  scale_param {
    bias_term: true
  }
}
layer {
  name: "res2a_branch2b_relu"
  type: "ReLU"
  bottom: "res2a_branch2b"
  top: "res2a_branch2b"
}
layer {
  name: "res2a_branch2c"
  type: "Convolution"
  bottom: "res2a_branch2b"
  top: "res2a_branch2c"
  param {
    lr_mult: 0
  }
  convolution_param {
    num_output: 256
    bias_term: false
    pad: 0
    kernel_size: 1
    stride: 1
  }
}
layer {
  name: "bn2a_branch2c"
  type: "BatchNorm"
  bottom: "res2a_branch2c"
  top: "res2a_branch2c"
  param {
    lr_mult: 0
    decay_mult: 0
  }
  param {
    lr_mult: 0
    decay_mult: 0
  }
  param {
    lr_mult: 0
    decay_mult: 0
  }
  batch_norm_param {
    use_global_stats: true
  }
}
layer {
  name: "scale2a_branch2c"
  type: "Scale"
  bottom: "res2a_branch2c"
  top: "res2a_branch2c"
  param {
    lr_mult: 0
    decay_mult: 0
  }
  param {
    lr_mult: 0
    decay_mult: 0
  }
  scale_param {
    bias_term: true
  }
}
layer {
  name: "res2a"
  type: "Eltwise"
  bottom: "res2a_branch1"
  bottom: "res2a_branch2c"
  top: "res2a"
}
layer {
  name: "res2a_relu"
  type: "ReLU"
  bottom: "res2a"
  top: "res2a"
}
layer {
  name: "res2b_branch2a"
  type: "Convolution"
  bottom: "res2a"
  top: "res2b_branch2a"
  param {
    lr_mult: 0
  }
  convolution_param {
    num_output: 64
    bias_term: false
    pad: 0
    kernel_size: 1
    stride: 1
  }
}
layer {
  name: "bn2b_branch2a"
  type: "BatchNorm"
  bottom: "res2b_branch2a"
  top: "res2b_branch2a"
  param {
    lr_mult: 0
    decay_mult: 0
  }
  param {
    lr_mult: 0
    decay_mult: 0
  }
  param {
    lr_mult: 0
    decay_mult: 0
  }
  batch_norm_param {
    use_global_stats: true
  }
}
layer {
  name: "scale2b_branch2a"
  type: "Scale"
  bottom: "res2b_branch2a"
  top: "res2b_branch2a"
  param {
    lr_mult: 0
    decay_mult: 0
  }
  param {
    lr_mult: 0
    decay_mult: 0
  }
  scale_param {
    bias_term: true
  }
}
layer {
  name: "res2b_branch2a_relu"
  type: "ReLU"
  bottom: "res2b_branch2a"
  top: "res2b_branch2a"
}
layer {
  name: "res2b_branch2b"
  type: "Convolution"
  bottom: "res2b_branch2a"
  top: "res2b_branch2b"
  param {
    lr_mult: 0
  }
  convolution_param {
    num_output: 64
    bias_term: false
    pad: 1
    kernel_size: 3
    stride: 1
  }
}
layer {
  name: "bn2b_branch2b"
  type: "BatchNorm"
  bottom: "res2b_branch2b"
  top: "res2b_branch2b"
  param {
    lr_mult: 0
    decay_mult: 0
  }
  param {
    lr_mult: 0
    decay_mult: 0
  }
  param {
    lr_mult: 0
    decay_mult: 0
  }
  batch_norm_param {
    use_global_stats: true
  }
}
layer {
  name: "scale2b_branch2b"
  type: "Scale"
  bottom: "res2b_branch2b"
  top: "res2b_branch2b"
  param {
    lr_mult: 0
    decay_mult: 0
  }
  param {
    lr_mult: 0
    decay_mult: 0
  }
  scale_param {
    bias_term: true
  }
}
layer {
  name: "res2b_branch2b_relu"
  type: "ReLU"
  bottom: "res2b_branch2b"
  top: "res2b_branch2b"
}
layer {
  name: "res2b_branch2c"
  type: "Convolution"
  bottom: "res2b_branch2b"
  top: "res2b_branch2c"
  param {
    lr_mult: 0
  }
  convolution_param {
    num_output: 256
    bias_term: false
    pad: 0
    kernel_size: 1
    stride: 1
  }
}
layer {
  name: "bn2b_branch2c"
  type: "BatchNorm"
  bottom: "res2b_branch2c"
  top: "res2b_branch2c"
  param {
    lr_mult: 0
    decay_mult: 0
  }
  param {
    lr_mult: 0
    decay_mult: 0
  }
  param {
    lr_mult: 0
    decay_mult: 0
  }
  batch_norm_param {
    use_global_stats: true
  }
}
layer {
  name: "scale2b_branch2c"
  type: "Scale"
  bottom: "res2b_branch2c"
  top: "res2b_branch2c"
  param {
    lr_mult: 0
    decay_mult: 0
  }
  param {
    lr_mult: 0
    decay_mult: 0
  }
  scale_param {
    bias_term: true
  }
}
layer {
  name: "res2b"
  type: "Eltwise"
  bottom: "res2a"
  bottom: "res2b_branch2c"
  top: "res2b"
}
layer {
  name: "res2b_relu"
  type: "ReLU"
  bottom: "res2b"
  top: "res2b"
}
layer {
  name: "res2c_branch2a"
  type: "Convolution"
  bottom: "res2b"
  top: "res2c_branch2a"
  param {
    lr_mult: 0
  }
  convolution_param {
    num_output: 64
    bias_term: false
    pad: 0
    kernel_size: 1
    stride: 1
  }
}
layer {
  name: "bn2c_branch2a"
  type: "BatchNorm"
  bottom: "res2c_branch2a"
  top: "res2c_branch2a"
  param {
    lr_mult: 0
    decay_mult: 0
  }
  param {
    lr_mult: 0
    decay_mult: 0
  }
  param {
    lr_mult: 0
    decay_mult: 0
  }
  batch_norm_param {
    use_global_stats: true
  }
}
layer {
  name: "scale2c_branch2a"
  type: "Scale"
  bottom: "res2c_branch2a"
  top: "res2c_branch2a"
  param {
    lr_mult: 0
    decay_mult: 0
  }
  param {
    lr_mult: 0
    decay_mult: 0
  }
  scale_param {
    bias_term: true
  }
}
layer {
  name: "res2c_branch2a_relu"
  type: "ReLU"
  bottom: "res2c_branch2a"
  top: "res2c_branch2a"
}
layer {
  name: "res2c_branch2b"
  type: "Convolution"
  bottom: "res2c_branch2a"
  top: "res2c_branch2b"
  param {
    lr_mult: 0
  }
  convolution_param {
    num_output: 64
    bias_term: false
    pad: 1
    kernel_size: 3
    stride: 1
  }
}
layer {
  name: "bn2c_branch2b"
  type: "BatchNorm"
  bottom: "res2c_branch2b"
  top: "res2c_branch2b"
  param {
    lr_mult: 0
    decay_mult: 0
  }
  param {
    lr_mult: 0
    decay_mult: 0
  }
  param {
    lr_mult: 0
    decay_mult: 0
  }
  batch_norm_param {
    use_global_stats: true
  }
}
layer {
  name: "scale2c_branch2b"
  type: "Scale"
  bottom: "res2c_branch2b"
  top: "res2c_branch2b"
  param {
    lr_mult: 0
    decay_mult: 0
  }
  param {
    lr_mult: 0
    decay_mult: 0
  }
  scale_param {
    bias_term: true
  }
}
layer {
  name: "res2c_branch2b_relu"
  type: "ReLU"
  bottom: "res2c_branch2b"
  top: "res2c_branch2b"
}
layer {
  name: "res2c_branch2c"
  type: "Convolution"
  bottom: "res2c_branch2b"
  top: "res2c_branch2c"
  param {
    lr_mult: 0
  }
  convolution_param {
    num_output: 256
    bias_term: false
    pad: 0
    kernel_size: 1
    stride: 1
  }
}
layer {
  name: "bn2c_branch2c"
  type: "BatchNorm"
  bottom: "res2c_branch2c"
  top: "res2c_branch2c"
  param {
    lr_mult: 0
    decay_mult: 0
  }
  param {
    lr_mult: 0
    decay_mult: 0
  }
  param {
    lr_mult: 0
    decay_mult: 0
  }
  batch_norm_param {
    use_global_stats: true
  }
}
layer {
  name: "scale2c_branch2c"
  type: "Scale"
  bottom: "res2c_branch2c"
  top: "res2c_branch2c"
  param {
    lr_mult: 0
    decay_mult: 0
  }
  param {
    lr_mult: 0
    decay_mult: 0
  }
  scale_param {
    bias_term: true
  }
}
layer {
  name: "res2c"
  type: "Eltwise"
  bottom: "res2b"
  bottom: "res2c_branch2c"
  top: "res2c"
}
layer {
  name: "res2c_relu"
  type: "ReLU"
  bottom: "res2c"
  top: "res2c"
}
layer {
  name: "res3a_branch1"
  type: "Convolution"
  bottom: "res2c"
  top: "res3a_branch1"
  param {
    lr_mult: 1
  }
  convolution_param {
    num_output: 512
    bias_term: false
    pad: 0
    kernel_size: 1
    stride: 2
  }
}
layer {
  name: "bn3a_branch1"
  type: "BatchNorm"
  bottom: "res3a_branch1"
  top: "res3a_branch1"
  param {
    lr_mult: 0
    decay_mult: 0
  }
  param {
    lr_mult: 0
    decay_mult: 0
  }
  param {
    lr_mult: 0
    decay_mult: 0
  }
  batch_norm_param {
    use_global_stats: true
  }
}
layer {
  name: "scale3a_branch1"
  type: "Scale"
  bottom: "res3a_branch1"
  top: "res3a_branch1"
  param {
    lr_mult: 0
    decay_mult: 0
  }
  param {
    lr_mult: 0
    decay_mult: 0
  }
  scale_param {
    bias_term: true
  }
}
layer {
  name: "res3a_branch2a"
  type: "Convolution"
  bottom: "res2c"
  top: "res3a_branch2a"
  param {
    lr_mult: 1
  }
  convolution_param {
    num_output: 128
    bias_term: false
    pad: 0
    kernel_size: 1
    stride: 2
  }
}
layer {
  name: "bn3a_branch2a"
  type: "BatchNorm"
  bottom: "res3a_branch2a"
  top: "res3a_branch2a"
  param {
    lr_mult: 0
    decay_mult: 0
  }
  param {
    lr_mult: 0
    decay_mult: 0
  }
  param {
    lr_mult: 0
    decay_mult: 0
  }
  batch_norm_param {
    use_global_stats: true
  }
}
layer {
  name: "scale3a_branch2a"
  type: "Scale"
  bottom: "res3a_branch2a"
  top: "res3a_branch2a"
  param {
    lr_mult: 0
    decay_mult: 0
  }
  param {
    lr_mult: 0
    decay_mult: 0
  }
  scale_param {
    bias_term: true
  }
}
layer {
  name: "res3a_branch2a_relu"
  type: "ReLU"
  bottom: "res3a_branch2a"
  top: "res3a_branch2a"
}
layer {
  name: "res3a_branch2b"
  type: "Convolution"
  bottom: "res3a_branch2a"
  top: "res3a_branch2b"
  param {
    lr_mult: 1
  }
  convolution_param {
    num_output: 128
    bias_term: false
    pad: 1
    kernel_size: 3
    stride: 1
  }
}
layer {
  name: "bn3a_branch2b"
  type: "BatchNorm"
  bottom: "res3a_branch2b"
  top: "res3a_branch2b"
  param {
    lr_mult: 0
    decay_mult: 0
  }
  param {
    lr_mult: 0
    decay_mult: 0
  }
  param {
    lr_mult: 0
    decay_mult: 0
  }
  batch_norm_param {
    use_global_stats: true
  }
}
layer {
  name: "scale3a_branch2b"
  type: "Scale"
  bottom: "res3a_branch2b"
  top: "res3a_branch2b"
  param {
    lr_mult: 0
    decay_mult: 0
  }
  param {
    lr_mult: 0
    decay_mult: 0
  }
  scale_param {
    bias_term: true
  }
}
layer {
  name: "res3a_branch2b_relu"
  type: "ReLU"
  bottom: "res3a_branch2b"
  top: "res3a_branch2b"
}
layer {
  name: "res3a_branch2c"
  type: "Convolution"
  bottom: "res3a_branch2b"
  top: "res3a_branch2c"
  param {
    lr_mult: 1
  }
  convolution_param {
    num_output: 512
    bias_term: false
    pad: 0
    kernel_size: 1
    stride: 1
  }
}
layer {
  name: "bn3a_branch2c"
  type: "BatchNorm"
  bottom: "res3a_branch2c"
  top: "res3a_branch2c"
  param {
    lr_mult: 0
    decay_mult: 0
  }
  param {
    lr_mult: 0
    decay_mult: 0
  }
  param {
    lr_mult: 0
    decay_mult: 0
  }
  batch_norm_param {
    use_global_stats: true
  }
}
layer {
  name: "scale3a_branch2c"
  type: "Scale"
  bottom: "res3a_branch2c"
  top: "res3a_branch2c"
  param {
    lr_mult: 0
    decay_mult: 0
  }
  param {
    lr_mult: 0
    decay_mult: 0
  }
  scale_param {
    bias_term: true
  }
}
layer {
  name: "res3a"
  type: "Eltwise"
  bottom: "res3a_branch1"
  bottom: "res3a_branch2c"
  top: "res3a"
}
layer {
  name: "res3a_relu"
  type: "ReLU"
  bottom: "res3a"
  top: "res3a"
}
layer {
  name: "res3b_branch2a"
  type: "Convolution"
  bottom: "res3a"
  top: "res3b_branch2a"
  param {
    lr_mult: 1
  }
  convolution_param {
    num_output: 128
    bias_term: false
    pad: 0
    kernel_size: 1
    stride: 1
  }
}
layer {
  name: "bn3b_branch2a"
  type: "BatchNorm"
  bottom: "res3b_branch2a"
  top: "res3b_branch2a"
  param {
    lr_mult: 0
    decay_mult: 0
  }
  param {
    lr_mult: 0
    decay_mult: 0
  }
  param {
    lr_mult: 0
    decay_mult: 0
  }
  batch_norm_param {
    use_global_stats: true
  }
}
layer {
  name: "scale3b_branch2a"
  type: "Scale"
  bottom: "res3b_branch2a"
  top: "res3b_branch2a"
  param {
    lr_mult: 0
    decay_mult: 0
  }
  param {
    lr_mult: 0
    decay_mult: 0
  }
  scale_param {
    bias_term: true
  }
}
layer {
  name: "res3b_branch2a_relu"
  type: "ReLU"
  bottom: "res3b_branch2a"
  top: "res3b_branch2a"
}
layer {
  name: "res3b_branch2b"
  type: "Convolution"
  bottom: "res3b_branch2a"
  top: "res3b_branch2b"
  param {
    lr_mult: 1
  }
  convolution_param {
    num_output: 128
    bias_term: false
    pad: 1
    kernel_size: 3
    stride: 1
  }
}
layer {
  name: "bn3b_branch2b"
  type: "BatchNorm"
  bottom: "res3b_branch2b"
  top: "res3b_branch2b"
  param {
    lr_mult: 0
    decay_mult: 0
  }
  param {
    lr_mult: 0
    decay_mult: 0
  }
  param {
    lr_mult: 0
    decay_mult: 0
  }
  batch_norm_param {
    use_global_stats: true
  }
}
layer {
  name: "scale3b_branch2b"
  type: "Scale"
  bottom: "res3b_branch2b"
  top: "res3b_branch2b"
  param {
    lr_mult: 0
    decay_mult: 0
  }
  param {
    lr_mult: 0
    decay_mult: 0
  }
  scale_param {
    bias_term: true
  }
}
layer {
  name: "res3b_branch2b_relu"
  type: "ReLU"
  bottom: "res3b_branch2b"
  top: "res3b_branch2b"
}
layer {
  name: "res3b_branch2c"
  type: "Convolution"
  bottom: "res3b_branch2b"
  top: "res3b_branch2c"
  param {
    lr_mult: 1
  }
  convolution_param {
    num_output: 512
    bias_term: false
    pad: 0
    kernel_size: 1
    stride: 1
  }
}
layer {
  name: "bn3b_branch2c"
  type: "BatchNorm"
  bottom: "res3b_branch2c"
  top: "res3b_branch2c"
  param {
    lr_mult: 0
    decay_mult: 0
  }
  param {
    lr_mult: 0
    decay_mult: 0
  }
  param {
    lr_mult: 0
    decay_mult: 0
  }
  batch_norm_param {
    use_global_stats: true
  }
}
layer {
  name: "scale3b_branch2c"
  type: "Scale"
  bottom: "res3b_branch2c"
  top: "res3b_branch2c"
  param {
    lr_mult: 0
    decay_mult: 0
  }
  param {
    lr_mult: 0
    decay_mult: 0
  }
  scale_param {
    bias_term: true
  }
}
layer {
  name: "res3b"
  type: "Eltwise"
  bottom: "res3a"
  bottom: "res3b_branch2c"
  top: "res3b"
}
layer {
  name: "res3b_relu"
  type: "ReLU"
  bottom: "res3b"
  top: "res3b"
}
layer {
  name: "res3c_branch2a"
  type: "Convolution"
  bottom: "res3b"
  top: "res3c_branch2a"
  param {
    lr_mult: 1
  }
  convolution_param {
    num_output: 128
    bias_term: false
    pad: 0
    kernel_size: 1
    stride: 1
  }
}
layer {
  name: "bn3c_branch2a"
  type: "BatchNorm"
  bottom: "res3c_branch2a"
  top: "res3c_branch2a"
  param {
    lr_mult: 0
    decay_mult: 0
  }
  param {
    lr_mult: 0
    decay_mult: 0
  }
  param {
    lr_mult: 0
    decay_mult: 0
  }
  batch_norm_param {
    use_global_stats: true
  }
}
layer {
  name: "scale3c_branch2a"
  type: "Scale"
  bottom: "res3c_branch2a"
  top: "res3c_branch2a"
  param {
    lr_mult: 0
    decay_mult: 0
  }
  param {
    lr_mult: 0
    decay_mult: 0
  }
  scale_param {
    bias_term: true
  }
}
layer {
  name: "res3c_branch2a_relu"
  type: "ReLU"
  bottom: "res3c_branch2a"
  top: "res3c_branch2a"
}
layer {
  name: "res3c_branch2b"
  type: "Convolution"
  bottom: "res3c_branch2a"
  top: "res3c_branch2b"
  param {
    lr_mult: 1
  }
  convolution_param {
    num_output: 128
    bias_term: false
    pad: 1
    kernel_size: 3
    stride: 1
  }
}
layer {
  name: "bn3c_branch2b"
  type: "BatchNorm"
  bottom: "res3c_branch2b"
  top: "res3c_branch2b"
  param {
    lr_mult: 0
    decay_mult: 0
  }
  param {
    lr_mult: 0
    decay_mult: 0
  }
  param {
    lr_mult: 0
    decay_mult: 0
  }
  batch_norm_param {
    use_global_stats: true
  }
}
layer {
  name: "scale3c_branch2b"
  type: "Scale"
  bottom: "res3c_branch2b"
  top: "res3c_branch2b"
  param {
    lr_mult: 0
    decay_mult: 0
  }
  param {
    lr_mult: 0
    decay_mult: 0
  }
  scale_param {
    bias_term: true
  }
}
layer {
  name: "res3c_branch2b_relu"
  type: "ReLU"
  bottom: "res3c_branch2b"
  top: "res3c_branch2b"
}
layer {
  name: "res3c_branch2c"
  type: "Convolution"
  bottom: "res3c_branch2b"
  top: "res3c_branch2c"
  param {
    lr_mult: 1
  }
  convolution_param {
    num_output: 512
    bias_term: false
    pad: 0
    kernel_size: 1
    stride: 1
  }
}
layer {
  name: "bn3c_branch2c"
  type: "BatchNorm"
  bottom: "res3c_branch2c"
  top: "res3c_branch2c"
  param {
    lr_mult: 0
    decay_mult: 0
  }
  param {
    lr_mult: 0
    decay_mult: 0
  }
  param {
    lr_mult: 0
    decay_mult: 0
  }
  batch_norm_param {
    use_global_stats: true
  }
}
layer {
  name: "scale3c_branch2c"
  type: "Scale"
  bottom: "res3c_branch2c"
  top: "res3c_branch2c"
  param {
    lr_mult: 0
    decay_mult: 0
  }
  param {
    lr_mult: 0
    decay_mult: 0
  }
  scale_param {
    bias_term: true
  }
}
layer {
  name: "res3c"
  type: "Eltwise"
  bottom: "res3b"
  bottom: "res3c_branch2c"
  top: "res3c"
}
layer {
  name: "res3c_relu"
  type: "ReLU"
  bottom: "res3c"
  top: "res3c"
}
layer {
  name: "res3d_branch2a"
  type: "Convolution"
  bottom: "res3c"
  top: "res3d_branch2a"
  param {
    lr_mult: 1
  }
  convolution_param {
    num_output: 128
    bias_term: false
    pad: 0
    kernel_size: 1
    stride: 1
  }
}
layer {
  name: "bn3d_branch2a"
  type: "BatchNorm"
  bottom: "res3d_branch2a"
  top: "res3d_branch2a"
  param {
    lr_mult: 0
    decay_mult: 0
  }
  param {
    lr_mult: 0
    decay_mult: 0
  }
  param {
    lr_mult: 0
    decay_mult: 0
  }
  batch_norm_param {
    use_global_stats: true
  }
}
layer {
  name: "scale3d_branch2a"
  type: "Scale"
  bottom: "res3d_branch2a"
  top: "res3d_branch2a"
  param {
    lr_mult: 0
    decay_mult: 0
  }
  param {
    lr_mult: 0
    decay_mult: 0
  }
  scale_param {
    bias_term: true
  }
}
layer {
  name: "res3d_branch2a_relu"
  type: "ReLU"
  bottom: "res3d_branch2a"
  top: "res3d_branch2a"
}
layer {
  name: "res3d_branch2b"
  type: "Convolution"
  bottom: "res3d_branch2a"
  top: "res3d_branch2b"
  param {
    lr_mult: 1
  }
  convolution_param {
    num_output: 128
    bias_term: false
    pad: 1
    kernel_size: 3
    stride: 1
  }
}
layer {
  name: "bn3d_branch2b"
  type: "BatchNorm"
  bottom: "res3d_branch2b"
  top: "res3d_branch2b"
  param {
    lr_mult: 0
    decay_mult: 0
  }
  param {
    lr_mult: 0
    decay_mult: 0
  }
  param {
    lr_mult: 0
    decay_mult: 0
  }
  batch_norm_param {
    use_global_stats: true
  }
}
layer {
  name: "scale3d_branch2b"
  type: "Scale"
  bottom: "res3d_branch2b"
  top: "res3d_branch2b"
  param {
    lr_mult: 0
    decay_mult: 0
  }
  param {
    lr_mult: 0
    decay_mult: 0
  }
  scale_param {
    bias_term: true
  }
}
layer {
  name: "res3d_branch2b_relu"
  type: "ReLU"
  bottom: "res3d_branch2b"
  top: "res3d_branch2b"
}
layer {
  name: "res3d_branch2c"
  type: "Convolution"
  bottom: "res3d_branch2b"
  top: "res3d_branch2c"
  param {
    lr_mult: 1
  }
  convolution_param {
    num_output: 512
    bias_term: false
    pad: 0
    kernel_size: 1
    stride: 1
  }
}
layer {
  name: "bn3d_branch2c"
  type: "BatchNorm"
  bottom: "res3d_branch2c"
  top: "res3d_branch2c"
  param {
    lr_mult: 0
    decay_mult: 0
  }
  param {
    lr_mult: 0
    decay_mult: 0
  }
  param {
    lr_mult: 0
    decay_mult: 0
  }
  batch_norm_param {
    use_global_stats: true
  }
}
layer {
  name: "scale3d_branch2c"
  type: "Scale"
  bottom: "res3d_branch2c"
  top: "res3d_branch2c"
  param {
    lr_mult: 0
    decay_mult: 0
  }
  param {
    lr_mult: 0
    decay_mult: 0
  }
  scale_param {
    bias_term: true
  }
}
layer {
  name: "res3d"
  type: "Eltwise"
  bottom: "res3c"
  bottom: "res3d_branch2c"
  top: "res3d"
}
layer {
  name: "res3d_relu"
  type: "ReLU"
  bottom: "res3d"
  top: "res3d"
}
layer {
  name: "res4a_branch1"
  type: "Convolution"
  bottom: "res3d"
  top: "res4a_branch1"
  param {
    lr_mult: 1
  }
  convolution_param {
    num_output: 1024
    bias_term: false
    pad: 0
    kernel_size: 1
    stride: 2
  }
}
layer {
  name: "bn4a_branch1"
  type: "BatchNorm"
  bottom: "res4a_branch1"
  top: "res4a_branch1"
  param {
    lr_mult: 0
    decay_mult: 0
  }
  param {
    lr_mult: 0
    decay_mult: 0
  }
  param {
    lr_mult: 0
    decay_mult: 0
  }
  batch_norm_param {
    use_global_stats: true
  }
}
layer {
  name: "scale4a_branch1"
  type: "Scale"
  bottom: "res4a_branch1"
  top: "res4a_branch1"
  param {
    lr_mult: 0
    decay_mult: 0
  }
  param {
    lr_mult: 0
    decay_mult: 0
  }
  scale_param {
    bias_term: true
  }
}
layer {
  name: "res4a_branch2a"
  type: "Convolution"
  bottom: "res3d"
  top: "res4a_branch2a"
  param {
    lr_mult: 1
  }
  convolution_param {
    num_output: 256
    bias_term: false
    pad: 0
    kernel_size: 1
    stride: 2
  }
}
layer {
  name: "bn4a_branch2a"
  type: "BatchNorm"
  bottom: "res4a_branch2a"
  top: "res4a_branch2a"
  param {
    lr_mult: 0
    decay_mult: 0
  }
  param {
    lr_mult: 0
    decay_mult: 0
  }
  param {
    lr_mult: 0
    decay_mult: 0
  }
  batch_norm_param {
    use_global_stats: true
  }
}
layer {
  name: "scale4a_branch2a"
  type: "Scale"
  bottom: "res4a_branch2a"
  top: "res4a_branch2a"
  param {
    lr_mult: 0
    decay_mult: 0
  }
  param {
    lr_mult: 0
    decay_mult: 0
  }
  scale_param {
    bias_term: true
  }
}
layer {
  name: "res4a_branch2a_relu"
  type: "ReLU"
  bottom: "res4a_branch2a"
  top: "res4a_branch2a"
}
layer {
  name: "res4a_branch2b"
  type: "Convolution"
  bottom: "res4a_branch2a"
  top: "res4a_branch2b"
  param {
    lr_mult: 1
  }
  convolution_param {
    num_output: 256
    bias_term: false
    pad: 1
    kernel_size: 3
    stride: 1
  }
}
layer {
  name: "bn4a_branch2b"
  type: "BatchNorm"
  bottom: "res4a_branch2b"
  top: "res4a_branch2b"
  param {
    lr_mult: 0
    decay_mult: 0
  }
  param {
    lr_mult: 0
    decay_mult: 0
  }
  param {
    lr_mult: 0
    decay_mult: 0
  }
  batch_norm_param {
    use_global_stats: true
  }
}
layer {
  name: "scale4a_branch2b"
  type: "Scale"
  bottom: "res4a_branch2b"
  top: "res4a_branch2b"
  param {
    lr_mult: 0
    decay_mult: 0
  }
  param {
    lr_mult: 0
    decay_mult: 0
  }
  scale_param {
    bias_term: true
  }
}
layer {
  name: "res4a_branch2b_relu"
  type: "ReLU"
  bottom: "res4a_branch2b"
  top: "res4a_branch2b"
}
layer {
  name: "res4a_branch2c"
  type: "Convolution"
  bottom: "res4a_branch2b"
  top: "res4a_branch2c"
  param {
    lr_mult: 1
  }
  convolution_param {
    num_output: 1024
    bias_term: false
    pad: 0
    kernel_size: 1
    stride: 1
  }
}
layer {
  name: "bn4a_branch2c"
  type: "BatchNorm"
  bottom: "res4a_branch2c"
  top: "res4a_branch2c"
  param {
    lr_mult: 0
    decay_mult: 0
  }
  param {
    lr_mult: 0
    decay_mult: 0
  }
  param {
    lr_mult: 0
    decay_mult: 0
  }
  batch_norm_param {
    use_global_stats: true
  }
}
layer {
  name: "scale4a_branch2c"
  type: "Scale"
  bottom: "res4a_branch2c"
  top: "res4a_branch2c"
  param {
    lr_mult: 0
    decay_mult: 0
  }
  param {
    lr_mult: 0
    decay_mult: 0
  }
  scale_param {
    bias_term: true
  }
}
layer {
  name: "res4a"
  type: "Eltwise"
  bottom: "res4a_branch1"
  bottom: "res4a_branch2c"
  top: "res4a"
}
layer {
  name: "res4a_relu"
  type: "ReLU"
  bottom: "res4a"
  top: "res4a"
}
layer {
  name: "res4b_branch2a"
  type: "Convolution"
  bottom: "res4a"
  top: "res4b_branch2a"
  param {
    lr_mult: 1
  }
  convolution_param {
    num_output: 256
    bias_term: false
    pad: 0
    kernel_size: 1
    stride: 1
  }
}
layer {
  name: "bn4b_branch2a"
  type: "BatchNorm"
  bottom: "res4b_branch2a"
  top: "res4b_branch2a"
  param {
    lr_mult: 0
    decay_mult: 0
  }
  param {
    lr_mult: 0
    decay_mult: 0
  }
  param {
    lr_mult: 0
    decay_mult: 0
  }
  batch_norm_param {
    use_global_stats: true
  }
}
layer {
  name: "scale4b_branch2a"
  type: "Scale"
  bottom: "res4b_branch2a"
  top: "res4b_branch2a"
  param {
    lr_mult: 0
    decay_mult: 0
  }
  param {
    lr_mult: 0
    decay_mult: 0
  }
  scale_param {
    bias_term: true
  }
}
layer {
  name: "res4b_branch2a_relu"
  type: "ReLU"
  bottom: "res4b_branch2a"
  top: "res4b_branch2a"
}
layer {
  name: "res4b_branch2b"
  type: "Convolution"
  bottom: "res4b_branch2a"
  top: "res4b_branch2b"
  param {
    lr_mult: 1
  }
  convolution_param {
    num_output: 256
    bias_term: false
    pad: 1
    kernel_size: 3
    stride: 1
  }
}
layer {
  name: "bn4b_branch2b"
  type: "BatchNorm"
  bottom: "res4b_branch2b"
  top: "res4b_branch2b"
  param {
    lr_mult: 0
    decay_mult: 0
  }
  param {
    lr_mult: 0
    decay_mult: 0
  }
  param {
    lr_mult: 0
    decay_mult: 0
  }
  batch_norm_param {
    use_global_stats: true
  }
}
layer {
  name: "scale4b_branch2b"
  type: "Scale"
  bottom: "res4b_branch2b"
  top: "res4b_branch2b"
  param {
    lr_mult: 0
    decay_mult: 0
  }
  param {
    lr_mult: 0
    decay_mult: 0
  }
  scale_param {
    bias_term: true
  }
}
layer {
  name: "res4b_branch2b_relu"
  type: "ReLU"
  bottom: "res4b_branch2b"
  top: "res4b_branch2b"
}
layer {
  name: "res4b_branch2c"
  type: "Convolution"
  bottom: "res4b_branch2b"
  top: "res4b_branch2c"
  param {
    lr_mult: 1
  }
  convolution_param {
    num_output: 1024
    bias_term: false
    pad: 0
    kernel_size: 1
    stride: 1
  }
}
layer {
  name: "bn4b_branch2c"
  type: "BatchNorm"
  bottom: "res4b_branch2c"
  top: "res4b_branch2c"
  param {
    lr_mult: 0
    decay_mult: 0
  }
  param {
    lr_mult: 0
    decay_mult: 0
  }
  param {
    lr_mult: 0
    decay_mult: 0
  }
  batch_norm_param {
    use_global_stats: true
  }
}
layer {
  name: "scale4b_branch2c"
  type: "Scale"
  bottom: "res4b_branch2c"
  top: "res4b_branch2c"
  param {
    lr_mult: 0
    decay_mult: 0
  }
  param {
    lr_mult: 0
    decay_mult: 0
  }
  scale_param {
    bias_term: true
  }
}
layer {
  name: "res4b"
  type: "Eltwise"
  bottom: "res4a"
  bottom: "res4b_branch2c"
  top: "res4b"
}
layer {
  name: "res4b_relu"
  type: "ReLU"
  bottom: "res4b"
  top: "res4b"
}
layer {
  name: "res4c_branch2a"
  type: "Convolution"
  bottom: "res4b"
  top: "res4c_branch2a"
  param {
    lr_mult: 1
  }
  convolution_param {
    num_output: 256
    bias_term: false
    pad: 0
    kernel_size: 1
    stride: 1
  }
}
layer {
  name: "bn4c_branch2a"
  type: "BatchNorm"
  bottom: "res4c_branch2a"
  top: "res4c_branch2a"
  param {
    lr_mult: 0
    decay_mult: 0
  }
  param {
    lr_mult: 0
    decay_mult: 0
  }
  param {
    lr_mult: 0
    decay_mult: 0
  }
  batch_norm_param {
    use_global_stats: true
  }
}
layer {
  name: "scale4c_branch2a"
  type: "Scale"
  bottom: "res4c_branch2a"
  top: "res4c_branch2a"
  param {
    lr_mult: 0
    decay_mult: 0
  }
  param {
    lr_mult: 0
    decay_mult: 0
  }
  scale_param {
    bias_term: true
  }
}
layer {
  name: "res4c_branch2a_relu"
  type: "ReLU"
  bottom: "res4c_branch2a"
  top: "res4c_branch2a"
}
layer {
  name: "res4c_branch2b"
  type: "Convolution"
  bottom: "res4c_branch2a"
  top: "res4c_branch2b"
  param {
    lr_mult: 1
  }
  convolution_param {
    num_output: 256
    bias_term: false
    pad: 1
    kernel_size: 3
    stride: 1
  }
}
layer {
  name: "bn4c_branch2b"
  type: "BatchNorm"
  bottom: "res4c_branch2b"
  top: "res4c_branch2b"
  param {
    lr_mult: 0
    decay_mult: 0
  }
  param {
    lr_mult: 0
    decay_mult: 0
  }
  param {
    lr_mult: 0
    decay_mult: 0
  }
  batch_norm_param {
    use_global_stats: true
  }
}
layer {
  name: "scale4c_branch2b"
  type: "Scale"
  bottom: "res4c_branch2b"
  top: "res4c_branch2b"
  param {
    lr_mult: 0
    decay_mult: 0
  }
  param {
    lr_mult: 0
    decay_mult: 0
  }
  scale_param {
    bias_term: true
  }
}
layer {
  name: "res4c_branch2b_relu"
  type: "ReLU"
  bottom: "res4c_branch2b"
  top: "res4c_
I0118 23:34:19.185441 30106 layer_factory.hpp:77] Creating layer input-data
I0118 23:34:19.251963 30106 net.cpp:100] Creating Layer input-data
I0118 23:34:19.251991 30106 net.cpp:418] input-data -> data
I0118 23:34:19.252004 30106 net.cpp:418] input-data -> im_info
I0118 23:34:19.252012 30106 net.cpp:418] input-data -> gt_boxes
RoiDataLayer: name_to_top: {'gt_boxes': 2, 'data': 0, 'im_info': 1}
I0118 23:34:21.660610 30106 net.cpp:150] Setting up input-data
I0118 23:34:21.660641 30106 net.cpp:157] Top shape: 1 3 600 1000 (1800000)
I0118 23:34:21.660645 30106 net.cpp:157] Top shape: 1 3 (3)
I0118 23:34:21.660647 30106 net.cpp:157] Top shape: 1 4 (4)
I0118 23:34:21.660648 30106 net.cpp:165] Memory required for data: 7200028
I0118 23:34:21.660653 30106 layer_factory.hpp:77] Creating layer data_input-data_0_split
I0118 23:34:21.660677 30106 net.cpp:100] Creating Layer data_input-data_0_split
I0118 23:34:21.660692 30106 net.cpp:444] data_input-data_0_split <- data
I0118 23:34:21.660698 30106 net.cpp:418] data_input-data_0_split -> data_input-data_0_split_0
I0118 23:34:21.660722 30106 net.cpp:418] data_input-data_0_split -> data_input-data_0_split_1
I0118 23:34:21.660761 30106 net.cpp:150] Setting up data_input-data_0_split
I0118 23:34:21.660765 30106 net.cpp:157] Top shape: 1 3 600 1000 (1800000)
I0118 23:34:21.660769 30106 net.cpp:157] Top shape: 1 3 600 1000 (1800000)
I0118 23:34:21.660773 30106 net.cpp:165] Memory required for data: 21600028
I0118 23:34:21.660774 30106 layer_factory.hpp:77] Creating layer im_info_input-data_1_split
I0118 23:34:21.660792 30106 net.cpp:100] Creating Layer im_info_input-data_1_split
I0118 23:34:21.660795 30106 net.cpp:444] im_info_input-data_1_split <- im_info
I0118 23:34:21.660811 30106 net.cpp:418] im_info_input-data_1_split -> im_info_input-data_1_split_0
I0118 23:34:21.660815 30106 net.cpp:418] im_info_input-data_1_split -> im_info_input-data_1_split_1
I0118 23:34:21.660863 30106 net.cpp:150] Setting up im_info_input-data_1_split
I0118 23:34:21.660881 30106 net.cpp:157] Top shape: 1 3 (3)
I0118 23:34:21.660883 30106 net.cpp:157] Top shape: 1 3 (3)
I0118 23:34:21.660886 30106 net.cpp:165] Memory required for data: 21600052
I0118 23:34:21.660887 30106 layer_factory.hpp:77] Creating layer gt_boxes_input-data_2_split
I0118 23:34:21.660890 30106 net.cpp:100] Creating Layer gt_boxes_input-data_2_split
I0118 23:34:21.660893 30106 net.cpp:444] gt_boxes_input-data_2_split <- gt_boxes
I0118 23:34:21.660912 30106 net.cpp:418] gt_boxes_input-data_2_split -> gt_boxes_input-data_2_split_0
I0118 23:34:21.660915 30106 net.cpp:418] gt_boxes_input-data_2_split -> gt_boxes_input-data_2_split_1
I0118 23:34:21.660976 30106 net.cpp:150] Setting up gt_boxes_input-data_2_split
I0118 23:34:21.660981 30106 net.cpp:157] Top shape: 1 4 (4)
I0118 23:34:21.660984 30106 net.cpp:157] Top shape: 1 4 (4)
I0118 23:34:21.660985 30106 net.cpp:165] Memory required for data: 21600084
I0118 23:34:21.660987 30106 layer_factory.hpp:77] Creating layer conv1
I0118 23:34:21.661010 30106 net.cpp:100] Creating Layer conv1
I0118 23:34:21.661013 30106 net.cpp:444] conv1 <- data_input-data_0_split_0
I0118 23:34:21.661017 30106 net.cpp:418] conv1 -> conv1
I0118 23:34:22.318897 30106 net.cpp:150] Setting up conv1
I0118 23:34:22.318918 30106 net.cpp:157] Top shape: 1 64 300 500 (9600000)
I0118 23:34:22.318922 30106 net.cpp:165] Memory required for data: 60000084
I0118 23:34:22.318948 30106 layer_factory.hpp:77] Creating layer bn_conv1
I0118 23:34:22.318960 30106 net.cpp:100] Creating Layer bn_conv1
I0118 23:34:22.318965 30106 net.cpp:444] bn_conv1 <- conv1
I0118 23:34:22.318970 30106 net.cpp:405] bn_conv1 -> conv1 (in-place)
I0118 23:34:22.319257 30106 net.cpp:150] Setting up bn_conv1
I0118 23:34:22.319262 30106 net.cpp:157] Top shape: 1 64 300 500 (9600000)
I0118 23:34:22.319264 30106 net.cpp:165] Memory required for data: 98400084
I0118 23:34:22.319272 30106 layer_factory.hpp:77] Creating layer scale_conv1
I0118 23:34:22.319291 30106 net.cpp:100] Creating Layer scale_conv1
I0118 23:34:22.319293 30106 net.cpp:444] scale_conv1 <- conv1
I0118 23:34:22.319298 30106 net.cpp:405] scale_conv1 -> conv1 (in-place)
I0118 23:34:22.319340 30106 layer_factory.hpp:77] Creating layer scale_conv1
I0118 23:34:22.320132 30106 net.cpp:150] Setting up scale_conv1
I0118 23:34:22.320142 30106 net.cpp:157] Top shape: 1 64 300 500 (9600000)
I0118 23:34:22.320145 30106 net.cpp:165] Memory required for data: 136800084
I0118 23:34:22.320150 30106 layer_factory.hpp:77] Creating layer conv1_relu
I0118 23:34:22.320170 30106 net.cpp:100] Creating Layer conv1_relu
I0118 23:34:22.320173 30106 net.cpp:444] conv1_relu <- conv1
I0118 23:34:22.320190 30106 net.cpp:405] conv1_relu -> conv1 (in-place)
I0118 23:34:22.320685 30106 net.cpp:150] Setting up conv1_relu
I0118 23:34:22.320694 30106 net.cpp:157] Top shape: 1 64 300 500 (9600000)
I0118 23:34:22.320696 30106 net.cpp:165] Memory required for data: 175200084
I0118 23:34:22.320699 30106 layer_factory.hpp:77] Creating layer pool1
I0118 23:34:22.320720 30106 net.cpp:100] Creating Layer pool1
I0118 23:34:22.320722 30106 net.cpp:444] pool1 <- conv1
I0118 23:34:22.320726 30106 net.cpp:418] pool1 -> pool1
I0118 23:34:22.320801 30106 net.cpp:150] Setting up pool1
I0118 23:34:22.320806 30106 net.cpp:157] Top shape: 1 64 150 250 (2400000)
I0118 23:34:22.320808 30106 net.cpp:165] Memory required for data: 184800084
I0118 23:34:22.320822 30106 layer_factory.hpp:77] Creating layer pool1_pool1_0_split
I0118 23:34:22.320827 30106 net.cpp:100] Creating Layer pool1_pool1_0_split
I0118 23:34:22.320828 30106 net.cpp:444] pool1_pool1_0_split <- pool1
I0118 23:34:22.320847 30106 net.cpp:418] pool1_pool1_0_split -> pool1_pool1_0_split_0
I0118 23:34:22.320850 30106 net.cpp:418] pool1_pool1_0_split -> pool1_pool1_0_split_1
I0118 23:34:22.320914 30106 net.cpp:150] Setting up pool1_pool1_0_split
I0118 23:34:22.320919 30106 net.cpp:157] Top shape: 1 64 150 250 (2400000)
I0118 23:34:22.320921 30106 net.cpp:157] Top shape: 1 64 150 250 (2400000)
I0118 23:34:22.320924 30106 net.cpp:165] Memory required for data: 204000084
I0118 23:34:22.320925 30106 layer_factory.hpp:77] Creating layer res2a_branch1
I0118 23:34:22.320932 30106 net.cpp:100] Creating Layer res2a_branch1
I0118 23:34:22.320935 30106 net.cpp:444] res2a_branch1 <- pool1_pool1_0_split_0
I0118 23:34:22.320938 30106 net.cpp:418] res2a_branch1 -> res2a_branch1
I0118 23:34:22.321513 30106 net.cpp:150] Setting up res2a_branch1
I0118 23:34:22.321521 30106 net.cpp:157] Top shape: 1 256 150 250 (9600000)
I0118 23:34:22.321522 30106 net.cpp:165] Memory required for data: 242400084
I0118 23:34:22.321527 30106 layer_factory.hpp:77] Creating layer bn2a_branch1
I0118 23:34:22.321532 30106 net.cpp:100] Creating Layer bn2a_branch1
I0118 23:34:22.321548 30106 net.cpp:444] bn2a_branch1 <- res2a_branch1
I0118 23:34:22.321552 30106 net.cpp:405] bn2a_branch1 -> res2a_branch1 (in-place)
I0118 23:34:22.322271 30106 net.cpp:150] Setting up bn2a_branch1
I0118 23:34:22.322279 30106 net.cpp:157] Top shape: 1 256 150 250 (9600000)
I0118 23:34:22.322283 30106 net.cpp:165] Memory required for data: 280800084
I0118 23:34:22.322289 30106 layer_factory.hpp:77] Creating layer scale2a_branch1
I0118 23:34:22.322309 30106 net.cpp:100] Creating Layer scale2a_branch1
I0118 23:34:22.322311 30106 net.cpp:444] scale2a_branch1 <- res2a_branch1
I0118 23:34:22.322315 30106 net.cpp:405] scale2a_branch1 -> res2a_branch1 (in-place)
I0118 23:34:22.322371 30106 layer_factory.hpp:77] Creating layer scale2a_branch1
I0118 23:34:22.322559 30106 net.cpp:150] Setting up scale2a_branch1
I0118 23:34:22.322566 30106 net.cpp:157] Top shape: 1 256 150 250 (9600000)
I0118 23:34:22.322567 30106 net.cpp:165] Memory required for data: 319200084
I0118 23:34:22.322571 30106 layer_factory.hpp:77] Creating layer res2a_branch2a
I0118 23:34:22.322576 30106 net.cpp:100] Creating Layer res2a_branch2a
I0118 23:34:22.322593 30106 net.cpp:444] res2a_branch2a <- pool1_pool1_0_split_1
I0118 23:34:22.322597 30106 net.cpp:418] res2a_branch2a -> res2a_branch2a
I0118 23:34:22.324061 30106 net.cpp:150] Setting up res2a_branch2a
I0118 23:34:22.324072 30106 net.cpp:157] Top shape: 1 64 150 250 (2400000)
I0118 23:34:22.324074 30106 net.cpp:165] Memory required for data: 328800084
I0118 23:34:22.324079 30106 layer_factory.hpp:77] Creating layer bn2a_branch2a
I0118 23:34:22.324098 30106 net.cpp:100] Creating Layer bn2a_branch2a
I0118 23:34:22.324101 30106 net.cpp:444] bn2a_branch2a <- res2a_branch2a
I0118 23:34:22.324105 30106 net.cpp:405] bn2a_branch2a -> res2a_branch2a (in-place)
I0118 23:34:22.324342 30106 net.cpp:150] Setting up bn2a_branch2a
I0118 23:34:22.324348 30106 net.cpp:157] Top shape: 1 64 150 250 (2400000)
I0118 23:34:22.324350 30106 net.cpp:165] Memory required for data: 338400084
I0118 23:34:22.324357 30106 layer_factory.hpp:77] Creating layer scale2a_branch2a
I0118 23:34:22.324375 30106 net.cpp:100] Creating Layer scale2a_branch2a
I0118 23:34:22.324378 30106 net.cpp:444] scale2a_branch2a <- res2a_branch2a
I0118 23:34:22.324398 30106 net.cpp:405] scale2a_branch2a -> res2a_branch2a (in-place)
I0118 23:34:22.324467 30106 layer_factory.hpp:77] Creating layer scale2a_branch2a
I0118 23:34:22.324700 30106 net.cpp:150] Setting up scale2a_branch2a
I0118 23:34:22.324707 30106 net.cpp:157] Top shape: 1 64 150 250 (2400000)
I0118 23:34:22.324708 30106 net.cpp:165] Memory required for data: 348000084
I0118 23:34:22.324728 30106 layer_factory.hpp:77] Creating layer res2a_branch2a_relu
I0118 23:34:22.324734 30106 net.cpp:100] Creating Layer res2a_branch2a_relu
I0118 23:34:22.324738 30106 net.cpp:444] res2a_branch2a_relu <- res2a_branch2a
I0118 23:34:22.324740 30106 net.cpp:405] res2a_branch2a_relu -> res2a_branch2a (in-place)
I0118 23:34:22.325233 30106 net.cpp:150] Setting up res2a_branch2a_relu
I0118 23:34:22.325242 30106 net.cpp:157] Top shape: 1 64 150 250 (2400000)
I0118 23:34:22.325243 30106 net.cpp:165] Memory required for data: 357600084
I0118 23:34:22.325245 30106 layer_factory.hpp:77] Creating layer res2a_branch2b
I0118 23:34:22.325253 30106 net.cpp:100] Creating Layer res2a_branch2b
I0118 23:34:22.325269 30106 net.cpp:444] res2a_branch2b <- res2a_branch2a
I0118 23:34:22.325274 30106 net.cpp:418] res2a_branch2b -> res2a_branch2b
I0118 23:34:22.326225 30106 net.cpp:150] Setting up res2a_branch2b
I0118 23:34:22.326233 30106 net.cpp:157] Top shape: 1 64 150 250 (2400000)
I0118 23:34:22.326236 30106 net.cpp:165] Memory required for data: 367200084
I0118 23:34:22.326238 30106 layer_factory.hpp:77] Creating layer bn2a_branch2b
I0118 23:34:22.326244 30106 net.cpp:100] Creating Layer bn2a_branch2b
I0118 23:34:22.326261 30106 net.cpp:444] bn2a_branch2b <- res2a_branch2b
I0118 23:34:22.326266 30106 net.cpp:405] bn2a_branch2b -> res2a_branch2b (in-place)
I0118 23:34:22.326493 30106 net.cpp:150] Setting up bn2a_branch2b
I0118 23:34:22.326498 30106 net.cpp:157] Top shape: 1 64 150 250 (2400000)
I0118 23:34:22.326500 30106 net.cpp:165] Memory required for data: 376800084
I0118 23:34:22.326504 30106 layer_factory.hpp:77] Creating layer scale2a_branch2b
I0118 23:34:22.326508 30106 net.cpp:100] Creating Layer scale2a_branch2b
I0118 23:34:22.326510 30106 net.cpp:444] scale2a_branch2b <- res2a_branch2b
I0118 23:34:22.326529 30106 net.cpp:405] scale2a_branch2b -> res2a_branch2b (in-place)
I0118 23:34:22.326570 30106 layer_factory.hpp:77] Creating layer scale2a_branch2b
I0118 23:34:22.326845 30106 net.cpp:150] Setting up scale2a_branch2b
I0118 23:34:22.326865 30106 net.cpp:157] Top shape: 1 64 150 250 (2400000)
I0118 23:34:22.326867 30106 net.cpp:165] Memory required for data: 386400084
I0118 23:34:22.326885 30106 layer_factory.hpp:77] Creating layer res2a_branch2b_relu
I0118 23:34:22.326889 30106 net.cpp:100] Creating Layer res2a_branch2b_relu
I0118 23:34:22.326892 30106 net.cpp:444] res2a_branch2b_relu <- res2a_branch2b
I0118 23:34:22.326895 30106 net.cpp:405] res2a_branch2b_relu -> res2a_branch2b (in-place)
I0118 23:34:22.327389 30106 net.cpp:150] Setting up res2a_branch2b_relu
I0118 23:34:22.327412 30106 net.cpp:157] Top shape: 1 64 150 250 (2400000)
I0118 23:34:22.327415 30106 net.cpp:165] Memory required for data: 396000084
I0118 23:34:22.327432 30106 layer_factory.hpp:77] Creating layer res2a_branch2c
I0118 23:34:22.327438 30106 net.cpp:100] Creating Layer res2a_branch2c
I0118 23:34:22.327455 30106 net.cpp:444] res2a_branch2c <- res2a_branch2b
I0118 23:34:22.327458 30106 net.cpp:418] res2a_branch2c -> res2a_branch2c
I0118 23:34:22.328399 30106 net.cpp:150] Setting up res2a_branch2c
I0118 23:34:22.328409 30106 net.cpp:157] Top shape: 1 256 150 250 (9600000)
I0118 23:34:22.328411 30106 net.cpp:165] Memory required for data: 434400084
I0118 23:34:22.328415 30106 layer_factory.hpp:77] Creating layer bn2a_branch2c
I0118 23:34:22.328420 30106 net.cpp:100] Creating Layer bn2a_branch2c
I0118 23:34:22.328436 30106 net.cpp:444] bn2a_branch2c <- res2a_branch2c
I0118 23:34:22.328441 30106 net.cpp:405] bn2a_branch2c -> res2a_branch2c (in-place)
I0118 23:34:22.328676 30106 net.cpp:150] Setting up bn2a_branch2c
I0118 23:34:22.328681 30106 net.cpp:157] Top shape: 1 256 150 250 (9600000)
I0118 23:34:22.328683 30106 net.cpp:165] Memory required for data: 472800084
I0118 23:34:22.328688 30106 layer_factory.hpp:77] Creating layer scale2a_branch2c
I0118 23:34:22.328692 30106 net.cpp:100] Creating Layer scale2a_branch2c
I0118 23:34:22.328696 30106 net.cpp:444] scale2a_branch2c <- res2a_branch2c
I0118 23:34:22.328714 30106 net.cpp:405] scale2a_branch2c -> res2a_branch2c (in-place)
I0118 23:34:22.328766 30106 layer_factory.hpp:77] Creating layer scale2a_branch2c
I0118 23:34:22.328977 30106 net.cpp:150] Setting up scale2a_branch2c
I0118 23:34:22.328982 30106 net.cpp:157] Top shape: 1 256 150 250 (9600000)
I0118 23:34:22.328984 30106 net.cpp:165] Memory required for data: 511200084
I0118 23:34:22.328989 30106 layer_factory.hpp:77] Creating layer res2a
I0118 23:34:22.328994 30106 net.cpp:100] Creating Layer res2a
I0118 23:34:22.328996 30106 net.cpp:444] res2a <- res2a_branch1
I0118 23:34:22.328999 30106 net.cpp:444] res2a <- res2a_branch2c
I0118 23:34:22.329002 30106 net.cpp:418] res2a -> res2a
I0118 23:34:22.329036 30106 net.cpp:150] Setting up res2a
I0118 23:34:22.329056 30106 net.cpp:157] Top shape: 1 256 150 250 (9600000)
I0118 23:34:22.329057 30106 net.cpp:165] Memory required for data: 549600084
I0118 23:34:22.329059 30106 layer_factory.hpp:77] Creating layer res2a_relu
I0118 23:34:22.329075 30106 net.cpp:100] Creating Layer res2a_relu
I0118 23:34:22.329078 30106 net.cpp:444] res2a_relu <- res2a
I0118 23:34:22.329082 30106 net.cpp:405] res2a_relu -> res2a (in-place)
I0118 23:34:22.329232 30106 net.cpp:150] Setting up res2a_relu
I0118 23:34:22.329238 30106 net.cpp:157] Top shape: 1 256 150 250 (9600000)
I0118 23:34:22.329241 30106 net.cpp:165] Memory required for data: 588000084
I0118 23:34:22.329243 30106 layer_factory.hpp:77] Creating layer res2a_res2a_relu_0_split
I0118 23:34:22.329248 30106 net.cpp:100] Creating Layer res2a_res2a_relu_0_split
I0118 23:34:22.329250 30106 net.cpp:444] res2a_res2a_relu_0_split <- res2a
I0118 23:34:22.329268 30106 net.cpp:418] res2a_res2a_relu_0_split -> res2a_res2a_relu_0_split_0
I0118 23:34:22.329273 30106 net.cpp:418] res2a_res2a_relu_0_split -> res2a_res2a_relu_0_split_1
I0118 23:34:22.329303 30106 net.cpp:150] Setting up res2a_res2a_relu_0_split
I0118 23:34:22.329320 30106 net.cpp:157] Top shape: 1 256 150 250 (9600000)
I0118 23:34:22.329324 30106 net.cpp:157] Top shape: 1 256 150 250 (9600000)
I0118 23:34:22.329325 30106 net.cpp:165] Memory required for data: 664800084
I0118 23:34:22.329327 30106 layer_factory.hpp:77] Creating layer res2b_branch2a
I0118 23:34:22.329349 30106 net.cpp:100] Creating Layer res2b_branch2a
I0118 23:34:22.329351 30106 net.cpp:444] res2b_branch2a <- res2a_res2a_relu_0_split_0
I0118 23:34:22.329356 30106 net.cpp:418] res2b_branch2a -> res2b_branch2a
I0118 23:34:22.330662 30106 net.cpp:150] Setting up res2b_branch2a
I0118 23:34:22.330687 30106 net.cpp:157] Top shape: 1 64 150 250 (2400000)
I0118 23:34:22.330689 30106 net.cpp:165] Memory required for data: 674400084
I0118 23:34:22.330694 30106 layer_factory.hpp:77] Creating layer bn2b_branch2a
I0118 23:34:22.330713 30106 net.cpp:100] Creating Layer bn2b_branch2a
I0118 23:34:22.330715 30106 net.cpp:444] bn2b_branch2a <- res2b_branch2a
I0118 23:34:22.330735 30106 net.cpp:405] bn2b_branch2a -> res2b_branch2a (in-place)
I0118 23:34:22.331589 30106 net.cpp:150] Setting up bn2b_branch2a
I0118 23:34:22.331600 30106 net.cpp:157] Top shape: 1 64 150 250 (2400000)
I0118 23:34:22.331603 30106 net.cpp:165] Memory required for data: 684000084
I0118 23:34:22.331629 30106 layer_factory.hpp:77] Creating layer scale2b_branch2a
I0118 23:34:22.331634 30106 net.cpp:100] Creating Layer scale2b_branch2a
I0118 23:34:22.331637 30106 net.cpp:444] scale2b_branch2a <- res2b_branch2a
I0118 23:34:22.331642 30106 net.cpp:405] scale2b_branch2a -> res2b_branch2a (in-place)
I0118 23:34:22.331727 30106 layer_factory.hpp:77] Creating layer scale2b_branch2a
I0118 23:34:22.331946 30106 net.cpp:150] Setting up scale2b_branch2a
I0118 23:34:22.331964 30106 net.cpp:157] Top shape: 1 64 150 250 (2400000)
I0118 23:34:22.331965 30106 net.cpp:165] Memory required for data: 693600084
I0118 23:34:22.331970 30106 layer_factory.hpp:77] Creating layer res2b_branch2a_relu
I0118 23:34:22.331975 30106 net.cpp:100] Creating Layer res2b_branch2a_relu
I0118 23:34:22.331991 30106 net.cpp:444] res2b_branch2a_relu <- res2b_branch2a
I0118 23:34:22.331995 30106 net.cpp:405] res2b_branch2a_relu -> res2b_branch2a (in-place)
I0118 23:34:22.332206 30106 net.cpp:150] Setting up res2b_branch2a_relu
I0118 23:34:22.332211 30106 net.cpp:157] Top shape: 1 64 150 250 (2400000)
I0118 23:34:22.332213 30106 net.cpp:165] Memory required for data: 703200084
I0118 23:34:22.332216 30106 layer_factory.hpp:77] Creating layer res2b_branch2b
I0118 23:34:22.332224 30106 net.cpp:100] Creating Layer res2b_branch2b
I0118 23:34:22.332242 30106 net.cpp:444] res2b_branch2b <- res2b_branch2a
I0118 23:34:22.332247 30106 net.cpp:418] res2b_branch2b -> res2b_branch2b
I0118 23:34:22.333462 30106 net.cpp:150] Setting up res2b_branch2b
I0118 23:34:22.333473 30106 net.cpp:157] Top shape: 1 64 150 250 (2400000)
I0118 23:34:22.333477 30106 net.cpp:165] Memory required for data: 712800084
I0118 23:34:22.333480 30106 layer_factory.hpp:77] Creating layer bn2b_branch2b
I0118 23:34:22.333504 30106 net.cpp:100] Creating Layer bn2b_branch2b
I0118 23:34:22.333520 30106 net.cpp:444] bn2b_branch2b <- res2b_branch2b
I0118 23:34:22.333524 30106 net.cpp:405] bn2b_branch2b -> res2b_branch2b (in-place)
I0118 23:34:22.333767 30106 net.cpp:150] Setting up bn2b_branch2b
I0118 23:34:22.333773 30106 net.cpp:157] Top shape: 1 64 150 250 (2400000)
I0118 23:34:22.333775 30106 net.cpp:165] Memory required for data: 722400084
I0118 23:34:22.333781 30106 layer_factory.hpp:77] Creating layer scale2b_branch2b
I0118 23:34:22.333784 30106 net.cpp:100] Creating Layer scale2b_branch2b
I0118 23:34:22.333801 30106 net.cpp:444] scale2b_branch2b <- res2b_branch2b
I0118 23:34:22.333806 30106 net.cpp:405] scale2b_branch2b -> res2b_branch2b (in-place)
I0118 23:34:22.333860 30106 layer_factory.hpp:77] Creating layer scale2b_branch2b
I0118 23:34:22.334048 30106 net.cpp:150] Setting up scale2b_branch2b
I0118 23:34:22.334054 30106 net.cpp:157] Top shape: 1 64 150 250 (2400000)
I0118 23:34:22.334056 30106 net.cpp:165] Memory required for data: 732000084
I0118 23:34:22.334060 30106 layer_factory.hpp:77] Creating layer res2b_branch2b_relu
I0118 23:34:22.334064 30106 net.cpp:100] Creating Layer res2b_branch2b_relu
I0118 23:34:22.334079 30106 net.cpp:444] res2b_branch2b_relu <- res2b_branch2b
I0118 23:34:22.334082 30106 net.cpp:405] res2b_branch2b_relu -> res2b_branch2b (in-place)
I0118 23:34:22.334246 30106 net.cpp:150] Setting up res2b_branch2b_relu
I0118 23:34:22.334252 30106 net.cpp:157] Top shape: 1 64 150 250 (2400000)
I0118 23:34:22.334254 30106 net.cpp:165] Memory required for data: 741600084
I0118 23:34:22.334256 30106 layer_factory.hpp:77] Creating layer res2b_branch2c
I0118 23:34:22.334262 30106 net.cpp:100] Creating Layer res2b_branch2c
I0118 23:34:22.334277 30106 net.cpp:444] res2b_branch2c <- res2b_branch2b
I0118 23:34:22.334281 30106 net.cpp:418] res2b_branch2c -> res2b_branch2c
I0118 23:34:22.335535 30106 net.cpp:150] Setting up res2b_branch2c
I0118 23:34:22.335544 30106 net.cpp:157] Top shape: 1 256 150 250 (9600000)
I0118 23:34:22.335547 30106 net.cpp:165] Memory required for data: 780000084
I0118 23:34:22.335551 30106 layer_factory.hpp:77] Creating layer bn2b_branch2c
I0118 23:34:22.335568 30106 net.cpp:100] Creating Layer bn2b_branch2c
I0118 23:34:22.335572 30106 net.cpp:444] bn2b_branch2c <- res2b_branch2c
I0118 23:34:22.335575 30106 net.cpp:405] bn2b_branch2c -> res2b_branch2c (in-place)
I0118 23:34:22.335829 30106 net.cpp:150] Setting up bn2b_branch2c
I0118 23:34:22.335834 30106 net.cpp:157] Top shape: 1 256 150 250 (9600000)
I0118 23:34:22.335836 30106 net.cpp:165] Memory required for data: 818400084
I0118 23:34:22.335841 30106 layer_factory.hpp:77] Creating layer scale2b_branch2c
I0118 23:34:22.335845 30106 net.cpp:100] Creating Layer scale2b_branch2c
I0118 23:34:22.335860 30106 net.cpp:444] scale2b_branch2c <- res2b_branch2c
I0118 23:34:22.335863 30106 net.cpp:405] scale2b_branch2c -> res2b_branch2c (in-place)
I0118 23:34:22.335919 30106 layer_factory.hpp:77] Creating layer scale2b_branch2c
I0118 23:34:22.336112 30106 net.cpp:150] Setting up scale2b_branch2c
I0118 23:34:22.336117 30106 net.cpp:157] Top shape: 1 256 150 250 (9600000)
I0118 23:34:22.336119 30106 net.cpp:165] Memory required for data: 856800084
I0118 23:34:22.336123 30106 layer_factory.hpp:77] Creating layer res2b
I0118 23:34:22.336127 30106 net.cpp:100] Creating Layer res2b
I0118 23:34:22.336130 30106 net.cpp:444] res2b <- res2a_res2a_relu_0_split_1
I0118 23:34:22.336148 30106 net.cpp:444] res2b <- res2b_branch2c
I0118 23:34:22.336150 30106 net.cpp:418] res2b -> res2b
I0118 23:34:22.336184 30106 net.cpp:150] Setting up res2b
I0118 23:34:22.336187 30106 net.cpp:157] Top shape: 1 256 150 250 (9600000)
I0118 23:34:22.336190 30106 net.cpp:165] Memory required for data: 895200084
I0118 23:34:22.336205 30106 layer_factory.hpp:77] Creating layer res2b_relu
I0118 23:34:22.336210 30106 net.cpp:100] Creating Layer res2b_relu
I0118 23:34:22.336211 30106 net.cpp:444] res2b_relu <- res2b
I0118 23:34:22.336231 30106 net.cpp:405] res2b_relu -> res2b (in-place)
I0118 23:34:22.336465 30106 net.cpp:150] Setting up res2b_relu
I0118 23:34:22.336472 30106 net.cpp:157] Top shape: 1 256 150 250 (9600000)
I0118 23:34:22.336486 30106 net.cpp:165] Memory required for data: 933600084
I0118 23:34:22.336488 30106 layer_factory.hpp:77] Creating layer res2b_res2b_relu_0_split
I0118 23:34:22.336508 30106 net.cpp:100] Creating Layer res2b_res2b_relu_0_split
I0118 23:34:22.336511 30106 net.cpp:444] res2b_res2b_relu_0_split <- res2b
I0118 23:34:22.336514 30106 net.cpp:418] res2b_res2b_relu_0_split -> res2b_res2b_relu_0_split_0
I0118 23:34:22.336519 30106 net.cpp:418] res2b_res2b_relu_0_split -> res2b_res2b_relu_0_split_1
I0118 23:34:22.336596 30106 net.cpp:150] Setting up res2b_res2b_relu_0_split
I0118 23:34:22.336601 30106 net.cpp:157] Top shape: 1 256 150 250 (9600000)
I0118 23:34:22.336603 30106 net.cpp:157] Top shape: 1 256 150 250 (9600000)
I0118 23:34:22.336606 30106 net.cpp:165] Memory required for data: 1010400084
I0118 23:34:22.336607 30106 layer_factory.hpp:77] Creating layer res2c_branch2a
I0118 23:34:22.336613 30106 net.cpp:100] Creating Layer res2c_branch2a
I0118 23:34:22.336616 30106 net.cpp:444] res2c_branch2a <- res2b_res2b_relu_0_split_0
I0118 23:34:22.336635 30106 net.cpp:418] res2c_branch2a -> res2c_branch2a
I0118 23:34:22.337582 30106 net.cpp:150] Setting up res2c_branch2a
I0118 23:34:22.337591 30106 net.cpp:157] Top shape: 1 64 150 250 (2400000)
I0118 23:34:22.337594 30106 net.cpp:165] Memory required for data: 1020000084
I0118 23:34:22.337597 30106 layer_factory.hpp:77] Creating layer bn2c_branch2a
I0118 23:34:22.337618 30106 net.cpp:100] Creating Layer bn2c_branch2a
I0118 23:34:22.337621 30106 net.cpp:444] bn2c_branch2a <- res2c_branch2a
I0118 23:34:22.337625 30106 net.cpp:405] bn2c_branch2a -> res2c_branch2a (in-place)
I0118 23:34:22.337829 30106 net.cpp:150] Setting up bn2c_branch2a
I0118 23:34:22.337834 30106 net.cpp:157] Top shape: 1 64 150 250 (2400000)
I0118 23:34:22.337836 30106 net.cpp:165] Memory required for data: 1029600084
I0118 23:34:22.337841 30106 layer_factory.hpp:77] Creating layer scale2c_branch2a
I0118 23:34:22.337846 30106 net.cpp:100] Creating Layer scale2c_branch2a
I0118 23:34:22.337847 30106 net.cpp:444] scale2c_branch2a <- res2c_branch2a
I0118 23:34:22.337851 30106 net.cpp:405] scale2c_branch2a -> res2c_branch2a (in-place)
I0118 23:34:22.337878 30106 layer_factory.hpp:77] Creating layer scale2c_branch2a
I0118 23:34:22.338110 30106 net.cpp:150] Setting up scale2c_branch2a
I0118 23:34:22.338116 30106 net.cpp:157] Top shape: 1 64 150 250 (2400000)
I0118 23:34:22.338119 30106 net.cpp:165] Memory required for data: 1039200084
I0118 23:34:22.338121 30106 layer_factory.hpp:77] Creating layer res2c_branch2a_relu
I0118 23:34:22.338125 30106 net.cpp:100] Creating Layer res2c_branch2a_relu
I0118 23:34:22.338127 30106 net.cpp:444] res2c_branch2a_relu <- res2c_branch2a
I0118 23:34:22.338143 30106 net.cpp:405] res2c_branch2a_relu -> res2c_branch2a (in-place)
I0118 23:34:22.338611 30106 net.cpp:150] Setting up res2c_branch2a_relu
I0118 23:34:22.338620 30106 net.cpp:157] Top shape: 1 64 150 250 (2400000)
I0118 23:34:22.338624 30106 net.cpp:165] Memory required for data: 1048800084
I0118 23:34:22.338626 30106 layer_factory.hpp:77] Creating layer res2c_branch2b
I0118 23:34:22.338646 30106 net.cpp:100] Creating Layer res2c_branch2b
I0118 23:34:22.338649 30106 net.cpp:444] res2c_branch2b <- res2c_branch2a
I0118 23:34:22.338654 30106 net.cpp:418] res2c_branch2b -> res2c_branch2b
I0118 23:34:22.339699 30106 net.cpp:150] Setting up res2c_branch2b
I0118 23:34:22.339709 30106 net.cpp:157] Top shape: 1 64 150 250 (2400000)
I0118 23:34:22.339711 30106 net.cpp:165] Memory required for data: 1058400084
I0118 23:34:22.339715 30106 layer_factory.hpp:77] Creating layer bn2c_branch2b
I0118 23:34:22.339735 30106 net.cpp:100] Creating Layer bn2c_branch2b
I0118 23:34:22.339737 30106 net.cpp:444] bn2c_branch2b <- res2c_branch2b
I0118 23:34:22.339740 30106 net.cpp:405] bn2c_branch2b -> res2c_branch2b (in-place)
I0118 23:34:22.340535 30106 net.cpp:150] Setting up bn2c_branch2b
I0118 23:34:22.340543 30106 net.cpp:157] Top shape: 1 64 150 250 (2400000)
I0118 23:34:22.340546 30106 net.cpp:165] Memory required for data: 1068000084
I0118 23:34:22.340551 30106 layer_factory.hpp:77] Creating layer scale2c_branch2b
I0118 23:34:22.340556 30106 net.cpp:100] Creating Layer scale2c_branch2b
I0118 23:34:22.340559 30106 net.cpp:444] scale2c_branch2b <- res2c_branch2b
I0118 23:34:22.340562 30106 net.cpp:405] scale2c_branch2b -> res2c_branch2b (in-place)
I0118 23:34:22.340621 30106 layer_factory.hpp:77] Creating layer scale2c_branch2b
I0118 23:34:22.340822 30106 net.cpp:150] Setting up scale2c_branch2b
I0118 23:34:22.340829 30106 net.cpp:157] Top shape: 1 64 150 250 (2400000)
I0118 23:34:22.340831 30106 net.cpp:165] Memory required for data: 1077600084
I0118 23:34:22.340834 30106 layer_factory.hpp:77] Creating layer res2c_branch2b_relu
I0118 23:34:22.340839 30106 net.cpp:100] Creating Layer res2c_branch2b_relu
I0118 23:34:22.340854 30106 net.cpp:444] res2c_branch2b_relu <- res2c_branch2b
I0118 23:34:22.340857 30106 net.cpp:405] res2c_branch2b_relu -> res2c_branch2b (in-place)
I0118 23:34:22.341420 30106 net.cpp:150] Setting up res2c_branch2b_relu
I0118 23:34:22.341429 30106 net.cpp:157] Top shape: 1 64 150 250 (2400000)
I0118 23:34:22.341431 30106 net.cpp:165] Memory required for data: 1087200084
I0118 23:34:22.341434 30106 layer_factory.hpp:77] Creating layer res2c_branch2c
I0118 23:34:22.341440 30106 net.cpp:100] Creating Layer res2c_branch2c
I0118 23:34:22.341444 30106 net.cpp:444] res2c_branch2c <- res2c_branch2b
I0118 23:34:22.341447 30106 net.cpp:418] res2c_branch2c -> res2c_branch2c
I0118 23:34:22.342409 30106 net.cpp:150] Setting up res2c_branch2c
I0118 23:34:22.342419 30106 net.cpp:157] Top shape: 1 256 150 250 (9600000)
I0118 23:34:22.342422 30106 net.cpp:165] Memory required for data: 1125600084
I0118 23:34:22.342425 30106 layer_factory.hpp:77] Creating layer bn2c_branch2c
I0118 23:34:22.342429 30106 net.cpp:100] Creating Layer bn2c_branch2c
I0118 23:34:22.342432 30106 net.cpp:444] bn2c_branch2c <- res2c_branch2c
I0118 23:34:22.342437 30106 net.cpp:405] bn2c_branch2c -> res2c_branch2c (in-place)
I0118 23:34:22.342650 30106 net.cpp:150] Setting up bn2c_branch2c
I0118 23:34:22.342656 30106 net.cpp:157] Top shape: 1 256 150 250 (9600000)
I0118 23:34:22.342658 30106 net.cpp:165] Memory required for data: 1164000084
I0118 23:34:22.342669 30106 layer_factory.hpp:77] Creating layer scale2c_branch2c
I0118 23:34:22.342674 30106 net.cpp:100] Creating Layer scale2c_branch2c
I0118 23:34:22.342676 30106 net.cpp:444] scale2c_branch2c <- res2c_branch2c
I0118 23:34:22.342680 30106 net.cpp:405] scale2c_branch2c -> res2c_branch2c (in-place)
I0118 23:34:22.342739 30106 layer_factory.hpp:77] Creating layer scale2c_branch2c
I0118 23:34:22.342936 30106 net.cpp:150] Setting up scale2c_branch2c
I0118 23:34:22.342941 30106 net.cpp:157] Top shape: 1 256 150 250 (9600000)
I0118 23:34:22.342943 30106 net.cpp:165] Memory required for data: 1202400084
I0118 23:34:22.342947 30106 layer_factory.hpp:77] Creating layer res2c
I0118 23:34:22.342950 30106 net.cpp:100] Creating Layer res2c
I0118 23:34:22.342953 30106 net.cpp:444] res2c <- res2b_res2b_relu_0_split_1
I0118 23:34:22.342957 30106 net.cpp:444] res2c <- res2c_branch2c
I0118 23:34:22.342959 30106 net.cpp:418] res2c -> res2c
I0118 23:34:22.342978 30106 net.cpp:150] Setting up res2c
I0118 23:34:22.342981 30106 net.cpp:157] Top shape: 1 256 150 250 (9600000)
I0118 23:34:22.342984 30106 net.cpp:165] Memory required for data: 1240800084
I0118 23:34:22.343001 30106 layer_factory.hpp:77] Creating layer res2c_relu
I0118 23:34:22.343005 30106 net.cpp:100] Creating Layer res2c_relu
I0118 23:34:22.343008 30106 net.cpp:444] res2c_relu <- res2c
I0118 23:34:22.343010 30106 net.cpp:405] res2c_relu -> res2c (in-place)
I0118 23:34:22.343183 30106 net.cpp:150] Setting up res2c_relu
I0118 23:34:22.343190 30106 net.cpp:157] Top shape: 1 256 150 250 (9600000)
I0118 23:34:22.343192 30106 net.cpp:165] Memory required for data: 1279200084
I0118 23:34:22.343194 30106 layer_factory.hpp:77] Creating layer res2c_res2c_relu_0_split
I0118 23:34:22.343199 30106 net.cpp:100] Creating Layer res2c_res2c_relu_0_split
I0118 23:34:22.343200 30106 net.cpp:444] res2c_res2c_relu_0_split <- res2c
I0118 23:34:22.343219 30106 net.cpp:418] res2c_res2c_relu_0_split -> res2c_res2c_relu_0_split_0
I0118 23:34:22.343222 30106 net.cpp:418] res2c_res2c_relu_0_split -> res2c_res2c_relu_0_split_1
I0118 23:34:22.343279 30106 net.cpp:150] Setting up res2c_res2c_relu_0_split
I0118 23:34:22.343283 30106 net.cpp:157] Top shape: 1 256 150 250 (9600000)
I0118 23:34:22.343286 30106 net.cpp:157] Top shape: 1 256 150 250 (9600000)
I0118 23:34:22.343288 30106 net.cpp:165] Memory required for data: 1356000084
I0118 23:34:22.343291 30106 layer_factory.hpp:77] Creating layer res3a_branch1
I0118 23:34:22.343298 30106 net.cpp:100] Creating Layer res3a_branch1
I0118 23:34:22.343314 30106 net.cpp:444] res3a_branch1 <- res2c_res2c_relu_0_split_0
I0118 23:34:22.343317 30106 net.cpp:418] res3a_branch1 -> res3a_branch1
I0118 23:34:22.344584 30106 net.cpp:150] Setting up res3a_branch1
I0118 23:34:22.344594 30106 net.cpp:157] Top shape: 1 512 75 125 (4800000)
I0118 23:34:22.344596 30106 net.cpp:165] Memory required for data: 1375200084
I0118 23:34:22.344600 30106 layer_factory.hpp:77] Creating layer bn3a_branch1
I0118 23:34:22.344620 30106 net.cpp:100] Creating Layer bn3a_branch1
I0118 23:34:22.344624 30106 net.cpp:444] bn3a_branch1 <- res3a_branch1
I0118 23:34:22.344641 30106 net.cpp:405] bn3a_branch1 -> res3a_branch1 (in-place)
I0118 23:34:22.345358 30106 net.cpp:150] Setting up bn3a_branch1
I0118 23:34:22.345368 30106 net.cpp:157] Top shape: 1 512 75 125 (4800000)
I0118 23:34:22.345371 30106 net.cpp:165] Memory required for data: 1394400084
I0118 23:34:22.345376 30106 layer_factory.hpp:77] Creating layer scale3a_branch1
I0118 23:34:22.345396 30106 net.cpp:100] Creating Layer scale3a_branch1
I0118 23:34:22.345397 30106 net.cpp:444] scale3a_branch1 <- res3a_branch1
I0118 23:34:22.345404 30106 net.cpp:405] scale3a_branch1 -> res3a_branch1 (in-place)
I0118 23:34:22.345455 30106 layer_factory.hpp:77] Creating layer scale3a_branch1
I0118 23:34:22.345635 30106 net.cpp:150] Setting up scale3a_branch1
I0118 23:34:22.345640 30106 net.cpp:157] Top shape: 1 512 75 125 (4800000)
I0118 23:34:22.345643 30106 net.cpp:165] Memory required for data: 1413600084
I0118 23:34:22.345646 30106 layer_factory.hpp:77] Creating layer res3a_branch2a
I0118 23:34:22.345666 30106 net.cpp:100] Creating Layer res3a_branch2a
I0118 23:34:22.345669 30106 net.cpp:444] res3a_branch2a <- res2c_res2c_relu_0_split_1
I0118 23:34:22.345672 30106 net.cpp:418] res3a_branch2a -> res3a_branch2a
I0118 23:34:22.346913 30106 net.cpp:150] Setting up res3a_branch2a
I0118 23:34:22.346922 30106 net.cpp:157] Top shape: 1 128 75 125 (1200000)
I0118 23:34:22.346925 30106 net.cpp:165] Memory required for data: 1418400084
I0118 23:34:22.346928 30106 layer_factory.hpp:77] Creating layer bn3a_branch2a
I0118 23:34:22.346947 30106 net.cpp:100] Creating Layer bn3a_branch2a
I0118 23:34:22.346951 30106 net.cpp:444] bn3a_branch2a <- res3a_branch2a
I0118 23:34:22.346954 30106 net.cpp:405] bn3a_branch2a -> res3a_branch2a (in-place)
I0118 23:34:22.347172 30106 net.cpp:150] Setting up bn3a_branch2a
I0118 23:34:22.347177 30106 net.cpp:157] Top shape: 1 128 75 125 (1200000)
I0118 23:34:22.347178 30106 net.cpp:165] Memory required for data: 1423200084
I0118 23:34:22.347183 30106 layer_factory.hpp:77] Creating layer scale3a_branch2a
I0118 23:34:22.347189 30106 net.cpp:100] Creating Layer scale3a_branch2a
I0118 23:34:22.347205 30106 net.cpp:444] scale3a_branch2a <- res3a_branch2a
I0118 23:34:22.347208 30106 net.cpp:405] scale3a_branch2a -> res3a_branch2a (in-place)
I0118 23:34:22.347276 30106 layer_factory.hpp:77] Creating layer scale3a_branch2a
I0118 23:34:22.347435 30106 net.cpp:150] Setting up scale3a_branch2a
I0118 23:34:22.347441 30106 net.cpp:157] Top shape: 1 128 75 125 (1200000)
I0118 23:34:22.347443 30106 net.cpp:165] Memory required for data: 1428000084
I0118 23:34:22.347447 30106 layer_factory.hpp:77] Creating layer res3a_branch2a_relu
I0118 23:34:22.347453 30106 net.cpp:100] Creating Layer res3a_branch2a_relu
I0118 23:34:22.347470 30106 net.cpp:444] res3a_branch2a_relu <- res3a_branch2a
I0118 23:34:22.347474 30106 net.cpp:405] res3a_branch2a_relu -> res3a_branch2a (in-place)
I0118 23:34:22.347656 30106 net.cpp:150] Setting up res3a_branch2a_relu
I0118 23:34:22.347661 30106 net.cpp:157] Top shape: 1 128 75 125 (1200000)
I0118 23:34:22.347663 30106 net.cpp:165] Memory required for data: 1432800084
I0118 23:34:22.347666 30106 layer_factory.hpp:77] Creating layer res3a_branch2b
I0118 23:34:22.347671 30106 net.cpp:100] Creating Layer res3a_branch2b
I0118 23:34:22.347674 30106 net.cpp:444] res3a_branch2b <- res3a_branch2a
I0118 23:34:22.347677 30106 net.cpp:418] res3a_branch2b -> res3a_branch2b
I0118 23:34:22.348963 30106 net.cpp:150] Setting up res3a_branch2b
I0118 23:34:22.348973 30106 net.cpp:157] Top shape: 1 128 75 125 (1200000)
I0118 23:34:22.348975 30106 net.cpp:165] Memory required for data: 1437600084
I0118 23:34:22.348979 30106 layer_factory.hpp:77] Creating layer bn3a_branch2b
I0118 23:34:22.348984 30106 net.cpp:100] Creating Layer bn3a_branch2b
I0118 23:34:22.348987 30106 net.cpp:444] bn3a_branch2b <- res3a_branch2b
I0118 23:34:22.348992 30106 net.cpp:405] bn3a_branch2b -> res3a_branch2b (in-place)
I0118 23:34:22.349231 30106 net.cpp:150] Setting up bn3a_branch2b
I0118 23:34:22.349236 30106 net.cpp:157] Top shape: 1 128 75 125 (1200000)
I0118 23:34:22.349238 30106 net.cpp:165] Memory required for data: 1442400084
I0118 23:34:22.349243 30106 layer_factory.hpp:77] Creating layer scale3a_branch2b
I0118 23:34:22.349251 30106 net.cpp:100] Creating Layer scale3a_branch2b
I0118 23:34:22.349253 30106 net.cpp:444] scale3a_branch2b <- res3a_branch2b
I0118 23:34:22.349257 30106 net.cpp:405] scale3a_branch2b -> res3a_branch2b (in-place)
I0118 23:34:22.349304 30106 layer_factory.hpp:77] Creating layer scale3a_branch2b
I0118 23:34:22.349439 30106 net.cpp:150] Setting up scale3a_branch2b
I0118 23:34:22.349444 30106 net.cpp:157] Top shape: 1 128 75 125 (1200000)
I0118 23:34:22.349447 30106 net.cpp:165] Memory required for data: 1447200084
I0118 23:34:22.349452 30106 layer_factory.hpp:77] Creating layer res3a_branch2b_relu
I0118 23:34:22.349457 30106 net.cpp:100] Creating Layer res3a_branch2b_relu
I0118 23:34:22.349458 30106 net.cpp:444] res3a_branch2b_relu <- res3a_branch2b
I0118 23:34:22.349476 30106 net.cpp:405] res3a_branch2b_relu -> res3a_branch2b (in-place)
I0118 23:34:22.349651 30106 net.cpp:150] Setting up res3a_branch2b_relu
I0118 23:34:22.349658 30106 net.cpp:157] Top shape: 1 128 75 125 (1200000)
I0118 23:34:22.349659 30106 net.cpp:165] Memory required for data: 1452000084
I0118 23:34:22.349661 30106 layer_factory.hpp:77] Creating layer res3a_branch2c
I0118 23:34:22.349668 30106 net.cpp:100] Creating Layer res3a_branch2c
I0118 23:34:22.349670 30106 net.cpp:444] res3a_branch2c <- res3a_branch2b
I0118 23:34:22.349675 30106 net.cpp:418] res3a_branch2c -> res3a_branch2c
I0118 23:34:22.350997 30106 net.cpp:150] Setting up res3a_branch2c
I0118 23:34:22.351011 30106 net.cpp:157] Top shape: 1 512 75 125 (4800000)
I0118 23:34:22.351014 30106 net.cpp:165] Memory required for data: 1471200084
I0118 23:34:22.351019 30106 layer_factory.hpp:77] Creating layer bn3a_branch2c
I0118 23:34:22.351028 30106 net.cpp:100] Creating Layer bn3a_branch2c
I0118 23:34:22.351032 30106 net.cpp:444] bn3a_branch2c <- res3a_branch2c
I0118 23:34:22.351037 30106 net.cpp:405] bn3a_branch2c -> res3a_branch2c (in-place)
I0118 23:34:22.351227 30106 net.cpp:150] Setting up bn3a_branch2c
I0118 23:34:22.351233 30106 net.cpp:157] Top shape: 1 512 75 125 (4800000)
I0118 23:34:22.351234 30106 net.cpp:165] Memory required for data: 1490400084
I0118 23:34:22.351239 30106 layer_factory.hpp:77] Creating layer scale3a_branch2c
I0118 23:34:22.351245 30106 net.cpp:100] Creating Layer scale3a_branch2c
I0118 23:34:22.351260 30106 net.cpp:444] scale3a_branch2c <- res3a_branch2c
I0118 23:34:22.351263 30106 net.cpp:405] scale3a_branch2c -> res3a_branch2c (in-place)
I0118 23:34:22.351305 30106 layer_factory.hpp:77] Creating layer scale3a_branch2c
I0118 23:34:22.351441 30106 net.cpp:150] Setting up scale3a_branch2c
I0118 23:34:22.351447 30106 net.cpp:157] Top shape: 1 512 75 125 (4800000)
I0118 23:34:22.351449 30106 net.cpp:165] Memory required for data: 1509600084
I0118 23:34:22.351454 30106 layer_factory.hpp:77] Creating layer res3a
I0118 23:34:22.351459 30106 net.cpp:100] Creating Layer res3a
I0118 23:34:22.351462 30106 net.cpp:444] res3a <- res3a_branch1
I0118 23:34:22.351478 30106 net.cpp:444] res3a <- res3a_branch2c
I0118 23:34:22.351481 30106 net.cpp:418] res3a -> res3a
I0118 23:34:22.351514 30106 net.cpp:150] Setting up res3a
I0118 23:34:22.351518 30106 net.cpp:157] Top shape: 1 512 75 125 (4800000)
I0118 23:34:22.351521 30106 net.cpp:165] Memory required for data: 1528800084
I0118 23:34:22.351523 30106 layer_factory.hpp:77] Creating layer res3a_relu
I0118 23:34:22.351526 30106 net.cpp:100] Creating Layer res3a_relu
I0118 23:34:22.351529 30106 net.cpp:444] res3a_relu <- res3a
I0118 23:34:22.351533 30106 net.cpp:405] res3a_relu -> res3a (in-place)
I0118 23:34:22.351712 30106 net.cpp:150] Setting up res3a_relu
I0118 23:34:22.351718 30106 net.cpp:157] Top shape: 1 512 75 125 (4800000)
I0118 23:34:22.351721 30106 net.cpp:165] Memory required for data: 1548000084
I0118 23:34:22.351722 30106 layer_factory.hpp:77] Creating layer res3a_res3a_relu_0_split
I0118 23:34:22.351727 30106 net.cpp:100] Creating Layer res3a_res3a_relu_0_split
I0118 23:34:22.351728 30106 net.cpp:444] res3a_res3a_relu_0_split <- res3a
I0118 23:34:22.351733 30106 net.cpp:418] res3a_res3a_relu_0_split -> res3a_res3a_relu_0_split_0
I0118 23:34:22.351738 30106 net.cpp:418] res3a_res3a_relu_0_split -> res3a_res3a_relu_0_split_1
I0118 23:34:22.351770 30106 net.cpp:150] Setting up res3a_res3a_relu_0_split
I0118 23:34:22.351775 30106 net.cpp:157] Top shape: 1 512 75 125 (4800000)
I0118 23:34:22.351778 30106 net.cpp:157] Top shape: 1 512 75 125 (4800000)
I0118 23:34:22.351779 30106 net.cpp:165] Memory required for data: 1586400084
I0118 23:34:22.351783 30106 layer_factory.hpp:77] Creating layer res3b_branch2a
I0118 23:34:22.351788 30106 net.cpp:100] Creating Layer res3b_branch2a
I0118 23:34:22.351791 30106 net.cpp:444] res3b_branch2a <- res3a_res3a_relu_0_split_0
I0118 23:34:22.351795 30106 net.cpp:418] res3b_branch2a -> res3b_branch2a
I0118 23:34:22.352797 30106 net.cpp:150] Setting up res3b_branch2a
I0118 23:34:22.352807 30106 net.cpp:157] Top shape: 1 128 75 125 (1200000)
I0118 23:34:22.352809 30106 net.cpp:165] Memory required for data: 1591200084
I0118 23:34:22.352813 30106 layer_factory.hpp:77] Creating layer bn3b_branch2a
I0118 23:34:22.352819 30106 net.cpp:100] Creating Layer bn3b_branch2a
I0118 23:34:22.352823 30106 net.cpp:444] bn3b_branch2a <- res3b_branch2a
I0118 23:34:22.352826 30106 net.cpp:405] bn3b_branch2a -> res3b_branch2a (in-place)
I0118 23:34:22.353011 30106 net.cpp:150] Setting up bn3b_branch2a
I0118 23:34:22.353018 30106 net.cpp:157] Top shape: 1 128 75 125 (1200000)
I0118 23:34:22.353019 30106 net.cpp:165] Memory required for data: 1596000084
I0118 23:34:22.353024 30106 layer_factory.hpp:77] Creating layer scale3b_branch2a
I0118 23:34:22.353027 30106 net.cpp:100] Creating Layer scale3b_branch2a
I0118 23:34:22.353030 30106 net.cpp:444] scale3b_branch2a <- res3b_branch2a
I0118 23:34:22.353034 30106 net.cpp:405] scale3b_branch2a -> res3b_branch2a (in-place)
I0118 23:34:22.353076 30106 layer_factory.hpp:77] Creating layer scale3b_branch2a
I0118 23:34:22.353210 30106 net.cpp:150] Setting up scale3b_branch2a
I0118 23:34:22.353215 30106 net.cpp:157] Top shape: 1 128 75 125 (1200000)
I0118 23:34:22.353217 30106 net.cpp:165] Memory required for data: 1600800084
I0118 23:34:22.353221 30106 layer_factory.hpp:77] Creating layer res3b_branch2a_relu
I0118 23:34:22.353225 30106 net.cpp:100] Creating Layer res3b_branch2a_relu
I0118 23:34:22.353229 30106 net.cpp:444] res3b_branch2a_relu <- res3b_branch2a
I0118 23:34:22.353231 30106 net.cpp:405] res3b_branch2a_relu -> res3b_branch2a (in-place)
I0118 23:34:22.353399 30106 net.cpp:150] Setting up res3b_branch2a_relu
I0118 23:34:22.353404 30106 net.cpp:157] Top shape: 1 128 75 125 (1200000)
I0118 23:34:22.353406 30106 net.cpp:165] Memory required for data: 1605600084
I0118 23:34:22.353410 30106 layer_factory.hpp:77] Creating layer res3b_branch2b
I0118 23:34:22.353418 30106 net.cpp:100] Creating Layer res3b_branch2b
I0118 23:34:22.353421 30106 net.cpp:444] res3b_branch2b <- res3b_branch2a
I0118 23:34:22.353426 30106 net.cpp:418] res3b_branch2b -> res3b_branch2b
I0118 23:34:22.355638 30106 net.cpp:150] Setting up res3b_branch2b
I0118 23:34:22.355651 30106 net.cpp:157] Top shape: 1 128 75 125 (1200000)
I0118 23:34:22.355654 30106 net.cpp:165] Memory required for data: 1610400084
I0118 23:34:22.355659 30106 layer_factory.hpp:77] Creating layer bn3b_branch2b
I0118 23:34:22.355664 30106 net.cpp:100] Creating Layer bn3b_branch2b
I0118 23:34:22.355667 30106 net.cpp:444] bn3b_branch2b <- res3b_branch2b
I0118 23:34:22.355672 30106 net.cpp:405] bn3b_branch2b -> res3b_branch2b (in-place)
I0118 23:34:22.355864 30106 net.cpp:150] Setting up bn3b_branch2b
I0118 23:34:22.355868 30106 net.cpp:157] Top shape: 1 128 75 125 (1200000)
I0118 23:34:22.355870 30106 net.cpp:165] Memory required for data: 1615200084
I0118 23:34:22.355875 30106 layer_factory.hpp:77] Creating layer scale3b_branch2b
I0118 23:34:22.355880 30106 net.cpp:100] Creating Layer scale3b_branch2b
I0118 23:34:22.355882 30106 net.cpp:444] scale3b_branch2b <- res3b_branch2b
I0118 23:34:22.355885 30106 net.cpp:405] scale3b_branch2b -> res3b_branch2b (in-place)
I0118 23:34:22.355914 30106 layer_factory.hpp:77] Creating layer scale3b_branch2b
I0118 23:34:22.356039 30106 net.cpp:150] Setting up scale3b_branch2b
I0118 23:34:22.356043 30106 net.cpp:157] Top shape: 1 128 75 125 (1200000)
I0118 23:34:22.356045 30106 net.cpp:165] Memory required for data: 1620000084
I0118 23:34:22.356050 30106 layer_factory.hpp:77] Creating layer res3b_branch2b_relu
I0118 23:34:22.356055 30106 net.cpp:100] Creating Layer res3b_branch2b_relu
I0118 23:34:22.356058 30106 net.cpp:444] res3b_branch2b_relu <- res3b_branch2b
I0118 23:34:22.356061 30106 net.cpp:405] res3b_branch2b_relu -> res3b_branch2b (in-place)
I0118 23:34:22.356537 30106 net.cpp:150] Setting up res3b_branch2b_relu
I0118 23:34:22.356545 30106 net.cpp:157] Top shape: 1 128 75 125 (1200000)
I0118 23:34:22.356549 30106 net.cpp:165] Memory required for data: 1624800084
I0118 23:34:22.356550 30106 layer_factory.hpp:77] Creating layer res3b_branch2c
I0118 23:34:22.356556 30106 net.cpp:100] Creating Layer res3b_branch2c
I0118 23:34:22.356559 30106 net.cpp:444] res3b_branch2c <- res3b_branch2b
I0118 23:34:22.356565 30106 net.cpp:418] res3b_branch2c -> res3b_branch2c
I0118 23:34:22.357523 30106 net.cpp:150] Setting up res3b_branch2c
I0118 23:34:22.357532 30106 net.cpp:157] Top shape: 1 512 75 125 (4800000)
I0118 23:34:22.357534 30106 net.cpp:165] Memory required for data: 1644000084
I0118 23:34:22.357538 30106 layer_factory.hpp:77] Creating layer bn3b_branch2c
I0118 23:34:22.357544 30106 net.cpp:100] Creating Layer bn3b_branch2c
I0118 23:34:22.357547 30106 net.cpp:444] bn3b_branch2c <- res3b_branch2c
I0118 23:34:22.357553 30106 net.cpp:405] bn3b_branch2c -> res3b_branch2c (in-place)
I0118 23:34:22.357712 30106 net.cpp:150] Setting up bn3b_branch2c
I0118 23:34:22.357717 30106 net.cpp:157] Top shape: 1 512 75 125 (4800000)
I0118 23:34:22.357719 30106 net.cpp:165] Memory required for data: 1663200084
I0118 23:34:22.357724 30106 layer_factory.hpp:77] Creating layer scale3b_branch2c
I0118 23:34:22.357728 30106 net.cpp:100] Creating Layer scale3b_branch2c
I0118 23:34:22.357731 30106 net.cpp:444] scale3b_branch2c <- res3b_branch2c
I0118 23:34:22.357734 30106 net.cpp:405] scale3b_branch2c -> res3b_branch2c (in-place)
I0118 23:34:22.357761 30106 layer_factory.hpp:77] Creating layer scale3b_branch2c
I0118 23:34:22.357892 30106 net.cpp:150] Setting up scale3b_branch2c
I0118 23:34:22.357897 30106 net.cpp:157] Top shape: 1 512 75 125 (4800000)
I0118 23:34:22.357898 30106 net.cpp:165] Memory required for data: 1682400084
I0118 23:34:22.357903 30106 layer_factory.hpp:77] Creating layer res3b
I0118 23:34:22.357906 30106 net.cpp:100] Creating Layer res3b
I0118 23:34:22.357909 30106 net.cpp:444] res3b <- res3a_res3a_relu_0_split_1
I0118 23:34:22.357913 30106 net.cpp:444] res3b <- res3b_branch2c
I0118 23:34:22.357934 30106 net.cpp:418] res3b -> res3b
I0118 23:34:22.357966 30106 net.cpp:150] Setting up res3b
I0118 23:34:22.357970 30106 net.cpp:157] Top shape: 1 512 75 125 (4800000)
I0118 23:34:22.357972 30106 net.cpp:165] Memory required for data: 1701600084
I0118 23:34:22.357975 30106 layer_factory.hpp:77] Creating layer res3b_relu
I0118 23:34:22.357980 30106 net.cpp:100] Creating Layer res3b_relu
I0118 23:34:22.357982 30106 net.cpp:444] res3b_relu <- res3b
I0118 23:34:22.357985 30106 net.cpp:405] res3b_relu -> res3b (in-place)
I0118 23:34:22.358120 30106 net.cpp:150] Setting up res3b_relu
I0118 23:34:22.358127 30106 net.cpp:157] Top shape: 1 512 75 125 (4800000)
I0118 23:34:22.358129 30106 net.cpp:165] Memory required for data: 1720800084
I0118 23:34:22.358131 30106 layer_factory.hpp:77] Creating layer res3b_res3b_relu_0_split
I0118 23:34:22.358135 30106 net.cpp:100] Creating Layer res3b_res3b_relu_0_split
I0118 23:34:22.358139 30106 net.cpp:444] res3b_res3b_relu_0_split <- res3b
I0118 23:34:22.358144 30106 net.cpp:418] res3b_res3b_relu_0_split -> res3b_res3b_relu_0_split_0
I0118 23:34:22.358148 30106 net.cpp:418] res3b_res3b_relu_0_split -> res3b_res3b_relu_0_split_1
I0118 23:34:22.358180 30106 net.cpp:150] Setting up res3b_res3b_relu_0_split
I0118 23:34:22.358186 30106 net.cpp:157] Top shape: 1 512 75 125 (4800000)
I0118 23:34:22.358187 30106 net.cpp:157] Top shape: 1 512 75 125 (4800000)
I0118 23:34:22.358189 30106 net.cpp:165] Memory required for data: 1759200084
I0118 23:34:22.358191 30106 layer_factory.hpp:77] Creating layer res3c_branch2a
I0118 23:34:22.358198 30106 net.cpp:100] Creating Layer res3c_branch2a
I0118 23:34:22.358201 30106 net.cpp:444] res3c_branch2a <- res3b_res3b_relu_0_split_0
I0118 23:34:22.358206 30106 net.cpp:418] res3c_branch2a -> res3c_branch2a
I0118 23:34:22.359127 30106 net.cpp:150] Setting up res3c_branch2a
I0118 23:34:22.359136 30106 net.cpp:157] Top shape: 1 128 75 125 (1200000)
I0118 23:34:22.359140 30106 net.cpp:165] Memory required for data: 1764000084
I0118 23:34:22.359143 30106 layer_factory.hpp:77] Creating layer bn3c_branch2a
I0118 23:34:22.359150 30106 net.cpp:100] Creating Layer bn3c_branch2a
I0118 23:34:22.359153 30106 net.cpp:444] bn3c_branch2a <- res3c_branch2a
I0118 23:34:22.359158 30106 net.cpp:405] bn3c_branch2a -> res3c_branch2a (in-place)
I0118 23:34:22.359313 30106 net.cpp:150] Setting up bn3c_branch2a
I0118 23:34:22.359318 30106 net.cpp:157] Top shape: 1 128 75 125 (1200000)
I0118 23:34:22.359320 30106 net.cpp:165] Memory required for data: 1768800084
I0118 23:34:22.359324 30106 layer_factory.hpp:77] Creating layer scale3c_branch2a
I0118 23:34:22.359330 30106 net.cpp:100] Creating Layer scale3c_branch2a
I0118 23:34:22.359346 30106 net.cpp:444] scale3c_branch2a <- res3c_branch2a
I0118 23:34:22.359350 30106 net.cpp:405] scale3c_branch2a -> res3c_branch2a (in-place)
I0118 23:34:22.359400 30106 layer_factory.hpp:77] Creating layer scale3c_branch2a
I0118 23:34:22.359544 30106 net.cpp:150] Setting up scale3c_branch2a
I0118 23:34:22.359549 30106 net.cpp:157] Top shape: 1 128 75 125 (1200000)
I0118 23:34:22.359551 30106 net.cpp:165] Memory required for data: 1773600084
I0118 23:34:22.359555 30106 layer_factory.hpp:77] Creating layer res3c_branch2a_relu
I0118 23:34:22.359560 30106 net.cpp:100] Creating Layer res3c_branch2a_relu
I0118 23:34:22.359563 30106 net.cpp:444] res3c_branch2a_relu <- res3c_branch2a
I0118 23:34:22.359581 30106 net.cpp:405] res3c_branch2a_relu -> res3c_branch2a (in-place)
I0118 23:34:22.359746 30106 net.cpp:150] Setting up res3c_branch2a_relu
I0118 23:34:22.359753 30106 net.cpp:157] Top shape: 1 128 75 125 (1200000)
I0118 23:34:22.359755 30106 net.cpp:165] Memory required for data: 1778400084
I0118 23:34:22.359757 30106 layer_factory.hpp:77] Creating layer res3c_branch2b
I0118 23:34:22.359764 30106 net.cpp:100] Creating Layer res3c_branch2b
I0118 23:34:22.359767 30106 net.cpp:444] res3c_branch2b <- res3c_branch2a
I0118 23:34:22.359786 30106 net.cpp:418] res3c_branch2b -> res3c_branch2b
I0118 23:34:22.361068 30106 net.cpp:150] Setting up res3c_branch2b
I0118 23:34:22.361076 30106 net.cpp:157] Top shape: 1 128 75 125 (1200000)
I0118 23:34:22.361079 30106 net.cpp:165] Memory required for data: 1783200084
I0118 23:34:22.361083 30106 layer_factory.hpp:77] Creating layer bn3c_branch2b
I0118 23:34:22.361090 30106 net.cpp:100] Creating Layer bn3c_branch2b
I0118 23:34:22.361109 30106 net.cpp:444] bn3c_branch2b <- res3c_branch2b
I0118 23:34:22.361114 30106 net.cpp:405] bn3c_branch2b -> res3c_branch2b (in-place)
I0118 23:34:22.361327 30106 net.cpp:150] Setting up bn3c_branch2b
I0118 23:34:22.361333 30106 net.cpp:157] Top shape: 1 128 75 125 (1200000)
I0118 23:34:22.361335 30106 net.cpp:165] Memory required for data: 1788000084
I0118 23:34:22.361340 30106 layer_factory.hpp:77] Creating layer scale3c_branch2b
I0118 23:34:22.361343 30106 net.cpp:100] Creating Layer scale3c_branch2b
I0118 23:34:22.361346 30106 net.cpp:444] scale3c_branch2b <- res3c_branch2b
I0118 23:34:22.361351 30106 net.cpp:405] scale3c_branch2b -> res3c_branch2b (in-place)
I0118 23:34:22.361395 30106 layer_factory.hpp:77] Creating layer scale3c_branch2b
I0118 23:34:22.361531 30106 net.cpp:150] Setting up scale3c_branch2b
I0118 23:34:22.361537 30106 net.cpp:157] Top shape: 1 128 75 125 (1200000)
I0118 23:34:22.361539 30106 net.cpp:165] Memory required for data: 1792800084
I0118 23:34:22.361542 30106 layer_factory.hpp:77] Creating layer res3c_branch2b_relu
I0118 23:34:22.361546 30106 net.cpp:100] Creating Layer res3c_branch2b_relu
I0118 23:34:22.361548 30106 net.cpp:444] res3c_branch2b_relu <- res3c_branch2b
I0118 23:34:22.361552 30106 net.cpp:405] res3c_branch2b_relu -> res3c_branch2b (in-place)
I0118 23:34:22.361723 30106 net.cpp:150] Setting up res3c_branch2b_relu
I0118 23:34:22.361729 30106 net.cpp:157] Top shape: 1 128 75 125 (1200000)
I0118 23:34:22.361732 30106 net.cpp:165] Memory required for data: 1797600084
I0118 23:34:22.361734 30106 layer_factory.hpp:77] Creating layer res3c_branch2c
I0118 23:34:22.361740 30106 net.cpp:100] Creating Layer res3c_branch2c
I0118 23:34:22.361742 30106 net.cpp:444] res3c_branch2c <- res3c_branch2b
I0118 23:34:22.361747 30106 net.cpp:418] res3c_branch2c -> res3c_branch2c
I0118 23:34:22.363312 30106 net.cpp:150] Setting up res3c_branch2c
I0118 23:34:22.363322 30106 net.cpp:157] Top shape: 1 512 75 125 (4800000)
I0118 23:34:22.363324 30106 net.cpp:165] Memory required for data: 1816800084
I0118 23:34:22.363328 30106 layer_factory.hpp:77] Creating layer bn3c_branch2c
I0118 23:34:22.363335 30106 net.cpp:100] Creating Layer bn3c_branch2c
I0118 23:34:22.363353 30106 net.cpp:444] bn3c_branch2c <- res3c_branch2c
I0118 23:34:22.363358 30106 net.cpp:405] bn3c_branch2c -> res3c_branch2c (in-place)
I0118 23:34:22.363570 30106 net.cpp:150] Setting up bn3c_branch2c
I0118 23:34:22.363576 30106 net.cpp:157] Top shape: 1 512 75 125 (4800000)
I0118 23:34:22.363579 30106 net.cpp:165] Memory required for data: 1836000084
I0118 23:34:22.363582 30106 layer_factory.hpp:77] Creating layer scale3c_branch2c
I0118 23:34:22.363587 30106 net.cpp:100] Creating Layer scale3c_branch2c
I0118 23:34:22.363590 30106 net.cpp:444] scale3c_branch2c <- res3c_branch2c
I0118 23:34:22.363593 30106 net.cpp:405] scale3c_branch2c -> res3c_branch2c (in-place)
I0118 23:34:22.363620 30106 layer_factory.hpp:77] Creating layer scale3c_branch2c
I0118 23:34:22.363754 30106 net.cpp:150] Setting up scale3c_branch2c
I0118 23:34:22.363759 30106 net.cpp:157] Top shape: 1 512 75 125 (4800000)
I0118 23:34:22.363762 30106 net.cpp:165] Memory required for data: 1855200084
I0118 23:34:22.363766 30106 layer_factory.hpp:77] Creating layer res3c
I0118 23:34:22.363771 30106 net.cpp:100] Creating Layer res3c
I0118 23:34:22.363775 30106 net.cpp:444] res3c <- res3b_res3b_relu_0_split_1
I0118 23:34:22.363777 30106 net.cpp:444] res3c <- res3c_branch2c
I0118 23:34:22.363782 30106 net.cpp:418] res3c -> res3c
I0118 23:34:22.363801 30106 net.cpp:150] Setting up res3c
I0118 23:34:22.363822 30106 net.cpp:157] Top shape: 1 512 75 125 (4800000)
I0118 23:34:22.363826 30106 net.cpp:165] Memory required for data: 1874400084
I0118 23:34:22.363827 30106 layer_factory.hpp:77] Creating layer res3c_relu
I0118 23:34:22.363843 30106 net.cpp:100] Creating Layer res3c_relu
I0118 23:34:22.363847 30106 net.cpp:444] res3c_relu <- res3c
I0118 23:34:22.363849 30106 net.cpp:405] res3c_relu -> res3c (in-place)
I0118 23:34:22.364051 30106 net.cpp:150] Setting up res3c_relu
I0118 23:34:22.364058 30106 net.cpp:157] Top shape: 1 512 75 125 (4800000)
I0118 23:34:22.364059 30106 net.cpp:165] Memory required for data: 1893600084
I0118 23:34:22.364063 30106 layer_factory.hpp:77] Creating layer res3c_res3c_relu_0_split
I0118 23:34:22.364065 30106 net.cpp:100] Creating Layer res3c_res3c_relu_0_split
I0118 23:34:22.364068 30106 net.cpp:444] res3c_res3c_relu_0_split <- res3c
I0118 23:34:22.364073 30106 net.cpp:418] res3c_res3c_relu_0_split -> res3c_res3c_relu_0_split_0
I0118 23:34:22.364078 30106 net.cpp:418] res3c_res3c_relu_0_split -> res3c_res3c_relu_0_split_1
I0118 23:34:22.364126 30106 net.cpp:150] Setting up res3c_res3c_relu_0_split
I0118 23:34:22.364131 30106 net.cpp:157] Top shape: 1 512 75 125 (4800000)
I0118 23:34:22.364135 30106 net.cpp:157] Top shape: 1 512 75 125 (4800000)
I0118 23:34:22.364136 30106 net.cpp:165] Memory required for data: 1932000084
I0118 23:34:22.364138 30106 layer_factory.hpp:77] Creating layer res3d_branch2a
I0118 23:34:22.364145 30106 net.cpp:100] Creating Layer res3d_branch2a
I0118 23:34:22.364162 30106 net.cpp:444] res3d_branch2a <- res3c_res3c_relu_0_split_0
I0118 23:34:22.364166 30106 net.cpp:418] res3d_branch2a -> res3d_branch2a
I0118 23:34:22.365111 30106 net.cpp:150] Setting up res3d_branch2a
I0118 23:34:22.365120 30106 net.cpp:157] Top shape: 1 128 75 125 (1200000)
I0118 23:34:22.365123 30106 net.cpp:165] Memory required for data: 1936800084
I0118 23:34:22.365128 30106 layer_factory.hpp:77] Creating layer bn3d_branch2a
I0118 23:34:22.365133 30106 net.cpp:100] Creating Layer bn3d_branch2a
I0118 23:34:22.365135 30106 net.cpp:444] bn3d_branch2a <- res3d_branch2a
I0118 23:34:22.365157 30106 net.cpp:405] bn3d_branch2a -> res3d_branch2a (in-place)
I0118 23:34:22.365358 30106 net.cpp:150] Setting up bn3d_branch2a
I0118 23:34:22.365363 30106 net.cpp:157] Top shape: 1 128 75 125 (1200000)
I0118 23:34:22.365366 30106 net.cpp:165] Memory required for data: 1941600084
I0118 23:34:22.365376 30106 layer_factory.hpp:77] Creating layer scale3d_branch2a
I0118 23:34:22.365397 30106 net.cpp:100] Creating Layer scale3d_branch2a
I0118 23:34:22.365401 30106 net.cpp:444] scale3d_branch2a <- res3d_branch2a
I0118 23:34:22.365404 30106 net.cpp:405] scale3d_branch2a -> res3d_branch2a (in-place)
I0118 23:34:22.365435 30106 layer_factory.hpp:77] Creating layer scale3d_branch2a
I0118 23:34:22.365573 30106 net.cpp:150] Setting up scale3d_branch2a
I0118 23:34:22.365579 30106 net.cpp:157] Top shape: 1 128 75 125 (1200000)
I0118 23:34:22.365582 30106 net.cpp:165] Memory required for data: 1946400084
I0118 23:34:22.365586 30106 layer_factory.hpp:77] Creating layer res3d_branch2a_relu
I0118 23:34:22.365592 30106 net.cpp:100] Creating Layer res3d_branch2a_relu
I0118 23:34:22.365609 30106 net.cpp:444] res3d_branch2a_relu <- res3d_branch2a
I0118 23:34:22.365613 30106 net.cpp:405] res3d_branch2a_relu -> res3d_branch2a (in-place)
I0118 23:34:22.365766 30106 net.cpp:150] Setting up res3d_branch2a_relu
I0118 23:34:22.365772 30106 net.cpp:157] Top shape: 1 128 75 125 (1200000)
I0118 23:34:22.365774 30106 net.cpp:165] Memory required for data: 1951200084
I0118 23:34:22.365777 30106 layer_factory.hpp:77] Creating layer res3d_branch2b
I0118 23:34:22.365785 30106 net.cpp:100] Creating Layer res3d_branch2b
I0118 23:34:22.365803 30106 net.cpp:444] res3d_branch2b <- res3d_branch2a
I0118 23:34:22.365808 30106 net.cpp:418] res3d_branch2b -> res3d_branch2b
I0118 23:34:22.367100 30106 net.cpp:150] Setting up res3d_branch2b
I0118 23:34:22.367110 30106 net.cpp:157] Top shape: 1 128 75 125 (1200000)
I0118 23:34:22.367112 30106 net.cpp:165] Memory required for data: 1956000084
I0118 23:34:22.367116 30106 layer_factory.hpp:77] Creating layer bn3d_branch2b
I0118 23:34:22.367123 30106 net.cpp:100] Creating Layer bn3d_branch2b
I0118 23:34:22.367141 30106 net.cpp:444] bn3d_branch2b <- res3d_branch2b
I0118 23:34:22.367146 30106 net.cpp:405] bn3d_branch2b -> res3d_branch2b (in-place)
I0118 23:34:22.367322 30106 net.cpp:150] Setting up bn3d_branch2b
I0118 23:34:22.367327 30106 net.cpp:157] Top shape: 1 128 75 125 (1200000)
I0118 23:34:22.367329 30106 net.cpp:165] Memory required for data: 1960800084
I0118 23:34:22.367334 30106 layer_factory.hpp:77] Creating layer scale3d_branch2b
I0118 23:34:22.367339 30106 net.cpp:100] Creating Layer scale3d_branch2b
I0118 23:34:22.367341 30106 net.cpp:444] scale3d_branch2b <- res3d_branch2b
I0118 23:34:22.367360 30106 net.cpp:405] scale3d_branch2b -> res3d_branch2b (in-place)
I0118 23:34:22.367410 30106 layer_factory.hpp:77] Creating layer scale3d_branch2b
I0118 23:34:22.367537 30106 net.cpp:150] Setting up scale3d_branch2b
I0118 23:34:22.367542 30106 net.cpp:157] Top shape: 1 128 75 125 (1200000)
I0118 23:34:22.367544 30106 net.cpp:165] Memory required for data: 1965600084
I0118 23:34:22.367548 30106 layer_factory.hpp:77] Creating layer res3d_branch2b_relu
I0118 23:34:22.367552 30106 net.cpp:100] Creating Layer res3d_branch2b_relu
I0118 23:34:22.367555 30106 net.cpp:444] res3d_branch2b_relu <- res3d_branch2b
I0118 23:34:22.367559 30106 net.cpp:405] res3d_branch2b_relu -> res3d_branch2b (in-place)
I0118 23:34:22.368037 30106 net.cpp:150] Setting up res3d_branch2b_relu
I0118 23:34:22.368046 30106 net.cpp:157] Top shape: 1 128 75 125 (1200000)
I0118 23:34:22.368049 30106 net.cpp:165] Memory required for data: 1970400084
I0118 23:34:22.368052 30106 layer_factory.hpp:77] Creating layer res3d_branch2c
I0118 23:34:22.368057 30106 net.cpp:100] Creating Layer res3d_branch2c
I0118 23:34:22.368060 30106 net.cpp:444] res3d_branch2c <- res3d_branch2b
I0118 23:34:22.368067 30106 net.cpp:418] res3d_branch2c -> res3d_branch2c
I0118 23:34:22.369014 30106 net.cpp:150] Setting up res3d_branch2c
I0118 23:34:22.369021 30106 net.cpp:157] Top shape: 1 512 75 125 (4800000)
I0118 23:34:22.369024 30106 net.cpp:165] Memory required for data: 1989600084
I0118 23:34:22.369029 30106 layer_factory.hpp:77] Creating layer bn3d_branch2c
I0118 23:34:22.369033 30106 net.cpp:100] Creating Layer bn3d_branch2c
I0118 23:34:22.369036 30106 net.cpp:444] bn3d_branch2c <- res3d_branch2c
I0118 23:34:22.369040 30106 net.cpp:405] bn3d_branch2c -> res3d_branch2c (in-place)
I0118 23:34:22.369204 30106 net.cpp:150] Setting up bn3d_branch2c
I0118 23:34:22.369208 30106 net.cpp:157] Top shape: 1 512 75 125 (4800000)
I0118 23:34:22.369210 30106 net.cpp:165] Memory required for data: 2008800084
I0118 23:34:22.369215 30106 layer_factory.hpp:77] Creating layer scale3d_branch2c
I0118 23:34:22.369218 30106 net.cpp:100] Creating Layer scale3d_branch2c
I0118 23:34:22.369221 30106 net.cpp:444] scale3d_branch2c <- res3d_branch2c
I0118 23:34:22.369225 30106 net.cpp:405] scale3d_branch2c -> res3d_branch2c (in-place)
I0118 23:34:22.369251 30106 layer_factory.hpp:77] Creating layer scale3d_branch2c
I0118 23:34:22.369354 30106 net.cpp:150] Setting up scale3d_branch2c
I0118 23:34:22.369361 30106 net.cpp:157] Top shape: 1 512 75 125 (4800000)
I0118 23:34:22.369364 30106 net.cpp:165] Memory required for data: 2028000084
I0118 23:34:22.369367 30106 layer_factory.hpp:77] Creating layer res3d
I0118 23:34:22.369371 30106 net.cpp:100] Creating Layer res3d
I0118 23:34:22.369374 30106 net.cpp:444] res3d <- res3c_res3c_relu_0_split_1
I0118 23:34:22.369376 30106 net.cpp:444] res3d <- res3d_branch2c
I0118 23:34:22.369380 30106 net.cpp:418] res3d -> res3d
I0118 23:34:22.369400 30106 net.cpp:150] Setting up res3d
I0118 23:34:22.369403 30106 net.cpp:157] Top shape: 1 512 75 125 (4800000)
I0118 23:34:22.369405 30106 net.cpp:165] Memory required for data: 2047200084
I0118 23:34:22.369407 30106 layer_factory.hpp:77] Creating layer res3d_relu
I0118 23:34:22.369412 30106 net.cpp:100] Creating Layer res3d_relu
I0118 23:34:22.369415 30106 net.cpp:444] res3d_relu <- res3d
I0118 23:34:22.369417 30106 net.cpp:405] res3d_relu -> res3d (in-place)
I0118 23:34:22.369611 30106 net.cpp:150] Setting up res3d_relu
I0118 23:34:22.369619 30106 net.cpp:157] Top shape: 1 512 75 125 (4800000)
I0118 23:34:22.369621 30106 net.cpp:165] Memory required for data: 2066400084
I0118 23:34:22.369624 30106 layer_factory.hpp:77] Creating layer res3d_res3d_relu_0_split
I0118 23:34:22.369627 30106 net.cpp:100] Creating Layer res3d_res3d_relu_0_split
I0118 23:34:22.369632 30106 net.cpp:444] res3d_res3d_relu_0_split <- res3d
I0118 23:34:22.369635 30106 net.cpp:418] res3d_res3d_relu_0_split -> res3d_res3d_relu_0_split_0
I0118 23:34:22.369640 30106 net.cpp:418] res3d_res3d_relu_0_split -> res3d_res3d_relu_0_split_1
I0118 23:34:22.369699 30106 net.cpp:150] Setting up res3d_res3d_relu_0_split
I0118 23:34:22.369704 30106 net.cpp:157] Top shape: 1 512 75 125 (4800000)
I0118 23:34:22.369707 30106 net.cpp:157] Top shape: 1 512 75 125 (4800000)
I0118 23:34:22.369709 30106 net.cpp:165] Memory required for data: 2104800084
I0118 23:34:22.369712 30106 layer_factory.hpp:77] Creating layer res4a_branch1
I0118 23:34:22.369719 30106 net.cpp:100] Creating Layer res4a_branch1
I0118 23:34:22.369737 30106 net.cpp:444] res4a_branch1 <- res3d_res3d_relu_0_split_0
I0118 23:34:22.369741 30106 net.cpp:418] res4a_branch1 -> res4a_branch1
I0118 23:34:22.371649 30106 net.cpp:150] Setting up res4a_branch1
I0118 23:34:22.371665 30106 net.cpp:157] Top shape: 1 1024 38 63 (2451456)
I0118 23:34:22.371666 30106 net.cpp:165] Memory required for data: 2114605908
I0118 23:34:22.371671 30106 layer_factory.hpp:77] Creating layer bn4a_branch1
I0118 23:34:22.371693 30106 net.cpp:100] Creating Layer bn4a_branch1
I0118 23:34:22.371696 30106 net.cpp:444] bn4a_branch1 <- res4a_branch1
I0118 23:34:22.371704 30106 net.cpp:405] bn4a_branch1 -> res4a_branch1 (in-place)
I0118 23:34:22.371899 30106 net.cpp:150] Setting up bn4a_branch1
I0118 23:34:22.371906 30106 net.cpp:157] Top shape: 1 1024 38 63 (2451456)
I0118 23:34:22.371907 30106 net.cpp:165] Memory required for data: 2124411732
I0118 23:34:22.371912 30106 layer_factory.hpp:77] Creating layer scale4a_branch1
I0118 23:34:22.371917 30106 net.cpp:100] Creating Layer scale4a_branch1
I0118 23:34:22.371920 30106 net.cpp:444] scale4a_branch1 <- res4a_branch1
I0118 23:34:22.371923 30106 net.cpp:405] scale4a_branch1 -> res4a_branch1 (in-place)
I0118 23:34:22.371968 30106 layer_factory.hpp:77] Creating layer scale4a_branch1
I0118 23:34:22.372123 30106 net.cpp:150] Setting up scale4a_branch1
I0118 23:34:22.372128 30106 net.cpp:157] Top shape: 1 1024 38 63 (2451456)
I0118 23:34:22.372129 30106 net.cpp:165] Memory required for data: 2134217556
I0118 23:34:22.372133 30106 layer_factory.hpp:77] Creating layer res4a_branch2a
I0118 23:34:22.372139 30106 net.cpp:100] Creating Layer res4a_branch2a
I0118 23:34:22.372143 30106 net.cpp:444] res4a_branch2a <- res3d_res3d_relu_0_split_1
I0118 23:34:22.372148 30106 net.cpp:418] res4a_branch2a -> res4a_branch2a
I0118 23:34:22.373770 30106 net.cpp:150] Setting up res4a_branch2a
I0118 23:34:22.373780 30106 net.cpp:157] Top shape: 1 256 38 63 (612864)
I0118 23:34:22.373782 30106 net.cpp:165] Memory required for data: 2136669012
I0118 23:34:22.373787 30106 layer_factory.hpp:77] Creating layer bn4a_branch2a
I0118 23:34:22.373808 30106 net.cpp:100] Creating Layer bn4a_branch2a
I0118 23:34:22.373811 30106 net.cpp:444] bn4a_branch2a <- res4a_branch2a
I0118 23:34:22.373816 30106 net.cpp:405] bn4a_branch2a -> res4a_branch2a (in-place)
I0118 23:34:22.373996 30106 net.cpp:150] Setting up bn4a_branch2a
I0118 23:34:22.374001 30106 net.cpp:157] Top shape: 1 256 38 63 (612864)
I0118 23:34:22.374002 30106 net.cpp:165] Memory required for data: 2139120468
I0118 23:34:22.374007 30106 layer_factory.hpp:77] Creating layer scale4a_branch2a
I0118 23:34:22.374012 30106 net.cpp:100] Creating Layer scale4a_branch2a
I0118 23:34:22.374014 30106 net.cpp:444] scale4a_branch2a <- res4a_branch2a
I0118 23:34:22.374017 30106 net.cpp:405] scale4a_branch2a -> res4a_branch2a (in-place)
I0118 23:34:22.374047 30106 layer_factory.hpp:77] Creating layer scale4a_branch2a
I0118 23:34:22.374167 30106 net.cpp:150] Setting up scale4a_branch2a
I0118 23:34:22.374172 30106 net.cpp:157] Top shape: 1 256 38 63 (612864)
I0118 23:34:22.374174 30106 net.cpp:165] Memory required for data: 2141571924
I0118 23:34:22.374178 30106 layer_factory.hpp:77] Creating layer res4a_branch2a_relu
I0118 23:34:22.374182 30106 net.cpp:100] Creating Layer res4a_branch2a_relu
I0118 23:34:22.374184 30106 net.cpp:444] res4a_branch2a_relu <- res4a_branch2a
I0118 23:34:22.374189 30106 net.cpp:405] res4a_branch2a_relu -> res4a_branch2a (in-place)
I0118 23:34:22.374331 30106 net.cpp:150] Setting up res4a_branch2a_relu
I0118 23:34:22.374338 30106 net.cpp:157] Top shape: 1 256 38 63 (612864)
I0118 23:34:22.374341 30106 net.cpp:165] Memory required for data: 2144023380
I0118 23:34:22.374342 30106 layer_factory.hpp:77] Creating layer res4a_branch2b
I0118 23:34:22.374348 30106 net.cpp:100] Creating Layer res4a_branch2b
I0118 23:34:22.374351 30106 net.cpp:444] res4a_branch2b <- res4a_branch2a
I0118 23:34:22.374356 30106 net.cpp:418] res4a_branch2b -> res4a_branch2b
I0118 23:34:22.376555 30106 net.cpp:150] Setting up res4a_branch2b
I0118 23:34:22.376566 30106 net.cpp:157] Top shape: 1 256 38 63 (612864)
I0118 23:34:22.376569 30106 net.cpp:165] Memory required for data: 2146474836
I0118 23:34:22.376574 30106 layer_factory.hpp:77] Creating layer bn4a_branch2b
I0118 23:34:22.376581 30106 net.cpp:100] Creating Layer bn4a_branch2b
I0118 23:34:22.376585 30106 net.cpp:444] bn4a_branch2b <- res4a_branch2b
I0118 23:34:22.376590 30106 net.cpp:405] bn4a_branch2b -> res4a_branch2b (in-place)
I0118 23:34:22.376754 30106 net.cpp:150] Setting up bn4a_branch2b
I0118 23:34:22.376760 30106 net.cpp:157] Top shape: 1 256 38 63 (612864)
I0118 23:34:22.376762 30106 net.cpp:165] Memory required for data: 2148926292
I0118 23:34:22.376766 30106 layer_factory.hpp:77] Creating layer scale4a_branch2b
I0118 23:34:22.376771 30106 net.cpp:100] Creating Layer scale4a_branch2b
I0118 23:34:22.376773 30106 net.cpp:444] scale4a_branch2b <- res4a_branch2b
I0118 23:34:22.376778 30106 net.cpp:405] scale4a_branch2b -> res4a_branch2b (in-place)
I0118 23:34:22.376811 30106 layer_factory.hpp:77] Creating layer scale4a_branch2b
I0118 23:34:22.376931 30106 net.cpp:150] Setting up scale4a_branch2b
I0118 23:34:22.376936 30106 net.cpp:157] Top shape: 1 256 38 63 (612864)
I0118 23:34:22.376938 30106 net.cpp:165] Memory required for data: 2151377748
I0118 23:34:22.376942 30106 layer_factory.hpp:77] Creating layer res4a_branch2b_relu
I0118 23:34:22.376945 30106 net.cpp:100] Creating Layer res4a_branch2b_relu
I0118 23:34:22.376948 30106 net.cpp:444] res4a_branch2b_relu <- res4a_branch2b
I0118 23:34:22.376952 30106 net.cpp:405] res4a_branch2b_relu -> res4a_branch2b (in-place)
I0118 23:34:22.377130 30106 net.cpp:150] Setting up res4a_branch2b_relu
I0118 23:34:22.377136 30106 net.cpp:157] Top shape: 1 256 38 63 (612864)
I0118 23:34:22.377138 30106 net.cpp:165] Memory required for data: 2153829204
I0118 23:34:22.377140 30106 layer_factory.hpp:77] Creating layer res4a_branch2c
I0118 23:34:22.377146 30106 net.cpp:100] Creating Layer res4a_branch2c
I0118 23:34:22.377149 30106 net.cpp:444] res4a_branch2c <- res4a_branch2b
I0118 23:34:22.377154 30106 net.cpp:418] res4a_branch2c -> res4a_branch2c
I0118 23:34:22.378267 30106 net.cpp:150] Setting up res4a_branch2c
I0118 23:34:22.378275 30106 net.cpp:157] Top shape: 1 1024 38 63 (2451456)
I0118 23:34:22.378278 30106 net.cpp:165] Memory required for data: 2163635028
I0118 23:34:22.378283 30106 layer_factory.hpp:77] Creating layer bn4a_branch2c
I0118 23:34:22.378288 30106 net.cpp:100] Creating Layer bn4a_branch2c
I0118 23:34:22.378290 30106 net.cpp:444] bn4a_branch2c <- res4a_branch2c
I0118 23:34:22.378295 30106 net.cpp:405] bn4a_branch2c -> res4a_branch2c (in-place)
I0118 23:34:22.378489 30106 net.cpp:150] Setting up bn4a_branch2c
I0118 23:34:22.378494 30106 net.cpp:157] Top shape: 1 1024 38 63 (2451456)
I0118 23:34:22.378495 30106 net.cpp:165] Memory required for data: 2173440852
I0118 23:34:22.378500 30106 layer_factory.hpp:77] Creating layer scale4a_branch2c
I0118 23:34:22.378505 30106 net.cpp:100] Creating Layer scale4a_branch2c
I0118 23:34:22.378509 30106 net.cpp:444] scale4a_branch2c <- res4a_branch2c
I0118 23:34:22.378511 30106 net.cpp:405] scale4a_branch2c -> res4a_branch2c (in-place)
I0118 23:34:22.378553 30106 layer_factory.hpp:77] Creating layer scale4a_branch2c
I0118 23:34:22.378717 30106 net.cpp:150] Setting up scale4a_branch2c
I0118 23:34:22.378721 30106 net.cpp:157] Top shape: 1 1024 38 63 (2451456)
I0118 23:34:22.378723 30106 net.cpp:165] Memory required for data: 2183246676
I0118 23:34:22.378727 30106 layer_factory.hpp:77] Creating layer res4a
I0118 23:34:22.378737 30106 net.cpp:100] Creating Layer res4a
I0118 23:34:22.378739 30106 net.cpp:444] res4a <- res4a_branch1
I0118 23:34:22.378742 30106 net.cpp:444] res4a <- res4a_branch2c
I0118 23:34:22.378746 30106 net.cpp:418] res4a -> res4a
I0118 23:34:22.378764 30106 net.cpp:150] Setting up res4a
I0118 23:34:22.378784 30106 net.cpp:157] Top shape: 1 1024 38 63 (2451456)
I0118 23:34:22.378787 30106 net.cpp:165] Memory required for data: 2193052500
I0118 23:34:22.378789 30106 layer_factory.hpp:77] Creating layer res4a_relu
I0118 23:34:22.378793 30106 net.cpp:100] Creating Layer res4a_relu
I0118 23:34:22.378795 30106 net.cpp:444] res4a_relu <- res4a
I0118 23:34:22.378798 30106 net.cpp:405] res4a_relu -> res4a (in-place)
I0118 23:34:22.378963 30106 net.cpp:150] Setting up res4a_relu
I0118 23:34:22.378969 30106 net.cpp:157] Top shape: 1 1024 38 63 (2451456)
I0118 23:34:22.378971 30106 net.cpp:165] Memory required for data: 2202858324
I0118 23:34:22.378973 30106 layer_factory.hpp:77] Creating layer res4a_res4a_relu_0_split
I0118 23:34:22.378979 30106 net.cpp:100] Creating Layer res4a_res4a_relu_0_split
I0118 23:34:22.378981 30106 net.cpp:444] res4a_res4a_relu_0_split <- res4a
I0118 23:34:22.378985 30106 net.cpp:418] res4a_res4a_relu_0_split -> res4a_res4a_relu_0_split_0
I0118 23:34:22.378989 30106 net.cpp:418] res4a_res4a_relu_0_split -> res4a_res4a_relu_0_split_1
I0118 23:34:22.379050 30106 net.cpp:150] Setting up res4a_res4a_relu_0_split
I0118 23:34:22.379055 30106 net.cpp:157] Top shape: 1 1024 38 63 (2451456)
I0118 23:34:22.379058 30106 net.cpp:157] Top shape: 1 1024 38 63 (2451456)
I0118 23:34:22.379060 30106 net.cpp:165] Memory required for data: 2222469972
I0118 23:34:22.379062 30106 layer_factory.hpp:77] Creating layer res4b_branch2a
I0118 23:34:22.379068 30106 net.cpp:100] Creating Layer res4b_branch2a
I0118 23:34:22.379071 30106 net.cpp:444] res4b_branch2a <- res4a_res4a_relu_0_split_0
I0118 23:34:22.379076 30106 net.cpp:418] res4b_branch2a -> res4b_branch2a
I0118 23:34:22.381139 30106 net.cpp:150] Setting up res4b_branch2a
I0118 23:34:22.381155 30106 net.cpp:157] Top shape: 1 256 38 63 (612864)
I0118 23:34:22.381157 30106 net.cpp:165] Memory required for data: 2224921428
I0118 23:34:22.381163 30106 layer_factory.hpp:77] Creating layer bn4b_branch2a
I0118 23:34:22.381171 30106 net.cpp:100] Creating Layer bn4b_branch2a
I0118 23:34:22.381175 30106 net.cpp:444] bn4b_branch2a <- res4b_branch2a
I0118 23:34:22.381182 30106 net.cpp:405] bn4b_branch2a -> res4b_branch2a (in-place)
I0118 23:34:22.381409 30106 net.cpp:150] Setting up bn4b_branch2a
I0118 23:34:22.381415 30106 net.cpp:157] Top shape: 1 256 38 63 (612864)
I0118 23:34:22.381417 30106 net.cpp:165] Memory required for data: 2227372884
I0118 23:34:22.381422 30106 layer_factory.hpp:77] Creating layer scale4b_branch2a
I0118 23:34:22.381428 30106 net.cpp:100] Creating Layer scale4b_branch2a
I0118 23:34:22.381430 30106 net.cpp:444] scale4b_branch2a <- res4b_branch2a
I0118 23:34:22.381435 30106 net.cpp:405] scale4b_branch2a -> res4b_branch2a (in-place)
I0118 23:34:22.381480 30106 layer_factory.hpp:77] Creating layer scale4b_branch2a
I0118 23:34:22.381614 30106 net.cpp:150] Setting up scale4b_branch2a
I0118 23:34:22.381619 30106 net.cpp:157] Top shape: 1 256 38 63 (612864)
I0118 23:34:22.381621 30106 net.cpp:165] Memory required for data: 2229824340
I0118 23:34:22.381625 30106 layer_factory.hpp:77] Creating layer res4b_branch2a_relu
I0118 23:34:22.381630 30106 net.cpp:100] Creating Layer res4b_branch2a_relu
I0118 23:34:22.381633 30106 net.cpp:444] res4b_branch2a_relu <- res4b_branch2a
I0118 23:34:22.381636 30106 net.cpp:405] res4b_branch2a_relu -> res4b_branch2a (in-place)
I0118 23:34:22.381790 30106 net.cpp:150] Setting up res4b_branch2a_relu
I0118 23:34:22.381795 30106 net.cpp:157] Top shape: 1 256 38 63 (612864)
I0118 23:34:22.381798 30106 net.cpp:165] Memory required for data: 2232275796
I0118 23:34:22.381799 30106 layer_factory.hpp:77] Creating layer res4b_branch2b
I0118 23:34:22.381808 30106 net.cpp:100] Creating Layer res4b_branch2b
I0118 23:34:22.381809 30106 net.cpp:444] res4b_branch2b <- res4b_branch2a
I0118 23:34:22.381814 30106 net.cpp:418] res4b_branch2b -> res4b_branch2b
I0118 23:34:22.384208 30106 net.cpp:150] Setting up res4b_branch2b
I0118 23:34:22.384225 30106 net.cpp:157] Top shape: 1 256 38 63 (612864)
I0118 23:34:22.384227 30106 net.cpp:165] Memory required for data: 2234727252
I0118 23:34:22.384234 30106 layer_factory.hpp:77] Creating layer bn4b_branch2b
I0118 23:34:22.384243 30106 net.cpp:100] Creating Layer bn4b_branch2b
I0118 23:34:22.384245 30106 net.cpp:444] bn4b_branch2b <- res4b_branch2b
I0118 23:34:22.384250 30106 net.cpp:405] bn4b_branch2b -> res4b_branch2b (in-place)
I0118 23:34:22.384479 30106 net.cpp:150] Setting up bn4b_branch2b
I0118 23:34:22.384485 30106 net.cpp:157] Top shape: 1 256 38 63 (612864)
I0118 23:34:22.384486 30106 net.cpp:165] Memory required for data: 2237178708
I0118 23:34:22.384491 30106 layer_factory.hpp:77] Creating layer scale4b_branch2b
I0118 23:34:22.384498 30106 net.cpp:100] Creating Layer scale4b_branch2b
I0118 23:34:22.384500 30106 net.cpp:444] scale4b_branch2b <- res4b_branch2b
I0118 23:34:22.384503 30106 net.cpp:405] scale4b_branch2b -> res4b_branch2b (in-place)
I0118 23:34:22.384551 30106 layer_factory.hpp:77] Creating layer scale4b_branch2b
I0118 23:34:22.384742 30106 net.cpp:150] Setting up scale4b_branch2b
I0118 23:34:22.384747 30106 net.cpp:157] Top shape: 1 256 38 63 (612864)
I0118 23:34:22.384749 30106 net.cpp:165] Memory required for data: 2239630164
I0118 23:34:22.384753 30106 layer_factory.hpp:77] Creating layer res4b_branch2b_relu
I0118 23:34:22.384760 30106 net.cpp:100] Creating Layer res4b_branch2b_relu
I0118 23:34:22.384763 30106 net.cpp:444] res4b_branch2b_relu <- res4b_branch2b
I0118 23:34:22.384766 30106 net.cpp:405] res4b_branch2b_relu -> res4b_branch2b (in-place)
I0118 23:34:22.385241 30106 net.cpp:150] Setting up res4b_branch2b_relu
I0118 23:34:22.385249 30106 net.cpp:157] Top shape: 1 256 38 63 (612864)
I0118 23:34:22.385252 30106 net.cpp:165] Memory required for data: 2242081620
I0118 23:34:22.385254 30106 layer_factory.hpp:77] Creating layer res4b_branch2c
I0118 23:34:22.385262 30106 net.cpp:100] Creating Layer res4b_branch2c
I0118 23:34:22.385265 30106 net.cpp:444] res4b_branch2c <- res4b_branch2b
I0118 23:34:22.385269 30106 net.cpp:418] res4b_branch2c -> res4b_branch2c
I0118 23:34:22.386329 30106 net.cpp:150] Setting up res4b_branch2c
I0118 23:34:22.386338 30106 net.cpp:157] Top shape: 1 1024 38 63 (2451456)
I0118 23:34:22.386342 30106 net.cpp:165] Memory required for data: 2251887444
I0118 23:34:22.386345 30106 layer_factory.hpp:77] Creating layer bn4b_branch2c
I0118 23:34:22.386350 30106 net.cpp:100] Creating Layer bn4b_branch2c
I0118 23:34:22.386353 30106 net.cpp:444] bn4b_branch2c <- res4b_branch2c
I0118 23:34:22.386358 30106 net.cpp:405] bn4b_branch2c -> res4b_branch2c (in-place)
I0118 23:34:22.386529 30106 net.cpp:150] Setting up bn4b_branch2c
I0118 23:34:22.386534 30106 net.cpp:157] Top shape: 1 1024 38 63 (2451456)
I0118 23:34:22.386536 30106 net.cpp:165] Memory required for data: 2261693268
I0118 23:34:22.386543 30106 layer_factory.hpp:77] Creating layer scale4b_branch2c
I0118 23:34:22.386546 30106 net.cpp:100] Creating Layer scale4b_branch2c
I0118 23:34:22.386549 30106 net.cpp:444] scale4b_branch2c <- res4b_branch2c
I0118 23:34:22.386554 30106 net.cpp:405] scale4b_branch2c -> res4b_branch2c (in-place)
I0118 23:34:22.386582 30106 layer_factory.hpp:77] Creating layer scale4b_branch2c
I0118 23:34:22.386710 30106 net.cpp:150] Setting up scale4b_branch2c
I0118 23:34:22.386716 30106 net.cpp:157] Top shape: 1 1024 38 63 (2451456)
I0118 23:34:22.386718 30106 net.cpp:165] Memory required for data: 2271499092
I0118 23:34:22.386723 30106 layer_factory.hpp:77] Creating layer res4b
I0118 23:34:22.386726 30106 net.cpp:100] Creating Layer res4b
I0118 23:34:22.386729 30106 net.cpp:444] res4b <- res4a_res4a_relu_0_split_1
I0118 23:34:22.386732 30106 net.cpp:444] res4b <- res4b_branch2c
I0118 23:34:22.386736 30106 net.cpp:418] res4b -> res4b
I0118 23:34:22.386755 30106 net.cpp:150] Setting up res4b
I0118 23:34:22.386760 30106 net.cpp:157] Top shape: 1 1024 38 63 (2451456)
I0118 23:34:22.386762 30106 net.cpp:165] Memory required for data: 2281304916
I0118 23:34:22.386765 30106 layer_factory.hpp:77] Creating layer res4b_relu
I0118 23:34:22.386768 30106 net.cpp:100] Creating Layer res4b_relu
I0118 23:34:22.386771 30106 net.cpp:444] res4b_relu <- res4b
I0118 23:34:22.386776 30106 net.cpp:405] res4b_relu -> res4b (in-place)
I0118 23:34:22.387276 30106 net.cpp:150] Setting up res4b_relu
I0118 23:34:22.387285 30106 net.cpp:157] Top shape: 1 1024 38 63 (2451456)
I0118 23:34:22.387287 30106 net.cpp:165] Memory required for data: 2291110740
I0118 23:34:22.387290 30106 layer_factory.hpp:77] Creating layer res4b_res4b_relu_0_split
I0118 23:34:22.387297 30106 net.cpp:100] Creating Layer res4b_res4b_relu_0_split
I0118 23:34:22.387300 30106 net.cpp:444] res4b_res4b_relu_0_split <- res4b
I0118 23:34:22.387305 30106 net.cpp:418] res4b_res4b_relu_0_split -> res4b_res4b_relu_0_split_0
I0118 23:34:22.387310 30106 net.cpp:418] res4b_res4b_relu_0_split -> res4b_res4b_relu_0_split_1
I0118 23:34:22.387346 30106 net.cpp:150] Setting up res4b_res4b_relu_0_split
I0118 23:34:22.387353 30106 net.cpp:157] Top shape: 1 1024 38 63 (2451456)
I0118 23:34:22.387356 30106 net.cpp:157] Top shape: 1 1024 38 63 (2451456)
I0118 23:34:22.387358 30106 net.cpp:165] Memory required for data: 2310722388
I0118 23:34:22.387361 30106 layer_factory.hpp:77] Creating layer res4c_branch2a
I0118 23:34:22.387365 30106 net.cpp:100] Creating Layer res4c_branch2a
I0118 23:34:22.387387 30106 net.cpp:444] res4c_branch2a <- res4b_res4b_relu_0_split_0
I0118 23:34:22.387394 30106 net.cpp:418] res4c_branch2a -> res4c_branch2a
I0118 23:34:22.389168 30106 net.cpp:150] Setting up res4c_branch2a
I0118 23:34:22.389181 30106 net.cpp:157] Top shape: 1 256 38 63 (612864)
I0118 23:34:22.389183 30106 net.cpp:165] Memory required for data: 2313173844
I0118 23:34:22.389189 30106 layer_factory.hpp:77] Creating layer bn4c_branch2a
I0118 23:34:22.389197 30106 net.cpp:100] Creating Layer bn4c_branch2a
I0118 23:34:22.389200 30106 net.cpp:444] bn4c_branch2a <- res4c_branch2a
I0118 23:34:22.389207 30106 net.cpp:405] bn4c_branch2a -> res4c_branch2a (in-place)
I0118 23:34:22.389437 30106 net.cpp:150] Setting up bn4c_branch2a
I0118 23:34:22.389442 30106 net.cpp:157] Top shape: 1 256 38 63 (612864)
I0118 23:34:22.389446 30106 net.cpp:165] Memory required for data: 2315625300
I0118 23:34:22.389449 30106 layer_factory.hpp:77] Creating layer scale4c_branch2a
I0118 23:34:22.389454 30106 net.cpp:100] Creating Layer scale4c_branch2a
I0118 23:34:22.389457 30106 net.cpp:444] scale4c_branch2a <- res4c_branch2a
I0118 23:34:22.389475 30106 net.cpp:405] scale4c_branch2a -> res4c_branch2a (in-place)
I0118 23:34:22.389521 30106 layer_factory.hpp:77] Creating layer scale4c_branch2a
I0118 23:34:22.389644 30106 net.cpp:150] Setting up scale4c_branch2a
I0118 23:34:22.389649 30106 net.cpp:157] Top shape: 1 256 38 63 (612864)
I0118 23:34:22.389652 30106 net.cpp:165] Memory required for data: 2318076756
I0118 23:34:22.389655 30106 layer_factory.hpp:77] Creating layer res4c_branch2a_relu
I0118 23:34:22.389660 30106 net.cpp:100] Creating Layer res4c_branch2a_relu
I0118 23:34:22.389664 30106 net.cpp:444] res4c_branch2a_relu <- res4c_branch2a
I0118 23:34:22.389683 30106 net.cpp:405] res4c_branch2a_relu -> res4c_branch2a (in-place)
I0118 23:34:22.389865 30106 net.cpp:150] Setting up res4c_branch2a_relu
I0118 23:34:22.389873 30106 net.cpp:157] Top shape: 1 256 38 63 (612864)
I0118 23:34:22.389875 30106 net.cpp:165] Memory required for data: 2320528212
I0118 23:34:22.389878 30106 layer_factory.hpp:77] Creating layer res4c_branch2b
I0118 23:34:22.389883 30106 net.cpp:100] Creating Layer res4c_branch2b
I0118 23:34:22.389885 30106 net.cpp:444] res4c_branch2b <- res4c_branch2a
I0118 23:34:22.389905 30106 net.cpp:418] res4c_branch2b -> res4c_branch2b
I0118 23:34:22.392326 30106 net.cpp:150] Setting up res4c_branch2b
I0118 23:34:22.392340 30106 net.cpp:157] Top shape: 1 256 38 63 (612864)
I0118 23:34:22.392343 30106 net.cpp:165] Memory required for data: 2322979668
I0118 23:34:22.392349 30106 layer_factory.hpp:77] Creating layer bn4c_branch2b
I0118 23:34:22.392357 30106 net.cpp:100] Creating Layer bn4c_branch2b
I0118 23:34:22.392360 30106 net.cpp:444] bn4c_branch2b <- res4c_branch2b
I0118 23:34:22.392366 30106 net.cpp:405] bn4c_branch2b -> res4c_branch2b (in-place)
I0118 23:34:22.392593 30106 net.cpp:150] Setting up bn4c_branch2b
I0118 23:34:22.392598 30106 net.cpp:157] Top shape: 1 256 38 63 (612864)
I0118 23:34:22.392601 30106 net.cpp:165] Memory required for data: 2325431124
I0118 23:34:22.392604 30106 layer_factory.hpp:77] Creating layer scale4c_branch2b
I0118 23:34:22.392611 30106 net.cpp:100] Creating Layer scale4c_branch2b
I0118 23:34:22.392612 30106 net.cpp:444] scale4c_branch2b <- res4c_branch2b
I0118 23:34:22.392618 30106 net.cpp:405] scale4c_branch2b -> res4c_branch2b (in-place)
I0118 23:34:22.392652 30106 layer_factory.hpp:77] Creating layer scale4c_branch2b
I0118 23:34:22.392784 30106 net.cpp:150] Setting up scale4c_branch2b
I0118 23:34:22.392789 30106 net.cpp:157] Top shape: 1 256 38 63 (612864)
I0118 23:34:22.392791 30106 net.cpp:165] Memory required for data: 2327882580
I0118 23:34:22.392794 30106 layer_factory.hpp:77] Creating layer res4c_branch2b_relu
I0118 23:34:22.392799 30106 net.cpp:100] Creating Layer res4c_branch2b_relu
I0118 23:34:22.392802 30106 net.cpp:444] res4c_branch2b_relu <- res4c_branch2b
I0118 23:34:22.392805 30106 net.cpp:405] res4c_branch2b_relu -> res4c_branch2b (in-place)
I0118 23:34:22.392957 30106 net.cpp:150] Setting up res4c_branch2b_relu
I0118 23:34:22.392963 30106 net.cpp:157] Top shape: 1 256 38 63 (612864)
I0118 23:34:22.392966 30106 net.cpp:165] Memory required for data: 2330334036
I0118 23:34:22.392968 30106 layer_factory.hpp:77] Creating layer res4c_branch2c
I0118 23:34:22.392976 30106 net.cpp:100] Creating Layer res4c_branch2c
I0118 23:34:22.392978 30106 net.cpp:444] res4c_branch2c <- res4c_branch2b
I0118 23:34:22.392983 30106 net.cpp:418] res4c_branch2c -> res4c_branch2c
I0118 23:34:22.394074 30106 net.cpp:150] Setting up res4c_branch2c
I0118 23:34:22.394083 30106 net.cpp:157] Top shape: 1 1024 38 63 (2451456)
I0118 23:34:22.394086 30106 net.cpp:165] Memory required for data: 2340139860
I0118 23:34:22.394090 30106 layer_factory.hpp:77] Creating layer bn4c_branch2c
I0118 23:34:22.394096 30106 net.cpp:100] Creating Layer bn4c_branch2c
I0118 23:34:22.394099 30106 net.cpp:444] bn4c_branch2c <- res4c_branch2c
I0118 23:34:22.394104 30106 net.cpp:405] bn4c_branch2c -> res4c_branch2c (in-place)
I0118 23:34:22.394275 30106 net.cpp:150] Setting up bn4c_branch2c
I0118 23:34:22.394281 30106 net.cpp:157] Top shape: 1 1024 38 63 (2451456)
I0118 23:34:22.394284 30106 net.cpp:165] Memory required for data: 2349945684
I0118 23:34:22.394289 30106 layer_factory.hpp:77] Creating layer scale4c_branch2c
I0118 23:34:22.394292 30106 net.cpp:100] Creating Layer scale4c_branch2c
I0118 23:34:22.394295 30106 net.cpp:444] scale4c_branch2c <- res4c_branch2c
I0118 23:34:22.394299 30106 net.cpp:405] scale4c_branch2c -> res4c_branch2c (in-place)
I0118 23:34:22.394328 30106 layer_factory.hpp:77] Creating layer scale4c_branch2c
I0118 23:34:22.394456 30106 net.cpp:150] Setting up scale4c_branch2c
I0118 23:34:22.394461 30106 net.cpp:157] Top shape: 1 1024 38 63 (2451456)
I0118 23:34:22.394464 30106 net.cpp:165] Memory required for data: 2359751508
I0118 23:34:22.394469 30106 layer_factory.hpp:77] Creating layer res4c
I0118 23:34:22.394472 30106 net.cpp:100] Creating Layer res4c
I0118 23:34:22.394474 30106 net.cpp:444] res4c <- res4b_res4b_relu_0_split_1
I0118 23:34:22.394477 30106 net.cpp:444] res4c <- res4c_branch2c
I0118 23:34:22.394482 30106 net.cpp:418] res4c -> res4c
I0118 23:34:22.394502 30106 net.cpp:150] Setting up res4c
I0118 23:34:22.394507 30106 net.cpp:157] Top shape: 1 1024 38 63 (2451456)
I0118 23:34:22.394510 30106 net.cpp:165] Memory required for data: 2369557332
I0118 23:34:22.394512 30106 layer_factory.hpp:77] Creating layer res4c_relu
I0118 23:34:22.394515 30106 net.cpp:100] Creating Layer res4c_relu
I0118 23:34:22.394518 30106 net.cpp:444] res4c_relu <- res4c
I0118 23:34:22.394521 30106 net.cpp:405] res4c_relu -> res4c (in-place)
I0118 23:34:22.394701 30106 net.cpp:150] Setting up res4c_relu
I0118 23:34:22.394707 30106 net.cpp:157] Top shape: 1 1024 38 63 (2451456)
I0118 23:34:22.394709 30106 net.cpp:165] Memory required for data: 2379363156
I0118 23:34:22.394711 30106 layer_factory.hpp:77] Creating layer res4c_res4c_relu_0_split
I0118 23:34:22.394716 30106 net.cpp:100] Creating Layer res4c_res4c_relu_0_split
I0118 23:34:22.394718 30106 net.cpp:444] res4c_res4c_relu_0_split <- res4c
I0118 23:34:22.394723 30106 net.cpp:418] res4c_res4c_relu_0_split -> res4c_res4c_relu_0_split_0
I0118 23:34:22.394727 30106 net.cpp:418] res4c_res4c_relu_0_split -> res4c_res4c_relu_0_split_1
I0118 23:34:22.394763 30106 net.cpp:150] Setting up res4c_res4c_relu_0_split
I0118 23:34:22.394768 30106 net.cpp:157] Top shape: 1 1024 38 63 (2451456)
I0118 23:34:22.394771 30106 net.cpp:157] Top shape: 1 1024 38 63 (2451456)
I0118 23:34:22.394773 30106 net.cpp:165] Memory required for data: 2398974804
I0118 23:34:22.394775 30106 layer_factory.hpp:77] Creating layer res4d_branch2a
I0118 23:34:22.394783 30106 net.cpp:100] Creating Layer res4d_branch2a
I0118 23:34:22.394784 30106 net.cpp:444] res4d_branch2a <- res4c_res4c_relu_0_split_0
I0118 23:34:22.394789 30106 net.cpp:418] res4d_branch2a -> res4d_branch2a
I0118 23:34:22.396481 30106 net.cpp:150] Setting up res4d_branch2a
I0118 23:34:22.396494 30106 net.cpp:157] Top shape: 1 256 38 63 (612864)
I0118 23:34:22.396497 30106 net.cpp:165] Memory required for data: 2401426260
I0118 23:34:22.396502 30106 layer_factory.hpp:77] Creating layer bn4d_branch2a
I0118 23:34:22.396507 30106 net.cpp:100] Creating Layer bn4d_branch2a
I0118 23:34:22.396510 30106 net.cpp:444] bn4d_branch2a <- res4d_branch2a
I0118 23:34:22.396514 30106 net.cpp:405] bn4d_branch2a -> res4d_branch2a (in-place)
I0118 23:34:22.396714 30106 net.cpp:150] Setting up bn4d_branch2a
I0118 23:34:22.396720 30106 net.cpp:157] Top shape: 1 256 38 63 (612864)
I0118 23:34:22.396723 30106 net.cpp:165] Memory required for data: 2403877716
I0118 23:34:22.396728 30106 layer_factory.hpp:77] Creating layer scale4d_branch2a
I0118 23:34:22.396733 30106 net.cpp:100] Creating Layer scale4d_branch2a
I0118 23:34:22.396735 30106 net.cpp:444] scale4d_branch2a <- res4d_branch2a
I0118 23:34:22.396739 30106 net.cpp:405] scale4d_branch2a -> res4d_branch2a (in-place)
I0118 23:34:22.396770 30106 layer_factory.hpp:77] Creating layer scale4d_branch2a
I0118 23:34:22.396924 30106 net.cpp:150] Setting up scale4d_branch2a
I0118 23:34:22.396929 30106 net.cpp:157] Top shape: 1 256 38 63 (612864)
I0118 23:34:22.396931 30106 net.cpp:165] Memory required for data: 2406329172
I0118 23:34:22.396935 30106 layer_factory.hpp:77] Creating layer res4d_branch2a_relu
I0118 23:34:22.396940 30106 net.cpp:100] Creating Layer res4d_branch2a_relu
I0118 23:34:22.396944 30106 net.cpp:444] res4d_branch2a_relu <- res4d_branch2a
I0118 23:34:22.396947 30106 net.cpp:405] res4d_branch2a_relu -> res4d_branch2a (in-place)
I0118 23:34:22.397094 30106 net.cpp:150] Setting up res4d_branch2a_relu
I0118 23:34:22.397099 30106 net.cpp:157] Top shape: 1 256 38 63 (612864)
I0118 23:34:22.397101 30106 net.cpp:165] Memory required for data: 2408780628
I0118 23:34:22.397104 30106 layer_factory.hpp:77] Creating layer res4d_branch2b
I0118 23:34:22.397110 30106 net.cpp:100] Creating Layer res4d_branch2b
I0118 23:34:22.397114 30106 net.cpp:444] res4d_branch2b <- res4d_branch2a
I0118 23:34:22.397119 30106 net.cpp:418] res4d_branch2b -> res4d_branch2b
I0118 23:34:22.399315 30106 net.cpp:150] Setting up res4d_branch2b
I0118 23:34:22.399328 30106 net.cpp:157] Top shape: 1 256 38 63 (612864)
I0118 23:34:22.399330 30106 net.cpp:165] Memory required for data: 2411232084
I0118 23:34:22.399335 30106 layer_factory.hpp:77] Creating layer bn4d_branch2b
I0118 23:34:22.399341 30106 net.cpp:100] Creating Layer bn4d_branch2b
I0118 23:34:22.399344 30106 net.cpp:444] bn4d_branch2b <- res4d_branch2b
I0118 23:34:22.399349 30106 net.cpp:405] bn4d_branch2b -> res4d_branch2b (in-place)
I0118 23:34:22.399574 30106 net.cpp:150] Setting up bn4d_branch2b
I0118 23:34:22.399580 30106 net.cpp:157] Top shape: 1 256 38 63 (612864)
I0118 23:34:22.399582 30106 net.cpp:165] Memory required for data: 2413683540
I0118 23:34:22.399587 30106 layer_factory.hpp:77] Creating layer scale4d_branch2b
I0118 23:34:22.399592 30106 net.cpp:100] Creating Layer scale4d_branch2b
I0118 23:34:22.399595 30106 net.cpp:444] scale4d_branch2b <- res4d_branch2b
I0118 23:34:22.399600 30106 net.cpp:405] scale4d_branch2b -> res4d_branch2b (in-place)
I0118 23:34:22.399633 30106 layer_factory.hpp:77] Creating layer scale4d_branch2b
I0118 23:34:22.399761 30106 net.cpp:150] Setting up scale4d_branch2b
I0118 23:34:22.399767 30106 net.cpp:157] Top shape: 1 256 38 63 (612864)
I0118 23:34:22.399770 30106 net.cpp:165] Memory required for data: 2416134996
I0118 23:34:22.399775 30106 layer_factory.hpp:77] Creating layer res4d_branch2b_relu
I0118 23:34:22.399780 30106 net.cpp:100] Creating Layer res4d_branch2b_relu
I0118 23:34:22.399782 30106 net.cpp:444] res4d_branch2b_relu <- res4d_branch2b
I0118 23:34:22.399786 30106 net.cpp:405] res4d_branch2b_relu -> res4d_branch2b (in-place)
I0118 23:34:22.400286 30106 net.cpp:150] Setting up res4d_branch2b_relu
I0118 23:34:22.400295 30106 net.cpp:157] Top shape: 1 256 38 63 (612864)
I0118 23:34:22.400298 30106 net.cpp:165] Memory required for data: 2418586452
I0118 23:34:22.400301 30106 layer_factory.hpp:77] Creating layer res4d_branch2c
I0118 23:34:22.400308 30106 net.cpp:100] Creating Layer res4d_branch2c
I0118 23:34:22.400312 30106 net.cpp:444] res4d_branch2c <- res4d_branch2b
I0118 23:34:22.400317 30106 net.cpp:418] res4d_branch2c -> res4d_branch2c
I0118 23:34:22.401088 30106 net.cpp:150] Setting up res4d_branch2c
I0118 23:34:22.401096 30106 net.cpp:157] Top shape: 1 1024 38 63 (2451456)
I0118 23:34:22.401098 30106 net.cpp:165] Memory required for data: 2428392276
I0118 23:34:22.401103 30106 layer_factory.hpp:77] Creating layer bn4d_branch2c
I0118 23:34:22.401110 30106 net.cpp:100] Creating Layer bn4d_branch2c
I0118 23:34:22.401113 30106 net.cpp:444] bn4d_branch2c <- res4d_branch2c
I0118 23:34:22.401118 30106 net.cpp:405] bn4d_branch2c -> res4d_branch2c (in-place)
I0118 23:34:22.401321 30106 net.cpp:150] Setting up bn4d_branch2c
I0118 23:34:22.401326 30106 net.cpp:157] Top shape: 1 1024 38 63 (2451456)
I0118 23:34:22.401329 30106 net.cpp:165] Memory required for data: 2438198100
I0118 23:34:22.401334 30106 layer_factory.hpp:77] Creating layer scale4d_branch2c
I0118 23:34:22.401338 30106 net.cpp:100] Creating Layer scale4d_branch2c
I0118 23:34:22.401341 30106 net.cpp:444] scale4d_branch2c <- res4d_branch2c
I0118 23:34:22.401346 30106 net.cpp:405] scale4d_branch2c -> res4d_branch2c (in-place)
I0118 23:34:22.401389 30106 layer_factory.hpp:77] Creating layer scale4d_branch2c
I0118 23:34:22.401559 30106 net.cpp:150] Setting up scale4d_branch2c
I0118 23:34:22.401566 30106 net.cpp:157] Top shape: 1 1024 38 63 (2451456)
I0118 23:34:22.401567 30106 net.cpp:165] Memory required for data: 2448003924
I0118 23:34:22.401571 30106 layer_factory.hpp:77] Creating layer res4d
I0118 23:34:22.401576 30106 net.cpp:100] Creating Layer res4d
I0118 23:34:22.401581 30106 net.cpp:444] res4d <- res4c_res4c_relu_0_split_1
I0118 23:34:22.401583 30106 net.cpp:444] res4d <- res4d_branch2c
I0118 23:34:22.401587 30106 net.cpp:418] res4d -> res4d
I0118 23:34:22.401623 30106 net.cpp:150] Setting up res4d
I0118 23:34:22.401628 30106 net.cpp:157] Top shape: 1 1024 38 63 (2451456)
I0118 23:34:22.401629 30106 net.cpp:165] Memory required for data: 2457809748
I0118 23:34:22.401645 30106 layer_factory.hpp:77] Creating layer res4d_relu
I0118 23:34:22.401651 30106 net.cpp:100] Creating Layer res4d_relu
I0118 23:34:22.401670 30106 net.cpp:444] res4d_relu <- res4d
I0118 23:34:22.401674 30106 net.cpp:405] res4d_relu -> res4d (in-place)
I0118 23:34:22.402212 30106 net.cpp:150] Setting up res4d_relu
I0118 23:34:22.402222 30106 net.cpp:157] Top shape: 1 1024 38 63 (2451456)
I0118 23:34:22.402225 30106 net.cpp:165] Memory required for data: 2467615572
I0118 23:34:22.402228 30106 layer_factory.hpp:77] Creating layer res4d_res4d_relu_0_split
I0118 23:34:22.402233 30106 net.cpp:100] Creating Layer res4d_res4d_relu_0_split
I0118 23:34:22.402237 30106 net.cpp:444] res4d_res4d_relu_0_split <- res4d
I0118 23:34:22.402242 30106 net.cpp:418] res4d_res4d_relu_0_split -> res4d_res4d_relu_0_split_0
I0118 23:34:22.402248 30106 net.cpp:418] res4d_res4d_relu_0_split -> res4d_res4d_relu_0_split_1
I0118 23:34:22.402324 30106 net.cpp:150] Setting up res4d_res4d_relu_0_split
I0118 23:34:22.402343 30106 net.cpp:157] Top shape: 1 1024 38 63 (2451456)
I0118 23:34:22.402348 30106 net.cpp:157] Top shape: 1 1024 38 63 (2451456)
I0118 23:34:22.402349 30106 net.cpp:165] Memory required for data: 2487227220
I0118 23:34:22.402351 30106 layer_factory.hpp:77] Creating layer res4e_branch2a
I0118 23:34:22.402357 30106 net.cpp:100] Creating Layer res4e_branch2a
I0118 23:34:22.402374 30106 net.cpp:444] res4e_branch2a <- res4d_res4d_relu_0_split_0
I0118 23:34:22.402379 30106 net.cpp:418] res4e_branch2a -> res4e_branch2a
I0118 23:34:22.404201 30106 net.cpp:150] Setting up res4e_branch2a
I0118 23:34:22.404214 30106 net.cpp:157] Top shape: 1 256 38 63 (612864)
I0118 23:34:22.404217 30106 net.cpp:165] Memory required for data: 2489678676
I0118 23:34:22.404222 30106 layer_factory.hpp:77] Creating layer bn4e_branch2a
I0118 23:34:22.404240 30106 net.cpp:100] Creating Layer bn4e_branch2a
I0118 23:34:22.404244 30106 net.cpp:444] bn4e_branch2a <- res4e_branch2a
I0118 23:34:22.404250 30106 net.cpp:405] bn4e_branch2a -> res4e_branch2a (in-place)
I0118 23:34:22.404441 30106 net.cpp:150] Setting up bn4e_branch2a
I0118 23:34:22.404446 30106 net.cpp:157] Top shape: 1 256 38 63 (612864)
I0118 23:34:22.404448 30106 net.cpp:165] Memory required for data: 2492130132
I0118 23:34:22.404454 30106 layer_factory.hpp:77] Creating layer scale4e_branch2a
I0118 23:34:22.404458 30106 net.cpp:100] Creating Layer scale4e_branch2a
I0118 23:34:22.404460 30106 net.cpp:444] scale4e_branch2a <- res4e_branch2a
I0118 23:34:22.404464 30106 net.cpp:405] scale4e_branch2a -> res4e_branch2a (in-place)
I0118 23:34:22.404510 30106 layer_factory.hpp:77] Creating layer scale4e_branch2a
I0118 23:34:22.404623 30106 net.cpp:150] Setting up scale4e_branch2a
I0118 23:34:22.404628 30106 net.cpp:157] Top shape: 1 256 38 63 (612864)
I0118 23:34:22.404629 30106 net.cpp:165] Memory required for data: 2494581588
I0118 23:34:22.404633 30106 layer_factory.hpp:77] Creating layer res4e_branch2a_relu
I0118 23:34:22.404639 30106 net.cpp:100] Creating Layer res4e_branch2a_relu
I0118 23:34:22.404640 30106 net.cpp:444] res4e_branch2a_relu <- res4e_branch2a
I0118 23:34:22.404644 30106 net.cpp:405] res4e_branch2a_relu -> res4e_branch2a (in-place)
I0118 23:34:22.404795 30106 net.cpp:150] Setting up res4e_branch2a_relu
I0118 23:34:22.404803 30106 net.cpp:157] Top shape: 1 256 38 63 (612864)
I0118 23:34:22.404804 30106 net.cpp:165] Memory required for data: 2497033044
I0118 23:34:22.404806 30106 layer_factory.hpp:77] Creating layer res4e_branch2b
I0118 23:34:22.404812 30106 net.cpp:100] Creating Layer res4e_branch2b
I0118 23:34:22.404814 30106 net.cpp:444] res4e_branch2b <- res4e_branch2a
I0118 23:34:22.404819 30106 net.cpp:418] res4e_branch2b -> res4e_branch2b
I0118 23:34:22.407083 30106 net.cpp:150] Setting up res4e_branch2b
I0118 23:34:22.407095 30106 net.cpp:157] Top shape: 1 256 38 63 (612864)
I0118 23:34:22.407099 30106 net.cpp:165] Memory required for data: 2499484500
I0118 23:34:22.407102 30106 layer_factory.hpp:77] Creating layer bn4e_branch2b
I0118 23:34:22.407109 30106 net.cpp:100] Creating Layer bn4e_branch2b
I0118 23:34:22.407112 30106 net.cpp:444] bn4e_branch2b <- res4e_branch2b
I0118 23:34:22.407117 30106 net.cpp:405] bn4e_branch2b -> res4e_branch2b (in-place)
I0118 23:34:22.407301 30106 net.cpp:150] Setting up bn4e_branch2b
I0118 23:34:22.407307 30106 net.cpp:157] Top shape: 1 256 38 63 (612864)
I0118 23:34:22.407310 30106 net.cpp:165] Memory required for data: 2501935956
I0118 23:34:22.407315 30106 layer_factory.hpp:77] Creating layer scale4e_branch2b
I0118 23:34:22.407318 30106 net.cpp:100] Creating Layer scale4e_branch2b
I0118 23:34:22.407320 30106 net.cpp:444] scale4e_branch2b <- res4e_branch2b
I0118 23:34:22.407328 30106 net.cpp:405] scale4e_branch2b -> res4e_branch2b (in-place)
I0118 23:34:22.407362 30106 layer_factory.hpp:77] Creating layer scale4e_branch2b
I0118 23:34:22.407498 30106 net.cpp:150] Setting up scale4e_branch2b
I0118 23:34:22.407505 30106 net.cpp:157] Top shape: 1 256 38 63 (612864)
I0118 23:34:22.407506 30106 net.cpp:165] Memory required for data: 2504387412
I0118 23:34:22.407510 30106 layer_factory.hpp:77] Creating layer res4e_branch2b_relu
I0118 23:34:22.407515 30106 net.cpp:100] Creating Layer res4e_branch2b_relu
I0118 23:34:22.407516 30106 net.cpp:444] res4e_branch2b_relu <- res4e_branch2b
I0118 23:34:22.407521 30106 net.cpp:405] res4e_branch2b_relu -> res4e_branch2b (in-place)
I0118 23:34:22.407673 30106 net.cpp:150] Setting up res4e_branch2b_relu
I0118 23:34:22.407680 30106 net.cpp:157] Top shape: 1 256 38 63 (612864)
I0118 23:34:22.407682 30106 net.cpp:165] Memory required for data: 2506838868
I0118 23:34:22.407685 30106 layer_factory.hpp:77] Creating layer res4e_branch2c
I0118 23:34:22.407691 30106 net.cpp:100] Creating Layer res4e_branch2c
I0118 23:34:22.407693 30106 net.cpp:444] res4e_branch2c <- res4e_branch2b
I0118 23:34:22.407699 30106 net.cpp:418] res4e_branch2c -> res4e_branch2c
I0118 23:34:22.408815 30106 net.cpp:150] Setting up res4e_branch2c
I0118 23:34:22.408824 30106 net.cpp:157] Top shape: 1 1024 38 63 (2451456)
I0118 23:34:22.408826 30106 net.cpp:165] Memory required for data: 2516644692
I0118 23:34:22.408830 30106 layer_factory.hpp:77] Creating layer bn4e_branch2c
I0118 23:34:22.408836 30106 net.cpp:100] Creating Layer bn4e_branch2c
I0118 23:34:22.408839 30106 net.cpp:444] bn4e_branch2c <- res4e_branch2c
I0118 23:34:22.408843 30106 net.cpp:405] bn4e_branch2c -> res4e_branch2c (in-place)
I0118 23:34:22.409023 30106 net.cpp:150] Setting up bn4e_branch2c
I0118 23:34:22.409029 30106 net.cpp:157] Top shape: 1 1024 38 63 (2451456)
I0118 23:34:22.409030 30106 net.cpp:165] Memory required for data: 2526450516
I0118 23:34:22.409035 30106 layer_factory.hpp:77] Creating layer scale4e_branch2c
I0118 23:34:22.409040 30106 net.cpp:100] Creating Layer scale4e_branch2c
I0118 23:34:22.409044 30106 net.cpp:444] scale4e_branch2c <- res4e_branch2c
I0118 23:34:22.409046 30106 net.cpp:405] scale4e_branch2c -> res4e_branch2c (in-place)
I0118 23:34:22.409075 30106 layer_factory.hpp:77] Creating layer scale4e_branch2c
I0118 23:34:22.409209 30106 net.cpp:150] Setting up scale4e_branch2c
I0118 23:34:22.409214 30106 net.cpp:157] Top shape: 1 1024 38 63 (2451456)
I0118 23:34:22.409216 30106 net.cpp:165] Memory required for data: 2536256340
I0118 23:34:22.409220 30106 layer_factory.hpp:77] Creating layer res4e
I0118 23:34:22.409224 30106 net.cpp:100] Creating Layer res4e
I0118 23:34:22.409227 30106 net.cpp:444] res4e <- res4d_res4d_relu_0_split_1
I0118 23:34:22.409230 30106 net.cpp:444] res4e <- res4e_branch2c
I0118 23:34:22.409235 30106 net.cpp:418] res4e -> res4e
I0118 23:34:22.409255 30106 net.cpp:150] Setting up res4e
I0118 23:34:22.409260 30106 net.cpp:157] Top shape: 1 1024 38 63 (2451456)
I0118 23:34:22.409261 30106 net.cpp:165] Memory required for data: 2546062164
I0118 23:34:22.409263 30106 layer_factory.hpp:77] Creating layer res4e_relu
I0118 23:34:22.409267 30106 net.cpp:100] Creating Layer res4e_relu
I0118 23:34:22.409270 30106 net.cpp:444] res4e_relu <- res4e
I0118 23:34:22.409272 30106 net.cpp:405] res4e_relu -> res4e (in-place)
I0118 23:34:22.409453 30106 net.cpp:150] Setting up res4e_relu
I0118 23:34:22.409459 30106 net.cpp:157] Top shape: 1 1024 38 63 (2451456)
I0118 23:34:22.409462 30106 net.cpp:165] Memory required for data: 2555867988
I0118 23:34:22.409464 30106 layer_factory.hpp:77] Creating layer res4e_res4e_relu_0_split
I0118 23:34:22.409468 30106 net.cpp:100] Creating Layer res4e_res4e_relu_0_split
I0118 23:34:22.409471 30106 net.cpp:444] res4e_res4e_relu_0_split <- res4e
I0118 23:34:22.409476 30106 net.cpp:418] res4e_res4e_relu_0_split -> res4e_res4e_relu_0_split_0
I0118 23:34:22.409482 30106 net.cpp:418] res4e_res4e_relu_0_split -> res4e_res4e_relu_0_split_1
I0118 23:34:22.409517 30106 net.cpp:150] Setting up res4e_res4e_relu_0_split
I0118 23:34:22.409520 30106 net.cpp:157] Top shape: 1 1024 38 63 (2451456)
I0118 23:34:22.409523 30106 net.cpp:157] Top shape: 1 1024 38 63 (2451456)
I0118 23:34:22.409525 30106 net.cpp:165] Memory required for data: 2575479636
I0118 23:34:22.409528 30106 layer_factory.hpp:77] Creating layer res4f_branch2a
I0118 23:34:22.409533 30106 net.cpp:100] Creating Layer res4f_branch2a
I0118 23:34:22.409536 30106 net.cpp:444] res4f_branch2a <- res4e_res4e_relu_0_split_0
I0118 23:34:22.409541 30106 net.cpp:418] res4f_branch2a -> res4f_branch2a
I0118 23:34:22.411262 30106 net.cpp:150] Setting up res4f_branch2a
I0118 23:34:22.411273 30106 net.cpp:157] Top shape: 1 256 38 63 (612864)
I0118 23:34:22.411276 30106 net.cpp:165] Memory required for data: 2577931092
I0118 23:34:22.411281 30106 layer_factory.hpp:77] Creating layer bn4f_branch2a
I0118 23:34:22.411288 30106 net.cpp:100] Creating Layer bn4f_branch2a
I0118 23:34:22.411291 30106 net.cpp:444] bn4f_branch2a <- res4f_branch2a
I0118 23:34:22.411296 30106 net.cpp:405] bn4f_branch2a -> res4f_branch2a (in-place)
I0118 23:34:22.411541 30106 net.cpp:150] Setting up bn4f_branch2a
I0118 23:34:22.411547 30106 net.cpp:157] Top shape: 1 256 38 63 (612864)
I0118 23:34:22.411550 30106 net.cpp:165] Memory required for data: 2580382548
I0118 23:34:22.411554 30106 layer_factory.hpp:77] Creating layer scale4f_branch2a
I0118 23:34:22.411559 30106 net.cpp:100] Creating Layer scale4f_branch2a
I0118 23:34:22.411562 30106 net.cpp:444] scale4f_branch2a <- res4f_branch2a
I0118 23:34:22.411566 30106 net.cpp:405] scale4f_branch2a -> res4f_branch2a (in-place)
I0118 23:34:22.411613 30106 layer_factory.hpp:77] Creating layer scale4f_branch2a
I0118 23:34:22.411785 30106 net.cpp:150] Setting up scale4f_branch2a
I0118 23:34:22.411789 30106 net.cpp:157] Top shape: 1 256 38 63 (612864)
I0118 23:34:22.411792 30106 net.cpp:165] Memory required for data: 2582834004
I0118 23:34:22.411795 30106 layer_factory.hpp:77] Creating layer res4f_branch2a_relu
I0118 23:34:22.411800 30106 net.cpp:100] Creating Layer res4f_branch2a_relu
I0118 23:34:22.411818 30106 net.cpp:444] res4f_branch2a_relu <- res4f_branch2a
I0118 23:34:22.411820 30106 net.cpp:405] res4f_branch2a_relu -> res4f_branch2a (in-place)
I0118 23:34:22.412003 30106 net.cpp:150] Setting up res4f_branch2a_relu
I0118 23:34:22.412009 30106 net.cpp:157] Top shape: 1 256 38 63 (612864)
I0118 23:34:22.412011 30106 net.cpp:165] Memory required for data: 2585285460
I0118 23:34:22.412014 30106 layer_factory.hpp:77] Creating layer res4f_branch2b
I0118 23:34:22.412020 30106 net.cpp:100] Creating Layer res4f_branch2b
I0118 23:34:22.412022 30106 net.cpp:444] res4f_branch2b <- res4f_branch2a
I0118 23:34:22.412026 30106 net.cpp:418] res4f_branch2b -> res4f_branch2b
I0118 23:34:22.414880 30106 net.cpp:150] Setting up res4f_branch2b
I0118 23:34:22.414896 30106 net.cpp:157] Top shape: 1 256 38 63 (612864)
I0118 23:34:22.414899 30106 net.cpp:165] Memory required for data: 2587736916
I0118 23:34:22.414906 30106 layer_factory.hpp:77] Creating layer bn4f_branch2b
I0118 23:34:22.414916 30106 net.cpp:100] Creating Layer bn4f_branch2b
I0118 23:34:22.414921 30106 net.cpp:444] bn4f_branch2b <- res4f_branch2b
I0118 23:34:22.414925 30106 net.cpp:405] bn4f_branch2b -> res4f_branch2b (in-place)
I0118 23:34:22.415148 30106 net.cpp:150] Setting up bn4f_branch2b
I0118 23:34:22.415153 30106 net.cpp:157] Top shape: 1 256 38 63 (612864)
I0118 23:34:22.415155 30106 net.cpp:165] Memory required for data: 2590188372
I0118 23:34:22.415159 30106 layer_factory.hpp:77] Creating layer scale4f_branch2b
I0118 23:34:22.415164 30106 net.cpp:100] Creating Layer scale4f_branch2b
I0118 23:34:22.415166 30106 net.cpp:444] scale4f_branch2b <- res4f_branch2b
I0118 23:34:22.415174 30106 net.cpp:405] scale4f_branch2b -> res4f_branch2b (in-place)
I0118 23:34:22.415208 30106 layer_factory.hpp:77] Creating layer scale4f_branch2b
I0118 23:34:22.415343 30106 net.cpp:150] Setting up scale4f_branch2b
I0118 23:34:22.415351 30106 net.cpp:157] Top shape: 1 256 38 63 (612864)
I0118 23:34:22.415354 30106 net.cpp:165] Memory required for data: 2592639828
I0118 23:34:22.415359 30106 layer_factory.hpp:77] Creating layer res4f_branch2b_relu
I0118 23:34:22.415364 30106 net.cpp:100] Creating Layer res4f_branch2b_relu
I0118 23:34:22.415366 30106 net.cpp:444] res4f_branch2b_relu <- res4f_branch2b
I0118 23:34:22.415370 30106 net.cpp:405] res4f_branch2b_relu -> res4f_branch2b (in-place)
I0118 23:34:22.416046 30106 net.cpp:150] Setting up res4f_branch2b_relu
I0118 23:34:22.416060 30106 net.cpp:157] Top shape: 1 256 38 63 (612864)
I0118 23:34:22.416062 30106 net.cpp:165] Memory required for data: 2595091284
I0118 23:34:22.416065 30106 layer_factory.hpp:77] Creating layer res4f_branch2c
I0118 23:34:22.416074 30106 net.cpp:100] Creating Layer res4f_branch2c
I0118 23:34:22.416079 30106 net.cpp:444] res4f_branch2c <- res4f_branch2b
I0118 23:34:22.416085 30106 net.cpp:418] res4f_branch2c -> res4f_branch2c
I0118 23:34:22.416908 30106 net.cpp:150] Setting up res4f_branch2c
I0118 23:34:22.416918 30106 net.cpp:157] Top shape: 1 1024 38 63 (2451456)
I0118 23:34:22.416921 30106 net.cpp:165] Memory required for data: 2604897108
I0118 23:34:22.416926 30106 layer_factory.hpp:77] Creating layer bn4f_branch2c
I0118 23:34:22.416949 30106 net.cpp:100] Creating Layer bn4f_branch2c
I0118 23:34:22.416952 30106 net.cpp:444] bn4f_branch2c <- res4f_branch2c
I0118 23:34:22.416956 30106 net.cpp:405] bn4f_branch2c -> res4f_branch2c (in-place)
I0118 23:34:22.417188 30106 net.cpp:150] Setting up bn4f_branch2c
I0118 23:34:22.417194 30106 net.cpp:157] Top shape: 1 1024 38 63 (2451456)
I0118 23:34:22.417196 30106 net.cpp:165] Memory required for data: 2614702932
I0118 23:34:22.417212 30106 layer_factory.hpp:77] Creating layer scale4f_branch2c
I0118 23:34:22.417217 30106 net.cpp:100] Creating Layer scale4f_branch2c
I0118 23:34:22.417220 30106 net.cpp:444] scale4f_branch2c <- res4f_branch2c
I0118 23:34:22.417224 30106 net.cpp:405] scale4f_branch2c -> res4f_branch2c (in-place)
I0118 23:34:22.417282 30106 layer_factory.hpp:77] Creating layer scale4f_branch2c
I0118 23:34:22.417444 30106 net.cpp:150] Setting up scale4f_branch2c
I0118 23:34:22.417449 30106 net.cpp:157] Top shape: 1 1024 38 63 (2451456)
I0118 23:34:22.417451 30106 net.cpp:165] Memory required for data: 2624508756
I0118 23:34:22.417455 30106 layer_factory.hpp:77] Creating layer res4f
I0118 23:34:22.417460 30106 net.cpp:100] Creating Layer res4f
I0118 23:34:22.417464 30106 net.cpp:444] res4f <- res4e_res4e_relu_0_split_1
I0118 23:34:22.417466 30106 net.cpp:444] res4f <- res4f_branch2c
I0118 23:34:22.417469 30106 net.cpp:418] res4f -> res4f
I0118 23:34:22.417493 30106 net.cpp:150] Setting up res4f
I0118 23:34:22.417512 30106 net.cpp:157] Top shape: 1 1024 38 63 (2451456)
I0118 23:34:22.417515 30106 net.cpp:165] Memory required for data: 2634314580
I0118 23:34:22.417516 30106 layer_factory.hpp:77] Creating layer res4f_relu
I0118 23:34:22.417534 30106 net.cpp:100] Creating Layer res4f_relu
I0118 23:34:22.417536 30106 net.cpp:444] res4f_relu <- res4f
I0118 23:34:22.417541 30106 net.cpp:405] res4f_relu -> res4f (in-place)
I0118 23:34:22.418120 30106 net.cpp:150] Setting up res4f_relu
I0118 23:34:22.418130 30106 net.cpp:157] Top shape: 1 1024 38 63 (2451456)
I0118 23:34:22.418133 30106 net.cpp:165] Memory required for data: 2644120404
I0118 23:34:22.418135 30106 layer_factory.hpp:77] Creating layer res4f_res4f_relu_0_split
I0118 23:34:22.418140 30106 net.cpp:100] Creating Layer res4f_res4f_relu_0_split
I0118 23:34:22.418143 30106 net.cpp:444] res4f_res4f_relu_0_split <- res4f
I0118 23:34:22.418148 30106 net.cpp:418] res4f_res4f_relu_0_split -> res4f_res4f_relu_0_split_0
I0118 23:34:22.418154 30106 net.cpp:418] res4f_res4f_relu_0_split -> res4f_res4f_relu_0_split_1
I0118 23:34:22.418159 30106 net.cpp:418] res4f_res4f_relu_0_split -> res4f_res4f_relu_0_split_2
I0118 23:34:22.418236 30106 net.cpp:150] Setting up res4f_res4f_relu_0_split
I0118 23:34:22.418241 30106 net.cpp:157] Top shape: 1 1024 38 63 (2451456)
I0118 23:34:22.418243 30106 net.cpp:157] Top shape: 1 1024 38 63 (2451456)
I0118 23:34:22.418246 30106 net.cpp:157] Top shape: 1 1024 38 63 (2451456)
I0118 23:34:22.418247 30106 net.cpp:165] Memory required for data: 2673537876
I0118 23:34:22.418251 30106 layer_factory.hpp:77] Creating layer res5a_branch1
I0118 23:34:22.418256 30106 net.cpp:100] Creating Layer res5a_branch1
I0118 23:34:22.418259 30106 net.cpp:444] res5a_branch1 <- res4f_res4f_relu_0_split_0
I0118 23:34:22.418263 30106 net.cpp:418] res5a_branch1 -> res5a_branch1
I0118 23:34:22.422811 30106 net.cpp:150] Setting up res5a_branch1
I0118 23:34:22.422834 30106 net.cpp:157] Top shape: 1 2048 38 63 (4902912)
I0118 23:34:22.422837 30106 net.cpp:165] Memory required for data: 2693149524
I0118 23:34:22.422844 30106 layer_factory.hpp:77] Creating layer bn5a_branch1
I0118 23:34:22.422854 30106 net.cpp:100] Creating Layer bn5a_branch1
I0118 23:34:22.422858 30106 net.cpp:444] bn5a_branch1 <- res5a_branch1
I0118 23:34:22.422866 30106 net.cpp:405] bn5a_branch1 -> res5a_branch1 (in-place)
I0118 23:34:22.423063 30106 net.cpp:150] Setting up bn5a_branch1
I0118 23:34:22.423069 30106 net.cpp:157] Top shape: 1 2048 38 63 (4902912)
I0118 23:34:22.423070 30106 net.cpp:165] Memory required for data: 2712761172
I0118 23:34:22.423075 30106 layer_factory.hpp:77] Creating layer scale5a_branch1
I0118 23:34:22.423080 30106 net.cpp:100] Creating Layer scale5a_branch1
I0118 23:34:22.423084 30106 net.cpp:444] scale5a_branch1 <- res5a_branch1
I0118 23:34:22.423086 30106 net.cpp:405] scale5a_branch1 -> res5a_branch1 (in-place)
I0118 23:34:22.423125 30106 layer_factory.hpp:77] Creating layer scale5a_branch1
I0118 23:34:22.423256 30106 net.cpp:150] Setting up scale5a_branch1
I0118 23:34:22.423261 30106 net.cpp:157] Top shape: 1 2048 38 63 (4902912)
I0118 23:34:22.423264 30106 net.cpp:165] Memory required for data: 2732372820
I0118 23:34:22.423267 30106 layer_factory.hpp:77] Creating layer res5a_branch2a
I0118 23:34:22.423274 30106 net.cpp:100] Creating Layer res5a_branch2a
I0118 23:34:22.423279 30106 net.cpp:444] res5a_branch2a <- res4f_res4f_relu_0_split_1
I0118 23:34:22.423282 30106 net.cpp:418] res5a_branch2a -> res5a_branch2a
I0118 23:34:22.425397 30106 net.cpp:150] Setting up res5a_branch2a
I0118 23:34:22.425410 30106 net.cpp:157] Top shape: 1 512 38 63 (1225728)
I0118 23:34:22.425413 30106 net.cpp:165] Memory required for data: 2737275732
I0118 23:34:22.425418 30106 layer_factory.hpp:77] Creating layer bn5a_branch2a
I0118 23:34:22.425426 30106 net.cpp:100] Creating Layer bn5a_branch2a
I0118 23:34:22.425429 30106 net.cpp:444] bn5a_branch2a <- res5a_branch2a
I0118 23:34:22.425434 30106 net.cpp:405] bn5a_branch2a -> res5a_branch2a (in-place)
I0118 23:34:22.425654 30106 net.cpp:150] Setting up bn5a_branch2a
I0118 23:34:22.425660 30106 net.cpp:157] Top shape: 1 512 38 63 (1225728)
I0118 23:34:22.425662 30106 net.cpp:165] Memory required for data: 2742178644
I0118 23:34:22.425668 30106 layer_factory.hpp:77] Creating layer scale5a_branch2a
I0118 23:34:22.425673 30106 net.cpp:100] Creating Layer scale5a_branch2a
I0118 23:34:22.425676 30106 net.cpp:444] scale5a_branch2a <- res5a_branch2a
I0118 23:34:22.425679 30106 net.cpp:405] scale5a_branch2a -> res5a_branch2a (in-place)
I0118 23:34:22.425726 30106 layer_factory.hpp:77] Creating layer scale5a_branch2a
I0118 23:34:22.425878 30106 net.cpp:150] Setting up scale5a_branch2a
I0118 23:34:22.425882 30106 net.cpp:157] Top shape: 1 512 38 63 (1225728)
I0118 23:34:22.425884 30106 net.cpp:165] Memory required for data: 2747081556
I0118 23:34:22.425889 30106 layer_factory.hpp:77] Creating layer res5a_branch2a_relu
I0118 23:34:22.425894 30106 net.cpp:100] Creating Layer res5a_branch2a_relu
I0118 23:34:22.425896 30106 net.cpp:444] res5a_branch2a_relu <- res5a_branch2a
I0118 23:34:22.425900 30106 net.cpp:405] res5a_branch2a_relu -> res5a_branch2a (in-place)
I0118 23:34:22.426110 30106 net.cpp:150] Setting up res5a_branch2a_relu
I0118 23:34:22.426116 30106 net.cpp:157] Top shape: 1 512 38 63 (1225728)
I0118 23:34:22.426118 30106 net.cpp:165] Memory required for data: 2751984468
I0118 23:34:22.426120 30106 layer_factory.hpp:77] Creating layer res5a_branch2a_res5a_branch2a_relu_0_split
I0118 23:34:22.426126 30106 net.cpp:100] Creating Layer res5a_branch2a_res5a_branch2a_relu_0_split
I0118 23:34:22.426127 30106 net.cpp:444] res5a_branch2a_res5a_branch2a_relu_0_split <- res5a_branch2a
I0118 23:34:22.426132 30106 net.cpp:418] res5a_branch2a_res5a_branch2a_relu_0_split -> res5a_branch2a_res5a_branch2a_relu_0_split_0
I0118 23:34:22.426138 30106 net.cpp:418] res5a_branch2a_res5a_branch2a_relu_0_split -> res5a_branch2a_res5a_branch2a_relu_0_split_1
I0118 23:34:22.426205 30106 net.cpp:150] Setting up res5a_branch2a_res5a_branch2a_relu_0_split
I0118 23:34:22.426223 30106 net.cpp:157] Top shape: 1 512 38 63 (1225728)
I0118 23:34:22.426225 30106 net.cpp:157] Top shape: 1 512 38 63 (1225728)
I0118 23:34:22.426226 30106 net.cpp:165] Memory required for data: 2761790292
I0118 23:34:22.426229 30106 layer_factory.hpp:77] Creating layer res5a_branch2b_offset
I0118 23:34:22.426237 30106 net.cpp:100] Creating Layer res5a_branch2b_offset
I0118 23:34:22.426255 30106 net.cpp:444] res5a_branch2b_offset <- res5a_branch2a_res5a_branch2a_relu_0_split_0
I0118 23:34:22.426261 30106 net.cpp:418] res5a_branch2b_offset -> res5a_branch2b_offset
I0118 23:34:22.427310 30106 net.cpp:150] Setting up res5a_branch2b_offset
I0118 23:34:22.427321 30106 net.cpp:157] Top shape: 1 72 38 63 (172368)
I0118 23:34:22.427325 30106 net.cpp:165] Memory required for data: 2762479764
I0118 23:34:22.427330 30106 layer_factory.hpp:77] Creating layer res5a_branch2b
I0118 23:34:22.427338 30106 net.cpp:100] Creating Layer res5a_branch2b
I0118 23:34:22.427341 30106 net.cpp:444] res5a_branch2b <- res5a_branch2a_res5a_branch2a_relu_0_split_1
I0118 23:34:22.427345 30106 net.cpp:444] res5a_branch2b <- res5a_branch2b_offset
I0118 23:34:22.427350 30106 net.cpp:418] res5a_branch2b -> res5a_branch2b
I0118 23:34:22.431643 30106 net.cpp:150] Setting up res5a_branch2b
I0118 23:34:22.431670 30106 net.cpp:157] Top shape: 1 512 38 63 (1225728)
I0118 23:34:22.431674 30106 net.cpp:165] Memory required for data: 2767382676
…
I0119 14:54:46.726657 29854 net.cpp:165] Memory required for data: 178626572
I0119 14:54:46.726661 29854 layer_factory.hpp:77] Creating layer res4a_branch2b_relu
I0119 14:54:46.726665 29854 net.cpp:100] Creating Layer res4a_branch2b_relu
I0119 14:54:46.726670 29854 net.cpp:444] res4a_branch2b_relu <- res4a_branch2b
I0119 14:54:46.726672 29854 net.cpp:405] res4a_branch2b_relu -> res4a_branch2b (in-place)
I0119 14:54:46.726836 29854 net.cpp:150] Setting up res4a_branch2b_relu
I0119 14:54:46.726843 29854 net.cpp:157] Top shape: 1 256 14 14 (50176)
I0119 14:54:46.726846 29854 net.cpp:165] Memory required for data: 178827276
I0119 14:54:46.726848 29854 layer_factory.hpp:77] Creating layer res4a_branch2c
I0119 14:54:46.726855 29854 net.cpp:100] Creating Layer res4a_branch2c
I0119 14:54:46.726858 29854 net.cpp:444] res4a_branch2c <- res4a_branch2b
I0119 14:54:46.726876 29854 net.cpp:418] res4a_branch2c -> res4a_branch2c
I0119 14:54:46.728885 29854 net.cpp:150] Setting up res4a_branch2c
I0119 14:54:46.728909 29854 net.cpp:157] Top shape: 1 1024 14 14 (200704)
I0119 14:54:46.728911 29854 net.cpp:165] Memory required for data: 179630092
I0119 14:54:46.728920 29854 layer_factory.hpp:77] Creating layer bn4a_branch2c
I0119 14:54:46.728945 29854 net.cpp:100] Creating Layer bn4a_branch2c
I0119 14:54:46.728965 29854 net.cpp:444] bn4a_branch2c <- res4a_branch2c
I0119 14:54:46.728973 29854 net.cpp:405] bn4a_branch2c -> res4a_branch2c (in-place)
I0119 14:54:46.729164 29854 net.cpp:150] Setting up bn4a_branch2c
I0119 14:54:46.729171 29854 net.cpp:157] Top shape: 1 1024 14 14 (200704)
I0119 14:54:46.729172 29854 net.cpp:165] Memory required for data: 180432908
I0119 14:54:46.729192 29854 layer_factory.hpp:77] Creating layer scale4a_branch2c
I0119 14:54:46.729197 29854 net.cpp:100] Creating Layer scale4a_branch2c
I0119 14:54:46.729208 29854 net.cpp:444] scale4a_branch2c <- res4a_branch2c
I0119 14:54:46.729213 29854 net.cpp:405] scale4a_branch2c -> res4a_branch2c (in-place)
I0119 14:54:46.729248 29854 layer_factory.hpp:77] Creating layer scale4a_branch2c
I0119 14:54:46.729344 29854 net.cpp:150] Setting up scale4a_branch2c
I0119 14:54:46.729349 29854 net.cpp:157] Top shape: 1 1024 14 14 (200704)
I0119 14:54:46.729351 29854 net.cpp:165] Memory required for data: 181235724
I0119 14:54:46.729356 29854 layer_factory.hpp:77] Creating layer res4a
I0119 14:54:46.729362 29854 net.cpp:100] Creating Layer res4a
I0119 14:54:46.729363 29854 net.cpp:444] res4a <- res4a_branch1
I0119 14:54:46.729367 29854 net.cpp:444] res4a <- res4a_branch2c
I0119 14:54:46.729372 29854 net.cpp:418] res4a -> res4a
I0119 14:54:46.729390 29854 net.cpp:150] Setting up res4a
I0119 14:54:46.729394 29854 net.cpp:157] Top shape: 1 1024 14 14 (200704)
I0119 14:54:46.729398 29854 net.cpp:165] Memory required for data: 182038540
I0119 14:54:46.729399 29854 layer_factory.hpp:77] Creating layer res4a_relu
I0119 14:54:46.729404 29854 net.cpp:100] Creating Layer res4a_relu
I0119 14:54:46.729406 29854 net.cpp:444] res4a_relu <- res4a
I0119 14:54:46.729410 29854 net.cpp:405] res4a_relu -> res4a (in-place)
I0119 14:54:46.729562 29854 net.cpp:150] Setting up res4a_relu
I0119 14:54:46.729568 29854 net.cpp:157] Top shape: 1 1024 14 14 (200704)
I0119 14:54:46.729569 29854 net.cpp:165] Memory required for data: 182841356
I0119 14:54:46.729573 29854 layer_factory.hpp:77] Creating layer res4a_res4a_relu_0_split
I0119 14:54:46.729576 29854 net.cpp:100] Creating Layer res4a_res4a_relu_0_split
I0119 14:54:46.729578 29854 net.cpp:444] res4a_res4a_relu_0_split <- res4a
I0119 14:54:46.729583 29854 net.cpp:418] res4a_res4a_relu_0_split -> res4a_res4a_relu_0_split_0
I0119 14:54:46.729588 29854 net.cpp:418] res4a_res4a_relu_0_split -> res4a_res4a_relu_0_split_1
I0119 14:54:46.729621 29854 net.cpp:150] Setting up res4a_res4a_relu_0_split
I0119 14:54:46.729626 29854 net.cpp:157] Top shape: 1 1024 14 14 (200704)
I0119 14:54:46.729629 29854 net.cpp:157] Top shape: 1 1024 14 14 (200704)
I0119 14:54:46.729631 29854 net.cpp:165] Memory required for data: 184446988
I0119 14:54:46.729634 29854 layer_factory.hpp:77] Creating layer res4b_branch2a
I0119 14:54:46.729645 29854 net.cpp:100] Creating Layer res4b_branch2a
I0119 14:54:46.729650 29854 net.cpp:444] res4b_branch2a <- res4a_res4a_relu_0_split_0
I0119 14:54:46.729653 29854 net.cpp:418] res4b_branch2a -> res4b_branch2a
I0119 14:54:46.730849 29854 net.cpp:150] Setting up res4b_branch2a
I0119 14:54:46.730866 29854 net.cpp:157] Top shape: 1 256 14 14 (50176)
I0119 14:54:46.730868 29854 net.cpp:165] Memory required for data: 184647692
I0119 14:54:46.730877 29854 layer_factory.hpp:77] Creating layer bn4b_branch2a
I0119 14:54:46.730885 29854 net.cpp:100] Creating Layer bn4b_branch2a
I0119 14:54:46.730890 29854 net.cpp:444] bn4b_branch2a <- res4b_branch2a
I0119 14:54:46.730896 29854 net.cpp:405] bn4b_branch2a -> res4b_branch2a (in-place)
I0119 14:54:46.731088 29854 net.cpp:150] Setting up bn4b_branch2a
I0119 14:54:46.731093 29854 net.cpp:157] Top shape: 1 256 14 14 (50176)
I0119 14:54:46.731096 29854 net.cpp:165] Memory required for data: 184848396
I0119 14:54:46.731114 29854 layer_factory.hpp:77] Creating layer scale4b_branch2a
I0119 14:54:46.731133 29854 net.cpp:100] Creating Layer scale4b_branch2a
I0119 14:54:46.731137 29854 net.cpp:444] scale4b_branch2a <- res4b_branch2a
I0119 14:54:46.731142 29854 net.cpp:405] scale4b_branch2a -> res4b_branch2a (in-place)
I0119 14:54:46.731175 29854 layer_factory.hpp:77] Creating layer scale4b_branch2a
I0119 14:54:46.731267 29854 net.cpp:150] Setting up scale4b_branch2a
I0119 14:54:46.731272 29854 net.cpp:157] Top shape: 1 256 14 14 (50176)
I0119 14:54:46.731274 29854 net.cpp:165] Memory required for data: 185049100
I0119 14:54:46.731278 29854 layer_factory.hpp:77] Creating layer res4b_branch2a_relu
I0119 14:54:46.731286 29854 net.cpp:100] Creating Layer res4b_branch2a_relu
I0119 14:54:46.731287 29854 net.cpp:444] res4b_branch2a_relu <- res4b_branch2a
I0119 14:54:46.731290 29854 net.cpp:405] res4b_branch2a_relu -> res4b_branch2a (in-place)
I0119 14:54:46.731470 29854 net.cpp:150] Setting up res4b_branch2a_relu
I0119 14:54:46.731479 29854 net.cpp:157] Top shape: 1 256 14 14 (50176)
I0119 14:54:46.731482 29854 net.cpp:165] Memory required for data: 185249804
I0119 14:54:46.731484 29854 layer_factory.hpp:77] Creating layer res4b_branch2b
I0119 14:54:46.731490 29854 net.cpp:100] Creating Layer res4b_branch2b
I0119 14:54:46.731493 29854 net.cpp:444] res4b_branch2b <- res4b_branch2a
I0119 14:54:46.731498 29854 net.cpp:418] res4b_branch2b -> res4b_branch2b
I0119 14:54:46.733925 29854 net.cpp:150] Setting up res4b_branch2b
I0119 14:54:46.733942 29854 net.cpp:157] Top shape: 1 256 14 14 (50176)
I0119 14:54:46.733945 29854 net.cpp:165] Memory required for data: 185450508
I0119 14:54:46.733953 29854 layer_factory.hpp:77] Creating layer bn4b_branch2b
I0119 14:54:46.733963 29854 net.cpp:100] Creating Layer bn4b_branch2b
I0119 14:54:46.733966 29854 net.cpp:444] bn4b_branch2b <- res4b_branch2b
I0119 14:54:46.733974 29854 net.cpp:405] bn4b_branch2b -> res4b_branch2b (in-place)
I0119 14:54:46.734161 29854 net.cpp:150] Setting up bn4b_branch2b
I0119 14:54:46.734166 29854 net.cpp:157] Top shape: 1 256 14 14 (50176)
I0119 14:54:46.734169 29854 net.cpp:165] Memory required for data: 185651212
I0119 14:54:46.734174 29854 layer_factory.hpp:77] Creating layer scale4b_branch2b
I0119 14:54:46.734182 29854 net.cpp:100] Creating Layer scale4b_branch2b
I0119 14:54:46.734185 29854 net.cpp:444] scale4b_branch2b <- res4b_branch2b
I0119 14:54:46.734189 29854 net.cpp:405] scale4b_branch2b -> res4b_branch2b (in-place)
I0119 14:54:46.734220 29854 layer_factory.hpp:77] Creating layer scale4b_branch2b
I0119 14:54:46.734313 29854 net.cpp:150] Setting up scale4b_branch2b
I0119 14:54:46.734318 29854 net.cpp:157] Top shape: 1 256 14 14 (50176)
I0119 14:54:46.734319 29854 net.cpp:165] Memory required for data: 185851916
I0119 14:54:46.734323 29854 layer_factory.hpp:77] Creating layer res4b_branch2b_relu
I0119 14:54:46.734328 29854 net.cpp:100] Creating Layer res4b_branch2b_relu
I0119 14:54:46.734330 29854 net.cpp:444] res4b_branch2b_relu <- res4b_branch2b
I0119 14:54:46.734334 29854 net.cpp:405] res4b_branch2b_relu -> res4b_branch2b (in-place)
I0119 14:54:46.734845 29854 net.cpp:150] Setting up res4b_branch2b_relu
I0119 14:54:46.734853 29854 net.cpp:157] Top shape: 1 256 14 14 (50176)
I0119 14:54:46.734858 29854 net.cpp:165] Memory required for data: 186052620
I0119 14:54:46.734859 29854 layer_factory.hpp:77] Creating layer res4b_branch2c
I0119 14:54:46.734866 29854 net.cpp:100] Creating Layer res4b_branch2c
I0119 14:54:46.734870 29854 net.cpp:444] res4b_branch2c <- res4b_branch2b
I0119 14:54:46.734876 29854 net.cpp:418] res4b_branch2c -> res4b_branch2c
I0119 14:54:46.736598 29854 net.cpp:150] Setting up res4b_branch2c
I0119 14:54:46.736610 29854 net.cpp:157] Top shape: 1 1024 14 14 (200704)
I0119 14:54:46.736613 29854 net.cpp:165] Memory required for data: 186855436
I0119 14:54:46.736619 29854 layer_factory.hpp:77] Creating layer bn4b_branch2c
I0119 14:54:46.736627 29854 net.cpp:100] Creating Layer bn4b_branch2c
I0119 14:54:46.736631 29854 net.cpp:444] bn4b_branch2c <- res4b_branch2c
I0119 14:54:46.736636 29854 net.cpp:405] bn4b_branch2c -> res4b_branch2c (in-place)
I0119 14:54:46.736814 29854 net.cpp:150] Setting up bn4b_branch2c
I0119 14:54:46.736820 29854 net.cpp:157] Top shape: 1 1024 14 14 (200704)
I0119 14:54:46.736836 29854 net.cpp:165] Memory required for data: 187658252
I0119 14:54:46.736842 29854 layer_factory.hpp:77] Creating layer scale4b_branch2c
I0119 14:54:46.736850 29854 net.cpp:100] Creating Layer scale4b_branch2c
I0119 14:54:46.736852 29854 net.cpp:444] scale4b_branch2c <- res4b_branch2c
I0119 14:54:46.736856 29854 net.cpp:405] scale4b_branch2c -> res4b_branch2c (in-place)
I0119 14:54:46.736901 29854 layer_factory.hpp:77] Creating layer scale4b_branch2c
I0119 14:54:46.737015 29854 net.cpp:150] Setting up scale4b_branch2c
I0119 14:54:46.737054 29854 net.cpp:157] Top shape: 1 1024 14 14 (200704)
I0119 14:54:46.737058 29854 net.cpp:165] Memory required for data: 188461068
I0119 14:54:46.737063 29854 layer_factory.hpp:77] Creating layer res4b
I0119 14:54:46.737068 29854 net.cpp:100] Creating Layer res4b
I0119 14:54:46.737072 29854 net.cpp:444] res4b <- res4a_res4a_relu_0_split_1
I0119 14:54:46.737076 29854 net.cpp:444] res4b <- res4b_branch2c
I0119 14:54:46.737082 29854 net.cpp:418] res4b -> res4b
I0119 14:54:46.737113 29854 net.cpp:150] Setting up res4b
I0119 14:54:46.737118 29854 net.cpp:157] Top shape: 1 1024 14 14 (200704)
I0119 14:54:46.737120 29854 net.cpp:165] Memory required for data: 189263884
I0119 14:54:46.737123 29854 layer_factory.hpp:77] Creating layer res4b_relu
I0119 14:54:46.737128 29854 net.cpp:100] Creating Layer res4b_relu
I0119 14:54:46.737130 29854 net.cpp:444] res4b_relu <- res4b
I0119 14:54:46.737134 29854 net.cpp:405] res4b_relu -> res4b (in-place)
I0119 14:54:46.737675 29854 net.cpp:150] Setting up res4b_relu
I0119 14:54:46.737686 29854 net.cpp:157] Top shape: 1 1024 14 14 (200704)
I0119 14:54:46.737689 29854 net.cpp:165] Memory required for data: 190066700
I0119 14:54:46.737692 29854 layer_factory.hpp:77] Creating layer res4b_res4b_relu_0_split
I0119 14:54:46.737696 29854 net.cpp:100] Creating Layer res4b_res4b_relu_0_split
I0119 14:54:46.737700 29854 net.cpp:444] res4b_res4b_relu_0_split <- res4b
I0119 14:54:46.737705 29854 net.cpp:418] res4b_res4b_relu_0_split -> res4b_res4b_relu_0_split_0
I0119 14:54:46.737711 29854 net.cpp:418] res4b_res4b_relu_0_split -> res4b_res4b_relu_0_split_1
I0119 14:54:46.737749 29854 net.cpp:150] Setting up res4b_res4b_relu_0_split
I0119 14:54:46.737769 29854 net.cpp:157] Top shape: 1 1024 14 14 (200704)
I0119 14:54:46.737774 29854 net.cpp:157] Top shape: 1 1024 14 14 (200704)
I0119 14:54:46.737776 29854 net.cpp:165] Memory required for data: 191672332
I0119 14:54:46.737779 29854 layer_factory.hpp:77] Creating layer res4c_branch2a
I0119 14:54:46.737788 29854 net.cpp:100] Creating Layer res4c_branch2a
I0119 14:54:46.737792 29854 net.cpp:444] res4c_branch2a <- res4b_res4b_relu_0_split_0
I0119 14:54:46.737804 29854 net.cpp:418] res4c_branch2a -> res4c_branch2a
I0119 14:54:46.738934 29854 net.cpp:150] Setting up res4c_branch2a
I0119 14:54:46.738945 29854 net.cpp:157] Top shape: 1 256 14 14 (50176)
I0119 14:54:46.738947 29854 net.cpp:165] Memory required for data: 191873036
I0119 14:54:46.738952 29854 layer_factory.hpp:77] Creating layer bn4c_branch2a
I0119 14:54:46.738960 29854 net.cpp:100] Creating Layer bn4c_branch2a
I0119 14:54:46.738962 29854 net.cpp:444] bn4c_branch2a <- res4c_branch2a
I0119 14:54:46.738967 29854 net.cpp:405] bn4c_branch2a -> res4c_branch2a (in-place)
I0119 14:54:46.739135 29854 net.cpp:150] Setting up bn4c_branch2a
I0119 14:54:46.739140 29854 net.cpp:157] Top shape: 1 256 14 14 (50176)
I0119 14:54:46.739143 29854 net.cpp:165] Memory required for data: 192073740
I0119 14:54:46.739148 29854 layer_factory.hpp:77] Creating layer scale4c_branch2a
I0119 14:54:46.739153 29854 net.cpp:100] Creating Layer scale4c_branch2a
I0119 14:54:46.739156 29854 net.cpp:444] scale4c_branch2a <- res4c_branch2a
I0119 14:54:46.739161 29854 net.cpp:405] scale4c_branch2a -> res4c_branch2a (in-place)
I0119 14:54:46.739192 29854 layer_factory.hpp:77] Creating layer scale4c_branch2a
I0119 14:54:46.739284 29854 net.cpp:150] Setting up scale4c_branch2a
I0119 14:54:46.739289 29854 net.cpp:157] Top shape: 1 256 14 14 (50176)
I0119 14:54:46.739291 29854 net.cpp:165] Memory required for data: 192274444
I0119 14:54:46.739295 29854 layer_factory.hpp:77] Creating layer res4c_branch2a_relu
I0119 14:54:46.739300 29854 net.cpp:100] Creating Layer res4c_branch2a_relu
I0119 14:54:46.739305 29854 net.cpp:444] res4c_branch2a_relu <- res4c_branch2a
I0119 14:54:46.739310 29854 net.cpp:405] res4c_branch2a_relu -> res4c_branch2a (in-place)
I0119 14:54:46.739455 29854 net.cpp:150] Setting up res4c_branch2a_relu
I0119 14:54:46.739462 29854 net.cpp:157] Top shape: 1 256 14 14 (50176)
I0119 14:54:46.739464 29854 net.cpp:165] Memory required for data: 192475148
I0119 14:54:46.739467 29854 layer_factory.hpp:77] Creating layer res4c_branch2b
I0119 14:54:46.739473 29854 net.cpp:100] Creating Layer res4c_branch2b
I0119 14:54:46.739477 29854 net.cpp:444] res4c_branch2b <- res4c_branch2a
I0119 14:54:46.739482 29854 net.cpp:418] res4c_branch2b -> res4c_branch2b
I0119 14:54:46.741724 29854 net.cpp:150] Setting up res4c_branch2b
I0119 14:54:46.741739 29854 net.cpp:157] Top shape: 1 256 14 14 (50176)
I0119 14:54:46.741742 29854 net.cpp:165] Memory required for data: 192675852
I0119 14:54:46.741749 29854 layer_factory.hpp:77] Creating layer bn4c_branch2b
I0119 14:54:46.741755 29854 net.cpp:100] Creating Layer bn4c_branch2b
I0119 14:54:46.741758 29854 net.cpp:444] bn4c_branch2b <- res4c_branch2b
I0119 14:54:46.741765 29854 net.cpp:405] bn4c_branch2b -> res4c_branch2b (in-place)
I0119 14:54:46.741952 29854 net.cpp:150] Setting up bn4c_branch2b
I0119 14:54:46.741958 29854 net.cpp:157] Top shape: 1 256 14 14 (50176)
I0119 14:54:46.741961 29854 net.cpp:165] Memory required for data: 192876556
I0119 14:54:46.741966 29854 layer_factory.hpp:77] Creating layer scale4c_branch2b
I0119 14:54:46.741971 29854 net.cpp:100] Creating Layer scale4c_branch2b
I0119 14:54:46.741974 29854 net.cpp:444] scale4c_branch2b <- res4c_branch2b
I0119 14:54:46.741977 29854 net.cpp:405] scale4c_branch2b -> res4c_branch2b (in-place)
I0119 14:54:46.742036 29854 layer_factory.hpp:77] Creating layer scale4c_branch2b
I0119 14:54:46.742143 29854 net.cpp:150] Setting up scale4c_branch2b
I0119 14:54:46.742148 29854 net.cpp:157] Top shape: 1 256 14 14 (50176)
I0119 14:54:46.742151 29854 net.cpp:165] Memory required for data: 193077260
I0119 14:54:46.742154 29854 layer_factory.hpp:77] Creating layer res4c_branch2b_relu
I0119 14:54:46.742158 29854 net.cpp:100] Creating Layer res4c_branch2b_relu
I0119 14:54:46.742162 29854 net.cpp:444] res4c_branch2b_relu <- res4c_branch2b
I0119 14:54:46.742166 29854 net.cpp:405] res4c_branch2b_relu -> res4c_branch2b (in-place)
I0119 14:54:46.742319 29854 net.cpp:150] Setting up res4c_branch2b_relu
I0119 14:54:46.742326 29854 net.cpp:157] Top shape: 1 256 14 14 (50176)
I0119 14:54:46.742328 29854 net.cpp:165] Memory required for data: 193277964
I0119 14:54:46.742331 29854 layer_factory.hpp:77] Creating layer res4c_branch2c
I0119 14:54:46.742338 29854 net.cpp:100] Creating Layer res4c_branch2c
I0119 14:54:46.742341 29854 net.cpp:444] res4c_branch2c <- res4c_branch2b
I0119 14:54:46.742347 29854 net.cpp:418] res4c_branch2c -> res4c_branch2c
I0119 14:54:46.744035 29854 net.cpp:150] Setting up res4c_branch2c
I0119 14:54:46.744048 29854 net.cpp:157] Top shape: 1 1024 14 14 (200704)
I0119 14:54:46.744050 29854 net.cpp:165] Memory required for data: 194080780
I0119 14:54:46.744056 29854 layer_factory.hpp:77] Creating layer bn4c_branch2c
I0119 14:54:46.744063 29854 net.cpp:100] Creating Layer bn4c_branch2c
I0119 14:54:46.744067 29854 net.cpp:444] bn4c_branch2c <- res4c_branch2c
I0119 14:54:46.744072 29854 net.cpp:405] bn4c_branch2c -> res4c_branch2c (in-place)
I0119 14:54:46.744261 29854 net.cpp:150] Setting up bn4c_branch2c
I0119 14:54:46.744266 29854 net.cpp:157] Top shape: 1 1024 14 14 (200704)
I0119 14:54:46.744268 29854 net.cpp:165] Memory required for data: 194883596
I0119 14:54:46.744273 29854 layer_factory.hpp:77] Creating layer scale4c_branch2c
I0119 14:54:46.744278 29854 net.cpp:100] Creating Layer scale4c_branch2c
I0119 14:54:46.744282 29854 net.cpp:444] scale4c_branch2c <- res4c_branch2c
I0119 14:54:46.744285 29854 net.cpp:405] scale4c_branch2c -> res4c_branch2c (in-place)
I0119 14:54:46.744315 29854 layer_factory.hpp:77] Creating layer scale4c_branch2c
I0119 14:54:46.744426 29854 net.cpp:150] Setting up scale4c_branch2c
I0119 14:54:46.744431 29854 net.cpp:157] Top shape: 1 1024 14 14 (200704)
I0119 14:54:46.744432 29854 net.cpp:165] Memory required for data: 195686412
I0119 14:54:46.744436 29854 layer_factory.hpp:77] Creating layer res4c
I0119 14:54:46.744442 29854 net.cpp:100] Creating Layer res4c
I0119 14:54:46.744446 29854 net.cpp:444] res4c <- res4b_res4b_relu_0_split_1
I0119 14:54:46.744449 29854 net.cpp:444] res4c <- res4c_branch2c
I0119 14:54:46.744454 29854 net.cpp:418] res4c -> res4c
I0119 14:54:46.744473 29854 net.cpp:150] Setting up res4c
I0119 14:54:46.744477 29854 net.cpp:157] Top shape: 1 1024 14 14 (200704)
I0119 14:54:46.744493 29854 net.cpp:165] Memory required for data: 196489228
I0119 14:54:46.744495 29854 layer_factory.hpp:77] Creating layer res4c_relu
I0119 14:54:46.744501 29854 net.cpp:100] Creating Layer res4c_relu
I0119 14:54:46.744505 29854 net.cpp:444] res4c_relu <- res4c
I0119 14:54:46.744508 29854 net.cpp:405] res4c_relu -> res4c (in-place)
I0119 14:54:46.744654 29854 net.cpp:150] Setting up res4c_relu
I0119 14:54:46.744662 29854 net.cpp:157] Top shape: 1 1024 14 14 (200704)
I0119 14:54:46.744663 29854 net.cpp:165] Memory required for data: 197292044
I0119 14:54:46.744666 29854 layer_factory.hpp:77] Creating layer res4c_res4c_relu_0_split
I0119 14:54:46.744671 29854 net.cpp:100] Creating Layer res4c_res4c_relu_0_split
I0119 14:54:46.744674 29854 net.cpp:444] res4c_res4c_relu_0_split <- res4c
I0119 14:54:46.744679 29854 net.cpp:418] res4c_res4c_relu_0_split -> res4c_res4c_relu_0_split_0
I0119 14:54:46.744709 29854 net.cpp:418] res4c_res4c_relu_0_split -> res4c_res4c_relu_0_split_1
I0119 14:54:46.744752 29854 net.cpp:150] Setting up res4c_res4c_relu_0_split
I0119 14:54:46.744757 29854 net.cpp:157] Top shape: 1 1024 14 14 (200704)
I0119 14:54:46.744760 29854 net.cpp:157] Top shape: 1 1024 14 14 (200704)
I0119 14:54:46.744763 29854 net.cpp:165] Memory required for data: 198897676
I0119 14:54:46.744765 29854 layer_factory.hpp:77] Creating layer res4d_branch2a
I0119 14:54:46.744772 29854 net.cpp:100] Creating Layer res4d_branch2a
I0119 14:54:46.744789 29854 net.cpp:444] res4d_branch2a <- res4c_res4c_relu_0_split_0
I0119 14:54:46.744797 29854 net.cpp:418] res4d_branch2a -> res4d_branch2a
I0119 14:54:46.746057 29854 net.cpp:150] Setting up res4d_branch2a
I0119 14:54:46.746073 29854 net.cpp:157] Top shape: 1 256 14 14 (50176)
I0119 14:54:46.746074 29854 net.cpp:165] Memory required for data: 199098380
I0119 14:54:46.746083 29854 layer_factory.hpp:77] Creating layer bn4d_branch2a
I0119 14:54:46.746091 29854 net.cpp:100] Creating Layer bn4d_branch2a
I0119 14:54:46.746095 29854 net.cpp:444] bn4d_branch2a <- res4d_branch2a
I0119 14:54:46.746101 29854 net.cpp:405] bn4d_branch2a -> res4d_branch2a (in-place)
I0119 14:54:46.746274 29854 net.cpp:150] Setting up bn4d_branch2a
I0119 14:54:46.746279 29854 net.cpp:157] Top shape: 1 256 14 14 (50176)
I0119 14:54:46.746281 29854 net.cpp:165] Memory required for data: 199299084
I0119 14:54:46.746287 29854 layer_factory.hpp:77] Creating layer scale4d_branch2a
I0119 14:54:46.746309 29854 net.cpp:100] Creating Layer scale4d_branch2a
I0119 14:54:46.746314 29854 net.cpp:444] scale4d_branch2a <- res4d_branch2a
I0119 14:54:46.746317 29854 net.cpp:405] scale4d_branch2a -> res4d_branch2a (in-place)
I0119 14:54:46.746366 29854 layer_factory.hpp:77] Creating layer scale4d_branch2a
I0119 14:54:46.746474 29854 net.cpp:150] Setting up scale4d_branch2a
I0119 14:54:46.746479 29854 net.cpp:157] Top shape: 1 256 14 14 (50176)
I0119 14:54:46.746481 29854 net.cpp:165] Memory required for data: 199499788
I0119 14:54:46.746485 29854 layer_factory.hpp:77] Creating layer res4d_branch2a_relu
I0119 14:54:46.746491 29854 net.cpp:100] Creating Layer res4d_branch2a_relu
I0119 14:54:46.746493 29854 net.cpp:444] res4d_branch2a_relu <- res4d_branch2a
I0119 14:54:46.746498 29854 net.cpp:405] res4d_branch2a_relu -> res4d_branch2a (in-place)
I0119 14:54:46.746642 29854 net.cpp:150] Setting up res4d_branch2a_relu
I0119 14:54:46.746649 29854 net.cpp:157] Top shape: 1 256 14 14 (50176)
I0119 14:54:46.746651 29854 net.cpp:165] Memory required for data: 199700492
I0119 14:54:46.746654 29854 layer_factory.hpp:77] Creating layer res4d_branch2b
I0119 14:54:46.746660 29854 net.cpp:100] Creating Layer res4d_branch2b
I0119 14:54:46.746665 29854 net.cpp:444] res4d_branch2b <- res4d_branch2a
I0119 14:54:46.746670 29854 net.cpp:418] res4d_branch2b -> res4d_branch2b
I0119 14:54:46.749447 29854 net.cpp:150] Setting up res4d_branch2b
I0119 14:54:46.749469 29854 net.cpp:157] Top shape: 1 256 14 14 (50176)
I0119 14:54:46.749472 29854 net.cpp:165] Memory required for data: 199901196
I0119 14:54:46.749483 29854 layer_factory.hpp:77] Creating layer bn4d_branch2b
I0119 14:54:46.749511 29854 net.cpp:100] Creating Layer bn4d_branch2b
I0119 14:54:46.749516 29854 net.cpp:444] bn4d_branch2b <- res4d_branch2b
I0119 14:54:46.749537 29854 net.cpp:405] bn4d_branch2b -> res4d_branch2b (in-place)
I0119 14:54:46.749759 29854 net.cpp:150] Setting up bn4d_branch2b
I0119 14:54:46.749765 29854 net.cpp:157] Top shape: 1 256 14 14 (50176)
I0119 14:54:46.749768 29854 net.cpp:165] Memory required for data: 200101900
I0119 14:54:46.749773 29854 layer_factory.hpp:77] Creating layer scale4d_branch2b
I0119 14:54:46.749783 29854 net.cpp:100] Creating Layer scale4d_branch2b
I0119 14:54:46.749784 29854 net.cpp:444] scale4d_branch2b <- res4d_branch2b
I0119 14:54:46.749788 29854 net.cpp:405] scale4d_branch2b -> res4d_branch2b (in-place)
I0119 14:54:46.749825 29854 layer_factory.hpp:77] Creating layer scale4d_branch2b
I0119 14:54:46.749919 29854 net.cpp:150] Setting up scale4d_branch2b
I0119 14:54:46.749924 29854 net.cpp:157] Top shape: 1 256 14 14 (50176)
I0119 14:54:46.749927 29854 net.cpp:165] Memory required for data: 200302604
I0119 14:54:46.749930 29854 layer_factory.hpp:77] Creating layer res4d_branch2b_relu
I0119 14:54:46.749936 29854 net.cpp:100] Creating Layer res4d_branch2b_relu
I0119 14:54:46.749939 29854 net.cpp:444] res4d_branch2b_relu <- res4d_branch2b
I0119 14:54:46.749943 29854 net.cpp:405] res4d_branch2b_relu -> res4d_branch2b (in-place)
I0119 14:54:46.750461 29854 net.cpp:150] Setting up res4d_branch2b_relu
I0119 14:54:46.750470 29854 net.cpp:157] Top shape: 1 256 14 14 (50176)
I0119 14:54:46.750473 29854 net.cpp:165] Memory required for data: 200503308
I0119 14:54:46.750478 29854 layer_factory.hpp:77] Creating layer res4d_branch2c
I0119 14:54:46.750485 29854 net.cpp:100] Creating Layer res4d_branch2c
I0119 14:54:46.750488 29854 net.cpp:444] res4d_branch2c <- res4d_branch2b
I0119 14:54:46.750494 29854 net.cpp:418] res4d_branch2c -> res4d_branch2c
I0119 14:54:46.751922 29854 net.cpp:150] Setting up res4d_branch2c
I0119 14:54:46.751941 29854 net.cpp:157] Top shape: 1 1024 14 14 (200704)
I0119 14:54:46.751943 29854 net.cpp:165] Memory required for data: 201306124
I0119 14:54:46.751951 29854 layer_factory.hpp:77] Creating layer bn4d_branch2c
I0119 14:54:46.751960 29854 net.cpp:100] Creating Layer bn4d_branch2c
I0119 14:54:46.751965 29854 net.cpp:444] bn4d_branch2c <- res4d_branch2c
I0119 14:54:46.751971 29854 net.cpp:405] bn4d_branch2c -> res4d_branch2c (in-place)
I0119 14:54:46.752158 29854 net.cpp:150] Setting up bn4d_branch2c
I0119 14:54:46.752164 29854 net.cpp:157] Top shape: 1 1024 14 14 (200704)
I0119 14:54:46.752167 29854 net.cpp:165] Memory required for data: 202108940
I0119 14:54:46.752172 29854 layer_factory.hpp:77] Creating layer scale4d_branch2c
I0119 14:54:46.752180 29854 net.cpp:100] Creating Layer scale4d_branch2c
I0119 14:54:46.752183 29854 net.cpp:444] scale4d_branch2c <- res4d_branch2c
I0119 14:54:46.752187 29854 net.cpp:405] scale4d_branch2c -> res4d_branch2c (in-place)
I0119 14:54:46.752218 29854 layer_factory.hpp:77] Creating layer scale4d_branch2c
I0119 14:54:46.752317 29854 net.cpp:150] Setting up scale4d_branch2c
I0119 14:54:46.752322 29854 net.cpp:157] Top shape: 1 1024 14 14 (200704)
I0119 14:54:46.752326 29854 net.cpp:165] Memory required for data: 202911756
I0119 14:54:46.752328 29854 layer_factory.hpp:77] Creating layer res4d
I0119 14:54:46.752334 29854 net.cpp:100] Creating Layer res4d
I0119 14:54:46.752338 29854 net.cpp:444] res4d <- res4c_res4c_relu_0_split_1
I0119 14:54:46.752341 29854 net.cpp:444] res4d <- res4d_branch2c
I0119 14:54:46.752346 29854 net.cpp:418] res4d -> res4d
I0119 14:54:46.752365 29854 net.cpp:150] Setting up res4d
I0119 14:54:46.752370 29854 net.cpp:157] Top shape: 1 1024 14 14 (200704)
I0119 14:54:46.752372 29854 net.cpp:165] Memory required for data: 203714572
I0119 14:54:46.752374 29854 layer_factory.hpp:77] Creating layer res4d_relu
I0119 14:54:46.752378 29854 net.cpp:100] Creating Layer res4d_relu
I0119 14:54:46.752380 29854 net.cpp:444] res4d_relu <- res4d
I0119 14:54:46.752385 29854 net.cpp:405] res4d_relu -> res4d (in-place)
I0119 14:54:46.752916 29854 net.cpp:150] Setting up res4d_relu
I0119 14:54:46.752924 29854 net.cpp:157] Top shape: 1 1024 14 14 (200704)
I0119 14:54:46.752928 29854 net.cpp:165] Memory required for data: 204517388
I0119 14:54:46.752931 29854 layer_factory.hpp:77] Creating layer res4d_res4d_relu_0_split
I0119 14:54:46.752938 29854 net.cpp:100] Creating Layer res4d_res4d_relu_0_split
I0119 14:54:46.752940 29854 net.cpp:444] res4d_res4d_relu_0_split <- res4d
I0119 14:54:46.752944 29854 net.cpp:418] res4d_res4d_relu_0_split -> res4d_res4d_relu_0_split_0
I0119 14:54:46.752952 29854 net.cpp:418] res4d_res4d_relu_0_split -> res4d_res4d_relu_0_split_1
I0119 14:54:46.752990 29854 net.cpp:150] Setting up res4d_res4d_relu_0_split
I0119 14:54:46.752995 29854 net.cpp:157] Top shape: 1 1024 14 14 (200704)
I0119 14:54:46.752997 29854 net.cpp:157] Top shape: 1 1024 14 14 (200704)
I0119 14:54:46.753000 29854 net.cpp:165] Memory required for data: 206123020
I0119 14:54:46.753002 29854 layer_factory.hpp:77] Creating layer res4e_branch2a
I0119 14:54:46.753010 29854 net.cpp:100] Creating Layer res4e_branch2a
I0119 14:54:46.753012 29854 net.cpp:444] res4e_branch2a <- res4d_res4d_relu_0_split_0
I0119 14:54:46.753017 29854 net.cpp:418] res4e_branch2a -> res4e_branch2a
I0119 14:54:46.754120 29854 net.cpp:150] Setting up res4e_branch2a
I0119 14:54:46.754130 29854 net.cpp:157] Top shape: 1 256 14 14 (50176)
I0119 14:54:46.754132 29854 net.cpp:165] Memory required for data: 206323724
I0119 14:54:46.754137 29854 layer_factory.hpp:77] Creating layer bn4e_branch2a
I0119 14:54:46.754144 29854 net.cpp:100] Creating Layer bn4e_branch2a
I0119 14:54:46.754148 29854 net.cpp:444] bn4e_branch2a <- res4e_branch2a
I0119 14:54:46.754151 29854 net.cpp:405] bn4e_branch2a -> res4e_branch2a (in-place)
I0119 14:54:46.754320 29854 net.cpp:150] Setting up bn4e_branch2a
I0119 14:54:46.754325 29854 net.cpp:157] Top shape: 1 256 14 14 (50176)
I0119 14:54:46.754328 29854 net.cpp:165] Memory required for data: 206524428
I0119 14:54:46.754333 29854 layer_factory.hpp:77] Creating layer scale4e_branch2a
I0119 14:54:46.754341 29854 net.cpp:100] Creating Layer scale4e_branch2a
I0119 14:54:46.754344 29854 net.cpp:444] scale4e_branch2a <- res4e_branch2a
I0119 14:54:46.754348 29854 net.cpp:405] scale4e_branch2a -> res4e_branch2a (in-place)
I0119 14:54:46.754381 29854 layer_factory.hpp:77] Creating layer scale4e_branch2a
I0119 14:54:46.754474 29854 net.cpp:150] Setting up scale4e_branch2a
I0119 14:54:46.754479 29854 net.cpp:157] Top shape: 1 256 14 14 (50176)
I0119 14:54:46.754482 29854 net.cpp:165] Memory required for data: 206725132
I0119 14:54:46.754485 29854 layer_factory.hpp:77] Creating layer res4e_branch2a_relu
I0119 14:54:46.754492 29854 net.cpp:100] Creating Layer res4e_branch2a_relu
I0119 14:54:46.754495 29854 net.cpp:444] res4e_branch2a_relu <- res4e_branch2a
I0119 14:54:46.754499 29854 net.cpp:405] res4e_branch2a_relu -> res4e_branch2a (in-place)
I0119 14:54:46.754642 29854 net.cpp:150] Setting up res4e_branch2a_relu
I0119 14:54:46.754649 29854 net.cpp:157] Top shape: 1 256 14 14 (50176)
I0119 14:54:46.754652 29854 net.cpp:165] Memory required for data: 206925836
I0119 14:54:46.754654 29854 layer_factory.hpp:77] Creating layer res4e_branch2b
I0119 14:54:46.754660 29854 net.cpp:100] Creating Layer res4e_branch2b
I0119 14:54:46.754664 29854 net.cpp:444] res4e_branch2b <- res4e_branch2a
I0119 14:54:46.754669 29854 net.cpp:418] res4e_branch2b -> res4e_branch2b
I0119 14:54:46.756901 29854 net.cpp:150] Setting up res4e_branch2b
I0119 14:54:46.756914 29854 net.cpp:157] Top shape: 1 256 14 14 (50176)
I0119 14:54:46.756917 29854 net.cpp:165] Memory required for data: 207126540
I0119 14:54:46.756922 29854 layer_factory.hpp:77] Creating layer bn4e_branch2b
I0119 14:54:46.756929 29854 net.cpp:100] Creating Layer bn4e_branch2b
I0119 14:54:46.756933 29854 net.cpp:444] bn4e_branch2b <- res4e_branch2b
I0119 14:54:46.756939 29854 net.cpp:405] bn4e_branch2b -> res4e_branch2b (in-place)
I0119 14:54:46.757120 29854 net.cpp:150] Setting up bn4e_branch2b
I0119 14:54:46.757139 29854 net.cpp:157] Top shape: 1 256 14 14 (50176)
I0119 14:54:46.757141 29854 net.cpp:165] Memory required for data: 207327244
I0119 14:54:46.757148 29854 layer_factory.hpp:77] Creating layer scale4e_branch2b
I0119 14:54:46.757182 29854 net.cpp:100] Creating Layer scale4e_branch2b
I0119 14:54:46.757186 29854 net.cpp:444] scale4e_branch2b <- res4e_branch2b
I0119 14:54:46.757190 29854 net.cpp:405] scale4e_branch2b -> res4e_branch2b (in-place)
I0119 14:54:46.757241 29854 layer_factory.hpp:77] Creating layer scale4e_branch2b
I0119 14:54:46.757352 29854 net.cpp:150] Setting up scale4e_branch2b
I0119 14:54:46.757357 29854 net.cpp:157] Top shape: 1 256 14 14 (50176)
I0119 14:54:46.757359 29854 net.cpp:165] Memory required for data: 207527948
I0119 14:54:46.757364 29854 layer_factory.hpp:77] Creating layer res4e_branch2b_relu
I0119 14:54:46.757371 29854 net.cpp:100] Creating Layer res4e_branch2b_relu
I0119 14:54:46.757374 29854 net.cpp:444] res4e_branch2b_relu <- res4e_branch2b
I0119 14:54:46.757377 29854 net.cpp:405] res4e_branch2b_relu -> res4e_branch2b (in-place)
I0119 14:54:46.757540 29854 net.cpp:150] Setting up res4e_branch2b_relu
I0119 14:54:46.757547 29854 net.cpp:157] Top shape: 1 256 14 14 (50176)
I0119 14:54:46.757550 29854 net.cpp:165] Memory required for data: 207728652
I0119 14:54:46.757552 29854 layer_factory.hpp:77] Creating layer res4e_branch2c
I0119 14:54:46.757560 29854 net.cpp:100] Creating Layer res4e_branch2c
I0119 14:54:46.757562 29854 net.cpp:444] res4e_branch2c <- res4e_branch2b
I0119 14:54:46.757568 29854 net.cpp:418] res4e_branch2c -> res4e_branch2c
I0119 14:54:46.759315 29854 net.cpp:150] Setting up res4e_branch2c
I0119 14:54:46.759326 29854 net.cpp:157] Top shape: 1 1024 14 14 (200704)
I0119 14:54:46.759328 29854 net.cpp:165] Memory required for data: 208531468
I0119 14:54:46.759333 29854 layer_factory.hpp:77] Creating layer bn4e_branch2c
I0119 14:54:46.759341 29854 net.cpp:100] Creating Layer bn4e_branch2c
I0119 14:54:46.759346 29854 net.cpp:444] bn4e_branch2c <- res4e_branch2c
I0119 14:54:46.759351 29854 net.cpp:405] bn4e_branch2c -> res4e_branch2c (in-place)
I0119 14:54:46.759559 29854 net.cpp:150] Setting up bn4e_branch2c
I0119 14:54:46.759565 29854 net.cpp:157] Top shape: 1 1024 14 14 (200704)
I0119 14:54:46.759568 29854 net.cpp:165] Memory required for data: 209334284
I0119 14:54:46.759573 29854 layer_factory.hpp:77] Creating layer scale4e_branch2c
I0119 14:54:46.759579 29854 net.cpp:100] Creating Layer scale4e_branch2c
I0119 14:54:46.759582 29854 net.cpp:444] scale4e_branch2c <- res4e_branch2c
I0119 14:54:46.759585 29854 net.cpp:405] scale4e_branch2c -> res4e_branch2c (in-place)
I0119 14:54:46.759630 29854 layer_factory.hpp:77] Creating layer scale4e_branch2c
I0119 14:54:46.759744 29854 net.cpp:150] Setting up scale4e_branch2c
I0119 14:54:46.759750 29854 net.cpp:157] Top shape: 1 1024 14 14 (200704)
I0119 14:54:46.759752 29854 net.cpp:165] Memory required for data: 210137100
I0119 14:54:46.759757 29854 layer_factory.hpp:77] Creating layer res4e
I0119 14:54:46.759774 29854 net.cpp:100] Creating Layer res4e
I0119 14:54:46.759778 29854 net.cpp:444] res4e <- res4d_res4d_relu_0_split_1
I0119 14:54:46.759785 29854 net.cpp:444] res4e <- res4e_branch2c
I0119 14:54:46.759788 29854 net.cpp:418] res4e -> res4e
I0119 14:54:46.759809 29854 net.cpp:150] Setting up res4e
I0119 14:54:46.759814 29854 net.cpp:157] Top shape: 1 1024 14 14 (200704)
I0119 14:54:46.759816 29854 net.cpp:165] Memory required for data: 210939916
I0119 14:54:46.759819 29854 layer_factory.hpp:77] Creating layer res4e_relu
I0119 14:54:46.759824 29854 net.cpp:100] Creating Layer res4e_relu
I0119 14:54:46.759827 29854 net.cpp:444] res4e_relu <- res4e
I0119 14:54:46.759831 29854 net.cpp:405] res4e_relu -> res4e (in-place)
I0119 14:54:46.759977 29854 net.cpp:150] Setting up res4e_relu
I0119 14:54:46.759984 29854 net.cpp:157] Top shape: 1 1024 14 14 (200704)
I0119 14:54:46.759985 29854 net.cpp:165] Memory required for data: 211742732
I0119 14:54:46.759989 29854 layer_factory.hpp:77] Creating layer res4e_res4e_relu_0_split
I0119 14:54:46.759992 29854 net.cpp:100] Creating Layer res4e_res4e_relu_0_split
I0119 14:54:46.759996 29854 net.cpp:444] res4e_res4e_relu_0_split <- res4e
I0119 14:54:46.760001 29854 net.cpp:418] res4e_res4e_relu_0_split -> res4e_res4e_relu_0_split_0
I0119 14:54:46.760007 29854 net.cpp:418] res4e_res4e_relu_0_split -> res4e_res4e_relu_0_split_1
I0119 14:54:46.760043 29854 net.cpp:150] Setting up res4e_res4e_relu_0_split
I0119 14:54:46.760047 29854 net.cpp:157] Top shape: 1 1024 14 14 (200704)
I0119 14:54:46.760051 29854 net.cpp:157] Top shape: 1 1024 14 14 (200704)
I0119 14:54:46.760053 29854 net.cpp:165] Memory required for data: 213348364
I0119 14:54:46.760056 29854 layer_factory.hpp:77] Creating layer res4f_branch2a
I0119 14:54:46.760061 29854 net.cpp:100] Creating Layer res4f_branch2a
I0119 14:54:46.760064 29854 net.cpp:444] res4f_branch2a <- res4e_res4e_relu_0_split_0
I0119 14:54:46.760069 29854 net.cpp:418] res4f_branch2a -> res4f_branch2a
I0119 14:54:46.761214 29854 net.cpp:150] Setting up res4f_branch2a
I0119 14:54:46.761230 29854 net.cpp:157] Top shape: 1 256 14 14 (50176)
I0119 14:54:46.761232 29854 net.cpp:165] Memory required for data: 213549068
I0119 14:54:46.761252 29854 layer_factory.hpp:77] Creating layer bn4f_branch2a
I0119 14:54:46.761276 29854 net.cpp:100] Creating Layer bn4f_branch2a
I0119 14:54:46.761279 29854 net.cpp:444] bn4f_branch2a <- res4f_branch2a
I0119 14:54:46.761286 29854 net.cpp:405] bn4f_branch2a -> res4f_branch2a (in-place)
I0119 14:54:46.761471 29854 net.cpp:150] Setting up bn4f_branch2a
I0119 14:54:46.761476 29854 net.cpp:157] Top shape: 1 256 14 14 (50176)
I0119 14:54:46.761478 29854 net.cpp:165] Memory required for data: 213749772
I0119 14:54:46.761483 29854 layer_factory.hpp:77] Creating layer scale4f_branch2a
I0119 14:54:46.761489 29854 net.cpp:100] Creating Layer scale4f_branch2a
I0119 14:54:46.761492 29854 net.cpp:444] scale4f_branch2a <- res4f_branch2a
I0119 14:54:46.761497 29854 net.cpp:405] scale4f_branch2a -> res4f_branch2a (in-place)
I0119 14:54:46.761531 29854 layer_factory.hpp:77] Creating layer scale4f_branch2a
I0119 14:54:46.761657 29854 net.cpp:150] Setting up scale4f_branch2a
I0119 14:54:46.761662 29854 net.cpp:157] Top shape: 1 256 14 14 (50176)
I0119 14:54:46.761664 29854 net.cpp:165] Memory required for data: 213950476
I0119 14:54:46.761668 29854 layer_factory.hpp:77] Creating layer res4f_branch2a_relu
I0119 14:54:46.761672 29854 net.cpp:100] Creating Layer res4f_branch2a_relu
I0119 14:54:46.761690 29854 net.cpp:444] res4f_branch2a_relu <- res4f_branch2a
I0119 14:54:46.761696 29854 net.cpp:405] res4f_branch2a_relu -> res4f_branch2a (in-place)
I0119 14:54:46.761853 29854 net.cpp:150] Setting up res4f_branch2a_relu
I0119 14:54:46.761860 29854 net.cpp:157] Top shape: 1 256 14 14 (50176)
I0119 14:54:46.761862 29854 net.cpp:165] Memory required for data: 214151180
I0119 14:54:46.761864 29854 layer_factory.hpp:77] Creating layer res4f_branch2b
I0119 14:54:46.761873 29854 net.cpp:100] Creating Layer res4f_branch2b
I0119 14:54:46.761875 29854 net.cpp:444] res4f_branch2b <- res4f_branch2a
I0119 14:54:46.761880 29854 net.cpp:418] res4f_branch2b -> res4f_branch2b
I0119 14:54:46.764477 29854 net.cpp:150] Setting up res4f_branch2b
I0119 14:54:46.764495 29854 net.cpp:157] Top shape: 1 256 14 14 (50176)
I0119 14:54:46.764498 29854 net.cpp:165] Memory required for data: 214351884
I0119 14:54:46.764508 29854 layer_factory.hpp:77] Creating layer bn4f_branch2b
I0119 14:54:46.764530 29854 net.cpp:100] Creating Layer bn4f_branch2b
I0119 14:54:46.764554 29854 net.cpp:444] bn4f_branch2b <- res4f_branch2b
I0119 14:54:46.764562 29854 net.cpp:405] bn4f_branch2b -> res4f_branch2b (in-place)
I0119 14:54:46.764770 29854 net.cpp:150] Setting up bn4f_branch2b
I0119 14:54:46.764775 29854 net.cpp:157] Top shape: 1 256 14 14 (50176)
I0119 14:54:46.764777 29854 net.cpp:165] Memory required for data: 214552588
I0119 14:54:46.764783 29854 layer_factory.hpp:77] Creating layer scale4f_branch2b
I0119 14:54:46.764791 29854 net.cpp:100] Creating Layer scale4f_branch2b
I0119 14:54:46.764793 29854 net.cpp:444] scale4f_branch2b <- res4f_branch2b
I0119 14:54:46.764797 29854 net.cpp:405] scale4f_branch2b -> res4f_branch2b (in-place)
I0119 14:54:46.764835 29854 layer_factory.hpp:77] Creating layer scale4f_branch2b
I0119 14:54:46.764962 29854 net.cpp:150] Setting up scale4f_branch2b
I0119 14:54:46.764967 29854 net.cpp:157] Top shape: 1 256 14 14 (50176)
I0119 14:54:46.764969 29854 net.cpp:165] Memory required for data: 214753292
I0119 14:54:46.764974 29854 layer_factory.hpp:77] Creating layer res4f_branch2b_relu
I0119 14:54:46.764979 29854 net.cpp:100] Creating Layer res4f_branch2b_relu
I0119 14:54:46.764981 29854 net.cpp:444] res4f_branch2b_relu <- res4f_branch2b
I0119 14:54:46.764986 29854 net.cpp:405] res4f_branch2b_relu -> res4f_branch2b (in-place)
I0119 14:54:46.765550 29854 net.cpp:150] Setting up res4f_branch2b_relu
I0119 14:54:46.765559 29854 net.cpp:157] Top shape: 1 256 14 14 (50176)
I0119 14:54:46.765563 29854 net.cpp:165] Memory required for data: 214953996
I0119 14:54:46.765564 29854 layer_factory.hpp:77] Creating layer res4f_branch2c
I0119 14:54:46.765574 29854 net.cpp:100] Creating Layer res4f_branch2c
I0119 14:54:46.765579 29854 net.cpp:444] res4f_branch2c <- res4f_branch2b
I0119 14:54:46.765583 29854 net.cpp:418] res4f_branch2c -> res4f_branch2c
I0119 14:54:46.767132 29854 net.cpp:150] Setting up res4f_branch2c
I0119 14:54:46.767149 29854 net.cpp:157] Top shape: 1 1024 14 14 (200704)
I0119 14:54:46.767153 29854 net.cpp:165] Memory required for data: 215756812
I0119 14:54:46.767158 29854 layer_factory.hpp:77] Creating layer bn4f_branch2c
I0119 14:54:46.767168 29854 net.cpp:100] Creating Layer bn4f_branch2c
I0119 14:54:46.767172 29854 net.cpp:444] bn4f_branch2c <- res4f_branch2c
I0119 14:54:46.767177 29854 net.cpp:405] bn4f_branch2c -> res4f_branch2c (in-place)
I0119 14:54:46.767365 29854 net.cpp:150] Setting up bn4f_branch2c
I0119 14:54:46.767370 29854 net.cpp:157] Top shape: 1 1024 14 14 (200704)
I0119 14:54:46.767374 29854 net.cpp:165] Memory required for data: 216559628
I0119 14:54:46.767401 29854 layer_factory.hpp:77] Creating layer scale4f_branch2c
I0119 14:54:46.767408 29854 net.cpp:100] Creating Layer scale4f_branch2c
I0119 14:54:46.767411 29854 net.cpp:444] scale4f_branch2c <- res4f_branch2c
I0119 14:54:46.767416 29854 net.cpp:405] scale4f_branch2c -> res4f_branch2c (in-place)
I0119 14:54:46.767449 29854 layer_factory.hpp:77] Creating layer scale4f_branch2c
I0119 14:54:46.767554 29854 net.cpp:150] Setting up scale4f_branch2c
I0119 14:54:46.767560 29854 net.cpp:157] Top shape: 1 1024 14 14 (200704)
I0119 14:54:46.767561 29854 net.cpp:165] Memory required for data: 217362444
I0119 14:54:46.767565 29854 layer_factory.hpp:77] Creating layer res4f
I0119 14:54:46.767572 29854 net.cpp:100] Creating Layer res4f
I0119 14:54:46.767576 29854 net.cpp:444] res4f <- res4e_res4e_relu_0_split_1
I0119 14:54:46.767580 29854 net.cpp:444] res4f <- res4f_branch2c
I0119 14:54:46.767585 29854 net.cpp:418] res4f -> res4f
I0119 14:54:46.767604 29854 net.cpp:150] Setting up res4f
I0119 14:54:46.767609 29854 net.cpp:157] Top shape: 1 1024 14 14 (200704)
I0119 14:54:46.767611 29854 net.cpp:165] Memory required for data: 218165260
I0119 14:54:46.767613 29854 layer_factory.hpp:77] Creating layer res4f_relu
I0119 14:54:46.767618 29854 net.cpp:100] Creating Layer res4f_relu
I0119 14:54:46.767621 29854 net.cpp:444] res4f_relu <- res4f
I0119 14:54:46.767624 29854 net.cpp:405] res4f_relu -> res4f (in-place)
I0119 14:54:46.768151 29854 net.cpp:150] Setting up res4f_relu
I0119 14:54:46.768162 29854 net.cpp:157] Top shape: 1 1024 14 14 (200704)
I0119 14:54:46.768164 29854 net.cpp:165] Memory required for data: 218968076
I0119 14:54:46.768167 29854 layer_factory.hpp:77] Creating layer res4f_res4f_relu_0_split
I0119 14:54:46.768172 29854 net.cpp:100] Creating Layer res4f_res4f_relu_0_split
I0119 14:54:46.768177 29854 net.cpp:444] res4f_res4f_relu_0_split <- res4f
I0119 14:54:46.768182 29854 net.cpp:418] res4f_res4f_relu_0_split -> res4f_res4f_relu_0_split_0
I0119 14:54:46.768187 29854 net.cpp:418] res4f_res4f_relu_0_split -> res4f_res4f_relu_0_split_1
I0119 14:54:46.768193 29854 net.cpp:418] res4f_res4f_relu_0_split -> res4f_res4f_relu_0_split_2
I0119 14:54:46.768244 29854 net.cpp:150] Setting up res4f_res4f_relu_0_split
I0119 14:54:46.768249 29854 net.cpp:157] Top shape: 1 1024 14 14 (200704)
I0119 14:54:46.768251 29854 net.cpp:157] Top shape: 1 1024 14 14 (200704)
I0119 14:54:46.768254 29854 net.cpp:157] Top shape: 1 1024 14 14 (200704)
I0119 14:54:46.768256 29854 net.cpp:165] Memory required for data: 221376524
I0119 14:54:46.768259 29854 layer_factory.hpp:77] Creating layer res5a_branch1
I0119 14:54:46.768265 29854 net.cpp:100] Creating Layer res5a_branch1
I0119 14:54:46.768270 29854 net.cpp:444] res5a_branch1 <- res4f_res4f_relu_0_split_0
I0119 14:54:46.768272 29854 net.cpp:418] res5a_branch1 -> res5a_branch1
I0119 14:54:46.773118 29854 net.cpp:150] Setting up res5a_branch1
I0119 14:54:46.773139 29854 net.cpp:157] Top shape: 1 2048 14 14 (401408)
I0119 14:54:46.773142 29854 net.cpp:165] Memory required for data: 222982156
I0119 14:54:46.773152 29854 layer_factory.hpp:77] Creating layer bn5a_branch1
I0119 14:54:46.773162 29854 net.cpp:100] Creating Layer bn5a_branch1
I0119 14:54:46.773167 29854 net.cpp:444] bn5a_branch1 <- res5a_branch1
I0119 14:54:46.773175 29854 net.cpp:405] bn5a_branch1 -> res5a_branch1 (in-place)
I0119 14:54:46.773378 29854 net.cpp:150] Setting up bn5a_branch1
I0119 14:54:46.773383 29854 net.cpp:157] Top shape: 1 2048 14 14 (401408)
I0119 14:54:46.773386 29854 net.cpp:165] Memory required for data: 224587788
I0119 14:54:46.773391 29854 layer_factory.hpp:77] Creating layer scale5a_branch1
I0119 14:54:46.773397 29854 net.cpp:100] Creating Layer scale5a_branch1
I0119 14:54:46.773401 29854 net.cpp:444] scale5a_branch1 <- res5a_branch1
I0119 14:54:46.773403 29854 net.cpp:405] scale5a_branch1 -> res5a_branch1 (in-place)
I0119 14:54:46.773438 29854 layer_factory.hpp:77] Creating layer scale5a_branch1
I0119 14:54:46.773545 29854 net.cpp:150] Setting up scale5a_branch1
I0119 14:54:46.773550 29854 net.cpp:157] Top shape: 1 2048 14 14 (401408)
I0119 14:54:46.773553 29854 net.cpp:165] Memory required for data: 226193420
I0119 14:54:46.773556 29854 layer_factory.hpp:77] Creating layer res5a_branch2a
I0119 14:54:46.773563 29854 net.cpp:100] Creating Layer res5a_branch2a
I0119 14:54:46.773567 29854 net.cpp:444] res5a_branch2a <- res4f_res4f_relu_0_split_1
I0119 14:54:46.773572 29854 net.cpp:418] res5a_branch2a -> res5a_branch2a
I0119 14:54:46.775449 29854 net.cpp:150] Setting up res5a_branch2a
I0119 14:54:46.775460 29854 net.cpp:157] Top shape: 1 512 14 14 (100352)
I0119 14:54:46.775463 29854 net.cpp:165] Memory required for data: 226594828
I0119 14:54:46.775468 29854 layer_factory.hpp:77] Creating layer bn5a_branch2a
I0119 14:54:46.775475 29854 net.cpp:100] Creating Layer bn5a_branch2a
I0119 14:54:46.775480 29854 net.cpp:444] bn5a_branch2a <- res5a_branch2a
I0119 14:54:46.775483 29854 net.cpp:405] bn5a_branch2a -> res5a_branch2a (in-place)
I0119 14:54:46.775668 29854 net.cpp:150] Setting up bn5a_branch2a
I0119 14:54:46.775673 29854 net.cpp:157] Top shape: 1 512 14 14 (100352)
I0119 14:54:46.775676 29854 net.cpp:165] Memory required for data: 226996236
I0119 14:54:46.775681 29854 layer_factory.hpp:77] Creating layer scale5a_branch2a
I0119 14:54:46.775688 29854 net.cpp:100] Creating Layer scale5a_branch2a
I0119 14:54:46.775691 29854 net.cpp:444] scale5a_branch2a <- res5a_branch2a
I0119 14:54:46.775694 29854 net.cpp:405] scale5a_branch2a -> res5a_branch2a (in-place)
I0119 14:54:46.775727 29854 layer_factory.hpp:77] Creating layer scale5a_branch2a
I0119 14:54:46.775831 29854 net.cpp:150] Setting up scale5a_branch2a
I0119 14:54:46.775837 29854 net.cpp:157] Top shape: 1 512 14 14 (100352)
I0119 14:54:46.775840 29854 net.cpp:165] Memory required for data: 227397644
I0119 14:54:46.775843 29854 layer_factory.hpp:77] Creating layer res5a_branch2a_relu
I0119 14:54:46.775849 29854 net.cpp:100] Creating Layer res5a_branch2a_relu
I0119 14:54:46.775853 29854 net.cpp:444] res5a_branch2a_relu <- res5a_branch2a
I0119 14:54:46.775856 29854 net.cpp:405] res5a_branch2a_relu -> res5a_branch2a (in-place)
I0119 14:54:46.776008 29854 net.cpp:150] Setting up res5a_branch2a_relu
I0119 14:54:46.776015 29854 net.cpp:157] Top shape: 1 512 14 14 (100352)
I0119 14:54:46.776017 29854 net.cpp:165] Memory required for data: 227799052
I0119 14:54:46.776021 29854 layer_factory.hpp:77] Creating layer res5a_branch2a_res5a_branch2a_relu_0_split
I0119 14:54:46.776024 29854 net.cpp:100] Creating Layer res5a_branch2a_res5a_branch2a_relu_0_split
I0119 14:54:46.776028 29854 net.cpp:444] res5a_branch2a_res5a_branch2a_relu_0_split <- res5a_branch2a
I0119 14:54:46.776033 29854 net.cpp:418] res5a_branch2a_res5a_branch2a_relu_0_split -> res5a_branch2a_res5a_branch2a_relu_0_split_0
I0119 14:54:46.776039 29854 net.cpp:418] res5a_branch2a_res5a_branch2a_relu_0_split -> res5a_branch2a_res5a_branch2a_relu_0_split_1
I0119 14:54:46.776044 29854 net.cpp:418] res5a_branch2a_res5a_branch2a_relu_0_split -> res5a_branch2a_res5a_branch2a_relu_0_split_2
I0119 14:54:46.776094 29854 net.cpp:150] Setting up res5a_branch2a_res5a_branch2a_relu_0_split
I0119 14:54:46.776098 29854 net.cpp:157] Top shape: 1 512 14 14 (100352)
I0119 14:54:46.776101 29854 net.cpp:157] Top shape: 1 512 14 14 (100352)
I0119 14:54:46.776104 29854 net.cpp:157] Top shape: 1 512 14 14 (100352)
I0119 14:54:46.776106 29854 net.cpp:165] Memory required for data: 229003276
I0119 14:54:46.776109 29854 layer_factory.hpp:77] Creating layer res5a_branch2b_offset
I0119 14:54:46.776116 29854 net.cpp:100] Creating Layer res5a_branch2b_offset
I0119 14:54:46.776120 29854 net.cpp:444] res5a_branch2b_offset <- res5a_branch2a_res5a_branch2a_relu_0_split_0
I0119 14:54:46.776125 29854 net.cpp:418] res5a_branch2b_offset -> res5a_branch2b_offset
I0119 14:54:46.777117 29854 net.cpp:150] Setting up res5a_branch2b_offset
I0119 14:54:46.777127 29854 net.cpp:157] Top shape: 1 72 14 14 (14112)
I0119 14:54:46.777130 29854 net.cpp:165] Memory required for data: 229059724
I0119 14:54:46.777137 29854 layer_factory.hpp:77] Creating layer res5a_branch2b
I0119 14:54:46.777145 29854 net.cpp:100] Creating Layer res5a_branch2b
I0119 14:54:46.777149 29854 net.cpp:444] res5a_branch2b <- res5a_branch2a_res5a_branch2a_relu_0_split_1
I0119 14:54:46.777153 29854 net.cpp:444] res5a_branch2b <- res5a_branch2b_offset
I0119 14:54:46.777159 29854 net.cpp:418] res5a_branch2b -> res5a_branch2b
I0119 14:54:46.781220 29854 net.cpp:150] Setting up res5a_branch2b
I0119 14:54:46.781245 29854 net.cpp:157] Top shape: 1 512 14 14 (100352)
I0119 14:54:46.781249 29854 net.cpp:165] Memory required for data: 229461132
I0119 14:54:46.781258 29854 layer_factory.hpp:77] Creating layer res5a_branch2b
I0119 14:54:46.781276 29854 net.cpp:100] Creating Layer res5a_branch2b
I0119 14:54:46.781301 29854 net.cpp:444] res5a_branch2b <- res5a_branch2a_res5a_branch2a_relu_0_split_2
F0119 14:54:46.781314 29854 net.cpp:413] Top blob 'res5a_branch2b' produced by multiple sources.
…
