…
snapshot: 30000
snapshot_prefix: "resnet50_rfcn_ohem"
iter_size: 2
I0312 23:45:41.110406 14665 solver.cpp:81] Creating training net from train_net file: models/pascal_voc/ResNet-50/rfcn_end2end/train_agnostic_ohem.prototxt
I0312 23:45:41.114014 14665 net.cpp:58] Initializing net from parameters: 
name: "ResNet-50"
state {
  phase: TRAIN
}
layer {
  name: "input-data"
  type: "Python"
  top: "data"
  top: "im_info"
  top: "gt_boxes"
  python_param {
    module: "roi_data_layer.layer"
    layer: "RoIDataLayer"
    param_str: "\'num_classes\': 2"
  }
}
layer {
  name: "conv1"
  type: "Convolution"
  bottom: "data"
  top: "conv1"
  param {
    lr_mult: 0
  }
  param {
    lr_mult: 0
  }
  convolution_param {
    num_output: 64
    pad: 3
    kernel_size: 7
    stride: 2
  }
}
layer {
  name: "bn_conv1"
  type: "BatchNorm"
  bottom: "conv1"
  top: "conv1"
  param {
    lr_mult: 0
    decay_mult: 0
  }
  param {
    lr_mult: 0
    decay_mult: 0
  }
  param {
    lr_mult: 0
    decay_mult: 0
  }
  batch_norm_param {
    use_global_stats: true
  }
}
layer {
  name: "scale_conv1"
  type: "Scale"
  bottom: "conv1"
  top: "conv1"
  param {
    lr_mult: 0
    decay_mult: 0
  }
  param {
    lr_mult: 0
    decay_mult: 0
  }
  scale_param {
    bias_term: true
  }
}
layer {
  name: "conv1_relu"
  type: "ReLU"
  bottom: "conv1"
  top: "conv1"
}
layer {
  name: "pool1"
  type: "Pooling"
  bottom: "conv1"
  top: "pool1"
  pooling_param {
    pool: MAX
    kernel_size: 3
    stride: 2
  }
}
layer {
  name: "res2a_branch1"
  type: "Convolution"
  bottom: "pool1"
  top: "res2a_branch1"
  param {
    lr_mult: 0
  }
  convolution_param {
    num_output: 256
    bias_term: false
    pad: 0
    kernel_size: 1
    stride: 1
  }
}
layer {
  name: "bn2a_branch1"
  type: "BatchNorm"
  bottom: "res2a_branch1"
  top: "res2a_branch1"
  param {
    lr_mult: 0
    decay_mult: 0
  }
  param {
    lr_mult: 0
    decay_mult: 0
  }
  param {
    lr_mult: 0
    decay_mult: 0
  }
  batch_norm_param {
    use_global_stats: true
  }
}
layer {
  name: "scale2a_branch1"
  type: "Scale"
  bottom: "res2a_branch1"
  top: "res2a_branch1"
  param {
    lr_mult: 0
    decay_mult: 0
  }
  param {
    lr_mult: 0
    decay_mult: 0
  }
  scale_param {
    bias_term: true
  }
}
layer {
  name: "res2a_branch2a"
  type: "Convolution"
  bottom: "pool1"
  top: "res2a_branch2a"
  param {
    lr_mult: 0
  }
  convolution_param {
    num_output: 64
    bias_term: false
    pad: 0
    kernel_size: 1
    stride: 1
  }
}
layer {
  name: "bn2a_branch2a"
  type: "BatchNorm"
  bottom: "res2a_branch2a"
  top: "res2a_branch2a"
  param {
    lr_mult: 0
    decay_mult: 0
  }
  param {
    lr_mult: 0
    decay_mult: 0
  }
  param {
    lr_mult: 0
    decay_mult: 0
  }
  batch_norm_param {
    use_global_stats: true
  }
}
layer {
  name: "scale2a_branch2a"
  type: "Scale"
  bottom: "res2a_branch2a"
  top: "res2a_branch2a"
  param {
    lr_mult: 0
    decay_mult: 0
  }
  param {
    lr_mult: 0
    decay_mult: 0
  }
  scale_param {
    bias_term: true
  }
}
layer {
  name: "res2a_branch2a_relu"
  type: "ReLU"
  bottom: "res2a_branch2a"
  top: "res2a_branch2a"
}
layer {
  name: "res2a_branch2b"
  type: "Convolution"
  bottom: "res2a_branch2a"
  top: "res2a_branch2b"
  param {
    lr_mult: 0
  }
  convolution_param {
    num_output: 64
    bias_term: false
    pad: 1
    kernel_size: 3
    stride: 1
  }
}
layer {
  name: "bn2a_branch2b"
  type: "BatchNorm"
  bottom: "res2a_branch2b"
  top: "res2a_branch2b"
  param {
    lr_mult: 0
    decay_mult: 0
  }
  param {
    lr_mult: 0
    decay_mult: 0
  }
  param {
    lr_mult: 0
    decay_mult: 0
  }
  batch_norm_param {
    use_global_stats: true
  }
}
layer {
  name: "scale2a_branch2b"
  type: "Scale"
  bottom: "res2a_branch2b"
  top: "res2a_branch2b"
  param {
    lr_mult: 0
    decay_mult: 0
  }
  param {
    lr_mult: 0
    decay_mult: 0
  }
  scale_param {
    bias_term: true
  }
}
layer {
  name: "res2a_branch2b_relu"
  type: "ReLU"
  bottom: "res2a_branch2b"
  top: "res2a_branch2b"
}
layer {
  name: "res2a_branch2c"
  type: "Convolution"
  bottom: "res2a_branch2b"
  top: "res2a_branch2c"
  param {
    lr_mult: 0
  }
  convolution_param {
    num_output: 256
    bias_term: false
    pad: 0
    kernel_size: 1
    stride: 1
  }
}
layer {
  name: "bn2a_branch2c"
  type: "BatchNorm"
  bottom: "res2a_branch2c"
  top: "res2a_branch2c"
  param {
    lr_mult: 0
    decay_mult: 0
  }
  param {
    lr_mult: 0
    decay_mult: 0
  }
  param {
    lr_mult: 0
    decay_mult: 0
  }
  batch_norm_param {
    use_global_stats: true
  }
}
layer {
  name: "scale2a_branch2c"
  type: "Scale"
  bottom: "res2a_branch2c"
  top: "res2a_branch2c"
  param {
    lr_mult: 0
    decay_mult: 0
  }
  param {
    lr_mult: 0
    decay_mult: 0
  }
  scale_param {
    bias_term: true
  }
}
layer {
  name: "res2a"
  type: "Eltwise"
  bottom: "res2a_branch1"
  bottom: "res2a_branch2c"
  top: "res2a"
}
layer {
  name: "res2a_relu"
  type: "ReLU"
  bottom: "res2a"
  top: "res2a"
}
layer {
  name: "res2b_branch2a"
  type: "Convolution"
  bottom: "res2a"
  top: "res2b_branch2a"
  param {
    lr_mult: 0
  }
  convolution_param {
    num_output: 64
    bias_term: false
    pad: 0
    kernel_size: 1
    stride: 1
  }
}
layer {
  name: "bn2b_branch2a"
  type: "BatchNorm"
  bottom: "res2b_branch2a"
  top: "res2b_branch2a"
  param {
    lr_mult: 0
    decay_mult: 0
  }
  param {
    lr_mult: 0
    decay_mult: 0
  }
  param {
    lr_mult: 0
    decay_mult: 0
  }
  batch_norm_param {
    use_global_stats: true
  }
}
layer {
  name: "scale2b_branch2a"
  type: "Scale"
  bottom: "res2b_branch2a"
  top: "res2b_branch2a"
  param {
    lr_mult: 0
    decay_mult: 0
  }
  param {
    lr_mult: 0
    decay_mult: 0
  }
  scale_param {
    bias_term: true
  }
}
layer {
  name: "res2b_branch2a_relu"
  type: "ReLU"
  bottom: "res2b_branch2a"
  top: "res2b_branch2a"
}
layer {
  name: "res2b_branch2b"
  type: "Convolution"
  bottom: "res2b_branch2a"
  top: "res2b_branch2b"
  param {
    lr_mult: 0
  }
  convolution_param {
    num_output: 64
    bias_term: false
    pad: 1
    kernel_size: 3
    stride: 1
  }
}
layer {
  name: "bn2b_branch2b"
  type: "BatchNorm"
  bottom: "res2b_branch2b"
  top: "res2b_branch2b"
  param {
    lr_mult: 0
    decay_mult: 0
  }
  param {
    lr_mult: 0
    decay_mult: 0
  }
  param {
    lr_mult: 0
    decay_mult: 0
  }
  batch_norm_param {
    use_global_stats: true
  }
}
layer {
  name: "scale2b_branch2b"
  type: "Scale"
  bottom: "res2b_branch2b"
  top: "res2b_branch2b"
  param {
    lr_mult: 0
    decay_mult: 0
  }
  param {
    lr_mult: 0
    decay_mult: 0
  }
  scale_param {
    bias_term: true
  }
}
layer {
  name: "res2b_branch2b_relu"
  type: "ReLU"
  bottom: "res2b_branch2b"
  top: "res2b_branch2b"
}
layer {
  name: "res2b_branch2c"
  type: "Convolution"
  bottom: "res2b_branch2b"
  top: "res2b_branch2c"
  param {
    lr_mult: 0
  }
  convolution_param {
    num_output: 256
    bias_term: false
    pad: 0
    kernel_size: 1
    stride: 1
  }
}
layer {
  name: "bn2b_branch2c"
  type: "BatchNorm"
  bottom: "res2b_branch2c"
  top: "res2b_branch2c"
  param {
    lr_mult: 0
    decay_mult: 0
  }
  param {
    lr_mult: 0
    decay_mult: 0
  }
  param {
    lr_mult: 0
    decay_mult: 0
  }
  batch_norm_param {
    use_global_stats: true
  }
}
layer {
  name: "scale2b_branch2c"
  type: "Scale"
  bottom: "res2b_branch2c"
  top: "res2b_branch2c"
  param {
    lr_mult: 0
    decay_mult: 0
  }
  param {
    lr_mult: 0
    decay_mult: 0
  }
  scale_param {
    bias_term: true
  }
}
layer {
  name: "res2b"
  type: "Eltwise"
  bottom: "res2a"
  bottom: "res2b_branch2c"
  top: "res2b"
}
layer {
  name: "res2b_relu"
  type: "ReLU"
  bottom: "res2b"
  top: "res2b"
}
layer {
  name: "res2c_branch2a"
  type: "Convolution"
  bottom: "res2b"
  top: "res2c_branch2a"
  param {
    lr_mult: 0
  }
  convolution_param {
    num_output: 64
    bias_term: false
    pad: 0
    kernel_size: 1
    stride: 1
  }
}
layer {
  name: "bn2c_branch2a"
  type: "BatchNorm"
  bottom: "res2c_branch2a"
  top: "res2c_branch2a"
  param {
    lr_mult: 0
    decay_mult: 0
  }
  param {
    lr_mult: 0
    decay_mult: 0
  }
  param {
    lr_mult: 0
    decay_mult: 0
  }
  batch_norm_param {
    use_global_stats: true
  }
}
layer {
  name: "scale2c_branch2a"
  type: "Scale"
  bottom: "res2c_branch2a"
  top: "res2c_branch2a"
  param {
    lr_mult: 0
    decay_mult: 0
  }
  param {
    lr_mult: 0
    decay_mult: 0
  }
  scale_param {
    bias_term: true
  }
}
layer {
  name: "res2c_branch2a_relu"
  type: "ReLU"
  bottom: "res2c_branch2a"
  top: "res2c_branch2a"
}
layer {
  name: "res2c_branch2b"
  type: "Convolution"
  bottom: "res2c_branch2a"
  top: "res2c_branch2b"
  param {
    lr_mult: 0
  }
  convolution_param {
    num_output: 64
    bias_term: false
    pad: 1
    kernel_size: 3
    stride: 1
  }
}
layer {
  name: "bn2c_branch2b"
  type: "BatchNorm"
  bottom: "res2c_branch2b"
  top: "res2c_branch2b"
  param {
    lr_mult: 0
    decay_mult: 0
  }
  param {
    lr_mult: 0
    decay_mult: 0
  }
  param {
    lr_mult: 0
    decay_mult: 0
  }
  batch_norm_param {
    use_global_stats: true
  }
}
layer {
  name: "scale2c_branch2b"
  type: "Scale"
  bottom: "res2c_branch2b"
  top: "res2c_branch2b"
  param {
    lr_mult: 0
    decay_mult: 0
  }
  param {
    lr_mult: 0
    decay_mult: 0
  }
  scale_param {
    bias_term: true
  }
}
layer {
  name: "res2c_branch2b_relu"
  type: "ReLU"
  bottom: "res2c_branch2b"
  top: "res2c_branch2b"
}
layer {
  name: "res2c_branch2c"
  type: "Convolution"
  bottom: "res2c_branch2b"
  top: "res2c_branch2c"
  param {
    lr_mult: 0
  }
  convolution_param {
    num_output: 256
    bias_term: false
    pad: 0
    kernel_size: 1
    stride: 1
  }
}
layer {
  name: "bn2c_branch2c"
  type: "BatchNorm"
  bottom: "res2c_branch2c"
  top: "res2c_branch2c"
  param {
    lr_mult: 0
    decay_mult: 0
  }
  param {
    lr_mult: 0
    decay_mult: 0
  }
  param {
    lr_mult: 0
    decay_mult: 0
  }
  batch_norm_param {
    use_global_stats: true
  }
}
layer {
  name: "scale2c_branch2c"
  type: "Scale"
  bottom: "res2c_branch2c"
  top: "res2c_branch2c"
  param {
    lr_mult: 0
    decay_mult: 0
  }
  param {
    lr_mult: 0
    decay_mult: 0
  }
  scale_param {
    bias_term: true
  }
}
layer {
  name: "res2c"
  type: "Eltwise"
  bottom: "res2b"
  bottom: "res2c_branch2c"
  top: "res2c"
}
layer {
  name: "res2c_relu"
  type: "ReLU"
  bottom: "res2c"
  top: "res2c"
}
layer {
  name: "res3a_branch1"
  type: "Convolution"
  bottom: "res2c"
  top: "res3a_branch1"
  param {
    lr_mult: 1
  }
  convolution_param {
    num_output: 512
    bias_term: false
    pad: 0
    kernel_size: 1
    stride: 2
  }
}
layer {
  name: "bn3a_branch1"
  type: "BatchNorm"
  bottom: "res3a_branch1"
  top: "res3a_branch1"
  param {
    lr_mult: 0
    decay_mult: 0
  }
  param {
    lr_mult: 0
    decay_mult: 0
  }
  param {
    lr_mult: 0
    decay_mult: 0
  }
  batch_norm_param {
    use_global_stats: true
  }
}
layer {
  name: "scale3a_branch1"
  type: "Scale"
  bottom: "res3a_branch1"
  top: "res3a_branch1"
  param {
    lr_mult: 0
    decay_mult: 0
  }
  param {
    lr_mult: 0
    decay_mult: 0
  }
  scale_param {
    bias_term: true
  }
}
layer {
  name: "res3a_branch2a"
  type: "Convolution"
  bottom: "res2c"
  top: "res3a_branch2a"
  param {
    lr_mult: 1
  }
  convolution_param {
    num_output: 128
    bias_term: false
    pad: 0
    kernel_size: 1
    stride: 2
  }
}
layer {
  name: "bn3a_branch2a"
  type: "BatchNorm"
  bottom: "res3a_branch2a"
  top: "res3a_branch2a"
  param {
    lr_mult: 0
    decay_mult: 0
  }
  param {
    lr_mult: 0
    decay_mult: 0
  }
  param {
    lr_mult: 0
    decay_mult: 0
  }
  batch_norm_param {
    use_global_stats: true
  }
}
layer {
  name: "scale3a_branch2a"
  type: "Scale"
  bottom: "res3a_branch2a"
  top: "res3a_branch2a"
  param {
    lr_mult: 0
    decay_mult: 0
  }
  param {
    lr_mult: 0
    decay_mult: 0
  }
  scale_param {
    bias_term: true
  }
}
layer {
  name: "res3a_branch2a_relu"
  type: "ReLU"
  bottom: "res3a_branch2a"
  top: "res3a_branch2a"
}
layer {
  name: "res3a_branch2b"
  type: "Convolution"
  bottom: "res3a_branch2a"
  top: "res3a_branch2b"
  param {
    lr_mult: 1
  }
  convolution_param {
    num_output: 128
    bias_term: false
    pad: 1
    kernel_size: 3
    stride: 1
  }
}
layer {
  name: "bn3a_branch2b"
  type: "BatchNorm"
  bottom: "res3a_branch2b"
  top: "res3a_branch2b"
  param {
    lr_mult: 0
    decay_mult: 0
  }
  param {
    lr_mult: 0
    decay_mult: 0
  }
  param {
    lr_mult: 0
    decay_mult: 0
  }
  batch_norm_param {
    use_global_stats: true
  }
}
layer {
  name: "scale3a_branch2b"
  type: "Scale"
  bottom: "res3a_branch2b"
  top: "res3a_branch2b"
  param {
    lr_mult: 0
    decay_mult: 0
  }
  param {
    lr_mult: 0
    decay_mult: 0
  }
  scale_param {
    bias_term: true
  }
}
layer {
  name: "res3a_branch2b_relu"
  type: "ReLU"
  bottom: "res3a_branch2b"
  top: "res3a_branch2b"
}
layer {
  name: "res3a_branch2c"
  type: "Convolution"
  bottom: "res3a_branch2b"
  top: "res3a_branch2c"
  param {
    lr_mult: 1
  }
  convolution_param {
    num_output: 512
    bias_term: false
    pad: 0
    kernel_size: 1
    stride: 1
  }
}
layer {
  name: "bn3a_branch2c"
  type: "BatchNorm"
  bottom: "res3a_branch2c"
  top: "res3a_branch2c"
  param {
    lr_mult: 0
    decay_mult: 0
  }
  param {
    lr_mult: 0
    decay_mult: 0
  }
  param {
    lr_mult: 0
    decay_mult: 0
  }
  batch_norm_param {
    use_global_stats: true
  }
}
layer {
  name: "scale3a_branch2c"
  type: "Scale"
  bottom: "res3a_branch2c"
  top: "res3a_branch2c"
  param {
    lr_mult: 0
    decay_mult: 0
  }
  param {
    lr_mult: 0
    decay_mult: 0
  }
  scale_param {
    bias_term: true
  }
}
layer {
  name: "res3a"
  type: "Eltwise"
  bottom: "res3a_branch1"
  bottom: "res3a_branch2c"
  top: "res3a"
}
layer {
  name: "res3a_relu"
  type: "ReLU"
  bottom: "res3a"
  top: "res3a"
}
layer {
  name: "res3b_branch2a"
  type: "Convolution"
  bottom: "res3a"
  top: "res3b_branch2a"
  param {
    lr_mult: 1
  }
  convolution_param {
    num_output: 128
    bias_term: false
    pad: 0
    kernel_size: 1
    stride: 1
  }
}
layer {
  name: "bn3b_branch2a"
  type: "BatchNorm"
  bottom: "res3b_branch2a"
  top: "res3b_branch2a"
  param {
    lr_mult: 0
    decay_mult: 0
  }
  param {
    lr_mult: 0
    decay_mult: 0
  }
  param {
    lr_mult: 0
    decay_mult: 0
  }
  batch_norm_param {
    use_global_stats: true
  }
}
layer {
  name: "scale3b_branch2a"
  type: "Scale"
  bottom: "res3b_branch2a"
  top: "res3b_branch2a"
  param {
    lr_mult: 0
    decay_mult: 0
  }
  param {
    lr_mult: 0
    decay_mult: 0
  }
  scale_param {
    bias_term: true
  }
}
layer {
  name: "res3b_branch2a_relu"
  type: "ReLU"
  bottom: "res3b_branch2a"
  top: "res3b_branch2a"
}
layer {
  name: "res3b_branch2b"
  type: "Convolution"
  bottom: "res3b_branch2a"
  top: "res3b_branch2b"
  param {
    lr_mult: 1
  }
  convolution_param {
    num_output: 128
    bias_term: false
    pad: 1
    kernel_size: 3
    stride: 1
  }
}
layer {
  name: "bn3b_branch2b"
  type: "BatchNorm"
  bottom: "res3b_branch2b"
  top: "res3b_branch2b"
  param {
    lr_mult: 0
    decay_mult: 0
  }
  param {
    lr_mult: 0
    decay_mult: 0
  }
  param {
    lr_mult: 0
    decay_mult: 0
  }
  batch_norm_param {
    use_global_stats: true
  }
}
layer {
  name: "scale3b_branch2b"
  type: "Scale"
  bottom: "res3b_branch2b"
  top: "res3b_branch2b"
  param {
    lr_mult: 0
    decay_mult: 0
  }
  param {
    lr_mult: 0
    decay_mult: 0
  }
  scale_param {
    bias_term: true
  }
}
layer {
  name: "res3b_branch2b_relu"
  type: "ReLU"
  bottom: "res3b_branch2b"
  top: "res3b_branch2b"
}
layer {
  name: "res3b_branch2c"
  type: "Convolution"
  bottom: "res3b_branch2b"
  top: "res3b_branch2c"
  param {
    lr_mult: 1
  }
  convolution_param {
    num_output: 512
    bias_term: false
    pad: 0
    kernel_size: 1
    stride: 1
  }
}
layer {
  name: "bn3b_branch2c"
  type: "BatchNorm"
  bottom: "res3b_branch2c"
  top: "res3b_branch2c"
  param {
    lr_mult: 0
    decay_mult: 0
  }
  param {
    lr_mult: 0
    decay_mult: 0
  }
  param {
    lr_mult: 0
    decay_mult: 0
  }
  batch_norm_param {
    use_global_stats: true
  }
}
layer {
  name: "scale3b_branch2c"
  type: "Scale"
  bottom: "res3b_branch2c"
  top: "res3b_branch2c"
  param {
    lr_mult: 0
    decay_mult: 0
  }
  param {
    lr_mult: 0
    decay_mult: 0
  }
  scale_param {
    bias_term: true
  }
}
layer {
  name: "res3b"
  type: "Eltwise"
  bottom: "res3a"
  bottom: "res3b_branch2c"
  top: "res3b"
}
layer {
  name: "res3b_relu"
  type: "ReLU"
  bottom: "res3b"
  top: "res3b"
}
layer {
  name: "res3c_branch2a"
  type: "Convolution"
  bottom: "res3b"
  top: "res3c_branch2a"
  param {
    lr_mult: 1
  }
  convolution_param {
    num_output: 128
    bias_term: false
    pad: 0
    kernel_size: 1
    stride: 1
  }
}
layer {
  name: "bn3c_branch2a"
  type: "BatchNorm"
  bottom: "res3c_branch2a"
  top: "res3c_branch2a"
  param {
    lr_mult: 0
    decay_mult: 0
  }
  param {
    lr_mult: 0
    decay_mult: 0
  }
  param {
    lr_mult: 0
    decay_mult: 0
  }
  batch_norm_param {
    use_global_stats: true
  }
}
layer {
  name: "scale3c_branch2a"
  type: "Scale"
  bottom: "res3c_branch2a"
  top: "res3c_branch2a"
  param {
    lr_mult: 0
    decay_mult: 0
  }
  param {
    lr_mult: 0
    decay_mult: 0
  }
  scale_param {
    bias_term: true
  }
}
layer {
  name: "res3c_branch2a_relu"
  type: "ReLU"
  bottom: "res3c_branch2a"
  top: "res3c_branch2a"
}
layer {
  name: "res3c_branch2b"
  type: "Convolution"
  bottom: "res3c_branch2a"
  top: "res3c_branch2b"
  param {
    lr_mult: 1
  }
  convolution_param {
    num_output: 128
    bias_term: false
    pad: 1
    kernel_size: 3
    stride: 1
  }
}
layer {
  name: "bn3c_branch2b"
  type: "BatchNorm"
  bottom: "res3c_branch2b"
  top: "res3c_branch2b"
  param {
    lr_mult: 0
    decay_mult: 0
  }
  param {
    lr_mult: 0
    decay_mult: 0
  }
  param {
    lr_mult: 0
    decay_mult: 0
  }
  batch_norm_param {
    use_global_stats: true
  }
}
layer {
  name: "scale3c_branch2b"
  type: "Scale"
  bottom: "res3c_branch2b"
  top: "res3c_branch2b"
  param {
    lr_mult: 0
    decay_mult: 0
  }
  param {
    lr_mult: 0
    decay_mult: 0
  }
  scale_param {
    bias_term: true
  }
}
layer {
  name: "res3c_branch2b_relu"
  type: "ReLU"
  bottom: "res3c_branch2b"
  top: "res3c_branch2b"
}
layer {
  name: "res3c_branch2c"
  type: "Convolution"
  bottom: "res3c_branch2b"
  top: "res3c_branch2c"
  param {
    lr_mult: 1
  }
  convolution_param {
    num_output: 512
    bias_term: false
    pad: 0
    kernel_size: 1
    stride: 1
  }
}
layer {
  name: "bn3c_branch2c"
  type: "BatchNorm"
  bottom: "res3c_branch2c"
  top: "res3c_branch2c"
  param {
    lr_mult: 0
    decay_mult: 0
  }
  param {
    lr_mult: 0
    decay_mult: 0
  }
  param {
    lr_mult: 0
    decay_mult: 0
  }
  batch_norm_param {
    use_global_stats: true
  }
}
layer {
  name: "scale3c_branch2c"
  type: "Scale"
  bottom: "res3c_branch2c"
  top: "res3c_branch2c"
  param {
    lr_mult: 0
    decay_mult: 0
  }
  param {
    lr_mult: 0
    decay_mult: 0
  }
  scale_param {
    bias_term: true
  }
}
layer {
  name: "res3c"
  type: "Eltwise"
  bottom: "res3b"
  bottom: "res3c_branch2c"
  top: "res3c"
}
layer {
  name: "res3c_relu"
  type: "ReLU"
  bottom: "res3c"
  top: "res3c"
}
layer {
  name: "res3d_branch2a"
  type: "Convolution"
  bottom: "res3c"
  top: "res3d_branch2a"
  param {
    lr_mult: 1
  }
  convolution_param {
    num_output: 128
    bias_term: false
    pad: 0
    kernel_size: 1
    stride: 1
  }
}
layer {
  name: "bn3d_branch2a"
  type: "BatchNorm"
  bottom: "res3d_branch2a"
  top: "res3d_branch2a"
  param {
    lr_mult: 0
    decay_mult: 0
  }
  param {
    lr_mult: 0
    decay_mult: 0
  }
  param {
    lr_mult: 0
    decay_mult: 0
  }
  batch_norm_param {
    use_global_stats: true
  }
}
layer {
  name: "scale3d_branch2a"
  type: "Scale"
  bottom: "res3d_branch2a"
  top: "res3d_branch2a"
  param {
    lr_mult: 0
    decay_mult: 0
  }
  param {
    lr_mult: 0
    decay_mult: 0
  }
  scale_param {
    bias_term: true
  }
}
layer {
  name: "res3d_branch2a_relu"
  type: "ReLU"
  bottom: "res3d_branch2a"
  top: "res3d_branch2a"
}
layer {
  name: "res3d_branch2b"
  type: "Convolution"
  bottom: "res3d_branch2a"
  top: "res3d_branch2b"
  param {
    lr_mult: 1
  }
  convolution_param {
    num_output: 128
    bias_term: false
    pad: 1
    kernel_size: 3
    stride: 1
  }
}
layer {
  name: "bn3d_branch2b"
  type: "BatchNorm"
  bottom: "res3d_branch2b"
  top: "res3d_branch2b"
  param {
    lr_mult: 0
    decay_mult: 0
  }
  param {
    lr_mult: 0
    decay_mult: 0
  }
  param {
    lr_mult: 0
    decay_mult: 0
  }
  batch_norm_param {
    use_global_stats: true
  }
}
layer {
  name: "scale3d_branch2b"
  type: "Scale"
  bottom: "res3d_branch2b"
  top: "res3d_branch2b"
  param {
    lr_mult: 0
    decay_mult: 0
  }
  param {
    lr_mult: 0
    decay_mult: 0
  }
  scale_param {
    bias_term: true
  }
}
layer {
  name: "res3d_branch2b_relu"
  type: "ReLU"
  bottom: "res3d_branch2b"
  top: "res3d_branch2b"
}
layer {
  name: "res3d_branch2c"
  type: "Convolution"
  bottom: "res3d_branch2b"
  top: "res3d_branch2c"
  param {
    lr_mult: 1
  }
  convolution_param {
    num_output: 512
    bias_term: false
    pad: 0
    kernel_size: 1
    stride: 1
  }
}
layer {
  name: "bn3d_branch2c"
  type: "BatchNorm"
  bottom: "res3d_branch2c"
  top: "res3d_branch2c"
  param {
    lr_mult: 0
    decay_mult: 0
  }
  param {
    lr_mult: 0
    decay_mult: 0
  }
  param {
    lr_mult: 0
    decay_mult: 0
  }
  batch_norm_param {
    use_global_stats: true
  }
}
layer {
  name: "scale3d_branch2c"
  type: "Scale"
  bottom: "res3d_branch2c"
  top: "res3d_branch2c"
  param {
    lr_mult: 0
    decay_mult: 0
  }
  param {
    lr_mult: 0
    decay_mult: 0
  }
  scale_param {
    bias_term: true
  }
}
layer {
  name: "res3d"
  type: "Eltwise"
  bottom: "res3c"
  bottom: "res3d_branch2c"
  top: "res3d"
}
layer {
  name: "res3d_relu"
  type: "ReLU"
  bottom: "res3d"
  top: "res3d"
}
layer {
  name: "res4a_branch1"
  type: "Convolution"
  bottom: "res3d"
  top: "res4a_branch1"
  param {
    lr_mult: 1
  }
  convolution_param {
    num_output: 1024
    bias_term: false
    pad: 0
    kernel_size: 1
    stride: 2
  }
}
layer {
  name: "bn4a_branch1"
  type: "BatchNorm"
  bottom: "res4a_branch1"
  top: "res4a_branch1"
  param {
    lr_mult: 0
    decay_mult: 0
  }
  param {
    lr_mult: 0
    decay_mult: 0
  }
  param {
    lr_mult: 0
    decay_mult: 0
  }
  batch_norm_param {
    use_global_stats: true
  }
}
layer {
  name: "scale4a_branch1"
  type: "Scale"
  bottom: "res4a_branch1"
  top: "res4a_branch1"
  param {
    lr_mult: 0
    decay_mult: 0
  }
  param {
    lr_mult: 0
    decay_mult: 0
  }
  scale_param {
    bias_term: true
  }
}
layer {
  name: "res4a_branch2a"
  type: "Convolution"
  bottom: "res3d"
  top: "res4a_branch2a"
  param {
    lr_mult: 1
  }
  convolution_param {
    num_output: 256
    bias_term: false
    pad: 0
    kernel_size: 1
    stride: 2
  }
}
layer {
  name: "bn4a_branch2a"
  type: "BatchNorm"
  bottom: "res4a_branch2a"
  top: "res4a_branch2a"
  param {
    lr_mult: 0
    decay_mult: 0
  }
  param {
    lr_mult: 0
    decay_mult: 0
  }
  param {
    lr_mult: 0
    decay_mult: 0
  }
  batch_norm_param {
    use_global_stats: true
  }
}
layer {
  name: "scale4a_branch2a"
  type: "Scale"
  bottom: "res4a_branch2a"
  top: "res4a_branch2a"
  param {
    lr_mult: 0
    decay_mult: 0
  }
  param {
    lr_mult: 0
    decay_mult: 0
  }
  scale_param {
    bias_term: true
  }
}
layer {
  name: "res4a_branch2a_relu"
  type: "ReLU"
  bottom: "res4a_branch2a"
  top: "res4a_branch2a"
}
layer {
  name: "res4a_branch2b"
  type: "Convolution"
  bottom: "res4a_branch2a"
  top: "res4a_branch2b"
  param {
    lr_mult: 1
  }
  convolution_param {
    num_output: 256
    bias_term: false
    pad: 1
    kernel_size: 3
    stride: 1
  }
}
layer {
  name: "bn4a_branch2b"
  type: "BatchNorm"
  bottom: "res4a_branch2b"
  top: "res4a_branch2b"
  param {
    lr_mult: 0
    decay_mult: 0
  }
  param {
    lr_mult: 0
    decay_mult: 0
  }
  param {
    lr_mult: 0
    decay_mult: 0
  }
  batch_norm_param {
    use_global_stats: true
  }
}
layer {
  name: "scale4a_branch2b"
  type: "Scale"
  bottom: "res4a_branch2b"
  top: "res4a_branch2b"
  param {
    lr_mult: 0
    decay_mult: 0
  }
  param {
    lr_mult: 0
    decay_mult: 0
  }
  scale_param {
    bias_term: true
  }
}
layer {
  name: "res4a_branch2b_relu"
  type: "ReLU"
  bottom: "res4a_branch2b"
  top: "res4a_branch2b"
}
layer {
  name: "res4a_branch2c"
  type: "Convolution"
  bottom: "res4a_branch2b"
  top: "res4a_branch2c"
  param {
    lr_mult: 1
  }
  convolution_param {
    num_output: 1024
    bias_term: false
    pad: 0
    kernel_size: 1
    stride: 1
  }
}
layer {
  name: "bn4a_branch2c"
  type: "BatchNorm"
  bottom: "res4a_branch2c"
  top: "res4a_branch2c"
  param {
    lr_mult: 0
    decay_mult: 0
  }
  param {
    lr_mult: 0
    decay_mult: 0
  }
  param {
    lr_mult: 0
    decay_mult: 0
  }
  batch_norm_param {
    use_global_stats: true
  }
}
layer {
  name: "scale4a_branch2c"
  type: "Scale"
  bottom: "res4a_branch2c"
  top: "res4a_branch2c"
  param {
    lr_mult: 0
    decay_mult: 0
  }
  param {
    lr_mult: 0
    decay_mult: 0
  }
  scale_param {
    bias_term: true
  }
}
layer {
  name: "res4a"
  type: "Eltwise"
  bottom: "res4a_branch1"
  bottom: "res4a_branch2c"
  top: "res4a"
}
layer {
  name: "res4a_relu"
  type: "ReLU"
  bottom: "res4a"
  top: "res4a"
}
layer {
  name: "res4b_branch2a"
  type: "Convolution"
  bottom: "res4a"
  top: "res4b_branch2a"
  param {
    lr_mult: 1
  }
  convolution_param {
    num_output: 256
    bias_term: false
    pad: 0
    kernel_size: 1
    stride: 1
  }
}
layer {
  name: "bn4b_branch2a"
  type: "BatchNorm"
  bottom: "res4b_branch2a"
  top: "res4b_branch2a"
  param {
    lr_mult: 0
    decay_mult: 0
  }
  param {
    lr_mult: 0
    decay_mult: 0
  }
  param {
    lr_mult: 0
    decay_mult: 0
  }
  batch_norm_param {
    use_global_stats: true
  }
}
layer {
  name: "scale4b_branch2a"
  type: "Scale"
  bottom: "res4b_branch2a"
  top: "res4b_branch2a"
  param {
    lr_mult: 0
    decay_mult: 0
  }
  param {
    lr_mult: 0
    decay_mult: 0
  }
  scale_param {
    bias_term: true
  }
}
layer {
  name: "res4b_branch2a_relu"
  type: "ReLU"
  bottom: "res4b_branch2a"
  top: "res4b_branch2a"
}
layer {
  name: "res4b_branch2b"
  type: "Convolution"
  bottom: "res4b_branch2a"
  top: "res4b_branch2b"
  param {
    lr_mult: 1
  }
  convolution_param {
    num_output: 256
    bias_term: false
    pad: 1
    kernel_size: 3
    stride: 1
  }
}
layer {
  name: "bn4b_branch2b"
  type: "BatchNorm"
  bottom: "res4b_branch2b"
  top: "res4b_branch2b"
  param {
    lr_mult: 0
    decay_mult: 0
  }
  param {
    lr_mult: 0
    decay_mult: 0
  }
  param {
    lr_mult: 0
    decay_mult: 0
  }
  batch_norm_param {
    use_global_stats: true
  }
}
layer {
  name: "scale4b_branch2b"
  type: "Scale"
  bottom: "res4b_branch2b"
  top: "res4b_branch2b"
  param {
    lr_mult: 0
    decay_mult: 0
  }
  param {
    lr_mult: 0
    decay_mult: 0
  }
  scale_param {
    bias_term: true
  }
}
layer {
  name: "res4b_branch2b_relu"
  type: "ReLU"
  bottom: "res4b_branch2b"
  top: "res4b_branch2b"
}
layer {
  name: "res4b_branch2c"
  type: "Convolution"
  bottom: "res4b_branch2b"
  top: "res4b_branch2c"
  param {
    lr_mult: 1
  }
  convolution_param {
    num_output: 1024
    bias_term: false
    pad: 0
    kernel_size: 1
    stride: 1
  }
}
layer {
  name: "bn4b_branch2c"
  type: "BatchNorm"
  bottom: "res4b_branch2c"
  top: "res4b_branch2c"
  param {
    lr_mult: 0
    decay_mult: 0
  }
  param {
    lr_mult: 0
    decay_mult: 0
  }
  param {
    lr_mult: 0
    decay_mult: 0
  }
  batch_norm_param {
    use_global_stats: true
  }
}
layer {
  name: "scale4b_branch2c"
  type: "Scale"
  bottom: "res4b_branch2c"
  top: "res4b_branch2c"
  param {
    lr_mult: 0
    decay_mult: 0
  }
  param {
    lr_mult: 0
    decay_mult: 0
  }
  scale_param {
    bias_term: true
  }
}
layer {
  name: "res4b"
  type: "Eltwise"
  bottom: "res4a"
  bottom: "res4b_branch2c"
  top: "res4b"
}
layer {
  name: "res4b_relu"
  type: "ReLU"
  bottom: "res4b"
  top: "res4b"
}
layer {
  name: "res4c_branch2a"
  type: "Convolution"
  bottom: "res4b"
  top: "res4c_branch2a"
  param {
    lr_mult: 1
  }
  convolution_param {
    num_output: 256
    bias_term: false
    pad: 0
    kernel_size: 1
    stride: 1
  }
}
layer {
  name: "bn4c_branch2a"
  type: "BatchNorm"
  bottom: "res4c_branch2a"
  top: "res4c_branch2a"
  param {
    lr_mult: 0
    decay_mult: 0
  }
  param {
    lr_mult: 0
    decay_mult: 0
  }
  param {
    lr_mult: 0
    decay_mult: 0
  }
  batch_norm_param {
    use_global_stats: true
  }
}
layer {
  name: "scale4c_branch2a"
  type: "Scale"
  bottom: "res4c_branch2a"
  top: "res4c_branch2a"
  param {
    lr_mult: 0
    decay_mult: 0
  }
  param {
    lr_mult: 0
    decay_mult: 0
  }
  scale_param {
    bias_term: true
  }
}
layer {
  name: "res4c_branch2a_relu"
  type: "ReLU"
  bottom: "res4c_branch2a"
  top: "res4c_branch2a"
}
layer {
  name: "res4c_branch2b"
  type: "Convolution"
  bottom: "res4c_branch2a"
  top: "res4c_branch2b"
  param {
    lr_mult: 1
  }
  convolution_param {
    num_output: 256
    bias_term: false
    pad: 1
    kernel_size: 3
    stride: 1
  }
}
layer {
  name: "bn4c_branch2b"
  type: "BatchNorm"
  bottom: "res4c_branch2b"
  top: "res4c_branch2b"
  param {
    lr_mult: 0
    decay_mult: 0
  }
  param {
    lr_mult: 0
    decay_mult: 0
  }
  param {
    lr_mult: 0
    decay_mult: 0
  }
  batch_norm_param {
    use_global_stats: true
  }
}
layer {
  name: "scale4c_branch2b"
  type: "Scale"
  bottom: "res4c_branch2b"
  top: "res4c_branch2b"
  param {
    lr_mult: 0
    decay_mult: 0
  }
  param {
    lr_mult: 0
    decay_mult: 0
  }
  scale_param {
    bias_term: true
  }
}
layer {
  name: "res4c_branch2b_relu"
  type: "ReLU"
  bottom: "res4c_branch2b"
  top: "res4c_
I0312 23:45:41.116173 14665 layer_factory.hpp:77] Creating layer input-data
I0312 23:45:41.394709 14665 net.cpp:100] Creating Layer input-data
I0312 23:45:41.394732 14665 net.cpp:418] input-data -> data
I0312 23:45:41.394747 14665 net.cpp:418] input-data -> im_info
I0312 23:45:41.394753 14665 net.cpp:418] input-data -> gt_boxes
RoiDataLayer: name_to_top: {'gt_boxes': 2, 'data': 0, 'im_info': 1}
I0312 23:45:44.853466 14665 net.cpp:150] Setting up input-data
I0312 23:45:44.853492 14665 net.cpp:157] Top shape: 1 3 600 1000 (1800000)
I0312 23:45:44.853495 14665 net.cpp:157] Top shape: 1 3 (3)
I0312 23:45:44.853498 14665 net.cpp:157] Top shape: 1 4 (4)
I0312 23:45:44.853500 14665 net.cpp:165] Memory required for data: 7200028
I0312 23:45:44.853507 14665 layer_factory.hpp:77] Creating layer data_input-data_0_split
I0312 23:45:44.853516 14665 net.cpp:100] Creating Layer data_input-data_0_split
I0312 23:45:44.853520 14665 net.cpp:444] data_input-data_0_split <- data
I0312 23:45:44.853525 14665 net.cpp:418] data_input-data_0_split -> data_input-data_0_split_0
I0312 23:45:44.853533 14665 net.cpp:418] data_input-data_0_split -> data_input-data_0_split_1
I0312 23:45:44.853562 14665 net.cpp:150] Setting up data_input-data_0_split
I0312 23:45:44.853567 14665 net.cpp:157] Top shape: 1 3 600 1000 (1800000)
I0312 23:45:44.853570 14665 net.cpp:157] Top shape: 1 3 600 1000 (1800000)
I0312 23:45:44.853572 14665 net.cpp:165] Memory required for data: 21600028
I0312 23:45:44.853574 14665 layer_factory.hpp:77] Creating layer im_info_input-data_1_split
I0312 23:45:44.853579 14665 net.cpp:100] Creating Layer im_info_input-data_1_split
I0312 23:45:44.853581 14665 net.cpp:444] im_info_input-data_1_split <- im_info
I0312 23:45:44.853585 14665 net.cpp:418] im_info_input-data_1_split -> im_info_input-data_1_split_0
I0312 23:45:44.853590 14665 net.cpp:418] im_info_input-data_1_split -> im_info_input-data_1_split_1
I0312 23:45:44.853611 14665 net.cpp:150] Setting up im_info_input-data_1_split
I0312 23:45:44.853615 14665 net.cpp:157] Top shape: 1 3 (3)
I0312 23:45:44.853617 14665 net.cpp:157] Top shape: 1 3 (3)
I0312 23:45:44.853619 14665 net.cpp:165] Memory required for data: 21600052
I0312 23:45:44.853621 14665 layer_factory.hpp:77] Creating layer gt_boxes_input-data_2_split
I0312 23:45:44.853626 14665 net.cpp:100] Creating Layer gt_boxes_input-data_2_split
I0312 23:45:44.853627 14665 net.cpp:444] gt_boxes_input-data_2_split <- gt_boxes
I0312 23:45:44.853631 14665 net.cpp:418] gt_boxes_input-data_2_split -> gt_boxes_input-data_2_split_0
I0312 23:45:44.853636 14665 net.cpp:418] gt_boxes_input-data_2_split -> gt_boxes_input-data_2_split_1
I0312 23:45:44.853657 14665 net.cpp:150] Setting up gt_boxes_input-data_2_split
I0312 23:45:44.853660 14665 net.cpp:157] Top shape: 1 4 (4)
I0312 23:45:44.853663 14665 net.cpp:157] Top shape: 1 4 (4)
I0312 23:45:44.853665 14665 net.cpp:165] Memory required for data: 21600084
I0312 23:45:44.853668 14665 layer_factory.hpp:77] Creating layer conv1
I0312 23:45:44.853675 14665 net.cpp:100] Creating Layer conv1
I0312 23:45:44.853678 14665 net.cpp:444] conv1 <- data_input-data_0_split_0
I0312 23:45:44.853682 14665 net.cpp:418] conv1 -> conv1
I0312 23:45:44.855365 14665 net.cpp:150] Setting up conv1
I0312 23:45:44.855433 14665 net.cpp:157] Top shape: 1 64 300 500 (9600000)
I0312 23:45:44.855450 14665 net.cpp:165] Memory required for data: 60000084
I0312 23:45:44.855479 14665 layer_factory.hpp:77] Creating layer bn_conv1
I0312 23:45:44.855490 14665 net.cpp:100] Creating Layer bn_conv1
I0312 23:45:44.855496 14665 net.cpp:444] bn_conv1 <- conv1
I0312 23:45:44.855501 14665 net.cpp:405] bn_conv1 -> conv1 (in-place)
I0312 23:45:44.855728 14665 net.cpp:150] Setting up bn_conv1
I0312 23:45:44.855734 14665 net.cpp:157] Top shape: 1 64 300 500 (9600000)
I0312 23:45:44.855737 14665 net.cpp:165] Memory required for data: 98400084
I0312 23:45:44.855744 14665 layer_factory.hpp:77] Creating layer scale_conv1
I0312 23:45:44.855760 14665 net.cpp:100] Creating Layer scale_conv1
I0312 23:45:44.855765 14665 net.cpp:444] scale_conv1 <- conv1
I0312 23:45:44.855769 14665 net.cpp:405] scale_conv1 -> conv1 (in-place)
I0312 23:45:44.855798 14665 layer_factory.hpp:77] Creating layer scale_conv1
I0312 23:45:44.856947 14665 net.cpp:150] Setting up scale_conv1
I0312 23:45:44.856961 14665 net.cpp:157] Top shape: 1 64 300 500 (9600000)
I0312 23:45:44.856964 14665 net.cpp:165] Memory required for data: 136800084
I0312 23:45:44.856971 14665 layer_factory.hpp:77] Creating layer conv1_relu
I0312 23:45:44.856977 14665 net.cpp:100] Creating Layer conv1_relu
I0312 23:45:44.856982 14665 net.cpp:444] conv1_relu <- conv1
I0312 23:45:44.856986 14665 net.cpp:405] conv1_relu -> conv1 (in-place)
I0312 23:45:44.856994 14665 net.cpp:150] Setting up conv1_relu
I0312 23:45:44.856998 14665 net.cpp:157] Top shape: 1 64 300 500 (9600000)
I0312 23:45:44.857000 14665 net.cpp:165] Memory required for data: 175200084
I0312 23:45:44.857003 14665 layer_factory.hpp:77] Creating layer pool1
I0312 23:45:44.857009 14665 net.cpp:100] Creating Layer pool1
I0312 23:45:44.857013 14665 net.cpp:444] pool1 <- conv1
I0312 23:45:44.857017 14665 net.cpp:418] pool1 -> pool1
I0312 23:45:44.857053 14665 net.cpp:150] Setting up pool1
I0312 23:45:44.857059 14665 net.cpp:157] Top shape: 1 64 150 250 (2400000)
I0312 23:45:44.857060 14665 net.cpp:165] Memory required for data: 184800084
I0312 23:45:44.857062 14665 layer_factory.hpp:77] Creating layer pool1_pool1_0_split
I0312 23:45:44.857067 14665 net.cpp:100] Creating Layer pool1_pool1_0_split
I0312 23:45:44.857071 14665 net.cpp:444] pool1_pool1_0_split <- pool1
I0312 23:45:44.857091 14665 net.cpp:418] pool1_pool1_0_split -> pool1_pool1_0_split_0
I0312 23:45:44.857097 14665 net.cpp:418] pool1_pool1_0_split -> pool1_pool1_0_split_1
I0312 23:45:44.857120 14665 net.cpp:150] Setting up pool1_pool1_0_split
I0312 23:45:44.857125 14665 net.cpp:157] Top shape: 1 64 150 250 (2400000)
I0312 23:45:44.857128 14665 net.cpp:157] Top shape: 1 64 150 250 (2400000)
I0312 23:45:44.857131 14665 net.cpp:165] Memory required for data: 204000084
I0312 23:45:44.857133 14665 layer_factory.hpp:77] Creating layer res2a_branch1
I0312 23:45:44.857139 14665 net.cpp:100] Creating Layer res2a_branch1
I0312 23:45:44.857143 14665 net.cpp:444] res2a_branch1 <- pool1_pool1_0_split_0
I0312 23:45:44.857147 14665 net.cpp:418] res2a_branch1 -> res2a_branch1
I0312 23:45:44.857281 14665 net.cpp:150] Setting up res2a_branch1
I0312 23:45:44.857287 14665 net.cpp:157] Top shape: 1 256 150 250 (9600000)
I0312 23:45:44.857290 14665 net.cpp:165] Memory required for data: 242400084
I0312 23:45:44.857292 14665 layer_factory.hpp:77] Creating layer bn2a_branch1
I0312 23:45:44.857300 14665 net.cpp:100] Creating Layer bn2a_branch1
I0312 23:45:44.857302 14665 net.cpp:444] bn2a_branch1 <- res2a_branch1
I0312 23:45:44.857306 14665 net.cpp:405] bn2a_branch1 -> res2a_branch1 (in-place)
I0312 23:45:44.858099 14665 net.cpp:150] Setting up bn2a_branch1
I0312 23:45:44.858109 14665 net.cpp:157] Top shape: 1 256 150 250 (9600000)
I0312 23:45:44.858112 14665 net.cpp:165] Memory required for data: 280800084
I0312 23:45:44.858121 14665 layer_factory.hpp:77] Creating layer scale2a_branch1
I0312 23:45:44.858127 14665 net.cpp:100] Creating Layer scale2a_branch1
I0312 23:45:44.858132 14665 net.cpp:444] scale2a_branch1 <- res2a_branch1
I0312 23:45:44.858136 14665 net.cpp:405] scale2a_branch1 -> res2a_branch1 (in-place)
I0312 23:45:44.858165 14665 layer_factory.hpp:77] Creating layer scale2a_branch1
I0312 23:45:44.858273 14665 net.cpp:150] Setting up scale2a_branch1
I0312 23:45:44.858278 14665 net.cpp:157] Top shape: 1 256 150 250 (9600000)
I0312 23:45:44.858280 14665 net.cpp:165] Memory required for data: 319200084
I0312 23:45:44.858284 14665 layer_factory.hpp:77] Creating layer res2a_branch2a
I0312 23:45:44.858290 14665 net.cpp:100] Creating Layer res2a_branch2a
I0312 23:45:44.858294 14665 net.cpp:444] res2a_branch2a <- pool1_pool1_0_split_1
I0312 23:45:44.858299 14665 net.cpp:418] res2a_branch2a -> res2a_branch2a
I0312 23:45:44.859164 14665 net.cpp:150] Setting up res2a_branch2a
I0312 23:45:44.859176 14665 net.cpp:157] Top shape: 1 64 150 250 (2400000)
I0312 23:45:44.859179 14665 net.cpp:165] Memory required for data: 328800084
I0312 23:45:44.859184 14665 layer_factory.hpp:77] Creating layer bn2a_branch2a
I0312 23:45:44.859191 14665 net.cpp:100] Creating Layer bn2a_branch2a
I0312 23:45:44.859215 14665 net.cpp:444] bn2a_branch2a <- res2a_branch2a
I0312 23:45:44.859230 14665 net.cpp:405] bn2a_branch2a -> res2a_branch2a (in-place)
I0312 23:45:44.859405 14665 net.cpp:150] Setting up bn2a_branch2a
I0312 23:45:44.859411 14665 net.cpp:157] Top shape: 1 64 150 250 (2400000)
I0312 23:45:44.859413 14665 net.cpp:165] Memory required for data: 338400084
I0312 23:45:44.859421 14665 layer_factory.hpp:77] Creating layer scale2a_branch2a
I0312 23:45:44.859443 14665 net.cpp:100] Creating Layer scale2a_branch2a
I0312 23:45:44.859453 14665 net.cpp:444] scale2a_branch2a <- res2a_branch2a
I0312 23:45:44.859468 14665 net.cpp:405] scale2a_branch2a -> res2a_branch2a (in-place)
I0312 23:45:44.859499 14665 layer_factory.hpp:77] Creating layer scale2a_branch2a
I0312 23:45:44.859617 14665 net.cpp:150] Setting up scale2a_branch2a
I0312 23:45:44.859622 14665 net.cpp:157] Top shape: 1 64 150 250 (2400000)
I0312 23:45:44.859625 14665 net.cpp:165] Memory required for data: 348000084
I0312 23:45:44.859629 14665 layer_factory.hpp:77] Creating layer res2a_branch2a_relu
I0312 23:45:44.859652 14665 net.cpp:100] Creating Layer res2a_branch2a_relu
I0312 23:45:44.859655 14665 net.cpp:444] res2a_branch2a_relu <- res2a_branch2a
I0312 23:45:44.859659 14665 net.cpp:405] res2a_branch2a_relu -> res2a_branch2a (in-place)
I0312 23:45:44.859664 14665 net.cpp:150] Setting up res2a_branch2a_relu
I0312 23:45:44.859669 14665 net.cpp:157] Top shape: 1 64 150 250 (2400000)
I0312 23:45:44.859673 14665 net.cpp:165] Memory required for data: 357600084
I0312 23:45:44.859674 14665 layer_factory.hpp:77] Creating layer res2a_branch2b
I0312 23:45:44.859679 14665 net.cpp:100] Creating Layer res2a_branch2b
I0312 23:45:44.859684 14665 net.cpp:444] res2a_branch2b <- res2a_branch2a
I0312 23:45:44.859688 14665 net.cpp:418] res2a_branch2b -> res2a_branch2b
I0312 23:45:44.859836 14665 net.cpp:150] Setting up res2a_branch2b
I0312 23:45:44.859841 14665 net.cpp:157] Top shape: 1 64 150 250 (2400000)
I0312 23:45:44.859844 14665 net.cpp:165] Memory required for data: 367200084
I0312 23:45:44.859848 14665 layer_factory.hpp:77] Creating layer bn2a_branch2b
I0312 23:45:44.859853 14665 net.cpp:100] Creating Layer bn2a_branch2b
I0312 23:45:44.859855 14665 net.cpp:444] bn2a_branch2b <- res2a_branch2b
I0312 23:45:44.859859 14665 net.cpp:405] bn2a_branch2b -> res2a_branch2b (in-place)
I0312 23:45:44.859997 14665 net.cpp:150] Setting up bn2a_branch2b
I0312 23:45:44.860002 14665 net.cpp:157] Top shape: 1 64 150 250 (2400000)
I0312 23:45:44.860003 14665 net.cpp:165] Memory required for data: 376800084
I0312 23:45:44.860008 14665 layer_factory.hpp:77] Creating layer scale2a_branch2b
I0312 23:45:44.860013 14665 net.cpp:100] Creating Layer scale2a_branch2b
I0312 23:45:44.860015 14665 net.cpp:444] scale2a_branch2b <- res2a_branch2b
I0312 23:45:44.860018 14665 net.cpp:405] scale2a_branch2b -> res2a_branch2b (in-place)
I0312 23:45:44.860044 14665 layer_factory.hpp:77] Creating layer scale2a_branch2b
I0312 23:45:44.860160 14665 net.cpp:150] Setting up scale2a_branch2b
I0312 23:45:44.860167 14665 net.cpp:157] Top shape: 1 64 150 250 (2400000)
I0312 23:45:44.860168 14665 net.cpp:165] Memory required for data: 386400084
I0312 23:45:44.860172 14665 layer_factory.hpp:77] Creating layer res2a_branch2b_relu
I0312 23:45:44.860177 14665 net.cpp:100] Creating Layer res2a_branch2b_relu
I0312 23:45:44.860180 14665 net.cpp:444] res2a_branch2b_relu <- res2a_branch2b
I0312 23:45:44.860184 14665 net.cpp:405] res2a_branch2b_relu -> res2a_branch2b (in-place)
I0312 23:45:44.860188 14665 net.cpp:150] Setting up res2a_branch2b_relu
I0312 23:45:44.860191 14665 net.cpp:157] Top shape: 1 64 150 250 (2400000)
I0312 23:45:44.860193 14665 net.cpp:165] Memory required for data: 396000084
I0312 23:45:44.860195 14665 layer_factory.hpp:77] Creating layer res2a_branch2c
I0312 23:45:44.860200 14665 net.cpp:100] Creating Layer res2a_branch2c
I0312 23:45:44.860203 14665 net.cpp:444] res2a_branch2c <- res2a_branch2b
I0312 23:45:44.860206 14665 net.cpp:418] res2a_branch2c -> res2a_branch2c
I0312 23:45:44.860347 14665 net.cpp:150] Setting up res2a_branch2c
I0312 23:45:44.860353 14665 net.cpp:157] Top shape: 1 256 150 250 (9600000)
I0312 23:45:44.860368 14665 net.cpp:165] Memory required for data: 434400084
I0312 23:45:44.860371 14665 layer_factory.hpp:77] Creating layer bn2a_branch2c
I0312 23:45:44.860376 14665 net.cpp:100] Creating Layer bn2a_branch2c
I0312 23:45:44.860379 14665 net.cpp:444] bn2a_branch2c <- res2a_branch2c
I0312 23:45:44.860383 14665 net.cpp:405] bn2a_branch2c -> res2a_branch2c (in-place)
I0312 23:45:44.860518 14665 net.cpp:150] Setting up bn2a_branch2c
I0312 23:45:44.860523 14665 net.cpp:157] Top shape: 1 256 150 250 (9600000)
I0312 23:45:44.860527 14665 net.cpp:165] Memory required for data: 472800084
I0312 23:45:44.860532 14665 layer_factory.hpp:77] Creating layer scale2a_branch2c
I0312 23:45:44.860536 14665 net.cpp:100] Creating Layer scale2a_branch2c
I0312 23:45:44.860540 14665 net.cpp:444] scale2a_branch2c <- res2a_branch2c
I0312 23:45:44.860543 14665 net.cpp:405] scale2a_branch2c -> res2a_branch2c (in-place)
I0312 23:45:44.860580 14665 layer_factory.hpp:77] Creating layer scale2a_branch2c
I0312 23:45:44.860702 14665 net.cpp:150] Setting up scale2a_branch2c
I0312 23:45:44.860707 14665 net.cpp:157] Top shape: 1 256 150 250 (9600000)
I0312 23:45:44.860710 14665 net.cpp:165] Memory required for data: 511200084
I0312 23:45:44.860714 14665 layer_factory.hpp:77] Creating layer res2a
I0312 23:45:44.860731 14665 net.cpp:100] Creating Layer res2a
I0312 23:45:44.860735 14665 net.cpp:444] res2a <- res2a_branch1
I0312 23:45:44.860739 14665 net.cpp:444] res2a <- res2a_branch2c
I0312 23:45:44.860743 14665 net.cpp:418] res2a -> res2a
I0312 23:45:44.860759 14665 net.cpp:150] Setting up res2a
I0312 23:45:44.860764 14665 net.cpp:157] Top shape: 1 256 150 250 (9600000)
I0312 23:45:44.860766 14665 net.cpp:165] Memory required for data: 549600084
I0312 23:45:44.860769 14665 layer_factory.hpp:77] Creating layer res2a_relu
I0312 23:45:44.860772 14665 net.cpp:100] Creating Layer res2a_relu
I0312 23:45:44.860774 14665 net.cpp:444] res2a_relu <- res2a
I0312 23:45:44.860779 14665 net.cpp:405] res2a_relu -> res2a (in-place)
I0312 23:45:44.860783 14665 net.cpp:150] Setting up res2a_relu
I0312 23:45:44.860786 14665 net.cpp:157] Top shape: 1 256 150 250 (9600000)
I0312 23:45:44.860788 14665 net.cpp:165] Memory required for data: 588000084
I0312 23:45:44.860790 14665 layer_factory.hpp:77] Creating layer res2a_res2a_relu_0_split
I0312 23:45:44.860795 14665 net.cpp:100] Creating Layer res2a_res2a_relu_0_split
I0312 23:45:44.860796 14665 net.cpp:444] res2a_res2a_relu_0_split <- res2a
I0312 23:45:44.860800 14665 net.cpp:418] res2a_res2a_relu_0_split -> res2a_res2a_relu_0_split_0
I0312 23:45:44.860805 14665 net.cpp:418] res2a_res2a_relu_0_split -> res2a_res2a_relu_0_split_1
I0312 23:45:44.860827 14665 net.cpp:150] Setting up res2a_res2a_relu_0_split
I0312 23:45:44.860831 14665 net.cpp:157] Top shape: 1 256 150 250 (9600000)
I0312 23:45:44.860834 14665 net.cpp:157] Top shape: 1 256 150 250 (9600000)
I0312 23:45:44.860837 14665 net.cpp:165] Memory required for data: 664800084
I0312 23:45:44.860839 14665 layer_factory.hpp:77] Creating layer res2b_branch2a
I0312 23:45:44.860844 14665 net.cpp:100] Creating Layer res2b_branch2a
I0312 23:45:44.860848 14665 net.cpp:444] res2b_branch2a <- res2a_res2a_relu_0_split_0
I0312 23:45:44.860853 14665 net.cpp:418] res2b_branch2a -> res2b_branch2a
I0312 23:45:44.860980 14665 net.cpp:150] Setting up res2b_branch2a
I0312 23:45:44.860985 14665 net.cpp:157] Top shape: 1 64 150 250 (2400000)
I0312 23:45:44.860987 14665 net.cpp:165] Memory required for data: 674400084
I0312 23:45:44.860991 14665 layer_factory.hpp:77] Creating layer bn2b_branch2a
I0312 23:45:44.860994 14665 net.cpp:100] Creating Layer bn2b_branch2a
I0312 23:45:44.861009 14665 net.cpp:444] bn2b_branch2a <- res2b_branch2a
I0312 23:45:44.861014 14665 net.cpp:405] bn2b_branch2a -> res2b_branch2a (in-place)
I0312 23:45:44.861853 14665 net.cpp:150] Setting up bn2b_branch2a
I0312 23:45:44.861865 14665 net.cpp:157] Top shape: 1 64 150 250 (2400000)
I0312 23:45:44.861868 14665 net.cpp:165] Memory required for data: 684000084
I0312 23:45:44.861878 14665 layer_factory.hpp:77] Creating layer scale2b_branch2a
I0312 23:45:44.861886 14665 net.cpp:100] Creating Layer scale2b_branch2a
I0312 23:45:44.861889 14665 net.cpp:444] scale2b_branch2a <- res2b_branch2a
I0312 23:45:44.861894 14665 net.cpp:405] scale2b_branch2a -> res2b_branch2a (in-place)
I0312 23:45:44.861922 14665 layer_factory.hpp:77] Creating layer scale2b_branch2a
I0312 23:45:44.862036 14665 net.cpp:150] Setting up scale2b_branch2a
I0312 23:45:44.862042 14665 net.cpp:157] Top shape: 1 64 150 250 (2400000)
I0312 23:45:44.862045 14665 net.cpp:165] Memory required for data: 693600084
I0312 23:45:44.862048 14665 layer_factory.hpp:77] Creating layer res2b_branch2a_relu
I0312 23:45:44.862053 14665 net.cpp:100] Creating Layer res2b_branch2a_relu
I0312 23:45:44.862057 14665 net.cpp:444] res2b_branch2a_relu <- res2b_branch2a
I0312 23:45:44.862061 14665 net.cpp:405] res2b_branch2a_relu -> res2b_branch2a (in-place)
I0312 23:45:44.862064 14665 net.cpp:150] Setting up res2b_branch2a_relu
I0312 23:45:44.862068 14665 net.cpp:157] Top shape: 1 64 150 250 (2400000)
I0312 23:45:44.862071 14665 net.cpp:165] Memory required for data: 703200084
I0312 23:45:44.862072 14665 layer_factory.hpp:77] Creating layer res2b_branch2b
I0312 23:45:44.862077 14665 net.cpp:100] Creating Layer res2b_branch2b
I0312 23:45:44.862094 14665 net.cpp:444] res2b_branch2b <- res2b_branch2a
I0312 23:45:44.862100 14665 net.cpp:418] res2b_branch2b -> res2b_branch2b
I0312 23:45:44.862246 14665 net.cpp:150] Setting up res2b_branch2b
I0312 23:45:44.862251 14665 net.cpp:157] Top shape: 1 64 150 250 (2400000)
I0312 23:45:44.862253 14665 net.cpp:165] Memory required for data: 712800084
I0312 23:45:44.862257 14665 layer_factory.hpp:77] Creating layer bn2b_branch2b
I0312 23:45:44.862263 14665 net.cpp:100] Creating Layer bn2b_branch2b
I0312 23:45:44.862267 14665 net.cpp:444] bn2b_branch2b <- res2b_branch2b
I0312 23:45:44.862270 14665 net.cpp:405] bn2b_branch2b -> res2b_branch2b (in-place)
I0312 23:45:44.862406 14665 net.cpp:150] Setting up bn2b_branch2b
I0312 23:45:44.862411 14665 net.cpp:157] Top shape: 1 64 150 250 (2400000)
I0312 23:45:44.862414 14665 net.cpp:165] Memory required for data: 722400084
I0312 23:45:44.862419 14665 layer_factory.hpp:77] Creating layer scale2b_branch2b
I0312 23:45:44.862426 14665 net.cpp:100] Creating Layer scale2b_branch2b
I0312 23:45:44.862428 14665 net.cpp:444] scale2b_branch2b <- res2b_branch2b
I0312 23:45:44.862432 14665 net.cpp:405] scale2b_branch2b -> res2b_branch2b (in-place)
I0312 23:45:44.862457 14665 layer_factory.hpp:77] Creating layer scale2b_branch2b
I0312 23:45:44.862565 14665 net.cpp:150] Setting up scale2b_branch2b
I0312 23:45:44.862571 14665 net.cpp:157] Top shape: 1 64 150 250 (2400000)
I0312 23:45:44.862573 14665 net.cpp:165] Memory required for data: 732000084
I0312 23:45:44.862577 14665 layer_factory.hpp:77] Creating layer res2b_branch2b_relu
I0312 23:45:44.862582 14665 net.cpp:100] Creating Layer res2b_branch2b_relu
I0312 23:45:44.862586 14665 net.cpp:444] res2b_branch2b_relu <- res2b_branch2b
I0312 23:45:44.862588 14665 net.cpp:405] res2b_branch2b_relu -> res2b_branch2b (in-place)
I0312 23:45:44.862592 14665 net.cpp:150] Setting up res2b_branch2b_relu
I0312 23:45:44.862596 14665 net.cpp:157] Top shape: 1 64 150 250 (2400000)
I0312 23:45:44.862597 14665 net.cpp:165] Memory required for data: 741600084
I0312 23:45:44.862601 14665 layer_factory.hpp:77] Creating layer res2b_branch2c
I0312 23:45:44.862604 14665 net.cpp:100] Creating Layer res2b_branch2c
I0312 23:45:44.862607 14665 net.cpp:444] res2b_branch2c <- res2b_branch2b
I0312 23:45:44.862610 14665 net.cpp:418] res2b_branch2c -> res2b_branch2c
I0312 23:45:44.862743 14665 net.cpp:150] Setting up res2b_branch2c
I0312 23:45:44.862749 14665 net.cpp:157] Top shape: 1 256 150 250 (9600000)
I0312 23:45:44.862751 14665 net.cpp:165] Memory required for data: 780000084
I0312 23:45:44.862756 14665 layer_factory.hpp:77] Creating layer bn2b_branch2c
I0312 23:45:44.862759 14665 net.cpp:100] Creating Layer bn2b_branch2c
I0312 23:45:44.862779 14665 net.cpp:444] bn2b_branch2c <- res2b_branch2c
I0312 23:45:44.862792 14665 net.cpp:405] bn2b_branch2c -> res2b_branch2c (in-place)
I0312 23:45:44.863015 14665 net.cpp:150] Setting up bn2b_branch2c
I0312 23:45:44.863021 14665 net.cpp:157] Top shape: 1 256 150 250 (9600000)
I0312 23:45:44.863024 14665 net.cpp:165] Memory required for data: 818400084
I0312 23:45:44.863029 14665 layer_factory.hpp:77] Creating layer scale2b_branch2c
I0312 23:45:44.863060 14665 net.cpp:100] Creating Layer scale2b_branch2c
I0312 23:45:44.863075 14665 net.cpp:444] scale2b_branch2c <- res2b_branch2c
I0312 23:45:44.863131 14665 net.cpp:405] scale2b_branch2c -> res2b_branch2c (in-place)
I0312 23:45:44.863175 14665 layer_factory.hpp:77] Creating layer scale2b_branch2c
I0312 23:45:44.863284 14665 net.cpp:150] Setting up scale2b_branch2c
I0312 23:45:44.863291 14665 net.cpp:157] Top shape: 1 256 150 250 (9600000)
I0312 23:45:44.863293 14665 net.cpp:165] Memory required for data: 856800084
I0312 23:45:44.863297 14665 layer_factory.hpp:77] Creating layer res2b
I0312 23:45:44.863335 14665 net.cpp:100] Creating Layer res2b
I0312 23:45:44.863370 14665 net.cpp:444] res2b <- res2a_res2a_relu_0_split_1
I0312 23:45:44.863387 14665 net.cpp:444] res2b <- res2b_branch2c
I0312 23:45:44.863399 14665 net.cpp:418] res2b -> res2b
I0312 23:45:44.863430 14665 net.cpp:150] Setting up res2b
I0312 23:45:44.863436 14665 net.cpp:157] Top shape: 1 256 150 250 (9600000)
I0312 23:45:44.863440 14665 net.cpp:165] Memory required for data: 895200084
I0312 23:45:44.863442 14665 layer_factory.hpp:77] Creating layer res2b_relu
I0312 23:45:44.863445 14665 net.cpp:100] Creating Layer res2b_relu
I0312 23:45:44.863448 14665 net.cpp:444] res2b_relu <- res2b
I0312 23:45:44.863467 14665 net.cpp:405] res2b_relu -> res2b (in-place)
I0312 23:45:44.863482 14665 net.cpp:150] Setting up res2b_relu
I0312 23:45:44.863495 14665 net.cpp:157] Top shape: 1 256 150 250 (9600000)
I0312 23:45:44.863507 14665 net.cpp:165] Memory required for data: 933600084
I0312 23:45:44.863518 14665 layer_factory.hpp:77] Creating layer res2b_res2b_relu_0_split
I0312 23:45:44.863533 14665 net.cpp:100] Creating Layer res2b_res2b_relu_0_split
I0312 23:45:44.863544 14665 net.cpp:444] res2b_res2b_relu_0_split <- res2b
I0312 23:45:44.863559 14665 net.cpp:418] res2b_res2b_relu_0_split -> res2b_res2b_relu_0_split_0
I0312 23:45:44.863574 14665 net.cpp:418] res2b_res2b_relu_0_split -> res2b_res2b_relu_0_split_1
I0312 23:45:44.863615 14665 net.cpp:150] Setting up res2b_res2b_relu_0_split
I0312 23:45:44.863631 14665 net.cpp:157] Top shape: 1 256 150 250 (9600000)
I0312 23:45:44.863644 14665 net.cpp:157] Top shape: 1 256 150 250 (9600000)
I0312 23:45:44.863656 14665 net.cpp:165] Memory required for data: 1010400084
I0312 23:45:44.863667 14665 layer_factory.hpp:77] Creating layer res2c_branch2a
I0312 23:45:44.863682 14665 net.cpp:100] Creating Layer res2c_branch2a
I0312 23:45:44.863695 14665 net.cpp:444] res2c_branch2a <- res2b_res2b_relu_0_split_0
I0312 23:45:44.863709 14665 net.cpp:418] res2c_branch2a -> res2c_branch2a
I0312 23:45:44.863855 14665 net.cpp:150] Setting up res2c_branch2a
I0312 23:45:44.863862 14665 net.cpp:157] Top shape: 1 64 150 250 (2400000)
I0312 23:45:44.863864 14665 net.cpp:165] Memory required for data: 1020000084
I0312 23:45:44.863868 14665 layer_factory.hpp:77] Creating layer bn2c_branch2a
I0312 23:45:44.863873 14665 net.cpp:100] Creating Layer bn2c_branch2a
I0312 23:45:44.863884 14665 net.cpp:444] bn2c_branch2a <- res2c_branch2a
I0312 23:45:44.863889 14665 net.cpp:405] bn2c_branch2a -> res2c_branch2a (in-place)
I0312 23:45:44.864035 14665 net.cpp:150] Setting up bn2c_branch2a
I0312 23:45:44.864040 14665 net.cpp:157] Top shape: 1 64 150 250 (2400000)
I0312 23:45:44.864043 14665 net.cpp:165] Memory required for data: 1029600084
I0312 23:45:44.864048 14665 layer_factory.hpp:77] Creating layer scale2c_branch2a
I0312 23:45:44.864053 14665 net.cpp:100] Creating Layer scale2c_branch2a
I0312 23:45:44.864058 14665 net.cpp:444] scale2c_branch2a <- res2c_branch2a
I0312 23:45:44.864060 14665 net.cpp:405] scale2c_branch2a -> res2c_branch2a (in-place)
I0312 23:45:44.864085 14665 layer_factory.hpp:77] Creating layer scale2c_branch2a
I0312 23:45:44.864202 14665 net.cpp:150] Setting up scale2c_branch2a
I0312 23:45:44.864207 14665 net.cpp:157] Top shape: 1 64 150 250 (2400000)
I0312 23:45:44.864209 14665 net.cpp:165] Memory required for data: 1039200084
I0312 23:45:44.864213 14665 layer_factory.hpp:77] Creating layer res2c_branch2a_relu
I0312 23:45:44.864228 14665 net.cpp:100] Creating Layer res2c_branch2a_relu
I0312 23:45:44.864231 14665 net.cpp:444] res2c_branch2a_relu <- res2c_branch2a
I0312 23:45:44.864235 14665 net.cpp:405] res2c_branch2a_relu -> res2c_branch2a (in-place)
I0312 23:45:44.864239 14665 net.cpp:150] Setting up res2c_branch2a_relu
I0312 23:45:44.864243 14665 net.cpp:157] Top shape: 1 64 150 250 (2400000)
I0312 23:45:44.864246 14665 net.cpp:165] Memory required for data: 1048800084
I0312 23:45:44.864248 14665 layer_factory.hpp:77] Creating layer res2c_branch2b
I0312 23:45:44.864253 14665 net.cpp:100] Creating Layer res2c_branch2b
I0312 23:45:44.864256 14665 net.cpp:444] res2c_branch2b <- res2c_branch2a
I0312 23:45:44.864260 14665 net.cpp:418] res2c_branch2b -> res2c_branch2b
I0312 23:45:44.864403 14665 net.cpp:150] Setting up res2c_branch2b
I0312 23:45:44.864408 14665 net.cpp:157] Top shape: 1 64 150 250 (2400000)
I0312 23:45:44.864410 14665 net.cpp:165] Memory required for data: 1058400084
I0312 23:45:44.864414 14665 layer_factory.hpp:77] Creating layer bn2c_branch2b
I0312 23:45:44.864428 14665 net.cpp:100] Creating Layer bn2c_branch2b
I0312 23:45:44.864433 14665 net.cpp:444] bn2c_branch2b <- res2c_branch2b
I0312 23:45:44.864436 14665 net.cpp:405] bn2c_branch2b -> res2c_branch2b (in-place)
I0312 23:45:44.865474 14665 net.cpp:150] Setting up bn2c_branch2b
I0312 23:45:44.865494 14665 net.cpp:157] Top shape: 1 64 150 250 (2400000)
I0312 23:45:44.865497 14665 net.cpp:165] Memory required for data: 1068000084
I0312 23:45:44.865506 14665 layer_factory.hpp:77] Creating layer scale2c_branch2b
I0312 23:45:44.865515 14665 net.cpp:100] Creating Layer scale2c_branch2b
I0312 23:45:44.865520 14665 net.cpp:444] scale2c_branch2b <- res2c_branch2b
I0312 23:45:44.865523 14665 net.cpp:405] scale2c_branch2b -> res2c_branch2b (in-place)
I0312 23:45:44.865556 14665 layer_factory.hpp:77] Creating layer scale2c_branch2b
I0312 23:45:44.865682 14665 net.cpp:150] Setting up scale2c_branch2b
I0312 23:45:44.865689 14665 net.cpp:157] Top shape: 1 64 150 250 (2400000)
I0312 23:45:44.865691 14665 net.cpp:165] Memory required for data: 1077600084
I0312 23:45:44.865696 14665 layer_factory.hpp:77] Creating layer res2c_branch2b_relu
I0312 23:45:44.865702 14665 net.cpp:100] Creating Layer res2c_branch2b_relu
I0312 23:45:44.865705 14665 net.cpp:444] res2c_branch2b_relu <- res2c_branch2b
I0312 23:45:44.865708 14665 net.cpp:405] res2c_branch2b_relu -> res2c_branch2b (in-place)
I0312 23:45:44.865713 14665 net.cpp:150] Setting up res2c_branch2b_relu
I0312 23:45:44.865717 14665 net.cpp:157] Top shape: 1 64 150 250 (2400000)
I0312 23:45:44.865720 14665 net.cpp:165] Memory required for data: 1087200084
I0312 23:45:44.865722 14665 layer_factory.hpp:77] Creating layer res2c_branch2c
I0312 23:45:44.865728 14665 net.cpp:100] Creating Layer res2c_branch2c
I0312 23:45:44.865732 14665 net.cpp:444] res2c_branch2c <- res2c_branch2b
I0312 23:45:44.865736 14665 net.cpp:418] res2c_branch2c -> res2c_branch2c
I0312 23:45:44.865873 14665 net.cpp:150] Setting up res2c_branch2c
I0312 23:45:44.865900 14665 net.cpp:157] Top shape: 1 256 150 250 (9600000)
I0312 23:45:44.865916 14665 net.cpp:165] Memory required for data: 1125600084
I0312 23:45:44.865928 14665 layer_factory.hpp:77] Creating layer bn2c_branch2c
I0312 23:45:44.865936 14665 net.cpp:100] Creating Layer bn2c_branch2c
I0312 23:45:44.865939 14665 net.cpp:444] bn2c_branch2c <- res2c_branch2c
I0312 23:45:44.865942 14665 net.cpp:405] bn2c_branch2c -> res2c_branch2c (in-place)
I0312 23:45:44.866101 14665 net.cpp:150] Setting up bn2c_branch2c
I0312 23:45:44.866118 14665 net.cpp:157] Top shape: 1 256 150 250 (9600000)
I0312 23:45:44.866130 14665 net.cpp:165] Memory required for data: 1164000084
I0312 23:45:44.866153 14665 layer_factory.hpp:77] Creating layer scale2c_branch2c
I0312 23:45:44.866168 14665 net.cpp:100] Creating Layer scale2c_branch2c
I0312 23:45:44.866181 14665 net.cpp:444] scale2c_branch2c <- res2c_branch2c
I0312 23:45:44.866196 14665 net.cpp:405] scale2c_branch2c -> res2c_branch2c (in-place)
I0312 23:45:44.866236 14665 layer_factory.hpp:77] Creating layer scale2c_branch2c
I0312 23:45:44.866366 14665 net.cpp:150] Setting up scale2c_branch2c
I0312 23:45:44.866374 14665 net.cpp:157] Top shape: 1 256 150 250 (9600000)
I0312 23:45:44.866377 14665 net.cpp:165] Memory required for data: 1202400084
I0312 23:45:44.866381 14665 layer_factory.hpp:77] Creating layer res2c
I0312 23:45:44.866386 14665 net.cpp:100] Creating Layer res2c
I0312 23:45:44.866389 14665 net.cpp:444] res2c <- res2b_res2b_relu_0_split_1
I0312 23:45:44.866394 14665 net.cpp:444] res2c <- res2c_branch2c
I0312 23:45:44.866411 14665 net.cpp:418] res2c -> res2c
I0312 23:45:44.866442 14665 net.cpp:150] Setting up res2c
I0312 23:45:44.866457 14665 net.cpp:157] Top shape: 1 256 150 250 (9600000)
I0312 23:45:44.866469 14665 net.cpp:165] Memory required for data: 1240800084
I0312 23:45:44.866482 14665 layer_factory.hpp:77] Creating layer res2c_relu
I0312 23:45:44.866494 14665 net.cpp:100] Creating Layer res2c_relu
I0312 23:45:44.866506 14665 net.cpp:444] res2c_relu <- res2c
I0312 23:45:44.866520 14665 net.cpp:405] res2c_relu -> res2c (in-place)
I0312 23:45:44.866534 14665 net.cpp:150] Setting up res2c_relu
I0312 23:45:44.866547 14665 net.cpp:157] Top shape: 1 256 150 250 (9600000)
I0312 23:45:44.866559 14665 net.cpp:165] Memory required for data: 1279200084
I0312 23:45:44.866570 14665 layer_factory.hpp:77] Creating layer res2c_res2c_relu_0_split
I0312 23:45:44.866583 14665 net.cpp:100] Creating Layer res2c_res2c_relu_0_split
I0312 23:45:44.866595 14665 net.cpp:444] res2c_res2c_relu_0_split <- res2c
I0312 23:45:44.866610 14665 net.cpp:418] res2c_res2c_relu_0_split -> res2c_res2c_relu_0_split_0
I0312 23:45:44.866626 14665 net.cpp:418] res2c_res2c_relu_0_split -> res2c_res2c_relu_0_split_1
I0312 23:45:44.866663 14665 net.cpp:150] Setting up res2c_res2c_relu_0_split
I0312 23:45:44.866678 14665 net.cpp:157] Top shape: 1 256 150 250 (9600000)
I0312 23:45:44.866691 14665 net.cpp:157] Top shape: 1 256 150 250 (9600000)
I0312 23:45:44.866703 14665 net.cpp:165] Memory required for data: 1356000084
I0312 23:45:44.866719 14665 layer_factory.hpp:77] Creating layer res3a_branch1
I0312 23:45:44.866732 14665 net.cpp:100] Creating Layer res3a_branch1
I0312 23:45:44.866740 14665 net.cpp:444] res3a_branch1 <- res2c_res2c_relu_0_split_0
I0312 23:45:44.866751 14665 net.cpp:418] res3a_branch1 -> res3a_branch1
I0312 23:45:44.866994 14665 net.cpp:150] Setting up res3a_branch1
I0312 23:45:44.867013 14665 net.cpp:157] Top shape: 1 512 75 125 (4800000)
I0312 23:45:44.867059 14665 net.cpp:165] Memory required for data: 1375200084
I0312 23:45:44.867111 14665 layer_factory.hpp:77] Creating layer bn3a_branch1
I0312 23:45:44.867147 14665 net.cpp:100] Creating Layer bn3a_branch1
I0312 23:45:44.867163 14665 net.cpp:444] bn3a_branch1 <- res3a_branch1
I0312 23:45:44.867182 14665 net.cpp:405] bn3a_branch1 -> res3a_branch1 (in-place)
I0312 23:45:44.868238 14665 net.cpp:150] Setting up bn3a_branch1
I0312 23:45:44.868263 14665 net.cpp:157] Top shape: 1 512 75 125 (4800000)
I0312 23:45:44.868266 14665 net.cpp:165] Memory required for data: 1394400084
I0312 23:45:44.868278 14665 layer_factory.hpp:77] Creating layer scale3a_branch1
I0312 23:45:44.868291 14665 net.cpp:100] Creating Layer scale3a_branch1
I0312 23:45:44.868316 14665 net.cpp:444] scale3a_branch1 <- res3a_branch1
I0312 23:45:44.868366 14665 net.cpp:405] scale3a_branch1 -> res3a_branch1 (in-place)
I0312 23:45:44.868433 14665 layer_factory.hpp:77] Creating layer scale3a_branch1
I0312 23:45:44.868543 14665 net.cpp:150] Setting up scale3a_branch1
I0312 23:45:44.868549 14665 net.cpp:157] Top shape: 1 512 75 125 (4800000)
I0312 23:45:44.868552 14665 net.cpp:165] Memory required for data: 1413600084
I0312 23:45:44.868557 14665 layer_factory.hpp:77] Creating layer res3a_branch2a
I0312 23:45:44.868605 14665 net.cpp:100] Creating Layer res3a_branch2a
I0312 23:45:44.868611 14665 net.cpp:444] res3a_branch2a <- res2c_res2c_relu_0_split_1
I0312 23:45:44.868618 14665 net.cpp:418] res3a_branch2a -> res3a_branch2a
I0312 23:45:44.868796 14665 net.cpp:150] Setting up res3a_branch2a
I0312 23:45:44.868803 14665 net.cpp:157] Top shape: 1 128 75 125 (1200000)
I0312 23:45:44.868806 14665 net.cpp:165] Memory required for data: 1418400084
I0312 23:45:44.868809 14665 layer_factory.hpp:77] Creating layer bn3a_branch2a
I0312 23:45:44.868816 14665 net.cpp:100] Creating Layer bn3a_branch2a
I0312 23:45:44.868832 14665 net.cpp:444] bn3a_branch2a <- res3a_branch2a
I0312 23:45:44.868839 14665 net.cpp:405] bn3a_branch2a -> res3a_branch2a (in-place)
I0312 23:45:44.868993 14665 net.cpp:150] Setting up bn3a_branch2a
I0312 23:45:44.868999 14665 net.cpp:157] Top shape: 1 128 75 125 (1200000)
I0312 23:45:44.869001 14665 net.cpp:165] Memory required for data: 1423200084
I0312 23:45:44.869007 14665 layer_factory.hpp:77] Creating layer scale3a_branch2a
I0312 23:45:44.869046 14665 net.cpp:100] Creating Layer scale3a_branch2a
I0312 23:45:44.869062 14665 net.cpp:444] scale3a_branch2a <- res3a_branch2a
I0312 23:45:44.869086 14665 net.cpp:405] scale3a_branch2a -> res3a_branch2a (in-place)
I0312 23:45:44.869137 14665 layer_factory.hpp:77] Creating layer scale3a_branch2a
I0312 23:45:44.869228 14665 net.cpp:150] Setting up scale3a_branch2a
I0312 23:45:44.869233 14665 net.cpp:157] Top shape: 1 128 75 125 (1200000)
I0312 23:45:44.869236 14665 net.cpp:165] Memory required for data: 1428000084
I0312 23:45:44.869240 14665 layer_factory.hpp:77] Creating layer res3a_branch2a_relu
I0312 23:45:44.869282 14665 net.cpp:100] Creating Layer res3a_branch2a_relu
I0312 23:45:44.869292 14665 net.cpp:444] res3a_branch2a_relu <- res3a_branch2a
I0312 23:45:44.869308 14665 net.cpp:405] res3a_branch2a_relu -> res3a_branch2a (in-place)
I0312 23:45:44.869321 14665 net.cpp:150] Setting up res3a_branch2a_relu
I0312 23:45:44.869335 14665 net.cpp:157] Top shape: 1 128 75 125 (1200000)
I0312 23:45:44.869344 14665 net.cpp:165] Memory required for data: 1432800084
I0312 23:45:44.869357 14665 layer_factory.hpp:77] Creating layer res3a_branch2b
I0312 23:45:44.869371 14665 net.cpp:100] Creating Layer res3a_branch2b
I0312 23:45:44.869385 14665 net.cpp:444] res3a_branch2b <- res3a_branch2a
I0312 23:45:44.869405 14665 net.cpp:418] res3a_branch2b -> res3a_branch2b
I0312 23:45:44.869616 14665 net.cpp:150] Setting up res3a_branch2b
I0312 23:45:44.869621 14665 net.cpp:157] Top shape: 1 128 75 125 (1200000)
I0312 23:45:44.869623 14665 net.cpp:165] Memory required for data: 1437600084
I0312 23:45:44.869627 14665 layer_factory.hpp:77] Creating layer bn3a_branch2b
I0312 23:45:44.869632 14665 net.cpp:100] Creating Layer bn3a_branch2b
I0312 23:45:44.869668 14665 net.cpp:444] bn3a_branch2b <- res3a_branch2b
I0312 23:45:44.869685 14665 net.cpp:405] bn3a_branch2b -> res3a_branch2b (in-place)
I0312 23:45:44.869827 14665 net.cpp:150] Setting up bn3a_branch2b
I0312 23:45:44.869834 14665 net.cpp:157] Top shape: 1 128 75 125 (1200000)
I0312 23:45:44.869837 14665 net.cpp:165] Memory required for data: 1442400084
I0312 23:45:44.869843 14665 layer_factory.hpp:77] Creating layer scale3a_branch2b
I0312 23:45:44.869849 14665 net.cpp:100] Creating Layer scale3a_branch2b
I0312 23:45:44.869853 14665 net.cpp:444] scale3a_branch2b <- res3a_branch2b
I0312 23:45:44.869858 14665 net.cpp:405] scale3a_branch2b -> res3a_branch2b (in-place)
I0312 23:45:44.869884 14665 layer_factory.hpp:77] Creating layer scale3a_branch2b
I0312 23:45:44.869979 14665 net.cpp:150] Setting up scale3a_branch2b
I0312 23:45:44.869985 14665 net.cpp:157] Top shape: 1 128 75 125 (1200000)
I0312 23:45:44.869987 14665 net.cpp:165] Memory required for data: 1447200084
I0312 23:45:44.869992 14665 layer_factory.hpp:77] Creating layer res3a_branch2b_relu
I0312 23:45:44.869997 14665 net.cpp:100] Creating Layer res3a_branch2b_relu
I0312 23:45:44.870000 14665 net.cpp:444] res3a_branch2b_relu <- res3a_branch2b
I0312 23:45:44.870007 14665 net.cpp:405] res3a_branch2b_relu -> res3a_branch2b (in-place)
I0312 23:45:44.870024 14665 net.cpp:150] Setting up res3a_branch2b_relu
I0312 23:45:44.870028 14665 net.cpp:157] Top shape: 1 128 75 125 (1200000)
I0312 23:45:44.870030 14665 net.cpp:165] Memory required for data: 1452000084
I0312 23:45:44.870033 14665 layer_factory.hpp:77] Creating layer res3a_branch2c
I0312 23:45:44.870038 14665 net.cpp:100] Creating Layer res3a_branch2c
I0312 23:45:44.870039 14665 net.cpp:444] res3a_branch2c <- res3a_branch2b
I0312 23:45:44.870043 14665 net.cpp:418] res3a_branch2c -> res3a_branch2c
I0312 23:45:44.870198 14665 net.cpp:150] Setting up res3a_branch2c
I0312 23:45:44.870204 14665 net.cpp:157] Top shape: 1 512 75 125 (4800000)
I0312 23:45:44.870206 14665 net.cpp:165] Memory required for data: 1471200084
I0312 23:45:44.870210 14665 layer_factory.hpp:77] Creating layer bn3a_branch2c
I0312 23:45:44.870214 14665 net.cpp:100] Creating Layer bn3a_branch2c
I0312 23:45:44.870218 14665 net.cpp:444] bn3a_branch2c <- res3a_branch2c
I0312 23:45:44.870223 14665 net.cpp:405] bn3a_branch2c -> res3a_branch2c (in-place)
I0312 23:45:44.870358 14665 net.cpp:150] Setting up bn3a_branch2c
I0312 23:45:44.870363 14665 net.cpp:157] Top shape: 1 512 75 125 (4800000)
I0312 23:45:44.870365 14665 net.cpp:165] Memory required for data: 1490400084
I0312 23:45:44.870371 14665 layer_factory.hpp:77] Creating layer scale3a_branch2c
I0312 23:45:44.870375 14665 net.cpp:100] Creating Layer scale3a_branch2c
I0312 23:45:44.870379 14665 net.cpp:444] scale3a_branch2c <- res3a_branch2c
I0312 23:45:44.870383 14665 net.cpp:405] scale3a_branch2c -> res3a_branch2c (in-place)
I0312 23:45:44.870407 14665 layer_factory.hpp:77] Creating layer scale3a_branch2c
I0312 23:45:44.870494 14665 net.cpp:150] Setting up scale3a_branch2c
I0312 23:45:44.870499 14665 net.cpp:157] Top shape: 1 512 75 125 (4800000)
I0312 23:45:44.870501 14665 net.cpp:165] Memory required for data: 1509600084
I0312 23:45:44.870506 14665 layer_factory.hpp:77] Creating layer res3a
I0312 23:45:44.870512 14665 net.cpp:100] Creating Layer res3a
I0312 23:45:44.870514 14665 net.cpp:444] res3a <- res3a_branch1
I0312 23:45:44.870518 14665 net.cpp:444] res3a <- res3a_branch2c
I0312 23:45:44.870522 14665 net.cpp:418] res3a -> res3a
I0312 23:45:44.870537 14665 net.cpp:150] Setting up res3a
I0312 23:45:44.870543 14665 net.cpp:157] Top shape: 1 512 75 125 (4800000)
I0312 23:45:44.870544 14665 net.cpp:165] Memory required for data: 1528800084
I0312 23:45:44.870559 14665 layer_factory.hpp:77] Creating layer res3a_relu
I0312 23:45:44.870563 14665 net.cpp:100] Creating Layer res3a_relu
I0312 23:45:44.870566 14665 net.cpp:444] res3a_relu <- res3a
I0312 23:45:44.870571 14665 net.cpp:405] res3a_relu -> res3a (in-place)
I0312 23:45:44.870576 14665 net.cpp:150] Setting up res3a_relu
I0312 23:45:44.870581 14665 net.cpp:157] Top shape: 1 512 75 125 (4800000)
I0312 23:45:44.870584 14665 net.cpp:165] Memory required for data: 1548000084
I0312 23:45:44.870585 14665 layer_factory.hpp:77] Creating layer res3a_res3a_relu_0_split
I0312 23:45:44.870602 14665 net.cpp:100] Creating Layer res3a_res3a_relu_0_split
I0312 23:45:44.870605 14665 net.cpp:444] res3a_res3a_relu_0_split <- res3a
I0312 23:45:44.870609 14665 net.cpp:418] res3a_res3a_relu_0_split -> res3a_res3a_relu_0_split_0
I0312 23:45:44.870615 14665 net.cpp:418] res3a_res3a_relu_0_split -> res3a_res3a_relu_0_split_1
I0312 23:45:44.870637 14665 net.cpp:150] Setting up res3a_res3a_relu_0_split
I0312 23:45:44.870642 14665 net.cpp:157] Top shape: 1 512 75 125 (4800000)
I0312 23:45:44.870645 14665 net.cpp:157] Top shape: 1 512 75 125 (4800000)
I0312 23:45:44.870647 14665 net.cpp:165] Memory required for data: 1586400084
I0312 23:45:44.870651 14665 layer_factory.hpp:77] Creating layer res3b_branch2a
I0312 23:45:44.870656 14665 net.cpp:100] Creating Layer res3b_branch2a
I0312 23:45:44.870657 14665 net.cpp:444] res3b_branch2a <- res3a_res3a_relu_0_split_0
I0312 23:45:44.870661 14665 net.cpp:418] res3b_branch2a -> res3b_branch2a
I0312 23:45:44.870813 14665 net.cpp:150] Setting up res3b_branch2a
I0312 23:45:44.870818 14665 net.cpp:157] Top shape: 1 128 75 125 (1200000)
I0312 23:45:44.870821 14665 net.cpp:165] Memory required for data: 1591200084
I0312 23:45:44.870824 14665 layer_factory.hpp:77] Creating layer bn3b_branch2a
I0312 23:45:44.870828 14665 net.cpp:100] Creating Layer bn3b_branch2a
I0312 23:45:44.870831 14665 net.cpp:444] bn3b_branch2a <- res3b_branch2a
I0312 23:45:44.870836 14665 net.cpp:405] bn3b_branch2a -> res3b_branch2a (in-place)
I0312 23:45:44.870959 14665 net.cpp:150] Setting up bn3b_branch2a
I0312 23:45:44.870964 14665 net.cpp:157] Top shape: 1 128 75 125 (1200000)
I0312 23:45:44.870966 14665 net.cpp:165] Memory required for data: 1596000084
I0312 23:45:44.870971 14665 layer_factory.hpp:77] Creating layer scale3b_branch2a
I0312 23:45:44.870976 14665 net.cpp:100] Creating Layer scale3b_branch2a
I0312 23:45:44.870980 14665 net.cpp:444] scale3b_branch2a <- res3b_branch2a
I0312 23:45:44.870982 14665 net.cpp:405] scale3b_branch2a -> res3b_branch2a (in-place)
I0312 23:45:44.871006 14665 layer_factory.hpp:77] Creating layer scale3b_branch2a
I0312 23:45:44.871085 14665 net.cpp:150] Setting up scale3b_branch2a
I0312 23:45:44.871090 14665 net.cpp:157] Top shape: 1 128 75 125 (1200000)
I0312 23:45:44.871093 14665 net.cpp:165] Memory required for data: 1600800084
I0312 23:45:44.871096 14665 layer_factory.hpp:77] Creating layer res3b_branch2a_relu
I0312 23:45:44.871100 14665 net.cpp:100] Creating Layer res3b_branch2a_relu
I0312 23:45:44.871104 14665 net.cpp:444] res3b_branch2a_relu <- res3b_branch2a
I0312 23:45:44.871106 14665 net.cpp:405] res3b_branch2a_relu -> res3b_branch2a (in-place)
I0312 23:45:44.871110 14665 net.cpp:150] Setting up res3b_branch2a_relu
I0312 23:45:44.871114 14665 net.cpp:157] Top shape: 1 128 75 125 (1200000)
I0312 23:45:44.871116 14665 net.cpp:165] Memory required for data: 1605600084
I0312 23:45:44.871119 14665 layer_factory.hpp:77] Creating layer res3b_branch2b
I0312 23:45:44.871122 14665 net.cpp:100] Creating Layer res3b_branch2b
I0312 23:45:44.871125 14665 net.cpp:444] res3b_branch2b <- res3b_branch2a
I0312 23:45:44.871129 14665 net.cpp:418] res3b_branch2b -> res3b_branch2b
I0312 23:45:44.872115 14665 net.cpp:150] Setting up res3b_branch2b
I0312 23:45:44.872129 14665 net.cpp:157] Top shape: 1 128 75 125 (1200000)
I0312 23:45:44.872133 14665 net.cpp:165] Memory required for data: 1610400084
I0312 23:45:44.872140 14665 layer_factory.hpp:77] Creating layer bn3b_branch2b
I0312 23:45:44.872161 14665 net.cpp:100] Creating Layer bn3b_branch2b
I0312 23:45:44.872165 14665 net.cpp:444] bn3b_branch2b <- res3b_branch2b
I0312 23:45:44.872169 14665 net.cpp:405] bn3b_branch2b -> res3b_branch2b (in-place)
I0312 23:45:44.872313 14665 net.cpp:150] Setting up bn3b_branch2b
I0312 23:45:44.872318 14665 net.cpp:157] Top shape: 1 128 75 125 (1200000)
I0312 23:45:44.872320 14665 net.cpp:165] Memory required for data: 1615200084
I0312 23:45:44.872326 14665 layer_factory.hpp:77] Creating layer scale3b_branch2b
I0312 23:45:44.872331 14665 net.cpp:100] Creating Layer scale3b_branch2b
I0312 23:45:44.872334 14665 net.cpp:444] scale3b_branch2b <- res3b_branch2b
I0312 23:45:44.872339 14665 net.cpp:405] scale3b_branch2b -> res3b_branch2b (in-place)
I0312 23:45:44.872366 14665 layer_factory.hpp:77] Creating layer scale3b_branch2b
I0312 23:45:44.872459 14665 net.cpp:150] Setting up scale3b_branch2b
I0312 23:45:44.872465 14665 net.cpp:157] Top shape: 1 128 75 125 (1200000)
I0312 23:45:44.872468 14665 net.cpp:165] Memory required for data: 1620000084
I0312 23:45:44.872473 14665 layer_factory.hpp:77] Creating layer res3b_branch2b_relu
I0312 23:45:44.872478 14665 net.cpp:100] Creating Layer res3b_branch2b_relu
I0312 23:45:44.872479 14665 net.cpp:444] res3b_branch2b_relu <- res3b_branch2b
I0312 23:45:44.872483 14665 net.cpp:405] res3b_branch2b_relu -> res3b_branch2b (in-place)
I0312 23:45:44.872488 14665 net.cpp:150] Setting up res3b_branch2b_relu
I0312 23:45:44.872490 14665 net.cpp:157] Top shape: 1 128 75 125 (1200000)
I0312 23:45:44.872493 14665 net.cpp:165] Memory required for data: 1624800084
I0312 23:45:44.872495 14665 layer_factory.hpp:77] Creating layer res3b_branch2c
I0312 23:45:44.872501 14665 net.cpp:100] Creating Layer res3b_branch2c
I0312 23:45:44.872504 14665 net.cpp:444] res3b_branch2c <- res3b_branch2b
I0312 23:45:44.872509 14665 net.cpp:418] res3b_branch2c -> res3b_branch2c
I0312 23:45:44.872685 14665 net.cpp:150] Setting up res3b_branch2c
I0312 23:45:44.872691 14665 net.cpp:157] Top shape: 1 512 75 125 (4800000)
I0312 23:45:44.872694 14665 net.cpp:165] Memory required for data: 1644000084
I0312 23:45:44.872697 14665 layer_factory.hpp:77] Creating layer bn3b_branch2c
I0312 23:45:44.872701 14665 net.cpp:100] Creating Layer bn3b_branch2c
I0312 23:45:44.872704 14665 net.cpp:444] bn3b_branch2c <- res3b_branch2c
I0312 23:45:44.872709 14665 net.cpp:405] bn3b_branch2c -> res3b_branch2c (in-place)
I0312 23:45:44.872851 14665 net.cpp:150] Setting up bn3b_branch2c
I0312 23:45:44.872856 14665 net.cpp:157] Top shape: 1 512 75 125 (4800000)
I0312 23:45:44.872859 14665 net.cpp:165] Memory required for data: 1663200084
I0312 23:45:44.872864 14665 layer_factory.hpp:77] Creating layer scale3b_branch2c
I0312 23:45:44.872870 14665 net.cpp:100] Creating Layer scale3b_branch2c
I0312 23:45:44.872874 14665 net.cpp:444] scale3b_branch2c <- res3b_branch2c
I0312 23:45:44.872876 14665 net.cpp:405] scale3b_branch2c -> res3b_branch2c (in-place)
I0312 23:45:44.872903 14665 layer_factory.hpp:77] Creating layer scale3b_branch2c
I0312 23:45:44.872998 14665 net.cpp:150] Setting up scale3b_branch2c
I0312 23:45:44.873003 14665 net.cpp:157] Top shape: 1 512 75 125 (4800000)
I0312 23:45:44.873005 14665 net.cpp:165] Memory required for data: 1682400084
I0312 23:45:44.873009 14665 layer_factory.hpp:77] Creating layer res3b
I0312 23:45:44.873014 14665 net.cpp:100] Creating Layer res3b
I0312 23:45:44.873018 14665 net.cpp:444] res3b <- res3a_res3a_relu_0_split_1
I0312 23:45:44.873020 14665 net.cpp:444] res3b <- res3b_branch2c
I0312 23:45:44.873025 14665 net.cpp:418] res3b -> res3b
I0312 23:45:44.873042 14665 net.cpp:150] Setting up res3b
I0312 23:45:44.873046 14665 net.cpp:157] Top shape: 1 512 75 125 (4800000)
I0312 23:45:44.873049 14665 net.cpp:165] Memory required for data: 1701600084
I0312 23:45:44.873051 14665 layer_factory.hpp:77] Creating layer res3b_relu
I0312 23:45:44.873056 14665 net.cpp:100] Creating Layer res3b_relu
I0312 23:45:44.873059 14665 net.cpp:444] res3b_relu <- res3b
I0312 23:45:44.873062 14665 net.cpp:405] res3b_relu -> res3b (in-place)
I0312 23:45:44.873066 14665 net.cpp:150] Setting up res3b_relu
I0312 23:45:44.873070 14665 net.cpp:157] Top shape: 1 512 75 125 (4800000)
I0312 23:45:44.873071 14665 net.cpp:165] Memory required for data: 1720800084
I0312 23:45:44.873073 14665 layer_factory.hpp:77] Creating layer res3b_res3b_relu_0_split
I0312 23:45:44.873087 14665 net.cpp:100] Creating Layer res3b_res3b_relu_0_split
I0312 23:45:44.873090 14665 net.cpp:444] res3b_res3b_relu_0_split <- res3b
I0312 23:45:44.873095 14665 net.cpp:418] res3b_res3b_relu_0_split -> res3b_res3b_relu_0_split_0
I0312 23:45:44.873098 14665 net.cpp:418] res3b_res3b_relu_0_split -> res3b_res3b_relu_0_split_1
I0312 23:45:44.873124 14665 net.cpp:150] Setting up res3b_res3b_relu_0_split
I0312 23:45:44.873128 14665 net.cpp:157] Top shape: 1 512 75 125 (4800000)
I0312 23:45:44.873131 14665 net.cpp:157] Top shape: 1 512 75 125 (4800000)
I0312 23:45:44.873133 14665 net.cpp:165] Memory required for data: 1759200084
I0312 23:45:44.873136 14665 layer_factory.hpp:77] Creating layer res3c_branch2a
I0312 23:45:44.873142 14665 net.cpp:100] Creating Layer res3c_branch2a
I0312 23:45:44.873145 14665 net.cpp:444] res3c_branch2a <- res3b_res3b_relu_0_split_0
I0312 23:45:44.873148 14665 net.cpp:418] res3c_branch2a -> res3c_branch2a
I0312 23:45:44.873327 14665 net.cpp:150] Setting up res3c_branch2a
I0312 23:45:44.873334 14665 net.cpp:157] Top shape: 1 128 75 125 (1200000)
I0312 23:45:44.873337 14665 net.cpp:165] Memory required for data: 1764000084
I0312 23:45:44.873340 14665 layer_factory.hpp:77] Creating layer bn3c_branch2a
I0312 23:45:44.873347 14665 net.cpp:100] Creating Layer bn3c_branch2a
I0312 23:45:44.873349 14665 net.cpp:444] bn3c_branch2a <- res3c_branch2a
I0312 23:45:44.873353 14665 net.cpp:405] bn3c_branch2a -> res3c_branch2a (in-place)
I0312 23:45:44.873499 14665 net.cpp:150] Setting up bn3c_branch2a
I0312 23:45:44.873504 14665 net.cpp:157] Top shape: 1 128 75 125 (1200000)
I0312 23:45:44.873507 14665 net.cpp:165] Memory required for data: 1768800084
I0312 23:45:44.873512 14665 layer_factory.hpp:77] Creating layer scale3c_branch2a
I0312 23:45:44.873520 14665 net.cpp:100] Creating Layer scale3c_branch2a
I0312 23:45:44.873522 14665 net.cpp:444] scale3c_branch2a <- res3c_branch2a
I0312 23:45:44.873527 14665 net.cpp:405] scale3c_branch2a -> res3c_branch2a (in-place)
I0312 23:45:44.873553 14665 layer_factory.hpp:77] Creating layer scale3c_branch2a
I0312 23:45:44.873653 14665 net.cpp:150] Setting up scale3c_branch2a
I0312 23:45:44.873658 14665 net.cpp:157] Top shape: 1 128 75 125 (1200000)
I0312 23:45:44.873673 14665 net.cpp:165] Memory required for data: 1773600084
I0312 23:45:44.873677 14665 layer_factory.hpp:77] Creating layer res3c_branch2a_relu
I0312 23:45:44.873683 14665 net.cpp:100] Creating Layer res3c_branch2a_relu
I0312 23:45:44.873687 14665 net.cpp:444] res3c_branch2a_relu <- res3c_branch2a
I0312 23:45:44.873692 14665 net.cpp:405] res3c_branch2a_relu -> res3c_branch2a (in-place)
I0312 23:45:44.873695 14665 net.cpp:150] Setting up res3c_branch2a_relu
I0312 23:45:44.873698 14665 net.cpp:157] Top shape: 1 128 75 125 (1200000)
I0312 23:45:44.873700 14665 net.cpp:165] Memory required for data: 1778400084
I0312 23:45:44.873703 14665 layer_factory.hpp:77] Creating layer res3c_branch2b
I0312 23:45:44.873708 14665 net.cpp:100] Creating Layer res3c_branch2b
I0312 23:45:44.873710 14665 net.cpp:444] res3c_branch2b <- res3c_branch2a
I0312 23:45:44.873715 14665 net.cpp:418] res3c_branch2b -> res3c_branch2b
I0312 23:45:44.873935 14665 net.cpp:150] Setting up res3c_branch2b
I0312 23:45:44.873940 14665 net.cpp:157] Top shape: 1 128 75 125 (1200000)
I0312 23:45:44.873942 14665 net.cpp:165] Memory required for data: 1783200084
I0312 23:45:44.873946 14665 layer_factory.hpp:77] Creating layer bn3c_branch2b
I0312 23:45:44.873952 14665 net.cpp:100] Creating Layer bn3c_branch2b
I0312 23:45:44.873955 14665 net.cpp:444] bn3c_branch2b <- res3c_branch2b
I0312 23:45:44.873958 14665 net.cpp:405] bn3c_branch2b -> res3c_branch2b (in-place)
I0312 23:45:44.874114 14665 net.cpp:150] Setting up bn3c_branch2b
I0312 23:45:44.874120 14665 net.cpp:157] Top shape: 1 128 75 125 (1200000)
I0312 23:45:44.874122 14665 net.cpp:165] Memory required for data: 1788000084
I0312 23:45:44.874127 14665 layer_factory.hpp:77] Creating layer scale3c_branch2b
I0312 23:45:44.874132 14665 net.cpp:100] Creating Layer scale3c_branch2b
I0312 23:45:44.874135 14665 net.cpp:444] scale3c_branch2b <- res3c_branch2b
I0312 23:45:44.874140 14665 net.cpp:405] scale3c_branch2b -> res3c_branch2b (in-place)
I0312 23:45:44.874179 14665 layer_factory.hpp:77] Creating layer scale3c_branch2b
I0312 23:45:44.874280 14665 net.cpp:150] Setting up scale3c_branch2b
I0312 23:45:44.874286 14665 net.cpp:157] Top shape: 1 128 75 125 (1200000)
I0312 23:45:44.874289 14665 net.cpp:165] Memory required for data: 1792800084
I0312 23:45:44.874292 14665 layer_factory.hpp:77] Creating layer res3c_branch2b_relu
I0312 23:45:44.874296 14665 net.cpp:100] Creating Layer res3c_branch2b_relu
I0312 23:45:44.874300 14665 net.cpp:444] res3c_branch2b_relu <- res3c_branch2b
I0312 23:45:44.874303 14665 net.cpp:405] res3c_branch2b_relu -> res3c_branch2b (in-place)
I0312 23:45:44.874308 14665 net.cpp:150] Setting up res3c_branch2b_relu
I0312 23:45:44.874311 14665 net.cpp:157] Top shape: 1 128 75 125 (1200000)
I0312 23:45:44.874326 14665 net.cpp:165] Memory required for data: 1797600084
I0312 23:45:44.874328 14665 layer_factory.hpp:77] Creating layer res3c_branch2c
I0312 23:45:44.874334 14665 net.cpp:100] Creating Layer res3c_branch2c
I0312 23:45:44.874336 14665 net.cpp:444] res3c_branch2c <- res3c_branch2b
I0312 23:45:44.874341 14665 net.cpp:418] res3c_branch2c -> res3c_branch2c
I0312 23:45:44.875254 14665 net.cpp:150] Setting up res3c_branch2c
I0312 23:45:44.875265 14665 net.cpp:157] Top shape: 1 512 75 125 (4800000)
I0312 23:45:44.875267 14665 net.cpp:165] Memory required for data: 1816800084
I0312 23:45:44.875272 14665 layer_factory.hpp:77] Creating layer bn3c_branch2c
I0312 23:45:44.875279 14665 net.cpp:100] Creating Layer bn3c_branch2c
I0312 23:45:44.875283 14665 net.cpp:444] bn3c_branch2c <- res3c_branch2c
I0312 23:45:44.875286 14665 net.cpp:405] bn3c_branch2c -> res3c_branch2c (in-place)
I0312 23:45:44.875452 14665 net.cpp:150] Setting up bn3c_branch2c
I0312 23:45:44.875458 14665 net.cpp:157] Top shape: 1 512 75 125 (4800000)
I0312 23:45:44.875459 14665 net.cpp:165] Memory required for data: 1836000084
I0312 23:45:44.875464 14665 layer_factory.hpp:77] Creating layer scale3c_branch2c
I0312 23:45:44.875483 14665 net.cpp:100] Creating Layer scale3c_branch2c
I0312 23:45:44.875486 14665 net.cpp:444] scale3c_branch2c <- res3c_branch2c
I0312 23:45:44.875489 14665 net.cpp:405] scale3c_branch2c -> res3c_branch2c (in-place)
I0312 23:45:44.875528 14665 layer_factory.hpp:77] Creating layer scale3c_branch2c
I0312 23:45:44.875645 14665 net.cpp:150] Setting up scale3c_branch2c
I0312 23:45:44.875650 14665 net.cpp:157] Top shape: 1 512 75 125 (4800000)
I0312 23:45:44.875653 14665 net.cpp:165] Memory required for data: 1855200084
I0312 23:45:44.875656 14665 layer_factory.hpp:77] Creating layer res3c
I0312 23:45:44.875663 14665 net.cpp:100] Creating Layer res3c
I0312 23:45:44.875679 14665 net.cpp:444] res3c <- res3b_res3b_relu_0_split_1
I0312 23:45:44.875682 14665 net.cpp:444] res3c <- res3c_branch2c
I0312 23:45:44.875685 14665 net.cpp:418] res3c -> res3c
I0312 23:45:44.875707 14665 net.cpp:150] Setting up res3c
I0312 23:45:44.875711 14665 net.cpp:157] Top shape: 1 512 75 125 (4800000)
I0312 23:45:44.875713 14665 net.cpp:165] Memory required for data: 1874400084
I0312 23:45:44.875730 14665 layer_factory.hpp:77] Creating layer res3c_relu
I0312 23:45:44.875733 14665 net.cpp:100] Creating Layer res3c_relu
I0312 23:45:44.875736 14665 net.cpp:444] res3c_relu <- res3c
I0312 23:45:44.875741 14665 net.cpp:405] res3c_relu -> res3c (in-place)
I0312 23:45:44.875744 14665 net.cpp:150] Setting up res3c_relu
I0312 23:45:44.875748 14665 net.cpp:157] Top shape: 1 512 75 125 (4800000)
I0312 23:45:44.875751 14665 net.cpp:165] Memory required for data: 1893600084
I0312 23:45:44.875752 14665 layer_factory.hpp:77] Creating layer res3c_res3c_relu_0_split
I0312 23:45:44.875756 14665 net.cpp:100] Creating Layer res3c_res3c_relu_0_split
I0312 23:45:44.875759 14665 net.cpp:444] res3c_res3c_relu_0_split <- res3c
I0312 23:45:44.875763 14665 net.cpp:418] res3c_res3c_relu_0_split -> res3c_res3c_relu_0_split_0
I0312 23:45:44.875767 14665 net.cpp:418] res3c_res3c_relu_0_split -> res3c_res3c_relu_0_split_1
I0312 23:45:44.875792 14665 net.cpp:150] Setting up res3c_res3c_relu_0_split
I0312 23:45:44.875797 14665 net.cpp:157] Top shape: 1 512 75 125 (4800000)
I0312 23:45:44.875800 14665 net.cpp:157] Top shape: 1 512 75 125 (4800000)
I0312 23:45:44.875802 14665 net.cpp:165] Memory required for data: 1932000084
I0312 23:45:44.875804 14665 layer_factory.hpp:77] Creating layer res3d_branch2a
I0312 23:45:44.875811 14665 net.cpp:100] Creating Layer res3d_branch2a
I0312 23:45:44.875815 14665 net.cpp:444] res3d_branch2a <- res3c_res3c_relu_0_split_0
I0312 23:45:44.875819 14665 net.cpp:418] res3d_branch2a -> res3d_branch2a
I0312 23:45:44.875985 14665 net.cpp:150] Setting up res3d_branch2a
I0312 23:45:44.875991 14665 net.cpp:157] Top shape: 1 128 75 125 (1200000)
I0312 23:45:44.875993 14665 net.cpp:165] Memory required for data: 1936800084
I0312 23:45:44.875998 14665 layer_factory.hpp:77] Creating layer bn3d_branch2a
I0312 23:45:44.876003 14665 net.cpp:100] Creating Layer bn3d_branch2a
I0312 23:45:44.876019 14665 net.cpp:444] bn3d_branch2a <- res3d_branch2a
I0312 23:45:44.876024 14665 net.cpp:405] bn3d_branch2a -> res3d_branch2a (in-place)
I0312 23:45:44.876155 14665 net.cpp:150] Setting up bn3d_branch2a
I0312 23:45:44.876160 14665 net.cpp:157] Top shape: 1 128 75 125 (1200000)
I0312 23:45:44.876163 14665 net.cpp:165] Memory required for data: 1941600084
I0312 23:45:44.876176 14665 layer_factory.hpp:77] Creating layer scale3d_branch2a
I0312 23:45:44.876183 14665 net.cpp:100] Creating Layer scale3d_branch2a
I0312 23:45:44.876186 14665 net.cpp:444] scale3d_branch2a <- res3d_branch2a
I0312 23:45:44.876190 14665 net.cpp:405] scale3d_branch2a -> res3d_branch2a (in-place)
I0312 23:45:44.876230 14665 layer_factory.hpp:77] Creating layer scale3d_branch2a
I0312 23:45:44.876325 14665 net.cpp:150] Setting up scale3d_branch2a
I0312 23:45:44.876395 14665 net.cpp:157] Top shape: 1 128 75 125 (1200000)
I0312 23:45:44.876442 14665 net.cpp:165] Memory required for data: 1946400084
I0312 23:45:44.876492 14665 layer_factory.hpp:77] Creating layer res3d_branch2a_relu
I0312 23:45:44.876543 14665 net.cpp:100] Creating Layer res3d_branch2a_relu
I0312 23:45:44.876590 14665 net.cpp:444] res3d_branch2a_relu <- res3d_branch2a
I0312 23:45:44.876636 14665 net.cpp:405] res3d_branch2a_relu -> res3d_branch2a (in-place)
I0312 23:45:44.876683 14665 net.cpp:150] Setting up res3d_branch2a_relu
I0312 23:45:44.876729 14665 net.cpp:157] Top shape: 1 128 75 125 (1200000)
I0312 23:45:44.876775 14665 net.cpp:165] Memory required for data: 1951200084
I0312 23:45:44.876818 14665 layer_factory.hpp:77] Creating layer res3d_branch2b
I0312 23:45:44.876868 14665 net.cpp:100] Creating Layer res3d_branch2b
I0312 23:45:44.876914 14665 net.cpp:444] res3d_branch2b <- res3d_branch2a
I0312 23:45:44.876963 14665 net.cpp:418] res3d_branch2b -> res3d_branch2b
I0312 23:45:44.877264 14665 net.cpp:150] Setting up res3d_branch2b
I0312 23:45:44.877319 14665 net.cpp:157] Top shape: 1 128 75 125 (1200000)
I0312 23:45:44.877365 14665 net.cpp:165] Memory required for data: 1956000084
I0312 23:45:44.877413 14665 layer_factory.hpp:77] Creating layer bn3d_branch2b
I0312 23:45:44.877461 14665 net.cpp:100] Creating Layer bn3d_branch2b
I0312 23:45:44.877507 14665 net.cpp:444] bn3d_branch2b <- res3d_branch2b
I0312 23:45:44.877554 14665 net.cpp:405] bn3d_branch2b -> res3d_branch2b (in-place)
I0312 23:45:44.877753 14665 net.cpp:150] Setting up bn3d_branch2b
I0312 23:45:44.877805 14665 net.cpp:157] Top shape: 1 128 75 125 (1200000)
I0312 23:45:44.877851 14665 net.cpp:165] Memory required for data: 1960800084
I0312 23:45:44.877899 14665 layer_factory.hpp:77] Creating layer scale3d_branch2b
I0312 23:45:44.877964 14665 net.cpp:100] Creating Layer scale3d_branch2b
I0312 23:45:44.878010 14665 net.cpp:444] scale3d_branch2b <- res3d_branch2b
I0312 23:45:44.878057 14665 net.cpp:405] scale3d_branch2b -> res3d_branch2b (in-place)
I0312 23:45:44.878141 14665 layer_factory.hpp:77] Creating layer scale3d_branch2b
I0312 23:45:44.878291 14665 net.cpp:150] Setting up scale3d_branch2b
I0312 23:45:44.878343 14665 net.cpp:157] Top shape: 1 128 75 125 (1200000)
I0312 23:45:44.878388 14665 net.cpp:165] Memory required for data: 1965600084
I0312 23:45:44.878437 14665 layer_factory.hpp:77] Creating layer res3d_branch2b_relu
I0312 23:45:44.878486 14665 net.cpp:100] Creating Layer res3d_branch2b_relu
I0312 23:45:44.878532 14665 net.cpp:444] res3d_branch2b_relu <- res3d_branch2b
I0312 23:45:44.878579 14665 net.cpp:405] res3d_branch2b_relu -> res3d_branch2b (in-place)
I0312 23:45:44.880926 14665 net.cpp:150] Setting up res3d_branch2b_relu
I0312 23:45:44.880954 14665 net.cpp:157] Top shape: 1 128 75 125 (1200000)
I0312 23:45:44.880956 14665 net.cpp:165] Memory required for data: 1970400084
I0312 23:45:44.880960 14665 layer_factory.hpp:77] Creating layer res3d_branch2c
I0312 23:45:44.880981 14665 net.cpp:100] Creating Layer res3d_branch2c
I0312 23:45:44.880985 14665 net.cpp:444] res3d_branch2c <- res3d_branch2b
I0312 23:45:44.881000 14665 net.cpp:418] res3d_branch2c -> res3d_branch2c
I0312 23:45:44.881273 14665 net.cpp:150] Setting up res3d_branch2c
I0312 23:45:44.881280 14665 net.cpp:157] Top shape: 1 512 75 125 (4800000)
I0312 23:45:44.881296 14665 net.cpp:165] Memory required for data: 1989600084
I0312 23:45:44.881306 14665 layer_factory.hpp:77] Creating layer bn3d_branch2c
I0312 23:45:44.881314 14665 net.cpp:100] Creating Layer bn3d_branch2c
I0312 23:45:44.881319 14665 net.cpp:444] bn3d_branch2c <- res3d_branch2c
I0312 23:45:44.881322 14665 net.cpp:405] bn3d_branch2c -> res3d_branch2c (in-place)
I0312 23:45:44.881484 14665 net.cpp:150] Setting up bn3d_branch2c
I0312 23:45:44.881505 14665 net.cpp:157] Top shape: 1 512 75 125 (4800000)
I0312 23:45:44.881518 14665 net.cpp:165] Memory required for data: 2008800084
I0312 23:45:44.881534 14665 layer_factory.hpp:77] Creating layer scale3d_branch2c
I0312 23:45:44.881549 14665 net.cpp:100] Creating Layer scale3d_branch2c
I0312 23:45:44.881561 14665 net.cpp:444] scale3d_branch2c <- res3d_branch2c
I0312 23:45:44.881585 14665 net.cpp:405] scale3d_branch2c -> res3d_branch2c (in-place)
I0312 23:45:44.881630 14665 layer_factory.hpp:77] Creating layer scale3d_branch2c
I0312 23:45:44.881752 14665 net.cpp:150] Setting up scale3d_branch2c
I0312 23:45:44.881757 14665 net.cpp:157] Top shape: 1 512 75 125 (4800000)
I0312 23:45:44.881760 14665 net.cpp:165] Memory required for data: 2028000084
I0312 23:45:44.881764 14665 layer_factory.hpp:77] Creating layer res3d
I0312 23:45:44.881769 14665 net.cpp:100] Creating Layer res3d
I0312 23:45:44.881783 14665 net.cpp:444] res3d <- res3c_res3c_relu_0_split_1
I0312 23:45:44.881796 14665 net.cpp:444] res3d <- res3d_branch2c
I0312 23:45:44.881813 14665 net.cpp:418] res3d -> res3d
I0312 23:45:44.881839 14665 net.cpp:150] Setting up res3d
I0312 23:45:44.881846 14665 net.cpp:157] Top shape: 1 512 75 125 (4800000)
I0312 23:45:44.881848 14665 net.cpp:165] Memory required for data: 2047200084
I0312 23:45:44.881851 14665 layer_factory.hpp:77] Creating layer res3d_relu
I0312 23:45:44.881855 14665 net.cpp:100] Creating Layer res3d_relu
I0312 23:45:44.881860 14665 net.cpp:444] res3d_relu <- res3d
I0312 23:45:44.881862 14665 net.cpp:405] res3d_relu -> res3d (in-place)
I0312 23:45:44.881866 14665 net.cpp:150] Setting up res3d_relu
I0312 23:45:44.881870 14665 net.cpp:157] Top shape: 1 512 75 125 (4800000)
I0312 23:45:44.881872 14665 net.cpp:165] Memory required for data: 2066400084
I0312 23:45:44.881875 14665 layer_factory.hpp:77] Creating layer res3d_res3d_relu_0_split
I0312 23:45:44.881881 14665 net.cpp:100] Creating Layer res3d_res3d_relu_0_split
I0312 23:45:44.881886 14665 net.cpp:444] res3d_res3d_relu_0_split <- res3d
I0312 23:45:44.881888 14665 net.cpp:418] res3d_res3d_relu_0_split -> res3d_res3d_relu_0_split_0
I0312 23:45:44.881893 14665 net.cpp:418] res3d_res3d_relu_0_split -> res3d_res3d_relu_0_split_1
I0312 23:45:44.881919 14665 net.cpp:150] Setting up res3d_res3d_relu_0_split
I0312 23:45:44.881923 14665 net.cpp:157] Top shape: 1 512 75 125 (4800000)
I0312 23:45:44.881927 14665 net.cpp:157] Top shape: 1 512 75 125 (4800000)
I0312 23:45:44.881929 14665 net.cpp:165] Memory required for data: 2104800084
I0312 23:45:44.881932 14665 layer_factory.hpp:77] Creating layer res4a_branch1
I0312 23:45:44.881948 14665 net.cpp:100] Creating Layer res4a_branch1
I0312 23:45:44.881952 14665 net.cpp:444] res4a_branch1 <- res3d_res3d_relu_0_split_0
I0312 23:45:44.881956 14665 net.cpp:418] res4a_branch1 -> res4a_branch1
I0312 23:45:44.883251 14665 net.cpp:150] Setting up res4a_branch1
I0312 23:45:44.883270 14665 net.cpp:157] Top shape: 1 1024 38 63 (2451456)
I0312 23:45:44.883271 14665 net.cpp:165] Memory required for data: 2114605908
I0312 23:45:44.883278 14665 layer_factory.hpp:77] Creating layer bn4a_branch1
I0312 23:45:44.883297 14665 net.cpp:100] Creating Layer bn4a_branch1
I0312 23:45:44.883314 14665 net.cpp:444] bn4a_branch1 <- res4a_branch1
I0312 23:45:44.883321 14665 net.cpp:405] bn4a_branch1 -> res4a_branch1 (in-place)
I0312 23:45:44.883484 14665 net.cpp:150] Setting up bn4a_branch1
I0312 23:45:44.883492 14665 net.cpp:157] Top shape: 1 1024 38 63 (2451456)
I0312 23:45:44.883507 14665 net.cpp:165] Memory required for data: 2124411732
I0312 23:45:44.883513 14665 layer_factory.hpp:77] Creating layer scale4a_branch1
I0312 23:45:44.883525 14665 net.cpp:100] Creating Layer scale4a_branch1
I0312 23:45:44.883528 14665 net.cpp:444] scale4a_branch1 <- res4a_branch1
I0312 23:45:44.883532 14665 net.cpp:405] scale4a_branch1 -> res4a_branch1 (in-place)
I0312 23:45:44.883560 14665 layer_factory.hpp:77] Creating layer scale4a_branch1
I0312 23:45:44.883677 14665 net.cpp:150] Setting up scale4a_branch1
I0312 23:45:44.883683 14665 net.cpp:157] Top shape: 1 1024 38 63 (2451456)
I0312 23:45:44.883685 14665 net.cpp:165] Memory required for data: 2134217556
I0312 23:45:44.883689 14665 layer_factory.hpp:77] Creating layer res4a_branch2a
I0312 23:45:44.883697 14665 net.cpp:100] Creating Layer res4a_branch2a
I0312 23:45:44.883700 14665 net.cpp:444] res4a_branch2a <- res3d_res3d_relu_0_split_1
I0312 23:45:44.883707 14665 net.cpp:418] res4a_branch2a -> res4a_branch2a
I0312 23:45:44.884636 14665 net.cpp:150] Setting up res4a_branch2a
I0312 23:45:44.884647 14665 net.cpp:157] Top shape: 1 256 38 63 (612864)
I0312 23:45:44.884650 14665 net.cpp:165] Memory required for data: 2136669012
I0312 23:45:44.884655 14665 layer_factory.hpp:77] Creating layer bn4a_branch2a
I0312 23:45:44.884667 14665 net.cpp:100] Creating Layer bn4a_branch2a
I0312 23:45:44.884671 14665 net.cpp:444] bn4a_branch2a <- res4a_branch2a
I0312 23:45:44.884676 14665 net.cpp:405] bn4a_branch2a -> res4a_branch2a (in-place)
I0312 23:45:44.884831 14665 net.cpp:150] Setting up bn4a_branch2a
I0312 23:45:44.884836 14665 net.cpp:157] Top shape: 1 256 38 63 (612864)
I0312 23:45:44.884838 14665 net.cpp:165] Memory required for data: 2139120468
I0312 23:45:44.884845 14665 layer_factory.hpp:77] Creating layer scale4a_branch2a
I0312 23:45:44.884850 14665 net.cpp:100] Creating Layer scale4a_branch2a
I0312 23:45:44.884855 14665 net.cpp:444] scale4a_branch2a <- res4a_branch2a
I0312 23:45:44.884858 14665 net.cpp:405] scale4a_branch2a -> res4a_branch2a (in-place)
I0312 23:45:44.884886 14665 layer_factory.hpp:77] Creating layer scale4a_branch2a
I0312 23:45:44.884981 14665 net.cpp:150] Setting up scale4a_branch2a
I0312 23:45:44.884986 14665 net.cpp:157] Top shape: 1 256 38 63 (612864)
I0312 23:45:44.884989 14665 net.cpp:165] Memory required for data: 2141571924
I0312 23:45:44.884994 14665 layer_factory.hpp:77] Creating layer res4a_branch2a_relu
I0312 23:45:44.884997 14665 net.cpp:100] Creating Layer res4a_branch2a_relu
I0312 23:45:44.885001 14665 net.cpp:444] res4a_branch2a_relu <- res4a_branch2a
I0312 23:45:44.885005 14665 net.cpp:405] res4a_branch2a_relu -> res4a_branch2a (in-place)
I0312 23:45:44.885011 14665 net.cpp:150] Setting up res4a_branch2a_relu
I0312 23:45:44.885015 14665 net.cpp:157] Top shape: 1 256 38 63 (612864)
I0312 23:45:44.885017 14665 net.cpp:165] Memory required for data: 2144023380
I0312 23:45:44.885020 14665 layer_factory.hpp:77] Creating layer res4a_branch2b
I0312 23:45:44.885025 14665 net.cpp:100] Creating Layer res4a_branch2b
I0312 23:45:44.885030 14665 net.cpp:444] res4a_branch2b <- res4a_branch2a
I0312 23:45:44.885033 14665 net.cpp:418] res4a_branch2b -> res4a_branch2b
I0312 23:45:44.886220 14665 net.cpp:150] Setting up res4a_branch2b
I0312 23:45:44.886232 14665 net.cpp:157] Top shape: 1 256 38 63 (612864)
I0312 23:45:44.886235 14665 net.cpp:165] Memory required for data: 2146474836
I0312 23:45:44.886240 14665 layer_factory.hpp:77] Creating layer bn4a_branch2b
I0312 23:45:44.886246 14665 net.cpp:100] Creating Layer bn4a_branch2b
I0312 23:45:44.886250 14665 net.cpp:444] bn4a_branch2b <- res4a_branch2b
I0312 23:45:44.886270 14665 net.cpp:405] bn4a_branch2b -> res4a_branch2b (in-place)
I0312 23:45:44.886418 14665 net.cpp:150] Setting up bn4a_branch2b
I0312 23:45:44.886425 14665 net.cpp:157] Top shape: 1 256 38 63 (612864)
I0312 23:45:44.886426 14665 net.cpp:165] Memory required for data: 2148926292
I0312 23:45:44.886431 14665 layer_factory.hpp:77] Creating layer scale4a_branch2b
I0312 23:45:44.886437 14665 net.cpp:100] Creating Layer scale4a_branch2b
I0312 23:45:44.886440 14665 net.cpp:444] scale4a_branch2b <- res4a_branch2b
I0312 23:45:44.886443 14665 net.cpp:405] scale4a_branch2b -> res4a_branch2b (in-place)
I0312 23:45:44.886485 14665 layer_factory.hpp:77] Creating layer scale4a_branch2b
I0312 23:45:44.886595 14665 net.cpp:150] Setting up scale4a_branch2b
I0312 23:45:44.886600 14665 net.cpp:157] Top shape: 1 256 38 63 (612864)
I0312 23:45:44.886602 14665 net.cpp:165] Memory required for data: 2151377748
I0312 23:45:44.886606 14665 layer_factory.hpp:77] Creating layer res4a_branch2b_relu
I0312 23:45:44.886611 14665 net.cpp:100] Creating Layer res4a_branch2b_relu
I0312 23:45:44.886615 14665 net.cpp:444] res4a_branch2b_relu <- res4a_branch2b
I0312 23:45:44.886632 14665 net.cpp:405] res4a_branch2b_relu -> res4a_branch2b (in-place)
I0312 23:45:44.886636 14665 net.cpp:150] Setting up res4a_branch2b_relu
I0312 23:45:44.886639 14665 net.cpp:157] Top shape: 1 256 38 63 (612864)
I0312 23:45:44.886641 14665 net.cpp:165] Memory required for data: 2153829204
I0312 23:45:44.886644 14665 layer_factory.hpp:77] Creating layer res4a_branch2c
I0312 23:45:44.886651 14665 net.cpp:100] Creating Layer res4a_branch2c
I0312 23:45:44.886653 14665 net.cpp:444] res4a_branch2c <- res4a_branch2b
I0312 23:45:44.886658 14665 net.cpp:418] res4a_branch2c -> res4a_branch2c
I0312 23:45:44.886947 14665 net.cpp:150] Setting up res4a_branch2c
I0312 23:45:44.886953 14665 net.cpp:157] Top shape: 1 1024 38 63 (2451456)
I0312 23:45:44.886955 14665 net.cpp:165] Memory required for data: 2163635028
I0312 23:45:44.886960 14665 layer_factory.hpp:77] Creating layer bn4a_branch2c
I0312 23:45:44.886965 14665 net.cpp:100] Creating Layer bn4a_branch2c
I0312 23:45:44.886967 14665 net.cpp:444] bn4a_branch2c <- res4a_branch2c
I0312 23:45:44.886986 14665 net.cpp:405] bn4a_branch2c -> res4a_branch2c (in-place)
I0312 23:45:44.887130 14665 net.cpp:150] Setting up bn4a_branch2c
I0312 23:45:44.887135 14665 net.cpp:157] Top shape: 1 1024 38 63 (2451456)
I0312 23:45:44.887137 14665 net.cpp:165] Memory required for data: 2173440852
I0312 23:45:44.887141 14665 layer_factory.hpp:77] Creating layer scale4a_branch2c
I0312 23:45:44.887145 14665 net.cpp:100] Creating Layer scale4a_branch2c
I0312 23:45:44.887150 14665 net.cpp:444] scale4a_branch2c <- res4a_branch2c
I0312 23:45:44.887168 14665 net.cpp:405] scale4a_branch2c -> res4a_branch2c (in-place)
I0312 23:45:44.887192 14665 layer_factory.hpp:77] Creating layer scale4a_branch2c
I0312 23:45:44.887302 14665 net.cpp:150] Setting up scale4a_branch2c
I0312 23:45:44.887307 14665 net.cpp:157] Top shape: 1 1024 38 63 (2451456)
I0312 23:45:44.887310 14665 net.cpp:165] Memory required for data: 2183246676
I0312 23:45:44.887313 14665 layer_factory.hpp:77] Creating layer res4a
I0312 23:45:44.887322 14665 net.cpp:100] Creating Layer res4a
I0312 23:45:44.887341 14665 net.cpp:444] res4a <- res4a_branch1
I0312 23:45:44.887344 14665 net.cpp:444] res4a <- res4a_branch2c
I0312 23:45:44.887347 14665 net.cpp:418] res4a -> res4a
I0312 23:45:44.887363 14665 net.cpp:150] Setting up res4a
I0312 23:45:44.887368 14665 net.cpp:157] Top shape: 1 1024 38 63 (2451456)
I0312 23:45:44.887372 14665 net.cpp:165] Memory required for data: 2193052500
I0312 23:45:44.887387 14665 layer_factory.hpp:77] Creating layer res4a_relu
I0312 23:45:44.887390 14665 net.cpp:100] Creating Layer res4a_relu
I0312 23:45:44.887393 14665 net.cpp:444] res4a_relu <- res4a
I0312 23:45:44.887396 14665 net.cpp:405] res4a_relu -> res4a (in-place)
I0312 23:45:44.887400 14665 net.cpp:150] Setting up res4a_relu
I0312 23:45:44.887403 14665 net.cpp:157] Top shape: 1 1024 38 63 (2451456)
I0312 23:45:44.887406 14665 net.cpp:165] Memory required for data: 2202858324
I0312 23:45:44.887408 14665 layer_factory.hpp:77] Creating layer res4a_res4a_relu_0_split
I0312 23:45:44.887411 14665 net.cpp:100] Creating Layer res4a_res4a_relu_0_split
I0312 23:45:44.887414 14665 net.cpp:444] res4a_res4a_relu_0_split <- res4a
I0312 23:45:44.887418 14665 net.cpp:418] res4a_res4a_relu_0_split -> res4a_res4a_relu_0_split_0
I0312 23:45:44.887423 14665 net.cpp:418] res4a_res4a_relu_0_split -> res4a_res4a_relu_0_split_1
I0312 23:45:44.887475 14665 net.cpp:150] Setting up res4a_res4a_relu_0_split
I0312 23:45:44.887480 14665 net.cpp:157] Top shape: 1 1024 38 63 (2451456)
I0312 23:45:44.887482 14665 net.cpp:157] Top shape: 1 1024 38 63 (2451456)
I0312 23:45:44.887485 14665 net.cpp:165] Memory required for data: 2222469972
I0312 23:45:44.887487 14665 layer_factory.hpp:77] Creating layer res4b_branch2a
I0312 23:45:44.887492 14665 net.cpp:100] Creating Layer res4b_branch2a
I0312 23:45:44.887511 14665 net.cpp:444] res4b_branch2a <- res4a_res4a_relu_0_split_0
I0312 23:45:44.887517 14665 net.cpp:418] res4b_branch2a -> res4b_branch2a
I0312 23:45:44.888572 14665 net.cpp:150] Setting up res4b_branch2a
I0312 23:45:44.888586 14665 net.cpp:157] Top shape: 1 256 38 63 (612864)
I0312 23:45:44.888588 14665 net.cpp:165] Memory required for data: 2224921428
I0312 23:45:44.888594 14665 layer_factory.hpp:77] Creating layer bn4b_branch2a
I0312 23:45:44.888602 14665 net.cpp:100] Creating Layer bn4b_branch2a
I0312 23:45:44.888607 14665 net.cpp:444] bn4b_branch2a <- res4b_branch2a
I0312 23:45:44.888612 14665 net.cpp:405] bn4b_branch2a -> res4b_branch2a (in-place)
I0312 23:45:44.888758 14665 net.cpp:150] Setting up bn4b_branch2a
I0312 23:45:44.888764 14665 net.cpp:157] Top shape: 1 256 38 63 (612864)
I0312 23:45:44.888767 14665 net.cpp:165] Memory required for data: 2227372884
I0312 23:45:44.888772 14665 layer_factory.hpp:77] Creating layer scale4b_branch2a
I0312 23:45:44.888777 14665 net.cpp:100] Creating Layer scale4b_branch2a
I0312 23:45:44.888780 14665 net.cpp:444] scale4b_branch2a <- res4b_branch2a
I0312 23:45:44.888785 14665 net.cpp:405] scale4b_branch2a -> res4b_branch2a (in-place)
I0312 23:45:44.888813 14665 layer_factory.hpp:77] Creating layer scale4b_branch2a
I0312 23:45:44.888911 14665 net.cpp:150] Setting up scale4b_branch2a
I0312 23:45:44.888917 14665 net.cpp:157] Top shape: 1 256 38 63 (612864)
I0312 23:45:44.888921 14665 net.cpp:165] Memory required for data: 2229824340
I0312 23:45:44.888926 14665 layer_factory.hpp:77] Creating layer res4b_branch2a_relu
I0312 23:45:44.888929 14665 net.cpp:100] Creating Layer res4b_branch2a_relu
I0312 23:45:44.888933 14665 net.cpp:444] res4b_branch2a_relu <- res4b_branch2a
I0312 23:45:44.888937 14665 net.cpp:405] res4b_branch2a_relu -> res4b_branch2a (in-place)
I0312 23:45:44.888942 14665 net.cpp:150] Setting up res4b_branch2a_relu
I0312 23:45:44.888944 14665 net.cpp:157] Top shape: 1 256 38 63 (612864)
I0312 23:45:44.888947 14665 net.cpp:165] Memory required for data: 2232275796
I0312 23:45:44.888949 14665 layer_factory.hpp:77] Creating layer res4b_branch2b
I0312 23:45:44.888957 14665 net.cpp:100] Creating Layer res4b_branch2b
I0312 23:45:44.888958 14665 net.cpp:444] res4b_branch2b <- res4b_branch2a
I0312 23:45:44.888976 14665 net.cpp:418] res4b_branch2b -> res4b_branch2b
I0312 23:45:44.890147 14665 net.cpp:150] Setting up res4b_branch2b
I0312 23:45:44.890164 14665 net.cpp:157] Top shape: 1 256 38 63 (612864)
I0312 23:45:44.890166 14665 net.cpp:165] Memory required for data: 2234727252
I0312 23:45:44.890172 14665 layer_factory.hpp:77] Creating layer bn4b_branch2b
I0312 23:45:44.890194 14665 net.cpp:100] Creating Layer bn4b_branch2b
I0312 23:45:44.890198 14665 net.cpp:444] bn4b_branch2b <- res4b_branch2b
I0312 23:45:44.890203 14665 net.cpp:405] bn4b_branch2b -> res4b_branch2b (in-place)
I0312 23:45:44.890377 14665 net.cpp:150] Setting up bn4b_branch2b
I0312 23:45:44.890383 14665 net.cpp:157] Top shape: 1 256 38 63 (612864)
I0312 23:45:44.890398 14665 net.cpp:165] Memory required for data: 2237178708
I0312 23:45:44.890403 14665 layer_factory.hpp:77] Creating layer scale4b_branch2b
I0312 23:45:44.890408 14665 net.cpp:100] Creating Layer scale4b_branch2b
I0312 23:45:44.890410 14665 net.cpp:444] scale4b_branch2b <- res4b_branch2b
I0312 23:45:44.890415 14665 net.cpp:405] scale4b_branch2b -> res4b_branch2b (in-place)
I0312 23:45:44.890470 14665 layer_factory.hpp:77] Creating layer scale4b_branch2b
I0312 23:45:44.890578 14665 net.cpp:150] Setting up scale4b_branch2b
I0312 23:45:44.890583 14665 net.cpp:157] Top shape: 1 256 38 63 (612864)
I0312 23:45:44.890585 14665 net.cpp:165] Memory required for data: 2239630164
I0312 23:45:44.890589 14665 layer_factory.hpp:77] Creating layer res4b_branch2b_relu
I0312 23:45:44.890594 14665 net.cpp:100] Creating Layer res4b_branch2b_relu
I0312 23:45:44.890609 14665 net.cpp:444] res4b_branch2b_relu <- res4b_branch2b
I0312 23:45:44.890612 14665 net.cpp:405] res4b_branch2b_relu -> res4b_branch2b (in-place)
I0312 23:45:44.890617 14665 net.cpp:150] Setting up res4b_branch2b_relu
I0312 23:45:44.890620 14665 net.cpp:157] Top shape: 1 256 38 63 (612864)
I0312 23:45:44.890622 14665 net.cpp:165] Memory required for data: 2242081620
I0312 23:45:44.890625 14665 layer_factory.hpp:77] Creating layer res4b_branch2c
I0312 23:45:44.890631 14665 net.cpp:100] Creating Layer res4b_branch2c
I0312 23:45:44.890635 14665 net.cpp:444] res4b_branch2c <- res4b_branch2b
I0312 23:45:44.890638 14665 net.cpp:418] res4b_branch2c -> res4b_branch2c
I0312 23:45:44.890913 14665 net.cpp:150] Setting up res4b_branch2c
I0312 23:45:44.890918 14665 net.cpp:157] Top shape: 1 1024 38 63 (2451456)
I0312 23:45:44.890919 14665 net.cpp:165] Memory required for data: 2251887444
I0312 23:45:44.890923 14665 layer_factory.hpp:77] Creating layer bn4b_branch2c
I0312 23:45:44.890928 14665 net.cpp:100] Creating Layer bn4b_branch2c
I0312 23:45:44.890929 14665 net.cpp:444] bn4b_branch2c <- res4b_branch2c
I0312 23:45:44.890946 14665 net.cpp:405] bn4b_branch2c -> res4b_branch2c (in-place)
I0312 23:45:44.891119 14665 net.cpp:150] Setting up bn4b_branch2c
I0312 23:45:44.891125 14665 net.cpp:157] Top shape: 1 1024 38 63 (2451456)
I0312 23:45:44.891127 14665 net.cpp:165] Memory required for data: 2261693268
I0312 23:45:44.891131 14665 layer_factory.hpp:77] Creating layer scale4b_branch2c
I0312 23:45:44.891153 14665 net.cpp:100] Creating Layer scale4b_branch2c
I0312 23:45:44.891157 14665 net.cpp:444] scale4b_branch2c <- res4b_branch2c
I0312 23:45:44.891173 14665 net.cpp:405] scale4b_branch2c -> res4b_branch2c (in-place)
I0312 23:45:44.891198 14665 layer_factory.hpp:77] Creating layer scale4b_branch2c
I0312 23:45:44.891297 14665 net.cpp:150] Setting up scale4b_branch2c
I0312 23:45:44.891304 14665 net.cpp:157] Top shape: 1 1024 38 63 (2451456)
I0312 23:45:44.891305 14665 net.cpp:165] Memory required for data: 2271499092
I0312 23:45:44.891309 14665 layer_factory.hpp:77] Creating layer res4b
I0312 23:45:44.891314 14665 net.cpp:100] Creating Layer res4b
I0312 23:45:44.891319 14665 net.cpp:444] res4b <- res4a_res4a_relu_0_split_1
I0312 23:45:44.891322 14665 net.cpp:444] res4b <- res4b_branch2c
I0312 23:45:44.891330 14665 net.cpp:418] res4b -> res4b
I0312 23:45:44.891346 14665 net.cpp:150] Setting up res4b
I0312 23:45:44.891351 14665 net.cpp:157] Top shape: 1 1024 38 63 (2451456)
I0312 23:45:44.891355 14665 net.cpp:165] Memory required for data: 2281304916
I0312 23:45:44.891356 14665 layer_factory.hpp:77] Creating layer res4b_relu
I0312 23:45:44.891374 14665 net.cpp:100] Creating Layer res4b_relu
I0312 23:45:44.891377 14665 net.cpp:444] res4b_relu <- res4b
I0312 23:45:44.891381 14665 net.cpp:405] res4b_relu -> res4b (in-place)
I0312 23:45:44.891384 14665 net.cpp:150] Setting up res4b_relu
I0312 23:45:44.891387 14665 net.cpp:157] Top shape: 1 1024 38 63 (2451456)
I0312 23:45:44.891389 14665 net.cpp:165] Memory required for data: 2291110740
I0312 23:45:44.891392 14665 layer_factory.hpp:77] Creating layer res4b_res4b_relu_0_split
I0312 23:45:44.891396 14665 net.cpp:100] Creating Layer res4b_res4b_relu_0_split
I0312 23:45:44.891398 14665 net.cpp:444] res4b_res4b_relu_0_split <- res4b
I0312 23:45:44.891402 14665 net.cpp:418] res4b_res4b_relu_0_split -> res4b_res4b_relu_0_split_0
I0312 23:45:44.891407 14665 net.cpp:418] res4b_res4b_relu_0_split -> res4b_res4b_relu_0_split_1
I0312 23:45:44.891432 14665 net.cpp:150] Setting up res4b_res4b_relu_0_split
I0312 23:45:44.891436 14665 net.cpp:157] Top shape: 1 1024 38 63 (2451456)
I0312 23:45:44.891440 14665 net.cpp:157] Top shape: 1 1024 38 63 (2451456)
I0312 23:45:44.891443 14665 net.cpp:165] Memory required for data: 2310722388
I0312 23:45:44.891444 14665 layer_factory.hpp:77] Creating layer res4c_branch2a
I0312 23:45:44.891450 14665 net.cpp:100] Creating Layer res4c_branch2a
I0312 23:45:44.891453 14665 net.cpp:444] res4c_branch2a <- res4b_res4b_relu_0_split_0
I0312 23:45:44.891458 14665 net.cpp:418] res4c_branch2a -> res4c_branch2a
I0312 23:45:44.892498 14665 net.cpp:150] Setting up res4c_branch2a
I0312 23:45:44.892515 14665 net.cpp:157] Top shape: 1 256 38 63 (612864)
I0312 23:45:44.892518 14665 net.cpp:165] Memory required for data: 2313173844
I0312 23:45:44.892526 14665 layer_factory.hpp:77] Creating layer bn4c_branch2a
I0312 23:45:44.892535 14665 net.cpp:100] Creating Layer bn4c_branch2a
I0312 23:45:44.892541 14665 net.cpp:444] bn4c_branch2a <- res4c_branch2a
I0312 23:45:44.892546 14665 net.cpp:405] bn4c_branch2a -> res4c_branch2a (in-place)
I0312 23:45:44.892691 14665 net.cpp:150] Setting up bn4c_branch2a
I0312 23:45:44.892698 14665 net.cpp:157] Top shape: 1 256 38 63 (612864)
I0312 23:45:44.892700 14665 net.cpp:165] Memory required for data: 2315625300
I0312 23:45:44.892705 14665 layer_factory.hpp:77] Creating layer scale4c_branch2a
I0312 23:45:44.892714 14665 net.cpp:100] Creating Layer scale4c_branch2a
I0312 23:45:44.892716 14665 net.cpp:444] scale4c_branch2a <- res4c_branch2a
I0312 23:45:44.892720 14665 net.cpp:405] scale4c_branch2a -> res4c_branch2a (in-place)
I0312 23:45:44.892753 14665 layer_factory.hpp:77] Creating layer scale4c_branch2a
I0312 23:45:44.892839 14665 net.cpp:150] Setting up scale4c_branch2a
I0312 23:45:44.892844 14665 net.cpp:157] Top shape: 1 256 38 63 (612864)
I0312 23:45:44.892848 14665 net.cpp:165] Memory required for data: 2318076756
I0312 23:45:44.892853 14665 layer_factory.hpp:77] Creating layer res4c_branch2a_relu
I0312 23:45:44.892856 14665 net.cpp:100] Creating Layer res4c_branch2a_relu
I0312 23:45:44.892860 14665 net.cpp:444] res4c_branch2a_relu <- res4c_branch2a
I0312 23:45:44.892864 14665 net.cpp:405] res4c_branch2a_relu -> res4c_branch2a (in-place)
I0312 23:45:44.892870 14665 net.cpp:150] Setting up res4c_branch2a_relu
I0312 23:45:44.892874 14665 net.cpp:157] Top shape: 1 256 38 63 (612864)
I0312 23:45:44.892875 14665 net.cpp:165] Memory required for data: 2320528212
I0312 23:45:44.892877 14665 layer_factory.hpp:77] Creating layer res4c_branch2b
I0312 23:45:44.892884 14665 net.cpp:100] Creating Layer res4c_branch2b
I0312 23:45:44.892886 14665 net.cpp:444] res4c_branch2b <- res4c_branch2a
I0312 23:45:44.892890 14665 net.cpp:418] res4c_branch2b -> res4c_branch2b
I0312 23:45:44.894408 14665 net.cpp:150] Setting up res4c_branch2b
I0312 23:45:44.894433 14665 net.cpp:157] Top shape: 1 256 38 63 (612864)
I0312 23:45:44.894435 14665 net.cpp:165] Memory required for data: 2322979668
I0312 23:45:44.894446 14665 layer_factory.hpp:77] Creating layer bn4c_branch2b
I0312 23:45:44.894474 14665 net.cpp:100] Creating Layer bn4c_branch2b
I0312 23:45:44.894480 14665 net.cpp:444] bn4c_branch2b <- res4c_branch2b
I0312 23:45:44.894489 14665 net.cpp:405] bn4c_branch2b -> res4c_branch2b (in-place)
I0312 23:45:44.894682 14665 net.cpp:150] Setting up bn4c_branch2b
I0312 23:45:44.894687 14665 net.cpp:157] Top shape: 1 256 38 63 (612864)
I0312 23:45:44.894690 14665 net.cpp:165] Memory required for data: 2325431124
I0312 23:45:44.894695 14665 layer_factory.hpp:77] Creating layer scale4c_branch2b
I0312 23:45:44.894716 14665 net.cpp:100] Creating Layer scale4c_branch2b
I0312 23:45:44.894719 14665 net.cpp:444] scale4c_branch2b <- res4c_branch2b
I0312 23:45:44.894723 14665 net.cpp:405] scale4c_branch2b -> res4c_branch2b (in-place)
I0312 23:45:44.894752 14665 layer_factory.hpp:77] Creating layer scale4c_branch2b
I0312 23:45:44.894879 14665 net.cpp:150] Setting up scale4c_branch2b
I0312 23:45:44.894884 14665 net.cpp:157] Top shape: 1 256 38 63 (612864)
I0312 23:45:44.894886 14665 net.cpp:165] Memory required for data: 2327882580
I0312 23:45:44.894891 14665 layer_factory.hpp:77] Creating layer res4c_branch2b_relu
I0312 23:45:44.894896 14665 net.cpp:100] Creating Layer res4c_branch2b_relu
I0312 23:45:44.894913 14665 net.cpp:444] res4c_branch2b_relu <- res4c_branch2b
I0312 23:45:44.894917 14665 net.cpp:405] res4c_branch2b_relu -> res4c_branch2b (in-place)
I0312 23:45:44.894920 14665 net.cpp:150] Setting up res4c_branch2b_relu
I0312 23:45:44.894923 14665 net.cpp:157] Top shape: 1 256 38 63 (612864)
I0312 23:45:44.894939 14665 net.cpp:165] Memory required for data: 2330334036
I0312 23:45:44.894942 14665 layer_factory.hpp:77] Creating layer res4c_branch2c
I0312 23:45:44.894948 14665 net.cpp:100] Creating Layer res4c_branch2c
I0312 23:45:44.894953 14665 net.cpp:444] res4c_branch2c <- res4c_branch2b
I0312 23:45:44.894958 14665 net.cpp:418] res4c_branch2c -> res4c_branch2c
I0312 23:45:44.895259 14665 net.cpp:150] Setting up res4c_branch2c
I0312 23:45:44.895264 14665 net.cpp:157] Top shape: 1 1024 38 63 (2451456)
I0312 23:45:44.895267 14665 net.cpp:165] Memory required for data: 2340139860
I0312 23:45:44.895270 14665 layer_factory.hpp:77] Creating layer bn4c_branch2c
I0312 23:45:44.895274 14665 net.cpp:100] Creating Layer bn4c_branch2c
I0312 23:45:44.895278 14665 net.cpp:444] bn4c_branch2c <- res4c_branch2c
I0312 23:45:44.895295 14665 net.cpp:405] bn4c_branch2c -> res4c_branch2c (in-place)
I0312 23:45:44.895469 14665 net.cpp:150] Setting up bn4c_branch2c
I0312 23:45:44.895474 14665 net.cpp:157] Top shape: 1 1024 38 63 (2451456)
I0312 23:45:44.895478 14665 net.cpp:165] Memory required for data: 2349945684
I0312 23:45:44.895481 14665 layer_factory.hpp:77] Creating layer scale4c_branch2c
I0312 23:45:44.895486 14665 net.cpp:100] Creating Layer scale4c_branch2c
I0312 23:45:44.895490 14665 net.cpp:444] scale4c_branch2c <- res4c_branch2c
I0312 23:45:44.895506 14665 net.cpp:405] scale4c_branch2c -> res4c_branch2c (in-place)
I0312 23:45:44.895531 14665 layer_factory.hpp:77] Creating layer scale4c_branch2c
I0312 23:45:44.895644 14665 net.cpp:150] Setting up scale4c_branch2c
I0312 23:45:44.895650 14665 net.cpp:157] Top shape: 1 1024 38 63 (2451456)
I0312 23:45:44.895653 14665 net.cpp:165] Memory required for data: 2359751508
I0312 23:45:44.895656 14665 layer_factory.hpp:77] Creating layer res4c
I0312 23:45:44.895663 14665 net.cpp:100] Creating Layer res4c
I0312 23:45:44.895666 14665 net.cpp:444] res4c <- res4b_res4b_relu_0_split_1
I0312 23:45:44.895669 14665 net.cpp:444] res4c <- res4c_branch2c
I0312 23:45:44.895673 14665 net.cpp:418] res4c -> res4c
I0312 23:45:44.895692 14665 net.cpp:150] Setting up res4c
I0312 23:45:44.895710 14665 net.cpp:157] Top shape: 1 1024 38 63 (2451456)
I0312 23:45:44.895712 14665 net.cpp:165] Memory required for data: 2369557332
I0312 23:45:44.895715 14665 layer_factory.hpp:77] Creating layer res4c_relu
I0312 23:45:44.895720 14665 net.cpp:100] Creating Layer res4c_relu
I0312 23:45:44.895722 14665 net.cpp:444] res4c_relu <- res4c
I0312 23:45:44.895726 14665 net.cpp:405] res4c_relu -> res4c (in-place)
I0312 23:45:44.895732 14665 net.cpp:150] Setting up res4c_relu
I0312 23:45:44.895735 14665 net.cpp:157] Top shape: 1 1024 38 63 (2451456)
I0312 23:45:44.895737 14665 net.cpp:165] Memory required for data: 2379363156
I0312 23:45:44.895740 14665 layer_factory.hpp:77] Creating layer res4c_res4c_relu_0_split
I0312 23:45:44.895743 14665 net.cpp:100] Creating Layer res4c_res4c_relu_0_split
I0312 23:45:44.895746 14665 net.cpp:444] res4c_res4c_relu_0_split <- res4c
I0312 23:45:44.895754 14665 net.cpp:418] res4c_res4c_relu_0_split -> res4c_res4c_relu_0_split_0
I0312 23:45:44.895773 14665 net.cpp:418] res4c_res4c_relu_0_split -> res4c_res4c_relu_0_split_1
I0312 23:45:44.895799 14665 net.cpp:150] Setting up res4c_res4c_relu_0_split
I0312 23:45:44.895817 14665 net.cpp:157] Top shape: 1 1024 38 63 (2451456)
I0312 23:45:44.895820 14665 net.cpp:157] Top shape: 1 1024 38 63 (2451456)
I0312 23:45:44.895823 14665 net.cpp:165] Memory required for data: 2398974804
I0312 23:45:44.895824 14665 layer_factory.hpp:77] Creating layer res4d_branch2a
I0312 23:45:44.895830 14665 net.cpp:100] Creating Layer res4d_branch2a
I0312 23:45:44.895834 14665 net.cpp:444] res4d_branch2a <- res4c_res4c_relu_0_split_0
I0312 23:45:44.895838 14665 net.cpp:418] res4d_branch2a -> res4d_branch2a
I0312 23:45:44.896977 14665 net.cpp:150] Setting up res4d_branch2a
I0312 23:45:44.896998 14665 net.cpp:157] Top shape: 1 256 38 63 (612864)
I0312 23:45:44.897001 14665 net.cpp:165] Memory required for data: 2401426260
I0312 23:45:44.897008 14665 layer_factory.hpp:77] Creating layer bn4d_branch2a
I0312 23:45:44.897017 14665 net.cpp:100] Creating Layer bn4d_branch2a
I0312 23:45:44.897022 14665 net.cpp:444] bn4d_branch2a <- res4d_branch2a
I0312 23:45:44.897027 14665 net.cpp:405] bn4d_branch2a -> res4d_branch2a (in-place)
I0312 23:45:44.897189 14665 net.cpp:150] Setting up bn4d_branch2a
I0312 23:45:44.897197 14665 net.cpp:157] Top shape: 1 256 38 63 (612864)
I0312 23:45:44.897199 14665 net.cpp:165] Memory required for data: 2403877716
I0312 23:45:44.897204 14665 layer_factory.hpp:77] Creating layer scale4d_branch2a
I0312 23:45:44.897213 14665 net.cpp:100] Creating Layer scale4d_branch2a
I0312 23:45:44.897217 14665 net.cpp:444] scale4d_branch2a <- res4d_branch2a
I0312 23:45:44.897219 14665 net.cpp:405] scale4d_branch2a -> res4d_branch2a (in-place)
I0312 23:45:44.897248 14665 layer_factory.hpp:77] Creating layer scale4d_branch2a
I0312 23:45:44.897334 14665 net.cpp:150] Setting up scale4d_branch2a
I0312 23:45:44.897339 14665 net.cpp:157] Top shape: 1 256 38 63 (612864)
I0312 23:45:44.897342 14665 net.cpp:165] Memory required for data: 2406329172
I0312 23:45:44.897346 14665 layer_factory.hpp:77] Creating layer res4d_branch2a_relu
I0312 23:45:44.897353 14665 net.cpp:100] Creating Layer res4d_branch2a_relu
I0312 23:45:44.897356 14665 net.cpp:444] res4d_branch2a_relu <- res4d_branch2a
I0312 23:45:44.897358 14665 net.cpp:405] res4d_branch2a_relu -> res4d_branch2a (in-place)
I0312 23:45:44.897364 14665 net.cpp:150] Setting up res4d_branch2a_relu
I0312 23:45:44.897367 14665 net.cpp:157] Top shape: 1 256 38 63 (612864)
I0312 23:45:44.897369 14665 net.cpp:165] Memory required for data: 2408780628
I0312 23:45:44.897372 14665 layer_factory.hpp:77] Creating layer res4d_branch2b
I0312 23:45:44.897378 14665 net.cpp:100] Creating Layer res4d_branch2b
I0312 23:45:44.897382 14665 net.cpp:444] res4d_branch2b <- res4d_branch2a
I0312 23:45:44.897387 14665 net.cpp:418] res4d_branch2b -> res4d_branch2b
I0312 23:45:44.898609 14665 net.cpp:150] Setting up res4d_branch2b
I0312 23:45:44.898629 14665 net.cpp:157] Top shape: 1 256 38 63 (612864)
I0312 23:45:44.898633 14665 net.cpp:165] Memory required for data: 2411232084
I0312 23:45:44.898639 14665 layer_factory.hpp:77] Creating layer bn4d_branch2b
I0312 23:45:44.898648 14665 net.cpp:100] Creating Layer bn4d_branch2b
I0312 23:45:44.898654 14665 net.cpp:444] bn4d_branch2b <- res4d_branch2b
I0312 23:45:44.898660 14665 net.cpp:405] bn4d_branch2b -> res4d_branch2b (in-place)
I0312 23:45:44.898823 14665 net.cpp:150] Setting up bn4d_branch2b
I0312 23:45:44.898830 14665 net.cpp:157] Top shape: 1 256 38 63 (612864)
I0312 23:45:44.898833 14665 net.cpp:165] Memory required for data: 2413683540
I0312 23:45:44.898838 14665 layer_factory.hpp:77] Creating layer scale4d_branch2b
I0312 23:45:44.898845 14665 net.cpp:100] Creating Layer scale4d_branch2b
I0312 23:45:44.898849 14665 net.cpp:444] scale4d_branch2b <- res4d_branch2b
I0312 23:45:44.898851 14665 net.cpp:405] scale4d_branch2b -> res4d_branch2b (in-place)
I0312 23:45:44.898882 14665 layer_factory.hpp:77] Creating layer scale4d_branch2b
I0312 23:45:44.898972 14665 net.cpp:150] Setting up scale4d_branch2b
I0312 23:45:44.898977 14665 net.cpp:157] Top shape: 1 256 38 63 (612864)
I0312 23:45:44.898980 14665 net.cpp:165] Memory required for data: 2416134996
I0312 23:45:44.898984 14665 layer_factory.hpp:77] Creating layer res4d_branch2b_relu
I0312 23:45:44.898989 14665 net.cpp:100] Creating Layer res4d_branch2b_relu
I0312 23:45:44.898993 14665 net.cpp:444] res4d_branch2b_relu <- res4d_branch2b
I0312 23:45:44.898998 14665 net.cpp:405] res4d_branch2b_relu -> res4d_branch2b (in-place)
I0312 23:45:44.899001 14665 net.cpp:150] Setting up res4d_branch2b_relu
I0312 23:45:44.899004 14665 net.cpp:157] Top shape: 1 256 38 63 (612864)
I0312 23:45:44.899008 14665 net.cpp:165] Memory required for data: 2418586452
I0312 23:45:44.899009 14665 layer_factory.hpp:77] Creating layer res4d_branch2c
I0312 23:45:44.899015 14665 net.cpp:100] Creating Layer res4d_branch2c
I0312 23:45:44.899019 14665 net.cpp:444] res4d_branch2c <- res4d_branch2b
I0312 23:45:44.899024 14665 net.cpp:418] res4d_branch2c -> res4d_branch2c
I0312 23:45:44.899344 14665 net.cpp:150] Setting up res4d_branch2c
I0312 23:45:44.899351 14665 net.cpp:157] Top shape: 1 1024 38 63 (2451456)
I0312 23:45:44.899354 14665 net.cpp:165] Memory required for data: 2428392276
I0312 23:45:44.899358 14665 layer_factory.hpp:77] Creating layer bn4d_branch2c
I0312 23:45:44.899364 14665 net.cpp:100] Creating Layer bn4d_branch2c
I0312 23:45:44.899369 14665 net.cpp:444] bn4d_branch2c <- res4d_branch2c
I0312 23:45:44.899371 14665 net.cpp:405] bn4d_branch2c -> res4d_branch2c (in-place)
I0312 23:45:44.899557 14665 net.cpp:150] Setting up bn4d_branch2c
I0312 23:45:44.899564 14665 net.cpp:157] Top shape: 1 1024 38 63 (2451456)
I0312 23:45:44.899566 14665 net.cpp:165] Memory required for data: 2438198100
I0312 23:45:44.899572 14665 layer_factory.hpp:77] Creating layer scale4d_branch2c
I0312 23:45:44.899579 14665 net.cpp:100] Creating Layer scale4d_branch2c
I0312 23:45:44.899581 14665 net.cpp:444] scale4d_branch2c <- res4d_branch2c
I0312 23:45:44.899586 14665 net.cpp:405] scale4d_branch2c -> res4d_branch2c (in-place)
I0312 23:45:44.899612 14665 layer_factory.hpp:77] Creating layer scale4d_branch2c
I0312 23:45:44.899703 14665 net.cpp:150] Setting up scale4d_branch2c
I0312 23:45:44.899708 14665 net.cpp:157] Top shape: 1 1024 38 63 (2451456)
I0312 23:45:44.899710 14665 net.cpp:165] Memory required for data: 2448003924
I0312 23:45:44.899714 14665 layer_factory.hpp:77] Creating layer res4d
I0312 23:45:44.899719 14665 net.cpp:100] Creating Layer res4d
I0312 23:45:44.899724 14665 net.cpp:444] res4d <- res4c_res4c_relu_0_split_1
I0312 23:45:44.899726 14665 net.cpp:444] res4d <- res4d_branch2c
I0312 23:45:44.899731 14665 net.cpp:418] res4d -> res4d
I0312 23:45:44.899749 14665 net.cpp:150] Setting up res4d
I0312 23:45:44.899755 14665 net.cpp:157] Top shape: 1 1024 38 63 (2451456)
I0312 23:45:44.899757 14665 net.cpp:165] Memory required for data: 2457809748
I0312 23:45:44.899760 14665 layer_factory.hpp:77] Creating layer res4d_relu
I0312 23:45:44.899763 14665 net.cpp:100] Creating Layer res4d_relu
I0312 23:45:44.899766 14665 net.cpp:444] res4d_relu <- res4d
I0312 23:45:44.899771 14665 net.cpp:405] res4d_relu -> res4d (in-place)
I0312 23:45:44.899775 14665 net.cpp:150] Setting up res4d_relu
I0312 23:45:44.899778 14665 net.cpp:157] Top shape: 1 1024 38 63 (2451456)
I0312 23:45:44.899781 14665 net.cpp:165] Memory required for data: 2467615572
I0312 23:45:44.899783 14665 layer_factory.hpp:77] Creating layer res4d_res4d_relu_0_split
I0312 23:45:44.899788 14665 net.cpp:100] Creating Layer res4d_res4d_relu_0_split
I0312 23:45:44.899791 14665 net.cpp:444] res4d_res4d_relu_0_split <- res4d
I0312 23:45:44.899796 14665 net.cpp:418] res4d_res4d_relu_0_split -> res4d_res4d_relu_0_split_0
I0312 23:45:44.899799 14665 net.cpp:418] res4d_res4d_relu_0_split -> res4d_res4d_relu_0_split_1
I0312 23:45:44.899827 14665 net.cpp:150] Setting up res4d_res4d_relu_0_split
I0312 23:45:44.899832 14665 net.cpp:157] Top shape: 1 1024 38 63 (2451456)
I0312 23:45:44.899835 14665 net.cpp:157] Top shape: 1 1024 38 63 (2451456)
I0312 23:45:44.899837 14665 net.cpp:165] Memory required for data: 2487227220
I0312 23:45:44.899839 14665 layer_factory.hpp:77] Creating layer res4e_branch2a
I0312 23:45:44.899844 14665 net.cpp:100] Creating Layer res4e_branch2a
I0312 23:45:44.899848 14665 net.cpp:444] res4e_branch2a <- res4d_res4d_relu_0_split_0
I0312 23:45:44.899853 14665 net.cpp:418] res4e_branch2a -> res4e_branch2a
I0312 23:45:44.901096 14665 net.cpp:150] Setting up res4e_branch2a
I0312 23:45:44.901134 14665 net.cpp:157] Top shape: 1 256 38 63 (612864)
I0312 23:45:44.901136 14665 net.cpp:165] Memory required for data: 2489678676
I0312 23:45:44.901144 14665 layer_factory.hpp:77] Creating layer bn4e_branch2a
I0312 23:45:44.901156 14665 net.cpp:100] Creating Layer bn4e_branch2a
I0312 23:45:44.901163 14665 net.cpp:444] bn4e_branch2a <- res4e_branch2a
I0312 23:45:44.901172 14665 net.cpp:405] bn4e_branch2a -> res4e_branch2a (in-place)
I0312 23:45:44.901345 14665 net.cpp:150] Setting up bn4e_branch2a
I0312 23:45:44.901351 14665 net.cpp:157] Top shape: 1 256 38 63 (612864)
I0312 23:45:44.901355 14665 net.cpp:165] Memory required for data: 2492130132
I0312 23:45:44.901360 14665 layer_factory.hpp:77] Creating layer scale4e_branch2a
I0312 23:45:44.901367 14665 net.cpp:100] Creating Layer scale4e_branch2a
I0312 23:45:44.901370 14665 net.cpp:444] scale4e_branch2a <- res4e_branch2a
I0312 23:45:44.901373 14665 net.cpp:405] scale4e_branch2a -> res4e_branch2a (in-place)
I0312 23:45:44.901403 14665 layer_factory.hpp:77] Creating layer scale4e_branch2a
I0312 23:45:44.901491 14665 net.cpp:150] Setting up scale4e_branch2a
I0312 23:45:44.901497 14665 net.cpp:157] Top shape: 1 256 38 63 (612864)
I0312 23:45:44.901499 14665 net.cpp:165] Memory required for data: 2494581588
I0312 23:45:44.901504 14665 layer_factory.hpp:77] Creating layer res4e_branch2a_relu
I0312 23:45:44.901510 14665 net.cpp:100] Creating Layer res4e_branch2a_relu
I0312 23:45:44.901512 14665 net.cpp:444] res4e_branch2a_relu <- res4e_branch2a
I0312 23:45:44.901517 14665 net.cpp:405] res4e_branch2a_relu -> res4e_branch2a (in-place)
I0312 23:45:44.901522 14665 net.cpp:150] Setting up res4e_branch2a_relu
I0312 23:45:44.901525 14665 net.cpp:157] Top shape: 1 256 38 63 (612864)
I0312 23:45:44.901527 14665 net.cpp:165] Memory required for data: 2497033044
I0312 23:45:44.901530 14665 layer_factory.hpp:77] Creating layer res4e_branch2b
I0312 23:45:44.901537 14665 net.cpp:100] Creating Layer res4e_branch2b
I0312 23:45:44.901540 14665 net.cpp:444] res4e_branch2b <- res4e_branch2a
I0312 23:45:44.901546 14665 net.cpp:418] res4e_branch2b -> res4e_branch2b
I0312 23:45:44.903141 14665 net.cpp:150] Setting up res4e_branch2b
I0312 23:45:44.903172 14665 net.cpp:157] Top shape: 1 256 38 63 (612864)
I0312 23:45:44.903175 14665 net.cpp:165] Memory required for data: 2499484500
I0312 23:45:44.903201 14665 layer_factory.hpp:77] Creating layer bn4e_branch2b
I0312 23:45:44.903214 14665 net.cpp:100] Creating Layer bn4e_branch2b
I0312 23:45:44.903223 14665 net.cpp:444] bn4e_branch2b <- res4e_branch2b
I0312 23:45:44.903234 14665 net.cpp:405] bn4e_branch2b -> res4e_branch2b (in-place)
I0312 23:45:44.903457 14665 net.cpp:150] Setting up bn4e_branch2b
I0312 23:45:44.903476 14665 net.cpp:157] Top shape: 1 256 38 63 (612864)
I0312 23:45:44.903479 14665 net.cpp:165] Memory required for data: 2501935956
I0312 23:45:44.903486 14665 layer_factory.hpp:77] Creating layer scale4e_branch2b
I0312 23:45:44.903491 14665 net.cpp:100] Creating Layer scale4e_branch2b
I0312 23:45:44.903493 14665 net.cpp:444] scale4e_branch2b <- res4e_branch2b
I0312 23:45:44.903499 14665 net.cpp:405] scale4e_branch2b -> res4e_branch2b (in-place)
I0312 23:45:44.903543 14665 layer_factory.hpp:77] Creating layer scale4e_branch2b
I0312 23:45:44.903651 14665 net.cpp:150] Setting up scale4e_branch2b
I0312 23:45:44.903656 14665 net.cpp:157] Top shape: 1 256 38 63 (612864)
I0312 23:45:44.903659 14665 net.cpp:165] Memory required for data: 2504387412
I0312 23:45:44.903663 14665 layer_factory.hpp:77] Creating layer res4e_branch2b_relu
I0312 23:45:44.903686 14665 net.cpp:100] Creating Layer res4e_branch2b_relu
I0312 23:45:44.903689 14665 net.cpp:444] res4e_branch2b_relu <- res4e_branch2b
I0312 23:45:44.903692 14665 net.cpp:405] res4e_branch2b_relu -> res4e_branch2b (in-place)
I0312 23:45:44.903697 14665 net.cpp:150] Setting up res4e_branch2b_relu
I0312 23:45:44.903700 14665 net.cpp:157] Top shape: 1 256 38 63 (612864)
I0312 23:45:44.903702 14665 net.cpp:165] Memory required for data: 2506838868
I0312 23:45:44.903705 14665 layer_factory.hpp:77] Creating layer res4e_branch2c
I0312 23:45:44.903712 14665 net.cpp:100] Creating Layer res4e_branch2c
I0312 23:45:44.903715 14665 net.cpp:444] res4e_branch2c <- res4e_branch2b
I0312 23:45:44.903720 14665 net.cpp:418] res4e_branch2c -> res4e_branch2c
I0312 23:45:44.904028 14665 net.cpp:150] Setting up res4e_branch2c
I0312 23:45:44.904036 14665 net.cpp:157] Top shape: 1 1024 38 63 (2451456)
I0312 23:45:44.904037 14665 net.cpp:165] Memory required for data: 2516644692
I0312 23:45:44.904042 14665 layer_factory.hpp:77] Creating layer bn4e_branch2c
I0312 23:45:44.904048 14665 net.cpp:100] Creating Layer bn4e_branch2c
I0312 23:45:44.904052 14665 net.cpp:444] bn4e_branch2c <- res4e_branch2c
I0312 23:45:44.904055 14665 net.cpp:405] bn4e_branch2c -> res4e_branch2c (in-place)
I0312 23:45:44.904242 14665 net.cpp:150] Setting up bn4e_branch2c
I0312 23:45:44.904249 14665 net.cpp:157] Top shape: 1 1024 38 63 (2451456)
I0312 23:45:44.904253 14665 net.cpp:165] Memory required for data: 2526450516
I0312 23:45:44.904258 14665 layer_factory.hpp:77] Creating layer scale4e_branch2c
I0312 23:45:44.904263 14665 net.cpp:100] Creating Layer scale4e_branch2c
I0312 23:45:44.904268 14665 net.cpp:444] scale4e_branch2c <- res4e_branch2c
I0312 23:45:44.904285 14665 net.cpp:405] scale4e_branch2c -> res4e_branch2c (in-place)
I0312 23:45:44.904314 14665 layer_factory.hpp:77] Creating layer scale4e_branch2c
I0312 23:45:44.904441 14665 net.cpp:150] Setting up scale4e_branch2c
I0312 23:45:44.904459 14665 net.cpp:157] Top shape: 1 1024 38 63 (2451456)
I0312 23:45:44.904462 14665 net.cpp:165] Memory required for data: 2536256340
I0312 23:45:44.904466 14665 layer_factory.hpp:77] Creating layer res4e
I0312 23:45:44.904471 14665 net.cpp:100] Creating Layer res4e
I0312 23:45:44.904476 14665 net.cpp:444] res4e <- res4d_res4d_relu_0_split_1
I0312 23:45:44.904492 14665 net.cpp:444] res4e <- res4e_branch2c
I0312 23:45:44.904497 14665 net.cpp:418] res4e -> res4e
I0312 23:45:44.904516 14665 net.cpp:150] Setting up res4e
I0312 23:45:44.904521 14665 net.cpp:157] Top shape: 1 1024 38 63 (2451456)
I0312 23:45:44.904525 14665 net.cpp:165] Memory required for data: 2546062164
I0312 23:45:44.904526 14665 layer_factory.hpp:77] Creating layer res4e_relu
I0312 23:45:44.904531 14665 net.cpp:100] Creating Layer res4e_relu
I0312 23:45:44.904534 14665 net.cpp:444] res4e_relu <- res4e
I0312 23:45:44.904538 14665 net.cpp:405] res4e_relu -> res4e (in-place)
I0312 23:45:44.904542 14665 net.cpp:150] Setting up res4e_relu
I0312 23:45:44.904546 14665 net.cpp:157] Top shape: 1 1024 38 63 (2451456)
I0312 23:45:44.904548 14665 net.cpp:165] Memory required for data: 2555867988
I0312 23:45:44.904551 14665 layer_factory.hpp:77] Creating layer res4e_res4e_relu_0_split
I0312 23:45:44.904556 14665 net.cpp:100] Creating Layer res4e_res4e_relu_0_split
I0312 23:45:44.904557 14665 net.cpp:444] res4e_res4e_relu_0_split <- res4e
I0312 23:45:44.904562 14665 net.cpp:418] res4e_res4e_relu_0_split -> res4e_res4e_relu_0_split_0
I0312 23:45:44.904567 14665 net.cpp:418] res4e_res4e_relu_0_split -> res4e_res4e_relu_0_split_1
I0312 23:45:44.904592 14665 net.cpp:150] Setting up res4e_res4e_relu_0_split
I0312 23:45:44.904597 14665 net.cpp:157] Top shape: 1 1024 38 63 (2451456)
I0312 23:45:44.904600 14665 net.cpp:157] Top shape: 1 1024 38 63 (2451456)
I0312 23:45:44.904603 14665 net.cpp:165] Memory required for data: 2575479636
I0312 23:45:44.904605 14665 layer_factory.hpp:77] Creating layer res4f_branch2a
I0312 23:45:44.904609 14665 net.cpp:100] Creating Layer res4f_branch2a
I0312 23:45:44.904614 14665 net.cpp:444] res4f_branch2a <- res4e_res4e_relu_0_split_0
I0312 23:45:44.904619 14665 net.cpp:418] res4f_branch2a -> res4f_branch2a
I0312 23:45:44.905815 14665 net.cpp:150] Setting up res4f_branch2a
I0312 23:45:44.905830 14665 net.cpp:157] Top shape: 1 256 38 63 (612864)
I0312 23:45:44.905833 14665 net.cpp:165] Memory required for data: 2577931092
I0312 23:45:44.905839 14665 layer_factory.hpp:77] Creating layer bn4f_branch2a
I0312 23:45:44.905848 14665 net.cpp:100] Creating Layer bn4f_branch2a
I0312 23:45:44.905853 14665 net.cpp:444] bn4f_branch2a <- res4f_branch2a
I0312 23:45:44.905858 14665 net.cpp:405] bn4f_branch2a -> res4f_branch2a (in-place)
I0312 23:45:44.906011 14665 net.cpp:150] Setting up bn4f_branch2a
I0312 23:45:44.906018 14665 net.cpp:157] Top shape: 1 256 38 63 (612864)
I0312 23:45:44.906020 14665 net.cpp:165] Memory required for data: 2580382548
I0312 23:45:44.906025 14665 layer_factory.hpp:77] Creating layer scale4f_branch2a
I0312 23:45:44.906033 14665 net.cpp:100] Creating Layer scale4f_branch2a
I0312 23:45:44.906035 14665 net.cpp:444] scale4f_branch2a <- res4f_branch2a
I0312 23:45:44.906040 14665 net.cpp:405] scale4f_branch2a -> res4f_branch2a (in-place)
I0312 23:45:44.906069 14665 layer_factory.hpp:77] Creating layer scale4f_branch2a
I0312 23:45:44.906157 14665 net.cpp:150] Setting up scale4f_branch2a
I0312 23:45:44.906163 14665 net.cpp:157] Top shape: 1 256 38 63 (612864)
I0312 23:45:44.906167 14665 net.cpp:165] Memory required for data: 2582834004
I0312 23:45:44.906172 14665 layer_factory.hpp:77] Creating layer res4f_branch2a_relu
I0312 23:45:44.906175 14665 net.cpp:100] Creating Layer res4f_branch2a_relu
I0312 23:45:44.906180 14665 net.cpp:444] res4f_branch2a_relu <- res4f_branch2a
I0312 23:45:44.906183 14665 net.cpp:405] res4f_branch2a_relu -> res4f_branch2a (in-place)
I0312 23:45:44.906188 14665 net.cpp:150] Setting up res4f_branch2a_relu
I0312 23:45:44.906191 14665 net.cpp:157] Top shape: 1 256 38 63 (612864)
I0312 23:45:44.906193 14665 net.cpp:165] Memory required for data: 2585285460
I0312 23:45:44.906195 14665 layer_factory.hpp:77] Creating layer res4f_branch2b
I0312 23:45:44.906203 14665 net.cpp:100] Creating Layer res4f_branch2b
I0312 23:45:44.906206 14665 net.cpp:444] res4f_branch2b <- res4f_branch2a
I0312 23:45:44.906213 14665 net.cpp:418] res4f_branch2b -> res4f_branch2b
I0312 23:45:44.907385 14665 net.cpp:150] Setting up res4f_branch2b
I0312 23:45:44.907397 14665 net.cpp:157] Top shape: 1 256 38 63 (612864)
I0312 23:45:44.907399 14665 net.cpp:165] Memory required for data: 2587736916
I0312 23:45:44.907403 14665 layer_factory.hpp:77] Creating layer bn4f_branch2b
I0312 23:45:44.907413 14665 net.cpp:100] Creating Layer bn4f_branch2b
I0312 23:45:44.907416 14665 net.cpp:444] bn4f_branch2b <- res4f_branch2b
I0312 23:45:44.907420 14665 net.cpp:405] bn4f_branch2b -> res4f_branch2b (in-place)
I0312 23:45:44.907575 14665 net.cpp:150] Setting up bn4f_branch2b
I0312 23:45:44.907580 14665 net.cpp:157] Top shape: 1 256 38 63 (612864)
I0312 23:45:44.907583 14665 net.cpp:165] Memory required for data: 2590188372
I0312 23:45:44.907588 14665 layer_factory.hpp:77] Creating layer scale4f_branch2b
I0312 23:45:44.907593 14665 net.cpp:100] Creating Layer scale4f_branch2b
I0312 23:45:44.907609 14665 net.cpp:444] scale4f_branch2b <- res4f_branch2b
I0312 23:45:44.907614 14665 net.cpp:405] scale4f_branch2b -> res4f_branch2b (in-place)
I0312 23:45:44.907644 14665 layer_factory.hpp:77] Creating layer scale4f_branch2b
I0312 23:45:44.907785 14665 net.cpp:150] Setting up scale4f_branch2b
I0312 23:45:44.907790 14665 net.cpp:157] Top shape: 1 256 38 63 (612864)
I0312 23:45:44.907793 14665 net.cpp:165] Memory required for data: 2592639828
I0312 23:45:44.907797 14665 layer_factory.hpp:77] Creating layer res4f_branch2b_relu
I0312 23:45:44.907801 14665 net.cpp:100] Creating Layer res4f_branch2b_relu
I0312 23:45:44.907804 14665 net.cpp:444] res4f_branch2b_relu <- res4f_branch2b
I0312 23:45:44.907822 14665 net.cpp:405] res4f_branch2b_relu -> res4f_branch2b (in-place)
I0312 23:45:44.907827 14665 net.cpp:150] Setting up res4f_branch2b_relu
I0312 23:45:44.907831 14665 net.cpp:157] Top shape: 1 256 38 63 (612864)
I0312 23:45:44.907833 14665 net.cpp:165] Memory required for data: 2595091284
I0312 23:45:44.907836 14665 layer_factory.hpp:77] Creating layer res4f_branch2c
I0312 23:45:44.907840 14665 net.cpp:100] Creating Layer res4f_branch2c
I0312 23:45:44.907845 14665 net.cpp:444] res4f_branch2c <- res4f_branch2b
I0312 23:45:44.907850 14665 net.cpp:418] res4f_branch2c -> res4f_branch2c
I0312 23:45:44.908113 14665 net.cpp:150] Setting up res4f_branch2c
I0312 23:45:44.908118 14665 net.cpp:157] Top shape: 1 1024 38 63 (2451456)
I0312 23:45:44.908120 14665 net.cpp:165] Memory required for data: 2604897108
I0312 23:45:44.908123 14665 layer_factory.hpp:77] Creating layer bn4f_branch2c
I0312 23:45:44.908128 14665 net.cpp:100] Creating Layer bn4f_branch2c
I0312 23:45:44.908130 14665 net.cpp:444] bn4f_branch2c <- res4f_branch2c
I0312 23:45:44.908134 14665 net.cpp:405] bn4f_branch2c -> res4f_branch2c (in-place)
I0312 23:45:44.908287 14665 net.cpp:150] Setting up bn4f_branch2c
I0312 23:45:44.908293 14665 net.cpp:157] Top shape: 1 1024 38 63 (2451456)
I0312 23:45:44.908294 14665 net.cpp:165] Memory required for data: 2614702932
I0312 23:45:44.908329 14665 layer_factory.hpp:77] Creating layer scale4f_branch2c
I0312 23:45:44.908349 14665 net.cpp:100] Creating Layer scale4f_branch2c
I0312 23:45:44.908352 14665 net.cpp:444] scale4f_branch2c <- res4f_branch2c
I0312 23:45:44.908356 14665 net.cpp:405] scale4f_branch2c -> res4f_branch2c (in-place)
I0312 23:45:44.908396 14665 layer_factory.hpp:77] Creating layer scale4f_branch2c
I0312 23:45:44.908495 14665 net.cpp:150] Setting up scale4f_branch2c
I0312 23:45:44.908500 14665 net.cpp:157] Top shape: 1 1024 38 63 (2451456)
I0312 23:45:44.908504 14665 net.cpp:165] Memory required for data: 2624508756
I0312 23:45:44.908507 14665 layer_factory.hpp:77] Creating layer res4f
I0312 23:45:44.908511 14665 net.cpp:100] Creating Layer res4f
I0312 23:45:44.908514 14665 net.cpp:444] res4f <- res4e_res4e_relu_0_split_1
I0312 23:45:44.908517 14665 net.cpp:444] res4f <- res4f_branch2c
I0312 23:45:44.908522 14665 net.cpp:418] res4f -> res4f
I0312 23:45:44.908540 14665 net.cpp:150] Setting up res4f
I0312 23:45:44.908545 14665 net.cpp:157] Top shape: 1 1024 38 63 (2451456)
I0312 23:45:44.908547 14665 net.cpp:165] Memory required for data: 2634314580
I0312 23:45:44.908550 14665 layer_factory.hpp:77] Creating layer res4f_relu
I0312 23:45:44.908555 14665 net.cpp:100] Creating Layer res4f_relu
I0312 23:45:44.908560 14665 net.cpp:444] res4f_relu <- res4f
I0312 23:45:44.908563 14665 net.cpp:405] res4f_relu -> res4f (in-place)
I0312 23:45:44.908567 14665 net.cpp:150] Setting up res4f_relu
I0312 23:45:44.908571 14665 net.cpp:157] Top shape: 1 1024 38 63 (2451456)
I0312 23:45:44.908573 14665 net.cpp:165] Memory required for data: 2644120404
I0312 23:45:44.908576 14665 layer_factory.hpp:77] Creating layer res4f_res4f_relu_0_split
I0312 23:45:44.908581 14665 net.cpp:100] Creating Layer res4f_res4f_relu_0_split
I0312 23:45:44.908582 14665 net.cpp:444] res4f_res4f_relu_0_split <- res4f
I0312 23:45:44.908587 14665 net.cpp:418] res4f_res4f_relu_0_split -> res4f_res4f_relu_0_split_0
I0312 23:45:44.908591 14665 net.cpp:418] res4f_res4f_relu_0_split -> res4f_res4f_relu_0_split_1
I0312 23:45:44.908598 14665 net.cpp:418] res4f_res4f_relu_0_split -> res4f_res4f_relu_0_split_2
I0312 23:45:44.908634 14665 net.cpp:150] Setting up res4f_res4f_relu_0_split
I0312 23:45:44.908639 14665 net.cpp:157] Top shape: 1 1024 38 63 (2451456)
I0312 23:45:44.908643 14665 net.cpp:157] Top shape: 1 1024 38 63 (2451456)
I0312 23:45:44.908645 14665 net.cpp:157] Top shape: 1 1024 38 63 (2451456)
I0312 23:45:44.908648 14665 net.cpp:165] Memory required for data: 2673537876
I0312 23:45:44.908650 14665 layer_factory.hpp:77] Creating layer res5a_branch1
I0312 23:45:44.908655 14665 net.cpp:100] Creating Layer res5a_branch1
I0312 23:45:44.908658 14665 net.cpp:444] res5a_branch1 <- res4f_res4f_relu_0_split_0
I0312 23:45:44.908663 14665 net.cpp:418] res5a_branch1 -> res5a_branch1
I0312 23:45:44.912300 14665 net.cpp:150] Setting up res5a_branch1
I0312 23:45:44.912325 14665 net.cpp:157] Top shape: 1 2048 38 63 (4902912)
I0312 23:45:44.912328 14665 net.cpp:165] Memory required for data: 2693149524
I0312 23:45:44.912339 14665 layer_factory.hpp:77] Creating layer bn5a_branch1
I0312 23:45:44.912353 14665 net.cpp:100] Creating Layer bn5a_branch1
I0312 23:45:44.912358 14665 net.cpp:444] bn5a_branch1 <- res5a_branch1
I0312 23:45:44.912364 14665 net.cpp:405] bn5a_branch1 -> res5a_branch1 (in-place)
I0312 23:45:44.912544 14665 net.cpp:150] Setting up bn5a_branch1
I0312 23:45:44.912551 14665 net.cpp:157] Top shape: 1 2048 38 63 (4902912)
I0312 23:45:44.912554 14665 net.cpp:165] Memory required for data: 2712761172
I0312 23:45:44.912559 14665 layer_factory.hpp:77] Creating layer scale5a_branch1
I0312 23:45:44.912565 14665 net.cpp:100] Creating Layer scale5a_branch1
I0312 23:45:44.912569 14665 net.cpp:444] scale5a_branch1 <- res5a_branch1
I0312 23:45:44.912572 14665 net.cpp:405] scale5a_branch1 -> res5a_branch1 (in-place)
I0312 23:45:44.912619 14665 layer_factory.hpp:77] Creating layer scale5a_branch1
I0312 23:45:44.912730 14665 net.cpp:150] Setting up scale5a_branch1
I0312 23:45:44.912736 14665 net.cpp:157] Top shape: 1 2048 38 63 (4902912)
I0312 23:45:44.912739 14665 net.cpp:165] Memory required for data: 2732372820
I0312 23:45:44.912744 14665 layer_factory.hpp:77] Creating layer res5a_branch2a
I0312 23:45:44.912763 14665 net.cpp:100] Creating Layer res5a_branch2a
I0312 23:45:44.912767 14665 net.cpp:444] res5a_branch2a <- res4f_res4f_relu_0_split_1
I0312 23:45:44.912772 14665 net.cpp:418] res5a_branch2a -> res5a_branch2a
I0312 23:45:44.913961 14665 net.cpp:150] Setting up res5a_branch2a
I0312 23:45:44.913972 14665 net.cpp:157] Top shape: 1 512 38 63 (1225728)
I0312 23:45:44.913975 14665 net.cpp:165] Memory required for data: 2737275732
I0312 23:45:44.913980 14665 layer_factory.hpp:77] Creating layer bn5a_branch2a
I0312 23:45:44.913998 14665 net.cpp:100] Creating Layer bn5a_branch2a
I0312 23:45:44.914002 14665 net.cpp:444] bn5a_branch2a <- res5a_branch2a
I0312 23:45:44.914006 14665 net.cpp:405] bn5a_branch2a -> res5a_branch2a (in-place)
I0312 23:45:44.914182 14665 net.cpp:150] Setting up bn5a_branch2a
I0312 23:45:44.914187 14665 net.cpp:157] Top shape: 1 512 38 63 (1225728)
I0312 23:45:44.914189 14665 net.cpp:165] Memory required for data: 2742178644
I0312 23:45:44.914194 14665 layer_factory.hpp:77] Creating layer scale5a_branch2a
I0312 23:45:44.914214 14665 net.cpp:100] Creating Layer scale5a_branch2a
I0312 23:45:44.914217 14665 net.cpp:444] scale5a_branch2a <- res5a_branch2a
I0312 23:45:44.914222 14665 net.cpp:405] scale5a_branch2a -> res5a_branch2a (in-place)
I0312 23:45:44.914248 14665 layer_factory.hpp:77] Creating layer scale5a_branch2a
I0312 23:45:44.914361 14665 net.cpp:150] Setting up scale5a_branch2a
I0312 23:45:44.914366 14665 net.cpp:157] Top shape: 1 512 38 63 (1225728)
I0312 23:45:44.914367 14665 net.cpp:165] Memory required for data: 2747081556
I0312 23:45:44.914371 14665 layer_factory.hpp:77] Creating layer res5a_branch2a_relu
I0312 23:45:44.914377 14665 net.cpp:100] Creating Layer res5a_branch2a_relu
I0312 23:45:44.914379 14665 net.cpp:444] res5a_branch2a_relu <- res5a_branch2a
I0312 23:45:44.914397 14665 net.cpp:405] res5a_branch2a_relu -> res5a_branch2a (in-place)
I0312 23:45:44.914402 14665 net.cpp:150] Setting up res5a_branch2a_relu
I0312 23:45:44.914405 14665 net.cpp:157] Top shape: 1 512 38 63 (1225728)
I0312 23:45:44.914407 14665 net.cpp:165] Memory required for data: 2751984468
I0312 23:45:44.914409 14665 layer_factory.hpp:77] Creating layer res5a_branch2b
I0312 23:45:44.914417 14665 net.cpp:100] Creating Layer res5a_branch2b
I0312 23:45:44.914432 14665 net.cpp:444] res5a_branch2b <- res5a_branch2a
I0312 23:45:44.914438 14665 net.cpp:418] res5a_branch2b -> res5a_branch2b
I0312 23:45:44.919646 14665 net.cpp:150] Setting up res5a_branch2b
I0312 23:45:44.919674 14665 net.cpp:157] Top shape: 1 512 38 63 (1225728)
I0312 23:45:44.919677 14665 net.cpp:165] Memory required for data: 2756887380
I0312 23:45:44.919704 14665 layer_factory.hpp:77] Creating layer bn5a_branch2b
I0312 23:45:44.919718 14665 net.cpp:100] Creating Layer bn5a_branch2b
I0312 23:45:44.919724 14665 net.cpp:444] bn5a_branch2b <- res5a_branch2b
I0312 23:45:44.919733 14665 net.cpp:405] bn5a_branch2b -> res5a_branch2b (in-place)
I0312 23:45:44.919942 14665 net.cpp:150] Setting up bn5a_branch2b
I0312 23:45:44.919950 14665 net.cpp:157] Top shape: 1 512 38 63 (1225728)
I0312 23:45:44.919951 14665 net.cpp:165] Memory required for data: 2761790292
I0312 23:45:44.919956 14665 layer_factory.hpp:77] Creating layer scale5a_branch2b
I0312 23:45:44.919981 14665 net.cpp:100] Creating Layer scale5a_branch2b
I0312 23:45:44.919983 14665 net.cpp:444] scale5a_branch2b <- res5a_branch2b
I0312 23:45:44.919987 14665 net.cpp:405] scale5a_branch2b -> res5a_branch2b (in-place)
I0312 23:45:44.920059 14665 layer_factory.hpp:77] Creating layer scale5a_branch2b
I0312 23:45:44.920212 14665 net.cpp:150] Setting up scale5a_branch2b
I0312 23:45:44.920229 14665 net.cpp:157] Top shape: 1 512 38 63 (1225728)
I0312 23:45:44.920233 14665 net.cpp:165] Memory required for data: 2766693204
I0312 23:45:44.920236 14665 layer_factory.hpp:77] Creating layer res5a_branch2b_relu
I0312 23:45:44.920243 14665 net.cpp:100] Creating Layer res5a_branch2b_relu
I0312 23:45:44.920245 14665 net.cpp:444] res5a_branch2b_relu <- res5a_branch2b
I0312 23:45:44.920248 14665 net.cpp:405] res5a_branch2b_relu -> res5a_branch2b (in-place)
I0312 23:45:44.920253 14665 net.cpp:150] Setting up res5a_branch2b_relu
…
I0313 17:41:37.298462 20068 layer_factory.hpp:77] Creating layer scale4e_branch2b
I0313 17:41:37.298470 20068 net.cpp:100] Creating Layer scale4e_branch2b
I0313 17:41:37.298473 20068 net.cpp:444] scale4e_branch2b <- res4e_branch2b
I0313 17:41:37.298476 20068 net.cpp:405] scale4e_branch2b -> res4e_branch2b (in-place)
I0313 17:41:37.298507 20068 layer_factory.hpp:77] Creating layer scale4e_branch2b
I0313 17:41:37.298593 20068 net.cpp:150] Setting up scale4e_branch2b
I0313 17:41:37.298599 20068 net.cpp:157] Top shape: 1 256 14 14 (50176)
I0313 17:41:37.298600 20068 net.cpp:165] Memory required for data: 207527948
I0313 17:41:37.298605 20068 layer_factory.hpp:77] Creating layer res4e_branch2b_relu
I0313 17:41:37.298611 20068 net.cpp:100] Creating Layer res4e_branch2b_relu
I0313 17:41:37.298614 20068 net.cpp:444] res4e_branch2b_relu <- res4e_branch2b
I0313 17:41:37.298617 20068 net.cpp:405] res4e_branch2b_relu -> res4e_branch2b (in-place)
I0313 17:41:37.298622 20068 net.cpp:150] Setting up res4e_branch2b_relu
I0313 17:41:37.298625 20068 net.cpp:157] Top shape: 1 256 14 14 (50176)
I0313 17:41:37.298627 20068 net.cpp:165] Memory required for data: 207728652
I0313 17:41:37.298629 20068 layer_factory.hpp:77] Creating layer res4e_branch2c
I0313 17:41:37.298636 20068 net.cpp:100] Creating Layer res4e_branch2c
I0313 17:41:37.298640 20068 net.cpp:444] res4e_branch2c <- res4e_branch2b
I0313 17:41:37.298643 20068 net.cpp:418] res4e_branch2c -> res4e_branch2c
I0313 17:41:37.300130 20068 net.cpp:150] Setting up res4e_branch2c
I0313 17:41:37.300159 20068 net.cpp:157] Top shape: 1 1024 14 14 (200704)
I0313 17:41:37.300163 20068 net.cpp:165] Memory required for data: 208531468
I0313 17:41:37.300170 20068 layer_factory.hpp:77] Creating layer bn4e_branch2c
I0313 17:41:37.300182 20068 net.cpp:100] Creating Layer bn4e_branch2c
I0313 17:41:37.300204 20068 net.cpp:444] bn4e_branch2c <- res4e_branch2c
I0313 17:41:37.300212 20068 net.cpp:405] bn4e_branch2c -> res4e_branch2c (in-place)
I0313 17:41:37.300387 20068 net.cpp:150] Setting up bn4e_branch2c
I0313 17:41:37.300395 20068 net.cpp:157] Top shape: 1 1024 14 14 (200704)
I0313 17:41:37.300397 20068 net.cpp:165] Memory required for data: 209334284
I0313 17:41:37.300403 20068 layer_factory.hpp:77] Creating layer scale4e_branch2c
I0313 17:41:37.300411 20068 net.cpp:100] Creating Layer scale4e_branch2c
I0313 17:41:37.300415 20068 net.cpp:444] scale4e_branch2c <- res4e_branch2c
I0313 17:41:37.300434 20068 net.cpp:405] scale4e_branch2c -> res4e_branch2c (in-place)
I0313 17:41:37.300462 20068 layer_factory.hpp:77] Creating layer scale4e_branch2c
I0313 17:41:37.300563 20068 net.cpp:150] Setting up scale4e_branch2c
I0313 17:41:37.300568 20068 net.cpp:157] Top shape: 1 1024 14 14 (200704)
I0313 17:41:37.300585 20068 net.cpp:165] Memory required for data: 210137100
I0313 17:41:37.300588 20068 layer_factory.hpp:77] Creating layer res4e
I0313 17:41:37.300592 20068 net.cpp:100] Creating Layer res4e
I0313 17:41:37.300597 20068 net.cpp:444] res4e <- res4d_res4d_relu_0_split_1
I0313 17:41:37.300601 20068 net.cpp:444] res4e <- res4e_branch2c
I0313 17:41:37.300606 20068 net.cpp:418] res4e -> res4e
I0313 17:41:37.300623 20068 net.cpp:150] Setting up res4e
I0313 17:41:37.300627 20068 net.cpp:157] Top shape: 1 1024 14 14 (200704)
I0313 17:41:37.300631 20068 net.cpp:165] Memory required for data: 210939916
I0313 17:41:37.300632 20068 layer_factory.hpp:77] Creating layer res4e_relu
I0313 17:41:37.300638 20068 net.cpp:100] Creating Layer res4e_relu
I0313 17:41:37.300642 20068 net.cpp:444] res4e_relu <- res4e
I0313 17:41:37.300647 20068 net.cpp:405] res4e_relu -> res4e (in-place)
I0313 17:41:37.300650 20068 net.cpp:150] Setting up res4e_relu
I0313 17:41:37.300653 20068 net.cpp:157] Top shape: 1 1024 14 14 (200704)
I0313 17:41:37.300655 20068 net.cpp:165] Memory required for data: 211742732
I0313 17:41:37.300658 20068 layer_factory.hpp:77] Creating layer res4e_res4e_relu_0_split
I0313 17:41:37.300663 20068 net.cpp:100] Creating Layer res4e_res4e_relu_0_split
I0313 17:41:37.300665 20068 net.cpp:444] res4e_res4e_relu_0_split <- res4e
I0313 17:41:37.300669 20068 net.cpp:418] res4e_res4e_relu_0_split -> res4e_res4e_relu_0_split_0
I0313 17:41:37.300674 20068 net.cpp:418] res4e_res4e_relu_0_split -> res4e_res4e_relu_0_split_1
I0313 17:41:37.300699 20068 net.cpp:150] Setting up res4e_res4e_relu_0_split
I0313 17:41:37.300704 20068 net.cpp:157] Top shape: 1 1024 14 14 (200704)
I0313 17:41:37.300707 20068 net.cpp:157] Top shape: 1 1024 14 14 (200704)
I0313 17:41:37.300709 20068 net.cpp:165] Memory required for data: 213348364
I0313 17:41:37.300712 20068 layer_factory.hpp:77] Creating layer res4f_branch2a
I0313 17:41:37.300719 20068 net.cpp:100] Creating Layer res4f_branch2a
I0313 17:41:37.300722 20068 net.cpp:444] res4f_branch2a <- res4e_res4e_relu_0_split_0
I0313 17:41:37.300729 20068 net.cpp:418] res4f_branch2a -> res4f_branch2a
I0313 17:41:37.301003 20068 net.cpp:150] Setting up res4f_branch2a
I0313 17:41:37.301008 20068 net.cpp:157] Top shape: 1 256 14 14 (50176)
I0313 17:41:37.301012 20068 net.cpp:165] Memory required for data: 213549068
I0313 17:41:37.301015 20068 layer_factory.hpp:77] Creating layer bn4f_branch2a
I0313 17:41:37.301021 20068 net.cpp:100] Creating Layer bn4f_branch2a
I0313 17:41:37.301026 20068 net.cpp:444] bn4f_branch2a <- res4f_branch2a
I0313 17:41:37.301030 20068 net.cpp:405] bn4f_branch2a -> res4f_branch2a (in-place)
I0313 17:41:37.301179 20068 net.cpp:150] Setting up bn4f_branch2a
I0313 17:41:37.301185 20068 net.cpp:157] Top shape: 1 256 14 14 (50176)
I0313 17:41:37.301187 20068 net.cpp:165] Memory required for data: 213749772
I0313 17:41:37.301192 20068 layer_factory.hpp:77] Creating layer scale4f_branch2a
I0313 17:41:37.301198 20068 net.cpp:100] Creating Layer scale4f_branch2a
I0313 17:41:37.301200 20068 net.cpp:444] scale4f_branch2a <- res4f_branch2a
I0313 17:41:37.301205 20068 net.cpp:405] scale4f_branch2a -> res4f_branch2a (in-place)
I0313 17:41:37.301231 20068 layer_factory.hpp:77] Creating layer scale4f_branch2a
I0313 17:41:37.301313 20068 net.cpp:150] Setting up scale4f_branch2a
I0313 17:41:37.301321 20068 net.cpp:157] Top shape: 1 256 14 14 (50176)
I0313 17:41:37.301322 20068 net.cpp:165] Memory required for data: 213950476
I0313 17:41:37.301326 20068 layer_factory.hpp:77] Creating layer res4f_branch2a_relu
I0313 17:41:37.301331 20068 net.cpp:100] Creating Layer res4f_branch2a_relu
I0313 17:41:37.301334 20068 net.cpp:444] res4f_branch2a_relu <- res4f_branch2a
I0313 17:41:37.301337 20068 net.cpp:405] res4f_branch2a_relu -> res4f_branch2a (in-place)
I0313 17:41:37.301342 20068 net.cpp:150] Setting up res4f_branch2a_relu
I0313 17:41:37.301344 20068 net.cpp:157] Top shape: 1 256 14 14 (50176)
I0313 17:41:37.301347 20068 net.cpp:165] Memory required for data: 214151180
I0313 17:41:37.301349 20068 layer_factory.hpp:77] Creating layer res4f_branch2b
I0313 17:41:37.301355 20068 net.cpp:100] Creating Layer res4f_branch2b
I0313 17:41:37.301359 20068 net.cpp:444] res4f_branch2b <- res4f_branch2a
I0313 17:41:37.301364 20068 net.cpp:418] res4f_branch2b -> res4f_branch2b
I0313 17:41:37.302922 20068 net.cpp:150] Setting up res4f_branch2b
I0313 17:41:37.302935 20068 net.cpp:157] Top shape: 1 256 14 14 (50176)
I0313 17:41:37.302938 20068 net.cpp:165] Memory required for data: 214351884
I0313 17:41:37.302943 20068 layer_factory.hpp:77] Creating layer bn4f_branch2b
I0313 17:41:37.302953 20068 net.cpp:100] Creating Layer bn4f_branch2b
I0313 17:41:37.302958 20068 net.cpp:444] bn4f_branch2b <- res4f_branch2b
I0313 17:41:37.302963 20068 net.cpp:405] bn4f_branch2b -> res4f_branch2b (in-place)
I0313 17:41:37.303158 20068 net.cpp:150] Setting up bn4f_branch2b
I0313 17:41:37.303162 20068 net.cpp:157] Top shape: 1 256 14 14 (50176)
I0313 17:41:37.303164 20068 net.cpp:165] Memory required for data: 214552588
I0313 17:41:37.303169 20068 layer_factory.hpp:77] Creating layer scale4f_branch2b
I0313 17:41:37.303174 20068 net.cpp:100] Creating Layer scale4f_branch2b
I0313 17:41:37.303191 20068 net.cpp:444] scale4f_branch2b <- res4f_branch2b
I0313 17:41:37.303195 20068 net.cpp:405] scale4f_branch2b -> res4f_branch2b (in-place)
I0313 17:41:37.303222 20068 layer_factory.hpp:77] Creating layer scale4f_branch2b
I0313 17:41:37.303367 20068 net.cpp:150] Setting up scale4f_branch2b
I0313 17:41:37.303372 20068 net.cpp:157] Top shape: 1 256 14 14 (50176)
I0313 17:41:37.303375 20068 net.cpp:165] Memory required for data: 214753292
I0313 17:41:37.303378 20068 layer_factory.hpp:77] Creating layer res4f_branch2b_relu
I0313 17:41:37.303382 20068 net.cpp:100] Creating Layer res4f_branch2b_relu
I0313 17:41:37.303385 20068 net.cpp:444] res4f_branch2b_relu <- res4f_branch2b
I0313 17:41:37.303402 20068 net.cpp:405] res4f_branch2b_relu -> res4f_branch2b (in-place)
I0313 17:41:37.303407 20068 net.cpp:150] Setting up res4f_branch2b_relu
I0313 17:41:37.303411 20068 net.cpp:157] Top shape: 1 256 14 14 (50176)
I0313 17:41:37.303412 20068 net.cpp:165] Memory required for data: 214953996
I0313 17:41:37.303414 20068 layer_factory.hpp:77] Creating layer res4f_branch2c
I0313 17:41:37.303421 20068 net.cpp:100] Creating Layer res4f_branch2c
I0313 17:41:37.303423 20068 net.cpp:444] res4f_branch2c <- res4f_branch2b
I0313 17:41:37.303428 20068 net.cpp:418] res4f_branch2c -> res4f_branch2c
I0313 17:41:37.304437 20068 net.cpp:150] Setting up res4f_branch2c
I0313 17:41:37.304447 20068 net.cpp:157] Top shape: 1 1024 14 14 (200704)
I0313 17:41:37.304450 20068 net.cpp:165] Memory required for data: 215756812
I0313 17:41:37.304455 20068 layer_factory.hpp:77] Creating layer bn4f_branch2c
I0313 17:41:37.304472 20068 net.cpp:100] Creating Layer bn4f_branch2c
I0313 17:41:37.304476 20068 net.cpp:444] bn4f_branch2c <- res4f_branch2c
I0313 17:41:37.304492 20068 net.cpp:405] bn4f_branch2c -> res4f_branch2c (in-place)
I0313 17:41:37.304664 20068 net.cpp:150] Setting up bn4f_branch2c
I0313 17:41:37.304669 20068 net.cpp:157] Top shape: 1 1024 14 14 (200704)
I0313 17:41:37.304672 20068 net.cpp:165] Memory required for data: 216559628
I0313 17:41:37.304702 20068 layer_factory.hpp:77] Creating layer scale4f_branch2c
I0313 17:41:37.304708 20068 net.cpp:100] Creating Layer scale4f_branch2c
I0313 17:41:37.304710 20068 net.cpp:444] scale4f_branch2c <- res4f_branch2c
I0313 17:41:37.304714 20068 net.cpp:405] scale4f_branch2c -> res4f_branch2c (in-place)
I0313 17:41:37.304767 20068 layer_factory.hpp:77] Creating layer scale4f_branch2c
I0313 17:41:37.304889 20068 net.cpp:150] Setting up scale4f_branch2c
I0313 17:41:37.304894 20068 net.cpp:157] Top shape: 1 1024 14 14 (200704)
I0313 17:41:37.304898 20068 net.cpp:165] Memory required for data: 217362444
I0313 17:41:37.304901 20068 layer_factory.hpp:77] Creating layer res4f
I0313 17:41:37.304921 20068 net.cpp:100] Creating Layer res4f
I0313 17:41:37.304924 20068 net.cpp:444] res4f <- res4e_res4e_relu_0_split_1
I0313 17:41:37.304927 20068 net.cpp:444] res4f <- res4f_branch2c
I0313 17:41:37.304931 20068 net.cpp:418] res4f -> res4f
I0313 17:41:37.304949 20068 net.cpp:150] Setting up res4f
I0313 17:41:37.304953 20068 net.cpp:157] Top shape: 1 1024 14 14 (200704)
I0313 17:41:37.304968 20068 net.cpp:165] Memory required for data: 218165260
I0313 17:41:37.304971 20068 layer_factory.hpp:77] Creating layer res4f_relu
I0313 17:41:37.304975 20068 net.cpp:100] Creating Layer res4f_relu
I0313 17:41:37.304991 20068 net.cpp:444] res4f_relu <- res4f
I0313 17:41:37.304994 20068 net.cpp:405] res4f_relu -> res4f (in-place)
I0313 17:41:37.305013 20068 net.cpp:150] Setting up res4f_relu
I0313 17:41:37.305016 20068 net.cpp:157] Top shape: 1 1024 14 14 (200704)
I0313 17:41:37.305018 20068 net.cpp:165] Memory required for data: 218968076
I0313 17:41:37.305021 20068 layer_factory.hpp:77] Creating layer res4f_res4f_relu_0_split
I0313 17:41:37.305024 20068 net.cpp:100] Creating Layer res4f_res4f_relu_0_split
I0313 17:41:37.305027 20068 net.cpp:444] res4f_res4f_relu_0_split <- res4f
I0313 17:41:37.305032 20068 net.cpp:418] res4f_res4f_relu_0_split -> res4f_res4f_relu_0_split_0
I0313 17:41:37.305038 20068 net.cpp:418] res4f_res4f_relu_0_split -> res4f_res4f_relu_0_split_1
I0313 17:41:37.305042 20068 net.cpp:418] res4f_res4f_relu_0_split -> res4f_res4f_relu_0_split_2
I0313 17:41:37.305086 20068 net.cpp:150] Setting up res4f_res4f_relu_0_split
I0313 17:41:37.305093 20068 net.cpp:157] Top shape: 1 1024 14 14 (200704)
I0313 17:41:37.305096 20068 net.cpp:157] Top shape: 1 1024 14 14 (200704)
I0313 17:41:37.305099 20068 net.cpp:157] Top shape: 1 1024 14 14 (200704)
I0313 17:41:37.305101 20068 net.cpp:165] Memory required for data: 221376524
I0313 17:41:37.305104 20068 layer_factory.hpp:77] Creating layer res5a_branch1
I0313 17:41:37.305109 20068 net.cpp:100] Creating Layer res5a_branch1
I0313 17:41:37.305112 20068 net.cpp:444] res5a_branch1 <- res4f_res4f_relu_0_split_0
I0313 17:41:37.305116 20068 net.cpp:418] res5a_branch1 -> res5a_branch1
I0313 17:41:37.309111 20068 net.cpp:150] Setting up res5a_branch1
I0313 17:41:37.309134 20068 net.cpp:157] Top shape: 1 2048 14 14 (401408)
I0313 17:41:37.309136 20068 net.cpp:165] Memory required for data: 222982156
I0313 17:41:37.309145 20068 layer_factory.hpp:77] Creating layer bn5a_branch1
I0313 17:41:37.309156 20068 net.cpp:100] Creating Layer bn5a_branch1
I0313 17:41:37.309160 20068 net.cpp:444] bn5a_branch1 <- res5a_branch1
I0313 17:41:37.309170 20068 net.cpp:405] bn5a_branch1 -> res5a_branch1 (in-place)
I0313 17:41:37.309343 20068 net.cpp:150] Setting up bn5a_branch1
I0313 17:41:37.309350 20068 net.cpp:157] Top shape: 1 2048 14 14 (401408)
I0313 17:41:37.309352 20068 net.cpp:165] Memory required for data: 224587788
I0313 17:41:37.309357 20068 layer_factory.hpp:77] Creating layer scale5a_branch1
I0313 17:41:37.309365 20068 net.cpp:100] Creating Layer scale5a_branch1
I0313 17:41:37.309368 20068 net.cpp:444] scale5a_branch1 <- res5a_branch1
I0313 17:41:37.309372 20068 net.cpp:405] scale5a_branch1 -> res5a_branch1 (in-place)
I0313 17:41:37.309403 20068 layer_factory.hpp:77] Creating layer scale5a_branch1
I0313 17:41:37.309558 20068 net.cpp:150] Setting up scale5a_branch1
I0313 17:41:37.309563 20068 net.cpp:157] Top shape: 1 2048 14 14 (401408)
I0313 17:41:37.309566 20068 net.cpp:165] Memory required for data: 226193420
I0313 17:41:37.309571 20068 layer_factory.hpp:77] Creating layer res5a_branch2a
I0313 17:41:37.309592 20068 net.cpp:100] Creating Layer res5a_branch2a
I0313 17:41:37.309593 20068 net.cpp:444] res5a_branch2a <- res4f_res4f_relu_0_split_1
I0313 17:41:37.309598 20068 net.cpp:418] res5a_branch2a -> res5a_branch2a
I0313 17:41:37.310797 20068 net.cpp:150] Setting up res5a_branch2a
I0313 17:41:37.310808 20068 net.cpp:157] Top shape: 1 512 14 14 (100352)
I0313 17:41:37.310811 20068 net.cpp:165] Memory required for data: 226594828
I0313 17:41:37.310816 20068 layer_factory.hpp:77] Creating layer bn5a_branch2a
I0313 17:41:37.310822 20068 net.cpp:100] Creating Layer bn5a_branch2a
I0313 17:41:37.310827 20068 net.cpp:444] bn5a_branch2a <- res5a_branch2a
I0313 17:41:37.310845 20068 net.cpp:405] bn5a_branch2a -> res5a_branch2a (in-place)
I0313 17:41:37.311002 20068 net.cpp:150] Setting up bn5a_branch2a
I0313 17:41:37.311007 20068 net.cpp:157] Top shape: 1 512 14 14 (100352)
I0313 17:41:37.311009 20068 net.cpp:165] Memory required for data: 226996236
I0313 17:41:37.311014 20068 layer_factory.hpp:77] Creating layer scale5a_branch2a
I0313 17:41:37.311022 20068 net.cpp:100] Creating Layer scale5a_branch2a
I0313 17:41:37.311024 20068 net.cpp:444] scale5a_branch2a <- res5a_branch2a
I0313 17:41:37.311040 20068 net.cpp:405] scale5a_branch2a -> res5a_branch2a (in-place)
I0313 17:41:37.311079 20068 layer_factory.hpp:77] Creating layer scale5a_branch2a
I0313 17:41:37.311190 20068 net.cpp:150] Setting up scale5a_branch2a
I0313 17:41:37.311195 20068 net.cpp:157] Top shape: 1 512 14 14 (100352)
I0313 17:41:37.311197 20068 net.cpp:165] Memory required for data: 227397644
I0313 17:41:37.311202 20068 layer_factory.hpp:77] Creating layer res5a_branch2a_relu
I0313 17:41:37.311205 20068 net.cpp:100] Creating Layer res5a_branch2a_relu
I0313 17:41:37.311209 20068 net.cpp:444] res5a_branch2a_relu <- res5a_branch2a
I0313 17:41:37.311228 20068 net.cpp:405] res5a_branch2a_relu -> res5a_branch2a (in-place)
I0313 17:41:37.311233 20068 net.cpp:150] Setting up res5a_branch2a_relu
I0313 17:41:37.311237 20068 net.cpp:157] Top shape: 1 512 14 14 (100352)
I0313 17:41:37.311239 20068 net.cpp:165] Memory required for data: 227799052
I0313 17:41:37.311242 20068 layer_factory.hpp:77] Creating layer res5a_branch2b
I0313 17:41:37.311249 20068 net.cpp:100] Creating Layer res5a_branch2b
I0313 17:41:37.311251 20068 net.cpp:444] res5a_branch2b <- res5a_branch2a
I0313 17:41:37.311269 20068 net.cpp:418] res5a_branch2b -> res5a_branch2b
I0313 17:41:37.315205 20068 net.cpp:150] Setting up res5a_branch2b
I0313 17:41:37.315235 20068 net.cpp:157] Top shape: 1 512 14 14 (100352)
I0313 17:41:37.315238 20068 net.cpp:165] Memory required for data: 228200460
I0313 17:41:37.315251 20068 layer_factory.hpp:77] Creating layer bn5a_branch2b
I0313 17:41:37.315277 20068 net.cpp:100] Creating Layer bn5a_branch2b
I0313 17:41:37.315284 20068 net.cpp:444] bn5a_branch2b <- res5a_branch2b
I0313 17:41:37.315302 20068 net.cpp:405] bn5a_branch2b -> res5a_branch2b (in-place)
I0313 17:41:37.315544 20068 net.cpp:150] Setting up bn5a_branch2b
I0313 17:41:37.315551 20068 net.cpp:157] Top shape: 1 512 14 14 (100352)
I0313 17:41:37.315552 20068 net.cpp:165] Memory required for data: 228601868
I0313 17:41:37.315557 20068 layer_factory.hpp:77] Creating layer scale5a_branch2b
I0313 17:41:37.315584 20068 net.cpp:100] Creating Layer scale5a_branch2b
I0313 17:41:37.315587 20068 net.cpp:444] scale5a_branch2b <- res5a_branch2b
I0313 17:41:37.315590 20068 net.cpp:405] scale5a_branch2b -> res5a_branch2b (in-place)
I0313 17:41:37.315647 20068 layer_factory.hpp:77] Creating layer scale5a_branch2b
I0313 17:41:37.315814 20068 net.cpp:150] Setting up scale5a_branch2b
I0313 17:41:37.315819 20068 net.cpp:157] Top shape: 1 512 14 14 (100352)
I0313 17:41:37.315821 20068 net.cpp:165] Memory required for data: 229003276
I0313 17:41:37.315825 20068 layer_factory.hpp:77] Creating layer res5a_branch2b_relu
I0313 17:41:37.315830 20068 net.cpp:100] Creating Layer res5a_branch2b_relu
I0313 17:41:37.315845 20068 net.cpp:444] res5a_branch2b_relu <- res5a_branch2b
I0313 17:41:37.315848 20068 net.cpp:405] res5a_branch2b_relu -> res5a_branch2b (in-place)
I0313 17:41:37.315865 20068 net.cpp:150] Setting up res5a_branch2b_relu
I0313 17:41:37.315868 20068 net.cpp:157] Top shape: 1 512 14 14 (100352)
I0313 17:41:37.315871 20068 net.cpp:165] Memory required for data: 229404684
I0313 17:41:37.315872 20068 layer_factory.hpp:77] Creating layer res5a_branch2c
I0313 17:41:37.315894 20068 net.cpp:100] Creating Layer res5a_branch2c
I0313 17:41:37.315897 20068 net.cpp:444] res5a_branch2c <- res5a_branch2b
I0313 17:41:37.315901 20068 net.cpp:418] res5a_branch2c -> res5a_branch2c
I0313 17:41:37.317723 20068 net.cpp:150] Setting up res5a_branch2c
I0313 17:41:37.317739 20068 net.cpp:157] Top shape: 1 2048 14 14 (401408)
I0313 17:41:37.317741 20068 net.cpp:165] Memory required for data: 231010316
I0313 17:41:37.317746 20068 layer_factory.hpp:77] Creating layer bn5a_branch2c
I0313 17:41:37.317754 20068 net.cpp:100] Creating Layer bn5a_branch2c
I0313 17:41:37.317756 20068 net.cpp:444] bn5a_branch2c <- res5a_branch2c
I0313 17:41:37.317760 20068 net.cpp:405] bn5a_branch2c -> res5a_branch2c (in-place)
I0313 17:41:37.317970 20068 net.cpp:150] Setting up bn5a_branch2c
I0313 17:41:37.317975 20068 net.cpp:157] Top shape: 1 2048 14 14 (401408)
I0313 17:41:37.317977 20068 net.cpp:165] Memory required for data: 232615948
I0313 17:41:37.317982 20068 layer_factory.hpp:77] Creating layer scale5a_branch2c
I0313 17:41:37.317988 20068 net.cpp:100] Creating Layer scale5a_branch2c
I0313 17:41:37.317991 20068 net.cpp:444] scale5a_branch2c <- res5a_branch2c
I0313 17:41:37.317994 20068 net.cpp:405] scale5a_branch2c -> res5a_branch2c (in-place)
I0313 17:41:37.318020 20068 layer_factory.hpp:77] Creating layer scale5a_branch2c
I0313 17:41:37.318213 20068 net.cpp:150] Setting up scale5a_branch2c
I0313 17:41:37.318217 20068 net.cpp:157] Top shape: 1 2048 14 14 (401408)
I0313 17:41:37.318220 20068 net.cpp:165] Memory required for data: 234221580
I0313 17:41:37.318223 20068 layer_factory.hpp:77] Creating layer res5a
I0313 17:41:37.318228 20068 net.cpp:100] Creating Layer res5a
I0313 17:41:37.318230 20068 net.cpp:444] res5a <- res5a_branch1
I0313 17:41:37.318248 20068 net.cpp:444] res5a <- res5a_branch2c
I0313 17:41:37.318253 20068 net.cpp:418] res5a -> res5a
I0313 17:41:37.318284 20068 net.cpp:150] Setting up res5a
I0313 17:41:37.318289 20068 net.cpp:157] Top shape: 1 2048 14 14 (401408)
I0313 17:41:37.318305 20068 net.cpp:165] Memory required for data: 235827212
I0313 17:41:37.318307 20068 layer_factory.hpp:77] Creating layer res5a_relu
I0313 17:41:37.318312 20068 net.cpp:100] Creating Layer res5a_relu
I0313 17:41:37.318316 20068 net.cpp:444] res5a_relu <- res5a
I0313 17:41:37.318320 20068 net.cpp:405] res5a_relu -> res5a (in-place)
I0313 17:41:37.318341 20068 net.cpp:150] Setting up res5a_relu
I0313 17:41:37.318343 20068 net.cpp:157] Top shape: 1 2048 14 14 (401408)
I0313 17:41:37.318346 20068 net.cpp:165] Memory required for data: 237432844
I0313 17:41:37.318348 20068 layer_factory.hpp:77] Creating layer res5a_res5a_relu_0_split
I0313 17:41:37.318365 20068 net.cpp:100] Creating Layer res5a_res5a_relu_0_split
I0313 17:41:37.318368 20068 net.cpp:444] res5a_res5a_relu_0_split <- res5a
I0313 17:41:37.318372 20068 net.cpp:418] res5a_res5a_relu_0_split -> res5a_res5a_relu_0_split_0
I0313 17:41:37.318390 20068 net.cpp:418] res5a_res5a_relu_0_split -> res5a_res5a_relu_0_split_1
I0313 17:41:37.318418 20068 net.cpp:150] Setting up res5a_res5a_relu_0_split
I0313 17:41:37.318423 20068 net.cpp:157] Top shape: 1 2048 14 14 (401408)
I0313 17:41:37.318426 20068 net.cpp:157] Top shape: 1 2048 14 14 (401408)
I0313 17:41:37.318428 20068 net.cpp:165] Memory required for data: 240644108
I0313 17:41:37.318430 20068 layer_factory.hpp:77] Creating layer res5b_branch2a
I0313 17:41:37.318437 20068 net.cpp:100] Creating Layer res5b_branch2a
I0313 17:41:37.318440 20068 net.cpp:444] res5b_branch2a <- res5a_res5a_relu_0_split_0
I0313 17:41:37.318444 20068 net.cpp:418] res5b_branch2a -> res5b_branch2a
I0313 17:41:37.320202 20068 net.cpp:150] Setting up res5b_branch2a
I0313 17:41:37.320222 20068 net.cpp:157] Top shape: 1 512 14 14 (100352)
I0313 17:41:37.320225 20068 net.cpp:165] Memory required for data: 241045516
I0313 17:41:37.320232 20068 layer_factory.hpp:77] Creating layer bn5b_branch2a
I0313 17:41:37.320242 20068 net.cpp:100] Creating Layer bn5b_branch2a
I0313 17:41:37.320261 20068 net.cpp:444] bn5b_branch2a <- res5b_branch2a
I0313 17:41:37.320267 20068 net.cpp:405] bn5b_branch2a -> res5b_branch2a (in-place)
I0313 17:41:37.320459 20068 net.cpp:150] Setting up bn5b_branch2a
I0313 17:41:37.320464 20068 net.cpp:157] Top shape: 1 512 14 14 (100352)
I0313 17:41:37.320466 20068 net.cpp:165] Memory required for data: 241446924
I0313 17:41:37.320472 20068 layer_factory.hpp:77] Creating layer scale5b_branch2a
I0313 17:41:37.320492 20068 net.cpp:100] Creating Layer scale5b_branch2a
I0313 17:41:37.320493 20068 net.cpp:444] scale5b_branch2a <- res5b_branch2a
I0313 17:41:37.320498 20068 net.cpp:405] scale5b_branch2a -> res5b_branch2a (in-place)
I0313 17:41:37.320538 20068 layer_factory.hpp:77] Creating layer scale5b_branch2a
I0313 17:41:37.320691 20068 net.cpp:150] Setting up scale5b_branch2a
I0313 17:41:37.320698 20068 net.cpp:157] Top shape: 1 512 14 14 (100352)
I0313 17:41:37.320701 20068 net.cpp:165] Memory required for data: 241848332
I0313 17:41:37.320706 20068 layer_factory.hpp:77] Creating layer res5b_branch2a_relu
I0313 17:41:37.320711 20068 net.cpp:100] Creating Layer res5b_branch2a_relu
I0313 17:41:37.320727 20068 net.cpp:444] res5b_branch2a_relu <- res5b_branch2a
I0313 17:41:37.320730 20068 net.cpp:405] res5b_branch2a_relu -> res5b_branch2a (in-place)
I0313 17:41:37.320747 20068 net.cpp:150] Setting up res5b_branch2a_relu
I0313 17:41:37.320751 20068 net.cpp:157] Top shape: 1 512 14 14 (100352)
I0313 17:41:37.320753 20068 net.cpp:165] Memory required for data: 242249740
I0313 17:41:37.320755 20068 layer_factory.hpp:77] Creating layer res5b_branch2b
I0313 17:41:37.320762 20068 net.cpp:100] Creating Layer res5b_branch2b
I0313 17:41:37.320766 20068 net.cpp:444] res5b_branch2b <- res5b_branch2a
I0313 17:41:37.320785 20068 net.cpp:418] res5b_branch2b -> res5b_branch2b
I0313 17:41:37.324975 20068 net.cpp:150] Setting up res5b_branch2b
I0313 17:41:37.325008 20068 net.cpp:157] Top shape: 1 512 14 14 (100352)
I0313 17:41:37.325024 20068 net.cpp:165] Memory required for data: 242651148
I0313 17:41:37.325037 20068 layer_factory.hpp:77] Creating layer bn5b_branch2b
I0313 17:41:37.325094 20068 net.cpp:100] Creating Layer bn5b_branch2b
I0313 17:41:37.325100 20068 net.cpp:444] bn5b_branch2b <- res5b_branch2b
I0313 17:41:37.325107 20068 net.cpp:405] bn5b_branch2b -> res5b_branch2b (in-place)
I0313 17:41:37.325318 20068 net.cpp:150] Setting up bn5b_branch2b
I0313 17:41:37.325325 20068 net.cpp:157] Top shape: 1 512 14 14 (100352)
I0313 17:41:37.325326 20068 net.cpp:165] Memory required for data: 243052556
I0313 17:41:37.325333 20068 layer_factory.hpp:77] Creating layer scale5b_branch2b
I0313 17:41:37.325356 20068 net.cpp:100] Creating Layer scale5b_branch2b
I0313 17:41:37.325358 20068 net.cpp:444] scale5b_branch2b <- res5b_branch2b
I0313 17:41:37.325362 20068 net.cpp:405] scale5b_branch2b -> res5b_branch2b (in-place)
I0313 17:41:37.325439 20068 layer_factory.hpp:77] Creating layer scale5b_branch2b
I0313 17:41:37.325599 20068 net.cpp:150] Setting up scale5b_branch2b
I0313 17:41:37.325604 20068 net.cpp:157] Top shape: 1 512 14 14 (100352)
I0313 17:41:37.325606 20068 net.cpp:165] Memory required for data: 243453964
I0313 17:41:37.325611 20068 layer_factory.hpp:77] Creating layer res5b_branch2b_relu
I0313 17:41:37.325615 20068 net.cpp:100] Creating Layer res5b_branch2b_relu
I0313 17:41:37.325633 20068 net.cpp:444] res5b_branch2b_relu <- res5b_branch2b
I0313 17:41:37.325635 20068 net.cpp:405] res5b_branch2b_relu -> res5b_branch2b (in-place)
I0313 17:41:37.325640 20068 net.cpp:150] Setting up res5b_branch2b_relu
I0313 17:41:37.325656 20068 net.cpp:157] Top shape: 1 512 14 14 (100352)
I0313 17:41:37.325659 20068 net.cpp:165] Memory required for data: 243855372
I0313 17:41:37.325661 20068 layer_factory.hpp:77] Creating layer res5b_branch2c
I0313 17:41:37.325669 20068 net.cpp:100] Creating Layer res5b_branch2c
I0313 17:41:37.325690 20068 net.cpp:444] res5b_branch2c <- res5b_branch2b
I0313 17:41:37.325695 20068 net.cpp:418] res5b_branch2c -> res5b_branch2c
I0313 17:41:37.327955 20068 net.cpp:150] Setting up res5b_branch2c
I0313 17:41:37.328011 20068 net.cpp:157] Top shape: 1 2048 14 14 (401408)
I0313 17:41:37.328013 20068 net.cpp:165] Memory required for data: 245461004
I0313 17:41:37.328027 20068 layer_factory.hpp:77] Creating layer bn5b_branch2c
I0313 17:41:37.328048 20068 net.cpp:100] Creating Layer bn5b_branch2c
I0313 17:41:37.328055 20068 net.cpp:444] bn5b_branch2c <- res5b_branch2c
I0313 17:41:37.328063 20068 net.cpp:405] bn5b_branch2c -> res5b_branch2c (in-place)
I0313 17:41:37.328263 20068 net.cpp:150] Setting up bn5b_branch2c
I0313 17:41:37.328270 20068 net.cpp:157] Top shape: 1 2048 14 14 (401408)
I0313 17:41:37.328272 20068 net.cpp:165] Memory required for data: 247066636
I0313 17:41:37.328279 20068 layer_factory.hpp:77] Creating layer scale5b_branch2c
I0313 17:41:37.328287 20068 net.cpp:100] Creating Layer scale5b_branch2c
I0313 17:41:37.328290 20068 net.cpp:444] scale5b_branch2c <- res5b_branch2c
I0313 17:41:37.328294 20068 net.cpp:405] scale5b_branch2c -> res5b_branch2c (in-place)
I0313 17:41:37.328327 20068 layer_factory.hpp:77] Creating layer scale5b_branch2c
I0313 17:41:37.328421 20068 net.cpp:150] Setting up scale5b_branch2c
I0313 17:41:37.328428 20068 net.cpp:157] Top shape: 1 2048 14 14 (401408)
I0313 17:41:37.328430 20068 net.cpp:165] Memory required for data: 248672268
I0313 17:41:37.328434 20068 layer_factory.hpp:77] Creating layer res5b
I0313 17:41:37.328439 20068 net.cpp:100] Creating Layer res5b
I0313 17:41:37.328442 20068 net.cpp:444] res5b <- res5a_res5a_relu_0_split_1
I0313 17:41:37.328446 20068 net.cpp:444] res5b <- res5b_branch2c
I0313 17:41:37.328452 20068 net.cpp:418] res5b -> res5b
I0313 17:41:37.328471 20068 net.cpp:150] Setting up res5b
I0313 17:41:37.328477 20068 net.cpp:157] Top shape: 1 2048 14 14 (401408)
I0313 17:41:37.328480 20068 net.cpp:165] Memory required for data: 250277900
I0313 17:41:37.328482 20068 layer_factory.hpp:77] Creating layer res5b_relu
I0313 17:41:37.328487 20068 net.cpp:100] Creating Layer res5b_relu
I0313 17:41:37.328490 20068 net.cpp:444] res5b_relu <- res5b
I0313 17:41:37.328495 20068 net.cpp:405] res5b_relu -> res5b (in-place)
I0313 17:41:37.328500 20068 net.cpp:150] Setting up res5b_relu
I0313 17:41:37.328502 20068 net.cpp:157] Top shape: 1 2048 14 14 (401408)
I0313 17:41:37.328505 20068 net.cpp:165] Memory required for data: 251883532
I0313 17:41:37.328507 20068 layer_factory.hpp:77] Creating layer res5b_res5b_relu_0_split
I0313 17:41:37.328511 20068 net.cpp:100] Creating Layer res5b_res5b_relu_0_split
I0313 17:41:37.328514 20068 net.cpp:444] res5b_res5b_relu_0_split <- res5b
I0313 17:41:37.328518 20068 net.cpp:418] res5b_res5b_relu_0_split -> res5b_res5b_relu_0_split_0
I0313 17:41:37.328523 20068 net.cpp:418] res5b_res5b_relu_0_split -> res5b_res5b_relu_0_split_1
I0313 17:41:37.328549 20068 net.cpp:150] Setting up res5b_res5b_relu_0_split
I0313 17:41:37.328554 20068 net.cpp:157] Top shape: 1 2048 14 14 (401408)
I0313 17:41:37.328558 20068 net.cpp:157] Top shape: 1 2048 14 14 (401408)
I0313 17:41:37.328560 20068 net.cpp:165] Memory required for data: 255094796
I0313 17:41:37.328563 20068 layer_factory.hpp:77] Creating layer res5c_branch2a
I0313 17:41:37.328569 20068 net.cpp:100] Creating Layer res5c_branch2a
I0313 17:41:37.328573 20068 net.cpp:444] res5c_branch2a <- res5b_res5b_relu_0_split_0
I0313 17:41:37.328578 20068 net.cpp:418] res5c_branch2a -> res5c_branch2a
I0313 17:41:37.331151 20068 net.cpp:150] Setting up res5c_branch2a
I0313 17:41:37.331218 20068 net.cpp:157] Top shape: 1 512 14 14 (100352)
I0313 17:41:37.331221 20068 net.cpp:165] Memory required for data: 255496204
I0313 17:41:37.331235 20068 layer_factory.hpp:77] Creating layer bn5c_branch2a
I0313 17:41:37.331267 20068 net.cpp:100] Creating Layer bn5c_branch2a
I0313 17:41:37.331271 20068 net.cpp:444] bn5c_branch2a <- res5c_branch2a
I0313 17:41:37.331279 20068 net.cpp:405] bn5c_branch2a -> res5c_branch2a (in-place)
I0313 17:41:37.331496 20068 net.cpp:150] Setting up bn5c_branch2a
I0313 17:41:37.331503 20068 net.cpp:157] Top shape: 1 512 14 14 (100352)
I0313 17:41:37.331506 20068 net.cpp:165] Memory required for data: 255897612
I0313 17:41:37.331513 20068 layer_factory.hpp:77] Creating layer scale5c_branch2a
I0313 17:41:37.331538 20068 net.cpp:100] Creating Layer scale5c_branch2a
I0313 17:41:37.331553 20068 net.cpp:444] scale5c_branch2a <- res5c_branch2a
I0313 17:41:37.331557 20068 net.cpp:405] scale5c_branch2a -> res5c_branch2a (in-place)
I0313 17:41:37.331599 20068 layer_factory.hpp:77] Creating layer scale5c_branch2a
I0313 17:41:37.331730 20068 net.cpp:150] Setting up scale5c_branch2a
I0313 17:41:37.331735 20068 net.cpp:157] Top shape: 1 512 14 14 (100352)
I0313 17:41:37.331737 20068 net.cpp:165] Memory required for data: 256299020
I0313 17:41:37.331742 20068 layer_factory.hpp:77] Creating layer res5c_branch2a_relu
I0313 17:41:37.331760 20068 net.cpp:100] Creating Layer res5c_branch2a_relu
I0313 17:41:37.331763 20068 net.cpp:444] res5c_branch2a_relu <- res5c_branch2a
I0313 17:41:37.331782 20068 net.cpp:405] res5c_branch2a_relu -> res5c_branch2a (in-place)
I0313 17:41:37.331789 20068 net.cpp:150] Setting up res5c_branch2a_relu
I0313 17:41:37.331792 20068 net.cpp:157] Top shape: 1 512 14 14 (100352)
I0313 17:41:37.331794 20068 net.cpp:165] Memory required for data: 256700428
I0313 17:41:37.331796 20068 layer_factory.hpp:77] Creating layer res5c_branch2b
I0313 17:41:37.331817 20068 net.cpp:100] Creating Layer res5c_branch2b
I0313 17:41:37.331821 20068 net.cpp:444] res5c_branch2b <- res5c_branch2a
I0313 17:41:37.331827 20068 net.cpp:418] res5c_branch2b -> res5c_branch2b
I0313 17:41:37.336671 20068 net.cpp:150] Setting up res5c_branch2b
I0313 17:41:37.336694 20068 net.cpp:157] Top shape: 1 512 14 14 (100352)
I0313 17:41:37.336697 20068 net.cpp:165] Memory required for data: 257101836
I0313 17:41:37.336707 20068 layer_factory.hpp:77] Creating layer bn5c_branch2b
I0313 17:41:37.336731 20068 net.cpp:100] Creating Layer bn5c_branch2b
I0313 17:41:37.336737 20068 net.cpp:444] bn5c_branch2b <- res5c_branch2b
I0313 17:41:37.336746 20068 net.cpp:405] bn5c_branch2b -> res5c_branch2b (in-place)
I0313 17:41:37.336942 20068 net.cpp:150] Setting up bn5c_branch2b
I0313 17:41:37.336948 20068 net.cpp:157] Top shape: 1 512 14 14 (100352)
I0313 17:41:37.336951 20068 net.cpp:165] Memory required for data: 257503244
I0313 17:41:37.336956 20068 layer_factory.hpp:77] Creating layer scale5c_branch2b
I0313 17:41:37.336962 20068 net.cpp:100] Creating Layer scale5c_branch2b
I0313 17:41:37.336964 20068 net.cpp:444] scale5c_branch2b <- res5c_branch2b
I0313 17:41:37.336982 20068 net.cpp:405] scale5c_branch2b -> res5c_branch2b (in-place)
I0313 17:41:37.337036 20068 layer_factory.hpp:77] Creating layer scale5c_branch2b
I0313 17:41:37.337188 20068 net.cpp:150] Setting up scale5c_branch2b
I0313 17:41:37.337193 20068 net.cpp:157] Top shape: 1 512 14 14 (100352)
I0313 17:41:37.337195 20068 net.cpp:165] Memory required for data: 257904652
I0313 17:41:37.337200 20068 layer_factory.hpp:77] Creating layer res5c_branch2b_relu
I0313 17:41:37.337204 20068 net.cpp:100] Creating Layer res5c_branch2b_relu
I0313 17:41:37.337206 20068 net.cpp:444] res5c_branch2b_relu <- res5c_branch2b
I0313 17:41:37.337210 20068 net.cpp:405] res5c_branch2b_relu -> res5c_branch2b (in-place)
I0313 17:41:37.337215 20068 net.cpp:150] Setting up res5c_branch2b_relu
I0313 17:41:37.337218 20068 net.cpp:157] Top shape: 1 512 14 14 (100352)
I0313 17:41:37.337220 20068 net.cpp:165] Memory required for data: 258306060
I0313 17:41:37.337222 20068 layer_factory.hpp:77] Creating layer res5c_branch2c
I0313 17:41:37.337229 20068 net.cpp:100] Creating Layer res5c_branch2c
I0313 17:41:37.337232 20068 net.cpp:444] res5c_branch2c <- res5c_branch2b
I0313 17:41:37.337250 20068 net.cpp:418] res5c_branch2c -> res5c_branch2c
I0313 17:41:37.339010 20068 net.cpp:150] Setting up res5c_branch2c
I0313 17:41:37.339025 20068 net.cpp:157] Top shape: 1 2048 14 14 (401408)
I0313 17:41:37.339028 20068 net.cpp:165] Memory required for data: 259911692
I0313 17:41:37.339033 20068 layer_factory.hpp:77] Creating layer bn5c_branch2c
I0313 17:41:37.339041 20068 net.cpp:100] Creating Layer bn5c_branch2c
I0313 17:41:37.339046 20068 net.cpp:444] bn5c_branch2c <- res5c_branch2c
I0313 17:41:37.339049 20068 net.cpp:405] bn5c_branch2c -> res5c_branch2c (in-place)
I0313 17:41:37.339263 20068 net.cpp:150] Setting up bn5c_branch2c
I0313 17:41:37.339268 20068 net.cpp:157] Top shape: 1 2048 14 14 (401408)
I0313 17:41:37.339272 20068 net.cpp:165] Memory required for data: 261517324
I0313 17:41:37.339277 20068 layer_factory.hpp:77] Creating layer scale5c_branch2c
I0313 17:41:37.339282 20068 net.cpp:100] Creating Layer scale5c_branch2c
I0313 17:41:37.339283 20068 net.cpp:444] scale5c_branch2c <- res5c_branch2c
I0313 17:41:37.339288 20068 net.cpp:405] scale5c_branch2c -> res5c_branch2c (in-place)
I0313 17:41:37.339315 20068 layer_factory.hpp:77] Creating layer scale5c_branch2c
I0313 17:41:37.339511 20068 net.cpp:150] Setting up scale5c_branch2c
I0313 17:41:37.339530 20068 net.cpp:157] Top shape: 1 2048 14 14 (401408)
I0313 17:41:37.339534 20068 net.cpp:165] Memory required for data: 263122956
I0313 17:41:37.339538 20068 layer_factory.hpp:77] Creating layer res5c
I0313 17:41:37.339542 20068 net.cpp:100] Creating Layer res5c
I0313 17:41:37.339545 20068 net.cpp:444] res5c <- res5b_res5b_relu_0_split_1
I0313 17:41:37.339563 20068 net.cpp:444] res5c <- res5c_branch2c
I0313 17:41:37.339567 20068 net.cpp:418] res5c -> res5c
I0313 17:41:37.339599 20068 net.cpp:150] Setting up res5c
I0313 17:41:37.339617 20068 net.cpp:157] Top shape: 1 2048 14 14 (401408)
I0313 17:41:37.339619 20068 net.cpp:165] Memory required for data: 264728588
I0313 17:41:37.339622 20068 layer_factory.hpp:77] Creating layer res5c_relu
I0313 17:41:37.339639 20068 net.cpp:100] Creating Layer res5c_relu
I0313 17:41:37.339643 20068 net.cpp:444] res5c_relu <- res5c
I0313 17:41:37.339645 20068 net.cpp:405] res5c_relu -> res5c (in-place)
I0313 17:41:37.339649 20068 net.cpp:150] Setting up res5c_relu
I0313 17:41:37.339653 20068 net.cpp:157] Top shape: 1 2048 14 14 (401408)
I0313 17:41:37.339654 20068 net.cpp:165] Memory required for data: 266334220
I0313 17:41:37.339656 20068 layer_factory.hpp:77] Creating layer rpn_conv/3x3
I0313 17:41:37.339679 20068 net.cpp:100] Creating Layer rpn_conv/3x3
I0313 17:41:37.339694 20068 net.cpp:444] rpn_conv/3x3 <- res4f_res4f_relu_0_split_2
I0313 17:41:37.339697 20068 net.cpp:418] rpn_conv/3x3 -> rpn/output
I0313 17:41:37.380308 20068 net.cpp:150] Setting up rpn_conv/3x3
I0313 17:41:37.380331 20068 net.cpp:157] Top shape: 1 512 14 14 (100352)
I0313 17:41:37.380333 20068 net.cpp:165] Memory required for data: 266735628
I0313 17:41:37.380340 20068 layer_factory.hpp:77] Creating layer rpn_relu/3x3
I0313 17:41:37.380349 20068 net.cpp:100] Creating Layer rpn_relu/3x3
I0313 17:41:37.380353 20068 net.cpp:444] rpn_relu/3x3 <- rpn/output
I0313 17:41:37.380358 20068 net.cpp:405] rpn_relu/3x3 -> rpn/output (in-place)
I0313 17:41:37.380367 20068 net.cpp:150] Setting up rpn_relu/3x3
I0313 17:41:37.380369 20068 net.cpp:157] Top shape: 1 512 14 14 (100352)
I0313 17:41:37.380372 20068 net.cpp:165] Memory required for data: 267137036
I0313 17:41:37.380373 20068 layer_factory.hpp:77] Creating layer rpn/output_rpn_relu/3x3_0_split
I0313 17:41:37.380379 20068 net.cpp:100] Creating Layer rpn/output_rpn_relu/3x3_0_split
I0313 17:41:37.380396 20068 net.cpp:444] rpn/output_rpn_relu/3x3_0_split <- rpn/output
I0313 17:41:37.380399 20068 net.cpp:418] rpn/output_rpn_relu/3x3_0_split -> rpn/output_rpn_relu/3x3_0_split_0
I0313 17:41:37.380417 20068 net.cpp:418] rpn/output_rpn_relu/3x3_0_split -> rpn/output_rpn_relu/3x3_0_split_1
I0313 17:41:37.380501 20068 net.cpp:150] Setting up rpn/output_rpn_relu/3x3_0_split
I0313 17:41:37.380506 20068 net.cpp:157] Top shape: 1 512 14 14 (100352)
I0313 17:41:37.380508 20068 net.cpp:157] Top shape: 1 512 14 14 (100352)
I0313 17:41:37.380511 20068 net.cpp:165] Memory required for data: 267939852
I0313 17:41:37.380512 20068 layer_factory.hpp:77] Creating layer rpn_cls_score
I0313 17:41:37.380533 20068 net.cpp:100] Creating Layer rpn_cls_score
I0313 17:41:37.380537 20068 net.cpp:444] rpn_cls_score <- rpn/output_rpn_relu/3x3_0_split_0
I0313 17:41:37.380554 20068 net.cpp:418] rpn_cls_score -> rpn_cls_score
I0313 17:41:37.380913 20068 net.cpp:150] Setting up rpn_cls_score
I0313 17:41:37.380919 20068 net.cpp:157] Top shape: 1 32 14 14 (6272)
I0313 17:41:37.380921 20068 net.cpp:165] Memory required for data: 267964940
I0313 17:41:37.380925 20068 layer_factory.hpp:77] Creating layer rpn_bbox_pred
I0313 17:41:37.380934 20068 net.cpp:100] Creating Layer rpn_bbox_pred
I0313 17:41:37.380952 20068 net.cpp:444] rpn_bbox_pred <- rpn/output_rpn_relu/3x3_0_split_1
I0313 17:41:37.380956 20068 net.cpp:418] rpn_bbox_pred -> rpn_bbox_pred
I0313 17:41:37.381418 20068 net.cpp:150] Setting up rpn_bbox_pred
I0313 17:41:37.381423 20068 net.cpp:157] Top shape: 1 64 14 14 (12544)
I0313 17:41:37.381427 20068 net.cpp:165] Memory required for data: 268015116
I0313 17:41:37.381430 20068 layer_factory.hpp:77] Creating layer rpn_cls_score_reshape
I0313 17:41:37.381436 20068 net.cpp:100] Creating Layer rpn_cls_score_reshape
I0313 17:41:37.381439 20068 net.cpp:444] rpn_cls_score_reshape <- rpn_cls_score
I0313 17:41:37.381443 20068 net.cpp:418] rpn_cls_score_reshape -> rpn_cls_score_reshape
I0313 17:41:37.381464 20068 net.cpp:150] Setting up rpn_cls_score_reshape
I0313 17:41:37.381469 20068 net.cpp:157] Top shape: 1 2 224 14 (6272)
I0313 17:41:37.381486 20068 net.cpp:165] Memory required for data: 268040204
I0313 17:41:37.381489 20068 layer_factory.hpp:77] Creating layer rpn_cls_prob
I0313 17:41:37.381494 20068 net.cpp:100] Creating Layer rpn_cls_prob
I0313 17:41:37.381508 20068 net.cpp:444] rpn_cls_prob <- rpn_cls_score_reshape
I0313 17:41:37.381513 20068 net.cpp:418] rpn_cls_prob -> rpn_cls_prob
I0313 17:41:37.381599 20068 net.cpp:150] Setting up rpn_cls_prob
I0313 17:41:37.381604 20068 net.cpp:157] Top shape: 1 2 224 14 (6272)
I0313 17:41:37.381606 20068 net.cpp:165] Memory required for data: 268065292
I0313 17:41:37.381608 20068 layer_factory.hpp:77] Creating layer rpn_cls_prob_reshape
I0313 17:41:37.381613 20068 net.cpp:100] Creating Layer rpn_cls_prob_reshape
I0313 17:41:37.381616 20068 net.cpp:444] rpn_cls_prob_reshape <- rpn_cls_prob
I0313 17:41:37.381619 20068 net.cpp:418] rpn_cls_prob_reshape -> rpn_cls_prob_reshape
I0313 17:41:37.381636 20068 net.cpp:150] Setting up rpn_cls_prob_reshape
I0313 17:41:37.381640 20068 net.cpp:157] Top shape: 1 32 14 14 (6272)
I0313 17:41:37.381642 20068 net.cpp:165] Memory required for data: 268090380
I0313 17:41:37.381644 20068 layer_factory.hpp:77] Creating layer proposal
I0313 17:41:37.382607 20068 net.cpp:100] Creating Layer proposal
I0313 17:41:37.382616 20068 net.cpp:444] proposal <- rpn_cls_prob_reshape
I0313 17:41:37.382621 20068 net.cpp:444] proposal <- rpn_bbox_pred
I0313 17:41:37.382623 20068 net.cpp:444] proposal <- im_info
I0313 17:41:37.382627 20068 net.cpp:418] proposal -> rois
I0313 17:41:37.383198 20068 net.cpp:150] Setting up proposal
I0313 17:41:37.383206 20068 net.cpp:157] Top shape: 1 5 (5)
I0313 17:41:37.383209 20068 net.cpp:165] Memory required for data: 268090400
I0313 17:41:37.383213 20068 layer_factory.hpp:77] Creating layer rois_proposal_0_split
I0313 17:41:37.383216 20068 net.cpp:100] Creating Layer rois_proposal_0_split
I0313 17:41:37.383219 20068 net.cpp:444] rois_proposal_0_split <- rois
I0313 17:41:37.383224 20068 net.cpp:418] rois_proposal_0_split -> rois_proposal_0_split_0
I0313 17:41:37.383229 20068 net.cpp:418] rois_proposal_0_split -> rois_proposal_0_split_1
I0313 17:41:37.383272 20068 net.cpp:150] Setting up rois_proposal_0_split
I0313 17:41:37.383291 20068 net.cpp:157] Top shape: 1 5 (5)
I0313 17:41:37.383292 20068 net.cpp:157] Top shape: 1 5 (5)
I0313 17:41:37.383294 20068 net.cpp:165] Memory required for data: 268090440
I0313 17:41:37.383297 20068 layer_factory.hpp:77] Creating layer conv_new_1
I0313 17:41:37.383321 20068 net.cpp:100] Creating Layer conv_new_1
I0313 17:41:37.383323 20068 net.cpp:444] conv_new_1 <- res5c
I0313 17:41:37.383339 20068 net.cpp:418] conv_new_1 -> conv_new_1
I0313 17:41:37.402745 20068 net.cpp:150] Setting up conv_new_1
I0313 17:41:37.402765 20068 net.cpp:157] Top shape: 1 1024 14 14 (200704)
I0313 17:41:37.402767 20068 net.cpp:165] Memory required for data: 268893256
I0313 17:41:37.402776 20068 layer_factory.hpp:77] Creating layer conv_new_1_relu
I0313 17:41:37.402782 20068 net.cpp:100] Creating Layer conv_new_1_relu
I0313 17:41:37.402786 20068 net.cpp:444] conv_new_1_relu <- conv_new_1
I0313 17:41:37.402792 20068 net.cpp:405] conv_new_1_relu -> conv_new_1 (in-place)
I0313 17:41:37.402799 20068 net.cpp:150] Setting up conv_new_1_relu
I0313 17:41:37.402803 20068 net.cpp:157] Top shape: 1 1024 14 14 (200704)
I0313 17:41:37.402806 20068 net.cpp:165] Memory required for data: 269696072
I0313 17:41:37.402807 20068 layer_factory.hpp:77] Creating layer conv_new_1_conv_new_1_relu_0_split
I0313 17:41:37.402812 20068 net.cpp:100] Creating Layer conv_new_1_conv_new_1_relu_0_split
I0313 17:41:37.402813 20068 net.cpp:444] conv_new_1_conv_new_1_relu_0_split <- conv_new_1
I0313 17:41:37.402832 20068 net.cpp:418] conv_new_1_conv_new_1_relu_0_split -> conv_new_1_conv_new_1_relu_0_split_0
I0313 17:41:37.402838 20068 net.cpp:418] conv_new_1_conv_new_1_relu_0_split -> conv_new_1_conv_new_1_relu_0_split_1
I0313 17:41:37.402916 20068 net.cpp:150] Setting up conv_new_1_conv_new_1_relu_0_split
I0313 17:41:37.402921 20068 net.cpp:157] Top shape: 1 1024 14 14 (200704)
I0313 17:41:37.402925 20068 net.cpp:157] Top shape: 1 1024 14 14 (200704)
I0313 17:41:37.402926 20068 net.cpp:165] Memory required for data: 271301704
I0313 17:41:37.402928 20068 layer_factory.hpp:77] Creating layer rfcn_cls
I0313 17:41:37.402952 20068 net.cpp:100] Creating Layer rfcn_cls
I0313 17:41:37.402954 20068 net.cpp:444] rfcn_cls <- conv_new_1_conv_new_1_relu_0_split_0
I0313 17:41:37.402972 20068 net.cpp:418] rfcn_cls -> rfcn_cls
I0313 17:41:37.403935 20068 net.cpp:150] Setting up rfcn_cls
I0313 17:41:37.403941 20068 net.cpp:157] Top shape: 1 98 14 14 (19208)
I0313 17:41:37.403944 20068 net.cpp:165] Memory required for data: 271378536
I0313 17:41:37.403949 20068 layer_factory.hpp:77] Creating layer rfcn_bbox
I0313 17:41:37.403969 20068 net.cpp:100] Creating Layer rfcn_bbox
I0313 17:41:37.403971 20068 net.cpp:444] rfcn_bbox <- conv_new_1_conv_new_1_relu_0_split_1
I0313 17:41:37.403975 20068 net.cpp:418] rfcn_bbox -> rfcn_bbox
I0313 17:41:37.407819 20068 net.cpp:150] Setting up rfcn_bbox
I0313 17:41:37.407829 20068 net.cpp:157] Top shape: 1 392 14 14 (76832)
I0313 17:41:37.407832 20068 net.cpp:165] Memory required for data: 271685864
I0313 17:41:37.407837 20068 layer_factory.hpp:77] Creating layer psroipooled_cls_rois
I0313 17:41:37.407845 20068 net.cpp:100] Creating Layer psroipooled_cls_rois
I0313 17:41:37.407848 20068 net.cpp:444] psroipooled_cls_rois <- rfcn_cls
I0313 17:41:37.407851 20068 net.cpp:444] psroipooled_cls_rois <- rois_proposal_0_split_0
I0313 17:41:37.407856 20068 net.cpp:418] psroipooled_cls_rois -> psroipooled_cls_rois
I0313 17:41:37.407862 20068 psroi_pooling_layer.cpp:26] Spatial scale: 0.0625
I0313 17:41:37.407940 20068 net.cpp:150] Setting up psroipooled_cls_rois
I0313 17:41:37.407958 20068 net.cpp:157] Top shape: 1 2 7 7 (98)
I0313 17:41:37.407960 20068 net.cpp:165] Memory required for data: 271686256
I0313 17:41:37.407963 20068 layer_factory.hpp:77] Creating layer ave_cls_score_rois
I0313 17:41:37.407981 20068 net.cpp:100] Creating Layer ave_cls_score_rois
I0313 17:41:37.407984 20068 net.cpp:444] ave_cls_score_rois <- psroipooled_cls_rois
I0313 17:41:37.407987 20068 net.cpp:418] ave_cls_score_rois -> cls_score
I0313 17:41:37.408005 20068 net.cpp:150] Setting up ave_cls_score_rois
I0313 17:41:37.408023 20068 net.cpp:157] Top shape: 1 2 1 1 (2)
I0313 17:41:37.408026 20068 net.cpp:165] Memory required for data: 271686264
I0313 17:41:37.408028 20068 layer_factory.hpp:77] Creating layer psroipooled_loc_rois
I0313 17:41:37.408046 20068 net.cpp:100] Creating Layer psroipooled_loc_rois
I0313 17:41:37.408047 20068 net.cpp:444] psroipooled_loc_rois <- rfcn_bbox
I0313 17:41:37.408068 20068 net.cpp:444] psroipooled_loc_rois <- rois_proposal_0_split_1
I0313 17:41:37.408073 20068 net.cpp:418] psroipooled_loc_rois -> psroipooled_loc_rois
I0313 17:41:37.408089 20068 psroi_pooling_layer.cpp:26] Spatial scale: 0.0625
I0313 17:41:37.408129 20068 net.cpp:150] Setting up psroipooled_loc_rois
I0313 17:41:37.408148 20068 net.cpp:157] Top shape: 1 8 7 7 (392)
I0313 17:41:37.408149 20068 net.cpp:165] Memory required for data: 271687832
I0313 17:41:37.408151 20068 layer_factory.hpp:77] Creating layer ave_bbox_pred_rois
I0313 17:41:37.408170 20068 net.cpp:100] Creating Layer ave_bbox_pred_rois
I0313 17:41:37.408172 20068 net.cpp:444] ave_bbox_pred_rois <- psroipooled_loc_rois
I0313 17:41:37.408176 20068 net.cpp:418] ave_bbox_pred_rois -> bbox_pred_pre
I0313 17:41:37.408192 20068 net.cpp:150] Setting up ave_bbox_pred_rois
I0313 17:41:37.408211 20068 net.cpp:157] Top shape: 1 8 1 1 (8)
I0313 17:41:37.408215 20068 net.cpp:165] Memory required for data: 271687864
I0313 17:41:37.408216 20068 layer_factory.hpp:77] Creating layer cls_prob
I0313 17:41:37.408232 20068 net.cpp:100] Creating Layer cls_prob
I0313 17:41:37.408236 20068 net.cpp:444] cls_prob <- cls_score
I0313 17:41:37.408238 20068 net.cpp:418] cls_prob -> cls_prob_pre
I0313 17:41:37.408357 20068 net.cpp:150] Setting up cls_prob
I0313 17:41:37.408375 20068 net.cpp:157] Top shape: 1 2 1 1 (2)
I0313 17:41:37.408376 20068 net.cpp:165] Memory required for data: 271687872
I0313 17:41:37.408378 20068 layer_factory.hpp:77] Creating layer cls_prob_reshape
I0313 17:41:37.408382 20068 net.cpp:100] Creating Layer cls_prob_reshape
I0313 17:41:37.408385 20068 net.cpp:444] cls_prob_reshape <- cls_prob_pre
I0313 17:41:37.408402 20068 net.cpp:418] cls_prob_reshape -> cls_prob
I0313 17:41:37.408447 20068 net.cpp:150] Setting up cls_prob_reshape
I0313 17:41:37.408452 20068 net.cpp:157] Top shape: 1 2 (2)
I0313 17:41:37.408453 20068 net.cpp:165] Memory required for data: 271687880
I0313 17:41:37.408457 20068 layer_factory.hpp:77] Creating layer bbox_pred_reshape
I0313 17:41:37.408460 20068 net.cpp:100] Creating Layer bbox_pred_reshape
I0313 17:41:37.408463 20068 net.cpp:444] bbox_pred_reshape <- bbox_pred_pre
I0313 17:41:37.408465 20068 net.cpp:418] bbox_pred_reshape -> bbox_pred
I0313 17:41:37.408498 20068 net.cpp:150] Setting up bbox_pred_reshape
I0313 17:41:37.408501 20068 net.cpp:157] Top shape: 1 8 (8)
I0313 17:41:37.408504 20068 net.cpp:165] Memory required for data: 271687912
I0313 17:41:37.408506 20068 net.cpp:228] bbox_pred_reshape does not need backward computation.
I0313 17:41:37.408509 20068 net.cpp:228] cls_prob_reshape does not need backward computation.
I0313 17:41:37.408511 20068 net.cpp:228] cls_prob does not need backward computation.
I0313 17:41:37.408514 20068 net.cpp:228] ave_bbox_pred_rois does not need backward computation.
…
