…
snapshot: 5000
snapshot_prefix: "resnet50_rfcn_ohem"
iter_size: 4
I0113 21:58:54.011906 29995 solver.cpp:81] Creating training net from train_net file: models/pascal_voc/ResNet-50/rfcn_end2end/train_agnostic_ohem.prototxt
I0113 21:58:54.015365 29995 net.cpp:58] Initializing net from parameters: 
name: "ResNet-50"
state {
  phase: TRAIN
}
layer {
  name: "input-data"
  type: "Python"
  top: "data"
  top: "im_info"
  top: "gt_boxes"
  python_param {
    module: "roi_data_layer.layer"
    layer: "RoIDataLayer"
    param_str: "\'num_classes\': 2"
  }
}
layer {
  name: "conv1"
  type: "Convolution"
  bottom: "data"
  top: "conv1"
  param {
    lr_mult: 0
  }
  param {
    lr_mult: 0
  }
  convolution_param {
    num_output: 64
    pad: 3
    kernel_size: 7
    stride: 2
  }
}
layer {
  name: "bn_conv1"
  type: "BatchNorm"
  bottom: "conv1"
  top: "conv1"
  param {
    lr_mult: 0
    decay_mult: 0
  }
  param {
    lr_mult: 0
    decay_mult: 0
  }
  param {
    lr_mult: 0
    decay_mult: 0
  }
  batch_norm_param {
    use_global_stats: true
  }
}
layer {
  name: "scale_conv1"
  type: "Scale"
  bottom: "conv1"
  top: "conv1"
  param {
    lr_mult: 0
    decay_mult: 0
  }
  param {
    lr_mult: 0
    decay_mult: 0
  }
  scale_param {
    bias_term: true
  }
}
layer {
  name: "conv1_relu"
  type: "ReLU"
  bottom: "conv1"
  top: "conv1"
}
layer {
  name: "pool1"
  type: "Pooling"
  bottom: "conv1"
  top: "pool1"
  pooling_param {
    pool: MAX
    kernel_size: 3
    stride: 2
  }
}
layer {
  name: "res2a_branch1"
  type: "Convolution"
  bottom: "pool1"
  top: "res2a_branch1"
  param {
    lr_mult: 0
  }
  convolution_param {
    num_output: 256
    bias_term: false
    pad: 0
    kernel_size: 1
    stride: 1
  }
}
layer {
  name: "bn2a_branch1"
  type: "BatchNorm"
  bottom: "res2a_branch1"
  top: "res2a_branch1"
  param {
    lr_mult: 0
    decay_mult: 0
  }
  param {
    lr_mult: 0
    decay_mult: 0
  }
  param {
    lr_mult: 0
    decay_mult: 0
  }
  batch_norm_param {
    use_global_stats: true
  }
}
layer {
  name: "scale2a_branch1"
  type: "Scale"
  bottom: "res2a_branch1"
  top: "res2a_branch1"
  param {
    lr_mult: 0
    decay_mult: 0
  }
  param {
    lr_mult: 0
    decay_mult: 0
  }
  scale_param {
    bias_term: true
  }
}
layer {
  name: "res2a_branch2a"
  type: "Convolution"
  bottom: "pool1"
  top: "res2a_branch2a"
  param {
    lr_mult: 0
  }
  convolution_param {
    num_output: 64
    bias_term: false
    pad: 0
    kernel_size: 1
    stride: 1
  }
}
layer {
  name: "bn2a_branch2a"
  type: "BatchNorm"
  bottom: "res2a_branch2a"
  top: "res2a_branch2a"
  param {
    lr_mult: 0
    decay_mult: 0
  }
  param {
    lr_mult: 0
    decay_mult: 0
  }
  param {
    lr_mult: 0
    decay_mult: 0
  }
  batch_norm_param {
    use_global_stats: true
  }
}
layer {
  name: "scale2a_branch2a"
  type: "Scale"
  bottom: "res2a_branch2a"
  top: "res2a_branch2a"
  param {
    lr_mult: 0
    decay_mult: 0
  }
  param {
    lr_mult: 0
    decay_mult: 0
  }
  scale_param {
    bias_term: true
  }
}
layer {
  name: "res2a_branch2a_relu"
  type: "ReLU"
  bottom: "res2a_branch2a"
  top: "res2a_branch2a"
}
layer {
  name: "res2a_branch2b"
  type: "Convolution"
  bottom: "res2a_branch2a"
  top: "res2a_branch2b"
  param {
    lr_mult: 0
  }
  convolution_param {
    num_output: 64
    bias_term: false
    pad: 1
    kernel_size: 3
    stride: 1
  }
}
layer {
  name: "bn2a_branch2b"
  type: "BatchNorm"
  bottom: "res2a_branch2b"
  top: "res2a_branch2b"
  param {
    lr_mult: 0
    decay_mult: 0
  }
  param {
    lr_mult: 0
    decay_mult: 0
  }
  param {
    lr_mult: 0
    decay_mult: 0
  }
  batch_norm_param {
    use_global_stats: true
  }
}
layer {
  name: "scale2a_branch2b"
  type: "Scale"
  bottom: "res2a_branch2b"
  top: "res2a_branch2b"
  param {
    lr_mult: 0
    decay_mult: 0
  }
  param {
    lr_mult: 0
    decay_mult: 0
  }
  scale_param {
    bias_term: true
  }
}
layer {
  name: "res2a_branch2b_relu"
  type: "ReLU"
  bottom: "res2a_branch2b"
  top: "res2a_branch2b"
}
layer {
  name: "res2a_branch2c"
  type: "Convolution"
  bottom: "res2a_branch2b"
  top: "res2a_branch2c"
  param {
    lr_mult: 0
  }
  convolution_param {
    num_output: 256
    bias_term: false
    pad: 0
    kernel_size: 1
    stride: 1
  }
}
layer {
  name: "bn2a_branch2c"
  type: "BatchNorm"
  bottom: "res2a_branch2c"
  top: "res2a_branch2c"
  param {
    lr_mult: 0
    decay_mult: 0
  }
  param {
    lr_mult: 0
    decay_mult: 0
  }
  param {
    lr_mult: 0
    decay_mult: 0
  }
  batch_norm_param {
    use_global_stats: true
  }
}
layer {
  name: "scale2a_branch2c"
  type: "Scale"
  bottom: "res2a_branch2c"
  top: "res2a_branch2c"
  param {
    lr_mult: 0
    decay_mult: 0
  }
  param {
    lr_mult: 0
    decay_mult: 0
  }
  scale_param {
    bias_term: true
  }
}
layer {
  name: "res2a"
  type: "Eltwise"
  bottom: "res2a_branch1"
  bottom: "res2a_branch2c"
  top: "res2a"
}
layer {
  name: "res2a_relu"
  type: "ReLU"
  bottom: "res2a"
  top: "res2a"
}
layer {
  name: "res2b_branch2a"
  type: "Convolution"
  bottom: "res2a"
  top: "res2b_branch2a"
  param {
    lr_mult: 0
  }
  convolution_param {
    num_output: 64
    bias_term: false
    pad: 0
    kernel_size: 1
    stride: 1
  }
}
layer {
  name: "bn2b_branch2a"
  type: "BatchNorm"
  bottom: "res2b_branch2a"
  top: "res2b_branch2a"
  param {
    lr_mult: 0
    decay_mult: 0
  }
  param {
    lr_mult: 0
    decay_mult: 0
  }
  param {
    lr_mult: 0
    decay_mult: 0
  }
  batch_norm_param {
    use_global_stats: true
  }
}
layer {
  name: "scale2b_branch2a"
  type: "Scale"
  bottom: "res2b_branch2a"
  top: "res2b_branch2a"
  param {
    lr_mult: 0
    decay_mult: 0
  }
  param {
    lr_mult: 0
    decay_mult: 0
  }
  scale_param {
    bias_term: true
  }
}
layer {
  name: "res2b_branch2a_relu"
  type: "ReLU"
  bottom: "res2b_branch2a"
  top: "res2b_branch2a"
}
layer {
  name: "res2b_branch2b"
  type: "Convolution"
  bottom: "res2b_branch2a"
  top: "res2b_branch2b"
  param {
    lr_mult: 0
  }
  convolution_param {
    num_output: 64
    bias_term: false
    pad: 1
    kernel_size: 3
    stride: 1
  }
}
layer {
  name: "bn2b_branch2b"
  type: "BatchNorm"
  bottom: "res2b_branch2b"
  top: "res2b_branch2b"
  param {
    lr_mult: 0
    decay_mult: 0
  }
  param {
    lr_mult: 0
    decay_mult: 0
  }
  param {
    lr_mult: 0
    decay_mult: 0
  }
  batch_norm_param {
    use_global_stats: true
  }
}
layer {
  name: "scale2b_branch2b"
  type: "Scale"
  bottom: "res2b_branch2b"
  top: "res2b_branch2b"
  param {
    lr_mult: 0
    decay_mult: 0
  }
  param {
    lr_mult: 0
    decay_mult: 0
  }
  scale_param {
    bias_term: true
  }
}
layer {
  name: "res2b_branch2b_relu"
  type: "ReLU"
  bottom: "res2b_branch2b"
  top: "res2b_branch2b"
}
layer {
  name: "res2b_branch2c"
  type: "Convolution"
  bottom: "res2b_branch2b"
  top: "res2b_branch2c"
  param {
    lr_mult: 0
  }
  convolution_param {
    num_output: 256
    bias_term: false
    pad: 0
    kernel_size: 1
    stride: 1
  }
}
layer {
  name: "bn2b_branch2c"
  type: "BatchNorm"
  bottom: "res2b_branch2c"
  top: "res2b_branch2c"
  param {
    lr_mult: 0
    decay_mult: 0
  }
  param {
    lr_mult: 0
    decay_mult: 0
  }
  param {
    lr_mult: 0
    decay_mult: 0
  }
  batch_norm_param {
    use_global_stats: true
  }
}
layer {
  name: "scale2b_branch2c"
  type: "Scale"
  bottom: "res2b_branch2c"
  top: "res2b_branch2c"
  param {
    lr_mult: 0
    decay_mult: 0
  }
  param {
    lr_mult: 0
    decay_mult: 0
  }
  scale_param {
    bias_term: true
  }
}
layer {
  name: "res2b"
  type: "Eltwise"
  bottom: "res2a"
  bottom: "res2b_branch2c"
  top: "res2b"
}
layer {
  name: "res2b_relu"
  type: "ReLU"
  bottom: "res2b"
  top: "res2b"
}
layer {
  name: "res2c_branch2a"
  type: "Convolution"
  bottom: "res2b"
  top: "res2c_branch2a"
  param {
    lr_mult: 0
  }
  convolution_param {
    num_output: 64
    bias_term: false
    pad: 0
    kernel_size: 1
    stride: 1
  }
}
layer {
  name: "bn2c_branch2a"
  type: "BatchNorm"
  bottom: "res2c_branch2a"
  top: "res2c_branch2a"
  param {
    lr_mult: 0
    decay_mult: 0
  }
  param {
    lr_mult: 0
    decay_mult: 0
  }
  param {
    lr_mult: 0
    decay_mult: 0
  }
  batch_norm_param {
    use_global_stats: true
  }
}
layer {
  name: "scale2c_branch2a"
  type: "Scale"
  bottom: "res2c_branch2a"
  top: "res2c_branch2a"
  param {
    lr_mult: 0
    decay_mult: 0
  }
  param {
    lr_mult: 0
    decay_mult: 0
  }
  scale_param {
    bias_term: true
  }
}
layer {
  name: "res2c_branch2a_relu"
  type: "ReLU"
  bottom: "res2c_branch2a"
  top: "res2c_branch2a"
}
layer {
  name: "res2c_branch2b"
  type: "Convolution"
  bottom: "res2c_branch2a"
  top: "res2c_branch2b"
  param {
    lr_mult: 0
  }
  convolution_param {
    num_output: 64
    bias_term: false
    pad: 1
    kernel_size: 3
    stride: 1
  }
}
layer {
  name: "bn2c_branch2b"
  type: "BatchNorm"
  bottom: "res2c_branch2b"
  top: "res2c_branch2b"
  param {
    lr_mult: 0
    decay_mult: 0
  }
  param {
    lr_mult: 0
    decay_mult: 0
  }
  param {
    lr_mult: 0
    decay_mult: 0
  }
  batch_norm_param {
    use_global_stats: true
  }
}
layer {
  name: "scale2c_branch2b"
  type: "Scale"
  bottom: "res2c_branch2b"
  top: "res2c_branch2b"
  param {
    lr_mult: 0
    decay_mult: 0
  }
  param {
    lr_mult: 0
    decay_mult: 0
  }
  scale_param {
    bias_term: true
  }
}
layer {
  name: "res2c_branch2b_relu"
  type: "ReLU"
  bottom: "res2c_branch2b"
  top: "res2c_branch2b"
}
layer {
  name: "res2c_branch2c"
  type: "Convolution"
  bottom: "res2c_branch2b"
  top: "res2c_branch2c"
  param {
    lr_mult: 0
  }
  convolution_param {
    num_output: 256
    bias_term: false
    pad: 0
    kernel_size: 1
    stride: 1
  }
}
layer {
  name: "bn2c_branch2c"
  type: "BatchNorm"
  bottom: "res2c_branch2c"
  top: "res2c_branch2c"
  param {
    lr_mult: 0
    decay_mult: 0
  }
  param {
    lr_mult: 0
    decay_mult: 0
  }
  param {
    lr_mult: 0
    decay_mult: 0
  }
  batch_norm_param {
    use_global_stats: true
  }
}
layer {
  name: "scale2c_branch2c"
  type: "Scale"
  bottom: "res2c_branch2c"
  top: "res2c_branch2c"
  param {
    lr_mult: 0
    decay_mult: 0
  }
  param {
    lr_mult: 0
    decay_mult: 0
  }
  scale_param {
    bias_term: true
  }
}
layer {
  name: "res2c"
  type: "Eltwise"
  bottom: "res2b"
  bottom: "res2c_branch2c"
  top: "res2c"
}
layer {
  name: "res2c_relu"
  type: "ReLU"
  bottom: "res2c"
  top: "res2c"
}
layer {
  name: "res3a_branch1"
  type: "Convolution"
  bottom: "res2c"
  top: "res3a_branch1"
  param {
    lr_mult: 1
  }
  convolution_param {
    num_output: 512
    bias_term: false
    pad: 0
    kernel_size: 1
    stride: 2
  }
}
layer {
  name: "bn3a_branch1"
  type: "BatchNorm"
  bottom: "res3a_branch1"
  top: "res3a_branch1"
  param {
    lr_mult: 0
    decay_mult: 0
  }
  param {
    lr_mult: 0
    decay_mult: 0
  }
  param {
    lr_mult: 0
    decay_mult: 0
  }
  batch_norm_param {
    use_global_stats: true
  }
}
layer {
  name: "scale3a_branch1"
  type: "Scale"
  bottom: "res3a_branch1"
  top: "res3a_branch1"
  param {
    lr_mult: 0
    decay_mult: 0
  }
  param {
    lr_mult: 0
    decay_mult: 0
  }
  scale_param {
    bias_term: true
  }
}
layer {
  name: "res3a_branch2a"
  type: "Convolution"
  bottom: "res2c"
  top: "res3a_branch2a"
  param {
    lr_mult: 1
  }
  convolution_param {
    num_output: 128
    bias_term: false
    pad: 0
    kernel_size: 1
    stride: 2
  }
}
layer {
  name: "bn3a_branch2a"
  type: "BatchNorm"
  bottom: "res3a_branch2a"
  top: "res3a_branch2a"
  param {
    lr_mult: 0
    decay_mult: 0
  }
  param {
    lr_mult: 0
    decay_mult: 0
  }
  param {
    lr_mult: 0
    decay_mult: 0
  }
  batch_norm_param {
    use_global_stats: true
  }
}
layer {
  name: "scale3a_branch2a"
  type: "Scale"
  bottom: "res3a_branch2a"
  top: "res3a_branch2a"
  param {
    lr_mult: 0
    decay_mult: 0
  }
  param {
    lr_mult: 0
    decay_mult: 0
  }
  scale_param {
    bias_term: true
  }
}
layer {
  name: "res3a_branch2a_relu"
  type: "ReLU"
  bottom: "res3a_branch2a"
  top: "res3a_branch2a"
}
layer {
  name: "res3a_branch2b"
  type: "Convolution"
  bottom: "res3a_branch2a"
  top: "res3a_branch2b"
  param {
    lr_mult: 1
  }
  convolution_param {
    num_output: 128
    bias_term: false
    pad: 1
    kernel_size: 3
    stride: 1
  }
}
layer {
  name: "bn3a_branch2b"
  type: "BatchNorm"
  bottom: "res3a_branch2b"
  top: "res3a_branch2b"
  param {
    lr_mult: 0
    decay_mult: 0
  }
  param {
    lr_mult: 0
    decay_mult: 0
  }
  param {
    lr_mult: 0
    decay_mult: 0
  }
  batch_norm_param {
    use_global_stats: true
  }
}
layer {
  name: "scale3a_branch2b"
  type: "Scale"
  bottom: "res3a_branch2b"
  top: "res3a_branch2b"
  param {
    lr_mult: 0
    decay_mult: 0
  }
  param {
    lr_mult: 0
    decay_mult: 0
  }
  scale_param {
    bias_term: true
  }
}
layer {
  name: "res3a_branch2b_relu"
  type: "ReLU"
  bottom: "res3a_branch2b"
  top: "res3a_branch2b"
}
layer {
  name: "res3a_branch2c"
  type: "Convolution"
  bottom: "res3a_branch2b"
  top: "res3a_branch2c"
  param {
    lr_mult: 1
  }
  convolution_param {
    num_output: 512
    bias_term: false
    pad: 0
    kernel_size: 1
    stride: 1
  }
}
layer {
  name: "bn3a_branch2c"
  type: "BatchNorm"
  bottom: "res3a_branch2c"
  top: "res3a_branch2c"
  param {
    lr_mult: 0
    decay_mult: 0
  }
  param {
    lr_mult: 0
    decay_mult: 0
  }
  param {
    lr_mult: 0
    decay_mult: 0
  }
  batch_norm_param {
    use_global_stats: true
  }
}
layer {
  name: "scale3a_branch2c"
  type: "Scale"
  bottom: "res3a_branch2c"
  top: "res3a_branch2c"
  param {
    lr_mult: 0
    decay_mult: 0
  }
  param {
    lr_mult: 0
    decay_mult: 0
  }
  scale_param {
    bias_term: true
  }
}
layer {
  name: "res3a"
  type: "Eltwise"
  bottom: "res3a_branch1"
  bottom: "res3a_branch2c"
  top: "res3a"
}
layer {
  name: "res3a_relu"
  type: "ReLU"
  bottom: "res3a"
  top: "res3a"
}
layer {
  name: "res3b_branch2a"
  type: "Convolution"
  bottom: "res3a"
  top: "res3b_branch2a"
  param {
    lr_mult: 1
  }
  convolution_param {
    num_output: 128
    bias_term: false
    pad: 0
    kernel_size: 1
    stride: 1
  }
}
layer {
  name: "bn3b_branch2a"
  type: "BatchNorm"
  bottom: "res3b_branch2a"
  top: "res3b_branch2a"
  param {
    lr_mult: 0
    decay_mult: 0
  }
  param {
    lr_mult: 0
    decay_mult: 0
  }
  param {
    lr_mult: 0
    decay_mult: 0
  }
  batch_norm_param {
    use_global_stats: true
  }
}
layer {
  name: "scale3b_branch2a"
  type: "Scale"
  bottom: "res3b_branch2a"
  top: "res3b_branch2a"
  param {
    lr_mult: 0
    decay_mult: 0
  }
  param {
    lr_mult: 0
    decay_mult: 0
  }
  scale_param {
    bias_term: true
  }
}
layer {
  name: "res3b_branch2a_relu"
  type: "ReLU"
  bottom: "res3b_branch2a"
  top: "res3b_branch2a"
}
layer {
  name: "res3b_branch2b"
  type: "Convolution"
  bottom: "res3b_branch2a"
  top: "res3b_branch2b"
  param {
    lr_mult: 1
  }
  convolution_param {
    num_output: 128
    bias_term: false
    pad: 1
    kernel_size: 3
    stride: 1
  }
}
layer {
  name: "bn3b_branch2b"
  type: "BatchNorm"
  bottom: "res3b_branch2b"
  top: "res3b_branch2b"
  param {
    lr_mult: 0
    decay_mult: 0
  }
  param {
    lr_mult: 0
    decay_mult: 0
  }
  param {
    lr_mult: 0
    decay_mult: 0
  }
  batch_norm_param {
    use_global_stats: true
  }
}
layer {
  name: "scale3b_branch2b"
  type: "Scale"
  bottom: "res3b_branch2b"
  top: "res3b_branch2b"
  param {
    lr_mult: 0
    decay_mult: 0
  }
  param {
    lr_mult: 0
    decay_mult: 0
  }
  scale_param {
    bias_term: true
  }
}
layer {
  name: "res3b_branch2b_relu"
  type: "ReLU"
  bottom: "res3b_branch2b"
  top: "res3b_branch2b"
}
layer {
  name: "res3b_branch2c"
  type: "Convolution"
  bottom: "res3b_branch2b"
  top: "res3b_branch2c"
  param {
    lr_mult: 1
  }
  convolution_param {
    num_output: 512
    bias_term: false
    pad: 0
    kernel_size: 1
    stride: 1
  }
}
layer {
  name: "bn3b_branch2c"
  type: "BatchNorm"
  bottom: "res3b_branch2c"
  top: "res3b_branch2c"
  param {
    lr_mult: 0
    decay_mult: 0
  }
  param {
    lr_mult: 0
    decay_mult: 0
  }
  param {
    lr_mult: 0
    decay_mult: 0
  }
  batch_norm_param {
    use_global_stats: true
  }
}
layer {
  name: "scale3b_branch2c"
  type: "Scale"
  bottom: "res3b_branch2c"
  top: "res3b_branch2c"
  param {
    lr_mult: 0
    decay_mult: 0
  }
  param {
    lr_mult: 0
    decay_mult: 0
  }
  scale_param {
    bias_term: true
  }
}
layer {
  name: "res3b"
  type: "Eltwise"
  bottom: "res3a"
  bottom: "res3b_branch2c"
  top: "res3b"
}
layer {
  name: "res3b_relu"
  type: "ReLU"
  bottom: "res3b"
  top: "res3b"
}
layer {
  name: "res3c_branch2a"
  type: "Convolution"
  bottom: "res3b"
  top: "res3c_branch2a"
  param {
    lr_mult: 1
  }
  convolution_param {
    num_output: 128
    bias_term: false
    pad: 0
    kernel_size: 1
    stride: 1
  }
}
layer {
  name: "bn3c_branch2a"
  type: "BatchNorm"
  bottom: "res3c_branch2a"
  top: "res3c_branch2a"
  param {
    lr_mult: 0
    decay_mult: 0
  }
  param {
    lr_mult: 0
    decay_mult: 0
  }
  param {
    lr_mult: 0
    decay_mult: 0
  }
  batch_norm_param {
    use_global_stats: true
  }
}
layer {
  name: "scale3c_branch2a"
  type: "Scale"
  bottom: "res3c_branch2a"
  top: "res3c_branch2a"
  param {
    lr_mult: 0
    decay_mult: 0
  }
  param {
    lr_mult: 0
    decay_mult: 0
  }
  scale_param {
    bias_term: true
  }
}
layer {
  name: "res3c_branch2a_relu"
  type: "ReLU"
  bottom: "res3c_branch2a"
  top: "res3c_branch2a"
}
layer {
  name: "res3c_branch2b"
  type: "Convolution"
  bottom: "res3c_branch2a"
  top: "res3c_branch2b"
  param {
    lr_mult: 1
  }
  convolution_param {
    num_output: 128
    bias_term: false
    pad: 1
    kernel_size: 3
    stride: 1
  }
}
layer {
  name: "bn3c_branch2b"
  type: "BatchNorm"
  bottom: "res3c_branch2b"
  top: "res3c_branch2b"
  param {
    lr_mult: 0
    decay_mult: 0
  }
  param {
    lr_mult: 0
    decay_mult: 0
  }
  param {
    lr_mult: 0
    decay_mult: 0
  }
  batch_norm_param {
    use_global_stats: true
  }
}
layer {
  name: "scale3c_branch2b"
  type: "Scale"
  bottom: "res3c_branch2b"
  top: "res3c_branch2b"
  param {
    lr_mult: 0
    decay_mult: 0
  }
  param {
    lr_mult: 0
    decay_mult: 0
  }
  scale_param {
    bias_term: true
  }
}
layer {
  name: "res3c_branch2b_relu"
  type: "ReLU"
  bottom: "res3c_branch2b"
  top: "res3c_branch2b"
}
layer {
  name: "res3c_branch2c"
  type: "Convolution"
  bottom: "res3c_branch2b"
  top: "res3c_branch2c"
  param {
    lr_mult: 1
  }
  convolution_param {
    num_output: 512
    bias_term: false
    pad: 0
    kernel_size: 1
    stride: 1
  }
}
layer {
  name: "bn3c_branch2c"
  type: "BatchNorm"
  bottom: "res3c_branch2c"
  top: "res3c_branch2c"
  param {
    lr_mult: 0
    decay_mult: 0
  }
  param {
    lr_mult: 0
    decay_mult: 0
  }
  param {
    lr_mult: 0
    decay_mult: 0
  }
  batch_norm_param {
    use_global_stats: true
  }
}
layer {
  name: "scale3c_branch2c"
  type: "Scale"
  bottom: "res3c_branch2c"
  top: "res3c_branch2c"
  param {
    lr_mult: 0
    decay_mult: 0
  }
  param {
    lr_mult: 0
    decay_mult: 0
  }
  scale_param {
    bias_term: true
  }
}
layer {
  name: "res3c"
  type: "Eltwise"
  bottom: "res3b"
  bottom: "res3c_branch2c"
  top: "res3c"
}
layer {
  name: "res3c_relu"
  type: "ReLU"
  bottom: "res3c"
  top: "res3c"
}
layer {
  name: "res3d_branch2a"
  type: "Convolution"
  bottom: "res3c"
  top: "res3d_branch2a"
  param {
    lr_mult: 1
  }
  convolution_param {
    num_output: 128
    bias_term: false
    pad: 0
    kernel_size: 1
    stride: 1
  }
}
layer {
  name: "bn3d_branch2a"
  type: "BatchNorm"
  bottom: "res3d_branch2a"
  top: "res3d_branch2a"
  param {
    lr_mult: 0
    decay_mult: 0
  }
  param {
    lr_mult: 0
    decay_mult: 0
  }
  param {
    lr_mult: 0
    decay_mult: 0
  }
  batch_norm_param {
    use_global_stats: true
  }
}
layer {
  name: "scale3d_branch2a"
  type: "Scale"
  bottom: "res3d_branch2a"
  top: "res3d_branch2a"
  param {
    lr_mult: 0
    decay_mult: 0
  }
  param {
    lr_mult: 0
    decay_mult: 0
  }
  scale_param {
    bias_term: true
  }
}
layer {
  name: "res3d_branch2a_relu"
  type: "ReLU"
  bottom: "res3d_branch2a"
  top: "res3d_branch2a"
}
layer {
  name: "res3d_branch2b"
  type: "Convolution"
  bottom: "res3d_branch2a"
  top: "res3d_branch2b"
  param {
    lr_mult: 1
  }
  convolution_param {
    num_output: 128
    bias_term: false
    pad: 1
    kernel_size: 3
    stride: 1
  }
}
layer {
  name: "bn3d_branch2b"
  type: "BatchNorm"
  bottom: "res3d_branch2b"
  top: "res3d_branch2b"
  param {
    lr_mult: 0
    decay_mult: 0
  }
  param {
    lr_mult: 0
    decay_mult: 0
  }
  param {
    lr_mult: 0
    decay_mult: 0
  }
  batch_norm_param {
    use_global_stats: true
  }
}
layer {
  name: "scale3d_branch2b"
  type: "Scale"
  bottom: "res3d_branch2b"
  top: "res3d_branch2b"
  param {
    lr_mult: 0
    decay_mult: 0
  }
  param {
    lr_mult: 0
    decay_mult: 0
  }
  scale_param {
    bias_term: true
  }
}
layer {
  name: "res3d_branch2b_relu"
  type: "ReLU"
  bottom: "res3d_branch2b"
  top: "res3d_branch2b"
}
layer {
  name: "res3d_branch2c"
  type: "Convolution"
  bottom: "res3d_branch2b"
  top: "res3d_branch2c"
  param {
    lr_mult: 1
  }
  convolution_param {
    num_output: 512
    bias_term: false
    pad: 0
    kernel_size: 1
    stride: 1
  }
}
layer {
  name: "bn3d_branch2c"
  type: "BatchNorm"
  bottom: "res3d_branch2c"
  top: "res3d_branch2c"
  param {
    lr_mult: 0
    decay_mult: 0
  }
  param {
    lr_mult: 0
    decay_mult: 0
  }
  param {
    lr_mult: 0
    decay_mult: 0
  }
  batch_norm_param {
    use_global_stats: true
  }
}
layer {
  name: "scale3d_branch2c"
  type: "Scale"
  bottom: "res3d_branch2c"
  top: "res3d_branch2c"
  param {
    lr_mult: 0
    decay_mult: 0
  }
  param {
    lr_mult: 0
    decay_mult: 0
  }
  scale_param {
    bias_term: true
  }
}
layer {
  name: "res3d"
  type: "Eltwise"
  bottom: "res3c"
  bottom: "res3d_branch2c"
  top: "res3d"
}
layer {
  name: "res3d_relu"
  type: "ReLU"
  bottom: "res3d"
  top: "res3d"
}
layer {
  name: "res4a_branch1"
  type: "Convolution"
  bottom: "res3d"
  top: "res4a_branch1"
  param {
    lr_mult: 1
  }
  convolution_param {
    num_output: 1024
    bias_term: false
    pad: 0
    kernel_size: 1
    stride: 2
  }
}
layer {
  name: "bn4a_branch1"
  type: "BatchNorm"
  bottom: "res4a_branch1"
  top: "res4a_branch1"
  param {
    lr_mult: 0
    decay_mult: 0
  }
  param {
    lr_mult: 0
    decay_mult: 0
  }
  param {
    lr_mult: 0
    decay_mult: 0
  }
  batch_norm_param {
    use_global_stats: true
  }
}
layer {
  name: "scale4a_branch1"
  type: "Scale"
  bottom: "res4a_branch1"
  top: "res4a_branch1"
  param {
    lr_mult: 0
    decay_mult: 0
  }
  param {
    lr_mult: 0
    decay_mult: 0
  }
  scale_param {
    bias_term: true
  }
}
layer {
  name: "res4a_branch2a"
  type: "Convolution"
  bottom: "res3d"
  top: "res4a_branch2a"
  param {
    lr_mult: 1
  }
  convolution_param {
    num_output: 256
    bias_term: false
    pad: 0
    kernel_size: 1
    stride: 2
  }
}
layer {
  name: "bn4a_branch2a"
  type: "BatchNorm"
  bottom: "res4a_branch2a"
  top: "res4a_branch2a"
  param {
    lr_mult: 0
    decay_mult: 0
  }
  param {
    lr_mult: 0
    decay_mult: 0
  }
  param {
    lr_mult: 0
    decay_mult: 0
  }
  batch_norm_param {
    use_global_stats: true
  }
}
layer {
  name: "scale4a_branch2a"
  type: "Scale"
  bottom: "res4a_branch2a"
  top: "res4a_branch2a"
  param {
    lr_mult: 0
    decay_mult: 0
  }
  param {
    lr_mult: 0
    decay_mult: 0
  }
  scale_param {
    bias_term: true
  }
}
layer {
  name: "res4a_branch2a_relu"
  type: "ReLU"
  bottom: "res4a_branch2a"
  top: "res4a_branch2a"
}
layer {
  name: "res4a_branch2b"
  type: "Convolution"
  bottom: "res4a_branch2a"
  top: "res4a_branch2b"
  param {
    lr_mult: 1
  }
  convolution_param {
    num_output: 256
    bias_term: false
    pad: 1
    kernel_size: 3
    stride: 1
  }
}
layer {
  name: "bn4a_branch2b"
  type: "BatchNorm"
  bottom: "res4a_branch2b"
  top: "res4a_branch2b"
  param {
    lr_mult: 0
    decay_mult: 0
  }
  param {
    lr_mult: 0
    decay_mult: 0
  }
  param {
    lr_mult: 0
    decay_mult: 0
  }
  batch_norm_param {
    use_global_stats: true
  }
}
layer {
  name: "scale4a_branch2b"
  type: "Scale"
  bottom: "res4a_branch2b"
  top: "res4a_branch2b"
  param {
    lr_mult: 0
    decay_mult: 0
  }
  param {
    lr_mult: 0
    decay_mult: 0
  }
  scale_param {
    bias_term: true
  }
}
layer {
  name: "res4a_branch2b_relu"
  type: "ReLU"
  bottom: "res4a_branch2b"
  top: "res4a_branch2b"
}
layer {
  name: "res4a_branch2c"
  type: "Convolution"
  bottom: "res4a_branch2b"
  top: "res4a_branch2c"
  param {
    lr_mult: 1
  }
  convolution_param {
    num_output: 1024
    bias_term: false
    pad: 0
    kernel_size: 1
    stride: 1
  }
}
layer {
  name: "bn4a_branch2c"
  type: "BatchNorm"
  bottom: "res4a_branch2c"
  top: "res4a_branch2c"
  param {
    lr_mult: 0
    decay_mult: 0
  }
  param {
    lr_mult: 0
    decay_mult: 0
  }
  param {
    lr_mult: 0
    decay_mult: 0
  }
  batch_norm_param {
    use_global_stats: true
  }
}
layer {
  name: "scale4a_branch2c"
  type: "Scale"
  bottom: "res4a_branch2c"
  top: "res4a_branch2c"
  param {
    lr_mult: 0
    decay_mult: 0
  }
  param {
    lr_mult: 0
    decay_mult: 0
  }
  scale_param {
    bias_term: true
  }
}
layer {
  name: "res4a"
  type: "Eltwise"
  bottom: "res4a_branch1"
  bottom: "res4a_branch2c"
  top: "res4a"
}
layer {
  name: "res4a_relu"
  type: "ReLU"
  bottom: "res4a"
  top: "res4a"
}
layer {
  name: "res4b_branch2a"
  type: "Convolution"
  bottom: "res4a"
  top: "res4b_branch2a"
  param {
    lr_mult: 1
  }
  convolution_param {
    num_output: 256
    bias_term: false
    pad: 0
    kernel_size: 1
    stride: 1
  }
}
layer {
  name: "bn4b_branch2a"
  type: "BatchNorm"
  bottom: "res4b_branch2a"
  top: "res4b_branch2a"
  param {
    lr_mult: 0
    decay_mult: 0
  }
  param {
    lr_mult: 0
    decay_mult: 0
  }
  param {
    lr_mult: 0
    decay_mult: 0
  }
  batch_norm_param {
    use_global_stats: true
  }
}
layer {
  name: "scale4b_branch2a"
  type: "Scale"
  bottom: "res4b_branch2a"
  top: "res4b_branch2a"
  param {
    lr_mult: 0
    decay_mult: 0
  }
  param {
    lr_mult: 0
    decay_mult: 0
  }
  scale_param {
    bias_term: true
  }
}
layer {
  name: "res4b_branch2a_relu"
  type: "ReLU"
  bottom: "res4b_branch2a"
  top: "res4b_branch2a"
}
layer {
  name: "res4b_branch2b"
  type: "Convolution"
  bottom: "res4b_branch2a"
  top: "res4b_branch2b"
  param {
    lr_mult: 1
  }
  convolution_param {
    num_output: 256
    bias_term: false
    pad: 1
    kernel_size: 3
    stride: 1
  }
}
layer {
  name: "bn4b_branch2b"
  type: "BatchNorm"
  bottom: "res4b_branch2b"
  top: "res4b_branch2b"
  param {
    lr_mult: 0
    decay_mult: 0
  }
  param {
    lr_mult: 0
    decay_mult: 0
  }
  param {
    lr_mult: 0
    decay_mult: 0
  }
  batch_norm_param {
    use_global_stats: true
  }
}
layer {
  name: "scale4b_branch2b"
  type: "Scale"
  bottom: "res4b_branch2b"
  top: "res4b_branch2b"
  param {
    lr_mult: 0
    decay_mult: 0
  }
  param {
    lr_mult: 0
    decay_mult: 0
  }
  scale_param {
    bias_term: true
  }
}
layer {
  name: "res4b_branch2b_relu"
  type: "ReLU"
  bottom: "res4b_branch2b"
  top: "res4b_branch2b"
}
layer {
  name: "res4b_branch2c"
  type: "Convolution"
  bottom: "res4b_branch2b"
  top: "res4b_branch2c"
  param {
    lr_mult: 1
  }
  convolution_param {
    num_output: 1024
    bias_term: false
    pad: 0
    kernel_size: 1
    stride: 1
  }
}
layer {
  name: "bn4b_branch2c"
  type: "BatchNorm"
  bottom: "res4b_branch2c"
  top: "res4b_branch2c"
  param {
    lr_mult: 0
    decay_mult: 0
  }
  param {
    lr_mult: 0
    decay_mult: 0
  }
  param {
    lr_mult: 0
    decay_mult: 0
  }
  batch_norm_param {
    use_global_stats: true
  }
}
layer {
  name: "scale4b_branch2c"
  type: "Scale"
  bottom: "res4b_branch2c"
  top: "res4b_branch2c"
  param {
    lr_mult: 0
    decay_mult: 0
  }
  param {
    lr_mult: 0
    decay_mult: 0
  }
  scale_param {
    bias_term: true
  }
}
layer {
  name: "res4b"
  type: "Eltwise"
  bottom: "res4a"
  bottom: "res4b_branch2c"
  top: "res4b"
}
layer {
  name: "res4b_relu"
  type: "ReLU"
  bottom: "res4b"
  top: "res4b"
}
layer {
  name: "res4c_branch2a"
  type: "Convolution"
  bottom: "res4b"
  top: "res4c_branch2a"
  param {
    lr_mult: 1
  }
  convolution_param {
    num_output: 256
    bias_term: false
    pad: 0
    kernel_size: 1
    stride: 1
  }
}
layer {
  name: "bn4c_branch2a"
  type: "BatchNorm"
  bottom: "res4c_branch2a"
  top: "res4c_branch2a"
  param {
    lr_mult: 0
    decay_mult: 0
  }
  param {
    lr_mult: 0
    decay_mult: 0
  }
  param {
    lr_mult: 0
    decay_mult: 0
  }
  batch_norm_param {
    use_global_stats: true
  }
}
layer {
  name: "scale4c_branch2a"
  type: "Scale"
  bottom: "res4c_branch2a"
  top: "res4c_branch2a"
  param {
    lr_mult: 0
    decay_mult: 0
  }
  param {
    lr_mult: 0
    decay_mult: 0
  }
  scale_param {
    bias_term: true
  }
}
layer {
  name: "res4c_branch2a_relu"
  type: "ReLU"
  bottom: "res4c_branch2a"
  top: "res4c_branch2a"
}
layer {
  name: "res4c_branch2b"
  type: "Convolution"
  bottom: "res4c_branch2a"
  top: "res4c_branch2b"
  param {
    lr_mult: 1
  }
  convolution_param {
    num_output: 256
    bias_term: false
    pad: 1
    kernel_size: 3
    stride: 1
  }
}
layer {
  name: "bn4c_branch2b"
  type: "BatchNorm"
  bottom: "res4c_branch2b"
  top: "res4c_branch2b"
  param {
    lr_mult: 0
    decay_mult: 0
  }
  param {
    lr_mult: 0
    decay_mult: 0
  }
  param {
    lr_mult: 0
    decay_mult: 0
  }
  batch_norm_param {
    use_global_stats: true
  }
}
layer {
  name: "scale4c_branch2b"
  type: "Scale"
  bottom: "res4c_branch2b"
  top: "res4c_branch2b"
  param {
    lr_mult: 0
    decay_mult: 0
  }
  param {
    lr_mult: 0
    decay_mult: 0
  }
  scale_param {
    bias_term: true
  }
}
layer {
  name: "res4c_branch2b_relu"
  type: "ReLU"
  bottom: "res4c_branch2b"
  top: "res4c_
I0113 21:58:54.017513 29995 layer_factory.hpp:77] Creating layer input-data
I0113 21:58:54.443545 29995 net.cpp:100] Creating Layer input-data
I0113 21:58:54.443863 29995 net.cpp:418] input-data -> data
I0113 21:58:54.443895 29995 net.cpp:418] input-data -> im_info
I0113 21:58:54.443913 29995 net.cpp:418] input-data -> gt_boxes
RoiDataLayer: name_to_top: {'gt_boxes': 2, 'data': 0, 'im_info': 1}
I0113 21:58:58.301190 29995 net.cpp:150] Setting up input-data
I0113 21:58:59.192493 29995 net.cpp:157] Top shape: 1 3 600 1000 (1800000)
I0113 21:58:59.192590 29995 net.cpp:157] Top shape: 1 3 (3)
I0113 21:58:59.192642 29995 net.cpp:157] Top shape: 1 4 (4)
I0113 21:58:59.192675 29995 net.cpp:165] Memory required for data: 7200028
I0113 21:58:59.192773 29995 layer_factory.hpp:77] Creating layer data_input-data_0_split
I0113 21:58:59.195194 29995 net.cpp:100] Creating Layer data_input-data_0_split
I0113 21:58:59.195274 29995 net.cpp:444] data_input-data_0_split <- data
I0113 21:58:59.195324 29995 net.cpp:418] data_input-data_0_split -> data_input-data_0_split_0
I0113 21:58:59.195375 29995 net.cpp:418] data_input-data_0_split -> data_input-data_0_split_1
I0113 21:58:59.195538 29995 net.cpp:150] Setting up data_input-data_0_split
I0113 21:58:59.195582 29995 net.cpp:157] Top shape: 1 3 600 1000 (1800000)
I0113 21:58:59.195616 29995 net.cpp:157] Top shape: 1 3 600 1000 (1800000)
I0113 21:58:59.195688 29995 net.cpp:165] Memory required for data: 21600028
I0113 21:58:59.195734 29995 layer_factory.hpp:77] Creating layer im_info_input-data_1_split
I0113 21:58:59.195770 29995 net.cpp:100] Creating Layer im_info_input-data_1_split
I0113 21:58:59.195808 29995 net.cpp:444] im_info_input-data_1_split <- im_info
I0113 21:58:59.195844 29995 net.cpp:418] im_info_input-data_1_split -> im_info_input-data_1_split_0
I0113 21:58:59.195883 29995 net.cpp:418] im_info_input-data_1_split -> im_info_input-data_1_split_1
I0113 21:58:59.195997 29995 net.cpp:150] Setting up im_info_input-data_1_split
I0113 21:58:59.196034 29995 net.cpp:157] Top shape: 1 3 (3)
I0113 21:58:59.196063 29995 net.cpp:157] Top shape: 1 3 (3)
I0113 21:58:59.196089 29995 net.cpp:165] Memory required for data: 21600052
I0113 21:58:59.196113 29995 layer_factory.hpp:77] Creating layer gt_boxes_input-data_2_split
I0113 21:58:59.196146 29995 net.cpp:100] Creating Layer gt_boxes_input-data_2_split
I0113 21:58:59.196175 29995 net.cpp:444] gt_boxes_input-data_2_split <- gt_boxes
I0113 21:58:59.196216 29995 net.cpp:418] gt_boxes_input-data_2_split -> gt_boxes_input-data_2_split_0
I0113 21:58:59.196254 29995 net.cpp:418] gt_boxes_input-data_2_split -> gt_boxes_input-data_2_split_1
I0113 21:58:59.196368 29995 net.cpp:150] Setting up gt_boxes_input-data_2_split
I0113 21:58:59.196429 29995 net.cpp:157] Top shape: 1 4 (4)
I0113 21:58:59.196461 29995 net.cpp:157] Top shape: 1 4 (4)
I0113 21:58:59.196487 29995 net.cpp:165] Memory required for data: 21600084
I0113 21:58:59.196513 29995 layer_factory.hpp:77] Creating layer conv1
I0113 21:58:59.196563 29995 net.cpp:100] Creating Layer conv1
I0113 21:58:59.196591 29995 net.cpp:444] conv1 <- data_input-data_0_split_0
I0113 21:58:59.196626 29995 net.cpp:418] conv1 -> conv1
I0113 21:59:00.256299 29995 net.cpp:150] Setting up conv1
I0113 21:59:00.256376 29995 net.cpp:157] Top shape: 1 64 300 500 (9600000)
I0113 21:59:00.256382 29995 net.cpp:165] Memory required for data: 60000084
I0113 21:59:00.257442 29995 layer_factory.hpp:77] Creating layer bn_conv1
I0113 21:59:00.258051 29995 net.cpp:100] Creating Layer bn_conv1
I0113 21:59:00.258088 29995 net.cpp:444] bn_conv1 <- conv1
I0113 21:59:00.258093 29995 net.cpp:405] bn_conv1 -> conv1 (in-place)
I0113 21:59:00.258340 29995 net.cpp:150] Setting up bn_conv1
I0113 21:59:00.258347 29995 net.cpp:157] Top shape: 1 64 300 500 (9600000)
I0113 21:59:00.258348 29995 net.cpp:165] Memory required for data: 98400084
I0113 21:59:00.258357 29995 layer_factory.hpp:77] Creating layer scale_conv1
I0113 21:59:00.258361 29995 net.cpp:100] Creating Layer scale_conv1
I0113 21:59:00.258363 29995 net.cpp:444] scale_conv1 <- conv1
I0113 21:59:00.258368 29995 net.cpp:405] scale_conv1 -> conv1 (in-place)
I0113 21:59:00.258399 29995 layer_factory.hpp:77] Creating layer scale_conv1
I0113 21:59:00.259312 29995 net.cpp:150] Setting up scale_conv1
I0113 21:59:00.259323 29995 net.cpp:157] Top shape: 1 64 300 500 (9600000)
I0113 21:59:00.259326 29995 net.cpp:165] Memory required for data: 136800084
I0113 21:59:00.259332 29995 layer_factory.hpp:77] Creating layer conv1_relu
I0113 21:59:00.259342 29995 net.cpp:100] Creating Layer conv1_relu
I0113 21:59:00.259344 29995 net.cpp:444] conv1_relu <- conv1
I0113 21:59:00.259348 29995 net.cpp:405] conv1_relu -> conv1 (in-place)
I0113 21:59:00.260469 29995 net.cpp:150] Setting up conv1_relu
I0113 21:59:00.260480 29995 net.cpp:157] Top shape: 1 64 300 500 (9600000)
I0113 21:59:00.260483 29995 net.cpp:165] Memory required for data: 175200084
I0113 21:59:00.260486 29995 layer_factory.hpp:77] Creating layer pool1
I0113 21:59:00.260494 29995 net.cpp:100] Creating Layer pool1
I0113 21:59:00.260496 29995 net.cpp:444] pool1 <- conv1
I0113 21:59:00.260501 29995 net.cpp:418] pool1 -> pool1
I0113 21:59:00.260545 29995 net.cpp:150] Setting up pool1
I0113 21:59:00.260550 29995 net.cpp:157] Top shape: 1 64 150 250 (2400000)
I0113 21:59:00.260551 29995 net.cpp:165] Memory required for data: 184800084
I0113 21:59:00.260553 29995 layer_factory.hpp:77] Creating layer pool1_pool1_0_split
I0113 21:59:00.260558 29995 net.cpp:100] Creating Layer pool1_pool1_0_split
I0113 21:59:00.260560 29995 net.cpp:444] pool1_pool1_0_split <- pool1
I0113 21:59:00.260563 29995 net.cpp:418] pool1_pool1_0_split -> pool1_pool1_0_split_0
I0113 21:59:00.260567 29995 net.cpp:418] pool1_pool1_0_split -> pool1_pool1_0_split_1
I0113 21:59:00.260592 29995 net.cpp:150] Setting up pool1_pool1_0_split
I0113 21:59:00.260596 29995 net.cpp:157] Top shape: 1 64 150 250 (2400000)
I0113 21:59:00.260598 29995 net.cpp:157] Top shape: 1 64 150 250 (2400000)
I0113 21:59:00.260599 29995 net.cpp:165] Memory required for data: 204000084
I0113 21:59:00.260601 29995 layer_factory.hpp:77] Creating layer res2a_branch1
I0113 21:59:00.260609 29995 net.cpp:100] Creating Layer res2a_branch1
I0113 21:59:00.260612 29995 net.cpp:444] res2a_branch1 <- pool1_pool1_0_split_0
I0113 21:59:00.260614 29995 net.cpp:418] res2a_branch1 -> res2a_branch1
I0113 21:59:00.261198 29995 net.cpp:150] Setting up res2a_branch1
I0113 21:59:00.261207 29995 net.cpp:157] Top shape: 1 256 150 250 (9600000)
I0113 21:59:00.261209 29995 net.cpp:165] Memory required for data: 242400084
I0113 21:59:00.261214 29995 layer_factory.hpp:77] Creating layer bn2a_branch1
I0113 21:59:00.261219 29995 net.cpp:100] Creating Layer bn2a_branch1
I0113 21:59:00.261221 29995 net.cpp:444] bn2a_branch1 <- res2a_branch1
I0113 21:59:00.261224 29995 net.cpp:405] bn2a_branch1 -> res2a_branch1 (in-place)
I0113 21:59:00.262048 29995 net.cpp:150] Setting up bn2a_branch1
I0113 21:59:00.262058 29995 net.cpp:157] Top shape: 1 256 150 250 (9600000)
I0113 21:59:00.262060 29995 net.cpp:165] Memory required for data: 280800084
I0113 21:59:00.262069 29995 layer_factory.hpp:77] Creating layer scale2a_branch1
I0113 21:59:00.262075 29995 net.cpp:100] Creating Layer scale2a_branch1
I0113 21:59:00.262079 29995 net.cpp:444] scale2a_branch1 <- res2a_branch1
I0113 21:59:00.262081 29995 net.cpp:405] scale2a_branch1 -> res2a_branch1 (in-place)
I0113 21:59:00.262111 29995 layer_factory.hpp:77] Creating layer scale2a_branch1
I0113 21:59:00.262229 29995 net.cpp:150] Setting up scale2a_branch1
I0113 21:59:00.262235 29995 net.cpp:157] Top shape: 1 256 150 250 (9600000)
I0113 21:59:00.262238 29995 net.cpp:165] Memory required for data: 319200084
I0113 21:59:00.262240 29995 layer_factory.hpp:77] Creating layer res2a_branch2a
I0113 21:59:00.262246 29995 net.cpp:100] Creating Layer res2a_branch2a
I0113 21:59:00.262248 29995 net.cpp:444] res2a_branch2a <- pool1_pool1_0_split_1
I0113 21:59:00.262253 29995 net.cpp:418] res2a_branch2a -> res2a_branch2a
I0113 21:59:00.264451 29995 net.cpp:150] Setting up res2a_branch2a
I0113 21:59:00.264463 29995 net.cpp:157] Top shape: 1 64 150 250 (2400000)
I0113 21:59:00.264467 29995 net.cpp:165] Memory required for data: 328800084
I0113 21:59:00.264472 29995 layer_factory.hpp:77] Creating layer bn2a_branch2a
I0113 21:59:00.264477 29995 net.cpp:100] Creating Layer bn2a_branch2a
I0113 21:59:00.264480 29995 net.cpp:444] bn2a_branch2a <- res2a_branch2a
I0113 21:59:00.264484 29995 net.cpp:405] bn2a_branch2a -> res2a_branch2a (in-place)
I0113 21:59:00.264653 29995 net.cpp:150] Setting up bn2a_branch2a
I0113 21:59:00.264658 29995 net.cpp:157] Top shape: 1 64 150 250 (2400000)
I0113 21:59:00.264660 29995 net.cpp:165] Memory required for data: 338400084
I0113 21:59:00.264672 29995 layer_factory.hpp:77] Creating layer scale2a_branch2a
I0113 21:59:00.264677 29995 net.cpp:100] Creating Layer scale2a_branch2a
I0113 21:59:00.264679 29995 net.cpp:444] scale2a_branch2a <- res2a_branch2a
I0113 21:59:00.264683 29995 net.cpp:405] scale2a_branch2a -> res2a_branch2a (in-place)
I0113 21:59:00.264711 29995 layer_factory.hpp:77] Creating layer scale2a_branch2a
I0113 21:59:00.264834 29995 net.cpp:150] Setting up scale2a_branch2a
I0113 21:59:00.264839 29995 net.cpp:157] Top shape: 1 64 150 250 (2400000)
I0113 21:59:00.264842 29995 net.cpp:165] Memory required for data: 348000084
I0113 21:59:00.264845 29995 layer_factory.hpp:77] Creating layer res2a_branch2a_relu
I0113 21:59:00.264850 29995 net.cpp:100] Creating Layer res2a_branch2a_relu
I0113 21:59:00.264853 29995 net.cpp:444] res2a_branch2a_relu <- res2a_branch2a
I0113 21:59:00.264855 29995 net.cpp:405] res2a_branch2a_relu -> res2a_branch2a (in-place)
I0113 21:59:00.265336 29995 net.cpp:150] Setting up res2a_branch2a_relu
I0113 21:59:00.265346 29995 net.cpp:157] Top shape: 1 64 150 250 (2400000)
I0113 21:59:00.265348 29995 net.cpp:165] Memory required for data: 357600084
I0113 21:59:00.265350 29995 layer_factory.hpp:77] Creating layer res2a_branch2b
I0113 21:59:00.265357 29995 net.cpp:100] Creating Layer res2a_branch2b
I0113 21:59:00.265360 29995 net.cpp:444] res2a_branch2b <- res2a_branch2a
I0113 21:59:00.265364 29995 net.cpp:418] res2a_branch2b -> res2a_branch2b
I0113 21:59:00.266275 29995 net.cpp:150] Setting up res2a_branch2b
I0113 21:59:00.266286 29995 net.cpp:157] Top shape: 1 64 150 250 (2400000)
I0113 21:59:00.266288 29995 net.cpp:165] Memory required for data: 367200084
I0113 21:59:00.266293 29995 layer_factory.hpp:77] Creating layer bn2a_branch2b
I0113 21:59:00.266297 29995 net.cpp:100] Creating Layer bn2a_branch2b
I0113 21:59:00.266300 29995 net.cpp:444] bn2a_branch2b <- res2a_branch2b
I0113 21:59:00.266304 29995 net.cpp:405] bn2a_branch2b -> res2a_branch2b (in-place)
I0113 21:59:00.266479 29995 net.cpp:150] Setting up bn2a_branch2b
I0113 21:59:00.266484 29995 net.cpp:157] Top shape: 1 64 150 250 (2400000)
I0113 21:59:00.266485 29995 net.cpp:165] Memory required for data: 376800084
I0113 21:59:00.266490 29995 layer_factory.hpp:77] Creating layer scale2a_branch2b
I0113 21:59:00.266495 29995 net.cpp:100] Creating Layer scale2a_branch2b
I0113 21:59:00.266496 29995 net.cpp:444] scale2a_branch2b <- res2a_branch2b
I0113 21:59:00.266501 29995 net.cpp:405] scale2a_branch2b -> res2a_branch2b (in-place)
I0113 21:59:00.266527 29995 layer_factory.hpp:77] Creating layer scale2a_branch2b
I0113 21:59:00.266679 29995 net.cpp:150] Setting up scale2a_branch2b
I0113 21:59:00.266692 29995 net.cpp:157] Top shape: 1 64 150 250 (2400000)
I0113 21:59:00.266700 29995 net.cpp:165] Memory required for data: 386400084
I0113 21:59:00.266710 29995 layer_factory.hpp:77] Creating layer res2a_branch2b_relu
I0113 21:59:00.266719 29995 net.cpp:100] Creating Layer res2a_branch2b_relu
I0113 21:59:00.266727 29995 net.cpp:444] res2a_branch2b_relu <- res2a_branch2b
I0113 21:59:00.266737 29995 net.cpp:405] res2a_branch2b_relu -> res2a_branch2b (in-place)
I0113 21:59:00.267194 29995 net.cpp:150] Setting up res2a_branch2b_relu
I0113 21:59:00.267211 29995 net.cpp:157] Top shape: 1 64 150 250 (2400000)
I0113 21:59:00.267220 29995 net.cpp:165] Memory required for data: 396000084
I0113 21:59:00.267227 29995 layer_factory.hpp:77] Creating layer res2a_branch2c
I0113 21:59:00.267240 29995 net.cpp:100] Creating Layer res2a_branch2c
I0113 21:59:00.267248 29995 net.cpp:444] res2a_branch2c <- res2a_branch2b
I0113 21:59:00.267259 29995 net.cpp:418] res2a_branch2c -> res2a_branch2c
I0113 21:59:00.268225 29995 net.cpp:150] Setting up res2a_branch2c
I0113 21:59:00.268247 29995 net.cpp:157] Top shape: 1 256 150 250 (9600000)
I0113 21:59:00.268256 29995 net.cpp:165] Memory required for data: 434400084
I0113 21:59:00.268265 29995 layer_factory.hpp:77] Creating layer bn2a_branch2c
I0113 21:59:00.268280 29995 net.cpp:100] Creating Layer bn2a_branch2c
I0113 21:59:00.268288 29995 net.cpp:444] bn2a_branch2c <- res2a_branch2c
I0113 21:59:00.268298 29995 net.cpp:405] bn2a_branch2c -> res2a_branch2c (in-place)
I0113 21:59:00.268476 29995 net.cpp:150] Setting up bn2a_branch2c
I0113 21:59:00.268487 29995 net.cpp:157] Top shape: 1 256 150 250 (9600000)
I0113 21:59:00.268496 29995 net.cpp:165] Memory required for data: 472800084
I0113 21:59:00.268506 29995 layer_factory.hpp:77] Creating layer scale2a_branch2c
I0113 21:59:00.268515 29995 net.cpp:100] Creating Layer scale2a_branch2c
I0113 21:59:00.268523 29995 net.cpp:444] scale2a_branch2c <- res2a_branch2c
I0113 21:59:00.268534 29995 net.cpp:405] scale2a_branch2c -> res2a_branch2c (in-place)
I0113 21:59:00.268573 29995 layer_factory.hpp:77] Creating layer scale2a_branch2c
I0113 21:59:00.268712 29995 net.cpp:150] Setting up scale2a_branch2c
I0113 21:59:00.268724 29995 net.cpp:157] Top shape: 1 256 150 250 (9600000)
I0113 21:59:00.268733 29995 net.cpp:165] Memory required for data: 511200084
I0113 21:59:00.268743 29995 layer_factory.hpp:77] Creating layer res2a
I0113 21:59:00.269387 29995 net.cpp:100] Creating Layer res2a
I0113 21:59:00.269399 29995 net.cpp:444] res2a <- res2a_branch1
I0113 21:59:00.269408 29995 net.cpp:444] res2a <- res2a_branch2c
I0113 21:59:00.269420 29995 net.cpp:418] res2a -> res2a
I0113 21:59:00.269449 29995 net.cpp:150] Setting up res2a
I0113 21:59:00.269462 29995 net.cpp:157] Top shape: 1 256 150 250 (9600000)
I0113 21:59:00.269470 29995 net.cpp:165] Memory required for data: 549600084
I0113 21:59:00.269479 29995 layer_factory.hpp:77] Creating layer res2a_relu
I0113 21:59:00.269489 29995 net.cpp:100] Creating Layer res2a_relu
I0113 21:59:00.269496 29995 net.cpp:444] res2a_relu <- res2a
I0113 21:59:00.269505 29995 net.cpp:405] res2a_relu -> res2a (in-place)
I0113 21:59:00.269675 29995 net.cpp:150] Setting up res2a_relu
I0113 21:59:00.269690 29995 net.cpp:157] Top shape: 1 256 150 250 (9600000)
I0113 21:59:00.269697 29995 net.cpp:165] Memory required for data: 588000084
I0113 21:59:00.269706 29995 layer_factory.hpp:77] Creating layer res2a_res2a_relu_0_split
I0113 21:59:00.269722 29995 net.cpp:100] Creating Layer res2a_res2a_relu_0_split
I0113 21:59:00.269731 29995 net.cpp:444] res2a_res2a_relu_0_split <- res2a
I0113 21:59:00.269742 29995 net.cpp:418] res2a_res2a_relu_0_split -> res2a_res2a_relu_0_split_0
I0113 21:59:00.269754 29995 net.cpp:418] res2a_res2a_relu_0_split -> res2a_res2a_relu_0_split_1
I0113 21:59:00.269796 29995 net.cpp:150] Setting up res2a_res2a_relu_0_split
I0113 21:59:00.269809 29995 net.cpp:157] Top shape: 1 256 150 250 (9600000)
I0113 21:59:00.269817 29995 net.cpp:157] Top shape: 1 256 150 250 (9600000)
I0113 21:59:00.269825 29995 net.cpp:165] Memory required for data: 664800084
I0113 21:59:00.269834 29995 layer_factory.hpp:77] Creating layer res2b_branch2a
I0113 21:59:00.269846 29995 net.cpp:100] Creating Layer res2b_branch2a
I0113 21:59:00.269855 29995 net.cpp:444] res2b_branch2a <- res2a_res2a_relu_0_split_0
I0113 21:59:00.269865 29995 net.cpp:418] res2b_branch2a -> res2b_branch2a
I0113 21:59:00.271251 29995 net.cpp:150] Setting up res2b_branch2a
I0113 21:59:00.271281 29995 net.cpp:157] Top shape: 1 64 150 250 (2400000)
I0113 21:59:00.271291 29995 net.cpp:165] Memory required for data: 674400084
I0113 21:59:00.271301 29995 layer_factory.hpp:77] Creating layer bn2b_branch2a
I0113 21:59:00.271312 29995 net.cpp:100] Creating Layer bn2b_branch2a
I0113 21:59:00.271322 29995 net.cpp:444] bn2b_branch2a <- res2b_branch2a
I0113 21:59:00.271333 29995 net.cpp:405] bn2b_branch2a -> res2b_branch2a (in-place)
I0113 21:59:00.272163 29995 net.cpp:150] Setting up bn2b_branch2a
I0113 21:59:00.272186 29995 net.cpp:157] Top shape: 1 64 150 250 (2400000)
I0113 21:59:00.272194 29995 net.cpp:165] Memory required for data: 684000084
I0113 21:59:00.272210 29995 layer_factory.hpp:77] Creating layer scale2b_branch2a
I0113 21:59:00.272224 29995 net.cpp:100] Creating Layer scale2b_branch2a
I0113 21:59:00.272233 29995 net.cpp:444] scale2b_branch2a <- res2b_branch2a
I0113 21:59:00.272243 29995 net.cpp:405] scale2b_branch2a -> res2b_branch2a (in-place)
I0113 21:59:00.272291 29995 layer_factory.hpp:77] Creating layer scale2b_branch2a
I0113 21:59:00.272439 29995 net.cpp:150] Setting up scale2b_branch2a
I0113 21:59:00.272450 29995 net.cpp:157] Top shape: 1 64 150 250 (2400000)
I0113 21:59:00.272459 29995 net.cpp:165] Memory required for data: 693600084
I0113 21:59:00.272467 29995 layer_factory.hpp:77] Creating layer res2b_branch2a_relu
I0113 21:59:00.272476 29995 net.cpp:100] Creating Layer res2b_branch2a_relu
I0113 21:59:00.272485 29995 net.cpp:444] res2b_branch2a_relu <- res2b_branch2a
I0113 21:59:00.272495 29995 net.cpp:405] res2b_branch2a_relu -> res2b_branch2a (in-place)
I0113 21:59:00.272670 29995 net.cpp:150] Setting up res2b_branch2a_relu
I0113 21:59:00.272683 29995 net.cpp:157] Top shape: 1 64 150 250 (2400000)
I0113 21:59:00.272691 29995 net.cpp:165] Memory required for data: 703200084
I0113 21:59:00.272698 29995 layer_factory.hpp:77] Creating layer res2b_branch2b
I0113 21:59:00.272711 29995 net.cpp:100] Creating Layer res2b_branch2b
I0113 21:59:00.272719 29995 net.cpp:444] res2b_branch2b <- res2b_branch2a
I0113 21:59:00.272730 29995 net.cpp:418] res2b_branch2b -> res2b_branch2b
I0113 21:59:00.273840 29995 net.cpp:150] Setting up res2b_branch2b
I0113 21:59:00.273860 29995 net.cpp:157] Top shape: 1 64 150 250 (2400000)
I0113 21:59:00.273869 29995 net.cpp:165] Memory required for data: 712800084
I0113 21:59:00.273878 29995 layer_factory.hpp:77] Creating layer bn2b_branch2b
I0113 21:59:00.273895 29995 net.cpp:100] Creating Layer bn2b_branch2b
I0113 21:59:00.273905 29995 net.cpp:444] bn2b_branch2b <- res2b_branch2b
I0113 21:59:00.273914 29995 net.cpp:405] bn2b_branch2b -> res2b_branch2b (in-place)
I0113 21:59:00.274102 29995 net.cpp:150] Setting up bn2b_branch2b
I0113 21:59:00.274116 29995 net.cpp:157] Top shape: 1 64 150 250 (2400000)
I0113 21:59:00.274122 29995 net.cpp:165] Memory required for data: 722400084
I0113 21:59:00.274133 29995 layer_factory.hpp:77] Creating layer scale2b_branch2b
I0113 21:59:00.274145 29995 net.cpp:100] Creating Layer scale2b_branch2b
I0113 21:59:00.274153 29995 net.cpp:444] scale2b_branch2b <- res2b_branch2b
I0113 21:59:00.274173 29995 net.cpp:405] scale2b_branch2b -> res2b_branch2b (in-place)
I0113 21:59:00.274214 29995 layer_factory.hpp:77] Creating layer scale2b_branch2b
I0113 21:59:00.274359 29995 net.cpp:150] Setting up scale2b_branch2b
I0113 21:59:00.274371 29995 net.cpp:157] Top shape: 1 64 150 250 (2400000)
I0113 21:59:00.274379 29995 net.cpp:165] Memory required for data: 732000084
I0113 21:59:00.274389 29995 layer_factory.hpp:77] Creating layer res2b_branch2b_relu
I0113 21:59:00.274399 29995 net.cpp:100] Creating Layer res2b_branch2b_relu
I0113 21:59:00.274408 29995 net.cpp:444] res2b_branch2b_relu <- res2b_branch2b
I0113 21:59:00.274418 29995 net.cpp:405] res2b_branch2b_relu -> res2b_branch2b (in-place)
I0113 21:59:00.274572 29995 net.cpp:150] Setting up res2b_branch2b_relu
I0113 21:59:00.274586 29995 net.cpp:157] Top shape: 1 64 150 250 (2400000)
I0113 21:59:00.274595 29995 net.cpp:165] Memory required for data: 741600084
I0113 21:59:00.274602 29995 layer_factory.hpp:77] Creating layer res2b_branch2c
I0113 21:59:00.274616 29995 net.cpp:100] Creating Layer res2b_branch2c
I0113 21:59:00.274624 29995 net.cpp:444] res2b_branch2c <- res2b_branch2b
I0113 21:59:00.274636 29995 net.cpp:418] res2b_branch2c -> res2b_branch2c
I0113 21:59:00.275904 29995 net.cpp:150] Setting up res2b_branch2c
I0113 21:59:00.275924 29995 net.cpp:157] Top shape: 1 256 150 250 (9600000)
I0113 21:59:00.275933 29995 net.cpp:165] Memory required for data: 780000084
I0113 21:59:00.275943 29995 layer_factory.hpp:77] Creating layer bn2b_branch2c
I0113 21:59:00.275955 29995 net.cpp:100] Creating Layer bn2b_branch2c
I0113 21:59:00.275964 29995 net.cpp:444] bn2b_branch2c <- res2b_branch2c
I0113 21:59:00.275974 29995 net.cpp:405] bn2b_branch2c -> res2b_branch2c (in-place)
I0113 21:59:00.276175 29995 net.cpp:150] Setting up bn2b_branch2c
I0113 21:59:00.276188 29995 net.cpp:157] Top shape: 1 256 150 250 (9600000)
I0113 21:59:00.276196 29995 net.cpp:165] Memory required for data: 818400084
I0113 21:59:00.276206 29995 layer_factory.hpp:77] Creating layer scale2b_branch2c
I0113 21:59:00.276216 29995 net.cpp:100] Creating Layer scale2b_branch2c
I0113 21:59:00.276228 29995 net.cpp:444] scale2b_branch2c <- res2b_branch2c
I0113 21:59:00.276239 29995 net.cpp:405] scale2b_branch2c -> res2b_branch2c (in-place)
I0113 21:59:00.276278 29995 layer_factory.hpp:77] Creating layer scale2b_branch2c
I0113 21:59:00.276414 29995 net.cpp:150] Setting up scale2b_branch2c
I0113 21:59:00.276427 29995 net.cpp:157] Top shape: 1 256 150 250 (9600000)
I0113 21:59:00.276434 29995 net.cpp:165] Memory required for data: 856800084
I0113 21:59:00.276443 29995 layer_factory.hpp:77] Creating layer res2b
I0113 21:59:00.276453 29995 net.cpp:100] Creating Layer res2b
I0113 21:59:00.276460 29995 net.cpp:444] res2b <- res2a_res2a_relu_0_split_1
I0113 21:59:00.276468 29995 net.cpp:444] res2b <- res2b_branch2c
I0113 21:59:00.276477 29995 net.cpp:418] res2b -> res2b
I0113 21:59:00.276506 29995 net.cpp:150] Setting up res2b
I0113 21:59:00.276517 29995 net.cpp:157] Top shape: 1 256 150 250 (9600000)
I0113 21:59:00.276525 29995 net.cpp:165] Memory required for data: 895200084
I0113 21:59:00.276531 29995 layer_factory.hpp:77] Creating layer res2b_relu
I0113 21:59:00.276541 29995 net.cpp:100] Creating Layer res2b_relu
I0113 21:59:00.276549 29995 net.cpp:444] res2b_relu <- res2b
I0113 21:59:00.276557 29995 net.cpp:405] res2b_relu -> res2b (in-place)
I0113 21:59:00.276720 29995 net.cpp:150] Setting up res2b_relu
I0113 21:59:00.276734 29995 net.cpp:157] Top shape: 1 256 150 250 (9600000)
I0113 21:59:00.276743 29995 net.cpp:165] Memory required for data: 933600084
I0113 21:59:00.276751 29995 layer_factory.hpp:77] Creating layer res2b_res2b_relu_0_split
I0113 21:59:00.276762 29995 net.cpp:100] Creating Layer res2b_res2b_relu_0_split
I0113 21:59:00.276769 29995 net.cpp:444] res2b_res2b_relu_0_split <- res2b
I0113 21:59:00.276780 29995 net.cpp:418] res2b_res2b_relu_0_split -> res2b_res2b_relu_0_split_0
I0113 21:59:00.276793 29995 net.cpp:418] res2b_res2b_relu_0_split -> res2b_res2b_relu_0_split_1
I0113 21:59:00.276839 29995 net.cpp:150] Setting up res2b_res2b_relu_0_split
I0113 21:59:00.276850 29995 net.cpp:157] Top shape: 1 256 150 250 (9600000)
I0113 21:59:00.276860 29995 net.cpp:157] Top shape: 1 256 150 250 (9600000)
I0113 21:59:00.276867 29995 net.cpp:165] Memory required for data: 1010400084
I0113 21:59:00.276875 29995 layer_factory.hpp:77] Creating layer res2c_branch2a
I0113 21:59:00.276890 29995 net.cpp:100] Creating Layer res2c_branch2a
I0113 21:59:00.276898 29995 net.cpp:444] res2c_branch2a <- res2b_res2b_relu_0_split_0
I0113 21:59:00.276908 29995 net.cpp:418] res2c_branch2a -> res2c_branch2a
I0113 21:59:00.277824 29995 net.cpp:150] Setting up res2c_branch2a
I0113 21:59:00.277842 29995 net.cpp:157] Top shape: 1 64 150 250 (2400000)
I0113 21:59:00.277850 29995 net.cpp:165] Memory required for data: 1020000084
I0113 21:59:00.277859 29995 layer_factory.hpp:77] Creating layer bn2c_branch2a
I0113 21:59:00.277870 29995 net.cpp:100] Creating Layer bn2c_branch2a
I0113 21:59:00.277878 29995 net.cpp:444] bn2c_branch2a <- res2c_branch2a
I0113 21:59:00.277887 29995 net.cpp:405] bn2c_branch2a -> res2c_branch2a (in-place)
I0113 21:59:00.278056 29995 net.cpp:150] Setting up bn2c_branch2a
I0113 21:59:00.278066 29995 net.cpp:157] Top shape: 1 64 150 250 (2400000)
I0113 21:59:00.278074 29995 net.cpp:165] Memory required for data: 1029600084
I0113 21:59:00.278084 29995 layer_factory.hpp:77] Creating layer scale2c_branch2a
I0113 21:59:00.278093 29995 net.cpp:100] Creating Layer scale2c_branch2a
I0113 21:59:00.278100 29995 net.cpp:444] scale2c_branch2a <- res2c_branch2a
I0113 21:59:00.278108 29995 net.cpp:405] scale2c_branch2a -> res2c_branch2a (in-place)
I0113 21:59:00.278146 29995 layer_factory.hpp:77] Creating layer scale2c_branch2a
I0113 21:59:00.278273 29995 net.cpp:150] Setting up scale2c_branch2a
I0113 21:59:00.278285 29995 net.cpp:157] Top shape: 1 64 150 250 (2400000)
I0113 21:59:00.278290 29995 net.cpp:165] Memory required for data: 1039200084
I0113 21:59:00.278298 29995 layer_factory.hpp:77] Creating layer res2c_branch2a_relu
I0113 21:59:00.278306 29995 net.cpp:100] Creating Layer res2c_branch2a_relu
I0113 21:59:00.278313 29995 net.cpp:444] res2c_branch2a_relu <- res2c_branch2a
I0113 21:59:00.278322 29995 net.cpp:405] res2c_branch2a_relu -> res2c_branch2a (in-place)
I0113 21:59:00.278738 29995 net.cpp:150] Setting up res2c_branch2a_relu
I0113 21:59:00.278754 29995 net.cpp:157] Top shape: 1 64 150 250 (2400000)
I0113 21:59:00.278761 29995 net.cpp:165] Memory required for data: 1048800084
I0113 21:59:00.278769 29995 layer_factory.hpp:77] Creating layer res2c_branch2b
I0113 21:59:00.278779 29995 net.cpp:100] Creating Layer res2c_branch2b
I0113 21:59:00.278786 29995 net.cpp:444] res2c_branch2b <- res2c_branch2a
I0113 21:59:00.278797 29995 net.cpp:418] res2c_branch2b -> res2c_branch2b
I0113 21:59:00.279683 29995 net.cpp:150] Setting up res2c_branch2b
I0113 21:59:00.279713 29995 net.cpp:157] Top shape: 1 64 150 250 (2400000)
I0113 21:59:00.279721 29995 net.cpp:165] Memory required for data: 1058400084
I0113 21:59:00.279743 29995 layer_factory.hpp:77] Creating layer bn2c_branch2b
I0113 21:59:00.279767 29995 net.cpp:100] Creating Layer bn2c_branch2b
I0113 21:59:00.279777 29995 net.cpp:444] bn2c_branch2b <- res2c_branch2b
I0113 21:59:00.279786 29995 net.cpp:405] bn2c_branch2b -> res2c_branch2b (in-place)
I0113 21:59:00.280505 29995 net.cpp:150] Setting up bn2c_branch2b
I0113 21:59:00.280522 29995 net.cpp:157] Top shape: 1 64 150 250 (2400000)
I0113 21:59:00.280530 29995 net.cpp:165] Memory required for data: 1068000084
I0113 21:59:00.280540 29995 layer_factory.hpp:77] Creating layer scale2c_branch2b
I0113 21:59:00.280551 29995 net.cpp:100] Creating Layer scale2c_branch2b
I0113 21:59:00.280575 29995 net.cpp:444] scale2c_branch2b <- res2c_branch2b
I0113 21:59:00.280598 29995 net.cpp:405] scale2c_branch2b -> res2c_branch2b (in-place)
I0113 21:59:00.280639 29995 layer_factory.hpp:77] Creating layer scale2c_branch2b
I0113 21:59:00.280771 29995 net.cpp:150] Setting up scale2c_branch2b
I0113 21:59:00.280788 29995 net.cpp:157] Top shape: 1 64 150 250 (2400000)
I0113 21:59:00.280795 29995 net.cpp:165] Memory required for data: 1077600084
I0113 21:59:00.280803 29995 layer_factory.hpp:77] Creating layer res2c_branch2b_relu
I0113 21:59:00.280812 29995 net.cpp:100] Creating Layer res2c_branch2b_relu
I0113 21:59:00.280820 29995 net.cpp:444] res2c_branch2b_relu <- res2c_branch2b
I0113 21:59:00.280829 29995 net.cpp:405] res2c_branch2b_relu -> res2c_branch2b (in-place)
I0113 21:59:00.281258 29995 net.cpp:150] Setting up res2c_branch2b_relu
I0113 21:59:00.281273 29995 net.cpp:157] Top shape: 1 64 150 250 (2400000)
I0113 21:59:00.281281 29995 net.cpp:165] Memory required for data: 1087200084
I0113 21:59:00.281288 29995 layer_factory.hpp:77] Creating layer res2c_branch2c
I0113 21:59:00.281301 29995 net.cpp:100] Creating Layer res2c_branch2c
I0113 21:59:00.281308 29995 net.cpp:444] res2c_branch2c <- res2c_branch2b
I0113 21:59:00.281319 29995 net.cpp:418] res2c_branch2c -> res2c_branch2c
I0113 21:59:00.282163 29995 net.cpp:150] Setting up res2c_branch2c
I0113 21:59:00.282181 29995 net.cpp:157] Top shape: 1 256 150 250 (9600000)
I0113 21:59:00.282187 29995 net.cpp:165] Memory required for data: 1125600084
I0113 21:59:00.282196 29995 layer_factory.hpp:77] Creating layer bn2c_branch2c
I0113 21:59:00.282205 29995 net.cpp:100] Creating Layer bn2c_branch2c
I0113 21:59:00.282213 29995 net.cpp:444] bn2c_branch2c <- res2c_branch2c
I0113 21:59:00.282222 29995 net.cpp:405] bn2c_branch2c -> res2c_branch2c (in-place)
I0113 21:59:00.282384 29995 net.cpp:150] Setting up bn2c_branch2c
I0113 21:59:00.282394 29995 net.cpp:157] Top shape: 1 256 150 250 (9600000)
I0113 21:59:00.282402 29995 net.cpp:165] Memory required for data: 1164000084
I0113 21:59:00.282416 29995 layer_factory.hpp:77] Creating layer scale2c_branch2c
I0113 21:59:00.282428 29995 net.cpp:100] Creating Layer scale2c_branch2c
I0113 21:59:00.282435 29995 net.cpp:444] scale2c_branch2c <- res2c_branch2c
I0113 21:59:00.282444 29995 net.cpp:405] scale2c_branch2c -> res2c_branch2c (in-place)
I0113 21:59:00.282480 29995 layer_factory.hpp:77] Creating layer scale2c_branch2c
I0113 21:59:00.282603 29995 net.cpp:150] Setting up scale2c_branch2c
I0113 21:59:00.282613 29995 net.cpp:157] Top shape: 1 256 150 250 (9600000)
I0113 21:59:00.282620 29995 net.cpp:165] Memory required for data: 1202400084
I0113 21:59:00.282629 29995 layer_factory.hpp:77] Creating layer res2c
I0113 21:59:00.282636 29995 net.cpp:100] Creating Layer res2c
I0113 21:59:00.282644 29995 net.cpp:444] res2c <- res2b_res2b_relu_0_split_1
I0113 21:59:00.282650 29995 net.cpp:444] res2c <- res2c_branch2c
I0113 21:59:00.282660 29995 net.cpp:418] res2c -> res2c
I0113 21:59:00.282683 29995 net.cpp:150] Setting up res2c
I0113 21:59:00.282693 29995 net.cpp:157] Top shape: 1 256 150 250 (9600000)
I0113 21:59:00.282699 29995 net.cpp:165] Memory required for data: 1240800084
I0113 21:59:00.282706 29995 layer_factory.hpp:77] Creating layer res2c_relu
I0113 21:59:00.282713 29995 net.cpp:100] Creating Layer res2c_relu
I0113 21:59:00.282721 29995 net.cpp:444] res2c_relu <- res2c
I0113 21:59:00.282727 29995 net.cpp:405] res2c_relu -> res2c (in-place)
I0113 21:59:00.282865 29995 net.cpp:150] Setting up res2c_relu
I0113 21:59:00.282876 29995 net.cpp:157] Top shape: 1 256 150 250 (9600000)
I0113 21:59:00.282883 29995 net.cpp:165] Memory required for data: 1279200084
I0113 21:59:00.282891 29995 layer_factory.hpp:77] Creating layer res2c_res2c_relu_0_split
I0113 21:59:00.282899 29995 net.cpp:100] Creating Layer res2c_res2c_relu_0_split
I0113 21:59:00.282907 29995 net.cpp:444] res2c_res2c_relu_0_split <- res2c
I0113 21:59:00.282917 29995 net.cpp:418] res2c_res2c_relu_0_split -> res2c_res2c_relu_0_split_0
I0113 21:59:00.282927 29995 net.cpp:418] res2c_res2c_relu_0_split -> res2c_res2c_relu_0_split_1
I0113 21:59:00.282965 29995 net.cpp:150] Setting up res2c_res2c_relu_0_split
I0113 21:59:00.282975 29995 net.cpp:157] Top shape: 1 256 150 250 (9600000)
I0113 21:59:00.282984 29995 net.cpp:157] Top shape: 1 256 150 250 (9600000)
I0113 21:59:00.282990 29995 net.cpp:165] Memory required for data: 1356000084
I0113 21:59:00.283001 29995 layer_factory.hpp:77] Creating layer res3a_branch1
I0113 21:59:00.283012 29995 net.cpp:100] Creating Layer res3a_branch1
I0113 21:59:00.283020 29995 net.cpp:444] res3a_branch1 <- res2c_res2c_relu_0_split_0
I0113 21:59:00.283028 29995 net.cpp:418] res3a_branch1 -> res3a_branch1
I0113 21:59:00.284309 29995 net.cpp:150] Setting up res3a_branch1
I0113 21:59:00.284343 29995 net.cpp:157] Top shape: 1 512 75 125 (4800000)
I0113 21:59:00.284365 29995 net.cpp:165] Memory required for data: 1375200084
I0113 21:59:00.284374 29995 layer_factory.hpp:77] Creating layer bn3a_branch1
I0113 21:59:00.284397 29995 net.cpp:100] Creating Layer bn3a_branch1
I0113 21:59:00.284404 29995 net.cpp:444] bn3a_branch1 <- res3a_branch1
I0113 21:59:00.284415 29995 net.cpp:405] bn3a_branch1 -> res3a_branch1 (in-place)
I0113 21:59:00.285117 29995 net.cpp:150] Setting up bn3a_branch1
I0113 21:59:00.285135 29995 net.cpp:157] Top shape: 1 512 75 125 (4800000)
I0113 21:59:00.285142 29995 net.cpp:165] Memory required for data: 1394400084
I0113 21:59:00.285153 29995 layer_factory.hpp:77] Creating layer scale3a_branch1
I0113 21:59:00.285166 29995 net.cpp:100] Creating Layer scale3a_branch1
I0113 21:59:00.285173 29995 net.cpp:444] scale3a_branch1 <- res3a_branch1
I0113 21:59:00.285182 29995 net.cpp:405] scale3a_branch1 -> res3a_branch1 (in-place)
I0113 21:59:00.285218 29995 layer_factory.hpp:77] Creating layer scale3a_branch1
I0113 21:59:00.285356 29995 net.cpp:150] Setting up scale3a_branch1
I0113 21:59:00.285367 29995 net.cpp:157] Top shape: 1 512 75 125 (4800000)
I0113 21:59:00.285374 29995 net.cpp:165] Memory required for data: 1413600084
I0113 21:59:00.285383 29995 layer_factory.hpp:77] Creating layer res3a_branch2a
I0113 21:59:00.285396 29995 net.cpp:100] Creating Layer res3a_branch2a
I0113 21:59:00.285404 29995 net.cpp:444] res3a_branch2a <- res2c_res2c_relu_0_split_1
I0113 21:59:00.285414 29995 net.cpp:418] res3a_branch2a -> res3a_branch2a
I0113 21:59:00.286541 29995 net.cpp:150] Setting up res3a_branch2a
I0113 21:59:00.286577 29995 net.cpp:157] Top shape: 1 128 75 125 (1200000)
I0113 21:59:00.286586 29995 net.cpp:165] Memory required for data: 1418400084
I0113 21:59:00.286594 29995 layer_factory.hpp:77] Creating layer bn3a_branch2a
I0113 21:59:00.286607 29995 net.cpp:100] Creating Layer bn3a_branch2a
I0113 21:59:00.286614 29995 net.cpp:444] bn3a_branch2a <- res3a_branch2a
I0113 21:59:00.286623 29995 net.cpp:405] bn3a_branch2a -> res3a_branch2a (in-place)
I0113 21:59:00.286783 29995 net.cpp:150] Setting up bn3a_branch2a
I0113 21:59:00.286795 29995 net.cpp:157] Top shape: 1 128 75 125 (1200000)
I0113 21:59:00.286801 29995 net.cpp:165] Memory required for data: 1423200084
I0113 21:59:00.286811 29995 layer_factory.hpp:77] Creating layer scale3a_branch2a
I0113 21:59:00.286821 29995 net.cpp:100] Creating Layer scale3a_branch2a
I0113 21:59:00.286829 29995 net.cpp:444] scale3a_branch2a <- res3a_branch2a
I0113 21:59:00.286836 29995 net.cpp:405] scale3a_branch2a -> res3a_branch2a (in-place)
I0113 21:59:00.286876 29995 layer_factory.hpp:77] Creating layer scale3a_branch2a
I0113 21:59:00.286993 29995 net.cpp:150] Setting up scale3a_branch2a
I0113 21:59:00.287003 29995 net.cpp:157] Top shape: 1 128 75 125 (1200000)
I0113 21:59:00.287009 29995 net.cpp:165] Memory required for data: 1428000084
I0113 21:59:00.287017 29995 layer_factory.hpp:77] Creating layer res3a_branch2a_relu
I0113 21:59:00.287026 29995 net.cpp:100] Creating Layer res3a_branch2a_relu
I0113 21:59:00.287034 29995 net.cpp:444] res3a_branch2a_relu <- res3a_branch2a
I0113 21:59:00.287041 29995 net.cpp:405] res3a_branch2a_relu -> res3a_branch2a (in-place)
I0113 21:59:00.287998 29995 net.cpp:150] Setting up res3a_branch2a_relu
I0113 21:59:00.288022 29995 net.cpp:157] Top shape: 1 128 75 125 (1200000)
I0113 21:59:00.288030 29995 net.cpp:165] Memory required for data: 1432800084
I0113 21:59:00.288038 29995 layer_factory.hpp:77] Creating layer res3a_branch2b
I0113 21:59:00.288051 29995 net.cpp:100] Creating Layer res3a_branch2b
I0113 21:59:00.288084 29995 net.cpp:444] res3a_branch2b <- res3a_branch2a
I0113 21:59:00.288107 29995 net.cpp:418] res3a_branch2b -> res3a_branch2b
I0113 21:59:00.289610 29995 net.cpp:150] Setting up res3a_branch2b
I0113 21:59:00.289641 29995 net.cpp:157] Top shape: 1 128 75 125 (1200000)
I0113 21:59:00.289664 29995 net.cpp:165] Memory required for data: 1437600084
I0113 21:59:00.289680 29995 layer_factory.hpp:77] Creating layer bn3a_branch2b
I0113 21:59:00.289693 29995 net.cpp:100] Creating Layer bn3a_branch2b
I0113 21:59:00.289702 29995 net.cpp:444] bn3a_branch2b <- res3a_branch2b
I0113 21:59:00.289726 29995 net.cpp:405] bn3a_branch2b -> res3a_branch2b (in-place)
I0113 21:59:00.289938 29995 net.cpp:150] Setting up bn3a_branch2b
I0113 21:59:00.289963 29995 net.cpp:157] Top shape: 1 128 75 125 (1200000)
I0113 21:59:00.289968 29995 net.cpp:165] Memory required for data: 1442400084
I0113 21:59:00.289978 29995 layer_factory.hpp:77] Creating layer scale3a_branch2b
I0113 21:59:00.289991 29995 net.cpp:100] Creating Layer scale3a_branch2b
I0113 21:59:00.289999 29995 net.cpp:444] scale3a_branch2b <- res3a_branch2b
I0113 21:59:00.290022 29995 net.cpp:405] scale3a_branch2b -> res3a_branch2b (in-place)
I0113 21:59:00.290118 29995 layer_factory.hpp:77] Creating layer scale3a_branch2b
I0113 21:59:00.290251 29995 net.cpp:150] Setting up scale3a_branch2b
I0113 21:59:00.290262 29995 net.cpp:157] Top shape: 1 128 75 125 (1200000)
I0113 21:59:00.290269 29995 net.cpp:165] Memory required for data: 1447200084
I0113 21:59:00.290290 29995 layer_factory.hpp:77] Creating layer res3a_branch2b_relu
I0113 21:59:00.290313 29995 net.cpp:100] Creating Layer res3a_branch2b_relu
I0113 21:59:00.290333 29995 net.cpp:444] res3a_branch2b_relu <- res3a_branch2b
I0113 21:59:00.290343 29995 net.cpp:405] res3a_branch2b_relu -> res3a_branch2b (in-place)
I0113 21:59:00.290503 29995 net.cpp:150] Setting up res3a_branch2b_relu
I0113 21:59:00.290516 29995 net.cpp:157] Top shape: 1 128 75 125 (1200000)
I0113 21:59:00.290524 29995 net.cpp:165] Memory required for data: 1452000084
I0113 21:59:00.290544 29995 layer_factory.hpp:77] Creating layer res3a_branch2c
I0113 21:59:00.290567 29995 net.cpp:100] Creating Layer res3a_branch2c
I0113 21:59:00.290588 29995 net.cpp:444] res3a_branch2c <- res3a_branch2b
I0113 21:59:00.290611 29995 net.cpp:418] res3a_branch2c -> res3a_branch2c
I0113 21:59:00.292234 29995 net.cpp:150] Setting up res3a_branch2c
I0113 21:59:00.292253 29995 net.cpp:157] Top shape: 1 512 75 125 (4800000)
I0113 21:59:00.292261 29995 net.cpp:165] Memory required for data: 1471200084
I0113 21:59:00.292270 29995 layer_factory.hpp:77] Creating layer bn3a_branch2c
I0113 21:59:00.292281 29995 net.cpp:100] Creating Layer bn3a_branch2c
I0113 21:59:00.292289 29995 net.cpp:444] bn3a_branch2c <- res3a_branch2c
I0113 21:59:00.292297 29995 net.cpp:405] bn3a_branch2c -> res3a_branch2c (in-place)
I0113 21:59:00.292469 29995 net.cpp:150] Setting up bn3a_branch2c
I0113 21:59:00.292479 29995 net.cpp:157] Top shape: 1 512 75 125 (4800000)
I0113 21:59:00.292486 29995 net.cpp:165] Memory required for data: 1490400084
I0113 21:59:00.292495 29995 layer_factory.hpp:77] Creating layer scale3a_branch2c
I0113 21:59:00.292506 29995 net.cpp:100] Creating Layer scale3a_branch2c
I0113 21:59:00.292513 29995 net.cpp:444] scale3a_branch2c <- res3a_branch2c
I0113 21:59:00.292536 29995 net.cpp:405] scale3a_branch2c -> res3a_branch2c (in-place)
I0113 21:59:00.292629 29995 layer_factory.hpp:77] Creating layer scale3a_branch2c
I0113 21:59:00.292775 29995 net.cpp:150] Setting up scale3a_branch2c
I0113 21:59:00.292786 29995 net.cpp:157] Top shape: 1 512 75 125 (4800000)
I0113 21:59:00.292793 29995 net.cpp:165] Memory required for data: 1509600084
I0113 21:59:00.292816 29995 layer_factory.hpp:77] Creating layer res3a
I0113 21:59:00.292826 29995 net.cpp:100] Creating Layer res3a
I0113 21:59:00.292847 29995 net.cpp:444] res3a <- res3a_branch1
I0113 21:59:00.292855 29995 net.cpp:444] res3a <- res3a_branch2c
I0113 21:59:00.292884 29995 net.cpp:418] res3a -> res3a
I0113 21:59:00.292937 29995 net.cpp:150] Setting up res3a
I0113 21:59:00.292953 29995 net.cpp:157] Top shape: 1 512 75 125 (4800000)
I0113 21:59:00.292960 29995 net.cpp:165] Memory required for data: 1528800084
I0113 21:59:00.292968 29995 layer_factory.hpp:77] Creating layer res3a_relu
I0113 21:59:00.292976 29995 net.cpp:100] Creating Layer res3a_relu
I0113 21:59:00.292984 29995 net.cpp:444] res3a_relu <- res3a
I0113 21:59:00.292994 29995 net.cpp:405] res3a_relu -> res3a (in-place)
I0113 21:59:00.293164 29995 net.cpp:150] Setting up res3a_relu
I0113 21:59:00.293176 29995 net.cpp:157] Top shape: 1 512 75 125 (4800000)
I0113 21:59:00.293184 29995 net.cpp:165] Memory required for data: 1548000084
I0113 21:59:00.293191 29995 layer_factory.hpp:77] Creating layer res3a_res3a_relu_0_split
I0113 21:59:00.293201 29995 net.cpp:100] Creating Layer res3a_res3a_relu_0_split
I0113 21:59:00.293210 29995 net.cpp:444] res3a_res3a_relu_0_split <- res3a
I0113 21:59:00.293218 29995 net.cpp:418] res3a_res3a_relu_0_split -> res3a_res3a_relu_0_split_0
I0113 21:59:00.293231 29995 net.cpp:418] res3a_res3a_relu_0_split -> res3a_res3a_relu_0_split_1
I0113 21:59:00.293269 29995 net.cpp:150] Setting up res3a_res3a_relu_0_split
I0113 21:59:00.293279 29995 net.cpp:157] Top shape: 1 512 75 125 (4800000)
I0113 21:59:00.293287 29995 net.cpp:157] Top shape: 1 512 75 125 (4800000)
I0113 21:59:00.293294 29995 net.cpp:165] Memory required for data: 1586400084
I0113 21:59:00.293301 29995 layer_factory.hpp:77] Creating layer res3b_branch2a
I0113 21:59:00.293313 29995 net.cpp:100] Creating Layer res3b_branch2a
I0113 21:59:00.293320 29995 net.cpp:444] res3b_branch2a <- res3a_res3a_relu_0_split_0
I0113 21:59:00.293330 29995 net.cpp:418] res3b_branch2a -> res3b_branch2a
I0113 21:59:00.294242 29995 net.cpp:150] Setting up res3b_branch2a
I0113 21:59:00.294260 29995 net.cpp:157] Top shape: 1 128 75 125 (1200000)
I0113 21:59:00.294268 29995 net.cpp:165] Memory required for data: 1591200084
I0113 21:59:00.294278 29995 layer_factory.hpp:77] Creating layer bn3b_branch2a
I0113 21:59:00.294291 29995 net.cpp:100] Creating Layer bn3b_branch2a
I0113 21:59:00.294298 29995 net.cpp:444] bn3b_branch2a <- res3b_branch2a
I0113 21:59:00.294308 29995 net.cpp:405] bn3b_branch2a -> res3b_branch2a (in-place)
I0113 21:59:00.294466 29995 net.cpp:150] Setting up bn3b_branch2a
I0113 21:59:00.294477 29995 net.cpp:157] Top shape: 1 128 75 125 (1200000)
I0113 21:59:00.294484 29995 net.cpp:165] Memory required for data: 1596000084
I0113 21:59:00.294494 29995 layer_factory.hpp:77] Creating layer scale3b_branch2a
I0113 21:59:00.294504 29995 net.cpp:100] Creating Layer scale3b_branch2a
I0113 21:59:00.294512 29995 net.cpp:444] scale3b_branch2a <- res3b_branch2a
I0113 21:59:00.294522 29995 net.cpp:405] scale3b_branch2a -> res3b_branch2a (in-place)
I0113 21:59:00.294560 29995 layer_factory.hpp:77] Creating layer scale3b_branch2a
I0113 21:59:00.294665 29995 net.cpp:150] Setting up scale3b_branch2a
I0113 21:59:00.294677 29995 net.cpp:157] Top shape: 1 128 75 125 (1200000)
I0113 21:59:00.294684 29995 net.cpp:165] Memory required for data: 1600800084
I0113 21:59:00.294693 29995 layer_factory.hpp:77] Creating layer res3b_branch2a_relu
I0113 21:59:00.294703 29995 net.cpp:100] Creating Layer res3b_branch2a_relu
I0113 21:59:00.294710 29995 net.cpp:444] res3b_branch2a_relu <- res3b_branch2a
I0113 21:59:00.294719 29995 net.cpp:405] res3b_branch2a_relu -> res3b_branch2a (in-place)
I0113 21:59:00.294893 29995 net.cpp:150] Setting up res3b_branch2a_relu
I0113 21:59:00.294905 29995 net.cpp:157] Top shape: 1 128 75 125 (1200000)
I0113 21:59:00.294914 29995 net.cpp:165] Memory required for data: 1605600084
I0113 21:59:00.294920 29995 layer_factory.hpp:77] Creating layer res3b_branch2b
I0113 21:59:00.294934 29995 net.cpp:100] Creating Layer res3b_branch2b
I0113 21:59:00.294942 29995 net.cpp:444] res3b_branch2b <- res3b_branch2a
I0113 21:59:00.294953 29995 net.cpp:418] res3b_branch2b -> res3b_branch2b
I0113 21:59:00.297052 29995 net.cpp:150] Setting up res3b_branch2b
I0113 21:59:00.297077 29995 net.cpp:157] Top shape: 1 128 75 125 (1200000)
I0113 21:59:00.297099 29995 net.cpp:165] Memory required for data: 1610400084
I0113 21:59:00.297143 29995 layer_factory.hpp:77] Creating layer bn3b_branch2b
I0113 21:59:00.297155 29995 net.cpp:100] Creating Layer bn3b_branch2b
I0113 21:59:00.297176 29995 net.cpp:444] bn3b_branch2b <- res3b_branch2b
I0113 21:59:00.297186 29995 net.cpp:405] bn3b_branch2b -> res3b_branch2b (in-place)
I0113 21:59:00.297405 29995 net.cpp:150] Setting up bn3b_branch2b
I0113 21:59:00.297415 29995 net.cpp:157] Top shape: 1 128 75 125 (1200000)
I0113 21:59:00.297421 29995 net.cpp:165] Memory required for data: 1615200084
I0113 21:59:00.297430 29995 layer_factory.hpp:77] Creating layer scale3b_branch2b
I0113 21:59:00.297441 29995 net.cpp:100] Creating Layer scale3b_branch2b
I0113 21:59:00.297447 29995 net.cpp:444] scale3b_branch2b <- res3b_branch2b
I0113 21:59:00.297456 29995 net.cpp:405] scale3b_branch2b -> res3b_branch2b (in-place)
I0113 21:59:00.297551 29995 layer_factory.hpp:77] Creating layer scale3b_branch2b
I0113 21:59:00.297680 29995 net.cpp:150] Setting up scale3b_branch2b
I0113 21:59:00.297691 29995 net.cpp:157] Top shape: 1 128 75 125 (1200000)
I0113 21:59:00.297698 29995 net.cpp:165] Memory required for data: 1620000084
I0113 21:59:00.297706 29995 layer_factory.hpp:77] Creating layer res3b_branch2b_relu
I0113 21:59:00.297716 29995 net.cpp:100] Creating Layer res3b_branch2b_relu
I0113 21:59:00.297724 29995 net.cpp:444] res3b_branch2b_relu <- res3b_branch2b
I0113 21:59:00.297744 29995 net.cpp:405] res3b_branch2b_relu -> res3b_branch2b (in-place)
I0113 21:59:00.298235 29995 net.cpp:150] Setting up res3b_branch2b_relu
I0113 21:59:00.298251 29995 net.cpp:157] Top shape: 1 128 75 125 (1200000)
I0113 21:59:00.298259 29995 net.cpp:165] Memory required for data: 1624800084
I0113 21:59:00.298280 29995 layer_factory.hpp:77] Creating layer res3b_branch2c
I0113 21:59:00.298291 29995 net.cpp:100] Creating Layer res3b_branch2c
I0113 21:59:00.298300 29995 net.cpp:444] res3b_branch2c <- res3b_branch2b
I0113 21:59:00.298323 29995 net.cpp:418] res3b_branch2c -> res3b_branch2c
I0113 21:59:00.299253 29995 net.cpp:150] Setting up res3b_branch2c
I0113 21:59:00.299270 29995 net.cpp:157] Top shape: 1 512 75 125 (4800000)
I0113 21:59:00.299279 29995 net.cpp:165] Memory required for data: 1644000084
I0113 21:59:00.299288 29995 layer_factory.hpp:77] Creating layer bn3b_branch2c
I0113 21:59:00.299300 29995 net.cpp:100] Creating Layer bn3b_branch2c
I0113 21:59:00.299309 29995 net.cpp:444] bn3b_branch2c <- res3b_branch2c
I0113 21:59:00.299319 29995 net.cpp:405] bn3b_branch2c -> res3b_branch2c (in-place)
I0113 21:59:00.299484 29995 net.cpp:150] Setting up bn3b_branch2c
I0113 21:59:00.299495 29995 net.cpp:157] Top shape: 1 512 75 125 (4800000)
I0113 21:59:00.299502 29995 net.cpp:165] Memory required for data: 1663200084
I0113 21:59:00.299513 29995 layer_factory.hpp:77] Creating layer scale3b_branch2c
I0113 21:59:00.299523 29995 net.cpp:100] Creating Layer scale3b_branch2c
I0113 21:59:00.299531 29995 net.cpp:444] scale3b_branch2c <- res3b_branch2c
I0113 21:59:00.299540 29995 net.cpp:405] scale3b_branch2c -> res3b_branch2c (in-place)
I0113 21:59:00.299576 29995 layer_factory.hpp:77] Creating layer scale3b_branch2c
I0113 21:59:00.299717 29995 net.cpp:150] Setting up scale3b_branch2c
I0113 21:59:00.299731 29995 net.cpp:157] Top shape: 1 512 75 125 (4800000)
I0113 21:59:00.299738 29995 net.cpp:165] Memory required for data: 1682400084
I0113 21:59:00.299748 29995 layer_factory.hpp:77] Creating layer res3b
I0113 21:59:00.299758 29995 net.cpp:100] Creating Layer res3b
I0113 21:59:00.299765 29995 net.cpp:444] res3b <- res3a_res3a_relu_0_split_1
I0113 21:59:00.299774 29995 net.cpp:444] res3b <- res3b_branch2c
I0113 21:59:00.299785 29995 net.cpp:418] res3b -> res3b
I0113 21:59:00.299811 29995 net.cpp:150] Setting up res3b
I0113 21:59:00.299821 29995 net.cpp:157] Top shape: 1 512 75 125 (4800000)
I0113 21:59:00.299829 29995 net.cpp:165] Memory required for data: 1701600084
I0113 21:59:00.299836 29995 layer_factory.hpp:77] Creating layer res3b_relu
I0113 21:59:00.299845 29995 net.cpp:100] Creating Layer res3b_relu
I0113 21:59:00.299857 29995 net.cpp:444] res3b_relu <- res3b
I0113 21:59:00.299866 29995 net.cpp:405] res3b_relu -> res3b (in-place)
I0113 21:59:00.300010 29995 net.cpp:150] Setting up res3b_relu
I0113 21:59:00.300022 29995 net.cpp:157] Top shape: 1 512 75 125 (4800000)
I0113 21:59:00.300030 29995 net.cpp:165] Memory required for data: 1720800084
I0113 21:59:00.300037 29995 layer_factory.hpp:77] Creating layer res3b_res3b_relu_0_split
I0113 21:59:00.300047 29995 net.cpp:100] Creating Layer res3b_res3b_relu_0_split
I0113 21:59:00.300055 29995 net.cpp:444] res3b_res3b_relu_0_split <- res3b
I0113 21:59:00.300065 29995 net.cpp:418] res3b_res3b_relu_0_split -> res3b_res3b_relu_0_split_0
I0113 21:59:00.300076 29995 net.cpp:418] res3b_res3b_relu_0_split -> res3b_res3b_relu_0_split_1
I0113 21:59:00.300142 29995 net.cpp:150] Setting up res3b_res3b_relu_0_split
I0113 21:59:00.300151 29995 net.cpp:157] Top shape: 1 512 75 125 (4800000)
I0113 21:59:00.300159 29995 net.cpp:157] Top shape: 1 512 75 125 (4800000)
I0113 21:59:00.300179 29995 net.cpp:165] Memory required for data: 1759200084
I0113 21:59:00.300186 29995 layer_factory.hpp:77] Creating layer res3c_branch2a
I0113 21:59:00.300199 29995 net.cpp:100] Creating Layer res3c_branch2a
I0113 21:59:00.300206 29995 net.cpp:444] res3c_branch2a <- res3b_res3b_relu_0_split_0
I0113 21:59:00.300216 29995 net.cpp:418] res3c_branch2a -> res3c_branch2a
I0113 21:59:00.301146 29995 net.cpp:150] Setting up res3c_branch2a
I0113 21:59:00.301164 29995 net.cpp:157] Top shape: 1 128 75 125 (1200000)
I0113 21:59:00.301251 29995 net.cpp:165] Memory required for data: 1764000084
I0113 21:59:00.301262 29995 layer_factory.hpp:77] Creating layer bn3c_branch2a
I0113 21:59:00.301288 29995 net.cpp:100] Creating Layer bn3c_branch2a
I0113 21:59:00.301311 29995 net.cpp:444] bn3c_branch2a <- res3c_branch2a
I0113 21:59:00.301319 29995 net.cpp:405] bn3c_branch2a -> res3c_branch2a (in-place)
I0113 21:59:00.301496 29995 net.cpp:150] Setting up bn3c_branch2a
I0113 21:59:00.301507 29995 net.cpp:157] Top shape: 1 128 75 125 (1200000)
I0113 21:59:00.301514 29995 net.cpp:165] Memory required for data: 1768800084
I0113 21:59:00.301538 29995 layer_factory.hpp:77] Creating layer scale3c_branch2a
I0113 21:59:00.301548 29995 net.cpp:100] Creating Layer scale3c_branch2a
I0113 21:59:00.301556 29995 net.cpp:444] scale3c_branch2a <- res3c_branch2a
I0113 21:59:00.301565 29995 net.cpp:405] scale3c_branch2a -> res3c_branch2a (in-place)
I0113 21:59:00.301604 29995 layer_factory.hpp:77] Creating layer scale3c_branch2a
I0113 21:59:00.301734 29995 net.cpp:150] Setting up scale3c_branch2a
I0113 21:59:00.301745 29995 net.cpp:157] Top shape: 1 128 75 125 (1200000)
I0113 21:59:00.301764 29995 net.cpp:165] Memory required for data: 1773600084
I0113 21:59:00.301785 29995 layer_factory.hpp:77] Creating layer res3c_branch2a_relu
I0113 21:59:00.301808 29995 net.cpp:100] Creating Layer res3c_branch2a_relu
I0113 21:59:00.301816 29995 net.cpp:444] res3c_branch2a_relu <- res3c_branch2a
I0113 21:59:00.301825 29995 net.cpp:405] res3c_branch2a_relu -> res3c_branch2a (in-place)
I0113 21:59:00.301991 29995 net.cpp:150] Setting up res3c_branch2a_relu
I0113 21:59:00.302003 29995 net.cpp:157] Top shape: 1 128 75 125 (1200000)
I0113 21:59:00.302011 29995 net.cpp:165] Memory required for data: 1778400084
I0113 21:59:00.302031 29995 layer_factory.hpp:77] Creating layer res3c_branch2b
I0113 21:59:00.302054 29995 net.cpp:100] Creating Layer res3c_branch2b
I0113 21:59:00.302076 29995 net.cpp:444] res3c_branch2b <- res3c_branch2a
I0113 21:59:00.302098 29995 net.cpp:418] res3c_branch2b -> res3c_branch2b
I0113 21:59:00.303342 29995 net.cpp:150] Setting up res3c_branch2b
I0113 21:59:00.303359 29995 net.cpp:157] Top shape: 1 128 75 125 (1200000)
I0113 21:59:00.303380 29995 net.cpp:165] Memory required for data: 1783200084
I0113 21:59:00.303390 29995 layer_factory.hpp:77] Creating layer bn3c_branch2b
I0113 21:59:00.303400 29995 net.cpp:100] Creating Layer bn3c_branch2b
I0113 21:59:00.303409 29995 net.cpp:444] bn3c_branch2b <- res3c_branch2b
I0113 21:59:00.303419 29995 net.cpp:405] bn3c_branch2b -> res3c_branch2b (in-place)
I0113 21:59:00.303616 29995 net.cpp:150] Setting up bn3c_branch2b
I0113 21:59:00.303644 29995 net.cpp:157] Top shape: 1 128 75 125 (1200000)
I0113 21:59:00.303680 29995 net.cpp:165] Memory required for data: 1788000084
I0113 21:59:00.303704 29995 layer_factory.hpp:77] Creating layer scale3c_branch2b
I0113 21:59:00.303714 29995 net.cpp:100] Creating Layer scale3c_branch2b
I0113 21:59:00.303722 29995 net.cpp:444] scale3c_branch2b <- res3c_branch2b
I0113 21:59:00.303732 29995 net.cpp:405] scale3c_branch2b -> res3c_branch2b (in-place)
I0113 21:59:00.303784 29995 layer_factory.hpp:77] Creating layer scale3c_branch2b
I0113 21:59:00.303920 29995 net.cpp:150] Setting up scale3c_branch2b
I0113 21:59:00.303930 29995 net.cpp:157] Top shape: 1 128 75 125 (1200000)
I0113 21:59:00.303937 29995 net.cpp:165] Memory required for data: 1792800084
I0113 21:59:00.303946 29995 layer_factory.hpp:77] Creating layer res3c_branch2b_relu
I0113 21:59:00.303956 29995 net.cpp:100] Creating Layer res3c_branch2b_relu
I0113 21:59:00.303963 29995 net.cpp:444] res3c_branch2b_relu <- res3c_branch2b
I0113 21:59:00.303972 29995 net.cpp:405] res3c_branch2b_relu -> res3c_branch2b (in-place)
I0113 21:59:00.304134 29995 net.cpp:150] Setting up res3c_branch2b_relu
I0113 21:59:00.304148 29995 net.cpp:157] Top shape: 1 128 75 125 (1200000)
I0113 21:59:00.304168 29995 net.cpp:165] Memory required for data: 1797600084
I0113 21:59:00.304175 29995 layer_factory.hpp:77] Creating layer res3c_branch2c
I0113 21:59:00.304188 29995 net.cpp:100] Creating Layer res3c_branch2c
I0113 21:59:00.304195 29995 net.cpp:444] res3c_branch2c <- res3c_branch2b
I0113 21:59:00.304206 29995 net.cpp:418] res3c_branch2c -> res3c_branch2c
I0113 21:59:00.305740 29995 net.cpp:150] Setting up res3c_branch2c
I0113 21:59:00.305761 29995 net.cpp:157] Top shape: 1 512 75 125 (4800000)
I0113 21:59:00.305784 29995 net.cpp:165] Memory required for data: 1816800084
I0113 21:59:00.305794 29995 layer_factory.hpp:77] Creating layer bn3c_branch2c
I0113 21:59:00.305819 29995 net.cpp:100] Creating Layer bn3c_branch2c
I0113 21:59:00.305827 29995 net.cpp:444] bn3c_branch2c <- res3c_branch2c
I0113 21:59:00.305838 29995 net.cpp:405] bn3c_branch2c -> res3c_branch2c (in-place)
I0113 21:59:00.306016 29995 net.cpp:150] Setting up bn3c_branch2c
I0113 21:59:00.306027 29995 net.cpp:157] Top shape: 1 512 75 125 (4800000)
I0113 21:59:00.306033 29995 net.cpp:165] Memory required for data: 1836000084
I0113 21:59:00.306057 29995 layer_factory.hpp:77] Creating layer scale3c_branch2c
I0113 21:59:00.306080 29995 net.cpp:100] Creating Layer scale3c_branch2c
I0113 21:59:00.306087 29995 net.cpp:444] scale3c_branch2c <- res3c_branch2c
I0113 21:59:00.306097 29995 net.cpp:405] scale3c_branch2c -> res3c_branch2c (in-place)
I0113 21:59:00.306147 29995 layer_factory.hpp:77] Creating layer scale3c_branch2c
I0113 21:59:00.306376 29995 net.cpp:150] Setting up scale3c_branch2c
I0113 21:59:00.306388 29995 net.cpp:157] Top shape: 1 512 75 125 (4800000)
I0113 21:59:00.306396 29995 net.cpp:165] Memory required for data: 1855200084
I0113 21:59:00.306418 29995 layer_factory.hpp:77] Creating layer res3c
I0113 21:59:00.306429 29995 net.cpp:100] Creating Layer res3c
I0113 21:59:00.306452 29995 net.cpp:444] res3c <- res3b_res3b_relu_0_split_1
I0113 21:59:00.306459 29995 net.cpp:444] res3c <- res3c_branch2c
I0113 21:59:00.306470 29995 net.cpp:418] res3c -> res3c
I0113 21:59:00.306499 29995 net.cpp:150] Setting up res3c
I0113 21:59:00.306510 29995 net.cpp:157] Top shape: 1 512 75 125 (4800000)
I0113 21:59:00.306517 29995 net.cpp:165] Memory required for data: 1874400084
I0113 21:59:00.306525 29995 layer_factory.hpp:77] Creating layer res3c_relu
I0113 21:59:00.306535 29995 net.cpp:100] Creating Layer res3c_relu
I0113 21:59:00.306542 29995 net.cpp:444] res3c_relu <- res3c
I0113 21:59:00.306550 29995 net.cpp:405] res3c_relu -> res3c (in-place)
I0113 21:59:00.306727 29995 net.cpp:150] Setting up res3c_relu
I0113 21:59:00.306740 29995 net.cpp:157] Top shape: 1 512 75 125 (4800000)
I0113 21:59:00.306753 29995 net.cpp:165] Memory required for data: 1893600084
I0113 21:59:00.306761 29995 layer_factory.hpp:77] Creating layer res3c_res3c_relu_0_split
I0113 21:59:00.306771 29995 net.cpp:100] Creating Layer res3c_res3c_relu_0_split
I0113 21:59:00.306777 29995 net.cpp:444] res3c_res3c_relu_0_split <- res3c
I0113 21:59:00.306788 29995 net.cpp:418] res3c_res3c_relu_0_split -> res3c_res3c_relu_0_split_0
I0113 21:59:00.306798 29995 net.cpp:418] res3c_res3c_relu_0_split -> res3c_res3c_relu_0_split_1
I0113 21:59:00.306838 29995 net.cpp:150] Setting up res3c_res3c_relu_0_split
I0113 21:59:00.306849 29995 net.cpp:157] Top shape: 1 512 75 125 (4800000)
I0113 21:59:00.306856 29995 net.cpp:157] Top shape: 1 512 75 125 (4800000)
I0113 21:59:00.306864 29995 net.cpp:165] Memory required for data: 1932000084
I0113 21:59:00.306870 29995 layer_factory.hpp:77] Creating layer res3d_branch2a
I0113 21:59:00.306882 29995 net.cpp:100] Creating Layer res3d_branch2a
I0113 21:59:00.306890 29995 net.cpp:444] res3d_branch2a <- res3c_res3c_relu_0_split_0
I0113 21:59:00.306900 29995 net.cpp:418] res3d_branch2a -> res3d_branch2a
I0113 21:59:00.307832 29995 net.cpp:150] Setting up res3d_branch2a
I0113 21:59:00.307852 29995 net.cpp:157] Top shape: 1 128 75 125 (1200000)
I0113 21:59:00.307860 29995 net.cpp:165] Memory required for data: 1936800084
I0113 21:59:00.307870 29995 layer_factory.hpp:77] Creating layer bn3d_branch2a
I0113 21:59:00.307880 29995 net.cpp:100] Creating Layer bn3d_branch2a
I0113 21:59:00.307888 29995 net.cpp:444] bn3d_branch2a <- res3d_branch2a
I0113 21:59:00.307898 29995 net.cpp:405] bn3d_branch2a -> res3d_branch2a (in-place)
I0113 21:59:00.308074 29995 net.cpp:150] Setting up bn3d_branch2a
I0113 21:59:00.308099 29995 net.cpp:157] Top shape: 1 128 75 125 (1200000)
I0113 21:59:00.308106 29995 net.cpp:165] Memory required for data: 1941600084
I0113 21:59:00.308122 29995 layer_factory.hpp:77] Creating layer scale3d_branch2a
I0113 21:59:00.308133 29995 net.cpp:100] Creating Layer scale3d_branch2a
I0113 21:59:00.308141 29995 net.cpp:444] scale3d_branch2a <- res3d_branch2a
I0113 21:59:00.308151 29995 net.cpp:405] scale3d_branch2a -> res3d_branch2a (in-place)
I0113 21:59:00.308189 29995 layer_factory.hpp:77] Creating layer scale3d_branch2a
I0113 21:59:00.308346 29995 net.cpp:150] Setting up scale3d_branch2a
I0113 21:59:00.308357 29995 net.cpp:157] Top shape: 1 128 75 125 (1200000)
I0113 21:59:00.308363 29995 net.cpp:165] Memory required for data: 1946400084
I0113 21:59:00.308384 29995 layer_factory.hpp:77] Creating layer res3d_branch2a_relu
I0113 21:59:00.308393 29995 net.cpp:100] Creating Layer res3d_branch2a_relu
I0113 21:59:00.308401 29995 net.cpp:444] res3d_branch2a_relu <- res3d_branch2a
I0113 21:59:00.308423 29995 net.cpp:405] res3d_branch2a_relu -> res3d_branch2a (in-place)
I0113 21:59:00.308581 29995 net.cpp:150] Setting up res3d_branch2a_relu
I0113 21:59:00.308606 29995 net.cpp:157] Top shape: 1 128 75 125 (1200000)
I0113 21:59:00.308614 29995 net.cpp:165] Memory required for data: 1951200084
I0113 21:59:00.308621 29995 layer_factory.hpp:77] Creating layer res3d_branch2b
I0113 21:59:00.308632 29995 net.cpp:100] Creating Layer res3d_branch2b
I0113 21:59:00.308640 29995 net.cpp:444] res3d_branch2b <- res3d_branch2a
I0113 21:59:00.308651 29995 net.cpp:418] res3d_branch2b -> res3d_branch2b
I0113 21:59:00.309918 29995 net.cpp:150] Setting up res3d_branch2b
I0113 21:59:00.309937 29995 net.cpp:157] Top shape: 1 128 75 125 (1200000)
I0113 21:59:00.309945 29995 net.cpp:165] Memory required for data: 1956000084
I0113 21:59:00.309955 29995 layer_factory.hpp:77] Creating layer bn3d_branch2b
I0113 21:59:00.309980 29995 net.cpp:100] Creating Layer bn3d_branch2b
I0113 21:59:00.309988 29995 net.cpp:444] bn3d_branch2b <- res3d_branch2b
I0113 21:59:00.309998 29995 net.cpp:405] bn3d_branch2b -> res3d_branch2b (in-place)
I0113 21:59:00.310204 29995 net.cpp:150] Setting up bn3d_branch2b
I0113 21:59:00.310214 29995 net.cpp:157] Top shape: 1 128 75 125 (1200000)
I0113 21:59:00.310220 29995 net.cpp:165] Memory required for data: 1960800084
I0113 21:59:00.310250 29995 layer_factory.hpp:77] Creating layer scale3d_branch2b
I0113 21:59:00.310259 29995 net.cpp:100] Creating Layer scale3d_branch2b
I0113 21:59:00.310267 29995 net.cpp:444] scale3d_branch2b <- res3d_branch2b
I0113 21:59:00.310292 29995 net.cpp:405] scale3d_branch2b -> res3d_branch2b (in-place)
I0113 21:59:00.310330 29995 layer_factory.hpp:77] Creating layer scale3d_branch2b
I0113 21:59:00.310485 29995 net.cpp:150] Setting up scale3d_branch2b
I0113 21:59:00.310497 29995 net.cpp:157] Top shape: 1 128 75 125 (1200000)
I0113 21:59:00.310503 29995 net.cpp:165] Memory required for data: 1965600084
I0113 21:59:00.310524 29995 layer_factory.hpp:77] Creating layer res3d_branch2b_relu
I0113 21:59:00.310546 29995 net.cpp:100] Creating Layer res3d_branch2b_relu
I0113 21:59:00.310554 29995 net.cpp:444] res3d_branch2b_relu <- res3d_branch2b
I0113 21:59:00.310562 29995 net.cpp:405] res3d_branch2b_relu -> res3d_branch2b (in-place)
I0113 21:59:00.311022 29995 net.cpp:150] Setting up res3d_branch2b_relu
I0113 21:59:00.311038 29995 net.cpp:157] Top shape: 1 128 75 125 (1200000)
I0113 21:59:00.311059 29995 net.cpp:165] Memory required for data: 1970400084
I0113 21:59:00.311067 29995 layer_factory.hpp:77] Creating layer res3d_branch2c
I0113 21:59:00.311105 29995 net.cpp:100] Creating Layer res3d_branch2c
I0113 21:59:00.311125 29995 net.cpp:444] res3d_branch2c <- res3d_branch2b
I0113 21:59:00.311148 29995 net.cpp:418] res3d_branch2c -> res3d_branch2c
I0113 21:59:00.312049 29995 net.cpp:150] Setting up res3d_branch2c
I0113 21:59:00.312067 29995 net.cpp:157] Top shape: 1 512 75 125 (4800000)
I0113 21:59:00.312075 29995 net.cpp:165] Memory required for data: 1989600084
I0113 21:59:00.312083 29995 layer_factory.hpp:77] Creating layer bn3d_branch2c
I0113 21:59:00.312093 29995 net.cpp:100] Creating Layer bn3d_branch2c
I0113 21:59:00.312114 29995 net.cpp:444] bn3d_branch2c <- res3d_branch2c
I0113 21:59:00.312137 29995 net.cpp:405] bn3d_branch2c -> res3d_branch2c (in-place)
I0113 21:59:00.312328 29995 net.cpp:150] Setting up bn3d_branch2c
I0113 21:59:00.312340 29995 net.cpp:157] Top shape: 1 512 75 125 (4800000)
I0113 21:59:00.312345 29995 net.cpp:165] Memory required for data: 2008800084
I0113 21:59:00.312355 29995 layer_factory.hpp:77] Creating layer scale3d_branch2c
I0113 21:59:00.312364 29995 net.cpp:100] Creating Layer scale3d_branch2c
I0113 21:59:00.312371 29995 net.cpp:444] scale3d_branch2c <- res3d_branch2c
I0113 21:59:00.312394 29995 net.cpp:405] scale3d_branch2c -> res3d_branch2c (in-place)
I0113 21:59:00.312445 29995 layer_factory.hpp:77] Creating layer scale3d_branch2c
I0113 21:59:00.312583 29995 net.cpp:150] Setting up scale3d_branch2c
I0113 21:59:00.312594 29995 net.cpp:157] Top shape: 1 512 75 125 (4800000)
I0113 21:59:00.312600 29995 net.cpp:165] Memory required for data: 2028000084
I0113 21:59:00.312624 29995 layer_factory.hpp:77] Creating layer res3d
I0113 21:59:00.312634 29995 net.cpp:100] Creating Layer res3d
I0113 21:59:00.312642 29995 net.cpp:444] res3d <- res3c_res3c_relu_0_split_1
I0113 21:59:00.312650 29995 net.cpp:444] res3d <- res3d_branch2c
I0113 21:59:00.312660 29995 net.cpp:418] res3d -> res3d
I0113 21:59:00.312687 29995 net.cpp:150] Setting up res3d
I0113 21:59:00.312711 29995 net.cpp:157] Top shape: 1 512 75 125 (4800000)
I0113 21:59:00.312716 29995 net.cpp:165] Memory required for data: 2047200084
I0113 21:59:00.312737 29995 layer_factory.hpp:77] Creating layer res3d_relu
I0113 21:59:00.312747 29995 net.cpp:100] Creating Layer res3d_relu
I0113 21:59:00.312753 29995 net.cpp:444] res3d_relu <- res3d
I0113 21:59:00.312762 29995 net.cpp:405] res3d_relu -> res3d (in-place)
I0113 21:59:00.312916 29995 net.cpp:150] Setting up res3d_relu
I0113 21:59:00.312928 29995 net.cpp:157] Top shape: 1 512 75 125 (4800000)
I0113 21:59:00.312934 29995 net.cpp:165] Memory required for data: 2066400084
I0113 21:59:00.312954 29995 layer_factory.hpp:77] Creating layer res3d_res3d_relu_0_split
I0113 21:59:00.312965 29995 net.cpp:100] Creating Layer res3d_res3d_relu_0_split
I0113 21:59:00.312974 29995 net.cpp:444] res3d_res3d_relu_0_split <- res3d
I0113 21:59:00.313000 29995 net.cpp:418] res3d_res3d_relu_0_split -> res3d_res3d_relu_0_split_0
I0113 21:59:00.313011 29995 net.cpp:418] res3d_res3d_relu_0_split -> res3d_res3d_relu_0_split_1
I0113 21:59:00.313063 29995 net.cpp:150] Setting up res3d_res3d_relu_0_split
I0113 21:59:00.313073 29995 net.cpp:157] Top shape: 1 512 75 125 (4800000)
I0113 21:59:00.313081 29995 net.cpp:157] Top shape: 1 512 75 125 (4800000)
I0113 21:59:00.313087 29995 net.cpp:165] Memory required for data: 2104800084
I0113 21:59:00.313093 29995 layer_factory.hpp:77] Creating layer res4a_branch1
I0113 21:59:00.313104 29995 net.cpp:100] Creating Layer res4a_branch1
I0113 21:59:00.313112 29995 net.cpp:444] res4a_branch1 <- res3d_res3d_relu_0_split_0
I0113 21:59:00.313122 29995 net.cpp:418] res4a_branch1 -> res4a_branch1
I0113 21:59:00.314895 29995 net.cpp:150] Setting up res4a_branch1
I0113 21:59:00.314924 29995 net.cpp:157] Top shape: 1 1024 38 63 (2451456)
I0113 21:59:00.314932 29995 net.cpp:165] Memory required for data: 2114605908
I0113 21:59:00.314944 29995 layer_factory.hpp:77] Creating layer bn4a_branch1
I0113 21:59:00.314955 29995 net.cpp:100] Creating Layer bn4a_branch1
I0113 21:59:00.314963 29995 net.cpp:444] bn4a_branch1 <- res4a_branch1
I0113 21:59:00.314973 29995 net.cpp:405] bn4a_branch1 -> res4a_branch1 (in-place)
I0113 21:59:00.315137 29995 net.cpp:150] Setting up bn4a_branch1
I0113 21:59:00.315148 29995 net.cpp:157] Top shape: 1 1024 38 63 (2451456)
I0113 21:59:00.315155 29995 net.cpp:165] Memory required for data: 2124411732
I0113 21:59:00.315165 29995 layer_factory.hpp:77] Creating layer scale4a_branch1
I0113 21:59:00.315176 29995 net.cpp:100] Creating Layer scale4a_branch1
I0113 21:59:00.315183 29995 net.cpp:444] scale4a_branch1 <- res4a_branch1
I0113 21:59:00.315191 29995 net.cpp:405] scale4a_branch1 -> res4a_branch1 (in-place)
I0113 21:59:00.315228 29995 layer_factory.hpp:77] Creating layer scale4a_branch1
I0113 21:59:00.315333 29995 net.cpp:150] Setting up scale4a_branch1
I0113 21:59:00.315345 29995 net.cpp:157] Top shape: 1 1024 38 63 (2451456)
I0113 21:59:00.315351 29995 net.cpp:165] Memory required for data: 2134217556
I0113 21:59:00.315359 29995 layer_factory.hpp:77] Creating layer res4a_branch2a
I0113 21:59:00.315369 29995 net.cpp:100] Creating Layer res4a_branch2a
I0113 21:59:00.315378 29995 net.cpp:444] res4a_branch2a <- res3d_res3d_relu_0_split_1
I0113 21:59:00.315387 29995 net.cpp:418] res4a_branch2a -> res4a_branch2a
I0113 21:59:00.316895 29995 net.cpp:150] Setting up res4a_branch2a
I0113 21:59:00.316915 29995 net.cpp:157] Top shape: 1 256 38 63 (612864)
I0113 21:59:00.316922 29995 net.cpp:165] Memory required for data: 2136669012
I0113 21:59:00.316931 29995 layer_factory.hpp:77] Creating layer bn4a_branch2a
I0113 21:59:00.316941 29995 net.cpp:100] Creating Layer bn4a_branch2a
I0113 21:59:00.316951 29995 net.cpp:444] bn4a_branch2a <- res4a_branch2a
I0113 21:59:00.316959 29995 net.cpp:405] bn4a_branch2a -> res4a_branch2a (in-place)
I0113 21:59:00.317123 29995 net.cpp:150] Setting up bn4a_branch2a
I0113 21:59:00.317134 29995 net.cpp:157] Top shape: 1 256 38 63 (612864)
I0113 21:59:00.317142 29995 net.cpp:165] Memory required for data: 2139120468
I0113 21:59:00.317150 29995 layer_factory.hpp:77] Creating layer scale4a_branch2a
I0113 21:59:00.317159 29995 net.cpp:100] Creating Layer scale4a_branch2a
I0113 21:59:00.317167 29995 net.cpp:444] scale4a_branch2a <- res4a_branch2a
I0113 21:59:00.317176 29995 net.cpp:405] scale4a_branch2a -> res4a_branch2a (in-place)
I0113 21:59:00.317215 29995 layer_factory.hpp:77] Creating layer scale4a_branch2a
I0113 21:59:00.317315 29995 net.cpp:150] Setting up scale4a_branch2a
I0113 21:59:00.317327 29995 net.cpp:157] Top shape: 1 256 38 63 (612864)
I0113 21:59:00.317333 29995 net.cpp:165] Memory required for data: 2141571924
I0113 21:59:00.317342 29995 layer_factory.hpp:77] Creating layer res4a_branch2a_relu
I0113 21:59:00.317353 29995 net.cpp:100] Creating Layer res4a_branch2a_relu
I0113 21:59:00.317360 29995 net.cpp:444] res4a_branch2a_relu <- res4a_branch2a
I0113 21:59:00.317374 29995 net.cpp:405] res4a_branch2a_relu -> res4a_branch2a (in-place)
I0113 21:59:00.317520 29995 net.cpp:150] Setting up res4a_branch2a_relu
I0113 21:59:00.317533 29995 net.cpp:157] Top shape: 1 256 38 63 (612864)
I0113 21:59:00.317540 29995 net.cpp:165] Memory required for data: 2144023380
I0113 21:59:00.317548 29995 layer_factory.hpp:77] Creating layer res4a_branch2b
I0113 21:59:00.317559 29995 net.cpp:100] Creating Layer res4a_branch2b
I0113 21:59:00.317567 29995 net.cpp:444] res4a_branch2b <- res4a_branch2a
I0113 21:59:00.317576 29995 net.cpp:418] res4a_branch2b -> res4a_branch2b
I0113 21:59:00.319753 29995 net.cpp:150] Setting up res4a_branch2b
I0113 21:59:00.319806 29995 net.cpp:157] Top shape: 1 256 38 63 (612864)
I0113 21:59:00.319815 29995 net.cpp:165] Memory required for data: 2146474836
I0113 21:59:00.319828 29995 layer_factory.hpp:77] Creating layer bn4a_branch2b
I0113 21:59:00.319845 29995 net.cpp:100] Creating Layer bn4a_branch2b
I0113 21:59:00.319854 29995 net.cpp:444] bn4a_branch2b <- res4a_branch2b
I0113 21:59:00.319864 29995 net.cpp:405] bn4a_branch2b -> res4a_branch2b (in-place)
I0113 21:59:00.320060 29995 net.cpp:150] Setting up bn4a_branch2b
I0113 21:59:00.320083 29995 net.cpp:157] Top shape: 1 256 38 63 (612864)
I0113 21:59:00.320091 29995 net.cpp:165] Memory required for data: 2148926292
I0113 21:59:00.320114 29995 layer_factory.hpp:77] Creating layer scale4a_branch2b
I0113 21:59:00.320137 29995 net.cpp:100] Creating Layer scale4a_branch2b
I0113 21:59:00.320158 29995 net.cpp:444] scale4a_branch2b <- res4a_branch2b
I0113 21:59:00.320183 29995 net.cpp:405] scale4a_branch2b -> res4a_branch2b (in-place)
I0113 21:59:00.320277 29995 layer_factory.hpp:77] Creating layer scale4a_branch2b
I0113 21:59:00.320395 29995 net.cpp:150] Setting up scale4a_branch2b
I0113 21:59:00.320408 29995 net.cpp:157] Top shape: 1 256 38 63 (612864)
I0113 21:59:00.320415 29995 net.cpp:165] Memory required for data: 2151377748
I0113 21:59:00.320425 29995 layer_factory.hpp:77] Creating layer res4a_branch2b_relu
I0113 21:59:00.320446 29995 net.cpp:100] Creating Layer res4a_branch2b_relu
I0113 21:59:00.320454 29995 net.cpp:444] res4a_branch2b_relu <- res4a_branch2b
I0113 21:59:00.320462 29995 net.cpp:405] res4a_branch2b_relu -> res4a_branch2b (in-place)
I0113 21:59:00.320643 29995 net.cpp:150] Setting up res4a_branch2b_relu
I0113 21:59:00.320657 29995 net.cpp:157] Top shape: 1 256 38 63 (612864)
I0113 21:59:00.320664 29995 net.cpp:165] Memory required for data: 2153829204
I0113 21:59:00.320672 29995 layer_factory.hpp:77] Creating layer res4a_branch2c
I0113 21:59:00.320683 29995 net.cpp:100] Creating Layer res4a_branch2c
I0113 21:59:00.320691 29995 net.cpp:444] res4a_branch2c <- res4a_branch2b
I0113 21:59:00.320701 29995 net.cpp:418] res4a_branch2c -> res4a_branch2c
I0113 21:59:00.321795 29995 net.cpp:150] Setting up res4a_branch2c
I0113 21:59:00.321815 29995 net.cpp:157] Top shape: 1 1024 38 63 (2451456)
I0113 21:59:00.321822 29995 net.cpp:165] Memory required for data: 2163635028
I0113 21:59:00.321831 29995 layer_factory.hpp:77] Creating layer bn4a_branch2c
I0113 21:59:00.321842 29995 net.cpp:100] Creating Layer bn4a_branch2c
I0113 21:59:00.321851 29995 net.cpp:444] bn4a_branch2c <- res4a_branch2c
I0113 21:59:00.321858 29995 net.cpp:405] bn4a_branch2c -> res4a_branch2c (in-place)
I0113 21:59:00.322046 29995 net.cpp:150] Setting up bn4a_branch2c
I0113 21:59:00.322058 29995 net.cpp:157] Top shape: 1 1024 38 63 (2451456)
I0113 21:59:00.322067 29995 net.cpp:165] Memory required for data: 2173440852
I0113 21:59:00.322077 29995 layer_factory.hpp:77] Creating layer scale4a_branch2c
I0113 21:59:00.322087 29995 net.cpp:100] Creating Layer scale4a_branch2c
I0113 21:59:00.322094 29995 net.cpp:444] scale4a_branch2c <- res4a_branch2c
I0113 21:59:00.322118 29995 net.cpp:405] scale4a_branch2c -> res4a_branch2c (in-place)
I0113 21:59:00.322156 29995 layer_factory.hpp:77] Creating layer scale4a_branch2c
I0113 21:59:00.322278 29995 net.cpp:150] Setting up scale4a_branch2c
I0113 21:59:00.322291 29995 net.cpp:157] Top shape: 1 1024 38 63 (2451456)
I0113 21:59:00.322320 29995 net.cpp:165] Memory required for data: 2183246676
I0113 21:59:00.322329 29995 layer_factory.hpp:77] Creating layer res4a
I0113 21:59:00.322343 29995 net.cpp:100] Creating Layer res4a
I0113 21:59:00.322351 29995 net.cpp:444] res4a <- res4a_branch1
I0113 21:59:00.322360 29995 net.cpp:444] res4a <- res4a_branch2c
I0113 21:59:00.322369 29995 net.cpp:418] res4a -> res4a
I0113 21:59:00.322396 29995 net.cpp:150] Setting up res4a
I0113 21:59:00.322407 29995 net.cpp:157] Top shape: 1 1024 38 63 (2451456)
I0113 21:59:00.322427 29995 net.cpp:165] Memory required for data: 2193052500
I0113 21:59:00.322434 29995 layer_factory.hpp:77] Creating layer res4a_relu
I0113 21:59:00.322443 29995 net.cpp:100] Creating Layer res4a_relu
I0113 21:59:00.322464 29995 net.cpp:444] res4a_relu <- res4a
I0113 21:59:00.322473 29995 net.cpp:405] res4a_relu -> res4a (in-place)
I0113 21:59:00.322701 29995 net.cpp:150] Setting up res4a_relu
I0113 21:59:00.322715 29995 net.cpp:157] Top shape: 1 1024 38 63 (2451456)
I0113 21:59:00.322721 29995 net.cpp:165] Memory required for data: 2202858324
I0113 21:59:00.322741 29995 layer_factory.hpp:77] Creating layer res4a_res4a_relu_0_split
I0113 21:59:00.322751 29995 net.cpp:100] Creating Layer res4a_res4a_relu_0_split
I0113 21:59:00.322772 29995 net.cpp:444] res4a_res4a_relu_0_split <- res4a
I0113 21:59:00.322783 29995 net.cpp:418] res4a_res4a_relu_0_split -> res4a_res4a_relu_0_split_0
I0113 21:59:00.322794 29995 net.cpp:418] res4a_res4a_relu_0_split -> res4a_res4a_relu_0_split_1
I0113 21:59:00.322834 29995 net.cpp:150] Setting up res4a_res4a_relu_0_split
I0113 21:59:00.322845 29995 net.cpp:157] Top shape: 1 1024 38 63 (2451456)
I0113 21:59:00.322854 29995 net.cpp:157] Top shape: 1 1024 38 63 (2451456)
I0113 21:59:00.322860 29995 net.cpp:165] Memory required for data: 2222469972
I0113 21:59:00.322867 29995 layer_factory.hpp:77] Creating layer res4b_branch2a
I0113 21:59:00.322878 29995 net.cpp:100] Creating Layer res4b_branch2a
I0113 21:59:00.322887 29995 net.cpp:444] res4b_branch2a <- res4a_res4a_relu_0_split_0
I0113 21:59:00.322896 29995 net.cpp:418] res4b_branch2a -> res4b_branch2a
I0113 21:59:00.324636 29995 net.cpp:150] Setting up res4b_branch2a
I0113 21:59:00.324667 29995 net.cpp:157] Top shape: 1 256 38 63 (612864)
I0113 21:59:00.324676 29995 net.cpp:165] Memory required for data: 2224921428
I0113 21:59:00.324684 29995 layer_factory.hpp:77] Creating layer bn4b_branch2a
I0113 21:59:00.324699 29995 net.cpp:100] Creating Layer bn4b_branch2a
I0113 21:59:00.324708 29995 net.cpp:444] bn4b_branch2a <- res4b_branch2a
I0113 21:59:00.324718 29995 net.cpp:405] bn4b_branch2a -> res4b_branch2a (in-place)
I0113 21:59:00.324890 29995 net.cpp:150] Setting up bn4b_branch2a
I0113 21:59:00.324903 29995 net.cpp:157] Top shape: 1 256 38 63 (612864)
I0113 21:59:00.324908 29995 net.cpp:165] Memory required for data: 2227372884
I0113 21:59:00.324918 29995 layer_factory.hpp:77] Creating layer scale4b_branch2a
I0113 21:59:00.324926 29995 net.cpp:100] Creating Layer scale4b_branch2a
I0113 21:59:00.324934 29995 net.cpp:444] scale4b_branch2a <- res4b_branch2a
I0113 21:59:00.324942 29995 net.cpp:405] scale4b_branch2a -> res4b_branch2a (in-place)
I0113 21:59:00.324982 29995 layer_factory.hpp:77] Creating layer scale4b_branch2a
I0113 21:59:00.325083 29995 net.cpp:150] Setting up scale4b_branch2a
I0113 21:59:00.325094 29995 net.cpp:157] Top shape: 1 256 38 63 (612864)
I0113 21:59:00.325100 29995 net.cpp:165] Memory required for data: 2229824340
I0113 21:59:00.325109 29995 layer_factory.hpp:77] Creating layer res4b_branch2a_relu
I0113 21:59:00.325116 29995 net.cpp:100] Creating Layer res4b_branch2a_relu
I0113 21:59:00.325124 29995 net.cpp:444] res4b_branch2a_relu <- res4b_branch2a
I0113 21:59:00.325132 29995 net.cpp:405] res4b_branch2a_relu -> res4b_branch2a (in-place)
I0113 21:59:00.325283 29995 net.cpp:150] Setting up res4b_branch2a_relu
I0113 21:59:00.325294 29995 net.cpp:157] Top shape: 1 256 38 63 (612864)
I0113 21:59:00.325300 29995 net.cpp:165] Memory required for data: 2232275796
I0113 21:59:00.325306 29995 layer_factory.hpp:77] Creating layer res4b_branch2b
I0113 21:59:00.325325 29995 net.cpp:100] Creating Layer res4b_branch2b
I0113 21:59:00.325333 29995 net.cpp:444] res4b_branch2b <- res4b_branch2a
I0113 21:59:00.325343 29995 net.cpp:418] res4b_branch2b -> res4b_branch2b
I0113 21:59:00.327424 29995 net.cpp:150] Setting up res4b_branch2b
I0113 21:59:00.327448 29995 net.cpp:157] Top shape: 1 256 38 63 (612864)
I0113 21:59:00.327468 29995 net.cpp:165] Memory required for data: 2234727252
I0113 21:59:00.327481 29995 layer_factory.hpp:77] Creating layer bn4b_branch2b
I0113 21:59:00.327494 29995 net.cpp:100] Creating Layer bn4b_branch2b
I0113 21:59:00.327503 29995 net.cpp:444] bn4b_branch2b <- res4b_branch2b
I0113 21:59:00.327514 29995 net.cpp:405] bn4b_branch2b -> res4b_branch2b (in-place)
I0113 21:59:00.327805 29995 net.cpp:150] Setting up bn4b_branch2b
I0113 21:59:00.327817 29995 net.cpp:157] Top shape: 1 256 38 63 (612864)
I0113 21:59:00.327826 29995 net.cpp:165] Memory required for data: 2237178708
I0113 21:59:00.327836 29995 layer_factory.hpp:77] Creating layer scale4b_branch2b
I0113 21:59:00.327860 29995 net.cpp:100] Creating Layer scale4b_branch2b
I0113 21:59:00.327880 29995 net.cpp:444] scale4b_branch2b <- res4b_branch2b
I0113 21:59:00.327891 29995 net.cpp:405] scale4b_branch2b -> res4b_branch2b (in-place)
I0113 21:59:00.327936 29995 layer_factory.hpp:77] Creating layer scale4b_branch2b
I0113 21:59:00.328040 29995 net.cpp:150] Setting up scale4b_branch2b
I0113 21:59:00.328050 29995 net.cpp:157] Top shape: 1 256 38 63 (612864)
I0113 21:59:00.328058 29995 net.cpp:165] Memory required for data: 2239630164
I0113 21:59:00.328065 29995 layer_factory.hpp:77] Creating layer res4b_branch2b_relu
I0113 21:59:00.328073 29995 net.cpp:100] Creating Layer res4b_branch2b_relu
I0113 21:59:00.328081 29995 net.cpp:444] res4b_branch2b_relu <- res4b_branch2b
I0113 21:59:00.328091 29995 net.cpp:405] res4b_branch2b_relu -> res4b_branch2b (in-place)
I0113 21:59:00.328613 29995 net.cpp:150] Setting up res4b_branch2b_relu
I0113 21:59:00.328629 29995 net.cpp:157] Top shape: 1 256 38 63 (612864)
I0113 21:59:00.328637 29995 net.cpp:165] Memory required for data: 2242081620
I0113 21:59:00.328645 29995 layer_factory.hpp:77] Creating layer res4b_branch2c
I0113 21:59:00.328656 29995 net.cpp:100] Creating Layer res4b_branch2c
I0113 21:59:00.328665 29995 net.cpp:444] res4b_branch2c <- res4b_branch2b
I0113 21:59:00.328675 29995 net.cpp:418] res4b_branch2c -> res4b_branch2c
I0113 21:59:00.329720 29995 net.cpp:150] Setting up res4b_branch2c
I0113 21:59:00.329736 29995 net.cpp:157] Top shape: 1 1024 38 63 (2451456)
I0113 21:59:00.329746 29995 net.cpp:165] Memory required for data: 2251887444
I0113 21:59:00.329753 29995 layer_factory.hpp:77] Creating layer bn4b_branch2c
I0113 21:59:00.329766 29995 net.cpp:100] Creating Layer bn4b_branch2c
I0113 21:59:00.329773 29995 net.cpp:444] bn4b_branch2c <- res4b_branch2c
I0113 21:59:00.329782 29995 net.cpp:405] bn4b_branch2c -> res4b_branch2c (in-place)
I0113 21:59:00.329957 29995 net.cpp:150] Setting up bn4b_branch2c
I0113 21:59:00.329967 29995 net.cpp:157] Top shape: 1 1024 38 63 (2451456)
I0113 21:59:00.329973 29995 net.cpp:165] Memory required for data: 2261693268
I0113 21:59:00.329998 29995 layer_factory.hpp:77] Creating layer scale4b_branch2c
I0113 21:59:00.330020 29995 net.cpp:100] Creating Layer scale4b_branch2c
I0113 21:59:00.330029 29995 net.cpp:444] scale4b_branch2c <- res4b_branch2c
I0113 21:59:00.330036 29995 net.cpp:405] scale4b_branch2c -> res4b_branch2c (in-place)
I0113 21:59:00.330077 29995 layer_factory.hpp:77] Creating layer scale4b_branch2c
I0113 21:59:00.330226 29995 net.cpp:150] Setting up scale4b_branch2c
I0113 21:59:00.330237 29995 net.cpp:157] Top shape: 1 1024 38 63 (2451456)
I0113 21:59:00.330243 29995 net.cpp:165] Memory required for data: 2271499092
I0113 21:59:00.330251 29995 layer_factory.hpp:77] Creating layer res4b
I0113 21:59:00.330260 29995 net.cpp:100] Creating Layer res4b
I0113 21:59:00.330267 29995 net.cpp:444] res4b <- res4a_res4a_relu_0_split_1
I0113 21:59:00.330276 29995 net.cpp:444] res4b <- res4b_branch2c
I0113 21:59:00.330307 29995 net.cpp:418] res4b -> res4b
I0113 21:59:00.330361 29995 net.cpp:150] Setting up res4b
I0113 21:59:00.330384 29995 net.cpp:157] Top shape: 1 1024 38 63 (2451456)
I0113 21:59:00.330390 29995 net.cpp:165] Memory required for data: 2281304916
I0113 21:59:00.330411 29995 layer_factory.hpp:77] Creating layer res4b_relu
I0113 21:59:00.330456 29995 net.cpp:100] Creating Layer res4b_relu
I0113 21:59:00.330476 29995 net.cpp:444] res4b_relu <- res4b
I0113 21:59:00.330483 29995 net.cpp:405] res4b_relu -> res4b (in-place)
I0113 21:59:00.330992 29995 net.cpp:150] Setting up res4b_relu
I0113 21:59:00.331008 29995 net.cpp:157] Top shape: 1 1024 38 63 (2451456)
I0113 21:59:00.331017 29995 net.cpp:165] Memory required for data: 2291110740
I0113 21:59:00.331024 29995 layer_factory.hpp:77] Creating layer res4b_res4b_relu_0_split
I0113 21:59:00.331033 29995 net.cpp:100] Creating Layer res4b_res4b_relu_0_split
I0113 21:59:00.331040 29995 net.cpp:444] res4b_res4b_relu_0_split <- res4b
I0113 21:59:00.331053 29995 net.cpp:418] res4b_res4b_relu_0_split -> res4b_res4b_relu_0_split_0
I0113 21:59:00.331064 29995 net.cpp:418] res4b_res4b_relu_0_split -> res4b_res4b_relu_0_split_1
I0113 21:59:00.331106 29995 net.cpp:150] Setting up res4b_res4b_relu_0_split
I0113 21:59:00.331116 29995 net.cpp:157] Top shape: 1 1024 38 63 (2451456)
I0113 21:59:00.331125 29995 net.cpp:157] Top shape: 1 1024 38 63 (2451456)
I0113 21:59:00.331131 29995 net.cpp:165] Memory required for data: 2310722388
I0113 21:59:00.331138 29995 layer_factory.hpp:77] Creating layer res4c_branch2a
I0113 21:59:00.331151 29995 net.cpp:100] Creating Layer res4c_branch2a
I0113 21:59:00.331158 29995 net.cpp:444] res4c_branch2a <- res4b_res4b_relu_0_split_0
I0113 21:59:00.331167 29995 net.cpp:418] res4c_branch2a -> res4c_branch2a
I0113 21:59:00.332767 29995 net.cpp:150] Setting up res4c_branch2a
I0113 21:59:00.332787 29995 net.cpp:157] Top shape: 1 256 38 63 (612864)
I0113 21:59:00.332795 29995 net.cpp:165] Memory required for data: 2313173844
I0113 21:59:00.332804 29995 layer_factory.hpp:77] Creating layer bn4c_branch2a
I0113 21:59:00.332816 29995 net.cpp:100] Creating Layer bn4c_branch2a
I0113 21:59:00.332825 29995 net.cpp:444] bn4c_branch2a <- res4c_branch2a
I0113 21:59:00.332834 29995 net.cpp:405] bn4c_branch2a -> res4c_branch2a (in-place)
I0113 21:59:00.333001 29995 net.cpp:150] Setting up bn4c_branch2a
I0113 21:59:00.333012 29995 net.cpp:157] Top shape: 1 256 38 63 (612864)
I0113 21:59:00.333019 29995 net.cpp:165] Memory required for data: 2315625300
I0113 21:59:00.333029 29995 layer_factory.hpp:77] Creating layer scale4c_branch2a
I0113 21:59:00.333040 29995 net.cpp:100] Creating Layer scale4c_branch2a
I0113 21:59:00.333048 29995 net.cpp:444] scale4c_branch2a <- res4c_branch2a
I0113 21:59:00.333056 29995 net.cpp:405] scale4c_branch2a -> res4c_branch2a (in-place)
I0113 21:59:00.333096 29995 layer_factory.hpp:77] Creating layer scale4c_branch2a
I0113 21:59:00.333199 29995 net.cpp:150] Setting up scale4c_branch2a
I0113 21:59:00.333209 29995 net.cpp:157] Top shape: 1 256 38 63 (612864)
I0113 21:59:00.333216 29995 net.cpp:165] Memory required for data: 2318076756
I0113 21:59:00.333225 29995 layer_factory.hpp:77] Creating layer res4c_branch2a_relu
I0113 21:59:00.333233 29995 net.cpp:100] Creating Layer res4c_branch2a_relu
I0113 21:59:00.333241 29995 net.cpp:444] res4c_branch2a_relu <- res4c_branch2a
I0113 21:59:00.333250 29995 net.cpp:405] res4c_branch2a_relu -> res4c_branch2a (in-place)
I0113 21:59:00.333396 29995 net.cpp:150] Setting up res4c_branch2a_relu
I0113 21:59:00.333410 29995 net.cpp:157] Top shape: 1 256 38 63 (612864)
I0113 21:59:00.333415 29995 net.cpp:165] Memory required for data: 2320528212
I0113 21:59:00.333421 29995 layer_factory.hpp:77] Creating layer res4c_branch2b
I0113 21:59:00.333432 29995 net.cpp:100] Creating Layer res4c_branch2b
I0113 21:59:00.333441 29995 net.cpp:444] res4c_branch2b <- res4c_branch2a
I0113 21:59:00.333449 29995 net.cpp:418] res4c_branch2b -> res4c_branch2b
I0113 21:59:00.335561 29995 net.cpp:150] Setting up res4c_branch2b
I0113 21:59:00.335619 29995 net.cpp:157] Top shape: 1 256 38 63 (612864)
I0113 21:59:00.335628 29995 net.cpp:165] Memory required for data: 2322979668
I0113 21:59:00.335649 29995 layer_factory.hpp:77] Creating layer bn4c_branch2b
I0113 21:59:00.335711 29995 net.cpp:100] Creating Layer bn4c_branch2b
I0113 21:59:00.335733 29995 net.cpp:444] bn4c_branch2b <- res4c_branch2b
I0113 21:59:00.335744 29995 net.cpp:405] bn4c_branch2b -> res4c_branch2b (in-place)
I0113 21:59:00.335937 29995 net.cpp:150] Setting up bn4c_branch2b
I0113 21:59:00.335948 29995 net.cpp:157] Top shape: 1 256 38 63 (612864)
I0113 21:59:00.335954 29995 net.cpp:165] Memory required for data: 2325431124
I0113 21:59:00.335978 29995 layer_factory.hpp:77] Creating layer scale4c_branch2b
I0113 21:59:00.335988 29995 net.cpp:100] Creating Layer scale4c_branch2b
I0113 21:59:00.336009 29995 net.cpp:444] scale4c_branch2b <- res4c_branch2b
I0113 21:59:00.336017 29995 net.cpp:405] scale4c_branch2b -> res4c_branch2b (in-place)
I0113 21:59:00.336061 29995 layer_factory.hpp:77] Creating layer scale4c_branch2b
I0113 21:59:00.336205 29995 net.cpp:150] Setting up scale4c_branch2b
I0113 21:59:00.336215 29995 net.cpp:157] Top shape: 1 256 38 63 (612864)
I0113 21:59:00.336222 29995 net.cpp:165] Memory required for data: 2327882580
I0113 21:59:00.336244 29995 layer_factory.hpp:77] Creating layer res4c_branch2b_relu
I0113 21:59:00.336254 29995 net.cpp:100] Creating Layer res4c_branch2b_relu
I0113 21:59:00.336274 29995 net.cpp:444] res4c_branch2b_relu <- res4c_branch2b
I0113 21:59:00.336283 29995 net.cpp:405] res4c_branch2b_relu -> res4c_branch2b (in-place)
I0113 21:59:00.336455 29995 net.cpp:150] Setting up res4c_branch2b_relu
I0113 21:59:00.336468 29995 net.cpp:157] Top shape: 1 256 38 63 (612864)
I0113 21:59:00.336475 29995 net.cpp:165] Memory required for data: 2330334036
I0113 21:59:00.336496 29995 layer_factory.hpp:77] Creating layer res4c_branch2c
I0113 21:59:00.336508 29995 net.cpp:100] Creating Layer res4c_branch2c
I0113 21:59:00.336514 29995 net.cpp:444] res4c_branch2c <- res4c_branch2b
I0113 21:59:00.336524 29995 net.cpp:418] res4c_branch2c -> res4c_branch2c
I0113 21:59:00.337577 29995 net.cpp:150] Setting up res4c_branch2c
I0113 21:59:00.337595 29995 net.cpp:157] Top shape: 1 1024 38 63 (2451456)
I0113 21:59:00.337616 29995 net.cpp:165] Memory required for data: 2340139860
I0113 21:59:00.337626 29995 layer_factory.hpp:77] Creating layer bn4c_branch2c
I0113 21:59:00.337651 29995 net.cpp:100] Creating Layer bn4c_branch2c
I0113 21:59:00.337704 29995 net.cpp:444] bn4c_branch2c <- res4c_branch2c
I0113 21:59:00.337714 29995 net.cpp:405] bn4c_branch2c -> res4c_branch2c (in-place)
I0113 21:59:00.337925 29995 net.cpp:150] Setting up bn4c_branch2c
I0113 21:59:00.337936 29995 net.cpp:157] Top shape: 1 1024 38 63 (2451456)
I0113 21:59:00.337942 29995 net.cpp:165] Memory required for data: 2349945684
I0113 21:59:00.337965 29995 layer_factory.hpp:77] Creating layer scale4c_branch2c
I0113 21:59:00.337992 29995 net.cpp:100] Creating Layer scale4c_branch2c
I0113 21:59:00.338001 29995 net.cpp:444] scale4c_branch2c <- res4c_branch2c
I0113 21:59:00.338021 29995 net.cpp:405] scale4c_branch2c -> res4c_branch2c (in-place)
I0113 21:59:00.338112 29995 layer_factory.hpp:77] Creating layer scale4c_branch2c
I0113 21:59:00.338310 29995 net.cpp:150] Setting up scale4c_branch2c
I0113 21:59:00.338321 29995 net.cpp:157] Top shape: 1 1024 38 63 (2451456)
I0113 21:59:00.338327 29995 net.cpp:165] Memory required for data: 2359751508
I0113 21:59:00.338349 29995 layer_factory.hpp:77] Creating layer res4c
I0113 21:59:00.338359 29995 net.cpp:100] Creating Layer res4c
I0113 21:59:00.338382 29995 net.cpp:444] res4c <- res4b_res4b_relu_0_split_1
I0113 21:59:00.338402 29995 net.cpp:444] res4c <- res4c_branch2c
I0113 21:59:00.338423 29995 net.cpp:418] res4c -> res4c
I0113 21:59:00.338490 29995 net.cpp:150] Setting up res4c
I0113 21:59:00.338500 29995 net.cpp:157] Top shape: 1 1024 38 63 (2451456)
I0113 21:59:00.338508 29995 net.cpp:165] Memory required for data: 2369557332
I0113 21:59:00.338520 29995 layer_factory.hpp:77] Creating layer res4c_relu
I0113 21:59:00.338528 29995 net.cpp:100] Creating Layer res4c_relu
I0113 21:59:00.338536 29995 net.cpp:444] res4c_relu <- res4c
I0113 21:59:00.338546 29995 net.cpp:405] res4c_relu -> res4c (in-place)
I0113 21:59:00.338724 29995 net.cpp:150] Setting up res4c_relu
I0113 21:59:00.338737 29995 net.cpp:157] Top shape: 1 1024 38 63 (2451456)
I0113 21:59:00.338743 29995 net.cpp:165] Memory required for data: 2379363156
I0113 21:59:00.338763 29995 layer_factory.hpp:77] Creating layer res4c_res4c_relu_0_split
I0113 21:59:00.338786 29995 net.cpp:100] Creating Layer res4c_res4c_relu_0_split
I0113 21:59:00.338794 29995 net.cpp:444] res4c_res4c_relu_0_split <- res4c
I0113 21:59:00.338804 29995 net.cpp:418] res4c_res4c_relu_0_split -> res4c_res4c_relu_0_split_0
I0113 21:59:00.338814 29995 net.cpp:418] res4c_res4c_relu_0_split -> res4c_res4c_relu_0_split_1
I0113 21:59:00.338870 29995 net.cpp:150] Setting up res4c_res4c_relu_0_split
I0113 21:59:00.338879 29995 net.cpp:157] Top shape: 1 1024 38 63 (2451456)
I0113 21:59:00.338899 29995 net.cpp:157] Top shape: 1 1024 38 63 (2451456)
I0113 21:59:00.338917 29995 net.cpp:165] Memory required for data: 2398974804
I0113 21:59:00.338937 29995 layer_factory.hpp:77] Creating layer res4d_branch2a
I0113 21:59:00.338948 29995 net.cpp:100] Creating Layer res4d_branch2a
I0113 21:59:00.338956 29995 net.cpp:444] res4d_branch2a <- res4c_res4c_relu_0_split_0
I0113 21:59:00.338966 29995 net.cpp:418] res4d_branch2a -> res4d_branch2a
I0113 21:59:00.340854 29995 net.cpp:150] Setting up res4d_branch2a
I0113 21:59:00.340879 29995 net.cpp:157] Top shape: 1 256 38 63 (612864)
I0113 21:59:00.340901 29995 net.cpp:165] Memory required for data: 2401426260
I0113 21:59:00.340911 29995 layer_factory.hpp:77] Creating layer bn4d_branch2a
I0113 21:59:00.340924 29995 net.cpp:100] Creating Layer bn4d_branch2a
I0113 21:59:00.340931 29995 net.cpp:444] bn4d_branch2a <- res4d_branch2a
I0113 21:59:00.340942 29995 net.cpp:405] bn4d_branch2a -> res4d_branch2a (in-place)
I0113 21:59:00.341126 29995 net.cpp:150] Setting up bn4d_branch2a
I0113 21:59:00.341136 29995 net.cpp:157] Top shape: 1 256 38 63 (612864)
I0113 21:59:00.341142 29995 net.cpp:165] Memory required for data: 2403877716
I0113 21:59:00.341164 29995 layer_factory.hpp:77] Creating layer scale4d_branch2a
I0113 21:59:00.341174 29995 net.cpp:100] Creating Layer scale4d_branch2a
I0113 21:59:00.341182 29995 net.cpp:444] scale4d_branch2a <- res4d_branch2a
I0113 21:59:00.341192 29995 net.cpp:405] scale4d_branch2a -> res4d_branch2a (in-place)
I0113 21:59:00.341245 29995 layer_factory.hpp:77] Creating layer scale4d_branch2a
I0113 21:59:00.341377 29995 net.cpp:150] Setting up scale4d_branch2a
I0113 21:59:00.341387 29995 net.cpp:157] Top shape: 1 256 38 63 (612864)
I0113 21:59:00.341392 29995 net.cpp:165] Memory required for data: 2406329172
I0113 21:59:00.341414 29995 layer_factory.hpp:77] Creating layer res4d_branch2a_relu
I0113 21:59:00.341435 29995 net.cpp:100] Creating Layer res4d_branch2a_relu
I0113 21:59:00.341444 29995 net.cpp:444] res4d_branch2a_relu <- res4d_branch2a
I0113 21:59:00.341451 29995 net.cpp:405] res4d_branch2a_relu -> res4d_branch2a (in-place)
I0113 21:59:00.341611 29995 net.cpp:150] Setting up res4d_branch2a_relu
I0113 21:59:00.341624 29995 net.cpp:157] Top shape: 1 256 38 63 (612864)
I0113 21:59:00.341629 29995 net.cpp:165] Memory required for data: 2408780628
I0113 21:59:00.341648 29995 layer_factory.hpp:77] Creating layer res4d_branch2b
I0113 21:59:00.341672 29995 net.cpp:100] Creating Layer res4d_branch2b
I0113 21:59:00.341681 29995 net.cpp:444] res4d_branch2b <- res4d_branch2a
I0113 21:59:00.341691 29995 net.cpp:418] res4d_branch2b -> res4d_branch2b
I0113 21:59:00.343935 29995 net.cpp:150] Setting up res4d_branch2b
I0113 21:59:00.343961 29995 net.cpp:157] Top shape: 1 256 38 63 (612864)
I0113 21:59:00.343983 29995 net.cpp:165] Memory required for data: 2411232084
I0113 21:59:00.343993 29995 layer_factory.hpp:77] Creating layer bn4d_branch2b
I0113 21:59:00.344007 29995 net.cpp:100] Creating Layer bn4d_branch2b
I0113 21:59:00.344022 29995 net.cpp:444] bn4d_branch2b <- res4d_branch2b
I0113 21:59:00.344048 29995 net.cpp:405] bn4d_branch2b -> res4d_branch2b (in-place)
I0113 21:59:00.344295 29995 net.cpp:150] Setting up bn4d_branch2b
I0113 21:59:00.344307 29995 net.cpp:157] Top shape: 1 256 38 63 (612864)
I0113 21:59:00.344313 29995 net.cpp:165] Memory required for data: 2413683540
I0113 21:59:00.344337 29995 layer_factory.hpp:77] Creating layer scale4d_branch2b
I0113 21:59:00.344364 29995 net.cpp:100] Creating Layer scale4d_branch2b
I0113 21:59:00.344372 29995 net.cpp:444] scale4d_branch2b <- res4d_branch2b
I0113 21:59:00.344382 29995 net.cpp:405] scale4d_branch2b -> res4d_branch2b (in-place)
I0113 21:59:00.344496 29995 layer_factory.hpp:77] Creating layer scale4d_branch2b
I0113 21:59:00.344662 29995 net.cpp:150] Setting up scale4d_branch2b
I0113 21:59:00.344673 29995 net.cpp:157] Top shape: 1 256 38 63 (612864)
I0113 21:59:00.344681 29995 net.cpp:165] Memory required for data: 2416134996
I0113 21:59:00.344702 29995 layer_factory.hpp:77] Creating layer res4d_branch2b_relu
I0113 21:59:00.344712 29995 net.cpp:100] Creating Layer res4d_branch2b_relu
I0113 21:59:00.344720 29995 net.cpp:444] res4d_branch2b_relu <- res4d_branch2b
I0113 21:59:00.344729 29995 net.cpp:405] res4d_branch2b_relu -> res4d_branch2b (in-place)
I0113 21:59:00.345227 29995 net.cpp:150] Setting up res4d_branch2b_relu
I0113 21:59:00.345243 29995 net.cpp:157] Top shape: 1 256 38 63 (612864)
I0113 21:59:00.345264 29995 net.cpp:165] Memory required for data: 2418586452
I0113 21:59:00.345273 29995 layer_factory.hpp:77] Creating layer res4d_branch2c
I0113 21:59:00.345299 29995 net.cpp:100] Creating Layer res4d_branch2c
I0113 21:59:00.345337 29995 net.cpp:444] res4d_branch2c <- res4d_branch2b
I0113 21:59:00.345348 29995 net.cpp:418] res4d_branch2c -> res4d_branch2c
I0113 21:59:00.346077 29995 net.cpp:150] Setting up res4d_branch2c
I0113 21:59:00.346093 29995 net.cpp:157] Top shape: 1 1024 38 63 (2451456)
I0113 21:59:00.346101 29995 net.cpp:165] Memory required for data: 2428392276
I0113 21:59:00.346124 29995 layer_factory.hpp:77] Creating layer bn4d_branch2c
I0113 21:59:00.346148 29995 net.cpp:100] Creating Layer bn4d_branch2c
I0113 21:59:00.346169 29995 net.cpp:444] bn4d_branch2c <- res4d_branch2c
I0113 21:59:00.346179 29995 net.cpp:405] bn4d_branch2c -> res4d_branch2c (in-place)
I0113 21:59:00.346391 29995 net.cpp:150] Setting up bn4d_branch2c
I0113 21:59:00.346402 29995 net.cpp:157] Top shape: 1 1024 38 63 (2451456)
I0113 21:59:00.346408 29995 net.cpp:165] Memory required for data: 2438198100
I0113 21:59:00.346431 29995 layer_factory.hpp:77] Creating layer scale4d_branch2c
I0113 21:59:00.346441 29995 net.cpp:100] Creating Layer scale4d_branch2c
I0113 21:59:00.346449 29995 net.cpp:444] scale4d_branch2c <- res4d_branch2c
I0113 21:59:00.346457 29995 net.cpp:405] scale4d_branch2c -> res4d_branch2c (in-place)
I0113 21:59:00.346509 29995 layer_factory.hpp:77] Creating layer scale4d_branch2c
I0113 21:59:00.346629 29995 net.cpp:150] Setting up scale4d_branch2c
I0113 21:59:00.346639 29995 net.cpp:157] Top shape: 1 1024 38 63 (2451456)
I0113 21:59:00.346647 29995 net.cpp:165] Memory required for data: 2448003924
I0113 21:59:00.346666 29995 layer_factory.hpp:77] Creating layer res4d
I0113 21:59:00.346676 29995 net.cpp:100] Creating Layer res4d
I0113 21:59:00.346685 29995 net.cpp:444] res4d <- res4c_res4c_relu_0_split_1
I0113 21:59:00.346693 29995 net.cpp:444] res4d <- res4d_branch2c
I0113 21:59:00.346702 29995 net.cpp:418] res4d -> res4d
I0113 21:59:00.346742 29995 net.cpp:150] Setting up res4d
I0113 21:59:00.346752 29995 net.cpp:157] Top shape: 1 1024 38 63 (2451456)
I0113 21:59:00.346758 29995 net.cpp:165] Memory required for data: 2457809748
I0113 21:59:00.346765 29995 layer_factory.hpp:77] Creating layer res4d_relu
I0113 21:59:00.346773 29995 net.cpp:100] Creating Layer res4d_relu
I0113 21:59:00.346796 29995 net.cpp:444] res4d_relu <- res4d
I0113 21:59:00.346818 29995 net.cpp:405] res4d_relu -> res4d (in-place)
I0113 21:59:00.347340 29995 net.cpp:150] Setting up res4d_relu
I0113 21:59:00.347362 29995 net.cpp:157] Top shape: 1 1024 38 63 (2451456)
I0113 21:59:00.347383 29995 net.cpp:165] Memory required for data: 2467615572
I0113 21:59:00.347422 29995 layer_factory.hpp:77] Creating layer res4d_res4d_relu_0_split
I0113 21:59:00.347432 29995 net.cpp:100] Creating Layer res4d_res4d_relu_0_split
I0113 21:59:00.347440 29995 net.cpp:444] res4d_res4d_relu_0_split <- res4d
I0113 21:59:00.347450 29995 net.cpp:418] res4d_res4d_relu_0_split -> res4d_res4d_relu_0_split_0
I0113 21:59:00.347461 29995 net.cpp:418] res4d_res4d_relu_0_split -> res4d_res4d_relu_0_split_1
I0113 21:59:00.347506 29995 net.cpp:150] Setting up res4d_res4d_relu_0_split
I0113 21:59:00.347517 29995 net.cpp:157] Top shape: 1 1024 38 63 (2451456)
I0113 21:59:00.347524 29995 net.cpp:157] Top shape: 1 1024 38 63 (2451456)
I0113 21:59:00.347544 29995 net.cpp:165] Memory required for data: 2487227220
I0113 21:59:00.347551 29995 layer_factory.hpp:77] Creating layer res4e_branch2a
I0113 21:59:00.347563 29995 net.cpp:100] Creating Layer res4e_branch2a
I0113 21:59:00.347573 29995 net.cpp:444] res4e_branch2a <- res4d_res4d_relu_0_split_0
I0113 21:59:00.347581 29995 net.cpp:418] res4e_branch2a -> res4e_branch2a
I0113 21:59:00.349236 29995 net.cpp:150] Setting up res4e_branch2a
I0113 21:59:00.349259 29995 net.cpp:157] Top shape: 1 256 38 63 (612864)
I0113 21:59:00.349268 29995 net.cpp:165] Memory required for data: 2489678676
I0113 21:59:00.349278 29995 layer_factory.hpp:77] Creating layer bn4e_branch2a
I0113 21:59:00.349292 29995 net.cpp:100] Creating Layer bn4e_branch2a
I0113 21:59:00.349299 29995 net.cpp:444] bn4e_branch2a <- res4e_branch2a
I0113 21:59:00.349309 29995 net.cpp:405] bn4e_branch2a -> res4e_branch2a (in-place)
I0113 21:59:00.349491 29995 net.cpp:150] Setting up bn4e_branch2a
I0113 21:59:00.349503 29995 net.cpp:157] Top shape: 1 256 38 63 (612864)
I0113 21:59:00.349509 29995 net.cpp:165] Memory required for data: 2492130132
I0113 21:59:00.349520 29995 layer_factory.hpp:77] Creating layer scale4e_branch2a
I0113 21:59:00.349531 29995 net.cpp:100] Creating Layer scale4e_branch2a
I0113 21:59:00.349539 29995 net.cpp:444] scale4e_branch2a <- res4e_branch2a
I0113 21:59:00.349547 29995 net.cpp:405] scale4e_branch2a -> res4e_branch2a (in-place)
I0113 21:59:00.349606 29995 layer_factory.hpp:77] Creating layer scale4e_branch2a
I0113 21:59:00.349755 29995 net.cpp:150] Setting up scale4e_branch2a
I0113 21:59:00.349766 29995 net.cpp:157] Top shape: 1 256 38 63 (612864)
I0113 21:59:00.349773 29995 net.cpp:165] Memory required for data: 2494581588
I0113 21:59:00.349782 29995 layer_factory.hpp:77] Creating layer res4e_branch2a_relu
I0113 21:59:00.349792 29995 net.cpp:100] Creating Layer res4e_branch2a_relu
I0113 21:59:00.349798 29995 net.cpp:444] res4e_branch2a_relu <- res4e_branch2a
I0113 21:59:00.349808 29995 net.cpp:405] res4e_branch2a_relu -> res4e_branch2a (in-place)
I0113 21:59:00.349972 29995 net.cpp:150] Setting up res4e_branch2a_relu
I0113 21:59:00.349983 29995 net.cpp:157] Top shape: 1 256 38 63 (612864)
I0113 21:59:00.349990 29995 net.cpp:165] Memory required for data: 2497033044
I0113 21:59:00.350009 29995 layer_factory.hpp:77] Creating layer res4e_branch2b
I0113 21:59:00.350023 29995 net.cpp:100] Creating Layer res4e_branch2b
I0113 21:59:00.350030 29995 net.cpp:444] res4e_branch2b <- res4e_branch2a
I0113 21:59:00.350054 29995 net.cpp:418] res4e_branch2b -> res4e_branch2b
I0113 21:59:00.352313 29995 net.cpp:150] Setting up res4e_branch2b
I0113 21:59:00.352339 29995 net.cpp:157] Top shape: 1 256 38 63 (612864)
I0113 21:59:00.352349 29995 net.cpp:165] Memory required for data: 2499484500
I0113 21:59:00.352358 29995 layer_factory.hpp:77] Creating layer bn4e_branch2b
I0113 21:59:00.352371 29995 net.cpp:100] Creating Layer bn4e_branch2b
I0113 21:59:00.352381 29995 net.cpp:444] bn4e_branch2b <- res4e_branch2b
I0113 21:59:00.352392 29995 net.cpp:405] bn4e_branch2b -> res4e_branch2b (in-place)
I0113 21:59:00.352589 29995 net.cpp:150] Setting up bn4e_branch2b
I0113 21:59:00.352602 29995 net.cpp:157] Top shape: 1 256 38 63 (612864)
I0113 21:59:00.352613 29995 net.cpp:165] Memory required for data: 2501935956
I0113 21:59:00.352625 29995 layer_factory.hpp:77] Creating layer scale4e_branch2b
I0113 21:59:00.352635 29995 net.cpp:100] Creating Layer scale4e_branch2b
I0113 21:59:00.352643 29995 net.cpp:444] scale4e_branch2b <- res4e_branch2b
I0113 21:59:00.352651 29995 net.cpp:405] scale4e_branch2b -> res4e_branch2b (in-place)
I0113 21:59:00.352696 29995 layer_factory.hpp:77] Creating layer scale4e_branch2b
I0113 21:59:00.352809 29995 net.cpp:150] Setting up scale4e_branch2b
I0113 21:59:00.352820 29995 net.cpp:157] Top shape: 1 256 38 63 (612864)
I0113 21:59:00.352828 29995 net.cpp:165] Memory required for data: 2504387412
I0113 21:59:00.352836 29995 layer_factory.hpp:77] Creating layer res4e_branch2b_relu
I0113 21:59:00.352845 29995 net.cpp:100] Creating Layer res4e_branch2b_relu
I0113 21:59:00.352854 29995 net.cpp:444] res4e_branch2b_relu <- res4e_branch2b
I0113 21:59:00.352862 29995 net.cpp:405] res4e_branch2b_relu -> res4e_branch2b (in-place)
I0113 21:59:00.353022 29995 net.cpp:150] Setting up res4e_branch2b_relu
I0113 21:59:00.353035 29995 net.cpp:157] Top shape: 1 256 38 63 (612864)
I0113 21:59:00.353044 29995 net.cpp:165] Memory required for data: 2506838868
I0113 21:59:00.353050 29995 layer_factory.hpp:77] Creating layer res4e_branch2c
I0113 21:59:00.353065 29995 net.cpp:100] Creating Layer res4e_branch2c
I0113 21:59:00.353073 29995 net.cpp:444] res4e_branch2c <- res4e_branch2b
I0113 21:59:00.353083 29995 net.cpp:418] res4e_branch2c -> res4e_branch2c
I0113 21:59:00.354220 29995 net.cpp:150] Setting up res4e_branch2c
I0113 21:59:00.354241 29995 net.cpp:157] Top shape: 1 1024 38 63 (2451456)
I0113 21:59:00.354249 29995 net.cpp:165] Memory required for data: 2516644692
I0113 21:59:00.354259 29995 layer_factory.hpp:77] Creating layer bn4e_branch2c
I0113 21:59:00.354270 29995 net.cpp:100] Creating Layer bn4e_branch2c
I0113 21:59:00.354279 29995 net.cpp:444] bn4e_branch2c <- res4e_branch2c
I0113 21:59:00.354287 29995 net.cpp:405] bn4e_branch2c -> res4e_branch2c (in-place)
I0113 21:59:00.354565 29995 net.cpp:150] Setting up bn4e_branch2c
I0113 21:59:00.354578 29995 net.cpp:157] Top shape: 1 1024 38 63 (2451456)
I0113 21:59:00.354585 29995 net.cpp:165] Memory required for data: 2526450516
I0113 21:59:00.354595 29995 layer_factory.hpp:77] Creating layer scale4e_branch2c
I0113 21:59:00.354605 29995 net.cpp:100] Creating Layer scale4e_branch2c
I0113 21:59:00.354614 29995 net.cpp:444] scale4e_branch2c <- res4e_branch2c
I0113 21:59:00.354622 29995 net.cpp:405] scale4e_branch2c -> res4e_branch2c (in-place)
I0113 21:59:00.354666 29995 layer_factory.hpp:77] Creating layer scale4e_branch2c
I0113 21:59:00.354784 29995 net.cpp:150] Setting up scale4e_branch2c
I0113 21:59:00.354795 29995 net.cpp:157] Top shape: 1 1024 38 63 (2451456)
I0113 21:59:00.354802 29995 net.cpp:165] Memory required for data: 2536256340
I0113 21:59:00.354810 29995 layer_factory.hpp:77] Creating layer res4e
I0113 21:59:00.354820 29995 net.cpp:100] Creating Layer res4e
I0113 21:59:00.354827 29995 net.cpp:444] res4e <- res4d_res4d_relu_0_split_1
I0113 21:59:00.354835 29995 net.cpp:444] res4e <- res4e_branch2c
I0113 21:59:00.354846 29995 net.cpp:418] res4e -> res4e
I0113 21:59:00.354874 29995 net.cpp:150] Setting up res4e
I0113 21:59:00.354884 29995 net.cpp:157] Top shape: 1 1024 38 63 (2451456)
I0113 21:59:00.354892 29995 net.cpp:165] Memory required for data: 2546062164
I0113 21:59:00.354898 29995 layer_factory.hpp:77] Creating layer res4e_relu
I0113 21:59:00.354908 29995 net.cpp:100] Creating Layer res4e_relu
I0113 21:59:00.354917 29995 net.cpp:444] res4e_relu <- res4e
I0113 21:59:00.354924 29995 net.cpp:405] res4e_relu -> res4e (in-place)
I0113 21:59:00.355093 29995 net.cpp:150] Setting up res4e_relu
I0113 21:59:00.355105 29995 net.cpp:157] Top shape: 1 1024 38 63 (2451456)
I0113 21:59:00.355113 29995 net.cpp:165] Memory required for data: 2555867988
I0113 21:59:00.355120 29995 layer_factory.hpp:77] Creating layer res4e_res4e_relu_0_split
I0113 21:59:00.355130 29995 net.cpp:100] Creating Layer res4e_res4e_relu_0_split
I0113 21:59:00.355144 29995 net.cpp:444] res4e_res4e_relu_0_split <- res4e
I0113 21:59:00.355154 29995 net.cpp:418] res4e_res4e_relu_0_split -> res4e_res4e_relu_0_split_0
I0113 21:59:00.355165 29995 net.cpp:418] res4e_res4e_relu_0_split -> res4e_res4e_relu_0_split_1
I0113 21:59:00.355209 29995 net.cpp:150] Setting up res4e_res4e_relu_0_split
I0113 21:59:00.355219 29995 net.cpp:157] Top shape: 1 1024 38 63 (2451456)
I0113 21:59:00.355228 29995 net.cpp:157] Top shape: 1 1024 38 63 (2451456)
I0113 21:59:00.355235 29995 net.cpp:165] Memory required for data: 2575479636
I0113 21:59:00.355242 29995 layer_factory.hpp:77] Creating layer res4f_branch2a
I0113 21:59:00.355253 29995 net.cpp:100] Creating Layer res4f_branch2a
I0113 21:59:00.355262 29995 net.cpp:444] res4f_branch2a <- res4e_res4e_relu_0_split_0
I0113 21:59:00.355273 29995 net.cpp:418] res4f_branch2a -> res4f_branch2a
I0113 21:59:00.357220 29995 net.cpp:150] Setting up res4f_branch2a
I0113 21:59:00.357256 29995 net.cpp:157] Top shape: 1 256 38 63 (612864)
I0113 21:59:00.357280 29995 net.cpp:165] Memory required for data: 2577931092
I0113 21:59:00.357292 29995 layer_factory.hpp:77] Creating layer bn4f_branch2a
I0113 21:59:00.357318 29995 net.cpp:100] Creating Layer bn4f_branch2a
I0113 21:59:00.357327 29995 net.cpp:444] bn4f_branch2a <- res4f_branch2a
I0113 21:59:00.357339 29995 net.cpp:405] bn4f_branch2a -> res4f_branch2a (in-place)
I0113 21:59:00.357544 29995 net.cpp:150] Setting up bn4f_branch2a
I0113 21:59:00.357556 29995 net.cpp:157] Top shape: 1 256 38 63 (612864)
I0113 21:59:00.357563 29995 net.cpp:165] Memory required for data: 2580382548
I0113 21:59:00.357587 29995 layer_factory.hpp:77] Creating layer scale4f_branch2a
I0113 21:59:00.357610 29995 net.cpp:100] Creating Layer scale4f_branch2a
I0113 21:59:00.357619 29995 net.cpp:444] scale4f_branch2a <- res4f_branch2a
I0113 21:59:00.357628 29995 net.cpp:405] scale4f_branch2a -> res4f_branch2a (in-place)
I0113 21:59:00.357674 29995 layer_factory.hpp:77] Creating layer scale4f_branch2a
I0113 21:59:00.357816 29995 net.cpp:150] Setting up scale4f_branch2a
I0113 21:59:00.357827 29995 net.cpp:157] Top shape: 1 256 38 63 (612864)
I0113 21:59:00.357833 29995 net.cpp:165] Memory required for data: 2582834004
I0113 21:59:00.357856 29995 layer_factory.hpp:77] Creating layer res4f_branch2a_relu
I0113 21:59:00.357867 29995 net.cpp:100] Creating Layer res4f_branch2a_relu
I0113 21:59:00.357873 29995 net.cpp:444] res4f_branch2a_relu <- res4f_branch2a
I0113 21:59:00.357882 29995 net.cpp:405] res4f_branch2a_relu -> res4f_branch2a (in-place)
I0113 21:59:00.358075 29995 net.cpp:150] Setting up res4f_branch2a_relu
I0113 21:59:00.358088 29995 net.cpp:157] Top shape: 1 256 38 63 (612864)
I0113 21:59:00.358094 29995 net.cpp:165] Memory required for data: 2585285460
I0113 21:59:00.358100 29995 layer_factory.hpp:77] Creating layer res4f_branch2b
I0113 21:59:00.358113 29995 net.cpp:100] Creating Layer res4f_branch2b
I0113 21:59:00.358120 29995 net.cpp:444] res4f_branch2b <- res4f_branch2a
I0113 21:59:00.358129 29995 net.cpp:418] res4f_branch2b -> res4f_branch2b
I0113 21:59:00.360404 29995 net.cpp:150] Setting up res4f_branch2b
I0113 21:59:00.360431 29995 net.cpp:157] Top shape: 1 256 38 63 (612864)
I0113 21:59:00.360440 29995 net.cpp:165] Memory required for data: 2587736916
I0113 21:59:00.360450 29995 layer_factory.hpp:77] Creating layer bn4f_branch2b
I0113 21:59:00.360463 29995 net.cpp:100] Creating Layer bn4f_branch2b
I0113 21:59:00.360473 29995 net.cpp:444] bn4f_branch2b <- res4f_branch2b
I0113 21:59:00.360482 29995 net.cpp:405] bn4f_branch2b -> res4f_branch2b (in-place)
I0113 21:59:00.360668 29995 net.cpp:150] Setting up bn4f_branch2b
I0113 21:59:00.360680 29995 net.cpp:157] Top shape: 1 256 38 63 (612864)
I0113 21:59:00.360687 29995 net.cpp:165] Memory required for data: 2590188372
I0113 21:59:00.360695 29995 layer_factory.hpp:77] Creating layer scale4f_branch2b
I0113 21:59:00.360705 29995 net.cpp:100] Creating Layer scale4f_branch2b
I0113 21:59:00.360713 29995 net.cpp:444] scale4f_branch2b <- res4f_branch2b
I0113 21:59:00.360730 29995 net.cpp:405] scale4f_branch2b -> res4f_branch2b (in-place)
I0113 21:59:00.360777 29995 layer_factory.hpp:77] Creating layer scale4f_branch2b
I0113 21:59:00.360888 29995 net.cpp:150] Setting up scale4f_branch2b
I0113 21:59:00.360899 29995 net.cpp:157] Top shape: 1 256 38 63 (612864)
I0113 21:59:00.360905 29995 net.cpp:165] Memory required for data: 2592639828
I0113 21:59:00.360913 29995 layer_factory.hpp:77] Creating layer res4f_branch2b_relu
I0113 21:59:00.360924 29995 net.cpp:100] Creating Layer res4f_branch2b_relu
I0113 21:59:00.360930 29995 net.cpp:444] res4f_branch2b_relu <- res4f_branch2b
I0113 21:59:00.360939 29995 net.cpp:405] res4f_branch2b_relu -> res4f_branch2b (in-place)
I0113 21:59:00.361433 29995 net.cpp:150] Setting up res4f_branch2b_relu
I0113 21:59:00.361449 29995 net.cpp:157] Top shape: 1 256 38 63 (612864)
I0113 21:59:00.361455 29995 net.cpp:165] Memory required for data: 2595091284
I0113 21:59:00.361461 29995 layer_factory.hpp:77] Creating layer res4f_branch2c
I0113 21:59:00.361472 29995 net.cpp:100] Creating Layer res4f_branch2c
I0113 21:59:00.361481 29995 net.cpp:444] res4f_branch2c <- res4f_branch2b
I0113 21:59:00.361493 29995 net.cpp:418] res4f_branch2c -> res4f_branch2c
I0113 21:59:00.362210 29995 net.cpp:150] Setting up res4f_branch2c
I0113 21:59:00.362226 29995 net.cpp:157] Top shape: 1 1024 38 63 (2451456)
I0113 21:59:00.362232 29995 net.cpp:165] Memory required for data: 2604897108
I0113 21:59:00.362241 29995 layer_factory.hpp:77] Creating layer bn4f_branch2c
I0113 21:59:00.362251 29995 net.cpp:100] Creating Layer bn4f_branch2c
I0113 21:59:00.362258 29995 net.cpp:444] bn4f_branch2c <- res4f_branch2c
I0113 21:59:00.362267 29995 net.cpp:405] bn4f_branch2c -> res4f_branch2c (in-place)
I0113 21:59:00.362447 29995 net.cpp:150] Setting up bn4f_branch2c
I0113 21:59:00.362457 29995 net.cpp:157] Top shape: 1 1024 38 63 (2451456)
I0113 21:59:00.362463 29995 net.cpp:165] Memory required for data: 2614702932
I0113 21:59:00.362483 29995 layer_factory.hpp:77] Creating layer scale4f_branch2c
I0113 21:59:00.362493 29995 net.cpp:100] Creating Layer scale4f_branch2c
I0113 21:59:00.362501 29995 net.cpp:444] scale4f_branch2c <- res4f_branch2c
I0113 21:59:00.362510 29995 net.cpp:405] scale4f_branch2c -> res4f_branch2c (in-place)
I0113 21:59:00.362551 29995 layer_factory.hpp:77] Creating layer scale4f_branch2c
I0113 21:59:00.362663 29995 net.cpp:150] Setting up scale4f_branch2c
I0113 21:59:00.362674 29995 net.cpp:157] Top shape: 1 1024 38 63 (2451456)
I0113 21:59:00.362680 29995 net.cpp:165] Memory required for data: 2624508756
I0113 21:59:00.362689 29995 layer_factory.hpp:77] Creating layer res4f
I0113 21:59:00.362697 29995 net.cpp:100] Creating Layer res4f
I0113 21:59:00.362706 29995 net.cpp:444] res4f <- res4e_res4e_relu_0_split_1
I0113 21:59:00.362715 29995 net.cpp:444] res4f <- res4f_branch2c
I0113 21:59:00.362722 29995 net.cpp:418] res4f -> res4f
I0113 21:59:00.362752 29995 net.cpp:150] Setting up res4f
I0113 21:59:00.362762 29995 net.cpp:157] Top shape: 1 1024 38 63 (2451456)
I0113 21:59:00.362768 29995 net.cpp:165] Memory required for data: 2634314580
I0113 21:59:00.362774 29995 layer_factory.hpp:77] Creating layer res4f_relu
I0113 21:59:00.362782 29995 net.cpp:100] Creating Layer res4f_relu
I0113 21:59:00.362788 29995 net.cpp:444] res4f_relu <- res4f
I0113 21:59:00.362799 29995 net.cpp:405] res4f_relu -> res4f (in-place)
I0113 21:59:00.363288 29995 net.cpp:150] Setting up res4f_relu
I0113 21:59:00.363318 29995 net.cpp:157] Top shape: 1 1024 38 63 (2451456)
I0113 21:59:00.363340 29995 net.cpp:165] Memory required for data: 2644120404
I0113 21:59:00.363361 29995 layer_factory.hpp:77] Creating layer res4f_res4f_relu_0_split
I0113 21:59:00.363371 29995 net.cpp:100] Creating Layer res4f_res4f_relu_0_split
I0113 21:59:00.363380 29995 net.cpp:444] res4f_res4f_relu_0_split <- res4f
I0113 21:59:00.363391 29995 net.cpp:418] res4f_res4f_relu_0_split -> res4f_res4f_relu_0_split_0
I0113 21:59:00.363404 29995 net.cpp:418] res4f_res4f_relu_0_split -> res4f_res4f_relu_0_split_1
I0113 21:59:00.363456 29995 net.cpp:418] res4f_res4f_relu_0_split -> res4f_res4f_relu_0_split_2
I0113 21:59:00.363528 29995 net.cpp:150] Setting up res4f_res4f_relu_0_split
I0113 21:59:00.363538 29995 net.cpp:157] Top shape: 1 1024 38 63 (2451456)
I0113 21:59:00.363560 29995 net.cpp:157] Top shape: 1 1024 38 63 (2451456)
I0113 21:59:00.363567 29995 net.cpp:157] Top shape: 1 1024 38 63 (2451456)
I0113 21:59:00.363574 29995 net.cpp:165] Memory required for data: 2673537876
I0113 21:59:00.363582 29995 layer_factory.hpp:77] Creating layer res5a_branch1
I0113 21:59:00.363593 29995 net.cpp:100] Creating Layer res5a_branch1
I0113 21:59:00.363602 29995 net.cpp:444] res5a_branch1 <- res4f_res4f_relu_0_split_0
I0113 21:59:00.363611 29995 net.cpp:418] res5a_branch1 -> res5a_branch1
I0113 21:59:00.368582 29995 net.cpp:150] Setting up res5a_branch1
I0113 21:59:00.368626 29995 net.cpp:157] Top shape: 1 2048 38 63 (4902912)
I0113 21:59:00.368635 29995 net.cpp:165] Memory required for data: 2693149524
I0113 21:59:00.368647 29995 layer_factory.hpp:77] Creating layer bn5a_branch1
I0113 21:59:00.368664 29995 net.cpp:100] Creating Layer bn5a_branch1
I0113 21:59:00.368671 29995 net.cpp:444] bn5a_branch1 <- res5a_branch1
I0113 21:59:00.368682 29995 net.cpp:405] bn5a_branch1 -> res5a_branch1 (in-place)
I0113 21:59:00.368911 29995 net.cpp:150] Setting up bn5a_branch1
I0113 21:59:00.368923 29995 net.cpp:157] Top shape: 1 2048 38 63 (4902912)
I0113 21:59:00.368932 29995 net.cpp:165] Memory required for data: 2712761172
I0113 21:59:00.368942 29995 layer_factory.hpp:77] Creating layer scale5a_branch1
I0113 21:59:00.368952 29995 net.cpp:100] Creating Layer scale5a_branch1
I0113 21:59:00.368960 29995 net.cpp:444] scale5a_branch1 <- res5a_branch1
I0113 21:59:00.368970 29995 net.cpp:405] scale5a_branch1 -> res5a_branch1 (in-place)
I0113 21:59:00.369019 29995 layer_factory.hpp:77] Creating layer scale5a_branch1
I0113 21:59:00.369146 29995 net.cpp:150] Setting up scale5a_branch1
I0113 21:59:00.369158 29995 net.cpp:157] Top shape: 1 2048 38 63 (4902912)
I0113 21:59:00.369164 29995 net.cpp:165] Memory required for data: 2732372820
I0113 21:59:00.369174 29995 layer_factory.hpp:77] Creating layer res5a_branch2a
I0113 21:59:00.369186 29995 net.cpp:100] Creating Layer res5a_branch2a
I0113 21:59:00.369195 29995 net.cpp:444] res5a_branch2a <- res4f_res4f_relu_0_split_1
I0113 21:59:00.369204 29995 net.cpp:418] res5a_branch2a -> res5a_branch2a
I0113 21:59:00.371320 29995 net.cpp:150] Setting up res5a_branch2a
I0113 21:59:00.371382 29995 net.cpp:157] Top shape: 1 512 38 63 (1225728)
I0113 21:59:00.371390 29995 net.cpp:165] Memory required for data: 2737275732
I0113 21:59:00.371402 29995 layer_factory.hpp:77] Creating layer bn5a_branch2a
I0113 21:59:00.371415 29995 net.cpp:100] Creating Layer bn5a_branch2a
I0113 21:59:00.371424 29995 net.cpp:444] bn5a_branch2a <- res5a_branch2a
I0113 21:59:00.371435 29995 net.cpp:405] bn5a_branch2a -> res5a_branch2a (in-place)
I0113 21:59:00.371650 29995 net.cpp:150] Setting up bn5a_branch2a
I0113 21:59:00.371729 29995 net.cpp:157] Top shape: 1 512 38 63 (1225728)
I0113 21:59:00.371737 29995 net.cpp:165] Memory required for data: 2742178644
I0113 21:59:00.371748 29995 layer_factory.hpp:77] Creating layer scale5a_branch2a
I0113 21:59:00.371759 29995 net.cpp:100] Creating Layer scale5a_branch2a
I0113 21:59:00.371767 29995 net.cpp:444] scale5a_branch2a <- res5a_branch2a
I0113 21:59:00.371776 29995 net.cpp:405] scale5a_branch2a -> res5a_branch2a (in-place)
I0113 21:59:00.371832 29995 layer_factory.hpp:77] Creating layer scale5a_branch2a
I0113 21:59:00.371948 29995 net.cpp:150] Setting up scale5a_branch2a
I0113 21:59:00.371959 29995 net.cpp:157] Top shape: 1 512 38 63 (1225728)
I0113 21:59:00.371966 29995 net.cpp:165] Memory required for data: 2747081556
I0113 21:59:00.371974 29995 layer_factory.hpp:77] Creating layer res5a_branch2a_relu
I0113 21:59:00.371984 29995 net.cpp:100] Creating Layer res5a_branch2a_relu
I0113 21:59:00.371991 29995 net.cpp:444] res5a_branch2a_relu <- res5a_branch2a
I0113 21:59:00.371999 29995 net.cpp:405] res5a_branch2a_relu -> res5a_branch2a (in-place)
I0113 21:59:00.372177 29995 net.cpp:150] Setting up res5a_branch2a_relu
I0113 21:59:00.372191 29995 net.cpp:157] Top shape: 1 512 38 63 (1225728)
I0113 21:59:00.372198 29995 net.cpp:165] Memory required for data: 2751984468
I0113 21:59:00.372206 29995 layer_factory.hpp:77] Creating layer res5a_branch2b
I0113 21:59:00.372217 29995 net.cpp:100] Creating Layer res5a_branch2b
I0113 21:59:00.372225 29995 net.cpp:444] res5a_branch2b <- res5a_branch2a
I0113 21:59:00.372234 29995 net.cpp:418] res5a_branch2b -> res5a_branch2b
I0113 21:59:00.376499 29995 net.cpp:150] Setting up res5a_branch2b
I0113 21:59:00.376543 29995 net.cpp:157] Top shape: 1 512 38 63 (1225728)
I0113 21:59:00.376550 29995 net.cpp:165] Memory required for data: 2756887380
I0113 21:59:00.376564 29995 layer_factory.hpp:77] Creating layer bn5a_branch2b
I0113 21:59:00.376610 29995 net.cpp:100] Creating Layer bn5a_branch2b
I0113 21:59:00.376626 29995 net.cpp:444] bn5a_branch2b <- res5a_branch2b
I0113 21:59:00.376638 29995 net.cpp:405] bn5a_branch2b -> res5a_branch2b (in-place)
I0113 21:59:00.376896 29995 net.cpp:150] Setting up bn5a_branch2b
I0113 21:59:00.376907 29995 net.cpp:157] Top shape: 1 512 38 63 (1225728)
I0113 21:59:00.376914 29995 net.cpp:165] Memory required for data: 2761790292
I0113 21:59:00.376922 29995 layer_factory.hpp:77] Creating layer scale5a_branch2b
I0113 21:59:00.376931 29995 net.cpp:100] Creating Layer scale5a_branch2b
I0113 21:59:00.376945 29995 net.cpp:444] scale5a_branch2b <- res5a_branch2b
I0113 21:59:00.376971 29995 net.cpp:405] scale5a_branch2b -> res5a_branch2b (in-place)
I0113 21:59:00.377043 29995 layer_factory.hpp:77] Creating layer scale5a_branch2b
I0113 21:59:00.377192 29995 net.cpp:150] Setting up scale5a_branch2b
I0113 21:59:00.377202 29995 net.cpp:157] Top shape: 1 512 38 63 (1225728)
I0113 21:59:00.377208 29995 net.cpp:165] Memory required for data: 2766693204
I0113 21:59:00.377216 29995 layer_factory.hpp:77] Creating layer res5a_branch2b_relu
I0113 21:59:00.377226 29995 net.cpp:100] Creating Layer res5a_branch2b_relu
I0113 21:59:00.377234 29995 net.cpp:444] res5a_branch2b_relu <- res5a_branch2b
I0113 21:59:00.377243 29995 net.cpp:405] res5a_branch2b_relu -> res5a_branch2b (in-place)
I0113 21:59:00.377523 29995 net.cpp:150] Setting up res5a_branch2b_relu
…
I0114 11:57:36.230298  4017 layer_factory.hpp:77] Creating layer scale4e_branch2b
I0114 11:57:36.230304  4017 net.cpp:100] Creating Layer scale4e_branch2b
I0114 11:57:36.230307  4017 net.cpp:444] scale4e_branch2b <- res4e_branch2b
I0114 11:57:36.230324  4017 net.cpp:405] scale4e_branch2b -> res4e_branch2b (in-place)
I0114 11:57:36.230360  4017 layer_factory.hpp:77] Creating layer scale4e_branch2b
I0114 11:57:36.230509  4017 net.cpp:150] Setting up scale4e_branch2b
I0114 11:57:36.230512  4017 net.cpp:157] Top shape: 1 256 14 14 (50176)
I0114 11:57:36.230515  4017 net.cpp:165] Memory required for data: 207527948
I0114 11:57:36.230518  4017 layer_factory.hpp:77] Creating layer res4e_branch2b_relu
I0114 11:57:36.230522  4017 net.cpp:100] Creating Layer res4e_branch2b_relu
I0114 11:57:36.230525  4017 net.cpp:444] res4e_branch2b_relu <- res4e_branch2b
I0114 11:57:36.230527  4017 net.cpp:405] res4e_branch2b_relu -> res4e_branch2b (in-place)
I0114 11:57:36.230674  4017 net.cpp:150] Setting up res4e_branch2b_relu
I0114 11:57:36.230679  4017 net.cpp:157] Top shape: 1 256 14 14 (50176)
I0114 11:57:36.230680  4017 net.cpp:165] Memory required for data: 207728652
I0114 11:57:36.230682  4017 layer_factory.hpp:77] Creating layer res4e_branch2c
I0114 11:57:36.230690  4017 net.cpp:100] Creating Layer res4e_branch2c
I0114 11:57:36.230692  4017 net.cpp:444] res4e_branch2c <- res4e_branch2b
I0114 11:57:36.230695  4017 net.cpp:418] res4e_branch2c -> res4e_branch2c
I0114 11:57:36.232360  4017 net.cpp:150] Setting up res4e_branch2c
I0114 11:57:36.232372  4017 net.cpp:157] Top shape: 1 1024 14 14 (200704)
I0114 11:57:36.232374  4017 net.cpp:165] Memory required for data: 208531468
I0114 11:57:36.232378  4017 layer_factory.hpp:77] Creating layer bn4e_branch2c
I0114 11:57:36.232383  4017 net.cpp:100] Creating Layer bn4e_branch2c
I0114 11:57:36.232386  4017 net.cpp:444] bn4e_branch2c <- res4e_branch2c
I0114 11:57:36.232391  4017 net.cpp:405] bn4e_branch2c -> res4e_branch2c (in-place)
I0114 11:57:36.232565  4017 net.cpp:150] Setting up bn4e_branch2c
I0114 11:57:36.232569  4017 net.cpp:157] Top shape: 1 1024 14 14 (200704)
I0114 11:57:36.232573  4017 net.cpp:165] Memory required for data: 209334284
I0114 11:57:36.232576  4017 layer_factory.hpp:77] Creating layer scale4e_branch2c
I0114 11:57:36.232581  4017 net.cpp:100] Creating Layer scale4e_branch2c
I0114 11:57:36.232583  4017 net.cpp:444] scale4e_branch2c <- res4e_branch2c
I0114 11:57:36.232586  4017 net.cpp:405] scale4e_branch2c -> res4e_branch2c (in-place)
I0114 11:57:36.232646  4017 layer_factory.hpp:77] Creating layer scale4e_branch2c
I0114 11:57:36.232758  4017 net.cpp:150] Setting up scale4e_branch2c
I0114 11:57:36.232761  4017 net.cpp:157] Top shape: 1 1024 14 14 (200704)
I0114 11:57:36.232764  4017 net.cpp:165] Memory required for data: 210137100
I0114 11:57:36.232766  4017 layer_factory.hpp:77] Creating layer res4e
I0114 11:57:36.232770  4017 net.cpp:100] Creating Layer res4e
I0114 11:57:36.232774  4017 net.cpp:444] res4e <- res4d_res4d_relu_0_split_1
I0114 11:57:36.232776  4017 net.cpp:444] res4e <- res4e_branch2c
I0114 11:57:36.232779  4017 net.cpp:418] res4e -> res4e
I0114 11:57:36.232797  4017 net.cpp:150] Setting up res4e
I0114 11:57:36.232801  4017 net.cpp:157] Top shape: 1 1024 14 14 (200704)
I0114 11:57:36.232803  4017 net.cpp:165] Memory required for data: 210939916
I0114 11:57:36.232805  4017 layer_factory.hpp:77] Creating layer res4e_relu
I0114 11:57:36.232808  4017 net.cpp:100] Creating Layer res4e_relu
I0114 11:57:36.232810  4017 net.cpp:444] res4e_relu <- res4e
I0114 11:57:36.232815  4017 net.cpp:405] res4e_relu -> res4e (in-place)
I0114 11:57:36.232952  4017 net.cpp:150] Setting up res4e_relu
I0114 11:57:36.232957  4017 net.cpp:157] Top shape: 1 1024 14 14 (200704)
I0114 11:57:36.232959  4017 net.cpp:165] Memory required for data: 211742732
I0114 11:57:36.232961  4017 layer_factory.hpp:77] Creating layer res4e_res4e_relu_0_split
I0114 11:57:36.232965  4017 net.cpp:100] Creating Layer res4e_res4e_relu_0_split
I0114 11:57:36.232967  4017 net.cpp:444] res4e_res4e_relu_0_split <- res4e
I0114 11:57:36.232971  4017 net.cpp:418] res4e_res4e_relu_0_split -> res4e_res4e_relu_0_split_0
I0114 11:57:36.232975  4017 net.cpp:418] res4e_res4e_relu_0_split -> res4e_res4e_relu_0_split_1
I0114 11:57:36.233008  4017 net.cpp:150] Setting up res4e_res4e_relu_0_split
I0114 11:57:36.233011  4017 net.cpp:157] Top shape: 1 1024 14 14 (200704)
I0114 11:57:36.233014  4017 net.cpp:157] Top shape: 1 1024 14 14 (200704)
I0114 11:57:36.233016  4017 net.cpp:165] Memory required for data: 213348364
I0114 11:57:36.233018  4017 layer_factory.hpp:77] Creating layer res4f_branch2a
I0114 11:57:36.233023  4017 net.cpp:100] Creating Layer res4f_branch2a
I0114 11:57:36.233026  4017 net.cpp:444] res4f_branch2a <- res4e_res4e_relu_0_split_0
I0114 11:57:36.233029  4017 net.cpp:418] res4f_branch2a -> res4f_branch2a
I0114 11:57:36.234078  4017 net.cpp:150] Setting up res4f_branch2a
I0114 11:57:36.234086  4017 net.cpp:157] Top shape: 1 256 14 14 (50176)
I0114 11:57:36.234088  4017 net.cpp:165] Memory required for data: 213549068
I0114 11:57:36.234092  4017 layer_factory.hpp:77] Creating layer bn4f_branch2a
I0114 11:57:36.234098  4017 net.cpp:100] Creating Layer bn4f_branch2a
I0114 11:57:36.234102  4017 net.cpp:444] bn4f_branch2a <- res4f_branch2a
I0114 11:57:36.234105  4017 net.cpp:405] bn4f_branch2a -> res4f_branch2a (in-place)
I0114 11:57:36.234272  4017 net.cpp:150] Setting up bn4f_branch2a
I0114 11:57:36.234275  4017 net.cpp:157] Top shape: 1 256 14 14 (50176)
I0114 11:57:36.234277  4017 net.cpp:165] Memory required for data: 213749772
I0114 11:57:36.234282  4017 layer_factory.hpp:77] Creating layer scale4f_branch2a
I0114 11:57:36.234285  4017 net.cpp:100] Creating Layer scale4f_branch2a
I0114 11:57:36.234287  4017 net.cpp:444] scale4f_branch2a <- res4f_branch2a
I0114 11:57:36.234290  4017 net.cpp:405] scale4f_branch2a -> res4f_branch2a (in-place)
I0114 11:57:36.234320  4017 layer_factory.hpp:77] Creating layer scale4f_branch2a
I0114 11:57:36.234410  4017 net.cpp:150] Setting up scale4f_branch2a
I0114 11:57:36.234413  4017 net.cpp:157] Top shape: 1 256 14 14 (50176)
I0114 11:57:36.234416  4017 net.cpp:165] Memory required for data: 213950476
I0114 11:57:36.234418  4017 layer_factory.hpp:77] Creating layer res4f_branch2a_relu
I0114 11:57:36.234422  4017 net.cpp:100] Creating Layer res4f_branch2a_relu
I0114 11:57:36.234424  4017 net.cpp:444] res4f_branch2a_relu <- res4f_branch2a
I0114 11:57:36.234427  4017 net.cpp:405] res4f_branch2a_relu -> res4f_branch2a (in-place)
I0114 11:57:36.234561  4017 net.cpp:150] Setting up res4f_branch2a_relu
I0114 11:57:36.234567  4017 net.cpp:157] Top shape: 1 256 14 14 (50176)
I0114 11:57:36.234570  4017 net.cpp:165] Memory required for data: 214151180
I0114 11:57:36.234570  4017 layer_factory.hpp:77] Creating layer res4f_branch2b
I0114 11:57:36.234575  4017 net.cpp:100] Creating Layer res4f_branch2b
I0114 11:57:36.234578  4017 net.cpp:444] res4f_branch2b <- res4f_branch2a
I0114 11:57:36.234582  4017 net.cpp:418] res4f_branch2b -> res4f_branch2b
I0114 11:57:36.236693  4017 net.cpp:150] Setting up res4f_branch2b
I0114 11:57:36.236704  4017 net.cpp:157] Top shape: 1 256 14 14 (50176)
I0114 11:57:36.236707  4017 net.cpp:165] Memory required for data: 214351884
I0114 11:57:36.236712  4017 layer_factory.hpp:77] Creating layer bn4f_branch2b
I0114 11:57:36.236718  4017 net.cpp:100] Creating Layer bn4f_branch2b
I0114 11:57:36.236721  4017 net.cpp:444] bn4f_branch2b <- res4f_branch2b
I0114 11:57:36.236726  4017 net.cpp:405] bn4f_branch2b -> res4f_branch2b (in-place)
I0114 11:57:36.236898  4017 net.cpp:150] Setting up bn4f_branch2b
I0114 11:57:36.236903  4017 net.cpp:157] Top shape: 1 256 14 14 (50176)
I0114 11:57:36.236905  4017 net.cpp:165] Memory required for data: 214552588
I0114 11:57:36.236910  4017 layer_factory.hpp:77] Creating layer scale4f_branch2b
I0114 11:57:36.236913  4017 net.cpp:100] Creating Layer scale4f_branch2b
I0114 11:57:36.236915  4017 net.cpp:444] scale4f_branch2b <- res4f_branch2b
I0114 11:57:36.236920  4017 net.cpp:405] scale4f_branch2b -> res4f_branch2b (in-place)
I0114 11:57:36.236954  4017 layer_factory.hpp:77] Creating layer scale4f_branch2b
I0114 11:57:36.237046  4017 net.cpp:150] Setting up scale4f_branch2b
I0114 11:57:36.237049  4017 net.cpp:157] Top shape: 1 256 14 14 (50176)
I0114 11:57:36.237051  4017 net.cpp:165] Memory required for data: 214753292
I0114 11:57:36.237056  4017 layer_factory.hpp:77] Creating layer res4f_branch2b_relu
I0114 11:57:36.237058  4017 net.cpp:100] Creating Layer res4f_branch2b_relu
I0114 11:57:36.237061  4017 net.cpp:444] res4f_branch2b_relu <- res4f_branch2b
I0114 11:57:36.237064  4017 net.cpp:405] res4f_branch2b_relu -> res4f_branch2b (in-place)
I0114 11:57:36.237502  4017 net.cpp:150] Setting up res4f_branch2b_relu
I0114 11:57:36.237510  4017 net.cpp:157] Top shape: 1 256 14 14 (50176)
I0114 11:57:36.237514  4017 net.cpp:165] Memory required for data: 214953996
I0114 11:57:36.237515  4017 layer_factory.hpp:77] Creating layer res4f_branch2c
I0114 11:57:36.237522  4017 net.cpp:100] Creating Layer res4f_branch2c
I0114 11:57:36.237524  4017 net.cpp:444] res4f_branch2c <- res4f_branch2b
I0114 11:57:36.237529  4017 net.cpp:418] res4f_branch2c -> res4f_branch2c
I0114 11:57:36.238890  4017 net.cpp:150] Setting up res4f_branch2c
I0114 11:57:36.238901  4017 net.cpp:157] Top shape: 1 1024 14 14 (200704)
I0114 11:57:36.238903  4017 net.cpp:165] Memory required for data: 215756812
I0114 11:57:36.238907  4017 layer_factory.hpp:77] Creating layer bn4f_branch2c
I0114 11:57:36.238914  4017 net.cpp:100] Creating Layer bn4f_branch2c
I0114 11:57:36.238916  4017 net.cpp:444] bn4f_branch2c <- res4f_branch2c
I0114 11:57:36.238919  4017 net.cpp:405] bn4f_branch2c -> res4f_branch2c (in-place)
I0114 11:57:36.239094  4017 net.cpp:150] Setting up bn4f_branch2c
I0114 11:57:36.239099  4017 net.cpp:157] Top shape: 1 1024 14 14 (200704)
I0114 11:57:36.239101  4017 net.cpp:165] Memory required for data: 216559628
I0114 11:57:36.239114  4017 layer_factory.hpp:77] Creating layer scale4f_branch2c
I0114 11:57:36.239118  4017 net.cpp:100] Creating Layer scale4f_branch2c
I0114 11:57:36.239120  4017 net.cpp:444] scale4f_branch2c <- res4f_branch2c
I0114 11:57:36.239125  4017 net.cpp:405] scale4f_branch2c -> res4f_branch2c (in-place)
I0114 11:57:36.239153  4017 layer_factory.hpp:77] Creating layer scale4f_branch2c
I0114 11:57:36.239250  4017 net.cpp:150] Setting up scale4f_branch2c
I0114 11:57:36.239254  4017 net.cpp:157] Top shape: 1 1024 14 14 (200704)
I0114 11:57:36.239256  4017 net.cpp:165] Memory required for data: 217362444
I0114 11:57:36.239259  4017 layer_factory.hpp:77] Creating layer res4f
I0114 11:57:36.239264  4017 net.cpp:100] Creating Layer res4f
I0114 11:57:36.239265  4017 net.cpp:444] res4f <- res4e_res4e_relu_0_split_1
I0114 11:57:36.239269  4017 net.cpp:444] res4f <- res4f_branch2c
I0114 11:57:36.239271  4017 net.cpp:418] res4f -> res4f
I0114 11:57:36.239292  4017 net.cpp:150] Setting up res4f
I0114 11:57:36.239296  4017 net.cpp:157] Top shape: 1 1024 14 14 (200704)
I0114 11:57:36.239298  4017 net.cpp:165] Memory required for data: 218165260
I0114 11:57:36.239300  4017 layer_factory.hpp:77] Creating layer res4f_relu
I0114 11:57:36.239305  4017 net.cpp:100] Creating Layer res4f_relu
I0114 11:57:36.239306  4017 net.cpp:444] res4f_relu <- res4f
I0114 11:57:36.239310  4017 net.cpp:405] res4f_relu -> res4f (in-place)
I0114 11:57:36.239809  4017 net.cpp:150] Setting up res4f_relu
I0114 11:57:36.239817  4017 net.cpp:157] Top shape: 1 1024 14 14 (200704)
I0114 11:57:36.239820  4017 net.cpp:165] Memory required for data: 218968076
I0114 11:57:36.239822  4017 layer_factory.hpp:77] Creating layer res4f_res4f_relu_0_split
I0114 11:57:36.239827  4017 net.cpp:100] Creating Layer res4f_res4f_relu_0_split
I0114 11:57:36.239830  4017 net.cpp:444] res4f_res4f_relu_0_split <- res4f
I0114 11:57:36.239833  4017 net.cpp:418] res4f_res4f_relu_0_split -> res4f_res4f_relu_0_split_0
I0114 11:57:36.239838  4017 net.cpp:418] res4f_res4f_relu_0_split -> res4f_res4f_relu_0_split_1
I0114 11:57:36.239842  4017 net.cpp:418] res4f_res4f_relu_0_split -> res4f_res4f_relu_0_split_2
I0114 11:57:36.239888  4017 net.cpp:150] Setting up res4f_res4f_relu_0_split
I0114 11:57:36.239893  4017 net.cpp:157] Top shape: 1 1024 14 14 (200704)
I0114 11:57:36.239897  4017 net.cpp:157] Top shape: 1 1024 14 14 (200704)
I0114 11:57:36.239898  4017 net.cpp:157] Top shape: 1 1024 14 14 (200704)
I0114 11:57:36.239900  4017 net.cpp:165] Memory required for data: 221376524
I0114 11:57:36.239902  4017 layer_factory.hpp:77] Creating layer res5a_branch1
I0114 11:57:36.239909  4017 net.cpp:100] Creating Layer res5a_branch1
I0114 11:57:36.239912  4017 net.cpp:444] res5a_branch1 <- res4f_res4f_relu_0_split_0
I0114 11:57:36.239915  4017 net.cpp:418] res5a_branch1 -> res5a_branch1
I0114 11:57:36.243968  4017 net.cpp:150] Setting up res5a_branch1
I0114 11:57:36.243988  4017 net.cpp:157] Top shape: 1 2048 14 14 (401408)
I0114 11:57:36.243989  4017 net.cpp:165] Memory required for data: 222982156
I0114 11:57:36.243995  4017 layer_factory.hpp:77] Creating layer bn5a_branch1
I0114 11:57:36.244004  4017 net.cpp:100] Creating Layer bn5a_branch1
I0114 11:57:36.244009  4017 net.cpp:444] bn5a_branch1 <- res5a_branch1
I0114 11:57:36.244014  4017 net.cpp:405] bn5a_branch1 -> res5a_branch1 (in-place)
I0114 11:57:36.244210  4017 net.cpp:150] Setting up bn5a_branch1
I0114 11:57:36.244215  4017 net.cpp:157] Top shape: 1 2048 14 14 (401408)
I0114 11:57:36.244216  4017 net.cpp:165] Memory required for data: 224587788
I0114 11:57:36.244221  4017 layer_factory.hpp:77] Creating layer scale5a_branch1
I0114 11:57:36.244226  4017 net.cpp:100] Creating Layer scale5a_branch1
I0114 11:57:36.244228  4017 net.cpp:444] scale5a_branch1 <- res5a_branch1
I0114 11:57:36.244231  4017 net.cpp:405] scale5a_branch1 -> res5a_branch1 (in-place)
I0114 11:57:36.244263  4017 layer_factory.hpp:77] Creating layer scale5a_branch1
I0114 11:57:36.244361  4017 net.cpp:150] Setting up scale5a_branch1
I0114 11:57:36.244365  4017 net.cpp:157] Top shape: 1 2048 14 14 (401408)
I0114 11:57:36.244367  4017 net.cpp:165] Memory required for data: 226193420
I0114 11:57:36.244371  4017 layer_factory.hpp:77] Creating layer res5a_branch2a
I0114 11:57:36.244377  4017 net.cpp:100] Creating Layer res5a_branch2a
I0114 11:57:36.244379  4017 net.cpp:444] res5a_branch2a <- res4f_res4f_relu_0_split_1
I0114 11:57:36.244385  4017 net.cpp:418] res5a_branch2a -> res5a_branch2a
I0114 11:57:36.246125  4017 net.cpp:150] Setting up res5a_branch2a
I0114 11:57:36.246135  4017 net.cpp:157] Top shape: 1 512 14 14 (100352)
I0114 11:57:36.246137  4017 net.cpp:165] Memory required for data: 226594828
I0114 11:57:36.246142  4017 layer_factory.hpp:77] Creating layer bn5a_branch2a
I0114 11:57:36.246146  4017 net.cpp:100] Creating Layer bn5a_branch2a
I0114 11:57:36.246150  4017 net.cpp:444] bn5a_branch2a <- res5a_branch2a
I0114 11:57:36.246153  4017 net.cpp:405] bn5a_branch2a -> res5a_branch2a (in-place)
I0114 11:57:36.246330  4017 net.cpp:150] Setting up bn5a_branch2a
I0114 11:57:36.246335  4017 net.cpp:157] Top shape: 1 512 14 14 (100352)
I0114 11:57:36.246337  4017 net.cpp:165] Memory required for data: 226996236
I0114 11:57:36.246341  4017 layer_factory.hpp:77] Creating layer scale5a_branch2a
I0114 11:57:36.246345  4017 net.cpp:100] Creating Layer scale5a_branch2a
I0114 11:57:36.246348  4017 net.cpp:444] scale5a_branch2a <- res5a_branch2a
I0114 11:57:36.246351  4017 net.cpp:405] scale5a_branch2a -> res5a_branch2a (in-place)
I0114 11:57:36.246381  4017 layer_factory.hpp:77] Creating layer scale5a_branch2a
I0114 11:57:36.246477  4017 net.cpp:150] Setting up scale5a_branch2a
I0114 11:57:36.246482  4017 net.cpp:157] Top shape: 1 512 14 14 (100352)
I0114 11:57:36.246484  4017 net.cpp:165] Memory required for data: 227397644
I0114 11:57:36.246487  4017 layer_factory.hpp:77] Creating layer res5a_branch2a_relu
I0114 11:57:36.246491  4017 net.cpp:100] Creating Layer res5a_branch2a_relu
I0114 11:57:36.246493  4017 net.cpp:444] res5a_branch2a_relu <- res5a_branch2a
I0114 11:57:36.246495  4017 net.cpp:405] res5a_branch2a_relu -> res5a_branch2a (in-place)
I0114 11:57:36.246637  4017 net.cpp:150] Setting up res5a_branch2a_relu
I0114 11:57:36.246644  4017 net.cpp:157] Top shape: 1 512 14 14 (100352)
I0114 11:57:36.246645  4017 net.cpp:165] Memory required for data: 227799052
I0114 11:57:36.246646  4017 layer_factory.hpp:77] Creating layer res5a_branch2b
I0114 11:57:36.246652  4017 net.cpp:100] Creating Layer res5a_branch2b
I0114 11:57:36.246655  4017 net.cpp:444] res5a_branch2b <- res5a_branch2a
I0114 11:57:36.246659  4017 net.cpp:418] res5a_branch2b -> res5a_branch2b
I0114 11:57:36.250483  4017 net.cpp:150] Setting up res5a_branch2b
I0114 11:57:36.250505  4017 net.cpp:157] Top shape: 1 512 14 14 (100352)
I0114 11:57:36.250509  4017 net.cpp:165] Memory required for data: 228200460
I0114 11:57:36.250516  4017 layer_factory.hpp:77] Creating layer bn5a_branch2b
I0114 11:57:36.250527  4017 net.cpp:100] Creating Layer bn5a_branch2b
I0114 11:57:36.250531  4017 net.cpp:444] bn5a_branch2b <- res5a_branch2b
I0114 11:57:36.250536  4017 net.cpp:405] bn5a_branch2b -> res5a_branch2b (in-place)
I0114 11:57:36.250725  4017 net.cpp:150] Setting up bn5a_branch2b
I0114 11:57:36.250730  4017 net.cpp:157] Top shape: 1 512 14 14 (100352)
I0114 11:57:36.250732  4017 net.cpp:165] Memory required for data: 228601868
I0114 11:57:36.250736  4017 layer_factory.hpp:77] Creating layer scale5a_branch2b
I0114 11:57:36.250741  4017 net.cpp:100] Creating Layer scale5a_branch2b
I0114 11:57:36.250743  4017 net.cpp:444] scale5a_branch2b <- res5a_branch2b
I0114 11:57:36.250746  4017 net.cpp:405] scale5a_branch2b -> res5a_branch2b (in-place)
I0114 11:57:36.250777  4017 layer_factory.hpp:77] Creating layer scale5a_branch2b
I0114 11:57:36.250880  4017 net.cpp:150] Setting up scale5a_branch2b
I0114 11:57:36.250885  4017 net.cpp:157] Top shape: 1 512 14 14 (100352)
I0114 11:57:36.250887  4017 net.cpp:165] Memory required for data: 229003276
I0114 11:57:36.250890  4017 layer_factory.hpp:77] Creating layer res5a_branch2b_relu
I0114 11:57:36.250895  4017 net.cpp:100] Creating Layer res5a_branch2b_relu
I0114 11:57:36.250896  4017 net.cpp:444] res5a_branch2b_relu <- res5a_branch2b
I0114 11:57:36.250900  4017 net.cpp:405] res5a_branch2b_relu -> res5a_branch2b (in-place)
I0114 11:57:36.251092  4017 net.cpp:150] Setting up res5a_branch2b_relu
I0114 11:57:36.251098  4017 net.cpp:157] Top shape: 1 512 14 14 (100352)
I0114 11:57:36.251101  4017 net.cpp:165] Memory required for data: 229404684
I0114 11:57:36.251102  4017 layer_factory.hpp:77] Creating layer res5a_branch2c
I0114 11:57:36.251107  4017 net.cpp:100] Creating Layer res5a_branch2c
I0114 11:57:36.251109  4017 net.cpp:444] res5a_branch2c <- res5a_branch2b
I0114 11:57:36.251113  4017 net.cpp:418] res5a_branch2c -> res5a_branch2c
I0114 11:57:36.253717  4017 net.cpp:150] Setting up res5a_branch2c
I0114 11:57:36.253736  4017 net.cpp:157] Top shape: 1 2048 14 14 (401408)
I0114 11:57:36.253738  4017 net.cpp:165] Memory required for data: 231010316
I0114 11:57:36.253744  4017 layer_factory.hpp:77] Creating layer bn5a_branch2c
I0114 11:57:36.253751  4017 net.cpp:100] Creating Layer bn5a_branch2c
I0114 11:57:36.253756  4017 net.cpp:444] bn5a_branch2c <- res5a_branch2c
I0114 11:57:36.253759  4017 net.cpp:405] bn5a_branch2c -> res5a_branch2c (in-place)
I0114 11:57:36.253944  4017 net.cpp:150] Setting up bn5a_branch2c
I0114 11:57:36.253948  4017 net.cpp:157] Top shape: 1 2048 14 14 (401408)
I0114 11:57:36.253950  4017 net.cpp:165] Memory required for data: 232615948
I0114 11:57:36.253955  4017 layer_factory.hpp:77] Creating layer scale5a_branch2c
I0114 11:57:36.253960  4017 net.cpp:100] Creating Layer scale5a_branch2c
I0114 11:57:36.253962  4017 net.cpp:444] scale5a_branch2c <- res5a_branch2c
I0114 11:57:36.253965  4017 net.cpp:405] scale5a_branch2c -> res5a_branch2c (in-place)
I0114 11:57:36.253995  4017 layer_factory.hpp:77] Creating layer scale5a_branch2c
I0114 11:57:36.254094  4017 net.cpp:150] Setting up scale5a_branch2c
I0114 11:57:36.254098  4017 net.cpp:157] Top shape: 1 2048 14 14 (401408)
I0114 11:57:36.254101  4017 net.cpp:165] Memory required for data: 234221580
I0114 11:57:36.254103  4017 layer_factory.hpp:77] Creating layer res5a
I0114 11:57:36.254107  4017 net.cpp:100] Creating Layer res5a
I0114 11:57:36.254110  4017 net.cpp:444] res5a <- res5a_branch1
I0114 11:57:36.254112  4017 net.cpp:444] res5a <- res5a_branch2c
I0114 11:57:36.254115  4017 net.cpp:418] res5a -> res5a
I0114 11:57:36.254135  4017 net.cpp:150] Setting up res5a
I0114 11:57:36.254138  4017 net.cpp:157] Top shape: 1 2048 14 14 (401408)
I0114 11:57:36.254140  4017 net.cpp:165] Memory required for data: 235827212
I0114 11:57:36.254142  4017 layer_factory.hpp:77] Creating layer res5a_relu
I0114 11:57:36.254145  4017 net.cpp:100] Creating Layer res5a_relu
I0114 11:57:36.254148  4017 net.cpp:444] res5a_relu <- res5a
I0114 11:57:36.254150  4017 net.cpp:405] res5a_relu -> res5a (in-place)
I0114 11:57:36.254294  4017 net.cpp:150] Setting up res5a_relu
I0114 11:57:36.254298  4017 net.cpp:157] Top shape: 1 2048 14 14 (401408)
I0114 11:57:36.254300  4017 net.cpp:165] Memory required for data: 237432844
I0114 11:57:36.254302  4017 layer_factory.hpp:77] Creating layer res5a_res5a_relu_0_split
I0114 11:57:36.254307  4017 net.cpp:100] Creating Layer res5a_res5a_relu_0_split
I0114 11:57:36.254309  4017 net.cpp:444] res5a_res5a_relu_0_split <- res5a
I0114 11:57:36.254312  4017 net.cpp:418] res5a_res5a_relu_0_split -> res5a_res5a_relu_0_split_0
I0114 11:57:36.254317  4017 net.cpp:418] res5a_res5a_relu_0_split -> res5a_res5a_relu_0_split_1
I0114 11:57:36.254351  4017 net.cpp:150] Setting up res5a_res5a_relu_0_split
I0114 11:57:36.254355  4017 net.cpp:157] Top shape: 1 2048 14 14 (401408)
I0114 11:57:36.254357  4017 net.cpp:157] Top shape: 1 2048 14 14 (401408)
I0114 11:57:36.254359  4017 net.cpp:165] Memory required for data: 240644108
I0114 11:57:36.254361  4017 layer_factory.hpp:77] Creating layer res5b_branch2a
I0114 11:57:36.254367  4017 net.cpp:100] Creating Layer res5b_branch2a
I0114 11:57:36.254369  4017 net.cpp:444] res5b_branch2a <- res5a_res5a_relu_0_split_0
I0114 11:57:36.254374  4017 net.cpp:418] res5b_branch2a -> res5b_branch2a
I0114 11:57:36.257324  4017 net.cpp:150] Setting up res5b_branch2a
I0114 11:57:36.257345  4017 net.cpp:157] Top shape: 1 512 14 14 (100352)
I0114 11:57:36.257347  4017 net.cpp:165] Memory required for data: 241045516
I0114 11:57:36.257354  4017 layer_factory.hpp:77] Creating layer bn5b_branch2a
I0114 11:57:36.257364  4017 net.cpp:100] Creating Layer bn5b_branch2a
I0114 11:57:36.257369  4017 net.cpp:444] bn5b_branch2a <- res5b_branch2a
I0114 11:57:36.257375  4017 net.cpp:405] bn5b_branch2a -> res5b_branch2a (in-place)
I0114 11:57:36.257562  4017 net.cpp:150] Setting up bn5b_branch2a
I0114 11:57:36.257567  4017 net.cpp:157] Top shape: 1 512 14 14 (100352)
I0114 11:57:36.257570  4017 net.cpp:165] Memory required for data: 241446924
I0114 11:57:36.257573  4017 layer_factory.hpp:77] Creating layer scale5b_branch2a
I0114 11:57:36.257580  4017 net.cpp:100] Creating Layer scale5b_branch2a
I0114 11:57:36.257581  4017 net.cpp:444] scale5b_branch2a <- res5b_branch2a
I0114 11:57:36.257585  4017 net.cpp:405] scale5b_branch2a -> res5b_branch2a (in-place)
I0114 11:57:36.257616  4017 layer_factory.hpp:77] Creating layer scale5b_branch2a
I0114 11:57:36.257719  4017 net.cpp:150] Setting up scale5b_branch2a
I0114 11:57:36.257722  4017 net.cpp:157] Top shape: 1 512 14 14 (100352)
I0114 11:57:36.257725  4017 net.cpp:165] Memory required for data: 241848332
I0114 11:57:36.257727  4017 layer_factory.hpp:77] Creating layer res5b_branch2a_relu
I0114 11:57:36.257731  4017 net.cpp:100] Creating Layer res5b_branch2a_relu
I0114 11:57:36.257733  4017 net.cpp:444] res5b_branch2a_relu <- res5b_branch2a
I0114 11:57:36.257737  4017 net.cpp:405] res5b_branch2a_relu -> res5b_branch2a (in-place)
I0114 11:57:36.257879  4017 net.cpp:150] Setting up res5b_branch2a_relu
I0114 11:57:36.257885  4017 net.cpp:157] Top shape: 1 512 14 14 (100352)
I0114 11:57:36.257886  4017 net.cpp:165] Memory required for data: 242249740
I0114 11:57:36.257889  4017 layer_factory.hpp:77] Creating layer res5b_branch2b
I0114 11:57:36.257895  4017 net.cpp:100] Creating Layer res5b_branch2b
I0114 11:57:36.257899  4017 net.cpp:444] res5b_branch2b <- res5b_branch2a
I0114 11:57:36.257902  4017 net.cpp:418] res5b_branch2b -> res5b_branch2b
I0114 11:57:36.261914  4017 net.cpp:150] Setting up res5b_branch2b
I0114 11:57:36.261945  4017 net.cpp:157] Top shape: 1 512 14 14 (100352)
I0114 11:57:36.261948  4017 net.cpp:165] Memory required for data: 242651148
I0114 11:57:36.261958  4017 layer_factory.hpp:77] Creating layer bn5b_branch2b
I0114 11:57:36.261970  4017 net.cpp:100] Creating Layer bn5b_branch2b
I0114 11:57:36.261975  4017 net.cpp:444] bn5b_branch2b <- res5b_branch2b
I0114 11:57:36.261981  4017 net.cpp:405] bn5b_branch2b -> res5b_branch2b (in-place)
I0114 11:57:36.262181  4017 net.cpp:150] Setting up bn5b_branch2b
I0114 11:57:36.262186  4017 net.cpp:157] Top shape: 1 512 14 14 (100352)
I0114 11:57:36.262187  4017 net.cpp:165] Memory required for data: 243052556
I0114 11:57:36.262192  4017 layer_factory.hpp:77] Creating layer scale5b_branch2b
I0114 11:57:36.262198  4017 net.cpp:100] Creating Layer scale5b_branch2b
I0114 11:57:36.262200  4017 net.cpp:444] scale5b_branch2b <- res5b_branch2b
I0114 11:57:36.262203  4017 net.cpp:405] scale5b_branch2b -> res5b_branch2b (in-place)
I0114 11:57:36.262235  4017 layer_factory.hpp:77] Creating layer scale5b_branch2b
I0114 11:57:36.262336  4017 net.cpp:150] Setting up scale5b_branch2b
I0114 11:57:36.262339  4017 net.cpp:157] Top shape: 1 512 14 14 (100352)
I0114 11:57:36.262341  4017 net.cpp:165] Memory required for data: 243453964
I0114 11:57:36.262346  4017 layer_factory.hpp:77] Creating layer res5b_branch2b_relu
I0114 11:57:36.262348  4017 net.cpp:100] Creating Layer res5b_branch2b_relu
I0114 11:57:36.262351  4017 net.cpp:444] res5b_branch2b_relu <- res5b_branch2b
I0114 11:57:36.262354  4017 net.cpp:405] res5b_branch2b_relu -> res5b_branch2b (in-place)
I0114 11:57:36.262953  4017 net.cpp:150] Setting up res5b_branch2b_relu
I0114 11:57:36.262960  4017 net.cpp:157] Top shape: 1 512 14 14 (100352)
I0114 11:57:36.262964  4017 net.cpp:165] Memory required for data: 243855372
I0114 11:57:36.262965  4017 layer_factory.hpp:77] Creating layer res5b_branch2c
I0114 11:57:36.262987  4017 net.cpp:100] Creating Layer res5b_branch2c
I0114 11:57:36.262989  4017 net.cpp:444] res5b_branch2c <- res5b_branch2b
I0114 11:57:36.262995  4017 net.cpp:418] res5b_branch2c -> res5b_branch2c
I0114 11:57:36.265650  4017 net.cpp:150] Setting up res5b_branch2c
I0114 11:57:36.265669  4017 net.cpp:157] Top shape: 1 2048 14 14 (401408)
I0114 11:57:36.265671  4017 net.cpp:165] Memory required for data: 245461004
I0114 11:57:36.265677  4017 layer_factory.hpp:77] Creating layer bn5b_branch2c
I0114 11:57:36.265686  4017 net.cpp:100] Creating Layer bn5b_branch2c
I0114 11:57:36.265689  4017 net.cpp:444] bn5b_branch2c <- res5b_branch2c
I0114 11:57:36.265693  4017 net.cpp:405] bn5b_branch2c -> res5b_branch2c (in-place)
I0114 11:57:36.265882  4017 net.cpp:150] Setting up bn5b_branch2c
I0114 11:57:36.265887  4017 net.cpp:157] Top shape: 1 2048 14 14 (401408)
I0114 11:57:36.265889  4017 net.cpp:165] Memory required for data: 247066636
I0114 11:57:36.265893  4017 layer_factory.hpp:77] Creating layer scale5b_branch2c
I0114 11:57:36.265898  4017 net.cpp:100] Creating Layer scale5b_branch2c
I0114 11:57:36.265900  4017 net.cpp:444] scale5b_branch2c <- res5b_branch2c
I0114 11:57:36.265903  4017 net.cpp:405] scale5b_branch2c -> res5b_branch2c (in-place)
I0114 11:57:36.265936  4017 layer_factory.hpp:77] Creating layer scale5b_branch2c
I0114 11:57:36.266038  4017 net.cpp:150] Setting up scale5b_branch2c
I0114 11:57:36.266043  4017 net.cpp:157] Top shape: 1 2048 14 14 (401408)
I0114 11:57:36.266046  4017 net.cpp:165] Memory required for data: 248672268
I0114 11:57:36.266048  4017 layer_factory.hpp:77] Creating layer res5b
I0114 11:57:36.266052  4017 net.cpp:100] Creating Layer res5b
I0114 11:57:36.266054  4017 net.cpp:444] res5b <- res5a_res5a_relu_0_split_1
I0114 11:57:36.266057  4017 net.cpp:444] res5b <- res5b_branch2c
I0114 11:57:36.266062  4017 net.cpp:418] res5b -> res5b
I0114 11:57:36.266080  4017 net.cpp:150] Setting up res5b
I0114 11:57:36.266083  4017 net.cpp:157] Top shape: 1 2048 14 14 (401408)
I0114 11:57:36.266085  4017 net.cpp:165] Memory required for data: 250277900
I0114 11:57:36.266088  4017 layer_factory.hpp:77] Creating layer res5b_relu
I0114 11:57:36.266091  4017 net.cpp:100] Creating Layer res5b_relu
I0114 11:57:36.266093  4017 net.cpp:444] res5b_relu <- res5b
I0114 11:57:36.266096  4017 net.cpp:405] res5b_relu -> res5b (in-place)
I0114 11:57:36.266238  4017 net.cpp:150] Setting up res5b_relu
I0114 11:57:36.266243  4017 net.cpp:157] Top shape: 1 2048 14 14 (401408)
I0114 11:57:36.266245  4017 net.cpp:165] Memory required for data: 251883532
I0114 11:57:36.266247  4017 layer_factory.hpp:77] Creating layer res5b_res5b_relu_0_split
I0114 11:57:36.266252  4017 net.cpp:100] Creating Layer res5b_res5b_relu_0_split
I0114 11:57:36.266254  4017 net.cpp:444] res5b_res5b_relu_0_split <- res5b
I0114 11:57:36.266273  4017 net.cpp:418] res5b_res5b_relu_0_split -> res5b_res5b_relu_0_split_0
I0114 11:57:36.266278  4017 net.cpp:418] res5b_res5b_relu_0_split -> res5b_res5b_relu_0_split_1
I0114 11:57:36.266327  4017 net.cpp:150] Setting up res5b_res5b_relu_0_split
I0114 11:57:36.266331  4017 net.cpp:157] Top shape: 1 2048 14 14 (401408)
I0114 11:57:36.266335  4017 net.cpp:157] Top shape: 1 2048 14 14 (401408)
I0114 11:57:36.266336  4017 net.cpp:165] Memory required for data: 255094796
I0114 11:57:36.266338  4017 layer_factory.hpp:77] Creating layer res5c_branch2a
I0114 11:57:36.266345  4017 net.cpp:100] Creating Layer res5c_branch2a
I0114 11:57:36.266346  4017 net.cpp:444] res5c_branch2a <- res5b_res5b_relu_0_split_0
I0114 11:57:36.266350  4017 net.cpp:418] res5c_branch2a -> res5c_branch2a
I0114 11:57:36.268939  4017 net.cpp:150] Setting up res5c_branch2a
I0114 11:57:36.268956  4017 net.cpp:157] Top shape: 1 512 14 14 (100352)
I0114 11:57:36.268959  4017 net.cpp:165] Memory required for data: 255496204
I0114 11:57:36.268965  4017 layer_factory.hpp:77] Creating layer bn5c_branch2a
I0114 11:57:36.268971  4017 net.cpp:100] Creating Layer bn5c_branch2a
I0114 11:57:36.268975  4017 net.cpp:444] bn5c_branch2a <- res5c_branch2a
I0114 11:57:36.268980  4017 net.cpp:405] bn5c_branch2a -> res5c_branch2a (in-place)
I0114 11:57:36.269171  4017 net.cpp:150] Setting up bn5c_branch2a
I0114 11:57:36.269176  4017 net.cpp:157] Top shape: 1 512 14 14 (100352)
I0114 11:57:36.269178  4017 net.cpp:165] Memory required for data: 255897612
I0114 11:57:36.269183  4017 layer_factory.hpp:77] Creating layer scale5c_branch2a
I0114 11:57:36.269188  4017 net.cpp:100] Creating Layer scale5c_branch2a
I0114 11:57:36.269191  4017 net.cpp:444] scale5c_branch2a <- res5c_branch2a
I0114 11:57:36.269193  4017 net.cpp:405] scale5c_branch2a -> res5c_branch2a (in-place)
I0114 11:57:36.269225  4017 layer_factory.hpp:77] Creating layer scale5c_branch2a
I0114 11:57:36.269326  4017 net.cpp:150] Setting up scale5c_branch2a
I0114 11:57:36.269330  4017 net.cpp:157] Top shape: 1 512 14 14 (100352)
I0114 11:57:36.269332  4017 net.cpp:165] Memory required for data: 256299020
I0114 11:57:36.269335  4017 layer_factory.hpp:77] Creating layer res5c_branch2a_relu
I0114 11:57:36.269340  4017 net.cpp:100] Creating Layer res5c_branch2a_relu
I0114 11:57:36.269341  4017 net.cpp:444] res5c_branch2a_relu <- res5c_branch2a
I0114 11:57:36.269345  4017 net.cpp:405] res5c_branch2a_relu -> res5c_branch2a (in-place)
I0114 11:57:36.269482  4017 net.cpp:150] Setting up res5c_branch2a_relu
I0114 11:57:36.269489  4017 net.cpp:157] Top shape: 1 512 14 14 (100352)
I0114 11:57:36.269490  4017 net.cpp:165] Memory required for data: 256700428
I0114 11:57:36.269491  4017 layer_factory.hpp:77] Creating layer res5c_branch2b
I0114 11:57:36.269497  4017 net.cpp:100] Creating Layer res5c_branch2b
I0114 11:57:36.269500  4017 net.cpp:444] res5c_branch2b <- res5c_branch2a
I0114 11:57:36.269505  4017 net.cpp:418] res5c_branch2b -> res5c_branch2b
I0114 11:57:36.273219  4017 net.cpp:150] Setting up res5c_branch2b
I0114 11:57:36.273242  4017 net.cpp:157] Top shape: 1 512 14 14 (100352)
I0114 11:57:36.273244  4017 net.cpp:165] Memory required for data: 257101836
I0114 11:57:36.273250  4017 layer_factory.hpp:77] Creating layer bn5c_branch2b
I0114 11:57:36.273259  4017 net.cpp:100] Creating Layer bn5c_branch2b
I0114 11:57:36.273263  4017 net.cpp:444] bn5c_branch2b <- res5c_branch2b
I0114 11:57:36.273269  4017 net.cpp:405] bn5c_branch2b -> res5c_branch2b (in-place)
I0114 11:57:36.273473  4017 net.cpp:150] Setting up bn5c_branch2b
I0114 11:57:36.273478  4017 net.cpp:157] Top shape: 1 512 14 14 (100352)
I0114 11:57:36.273479  4017 net.cpp:165] Memory required for data: 257503244
I0114 11:57:36.273483  4017 layer_factory.hpp:77] Creating layer scale5c_branch2b
I0114 11:57:36.273489  4017 net.cpp:100] Creating Layer scale5c_branch2b
I0114 11:57:36.273491  4017 net.cpp:444] scale5c_branch2b <- res5c_branch2b
I0114 11:57:36.273494  4017 net.cpp:405] scale5c_branch2b -> res5c_branch2b (in-place)
I0114 11:57:36.273526  4017 layer_factory.hpp:77] Creating layer scale5c_branch2b
I0114 11:57:36.273630  4017 net.cpp:150] Setting up scale5c_branch2b
I0114 11:57:36.273634  4017 net.cpp:157] Top shape: 1 512 14 14 (100352)
I0114 11:57:36.273636  4017 net.cpp:165] Memory required for data: 257904652
I0114 11:57:36.273639  4017 layer_factory.hpp:77] Creating layer res5c_branch2b_relu
I0114 11:57:36.273643  4017 net.cpp:100] Creating Layer res5c_branch2b_relu
I0114 11:57:36.273645  4017 net.cpp:444] res5c_branch2b_relu <- res5c_branch2b
I0114 11:57:36.273648  4017 net.cpp:405] res5c_branch2b_relu -> res5c_branch2b (in-place)
I0114 11:57:36.273835  4017 net.cpp:150] Setting up res5c_branch2b_relu
I0114 11:57:36.273840  4017 net.cpp:157] Top shape: 1 512 14 14 (100352)
I0114 11:57:36.273843  4017 net.cpp:165] Memory required for data: 258306060
I0114 11:57:36.273844  4017 layer_factory.hpp:77] Creating layer res5c_branch2c
I0114 11:57:36.273850  4017 net.cpp:100] Creating Layer res5c_branch2c
I0114 11:57:36.273852  4017 net.cpp:444] res5c_branch2c <- res5c_branch2b
I0114 11:57:36.273856  4017 net.cpp:418] res5c_branch2c -> res5c_branch2c
I0114 11:57:36.276408  4017 net.cpp:150] Setting up res5c_branch2c
I0114 11:57:36.276425  4017 net.cpp:157] Top shape: 1 2048 14 14 (401408)
I0114 11:57:36.276427  4017 net.cpp:165] Memory required for data: 259911692
I0114 11:57:36.276432  4017 layer_factory.hpp:77] Creating layer bn5c_branch2c
I0114 11:57:36.276440  4017 net.cpp:100] Creating Layer bn5c_branch2c
I0114 11:57:36.276444  4017 net.cpp:444] bn5c_branch2c <- res5c_branch2c
I0114 11:57:36.276448  4017 net.cpp:405] bn5c_branch2c -> res5c_branch2c (in-place)
I0114 11:57:36.276639  4017 net.cpp:150] Setting up bn5c_branch2c
I0114 11:57:36.276644  4017 net.cpp:157] Top shape: 1 2048 14 14 (401408)
I0114 11:57:36.276646  4017 net.cpp:165] Memory required for data: 261517324
I0114 11:57:36.276651  4017 layer_factory.hpp:77] Creating layer scale5c_branch2c
I0114 11:57:36.276656  4017 net.cpp:100] Creating Layer scale5c_branch2c
I0114 11:57:36.276659  4017 net.cpp:444] scale5c_branch2c <- res5c_branch2c
I0114 11:57:36.276661  4017 net.cpp:405] scale5c_branch2c -> res5c_branch2c (in-place)
I0114 11:57:36.276695  4017 layer_factory.hpp:77] Creating layer scale5c_branch2c
I0114 11:57:36.276798  4017 net.cpp:150] Setting up scale5c_branch2c
I0114 11:57:36.276803  4017 net.cpp:157] Top shape: 1 2048 14 14 (401408)
I0114 11:57:36.276805  4017 net.cpp:165] Memory required for data: 263122956
I0114 11:57:36.276808  4017 layer_factory.hpp:77] Creating layer res5c
I0114 11:57:36.276813  4017 net.cpp:100] Creating Layer res5c
I0114 11:57:36.276815  4017 net.cpp:444] res5c <- res5b_res5b_relu_0_split_1
I0114 11:57:36.276818  4017 net.cpp:444] res5c <- res5c_branch2c
I0114 11:57:36.276821  4017 net.cpp:418] res5c -> res5c
I0114 11:57:36.276841  4017 net.cpp:150] Setting up res5c
I0114 11:57:36.276845  4017 net.cpp:157] Top shape: 1 2048 14 14 (401408)
I0114 11:57:36.276847  4017 net.cpp:165] Memory required for data: 264728588
I0114 11:57:36.276849  4017 layer_factory.hpp:77] Creating layer res5c_relu
I0114 11:57:36.276851  4017 net.cpp:100] Creating Layer res5c_relu
I0114 11:57:36.276854  4017 net.cpp:444] res5c_relu <- res5c
I0114 11:57:36.276857  4017 net.cpp:405] res5c_relu -> res5c (in-place)
I0114 11:57:36.277060  4017 net.cpp:150] Setting up res5c_relu
I0114 11:57:36.277067  4017 net.cpp:157] Top shape: 1 2048 14 14 (401408)
I0114 11:57:36.277070  4017 net.cpp:165] Memory required for data: 266334220
I0114 11:57:36.277072  4017 layer_factory.hpp:77] Creating layer rpn_conv/3x3
I0114 11:57:36.277081  4017 net.cpp:100] Creating Layer rpn_conv/3x3
I0114 11:57:36.277083  4017 net.cpp:444] rpn_conv/3x3 <- res4f_res4f_relu_0_split_2
I0114 11:57:36.277087  4017 net.cpp:418] rpn_conv/3x3 -> rpn/output
I0114 11:57:36.318289  4017 net.cpp:150] Setting up rpn_conv/3x3
I0114 11:57:36.318305  4017 net.cpp:157] Top shape: 1 512 14 14 (100352)
I0114 11:57:36.318307  4017 net.cpp:165] Memory required for data: 266735628
I0114 11:57:36.318315  4017 layer_factory.hpp:77] Creating layer rpn_relu/3x3
I0114 11:57:36.318320  4017 net.cpp:100] Creating Layer rpn_relu/3x3
I0114 11:57:36.318325  4017 net.cpp:444] rpn_relu/3x3 <- rpn/output
I0114 11:57:36.318330  4017 net.cpp:405] rpn_relu/3x3 -> rpn/output (in-place)
I0114 11:57:36.318792  4017 net.cpp:150] Setting up rpn_relu/3x3
I0114 11:57:36.318800  4017 net.cpp:157] Top shape: 1 512 14 14 (100352)
I0114 11:57:36.318802  4017 net.cpp:165] Memory required for data: 267137036
I0114 11:57:36.318804  4017 layer_factory.hpp:77] Creating layer rpn/output_rpn_relu/3x3_0_split
I0114 11:57:36.318809  4017 net.cpp:100] Creating Layer rpn/output_rpn_relu/3x3_0_split
I0114 11:57:36.318811  4017 net.cpp:444] rpn/output_rpn_relu/3x3_0_split <- rpn/output
I0114 11:57:36.318815  4017 net.cpp:418] rpn/output_rpn_relu/3x3_0_split -> rpn/output_rpn_relu/3x3_0_split_0
I0114 11:57:36.318820  4017 net.cpp:418] rpn/output_rpn_relu/3x3_0_split -> rpn/output_rpn_relu/3x3_0_split_1
I0114 11:57:36.318863  4017 net.cpp:150] Setting up rpn/output_rpn_relu/3x3_0_split
I0114 11:57:36.318869  4017 net.cpp:157] Top shape: 1 512 14 14 (100352)
I0114 11:57:36.318872  4017 net.cpp:157] Top shape: 1 512 14 14 (100352)
I0114 11:57:36.318874  4017 net.cpp:165] Memory required for data: 267939852
I0114 11:57:36.318876  4017 layer_factory.hpp:77] Creating layer rpn_cls_score
I0114 11:57:36.318883  4017 net.cpp:100] Creating Layer rpn_cls_score
I0114 11:57:36.318886  4017 net.cpp:444] rpn_cls_score <- rpn/output_rpn_relu/3x3_0_split_0
I0114 11:57:36.318891  4017 net.cpp:418] rpn_cls_score -> rpn_cls_score
I0114 11:57:36.319620  4017 net.cpp:150] Setting up rpn_cls_score
I0114 11:57:36.319628  4017 net.cpp:157] Top shape: 1 18 14 14 (3528)
I0114 11:57:36.319629  4017 net.cpp:165] Memory required for data: 267953964
I0114 11:57:36.319633  4017 layer_factory.hpp:77] Creating layer rpn_bbox_pred
I0114 11:57:36.319645  4017 net.cpp:100] Creating Layer rpn_bbox_pred
I0114 11:57:36.319649  4017 net.cpp:444] rpn_bbox_pred <- rpn/output_rpn_relu/3x3_0_split_1
I0114 11:57:36.319654  4017 net.cpp:418] rpn_bbox_pred -> rpn_bbox_pred
I0114 11:57:36.320832  4017 net.cpp:150] Setting up rpn_bbox_pred
I0114 11:57:36.320843  4017 net.cpp:157] Top shape: 1 36 14 14 (7056)
I0114 11:57:36.320847  4017 net.cpp:165] Memory required for data: 267982188
I0114 11:57:36.320850  4017 layer_factory.hpp:77] Creating layer rpn_cls_score_reshape
I0114 11:57:36.320857  4017 net.cpp:100] Creating Layer rpn_cls_score_reshape
I0114 11:57:36.320858  4017 net.cpp:444] rpn_cls_score_reshape <- rpn_cls_score
I0114 11:57:36.320863  4017 net.cpp:418] rpn_cls_score_reshape -> rpn_cls_score_reshape
I0114 11:57:36.320890  4017 net.cpp:150] Setting up rpn_cls_score_reshape
I0114 11:57:36.320894  4017 net.cpp:157] Top shape: 1 2 126 14 (3528)
I0114 11:57:36.320895  4017 net.cpp:165] Memory required for data: 267996300
I0114 11:57:36.320897  4017 layer_factory.hpp:77] Creating layer rpn_cls_prob
I0114 11:57:36.320900  4017 net.cpp:100] Creating Layer rpn_cls_prob
I0114 11:57:36.320904  4017 net.cpp:444] rpn_cls_prob <- rpn_cls_score_reshape
I0114 11:57:36.320906  4017 net.cpp:418] rpn_cls_prob -> rpn_cls_prob
I0114 11:57:36.321436  4017 net.cpp:150] Setting up rpn_cls_prob
I0114 11:57:36.321445  4017 net.cpp:157] Top shape: 1 2 126 14 (3528)
I0114 11:57:36.321447  4017 net.cpp:165] Memory required for data: 268010412
I0114 11:57:36.321449  4017 layer_factory.hpp:77] Creating layer rpn_cls_prob_reshape
I0114 11:57:36.321455  4017 net.cpp:100] Creating Layer rpn_cls_prob_reshape
I0114 11:57:36.321458  4017 net.cpp:444] rpn_cls_prob_reshape <- rpn_cls_prob
I0114 11:57:36.321463  4017 net.cpp:418] rpn_cls_prob_reshape -> rpn_cls_prob_reshape
I0114 11:57:36.321485  4017 net.cpp:150] Setting up rpn_cls_prob_reshape
I0114 11:57:36.321490  4017 net.cpp:157] Top shape: 1 18 14 14 (3528)
I0114 11:57:36.321491  4017 net.cpp:165] Memory required for data: 268024524
I0114 11:57:36.321493  4017 layer_factory.hpp:77] Creating layer proposal
I0114 11:57:36.322490  4017 net.cpp:100] Creating Layer proposal
I0114 11:57:36.322499  4017 net.cpp:444] proposal <- rpn_cls_prob_reshape
I0114 11:57:36.322502  4017 net.cpp:444] proposal <- rpn_bbox_pred
I0114 11:57:36.322505  4017 net.cpp:444] proposal <- im_info
I0114 11:57:36.322509  4017 net.cpp:418] proposal -> rois
I0114 11:57:36.322995  4017 net.cpp:150] Setting up proposal
I0114 11:57:36.323004  4017 net.cpp:157] Top shape: 1 5 (5)
I0114 11:57:36.323006  4017 net.cpp:165] Memory required for data: 268024544
I0114 11:57:36.323009  4017 layer_factory.hpp:77] Creating layer rois_proposal_0_split
I0114 11:57:36.323014  4017 net.cpp:100] Creating Layer rois_proposal_0_split
I0114 11:57:36.323015  4017 net.cpp:444] rois_proposal_0_split <- rois
I0114 11:57:36.323019  4017 net.cpp:418] rois_proposal_0_split -> rois_proposal_0_split_0
I0114 11:57:36.323024  4017 net.cpp:418] rois_proposal_0_split -> rois_proposal_0_split_1
I0114 11:57:36.323060  4017 net.cpp:150] Setting up rois_proposal_0_split
I0114 11:57:36.323065  4017 net.cpp:157] Top shape: 1 5 (5)
I0114 11:57:36.323066  4017 net.cpp:157] Top shape: 1 5 (5)
I0114 11:57:36.323068  4017 net.cpp:165] Memory required for data: 268024584
I0114 11:57:36.323071  4017 layer_factory.hpp:77] Creating layer conv_new_1
I0114 11:57:36.323076  4017 net.cpp:100] Creating Layer conv_new_1
I0114 11:57:36.323078  4017 net.cpp:444] conv_new_1 <- res5c
I0114 11:57:36.323082  4017 net.cpp:418] conv_new_1 -> conv_new_1
I0114 11:57:36.341806  4017 net.cpp:150] Setting up conv_new_1
I0114 11:57:36.341823  4017 net.cpp:157] Top shape: 1 1024 14 14 (200704)
I0114 11:57:36.341826  4017 net.cpp:165] Memory required for data: 268827400
I0114 11:57:36.341832  4017 layer_factory.hpp:77] Creating layer conv_new_1_relu
I0114 11:57:36.341838  4017 net.cpp:100] Creating Layer conv_new_1_relu
I0114 11:57:36.341841  4017 net.cpp:444] conv_new_1_relu <- conv_new_1
I0114 11:57:36.341846  4017 net.cpp:405] conv_new_1_relu -> conv_new_1 (in-place)
I0114 11:57:36.341987  4017 net.cpp:150] Setting up conv_new_1_relu
I0114 11:57:36.341994  4017 net.cpp:157] Top shape: 1 1024 14 14 (200704)
I0114 11:57:36.341995  4017 net.cpp:165] Memory required for data: 269630216
I0114 11:57:36.341997  4017 layer_factory.hpp:77] Creating layer conv_new_1_conv_new_1_relu_0_split
I0114 11:57:36.342000  4017 net.cpp:100] Creating Layer conv_new_1_conv_new_1_relu_0_split
I0114 11:57:36.342003  4017 net.cpp:444] conv_new_1_conv_new_1_relu_0_split <- conv_new_1
I0114 11:57:36.342007  4017 net.cpp:418] conv_new_1_conv_new_1_relu_0_split -> conv_new_1_conv_new_1_relu_0_split_0
I0114 11:57:36.342011  4017 net.cpp:418] conv_new_1_conv_new_1_relu_0_split -> conv_new_1_conv_new_1_relu_0_split_1
I0114 11:57:36.342054  4017 net.cpp:150] Setting up conv_new_1_conv_new_1_relu_0_split
I0114 11:57:36.342059  4017 net.cpp:157] Top shape: 1 1024 14 14 (200704)
I0114 11:57:36.342062  4017 net.cpp:157] Top shape: 1 1024 14 14 (200704)
I0114 11:57:36.342063  4017 net.cpp:165] Memory required for data: 271235848
I0114 11:57:36.342066  4017 layer_factory.hpp:77] Creating layer rfcn_cls
I0114 11:57:36.342073  4017 net.cpp:100] Creating Layer rfcn_cls
I0114 11:57:36.342075  4017 net.cpp:444] rfcn_cls <- conv_new_1_conv_new_1_relu_0_split_0
I0114 11:57:36.342080  4017 net.cpp:418] rfcn_cls -> rfcn_cls
I0114 11:57:36.344245  4017 net.cpp:150] Setting up rfcn_cls
I0114 11:57:36.344254  4017 net.cpp:157] Top shape: 1 98 14 14 (19208)
I0114 11:57:36.344256  4017 net.cpp:165] Memory required for data: 271312680
I0114 11:57:36.344260  4017 layer_factory.hpp:77] Creating layer rfcn_bbox
I0114 11:57:36.344288  4017 net.cpp:100] Creating Layer rfcn_bbox
I0114 11:57:36.344305  4017 net.cpp:444] rfcn_bbox <- conv_new_1_conv_new_1_relu_0_split_1
I0114 11:57:36.344310  4017 net.cpp:418] rfcn_bbox -> rfcn_bbox
I0114 11:57:36.349313  4017 net.cpp:150] Setting up rfcn_bbox
I0114 11:57:36.349328  4017 net.cpp:157] Top shape: 1 392 14 14 (76832)
I0114 11:57:36.349331  4017 net.cpp:165] Memory required for data: 271620008
I0114 11:57:36.349337  4017 layer_factory.hpp:77] Creating layer psroipooled_cls_rois
I0114 11:57:36.349346  4017 net.cpp:100] Creating Layer psroipooled_cls_rois
I0114 11:57:36.349350  4017 net.cpp:444] psroipooled_cls_rois <- rfcn_cls
I0114 11:57:36.349354  4017 net.cpp:444] psroipooled_cls_rois <- rois_proposal_0_split_0
I0114 11:57:36.349360  4017 net.cpp:418] psroipooled_cls_rois -> psroipooled_cls_rois
I0114 11:57:36.349369  4017 psroi_pooling_layer.cpp:26] Spatial scale: 0.0625
I0114 11:57:36.349416  4017 net.cpp:150] Setting up psroipooled_cls_rois
I0114 11:57:36.349422  4017 net.cpp:157] Top shape: 1 2 7 7 (98)
I0114 11:57:36.349423  4017 net.cpp:165] Memory required for data: 271620400
I0114 11:57:36.349426  4017 layer_factory.hpp:77] Creating layer ave_cls_score_rois
I0114 11:57:36.349431  4017 net.cpp:100] Creating Layer ave_cls_score_rois
I0114 11:57:36.349433  4017 net.cpp:444] ave_cls_score_rois <- psroipooled_cls_rois
I0114 11:57:36.349436  4017 net.cpp:418] ave_cls_score_rois -> cls_score
I0114 11:57:36.349591  4017 net.cpp:150] Setting up ave_cls_score_rois
I0114 11:57:36.349596  4017 net.cpp:157] Top shape: 1 2 1 1 (2)
I0114 11:57:36.349599  4017 net.cpp:165] Memory required for data: 271620408
I0114 11:57:36.349601  4017 layer_factory.hpp:77] Creating layer psroipooled_loc_rois
I0114 11:57:36.349604  4017 net.cpp:100] Creating Layer psroipooled_loc_rois
I0114 11:57:36.349606  4017 net.cpp:444] psroipooled_loc_rois <- rfcn_bbox
I0114 11:57:36.349611  4017 net.cpp:444] psroipooled_loc_rois <- rois_proposal_0_split_1
I0114 11:57:36.349614  4017 net.cpp:418] psroipooled_loc_rois -> psroipooled_loc_rois
I0114 11:57:36.349618  4017 psroi_pooling_layer.cpp:26] Spatial scale: 0.0625
I0114 11:57:36.349651  4017 net.cpp:150] Setting up psroipooled_loc_rois
I0114 11:57:36.349658  4017 net.cpp:157] Top shape: 1 8 7 7 (392)
I0114 11:57:36.349658  4017 net.cpp:165] Memory required for data: 271621976
I0114 11:57:36.349660  4017 layer_factory.hpp:77] Creating layer ave_bbox_pred_rois
I0114 11:57:36.349664  4017 net.cpp:100] Creating Layer ave_bbox_pred_rois
I0114 11:57:36.349668  4017 net.cpp:444] ave_bbox_pred_rois <- psroipooled_loc_rois
I0114 11:57:36.349671  4017 net.cpp:418] ave_bbox_pred_rois -> bbox_pred_pre
I0114 11:57:36.349818  4017 net.cpp:150] Setting up ave_bbox_pred_rois
I0114 11:57:36.349824  4017 net.cpp:157] Top shape: 1 8 1 1 (8)
I0114 11:57:36.349826  4017 net.cpp:165] Memory required for data: 271622008
I0114 11:57:36.349828  4017 layer_factory.hpp:77] Creating layer cls_prob
I0114 11:57:36.349833  4017 net.cpp:100] Creating Layer cls_prob
I0114 11:57:36.349834  4017 net.cpp:444] cls_prob <- cls_score
I0114 11:57:36.349838  4017 net.cpp:418] cls_prob -> cls_prob_pre
I0114 11:57:36.350055  4017 net.cpp:150] Setting up cls_prob
I0114 11:57:36.350062  4017 net.cpp:157] Top shape: 1 2 1 1 (2)
I0114 11:57:36.350064  4017 net.cpp:165] Memory required for data: 271622016
I0114 11:57:36.350066  4017 layer_factory.hpp:77] Creating layer cls_prob_reshape
I0114 11:57:36.350070  4017 net.cpp:100] Creating Layer cls_prob_reshape
I0114 11:57:36.350073  4017 net.cpp:444] cls_prob_reshape <- cls_prob_pre
I0114 11:57:36.350077  4017 net.cpp:418] cls_prob_reshape -> cls_prob
I0114 11:57:36.350100  4017 net.cpp:150] Setting up cls_prob_reshape
I0114 11:57:36.350102  4017 net.cpp:157] Top shape: 1 2 (2)
I0114 11:57:36.350105  4017 net.cpp:165] Memory required for data: 271622024
I0114 11:57:36.350106  4017 layer_factory.hpp:77] Creating layer bbox_pred_reshape
I0114 11:57:36.350109  4017 net.cpp:100] Creating Layer bbox_pred_reshape
I0114 11:57:36.350113  4017 net.cpp:444] bbox_pred_reshape <- bbox_pred_pre
I0114 11:57:36.350117  4017 net.cpp:418] bbox_pred_reshape -> bbox_pred
I0114 11:57:36.350136  4017 net.cpp:150] Setting up bbox_pred_reshape
I0114 11:57:36.350139  4017 net.cpp:157] Top shape: 1 8 (8)
I0114 11:57:36.350142  4017 net.cpp:165] Memory required for data: 271622056
I0114 11:57:36.350143  4017 net.cpp:228] bbox_pred_reshape does not need backward computation.
I0114 11:57:36.350145  4017 net.cpp:228] cls_prob_reshape does not need backward computation.
I0114 11:57:36.350147  4017 net.cpp:228] cls_prob does not need backward computation.
I0114 11:57:36.350149  4017 net.cpp:228] ave_bbox_pred_rois does not need backward computation.
…
