…
snapshot: 30000
snapshot_prefix: "resnet50_rfcn_ohem"
iter_size: 2
I0313 22:58:14.470675 23048 solver.cpp:81] Creating training net from train_net file: models/pascal_voc/ResNet-50/rfcn_end2end/train_agnostic_ohem.prototxt
I0313 22:58:14.486363 23048 net.cpp:58] Initializing net from parameters: 
name: "ResNet-50"
state {
  phase: TRAIN
}
layer {
  name: "input-data"
  type: "Python"
  top: "data"
  top: "im_info"
  top: "gt_boxes"
  python_param {
    module: "roi_data_layer.layer"
    layer: "RoIDataLayer"
    param_str: "\'num_classes\': 2"
  }
}
layer {
  name: "conv1"
  type: "Convolution"
  bottom: "data"
  top: "conv1"
  param {
    lr_mult: 0
  }
  param {
    lr_mult: 0
  }
  convolution_param {
    num_output: 64
    pad: 3
    kernel_size: 7
    stride: 2
  }
}
layer {
  name: "bn_conv1"
  type: "BatchNorm"
  bottom: "conv1"
  top: "conv1"
  param {
    lr_mult: 0
    decay_mult: 0
  }
  param {
    lr_mult: 0
    decay_mult: 0
  }
  param {
    lr_mult: 0
    decay_mult: 0
  }
  batch_norm_param {
    use_global_stats: true
  }
}
layer {
  name: "scale_conv1"
  type: "Scale"
  bottom: "conv1"
  top: "conv1"
  param {
    lr_mult: 0
    decay_mult: 0
  }
  param {
    lr_mult: 0
    decay_mult: 0
  }
  scale_param {
    bias_term: true
  }
}
layer {
  name: "conv1_relu"
  type: "ReLU"
  bottom: "conv1"
  top: "conv1"
}
layer {
  name: "pool1"
  type: "Pooling"
  bottom: "conv1"
  top: "pool1"
  pooling_param {
    pool: MAX
    kernel_size: 3
    stride: 2
  }
}
layer {
  name: "res2a_branch1"
  type: "Convolution"
  bottom: "pool1"
  top: "res2a_branch1"
  param {
    lr_mult: 0
  }
  convolution_param {
    num_output: 256
    bias_term: false
    pad: 0
    kernel_size: 1
    stride: 1
  }
}
layer {
  name: "bn2a_branch1"
  type: "BatchNorm"
  bottom: "res2a_branch1"
  top: "res2a_branch1"
  param {
    lr_mult: 0
    decay_mult: 0
  }
  param {
    lr_mult: 0
    decay_mult: 0
  }
  param {
    lr_mult: 0
    decay_mult: 0
  }
  batch_norm_param {
    use_global_stats: true
  }
}
layer {
  name: "scale2a_branch1"
  type: "Scale"
  bottom: "res2a_branch1"
  top: "res2a_branch1"
  param {
    lr_mult: 0
    decay_mult: 0
  }
  param {
    lr_mult: 0
    decay_mult: 0
  }
  scale_param {
    bias_term: true
  }
}
layer {
  name: "res2a_branch2a"
  type: "Convolution"
  bottom: "pool1"
  top: "res2a_branch2a"
  param {
    lr_mult: 0
  }
  convolution_param {
    num_output: 64
    bias_term: false
    pad: 0
    kernel_size: 1
    stride: 1
  }
}
layer {
  name: "bn2a_branch2a"
  type: "BatchNorm"
  bottom: "res2a_branch2a"
  top: "res2a_branch2a"
  param {
    lr_mult: 0
    decay_mult: 0
  }
  param {
    lr_mult: 0
    decay_mult: 0
  }
  param {
    lr_mult: 0
    decay_mult: 0
  }
  batch_norm_param {
    use_global_stats: true
  }
}
layer {
  name: "scale2a_branch2a"
  type: "Scale"
  bottom: "res2a_branch2a"
  top: "res2a_branch2a"
  param {
    lr_mult: 0
    decay_mult: 0
  }
  param {
    lr_mult: 0
    decay_mult: 0
  }
  scale_param {
    bias_term: true
  }
}
layer {
  name: "res2a_branch2a_relu"
  type: "ReLU"
  bottom: "res2a_branch2a"
  top: "res2a_branch2a"
}
layer {
  name: "res2a_branch2b"
  type: "Convolution"
  bottom: "res2a_branch2a"
  top: "res2a_branch2b"
  param {
    lr_mult: 0
  }
  convolution_param {
    num_output: 64
    bias_term: false
    pad: 1
    kernel_size: 3
    stride: 1
  }
}
layer {
  name: "bn2a_branch2b"
  type: "BatchNorm"
  bottom: "res2a_branch2b"
  top: "res2a_branch2b"
  param {
    lr_mult: 0
    decay_mult: 0
  }
  param {
    lr_mult: 0
    decay_mult: 0
  }
  param {
    lr_mult: 0
    decay_mult: 0
  }
  batch_norm_param {
    use_global_stats: true
  }
}
layer {
  name: "scale2a_branch2b"
  type: "Scale"
  bottom: "res2a_branch2b"
  top: "res2a_branch2b"
  param {
    lr_mult: 0
    decay_mult: 0
  }
  param {
    lr_mult: 0
    decay_mult: 0
  }
  scale_param {
    bias_term: true
  }
}
layer {
  name: "res2a_branch2b_relu"
  type: "ReLU"
  bottom: "res2a_branch2b"
  top: "res2a_branch2b"
}
layer {
  name: "res2a_branch2c"
  type: "Convolution"
  bottom: "res2a_branch2b"
  top: "res2a_branch2c"
  param {
    lr_mult: 0
  }
  convolution_param {
    num_output: 256
    bias_term: false
    pad: 0
    kernel_size: 1
    stride: 1
  }
}
layer {
  name: "bn2a_branch2c"
  type: "BatchNorm"
  bottom: "res2a_branch2c"
  top: "res2a_branch2c"
  param {
    lr_mult: 0
    decay_mult: 0
  }
  param {
    lr_mult: 0
    decay_mult: 0
  }
  param {
    lr_mult: 0
    decay_mult: 0
  }
  batch_norm_param {
    use_global_stats: true
  }
}
layer {
  name: "scale2a_branch2c"
  type: "Scale"
  bottom: "res2a_branch2c"
  top: "res2a_branch2c"
  param {
    lr_mult: 0
    decay_mult: 0
  }
  param {
    lr_mult: 0
    decay_mult: 0
  }
  scale_param {
    bias_term: true
  }
}
layer {
  name: "res2a"
  type: "Eltwise"
  bottom: "res2a_branch1"
  bottom: "res2a_branch2c"
  top: "res2a"
}
layer {
  name: "res2a_relu"
  type: "ReLU"
  bottom: "res2a"
  top: "res2a"
}
layer {
  name: "res2b_branch2a"
  type: "Convolution"
  bottom: "res2a"
  top: "res2b_branch2a"
  param {
    lr_mult: 0
  }
  convolution_param {
    num_output: 64
    bias_term: false
    pad: 0
    kernel_size: 1
    stride: 1
  }
}
layer {
  name: "bn2b_branch2a"
  type: "BatchNorm"
  bottom: "res2b_branch2a"
  top: "res2b_branch2a"
  param {
    lr_mult: 0
    decay_mult: 0
  }
  param {
    lr_mult: 0
    decay_mult: 0
  }
  param {
    lr_mult: 0
    decay_mult: 0
  }
  batch_norm_param {
    use_global_stats: true
  }
}
layer {
  name: "scale2b_branch2a"
  type: "Scale"
  bottom: "res2b_branch2a"
  top: "res2b_branch2a"
  param {
    lr_mult: 0
    decay_mult: 0
  }
  param {
    lr_mult: 0
    decay_mult: 0
  }
  scale_param {
    bias_term: true
  }
}
layer {
  name: "res2b_branch2a_relu"
  type: "ReLU"
  bottom: "res2b_branch2a"
  top: "res2b_branch2a"
}
layer {
  name: "res2b_branch2b"
  type: "Convolution"
  bottom: "res2b_branch2a"
  top: "res2b_branch2b"
  param {
    lr_mult: 0
  }
  convolution_param {
    num_output: 64
    bias_term: false
    pad: 1
    kernel_size: 3
    stride: 1
  }
}
layer {
  name: "bn2b_branch2b"
  type: "BatchNorm"
  bottom: "res2b_branch2b"
  top: "res2b_branch2b"
  param {
    lr_mult: 0
    decay_mult: 0
  }
  param {
    lr_mult: 0
    decay_mult: 0
  }
  param {
    lr_mult: 0
    decay_mult: 0
  }
  batch_norm_param {
    use_global_stats: true
  }
}
layer {
  name: "scale2b_branch2b"
  type: "Scale"
  bottom: "res2b_branch2b"
  top: "res2b_branch2b"
  param {
    lr_mult: 0
    decay_mult: 0
  }
  param {
    lr_mult: 0
    decay_mult: 0
  }
  scale_param {
    bias_term: true
  }
}
layer {
  name: "res2b_branch2b_relu"
  type: "ReLU"
  bottom: "res2b_branch2b"
  top: "res2b_branch2b"
}
layer {
  name: "res2b_branch2c"
  type: "Convolution"
  bottom: "res2b_branch2b"
  top: "res2b_branch2c"
  param {
    lr_mult: 0
  }
  convolution_param {
    num_output: 256
    bias_term: false
    pad: 0
    kernel_size: 1
    stride: 1
  }
}
layer {
  name: "bn2b_branch2c"
  type: "BatchNorm"
  bottom: "res2b_branch2c"
  top: "res2b_branch2c"
  param {
    lr_mult: 0
    decay_mult: 0
  }
  param {
    lr_mult: 0
    decay_mult: 0
  }
  param {
    lr_mult: 0
    decay_mult: 0
  }
  batch_norm_param {
    use_global_stats: true
  }
}
layer {
  name: "scale2b_branch2c"
  type: "Scale"
  bottom: "res2b_branch2c"
  top: "res2b_branch2c"
  param {
    lr_mult: 0
    decay_mult: 0
  }
  param {
    lr_mult: 0
    decay_mult: 0
  }
  scale_param {
    bias_term: true
  }
}
layer {
  name: "res2b"
  type: "Eltwise"
  bottom: "res2a"
  bottom: "res2b_branch2c"
  top: "res2b"
}
layer {
  name: "res2b_relu"
  type: "ReLU"
  bottom: "res2b"
  top: "res2b"
}
layer {
  name: "res2c_branch2a"
  type: "Convolution"
  bottom: "res2b"
  top: "res2c_branch2a"
  param {
    lr_mult: 0
  }
  convolution_param {
    num_output: 64
    bias_term: false
    pad: 0
    kernel_size: 1
    stride: 1
  }
}
layer {
  name: "bn2c_branch2a"
  type: "BatchNorm"
  bottom: "res2c_branch2a"
  top: "res2c_branch2a"
  param {
    lr_mult: 0
    decay_mult: 0
  }
  param {
    lr_mult: 0
    decay_mult: 0
  }
  param {
    lr_mult: 0
    decay_mult: 0
  }
  batch_norm_param {
    use_global_stats: true
  }
}
layer {
  name: "scale2c_branch2a"
  type: "Scale"
  bottom: "res2c_branch2a"
  top: "res2c_branch2a"
  param {
    lr_mult: 0
    decay_mult: 0
  }
  param {
    lr_mult: 0
    decay_mult: 0
  }
  scale_param {
    bias_term: true
  }
}
layer {
  name: "res2c_branch2a_relu"
  type: "ReLU"
  bottom: "res2c_branch2a"
  top: "res2c_branch2a"
}
layer {
  name: "res2c_branch2b"
  type: "Convolution"
  bottom: "res2c_branch2a"
  top: "res2c_branch2b"
  param {
    lr_mult: 0
  }
  convolution_param {
    num_output: 64
    bias_term: false
    pad: 1
    kernel_size: 3
    stride: 1
  }
}
layer {
  name: "bn2c_branch2b"
  type: "BatchNorm"
  bottom: "res2c_branch2b"
  top: "res2c_branch2b"
  param {
    lr_mult: 0
    decay_mult: 0
  }
  param {
    lr_mult: 0
    decay_mult: 0
  }
  param {
    lr_mult: 0
    decay_mult: 0
  }
  batch_norm_param {
    use_global_stats: true
  }
}
layer {
  name: "scale2c_branch2b"
  type: "Scale"
  bottom: "res2c_branch2b"
  top: "res2c_branch2b"
  param {
    lr_mult: 0
    decay_mult: 0
  }
  param {
    lr_mult: 0
    decay_mult: 0
  }
  scale_param {
    bias_term: true
  }
}
layer {
  name: "res2c_branch2b_relu"
  type: "ReLU"
  bottom: "res2c_branch2b"
  top: "res2c_branch2b"
}
layer {
  name: "res2c_branch2c"
  type: "Convolution"
  bottom: "res2c_branch2b"
  top: "res2c_branch2c"
  param {
    lr_mult: 0
  }
  convolution_param {
    num_output: 256
    bias_term: false
    pad: 0
    kernel_size: 1
    stride: 1
  }
}
layer {
  name: "bn2c_branch2c"
  type: "BatchNorm"
  bottom: "res2c_branch2c"
  top: "res2c_branch2c"
  param {
    lr_mult: 0
    decay_mult: 0
  }
  param {
    lr_mult: 0
    decay_mult: 0
  }
  param {
    lr_mult: 0
    decay_mult: 0
  }
  batch_norm_param {
    use_global_stats: true
  }
}
layer {
  name: "scale2c_branch2c"
  type: "Scale"
  bottom: "res2c_branch2c"
  top: "res2c_branch2c"
  param {
    lr_mult: 0
    decay_mult: 0
  }
  param {
    lr_mult: 0
    decay_mult: 0
  }
  scale_param {
    bias_term: true
  }
}
layer {
  name: "res2c"
  type: "Eltwise"
  bottom: "res2b"
  bottom: "res2c_branch2c"
  top: "res2c"
}
layer {
  name: "res2c_relu"
  type: "ReLU"
  bottom: "res2c"
  top: "res2c"
}
layer {
  name: "res3a_branch1"
  type: "Convolution"
  bottom: "res2c"
  top: "res3a_branch1"
  param {
    lr_mult: 1
  }
  convolution_param {
    num_output: 512
    bias_term: false
    pad: 0
    kernel_size: 1
    stride: 2
  }
}
layer {
  name: "bn3a_branch1"
  type: "BatchNorm"
  bottom: "res3a_branch1"
  top: "res3a_branch1"
  param {
    lr_mult: 0
    decay_mult: 0
  }
  param {
    lr_mult: 0
    decay_mult: 0
  }
  param {
    lr_mult: 0
    decay_mult: 0
  }
  batch_norm_param {
    use_global_stats: true
  }
}
layer {
  name: "scale3a_branch1"
  type: "Scale"
  bottom: "res3a_branch1"
  top: "res3a_branch1"
  param {
    lr_mult: 0
    decay_mult: 0
  }
  param {
    lr_mult: 0
    decay_mult: 0
  }
  scale_param {
    bias_term: true
  }
}
layer {
  name: "res3a_branch2a"
  type: "Convolution"
  bottom: "res2c"
  top: "res3a_branch2a"
  param {
    lr_mult: 1
  }
  convolution_param {
    num_output: 128
    bias_term: false
    pad: 0
    kernel_size: 1
    stride: 2
  }
}
layer {
  name: "bn3a_branch2a"
  type: "BatchNorm"
  bottom: "res3a_branch2a"
  top: "res3a_branch2a"
  param {
    lr_mult: 0
    decay_mult: 0
  }
  param {
    lr_mult: 0
    decay_mult: 0
  }
  param {
    lr_mult: 0
    decay_mult: 0
  }
  batch_norm_param {
    use_global_stats: true
  }
}
layer {
  name: "scale3a_branch2a"
  type: "Scale"
  bottom: "res3a_branch2a"
  top: "res3a_branch2a"
  param {
    lr_mult: 0
    decay_mult: 0
  }
  param {
    lr_mult: 0
    decay_mult: 0
  }
  scale_param {
    bias_term: true
  }
}
layer {
  name: "res3a_branch2a_relu"
  type: "ReLU"
  bottom: "res3a_branch2a"
  top: "res3a_branch2a"
}
layer {
  name: "res3a_branch2b"
  type: "Convolution"
  bottom: "res3a_branch2a"
  top: "res3a_branch2b"
  param {
    lr_mult: 1
  }
  convolution_param {
    num_output: 128
    bias_term: false
    pad: 1
    kernel_size: 3
    stride: 1
  }
}
layer {
  name: "bn3a_branch2b"
  type: "BatchNorm"
  bottom: "res3a_branch2b"
  top: "res3a_branch2b"
  param {
    lr_mult: 0
    decay_mult: 0
  }
  param {
    lr_mult: 0
    decay_mult: 0
  }
  param {
    lr_mult: 0
    decay_mult: 0
  }
  batch_norm_param {
    use_global_stats: true
  }
}
layer {
  name: "scale3a_branch2b"
  type: "Scale"
  bottom: "res3a_branch2b"
  top: "res3a_branch2b"
  param {
    lr_mult: 0
    decay_mult: 0
  }
  param {
    lr_mult: 0
    decay_mult: 0
  }
  scale_param {
    bias_term: true
  }
}
layer {
  name: "res3a_branch2b_relu"
  type: "ReLU"
  bottom: "res3a_branch2b"
  top: "res3a_branch2b"
}
layer {
  name: "res3a_branch2c"
  type: "Convolution"
  bottom: "res3a_branch2b"
  top: "res3a_branch2c"
  param {
    lr_mult: 1
  }
  convolution_param {
    num_output: 512
    bias_term: false
    pad: 0
    kernel_size: 1
    stride: 1
  }
}
layer {
  name: "bn3a_branch2c"
  type: "BatchNorm"
  bottom: "res3a_branch2c"
  top: "res3a_branch2c"
  param {
    lr_mult: 0
    decay_mult: 0
  }
  param {
    lr_mult: 0
    decay_mult: 0
  }
  param {
    lr_mult: 0
    decay_mult: 0
  }
  batch_norm_param {
    use_global_stats: true
  }
}
layer {
  name: "scale3a_branch2c"
  type: "Scale"
  bottom: "res3a_branch2c"
  top: "res3a_branch2c"
  param {
    lr_mult: 0
    decay_mult: 0
  }
  param {
    lr_mult: 0
    decay_mult: 0
  }
  scale_param {
    bias_term: true
  }
}
layer {
  name: "res3a"
  type: "Eltwise"
  bottom: "res3a_branch1"
  bottom: "res3a_branch2c"
  top: "res3a"
}
layer {
  name: "res3a_relu"
  type: "ReLU"
  bottom: "res3a"
  top: "res3a"
}
layer {
  name: "res3b_branch2a"
  type: "Convolution"
  bottom: "res3a"
  top: "res3b_branch2a"
  param {
    lr_mult: 1
  }
  convolution_param {
    num_output: 128
    bias_term: false
    pad: 0
    kernel_size: 1
    stride: 1
  }
}
layer {
  name: "bn3b_branch2a"
  type: "BatchNorm"
  bottom: "res3b_branch2a"
  top: "res3b_branch2a"
  param {
    lr_mult: 0
    decay_mult: 0
  }
  param {
    lr_mult: 0
    decay_mult: 0
  }
  param {
    lr_mult: 0
    decay_mult: 0
  }
  batch_norm_param {
    use_global_stats: true
  }
}
layer {
  name: "scale3b_branch2a"
  type: "Scale"
  bottom: "res3b_branch2a"
  top: "res3b_branch2a"
  param {
    lr_mult: 0
    decay_mult: 0
  }
  param {
    lr_mult: 0
    decay_mult: 0
  }
  scale_param {
    bias_term: true
  }
}
layer {
  name: "res3b_branch2a_relu"
  type: "ReLU"
  bottom: "res3b_branch2a"
  top: "res3b_branch2a"
}
layer {
  name: "res3b_branch2b"
  type: "Convolution"
  bottom: "res3b_branch2a"
  top: "res3b_branch2b"
  param {
    lr_mult: 1
  }
  convolution_param {
    num_output: 128
    bias_term: false
    pad: 1
    kernel_size: 3
    stride: 1
  }
}
layer {
  name: "bn3b_branch2b"
  type: "BatchNorm"
  bottom: "res3b_branch2b"
  top: "res3b_branch2b"
  param {
    lr_mult: 0
    decay_mult: 0
  }
  param {
    lr_mult: 0
    decay_mult: 0
  }
  param {
    lr_mult: 0
    decay_mult: 0
  }
  batch_norm_param {
    use_global_stats: true
  }
}
layer {
  name: "scale3b_branch2b"
  type: "Scale"
  bottom: "res3b_branch2b"
  top: "res3b_branch2b"
  param {
    lr_mult: 0
    decay_mult: 0
  }
  param {
    lr_mult: 0
    decay_mult: 0
  }
  scale_param {
    bias_term: true
  }
}
layer {
  name: "res3b_branch2b_relu"
  type: "ReLU"
  bottom: "res3b_branch2b"
  top: "res3b_branch2b"
}
layer {
  name: "res3b_branch2c"
  type: "Convolution"
  bottom: "res3b_branch2b"
  top: "res3b_branch2c"
  param {
    lr_mult: 1
  }
  convolution_param {
    num_output: 512
    bias_term: false
    pad: 0
    kernel_size: 1
    stride: 1
  }
}
layer {
  name: "bn3b_branch2c"
  type: "BatchNorm"
  bottom: "res3b_branch2c"
  top: "res3b_branch2c"
  param {
    lr_mult: 0
    decay_mult: 0
  }
  param {
    lr_mult: 0
    decay_mult: 0
  }
  param {
    lr_mult: 0
    decay_mult: 0
  }
  batch_norm_param {
    use_global_stats: true
  }
}
layer {
  name: "scale3b_branch2c"
  type: "Scale"
  bottom: "res3b_branch2c"
  top: "res3b_branch2c"
  param {
    lr_mult: 0
    decay_mult: 0
  }
  param {
    lr_mult: 0
    decay_mult: 0
  }
  scale_param {
    bias_term: true
  }
}
layer {
  name: "res3b"
  type: "Eltwise"
  bottom: "res3a"
  bottom: "res3b_branch2c"
  top: "res3b"
}
layer {
  name: "res3b_relu"
  type: "ReLU"
  bottom: "res3b"
  top: "res3b"
}
layer {
  name: "res3c_branch2a"
  type: "Convolution"
  bottom: "res3b"
  top: "res3c_branch2a"
  param {
    lr_mult: 1
  }
  convolution_param {
    num_output: 128
    bias_term: false
    pad: 0
    kernel_size: 1
    stride: 1
  }
}
layer {
  name: "bn3c_branch2a"
  type: "BatchNorm"
  bottom: "res3c_branch2a"
  top: "res3c_branch2a"
  param {
    lr_mult: 0
    decay_mult: 0
  }
  param {
    lr_mult: 0
    decay_mult: 0
  }
  param {
    lr_mult: 0
    decay_mult: 0
  }
  batch_norm_param {
    use_global_stats: true
  }
}
layer {
  name: "scale3c_branch2a"
  type: "Scale"
  bottom: "res3c_branch2a"
  top: "res3c_branch2a"
  param {
    lr_mult: 0
    decay_mult: 0
  }
  param {
    lr_mult: 0
    decay_mult: 0
  }
  scale_param {
    bias_term: true
  }
}
layer {
  name: "res3c_branch2a_relu"
  type: "ReLU"
  bottom: "res3c_branch2a"
  top: "res3c_branch2a"
}
layer {
  name: "res3c_branch2b"
  type: "Convolution"
  bottom: "res3c_branch2a"
  top: "res3c_branch2b"
  param {
    lr_mult: 1
  }
  convolution_param {
    num_output: 128
    bias_term: false
    pad: 1
    kernel_size: 3
    stride: 1
  }
}
layer {
  name: "bn3c_branch2b"
  type: "BatchNorm"
  bottom: "res3c_branch2b"
  top: "res3c_branch2b"
  param {
    lr_mult: 0
    decay_mult: 0
  }
  param {
    lr_mult: 0
    decay_mult: 0
  }
  param {
    lr_mult: 0
    decay_mult: 0
  }
  batch_norm_param {
    use_global_stats: true
  }
}
layer {
  name: "scale3c_branch2b"
  type: "Scale"
  bottom: "res3c_branch2b"
  top: "res3c_branch2b"
  param {
    lr_mult: 0
    decay_mult: 0
  }
  param {
    lr_mult: 0
    decay_mult: 0
  }
  scale_param {
    bias_term: true
  }
}
layer {
  name: "res3c_branch2b_relu"
  type: "ReLU"
  bottom: "res3c_branch2b"
  top: "res3c_branch2b"
}
layer {
  name: "res3c_branch2c"
  type: "Convolution"
  bottom: "res3c_branch2b"
  top: "res3c_branch2c"
  param {
    lr_mult: 1
  }
  convolution_param {
    num_output: 512
    bias_term: false
    pad: 0
    kernel_size: 1
    stride: 1
  }
}
layer {
  name: "bn3c_branch2c"
  type: "BatchNorm"
  bottom: "res3c_branch2c"
  top: "res3c_branch2c"
  param {
    lr_mult: 0
    decay_mult: 0
  }
  param {
    lr_mult: 0
    decay_mult: 0
  }
  param {
    lr_mult: 0
    decay_mult: 0
  }
  batch_norm_param {
    use_global_stats: true
  }
}
layer {
  name: "scale3c_branch2c"
  type: "Scale"
  bottom: "res3c_branch2c"
  top: "res3c_branch2c"
  param {
    lr_mult: 0
    decay_mult: 0
  }
  param {
    lr_mult: 0
    decay_mult: 0
  }
  scale_param {
    bias_term: true
  }
}
layer {
  name: "res3c"
  type: "Eltwise"
  bottom: "res3b"
  bottom: "res3c_branch2c"
  top: "res3c"
}
layer {
  name: "res3c_relu"
  type: "ReLU"
  bottom: "res3c"
  top: "res3c"
}
layer {
  name: "res3d_branch2a"
  type: "Convolution"
  bottom: "res3c"
  top: "res3d_branch2a"
  param {
    lr_mult: 1
  }
  convolution_param {
    num_output: 128
    bias_term: false
    pad: 0
    kernel_size: 1
    stride: 1
  }
}
layer {
  name: "bn3d_branch2a"
  type: "BatchNorm"
  bottom: "res3d_branch2a"
  top: "res3d_branch2a"
  param {
    lr_mult: 0
    decay_mult: 0
  }
  param {
    lr_mult: 0
    decay_mult: 0
  }
  param {
    lr_mult: 0
    decay_mult: 0
  }
  batch_norm_param {
    use_global_stats: true
  }
}
layer {
  name: "scale3d_branch2a"
  type: "Scale"
  bottom: "res3d_branch2a"
  top: "res3d_branch2a"
  param {
    lr_mult: 0
    decay_mult: 0
  }
  param {
    lr_mult: 0
    decay_mult: 0
  }
  scale_param {
    bias_term: true
  }
}
layer {
  name: "res3d_branch2a_relu"
  type: "ReLU"
  bottom: "res3d_branch2a"
  top: "res3d_branch2a"
}
layer {
  name: "res3d_branch2b"
  type: "Convolution"
  bottom: "res3d_branch2a"
  top: "res3d_branch2b"
  param {
    lr_mult: 1
  }
  convolution_param {
    num_output: 128
    bias_term: false
    pad: 1
    kernel_size: 3
    stride: 1
  }
}
layer {
  name: "bn3d_branch2b"
  type: "BatchNorm"
  bottom: "res3d_branch2b"
  top: "res3d_branch2b"
  param {
    lr_mult: 0
    decay_mult: 0
  }
  param {
    lr_mult: 0
    decay_mult: 0
  }
  param {
    lr_mult: 0
    decay_mult: 0
  }
  batch_norm_param {
    use_global_stats: true
  }
}
layer {
  name: "scale3d_branch2b"
  type: "Scale"
  bottom: "res3d_branch2b"
  top: "res3d_branch2b"
  param {
    lr_mult: 0
    decay_mult: 0
  }
  param {
    lr_mult: 0
    decay_mult: 0
  }
  scale_param {
    bias_term: true
  }
}
layer {
  name: "res3d_branch2b_relu"
  type: "ReLU"
  bottom: "res3d_branch2b"
  top: "res3d_branch2b"
}
layer {
  name: "res3d_branch2c"
  type: "Convolution"
  bottom: "res3d_branch2b"
  top: "res3d_branch2c"
  param {
    lr_mult: 1
  }
  convolution_param {
    num_output: 512
    bias_term: false
    pad: 0
    kernel_size: 1
    stride: 1
  }
}
layer {
  name: "bn3d_branch2c"
  type: "BatchNorm"
  bottom: "res3d_branch2c"
  top: "res3d_branch2c"
  param {
    lr_mult: 0
    decay_mult: 0
  }
  param {
    lr_mult: 0
    decay_mult: 0
  }
  param {
    lr_mult: 0
    decay_mult: 0
  }
  batch_norm_param {
    use_global_stats: true
  }
}
layer {
  name: "scale3d_branch2c"
  type: "Scale"
  bottom: "res3d_branch2c"
  top: "res3d_branch2c"
  param {
    lr_mult: 0
    decay_mult: 0
  }
  param {
    lr_mult: 0
    decay_mult: 0
  }
  scale_param {
    bias_term: true
  }
}
layer {
  name: "res3d"
  type: "Eltwise"
  bottom: "res3c"
  bottom: "res3d_branch2c"
  top: "res3d"
}
layer {
  name: "res3d_relu"
  type: "ReLU"
  bottom: "res3d"
  top: "res3d"
}
layer {
  name: "res4a_branch1"
  type: "Convolution"
  bottom: "res3d"
  top: "res4a_branch1"
  param {
    lr_mult: 1
  }
  convolution_param {
    num_output: 1024
    bias_term: false
    pad: 0
    kernel_size: 1
    stride: 2
  }
}
layer {
  name: "bn4a_branch1"
  type: "BatchNorm"
  bottom: "res4a_branch1"
  top: "res4a_branch1"
  param {
    lr_mult: 0
    decay_mult: 0
  }
  param {
    lr_mult: 0
    decay_mult: 0
  }
  param {
    lr_mult: 0
    decay_mult: 0
  }
  batch_norm_param {
    use_global_stats: true
  }
}
layer {
  name: "scale4a_branch1"
  type: "Scale"
  bottom: "res4a_branch1"
  top: "res4a_branch1"
  param {
    lr_mult: 0
    decay_mult: 0
  }
  param {
    lr_mult: 0
    decay_mult: 0
  }
  scale_param {
    bias_term: true
  }
}
layer {
  name: "res4a_branch2a"
  type: "Convolution"
  bottom: "res3d"
  top: "res4a_branch2a"
  param {
    lr_mult: 1
  }
  convolution_param {
    num_output: 256
    bias_term: false
    pad: 0
    kernel_size: 1
    stride: 2
  }
}
layer {
  name: "bn4a_branch2a"
  type: "BatchNorm"
  bottom: "res4a_branch2a"
  top: "res4a_branch2a"
  param {
    lr_mult: 0
    decay_mult: 0
  }
  param {
    lr_mult: 0
    decay_mult: 0
  }
  param {
    lr_mult: 0
    decay_mult: 0
  }
  batch_norm_param {
    use_global_stats: true
  }
}
layer {
  name: "scale4a_branch2a"
  type: "Scale"
  bottom: "res4a_branch2a"
  top: "res4a_branch2a"
  param {
    lr_mult: 0
    decay_mult: 0
  }
  param {
    lr_mult: 0
    decay_mult: 0
  }
  scale_param {
    bias_term: true
  }
}
layer {
  name: "res4a_branch2a_relu"
  type: "ReLU"
  bottom: "res4a_branch2a"
  top: "res4a_branch2a"
}
layer {
  name: "res4a_branch2b"
  type: "Convolution"
  bottom: "res4a_branch2a"
  top: "res4a_branch2b"
  param {
    lr_mult: 1
  }
  convolution_param {
    num_output: 256
    bias_term: false
    pad: 1
    kernel_size: 3
    stride: 1
  }
}
layer {
  name: "bn4a_branch2b"
  type: "BatchNorm"
  bottom: "res4a_branch2b"
  top: "res4a_branch2b"
  param {
    lr_mult: 0
    decay_mult: 0
  }
  param {
    lr_mult: 0
    decay_mult: 0
  }
  param {
    lr_mult: 0
    decay_mult: 0
  }
  batch_norm_param {
    use_global_stats: true
  }
}
layer {
  name: "scale4a_branch2b"
  type: "Scale"
  bottom: "res4a_branch2b"
  top: "res4a_branch2b"
  param {
    lr_mult: 0
    decay_mult: 0
  }
  param {
    lr_mult: 0
    decay_mult: 0
  }
  scale_param {
    bias_term: true
  }
}
layer {
  name: "res4a_branch2b_relu"
  type: "ReLU"
  bottom: "res4a_branch2b"
  top: "res4a_branch2b"
}
layer {
  name: "res4a_branch2c"
  type: "Convolution"
  bottom: "res4a_branch2b"
  top: "res4a_branch2c"
  param {
    lr_mult: 1
  }
  convolution_param {
    num_output: 1024
    bias_term: false
    pad: 0
    kernel_size: 1
    stride: 1
  }
}
layer {
  name: "bn4a_branch2c"
  type: "BatchNorm"
  bottom: "res4a_branch2c"
  top: "res4a_branch2c"
  param {
    lr_mult: 0
    decay_mult: 0
  }
  param {
    lr_mult: 0
    decay_mult: 0
  }
  param {
    lr_mult: 0
    decay_mult: 0
  }
  batch_norm_param {
    use_global_stats: true
  }
}
layer {
  name: "scale4a_branch2c"
  type: "Scale"
  bottom: "res4a_branch2c"
  top: "res4a_branch2c"
  param {
    lr_mult: 0
    decay_mult: 0
  }
  param {
    lr_mult: 0
    decay_mult: 0
  }
  scale_param {
    bias_term: true
  }
}
layer {
  name: "res4a"
  type: "Eltwise"
  bottom: "res4a_branch1"
  bottom: "res4a_branch2c"
  top: "res4a"
}
layer {
  name: "res4a_relu"
  type: "ReLU"
  bottom: "res4a"
  top: "res4a"
}
layer {
  name: "res4b_branch2a"
  type: "Convolution"
  bottom: "res4a"
  top: "res4b_branch2a"
  param {
    lr_mult: 1
  }
  convolution_param {
    num_output: 256
    bias_term: false
    pad: 0
    kernel_size: 1
    stride: 1
  }
}
layer {
  name: "bn4b_branch2a"
  type: "BatchNorm"
  bottom: "res4b_branch2a"
  top: "res4b_branch2a"
  param {
    lr_mult: 0
    decay_mult: 0
  }
  param {
    lr_mult: 0
    decay_mult: 0
  }
  param {
    lr_mult: 0
    decay_mult: 0
  }
  batch_norm_param {
    use_global_stats: true
  }
}
layer {
  name: "scale4b_branch2a"
  type: "Scale"
  bottom: "res4b_branch2a"
  top: "res4b_branch2a"
  param {
    lr_mult: 0
    decay_mult: 0
  }
  param {
    lr_mult: 0
    decay_mult: 0
  }
  scale_param {
    bias_term: true
  }
}
layer {
  name: "res4b_branch2a_relu"
  type: "ReLU"
  bottom: "res4b_branch2a"
  top: "res4b_branch2a"
}
layer {
  name: "res4b_branch2b"
  type: "Convolution"
  bottom: "res4b_branch2a"
  top: "res4b_branch2b"
  param {
    lr_mult: 1
  }
  convolution_param {
    num_output: 256
    bias_term: false
    pad: 1
    kernel_size: 3
    stride: 1
  }
}
layer {
  name: "bn4b_branch2b"
  type: "BatchNorm"
  bottom: "res4b_branch2b"
  top: "res4b_branch2b"
  param {
    lr_mult: 0
    decay_mult: 0
  }
  param {
    lr_mult: 0
    decay_mult: 0
  }
  param {
    lr_mult: 0
    decay_mult: 0
  }
  batch_norm_param {
    use_global_stats: true
  }
}
layer {
  name: "scale4b_branch2b"
  type: "Scale"
  bottom: "res4b_branch2b"
  top: "res4b_branch2b"
  param {
    lr_mult: 0
    decay_mult: 0
  }
  param {
    lr_mult: 0
    decay_mult: 0
  }
  scale_param {
    bias_term: true
  }
}
layer {
  name: "res4b_branch2b_relu"
  type: "ReLU"
  bottom: "res4b_branch2b"
  top: "res4b_branch2b"
}
layer {
  name: "res4b_branch2c"
  type: "Convolution"
  bottom: "res4b_branch2b"
  top: "res4b_branch2c"
  param {
    lr_mult: 1
  }
  convolution_param {
    num_output: 1024
    bias_term: false
    pad: 0
    kernel_size: 1
    stride: 1
  }
}
layer {
  name: "bn4b_branch2c"
  type: "BatchNorm"
  bottom: "res4b_branch2c"
  top: "res4b_branch2c"
  param {
    lr_mult: 0
    decay_mult: 0
  }
  param {
    lr_mult: 0
    decay_mult: 0
  }
  param {
    lr_mult: 0
    decay_mult: 0
  }
  batch_norm_param {
    use_global_stats: true
  }
}
layer {
  name: "scale4b_branch2c"
  type: "Scale"
  bottom: "res4b_branch2c"
  top: "res4b_branch2c"
  param {
    lr_mult: 0
    decay_mult: 0
  }
  param {
    lr_mult: 0
    decay_mult: 0
  }
  scale_param {
    bias_term: true
  }
}
layer {
  name: "res4b"
  type: "Eltwise"
  bottom: "res4a"
  bottom: "res4b_branch2c"
  top: "res4b"
}
layer {
  name: "res4b_relu"
  type: "ReLU"
  bottom: "res4b"
  top: "res4b"
}
layer {
  name: "res4c_branch2a"
  type: "Convolution"
  bottom: "res4b"
  top: "res4c_branch2a"
  param {
    lr_mult: 1
  }
  convolution_param {
    num_output: 256
    bias_term: false
    pad: 0
    kernel_size: 1
    stride: 1
  }
}
layer {
  name: "bn4c_branch2a"
  type: "BatchNorm"
  bottom: "res4c_branch2a"
  top: "res4c_branch2a"
  param {
    lr_mult: 0
    decay_mult: 0
  }
  param {
    lr_mult: 0
    decay_mult: 0
  }
  param {
    lr_mult: 0
    decay_mult: 0
  }
  batch_norm_param {
    use_global_stats: true
  }
}
layer {
  name: "scale4c_branch2a"
  type: "Scale"
  bottom: "res4c_branch2a"
  top: "res4c_branch2a"
  param {
    lr_mult: 0
    decay_mult: 0
  }
  param {
    lr_mult: 0
    decay_mult: 0
  }
  scale_param {
    bias_term: true
  }
}
layer {
  name: "res4c_branch2a_relu"
  type: "ReLU"
  bottom: "res4c_branch2a"
  top: "res4c_branch2a"
}
layer {
  name: "res4c_branch2b"
  type: "Convolution"
  bottom: "res4c_branch2a"
  top: "res4c_branch2b"
  param {
    lr_mult: 1
  }
  convolution_param {
    num_output: 256
    bias_term: false
    pad: 1
    kernel_size: 3
    stride: 1
  }
}
layer {
  name: "bn4c_branch2b"
  type: "BatchNorm"
  bottom: "res4c_branch2b"
  top: "res4c_branch2b"
  param {
    lr_mult: 0
    decay_mult: 0
  }
  param {
    lr_mult: 0
    decay_mult: 0
  }
  param {
    lr_mult: 0
    decay_mult: 0
  }
  batch_norm_param {
    use_global_stats: true
  }
}
layer {
  name: "scale4c_branch2b"
  type: "Scale"
  bottom: "res4c_branch2b"
  top: "res4c_branch2b"
  param {
    lr_mult: 0
    decay_mult: 0
  }
  param {
    lr_mult: 0
    decay_mult: 0
  }
  scale_param {
    bias_term: true
  }
}
layer {
  name: "res4c_branch2b_relu"
  type: "ReLU"
  bottom: "res4c_branch2b"
  top: "res4c_
I0313 22:58:14.487548 23048 layer_factory.hpp:77] Creating layer input-data
I0313 22:58:14.604934 23048 net.cpp:100] Creating Layer input-data
I0313 22:58:14.604959 23048 net.cpp:418] input-data -> data
I0313 22:58:14.604971 23048 net.cpp:418] input-data -> im_info
I0313 22:58:14.604979 23048 net.cpp:418] input-data -> gt_boxes
RoiDataLayer: name_to_top: {'gt_boxes': 2, 'data': 0, 'im_info': 1}
I0313 22:58:17.071532 23048 net.cpp:150] Setting up input-data
I0313 22:58:17.071566 23048 net.cpp:157] Top shape: 1 3 600 1000 (1800000)
I0313 22:58:17.071570 23048 net.cpp:157] Top shape: 1 3 (3)
I0313 22:58:17.071573 23048 net.cpp:157] Top shape: 1 4 (4)
I0313 22:58:17.071575 23048 net.cpp:165] Memory required for data: 7200028
I0313 22:58:17.071581 23048 layer_factory.hpp:77] Creating layer data_input-data_0_split
I0313 22:58:17.071609 23048 net.cpp:100] Creating Layer data_input-data_0_split
I0313 22:58:17.071612 23048 net.cpp:444] data_input-data_0_split <- data
I0313 22:58:17.071619 23048 net.cpp:418] data_input-data_0_split -> data_input-data_0_split_0
I0313 22:58:17.071640 23048 net.cpp:418] data_input-data_0_split -> data_input-data_0_split_1
I0313 22:58:17.071707 23048 net.cpp:150] Setting up data_input-data_0_split
I0313 22:58:17.071712 23048 net.cpp:157] Top shape: 1 3 600 1000 (1800000)
I0313 22:58:17.071727 23048 net.cpp:157] Top shape: 1 3 600 1000 (1800000)
I0313 22:58:17.071729 23048 net.cpp:165] Memory required for data: 21600028
I0313 22:58:17.071732 23048 layer_factory.hpp:77] Creating layer im_info_input-data_1_split
I0313 22:58:17.071749 23048 net.cpp:100] Creating Layer im_info_input-data_1_split
I0313 22:58:17.071753 23048 net.cpp:444] im_info_input-data_1_split <- im_info
I0313 22:58:17.071756 23048 net.cpp:418] im_info_input-data_1_split -> im_info_input-data_1_split_0
I0313 22:58:17.071774 23048 net.cpp:418] im_info_input-data_1_split -> im_info_input-data_1_split_1
I0313 22:58:17.071808 23048 net.cpp:150] Setting up im_info_input-data_1_split
I0313 22:58:17.071812 23048 net.cpp:157] Top shape: 1 3 (3)
I0313 22:58:17.071830 23048 net.cpp:157] Top shape: 1 3 (3)
I0313 22:58:17.071832 23048 net.cpp:165] Memory required for data: 21600052
I0313 22:58:17.071835 23048 layer_factory.hpp:77] Creating layer gt_boxes_input-data_2_split
I0313 22:58:17.071837 23048 net.cpp:100] Creating Layer gt_boxes_input-data_2_split
I0313 22:58:17.071852 23048 net.cpp:444] gt_boxes_input-data_2_split <- gt_boxes
I0313 22:58:17.071856 23048 net.cpp:418] gt_boxes_input-data_2_split -> gt_boxes_input-data_2_split_0
I0313 22:58:17.071874 23048 net.cpp:418] gt_boxes_input-data_2_split -> gt_boxes_input-data_2_split_1
I0313 22:58:17.071924 23048 net.cpp:150] Setting up gt_boxes_input-data_2_split
I0313 22:58:17.071928 23048 net.cpp:157] Top shape: 1 4 (4)
I0313 22:58:17.071944 23048 net.cpp:157] Top shape: 1 4 (4)
I0313 22:58:17.071946 23048 net.cpp:165] Memory required for data: 21600084
I0313 22:58:17.071949 23048 layer_factory.hpp:77] Creating layer conv1
I0313 22:58:17.071970 23048 net.cpp:100] Creating Layer conv1
I0313 22:58:17.071974 23048 net.cpp:444] conv1 <- data_input-data_0_split_0
I0313 22:58:17.071977 23048 net.cpp:418] conv1 -> conv1
I0313 22:58:17.073956 23048 net.cpp:150] Setting up conv1
I0313 22:58:17.073969 23048 net.cpp:157] Top shape: 1 64 300 500 (9600000)
I0313 22:58:17.073973 23048 net.cpp:165] Memory required for data: 60000084
I0313 22:58:17.073982 23048 layer_factory.hpp:77] Creating layer bn_conv1
I0313 22:58:17.074007 23048 net.cpp:100] Creating Layer bn_conv1
I0313 22:58:17.074054 23048 net.cpp:444] bn_conv1 <- conv1
I0313 22:58:17.074072 23048 net.cpp:405] bn_conv1 -> conv1 (in-place)
I0313 22:58:17.074327 23048 net.cpp:150] Setting up bn_conv1
I0313 22:58:17.074334 23048 net.cpp:157] Top shape: 1 64 300 500 (9600000)
I0313 22:58:17.074337 23048 net.cpp:165] Memory required for data: 98400084
I0313 22:58:17.074344 23048 layer_factory.hpp:77] Creating layer scale_conv1
I0313 22:58:17.074375 23048 net.cpp:100] Creating Layer scale_conv1
I0313 22:58:17.074379 23048 net.cpp:444] scale_conv1 <- conv1
I0313 22:58:17.074383 23048 net.cpp:405] scale_conv1 -> conv1 (in-place)
I0313 22:58:17.074412 23048 layer_factory.hpp:77] Creating layer scale_conv1
I0313 22:58:17.075366 23048 net.cpp:150] Setting up scale_conv1
I0313 22:58:17.075378 23048 net.cpp:157] Top shape: 1 64 300 500 (9600000)
I0313 22:58:17.075381 23048 net.cpp:165] Memory required for data: 136800084
I0313 22:58:17.075387 23048 layer_factory.hpp:77] Creating layer conv1_relu
I0313 22:58:17.075397 23048 net.cpp:100] Creating Layer conv1_relu
I0313 22:58:17.075399 23048 net.cpp:444] conv1_relu <- conv1
I0313 22:58:17.075403 23048 net.cpp:405] conv1_relu -> conv1 (in-place)
I0313 22:58:17.075410 23048 net.cpp:150] Setting up conv1_relu
I0313 22:58:17.075415 23048 net.cpp:157] Top shape: 1 64 300 500 (9600000)
I0313 22:58:17.075417 23048 net.cpp:165] Memory required for data: 175200084
I0313 22:58:17.075419 23048 layer_factory.hpp:77] Creating layer pool1
I0313 22:58:17.075439 23048 net.cpp:100] Creating Layer pool1
I0313 22:58:17.075443 23048 net.cpp:444] pool1 <- conv1
I0313 22:58:17.075446 23048 net.cpp:418] pool1 -> pool1
I0313 22:58:17.075480 23048 net.cpp:150] Setting up pool1
I0313 22:58:17.075485 23048 net.cpp:157] Top shape: 1 64 150 250 (2400000)
I0313 22:58:17.075501 23048 net.cpp:165] Memory required for data: 184800084
I0313 22:58:17.075503 23048 layer_factory.hpp:77] Creating layer pool1_pool1_0_split
I0313 22:58:17.075508 23048 net.cpp:100] Creating Layer pool1_pool1_0_split
I0313 22:58:17.075525 23048 net.cpp:444] pool1_pool1_0_split <- pool1
I0313 22:58:17.075529 23048 net.cpp:418] pool1_pool1_0_split -> pool1_pool1_0_split_0
I0313 22:58:17.075562 23048 net.cpp:418] pool1_pool1_0_split -> pool1_pool1_0_split_1
I0313 22:58:17.075600 23048 net.cpp:150] Setting up pool1_pool1_0_split
I0313 22:58:17.075605 23048 net.cpp:157] Top shape: 1 64 150 250 (2400000)
I0313 22:58:17.075608 23048 net.cpp:157] Top shape: 1 64 150 250 (2400000)
I0313 22:58:17.075610 23048 net.cpp:165] Memory required for data: 204000084
I0313 22:58:17.075613 23048 layer_factory.hpp:77] Creating layer res2a_branch1
I0313 22:58:17.075620 23048 net.cpp:100] Creating Layer res2a_branch1
I0313 22:58:17.075624 23048 net.cpp:444] res2a_branch1 <- pool1_pool1_0_split_0
I0313 22:58:17.075628 23048 net.cpp:418] res2a_branch1 -> res2a_branch1
I0313 22:58:17.075760 23048 net.cpp:150] Setting up res2a_branch1
I0313 22:58:17.075767 23048 net.cpp:157] Top shape: 1 256 150 250 (9600000)
I0313 22:58:17.075768 23048 net.cpp:165] Memory required for data: 242400084
I0313 22:58:17.075773 23048 layer_factory.hpp:77] Creating layer bn2a_branch1
I0313 22:58:17.075778 23048 net.cpp:100] Creating Layer bn2a_branch1
I0313 22:58:17.075783 23048 net.cpp:444] bn2a_branch1 <- res2a_branch1
I0313 22:58:17.075785 23048 net.cpp:405] bn2a_branch1 -> res2a_branch1 (in-place)
I0313 22:58:17.076582 23048 net.cpp:150] Setting up bn2a_branch1
I0313 22:58:17.076592 23048 net.cpp:157] Top shape: 1 256 150 250 (9600000)
I0313 22:58:17.076596 23048 net.cpp:165] Memory required for data: 280800084
I0313 22:58:17.076603 23048 layer_factory.hpp:77] Creating layer scale2a_branch1
I0313 22:58:17.076624 23048 net.cpp:100] Creating Layer scale2a_branch1
I0313 22:58:17.076627 23048 net.cpp:444] scale2a_branch1 <- res2a_branch1
I0313 22:58:17.076632 23048 net.cpp:405] scale2a_branch1 -> res2a_branch1 (in-place)
I0313 22:58:17.076673 23048 layer_factory.hpp:77] Creating layer scale2a_branch1
I0313 22:58:17.076805 23048 net.cpp:150] Setting up scale2a_branch1
I0313 22:58:17.076810 23048 net.cpp:157] Top shape: 1 256 150 250 (9600000)
I0313 22:58:17.076812 23048 net.cpp:165] Memory required for data: 319200084
I0313 22:58:17.076817 23048 layer_factory.hpp:77] Creating layer res2a_branch2a
I0313 22:58:17.076822 23048 net.cpp:100] Creating Layer res2a_branch2a
I0313 22:58:17.076839 23048 net.cpp:444] res2a_branch2a <- pool1_pool1_0_split_1
I0313 22:58:17.076844 23048 net.cpp:418] res2a_branch2a -> res2a_branch2a
I0313 22:58:17.077677 23048 net.cpp:150] Setting up res2a_branch2a
I0313 22:58:17.077688 23048 net.cpp:157] Top shape: 1 64 150 250 (2400000)
I0313 22:58:17.077692 23048 net.cpp:165] Memory required for data: 328800084
I0313 22:58:17.077695 23048 layer_factory.hpp:77] Creating layer bn2a_branch2a
I0313 22:58:17.077700 23048 net.cpp:100] Creating Layer bn2a_branch2a
I0313 22:58:17.077703 23048 net.cpp:444] bn2a_branch2a <- res2a_branch2a
I0313 22:58:17.077708 23048 net.cpp:405] bn2a_branch2a -> res2a_branch2a (in-place)
I0313 22:58:17.077921 23048 net.cpp:150] Setting up bn2a_branch2a
I0313 22:58:17.077926 23048 net.cpp:157] Top shape: 1 64 150 250 (2400000)
I0313 22:58:17.077929 23048 net.cpp:165] Memory required for data: 338400084
I0313 22:58:17.077935 23048 layer_factory.hpp:77] Creating layer scale2a_branch2a
I0313 22:58:17.077955 23048 net.cpp:100] Creating Layer scale2a_branch2a
I0313 22:58:17.077956 23048 net.cpp:444] scale2a_branch2a <- res2a_branch2a
I0313 22:58:17.077960 23048 net.cpp:405] scale2a_branch2a -> res2a_branch2a (in-place)
I0313 22:58:17.078001 23048 layer_factory.hpp:77] Creating layer scale2a_branch2a
I0313 22:58:17.078186 23048 net.cpp:150] Setting up scale2a_branch2a
I0313 22:58:17.078191 23048 net.cpp:157] Top shape: 1 64 150 250 (2400000)
I0313 22:58:17.078193 23048 net.cpp:165] Memory required for data: 348000084
I0313 22:58:17.078197 23048 layer_factory.hpp:77] Creating layer res2a_branch2a_relu
I0313 22:58:17.078203 23048 net.cpp:100] Creating Layer res2a_branch2a_relu
I0313 22:58:17.078219 23048 net.cpp:444] res2a_branch2a_relu <- res2a_branch2a
I0313 22:58:17.078222 23048 net.cpp:405] res2a_branch2a_relu -> res2a_branch2a (in-place)
I0313 22:58:17.078239 23048 net.cpp:150] Setting up res2a_branch2a_relu
I0313 22:58:17.078243 23048 net.cpp:157] Top shape: 1 64 150 250 (2400000)
I0313 22:58:17.078244 23048 net.cpp:165] Memory required for data: 357600084
I0313 22:58:17.078246 23048 layer_factory.hpp:77] Creating layer res2a_branch2b
I0313 22:58:17.078253 23048 net.cpp:100] Creating Layer res2a_branch2b
I0313 22:58:17.078255 23048 net.cpp:444] res2a_branch2b <- res2a_branch2a
I0313 22:58:17.078274 23048 net.cpp:418] res2a_branch2b -> res2a_branch2b
I0313 22:58:17.078435 23048 net.cpp:150] Setting up res2a_branch2b
I0313 22:58:17.078439 23048 net.cpp:157] Top shape: 1 64 150 250 (2400000)
I0313 22:58:17.078442 23048 net.cpp:165] Memory required for data: 367200084
I0313 22:58:17.078445 23048 layer_factory.hpp:77] Creating layer bn2a_branch2b
I0313 22:58:17.078449 23048 net.cpp:100] Creating Layer bn2a_branch2b
I0313 22:58:17.078451 23048 net.cpp:444] bn2a_branch2b <- res2a_branch2b
I0313 22:58:17.078469 23048 net.cpp:405] bn2a_branch2b -> res2a_branch2b (in-place)
I0313 22:58:17.078687 23048 net.cpp:150] Setting up bn2a_branch2b
I0313 22:58:17.078692 23048 net.cpp:157] Top shape: 1 64 150 250 (2400000)
I0313 22:58:17.078694 23048 net.cpp:165] Memory required for data: 376800084
I0313 22:58:17.078699 23048 layer_factory.hpp:77] Creating layer scale2a_branch2b
I0313 22:58:17.078703 23048 net.cpp:100] Creating Layer scale2a_branch2b
I0313 22:58:17.078721 23048 net.cpp:444] scale2a_branch2b <- res2a_branch2b
I0313 22:58:17.078723 23048 net.cpp:405] scale2a_branch2b -> res2a_branch2b (in-place)
I0313 22:58:17.078760 23048 layer_factory.hpp:77] Creating layer scale2a_branch2b
I0313 22:58:17.078950 23048 net.cpp:150] Setting up scale2a_branch2b
I0313 22:58:17.078955 23048 net.cpp:157] Top shape: 1 64 150 250 (2400000)
I0313 22:58:17.078958 23048 net.cpp:165] Memory required for data: 386400084
I0313 22:58:17.078961 23048 layer_factory.hpp:77] Creating layer res2a_branch2b_relu
I0313 22:58:17.078965 23048 net.cpp:100] Creating Layer res2a_branch2b_relu
I0313 22:58:17.078968 23048 net.cpp:444] res2a_branch2b_relu <- res2a_branch2b
I0313 22:58:17.078970 23048 net.cpp:405] res2a_branch2b_relu -> res2a_branch2b (in-place)
I0313 22:58:17.078974 23048 net.cpp:150] Setting up res2a_branch2b_relu
I0313 22:58:17.078977 23048 net.cpp:157] Top shape: 1 64 150 250 (2400000)
I0313 22:58:17.078979 23048 net.cpp:165] Memory required for data: 396000084
I0313 22:58:17.078981 23048 layer_factory.hpp:77] Creating layer res2a_branch2c
I0313 22:58:17.078985 23048 net.cpp:100] Creating Layer res2a_branch2c
I0313 22:58:17.078989 23048 net.cpp:444] res2a_branch2c <- res2a_branch2b
I0313 22:58:17.079005 23048 net.cpp:418] res2a_branch2c -> res2a_branch2c
I0313 22:58:17.079174 23048 net.cpp:150] Setting up res2a_branch2c
I0313 22:58:17.079179 23048 net.cpp:157] Top shape: 1 256 150 250 (9600000)
I0313 22:58:17.079180 23048 net.cpp:165] Memory required for data: 434400084
I0313 22:58:17.079185 23048 layer_factory.hpp:77] Creating layer bn2a_branch2c
I0313 22:58:17.079187 23048 net.cpp:100] Creating Layer bn2a_branch2c
I0313 22:58:17.079190 23048 net.cpp:444] bn2a_branch2c <- res2a_branch2c
I0313 22:58:17.079208 23048 net.cpp:405] bn2a_branch2c -> res2a_branch2c (in-place)
I0313 22:58:17.079385 23048 net.cpp:150] Setting up bn2a_branch2c
I0313 22:58:17.079388 23048 net.cpp:157] Top shape: 1 256 150 250 (9600000)
I0313 22:58:17.079391 23048 net.cpp:165] Memory required for data: 472800084
I0313 22:58:17.079396 23048 layer_factory.hpp:77] Creating layer scale2a_branch2c
I0313 22:58:17.079399 23048 net.cpp:100] Creating Layer scale2a_branch2c
I0313 22:58:17.079401 23048 net.cpp:444] scale2a_branch2c <- res2a_branch2c
I0313 22:58:17.079419 23048 net.cpp:405] scale2a_branch2c -> res2a_branch2c (in-place)
I0313 22:58:17.079455 23048 layer_factory.hpp:77] Creating layer scale2a_branch2c
I0313 22:58:17.079612 23048 net.cpp:150] Setting up scale2a_branch2c
I0313 22:58:17.079617 23048 net.cpp:157] Top shape: 1 256 150 250 (9600000)
I0313 22:58:17.079619 23048 net.cpp:165] Memory required for data: 511200084
I0313 22:58:17.079622 23048 layer_factory.hpp:77] Creating layer res2a
I0313 22:58:17.079627 23048 net.cpp:100] Creating Layer res2a
I0313 22:58:17.079629 23048 net.cpp:444] res2a <- res2a_branch1
I0313 22:58:17.079632 23048 net.cpp:444] res2a <- res2a_branch2c
I0313 22:58:17.079635 23048 net.cpp:418] res2a -> res2a
I0313 22:58:17.079650 23048 net.cpp:150] Setting up res2a
I0313 22:58:17.079654 23048 net.cpp:157] Top shape: 1 256 150 250 (9600000)
I0313 22:58:17.079656 23048 net.cpp:165] Memory required for data: 549600084
I0313 22:58:17.079659 23048 layer_factory.hpp:77] Creating layer res2a_relu
I0313 22:58:17.079663 23048 net.cpp:100] Creating Layer res2a_relu
I0313 22:58:17.079677 23048 net.cpp:444] res2a_relu <- res2a
I0313 22:58:17.079680 23048 net.cpp:405] res2a_relu -> res2a (in-place)
I0313 22:58:17.079684 23048 net.cpp:150] Setting up res2a_relu
I0313 22:58:17.079686 23048 net.cpp:157] Top shape: 1 256 150 250 (9600000)
I0313 22:58:17.079689 23048 net.cpp:165] Memory required for data: 588000084
I0313 22:58:17.079691 23048 layer_factory.hpp:77] Creating layer res2a_res2a_relu_0_split
I0313 22:58:17.079711 23048 net.cpp:100] Creating Layer res2a_res2a_relu_0_split
I0313 22:58:17.079713 23048 net.cpp:444] res2a_res2a_relu_0_split <- res2a
I0313 22:58:17.079717 23048 net.cpp:418] res2a_res2a_relu_0_split -> res2a_res2a_relu_0_split_0
I0313 22:58:17.079735 23048 net.cpp:418] res2a_res2a_relu_0_split -> res2a_res2a_relu_0_split_1
I0313 22:58:17.079756 23048 net.cpp:150] Setting up res2a_res2a_relu_0_split
I0313 22:58:17.079761 23048 net.cpp:157] Top shape: 1 256 150 250 (9600000)
I0313 22:58:17.079763 23048 net.cpp:157] Top shape: 1 256 150 250 (9600000)
I0313 22:58:17.079766 23048 net.cpp:165] Memory required for data: 664800084
I0313 22:58:17.079768 23048 layer_factory.hpp:77] Creating layer res2b_branch2a
I0313 22:58:17.079773 23048 net.cpp:100] Creating Layer res2b_branch2a
I0313 22:58:17.079777 23048 net.cpp:444] res2b_branch2a <- res2a_res2a_relu_0_split_0
I0313 22:58:17.079780 23048 net.cpp:418] res2b_branch2a -> res2b_branch2a
I0313 22:58:17.079963 23048 net.cpp:150] Setting up res2b_branch2a
I0313 22:58:17.079968 23048 net.cpp:157] Top shape: 1 64 150 250 (2400000)
I0313 22:58:17.079970 23048 net.cpp:165] Memory required for data: 674400084
I0313 22:58:17.079973 23048 layer_factory.hpp:77] Creating layer bn2b_branch2a
I0313 22:58:17.079977 23048 net.cpp:100] Creating Layer bn2b_branch2a
I0313 22:58:17.079980 23048 net.cpp:444] bn2b_branch2a <- res2b_branch2a
I0313 22:58:17.079996 23048 net.cpp:405] bn2b_branch2a -> res2b_branch2a (in-place)
I0313 22:58:17.080816 23048 net.cpp:150] Setting up bn2b_branch2a
I0313 22:58:17.080826 23048 net.cpp:157] Top shape: 1 64 150 250 (2400000)
I0313 22:58:17.080827 23048 net.cpp:165] Memory required for data: 684000084
I0313 22:58:17.080835 23048 layer_factory.hpp:77] Creating layer scale2b_branch2a
I0313 22:58:17.080855 23048 net.cpp:100] Creating Layer scale2b_branch2a
I0313 22:58:17.080858 23048 net.cpp:444] scale2b_branch2a <- res2b_branch2a
I0313 22:58:17.080862 23048 net.cpp:405] scale2b_branch2a -> res2b_branch2a (in-place)
I0313 22:58:17.080929 23048 layer_factory.hpp:77] Creating layer scale2b_branch2a
I0313 22:58:17.081097 23048 net.cpp:150] Setting up scale2b_branch2a
I0313 22:58:17.081104 23048 net.cpp:157] Top shape: 1 64 150 250 (2400000)
I0313 22:58:17.081106 23048 net.cpp:165] Memory required for data: 693600084
I0313 22:58:17.081110 23048 layer_factory.hpp:77] Creating layer res2b_branch2a_relu
I0313 22:58:17.081115 23048 net.cpp:100] Creating Layer res2b_branch2a_relu
I0313 22:58:17.081131 23048 net.cpp:444] res2b_branch2a_relu <- res2b_branch2a
I0313 22:58:17.081135 23048 net.cpp:405] res2b_branch2a_relu -> res2b_branch2a (in-place)
I0313 22:58:17.081138 23048 net.cpp:150] Setting up res2b_branch2a_relu
I0313 22:58:17.081156 23048 net.cpp:157] Top shape: 1 64 150 250 (2400000)
I0313 22:58:17.081158 23048 net.cpp:165] Memory required for data: 703200084
I0313 22:58:17.081161 23048 layer_factory.hpp:77] Creating layer res2b_branch2b
I0313 22:58:17.081179 23048 net.cpp:100] Creating Layer res2b_branch2b
I0313 22:58:17.081182 23048 net.cpp:444] res2b_branch2b <- res2b_branch2a
I0313 22:58:17.081199 23048 net.cpp:418] res2b_branch2b -> res2b_branch2b
I0313 22:58:17.081418 23048 net.cpp:150] Setting up res2b_branch2b
I0313 22:58:17.081423 23048 net.cpp:157] Top shape: 1 64 150 250 (2400000)
I0313 22:58:17.081425 23048 net.cpp:165] Memory required for data: 712800084
I0313 22:58:17.081429 23048 layer_factory.hpp:77] Creating layer bn2b_branch2b
I0313 22:58:17.081434 23048 net.cpp:100] Creating Layer bn2b_branch2b
I0313 22:58:17.081437 23048 net.cpp:444] bn2b_branch2b <- res2b_branch2b
I0313 22:58:17.081454 23048 net.cpp:405] bn2b_branch2b -> res2b_branch2b (in-place)
I0313 22:58:17.081630 23048 net.cpp:150] Setting up bn2b_branch2b
I0313 22:58:17.081635 23048 net.cpp:157] Top shape: 1 64 150 250 (2400000)
I0313 22:58:17.081637 23048 net.cpp:165] Memory required for data: 722400084
I0313 22:58:17.081642 23048 layer_factory.hpp:77] Creating layer scale2b_branch2b
I0313 22:58:17.081646 23048 net.cpp:100] Creating Layer scale2b_branch2b
I0313 22:58:17.081661 23048 net.cpp:444] scale2b_branch2b <- res2b_branch2b
I0313 22:58:17.081665 23048 net.cpp:405] scale2b_branch2b -> res2b_branch2b (in-place)
I0313 22:58:17.081702 23048 layer_factory.hpp:77] Creating layer scale2b_branch2b
I0313 22:58:17.081881 23048 net.cpp:150] Setting up scale2b_branch2b
I0313 22:58:17.081885 23048 net.cpp:157] Top shape: 1 64 150 250 (2400000)
I0313 22:58:17.081888 23048 net.cpp:165] Memory required for data: 732000084
I0313 22:58:17.081892 23048 layer_factory.hpp:77] Creating layer res2b_branch2b_relu
I0313 22:58:17.081895 23048 net.cpp:100] Creating Layer res2b_branch2b_relu
I0313 22:58:17.081912 23048 net.cpp:444] res2b_branch2b_relu <- res2b_branch2b
I0313 22:58:17.081914 23048 net.cpp:405] res2b_branch2b_relu -> res2b_branch2b (in-place)
I0313 22:58:17.081918 23048 net.cpp:150] Setting up res2b_branch2b_relu
I0313 22:58:17.081934 23048 net.cpp:157] Top shape: 1 64 150 250 (2400000)
I0313 22:58:17.081936 23048 net.cpp:165] Memory required for data: 741600084
I0313 22:58:17.081938 23048 layer_factory.hpp:77] Creating layer res2b_branch2c
I0313 22:58:17.081956 23048 net.cpp:100] Creating Layer res2b_branch2c
I0313 22:58:17.081959 23048 net.cpp:444] res2b_branch2c <- res2b_branch2b
I0313 22:58:17.081964 23048 net.cpp:418] res2b_branch2c -> res2b_branch2c
I0313 22:58:17.082113 23048 net.cpp:150] Setting up res2b_branch2c
I0313 22:58:17.082118 23048 net.cpp:157] Top shape: 1 256 150 250 (9600000)
I0313 22:58:17.082120 23048 net.cpp:165] Memory required for data: 780000084
I0313 22:58:17.082123 23048 layer_factory.hpp:77] Creating layer bn2b_branch2c
I0313 22:58:17.082128 23048 net.cpp:100] Creating Layer bn2b_branch2c
I0313 22:58:17.082130 23048 net.cpp:444] bn2b_branch2c <- res2b_branch2c
I0313 22:58:17.082146 23048 net.cpp:405] bn2b_branch2c -> res2b_branch2c (in-place)
I0313 22:58:17.082312 23048 net.cpp:150] Setting up bn2b_branch2c
I0313 22:58:17.082316 23048 net.cpp:157] Top shape: 1 256 150 250 (9600000)
I0313 22:58:17.082319 23048 net.cpp:165] Memory required for data: 818400084
I0313 22:58:17.082324 23048 layer_factory.hpp:77] Creating layer scale2b_branch2c
I0313 22:58:17.082327 23048 net.cpp:100] Creating Layer scale2b_branch2c
I0313 22:58:17.082343 23048 net.cpp:444] scale2b_branch2c <- res2b_branch2c
I0313 22:58:17.082346 23048 net.cpp:405] scale2b_branch2c -> res2b_branch2c (in-place)
I0313 22:58:17.082382 23048 layer_factory.hpp:77] Creating layer scale2b_branch2c
I0313 22:58:17.082571 23048 net.cpp:150] Setting up scale2b_branch2c
I0313 22:58:17.082577 23048 net.cpp:157] Top shape: 1 256 150 250 (9600000)
I0313 22:58:17.082579 23048 net.cpp:165] Memory required for data: 856800084
I0313 22:58:17.082583 23048 layer_factory.hpp:77] Creating layer res2b
I0313 22:58:17.082588 23048 net.cpp:100] Creating Layer res2b
I0313 22:58:17.082592 23048 net.cpp:444] res2b <- res2a_res2a_relu_0_split_1
I0313 22:58:17.082608 23048 net.cpp:444] res2b <- res2b_branch2c
I0313 22:58:17.082612 23048 net.cpp:418] res2b -> res2b
I0313 22:58:17.082655 23048 net.cpp:150] Setting up res2b
I0313 22:58:17.082660 23048 net.cpp:157] Top shape: 1 256 150 250 (9600000)
I0313 22:58:17.082662 23048 net.cpp:165] Memory required for data: 895200084
I0313 22:58:17.082665 23048 layer_factory.hpp:77] Creating layer res2b_relu
I0313 22:58:17.082669 23048 net.cpp:100] Creating Layer res2b_relu
I0313 22:58:17.082671 23048 net.cpp:444] res2b_relu <- res2b
I0313 22:58:17.082674 23048 net.cpp:405] res2b_relu -> res2b (in-place)
I0313 22:58:17.082679 23048 net.cpp:150] Setting up res2b_relu
I0313 22:58:17.082695 23048 net.cpp:157] Top shape: 1 256 150 250 (9600000)
I0313 22:58:17.082697 23048 net.cpp:165] Memory required for data: 933600084
I0313 22:58:17.082700 23048 layer_factory.hpp:77] Creating layer res2b_res2b_relu_0_split
I0313 22:58:17.082702 23048 net.cpp:100] Creating Layer res2b_res2b_relu_0_split
I0313 22:58:17.082705 23048 net.cpp:444] res2b_res2b_relu_0_split <- res2b
I0313 22:58:17.082708 23048 net.cpp:418] res2b_res2b_relu_0_split -> res2b_res2b_relu_0_split_0
I0313 22:58:17.082713 23048 net.cpp:418] res2b_res2b_relu_0_split -> res2b_res2b_relu_0_split_1
I0313 22:58:17.082736 23048 net.cpp:150] Setting up res2b_res2b_relu_0_split
I0313 22:58:17.082739 23048 net.cpp:157] Top shape: 1 256 150 250 (9600000)
I0313 22:58:17.082742 23048 net.cpp:157] Top shape: 1 256 150 250 (9600000)
I0313 22:58:17.082746 23048 net.cpp:165] Memory required for data: 1010400084
I0313 22:58:17.082747 23048 layer_factory.hpp:77] Creating layer res2c_branch2a
I0313 22:58:17.082752 23048 net.cpp:100] Creating Layer res2c_branch2a
I0313 22:58:17.082756 23048 net.cpp:444] res2c_branch2a <- res2b_res2b_relu_0_split_0
I0313 22:58:17.082759 23048 net.cpp:418] res2c_branch2a -> res2c_branch2a
I0313 22:58:17.082886 23048 net.cpp:150] Setting up res2c_branch2a
I0313 22:58:17.082891 23048 net.cpp:157] Top shape: 1 64 150 250 (2400000)
I0313 22:58:17.082893 23048 net.cpp:165] Memory required for data: 1020000084
I0313 22:58:17.082897 23048 layer_factory.hpp:77] Creating layer bn2c_branch2a
I0313 22:58:17.082902 23048 net.cpp:100] Creating Layer bn2c_branch2a
I0313 22:58:17.082906 23048 net.cpp:444] bn2c_branch2a <- res2c_branch2a
I0313 22:58:17.082909 23048 net.cpp:405] bn2c_branch2a -> res2c_branch2a (in-place)
I0313 22:58:17.083048 23048 net.cpp:150] Setting up bn2c_branch2a
I0313 22:58:17.083053 23048 net.cpp:157] Top shape: 1 64 150 250 (2400000)
I0313 22:58:17.083055 23048 net.cpp:165] Memory required for data: 1029600084
I0313 22:58:17.083060 23048 layer_factory.hpp:77] Creating layer scale2c_branch2a
I0313 22:58:17.083066 23048 net.cpp:100] Creating Layer scale2c_branch2a
I0313 22:58:17.083070 23048 net.cpp:444] scale2c_branch2a <- res2c_branch2a
I0313 22:58:17.083073 23048 net.cpp:405] scale2c_branch2a -> res2c_branch2a (in-place)
I0313 22:58:17.083097 23048 layer_factory.hpp:77] Creating layer scale2c_branch2a
I0313 22:58:17.083205 23048 net.cpp:150] Setting up scale2c_branch2a
I0313 22:58:17.083210 23048 net.cpp:157] Top shape: 1 64 150 250 (2400000)
I0313 22:58:17.083214 23048 net.cpp:165] Memory required for data: 1039200084
I0313 22:58:17.083217 23048 layer_factory.hpp:77] Creating layer res2c_branch2a_relu
I0313 22:58:17.083220 23048 net.cpp:100] Creating Layer res2c_branch2a_relu
I0313 22:58:17.083223 23048 net.cpp:444] res2c_branch2a_relu <- res2c_branch2a
I0313 22:58:17.083226 23048 net.cpp:405] res2c_branch2a_relu -> res2c_branch2a (in-place)
I0313 22:58:17.083230 23048 net.cpp:150] Setting up res2c_branch2a_relu
I0313 22:58:17.083235 23048 net.cpp:157] Top shape: 1 64 150 250 (2400000)
I0313 22:58:17.083236 23048 net.cpp:165] Memory required for data: 1048800084
I0313 22:58:17.083238 23048 layer_factory.hpp:77] Creating layer res2c_branch2b
I0313 22:58:17.083243 23048 net.cpp:100] Creating Layer res2c_branch2b
I0313 22:58:17.083246 23048 net.cpp:444] res2c_branch2b <- res2c_branch2a
I0313 22:58:17.083250 23048 net.cpp:418] res2c_branch2b -> res2c_branch2b
I0313 22:58:17.083441 23048 net.cpp:150] Setting up res2c_branch2b
I0313 22:58:17.083446 23048 net.cpp:157] Top shape: 1 64 150 250 (2400000)
I0313 22:58:17.083448 23048 net.cpp:165] Memory required for data: 1058400084
I0313 22:58:17.083451 23048 layer_factory.hpp:77] Creating layer bn2c_branch2b
I0313 22:58:17.083456 23048 net.cpp:100] Creating Layer bn2c_branch2b
I0313 22:58:17.083459 23048 net.cpp:444] bn2c_branch2b <- res2c_branch2b
I0313 22:58:17.083462 23048 net.cpp:405] bn2c_branch2b -> res2c_branch2b (in-place)
I0313 22:58:17.084468 23048 net.cpp:150] Setting up bn2c_branch2b
I0313 22:58:17.084481 23048 net.cpp:157] Top shape: 1 64 150 250 (2400000)
I0313 22:58:17.084484 23048 net.cpp:165] Memory required for data: 1068000084
I0313 22:58:17.084507 23048 layer_factory.hpp:77] Creating layer scale2c_branch2b
I0313 22:58:17.084517 23048 net.cpp:100] Creating Layer scale2c_branch2b
I0313 22:58:17.084519 23048 net.cpp:444] scale2c_branch2b <- res2c_branch2b
I0313 22:58:17.084539 23048 net.cpp:405] scale2c_branch2b -> res2c_branch2b (in-place)
I0313 22:58:17.084609 23048 layer_factory.hpp:77] Creating layer scale2c_branch2b
I0313 22:58:17.084789 23048 net.cpp:150] Setting up scale2c_branch2b
I0313 22:58:17.084794 23048 net.cpp:157] Top shape: 1 64 150 250 (2400000)
I0313 22:58:17.084795 23048 net.cpp:165] Memory required for data: 1077600084
I0313 22:58:17.084800 23048 layer_factory.hpp:77] Creating layer res2c_branch2b_relu
I0313 22:58:17.084805 23048 net.cpp:100] Creating Layer res2c_branch2b_relu
I0313 22:58:17.084818 23048 net.cpp:444] res2c_branch2b_relu <- res2c_branch2b
I0313 22:58:17.084823 23048 net.cpp:405] res2c_branch2b_relu -> res2c_branch2b (in-place)
I0313 22:58:17.084827 23048 net.cpp:150] Setting up res2c_branch2b_relu
I0313 22:58:17.084830 23048 net.cpp:157] Top shape: 1 64 150 250 (2400000)
I0313 22:58:17.084832 23048 net.cpp:165] Memory required for data: 1087200084
I0313 22:58:17.084847 23048 layer_factory.hpp:77] Creating layer res2c_branch2c
I0313 22:58:17.084853 23048 net.cpp:100] Creating Layer res2c_branch2c
I0313 22:58:17.084857 23048 net.cpp:444] res2c_branch2c <- res2c_branch2b
I0313 22:58:17.084861 23048 net.cpp:418] res2c_branch2c -> res2c_branch2c
I0313 22:58:17.085018 23048 net.cpp:150] Setting up res2c_branch2c
I0313 22:58:17.085036 23048 net.cpp:157] Top shape: 1 256 150 250 (9600000)
I0313 22:58:17.085039 23048 net.cpp:165] Memory required for data: 1125600084
I0313 22:58:17.085042 23048 layer_factory.hpp:77] Creating layer bn2c_branch2c
I0313 22:58:17.085047 23048 net.cpp:100] Creating Layer bn2c_branch2c
I0313 22:58:17.085049 23048 net.cpp:444] bn2c_branch2c <- res2c_branch2c
I0313 22:58:17.085067 23048 net.cpp:405] bn2c_branch2c -> res2c_branch2c (in-place)
I0313 22:58:17.085244 23048 net.cpp:150] Setting up bn2c_branch2c
I0313 22:58:17.085250 23048 net.cpp:157] Top shape: 1 256 150 250 (9600000)
I0313 22:58:17.085253 23048 net.cpp:165] Memory required for data: 1164000084
I0313 22:58:17.085261 23048 layer_factory.hpp:77] Creating layer scale2c_branch2c
I0313 22:58:17.085279 23048 net.cpp:100] Creating Layer scale2c_branch2c
I0313 22:58:17.085283 23048 net.cpp:444] scale2c_branch2c <- res2c_branch2c
I0313 22:58:17.085299 23048 net.cpp:405] scale2c_branch2c -> res2c_branch2c (in-place)
I0313 22:58:17.085337 23048 layer_factory.hpp:77] Creating layer scale2c_branch2c
I0313 22:58:17.085495 23048 net.cpp:150] Setting up scale2c_branch2c
I0313 22:58:17.085500 23048 net.cpp:157] Top shape: 1 256 150 250 (9600000)
I0313 22:58:17.085503 23048 net.cpp:165] Memory required for data: 1202400084
I0313 22:58:17.085507 23048 layer_factory.hpp:77] Creating layer res2c
I0313 22:58:17.085511 23048 net.cpp:100] Creating Layer res2c
I0313 22:58:17.085515 23048 net.cpp:444] res2c <- res2b_res2b_relu_0_split_1
I0313 22:58:17.085530 23048 net.cpp:444] res2c <- res2c_branch2c
I0313 22:58:17.085535 23048 net.cpp:418] res2c -> res2c
I0313 22:58:17.085551 23048 net.cpp:150] Setting up res2c
I0313 22:58:17.085569 23048 net.cpp:157] Top shape: 1 256 150 250 (9600000)
I0313 22:58:17.085572 23048 net.cpp:165] Memory required for data: 1240800084
I0313 22:58:17.085573 23048 layer_factory.hpp:77] Creating layer res2c_relu
I0313 22:58:17.085578 23048 net.cpp:100] Creating Layer res2c_relu
I0313 22:58:17.085582 23048 net.cpp:444] res2c_relu <- res2c
I0313 22:58:17.085585 23048 net.cpp:405] res2c_relu -> res2c (in-place)
I0313 22:58:17.085589 23048 net.cpp:150] Setting up res2c_relu
I0313 22:58:17.085592 23048 net.cpp:157] Top shape: 1 256 150 250 (9600000)
I0313 22:58:17.085597 23048 net.cpp:165] Memory required for data: 1279200084
I0313 22:58:17.085598 23048 layer_factory.hpp:77] Creating layer res2c_res2c_relu_0_split
I0313 22:58:17.085602 23048 net.cpp:100] Creating Layer res2c_res2c_relu_0_split
I0313 22:58:17.085605 23048 net.cpp:444] res2c_res2c_relu_0_split <- res2c
I0313 22:58:17.085621 23048 net.cpp:418] res2c_res2c_relu_0_split -> res2c_res2c_relu_0_split_0
I0313 22:58:17.085628 23048 net.cpp:418] res2c_res2c_relu_0_split -> res2c_res2c_relu_0_split_1
I0313 22:58:17.085651 23048 net.cpp:150] Setting up res2c_res2c_relu_0_split
I0313 22:58:17.085656 23048 net.cpp:157] Top shape: 1 256 150 250 (9600000)
I0313 22:58:17.085659 23048 net.cpp:157] Top shape: 1 256 150 250 (9600000)
I0313 22:58:17.085662 23048 net.cpp:165] Memory required for data: 1356000084
I0313 22:58:17.085664 23048 layer_factory.hpp:77] Creating layer res3a_branch1
I0313 22:58:17.085671 23048 net.cpp:100] Creating Layer res3a_branch1
I0313 22:58:17.085675 23048 net.cpp:444] res3a_branch1 <- res2c_res2c_relu_0_split_0
I0313 22:58:17.085678 23048 net.cpp:418] res3a_branch1 -> res3a_branch1
I0313 22:58:17.085934 23048 net.cpp:150] Setting up res3a_branch1
I0313 22:58:17.085943 23048 net.cpp:157] Top shape: 1 512 75 125 (4800000)
I0313 22:58:17.085945 23048 net.cpp:165] Memory required for data: 1375200084
I0313 22:58:17.085950 23048 layer_factory.hpp:77] Creating layer bn3a_branch1
I0313 22:58:17.085954 23048 net.cpp:100] Creating Layer bn3a_branch1
I0313 22:58:17.085973 23048 net.cpp:444] bn3a_branch1 <- res3a_branch1
I0313 22:58:17.085978 23048 net.cpp:405] bn3a_branch1 -> res3a_branch1 (in-place)
I0313 22:58:17.086858 23048 net.cpp:150] Setting up bn3a_branch1
I0313 22:58:17.086870 23048 net.cpp:157] Top shape: 1 512 75 125 (4800000)
I0313 22:58:17.086874 23048 net.cpp:165] Memory required for data: 1394400084
I0313 22:58:17.086881 23048 layer_factory.hpp:77] Creating layer scale3a_branch1
I0313 22:58:17.086901 23048 net.cpp:100] Creating Layer scale3a_branch1
I0313 22:58:17.086905 23048 net.cpp:444] scale3a_branch1 <- res3a_branch1
I0313 22:58:17.086910 23048 net.cpp:405] scale3a_branch1 -> res3a_branch1 (in-place)
I0313 22:58:17.086941 23048 layer_factory.hpp:77] Creating layer scale3a_branch1
I0313 22:58:17.087083 23048 net.cpp:150] Setting up scale3a_branch1
I0313 22:58:17.087088 23048 net.cpp:157] Top shape: 1 512 75 125 (4800000)
I0313 22:58:17.087090 23048 net.cpp:165] Memory required for data: 1413600084
I0313 22:58:17.087095 23048 layer_factory.hpp:77] Creating layer res3a_branch2a
I0313 22:58:17.087101 23048 net.cpp:100] Creating Layer res3a_branch2a
I0313 22:58:17.087118 23048 net.cpp:444] res3a_branch2a <- res2c_res2c_relu_0_split_1
I0313 22:58:17.087122 23048 net.cpp:418] res3a_branch2a -> res3a_branch2a
I0313 22:58:17.087297 23048 net.cpp:150] Setting up res3a_branch2a
I0313 22:58:17.087303 23048 net.cpp:157] Top shape: 1 128 75 125 (1200000)
I0313 22:58:17.087306 23048 net.cpp:165] Memory required for data: 1418400084
I0313 22:58:17.087308 23048 layer_factory.hpp:77] Creating layer bn3a_branch2a
I0313 22:58:17.087313 23048 net.cpp:100] Creating Layer bn3a_branch2a
I0313 22:58:17.087317 23048 net.cpp:444] bn3a_branch2a <- res3a_branch2a
I0313 22:58:17.087333 23048 net.cpp:405] bn3a_branch2a -> res3a_branch2a (in-place)
I0313 22:58:17.087486 23048 net.cpp:150] Setting up bn3a_branch2a
I0313 22:58:17.087491 23048 net.cpp:157] Top shape: 1 128 75 125 (1200000)
I0313 22:58:17.087493 23048 net.cpp:165] Memory required for data: 1423200084
I0313 22:58:17.087498 23048 layer_factory.hpp:77] Creating layer scale3a_branch2a
I0313 22:58:17.087517 23048 net.cpp:100] Creating Layer scale3a_branch2a
I0313 22:58:17.087519 23048 net.cpp:444] scale3a_branch2a <- res3a_branch2a
I0313 22:58:17.087522 23048 net.cpp:405] scale3a_branch2a -> res3a_branch2a (in-place)
I0313 22:58:17.087546 23048 layer_factory.hpp:77] Creating layer scale3a_branch2a
I0313 22:58:17.087659 23048 net.cpp:150] Setting up scale3a_branch2a
I0313 22:58:17.087666 23048 net.cpp:157] Top shape: 1 128 75 125 (1200000)
I0313 22:58:17.087667 23048 net.cpp:165] Memory required for data: 1428000084
I0313 22:58:17.087684 23048 layer_factory.hpp:77] Creating layer res3a_branch2a_relu
I0313 22:58:17.087688 23048 net.cpp:100] Creating Layer res3a_branch2a_relu
I0313 22:58:17.087692 23048 net.cpp:444] res3a_branch2a_relu <- res3a_branch2a
I0313 22:58:17.087697 23048 net.cpp:405] res3a_branch2a_relu -> res3a_branch2a (in-place)
I0313 22:58:17.087700 23048 net.cpp:150] Setting up res3a_branch2a_relu
I0313 22:58:17.087703 23048 net.cpp:157] Top shape: 1 128 75 125 (1200000)
I0313 22:58:17.087705 23048 net.cpp:165] Memory required for data: 1432800084
I0313 22:58:17.087708 23048 layer_factory.hpp:77] Creating layer res3a_branch2b
I0313 22:58:17.087713 23048 net.cpp:100] Creating Layer res3a_branch2b
I0313 22:58:17.087714 23048 net.cpp:444] res3a_branch2b <- res3a_branch2a
I0313 22:58:17.087718 23048 net.cpp:418] res3a_branch2b -> res3a_branch2b
I0313 22:58:17.087951 23048 net.cpp:150] Setting up res3a_branch2b
I0313 22:58:17.087957 23048 net.cpp:157] Top shape: 1 128 75 125 (1200000)
I0313 22:58:17.087960 23048 net.cpp:165] Memory required for data: 1437600084
I0313 22:58:17.087962 23048 layer_factory.hpp:77] Creating layer bn3a_branch2b
I0313 22:58:17.087967 23048 net.cpp:100] Creating Layer bn3a_branch2b
I0313 22:58:17.087970 23048 net.cpp:444] bn3a_branch2b <- res3a_branch2b
I0313 22:58:17.087973 23048 net.cpp:405] bn3a_branch2b -> res3a_branch2b (in-place)
I0313 22:58:17.088127 23048 net.cpp:150] Setting up bn3a_branch2b
I0313 22:58:17.088132 23048 net.cpp:157] Top shape: 1 128 75 125 (1200000)
I0313 22:58:17.088135 23048 net.cpp:165] Memory required for data: 1442400084
I0313 22:58:17.088140 23048 layer_factory.hpp:77] Creating layer scale3a_branch2b
I0313 22:58:17.088146 23048 net.cpp:100] Creating Layer scale3a_branch2b
I0313 22:58:17.088150 23048 net.cpp:444] scale3a_branch2b <- res3a_branch2b
I0313 22:58:17.088153 23048 net.cpp:405] scale3a_branch2b -> res3a_branch2b (in-place)
I0313 22:58:17.088177 23048 layer_factory.hpp:77] Creating layer scale3a_branch2b
I0313 22:58:17.088291 23048 net.cpp:150] Setting up scale3a_branch2b
I0313 22:58:17.088297 23048 net.cpp:157] Top shape: 1 128 75 125 (1200000)
I0313 22:58:17.088299 23048 net.cpp:165] Memory required for data: 1447200084
I0313 22:58:17.088304 23048 layer_factory.hpp:77] Creating layer res3a_branch2b_relu
I0313 22:58:17.088309 23048 net.cpp:100] Creating Layer res3a_branch2b_relu
I0313 22:58:17.088311 23048 net.cpp:444] res3a_branch2b_relu <- res3a_branch2b
I0313 22:58:17.088330 23048 net.cpp:405] res3a_branch2b_relu -> res3a_branch2b (in-place)
I0313 22:58:17.088333 23048 net.cpp:150] Setting up res3a_branch2b_relu
I0313 22:58:17.088349 23048 net.cpp:157] Top shape: 1 128 75 125 (1200000)
I0313 22:58:17.088352 23048 net.cpp:165] Memory required for data: 1452000084
I0313 22:58:17.088354 23048 layer_factory.hpp:77] Creating layer res3a_branch2c
I0313 22:58:17.088358 23048 net.cpp:100] Creating Layer res3a_branch2c
I0313 22:58:17.088362 23048 net.cpp:444] res3a_branch2c <- res3a_branch2b
I0313 22:58:17.088367 23048 net.cpp:418] res3a_branch2c -> res3a_branch2c
I0313 22:58:17.088549 23048 net.cpp:150] Setting up res3a_branch2c
I0313 22:58:17.088554 23048 net.cpp:157] Top shape: 1 512 75 125 (4800000)
I0313 22:58:17.088557 23048 net.cpp:165] Memory required for data: 1471200084
I0313 22:58:17.088560 23048 layer_factory.hpp:77] Creating layer bn3a_branch2c
I0313 22:58:17.088564 23048 net.cpp:100] Creating Layer bn3a_branch2c
I0313 22:58:17.088567 23048 net.cpp:444] bn3a_branch2c <- res3a_branch2c
I0313 22:58:17.088572 23048 net.cpp:405] bn3a_branch2c -> res3a_branch2c (in-place)
I0313 22:58:17.088735 23048 net.cpp:150] Setting up bn3a_branch2c
I0313 22:58:17.088739 23048 net.cpp:157] Top shape: 1 512 75 125 (4800000)
I0313 22:58:17.088742 23048 net.cpp:165] Memory required for data: 1490400084
I0313 22:58:17.088747 23048 layer_factory.hpp:77] Creating layer scale3a_branch2c
I0313 22:58:17.088763 23048 net.cpp:100] Creating Layer scale3a_branch2c
I0313 22:58:17.088766 23048 net.cpp:444] scale3a_branch2c <- res3a_branch2c
I0313 22:58:17.088769 23048 net.cpp:405] scale3a_branch2c -> res3a_branch2c (in-place)
I0313 22:58:17.088804 23048 layer_factory.hpp:77] Creating layer scale3a_branch2c
I0313 22:58:17.088953 23048 net.cpp:150] Setting up scale3a_branch2c
I0313 22:58:17.088971 23048 net.cpp:157] Top shape: 1 512 75 125 (4800000)
I0313 22:58:17.088975 23048 net.cpp:165] Memory required for data: 1509600084
I0313 22:58:17.088979 23048 layer_factory.hpp:77] Creating layer res3a
I0313 22:58:17.088984 23048 net.cpp:100] Creating Layer res3a
I0313 22:58:17.088987 23048 net.cpp:444] res3a <- res3a_branch1
I0313 22:58:17.088991 23048 net.cpp:444] res3a <- res3a_branch2c
I0313 22:58:17.088994 23048 net.cpp:418] res3a -> res3a
I0313 22:58:17.089012 23048 net.cpp:150] Setting up res3a
I0313 22:58:17.089017 23048 net.cpp:157] Top shape: 1 512 75 125 (4800000)
I0313 22:58:17.089020 23048 net.cpp:165] Memory required for data: 1528800084
I0313 22:58:17.089021 23048 layer_factory.hpp:77] Creating layer res3a_relu
I0313 22:58:17.089026 23048 net.cpp:100] Creating Layer res3a_relu
I0313 22:58:17.089028 23048 net.cpp:444] res3a_relu <- res3a
I0313 22:58:17.089031 23048 net.cpp:405] res3a_relu -> res3a (in-place)
I0313 22:58:17.089035 23048 net.cpp:150] Setting up res3a_relu
I0313 22:58:17.089040 23048 net.cpp:157] Top shape: 1 512 75 125 (4800000)
I0313 22:58:17.089042 23048 net.cpp:165] Memory required for data: 1548000084
I0313 22:58:17.089045 23048 layer_factory.hpp:77] Creating layer res3a_res3a_relu_0_split
I0313 22:58:17.089048 23048 net.cpp:100] Creating Layer res3a_res3a_relu_0_split
I0313 22:58:17.089051 23048 net.cpp:444] res3a_res3a_relu_0_split <- res3a
I0313 22:58:17.089054 23048 net.cpp:418] res3a_res3a_relu_0_split -> res3a_res3a_relu_0_split_0
I0313 22:58:17.089059 23048 net.cpp:418] res3a_res3a_relu_0_split -> res3a_res3a_relu_0_split_1
I0313 22:58:17.089090 23048 net.cpp:150] Setting up res3a_res3a_relu_0_split
I0313 22:58:17.089095 23048 net.cpp:157] Top shape: 1 512 75 125 (4800000)
I0313 22:58:17.089099 23048 net.cpp:157] Top shape: 1 512 75 125 (4800000)
I0313 22:58:17.089102 23048 net.cpp:165] Memory required for data: 1586400084
I0313 22:58:17.089103 23048 layer_factory.hpp:77] Creating layer res3b_branch2a
I0313 22:58:17.089108 23048 net.cpp:100] Creating Layer res3b_branch2a
I0313 22:58:17.089112 23048 net.cpp:444] res3b_branch2a <- res3a_res3a_relu_0_split_0
I0313 22:58:17.089117 23048 net.cpp:418] res3b_branch2a -> res3b_branch2a
I0313 22:58:17.089274 23048 net.cpp:150] Setting up res3b_branch2a
I0313 22:58:17.089279 23048 net.cpp:157] Top shape: 1 128 75 125 (1200000)
I0313 22:58:17.089282 23048 net.cpp:165] Memory required for data: 1591200084
I0313 22:58:17.089285 23048 layer_factory.hpp:77] Creating layer bn3b_branch2a
I0313 22:58:17.089289 23048 net.cpp:100] Creating Layer bn3b_branch2a
I0313 22:58:17.089293 23048 net.cpp:444] bn3b_branch2a <- res3b_branch2a
I0313 22:58:17.089298 23048 net.cpp:405] bn3b_branch2a -> res3b_branch2a (in-place)
I0313 22:58:17.089418 23048 net.cpp:150] Setting up bn3b_branch2a
I0313 22:58:17.089423 23048 net.cpp:157] Top shape: 1 128 75 125 (1200000)
I0313 22:58:17.089426 23048 net.cpp:165] Memory required for data: 1596000084
I0313 22:58:17.089431 23048 layer_factory.hpp:77] Creating layer scale3b_branch2a
I0313 22:58:17.089435 23048 net.cpp:100] Creating Layer scale3b_branch2a
I0313 22:58:17.089438 23048 net.cpp:444] scale3b_branch2a <- res3b_branch2a
I0313 22:58:17.089442 23048 net.cpp:405] scale3b_branch2a -> res3b_branch2a (in-place)
I0313 22:58:17.089467 23048 layer_factory.hpp:77] Creating layer scale3b_branch2a
I0313 22:58:17.089545 23048 net.cpp:150] Setting up scale3b_branch2a
I0313 22:58:17.089550 23048 net.cpp:157] Top shape: 1 128 75 125 (1200000)
I0313 22:58:17.089553 23048 net.cpp:165] Memory required for data: 1600800084
I0313 22:58:17.089557 23048 layer_factory.hpp:77] Creating layer res3b_branch2a_relu
I0313 22:58:17.089561 23048 net.cpp:100] Creating Layer res3b_branch2a_relu
I0313 22:58:17.089565 23048 net.cpp:444] res3b_branch2a_relu <- res3b_branch2a
I0313 22:58:17.089568 23048 net.cpp:405] res3b_branch2a_relu -> res3b_branch2a (in-place)
I0313 22:58:17.089572 23048 net.cpp:150] Setting up res3b_branch2a_relu
I0313 22:58:17.089576 23048 net.cpp:157] Top shape: 1 128 75 125 (1200000)
I0313 22:58:17.089577 23048 net.cpp:165] Memory required for data: 1605600084
I0313 22:58:17.089579 23048 layer_factory.hpp:77] Creating layer res3b_branch2b
I0313 22:58:17.089584 23048 net.cpp:100] Creating Layer res3b_branch2b
I0313 22:58:17.089586 23048 net.cpp:444] res3b_branch2b <- res3b_branch2a
I0313 22:58:17.089591 23048 net.cpp:418] res3b_branch2b -> res3b_branch2b
I0313 22:58:17.090550 23048 net.cpp:150] Setting up res3b_branch2b
I0313 22:58:17.090560 23048 net.cpp:157] Top shape: 1 128 75 125 (1200000)
I0313 22:58:17.090564 23048 net.cpp:165] Memory required for data: 1610400084
I0313 22:58:17.090567 23048 layer_factory.hpp:77] Creating layer bn3b_branch2b
I0313 22:58:17.090575 23048 net.cpp:100] Creating Layer bn3b_branch2b
I0313 22:58:17.090577 23048 net.cpp:444] bn3b_branch2b <- res3b_branch2b
I0313 22:58:17.090582 23048 net.cpp:405] bn3b_branch2b -> res3b_branch2b (in-place)
I0313 22:58:17.090735 23048 net.cpp:150] Setting up bn3b_branch2b
I0313 22:58:17.090740 23048 net.cpp:157] Top shape: 1 128 75 125 (1200000)
I0313 22:58:17.090744 23048 net.cpp:165] Memory required for data: 1615200084
I0313 22:58:17.090747 23048 layer_factory.hpp:77] Creating layer scale3b_branch2b
I0313 22:58:17.090752 23048 net.cpp:100] Creating Layer scale3b_branch2b
I0313 22:58:17.090756 23048 net.cpp:444] scale3b_branch2b <- res3b_branch2b
I0313 22:58:17.090773 23048 net.cpp:405] scale3b_branch2b -> res3b_branch2b (in-place)
I0313 22:58:17.090811 23048 layer_factory.hpp:77] Creating layer scale3b_branch2b
I0313 22:58:17.090904 23048 net.cpp:150] Setting up scale3b_branch2b
I0313 22:58:17.090909 23048 net.cpp:157] Top shape: 1 128 75 125 (1200000)
I0313 22:58:17.090912 23048 net.cpp:165] Memory required for data: 1620000084
I0313 22:58:17.090915 23048 layer_factory.hpp:77] Creating layer res3b_branch2b_relu
I0313 22:58:17.090920 23048 net.cpp:100] Creating Layer res3b_branch2b_relu
I0313 22:58:17.090937 23048 net.cpp:444] res3b_branch2b_relu <- res3b_branch2b
I0313 22:58:17.090942 23048 net.cpp:405] res3b_branch2b_relu -> res3b_branch2b (in-place)
I0313 22:58:17.090947 23048 net.cpp:150] Setting up res3b_branch2b_relu
I0313 22:58:17.090972 23048 net.cpp:157] Top shape: 1 128 75 125 (1200000)
I0313 22:58:17.090975 23048 net.cpp:165] Memory required for data: 1624800084
I0313 22:58:17.090978 23048 layer_factory.hpp:77] Creating layer res3b_branch2c
I0313 22:58:17.090983 23048 net.cpp:100] Creating Layer res3b_branch2c
I0313 22:58:17.090986 23048 net.cpp:444] res3b_branch2c <- res3b_branch2b
I0313 22:58:17.090991 23048 net.cpp:418] res3b_branch2c -> res3b_branch2c
I0313 22:58:17.091152 23048 net.cpp:150] Setting up res3b_branch2c
I0313 22:58:17.091157 23048 net.cpp:157] Top shape: 1 512 75 125 (4800000)
I0313 22:58:17.091161 23048 net.cpp:165] Memory required for data: 1644000084
I0313 22:58:17.091163 23048 layer_factory.hpp:77] Creating layer bn3b_branch2c
I0313 22:58:17.091167 23048 net.cpp:100] Creating Layer bn3b_branch2c
I0313 22:58:17.091171 23048 net.cpp:444] bn3b_branch2c <- res3b_branch2c
I0313 22:58:17.091173 23048 net.cpp:405] bn3b_branch2c -> res3b_branch2c (in-place)
I0313 22:58:17.091302 23048 net.cpp:150] Setting up bn3b_branch2c
I0313 22:58:17.091307 23048 net.cpp:157] Top shape: 1 512 75 125 (4800000)
I0313 22:58:17.091310 23048 net.cpp:165] Memory required for data: 1663200084
I0313 22:58:17.091315 23048 layer_factory.hpp:77] Creating layer scale3b_branch2c
I0313 22:58:17.091320 23048 net.cpp:100] Creating Layer scale3b_branch2c
I0313 22:58:17.091323 23048 net.cpp:444] scale3b_branch2c <- res3b_branch2c
I0313 22:58:17.091326 23048 net.cpp:405] scale3b_branch2c -> res3b_branch2c (in-place)
I0313 22:58:17.091349 23048 layer_factory.hpp:77] Creating layer scale3b_branch2c
I0313 22:58:17.091434 23048 net.cpp:150] Setting up scale3b_branch2c
I0313 22:58:17.091439 23048 net.cpp:157] Top shape: 1 512 75 125 (4800000)
I0313 22:58:17.091440 23048 net.cpp:165] Memory required for data: 1682400084
I0313 22:58:17.091444 23048 layer_factory.hpp:77] Creating layer res3b
I0313 22:58:17.091449 23048 net.cpp:100] Creating Layer res3b
I0313 22:58:17.091452 23048 net.cpp:444] res3b <- res3a_res3a_relu_0_split_1
I0313 22:58:17.091456 23048 net.cpp:444] res3b <- res3b_branch2c
I0313 22:58:17.091459 23048 net.cpp:418] res3b -> res3b
I0313 22:58:17.091475 23048 net.cpp:150] Setting up res3b
I0313 22:58:17.091480 23048 net.cpp:157] Top shape: 1 512 75 125 (4800000)
I0313 22:58:17.091481 23048 net.cpp:165] Memory required for data: 1701600084
I0313 22:58:17.091485 23048 layer_factory.hpp:77] Creating layer res3b_relu
I0313 22:58:17.091488 23048 net.cpp:100] Creating Layer res3b_relu
I0313 22:58:17.091490 23048 net.cpp:444] res3b_relu <- res3b
I0313 22:58:17.091493 23048 net.cpp:405] res3b_relu -> res3b (in-place)
I0313 22:58:17.091497 23048 net.cpp:150] Setting up res3b_relu
I0313 22:58:17.091500 23048 net.cpp:157] Top shape: 1 512 75 125 (4800000)
I0313 22:58:17.091503 23048 net.cpp:165] Memory required for data: 1720800084
I0313 22:58:17.091506 23048 layer_factory.hpp:77] Creating layer res3b_res3b_relu_0_split
I0313 22:58:17.091508 23048 net.cpp:100] Creating Layer res3b_res3b_relu_0_split
I0313 22:58:17.091511 23048 net.cpp:444] res3b_res3b_relu_0_split <- res3b
I0313 22:58:17.091514 23048 net.cpp:418] res3b_res3b_relu_0_split -> res3b_res3b_relu_0_split_0
I0313 22:58:17.091518 23048 net.cpp:418] res3b_res3b_relu_0_split -> res3b_res3b_relu_0_split_1
I0313 22:58:17.091540 23048 net.cpp:150] Setting up res3b_res3b_relu_0_split
I0313 22:58:17.091544 23048 net.cpp:157] Top shape: 1 512 75 125 (4800000)
I0313 22:58:17.091547 23048 net.cpp:157] Top shape: 1 512 75 125 (4800000)
I0313 22:58:17.091550 23048 net.cpp:165] Memory required for data: 1759200084
I0313 22:58:17.091552 23048 layer_factory.hpp:77] Creating layer res3c_branch2a
I0313 22:58:17.091557 23048 net.cpp:100] Creating Layer res3c_branch2a
I0313 22:58:17.091559 23048 net.cpp:444] res3c_branch2a <- res3b_res3b_relu_0_split_0
I0313 22:58:17.091563 23048 net.cpp:418] res3c_branch2a -> res3c_branch2a
I0313 22:58:17.091729 23048 net.cpp:150] Setting up res3c_branch2a
I0313 22:58:17.091734 23048 net.cpp:157] Top shape: 1 128 75 125 (1200000)
I0313 22:58:17.091737 23048 net.cpp:165] Memory required for data: 1764000084
I0313 22:58:17.091753 23048 layer_factory.hpp:77] Creating layer bn3c_branch2a
I0313 22:58:17.091758 23048 net.cpp:100] Creating Layer bn3c_branch2a
I0313 22:58:17.091760 23048 net.cpp:444] bn3c_branch2a <- res3c_branch2a
I0313 22:58:17.091763 23048 net.cpp:405] bn3c_branch2a -> res3c_branch2a (in-place)
I0313 22:58:17.091899 23048 net.cpp:150] Setting up bn3c_branch2a
I0313 22:58:17.091903 23048 net.cpp:157] Top shape: 1 128 75 125 (1200000)
I0313 22:58:17.091907 23048 net.cpp:165] Memory required for data: 1768800084
I0313 22:58:17.091912 23048 layer_factory.hpp:77] Creating layer scale3c_branch2a
I0313 22:58:17.091915 23048 net.cpp:100] Creating Layer scale3c_branch2a
I0313 22:58:17.091917 23048 net.cpp:444] scale3c_branch2a <- res3c_branch2a
I0313 22:58:17.091922 23048 net.cpp:405] scale3c_branch2a -> res3c_branch2a (in-place)
I0313 22:58:17.091958 23048 layer_factory.hpp:77] Creating layer scale3c_branch2a
I0313 22:58:17.092051 23048 net.cpp:150] Setting up scale3c_branch2a
I0313 22:58:17.092056 23048 net.cpp:157] Top shape: 1 128 75 125 (1200000)
I0313 22:58:17.092058 23048 net.cpp:165] Memory required for data: 1773600084
I0313 22:58:17.092061 23048 layer_factory.hpp:77] Creating layer res3c_branch2a_relu
I0313 22:58:17.092067 23048 net.cpp:100] Creating Layer res3c_branch2a_relu
I0313 22:58:17.092068 23048 net.cpp:444] res3c_branch2a_relu <- res3c_branch2a
I0313 22:58:17.092072 23048 net.cpp:405] res3c_branch2a_relu -> res3c_branch2a (in-place)
I0313 22:58:17.092077 23048 net.cpp:150] Setting up res3c_branch2a_relu
I0313 22:58:17.092079 23048 net.cpp:157] Top shape: 1 128 75 125 (1200000)
I0313 22:58:17.092082 23048 net.cpp:165] Memory required for data: 1778400084
I0313 22:58:17.092084 23048 layer_factory.hpp:77] Creating layer res3c_branch2b
I0313 22:58:17.092088 23048 net.cpp:100] Creating Layer res3c_branch2b
I0313 22:58:17.092092 23048 net.cpp:444] res3c_branch2b <- res3c_branch2a
I0313 22:58:17.092095 23048 net.cpp:418] res3c_branch2b -> res3c_branch2b
I0313 22:58:17.092309 23048 net.cpp:150] Setting up res3c_branch2b
I0313 22:58:17.092315 23048 net.cpp:157] Top shape: 1 128 75 125 (1200000)
I0313 22:58:17.092317 23048 net.cpp:165] Memory required for data: 1783200084
I0313 22:58:17.092320 23048 layer_factory.hpp:77] Creating layer bn3c_branch2b
I0313 22:58:17.092339 23048 net.cpp:100] Creating Layer bn3c_branch2b
I0313 22:58:17.092340 23048 net.cpp:444] bn3c_branch2b <- res3c_branch2b
I0313 22:58:17.092344 23048 net.cpp:405] bn3c_branch2b -> res3c_branch2b (in-place)
I0313 22:58:17.092479 23048 net.cpp:150] Setting up bn3c_branch2b
I0313 22:58:17.092485 23048 net.cpp:157] Top shape: 1 128 75 125 (1200000)
I0313 22:58:17.092487 23048 net.cpp:165] Memory required for data: 1788000084
I0313 22:58:17.092492 23048 layer_factory.hpp:77] Creating layer scale3c_branch2b
I0313 22:58:17.092496 23048 net.cpp:100] Creating Layer scale3c_branch2b
I0313 22:58:17.092500 23048 net.cpp:444] scale3c_branch2b <- res3c_branch2b
I0313 22:58:17.092504 23048 net.cpp:405] scale3c_branch2b -> res3c_branch2b (in-place)
I0313 22:58:17.092528 23048 layer_factory.hpp:77] Creating layer scale3c_branch2b
I0313 22:58:17.092610 23048 net.cpp:150] Setting up scale3c_branch2b
I0313 22:58:17.092615 23048 net.cpp:157] Top shape: 1 128 75 125 (1200000)
I0313 22:58:17.092618 23048 net.cpp:165] Memory required for data: 1792800084
I0313 22:58:17.092622 23048 layer_factory.hpp:77] Creating layer res3c_branch2b_relu
I0313 22:58:17.092627 23048 net.cpp:100] Creating Layer res3c_branch2b_relu
I0313 22:58:17.092630 23048 net.cpp:444] res3c_branch2b_relu <- res3c_branch2b
I0313 22:58:17.092633 23048 net.cpp:405] res3c_branch2b_relu -> res3c_branch2b (in-place)
I0313 22:58:17.092638 23048 net.cpp:150] Setting up res3c_branch2b_relu
I0313 22:58:17.092640 23048 net.cpp:157] Top shape: 1 128 75 125 (1200000)
I0313 22:58:17.092643 23048 net.cpp:165] Memory required for data: 1797600084
I0313 22:58:17.092645 23048 layer_factory.hpp:77] Creating layer res3c_branch2c
I0313 22:58:17.092650 23048 net.cpp:100] Creating Layer res3c_branch2c
I0313 22:58:17.092653 23048 net.cpp:444] res3c_branch2c <- res3c_branch2b
I0313 22:58:17.092658 23048 net.cpp:418] res3c_branch2c -> res3c_branch2c
I0313 22:58:17.093575 23048 net.cpp:150] Setting up res3c_branch2c
I0313 22:58:17.093585 23048 net.cpp:157] Top shape: 1 512 75 125 (4800000)
I0313 22:58:17.093588 23048 net.cpp:165] Memory required for data: 1816800084
I0313 22:58:17.093606 23048 layer_factory.hpp:77] Creating layer bn3c_branch2c
I0313 22:58:17.093613 23048 net.cpp:100] Creating Layer bn3c_branch2c
I0313 22:58:17.093617 23048 net.cpp:444] bn3c_branch2c <- res3c_branch2c
I0313 22:58:17.093621 23048 net.cpp:405] bn3c_branch2c -> res3c_branch2c (in-place)
I0313 22:58:17.093770 23048 net.cpp:150] Setting up bn3c_branch2c
I0313 22:58:17.093775 23048 net.cpp:157] Top shape: 1 512 75 125 (4800000)
I0313 22:58:17.093776 23048 net.cpp:165] Memory required for data: 1836000084
I0313 22:58:17.093781 23048 layer_factory.hpp:77] Creating layer scale3c_branch2c
I0313 22:58:17.093787 23048 net.cpp:100] Creating Layer scale3c_branch2c
I0313 22:58:17.093804 23048 net.cpp:444] scale3c_branch2c <- res3c_branch2c
I0313 22:58:17.093809 23048 net.cpp:405] scale3c_branch2c -> res3c_branch2c (in-place)
I0313 22:58:17.093848 23048 layer_factory.hpp:77] Creating layer scale3c_branch2c
I0313 22:58:17.093962 23048 net.cpp:150] Setting up scale3c_branch2c
I0313 22:58:17.093968 23048 net.cpp:157] Top shape: 1 512 75 125 (4800000)
I0313 22:58:17.093971 23048 net.cpp:165] Memory required for data: 1855200084
I0313 22:58:17.093974 23048 layer_factory.hpp:77] Creating layer res3c
I0313 22:58:17.093978 23048 net.cpp:100] Creating Layer res3c
I0313 22:58:17.093991 23048 net.cpp:444] res3c <- res3b_res3b_relu_0_split_1
I0313 22:58:17.093997 23048 net.cpp:444] res3c <- res3c_branch2c
I0313 22:58:17.093999 23048 net.cpp:418] res3c -> res3c
I0313 22:58:17.094017 23048 net.cpp:150] Setting up res3c
I0313 22:58:17.094020 23048 net.cpp:157] Top shape: 1 512 75 125 (4800000)
I0313 22:58:17.094023 23048 net.cpp:165] Memory required for data: 1874400084
I0313 22:58:17.094025 23048 layer_factory.hpp:77] Creating layer res3c_relu
I0313 22:58:17.094029 23048 net.cpp:100] Creating Layer res3c_relu
I0313 22:58:17.094033 23048 net.cpp:444] res3c_relu <- res3c
I0313 22:58:17.094035 23048 net.cpp:405] res3c_relu -> res3c (in-place)
I0313 22:58:17.094039 23048 net.cpp:150] Setting up res3c_relu
I0313 22:58:17.094044 23048 net.cpp:157] Top shape: 1 512 75 125 (4800000)
I0313 22:58:17.094046 23048 net.cpp:165] Memory required for data: 1893600084
I0313 22:58:17.094048 23048 layer_factory.hpp:77] Creating layer res3c_res3c_relu_0_split
I0313 22:58:17.094053 23048 net.cpp:100] Creating Layer res3c_res3c_relu_0_split
I0313 22:58:17.094054 23048 net.cpp:444] res3c_res3c_relu_0_split <- res3c
I0313 22:58:17.094058 23048 net.cpp:418] res3c_res3c_relu_0_split -> res3c_res3c_relu_0_split_0
I0313 22:58:17.094063 23048 net.cpp:418] res3c_res3c_relu_0_split -> res3c_res3c_relu_0_split_1
I0313 22:58:17.094086 23048 net.cpp:150] Setting up res3c_res3c_relu_0_split
I0313 22:58:17.094091 23048 net.cpp:157] Top shape: 1 512 75 125 (4800000)
I0313 22:58:17.094094 23048 net.cpp:157] Top shape: 1 512 75 125 (4800000)
I0313 22:58:17.094097 23048 net.cpp:165] Memory required for data: 1932000084
I0313 22:58:17.094099 23048 layer_factory.hpp:77] Creating layer res3d_branch2a
I0313 22:58:17.094105 23048 net.cpp:100] Creating Layer res3d_branch2a
I0313 22:58:17.094108 23048 net.cpp:444] res3d_branch2a <- res3c_res3c_relu_0_split_0
I0313 22:58:17.094112 23048 net.cpp:418] res3d_branch2a -> res3d_branch2a
I0313 22:58:17.094269 23048 net.cpp:150] Setting up res3d_branch2a
I0313 22:58:17.094274 23048 net.cpp:157] Top shape: 1 128 75 125 (1200000)
I0313 22:58:17.094277 23048 net.cpp:165] Memory required for data: 1936800084
I0313 22:58:17.094280 23048 layer_factory.hpp:77] Creating layer bn3d_branch2a
I0313 22:58:17.094285 23048 net.cpp:100] Creating Layer bn3d_branch2a
I0313 22:58:17.094287 23048 net.cpp:444] bn3d_branch2a <- res3d_branch2a
I0313 22:58:17.094291 23048 net.cpp:405] bn3d_branch2a -> res3d_branch2a (in-place)
I0313 22:58:17.094413 23048 net.cpp:150] Setting up bn3d_branch2a
I0313 22:58:17.094418 23048 net.cpp:157] Top shape: 1 128 75 125 (1200000)
I0313 22:58:17.094420 23048 net.cpp:165] Memory required for data: 1941600084
I0313 22:58:17.094431 23048 layer_factory.hpp:77] Creating layer scale3d_branch2a
I0313 22:58:17.094436 23048 net.cpp:100] Creating Layer scale3d_branch2a
I0313 22:58:17.094439 23048 net.cpp:444] scale3d_branch2a <- res3d_branch2a
I0313 22:58:17.094442 23048 net.cpp:405] scale3d_branch2a -> res3d_branch2a (in-place)
I0313 22:58:17.094468 23048 layer_factory.hpp:77] Creating layer scale3d_branch2a
I0313 22:58:17.094550 23048 net.cpp:150] Setting up scale3d_branch2a
I0313 22:58:17.094555 23048 net.cpp:157] Top shape: 1 128 75 125 (1200000)
I0313 22:58:17.094558 23048 net.cpp:165] Memory required for data: 1946400084
I0313 22:58:17.094563 23048 layer_factory.hpp:77] Creating layer res3d_branch2a_relu
I0313 22:58:17.094566 23048 net.cpp:100] Creating Layer res3d_branch2a_relu
I0313 22:58:17.094568 23048 net.cpp:444] res3d_branch2a_relu <- res3d_branch2a
I0313 22:58:17.094573 23048 net.cpp:405] res3d_branch2a_relu -> res3d_branch2a (in-place)
I0313 22:58:17.094575 23048 net.cpp:150] Setting up res3d_branch2a_relu
I0313 22:58:17.094578 23048 net.cpp:157] Top shape: 1 128 75 125 (1200000)
I0313 22:58:17.094580 23048 net.cpp:165] Memory required for data: 1951200084
I0313 22:58:17.094583 23048 layer_factory.hpp:77] Creating layer res3d_branch2b
I0313 22:58:17.094588 23048 net.cpp:100] Creating Layer res3d_branch2b
I0313 22:58:17.094591 23048 net.cpp:444] res3d_branch2b <- res3d_branch2a
I0313 22:58:17.094595 23048 net.cpp:418] res3d_branch2b -> res3d_branch2b
I0313 22:58:17.094815 23048 net.cpp:150] Setting up res3d_branch2b
I0313 22:58:17.094820 23048 net.cpp:157] Top shape: 1 128 75 125 (1200000)
I0313 22:58:17.094821 23048 net.cpp:165] Memory required for data: 1956000084
I0313 22:58:17.094825 23048 layer_factory.hpp:77] Creating layer bn3d_branch2b
I0313 22:58:17.094841 23048 net.cpp:100] Creating Layer bn3d_branch2b
I0313 22:58:17.094844 23048 net.cpp:444] bn3d_branch2b <- res3d_branch2b
I0313 22:58:17.094847 23048 net.cpp:405] bn3d_branch2b -> res3d_branch2b (in-place)
I0313 22:58:17.094991 23048 net.cpp:150] Setting up bn3d_branch2b
I0313 22:58:17.094996 23048 net.cpp:157] Top shape: 1 128 75 125 (1200000)
I0313 22:58:17.094998 23048 net.cpp:165] Memory required for data: 1960800084
I0313 22:58:17.095003 23048 layer_factory.hpp:77] Creating layer scale3d_branch2b
I0313 22:58:17.095008 23048 net.cpp:100] Creating Layer scale3d_branch2b
I0313 22:58:17.095011 23048 net.cpp:444] scale3d_branch2b <- res3d_branch2b
I0313 22:58:17.095015 23048 net.cpp:405] scale3d_branch2b -> res3d_branch2b (in-place)
I0313 22:58:17.095053 23048 layer_factory.hpp:77] Creating layer scale3d_branch2b
I0313 22:58:17.095154 23048 net.cpp:150] Setting up scale3d_branch2b
I0313 22:58:17.095158 23048 net.cpp:157] Top shape: 1 128 75 125 (1200000)
I0313 22:58:17.095161 23048 net.cpp:165] Memory required for data: 1965600084
I0313 22:58:17.095165 23048 layer_factory.hpp:77] Creating layer res3d_branch2b_relu
I0313 22:58:17.095170 23048 net.cpp:100] Creating Layer res3d_branch2b_relu
I0313 22:58:17.095185 23048 net.cpp:444] res3d_branch2b_relu <- res3d_branch2b
I0313 22:58:17.095188 23048 net.cpp:405] res3d_branch2b_relu -> res3d_branch2b (in-place)
I0313 22:58:17.095192 23048 net.cpp:150] Setting up res3d_branch2b_relu
I0313 22:58:17.095196 23048 net.cpp:157] Top shape: 1 128 75 125 (1200000)
I0313 22:58:17.095197 23048 net.cpp:165] Memory required for data: 1970400084
I0313 22:58:17.095201 23048 layer_factory.hpp:77] Creating layer res3d_branch2c
I0313 22:58:17.095206 23048 net.cpp:100] Creating Layer res3d_branch2c
I0313 22:58:17.095207 23048 net.cpp:444] res3d_branch2c <- res3d_branch2b
I0313 22:58:17.095213 23048 net.cpp:418] res3d_branch2c -> res3d_branch2c
I0313 22:58:17.095396 23048 net.cpp:150] Setting up res3d_branch2c
I0313 22:58:17.095402 23048 net.cpp:157] Top shape: 1 512 75 125 (4800000)
I0313 22:58:17.095404 23048 net.cpp:165] Memory required for data: 1989600084
I0313 22:58:17.095407 23048 layer_factory.hpp:77] Creating layer bn3d_branch2c
I0313 22:58:17.095412 23048 net.cpp:100] Creating Layer bn3d_branch2c
I0313 22:58:17.095415 23048 net.cpp:444] bn3d_branch2c <- res3d_branch2c
I0313 22:58:17.095418 23048 net.cpp:405] bn3d_branch2c -> res3d_branch2c (in-place)
I0313 22:58:17.095590 23048 net.cpp:150] Setting up bn3d_branch2c
I0313 22:58:17.095595 23048 net.cpp:157] Top shape: 1 512 75 125 (4800000)
I0313 22:58:17.095598 23048 net.cpp:165] Memory required for data: 2008800084
I0313 22:58:17.095603 23048 layer_factory.hpp:77] Creating layer scale3d_branch2c
I0313 22:58:17.095607 23048 net.cpp:100] Creating Layer scale3d_branch2c
I0313 22:58:17.095610 23048 net.cpp:444] scale3d_branch2c <- res3d_branch2c
I0313 22:58:17.095614 23048 net.cpp:405] scale3d_branch2c -> res3d_branch2c (in-place)
I0313 22:58:17.095651 23048 layer_factory.hpp:77] Creating layer scale3d_branch2c
I0313 22:58:17.095757 23048 net.cpp:150] Setting up scale3d_branch2c
I0313 22:58:17.095762 23048 net.cpp:157] Top shape: 1 512 75 125 (4800000)
I0313 22:58:17.095765 23048 net.cpp:165] Memory required for data: 2028000084
I0313 22:58:17.095769 23048 layer_factory.hpp:77] Creating layer res3d
I0313 22:58:17.095773 23048 net.cpp:100] Creating Layer res3d
I0313 22:58:17.095775 23048 net.cpp:444] res3d <- res3c_res3c_relu_0_split_1
I0313 22:58:17.095793 23048 net.cpp:444] res3d <- res3d_branch2c
I0313 22:58:17.095796 23048 net.cpp:418] res3d -> res3d
I0313 22:58:17.095811 23048 net.cpp:150] Setting up res3d
I0313 22:58:17.095818 23048 net.cpp:157] Top shape: 1 512 75 125 (4800000)
I0313 22:58:17.095819 23048 net.cpp:165] Memory required for data: 2047200084
I0313 22:58:17.095821 23048 layer_factory.hpp:77] Creating layer res3d_relu
I0313 22:58:17.095825 23048 net.cpp:100] Creating Layer res3d_relu
I0313 22:58:17.095827 23048 net.cpp:444] res3d_relu <- res3d
I0313 22:58:17.095830 23048 net.cpp:405] res3d_relu -> res3d (in-place)
I0313 22:58:17.095834 23048 net.cpp:150] Setting up res3d_relu
I0313 22:58:17.095837 23048 net.cpp:157] Top shape: 1 512 75 125 (4800000)
I0313 22:58:17.095839 23048 net.cpp:165] Memory required for data: 2066400084
I0313 22:58:17.095841 23048 layer_factory.hpp:77] Creating layer res3d_res3d_relu_0_split
I0313 22:58:17.095846 23048 net.cpp:100] Creating Layer res3d_res3d_relu_0_split
I0313 22:58:17.095849 23048 net.cpp:444] res3d_res3d_relu_0_split <- res3d
I0313 22:58:17.095854 23048 net.cpp:418] res3d_res3d_relu_0_split -> res3d_res3d_relu_0_split_0
I0313 22:58:17.095857 23048 net.cpp:418] res3d_res3d_relu_0_split -> res3d_res3d_relu_0_split_1
I0313 22:58:17.095880 23048 net.cpp:150] Setting up res3d_res3d_relu_0_split
I0313 22:58:17.095885 23048 net.cpp:157] Top shape: 1 512 75 125 (4800000)
I0313 22:58:17.095887 23048 net.cpp:157] Top shape: 1 512 75 125 (4800000)
I0313 22:58:17.095890 23048 net.cpp:165] Memory required for data: 2104800084
I0313 22:58:17.095892 23048 layer_factory.hpp:77] Creating layer res4a_branch1
I0313 22:58:17.095897 23048 net.cpp:100] Creating Layer res4a_branch1
I0313 22:58:17.095899 23048 net.cpp:444] res4a_branch1 <- res3d_res3d_relu_0_split_0
I0313 22:58:17.095904 23048 net.cpp:418] res4a_branch1 -> res4a_branch1
I0313 22:58:17.097151 23048 net.cpp:150] Setting up res4a_branch1
I0313 22:58:17.097163 23048 net.cpp:157] Top shape: 1 1024 38 63 (2451456)
I0313 22:58:17.097165 23048 net.cpp:165] Memory required for data: 2114605908
I0313 22:58:17.097170 23048 layer_factory.hpp:77] Creating layer bn4a_branch1
I0313 22:58:17.097177 23048 net.cpp:100] Creating Layer bn4a_branch1
I0313 22:58:17.097179 23048 net.cpp:444] bn4a_branch1 <- res4a_branch1
I0313 22:58:17.097185 23048 net.cpp:405] bn4a_branch1 -> res4a_branch1 (in-place)
I0313 22:58:17.097368 23048 net.cpp:150] Setting up bn4a_branch1
I0313 22:58:17.097373 23048 net.cpp:157] Top shape: 1 1024 38 63 (2451456)
I0313 22:58:17.097374 23048 net.cpp:165] Memory required for data: 2124411732
I0313 22:58:17.097379 23048 layer_factory.hpp:77] Creating layer scale4a_branch1
I0313 22:58:17.097399 23048 net.cpp:100] Creating Layer scale4a_branch1
I0313 22:58:17.097403 23048 net.cpp:444] scale4a_branch1 <- res4a_branch1
I0313 22:58:17.097405 23048 net.cpp:405] scale4a_branch1 -> res4a_branch1 (in-place)
I0313 22:58:17.097431 23048 layer_factory.hpp:77] Creating layer scale4a_branch1
I0313 22:58:17.097545 23048 net.cpp:150] Setting up scale4a_branch1
I0313 22:58:17.097550 23048 net.cpp:157] Top shape: 1 1024 38 63 (2451456)
I0313 22:58:17.097553 23048 net.cpp:165] Memory required for data: 2134217556
I0313 22:58:17.097558 23048 layer_factory.hpp:77] Creating layer res4a_branch2a
I0313 22:58:17.097563 23048 net.cpp:100] Creating Layer res4a_branch2a
I0313 22:58:17.097580 23048 net.cpp:444] res4a_branch2a <- res3d_res3d_relu_0_split_1
I0313 22:58:17.097585 23048 net.cpp:418] res4a_branch2a -> res4a_branch2a
I0313 22:58:17.098676 23048 net.cpp:150] Setting up res4a_branch2a
I0313 22:58:17.098719 23048 net.cpp:157] Top shape: 1 256 38 63 (612864)
I0313 22:58:17.098733 23048 net.cpp:165] Memory required for data: 2136669012
I0313 22:58:17.098749 23048 layer_factory.hpp:77] Creating layer bn4a_branch2a
I0313 22:58:17.098773 23048 net.cpp:100] Creating Layer bn4a_branch2a
I0313 22:58:17.098788 23048 net.cpp:444] bn4a_branch2a <- res4a_branch2a
I0313 22:58:17.098804 23048 net.cpp:405] bn4a_branch2a -> res4a_branch2a (in-place)
I0313 22:58:17.098989 23048 net.cpp:150] Setting up bn4a_branch2a
I0313 22:58:17.098996 23048 net.cpp:157] Top shape: 1 256 38 63 (612864)
I0313 22:58:17.098999 23048 net.cpp:165] Memory required for data: 2139120468
I0313 22:58:17.099004 23048 layer_factory.hpp:77] Creating layer scale4a_branch2a
I0313 22:58:17.099011 23048 net.cpp:100] Creating Layer scale4a_branch2a
I0313 22:58:17.099027 23048 net.cpp:444] scale4a_branch2a <- res4a_branch2a
I0313 22:58:17.099042 23048 net.cpp:405] scale4a_branch2a -> res4a_branch2a (in-place)
I0313 22:58:17.099089 23048 layer_factory.hpp:77] Creating layer scale4a_branch2a
I0313 22:58:17.099184 23048 net.cpp:150] Setting up scale4a_branch2a
I0313 22:58:17.099189 23048 net.cpp:157] Top shape: 1 256 38 63 (612864)
I0313 22:58:17.099190 23048 net.cpp:165] Memory required for data: 2141571924
I0313 22:58:17.099195 23048 layer_factory.hpp:77] Creating layer res4a_branch2a_relu
I0313 22:58:17.099200 23048 net.cpp:100] Creating Layer res4a_branch2a_relu
I0313 22:58:17.099202 23048 net.cpp:444] res4a_branch2a_relu <- res4a_branch2a
I0313 22:58:17.099207 23048 net.cpp:405] res4a_branch2a_relu -> res4a_branch2a (in-place)
I0313 22:58:17.099213 23048 net.cpp:150] Setting up res4a_branch2a_relu
I0313 22:58:17.099216 23048 net.cpp:157] Top shape: 1 256 38 63 (612864)
I0313 22:58:17.099220 23048 net.cpp:165] Memory required for data: 2144023380
I0313 22:58:17.099221 23048 layer_factory.hpp:77] Creating layer res4a_branch2b
I0313 22:58:17.099227 23048 net.cpp:100] Creating Layer res4a_branch2b
I0313 22:58:17.099244 23048 net.cpp:444] res4a_branch2b <- res4a_branch2a
I0313 22:58:17.099259 23048 net.cpp:418] res4a_branch2b -> res4a_branch2b
I0313 22:58:17.100792 23048 net.cpp:150] Setting up res4a_branch2b
I0313 22:58:17.100806 23048 net.cpp:157] Top shape: 1 256 38 63 (612864)
I0313 22:58:17.100808 23048 net.cpp:165] Memory required for data: 2146474836
I0313 22:58:17.100813 23048 layer_factory.hpp:77] Creating layer bn4a_branch2b
I0313 22:58:17.100837 23048 net.cpp:100] Creating Layer bn4a_branch2b
I0313 22:58:17.100841 23048 net.cpp:444] bn4a_branch2b <- res4a_branch2b
I0313 22:58:17.100847 23048 net.cpp:405] bn4a_branch2b -> res4a_branch2b (in-place)
I0313 22:58:17.100987 23048 net.cpp:150] Setting up bn4a_branch2b
I0313 22:58:17.100992 23048 net.cpp:157] Top shape: 1 256 38 63 (612864)
I0313 22:58:17.100996 23048 net.cpp:165] Memory required for data: 2148926292
I0313 22:58:17.101001 23048 layer_factory.hpp:77] Creating layer scale4a_branch2b
I0313 22:58:17.101007 23048 net.cpp:100] Creating Layer scale4a_branch2b
I0313 22:58:17.101011 23048 net.cpp:444] scale4a_branch2b <- res4a_branch2b
I0313 22:58:17.101014 23048 net.cpp:405] scale4a_branch2b -> res4a_branch2b (in-place)
I0313 22:58:17.101042 23048 layer_factory.hpp:77] Creating layer scale4a_branch2b
I0313 22:58:17.101147 23048 net.cpp:150] Setting up scale4a_branch2b
I0313 22:58:17.101153 23048 net.cpp:157] Top shape: 1 256 38 63 (612864)
I0313 22:58:17.101156 23048 net.cpp:165] Memory required for data: 2151377748
I0313 22:58:17.101161 23048 layer_factory.hpp:77] Creating layer res4a_branch2b_relu
I0313 22:58:17.101166 23048 net.cpp:100] Creating Layer res4a_branch2b_relu
I0313 22:58:17.101182 23048 net.cpp:444] res4a_branch2b_relu <- res4a_branch2b
I0313 22:58:17.101186 23048 net.cpp:405] res4a_branch2b_relu -> res4a_branch2b (in-place)
I0313 22:58:17.101191 23048 net.cpp:150] Setting up res4a_branch2b_relu
I0313 22:58:17.101193 23048 net.cpp:157] Top shape: 1 256 38 63 (612864)
I0313 22:58:17.101195 23048 net.cpp:165] Memory required for data: 2153829204
I0313 22:58:17.101197 23048 layer_factory.hpp:77] Creating layer res4a_branch2c
I0313 22:58:17.101204 23048 net.cpp:100] Creating Layer res4a_branch2c
I0313 22:58:17.101209 23048 net.cpp:444] res4a_branch2c <- res4a_branch2b
I0313 22:58:17.101213 23048 net.cpp:418] res4a_branch2c -> res4a_branch2c
I0313 22:58:17.101490 23048 net.cpp:150] Setting up res4a_branch2c
I0313 22:58:17.101495 23048 net.cpp:157] Top shape: 1 1024 38 63 (2451456)
I0313 22:58:17.101498 23048 net.cpp:165] Memory required for data: 2163635028
I0313 22:58:17.101501 23048 layer_factory.hpp:77] Creating layer bn4a_branch2c
I0313 22:58:17.101506 23048 net.cpp:100] Creating Layer bn4a_branch2c
I0313 22:58:17.101510 23048 net.cpp:444] bn4a_branch2c <- res4a_branch2c
I0313 22:58:17.101513 23048 net.cpp:405] bn4a_branch2c -> res4a_branch2c (in-place)
I0313 22:58:17.101650 23048 net.cpp:150] Setting up bn4a_branch2c
I0313 22:58:17.101655 23048 net.cpp:157] Top shape: 1 1024 38 63 (2451456)
I0313 22:58:17.101658 23048 net.cpp:165] Memory required for data: 2173440852
I0313 22:58:17.101662 23048 layer_factory.hpp:77] Creating layer scale4a_branch2c
I0313 22:58:17.101666 23048 net.cpp:100] Creating Layer scale4a_branch2c
I0313 22:58:17.101670 23048 net.cpp:444] scale4a_branch2c <- res4a_branch2c
I0313 22:58:17.101673 23048 net.cpp:405] scale4a_branch2c -> res4a_branch2c (in-place)
I0313 22:58:17.101696 23048 layer_factory.hpp:77] Creating layer scale4a_branch2c
I0313 22:58:17.101792 23048 net.cpp:150] Setting up scale4a_branch2c
I0313 22:58:17.101799 23048 net.cpp:157] Top shape: 1 1024 38 63 (2451456)
I0313 22:58:17.101801 23048 net.cpp:165] Memory required for data: 2183246676
I0313 22:58:17.101805 23048 layer_factory.hpp:77] Creating layer res4a
I0313 22:58:17.101814 23048 net.cpp:100] Creating Layer res4a
I0313 22:58:17.101817 23048 net.cpp:444] res4a <- res4a_branch1
I0313 22:58:17.101821 23048 net.cpp:444] res4a <- res4a_branch2c
I0313 22:58:17.101824 23048 net.cpp:418] res4a -> res4a
I0313 22:58:17.101853 23048 net.cpp:150] Setting up res4a
I0313 22:58:17.101857 23048 net.cpp:157] Top shape: 1 1024 38 63 (2451456)
I0313 22:58:17.101861 23048 net.cpp:165] Memory required for data: 2193052500
I0313 22:58:17.101863 23048 layer_factory.hpp:77] Creating layer res4a_relu
I0313 22:58:17.101866 23048 net.cpp:100] Creating Layer res4a_relu
I0313 22:58:17.101869 23048 net.cpp:444] res4a_relu <- res4a
I0313 22:58:17.101872 23048 net.cpp:405] res4a_relu -> res4a (in-place)
I0313 22:58:17.101876 23048 net.cpp:150] Setting up res4a_relu
I0313 22:58:17.101879 23048 net.cpp:157] Top shape: 1 1024 38 63 (2451456)
I0313 22:58:17.101881 23048 net.cpp:165] Memory required for data: 2202858324
I0313 22:58:17.101883 23048 layer_factory.hpp:77] Creating layer res4a_res4a_relu_0_split
I0313 22:58:17.101887 23048 net.cpp:100] Creating Layer res4a_res4a_relu_0_split
I0313 22:58:17.101889 23048 net.cpp:444] res4a_res4a_relu_0_split <- res4a
I0313 22:58:17.101893 23048 net.cpp:418] res4a_res4a_relu_0_split -> res4a_res4a_relu_0_split_0
I0313 22:58:17.101898 23048 net.cpp:418] res4a_res4a_relu_0_split -> res4a_res4a_relu_0_split_1
I0313 22:58:17.101923 23048 net.cpp:150] Setting up res4a_res4a_relu_0_split
I0313 22:58:17.101928 23048 net.cpp:157] Top shape: 1 1024 38 63 (2451456)
I0313 22:58:17.101932 23048 net.cpp:157] Top shape: 1 1024 38 63 (2451456)
I0313 22:58:17.101933 23048 net.cpp:165] Memory required for data: 2222469972
I0313 22:58:17.101936 23048 layer_factory.hpp:77] Creating layer res4b_branch2a
I0313 22:58:17.101954 23048 net.cpp:100] Creating Layer res4b_branch2a
I0313 22:58:17.101958 23048 net.cpp:444] res4b_branch2a <- res4a_res4a_relu_0_split_0
I0313 22:58:17.101963 23048 net.cpp:418] res4b_branch2a -> res4b_branch2a
I0313 22:58:17.103277 23048 net.cpp:150] Setting up res4b_branch2a
I0313 22:58:17.103305 23048 net.cpp:157] Top shape: 1 256 38 63 (612864)
I0313 22:58:17.103307 23048 net.cpp:165] Memory required for data: 2224921428
I0313 22:58:17.103314 23048 layer_factory.hpp:77] Creating layer bn4b_branch2a
I0313 22:58:17.103322 23048 net.cpp:100] Creating Layer bn4b_branch2a
I0313 22:58:17.103325 23048 net.cpp:444] bn4b_branch2a <- res4b_branch2a
I0313 22:58:17.103332 23048 net.cpp:405] bn4b_branch2a -> res4b_branch2a (in-place)
I0313 22:58:17.103529 23048 net.cpp:150] Setting up bn4b_branch2a
I0313 22:58:17.103536 23048 net.cpp:157] Top shape: 1 256 38 63 (612864)
I0313 22:58:17.103538 23048 net.cpp:165] Memory required for data: 2227372884
I0313 22:58:17.103544 23048 layer_factory.hpp:77] Creating layer scale4b_branch2a
I0313 22:58:17.103550 23048 net.cpp:100] Creating Layer scale4b_branch2a
I0313 22:58:17.103554 23048 net.cpp:444] scale4b_branch2a <- res4b_branch2a
I0313 22:58:17.103557 23048 net.cpp:405] scale4b_branch2a -> res4b_branch2a (in-place)
I0313 22:58:17.103600 23048 layer_factory.hpp:77] Creating layer scale4b_branch2a
I0313 22:58:17.103695 23048 net.cpp:150] Setting up scale4b_branch2a
I0313 22:58:17.103701 23048 net.cpp:157] Top shape: 1 256 38 63 (612864)
I0313 22:58:17.103704 23048 net.cpp:165] Memory required for data: 2229824340
I0313 22:58:17.103708 23048 layer_factory.hpp:77] Creating layer res4b_branch2a_relu
I0313 22:58:17.103713 23048 net.cpp:100] Creating Layer res4b_branch2a_relu
I0313 22:58:17.103716 23048 net.cpp:444] res4b_branch2a_relu <- res4b_branch2a
I0313 22:58:17.103719 23048 net.cpp:405] res4b_branch2a_relu -> res4b_branch2a (in-place)
I0313 22:58:17.103724 23048 net.cpp:150] Setting up res4b_branch2a_relu
I0313 22:58:17.103727 23048 net.cpp:157] Top shape: 1 256 38 63 (612864)
I0313 22:58:17.103729 23048 net.cpp:165] Memory required for data: 2232275796
I0313 22:58:17.103731 23048 layer_factory.hpp:77] Creating layer res4b_branch2b
I0313 22:58:17.103739 23048 net.cpp:100] Creating Layer res4b_branch2b
I0313 22:58:17.103741 23048 net.cpp:444] res4b_branch2b <- res4b_branch2a
I0313 22:58:17.103746 23048 net.cpp:418] res4b_branch2b -> res4b_branch2b
I0313 22:58:17.105476 23048 net.cpp:150] Setting up res4b_branch2b
I0313 22:58:17.105515 23048 net.cpp:157] Top shape: 1 256 38 63 (612864)
I0313 22:58:17.105517 23048 net.cpp:165] Memory required for data: 2234727252
I0313 22:58:17.105530 23048 layer_factory.hpp:77] Creating layer bn4b_branch2b
I0313 22:58:17.105546 23048 net.cpp:100] Creating Layer bn4b_branch2b
I0313 22:58:17.105553 23048 net.cpp:444] bn4b_branch2b <- res4b_branch2b
I0313 22:58:17.105562 23048 net.cpp:405] bn4b_branch2b -> res4b_branch2b (in-place)
I0313 22:58:17.105795 23048 net.cpp:150] Setting up bn4b_branch2b
I0313 22:58:17.105801 23048 net.cpp:157] Top shape: 1 256 38 63 (612864)
I0313 22:58:17.105803 23048 net.cpp:165] Memory required for data: 2237178708
I0313 22:58:17.105808 23048 layer_factory.hpp:77] Creating layer scale4b_branch2b
I0313 22:58:17.105828 23048 net.cpp:100] Creating Layer scale4b_branch2b
I0313 22:58:17.105830 23048 net.cpp:444] scale4b_branch2b <- res4b_branch2b
I0313 22:58:17.105834 23048 net.cpp:405] scale4b_branch2b -> res4b_branch2b (in-place)
I0313 22:58:17.105876 23048 layer_factory.hpp:77] Creating layer scale4b_branch2b
I0313 22:58:17.105989 23048 net.cpp:150] Setting up scale4b_branch2b
I0313 22:58:17.105994 23048 net.cpp:157] Top shape: 1 256 38 63 (612864)
I0313 22:58:17.105996 23048 net.cpp:165] Memory required for data: 2239630164
I0313 22:58:17.106000 23048 layer_factory.hpp:77] Creating layer res4b_branch2b_relu
I0313 22:58:17.106005 23048 net.cpp:100] Creating Layer res4b_branch2b_relu
I0313 22:58:17.106020 23048 net.cpp:444] res4b_branch2b_relu <- res4b_branch2b
I0313 22:58:17.106025 23048 net.cpp:405] res4b_branch2b_relu -> res4b_branch2b (in-place)
I0313 22:58:17.106030 23048 net.cpp:150] Setting up res4b_branch2b_relu
I0313 22:58:17.106034 23048 net.cpp:157] Top shape: 1 256 38 63 (612864)
I0313 22:58:17.106035 23048 net.cpp:165] Memory required for data: 2242081620
I0313 22:58:17.106037 23048 layer_factory.hpp:77] Creating layer res4b_branch2c
I0313 22:58:17.106043 23048 net.cpp:100] Creating Layer res4b_branch2c
I0313 22:58:17.106047 23048 net.cpp:444] res4b_branch2c <- res4b_branch2b
I0313 22:58:17.106052 23048 net.cpp:418] res4b_branch2c -> res4b_branch2c
I0313 22:58:17.106307 23048 net.cpp:150] Setting up res4b_branch2c
I0313 22:58:17.106313 23048 net.cpp:157] Top shape: 1 1024 38 63 (2451456)
I0313 22:58:17.106315 23048 net.cpp:165] Memory required for data: 2251887444
I0313 22:58:17.106318 23048 layer_factory.hpp:77] Creating layer bn4b_branch2c
I0313 22:58:17.106323 23048 net.cpp:100] Creating Layer bn4b_branch2c
I0313 22:58:17.106325 23048 net.cpp:444] bn4b_branch2c <- res4b_branch2c
I0313 22:58:17.106328 23048 net.cpp:405] bn4b_branch2c -> res4b_branch2c (in-place)
I0313 22:58:17.106478 23048 net.cpp:150] Setting up bn4b_branch2c
I0313 22:58:17.106483 23048 net.cpp:157] Top shape: 1 1024 38 63 (2451456)
I0313 22:58:17.106487 23048 net.cpp:165] Memory required for data: 2261693268
I0313 22:58:17.106503 23048 layer_factory.hpp:77] Creating layer scale4b_branch2c
I0313 22:58:17.106508 23048 net.cpp:100] Creating Layer scale4b_branch2c
I0313 22:58:17.106511 23048 net.cpp:444] scale4b_branch2c <- res4b_branch2c
I0313 22:58:17.106514 23048 net.cpp:405] scale4b_branch2c -> res4b_branch2c (in-place)
I0313 22:58:17.106537 23048 layer_factory.hpp:77] Creating layer scale4b_branch2c
I0313 22:58:17.106629 23048 net.cpp:150] Setting up scale4b_branch2c
I0313 22:58:17.106634 23048 net.cpp:157] Top shape: 1 1024 38 63 (2451456)
I0313 22:58:17.106637 23048 net.cpp:165] Memory required for data: 2271499092
I0313 22:58:17.106642 23048 layer_factory.hpp:77] Creating layer res4b
I0313 22:58:17.106658 23048 net.cpp:100] Creating Layer res4b
I0313 22:58:17.106662 23048 net.cpp:444] res4b <- res4a_res4a_relu_0_split_1
I0313 22:58:17.106664 23048 net.cpp:444] res4b <- res4b_branch2c
I0313 22:58:17.106668 23048 net.cpp:418] res4b -> res4b
I0313 22:58:17.106683 23048 net.cpp:150] Setting up res4b
I0313 22:58:17.106688 23048 net.cpp:157] Top shape: 1 1024 38 63 (2451456)
I0313 22:58:17.106690 23048 net.cpp:165] Memory required for data: 2281304916
I0313 22:58:17.106693 23048 layer_factory.hpp:77] Creating layer res4b_relu
I0313 22:58:17.106695 23048 net.cpp:100] Creating Layer res4b_relu
I0313 22:58:17.106698 23048 net.cpp:444] res4b_relu <- res4b
I0313 22:58:17.106703 23048 net.cpp:405] res4b_relu -> res4b (in-place)
I0313 22:58:17.106705 23048 net.cpp:150] Setting up res4b_relu
I0313 22:58:17.106709 23048 net.cpp:157] Top shape: 1 1024 38 63 (2451456)
I0313 22:58:17.106710 23048 net.cpp:165] Memory required for data: 2291110740
I0313 22:58:17.106714 23048 layer_factory.hpp:77] Creating layer res4b_res4b_relu_0_split
I0313 22:58:17.106716 23048 net.cpp:100] Creating Layer res4b_res4b_relu_0_split
I0313 22:58:17.106719 23048 net.cpp:444] res4b_res4b_relu_0_split <- res4b
I0313 22:58:17.106722 23048 net.cpp:418] res4b_res4b_relu_0_split -> res4b_res4b_relu_0_split_0
I0313 22:58:17.106727 23048 net.cpp:418] res4b_res4b_relu_0_split -> res4b_res4b_relu_0_split_1
I0313 22:58:17.106751 23048 net.cpp:150] Setting up res4b_res4b_relu_0_split
I0313 22:58:17.106770 23048 net.cpp:157] Top shape: 1 1024 38 63 (2451456)
I0313 22:58:17.106772 23048 net.cpp:157] Top shape: 1 1024 38 63 (2451456)
I0313 22:58:17.106775 23048 net.cpp:165] Memory required for data: 2310722388
I0313 22:58:17.106777 23048 layer_factory.hpp:77] Creating layer res4c_branch2a
I0313 22:58:17.106783 23048 net.cpp:100] Creating Layer res4c_branch2a
I0313 22:58:17.106787 23048 net.cpp:444] res4c_branch2a <- res4b_res4b_relu_0_split_0
I0313 22:58:17.106791 23048 net.cpp:418] res4c_branch2a -> res4c_branch2a
I0313 22:58:17.107969 23048 net.cpp:150] Setting up res4c_branch2a
I0313 22:58:17.107988 23048 net.cpp:157] Top shape: 1 256 38 63 (612864)
I0313 22:58:17.107991 23048 net.cpp:165] Memory required for data: 2313173844
I0313 22:58:17.108000 23048 layer_factory.hpp:77] Creating layer bn4c_branch2a
I0313 22:58:17.108011 23048 net.cpp:100] Creating Layer bn4c_branch2a
I0313 22:58:17.108016 23048 net.cpp:444] bn4c_branch2a <- res4c_branch2a
I0313 22:58:17.108022 23048 net.cpp:405] bn4c_branch2a -> res4c_branch2a (in-place)
I0313 22:58:17.108173 23048 net.cpp:150] Setting up bn4c_branch2a
I0313 22:58:17.108178 23048 net.cpp:157] Top shape: 1 256 38 63 (612864)
I0313 22:58:17.108180 23048 net.cpp:165] Memory required for data: 2315625300
I0313 22:58:17.108186 23048 layer_factory.hpp:77] Creating layer scale4c_branch2a
I0313 22:58:17.108191 23048 net.cpp:100] Creating Layer scale4c_branch2a
I0313 22:58:17.108193 23048 net.cpp:444] scale4c_branch2a <- res4c_branch2a
I0313 22:58:17.108197 23048 net.cpp:405] scale4c_branch2a -> res4c_branch2a (in-place)
I0313 22:58:17.108225 23048 layer_factory.hpp:77] Creating layer scale4c_branch2a
I0313 22:58:17.108340 23048 net.cpp:150] Setting up scale4c_branch2a
I0313 22:58:17.108345 23048 net.cpp:157] Top shape: 1 256 38 63 (612864)
I0313 22:58:17.108346 23048 net.cpp:165] Memory required for data: 2318076756
I0313 22:58:17.108350 23048 layer_factory.hpp:77] Creating layer res4c_branch2a_relu
I0313 22:58:17.108355 23048 net.cpp:100] Creating Layer res4c_branch2a_relu
I0313 22:58:17.108371 23048 net.cpp:444] res4c_branch2a_relu <- res4c_branch2a
I0313 22:58:17.108376 23048 net.cpp:405] res4c_branch2a_relu -> res4c_branch2a (in-place)
I0313 22:58:17.108381 23048 net.cpp:150] Setting up res4c_branch2a_relu
I0313 22:58:17.108383 23048 net.cpp:157] Top shape: 1 256 38 63 (612864)
I0313 22:58:17.108386 23048 net.cpp:165] Memory required for data: 2320528212
I0313 22:58:17.108387 23048 layer_factory.hpp:77] Creating layer res4c_branch2b
I0313 22:58:17.108394 23048 net.cpp:100] Creating Layer res4c_branch2b
I0313 22:58:17.108397 23048 net.cpp:444] res4c_branch2b <- res4c_branch2a
I0313 22:58:17.108400 23048 net.cpp:418] res4c_branch2b -> res4c_branch2b
I0313 22:58:17.109616 23048 net.cpp:150] Setting up res4c_branch2b
I0313 22:58:17.109629 23048 net.cpp:157] Top shape: 1 256 38 63 (612864)
I0313 22:58:17.109632 23048 net.cpp:165] Memory required for data: 2322979668
I0313 22:58:17.109637 23048 layer_factory.hpp:77] Creating layer bn4c_branch2b
I0313 22:58:17.109657 23048 net.cpp:100] Creating Layer bn4c_branch2b
I0313 22:58:17.109660 23048 net.cpp:444] bn4c_branch2b <- res4c_branch2b
I0313 22:58:17.109664 23048 net.cpp:405] bn4c_branch2b -> res4c_branch2b (in-place)
I0313 22:58:17.109863 23048 net.cpp:150] Setting up bn4c_branch2b
I0313 22:58:17.109868 23048 net.cpp:157] Top shape: 1 256 38 63 (612864)
I0313 22:58:17.109869 23048 net.cpp:165] Memory required for data: 2325431124
I0313 22:58:17.109875 23048 layer_factory.hpp:77] Creating layer scale4c_branch2b
I0313 22:58:17.109899 23048 net.cpp:100] Creating Layer scale4c_branch2b
I0313 22:58:17.109901 23048 net.cpp:444] scale4c_branch2b <- res4c_branch2b
I0313 22:58:17.109905 23048 net.cpp:405] scale4c_branch2b -> res4c_branch2b (in-place)
I0313 22:58:17.109964 23048 layer_factory.hpp:77] Creating layer scale4c_branch2b
I0313 22:58:17.110118 23048 net.cpp:150] Setting up scale4c_branch2b
I0313 22:58:17.110124 23048 net.cpp:157] Top shape: 1 256 38 63 (612864)
I0313 22:58:17.110126 23048 net.cpp:165] Memory required for data: 2327882580
I0313 22:58:17.110131 23048 layer_factory.hpp:77] Creating layer res4c_branch2b_relu
I0313 22:58:17.110137 23048 net.cpp:100] Creating Layer res4c_branch2b_relu
I0313 22:58:17.110153 23048 net.cpp:444] res4c_branch2b_relu <- res4c_branch2b
I0313 22:58:17.110157 23048 net.cpp:405] res4c_branch2b_relu -> res4c_branch2b (in-place)
I0313 22:58:17.110162 23048 net.cpp:150] Setting up res4c_branch2b_relu
I0313 22:58:17.110164 23048 net.cpp:157] Top shape: 1 256 38 63 (612864)
I0313 22:58:17.110167 23048 net.cpp:165] Memory required for data: 2330334036
I0313 22:58:17.110168 23048 layer_factory.hpp:77] Creating layer res4c_branch2c
I0313 22:58:17.110189 23048 net.cpp:100] Creating Layer res4c_branch2c
I0313 22:58:17.110191 23048 net.cpp:444] res4c_branch2c <- res4c_branch2b
I0313 22:58:17.110195 23048 net.cpp:418] res4c_branch2c -> res4c_branch2c
I0313 22:58:17.110515 23048 net.cpp:150] Setting up res4c_branch2c
I0313 22:58:17.110522 23048 net.cpp:157] Top shape: 1 1024 38 63 (2451456)
I0313 22:58:17.110524 23048 net.cpp:165] Memory required for data: 2340139860
I0313 22:58:17.110527 23048 layer_factory.hpp:77] Creating layer bn4c_branch2c
I0313 22:58:17.110532 23048 net.cpp:100] Creating Layer bn4c_branch2c
I0313 22:58:17.110534 23048 net.cpp:444] bn4c_branch2c <- res4c_branch2c
I0313 22:58:17.110539 23048 net.cpp:405] bn4c_branch2c -> res4c_branch2c (in-place)
I0313 22:58:17.110687 23048 net.cpp:150] Setting up bn4c_branch2c
I0313 22:58:17.110692 23048 net.cpp:157] Top shape: 1 1024 38 63 (2451456)
I0313 22:58:17.110694 23048 net.cpp:165] Memory required for data: 2349945684
I0313 22:58:17.110699 23048 layer_factory.hpp:77] Creating layer scale4c_branch2c
I0313 22:58:17.110703 23048 net.cpp:100] Creating Layer scale4c_branch2c
I0313 22:58:17.110705 23048 net.cpp:444] scale4c_branch2c <- res4c_branch2c
I0313 22:58:17.110709 23048 net.cpp:405] scale4c_branch2c -> res4c_branch2c (in-place)
I0313 22:58:17.110735 23048 layer_factory.hpp:77] Creating layer scale4c_branch2c
I0313 22:58:17.110819 23048 net.cpp:150] Setting up scale4c_branch2c
I0313 22:58:17.110823 23048 net.cpp:157] Top shape: 1 1024 38 63 (2451456)
I0313 22:58:17.110826 23048 net.cpp:165] Memory required for data: 2359751508
I0313 22:58:17.110829 23048 layer_factory.hpp:77] Creating layer res4c
I0313 22:58:17.110834 23048 net.cpp:100] Creating Layer res4c
I0313 22:58:17.110837 23048 net.cpp:444] res4c <- res4b_res4b_relu_0_split_1
I0313 22:58:17.110841 23048 net.cpp:444] res4c <- res4c_branch2c
I0313 22:58:17.110844 23048 net.cpp:418] res4c -> res4c
I0313 22:58:17.110862 23048 net.cpp:150] Setting up res4c
I0313 22:58:17.110865 23048 net.cpp:157] Top shape: 1 1024 38 63 (2451456)
I0313 22:58:17.110868 23048 net.cpp:165] Memory required for data: 2369557332
I0313 22:58:17.110870 23048 layer_factory.hpp:77] Creating layer res4c_relu
I0313 22:58:17.110873 23048 net.cpp:100] Creating Layer res4c_relu
I0313 22:58:17.110877 23048 net.cpp:444] res4c_relu <- res4c
I0313 22:58:17.110880 23048 net.cpp:405] res4c_relu -> res4c (in-place)
I0313 22:58:17.110884 23048 net.cpp:150] Setting up res4c_relu
I0313 22:58:17.110888 23048 net.cpp:157] Top shape: 1 1024 38 63 (2451456)
I0313 22:58:17.110889 23048 net.cpp:165] Memory required for data: 2379363156
I0313 22:58:17.110891 23048 layer_factory.hpp:77] Creating layer res4c_res4c_relu_0_split
I0313 22:58:17.110895 23048 net.cpp:100] Creating Layer res4c_res4c_relu_0_split
I0313 22:58:17.110898 23048 net.cpp:444] res4c_res4c_relu_0_split <- res4c
I0313 22:58:17.110903 23048 net.cpp:418] res4c_res4c_relu_0_split -> res4c_res4c_relu_0_split_0
I0313 22:58:17.110906 23048 net.cpp:418] res4c_res4c_relu_0_split -> res4c_res4c_relu_0_split_1
I0313 22:58:17.110930 23048 net.cpp:150] Setting up res4c_res4c_relu_0_split
I0313 22:58:17.110934 23048 net.cpp:157] Top shape: 1 1024 38 63 (2451456)
I0313 22:58:17.110937 23048 net.cpp:157] Top shape: 1 1024 38 63 (2451456)
I0313 22:58:17.110939 23048 net.cpp:165] Memory required for data: 2398974804
I0313 22:58:17.110941 23048 layer_factory.hpp:77] Creating layer res4d_branch2a
I0313 22:58:17.110947 23048 net.cpp:100] Creating Layer res4d_branch2a
I0313 22:58:17.110949 23048 net.cpp:444] res4d_branch2a <- res4c_res4c_relu_0_split_0
I0313 22:58:17.110954 23048 net.cpp:418] res4d_branch2a -> res4d_branch2a
I0313 22:58:17.111986 23048 net.cpp:150] Setting up res4d_branch2a
I0313 22:58:17.112001 23048 net.cpp:157] Top shape: 1 256 38 63 (612864)
I0313 22:58:17.112004 23048 net.cpp:165] Memory required for data: 2401426260
I0313 22:58:17.112010 23048 layer_factory.hpp:77] Creating layer bn4d_branch2a
I0313 22:58:17.112017 23048 net.cpp:100] Creating Layer bn4d_branch2a
I0313 22:58:17.112020 23048 net.cpp:444] bn4d_branch2a <- res4d_branch2a
I0313 22:58:17.112025 23048 net.cpp:405] bn4d_branch2a -> res4d_branch2a (in-place)
I0313 22:58:17.112179 23048 net.cpp:150] Setting up bn4d_branch2a
I0313 22:58:17.112185 23048 net.cpp:157] Top shape: 1 256 38 63 (612864)
I0313 22:58:17.112187 23048 net.cpp:165] Memory required for data: 2403877716
I0313 22:58:17.112192 23048 layer_factory.hpp:77] Creating layer scale4d_branch2a
I0313 22:58:17.112198 23048 net.cpp:100] Creating Layer scale4d_branch2a
I0313 22:58:17.112203 23048 net.cpp:444] scale4d_branch2a <- res4d_branch2a
I0313 22:58:17.112206 23048 net.cpp:405] scale4d_branch2a -> res4d_branch2a (in-place)
I0313 22:58:17.112236 23048 layer_factory.hpp:77] Creating layer scale4d_branch2a
I0313 22:58:17.112321 23048 net.cpp:150] Setting up scale4d_branch2a
I0313 22:58:17.112326 23048 net.cpp:157] Top shape: 1 256 38 63 (612864)
I0313 22:58:17.112329 23048 net.cpp:165] Memory required for data: 2406329172
I0313 22:58:17.112332 23048 layer_factory.hpp:77] Creating layer res4d_branch2a_relu
I0313 22:58:17.112339 23048 net.cpp:100] Creating Layer res4d_branch2a_relu
I0313 22:58:17.112341 23048 net.cpp:444] res4d_branch2a_relu <- res4d_branch2a
I0313 22:58:17.112344 23048 net.cpp:405] res4d_branch2a_relu -> res4d_branch2a (in-place)
I0313 22:58:17.112349 23048 net.cpp:150] Setting up res4d_branch2a_relu
I0313 22:58:17.112352 23048 net.cpp:157] Top shape: 1 256 38 63 (612864)
I0313 22:58:17.112354 23048 net.cpp:165] Memory required for data: 2408780628
I0313 22:58:17.112356 23048 layer_factory.hpp:77] Creating layer res4d_branch2b
I0313 22:58:17.112362 23048 net.cpp:100] Creating Layer res4d_branch2b
I0313 22:58:17.112365 23048 net.cpp:444] res4d_branch2b <- res4d_branch2a
I0313 22:58:17.112370 23048 net.cpp:418] res4d_branch2b -> res4d_branch2b
I0313 22:58:17.113585 23048 net.cpp:150] Setting up res4d_branch2b
I0313 22:58:17.113600 23048 net.cpp:157] Top shape: 1 256 38 63 (612864)
I0313 22:58:17.113602 23048 net.cpp:165] Memory required for data: 2411232084
I0313 22:58:17.113607 23048 layer_factory.hpp:77] Creating layer bn4d_branch2b
I0313 22:58:17.113626 23048 net.cpp:100] Creating Layer bn4d_branch2b
I0313 22:58:17.113629 23048 net.cpp:444] bn4d_branch2b <- res4d_branch2b
I0313 22:58:17.113636 23048 net.cpp:405] bn4d_branch2b -> res4d_branch2b (in-place)
I0313 22:58:17.113811 23048 net.cpp:150] Setting up bn4d_branch2b
I0313 22:58:17.113816 23048 net.cpp:157] Top shape: 1 256 38 63 (612864)
I0313 22:58:17.113818 23048 net.cpp:165] Memory required for data: 2413683540
I0313 22:58:17.113837 23048 layer_factory.hpp:77] Creating layer scale4d_branch2b
I0313 22:58:17.113842 23048 net.cpp:100] Creating Layer scale4d_branch2b
I0313 22:58:17.113844 23048 net.cpp:444] scale4d_branch2b <- res4d_branch2b
I0313 22:58:17.113847 23048 net.cpp:405] scale4d_branch2b -> res4d_branch2b (in-place)
I0313 22:58:17.113875 23048 layer_factory.hpp:77] Creating layer scale4d_branch2b
I0313 22:58:17.113998 23048 net.cpp:150] Setting up scale4d_branch2b
I0313 22:58:17.114003 23048 net.cpp:157] Top shape: 1 256 38 63 (612864)
I0313 22:58:17.114006 23048 net.cpp:165] Memory required for data: 2416134996
I0313 22:58:17.114009 23048 layer_factory.hpp:77] Creating layer res4d_branch2b_relu
I0313 22:58:17.114013 23048 net.cpp:100] Creating Layer res4d_branch2b_relu
I0313 22:58:17.114030 23048 net.cpp:444] res4d_branch2b_relu <- res4d_branch2b
I0313 22:58:17.114034 23048 net.cpp:405] res4d_branch2b_relu -> res4d_branch2b (in-place)
I0313 22:58:17.114038 23048 net.cpp:150] Setting up res4d_branch2b_relu
I0313 22:58:17.114054 23048 net.cpp:157] Top shape: 1 256 38 63 (612864)
I0313 22:58:17.114056 23048 net.cpp:165] Memory required for data: 2418586452
I0313 22:58:17.114058 23048 layer_factory.hpp:77] Creating layer res4d_branch2c
I0313 22:58:17.114063 23048 net.cpp:100] Creating Layer res4d_branch2c
I0313 22:58:17.114066 23048 net.cpp:444] res4d_branch2c <- res4d_branch2b
I0313 22:58:17.114070 23048 net.cpp:418] res4d_branch2c -> res4d_branch2c
I0313 22:58:17.114359 23048 net.cpp:150] Setting up res4d_branch2c
I0313 22:58:17.114365 23048 net.cpp:157] Top shape: 1 1024 38 63 (2451456)
I0313 22:58:17.114367 23048 net.cpp:165] Memory required for data: 2428392276
I0313 22:58:17.114370 23048 layer_factory.hpp:77] Creating layer bn4d_branch2c
I0313 22:58:17.114377 23048 net.cpp:100] Creating Layer bn4d_branch2c
I0313 22:58:17.114393 23048 net.cpp:444] bn4d_branch2c <- res4d_branch2c
I0313 22:58:17.114398 23048 net.cpp:405] bn4d_branch2c -> res4d_branch2c (in-place)
I0313 22:58:17.114565 23048 net.cpp:150] Setting up bn4d_branch2c
I0313 22:58:17.114570 23048 net.cpp:157] Top shape: 1 1024 38 63 (2451456)
I0313 22:58:17.114573 23048 net.cpp:165] Memory required for data: 2438198100
I0313 22:58:17.114591 23048 layer_factory.hpp:77] Creating layer scale4d_branch2c
I0313 22:58:17.114595 23048 net.cpp:100] Creating Layer scale4d_branch2c
I0313 22:58:17.114598 23048 net.cpp:444] scale4d_branch2c <- res4d_branch2c
I0313 22:58:17.114603 23048 net.cpp:405] scale4d_branch2c -> res4d_branch2c (in-place)
I0313 22:58:17.114625 23048 layer_factory.hpp:77] Creating layer scale4d_branch2c
I0313 22:58:17.114723 23048 net.cpp:150] Setting up scale4d_branch2c
I0313 22:58:17.114728 23048 net.cpp:157] Top shape: 1 1024 38 63 (2451456)
I0313 22:58:17.114732 23048 net.cpp:165] Memory required for data: 2448003924
I0313 22:58:17.114748 23048 layer_factory.hpp:77] Creating layer res4d
I0313 22:58:17.114753 23048 net.cpp:100] Creating Layer res4d
I0313 22:58:17.114755 23048 net.cpp:444] res4d <- res4c_res4c_relu_0_split_1
I0313 22:58:17.114759 23048 net.cpp:444] res4d <- res4d_branch2c
I0313 22:58:17.114763 23048 net.cpp:418] res4d -> res4d
I0313 22:58:17.114779 23048 net.cpp:150] Setting up res4d
I0313 22:58:17.114784 23048 net.cpp:157] Top shape: 1 1024 38 63 (2451456)
I0313 22:58:17.114785 23048 net.cpp:165] Memory required for data: 2457809748
I0313 22:58:17.114789 23048 layer_factory.hpp:77] Creating layer res4d_relu
I0313 22:58:17.114792 23048 net.cpp:100] Creating Layer res4d_relu
I0313 22:58:17.114795 23048 net.cpp:444] res4d_relu <- res4d
I0313 22:58:17.114799 23048 net.cpp:405] res4d_relu -> res4d (in-place)
I0313 22:58:17.114802 23048 net.cpp:150] Setting up res4d_relu
I0313 22:58:17.114804 23048 net.cpp:157] Top shape: 1 1024 38 63 (2451456)
I0313 22:58:17.114807 23048 net.cpp:165] Memory required for data: 2467615572
I0313 22:58:17.114809 23048 layer_factory.hpp:77] Creating layer res4d_res4d_relu_0_split
I0313 22:58:17.114814 23048 net.cpp:100] Creating Layer res4d_res4d_relu_0_split
I0313 22:58:17.114816 23048 net.cpp:444] res4d_res4d_relu_0_split <- res4d
I0313 22:58:17.114820 23048 net.cpp:418] res4d_res4d_relu_0_split -> res4d_res4d_relu_0_split_0
I0313 22:58:17.114825 23048 net.cpp:418] res4d_res4d_relu_0_split -> res4d_res4d_relu_0_split_1
I0313 22:58:17.114852 23048 net.cpp:150] Setting up res4d_res4d_relu_0_split
I0313 22:58:17.114856 23048 net.cpp:157] Top shape: 1 1024 38 63 (2451456)
I0313 22:58:17.114858 23048 net.cpp:157] Top shape: 1 1024 38 63 (2451456)
I0313 22:58:17.114861 23048 net.cpp:165] Memory required for data: 2487227220
I0313 22:58:17.114863 23048 layer_factory.hpp:77] Creating layer res4e_branch2a
I0313 22:58:17.114868 23048 net.cpp:100] Creating Layer res4e_branch2a
I0313 22:58:17.114871 23048 net.cpp:444] res4e_branch2a <- res4d_res4d_relu_0_split_0
I0313 22:58:17.114876 23048 net.cpp:418] res4e_branch2a -> res4e_branch2a
I0313 22:58:17.115926 23048 net.cpp:150] Setting up res4e_branch2a
I0313 22:58:17.115941 23048 net.cpp:157] Top shape: 1 256 38 63 (612864)
I0313 22:58:17.115943 23048 net.cpp:165] Memory required for data: 2489678676
I0313 22:58:17.115948 23048 layer_factory.hpp:77] Creating layer bn4e_branch2a
I0313 22:58:17.115954 23048 net.cpp:100] Creating Layer bn4e_branch2a
I0313 22:58:17.115959 23048 net.cpp:444] bn4e_branch2a <- res4e_branch2a
I0313 22:58:17.115965 23048 net.cpp:405] bn4e_branch2a -> res4e_branch2a (in-place)
I0313 22:58:17.116117 23048 net.cpp:150] Setting up bn4e_branch2a
I0313 22:58:17.116122 23048 net.cpp:157] Top shape: 1 256 38 63 (612864)
I0313 22:58:17.116124 23048 net.cpp:165] Memory required for data: 2492130132
I0313 22:58:17.116130 23048 layer_factory.hpp:77] Creating layer scale4e_branch2a
I0313 22:58:17.116137 23048 net.cpp:100] Creating Layer scale4e_branch2a
I0313 22:58:17.116140 23048 net.cpp:444] scale4e_branch2a <- res4e_branch2a
I0313 22:58:17.116143 23048 net.cpp:405] scale4e_branch2a -> res4e_branch2a (in-place)
I0313 22:58:17.116171 23048 layer_factory.hpp:77] Creating layer scale4e_branch2a
I0313 22:58:17.116259 23048 net.cpp:150] Setting up scale4e_branch2a
I0313 22:58:17.116266 23048 net.cpp:157] Top shape: 1 256 38 63 (612864)
I0313 22:58:17.116267 23048 net.cpp:165] Memory required for data: 2494581588
I0313 22:58:17.116271 23048 layer_factory.hpp:77] Creating layer res4e_branch2a_relu
I0313 22:58:17.116276 23048 net.cpp:100] Creating Layer res4e_branch2a_relu
I0313 22:58:17.116279 23048 net.cpp:444] res4e_branch2a_relu <- res4e_branch2a
I0313 22:58:17.116283 23048 net.cpp:405] res4e_branch2a_relu -> res4e_branch2a (in-place)
I0313 22:58:17.116287 23048 net.cpp:150] Setting up res4e_branch2a_relu
I0313 22:58:17.116291 23048 net.cpp:157] Top shape: 1 256 38 63 (612864)
I0313 22:58:17.116293 23048 net.cpp:165] Memory required for data: 2497033044
I0313 22:58:17.116295 23048 layer_factory.hpp:77] Creating layer res4e_branch2b
I0313 22:58:17.116299 23048 net.cpp:100] Creating Layer res4e_branch2b
I0313 22:58:17.116303 23048 net.cpp:444] res4e_branch2b <- res4e_branch2a
I0313 22:58:17.116308 23048 net.cpp:418] res4e_branch2b -> res4e_branch2b
I0313 22:58:17.117604 23048 net.cpp:150] Setting up res4e_branch2b
I0313 22:58:17.117619 23048 net.cpp:157] Top shape: 1 256 38 63 (612864)
I0313 22:58:17.117621 23048 net.cpp:165] Memory required for data: 2499484500
I0313 22:58:17.117626 23048 layer_factory.hpp:77] Creating layer bn4e_branch2b
I0313 22:58:17.117647 23048 net.cpp:100] Creating Layer bn4e_branch2b
I0313 22:58:17.117650 23048 net.cpp:444] bn4e_branch2b <- res4e_branch2b
I0313 22:58:17.117656 23048 net.cpp:405] bn4e_branch2b -> res4e_branch2b (in-place)
I0313 22:58:17.117861 23048 net.cpp:150] Setting up bn4e_branch2b
I0313 22:58:17.117866 23048 net.cpp:157] Top shape: 1 256 38 63 (612864)
I0313 22:58:17.117869 23048 net.cpp:165] Memory required for data: 2501935956
I0313 22:58:17.117874 23048 layer_factory.hpp:77] Creating layer scale4e_branch2b
I0313 22:58:17.117878 23048 net.cpp:100] Creating Layer scale4e_branch2b
I0313 22:58:17.117895 23048 net.cpp:444] scale4e_branch2b <- res4e_branch2b
I0313 22:58:17.117899 23048 net.cpp:405] scale4e_branch2b -> res4e_branch2b (in-place)
I0313 22:58:17.117956 23048 layer_factory.hpp:77] Creating layer scale4e_branch2b
I0313 22:58:17.118084 23048 net.cpp:150] Setting up scale4e_branch2b
I0313 22:58:17.118089 23048 net.cpp:157] Top shape: 1 256 38 63 (612864)
I0313 22:58:17.118091 23048 net.cpp:165] Memory required for data: 2504387412
I0313 22:58:17.118095 23048 layer_factory.hpp:77] Creating layer res4e_branch2b_relu
I0313 22:58:17.118100 23048 net.cpp:100] Creating Layer res4e_branch2b_relu
I0313 22:58:17.118103 23048 net.cpp:444] res4e_branch2b_relu <- res4e_branch2b
I0313 22:58:17.118106 23048 net.cpp:405] res4e_branch2b_relu -> res4e_branch2b (in-place)
I0313 22:58:17.118110 23048 net.cpp:150] Setting up res4e_branch2b_relu
I0313 22:58:17.118113 23048 net.cpp:157] Top shape: 1 256 38 63 (612864)
I0313 22:58:17.118115 23048 net.cpp:165] Memory required for data: 2506838868
I0313 22:58:17.118118 23048 layer_factory.hpp:77] Creating layer res4e_branch2c
I0313 22:58:17.118136 23048 net.cpp:100] Creating Layer res4e_branch2c
I0313 22:58:17.118139 23048 net.cpp:444] res4e_branch2c <- res4e_branch2b
I0313 22:58:17.118144 23048 net.cpp:418] res4e_branch2c -> res4e_branch2c
I0313 22:58:17.118458 23048 net.cpp:150] Setting up res4e_branch2c
I0313 22:58:17.118463 23048 net.cpp:157] Top shape: 1 1024 38 63 (2451456)
I0313 22:58:17.118465 23048 net.cpp:165] Memory required for data: 2516644692
I0313 22:58:17.118468 23048 layer_factory.hpp:77] Creating layer bn4e_branch2c
I0313 22:58:17.118474 23048 net.cpp:100] Creating Layer bn4e_branch2c
I0313 22:58:17.118490 23048 net.cpp:444] bn4e_branch2c <- res4e_branch2c
I0313 22:58:17.118494 23048 net.cpp:405] bn4e_branch2c -> res4e_branch2c (in-place)
I0313 22:58:17.118681 23048 net.cpp:150] Setting up bn4e_branch2c
I0313 22:58:17.118686 23048 net.cpp:157] Top shape: 1 1024 38 63 (2451456)
I0313 22:58:17.118690 23048 net.cpp:165] Memory required for data: 2526450516
I0313 22:58:17.118693 23048 layer_factory.hpp:77] Creating layer scale4e_branch2c
I0313 22:58:17.118698 23048 net.cpp:100] Creating Layer scale4e_branch2c
I0313 22:58:17.118713 23048 net.cpp:444] scale4e_branch2c <- res4e_branch2c
I0313 22:58:17.118717 23048 net.cpp:405] scale4e_branch2c -> res4e_branch2c (in-place)
I0313 22:58:17.118767 23048 layer_factory.hpp:77] Creating layer scale4e_branch2c
I0313 22:58:17.118919 23048 net.cpp:150] Setting up scale4e_branch2c
I0313 22:58:17.118924 23048 net.cpp:157] Top shape: 1 1024 38 63 (2451456)
I0313 22:58:17.118927 23048 net.cpp:165] Memory required for data: 2536256340
I0313 22:58:17.118930 23048 layer_factory.hpp:77] Creating layer res4e
I0313 22:58:17.118935 23048 net.cpp:100] Creating Layer res4e
I0313 22:58:17.118938 23048 net.cpp:444] res4e <- res4d_res4d_relu_0_split_1
I0313 22:58:17.118942 23048 net.cpp:444] res4e <- res4e_branch2c
I0313 22:58:17.118944 23048 net.cpp:418] res4e -> res4e
I0313 22:58:17.118989 23048 net.cpp:150] Setting up res4e
I0313 22:58:17.118993 23048 net.cpp:157] Top shape: 1 1024 38 63 (2451456)
I0313 22:58:17.118996 23048 net.cpp:165] Memory required for data: 2546062164
I0313 22:58:17.119011 23048 layer_factory.hpp:77] Creating layer res4e_relu
I0313 22:58:17.119014 23048 net.cpp:100] Creating Layer res4e_relu
I0313 22:58:17.119016 23048 net.cpp:444] res4e_relu <- res4e
I0313 22:58:17.119035 23048 net.cpp:405] res4e_relu -> res4e (in-place)
I0313 22:58:17.119038 23048 net.cpp:150] Setting up res4e_relu
I0313 22:58:17.119041 23048 net.cpp:157] Top shape: 1 1024 38 63 (2451456)
I0313 22:58:17.119057 23048 net.cpp:165] Memory required for data: 2555867988
I0313 22:58:17.119060 23048 layer_factory.hpp:77] Creating layer res4e_res4e_relu_0_split
I0313 22:58:17.119063 23048 net.cpp:100] Creating Layer res4e_res4e_relu_0_split
I0313 22:58:17.119065 23048 net.cpp:444] res4e_res4e_relu_0_split <- res4e
I0313 22:58:17.119068 23048 net.cpp:418] res4e_res4e_relu_0_split -> res4e_res4e_relu_0_split_0
I0313 22:58:17.119073 23048 net.cpp:418] res4e_res4e_relu_0_split -> res4e_res4e_relu_0_split_1
I0313 22:58:17.119098 23048 net.cpp:150] Setting up res4e_res4e_relu_0_split
I0313 22:58:17.119102 23048 net.cpp:157] Top shape: 1 1024 38 63 (2451456)
I0313 22:58:17.119104 23048 net.cpp:157] Top shape: 1 1024 38 63 (2451456)
I0313 22:58:17.119107 23048 net.cpp:165] Memory required for data: 2575479636
I0313 22:58:17.119109 23048 layer_factory.hpp:77] Creating layer res4f_branch2a
I0313 22:58:17.119113 23048 net.cpp:100] Creating Layer res4f_branch2a
I0313 22:58:17.119117 23048 net.cpp:444] res4f_branch2a <- res4e_res4e_relu_0_split_0
I0313 22:58:17.119122 23048 net.cpp:418] res4f_branch2a -> res4f_branch2a
I0313 22:58:17.120172 23048 net.cpp:150] Setting up res4f_branch2a
I0313 22:58:17.120182 23048 net.cpp:157] Top shape: 1 256 38 63 (612864)
I0313 22:58:17.120184 23048 net.cpp:165] Memory required for data: 2577931092
I0313 22:58:17.120188 23048 layer_factory.hpp:77] Creating layer bn4f_branch2a
I0313 22:58:17.120193 23048 net.cpp:100] Creating Layer bn4f_branch2a
I0313 22:58:17.120210 23048 net.cpp:444] bn4f_branch2a <- res4f_branch2a
I0313 22:58:17.120216 23048 net.cpp:405] bn4f_branch2a -> res4f_branch2a (in-place)
I0313 22:58:17.120375 23048 net.cpp:150] Setting up bn4f_branch2a
I0313 22:58:17.120380 23048 net.cpp:157] Top shape: 1 256 38 63 (612864)
I0313 22:58:17.120383 23048 net.cpp:165] Memory required for data: 2580382548
I0313 22:58:17.120388 23048 layer_factory.hpp:77] Creating layer scale4f_branch2a
I0313 22:58:17.120393 23048 net.cpp:100] Creating Layer scale4f_branch2a
I0313 22:58:17.120409 23048 net.cpp:444] scale4f_branch2a <- res4f_branch2a
I0313 22:58:17.120414 23048 net.cpp:405] scale4f_branch2a -> res4f_branch2a (in-place)
I0313 22:58:17.120453 23048 layer_factory.hpp:77] Creating layer scale4f_branch2a
I0313 22:58:17.120549 23048 net.cpp:150] Setting up scale4f_branch2a
I0313 22:58:17.120558 23048 net.cpp:157] Top shape: 1 256 38 63 (612864)
I0313 22:58:17.120560 23048 net.cpp:165] Memory required for data: 2582834004
I0313 22:58:17.120563 23048 layer_factory.hpp:77] Creating layer res4f_branch2a_relu
I0313 22:58:17.120582 23048 net.cpp:100] Creating Layer res4f_branch2a_relu
I0313 22:58:17.120584 23048 net.cpp:444] res4f_branch2a_relu <- res4f_branch2a
I0313 22:58:17.120589 23048 net.cpp:405] res4f_branch2a_relu -> res4f_branch2a (in-place)
I0313 22:58:17.120591 23048 net.cpp:150] Setting up res4f_branch2a_relu
I0313 22:58:17.120595 23048 net.cpp:157] Top shape: 1 256 38 63 (612864)
I0313 22:58:17.120597 23048 net.cpp:165] Memory required for data: 2585285460
I0313 22:58:17.120599 23048 layer_factory.hpp:77] Creating layer res4f_branch2b
I0313 22:58:17.120605 23048 net.cpp:100] Creating Layer res4f_branch2b
I0313 22:58:17.120609 23048 net.cpp:444] res4f_branch2b <- res4f_branch2a
I0313 22:58:17.120613 23048 net.cpp:418] res4f_branch2b -> res4f_branch2b
I0313 22:58:17.122829 23048 net.cpp:150] Setting up res4f_branch2b
I0313 22:58:17.122895 23048 net.cpp:157] Top shape: 1 256 38 63 (612864)
I0313 22:58:17.122915 23048 net.cpp:165] Memory required for data: 2587736916
I0313 22:58:17.122931 23048 layer_factory.hpp:77] Creating layer bn4f_branch2b
I0313 22:58:17.122951 23048 net.cpp:100] Creating Layer bn4f_branch2b
I0313 22:58:17.122957 23048 net.cpp:444] bn4f_branch2b <- res4f_branch2b
I0313 22:58:17.122967 23048 net.cpp:405] bn4f_branch2b -> res4f_branch2b (in-place)
I0313 22:58:17.123244 23048 net.cpp:150] Setting up bn4f_branch2b
I0313 22:58:17.123250 23048 net.cpp:157] Top shape: 1 256 38 63 (612864)
I0313 22:58:17.123252 23048 net.cpp:165] Memory required for data: 2590188372
I0313 22:58:17.123258 23048 layer_factory.hpp:77] Creating layer scale4f_branch2b
I0313 22:58:17.123267 23048 net.cpp:100] Creating Layer scale4f_branch2b
I0313 22:58:17.123271 23048 net.cpp:444] scale4f_branch2b <- res4f_branch2b
I0313 22:58:17.123277 23048 net.cpp:405] scale4f_branch2b -> res4f_branch2b (in-place)
I0313 22:58:17.123327 23048 layer_factory.hpp:77] Creating layer scale4f_branch2b
I0313 22:58:17.123455 23048 net.cpp:150] Setting up scale4f_branch2b
I0313 22:58:17.123462 23048 net.cpp:157] Top shape: 1 256 38 63 (612864)
I0313 22:58:17.123464 23048 net.cpp:165] Memory required for data: 2592639828
I0313 22:58:17.123469 23048 layer_factory.hpp:77] Creating layer res4f_branch2b_relu
I0313 22:58:17.123476 23048 net.cpp:100] Creating Layer res4f_branch2b_relu
I0313 22:58:17.123481 23048 net.cpp:444] res4f_branch2b_relu <- res4f_branch2b
I0313 22:58:17.123486 23048 net.cpp:405] res4f_branch2b_relu -> res4f_branch2b (in-place)
I0313 22:58:17.123492 23048 net.cpp:150] Setting up res4f_branch2b_relu
I0313 22:58:17.123497 23048 net.cpp:157] Top shape: 1 256 38 63 (612864)
I0313 22:58:17.123502 23048 net.cpp:165] Memory required for data: 2595091284
I0313 22:58:17.123504 23048 layer_factory.hpp:77] Creating layer res4f_branch2c
I0313 22:58:17.123512 23048 net.cpp:100] Creating Layer res4f_branch2c
I0313 22:58:17.123515 23048 net.cpp:444] res4f_branch2c <- res4f_branch2b
I0313 22:58:17.123523 23048 net.cpp:418] res4f_branch2c -> res4f_branch2c
I0313 22:58:17.124004 23048 net.cpp:150] Setting up res4f_branch2c
I0313 22:58:17.124014 23048 net.cpp:157] Top shape: 1 1024 38 63 (2451456)
I0313 22:58:17.124018 23048 net.cpp:165] Memory required for data: 2604897108
I0313 22:58:17.124024 23048 layer_factory.hpp:77] Creating layer bn4f_branch2c
I0313 22:58:17.124030 23048 net.cpp:100] Creating Layer bn4f_branch2c
I0313 22:58:17.124048 23048 net.cpp:444] bn4f_branch2c <- res4f_branch2c
I0313 22:58:17.124053 23048 net.cpp:405] bn4f_branch2c -> res4f_branch2c (in-place)
I0313 22:58:17.124223 23048 net.cpp:150] Setting up bn4f_branch2c
I0313 22:58:17.124228 23048 net.cpp:157] Top shape: 1 1024 38 63 (2451456)
I0313 22:58:17.124231 23048 net.cpp:165] Memory required for data: 2614702932
I0313 22:58:17.124264 23048 layer_factory.hpp:77] Creating layer scale4f_branch2c
I0313 22:58:17.124270 23048 net.cpp:100] Creating Layer scale4f_branch2c
I0313 22:58:17.124274 23048 net.cpp:444] scale4f_branch2c <- res4f_branch2c
I0313 22:58:17.124279 23048 net.cpp:405] scale4f_branch2c -> res4f_branch2c (in-place)
I0313 22:58:17.124308 23048 layer_factory.hpp:77] Creating layer scale4f_branch2c
I0313 22:58:17.124408 23048 net.cpp:150] Setting up scale4f_branch2c
I0313 22:58:17.124413 23048 net.cpp:157] Top shape: 1 1024 38 63 (2451456)
I0313 22:58:17.124414 23048 net.cpp:165] Memory required for data: 2624508756
I0313 22:58:17.124418 23048 layer_factory.hpp:77] Creating layer res4f
I0313 22:58:17.124424 23048 net.cpp:100] Creating Layer res4f
I0313 22:58:17.124428 23048 net.cpp:444] res4f <- res4e_res4e_relu_0_split_1
I0313 22:58:17.124433 23048 net.cpp:444] res4f <- res4f_branch2c
I0313 22:58:17.124438 23048 net.cpp:418] res4f -> res4f
I0313 22:58:17.124454 23048 net.cpp:150] Setting up res4f
I0313 22:58:17.124459 23048 net.cpp:157] Top shape: 1 1024 38 63 (2451456)
I0313 22:58:17.124460 23048 net.cpp:165] Memory required for data: 2634314580
I0313 22:58:17.124464 23048 layer_factory.hpp:77] Creating layer res4f_relu
I0313 22:58:17.124471 23048 net.cpp:100] Creating Layer res4f_relu
I0313 22:58:17.124474 23048 net.cpp:444] res4f_relu <- res4f
I0313 22:58:17.124476 23048 net.cpp:405] res4f_relu -> res4f (in-place)
I0313 22:58:17.124481 23048 net.cpp:150] Setting up res4f_relu
I0313 22:58:17.124485 23048 net.cpp:157] Top shape: 1 1024 38 63 (2451456)
I0313 22:58:17.124486 23048 net.cpp:165] Memory required for data: 2644120404
I0313 22:58:17.124490 23048 layer_factory.hpp:77] Creating layer res4f_res4f_relu_0_split
I0313 22:58:17.124496 23048 net.cpp:100] Creating Layer res4f_res4f_relu_0_split
I0313 22:58:17.124500 23048 net.cpp:444] res4f_res4f_relu_0_split <- res4f
I0313 22:58:17.124503 23048 net.cpp:418] res4f_res4f_relu_0_split -> res4f_res4f_relu_0_split_0
I0313 22:58:17.124508 23048 net.cpp:418] res4f_res4f_relu_0_split -> res4f_res4f_relu_0_split_1
I0313 22:58:17.124521 23048 net.cpp:418] res4f_res4f_relu_0_split -> res4f_res4f_relu_0_split_2
I0313 22:58:17.124558 23048 net.cpp:150] Setting up res4f_res4f_relu_0_split
I0313 22:58:17.124569 23048 net.cpp:157] Top shape: 1 1024 38 63 (2451456)
I0313 22:58:17.124578 23048 net.cpp:157] Top shape: 1 1024 38 63 (2451456)
I0313 22:58:17.124581 23048 net.cpp:157] Top shape: 1 1024 38 63 (2451456)
I0313 22:58:17.124583 23048 net.cpp:165] Memory required for data: 2673537876
I0313 22:58:17.124585 23048 layer_factory.hpp:77] Creating layer res5a_branch1
I0313 22:58:17.124593 23048 net.cpp:100] Creating Layer res5a_branch1
I0313 22:58:17.124595 23048 net.cpp:444] res5a_branch1 <- res4f_res4f_relu_0_split_0
I0313 22:58:17.124600 23048 net.cpp:418] res5a_branch1 -> res5a_branch1
I0313 22:58:17.129401 23048 net.cpp:150] Setting up res5a_branch1
I0313 22:58:17.129447 23048 net.cpp:157] Top shape: 1 2048 38 63 (4902912)
I0313 22:58:17.129451 23048 net.cpp:165] Memory required for data: 2693149524
I0313 22:58:17.129480 23048 layer_factory.hpp:77] Creating layer bn5a_branch1
I0313 22:58:17.129499 23048 net.cpp:100] Creating Layer bn5a_branch1
I0313 22:58:17.129508 23048 net.cpp:444] bn5a_branch1 <- res5a_branch1
I0313 22:58:17.129532 23048 net.cpp:405] bn5a_branch1 -> res5a_branch1 (in-place)
I0313 22:58:17.129808 23048 net.cpp:150] Setting up bn5a_branch1
I0313 22:58:17.129814 23048 net.cpp:157] Top shape: 1 2048 38 63 (4902912)
I0313 22:58:17.129817 23048 net.cpp:165] Memory required for data: 2712761172
I0313 22:58:17.129822 23048 layer_factory.hpp:77] Creating layer scale5a_branch1
I0313 22:58:17.129845 23048 net.cpp:100] Creating Layer scale5a_branch1
I0313 22:58:17.129848 23048 net.cpp:444] scale5a_branch1 <- res5a_branch1
I0313 22:58:17.129853 23048 net.cpp:405] scale5a_branch1 -> res5a_branch1 (in-place)
I0313 22:58:17.129901 23048 layer_factory.hpp:77] Creating layer scale5a_branch1
I0313 22:58:17.130069 23048 net.cpp:150] Setting up scale5a_branch1
I0313 22:58:17.130074 23048 net.cpp:157] Top shape: 1 2048 38 63 (4902912)
I0313 22:58:17.130079 23048 net.cpp:165] Memory required for data: 2732372820
I0313 22:58:17.130085 23048 layer_factory.hpp:77] Creating layer res5a_branch2a
I0313 22:58:17.130112 23048 net.cpp:100] Creating Layer res5a_branch2a
I0313 22:58:17.130118 23048 net.cpp:444] res5a_branch2a <- res4f_res4f_relu_0_split_1
I0313 22:58:17.130123 23048 net.cpp:418] res5a_branch2a -> res5a_branch2a
I0313 22:58:17.131584 23048 net.cpp:150] Setting up res5a_branch2a
I0313 22:58:17.131597 23048 net.cpp:157] Top shape: 1 512 38 63 (1225728)
I0313 22:58:17.131598 23048 net.cpp:165] Memory required for data: 2737275732
I0313 22:58:17.131603 23048 layer_factory.hpp:77] Creating layer bn5a_branch2a
I0313 22:58:17.131609 23048 net.cpp:100] Creating Layer bn5a_branch2a
I0313 22:58:17.131613 23048 net.cpp:444] bn5a_branch2a <- res5a_branch2a
I0313 22:58:17.131616 23048 net.cpp:405] bn5a_branch2a -> res5a_branch2a (in-place)
I0313 22:58:17.131772 23048 net.cpp:150] Setting up bn5a_branch2a
I0313 22:58:17.131777 23048 net.cpp:157] Top shape: 1 512 38 63 (1225728)
I0313 22:58:17.131778 23048 net.cpp:165] Memory required for data: 2742178644
I0313 22:58:17.131783 23048 layer_factory.hpp:77] Creating layer scale5a_branch2a
I0313 22:58:17.131789 23048 net.cpp:100] Creating Layer scale5a_branch2a
I0313 22:58:17.131793 23048 net.cpp:444] scale5a_branch2a <- res5a_branch2a
I0313 22:58:17.131795 23048 net.cpp:405] scale5a_branch2a -> res5a_branch2a (in-place)
I0313 22:58:17.131822 23048 layer_factory.hpp:77] Creating layer scale5a_branch2a
I0313 22:58:17.131911 23048 net.cpp:150] Setting up scale5a_branch2a
I0313 22:58:17.131916 23048 net.cpp:157] Top shape: 1 512 38 63 (1225728)
I0313 22:58:17.131918 23048 net.cpp:165] Memory required for data: 2747081556
I0313 22:58:17.131922 23048 layer_factory.hpp:77] Creating layer res5a_branch2a_relu
I0313 22:58:17.131927 23048 net.cpp:100] Creating Layer res5a_branch2a_relu
I0313 22:58:17.131930 23048 net.cpp:444] res5a_branch2a_relu <- res5a_branch2a
I0313 22:58:17.131933 23048 net.cpp:405] res5a_branch2a_relu -> res5a_branch2a (in-place)
I0313 22:58:17.131937 23048 net.cpp:150] Setting up res5a_branch2a_relu
I0313 22:58:17.131942 23048 net.cpp:157] Top shape: 1 512 38 63 (1225728)
I0313 22:58:17.131943 23048 net.cpp:165] Memory required for data: 2751984468
I0313 22:58:17.131945 23048 layer_factory.hpp:77] Creating layer res5a_branch2a_res5a_branch2a_relu_0_split
I0313 22:58:17.131950 23048 net.cpp:100] Creating Layer res5a_branch2a_res5a_branch2a_relu_0_split
I0313 22:58:17.131953 23048 net.cpp:444] res5a_branch2a_res5a_branch2a_relu_0_split <- res5a_branch2a
I0313 22:58:17.131956 23048 net.cpp:418] res5a_branch2a_res5a_branch2a_relu_0_split -> res5a_branch2a_res5a_branch2a_relu_0_split_0
I0313 22:58:17.131961 23048 net.cpp:418] res5a_branch2a_res5a_branch2a_relu_0_split -> res5a_branch2a_res5a_branch2a_relu_0_split_1
I0313 22:58:17.131988 23048 net.cpp:150] Setting up res5a_branch2a_res5a_branch2a_relu_0_split
I0313 22:58:17.131992 23048 net.cpp:157] Top shape: 1 512 38 63 (1225728)
I0313 22:58:17.131995 23048 net.cpp:157] Top shape: 1 512 38 63 (1225728)
I0313 22:58:17.131997 23048 net.cpp:165] Memory required for data: 2761790292
I0313 22:58:17.131999 23048 layer_factory.hpp:77] Creating layer res5a_branch2b_offset
I0313 22:58:17.132007 23048 net.cpp:100] Creating Layer res5a_branch2b_offset
I0313 22:58:17.132010 23048 net.cpp:444] res5a_branch2b_offset <- res5a_branch2a_res5a_branch2a_relu_0_split_0
I0313 22:58:17.132014 23048 net.cpp:418] res5a_branch2b_offset -> res5a_branch2b_offset
I0313 22:58:17.133121 23048 net.cpp:150] Setting up res5a_branch2b_offset
I0313 22:58:17.133132 23048 net.cpp:157] Top shape: 1 72 38 63 (172368)
I0313 22:58:17.133136 23048 net.cpp:165] Memory required for data: 2762479764
I0313 22:58:17.133139 23048 layer_factory.hpp:77] Creating layer res5a_branch2b
I0313 22:58:17.133147 23048 net.cpp:100] Creating Layer res5a_branch2b
I0313 22:58:17.133152 23048 net.cpp:444] res5a_branch2b <- res5a_branch2a_res5a_branch2a_relu_0_split_1
I0313 22:58:17.133154 23048 net.cpp:444] res5a_branch2b <- res5a_branch2b_offset
I0313 22:58:17.133159 23048 net.cpp:418] res5a_branch2b -> res5a_branch2b
I0313 22:58:17.137725 23048 net.cpp:150] Setting up res5a_branch2b
I0313 22:58:17.137751 23048 net.cpp:157] Top shape: 1 512 38 63 (1225728)
I0313 22:58:17.137754 23048 net.cpp:165] Memory required for data: 2767382676
I0313 22:58:17.137775 23048 layer_factory.hpp:77] Creating layer bn5a_branch2b
I0313 22:58:17.137789 23048 net.cpp:100] Creating Layer bn5a_branch2b
I0313 22:58:17.137794 23048 net.cpp:444] bn5a_branch2b <- res5a_branch2b
I0313 22:58:17.137800 23048 net.cpp:405] bn5a_branch2b -> res5a_branch2b (in-place)
I0313 22:58:17.138031 23048 net.cpp:150] Setting up bn5a_branch2b
I0313 22:58:17.138036 23048 net.cpp:157] Top shape: 1 512 38 63 (1225728)
I0313 22:58:17.138038 23048 net.cpp:165] Memory required for data: 2772285588
I0313 22:58:17.138044 23048 layer_factory.hpp:77] Creating layer scale5a_branch2b
I0313 22:58:17.138065 23048 net.cpp:100] Creating Layer scale5a_branch2b
I0313 22:58:17.138067 23048 net.cpp:444] scale5a_branch2b <- res5a_branch2b
I0313 22:58:17.138072 23048 net.cpp:405] scale5a_branch2b -> res5a_branch2b (in-place)
I0313 22:58:17.138101 23048 layer_factory.hpp:77] Creating layer scale5a_branch2b
I0313 22:58:17.138217 23048 net.cpp:150] Setting up scale5a_branch2b
I0313 22:58:17.138223 23048 net.cpp:157] Top shape: 1 512 38 63 (1225728)
I0313 22:58:17.138226 23048 net.cpp:165] Memory required for data: 2777188500
I0313 22:58:17.138231 23048 layer_factory.hpp:77] Creating layer res5a_branch2b_relu
I0313 22:58:17.138234 23048 net.cpp:100] Creating Layer res5a_branch2b_relu
I0313 22:58:17.138237 23048 net.cpp:444] res5a_branch2b_relu <- res5a_branch2b
I0313 22:58:17.138240 23048 net.cpp:405] res5a_branch2b_relu -> res5a_branch2b (in-place)
I0313 22:58:17.138245 23048 net.cpp:150] Setting up res5a_branch2b_relu
I0313 22:58:17.138248 23048 net.cpp:157] Top shape: 1 512 38 63 (1225728)
I0313 22:58:17.138250 23048 net.cpp:165] Memory required for data: 2782091412
I0313 22:58:17.138252 23048 layer_factory.hpp:77] Creating layer res5a_branch2c
I0313 22:58:17.138259 23048 net.cpp:100] Creating Layer res5a_branch2c
I0313 22:58:17.138262 23048 net.cpp:444] res5a_branch2c <- res5a_branch2b
I0313 22:58:17.138267 23048 net.cpp:418] res5a_branch2c -> res5a_branch2c
I0313 22:58:17.140898 23048 net.cpp:150] Setting up res5a_branch2c
I0313 22:58:17.140944 23048 net.cpp:157] Top shape: 1 2048 38 63 (4902912)
I0313 22:58:17.140947 23048 net.cpp:165] Memory required for data: 2801703060
I0313 22:58:17.140961 23048 layer_factory.hpp:77] Creating layer bn5a_branch2c
I0313 22:58:17.140975 23048 net.cpp:100] Creating Layer bn5a_branch2c
I0313 22:58:17.140982 23048 net.cpp:444] bn5a_branch2c <- res5a_branch2c
I0313 22:58:17.140988 23048 net.cpp:405] bn5a_branch2c -> res5a_branch2c (in-place)
I0313 22:58:17.141242 23048 net.cpp:150] Setting up bn5a_branch2c
I0313 22:58:17.141248 23048 net.cpp:157] Top shape: 1 2048 38 63 (4902912)
I0313 22:58:17.141252 23048 net.cpp:165] Memory required for data: 2821314708
I0313 22:58:17.141258 23048 layer_factory.hpp:77] Creating layer scale5a_branch2c
I0313 22:58:17.141263 23048 net.cpp:100] Creating Layer scale5a_branch2c
I0313 22:58:17.141266 23048 net.cpp:444] scale5a_branch2c <- res5a_branch2c
I0313 22:58:17.141270 23048 net.cpp:405] scale5a_branch2c -> res5a_branch2c (in-place)
I0313 22:58:17.141310 23048 layer_factory.hpp:77] Creating layer scale5a_branch2c
I0313 22:58:17.141413 23048 net.cpp:150] Setting up scale5a_branch2c
I0313 22:58:17.141418 23048 net.cpp:157] Top shape: 1 2048 38 63 (4902912)
I0313 22:58:17.141422 23048 net.cpp:165] Memory required for data: 2840926356
I0313 22:58:17.141424 23048 layer_factory.hpp:77] Creating layer res5a
I0313 22:58:17.141429 23048 net.cpp:100] Creating Layer res5a
I0313 22:58:17.141433 23048 net.cpp:444] res5a <- res5a_branch1
I0313 22:58:17.141435 23048 net.cpp:444] res5a <- res5a_branch2c
I0313 22:58:17.141440 23048 net.cpp:418] res5a -> res5a
I0313 22:58:17.141458 23048 net.cpp:150] Setting up res5a
I0313 22:58:17.141463 23048 net.cpp:157] Top shape: 1 2048 38 63 (4902912)
I0313 22:58:17.141465 23048 net.cpp:165] Memory required for data: 2860538004
I0313 22:58:17.141468 23048 layer_factory.hpp:77] Creating layer res5a_relu
I0313 22:58:17.141472 23048 net.cpp:100] Creating Layer res5a_relu
I0313 22:58:17.141474 23048 net.cpp:444] res5a_relu <- res5a
I0313 22:58:17.141479 23048 net.cpp:405] res5a_relu -> res5a (in-place)
I0313 22:58:17.141484 23048 net.cpp:150] Setting up res5a_relu
I0313 22:58:17.141486 23048 net.cpp:157] Top shape: 1 2048 38 63 (4902912)
I0313 22:58:17.141489 23048 net.cpp:165] Memory required for data: 2880149652
I0313 22:58:17.141491 23048 layer_factory.hpp:77] Creating layer res5a_res5a_relu_0_split
I0313 22:58:17.141495 23048 net.cpp:100] Creating Layer res5a_res5a_relu_0_split
I0313 22:58:17.141499 23048 net.cpp:444] res5a_res5a_relu_0_split <- res5a
I0313 22:58:17.141501 23048 net.cpp:418] res5a_res5a_relu_0_split -> res5a_res5a_relu_0_split_0
I0313 22:58:17.141506 23048 net.cpp:418] res5a_res5a_relu_0_split -> res5a_res5a_relu_0_split_1
I0313 22:58:17.141533 23048 net.cpp:150] Setting up res5a_res5a_relu_0_split
I0313 22:58:17.141538 23048 net.cpp:157] Top shape: 1 2048 38 63 (4902912)
I0313 22:58:17.141541 23048 net.cpp:157] Top shape: 1 2048 38 63 (4902912)
I0313 22:58:17.141544 23048 net.cpp:165] Memory required for data: 2919372948
I0313 22:58:17.141546 23048 layer_factory.hpp:77] Creating layer res5b_branch2a
I0313 22:58:17.141556 23048 net.cpp:100] Creating Layer res5b_branch2a
I0313 22:58:17.141559 23048 net.cpp:444] res5b_branch2a <- res5a_res5a_relu_0_split_0
I0313 22:58:17.141564 23048 net.cpp:418] res5b_branch2a -> res5b_branch2a
I0313 22:58:17.143425 23048 net.cpp:150] Setting up res5b_branch2a
I0313 22:58:17.143450 23048 net.cpp:157] Top shape: 1 512 38 63 (1225728)
I0313 22:58:17.143452 23048 net.cpp:165] Memory required for data: 2924275860
I0313 22:58:17.143460 23048 layer_factory.hpp:77] Creating layer bn5b_branch2a
I0313 22:58:17.143466 23048 net.cpp:100] Creating Layer bn5b_branch2a
I0313 22:58:17.143471 23048 net.cpp:444] bn5b_branch2a <- res5b_branch2a
I0313 22:58:17.143478 23048 net.cpp:405] bn5b_branch2a -> res5b_branch2a (in-place)
I0313 22:58:17.143667 23048 net.cpp:150] Setting up bn5b_branch2a
I0313 22:58:17.143672 23048 net.cpp:157] Top shape: 1 512 38 63 (1225728)
I0313 22:58:17.143674 23048 net.cpp:165] Memory required for data: 2929178772
I0313 22:58:17.143679 23048 layer_factory.hpp:77] Creating layer scale5b_branch2a
I0313 22:58:17.143687 23048 net.cpp:100] Creating Layer scale5b_branch2a
I0313 22:58:17.143688 23048 net.cpp:444] scale5b_branch2a <- res5b_branch2a
I0313 22:58:17.143692 23048 net.cpp:405] scale5b_branch2a -> res5b_branch2a (in-place)
I0313 22:58:17.143728 23048 layer_factory.hpp:77] Creating layer scale5b_branch2a
I0313 22:58:17.143829 23048 net.cpp:150] Setting up scale5b_branch2a
I0313 22:58:17.143836 23048 net.cpp:157] Top shape: 1 512 38 63 (1225728)
I0313 22:58:17.143838 23048 net.cpp:165] Memory required for data: 2934081684
I0313 22:58:17.143841 23048 layer_factory.hpp:77] Creating layer res5b_branch2a_relu
I0313 22:58:17.143847 23048 net.cpp:100] Creating Layer res5b_branch2a_relu
I0313 22:58:17.143851 23048 net.cpp:444] res5b_branch2a_relu <- res5b_branch2a
I0313 22:58:17.143854 23048 net.cpp:405] res5b_branch2a_relu -> res5b_branch2a (in-place)
I0313 22:58:17.143859 23048 net.cpp:150] Setting up res5b_branch2a_relu
I0313 22:58:17.143862 23048 net.cpp:157] Top shape: 1 512 38 63 (1225728)
I0313 22:58:17.143864 23048 net.cpp:165] Memory required for data: 2938984596
I0313 22:58:17.143867 23048 layer_factory.hpp:77] Creating layer res5b_branch2a_res5b_branch2a_relu_0_split
I0313 22:58:17.143870 23048 net.cpp:100] Creating Layer res5b_branch2a_res5b_branch2a_relu_0_split
I0313 22:58:17.143873 23048 net.cpp:444] res5b_branch2a_res5b_branch2a_relu_0_split <- res5b_branch2a
I0313 22:58:17.143878 23048 net.cpp:418] res5b_branch2a_res5b_branch2a_relu_0_split -> res5b_branch2a_res5b_branch2a_relu_0_split_0
I0313 22:58:17.143884 23048 net.cpp:418] res5b_branch2a_res5b_branch2a_relu_0_split -> res5b_branch2a_res5b_branch2a_relu_0_split_1
I0313 22:58:17.143913 23048 net.cpp:150] Setting up res5b_branch2a_res5b_branch2a_relu_0_split
I0313 22:58:17.143918 23048 net.cpp:157] Top shape: 1 512 38 63 (1225728)
I0313 22:58:17.143921 23048 net.cpp:157] Top shape: 1 512 38 63 (1225728)
I0313 22:58:17.143923 23048 net.cpp:165] Memory required for data: 2948790420
I0313 22:58:17.143925 23048 layer_factory.hpp:77] Creating layer res5b_branch2b_offset
I0313 22:58:17.143935 23048 net.cpp:100] Creating Layer res5b_branch2b_offset
I0313 22:58:17.143937 23048 net.cpp:444] res5b_branch2b_offset <- res5b_branch2a_res5b_branch2a_relu_0_split_0
I0313 22:58:17.143944 23048 net.cpp:418] res5b_branch2b_offset -> res5b_branch2b_offset
I0313 22:58:17.145179 23048 net.cpp:150] Setting up res5b_branch2b_offset
I0313 22:58:17.145215 23048 net.cpp:157] Top shape: 1 72 38 63 (172368)
I0313 22:58:17.145218 23048 net.cpp:165] Memory required for data: 2949479892
I0313 22:58:17.145227 23048 layer_factory.hpp:77] Creating layer res5b_branch2b
I0313 22:58:17.145256 23048 net.cpp:100] Creating Layer res5b_branch2b
I0313 22:58:17.145262 23048 net.cpp:444] res5b_branch2b <- res5b_branch2a_res5b_branch2a_relu_0_split_1
I0313 22:58:17.145267 23048 net.cpp:444] res5b_branch2b <- res5b_branch2b_offset
I0313 22:58:17.145272 23048 net.cpp:418] res5b_branch2b -> res5b_branch2b
I0313 22:58:17.152552 23048 net.cpp:150] Setting up res5b_branch2b
I0313 22:58:17.152617 23048 net.cpp:157] Top shape: 1 512 38 63 (1225728)
I0313 22:58:17.152621 23048 net.cpp:165] Memory required for data: 2954382804
I0313 22:58:17.152628 23048 layer_factory.hpp:77] Creating layer bn5b_branch2b
I0313 22:58:17.152639 23048 net.cpp:100] Creating Layer bn5b_branch2b
I0313 22:58:17.152647 23048 net.cpp:444] bn5b_branch2b <- res5b_branch2b
I0313 22:58:17.152654 23048 net.cpp:405] bn5b_branch2b -> res5b_branch2b (in-place)
I0313 22:58:17.152874 23048 net.cpp:150] Setting up bn5b_branch2b
I0313 22:58:17.152880 23048 net.cpp:157] Top shape: 1 512 38 63 (1225728)
I0313 22:58:17.152884 23048 net.cpp:165] Memory required for data: 2959285716
I0313 22:58:17.152889 23048 layer_factory.hpp:77] Creating layer scale5b_branch2b
I0313 22:58:17.152900 23048 net.cpp:100] Creating Layer scale5b_branch2b
I0313 22:58:17.152904 23048 net.cpp:444] scale5b_branch2b <- res5b_branch2b
I0313 22:58:17.152907 23048 net.cpp:405] scale5b_branch2b -> res5b_branch2b (in-place)
I0313 22:58:17.152945 23048 layer_factory.hpp:77] Creating layer scale5b_branch2b
I0313 22:58:17.153055 23048 net.cpp:150] Setting up scale5b_branch2b
I0313 22:58:17.153062 23048 net.cpp:157] Top shape: 1 512 38 63 (1225728)
I0313 22:58:17.153065 23048 net.cpp:165] Memory required for data: 2964188628
I0313 22:58:17.153069 23048 layer_factory.hpp:77] Creating layer res5b_branch2b_relu
I0313 22:58:17.153074 23048 net.cpp:100] Creating Layer res5b_branch2b_relu
I0313 22:58:17.153087 23048 net.cpp:444] res5b_branch2b_relu <- res5b_branch2b
I0313 22:58:17.153092 23048 net.cpp:405] res5b_branch2b_relu -> res5b_branch2b (in-place)
I0313 22:58:17.153098 23048 net.cpp:150] Setting up res5b_branch2b_relu
I0313 22:58:17.153105 23048 net.cpp:157] Top shape: 1 512 38 63 (1225728)
I0313 22:58:17.153113 23048 net.cpp:165] Memory required for data: 2969091540
I0313 22:58:17.153120 23048 layer_factory.hpp:77] Creating layer res5b_branch2c
I0313 22:58:17.153132 23048 net.cpp:100] Creating Layer res5b_branch2c
I0313 22:58:17.153137 23048 net.cpp:444] res5b_branch2c <- res5b_branch2b
I0313 22:58:17.153141 23048 net.cpp:418] res5b_branch2c -> res5b_branch2c
I0313 22:58:17.155584 23048 net.cpp:150] Setting up res5b_branch2c
I0313 22:58:17.155627 23048 net.cpp:157] Top shape: 1 2048 38 63 (4902912)
I0313 22:58:17.155629 23048 net.cpp:165] Memory required for data: 2988703188
I0313 22:58:17.155640 23048 layer_factory.hpp:77] Creating layer bn5b_branch2c
I0313 22:58:17.155655 23048 net.cpp:100] Creating Layer bn5b_branch2c
I0313 22:58:17.155664 23048 net.cpp:444] bn5b_branch2c <- res5b_branch2c
I0313 22:58:17.155671 23048 net.cpp:405] bn5b_branch2c -> res5b_branch2c (in-place)
I0313 22:58:17.155900 23048 net.cpp:150] Setting up bn5b_branch2c
I0313 22:58:17.155908 23048 net.cpp:157] Top shape: 1 2048 38 63 (4902912)
I0313 22:58:17.155911 23048 net.cpp:165] Memory required for data: 3008314836
I0313 22:58:17.155917 23048 layer_factory.hpp:77] Creating layer scale5b_branch2c
I0313 22:58:17.155926 23048 net.cpp:100] Creating Layer scale5b_branch2c
I0313 22:58:17.155930 23048 net.cpp:444] scale5b_branch2c <- res5b_branch2c
I0313 22:58:17.155935 23048 net.cpp:405] scale5b_branch2c -> res5b_branch2c (in-place)
I0313 22:58:17.155977 23048 layer_factory.hpp:77] Creating layer scale5b_branch2c
I0313 22:58:17.156083 23048 net.cpp:150] Setting up scale5b_branch2c
I0313 22:58:17.156090 23048 net.cpp:157] Top shape: 1 2048 38 63 (4902912)
I0313 22:58:17.156092 23048 net.cpp:165] Memory required for data: 3027926484
I0313 22:58:17.156096 23048 layer_factory.hpp:77] Creating layer res5b
I0313 22:58:17.156103 23048 net.cpp:100] Creating Layer res5b
I0313 22:58:17.156107 23048 net.cpp:444] res5b <- res5a_res5a_relu_0_split_1
I0313 22:58:17.156111 23048 net.cpp:444] res5b <- res5b_branch2c
I0313 22:58:17.156116 23048 net.cpp:418] res5b -> res5b
I0313 22:58:17.156138 23048 net.cpp:150] Setting up res5b
I0313 22:58:17.156143 23048 net.cpp:157] Top shape: 1 2048 38 63 (4902912)
I0313 22:58:17.156147 23048 net.cpp:165] Memory required for data: 3047538132
I0313 22:58:17.156149 23048 layer_factory.hpp:77] Creating layer res5b_relu
I0313 22:58:17.156154 23048 net.cpp:100] Creating Layer res5b_relu
I0313 22:58:17.156157 23048 net.cpp:444] res5b_relu <- res5b
I0313 22:58:17.156162 23048 net.cpp:405] res5b_relu -> res5b (in-place)
I0313 22:58:17.156167 23048 net.cpp:150] Setting up res5b_relu
I0313 22:58:17.156172 23048 net.cpp:157] Top shape: 1 2048 38 63 (4902912)
I0313 22:58:17.156173 23048 net.cpp:165] Memory required for data: 3067149780
I0313 22:58:17.156177 23048 layer_factory.hpp:77] Creating layer res5b_res5b_relu_0_split
I0313 22:58:17.156181 23048 net.cpp:100] Creating Layer res5b_res5b_relu_0_split
I0313 22:58:17.156183 23048 net.cpp:444] res5b_res5b_relu_0_split <- res5b
I0313 22:58:17.156188 23048 net.cpp:418] res5b_res5b_relu_0_split -> res5b_res5b_relu_0_split_0
I0313 22:58:17.156193 23048 net.cpp:418] res5b_res5b_relu_0_split -> res5b_res5b_relu_0_split_1
I0313 22:58:17.156222 23048 net.cpp:150] Setting up res5b_res5b_relu_0_split
I0313 22:58:17.156227 23048 net.cpp:157] Top shape: 1 2048 38 63 (4902912)
I0313 22:58:17.156231 23048 net.cpp:157] Top shape: 1 2048 38 63 (4902912)
I0313 22:58:17.156234 23048 net.cpp:165] Memory required for data: 3106373076
I0313 22:58:17.156236 23048 layer_factory.hpp:77] Creating layer res5c_branch2a
I0313 22:58:17.156246 23048 net.cpp:100] Creating Layer res5c_branch2a
I0313 22:58:17.156250 23048 net.cpp:444] res5c_branch2a <- res5b_res5b_relu_0_split_0
I0313 22:58:17.156255 23048 net.cpp:418] res5c_branch2a -> res5c_branch2a
I0313 22:58:17.159746 23048 net.cpp:150] Setting up res5c_branch2a
I0313 22:58:17.159770 23048 net.cpp:157] Top shape: 1 512 38 63 (1225728)
I0313 22:58:17.159772 23048 net.cpp:165] Memory required for data: 3111275988
I0313 22:58:17.159780 23048 layer_factory.hpp:77] Creating layer bn5c_branch2a
I0313 22:58:17.159790 23048 net.cpp:100] Creating Layer bn5c_branch2a
I0313 22:58:17.159795 23048 net.cpp:444] bn5c_branch2a <- res5c_branch2a
I0313 22:58:17.159802 23048 net.cpp:405] bn5c_branch2a -> res5c_branch2a (in-place)
I0313 22:58:17.159996 23048 net.cpp:150] Setting up bn5c_branch2a
I0313 22:58:17.160002 23048 net.cpp:157] Top shape: 1 512 38 63 (1225728)
I0313 22:58:17.160006 23048 net.cpp:165] Memory required for data: 3116178900
I0313 22:58:17.160012 23048 layer_factory.hpp:77] Creating layer scale5c_branch2a
I0313 22:58:17.160017 23048 net.cpp:100] Creating Layer scale5c_branch2a
I0313 22:58:17.160019 23048 net.cpp:444] scale5c_branch2a <- res5c_branch2a
I0313 22:58:17.160024 23048 net.cpp:405] scale5c_branch2a -> res5c_branch2a (in-place)
I0313 22:58:17.160056 23048 layer_factory.hpp:77] Creating layer scale5c_branch2a
I0313 22:58:17.160166 23048 net.cpp:150] Setting up scale5c_branch2a
I0313 22:58:17.160173 23048 net.cpp:157] Top shape: 1 512 38 63 (1225728)
I0313 22:58:17.160176 23048 net.cpp:165] Memory required for data: 3121081812
I0313 22:58:17.160181 23048 layer_factory.hpp:77] Creating layer res5c_branch2a_relu
I0313 22:58:17.160185 23048 net.cpp:100] Creating Layer res5c_branch2a_relu
I0313 22:58:17.160188 23048 net.cpp:444] res5c_branch2a_relu <- res5c_branch2a
I0313 22:58:17.160192 23048 net.cpp:405] res5c_branch2a_relu -> res5c_branch2a (in-place)
I0313 22:58:17.160197 23048 net.cpp:150] Setting up res5c_branch2a_relu
I0313 22:58:17.160200 23048 net.cpp:157] Top shape: 1 512 38 63 (1225728)
I0313 22:58:17.160202 23048 net.cpp:165] Memory required for data: 3125984724
I0313 22:58:17.160205 23048 layer_factory.hpp:77] Creating layer res5c_branch2a_res5c_branch2a_relu_0_split
I0313 22:58:17.160212 23048 net.cpp:100] Creating Layer res5c_branch2a_res5c_branch2a_relu_0_split
I0313 22:58:17.160213 23048 net.cpp:444] res5c_branch2a_res5c_branch2a_relu_0_split <- res5c_branch2a
I0313 22:58:17.160218 23048 net.cpp:418] res5c_branch2a_res5c_branch2a_relu_0_split -> res5c_branch2a_res5c_branch2a_relu_0_split_0
I0313 22:58:17.160223 23048 net.cpp:418] res5c_branch2a_res5c_branch2a_relu_0_split -> res5c_branch2a_res5c_branch2a_relu_0_split_1
I0313 22:58:17.160259 23048 net.cpp:150] Setting up res5c_branch2a_res5c_branch2a_relu_0_split
I0313 22:58:17.160264 23048 net.cpp:157] Top shape: 1 512 38 63 (1225728)
I0313 22:58:17.160267 23048 net.cpp:157] Top shape: 1 512 38 63 (1225728)
I0313 22:58:17.160269 23048 net.cpp:165] Memory required for data: 3135790548
I0313 22:58:17.160272 23048 layer_factory.hpp:77] Creating layer res5c_branch2b_offset
I0313 22:58:17.160280 23048 net.cpp:100] Creating Layer res5c_branch2b_offset
I0313 22:58:17.160284 23048 net.cpp:444] res5c_branch2b_offset <- res5c_branch2a_res5c_branch2a_relu_0_split_0
I0313 22:58:17.160290 23048 net.cpp:418] res5c_branch2b_offset -> res5c_branch2b_offset
I0313 22:58:17.161595 23048 net.cpp:150] Setting up res5c_branch2b_offset
I0313 22:58:17.161607 23048 net.cpp:157] Top shape: 1 72 38 63 (172368)
I0313 22:58:17.161610 23048 net.cpp:165] Memory required for data: 3136480020
I0313 22:58:17.161615 23048 layer_factory.hpp:77] Creating layer res5c_branch2b
I0313 22:58:17.161624 23048 net.cpp:100] Creating Layer res5c_branch2b
I0313 22:58:17.161628 23048 net.cpp:444] res5c_branch2b <- res5c_branch2a_res5c_branch2a_relu_0_split_1
I0313 22:58:17.161633 23048 net.cpp:444] res5c_branch2b <- res5c_branch2b_offset
I0313 22:58:17.161638 23048 net.cpp:418] res5c_branch2b -> res5c_branch2b
I0313 22:58:17.166656 23048 net.cpp:150] Setting up res5c_branch2b
I0313 22:58:17.166682 23048 net.cpp:157] Top shape: 1 512 38 63 (1225728)
I0313 22:58:17.166687 23048 net.cpp:165] Memory required for data: 3141382932
I0313 22:58:17.166693 23048 layer_factory.hpp:77] Creating layer bn5c_branch2b
I0313 22:58:17.166703 23048 net.cpp:100] Creating Layer bn5c_branch2b
I0313 22:58:17.166709 23048 net.cpp:444] bn5c_branch2b <- res5c_branch2b
I0313 22:58:17.166716 23048 net.cpp:405] bn5c_branch2b -> res5c_branch2b (in-place)
I0313 22:58:17.166909 23048 net.cpp:150] Setting up bn5c_branch2b
I0313 22:58:17.166916 23048 net.cpp:157] Top shape: 1 512 38 63 (1225728)
I0313 22:58:17.166919 23048 net.cpp:165] Memory required for data: 3146285844
I0313 22:58:17.166924 23048 layer_factory.hpp:77] Creating layer scale5c_branch2b
I0313 22:58:17.166931 23048 net.cpp:100] Creating Layer scale5c_branch2b
I0313 22:58:17.166934 23048 net.cpp:444] scale5c_branch2b <- res5c_branch2b
I0313 22:58:17.166939 23048 net.cpp:405] scale5c_branch2b -> res5c_branch2b (in-place)
I0313 22:58:17.166971 23048 layer_factory.hpp:77] Creating layer scale5c_branch2b
I0313 22:58:17.167080 23048 net.cpp:150] Setting up scale5c_branch2b
I0313 22:58:17.167086 23048 net.cpp:157] Top shape: 1 512 38 63 (1225728)
I0313 22:58:17.167089 23048 net.cpp:165] Memory required for data: 3151188756
I0313 22:58:17.167093 23048 layer_factory.hpp:77] Creating layer res5c_branch2b_relu
I0313 22:58:17.167099 23048 net.cpp:100] Creating Layer res5c_branch2b_relu
I0313 22:58:17.167102 23048 net.cpp:444] res5c_branch2b_relu <- res5c_branch2b
I0313 22:58:17.167106 23048 net.cpp:405] res5c_branch2b_relu -> res5c_branch2b (in-place)
I0313 22:58:17.167111 23048 net.cpp:150] Setting up res5c_branch2b_relu
I0313 22:58:17.167114 23048 net.cpp:157] Top shape: 1 512 38 63 (1225728)
I0313 22:58:17.167117 23048 net.cpp:165] Memory required for data: 3156091668
I0313 22:58:17.167119 23048 layer_factory.hpp:77] Creating layer res5c_branch2c
I0313 22:58:17.167127 23048 net.cpp:100] Creating Layer res5c_branch2c
I0313 22:58:17.167130 23048 net.cpp:444] res5c_branch2c <- res5c_branch2b
I0313 22:58:17.167136 23048 net.cpp:418] res5c_branch2c -> res5c_branch2c
I0313 22:58:17.169283 23048 net.cpp:150] Setting up res5c_branch2c
I0313 22:58:17.169301 23048 net.cpp:157] Top shape: 1 2048 38 63 (4902912)
I0313 22:58:17.169304 23048 net.cpp:165] Memory required for data: 3175703316
I0313 22:58:17.169311 23048 layer_factory.hpp:77] Creating layer bn5c_branch2c
I0313 22:58:17.169318 23048 net.cpp:100] Creating Layer bn5c_branch2c
I0313 22:58:17.169322 23048 net.cpp:444] bn5c_branch2c <- res5c_branch2c
I0313 22:58:17.169328 23048 net.cpp:405] bn5c_branch2c -> res5c_branch2c (in-place)
I0313 22:58:17.169513 23048 net.cpp:150] Setting up bn5c_branch2c
I0313 22:58:17.169520 23048 net.cpp:157] Top shape: 1 2048 38 63 (4902912)
I0313 22:58:17.169523 23048 net.cpp:165] Memory required for data: 3195314964
I0313 22:58:17.169528 23048 layer_factory.hpp:77] Creating layer scale5c_branch2c
I0313 22:58:17.169534 23048 net.cpp:100] Creating Layer scale5c_branch2c
I0313 22:58:17.169538 23048 net.cpp:444] scale5c_branch2c <- res5c_branch2c
I0313 22:58:17.169540 23048 net.cpp:405] scale5c_branch2c -> res5c_branch2c (in-place)
I0313 22:58:17.169579 23048 layer_factory.hpp:77] Creating layer scale5c_branch2c
I0313 22:58:17.169678 23048 net.cpp:150] Setting up scale5c_branch2c
I0313 22:58:17.169683 23048 net.cpp:157] Top shape: 1 2048 38 63 (4902912)
I0313 22:58:17.169687 23048 net.cpp:165] Memory required for data: 3214926612
I0313 22:58:17.169690 23048 layer_factory.hpp:77] Creating layer res5c
I0313 22:58:17.169695 23048 net.cpp:100] Creating Layer res5c
I0313 22:58:17.169698 23048 net.cpp:444] res5c <- res5b_res5b_relu_0_split_1
I0313 22:58:17.169701 23048 net.cpp:444] res5c <- res5c_branch2c
I0313 22:58:17.169708 23048 net.cpp:418] res5c -> res5c
I0313 22:58:17.169726 23048 net.cpp:150] Setting up res5c
I0313 22:58:17.169730 23048 net.cpp:157] Top shape: 1 2048 38 63 (4902912)
I0313 22:58:17.169733 23048 net.cpp:165] Memory required for data: 3234538260
I0313 22:58:17.169735 23048 layer_factory.hpp:77] Creating layer res5c_relu
I0313 22:58:17.169741 23048 net.cpp:100] Creating Layer res5c_relu
I0313 22:58:17.169745 23048 net.cpp:444] res5c_relu <- res5c
I0313 22:58:17.169749 23048 net.cpp:405] res5c_relu -> res5c (in-place)
I0313 22:58:17.169754 23048 net.cpp:150] Setting up res5c_relu
I0313 22:58:17.169756 23048 net.cpp:157] Top shape: 1 2048 38 63 (4902912)
I0313 22:58:17.169759 23048 net.cpp:165] Memory required for data: 3254149908
I0313 22:58:17.169761 23048 layer_factory.hpp:77] Creating layer rpn_conv/3x3
I0313 22:58:17.169769 23048 net.cpp:100] Creating Layer rpn_conv/3x3
I0313 22:58:17.169772 23048 net.cpp:444] rpn_conv/3x3 <- res4f_res4f_relu_0_split_2
I0313 22:58:17.169778 23048 net.cpp:418] rpn_conv/3x3 -> rpn/output
I0313 22:58:17.213259 23048 net.cpp:150] Setting up rpn_conv/3x3
I0313 22:58:17.213301 23048 net.cpp:157] Top shape: 1 512 38 63 (1225728)
I0313 22:58:17.213304 23048 net.cpp:165] Memory required for data: 3259052820
I0313 22:58:17.213317 23048 layer_factory.hpp:77] Creating layer rpn_relu/3x3
I0313 22:58:17.213346 23048 net.cpp:100] Creating Layer rpn_relu/3x3
I0313 22:58:17.213351 23048 net.cpp:444] rpn_relu/3x3 <- rpn/output
I0313 22:58:17.213357 23048 net.cpp:405] rpn_relu/3x3 -> rpn/output (in-place)
I0313 22:58:17.213366 23048 net.cpp:150] Setting up rpn_relu/3x3
I0313 22:58:17.213371 23048 net.cpp:157] Top shape: 1 512 38 63 (1225728)
I0313 22:58:17.213372 23048 net.cpp:165] Memory required for data: 3263955732
I0313 22:58:17.213376 23048 layer_factory.hpp:77] Creating layer rpn/output_rpn_relu/3x3_0_split
I0313 22:58:17.213380 23048 net.cpp:100] Creating Layer rpn/output_rpn_relu/3x3_0_split
I0313 22:58:17.213382 23048 net.cpp:444] rpn/output_rpn_relu/3x3_0_split <- rpn/output
I0313 22:58:17.213387 23048 net.cpp:418] rpn/output_rpn_relu/3x3_0_split -> rpn/output_rpn_relu/3x3_0_split_0
I0313 22:58:17.213408 23048 net.cpp:418] rpn/output_rpn_relu/3x3_0_split -> rpn/output_rpn_relu/3x3_0_split_1
I0313 22:58:17.213445 23048 net.cpp:150] Setting up rpn/output_rpn_relu/3x3_0_split
I0313 22:58:17.213450 23048 net.cpp:157] Top shape: 1 512 38 63 (1225728)
I0313 22:58:17.213454 23048 net.cpp:157] Top shape: 1 512 38 63 (1225728)
I0313 22:58:17.213455 23048 net.cpp:165] Memory required for data: 3273761556
I0313 22:58:17.213459 23048 layer_factory.hpp:77] Creating layer rpn_cls_score
I0313 22:58:17.213467 23048 net.cpp:100] Creating Layer rpn_cls_score
I0313 22:58:17.213470 23048 net.cpp:444] rpn_cls_score <- rpn/output_rpn_relu/3x3_0_split_0
I0313 22:58:17.213476 23048 net.cpp:418] rpn_cls_score -> rpn_cls_score
I0313 22:58:17.213836 23048 net.cpp:150] Setting up rpn_cls_score
I0313 22:58:17.213843 23048 net.cpp:157] Top shape: 1 32 38 63 (76608)
I0313 22:58:17.213845 23048 net.cpp:165] Memory required for data: 3274067988
I0313 22:58:17.213850 23048 layer_factory.hpp:77] Creating layer rpn_cls_score_rpn_cls_score_0_split
I0313 22:58:17.213856 23048 net.cpp:100] Creating Layer rpn_cls_score_rpn_cls_score_0_split
I0313 22:58:17.213862 23048 net.cpp:444] rpn_cls_score_rpn_cls_score_0_split <- rpn_cls_score
I0313 22:58:17.213866 23048 net.cpp:418] rpn_cls_score_rpn_cls_score_0_split -> rpn_cls_score_rpn_cls_score_0_split_0
I0313 22:58:17.213871 23048 net.cpp:418] rpn_cls_score_rpn_cls_score_0_split -> rpn_cls_score_rpn_cls_score_0_split_1
I0313 22:58:17.213901 23048 net.cpp:150] Setting up rpn_cls_score_rpn_cls_score_0_split
I0313 22:58:17.213904 23048 net.cpp:157] Top shape: 1 32 38 63 (76608)
I0313 22:58:17.213907 23048 net.cpp:157] Top shape: 1 32 38 63 (76608)
I0313 22:58:17.213910 23048 net.cpp:165] Memory required for data: 3274680852
I0313 22:58:17.213912 23048 layer_factory.hpp:77] Creating layer rpn_bbox_pred
I0313 22:58:17.213932 23048 net.cpp:100] Creating Layer rpn_bbox_pred
I0313 22:58:17.213937 23048 net.cpp:444] rpn_bbox_pred <- rpn/output_rpn_relu/3x3_0_split_1
I0313 22:58:17.213941 23048 net.cpp:418] rpn_bbox_pred -> rpn_bbox_pred
I0313 22:58:17.214524 23048 net.cpp:150] Setting up rpn_bbox_pred
I0313 22:58:17.214542 23048 net.cpp:157] Top shape: 1 64 38 63 (153216)
I0313 22:58:17.214545 23048 net.cpp:165] Memory required for data: 3275293716
I0313 22:58:17.214551 23048 layer_factory.hpp:77] Creating layer rpn_bbox_pred_rpn_bbox_pred_0_split
I0313 22:58:17.214558 23048 net.cpp:100] Creating Layer rpn_bbox_pred_rpn_bbox_pred_0_split
I0313 22:58:17.214561 23048 net.cpp:444] rpn_bbox_pred_rpn_bbox_pred_0_split <- rpn_bbox_pred
I0313 22:58:17.214567 23048 net.cpp:418] rpn_bbox_pred_rpn_bbox_pred_0_split -> rpn_bbox_pred_rpn_bbox_pred_0_split_0
I0313 22:58:17.214578 23048 net.cpp:418] rpn_bbox_pred_rpn_bbox_pred_0_split -> rpn_bbox_pred_rpn_bbox_pred_0_split_1
I0313 22:58:17.214608 23048 net.cpp:150] Setting up rpn_bbox_pred_rpn_bbox_pred_0_split
I0313 22:58:17.214614 23048 net.cpp:157] Top shape: 1 64 38 63 (153216)
I0313 22:58:17.214617 23048 net.cpp:157] Top shape: 1 64 38 63 (153216)
I0313 22:58:17.214619 23048 net.cpp:165] Memory required for data: 3276519444
I0313 22:58:17.214622 23048 layer_factory.hpp:77] Creating layer rpn_cls_score_reshape
I0313 22:58:17.214628 23048 net.cpp:100] Creating Layer rpn_cls_score_reshape
I0313 22:58:17.214632 23048 net.cpp:444] rpn_cls_score_reshape <- rpn_cls_score_rpn_cls_score_0_split_0
I0313 22:58:17.214637 23048 net.cpp:418] rpn_cls_score_reshape -> rpn_cls_score_reshape
I0313 22:58:17.214659 23048 net.cpp:150] Setting up rpn_cls_score_reshape
I0313 22:58:17.214664 23048 net.cpp:157] Top shape: 1 2 608 63 (76608)
I0313 22:58:17.214668 23048 net.cpp:165] Memory required for data: 3276825876
I0313 22:58:17.214669 23048 layer_factory.hpp:77] Creating layer rpn_cls_score_reshape_rpn_cls_score_reshape_0_split
I0313 22:58:17.214674 23048 net.cpp:100] Creating Layer rpn_cls_score_reshape_rpn_cls_score_reshape_0_split
I0313 22:58:17.214679 23048 net.cpp:444] rpn_cls_score_reshape_rpn_cls_score_reshape_0_split <- rpn_cls_score_reshape
I0313 22:58:17.214684 23048 net.cpp:418] rpn_cls_score_reshape_rpn_cls_score_reshape_0_split -> rpn_cls_score_reshape_rpn_cls_score_reshape_0_split_0
I0313 22:58:17.214690 23048 net.cpp:418] rpn_cls_score_reshape_rpn_cls_score_reshape_0_split -> rpn_cls_score_reshape_rpn_cls_score_reshape_0_split_1
I0313 22:58:17.214718 23048 net.cpp:150] Setting up rpn_cls_score_reshape_rpn_cls_score_reshape_0_split
I0313 22:58:17.214723 23048 net.cpp:157] Top shape: 1 2 608 63 (76608)
I0313 22:58:17.214727 23048 net.cpp:157] Top shape: 1 2 608 63 (76608)
I0313 22:58:17.214730 23048 net.cpp:165] Memory required for data: 3277438740
I0313 22:58:17.214731 23048 layer_factory.hpp:77] Creating layer rpn-data
I0313 22:58:17.215840 23048 net.cpp:100] Creating Layer rpn-data
I0313 22:58:17.215852 23048 net.cpp:444] rpn-data <- rpn_cls_score_rpn_cls_score_0_split_1
I0313 22:58:17.215873 23048 net.cpp:444] rpn-data <- gt_boxes_input-data_2_split_0
I0313 22:58:17.215876 23048 net.cpp:444] rpn-data <- im_info_input-data_1_split_0
I0313 22:58:17.215880 23048 net.cpp:444] rpn-data <- data_input-data_0_split_1
I0313 22:58:17.215886 23048 net.cpp:418] rpn-data -> rpn_labels
I0313 22:58:17.215893 23048 net.cpp:418] rpn-data -> rpn_bbox_targets
I0313 22:58:17.215899 23048 net.cpp:418] rpn-data -> rpn_bbox_inside_weights
I0313 22:58:17.215904 23048 net.cpp:418] rpn-data -> rpn_bbox_outside_weights
I0313 22:58:17.216543 23048 net.cpp:150] Setting up rpn-data
I0313 22:58:17.216554 23048 net.cpp:157] Top shape: 1 1 608 63 (38304)
I0313 22:58:17.216559 23048 net.cpp:157] Top shape: 1 64 38 63 (153216)
I0313 22:58:17.216562 23048 net.cpp:157] Top shape: 1 64 38 63 (153216)
I0313 22:58:17.216565 23048 net.cpp:157] Top shape: 1 64 38 63 (153216)
I0313 22:58:17.216567 23048 net.cpp:165] Memory required for data: 3279430548
I0313 22:58:17.216585 23048 layer_factory.hpp:77] Creating layer rpn_loss_cls
I0313 22:58:17.216591 23048 net.cpp:100] Creating Layer rpn_loss_cls
I0313 22:58:17.216610 23048 net.cpp:444] rpn_loss_cls <- rpn_cls_score_reshape_rpn_cls_score_reshape_0_split_0
I0313 22:58:17.216614 23048 net.cpp:444] rpn_loss_cls <- rpn_labels
…
I0313 22:58:17.217716 23048 net.cpp:157] Top shape: (1)
I0313 22:58:17.217720 23048 net.cpp:160]     with loss weight 1
I0313 22:58:17.217722 23048 net.cpp:165] Memory required for data: 3279430556
I0313 22:58:17.217725 23048 layer_factory.hpp:77] Creating layer rpn_cls_prob
I0313 22:58:17.217730 23048 net.cpp:100] Creating Layer rpn_cls_prob
I0313 22:58:17.217734 23048 net.cpp:444] rpn_cls_prob <- rpn_cls_score_reshape_rpn_cls_score_reshape_0_split_1
I0313 22:58:17.217739 23048 net.cpp:418] rpn_cls_prob -> rpn_cls_prob
I0313 22:58:17.217803 23048 net.cpp:150] Setting up rpn_cls_prob
I0313 22:58:17.217819 23048 net.cpp:157] Top shape: 1 2 608 63 (76608)
I0313 22:58:17.217823 23048 net.cpp:165] Memory required for data: 3279736988
I0313 22:58:17.217824 23048 layer_factory.hpp:77] Creating layer rpn_cls_prob_reshape
I0313 22:58:17.217830 23048 net.cpp:100] Creating Layer rpn_cls_prob_reshape
I0313 22:58:17.217847 23048 net.cpp:444] rpn_cls_prob_reshape <- rpn_cls_prob
I0313 22:58:17.217851 23048 net.cpp:418] rpn_cls_prob_reshape -> rpn_cls_prob_reshape
I0313 22:58:17.217885 23048 net.cpp:150] Setting up rpn_cls_prob_reshape
I0313 22:58:17.217888 23048 net.cpp:157] Top shape: 1 32 38 63 (76608)
I0313 22:58:17.217890 23048 net.cpp:165] Memory required for data: 3280043420
I0313 22:58:17.217893 23048 layer_factory.hpp:77] Creating layer proposal
I0313 22:58:17.219851 23048 net.cpp:100] Creating Layer proposal
I0313 22:58:17.219861 23048 net.cpp:444] proposal <- rpn_cls_prob_reshape
I0313 22:58:17.219866 23048 net.cpp:444] proposal <- rpn_bbox_pred_rpn_bbox_pred_0_split_1
I0313 22:58:17.219869 23048 net.cpp:444] proposal <- im_info_input-data_1_split_1
I0313 22:58:17.219874 23048 net.cpp:418] proposal -> rpn_rois
I0313 22:58:17.229936 23048 net.cpp:150] Setting up proposal
I0313 22:58:17.229959 23048 net.cpp:157] Top shape: 1 5 (5)
I0313 22:58:17.229962 23048 net.cpp:165] Memory required for data: 3280043440
I0313 22:58:17.229981 23048 layer_factory.hpp:77] Creating layer roi-data
I0313 22:58:17.230582 23048 net.cpp:100] Creating Layer roi-data
I0313 22:58:17.230593 23048 net.cpp:444] roi-data <- rpn_rois
I0313 22:58:17.230600 23048 net.cpp:444] roi-data <- gt_boxes_input-data_2_split_1
I0313 22:58:17.230605 23048 net.cpp:418] roi-data -> rois
I0313 22:58:17.230628 23048 net.cpp:418] roi-data -> labels
I0313 22:58:17.230633 23048 net.cpp:418] roi-data -> bbox_targets
I0313 22:58:17.230638 23048 net.cpp:418] roi-data -> bbox_inside_weights
I0313 22:58:17.230644 23048 net.cpp:418] roi-data -> bbox_outside_weights
I0313 22:58:17.231150 23048 net.cpp:150] Setting up roi-data
I0313 22:58:17.231160 23048 net.cpp:157] Top shape: 1 5 1 1 (5)
I0313 22:58:17.231178 23048 net.cpp:157] Top shape: 1 1 1 1 (1)
I0313 22:58:17.231181 23048 net.cpp:157] Top shape: 1 8 1 1 (8)
I0313 22:58:17.231184 23048 net.cpp:157] Top shape: 1 8 1 1 (8)
I0313 22:58:17.231199 23048 net.cpp:157] Top shape: 1 8 1 1 (8)
I0313 22:58:17.231201 23048 net.cpp:165] Memory required for data: 3280043560
I0313 22:58:17.231205 23048 layer_factory.hpp:77] Creating layer rois_roi-data_0_split
I0313 22:58:17.231209 23048 net.cpp:100] Creating Layer rois_roi-data_0_split
I0313 22:58:17.231212 23048 net.cpp:444] rois_roi-data_0_split <- rois
I0313 22:58:17.231232 23048 net.cpp:418] rois_roi-data_0_split -> rois_roi-data_0_split_0
I0313 22:58:17.231238 23048 net.cpp:418] rois_roi-data_0_split -> rois_roi-data_0_split_1
I0313 22:58:17.231245 23048 net.cpp:418] rois_roi-data_0_split -> rois_roi-data_0_split_2
I0313 22:58:17.231279 23048 net.cpp:150] Setting up rois_roi-data_0_split
I0313 22:58:17.231286 23048 net.cpp:157] Top shape: 1 5 1 1 (5)
I0313 22:58:17.231288 23048 net.cpp:157] Top shape: 1 5 1 1 (5)
I0313 22:58:17.231290 23048 net.cpp:157] Top shape: 1 5 1 1 (5)
I0313 22:58:17.231292 23048 net.cpp:165] Memory required for data: 3280043620
I0313 22:58:17.231295 23048 layer_factory.hpp:77] Creating layer labels_roi-data_1_split
I0313 22:58:17.231298 23048 net.cpp:100] Creating Layer labels_roi-data_1_split
I0313 22:58:17.231302 23048 net.cpp:444] labels_roi-data_1_split <- labels
I0313 22:58:17.231305 23048 net.cpp:418] labels_roi-data_1_split -> labels_roi-data_1_split_0
I0313 22:58:17.231309 23048 net.cpp:418] labels_roi-data_1_split -> labels_roi-data_1_split_1
I0313 22:58:17.231346 23048 net.cpp:150] Setting up labels_roi-data_1_split
I0313 22:58:17.231353 23048 net.cpp:157] Top shape: 1 1 1 1 (1)
I0313 22:58:17.231355 23048 net.cpp:157] Top shape: 1 1 1 1 (1)
I0313 22:58:17.231370 23048 net.cpp:165] Memory required for data: 3280043628
I0313 22:58:17.231374 23048 layer_factory.hpp:77] Creating layer bbox_targets_roi-data_2_split
I0313 22:58:17.231376 23048 net.cpp:100] Creating Layer bbox_targets_roi-data_2_split
I0313 22:58:17.231379 23048 net.cpp:444] bbox_targets_roi-data_2_split <- bbox_targets
I0313 22:58:17.231382 23048 net.cpp:418] bbox_targets_roi-data_2_split -> bbox_targets_roi-data_2_split_0
I0313 22:58:17.231389 23048 net.cpp:418] bbox_targets_roi-data_2_split -> bbox_targets_roi-data_2_split_1
I0313 22:58:17.231412 23048 net.cpp:150] Setting up bbox_targets_roi-data_2_split
I0313 22:58:17.231416 23048 net.cpp:157] Top shape: 1 8 1 1 (8)
I0313 22:58:17.231420 23048 net.cpp:157] Top shape: 1 8 1 1 (8)
I0313 22:58:17.231421 23048 net.cpp:165] Memory required for data: 3280043692
I0313 22:58:17.231423 23048 layer_factory.hpp:77] Creating layer bbox_inside_weights_roi-data_3_split
I0313 22:58:17.231426 23048 net.cpp:100] Creating Layer bbox_inside_weights_roi-data_3_split
I0313 22:58:17.231429 23048 net.cpp:444] bbox_inside_weights_roi-data_3_split <- bbox_inside_weights
I0313 22:58:17.231433 23048 net.cpp:418] bbox_inside_weights_roi-data_3_split -> bbox_inside_weights_roi-data_3_split_0
I0313 22:58:17.231437 23048 net.cpp:418] bbox_inside_weights_roi-data_3_split -> bbox_inside_weights_roi-data_3_split_1
I0313 22:58:17.231475 23048 net.cpp:150] Setting up bbox_inside_weights_roi-data_3_split
I0313 22:58:17.231480 23048 net.cpp:157] Top shape: 1 8 1 1 (8)
I0313 22:58:17.231483 23048 net.cpp:157] Top shape: 1 8 1 1 (8)
I0313 22:58:17.231498 23048 net.cpp:165] Memory required for data: 3280043756
I0313 22:58:17.231500 23048 layer_factory.hpp:77] Creating layer conv_new_1
I0313 22:58:17.231508 23048 net.cpp:100] Creating Layer conv_new_1
I0313 22:58:17.231513 23048 net.cpp:444] conv_new_1 <- res5c
I0313 22:58:17.231516 23048 net.cpp:418] conv_new_1 -> conv_new_1
I0313 22:58:17.252133 23048 net.cpp:150] Setting up conv_new_1
I0313 22:58:17.252159 23048 net.cpp:157] Top shape: 1 1024 38 63 (2451456)
I0313 22:58:17.252162 23048 net.cpp:165] Memory required for data: 3289849580
I0313 22:58:17.252174 23048 layer_factory.hpp:77] Creating layer conv_new_1_relu
I0313 22:58:17.252182 23048 net.cpp:100] Creating Layer conv_new_1_relu
I0313 22:58:17.252202 23048 net.cpp:444] conv_new_1_relu <- conv_new_1
I0313 22:58:17.252207 23048 net.cpp:405] conv_new_1_relu -> conv_new_1 (in-place)
I0313 22:58:17.252225 23048 net.cpp:150] Setting up conv_new_1_relu
I0313 22:58:17.252245 23048 net.cpp:157] Top shape: 1 1024 38 63 (2451456)
I0313 22:58:17.252249 23048 net.cpp:165] Memory required for data: 3299655404
I0313 22:58:17.252250 23048 layer_factory.hpp:77] Creating layer conv_new_1_conv_new_1_relu_0_split
I0313 22:58:17.252266 23048 net.cpp:100] Creating Layer conv_new_1_conv_new_1_relu_0_split
I0313 22:58:17.252269 23048 net.cpp:444] conv_new_1_conv_new_1_relu_0_split <- conv_new_1
I0313 22:58:17.252274 23048 net.cpp:418] conv_new_1_conv_new_1_relu_0_split -> conv_new_1_conv_new_1_relu_0_split_0
I0313 22:58:17.252280 23048 net.cpp:418] conv_new_1_conv_new_1_relu_0_split -> conv_new_1_conv_new_1_relu_0_split_1
I0313 22:58:17.252336 23048 net.cpp:150] Setting up conv_new_1_conv_new_1_relu_0_split
I0313 22:58:17.252352 23048 net.cpp:157] Top shape: 1 1024 38 63 (2451456)
I0313 22:58:17.252355 23048 net.cpp:157] Top shape: 1 1024 38 63 (2451456)
I0313 22:58:17.252358 23048 net.cpp:165] Memory required for data: 3319267052
I0313 22:58:17.252360 23048 layer_factory.hpp:77] Creating layer rfcn_cls
I0313 22:58:17.252367 23048 net.cpp:100] Creating Layer rfcn_cls
I0313 22:58:17.252370 23048 net.cpp:444] rfcn_cls <- conv_new_1_conv_new_1_relu_0_split_0
I0313 22:58:17.252375 23048 net.cpp:418] rfcn_cls -> rfcn_cls
I0313 22:58:17.253381 23048 net.cpp:150] Setting up rfcn_cls
I0313 22:58:17.253386 23048 net.cpp:157] Top shape: 1 98 38 63 (234612)
I0313 22:58:17.253388 23048 net.cpp:165] Memory required for data: 3320205500
I0313 22:58:17.253392 23048 layer_factory.hpp:77] Creating layer rfcn_bbox
I0313 22:58:17.253397 23048 net.cpp:100] Creating Layer rfcn_bbox
I0313 22:58:17.253414 23048 net.cpp:444] rfcn_bbox <- conv_new_1_conv_new_1_relu_0_split_1
I0313 22:58:17.253420 23048 net.cpp:418] rfcn_bbox -> rfcn_bbox
I0313 22:58:17.257329 23048 net.cpp:150] Setting up rfcn_bbox
I0313 22:58:17.257339 23048 net.cpp:157] Top shape: 1 392 38 63 (938448)
I0313 22:58:17.257342 23048 net.cpp:165] Memory required for data: 3323959292
I0313 22:58:17.257347 23048 layer_factory.hpp:77] Creating layer psroipooled_cls_rois
I0313 22:58:17.257354 23048 net.cpp:100] Creating Layer psroipooled_cls_rois
I0313 22:58:17.257356 23048 net.cpp:444] psroipooled_cls_rois <- rfcn_cls
I0313 22:58:17.257360 23048 net.cpp:444] psroipooled_cls_rois <- rois_roi-data_0_split_0
I0313 22:58:17.257364 23048 net.cpp:418] psroipooled_cls_rois -> psroipooled_cls_rois
I0313 22:58:17.257371 23048 psroi_pooling_layer.cpp:26] Spatial scale: 0.0625
I0313 22:58:17.257421 23048 net.cpp:150] Setting up psroipooled_cls_rois
I0313 22:58:17.257438 23048 net.cpp:157] Top shape: 1 2 7 7 (98)
I0313 22:58:17.257441 23048 net.cpp:165] Memory required for data: 3323959684
I0313 22:58:17.257443 23048 layer_factory.hpp:77] Creating layer ave_cls_score_rois
I0313 22:58:17.257460 23048 net.cpp:100] Creating Layer ave_cls_score_rois
I0313 22:58:17.257463 23048 net.cpp:444] ave_cls_score_rois <- psroipooled_cls_rois
I0313 22:58:17.257481 23048 net.cpp:418] ave_cls_score_rois -> cls_score
I0313 22:58:17.257499 23048 net.cpp:150] Setting up ave_cls_score_rois
I0313 22:58:17.257517 23048 net.cpp:157] Top shape: 1 2 1 1 (2)
I0313 22:58:17.257519 23048 net.cpp:165] Memory required for data: 3323959692
I0313 22:58:17.257522 23048 layer_factory.hpp:77] Creating layer cls_score_ave_cls_score_rois_0_split
I0313 22:58:17.257525 23048 net.cpp:100] Creating Layer cls_score_ave_cls_score_rois_0_split
I0313 22:58:17.257540 23048 net.cpp:444] cls_score_ave_cls_score_rois_0_split <- cls_score
I0313 22:58:17.257544 23048 net.cpp:418] cls_score_ave_cls_score_rois_0_split -> cls_score_ave_cls_score_rois_0_split_0
I0313 22:58:17.257566 23048 net.cpp:418] cls_score_ave_cls_score_rois_0_split -> cls_score_ave_cls_score_rois_0_split_1
I0313 22:58:17.257571 23048 net.cpp:418] cls_score_ave_cls_score_rois_0_split -> cls_score_ave_cls_score_rois_0_split_2
I0313 22:58:17.257645 23048 net.cpp:150] Setting up cls_score_ave_cls_score_rois_0_split
I0313 22:58:17.257649 23048 net.cpp:157] Top shape: 1 2 1 1 (2)
I0313 22:58:17.257653 23048 net.cpp:157] Top shape: 1 2 1 1 (2)
I0313 22:58:17.257669 23048 net.cpp:157] Top shape: 1 2 1 1 (2)
I0313 22:58:17.257671 23048 net.cpp:165] Memory required for data: 3323959716
I0313 22:58:17.257673 23048 layer_factory.hpp:77] Creating layer psroipooled_loc_rois
I0313 22:58:17.257678 23048 net.cpp:100] Creating Layer psroipooled_loc_rois
I0313 22:58:17.257694 23048 net.cpp:444] psroipooled_loc_rois <- rfcn_bbox
I0313 22:58:17.257696 23048 net.cpp:444] psroipooled_loc_rois <- rois_roi-data_0_split_1
I0313 22:58:17.257700 23048 net.cpp:418] psroipooled_loc_rois -> psroipooled_loc_rois
I0313 22:58:17.257719 23048 psroi_pooling_layer.cpp:26] Spatial scale: 0.0625
I0313 22:58:17.257755 23048 net.cpp:150] Setting up psroipooled_loc_rois
I0313 22:58:17.257760 23048 net.cpp:157] Top shape: 1 8 7 7 (392)
I0313 22:58:17.257762 23048 net.cpp:165] Memory required for data: 3323961284
I0313 22:58:17.257764 23048 layer_factory.hpp:77] Creating layer ave_bbox_pred_rois
I0313 22:58:17.257772 23048 net.cpp:100] Creating Layer ave_bbox_pred_rois
I0313 22:58:17.257774 23048 net.cpp:444] ave_bbox_pred_rois <- psroipooled_loc_rois
I0313 22:58:17.257778 23048 net.cpp:418] ave_bbox_pred_rois -> bbox_pred
I0313 22:58:17.257794 23048 net.cpp:150] Setting up ave_bbox_pred_rois
I0313 22:58:17.257797 23048 net.cpp:157] Top shape: 1 8 1 1 (8)
I0313 22:58:17.257799 23048 net.cpp:165] Memory required for data: 3323961316
I0313 22:58:17.257802 23048 layer_factory.hpp:77] Creating layer bbox_pred_ave_bbox_pred_rois_0_split
I0313 22:58:17.257805 23048 net.cpp:100] Creating Layer bbox_pred_ave_bbox_pred_rois_0_split
I0313 22:58:17.257807 23048 net.cpp:444] bbox_pred_ave_bbox_pred_rois_0_split <- bbox_pred
I0313 22:58:17.257812 23048 net.cpp:418] bbox_pred_ave_bbox_pred_rois_0_split -> bbox_pred_ave_bbox_pred_rois_0_split_0
I0313 22:58:17.257830 23048 net.cpp:418] bbox_pred_ave_bbox_pred_rois_0_split -> bbox_pred_ave_bbox_pred_rois_0_split_1
I0313 22:58:17.257870 23048 net.cpp:150] Setting up bbox_pred_ave_bbox_pred_rois_0_split
I0313 22:58:17.257887 23048 net.cpp:157] Top shape: 1 8 1 1 (8)
I0313 22:58:17.257890 23048 net.cpp:157] Top shape: 1 8 1 1 (8)
I0313 22:58:17.257892 23048 net.cpp:165] Memory required for data: 3323961380
I0313 22:58:17.257894 23048 layer_factory.hpp:77] Creating layer per_roi_loss_cls
I0313 22:58:17.257899 23048 net.cpp:100] Creating Layer per_roi_loss_cls
I0313 22:58:17.257915 23048 net.cpp:444] per_roi_loss_cls <- cls_score_ave_cls_score_rois_0_split_0
I0313 22:58:17.257920 23048 net.cpp:444] per_roi_loss_cls <- labels_roi-data_1_split_0
I0313 22:58:17.257923 23048 net.cpp:418] per_roi_loss_cls -> temp_loss_cls
I0313 22:58:17.257941 23048 net.cpp:418] per_roi_loss_cls -> temp_prob_cls
I0313 22:58:17.257946 23048 net.cpp:418] per_roi_loss_cls -> per_roi_loss_cls
I0313 22:58:17.257951 23048 layer_factory.hpp:77] Creating layer per_roi_loss_cls
I0313 22:58:17.258074 23048 net.cpp:150] Setting up per_roi_loss_cls
I0313 22:58:17.258080 23048 net.cpp:157] Top shape: (1)
I0313 22:58:17.258082 23048 net.cpp:157] Top shape: 1 2 1 1 (2)
I0313 22:58:17.258085 23048 net.cpp:157] Top shape: 1 1 1 1 (1)
I0313 22:58:17.258087 23048 net.cpp:165] Memory required for data: 3323961396
I0313 22:58:17.258090 23048 layer_factory.hpp:77] Creating layer per_roi_loss_bbox
I0313 22:58:17.258093 23048 net.cpp:100] Creating Layer per_roi_loss_bbox
I0313 22:58:17.258096 23048 net.cpp:444] per_roi_loss_bbox <- bbox_pred_ave_bbox_pred_rois_0_split_0
I0313 22:58:17.258116 23048 net.cpp:444] per_roi_loss_bbox <- bbox_targets_roi-data_2_split_0
I0313 22:58:17.258119 23048 net.cpp:444] per_roi_loss_bbox <- bbox_inside_weights_roi-data_3_split_0
I0313 22:58:17.258136 23048 net.cpp:418] per_roi_loss_bbox -> temp_loss_bbox
I0313 22:58:17.258141 23048 net.cpp:418] per_roi_loss_bbox -> per_roi_loss_bbox
I0313 22:58:17.258193 23048 net.cpp:150] Setting up per_roi_loss_bbox
I0313 22:58:17.258198 23048 net.cpp:157] Top shape: (1)
I0313 22:58:17.258213 23048 net.cpp:157] Top shape: 1 1 1 1 (1)
I0313 22:58:17.258214 23048 net.cpp:165] Memory required for data: 3323961404
I0313 22:58:17.258218 23048 layer_factory.hpp:77] Creating layer per_roi_loss
I0313 22:58:17.258221 23048 net.cpp:100] Creating Layer per_roi_loss
I0313 22:58:17.258224 23048 net.cpp:444] per_roi_loss <- per_roi_loss_cls
I0313 22:58:17.258227 23048 net.cpp:444] per_roi_loss <- per_roi_loss_bbox
I0313 22:58:17.258246 23048 net.cpp:418] per_roi_loss -> per_roi_loss
I0313 22:58:17.258261 23048 net.cpp:150] Setting up per_roi_loss
I0313 22:58:17.258265 23048 net.cpp:157] Top shape: 1 1 1 1 (1)
I0313 22:58:17.258268 23048 net.cpp:165] Memory required for data: 3323961408
I0313 22:58:17.258270 23048 layer_factory.hpp:77] Creating layer annotator_detector
I0313 22:58:17.258276 23048 net.cpp:100] Creating Layer annotator_detector
I0313 22:58:17.258278 23048 net.cpp:444] annotator_detector <- rois_roi-data_0_split_2
I0313 22:58:17.258282 23048 net.cpp:444] annotator_detector <- per_roi_loss
I0313 22:58:17.258298 23048 net.cpp:444] annotator_detector <- labels_roi-data_1_split_1
I0313 22:58:17.258301 23048 net.cpp:444] annotator_detector <- bbox_inside_weights_roi-data_3_split_1
I0313 22:58:17.258306 23048 net.cpp:418] annotator_detector -> labels_ohem
I0313 22:58:17.258311 23048 net.cpp:418] annotator_detector -> bbox_loss_weights_ohem
I0313 22:58:17.258337 23048 net.cpp:150] Setting up annotator_detector
I0313 22:58:17.258342 23048 net.cpp:157] Top shape: 1 1 1 1 (1)
I0313 22:58:17.258345 23048 net.cpp:157] Top shape: 1 8 1 1 (8)
I0313 22:58:17.258347 23048 net.cpp:165] Memory required for data: 3323961444
I0313 22:58:17.258363 23048 layer_factory.hpp:77] Creating layer labels_ohem_annotator_detector_0_split
I0313 22:58:17.258366 23048 net.cpp:100] Creating Layer labels_ohem_annotator_detector_0_split
I0313 22:58:17.258368 23048 net.cpp:444] labels_ohem_annotator_detector_0_split <- labels_ohem
I0313 22:58:17.258373 23048 net.cpp:418] labels_ohem_annotator_detector_0_split -> labels_ohem_annotator_detector_0_split_0
I0313 22:58:17.258378 23048 net.cpp:418] labels_ohem_annotator_detector_0_split -> labels_ohem_annotator_detector_0_split_1
I0313 22:58:17.258414 23048 net.cpp:150] Setting up labels_ohem_annotator_detector_0_split
I0313 22:58:17.258419 23048 net.cpp:157] Top shape: 1 1 1 1 (1)
I0313 22:58:17.258422 23048 net.cpp:157] Top shape: 1 1 1 1 (1)
I0313 22:58:17.258424 23048 net.cpp:165] Memory required for data: 3323961452
I0313 22:58:17.258426 23048 layer_factory.hpp:77] Creating layer silence
I0313 22:58:17.258430 23048 net.cpp:100] Creating Layer silence
I0313 22:58:17.258435 23048 net.cpp:444] silence <- bbox_outside_weights
I0313 22:58:17.258437 23048 net.cpp:444] silence <- temp_loss_cls
I0313 22:58:17.258440 23048 net.cpp:444] silence <- temp_prob_cls
…
