…
snapshot: 30000
snapshot_prefix: "resnet50_rfcn_ohem"
iter_size: 2
I0318 12:38:48.290729  3159 solver.cpp:81] Creating training net from train_net file: models/pascal_voc/ResNet-50/rfcn_end2end/train_agnostic_ohem.prototxt
I0318 12:38:48.293134  3159 net.cpp:58] Initializing net from parameters: 
name: "ResNet-50"
state {
  phase: TRAIN
}
layer {
  name: "input-data"
  type: "Python"
  top: "data"
  top: "im_info"
  top: "gt_boxes"
  python_param {
    module: "roi_data_layer.layer"
    layer: "RoIDataLayer"
    param_str: "\'num_classes\': 2"
  }
}
layer {
  name: "conv1"
  type: "Convolution"
  bottom: "data"
  top: "conv1"
  param {
    lr_mult: 0
  }
  param {
    lr_mult: 0
  }
  convolution_param {
    num_output: 64
    pad: 3
    kernel_size: 7
    stride: 2
  }
}
layer {
  name: "bn_conv1"
  type: "BatchNorm"
  bottom: "conv1"
  top: "conv1"
  param {
    lr_mult: 0
    decay_mult: 0
  }
  param {
    lr_mult: 0
    decay_mult: 0
  }
  param {
    lr_mult: 0
    decay_mult: 0
  }
  batch_norm_param {
    use_global_stats: true
  }
}
layer {
  name: "scale_conv1"
  type: "Scale"
  bottom: "conv1"
  top: "conv1"
  param {
    lr_mult: 0
    decay_mult: 0
  }
  param {
    lr_mult: 0
    decay_mult: 0
  }
  scale_param {
    bias_term: true
  }
}
layer {
  name: "conv1_relu"
  type: "ReLU"
  bottom: "conv1"
  top: "conv1"
}
layer {
  name: "pool1"
  type: "Pooling"
  bottom: "conv1"
  top: "pool1"
  pooling_param {
    pool: MAX
    kernel_size: 3
    stride: 2
  }
}
layer {
  name: "res2a_branch1"
  type: "Convolution"
  bottom: "pool1"
  top: "res2a_branch1"
  param {
    lr_mult: 0
  }
  convolution_param {
    num_output: 256
    bias_term: false
    pad: 0
    kernel_size: 1
    stride: 1
  }
}
layer {
  name: "bn2a_branch1"
  type: "BatchNorm"
  bottom: "res2a_branch1"
  top: "res2a_branch1"
  param {
    lr_mult: 0
    decay_mult: 0
  }
  param {
    lr_mult: 0
    decay_mult: 0
  }
  param {
    lr_mult: 0
    decay_mult: 0
  }
  batch_norm_param {
    use_global_stats: true
  }
}
layer {
  name: "scale2a_branch1"
  type: "Scale"
  bottom: "res2a_branch1"
  top: "res2a_branch1"
  param {
    lr_mult: 0
    decay_mult: 0
  }
  param {
    lr_mult: 0
    decay_mult: 0
  }
  scale_param {
    bias_term: true
  }
}
layer {
  name: "res2a_branch2a"
  type: "Convolution"
  bottom: "pool1"
  top: "res2a_branch2a"
  param {
    lr_mult: 0
  }
  convolution_param {
    num_output: 64
    bias_term: false
    pad: 0
    kernel_size: 1
    stride: 1
  }
}
layer {
  name: "bn2a_branch2a"
  type: "BatchNorm"
  bottom: "res2a_branch2a"
  top: "res2a_branch2a"
  param {
    lr_mult: 0
    decay_mult: 0
  }
  param {
    lr_mult: 0
    decay_mult: 0
  }
  param {
    lr_mult: 0
    decay_mult: 0
  }
  batch_norm_param {
    use_global_stats: true
  }
}
layer {
  name: "scale2a_branch2a"
  type: "Scale"
  bottom: "res2a_branch2a"
  top: "res2a_branch2a"
  param {
    lr_mult: 0
    decay_mult: 0
  }
  param {
    lr_mult: 0
    decay_mult: 0
  }
  scale_param {
    bias_term: true
  }
}
layer {
  name: "res2a_branch2a_relu"
  type: "ReLU"
  bottom: "res2a_branch2a"
  top: "res2a_branch2a"
}
layer {
  name: "res2a_branch2b"
  type: "Convolution"
  bottom: "res2a_branch2a"
  top: "res2a_branch2b"
  param {
    lr_mult: 0
  }
  convolution_param {
    num_output: 64
    bias_term: false
    pad: 1
    kernel_size: 3
    stride: 1
  }
}
layer {
  name: "bn2a_branch2b"
  type: "BatchNorm"
  bottom: "res2a_branch2b"
  top: "res2a_branch2b"
  param {
    lr_mult: 0
    decay_mult: 0
  }
  param {
    lr_mult: 0
    decay_mult: 0
  }
  param {
    lr_mult: 0
    decay_mult: 0
  }
  batch_norm_param {
    use_global_stats: true
  }
}
layer {
  name: "scale2a_branch2b"
  type: "Scale"
  bottom: "res2a_branch2b"
  top: "res2a_branch2b"
  param {
    lr_mult: 0
    decay_mult: 0
  }
  param {
    lr_mult: 0
    decay_mult: 0
  }
  scale_param {
    bias_term: true
  }
}
layer {
  name: "res2a_branch2b_relu"
  type: "ReLU"
  bottom: "res2a_branch2b"
  top: "res2a_branch2b"
}
layer {
  name: "res2a_branch2c"
  type: "Convolution"
  bottom: "res2a_branch2b"
  top: "res2a_branch2c"
  param {
    lr_mult: 0
  }
  convolution_param {
    num_output: 256
    bias_term: false
    pad: 0
    kernel_size: 1
    stride: 1
  }
}
layer {
  name: "bn2a_branch2c"
  type: "BatchNorm"
  bottom: "res2a_branch2c"
  top: "res2a_branch2c"
  param {
    lr_mult: 0
    decay_mult: 0
  }
  param {
    lr_mult: 0
    decay_mult: 0
  }
  param {
    lr_mult: 0
    decay_mult: 0
  }
  batch_norm_param {
    use_global_stats: true
  }
}
layer {
  name: "scale2a_branch2c"
  type: "Scale"
  bottom: "res2a_branch2c"
  top: "res2a_branch2c"
  param {
    lr_mult: 0
    decay_mult: 0
  }
  param {
    lr_mult: 0
    decay_mult: 0
  }
  scale_param {
    bias_term: true
  }
}
layer {
  name: "res2a"
  type: "Eltwise"
  bottom: "res2a_branch1"
  bottom: "res2a_branch2c"
  top: "res2a"
}
layer {
  name: "res2a_relu"
  type: "ReLU"
  bottom: "res2a"
  top: "res2a"
}
layer {
  name: "res2b_branch2a"
  type: "Convolution"
  bottom: "res2a"
  top: "res2b_branch2a"
  param {
    lr_mult: 0
  }
  convolution_param {
    num_output: 64
    bias_term: false
    pad: 0
    kernel_size: 1
    stride: 1
  }
}
layer {
  name: "bn2b_branch2a"
  type: "BatchNorm"
  bottom: "res2b_branch2a"
  top: "res2b_branch2a"
  param {
    lr_mult: 0
    decay_mult: 0
  }
  param {
    lr_mult: 0
    decay_mult: 0
  }
  param {
    lr_mult: 0
    decay_mult: 0
  }
  batch_norm_param {
    use_global_stats: true
  }
}
layer {
  name: "scale2b_branch2a"
  type: "Scale"
  bottom: "res2b_branch2a"
  top: "res2b_branch2a"
  param {
    lr_mult: 0
    decay_mult: 0
  }
  param {
    lr_mult: 0
    decay_mult: 0
  }
  scale_param {
    bias_term: true
  }
}
layer {
  name: "res2b_branch2a_relu"
  type: "ReLU"
  bottom: "res2b_branch2a"
  top: "res2b_branch2a"
}
layer {
  name: "res2b_branch2b"
  type: "Convolution"
  bottom: "res2b_branch2a"
  top: "res2b_branch2b"
  param {
    lr_mult: 0
  }
  convolution_param {
    num_output: 64
    bias_term: false
    pad: 1
    kernel_size: 3
    stride: 1
  }
}
layer {
  name: "bn2b_branch2b"
  type: "BatchNorm"
  bottom: "res2b_branch2b"
  top: "res2b_branch2b"
  param {
    lr_mult: 0
    decay_mult: 0
  }
  param {
    lr_mult: 0
    decay_mult: 0
  }
  param {
    lr_mult: 0
    decay_mult: 0
  }
  batch_norm_param {
    use_global_stats: true
  }
}
layer {
  name: "scale2b_branch2b"
  type: "Scale"
  bottom: "res2b_branch2b"
  top: "res2b_branch2b"
  param {
    lr_mult: 0
    decay_mult: 0
  }
  param {
    lr_mult: 0
    decay_mult: 0
  }
  scale_param {
    bias_term: true
  }
}
layer {
  name: "res2b_branch2b_relu"
  type: "ReLU"
  bottom: "res2b_branch2b"
  top: "res2b_branch2b"
}
layer {
  name: "res2b_branch2c"
  type: "Convolution"
  bottom: "res2b_branch2b"
  top: "res2b_branch2c"
  param {
    lr_mult: 0
  }
  convolution_param {
    num_output: 256
    bias_term: false
    pad: 0
    kernel_size: 1
    stride: 1
  }
}
layer {
  name: "bn2b_branch2c"
  type: "BatchNorm"
  bottom: "res2b_branch2c"
  top: "res2b_branch2c"
  param {
    lr_mult: 0
    decay_mult: 0
  }
  param {
    lr_mult: 0
    decay_mult: 0
  }
  param {
    lr_mult: 0
    decay_mult: 0
  }
  batch_norm_param {
    use_global_stats: true
  }
}
layer {
  name: "scale2b_branch2c"
  type: "Scale"
  bottom: "res2b_branch2c"
  top: "res2b_branch2c"
  param {
    lr_mult: 0
    decay_mult: 0
  }
  param {
    lr_mult: 0
    decay_mult: 0
  }
  scale_param {
    bias_term: true
  }
}
layer {
  name: "res2b"
  type: "Eltwise"
  bottom: "res2a"
  bottom: "res2b_branch2c"
  top: "res2b"
}
layer {
  name: "res2b_relu"
  type: "ReLU"
  bottom: "res2b"
  top: "res2b"
}
layer {
  name: "res2c_branch2a"
  type: "Convolution"
  bottom: "res2b"
  top: "res2c_branch2a"
  param {
    lr_mult: 0
  }
  convolution_param {
    num_output: 64
    bias_term: false
    pad: 0
    kernel_size: 1
    stride: 1
  }
}
layer {
  name: "bn2c_branch2a"
  type: "BatchNorm"
  bottom: "res2c_branch2a"
  top: "res2c_branch2a"
  param {
    lr_mult: 0
    decay_mult: 0
  }
  param {
    lr_mult: 0
    decay_mult: 0
  }
  param {
    lr_mult: 0
    decay_mult: 0
  }
  batch_norm_param {
    use_global_stats: true
  }
}
layer {
  name: "scale2c_branch2a"
  type: "Scale"
  bottom: "res2c_branch2a"
  top: "res2c_branch2a"
  param {
    lr_mult: 0
    decay_mult: 0
  }
  param {
    lr_mult: 0
    decay_mult: 0
  }
  scale_param {
    bias_term: true
  }
}
layer {
  name: "res2c_branch2a_relu"
  type: "ReLU"
  bottom: "res2c_branch2a"
  top: "res2c_branch2a"
}
layer {
  name: "res2c_branch2b"
  type: "Convolution"
  bottom: "res2c_branch2a"
  top: "res2c_branch2b"
  param {
    lr_mult: 0
  }
  convolution_param {
    num_output: 64
    bias_term: false
    pad: 1
    kernel_size: 3
    stride: 1
  }
}
layer {
  name: "bn2c_branch2b"
  type: "BatchNorm"
  bottom: "res2c_branch2b"
  top: "res2c_branch2b"
  param {
    lr_mult: 0
    decay_mult: 0
  }
  param {
    lr_mult: 0
    decay_mult: 0
  }
  param {
    lr_mult: 0
    decay_mult: 0
  }
  batch_norm_param {
    use_global_stats: true
  }
}
layer {
  name: "scale2c_branch2b"
  type: "Scale"
  bottom: "res2c_branch2b"
  top: "res2c_branch2b"
  param {
    lr_mult: 0
    decay_mult: 0
  }
  param {
    lr_mult: 0
    decay_mult: 0
  }
  scale_param {
    bias_term: true
  }
}
layer {
  name: "res2c_branch2b_relu"
  type: "ReLU"
  bottom: "res2c_branch2b"
  top: "res2c_branch2b"
}
layer {
  name: "res2c_branch2c"
  type: "Convolution"
  bottom: "res2c_branch2b"
  top: "res2c_branch2c"
  param {
    lr_mult: 0
  }
  convolution_param {
    num_output: 256
    bias_term: false
    pad: 0
    kernel_size: 1
    stride: 1
  }
}
layer {
  name: "bn2c_branch2c"
  type: "BatchNorm"
  bottom: "res2c_branch2c"
  top: "res2c_branch2c"
  param {
    lr_mult: 0
    decay_mult: 0
  }
  param {
    lr_mult: 0
    decay_mult: 0
  }
  param {
    lr_mult: 0
    decay_mult: 0
  }
  batch_norm_param {
    use_global_stats: true
  }
}
layer {
  name: "scale2c_branch2c"
  type: "Scale"
  bottom: "res2c_branch2c"
  top: "res2c_branch2c"
  param {
    lr_mult: 0
    decay_mult: 0
  }
  param {
    lr_mult: 0
    decay_mult: 0
  }
  scale_param {
    bias_term: true
  }
}
layer {
  name: "res2c"
  type: "Eltwise"
  bottom: "res2b"
  bottom: "res2c_branch2c"
  top: "res2c"
}
layer {
  name: "res2c_relu"
  type: "ReLU"
  bottom: "res2c"
  top: "res2c"
}
layer {
  name: "res3a_branch1"
  type: "Convolution"
  bottom: "res2c"
  top: "res3a_branch1"
  param {
    lr_mult: 1
  }
  convolution_param {
    num_output: 512
    bias_term: false
    pad: 0
    kernel_size: 1
    stride: 2
  }
}
layer {
  name: "bn3a_branch1"
  type: "BatchNorm"
  bottom: "res3a_branch1"
  top: "res3a_branch1"
  param {
    lr_mult: 0
    decay_mult: 0
  }
  param {
    lr_mult: 0
    decay_mult: 0
  }
  param {
    lr_mult: 0
    decay_mult: 0
  }
  batch_norm_param {
    use_global_stats: true
  }
}
layer {
  name: "scale3a_branch1"
  type: "Scale"
  bottom: "res3a_branch1"
  top: "res3a_branch1"
  param {
    lr_mult: 0
    decay_mult: 0
  }
  param {
    lr_mult: 0
    decay_mult: 0
  }
  scale_param {
    bias_term: true
  }
}
layer {
  name: "res3a_branch2a"
  type: "Convolution"
  bottom: "res2c"
  top: "res3a_branch2a"
  param {
    lr_mult: 1
  }
  convolution_param {
    num_output: 128
    bias_term: false
    pad: 0
    kernel_size: 1
    stride: 2
  }
}
layer {
  name: "bn3a_branch2a"
  type: "BatchNorm"
  bottom: "res3a_branch2a"
  top: "res3a_branch2a"
  param {
    lr_mult: 0
    decay_mult: 0
  }
  param {
    lr_mult: 0
    decay_mult: 0
  }
  param {
    lr_mult: 0
    decay_mult: 0
  }
  batch_norm_param {
    use_global_stats: true
  }
}
layer {
  name: "scale3a_branch2a"
  type: "Scale"
  bottom: "res3a_branch2a"
  top: "res3a_branch2a"
  param {
    lr_mult: 0
    decay_mult: 0
  }
  param {
    lr_mult: 0
    decay_mult: 0
  }
  scale_param {
    bias_term: true
  }
}
layer {
  name: "res3a_branch2a_relu"
  type: "ReLU"
  bottom: "res3a_branch2a"
  top: "res3a_branch2a"
}
layer {
  name: "res3a_branch2b"
  type: "Convolution"
  bottom: "res3a_branch2a"
  top: "res3a_branch2b"
  param {
    lr_mult: 1
  }
  convolution_param {
    num_output: 128
    bias_term: false
    pad: 1
    kernel_size: 3
    stride: 1
  }
}
layer {
  name: "bn3a_branch2b"
  type: "BatchNorm"
  bottom: "res3a_branch2b"
  top: "res3a_branch2b"
  param {
    lr_mult: 0
    decay_mult: 0
  }
  param {
    lr_mult: 0
    decay_mult: 0
  }
  param {
    lr_mult: 0
    decay_mult: 0
  }
  batch_norm_param {
    use_global_stats: true
  }
}
layer {
  name: "scale3a_branch2b"
  type: "Scale"
  bottom: "res3a_branch2b"
  top: "res3a_branch2b"
  param {
    lr_mult: 0
    decay_mult: 0
  }
  param {
    lr_mult: 0
    decay_mult: 0
  }
  scale_param {
    bias_term: true
  }
}
layer {
  name: "res3a_branch2b_relu"
  type: "ReLU"
  bottom: "res3a_branch2b"
  top: "res3a_branch2b"
}
layer {
  name: "res3a_branch2c"
  type: "Convolution"
  bottom: "res3a_branch2b"
  top: "res3a_branch2c"
  param {
    lr_mult: 1
  }
  convolution_param {
    num_output: 512
    bias_term: false
    pad: 0
    kernel_size: 1
    stride: 1
  }
}
layer {
  name: "bn3a_branch2c"
  type: "BatchNorm"
  bottom: "res3a_branch2c"
  top: "res3a_branch2c"
  param {
    lr_mult: 0
    decay_mult: 0
  }
  param {
    lr_mult: 0
    decay_mult: 0
  }
  param {
    lr_mult: 0
    decay_mult: 0
  }
  batch_norm_param {
    use_global_stats: true
  }
}
layer {
  name: "scale3a_branch2c"
  type: "Scale"
  bottom: "res3a_branch2c"
  top: "res3a_branch2c"
  param {
    lr_mult: 0
    decay_mult: 0
  }
  param {
    lr_mult: 0
    decay_mult: 0
  }
  scale_param {
    bias_term: true
  }
}
layer {
  name: "res3a"
  type: "Eltwise"
  bottom: "res3a_branch1"
  bottom: "res3a_branch2c"
  top: "res3a"
}
layer {
  name: "res3a_relu"
  type: "ReLU"
  bottom: "res3a"
  top: "res3a"
}
layer {
  name: "res3b_branch2a"
  type: "Convolution"
  bottom: "res3a"
  top: "res3b_branch2a"
  param {
    lr_mult: 1
  }
  convolution_param {
    num_output: 128
    bias_term: false
    pad: 0
    kernel_size: 1
    stride: 1
  }
}
layer {
  name: "bn3b_branch2a"
  type: "BatchNorm"
  bottom: "res3b_branch2a"
  top: "res3b_branch2a"
  param {
    lr_mult: 0
    decay_mult: 0
  }
  param {
    lr_mult: 0
    decay_mult: 0
  }
  param {
    lr_mult: 0
    decay_mult: 0
  }
  batch_norm_param {
    use_global_stats: true
  }
}
layer {
  name: "scale3b_branch2a"
  type: "Scale"
  bottom: "res3b_branch2a"
  top: "res3b_branch2a"
  param {
    lr_mult: 0
    decay_mult: 0
  }
  param {
    lr_mult: 0
    decay_mult: 0
  }
  scale_param {
    bias_term: true
  }
}
layer {
  name: "res3b_branch2a_relu"
  type: "ReLU"
  bottom: "res3b_branch2a"
  top: "res3b_branch2a"
}
layer {
  name: "res3b_branch2b"
  type: "Convolution"
  bottom: "res3b_branch2a"
  top: "res3b_branch2b"
  param {
    lr_mult: 1
  }
  convolution_param {
    num_output: 128
    bias_term: false
    pad: 1
    kernel_size: 3
    stride: 1
  }
}
layer {
  name: "bn3b_branch2b"
  type: "BatchNorm"
  bottom: "res3b_branch2b"
  top: "res3b_branch2b"
  param {
    lr_mult: 0
    decay_mult: 0
  }
  param {
    lr_mult: 0
    decay_mult: 0
  }
  param {
    lr_mult: 0
    decay_mult: 0
  }
  batch_norm_param {
    use_global_stats: true
  }
}
layer {
  name: "scale3b_branch2b"
  type: "Scale"
  bottom: "res3b_branch2b"
  top: "res3b_branch2b"
  param {
    lr_mult: 0
    decay_mult: 0
  }
  param {
    lr_mult: 0
    decay_mult: 0
  }
  scale_param {
    bias_term: true
  }
}
layer {
  name: "res3b_branch2b_relu"
  type: "ReLU"
  bottom: "res3b_branch2b"
  top: "res3b_branch2b"
}
layer {
  name: "res3b_branch2c"
  type: "Convolution"
  bottom: "res3b_branch2b"
  top: "res3b_branch2c"
  param {
    lr_mult: 1
  }
  convolution_param {
    num_output: 512
    bias_term: false
    pad: 0
    kernel_size: 1
    stride: 1
  }
}
layer {
  name: "bn3b_branch2c"
  type: "BatchNorm"
  bottom: "res3b_branch2c"
  top: "res3b_branch2c"
  param {
    lr_mult: 0
    decay_mult: 0
  }
  param {
    lr_mult: 0
    decay_mult: 0
  }
  param {
    lr_mult: 0
    decay_mult: 0
  }
  batch_norm_param {
    use_global_stats: true
  }
}
layer {
  name: "scale3b_branch2c"
  type: "Scale"
  bottom: "res3b_branch2c"
  top: "res3b_branch2c"
  param {
    lr_mult: 0
    decay_mult: 0
  }
  param {
    lr_mult: 0
    decay_mult: 0
  }
  scale_param {
    bias_term: true
  }
}
layer {
  name: "res3b"
  type: "Eltwise"
  bottom: "res3a"
  bottom: "res3b_branch2c"
  top: "res3b"
}
layer {
  name: "res3b_relu"
  type: "ReLU"
  bottom: "res3b"
  top: "res3b"
}
layer {
  name: "res3c_branch2a"
  type: "Convolution"
  bottom: "res3b"
  top: "res3c_branch2a"
  param {
    lr_mult: 1
  }
  convolution_param {
    num_output: 128
    bias_term: false
    pad: 0
    kernel_size: 1
    stride: 1
  }
}
layer {
  name: "bn3c_branch2a"
  type: "BatchNorm"
  bottom: "res3c_branch2a"
  top: "res3c_branch2a"
  param {
    lr_mult: 0
    decay_mult: 0
  }
  param {
    lr_mult: 0
    decay_mult: 0
  }
  param {
    lr_mult: 0
    decay_mult: 0
  }
  batch_norm_param {
    use_global_stats: true
  }
}
layer {
  name: "scale3c_branch2a"
  type: "Scale"
  bottom: "res3c_branch2a"
  top: "res3c_branch2a"
  param {
    lr_mult: 0
    decay_mult: 0
  }
  param {
    lr_mult: 0
    decay_mult: 0
  }
  scale_param {
    bias_term: true
  }
}
layer {
  name: "res3c_branch2a_relu"
  type: "ReLU"
  bottom: "res3c_branch2a"
  top: "res3c_branch2a"
}
layer {
  name: "res3c_branch2b"
  type: "Convolution"
  bottom: "res3c_branch2a"
  top: "res3c_branch2b"
  param {
    lr_mult: 1
  }
  convolution_param {
    num_output: 128
    bias_term: false
    pad: 1
    kernel_size: 3
    stride: 1
  }
}
layer {
  name: "bn3c_branch2b"
  type: "BatchNorm"
  bottom: "res3c_branch2b"
  top: "res3c_branch2b"
  param {
    lr_mult: 0
    decay_mult: 0
  }
  param {
    lr_mult: 0
    decay_mult: 0
  }
  param {
    lr_mult: 0
    decay_mult: 0
  }
  batch_norm_param {
    use_global_stats: true
  }
}
layer {
  name: "scale3c_branch2b"
  type: "Scale"
  bottom: "res3c_branch2b"
  top: "res3c_branch2b"
  param {
    lr_mult: 0
    decay_mult: 0
  }
  param {
    lr_mult: 0
    decay_mult: 0
  }
  scale_param {
    bias_term: true
  }
}
layer {
  name: "res3c_branch2b_relu"
  type: "ReLU"
  bottom: "res3c_branch2b"
  top: "res3c_branch2b"
}
layer {
  name: "res3c_branch2c"
  type: "Convolution"
  bottom: "res3c_branch2b"
  top: "res3c_branch2c"
  param {
    lr_mult: 1
  }
  convolution_param {
    num_output: 512
    bias_term: false
    pad: 0
    kernel_size: 1
    stride: 1
  }
}
layer {
  name: "bn3c_branch2c"
  type: "BatchNorm"
  bottom: "res3c_branch2c"
  top: "res3c_branch2c"
  param {
    lr_mult: 0
    decay_mult: 0
  }
  param {
    lr_mult: 0
    decay_mult: 0
  }
  param {
    lr_mult: 0
    decay_mult: 0
  }
  batch_norm_param {
    use_global_stats: true
  }
}
layer {
  name: "scale3c_branch2c"
  type: "Scale"
  bottom: "res3c_branch2c"
  top: "res3c_branch2c"
  param {
    lr_mult: 0
    decay_mult: 0
  }
  param {
    lr_mult: 0
    decay_mult: 0
  }
  scale_param {
    bias_term: true
  }
}
layer {
  name: "res3c"
  type: "Eltwise"
  bottom: "res3b"
  bottom: "res3c_branch2c"
  top: "res3c"
}
layer {
  name: "res3c_relu"
  type: "ReLU"
  bottom: "res3c"
  top: "res3c"
}
layer {
  name: "res3d_branch2a"
  type: "Convolution"
  bottom: "res3c"
  top: "res3d_branch2a"
  param {
    lr_mult: 1
  }
  convolution_param {
    num_output: 128
    bias_term: false
    pad: 0
    kernel_size: 1
    stride: 1
  }
}
layer {
  name: "bn3d_branch2a"
  type: "BatchNorm"
  bottom: "res3d_branch2a"
  top: "res3d_branch2a"
  param {
    lr_mult: 0
    decay_mult: 0
  }
  param {
    lr_mult: 0
    decay_mult: 0
  }
  param {
    lr_mult: 0
    decay_mult: 0
  }
  batch_norm_param {
    use_global_stats: true
  }
}
layer {
  name: "scale3d_branch2a"
  type: "Scale"
  bottom: "res3d_branch2a"
  top: "res3d_branch2a"
  param {
    lr_mult: 0
    decay_mult: 0
  }
  param {
    lr_mult: 0
    decay_mult: 0
  }
  scale_param {
    bias_term: true
  }
}
layer {
  name: "res3d_branch2a_relu"
  type: "ReLU"
  bottom: "res3d_branch2a"
  top: "res3d_branch2a"
}
layer {
  name: "res3d_branch2b"
  type: "Convolution"
  bottom: "res3d_branch2a"
  top: "res3d_branch2b"
  param {
    lr_mult: 1
  }
  convolution_param {
    num_output: 128
    bias_term: false
    pad: 1
    kernel_size: 3
    stride: 1
  }
}
layer {
  name: "bn3d_branch2b"
  type: "BatchNorm"
  bottom: "res3d_branch2b"
  top: "res3d_branch2b"
  param {
    lr_mult: 0
    decay_mult: 0
  }
  param {
    lr_mult: 0
    decay_mult: 0
  }
  param {
    lr_mult: 0
    decay_mult: 0
  }
  batch_norm_param {
    use_global_stats: true
  }
}
layer {
  name: "scale3d_branch2b"
  type: "Scale"
  bottom: "res3d_branch2b"
  top: "res3d_branch2b"
  param {
    lr_mult: 0
    decay_mult: 0
  }
  param {
    lr_mult: 0
    decay_mult: 0
  }
  scale_param {
    bias_term: true
  }
}
layer {
  name: "res3d_branch2b_relu"
  type: "ReLU"
  bottom: "res3d_branch2b"
  top: "res3d_branch2b"
}
layer {
  name: "res3d_branch2c"
  type: "Convolution"
  bottom: "res3d_branch2b"
  top: "res3d_branch2c"
  param {
    lr_mult: 1
  }
  convolution_param {
    num_output: 512
    bias_term: false
    pad: 0
    kernel_size: 1
    stride: 1
  }
}
layer {
  name: "bn3d_branch2c"
  type: "BatchNorm"
  bottom: "res3d_branch2c"
  top: "res3d_branch2c"
  param {
    lr_mult: 0
    decay_mult: 0
  }
  param {
    lr_mult: 0
    decay_mult: 0
  }
  param {
    lr_mult: 0
    decay_mult: 0
  }
  batch_norm_param {
    use_global_stats: true
  }
}
layer {
  name: "scale3d_branch2c"
  type: "Scale"
  bottom: "res3d_branch2c"
  top: "res3d_branch2c"
  param {
    lr_mult: 0
    decay_mult: 0
  }
  param {
    lr_mult: 0
    decay_mult: 0
  }
  scale_param {
    bias_term: true
  }
}
layer {
  name: "res3d"
  type: "Eltwise"
  bottom: "res3c"
  bottom: "res3d_branch2c"
  top: "res3d"
}
layer {
  name: "res3d_relu"
  type: "ReLU"
  bottom: "res3d"
  top: "res3d"
}
layer {
  name: "res4a_branch1"
  type: "Convolution"
  bottom: "res3d"
  top: "res4a_branch1"
  param {
    lr_mult: 1
  }
  convolution_param {
    num_output: 1024
    bias_term: false
    pad: 0
    kernel_size: 1
    stride: 2
  }
}
layer {
  name: "bn4a_branch1"
  type: "BatchNorm"
  bottom: "res4a_branch1"
  top: "res4a_branch1"
  param {
    lr_mult: 0
    decay_mult: 0
  }
  param {
    lr_mult: 0
    decay_mult: 0
  }
  param {
    lr_mult: 0
    decay_mult: 0
  }
  batch_norm_param {
    use_global_stats: true
  }
}
layer {
  name: "scale4a_branch1"
  type: "Scale"
  bottom: "res4a_branch1"
  top: "res4a_branch1"
  param {
    lr_mult: 0
    decay_mult: 0
  }
  param {
    lr_mult: 0
    decay_mult: 0
  }
  scale_param {
    bias_term: true
  }
}
layer {
  name: "res4a_branch2a"
  type: "Convolution"
  bottom: "res3d"
  top: "res4a_branch2a"
  param {
    lr_mult: 1
  }
  convolution_param {
    num_output: 256
    bias_term: false
    pad: 0
    kernel_size: 1
    stride: 2
  }
}
layer {
  name: "bn4a_branch2a"
  type: "BatchNorm"
  bottom: "res4a_branch2a"
  top: "res4a_branch2a"
  param {
    lr_mult: 0
    decay_mult: 0
  }
  param {
    lr_mult: 0
    decay_mult: 0
  }
  param {
    lr_mult: 0
    decay_mult: 0
  }
  batch_norm_param {
    use_global_stats: true
  }
}
layer {
  name: "scale4a_branch2a"
  type: "Scale"
  bottom: "res4a_branch2a"
  top: "res4a_branch2a"
  param {
    lr_mult: 0
    decay_mult: 0
  }
  param {
    lr_mult: 0
    decay_mult: 0
  }
  scale_param {
    bias_term: true
  }
}
layer {
  name: "res4a_branch2a_relu"
  type: "ReLU"
  bottom: "res4a_branch2a"
  top: "res4a_branch2a"
}
layer {
  name: "res4a_branch2b"
  type: "Convolution"
  bottom: "res4a_branch2a"
  top: "res4a_branch2b"
  param {
    lr_mult: 1
  }
  convolution_param {
    num_output: 256
    bias_term: false
    pad: 1
    kernel_size: 3
    stride: 1
  }
}
layer {
  name: "bn4a_branch2b"
  type: "BatchNorm"
  bottom: "res4a_branch2b"
  top: "res4a_branch2b"
  param {
    lr_mult: 0
    decay_mult: 0
  }
  param {
    lr_mult: 0
    decay_mult: 0
  }
  param {
    lr_mult: 0
    decay_mult: 0
  }
  batch_norm_param {
    use_global_stats: true
  }
}
layer {
  name: "scale4a_branch2b"
  type: "Scale"
  bottom: "res4a_branch2b"
  top: "res4a_branch2b"
  param {
    lr_mult: 0
    decay_mult: 0
  }
  param {
    lr_mult: 0
    decay_mult: 0
  }
  scale_param {
    bias_term: true
  }
}
layer {
  name: "res4a_branch2b_relu"
  type: "ReLU"
  bottom: "res4a_branch2b"
  top: "res4a_branch2b"
}
layer {
  name: "res4a_branch2c"
  type: "Convolution"
  bottom: "res4a_branch2b"
  top: "res4a_branch2c"
  param {
    lr_mult: 1
  }
  convolution_param {
    num_output: 1024
    bias_term: false
    pad: 0
    kernel_size: 1
    stride: 1
  }
}
layer {
  name: "bn4a_branch2c"
  type: "BatchNorm"
  bottom: "res4a_branch2c"
  top: "res4a_branch2c"
  param {
    lr_mult: 0
    decay_mult: 0
  }
  param {
    lr_mult: 0
    decay_mult: 0
  }
  param {
    lr_mult: 0
    decay_mult: 0
  }
  batch_norm_param {
    use_global_stats: true
  }
}
layer {
  name: "scale4a_branch2c"
  type: "Scale"
  bottom: "res4a_branch2c"
  top: "res4a_branch2c"
  param {
    lr_mult: 0
    decay_mult: 0
  }
  param {
    lr_mult: 0
    decay_mult: 0
  }
  scale_param {
    bias_term: true
  }
}
layer {
  name: "res4a"
  type: "Eltwise"
  bottom: "res4a_branch1"
  bottom: "res4a_branch2c"
  top: "res4a"
}
layer {
  name: "res4a_relu"
  type: "ReLU"
  bottom: "res4a"
  top: "res4a"
}
layer {
  name: "res4b_branch2a"
  type: "Convolution"
  bottom: "res4a"
  top: "res4b_branch2a"
  param {
    lr_mult: 1
  }
  convolution_param {
    num_output: 256
    bias_term: false
    pad: 0
    kernel_size: 1
    stride: 1
  }
}
layer {
  name: "bn4b_branch2a"
  type: "BatchNorm"
  bottom: "res4b_branch2a"
  top: "res4b_branch2a"
  param {
    lr_mult: 0
    decay_mult: 0
  }
  param {
    lr_mult: 0
    decay_mult: 0
  }
  param {
    lr_mult: 0
    decay_mult: 0
  }
  batch_norm_param {
    use_global_stats: true
  }
}
layer {
  name: "scale4b_branch2a"
  type: "Scale"
  bottom: "res4b_branch2a"
  top: "res4b_branch2a"
  param {
    lr_mult: 0
    decay_mult: 0
  }
  param {
    lr_mult: 0
    decay_mult: 0
  }
  scale_param {
    bias_term: true
  }
}
layer {
  name: "res4b_branch2a_relu"
  type: "ReLU"
  bottom: "res4b_branch2a"
  top: "res4b_branch2a"
}
layer {
  name: "res4b_branch2b"
  type: "Convolution"
  bottom: "res4b_branch2a"
  top: "res4b_branch2b"
  param {
    lr_mult: 1
  }
  convolution_param {
    num_output: 256
    bias_term: false
    pad: 1
    kernel_size: 3
    stride: 1
  }
}
layer {
  name: "bn4b_branch2b"
  type: "BatchNorm"
  bottom: "res4b_branch2b"
  top: "res4b_branch2b"
  param {
    lr_mult: 0
    decay_mult: 0
  }
  param {
    lr_mult: 0
    decay_mult: 0
  }
  param {
    lr_mult: 0
    decay_mult: 0
  }
  batch_norm_param {
    use_global_stats: true
  }
}
layer {
  name: "scale4b_branch2b"
  type: "Scale"
  bottom: "res4b_branch2b"
  top: "res4b_branch2b"
  param {
    lr_mult: 0
    decay_mult: 0
  }
  param {
    lr_mult: 0
    decay_mult: 0
  }
  scale_param {
    bias_term: true
  }
}
layer {
  name: "res4b_branch2b_relu"
  type: "ReLU"
  bottom: "res4b_branch2b"
  top: "res4b_branch2b"
}
layer {
  name: "res4b_branch2c"
  type: "Convolution"
  bottom: "res4b_branch2b"
  top: "res4b_branch2c"
  param {
    lr_mult: 1
  }
  convolution_param {
    num_output: 1024
    bias_term: false
    pad: 0
    kernel_size: 1
    stride: 1
  }
}
layer {
  name: "bn4b_branch2c"
  type: "BatchNorm"
  bottom: "res4b_branch2c"
  top: "res4b_branch2c"
  param {
    lr_mult: 0
    decay_mult: 0
  }
  param {
    lr_mult: 0
    decay_mult: 0
  }
  param {
    lr_mult: 0
    decay_mult: 0
  }
  batch_norm_param {
    use_global_stats: true
  }
}
layer {
  name: "scale4b_branch2c"
  type: "Scale"
  bottom: "res4b_branch2c"
  top: "res4b_branch2c"
  param {
    lr_mult: 0
    decay_mult: 0
  }
  param {
    lr_mult: 0
    decay_mult: 0
  }
  scale_param {
    bias_term: true
  }
}
layer {
  name: "res4b"
  type: "Eltwise"
  bottom: "res4a"
  bottom: "res4b_branch2c"
  top: "res4b"
}
layer {
  name: "res4b_relu"
  type: "ReLU"
  bottom: "res4b"
  top: "res4b"
}
layer {
  name: "res4c_branch2a"
  type: "Convolution"
  bottom: "res4b"
  top: "res4c_branch2a"
  param {
    lr_mult: 1
  }
  convolution_param {
    num_output: 256
    bias_term: false
    pad: 0
    kernel_size: 1
    stride: 1
  }
}
layer {
  name: "bn4c_branch2a"
  type: "BatchNorm"
  bottom: "res4c_branch2a"
  top: "res4c_branch2a"
  param {
    lr_mult: 0
    decay_mult: 0
  }
  param {
    lr_mult: 0
    decay_mult: 0
  }
  param {
    lr_mult: 0
    decay_mult: 0
  }
  batch_norm_param {
    use_global_stats: true
  }
}
layer {
  name: "scale4c_branch2a"
  type: "Scale"
  bottom: "res4c_branch2a"
  top: "res4c_branch2a"
  param {
    lr_mult: 0
    decay_mult: 0
  }
  param {
    lr_mult: 0
    decay_mult: 0
  }
  scale_param {
    bias_term: true
  }
}
layer {
  name: "res4c_branch2a_relu"
  type: "ReLU"
  bottom: "res4c_branch2a"
  top: "res4c_branch2a"
}
layer {
  name: "res4c_branch2b"
  type: "Convolution"
  bottom: "res4c_branch2a"
  top: "res4c_branch2b"
  param {
    lr_mult: 1
  }
  convolution_param {
    num_output: 256
    bias_term: false
    pad: 1
    kernel_size: 3
    stride: 1
  }
}
layer {
  name: "bn4c_branch2b"
  type: "BatchNorm"
  bottom: "res4c_branch2b"
  top: "res4c_branch2b"
  param {
    lr_mult: 0
    decay_mult: 0
  }
  param {
    lr_mult: 0
    decay_mult: 0
  }
  param {
    lr_mult: 0
    decay_mult: 0
  }
  batch_norm_param {
    use_global_stats: true
  }
}
layer {
  name: "scale4c_branch2b"
  type: "Scale"
  bottom: "res4c_branch2b"
  top: "res4c_branch2b"
  param {
    lr_mult: 0
    decay_mult: 0
  }
  param {
    lr_mult: 0
    decay_mult: 0
  }
  scale_param {
    bias_term: true
  }
}
layer {
  name: "res4c_branch2b_relu"
  type: "ReLU"
  bottom: "res4c_branch2b"
  top: "res4c_
I0318 12:38:48.305295  3159 layer_factory.hpp:77] Creating layer input-data
I0318 12:38:48.676331  3159 net.cpp:100] Creating Layer input-data
I0318 12:38:48.676357  3159 net.cpp:418] input-data -> data
I0318 12:38:48.676805  3159 net.cpp:418] input-data -> im_info
I0318 12:38:48.676820  3159 net.cpp:418] input-data -> gt_boxes
RoiDataLayer: name_to_top: {'gt_boxes': 2, 'data': 0, 'im_info': 1}
I0318 12:38:52.539108  3159 net.cpp:150] Setting up input-data
I0318 12:38:52.539129  3159 net.cpp:157] Top shape: 1 3 600 1000 (1800000)
I0318 12:38:52.539132  3159 net.cpp:157] Top shape: 1 3 (3)
I0318 12:38:52.539135  3159 net.cpp:157] Top shape: 1 4 (4)
I0318 12:38:52.539137  3159 net.cpp:165] Memory required for data: 7200028
I0318 12:38:52.539144  3159 layer_factory.hpp:77] Creating layer data_input-data_0_split
I0318 12:38:52.539153  3159 net.cpp:100] Creating Layer data_input-data_0_split
I0318 12:38:52.539156  3159 net.cpp:444] data_input-data_0_split <- data
I0318 12:38:52.539177  3159 net.cpp:418] data_input-data_0_split -> data_input-data_0_split_0
I0318 12:38:52.539185  3159 net.cpp:418] data_input-data_0_split -> data_input-data_0_split_1
I0318 12:38:52.539238  3159 net.cpp:150] Setting up data_input-data_0_split
I0318 12:38:52.539243  3159 net.cpp:157] Top shape: 1 3 600 1000 (1800000)
I0318 12:38:52.539259  3159 net.cpp:157] Top shape: 1 3 600 1000 (1800000)
I0318 12:38:52.539261  3159 net.cpp:165] Memory required for data: 21600028
I0318 12:38:52.539264  3159 layer_factory.hpp:77] Creating layer im_info_input-data_1_split
I0318 12:38:52.539268  3159 net.cpp:100] Creating Layer im_info_input-data_1_split
I0318 12:38:52.539285  3159 net.cpp:444] im_info_input-data_1_split <- im_info
I0318 12:38:52.539289  3159 net.cpp:418] im_info_input-data_1_split -> im_info_input-data_1_split_0
I0318 12:38:52.539294  3159 net.cpp:418] im_info_input-data_1_split -> im_info_input-data_1_split_1
I0318 12:38:52.539327  3159 net.cpp:150] Setting up im_info_input-data_1_split
I0318 12:38:52.539346  3159 net.cpp:157] Top shape: 1 3 (3)
I0318 12:38:52.539350  3159 net.cpp:157] Top shape: 1 3 (3)
I0318 12:38:52.539351  3159 net.cpp:165] Memory required for data: 21600052
I0318 12:38:52.539366  3159 layer_factory.hpp:77] Creating layer gt_boxes_input-data_2_split
I0318 12:38:52.539369  3159 net.cpp:100] Creating Layer gt_boxes_input-data_2_split
I0318 12:38:52.539372  3159 net.cpp:444] gt_boxes_input-data_2_split <- gt_boxes
I0318 12:38:52.539391  3159 net.cpp:418] gt_boxes_input-data_2_split -> gt_boxes_input-data_2_split_0
I0318 12:38:52.539396  3159 net.cpp:418] gt_boxes_input-data_2_split -> gt_boxes_input-data_2_split_1
I0318 12:38:52.539429  3159 net.cpp:150] Setting up gt_boxes_input-data_2_split
I0318 12:38:52.539434  3159 net.cpp:157] Top shape: 1 4 (4)
I0318 12:38:52.539438  3159 net.cpp:157] Top shape: 1 4 (4)
I0318 12:38:52.539453  3159 net.cpp:165] Memory required for data: 21600084
I0318 12:38:52.539456  3159 layer_factory.hpp:77] Creating layer conv1
I0318 12:38:52.539464  3159 net.cpp:100] Creating Layer conv1
I0318 12:38:52.539469  3159 net.cpp:444] conv1 <- data_input-data_0_split_0
I0318 12:38:52.539472  3159 net.cpp:418] conv1 -> conv1
I0318 12:38:52.541620  3159 net.cpp:150] Setting up conv1
I0318 12:38:52.541636  3159 net.cpp:157] Top shape: 1 64 300 500 (9600000)
I0318 12:38:52.541640  3159 net.cpp:165] Memory required for data: 60000084
I0318 12:38:52.541651  3159 layer_factory.hpp:77] Creating layer bn_conv1
I0318 12:38:52.541662  3159 net.cpp:100] Creating Layer bn_conv1
I0318 12:38:52.541666  3159 net.cpp:444] bn_conv1 <- conv1
I0318 12:38:52.541672  3159 net.cpp:405] bn_conv1 -> conv1 (in-place)
I0318 12:38:52.541916  3159 net.cpp:150] Setting up bn_conv1
I0318 12:38:52.541923  3159 net.cpp:157] Top shape: 1 64 300 500 (9600000)
I0318 12:38:52.541926  3159 net.cpp:165] Memory required for data: 98400084
I0318 12:38:52.541951  3159 layer_factory.hpp:77] Creating layer scale_conv1
I0318 12:38:52.541960  3159 net.cpp:100] Creating Layer scale_conv1
I0318 12:38:52.541962  3159 net.cpp:444] scale_conv1 <- conv1
I0318 12:38:52.541967  3159 net.cpp:405] scale_conv1 -> conv1 (in-place)
I0318 12:38:52.542014  3159 layer_factory.hpp:77] Creating layer scale_conv1
I0318 12:38:52.543022  3159 net.cpp:150] Setting up scale_conv1
I0318 12:38:52.543036  3159 net.cpp:157] Top shape: 1 64 300 500 (9600000)
I0318 12:38:52.543040  3159 net.cpp:165] Memory required for data: 136800084
I0318 12:38:52.543046  3159 layer_factory.hpp:77] Creating layer conv1_relu
I0318 12:38:52.543067  3159 net.cpp:100] Creating Layer conv1_relu
I0318 12:38:52.543071  3159 net.cpp:444] conv1_relu <- conv1
I0318 12:38:52.543076  3159 net.cpp:405] conv1_relu -> conv1 (in-place)
I0318 12:38:52.543083  3159 net.cpp:150] Setting up conv1_relu
I0318 12:38:52.543087  3159 net.cpp:157] Top shape: 1 64 300 500 (9600000)
I0318 12:38:52.543089  3159 net.cpp:165] Memory required for data: 175200084
I0318 12:38:52.543092  3159 layer_factory.hpp:77] Creating layer pool1
I0318 12:38:52.543098  3159 net.cpp:100] Creating Layer pool1
I0318 12:38:52.543140  3159 net.cpp:444] pool1 <- conv1
I0318 12:38:52.543159  3159 net.cpp:418] pool1 -> pool1
I0318 12:38:52.543222  3159 net.cpp:150] Setting up pool1
I0318 12:38:52.543227  3159 net.cpp:157] Top shape: 1 64 150 250 (2400000)
I0318 12:38:52.543229  3159 net.cpp:165] Memory required for data: 184800084
I0318 12:38:52.543231  3159 layer_factory.hpp:77] Creating layer pool1_pool1_0_split
I0318 12:38:52.543236  3159 net.cpp:100] Creating Layer pool1_pool1_0_split
I0318 12:38:52.543238  3159 net.cpp:444] pool1_pool1_0_split <- pool1
I0318 12:38:52.543256  3159 net.cpp:418] pool1_pool1_0_split -> pool1_pool1_0_split_0
I0318 12:38:52.543260  3159 net.cpp:418] pool1_pool1_0_split -> pool1_pool1_0_split_1
I0318 12:38:52.543296  3159 net.cpp:150] Setting up pool1_pool1_0_split
I0318 12:38:52.543300  3159 net.cpp:157] Top shape: 1 64 150 250 (2400000)
I0318 12:38:52.543303  3159 net.cpp:157] Top shape: 1 64 150 250 (2400000)
I0318 12:38:52.543306  3159 net.cpp:165] Memory required for data: 204000084
I0318 12:38:52.543308  3159 layer_factory.hpp:77] Creating layer res2a_branch1
I0318 12:38:52.543315  3159 net.cpp:100] Creating Layer res2a_branch1
I0318 12:38:52.543318  3159 net.cpp:444] res2a_branch1 <- pool1_pool1_0_split_0
I0318 12:38:52.543323  3159 net.cpp:418] res2a_branch1 -> res2a_branch1
I0318 12:38:52.543455  3159 net.cpp:150] Setting up res2a_branch1
I0318 12:38:52.543462  3159 net.cpp:157] Top shape: 1 256 150 250 (9600000)
I0318 12:38:52.543463  3159 net.cpp:165] Memory required for data: 242400084
I0318 12:38:52.543467  3159 layer_factory.hpp:77] Creating layer bn2a_branch1
I0318 12:38:52.543484  3159 net.cpp:100] Creating Layer bn2a_branch1
I0318 12:38:52.543488  3159 net.cpp:444] bn2a_branch1 <- res2a_branch1
I0318 12:38:52.543493  3159 net.cpp:405] bn2a_branch1 -> res2a_branch1 (in-place)
I0318 12:38:52.544348  3159 net.cpp:150] Setting up bn2a_branch1
I0318 12:38:52.544358  3159 net.cpp:157] Top shape: 1 256 150 250 (9600000)
I0318 12:38:52.544361  3159 net.cpp:165] Memory required for data: 280800084
I0318 12:38:52.544370  3159 layer_factory.hpp:77] Creating layer scale2a_branch1
I0318 12:38:52.544378  3159 net.cpp:100] Creating Layer scale2a_branch1
I0318 12:38:52.544394  3159 net.cpp:444] scale2a_branch1 <- res2a_branch1
I0318 12:38:52.544400  3159 net.cpp:405] scale2a_branch1 -> res2a_branch1 (in-place)
I0318 12:38:52.544430  3159 layer_factory.hpp:77] Creating layer scale2a_branch1
I0318 12:38:52.544535  3159 net.cpp:150] Setting up scale2a_branch1
I0318 12:38:52.544541  3159 net.cpp:157] Top shape: 1 256 150 250 (9600000)
I0318 12:38:52.544544  3159 net.cpp:165] Memory required for data: 319200084
I0318 12:38:52.544548  3159 layer_factory.hpp:77] Creating layer res2a_branch2a
I0318 12:38:52.544556  3159 net.cpp:100] Creating Layer res2a_branch2a
I0318 12:38:52.544559  3159 net.cpp:444] res2a_branch2a <- pool1_pool1_0_split_1
I0318 12:38:52.544564  3159 net.cpp:418] res2a_branch2a -> res2a_branch2a
I0318 12:38:52.545400  3159 net.cpp:150] Setting up res2a_branch2a
I0318 12:38:52.545410  3159 net.cpp:157] Top shape: 1 64 150 250 (2400000)
I0318 12:38:52.545413  3159 net.cpp:165] Memory required for data: 328800084
I0318 12:38:52.545418  3159 layer_factory.hpp:77] Creating layer bn2a_branch2a
I0318 12:38:52.545423  3159 net.cpp:100] Creating Layer bn2a_branch2a
I0318 12:38:52.545426  3159 net.cpp:444] bn2a_branch2a <- res2a_branch2a
I0318 12:38:52.545431  3159 net.cpp:405] bn2a_branch2a -> res2a_branch2a (in-place)
I0318 12:38:52.545578  3159 net.cpp:150] Setting up bn2a_branch2a
I0318 12:38:52.545583  3159 net.cpp:157] Top shape: 1 64 150 250 (2400000)
I0318 12:38:52.545585  3159 net.cpp:165] Memory required for data: 338400084
I0318 12:38:52.545593  3159 layer_factory.hpp:77] Creating layer scale2a_branch2a
I0318 12:38:52.545598  3159 net.cpp:100] Creating Layer scale2a_branch2a
I0318 12:38:52.545603  3159 net.cpp:444] scale2a_branch2a <- res2a_branch2a
I0318 12:38:52.545605  3159 net.cpp:405] scale2a_branch2a -> res2a_branch2a (in-place)
I0318 12:38:52.545632  3159 layer_factory.hpp:77] Creating layer scale2a_branch2a
I0318 12:38:52.545744  3159 net.cpp:150] Setting up scale2a_branch2a
I0318 12:38:52.545750  3159 net.cpp:157] Top shape: 1 64 150 250 (2400000)
I0318 12:38:52.545753  3159 net.cpp:165] Memory required for data: 348000084
I0318 12:38:52.545756  3159 layer_factory.hpp:77] Creating layer res2a_branch2a_relu
I0318 12:38:52.545763  3159 net.cpp:100] Creating Layer res2a_branch2a_relu
I0318 12:38:52.545766  3159 net.cpp:444] res2a_branch2a_relu <- res2a_branch2a
I0318 12:38:52.545770  3159 net.cpp:405] res2a_branch2a_relu -> res2a_branch2a (in-place)
I0318 12:38:52.545775  3159 net.cpp:150] Setting up res2a_branch2a_relu
I0318 12:38:52.545779  3159 net.cpp:157] Top shape: 1 64 150 250 (2400000)
I0318 12:38:52.545781  3159 net.cpp:165] Memory required for data: 357600084
I0318 12:38:52.545783  3159 layer_factory.hpp:77] Creating layer res2a_branch2b
I0318 12:38:52.545789  3159 net.cpp:100] Creating Layer res2a_branch2b
I0318 12:38:52.545792  3159 net.cpp:444] res2a_branch2b <- res2a_branch2a
I0318 12:38:52.545796  3159 net.cpp:418] res2a_branch2b -> res2a_branch2b
I0318 12:38:52.545949  3159 net.cpp:150] Setting up res2a_branch2b
I0318 12:38:52.545956  3159 net.cpp:157] Top shape: 1 64 150 250 (2400000)
I0318 12:38:52.545958  3159 net.cpp:165] Memory required for data: 367200084
I0318 12:38:52.545963  3159 layer_factory.hpp:77] Creating layer bn2a_branch2b
I0318 12:38:52.545966  3159 net.cpp:100] Creating Layer bn2a_branch2b
I0318 12:38:52.545971  3159 net.cpp:444] bn2a_branch2b <- res2a_branch2b
I0318 12:38:52.545974  3159 net.cpp:405] bn2a_branch2b -> res2a_branch2b (in-place)
I0318 12:38:52.546113  3159 net.cpp:150] Setting up bn2a_branch2b
I0318 12:38:52.546118  3159 net.cpp:157] Top shape: 1 64 150 250 (2400000)
I0318 12:38:52.546121  3159 net.cpp:165] Memory required for data: 376800084
I0318 12:38:52.546126  3159 layer_factory.hpp:77] Creating layer scale2a_branch2b
I0318 12:38:52.546130  3159 net.cpp:100] Creating Layer scale2a_branch2b
I0318 12:38:52.546133  3159 net.cpp:444] scale2a_branch2b <- res2a_branch2b
I0318 12:38:52.546136  3159 net.cpp:405] scale2a_branch2b -> res2a_branch2b (in-place)
I0318 12:38:52.546160  3159 layer_factory.hpp:77] Creating layer scale2a_branch2b
I0318 12:38:52.546277  3159 net.cpp:150] Setting up scale2a_branch2b
I0318 12:38:52.546283  3159 net.cpp:157] Top shape: 1 64 150 250 (2400000)
I0318 12:38:52.546285  3159 net.cpp:165] Memory required for data: 386400084
I0318 12:38:52.546289  3159 layer_factory.hpp:77] Creating layer res2a_branch2b_relu
I0318 12:38:52.546293  3159 net.cpp:100] Creating Layer res2a_branch2b_relu
I0318 12:38:52.546295  3159 net.cpp:444] res2a_branch2b_relu <- res2a_branch2b
I0318 12:38:52.546299  3159 net.cpp:405] res2a_branch2b_relu -> res2a_branch2b (in-place)
I0318 12:38:52.546304  3159 net.cpp:150] Setting up res2a_branch2b_relu
I0318 12:38:52.546308  3159 net.cpp:157] Top shape: 1 64 150 250 (2400000)
I0318 12:38:52.546309  3159 net.cpp:165] Memory required for data: 396000084
I0318 12:38:52.546313  3159 layer_factory.hpp:77] Creating layer res2a_branch2c
I0318 12:38:52.546316  3159 net.cpp:100] Creating Layer res2a_branch2c
I0318 12:38:52.546319  3159 net.cpp:444] res2a_branch2c <- res2a_branch2b
I0318 12:38:52.546322  3159 net.cpp:418] res2a_branch2c -> res2a_branch2c
I0318 12:38:52.546450  3159 net.cpp:150] Setting up res2a_branch2c
I0318 12:38:52.546456  3159 net.cpp:157] Top shape: 1 256 150 250 (9600000)
I0318 12:38:52.546458  3159 net.cpp:165] Memory required for data: 434400084
I0318 12:38:52.546461  3159 layer_factory.hpp:77] Creating layer bn2a_branch2c
I0318 12:38:52.546466  3159 net.cpp:100] Creating Layer bn2a_branch2c
I0318 12:38:52.546468  3159 net.cpp:444] bn2a_branch2c <- res2a_branch2c
I0318 12:38:52.546473  3159 net.cpp:405] bn2a_branch2c -> res2a_branch2c (in-place)
I0318 12:38:52.546607  3159 net.cpp:150] Setting up bn2a_branch2c
I0318 12:38:52.546613  3159 net.cpp:157] Top shape: 1 256 150 250 (9600000)
I0318 12:38:52.546615  3159 net.cpp:165] Memory required for data: 472800084
I0318 12:38:52.546620  3159 layer_factory.hpp:77] Creating layer scale2a_branch2c
I0318 12:38:52.546625  3159 net.cpp:100] Creating Layer scale2a_branch2c
I0318 12:38:52.546627  3159 net.cpp:444] scale2a_branch2c <- res2a_branch2c
I0318 12:38:52.546631  3159 net.cpp:405] scale2a_branch2c -> res2a_branch2c (in-place)
I0318 12:38:52.546654  3159 layer_factory.hpp:77] Creating layer scale2a_branch2c
I0318 12:38:52.546792  3159 net.cpp:150] Setting up scale2a_branch2c
I0318 12:38:52.546799  3159 net.cpp:157] Top shape: 1 256 150 250 (9600000)
I0318 12:38:52.546802  3159 net.cpp:165] Memory required for data: 511200084
I0318 12:38:52.546806  3159 layer_factory.hpp:77] Creating layer res2a
I0318 12:38:52.546810  3159 net.cpp:100] Creating Layer res2a
I0318 12:38:52.546813  3159 net.cpp:444] res2a <- res2a_branch1
I0318 12:38:52.546816  3159 net.cpp:444] res2a <- res2a_branch2c
I0318 12:38:52.546819  3159 net.cpp:418] res2a -> res2a
I0318 12:38:52.546836  3159 net.cpp:150] Setting up res2a
I0318 12:38:52.546857  3159 net.cpp:157] Top shape: 1 256 150 250 (9600000)
I0318 12:38:52.546867  3159 net.cpp:165] Memory required for data: 549600084
I0318 12:38:52.546880  3159 layer_factory.hpp:77] Creating layer res2a_relu
I0318 12:38:52.546895  3159 net.cpp:100] Creating Layer res2a_relu
I0318 12:38:52.546910  3159 net.cpp:444] res2a_relu <- res2a
I0318 12:38:52.546922  3159 net.cpp:405] res2a_relu -> res2a (in-place)
I0318 12:38:52.546939  3159 net.cpp:150] Setting up res2a_relu
I0318 12:38:52.546949  3159 net.cpp:157] Top shape: 1 256 150 250 (9600000)
I0318 12:38:52.546962  3159 net.cpp:165] Memory required for data: 588000084
I0318 12:38:52.546974  3159 layer_factory.hpp:77] Creating layer res2a_res2a_relu_0_split
I0318 12:38:52.546988  3159 net.cpp:100] Creating Layer res2a_res2a_relu_0_split
I0318 12:38:52.547005  3159 net.cpp:444] res2a_res2a_relu_0_split <- res2a
I0318 12:38:52.547021  3159 net.cpp:418] res2a_res2a_relu_0_split -> res2a_res2a_relu_0_split_0
I0318 12:38:52.547037  3159 net.cpp:418] res2a_res2a_relu_0_split -> res2a_res2a_relu_0_split_1
I0318 12:38:52.547080  3159 net.cpp:150] Setting up res2a_res2a_relu_0_split
I0318 12:38:52.547086  3159 net.cpp:157] Top shape: 1 256 150 250 (9600000)
I0318 12:38:52.547089  3159 net.cpp:157] Top shape: 1 256 150 250 (9600000)
I0318 12:38:52.547091  3159 net.cpp:165] Memory required for data: 664800084
I0318 12:38:52.547093  3159 layer_factory.hpp:77] Creating layer res2b_branch2a
I0318 12:38:52.547098  3159 net.cpp:100] Creating Layer res2b_branch2a
I0318 12:38:52.547116  3159 net.cpp:444] res2b_branch2a <- res2a_res2a_relu_0_split_0
I0318 12:38:52.547130  3159 net.cpp:418] res2b_branch2a -> res2b_branch2a
I0318 12:38:52.547263  3159 net.cpp:150] Setting up res2b_branch2a
I0318 12:38:52.547269  3159 net.cpp:157] Top shape: 1 64 150 250 (2400000)
I0318 12:38:52.547272  3159 net.cpp:165] Memory required for data: 674400084
I0318 12:38:52.547276  3159 layer_factory.hpp:77] Creating layer bn2b_branch2a
I0318 12:38:52.547281  3159 net.cpp:100] Creating Layer bn2b_branch2a
I0318 12:38:52.547282  3159 net.cpp:444] bn2b_branch2a <- res2b_branch2a
I0318 12:38:52.547286  3159 net.cpp:405] bn2b_branch2a -> res2b_branch2a (in-place)
I0318 12:38:52.548171  3159 net.cpp:150] Setting up bn2b_branch2a
I0318 12:38:52.548180  3159 net.cpp:157] Top shape: 1 64 150 250 (2400000)
I0318 12:38:52.548183  3159 net.cpp:165] Memory required for data: 684000084
I0318 12:38:52.548192  3159 layer_factory.hpp:77] Creating layer scale2b_branch2a
I0318 12:38:52.548199  3159 net.cpp:100] Creating Layer scale2b_branch2a
I0318 12:38:52.548202  3159 net.cpp:444] scale2b_branch2a <- res2b_branch2a
I0318 12:38:52.548207  3159 net.cpp:405] scale2b_branch2a -> res2b_branch2a (in-place)
I0318 12:38:52.548235  3159 layer_factory.hpp:77] Creating layer scale2b_branch2a
I0318 12:38:52.548346  3159 net.cpp:150] Setting up scale2b_branch2a
I0318 12:38:52.548352  3159 net.cpp:157] Top shape: 1 64 150 250 (2400000)
I0318 12:38:52.548354  3159 net.cpp:165] Memory required for data: 693600084
I0318 12:38:52.548359  3159 layer_factory.hpp:77] Creating layer res2b_branch2a_relu
I0318 12:38:52.548364  3159 net.cpp:100] Creating Layer res2b_branch2a_relu
I0318 12:38:52.548367  3159 net.cpp:444] res2b_branch2a_relu <- res2b_branch2a
I0318 12:38:52.548369  3159 net.cpp:405] res2b_branch2a_relu -> res2b_branch2a (in-place)
I0318 12:38:52.548374  3159 net.cpp:150] Setting up res2b_branch2a_relu
I0318 12:38:52.548378  3159 net.cpp:157] Top shape: 1 64 150 250 (2400000)
I0318 12:38:52.548380  3159 net.cpp:165] Memory required for data: 703200084
I0318 12:38:52.548382  3159 layer_factory.hpp:77] Creating layer res2b_branch2b
I0318 12:38:52.548388  3159 net.cpp:100] Creating Layer res2b_branch2b
I0318 12:38:52.548390  3159 net.cpp:444] res2b_branch2b <- res2b_branch2a
I0318 12:38:52.548394  3159 net.cpp:418] res2b_branch2b -> res2b_branch2b
I0318 12:38:52.548534  3159 net.cpp:150] Setting up res2b_branch2b
I0318 12:38:52.548540  3159 net.cpp:157] Top shape: 1 64 150 250 (2400000)
I0318 12:38:52.548542  3159 net.cpp:165] Memory required for data: 712800084
I0318 12:38:52.548547  3159 layer_factory.hpp:77] Creating layer bn2b_branch2b
I0318 12:38:52.548552  3159 net.cpp:100] Creating Layer bn2b_branch2b
I0318 12:38:52.548555  3159 net.cpp:444] bn2b_branch2b <- res2b_branch2b
I0318 12:38:52.548559  3159 net.cpp:405] bn2b_branch2b -> res2b_branch2b (in-place)
I0318 12:38:52.548693  3159 net.cpp:150] Setting up bn2b_branch2b
I0318 12:38:52.548698  3159 net.cpp:157] Top shape: 1 64 150 250 (2400000)
I0318 12:38:52.548702  3159 net.cpp:165] Memory required for data: 722400084
I0318 12:38:52.548707  3159 layer_factory.hpp:77] Creating layer scale2b_branch2b
I0318 12:38:52.548712  3159 net.cpp:100] Creating Layer scale2b_branch2b
I0318 12:38:52.548713  3159 net.cpp:444] scale2b_branch2b <- res2b_branch2b
I0318 12:38:52.548717  3159 net.cpp:405] scale2b_branch2b -> res2b_branch2b (in-place)
I0318 12:38:52.548741  3159 layer_factory.hpp:77] Creating layer scale2b_branch2b
I0318 12:38:52.548851  3159 net.cpp:150] Setting up scale2b_branch2b
I0318 12:38:52.548856  3159 net.cpp:157] Top shape: 1 64 150 250 (2400000)
I0318 12:38:52.548859  3159 net.cpp:165] Memory required for data: 732000084
I0318 12:38:52.548863  3159 layer_factory.hpp:77] Creating layer res2b_branch2b_relu
I0318 12:38:52.548866  3159 net.cpp:100] Creating Layer res2b_branch2b_relu
I0318 12:38:52.548869  3159 net.cpp:444] res2b_branch2b_relu <- res2b_branch2b
I0318 12:38:52.548872  3159 net.cpp:405] res2b_branch2b_relu -> res2b_branch2b (in-place)
I0318 12:38:52.548877  3159 net.cpp:150] Setting up res2b_branch2b_relu
I0318 12:38:52.548879  3159 net.cpp:157] Top shape: 1 64 150 250 (2400000)
I0318 12:38:52.548882  3159 net.cpp:165] Memory required for data: 741600084
I0318 12:38:52.548883  3159 layer_factory.hpp:77] Creating layer res2b_branch2c
I0318 12:38:52.548888  3159 net.cpp:100] Creating Layer res2b_branch2c
I0318 12:38:52.548890  3159 net.cpp:444] res2b_branch2c <- res2b_branch2b
I0318 12:38:52.548893  3159 net.cpp:418] res2b_branch2c -> res2b_branch2c
I0318 12:38:52.549038  3159 net.cpp:150] Setting up res2b_branch2c
I0318 12:38:52.549043  3159 net.cpp:157] Top shape: 1 256 150 250 (9600000)
I0318 12:38:52.549046  3159 net.cpp:165] Memory required for data: 780000084
I0318 12:38:52.549049  3159 layer_factory.hpp:77] Creating layer bn2b_branch2c
I0318 12:38:52.549054  3159 net.cpp:100] Creating Layer bn2b_branch2c
I0318 12:38:52.549057  3159 net.cpp:444] bn2b_branch2c <- res2b_branch2c
I0318 12:38:52.549060  3159 net.cpp:405] bn2b_branch2c -> res2b_branch2c (in-place)
I0318 12:38:52.549230  3159 net.cpp:150] Setting up bn2b_branch2c
I0318 12:38:52.549235  3159 net.cpp:157] Top shape: 1 256 150 250 (9600000)
I0318 12:38:52.549237  3159 net.cpp:165] Memory required for data: 818400084
I0318 12:38:52.549242  3159 layer_factory.hpp:77] Creating layer scale2b_branch2c
I0318 12:38:52.549247  3159 net.cpp:100] Creating Layer scale2b_branch2c
I0318 12:38:52.549263  3159 net.cpp:444] scale2b_branch2c <- res2b_branch2c
I0318 12:38:52.549268  3159 net.cpp:405] scale2b_branch2c -> res2b_branch2c (in-place)
I0318 12:38:52.549304  3159 layer_factory.hpp:77] Creating layer scale2b_branch2c
I0318 12:38:52.549443  3159 net.cpp:150] Setting up scale2b_branch2c
I0318 12:38:52.549448  3159 net.cpp:157] Top shape: 1 256 150 250 (9600000)
I0318 12:38:52.549450  3159 net.cpp:165] Memory required for data: 856800084
I0318 12:38:52.549454  3159 layer_factory.hpp:77] Creating layer res2b
I0318 12:38:52.549458  3159 net.cpp:100] Creating Layer res2b
I0318 12:38:52.549474  3159 net.cpp:444] res2b <- res2a_res2a_relu_0_split_1
I0318 12:38:52.549476  3159 net.cpp:444] res2b <- res2b_branch2c
I0318 12:38:52.549480  3159 net.cpp:418] res2b -> res2b
I0318 12:38:52.549496  3159 net.cpp:150] Setting up res2b
I0318 12:38:52.549515  3159 net.cpp:157] Top shape: 1 256 150 250 (9600000)
I0318 12:38:52.549516  3159 net.cpp:165] Memory required for data: 895200084
I0318 12:38:52.549518  3159 layer_factory.hpp:77] Creating layer res2b_relu
I0318 12:38:52.549521  3159 net.cpp:100] Creating Layer res2b_relu
I0318 12:38:52.549523  3159 net.cpp:444] res2b_relu <- res2b
I0318 12:38:52.549540  3159 net.cpp:405] res2b_relu -> res2b (in-place)
I0318 12:38:52.549543  3159 net.cpp:150] Setting up res2b_relu
I0318 12:38:52.549546  3159 net.cpp:157] Top shape: 1 256 150 250 (9600000)
I0318 12:38:52.549548  3159 net.cpp:165] Memory required for data: 933600084
I0318 12:38:52.549551  3159 layer_factory.hpp:77] Creating layer res2b_res2b_relu_0_split
I0318 12:38:52.549554  3159 net.cpp:100] Creating Layer res2b_res2b_relu_0_split
I0318 12:38:52.549557  3159 net.cpp:444] res2b_res2b_relu_0_split <- res2b
I0318 12:38:52.549561  3159 net.cpp:418] res2b_res2b_relu_0_split -> res2b_res2b_relu_0_split_0
I0318 12:38:52.549566  3159 net.cpp:418] res2b_res2b_relu_0_split -> res2b_res2b_relu_0_split_1
I0318 12:38:52.549602  3159 net.cpp:150] Setting up res2b_res2b_relu_0_split
I0318 12:38:52.549605  3159 net.cpp:157] Top shape: 1 256 150 250 (9600000)
I0318 12:38:52.549608  3159 net.cpp:157] Top shape: 1 256 150 250 (9600000)
I0318 12:38:52.549612  3159 net.cpp:165] Memory required for data: 1010400084
I0318 12:38:52.549613  3159 layer_factory.hpp:77] Creating layer res2c_branch2a
I0318 12:38:52.549618  3159 net.cpp:100] Creating Layer res2c_branch2a
I0318 12:38:52.549621  3159 net.cpp:444] res2c_branch2a <- res2b_res2b_relu_0_split_0
I0318 12:38:52.549625  3159 net.cpp:418] res2c_branch2a -> res2c_branch2a
I0318 12:38:52.549764  3159 net.cpp:150] Setting up res2c_branch2a
I0318 12:38:52.549769  3159 net.cpp:157] Top shape: 1 64 150 250 (2400000)
I0318 12:38:52.549772  3159 net.cpp:165] Memory required for data: 1020000084
I0318 12:38:52.549788  3159 layer_factory.hpp:77] Creating layer bn2c_branch2a
I0318 12:38:52.549793  3159 net.cpp:100] Creating Layer bn2c_branch2a
I0318 12:38:52.549795  3159 net.cpp:444] bn2c_branch2a <- res2c_branch2a
I0318 12:38:52.549798  3159 net.cpp:405] bn2c_branch2a -> res2c_branch2a (in-place)
I0318 12:38:52.549976  3159 net.cpp:150] Setting up bn2c_branch2a
I0318 12:38:52.549981  3159 net.cpp:157] Top shape: 1 64 150 250 (2400000)
I0318 12:38:52.549984  3159 net.cpp:165] Memory required for data: 1029600084
I0318 12:38:52.549989  3159 layer_factory.hpp:77] Creating layer scale2c_branch2a
I0318 12:38:52.549993  3159 net.cpp:100] Creating Layer scale2c_branch2a
I0318 12:38:52.550010  3159 net.cpp:444] scale2c_branch2a <- res2c_branch2a
I0318 12:38:52.550014  3159 net.cpp:405] scale2c_branch2a -> res2c_branch2a (in-place)
I0318 12:38:52.550052  3159 layer_factory.hpp:77] Creating layer scale2c_branch2a
I0318 12:38:52.550213  3159 net.cpp:150] Setting up scale2c_branch2a
I0318 12:38:52.550218  3159 net.cpp:157] Top shape: 1 64 150 250 (2400000)
I0318 12:38:52.550220  3159 net.cpp:165] Memory required for data: 1039200084
I0318 12:38:52.550225  3159 layer_factory.hpp:77] Creating layer res2c_branch2a_relu
I0318 12:38:52.550230  3159 net.cpp:100] Creating Layer res2c_branch2a_relu
I0318 12:38:52.550232  3159 net.cpp:444] res2c_branch2a_relu <- res2c_branch2a
I0318 12:38:52.550248  3159 net.cpp:405] res2c_branch2a_relu -> res2c_branch2a (in-place)
I0318 12:38:52.550252  3159 net.cpp:150] Setting up res2c_branch2a_relu
I0318 12:38:52.550256  3159 net.cpp:157] Top shape: 1 64 150 250 (2400000)
I0318 12:38:52.550258  3159 net.cpp:165] Memory required for data: 1048800084
I0318 12:38:52.550261  3159 layer_factory.hpp:77] Creating layer res2c_branch2b
I0318 12:38:52.550266  3159 net.cpp:100] Creating Layer res2c_branch2b
I0318 12:38:52.550268  3159 net.cpp:444] res2c_branch2b <- res2c_branch2a
I0318 12:38:52.550272  3159 net.cpp:418] res2c_branch2b -> res2c_branch2b
I0318 12:38:52.550479  3159 net.cpp:150] Setting up res2c_branch2b
I0318 12:38:52.550487  3159 net.cpp:157] Top shape: 1 64 150 250 (2400000)
I0318 12:38:52.550488  3159 net.cpp:165] Memory required for data: 1058400084
I0318 12:38:52.550493  3159 layer_factory.hpp:77] Creating layer bn2c_branch2b
I0318 12:38:52.550498  3159 net.cpp:100] Creating Layer bn2c_branch2b
I0318 12:38:52.550500  3159 net.cpp:444] bn2c_branch2b <- res2c_branch2b
I0318 12:38:52.550504  3159 net.cpp:405] bn2c_branch2b -> res2c_branch2b (in-place)
I0318 12:38:52.551405  3159 net.cpp:150] Setting up bn2c_branch2b
I0318 12:38:52.551417  3159 net.cpp:157] Top shape: 1 64 150 250 (2400000)
I0318 12:38:52.551421  3159 net.cpp:165] Memory required for data: 1068000084
I0318 12:38:52.551429  3159 layer_factory.hpp:77] Creating layer scale2c_branch2b
I0318 12:38:52.551435  3159 net.cpp:100] Creating Layer scale2c_branch2b
I0318 12:38:52.551440  3159 net.cpp:444] scale2c_branch2b <- res2c_branch2b
I0318 12:38:52.551443  3159 net.cpp:405] scale2c_branch2b -> res2c_branch2b (in-place)
I0318 12:38:52.551506  3159 layer_factory.hpp:77] Creating layer scale2c_branch2b
I0318 12:38:52.551646  3159 net.cpp:150] Setting up scale2c_branch2b
I0318 12:38:52.551652  3159 net.cpp:157] Top shape: 1 64 150 250 (2400000)
I0318 12:38:52.551654  3159 net.cpp:165] Memory required for data: 1077600084
I0318 12:38:52.551659  3159 layer_factory.hpp:77] Creating layer res2c_branch2b_relu
I0318 12:38:52.551664  3159 net.cpp:100] Creating Layer res2c_branch2b_relu
I0318 12:38:52.551666  3159 net.cpp:444] res2c_branch2b_relu <- res2c_branch2b
I0318 12:38:52.551671  3159 net.cpp:405] res2c_branch2b_relu -> res2c_branch2b (in-place)
I0318 12:38:52.551676  3159 net.cpp:150] Setting up res2c_branch2b_relu
I0318 12:38:52.551692  3159 net.cpp:157] Top shape: 1 64 150 250 (2400000)
I0318 12:38:52.551694  3159 net.cpp:165] Memory required for data: 1087200084
I0318 12:38:52.551697  3159 layer_factory.hpp:77] Creating layer res2c_branch2c
I0318 12:38:52.551703  3159 net.cpp:100] Creating Layer res2c_branch2c
I0318 12:38:52.551707  3159 net.cpp:444] res2c_branch2c <- res2c_branch2b
I0318 12:38:52.551710  3159 net.cpp:418] res2c_branch2c -> res2c_branch2c
I0318 12:38:52.551844  3159 net.cpp:150] Setting up res2c_branch2c
I0318 12:38:52.551851  3159 net.cpp:157] Top shape: 1 256 150 250 (9600000)
I0318 12:38:52.551852  3159 net.cpp:165] Memory required for data: 1125600084
I0318 12:38:52.551856  3159 layer_factory.hpp:77] Creating layer bn2c_branch2c
I0318 12:38:52.551862  3159 net.cpp:100] Creating Layer bn2c_branch2c
I0318 12:38:52.551864  3159 net.cpp:444] bn2c_branch2c <- res2c_branch2c
I0318 12:38:52.551867  3159 net.cpp:405] bn2c_branch2c -> res2c_branch2c (in-place)
I0318 12:38:52.552017  3159 net.cpp:150] Setting up bn2c_branch2c
I0318 12:38:52.552022  3159 net.cpp:157] Top shape: 1 256 150 250 (9600000)
I0318 12:38:52.552026  3159 net.cpp:165] Memory required for data: 1164000084
I0318 12:38:52.552034  3159 layer_factory.hpp:77] Creating layer scale2c_branch2c
I0318 12:38:52.552039  3159 net.cpp:100] Creating Layer scale2c_branch2c
I0318 12:38:52.552043  3159 net.cpp:444] scale2c_branch2c <- res2c_branch2c
I0318 12:38:52.552047  3159 net.cpp:405] scale2c_branch2c -> res2c_branch2c (in-place)
I0318 12:38:52.552073  3159 layer_factory.hpp:77] Creating layer scale2c_branch2c
I0318 12:38:52.552191  3159 net.cpp:150] Setting up scale2c_branch2c
I0318 12:38:52.552196  3159 net.cpp:157] Top shape: 1 256 150 250 (9600000)
I0318 12:38:52.552198  3159 net.cpp:165] Memory required for data: 1202400084
I0318 12:38:52.552203  3159 layer_factory.hpp:77] Creating layer res2c
I0318 12:38:52.552207  3159 net.cpp:100] Creating Layer res2c
I0318 12:38:52.552211  3159 net.cpp:444] res2c <- res2b_res2b_relu_0_split_1
I0318 12:38:52.552213  3159 net.cpp:444] res2c <- res2c_branch2c
I0318 12:38:52.552217  3159 net.cpp:418] res2c -> res2c
I0318 12:38:52.552233  3159 net.cpp:150] Setting up res2c
I0318 12:38:52.552238  3159 net.cpp:157] Top shape: 1 256 150 250 (9600000)
I0318 12:38:52.552240  3159 net.cpp:165] Memory required for data: 1240800084
I0318 12:38:52.552242  3159 layer_factory.hpp:77] Creating layer res2c_relu
I0318 12:38:52.552247  3159 net.cpp:100] Creating Layer res2c_relu
I0318 12:38:52.552249  3159 net.cpp:444] res2c_relu <- res2c
I0318 12:38:52.552253  3159 net.cpp:405] res2c_relu -> res2c (in-place)
I0318 12:38:52.552256  3159 net.cpp:150] Setting up res2c_relu
I0318 12:38:52.552258  3159 net.cpp:157] Top shape: 1 256 150 250 (9600000)
I0318 12:38:52.552261  3159 net.cpp:165] Memory required for data: 1279200084
I0318 12:38:52.552263  3159 layer_factory.hpp:77] Creating layer res2c_res2c_relu_0_split
I0318 12:38:52.552266  3159 net.cpp:100] Creating Layer res2c_res2c_relu_0_split
I0318 12:38:52.552269  3159 net.cpp:444] res2c_res2c_relu_0_split <- res2c
I0318 12:38:52.552273  3159 net.cpp:418] res2c_res2c_relu_0_split -> res2c_res2c_relu_0_split_0
I0318 12:38:52.552278  3159 net.cpp:418] res2c_res2c_relu_0_split -> res2c_res2c_relu_0_split_1
I0318 12:38:52.552299  3159 net.cpp:150] Setting up res2c_res2c_relu_0_split
I0318 12:38:52.552304  3159 net.cpp:157] Top shape: 1 256 150 250 (9600000)
I0318 12:38:52.552309  3159 net.cpp:157] Top shape: 1 256 150 250 (9600000)
I0318 12:38:52.552310  3159 net.cpp:165] Memory required for data: 1356000084
I0318 12:38:52.552312  3159 layer_factory.hpp:77] Creating layer res3a_branch1
I0318 12:38:52.552317  3159 net.cpp:100] Creating Layer res3a_branch1
I0318 12:38:52.552320  3159 net.cpp:444] res3a_branch1 <- res2c_res2c_relu_0_split_0
I0318 12:38:52.552323  3159 net.cpp:418] res3a_branch1 -> res3a_branch1
I0318 12:38:52.552561  3159 net.cpp:150] Setting up res3a_branch1
I0318 12:38:52.552590  3159 net.cpp:157] Top shape: 1 512 75 125 (4800000)
I0318 12:38:52.552594  3159 net.cpp:165] Memory required for data: 1375200084
I0318 12:38:52.552598  3159 layer_factory.hpp:77] Creating layer bn3a_branch1
I0318 12:38:52.552604  3159 net.cpp:100] Creating Layer bn3a_branch1
I0318 12:38:52.552606  3159 net.cpp:444] bn3a_branch1 <- res3a_branch1
I0318 12:38:52.552610  3159 net.cpp:405] bn3a_branch1 -> res3a_branch1 (in-place)
I0318 12:38:52.553536  3159 net.cpp:150] Setting up bn3a_branch1
I0318 12:38:52.553550  3159 net.cpp:157] Top shape: 1 512 75 125 (4800000)
I0318 12:38:52.553552  3159 net.cpp:165] Memory required for data: 1394400084
I0318 12:38:52.553561  3159 layer_factory.hpp:77] Creating layer scale3a_branch1
I0318 12:38:52.553568  3159 net.cpp:100] Creating Layer scale3a_branch1
I0318 12:38:52.553572  3159 net.cpp:444] scale3a_branch1 <- res3a_branch1
I0318 12:38:52.553591  3159 net.cpp:405] scale3a_branch1 -> res3a_branch1 (in-place)
I0318 12:38:52.553644  3159 layer_factory.hpp:77] Creating layer scale3a_branch1
I0318 12:38:52.553761  3159 net.cpp:150] Setting up scale3a_branch1
I0318 12:38:52.553767  3159 net.cpp:157] Top shape: 1 512 75 125 (4800000)
I0318 12:38:52.553769  3159 net.cpp:165] Memory required for data: 1413600084
I0318 12:38:52.553774  3159 layer_factory.hpp:77] Creating layer res3a_branch2a
I0318 12:38:52.553781  3159 net.cpp:100] Creating Layer res3a_branch2a
I0318 12:38:52.553784  3159 net.cpp:444] res3a_branch2a <- res2c_res2c_relu_0_split_1
I0318 12:38:52.553788  3159 net.cpp:418] res3a_branch2a -> res3a_branch2a
I0318 12:38:52.553964  3159 net.cpp:150] Setting up res3a_branch2a
I0318 12:38:52.553972  3159 net.cpp:157] Top shape: 1 128 75 125 (1200000)
I0318 12:38:52.553973  3159 net.cpp:165] Memory required for data: 1418400084
I0318 12:38:52.553977  3159 layer_factory.hpp:77] Creating layer bn3a_branch2a
I0318 12:38:52.553982  3159 net.cpp:100] Creating Layer bn3a_branch2a
I0318 12:38:52.553985  3159 net.cpp:444] bn3a_branch2a <- res3a_branch2a
I0318 12:38:52.553989  3159 net.cpp:405] bn3a_branch2a -> res3a_branch2a (in-place)
I0318 12:38:52.554117  3159 net.cpp:150] Setting up bn3a_branch2a
I0318 12:38:52.554123  3159 net.cpp:157] Top shape: 1 128 75 125 (1200000)
I0318 12:38:52.554126  3159 net.cpp:165] Memory required for data: 1423200084
I0318 12:38:52.554131  3159 layer_factory.hpp:77] Creating layer scale3a_branch2a
I0318 12:38:52.554136  3159 net.cpp:100] Creating Layer scale3a_branch2a
I0318 12:38:52.554137  3159 net.cpp:444] scale3a_branch2a <- res3a_branch2a
I0318 12:38:52.554141  3159 net.cpp:405] scale3a_branch2a -> res3a_branch2a (in-place)
I0318 12:38:52.554165  3159 layer_factory.hpp:77] Creating layer scale3a_branch2a
I0318 12:38:52.554246  3159 net.cpp:150] Setting up scale3a_branch2a
I0318 12:38:52.554251  3159 net.cpp:157] Top shape: 1 128 75 125 (1200000)
I0318 12:38:52.554253  3159 net.cpp:165] Memory required for data: 1428000084
I0318 12:38:52.554258  3159 layer_factory.hpp:77] Creating layer res3a_branch2a_relu
I0318 12:38:52.554275  3159 net.cpp:100] Creating Layer res3a_branch2a_relu
I0318 12:38:52.554280  3159 net.cpp:444] res3a_branch2a_relu <- res3a_branch2a
I0318 12:38:52.554285  3159 net.cpp:405] res3a_branch2a_relu -> res3a_branch2a (in-place)
I0318 12:38:52.554288  3159 net.cpp:150] Setting up res3a_branch2a_relu
I0318 12:38:52.554292  3159 net.cpp:157] Top shape: 1 128 75 125 (1200000)
I0318 12:38:52.554296  3159 net.cpp:165] Memory required for data: 1432800084
I0318 12:38:52.554297  3159 layer_factory.hpp:77] Creating layer res3a_branch2b
I0318 12:38:52.554302  3159 net.cpp:100] Creating Layer res3a_branch2b
I0318 12:38:52.554304  3159 net.cpp:444] res3a_branch2b <- res3a_branch2a
I0318 12:38:52.554308  3159 net.cpp:418] res3a_branch2b -> res3a_branch2b
I0318 12:38:52.554512  3159 net.cpp:150] Setting up res3a_branch2b
I0318 12:38:52.554518  3159 net.cpp:157] Top shape: 1 128 75 125 (1200000)
I0318 12:38:52.554520  3159 net.cpp:165] Memory required for data: 1437600084
I0318 12:38:52.554524  3159 layer_factory.hpp:77] Creating layer bn3a_branch2b
I0318 12:38:52.554528  3159 net.cpp:100] Creating Layer bn3a_branch2b
I0318 12:38:52.554543  3159 net.cpp:444] bn3a_branch2b <- res3a_branch2b
I0318 12:38:52.554548  3159 net.cpp:405] bn3a_branch2b -> res3a_branch2b (in-place)
I0318 12:38:52.554678  3159 net.cpp:150] Setting up bn3a_branch2b
I0318 12:38:52.554684  3159 net.cpp:157] Top shape: 1 128 75 125 (1200000)
I0318 12:38:52.554687  3159 net.cpp:165] Memory required for data: 1442400084
I0318 12:38:52.554692  3159 layer_factory.hpp:77] Creating layer scale3a_branch2b
I0318 12:38:52.554698  3159 net.cpp:100] Creating Layer scale3a_branch2b
I0318 12:38:52.554702  3159 net.cpp:444] scale3a_branch2b <- res3a_branch2b
I0318 12:38:52.554705  3159 net.cpp:405] scale3a_branch2b -> res3a_branch2b (in-place)
I0318 12:38:52.554730  3159 layer_factory.hpp:77] Creating layer scale3a_branch2b
I0318 12:38:52.554816  3159 net.cpp:150] Setting up scale3a_branch2b
I0318 12:38:52.554821  3159 net.cpp:157] Top shape: 1 128 75 125 (1200000)
I0318 12:38:52.554823  3159 net.cpp:165] Memory required for data: 1447200084
I0318 12:38:52.554828  3159 layer_factory.hpp:77] Creating layer res3a_branch2b_relu
I0318 12:38:52.554833  3159 net.cpp:100] Creating Layer res3a_branch2b_relu
I0318 12:38:52.554836  3159 net.cpp:444] res3a_branch2b_relu <- res3a_branch2b
I0318 12:38:52.554839  3159 net.cpp:405] res3a_branch2b_relu -> res3a_branch2b (in-place)
I0318 12:38:52.554843  3159 net.cpp:150] Setting up res3a_branch2b_relu
I0318 12:38:52.554847  3159 net.cpp:157] Top shape: 1 128 75 125 (1200000)
I0318 12:38:52.554848  3159 net.cpp:165] Memory required for data: 1452000084
I0318 12:38:52.554852  3159 layer_factory.hpp:77] Creating layer res3a_branch2c
I0318 12:38:52.554855  3159 net.cpp:100] Creating Layer res3a_branch2c
I0318 12:38:52.554857  3159 net.cpp:444] res3a_branch2c <- res3a_branch2b
I0318 12:38:52.554862  3159 net.cpp:418] res3a_branch2c -> res3a_branch2c
I0318 12:38:52.555029  3159 net.cpp:150] Setting up res3a_branch2c
I0318 12:38:52.555033  3159 net.cpp:157] Top shape: 1 512 75 125 (4800000)
I0318 12:38:52.555037  3159 net.cpp:165] Memory required for data: 1471200084
I0318 12:38:52.555039  3159 layer_factory.hpp:77] Creating layer bn3a_branch2c
I0318 12:38:52.555044  3159 net.cpp:100] Creating Layer bn3a_branch2c
I0318 12:38:52.555047  3159 net.cpp:444] bn3a_branch2c <- res3a_branch2c
I0318 12:38:52.555050  3159 net.cpp:405] bn3a_branch2c -> res3a_branch2c (in-place)
I0318 12:38:52.555186  3159 net.cpp:150] Setting up bn3a_branch2c
I0318 12:38:52.555189  3159 net.cpp:157] Top shape: 1 512 75 125 (4800000)
I0318 12:38:52.555191  3159 net.cpp:165] Memory required for data: 1490400084
I0318 12:38:52.555197  3159 layer_factory.hpp:77] Creating layer scale3a_branch2c
I0318 12:38:52.555202  3159 net.cpp:100] Creating Layer scale3a_branch2c
I0318 12:38:52.555203  3159 net.cpp:444] scale3a_branch2c <- res3a_branch2c
I0318 12:38:52.555207  3159 net.cpp:405] scale3a_branch2c -> res3a_branch2c (in-place)
I0318 12:38:52.555230  3159 layer_factory.hpp:77] Creating layer scale3a_branch2c
I0318 12:38:52.555315  3159 net.cpp:150] Setting up scale3a_branch2c
I0318 12:38:52.555320  3159 net.cpp:157] Top shape: 1 512 75 125 (4800000)
I0318 12:38:52.555321  3159 net.cpp:165] Memory required for data: 1509600084
I0318 12:38:52.555325  3159 layer_factory.hpp:77] Creating layer res3a
I0318 12:38:52.555330  3159 net.cpp:100] Creating Layer res3a
I0318 12:38:52.555332  3159 net.cpp:444] res3a <- res3a_branch1
I0318 12:38:52.555335  3159 net.cpp:444] res3a <- res3a_branch2c
I0318 12:38:52.555339  3159 net.cpp:418] res3a -> res3a
I0318 12:38:52.555356  3159 net.cpp:150] Setting up res3a
I0318 12:38:52.555359  3159 net.cpp:157] Top shape: 1 512 75 125 (4800000)
I0318 12:38:52.555362  3159 net.cpp:165] Memory required for data: 1528800084
I0318 12:38:52.555364  3159 layer_factory.hpp:77] Creating layer res3a_relu
I0318 12:38:52.555369  3159 net.cpp:100] Creating Layer res3a_relu
I0318 12:38:52.555372  3159 net.cpp:444] res3a_relu <- res3a
I0318 12:38:52.555375  3159 net.cpp:405] res3a_relu -> res3a (in-place)
I0318 12:38:52.555380  3159 net.cpp:150] Setting up res3a_relu
I0318 12:38:52.555383  3159 net.cpp:157] Top shape: 1 512 75 125 (4800000)
I0318 12:38:52.555385  3159 net.cpp:165] Memory required for data: 1548000084
I0318 12:38:52.555387  3159 layer_factory.hpp:77] Creating layer res3a_res3a_relu_0_split
I0318 12:38:52.555392  3159 net.cpp:100] Creating Layer res3a_res3a_relu_0_split
I0318 12:38:52.555394  3159 net.cpp:444] res3a_res3a_relu_0_split <- res3a
I0318 12:38:52.555397  3159 net.cpp:418] res3a_res3a_relu_0_split -> res3a_res3a_relu_0_split_0
I0318 12:38:52.555402  3159 net.cpp:418] res3a_res3a_relu_0_split -> res3a_res3a_relu_0_split_1
I0318 12:38:52.555426  3159 net.cpp:150] Setting up res3a_res3a_relu_0_split
I0318 12:38:52.555430  3159 net.cpp:157] Top shape: 1 512 75 125 (4800000)
I0318 12:38:52.555433  3159 net.cpp:157] Top shape: 1 512 75 125 (4800000)
I0318 12:38:52.555435  3159 net.cpp:165] Memory required for data: 1586400084
I0318 12:38:52.555438  3159 layer_factory.hpp:77] Creating layer res3b_branch2a
I0318 12:38:52.555443  3159 net.cpp:100] Creating Layer res3b_branch2a
I0318 12:38:52.555444  3159 net.cpp:444] res3b_branch2a <- res3a_res3a_relu_0_split_0
I0318 12:38:52.555449  3159 net.cpp:418] res3b_branch2a -> res3b_branch2a
I0318 12:38:52.555613  3159 net.cpp:150] Setting up res3b_branch2a
I0318 12:38:52.555618  3159 net.cpp:157] Top shape: 1 128 75 125 (1200000)
I0318 12:38:52.555619  3159 net.cpp:165] Memory required for data: 1591200084
I0318 12:38:52.555624  3159 layer_factory.hpp:77] Creating layer bn3b_branch2a
I0318 12:38:52.555629  3159 net.cpp:100] Creating Layer bn3b_branch2a
I0318 12:38:52.555630  3159 net.cpp:444] bn3b_branch2a <- res3b_branch2a
I0318 12:38:52.555634  3159 net.cpp:405] bn3b_branch2a -> res3b_branch2a (in-place)
I0318 12:38:52.555759  3159 net.cpp:150] Setting up bn3b_branch2a
I0318 12:38:52.555763  3159 net.cpp:157] Top shape: 1 128 75 125 (1200000)
I0318 12:38:52.555765  3159 net.cpp:165] Memory required for data: 1596000084
I0318 12:38:52.555770  3159 layer_factory.hpp:77] Creating layer scale3b_branch2a
I0318 12:38:52.555774  3159 net.cpp:100] Creating Layer scale3b_branch2a
I0318 12:38:52.555778  3159 net.cpp:444] scale3b_branch2a <- res3b_branch2a
I0318 12:38:52.555780  3159 net.cpp:405] scale3b_branch2a -> res3b_branch2a (in-place)
I0318 12:38:52.555804  3159 layer_factory.hpp:77] Creating layer scale3b_branch2a
I0318 12:38:52.555884  3159 net.cpp:150] Setting up scale3b_branch2a
I0318 12:38:52.555889  3159 net.cpp:157] Top shape: 1 128 75 125 (1200000)
I0318 12:38:52.555891  3159 net.cpp:165] Memory required for data: 1600800084
I0318 12:38:52.555896  3159 layer_factory.hpp:77] Creating layer res3b_branch2a_relu
I0318 12:38:52.555898  3159 net.cpp:100] Creating Layer res3b_branch2a_relu
I0318 12:38:52.555902  3159 net.cpp:444] res3b_branch2a_relu <- res3b_branch2a
I0318 12:38:52.555904  3159 net.cpp:405] res3b_branch2a_relu -> res3b_branch2a (in-place)
I0318 12:38:52.555908  3159 net.cpp:150] Setting up res3b_branch2a_relu
I0318 12:38:52.555912  3159 net.cpp:157] Top shape: 1 128 75 125 (1200000)
I0318 12:38:52.555913  3159 net.cpp:165] Memory required for data: 1605600084
I0318 12:38:52.555915  3159 layer_factory.hpp:77] Creating layer res3b_branch2b
I0318 12:38:52.555919  3159 net.cpp:100] Creating Layer res3b_branch2b
I0318 12:38:52.555922  3159 net.cpp:444] res3b_branch2b <- res3b_branch2a
I0318 12:38:52.555927  3159 net.cpp:418] res3b_branch2b -> res3b_branch2b
I0318 12:38:52.556876  3159 net.cpp:150] Setting up res3b_branch2b
I0318 12:38:52.556885  3159 net.cpp:157] Top shape: 1 128 75 125 (1200000)
I0318 12:38:52.556888  3159 net.cpp:165] Memory required for data: 1610400084
I0318 12:38:52.556892  3159 layer_factory.hpp:77] Creating layer bn3b_branch2b
I0318 12:38:52.556898  3159 net.cpp:100] Creating Layer bn3b_branch2b
I0318 12:38:52.556900  3159 net.cpp:444] bn3b_branch2b <- res3b_branch2b
I0318 12:38:52.556905  3159 net.cpp:405] bn3b_branch2b -> res3b_branch2b (in-place)
I0318 12:38:52.557042  3159 net.cpp:150] Setting up bn3b_branch2b
I0318 12:38:52.557047  3159 net.cpp:157] Top shape: 1 128 75 125 (1200000)
I0318 12:38:52.557049  3159 net.cpp:165] Memory required for data: 1615200084
I0318 12:38:52.557054  3159 layer_factory.hpp:77] Creating layer scale3b_branch2b
I0318 12:38:52.557061  3159 net.cpp:100] Creating Layer scale3b_branch2b
I0318 12:38:52.557063  3159 net.cpp:444] scale3b_branch2b <- res3b_branch2b
I0318 12:38:52.557067  3159 net.cpp:405] scale3b_branch2b -> res3b_branch2b (in-place)
I0318 12:38:52.557094  3159 layer_factory.hpp:77] Creating layer scale3b_branch2b
I0318 12:38:52.557181  3159 net.cpp:150] Setting up scale3b_branch2b
I0318 12:38:52.557185  3159 net.cpp:157] Top shape: 1 128 75 125 (1200000)
I0318 12:38:52.557188  3159 net.cpp:165] Memory required for data: 1620000084
I0318 12:38:52.557191  3159 layer_factory.hpp:77] Creating layer res3b_branch2b_relu
I0318 12:38:52.557195  3159 net.cpp:100] Creating Layer res3b_branch2b_relu
I0318 12:38:52.557198  3159 net.cpp:444] res3b_branch2b_relu <- res3b_branch2b
I0318 12:38:52.557200  3159 net.cpp:405] res3b_branch2b_relu -> res3b_branch2b (in-place)
I0318 12:38:52.557204  3159 net.cpp:150] Setting up res3b_branch2b_relu
I0318 12:38:52.557209  3159 net.cpp:157] Top shape: 1 128 75 125 (1200000)
I0318 12:38:52.557210  3159 net.cpp:165] Memory required for data: 1624800084
I0318 12:38:52.557212  3159 layer_factory.hpp:77] Creating layer res3b_branch2c
I0318 12:38:52.557217  3159 net.cpp:100] Creating Layer res3b_branch2c
I0318 12:38:52.557220  3159 net.cpp:444] res3b_branch2c <- res3b_branch2b
I0318 12:38:52.557224  3159 net.cpp:418] res3b_branch2c -> res3b_branch2c
I0318 12:38:52.557392  3159 net.cpp:150] Setting up res3b_branch2c
I0318 12:38:52.557397  3159 net.cpp:157] Top shape: 1 512 75 125 (4800000)
I0318 12:38:52.557399  3159 net.cpp:165] Memory required for data: 1644000084
I0318 12:38:52.557402  3159 layer_factory.hpp:77] Creating layer bn3b_branch2c
I0318 12:38:52.557407  3159 net.cpp:100] Creating Layer bn3b_branch2c
I0318 12:38:52.557410  3159 net.cpp:444] bn3b_branch2c <- res3b_branch2c
I0318 12:38:52.557413  3159 net.cpp:405] bn3b_branch2c -> res3b_branch2c (in-place)
I0318 12:38:52.557546  3159 net.cpp:150] Setting up bn3b_branch2c
I0318 12:38:52.557550  3159 net.cpp:157] Top shape: 1 512 75 125 (4800000)
I0318 12:38:52.557552  3159 net.cpp:165] Memory required for data: 1663200084
I0318 12:38:52.557557  3159 layer_factory.hpp:77] Creating layer scale3b_branch2c
I0318 12:38:52.557562  3159 net.cpp:100] Creating Layer scale3b_branch2c
I0318 12:38:52.557564  3159 net.cpp:444] scale3b_branch2c <- res3b_branch2c
I0318 12:38:52.557567  3159 net.cpp:405] scale3b_branch2c -> res3b_branch2c (in-place)
I0318 12:38:52.557590  3159 layer_factory.hpp:77] Creating layer scale3b_branch2c
I0318 12:38:52.557675  3159 net.cpp:150] Setting up scale3b_branch2c
I0318 12:38:52.557679  3159 net.cpp:157] Top shape: 1 512 75 125 (4800000)
I0318 12:38:52.557682  3159 net.cpp:165] Memory required for data: 1682400084
I0318 12:38:52.557687  3159 layer_factory.hpp:77] Creating layer res3b
I0318 12:38:52.557690  3159 net.cpp:100] Creating Layer res3b
I0318 12:38:52.557693  3159 net.cpp:444] res3b <- res3a_res3a_relu_0_split_1
I0318 12:38:52.557696  3159 net.cpp:444] res3b <- res3b_branch2c
I0318 12:38:52.557699  3159 net.cpp:418] res3b -> res3b
I0318 12:38:52.557716  3159 net.cpp:150] Setting up res3b
I0318 12:38:52.557719  3159 net.cpp:157] Top shape: 1 512 75 125 (4800000)
I0318 12:38:52.557721  3159 net.cpp:165] Memory required for data: 1701600084
I0318 12:38:52.557724  3159 layer_factory.hpp:77] Creating layer res3b_relu
I0318 12:38:52.557727  3159 net.cpp:100] Creating Layer res3b_relu
I0318 12:38:52.557730  3159 net.cpp:444] res3b_relu <- res3b
I0318 12:38:52.557734  3159 net.cpp:405] res3b_relu -> res3b (in-place)
I0318 12:38:52.557737  3159 net.cpp:150] Setting up res3b_relu
I0318 12:38:52.557740  3159 net.cpp:157] Top shape: 1 512 75 125 (4800000)
I0318 12:38:52.557742  3159 net.cpp:165] Memory required for data: 1720800084
I0318 12:38:52.557744  3159 layer_factory.hpp:77] Creating layer res3b_res3b_relu_0_split
I0318 12:38:52.557749  3159 net.cpp:100] Creating Layer res3b_res3b_relu_0_split
I0318 12:38:52.557750  3159 net.cpp:444] res3b_res3b_relu_0_split <- res3b
I0318 12:38:52.557754  3159 net.cpp:418] res3b_res3b_relu_0_split -> res3b_res3b_relu_0_split_0
I0318 12:38:52.557759  3159 net.cpp:418] res3b_res3b_relu_0_split -> res3b_res3b_relu_0_split_1
I0318 12:38:52.557781  3159 net.cpp:150] Setting up res3b_res3b_relu_0_split
I0318 12:38:52.557785  3159 net.cpp:157] Top shape: 1 512 75 125 (4800000)
I0318 12:38:52.557788  3159 net.cpp:157] Top shape: 1 512 75 125 (4800000)
I0318 12:38:52.557790  3159 net.cpp:165] Memory required for data: 1759200084
I0318 12:38:52.557792  3159 layer_factory.hpp:77] Creating layer res3c_branch2a
I0318 12:38:52.557797  3159 net.cpp:100] Creating Layer res3c_branch2a
I0318 12:38:52.557801  3159 net.cpp:444] res3c_branch2a <- res3b_res3b_relu_0_split_0
I0318 12:38:52.557803  3159 net.cpp:418] res3c_branch2a -> res3c_branch2a
I0318 12:38:52.557976  3159 net.cpp:150] Setting up res3c_branch2a
I0318 12:38:52.557981  3159 net.cpp:157] Top shape: 1 128 75 125 (1200000)
I0318 12:38:52.557983  3159 net.cpp:165] Memory required for data: 1764000084
I0318 12:38:52.557987  3159 layer_factory.hpp:77] Creating layer bn3c_branch2a
I0318 12:38:52.557991  3159 net.cpp:100] Creating Layer bn3c_branch2a
I0318 12:38:52.557994  3159 net.cpp:444] bn3c_branch2a <- res3c_branch2a
I0318 12:38:52.557997  3159 net.cpp:405] bn3c_branch2a -> res3c_branch2a (in-place)
I0318 12:38:52.558125  3159 net.cpp:150] Setting up bn3c_branch2a
I0318 12:38:52.558130  3159 net.cpp:157] Top shape: 1 128 75 125 (1200000)
I0318 12:38:52.558131  3159 net.cpp:165] Memory required for data: 1768800084
I0318 12:38:52.558135  3159 layer_factory.hpp:77] Creating layer scale3c_branch2a
I0318 12:38:52.558140  3159 net.cpp:100] Creating Layer scale3c_branch2a
I0318 12:38:52.558142  3159 net.cpp:444] scale3c_branch2a <- res3c_branch2a
I0318 12:38:52.558146  3159 net.cpp:405] scale3c_branch2a -> res3c_branch2a (in-place)
I0318 12:38:52.558171  3159 layer_factory.hpp:77] Creating layer scale3c_branch2a
I0318 12:38:52.558250  3159 net.cpp:150] Setting up scale3c_branch2a
I0318 12:38:52.558254  3159 net.cpp:157] Top shape: 1 128 75 125 (1200000)
I0318 12:38:52.558257  3159 net.cpp:165] Memory required for data: 1773600084
I0318 12:38:52.558261  3159 layer_factory.hpp:77] Creating layer res3c_branch2a_relu
I0318 12:38:52.558264  3159 net.cpp:100] Creating Layer res3c_branch2a_relu
I0318 12:38:52.558267  3159 net.cpp:444] res3c_branch2a_relu <- res3c_branch2a
I0318 12:38:52.558270  3159 net.cpp:405] res3c_branch2a_relu -> res3c_branch2a (in-place)
I0318 12:38:52.558274  3159 net.cpp:150] Setting up res3c_branch2a_relu
I0318 12:38:52.558277  3159 net.cpp:157] Top shape: 1 128 75 125 (1200000)
I0318 12:38:52.558279  3159 net.cpp:165] Memory required for data: 1778400084
I0318 12:38:52.558281  3159 layer_factory.hpp:77] Creating layer res3c_branch2b
I0318 12:38:52.558286  3159 net.cpp:100] Creating Layer res3c_branch2b
I0318 12:38:52.558288  3159 net.cpp:444] res3c_branch2b <- res3c_branch2a
I0318 12:38:52.558292  3159 net.cpp:418] res3c_branch2b -> res3c_branch2b
I0318 12:38:52.558496  3159 net.cpp:150] Setting up res3c_branch2b
I0318 12:38:52.558501  3159 net.cpp:157] Top shape: 1 128 75 125 (1200000)
I0318 12:38:52.558503  3159 net.cpp:165] Memory required for data: 1783200084
I0318 12:38:52.558506  3159 layer_factory.hpp:77] Creating layer bn3c_branch2b
I0318 12:38:52.558511  3159 net.cpp:100] Creating Layer bn3c_branch2b
I0318 12:38:52.558513  3159 net.cpp:444] bn3c_branch2b <- res3c_branch2b
I0318 12:38:52.558516  3159 net.cpp:405] bn3c_branch2b -> res3c_branch2b (in-place)
I0318 12:38:52.558643  3159 net.cpp:150] Setting up bn3c_branch2b
I0318 12:38:52.558647  3159 net.cpp:157] Top shape: 1 128 75 125 (1200000)
I0318 12:38:52.558650  3159 net.cpp:165] Memory required for data: 1788000084
I0318 12:38:52.558655  3159 layer_factory.hpp:77] Creating layer scale3c_branch2b
I0318 12:38:52.558658  3159 net.cpp:100] Creating Layer scale3c_branch2b
I0318 12:38:52.558661  3159 net.cpp:444] scale3c_branch2b <- res3c_branch2b
I0318 12:38:52.558665  3159 net.cpp:405] scale3c_branch2b -> res3c_branch2b (in-place)
I0318 12:38:52.558689  3159 layer_factory.hpp:77] Creating layer scale3c_branch2b
I0318 12:38:52.558770  3159 net.cpp:150] Setting up scale3c_branch2b
I0318 12:38:52.558774  3159 net.cpp:157] Top shape: 1 128 75 125 (1200000)
I0318 12:38:52.558776  3159 net.cpp:165] Memory required for data: 1792800084
I0318 12:38:52.558780  3159 layer_factory.hpp:77] Creating layer res3c_branch2b_relu
I0318 12:38:52.558784  3159 net.cpp:100] Creating Layer res3c_branch2b_relu
I0318 12:38:52.558786  3159 net.cpp:444] res3c_branch2b_relu <- res3c_branch2b
I0318 12:38:52.558789  3159 net.cpp:405] res3c_branch2b_relu -> res3c_branch2b (in-place)
I0318 12:38:52.558794  3159 net.cpp:150] Setting up res3c_branch2b_relu
I0318 12:38:52.558796  3159 net.cpp:157] Top shape: 1 128 75 125 (1200000)
I0318 12:38:52.558799  3159 net.cpp:165] Memory required for data: 1797600084
I0318 12:38:52.558800  3159 layer_factory.hpp:77] Creating layer res3c_branch2c
I0318 12:38:52.558805  3159 net.cpp:100] Creating Layer res3c_branch2c
I0318 12:38:52.558807  3159 net.cpp:444] res3c_branch2c <- res3c_branch2b
I0318 12:38:52.558811  3159 net.cpp:418] res3c_branch2c -> res3c_branch2c
I0318 12:38:52.559773  3159 net.cpp:150] Setting up res3c_branch2c
I0318 12:38:52.559790  3159 net.cpp:157] Top shape: 1 512 75 125 (4800000)
I0318 12:38:52.559792  3159 net.cpp:165] Memory required for data: 1816800084
I0318 12:38:52.559798  3159 layer_factory.hpp:77] Creating layer bn3c_branch2c
I0318 12:38:52.559805  3159 net.cpp:100] Creating Layer bn3c_branch2c
I0318 12:38:52.559808  3159 net.cpp:444] bn3c_branch2c <- res3c_branch2c
I0318 12:38:52.559813  3159 net.cpp:405] bn3c_branch2c -> res3c_branch2c (in-place)
I0318 12:38:52.559957  3159 net.cpp:150] Setting up bn3c_branch2c
I0318 12:38:52.559962  3159 net.cpp:157] Top shape: 1 512 75 125 (4800000)
I0318 12:38:52.559964  3159 net.cpp:165] Memory required for data: 1836000084
I0318 12:38:52.559969  3159 layer_factory.hpp:77] Creating layer scale3c_branch2c
I0318 12:38:52.559974  3159 net.cpp:100] Creating Layer scale3c_branch2c
I0318 12:38:52.559976  3159 net.cpp:444] scale3c_branch2c <- res3c_branch2c
I0318 12:38:52.559980  3159 net.cpp:405] scale3c_branch2c -> res3c_branch2c (in-place)
I0318 12:38:52.560004  3159 layer_factory.hpp:77] Creating layer scale3c_branch2c
I0318 12:38:52.560094  3159 net.cpp:150] Setting up scale3c_branch2c
I0318 12:38:52.560098  3159 net.cpp:157] Top shape: 1 512 75 125 (4800000)
I0318 12:38:52.560101  3159 net.cpp:165] Memory required for data: 1855200084
I0318 12:38:52.560106  3159 layer_factory.hpp:77] Creating layer res3c
I0318 12:38:52.560109  3159 net.cpp:100] Creating Layer res3c
I0318 12:38:52.560112  3159 net.cpp:444] res3c <- res3b_res3b_relu_0_split_1
I0318 12:38:52.560115  3159 net.cpp:444] res3c <- res3c_branch2c
I0318 12:38:52.560119  3159 net.cpp:418] res3c -> res3c
I0318 12:38:52.560137  3159 net.cpp:150] Setting up res3c
I0318 12:38:52.560139  3159 net.cpp:157] Top shape: 1 512 75 125 (4800000)
I0318 12:38:52.560142  3159 net.cpp:165] Memory required for data: 1874400084
I0318 12:38:52.560144  3159 layer_factory.hpp:77] Creating layer res3c_relu
I0318 12:38:52.560149  3159 net.cpp:100] Creating Layer res3c_relu
I0318 12:38:52.560153  3159 net.cpp:444] res3c_relu <- res3c
I0318 12:38:52.560156  3159 net.cpp:405] res3c_relu -> res3c (in-place)
I0318 12:38:52.560161  3159 net.cpp:150] Setting up res3c_relu
I0318 12:38:52.560164  3159 net.cpp:157] Top shape: 1 512 75 125 (4800000)
I0318 12:38:52.560166  3159 net.cpp:165] Memory required for data: 1893600084
I0318 12:38:52.560168  3159 layer_factory.hpp:77] Creating layer res3c_res3c_relu_0_split
I0318 12:38:52.560173  3159 net.cpp:100] Creating Layer res3c_res3c_relu_0_split
I0318 12:38:52.560174  3159 net.cpp:444] res3c_res3c_relu_0_split <- res3c
I0318 12:38:52.560178  3159 net.cpp:418] res3c_res3c_relu_0_split -> res3c_res3c_relu_0_split_0
I0318 12:38:52.560183  3159 net.cpp:418] res3c_res3c_relu_0_split -> res3c_res3c_relu_0_split_1
I0318 12:38:52.560206  3159 net.cpp:150] Setting up res3c_res3c_relu_0_split
I0318 12:38:52.560209  3159 net.cpp:157] Top shape: 1 512 75 125 (4800000)
I0318 12:38:52.560212  3159 net.cpp:157] Top shape: 1 512 75 125 (4800000)
I0318 12:38:52.560214  3159 net.cpp:165] Memory required for data: 1932000084
I0318 12:38:52.560217  3159 layer_factory.hpp:77] Creating layer res3d_branch2a
I0318 12:38:52.560222  3159 net.cpp:100] Creating Layer res3d_branch2a
I0318 12:38:52.560225  3159 net.cpp:444] res3d_branch2a <- res3c_res3c_relu_0_split_0
I0318 12:38:52.560230  3159 net.cpp:418] res3d_branch2a -> res3d_branch2a
I0318 12:38:52.560389  3159 net.cpp:150] Setting up res3d_branch2a
I0318 12:38:52.560394  3159 net.cpp:157] Top shape: 1 128 75 125 (1200000)
I0318 12:38:52.560396  3159 net.cpp:165] Memory required for data: 1936800084
I0318 12:38:52.560400  3159 layer_factory.hpp:77] Creating layer bn3d_branch2a
I0318 12:38:52.560403  3159 net.cpp:100] Creating Layer bn3d_branch2a
I0318 12:38:52.560406  3159 net.cpp:444] bn3d_branch2a <- res3d_branch2a
I0318 12:38:52.560410  3159 net.cpp:405] bn3d_branch2a -> res3d_branch2a (in-place)
I0318 12:38:52.560534  3159 net.cpp:150] Setting up bn3d_branch2a
I0318 12:38:52.560539  3159 net.cpp:157] Top shape: 1 128 75 125 (1200000)
I0318 12:38:52.560541  3159 net.cpp:165] Memory required for data: 1941600084
I0318 12:38:52.560550  3159 layer_factory.hpp:77] Creating layer scale3d_branch2a
I0318 12:38:52.560554  3159 net.cpp:100] Creating Layer scale3d_branch2a
I0318 12:38:52.560557  3159 net.cpp:444] scale3d_branch2a <- res3d_branch2a
I0318 12:38:52.560560  3159 net.cpp:405] scale3d_branch2a -> res3d_branch2a (in-place)
I0318 12:38:52.560586  3159 layer_factory.hpp:77] Creating layer scale3d_branch2a
I0318 12:38:52.560667  3159 net.cpp:150] Setting up scale3d_branch2a
I0318 12:38:52.560672  3159 net.cpp:157] Top shape: 1 128 75 125 (1200000)
I0318 12:38:52.560673  3159 net.cpp:165] Memory required for data: 1946400084
I0318 12:38:52.560678  3159 layer_factory.hpp:77] Creating layer res3d_branch2a_relu
I0318 12:38:52.560681  3159 net.cpp:100] Creating Layer res3d_branch2a_relu
I0318 12:38:52.560683  3159 net.cpp:444] res3d_branch2a_relu <- res3d_branch2a
I0318 12:38:52.560688  3159 net.cpp:405] res3d_branch2a_relu -> res3d_branch2a (in-place)
I0318 12:38:52.560690  3159 net.cpp:150] Setting up res3d_branch2a_relu
I0318 12:38:52.560693  3159 net.cpp:157] Top shape: 1 128 75 125 (1200000)
I0318 12:38:52.560696  3159 net.cpp:165] Memory required for data: 1951200084
I0318 12:38:52.560698  3159 layer_factory.hpp:77] Creating layer res3d_branch2b
I0318 12:38:52.560703  3159 net.cpp:100] Creating Layer res3d_branch2b
I0318 12:38:52.560705  3159 net.cpp:444] res3d_branch2b <- res3d_branch2a
I0318 12:38:52.560708  3159 net.cpp:418] res3d_branch2b -> res3d_branch2b
I0318 12:38:52.560914  3159 net.cpp:150] Setting up res3d_branch2b
I0318 12:38:52.560920  3159 net.cpp:157] Top shape: 1 128 75 125 (1200000)
I0318 12:38:52.560921  3159 net.cpp:165] Memory required for data: 1956000084
I0318 12:38:52.560925  3159 layer_factory.hpp:77] Creating layer bn3d_branch2b
I0318 12:38:52.560928  3159 net.cpp:100] Creating Layer bn3d_branch2b
I0318 12:38:52.560931  3159 net.cpp:444] bn3d_branch2b <- res3d_branch2b
I0318 12:38:52.560935  3159 net.cpp:405] bn3d_branch2b -> res3d_branch2b (in-place)
I0318 12:38:52.561062  3159 net.cpp:150] Setting up bn3d_branch2b
I0318 12:38:52.561066  3159 net.cpp:157] Top shape: 1 128 75 125 (1200000)
I0318 12:38:52.561069  3159 net.cpp:165] Memory required for data: 1960800084
I0318 12:38:52.561074  3159 layer_factory.hpp:77] Creating layer scale3d_branch2b
I0318 12:38:52.561077  3159 net.cpp:100] Creating Layer scale3d_branch2b
I0318 12:38:52.561079  3159 net.cpp:444] scale3d_branch2b <- res3d_branch2b
I0318 12:38:52.561082  3159 net.cpp:405] scale3d_branch2b -> res3d_branch2b (in-place)
I0318 12:38:52.561107  3159 layer_factory.hpp:77] Creating layer scale3d_branch2b
I0318 12:38:52.561189  3159 net.cpp:150] Setting up scale3d_branch2b
I0318 12:38:52.561193  3159 net.cpp:157] Top shape: 1 128 75 125 (1200000)
I0318 12:38:52.561195  3159 net.cpp:165] Memory required for data: 1965600084
I0318 12:38:52.561199  3159 layer_factory.hpp:77] Creating layer res3d_branch2b_relu
I0318 12:38:52.561203  3159 net.cpp:100] Creating Layer res3d_branch2b_relu
I0318 12:38:52.561205  3159 net.cpp:444] res3d_branch2b_relu <- res3d_branch2b
I0318 12:38:52.561208  3159 net.cpp:405] res3d_branch2b_relu -> res3d_branch2b (in-place)
I0318 12:38:52.561213  3159 net.cpp:150] Setting up res3d_branch2b_relu
I0318 12:38:52.561215  3159 net.cpp:157] Top shape: 1 128 75 125 (1200000)
I0318 12:38:52.561218  3159 net.cpp:165] Memory required for data: 1970400084
I0318 12:38:52.561220  3159 layer_factory.hpp:77] Creating layer res3d_branch2c
I0318 12:38:52.561224  3159 net.cpp:100] Creating Layer res3d_branch2c
I0318 12:38:52.561226  3159 net.cpp:444] res3d_branch2c <- res3d_branch2b
I0318 12:38:52.561230  3159 net.cpp:418] res3d_branch2c -> res3d_branch2c
I0318 12:38:52.561388  3159 net.cpp:150] Setting up res3d_branch2c
I0318 12:38:52.561393  3159 net.cpp:157] Top shape: 1 512 75 125 (4800000)
I0318 12:38:52.561395  3159 net.cpp:165] Memory required for data: 1989600084
I0318 12:38:52.561398  3159 layer_factory.hpp:77] Creating layer bn3d_branch2c
I0318 12:38:52.561403  3159 net.cpp:100] Creating Layer bn3d_branch2c
I0318 12:38:52.561404  3159 net.cpp:444] bn3d_branch2c <- res3d_branch2c
I0318 12:38:52.561408  3159 net.cpp:405] bn3d_branch2c -> res3d_branch2c (in-place)
I0318 12:38:52.561542  3159 net.cpp:150] Setting up bn3d_branch2c
I0318 12:38:52.561547  3159 net.cpp:157] Top shape: 1 512 75 125 (4800000)
I0318 12:38:52.561549  3159 net.cpp:165] Memory required for data: 2008800084
I0318 12:38:52.561554  3159 layer_factory.hpp:77] Creating layer scale3d_branch2c
I0318 12:38:52.561558  3159 net.cpp:100] Creating Layer scale3d_branch2c
I0318 12:38:52.561560  3159 net.cpp:444] scale3d_branch2c <- res3d_branch2c
I0318 12:38:52.561563  3159 net.cpp:405] scale3d_branch2c -> res3d_branch2c (in-place)
I0318 12:38:52.561586  3159 layer_factory.hpp:77] Creating layer scale3d_branch2c
I0318 12:38:52.561671  3159 net.cpp:150] Setting up scale3d_branch2c
I0318 12:38:52.561676  3159 net.cpp:157] Top shape: 1 512 75 125 (4800000)
I0318 12:38:52.561677  3159 net.cpp:165] Memory required for data: 2028000084
I0318 12:38:52.561681  3159 layer_factory.hpp:77] Creating layer res3d
I0318 12:38:52.561686  3159 net.cpp:100] Creating Layer res3d
I0318 12:38:52.561688  3159 net.cpp:444] res3d <- res3c_res3c_relu_0_split_1
I0318 12:38:52.561691  3159 net.cpp:444] res3d <- res3d_branch2c
I0318 12:38:52.561695  3159 net.cpp:418] res3d -> res3d
I0318 12:38:52.561712  3159 net.cpp:150] Setting up res3d
I0318 12:38:52.561715  3159 net.cpp:157] Top shape: 1 512 75 125 (4800000)
I0318 12:38:52.561717  3159 net.cpp:165] Memory required for data: 2047200084
I0318 12:38:52.561719  3159 layer_factory.hpp:77] Creating layer res3d_relu
I0318 12:38:52.561723  3159 net.cpp:100] Creating Layer res3d_relu
I0318 12:38:52.561725  3159 net.cpp:444] res3d_relu <- res3d
I0318 12:38:52.561728  3159 net.cpp:405] res3d_relu -> res3d (in-place)
I0318 12:38:52.561733  3159 net.cpp:150] Setting up res3d_relu
I0318 12:38:52.561736  3159 net.cpp:157] Top shape: 1 512 75 125 (4800000)
I0318 12:38:52.561738  3159 net.cpp:165] Memory required for data: 2066400084
I0318 12:38:52.561740  3159 layer_factory.hpp:77] Creating layer res3d_res3d_relu_0_split
I0318 12:38:52.561744  3159 net.cpp:100] Creating Layer res3d_res3d_relu_0_split
I0318 12:38:52.561746  3159 net.cpp:444] res3d_res3d_relu_0_split <- res3d
I0318 12:38:52.561750  3159 net.cpp:418] res3d_res3d_relu_0_split -> res3d_res3d_relu_0_split_0
I0318 12:38:52.561754  3159 net.cpp:418] res3d_res3d_relu_0_split -> res3d_res3d_relu_0_split_1
I0318 12:38:52.561777  3159 net.cpp:150] Setting up res3d_res3d_relu_0_split
I0318 12:38:52.561781  3159 net.cpp:157] Top shape: 1 512 75 125 (4800000)
I0318 12:38:52.561784  3159 net.cpp:157] Top shape: 1 512 75 125 (4800000)
I0318 12:38:52.561785  3159 net.cpp:165] Memory required for data: 2104800084
I0318 12:38:52.561789  3159 layer_factory.hpp:77] Creating layer res4a_branch1
I0318 12:38:52.561792  3159 net.cpp:100] Creating Layer res4a_branch1
I0318 12:38:52.561795  3159 net.cpp:444] res4a_branch1 <- res3d_res3d_relu_0_split_0
I0318 12:38:52.561800  3159 net.cpp:418] res4a_branch1 -> res4a_branch1
I0318 12:38:52.563233  3159 net.cpp:150] Setting up res4a_branch1
I0318 12:38:52.563283  3159 net.cpp:157] Top shape: 1 1024 38 63 (2451456)
I0318 12:38:52.563287  3159 net.cpp:165] Memory required for data: 2114605908
I0318 12:38:52.563293  3159 layer_factory.hpp:77] Creating layer bn4a_branch1
I0318 12:38:52.563302  3159 net.cpp:100] Creating Layer bn4a_branch1
I0318 12:38:52.563307  3159 net.cpp:444] bn4a_branch1 <- res4a_branch1
I0318 12:38:52.563313  3159 net.cpp:405] bn4a_branch1 -> res4a_branch1 (in-place)
I0318 12:38:52.563488  3159 net.cpp:150] Setting up bn4a_branch1
I0318 12:38:52.563494  3159 net.cpp:157] Top shape: 1 1024 38 63 (2451456)
I0318 12:38:52.563496  3159 net.cpp:165] Memory required for data: 2124411732
I0318 12:38:52.563503  3159 layer_factory.hpp:77] Creating layer scale4a_branch1
I0318 12:38:52.563534  3159 net.cpp:100] Creating Layer scale4a_branch1
I0318 12:38:52.563539  3159 net.cpp:444] scale4a_branch1 <- res4a_branch1
I0318 12:38:52.563556  3159 net.cpp:405] scale4a_branch1 -> res4a_branch1 (in-place)
I0318 12:38:52.563614  3159 layer_factory.hpp:77] Creating layer scale4a_branch1
I0318 12:38:52.563724  3159 net.cpp:150] Setting up scale4a_branch1
I0318 12:38:52.563730  3159 net.cpp:157] Top shape: 1 1024 38 63 (2451456)
I0318 12:38:52.563731  3159 net.cpp:165] Memory required for data: 2134217556
I0318 12:38:52.563736  3159 layer_factory.hpp:77] Creating layer res4a_branch2a
I0318 12:38:52.563756  3159 net.cpp:100] Creating Layer res4a_branch2a
I0318 12:38:52.563760  3159 net.cpp:444] res4a_branch2a <- res3d_res3d_relu_0_split_1
I0318 12:38:52.563766  3159 net.cpp:418] res4a_branch2a -> res4a_branch2a
I0318 12:38:52.565140  3159 net.cpp:150] Setting up res4a_branch2a
I0318 12:38:52.565170  3159 net.cpp:157] Top shape: 1 256 38 63 (612864)
I0318 12:38:52.565174  3159 net.cpp:165] Memory required for data: 2136669012
I0318 12:38:52.565181  3159 layer_factory.hpp:77] Creating layer bn4a_branch2a
I0318 12:38:52.565191  3159 net.cpp:100] Creating Layer bn4a_branch2a
I0318 12:38:52.565194  3159 net.cpp:444] bn4a_branch2a <- res4a_branch2a
I0318 12:38:52.565198  3159 net.cpp:405] bn4a_branch2a -> res4a_branch2a (in-place)
I0318 12:38:52.565393  3159 net.cpp:150] Setting up bn4a_branch2a
I0318 12:38:52.565398  3159 net.cpp:157] Top shape: 1 256 38 63 (612864)
I0318 12:38:52.565400  3159 net.cpp:165] Memory required for data: 2139120468
I0318 12:38:52.565405  3159 layer_factory.hpp:77] Creating layer scale4a_branch2a
I0318 12:38:52.565423  3159 net.cpp:100] Creating Layer scale4a_branch2a
I0318 12:38:52.565426  3159 net.cpp:444] scale4a_branch2a <- res4a_branch2a
I0318 12:38:52.565429  3159 net.cpp:405] scale4a_branch2a -> res4a_branch2a (in-place)
I0318 12:38:52.565469  3159 layer_factory.hpp:77] Creating layer scale4a_branch2a
I0318 12:38:52.565567  3159 net.cpp:150] Setting up scale4a_branch2a
I0318 12:38:52.565570  3159 net.cpp:157] Top shape: 1 256 38 63 (612864)
I0318 12:38:52.565572  3159 net.cpp:165] Memory required for data: 2141571924
I0318 12:38:52.565577  3159 layer_factory.hpp:77] Creating layer res4a_branch2a_relu
I0318 12:38:52.565582  3159 net.cpp:100] Creating Layer res4a_branch2a_relu
I0318 12:38:52.565585  3159 net.cpp:444] res4a_branch2a_relu <- res4a_branch2a
I0318 12:38:52.565590  3159 net.cpp:405] res4a_branch2a_relu -> res4a_branch2a (in-place)
I0318 12:38:52.565596  3159 net.cpp:150] Setting up res4a_branch2a_relu
I0318 12:38:52.565599  3159 net.cpp:157] Top shape: 1 256 38 63 (612864)
I0318 12:38:52.565601  3159 net.cpp:165] Memory required for data: 2144023380
I0318 12:38:52.565618  3159 layer_factory.hpp:77] Creating layer res4a_branch2b
I0318 12:38:52.565623  3159 net.cpp:100] Creating Layer res4a_branch2b
I0318 12:38:52.565626  3159 net.cpp:444] res4a_branch2b <- res4a_branch2a
I0318 12:38:52.565630  3159 net.cpp:418] res4a_branch2b -> res4a_branch2b
I0318 12:38:52.567025  3159 net.cpp:150] Setting up res4a_branch2b
I0318 12:38:52.567042  3159 net.cpp:157] Top shape: 1 256 38 63 (612864)
I0318 12:38:52.567044  3159 net.cpp:165] Memory required for data: 2146474836
I0318 12:38:52.567050  3159 layer_factory.hpp:77] Creating layer bn4a_branch2b
I0318 12:38:52.567057  3159 net.cpp:100] Creating Layer bn4a_branch2b
I0318 12:38:52.567061  3159 net.cpp:444] bn4a_branch2b <- res4a_branch2b
I0318 12:38:52.567068  3159 net.cpp:405] bn4a_branch2b -> res4a_branch2b (in-place)
I0318 12:38:52.567265  3159 net.cpp:150] Setting up bn4a_branch2b
I0318 12:38:52.567268  3159 net.cpp:157] Top shape: 1 256 38 63 (612864)
I0318 12:38:52.567271  3159 net.cpp:165] Memory required for data: 2148926292
I0318 12:38:52.567276  3159 layer_factory.hpp:77] Creating layer scale4a_branch2b
I0318 12:38:52.567281  3159 net.cpp:100] Creating Layer scale4a_branch2b
I0318 12:38:52.567283  3159 net.cpp:444] scale4a_branch2b <- res4a_branch2b
I0318 12:38:52.567288  3159 net.cpp:405] scale4a_branch2b -> res4a_branch2b (in-place)
I0318 12:38:52.567315  3159 layer_factory.hpp:77] Creating layer scale4a_branch2b
I0318 12:38:52.567396  3159 net.cpp:150] Setting up scale4a_branch2b
I0318 12:38:52.567404  3159 net.cpp:157] Top shape: 1 256 38 63 (612864)
I0318 12:38:52.567405  3159 net.cpp:165] Memory required for data: 2151377748
I0318 12:38:52.567410  3159 layer_factory.hpp:77] Creating layer res4a_branch2b_relu
I0318 12:38:52.567414  3159 net.cpp:100] Creating Layer res4a_branch2b_relu
I0318 12:38:52.567416  3159 net.cpp:444] res4a_branch2b_relu <- res4a_branch2b
I0318 12:38:52.567420  3159 net.cpp:405] res4a_branch2b_relu -> res4a_branch2b (in-place)
I0318 12:38:52.567423  3159 net.cpp:150] Setting up res4a_branch2b_relu
I0318 12:38:52.567427  3159 net.cpp:157] Top shape: 1 256 38 63 (612864)
I0318 12:38:52.567430  3159 net.cpp:165] Memory required for data: 2153829204
I0318 12:38:52.567431  3159 layer_factory.hpp:77] Creating layer res4a_branch2c
I0318 12:38:52.567438  3159 net.cpp:100] Creating Layer res4a_branch2c
I0318 12:38:52.567440  3159 net.cpp:444] res4a_branch2c <- res4a_branch2b
I0318 12:38:52.567445  3159 net.cpp:418] res4a_branch2c -> res4a_branch2c
I0318 12:38:52.567711  3159 net.cpp:150] Setting up res4a_branch2c
I0318 12:38:52.567716  3159 net.cpp:157] Top shape: 1 1024 38 63 (2451456)
I0318 12:38:52.567718  3159 net.cpp:165] Memory required for data: 2163635028
I0318 12:38:52.567723  3159 layer_factory.hpp:77] Creating layer bn4a_branch2c
I0318 12:38:52.567726  3159 net.cpp:100] Creating Layer bn4a_branch2c
I0318 12:38:52.567729  3159 net.cpp:444] bn4a_branch2c <- res4a_branch2c
I0318 12:38:52.567733  3159 net.cpp:405] bn4a_branch2c -> res4a_branch2c (in-place)
I0318 12:38:52.567873  3159 net.cpp:150] Setting up bn4a_branch2c
I0318 12:38:52.567878  3159 net.cpp:157] Top shape: 1 1024 38 63 (2451456)
I0318 12:38:52.567879  3159 net.cpp:165] Memory required for data: 2173440852
I0318 12:38:52.567884  3159 layer_factory.hpp:77] Creating layer scale4a_branch2c
I0318 12:38:52.567890  3159 net.cpp:100] Creating Layer scale4a_branch2c
I0318 12:38:52.567893  3159 net.cpp:444] scale4a_branch2c <- res4a_branch2c
I0318 12:38:52.567896  3159 net.cpp:405] scale4a_branch2c -> res4a_branch2c (in-place)
I0318 12:38:52.567921  3159 layer_factory.hpp:77] Creating layer scale4a_branch2c
I0318 12:38:52.568006  3159 net.cpp:150] Setting up scale4a_branch2c
I0318 12:38:52.568011  3159 net.cpp:157] Top shape: 1 1024 38 63 (2451456)
I0318 12:38:52.568012  3159 net.cpp:165] Memory required for data: 2183246676
I0318 12:38:52.568017  3159 layer_factory.hpp:77] Creating layer res4a
I0318 12:38:52.568025  3159 net.cpp:100] Creating Layer res4a
I0318 12:38:52.568028  3159 net.cpp:444] res4a <- res4a_branch1
I0318 12:38:52.568032  3159 net.cpp:444] res4a <- res4a_branch2c
I0318 12:38:52.568034  3159 net.cpp:418] res4a -> res4a
I0318 12:38:52.568050  3159 net.cpp:150] Setting up res4a
I0318 12:38:52.568054  3159 net.cpp:157] Top shape: 1 1024 38 63 (2451456)
I0318 12:38:52.568058  3159 net.cpp:165] Memory required for data: 2193052500
I0318 12:38:52.568059  3159 layer_factory.hpp:77] Creating layer res4a_relu
I0318 12:38:52.568063  3159 net.cpp:100] Creating Layer res4a_relu
I0318 12:38:52.568065  3159 net.cpp:444] res4a_relu <- res4a
I0318 12:38:52.568069  3159 net.cpp:405] res4a_relu -> res4a (in-place)
I0318 12:38:52.568073  3159 net.cpp:150] Setting up res4a_relu
I0318 12:38:52.568076  3159 net.cpp:157] Top shape: 1 1024 38 63 (2451456)
I0318 12:38:52.568078  3159 net.cpp:165] Memory required for data: 2202858324
I0318 12:38:52.568080  3159 layer_factory.hpp:77] Creating layer res4a_res4a_relu_0_split
I0318 12:38:52.568084  3159 net.cpp:100] Creating Layer res4a_res4a_relu_0_split
I0318 12:38:52.568086  3159 net.cpp:444] res4a_res4a_relu_0_split <- res4a
I0318 12:38:52.568090  3159 net.cpp:418] res4a_res4a_relu_0_split -> res4a_res4a_relu_0_split_0
I0318 12:38:52.568094  3159 net.cpp:418] res4a_res4a_relu_0_split -> res4a_res4a_relu_0_split_1
I0318 12:38:52.568120  3159 net.cpp:150] Setting up res4a_res4a_relu_0_split
I0318 12:38:52.568123  3159 net.cpp:157] Top shape: 1 1024 38 63 (2451456)
I0318 12:38:52.568127  3159 net.cpp:157] Top shape: 1 1024 38 63 (2451456)
I0318 12:38:52.568130  3159 net.cpp:165] Memory required for data: 2222469972
I0318 12:38:52.568131  3159 layer_factory.hpp:77] Creating layer res4b_branch2a
I0318 12:38:52.568137  3159 net.cpp:100] Creating Layer res4b_branch2a
I0318 12:38:52.568140  3159 net.cpp:444] res4b_branch2a <- res4a_res4a_relu_0_split_0
I0318 12:38:52.568145  3159 net.cpp:418] res4b_branch2a -> res4b_branch2a
I0318 12:38:52.569375  3159 net.cpp:150] Setting up res4b_branch2a
I0318 12:38:52.569389  3159 net.cpp:157] Top shape: 1 256 38 63 (612864)
I0318 12:38:52.569392  3159 net.cpp:165] Memory required for data: 2224921428
I0318 12:38:52.569398  3159 layer_factory.hpp:77] Creating layer bn4b_branch2a
I0318 12:38:52.569406  3159 net.cpp:100] Creating Layer bn4b_branch2a
I0318 12:38:52.569409  3159 net.cpp:444] bn4b_branch2a <- res4b_branch2a
I0318 12:38:52.569429  3159 net.cpp:405] bn4b_branch2a -> res4b_branch2a (in-place)
I0318 12:38:52.569622  3159 net.cpp:150] Setting up bn4b_branch2a
I0318 12:38:52.569628  3159 net.cpp:157] Top shape: 1 256 38 63 (612864)
I0318 12:38:52.569630  3159 net.cpp:165] Memory required for data: 2227372884
I0318 12:38:52.569635  3159 layer_factory.hpp:77] Creating layer scale4b_branch2a
I0318 12:38:52.569641  3159 net.cpp:100] Creating Layer scale4b_branch2a
I0318 12:38:52.569660  3159 net.cpp:444] scale4b_branch2a <- res4b_branch2a
I0318 12:38:52.569664  3159 net.cpp:405] scale4b_branch2a -> res4b_branch2a (in-place)
I0318 12:38:52.569705  3159 layer_factory.hpp:77] Creating layer scale4b_branch2a
I0318 12:38:52.569813  3159 net.cpp:150] Setting up scale4b_branch2a
I0318 12:38:52.569818  3159 net.cpp:157] Top shape: 1 256 38 63 (612864)
I0318 12:38:52.569819  3159 net.cpp:165] Memory required for data: 2229824340
I0318 12:38:52.569823  3159 layer_factory.hpp:77] Creating layer res4b_branch2a_relu
I0318 12:38:52.569828  3159 net.cpp:100] Creating Layer res4b_branch2a_relu
I0318 12:38:52.569833  3159 net.cpp:444] res4b_branch2a_relu <- res4b_branch2a
I0318 12:38:52.569850  3159 net.cpp:405] res4b_branch2a_relu -> res4b_branch2a (in-place)
I0318 12:38:52.569855  3159 net.cpp:150] Setting up res4b_branch2a_relu
I0318 12:38:52.569859  3159 net.cpp:157] Top shape: 1 256 38 63 (612864)
I0318 12:38:52.569875  3159 net.cpp:165] Memory required for data: 2232275796
I0318 12:38:52.569876  3159 layer_factory.hpp:77] Creating layer res4b_branch2b
I0318 12:38:52.569882  3159 net.cpp:100] Creating Layer res4b_branch2b
I0318 12:38:52.569885  3159 net.cpp:444] res4b_branch2b <- res4b_branch2a
I0318 12:38:52.569890  3159 net.cpp:418] res4b_branch2b -> res4b_branch2b
I0318 12:38:52.571053  3159 net.cpp:150] Setting up res4b_branch2b
I0318 12:38:52.571068  3159 net.cpp:157] Top shape: 1 256 38 63 (612864)
I0318 12:38:52.571070  3159 net.cpp:165] Memory required for data: 2234727252
I0318 12:38:52.571074  3159 layer_factory.hpp:77] Creating layer bn4b_branch2b
I0318 12:38:52.571080  3159 net.cpp:100] Creating Layer bn4b_branch2b
I0318 12:38:52.571084  3159 net.cpp:444] bn4b_branch2b <- res4b_branch2b
I0318 12:38:52.571102  3159 net.cpp:405] bn4b_branch2b -> res4b_branch2b (in-place)
I0318 12:38:52.571269  3159 net.cpp:150] Setting up bn4b_branch2b
I0318 12:38:52.571274  3159 net.cpp:157] Top shape: 1 256 38 63 (612864)
I0318 12:38:52.571275  3159 net.cpp:165] Memory required for data: 2237178708
I0318 12:38:52.571280  3159 layer_factory.hpp:77] Creating layer scale4b_branch2b
I0318 12:38:52.571285  3159 net.cpp:100] Creating Layer scale4b_branch2b
I0318 12:38:52.571288  3159 net.cpp:444] scale4b_branch2b <- res4b_branch2b
I0318 12:38:52.571292  3159 net.cpp:405] scale4b_branch2b -> res4b_branch2b (in-place)
I0318 12:38:52.571346  3159 layer_factory.hpp:77] Creating layer scale4b_branch2b
I0318 12:38:52.571475  3159 net.cpp:150] Setting up scale4b_branch2b
I0318 12:38:52.571480  3159 net.cpp:157] Top shape: 1 256 38 63 (612864)
I0318 12:38:52.571482  3159 net.cpp:165] Memory required for data: 2239630164
I0318 12:38:52.571486  3159 layer_factory.hpp:77] Creating layer res4b_branch2b_relu
I0318 12:38:52.571491  3159 net.cpp:100] Creating Layer res4b_branch2b_relu
I0318 12:38:52.571493  3159 net.cpp:444] res4b_branch2b_relu <- res4b_branch2b
I0318 12:38:52.571497  3159 net.cpp:405] res4b_branch2b_relu -> res4b_branch2b (in-place)
I0318 12:38:52.571501  3159 net.cpp:150] Setting up res4b_branch2b_relu
I0318 12:38:52.571506  3159 net.cpp:157] Top shape: 1 256 38 63 (612864)
I0318 12:38:52.571508  3159 net.cpp:165] Memory required for data: 2242081620
I0318 12:38:52.571511  3159 layer_factory.hpp:77] Creating layer res4b_branch2c
I0318 12:38:52.571517  3159 net.cpp:100] Creating Layer res4b_branch2c
I0318 12:38:52.571521  3159 net.cpp:444] res4b_branch2c <- res4b_branch2b
I0318 12:38:52.571524  3159 net.cpp:418] res4b_branch2c -> res4b_branch2c
I0318 12:38:52.571782  3159 net.cpp:150] Setting up res4b_branch2c
I0318 12:38:52.571789  3159 net.cpp:157] Top shape: 1 1024 38 63 (2451456)
I0318 12:38:52.571790  3159 net.cpp:165] Memory required for data: 2251887444
I0318 12:38:52.571794  3159 layer_factory.hpp:77] Creating layer bn4b_branch2c
I0318 12:38:52.571800  3159 net.cpp:100] Creating Layer bn4b_branch2c
I0318 12:38:52.571804  3159 net.cpp:444] bn4b_branch2c <- res4b_branch2c
I0318 12:38:52.571821  3159 net.cpp:405] bn4b_branch2c -> res4b_branch2c (in-place)
I0318 12:38:52.571965  3159 net.cpp:150] Setting up bn4b_branch2c
I0318 12:38:52.571970  3159 net.cpp:157] Top shape: 1 1024 38 63 (2451456)
I0318 12:38:52.571972  3159 net.cpp:165] Memory required for data: 2261693268
I0318 12:38:52.571977  3159 layer_factory.hpp:77] Creating layer scale4b_branch2c
I0318 12:38:52.571981  3159 net.cpp:100] Creating Layer scale4b_branch2c
I0318 12:38:52.571985  3159 net.cpp:444] scale4b_branch2c <- res4b_branch2c
I0318 12:38:52.572002  3159 net.cpp:405] scale4b_branch2c -> res4b_branch2c (in-place)
I0318 12:38:52.572039  3159 layer_factory.hpp:77] Creating layer scale4b_branch2c
I0318 12:38:52.572144  3159 net.cpp:150] Setting up scale4b_branch2c
I0318 12:38:52.572149  3159 net.cpp:157] Top shape: 1 1024 38 63 (2451456)
I0318 12:38:52.572150  3159 net.cpp:165] Memory required for data: 2271499092
I0318 12:38:52.572155  3159 layer_factory.hpp:77] Creating layer res4b
I0318 12:38:52.572158  3159 net.cpp:100] Creating Layer res4b
I0318 12:38:52.572175  3159 net.cpp:444] res4b <- res4a_res4a_relu_0_split_1
I0318 12:38:52.572180  3159 net.cpp:444] res4b <- res4b_branch2c
I0318 12:38:52.572185  3159 net.cpp:418] res4b -> res4b
I0318 12:38:52.572202  3159 net.cpp:150] Setting up res4b
I0318 12:38:52.572207  3159 net.cpp:157] Top shape: 1 1024 38 63 (2451456)
I0318 12:38:52.572209  3159 net.cpp:165] Memory required for data: 2281304916
I0318 12:38:52.572211  3159 layer_factory.hpp:77] Creating layer res4b_relu
I0318 12:38:52.572216  3159 net.cpp:100] Creating Layer res4b_relu
I0318 12:38:52.572219  3159 net.cpp:444] res4b_relu <- res4b
I0318 12:38:52.572222  3159 net.cpp:405] res4b_relu -> res4b (in-place)
I0318 12:38:52.572227  3159 net.cpp:150] Setting up res4b_relu
I0318 12:38:52.572229  3159 net.cpp:157] Top shape: 1 1024 38 63 (2451456)
I0318 12:38:52.572232  3159 net.cpp:165] Memory required for data: 2291110740
I0318 12:38:52.572233  3159 layer_factory.hpp:77] Creating layer res4b_res4b_relu_0_split
I0318 12:38:52.572238  3159 net.cpp:100] Creating Layer res4b_res4b_relu_0_split
I0318 12:38:52.572242  3159 net.cpp:444] res4b_res4b_relu_0_split <- res4b
I0318 12:38:52.572245  3159 net.cpp:418] res4b_res4b_relu_0_split -> res4b_res4b_relu_0_split_0
I0318 12:38:52.572250  3159 net.cpp:418] res4b_res4b_relu_0_split -> res4b_res4b_relu_0_split_1
I0318 12:38:52.572276  3159 net.cpp:150] Setting up res4b_res4b_relu_0_split
I0318 12:38:52.572281  3159 net.cpp:157] Top shape: 1 1024 38 63 (2451456)
I0318 12:38:52.572284  3159 net.cpp:157] Top shape: 1 1024 38 63 (2451456)
I0318 12:38:52.572286  3159 net.cpp:165] Memory required for data: 2310722388
I0318 12:38:52.572289  3159 layer_factory.hpp:77] Creating layer res4c_branch2a
I0318 12:38:52.572293  3159 net.cpp:100] Creating Layer res4c_branch2a
I0318 12:38:52.572296  3159 net.cpp:444] res4c_branch2a <- res4b_res4b_relu_0_split_0
I0318 12:38:52.572301  3159 net.cpp:418] res4c_branch2a -> res4c_branch2a
I0318 12:38:52.573267  3159 net.cpp:150] Setting up res4c_branch2a
I0318 12:38:52.573278  3159 net.cpp:157] Top shape: 1 256 38 63 (612864)
I0318 12:38:52.573282  3159 net.cpp:165] Memory required for data: 2313173844
I0318 12:38:52.573287  3159 layer_factory.hpp:77] Creating layer bn4c_branch2a
I0318 12:38:52.573292  3159 net.cpp:100] Creating Layer bn4c_branch2a
I0318 12:38:52.573297  3159 net.cpp:444] bn4c_branch2a <- res4c_branch2a
I0318 12:38:52.573302  3159 net.cpp:405] bn4c_branch2a -> res4c_branch2a (in-place)
I0318 12:38:52.573444  3159 net.cpp:150] Setting up bn4c_branch2a
I0318 12:38:52.573451  3159 net.cpp:157] Top shape: 1 256 38 63 (612864)
I0318 12:38:52.573452  3159 net.cpp:165] Memory required for data: 2315625300
I0318 12:38:52.573457  3159 layer_factory.hpp:77] Creating layer scale4c_branch2a
I0318 12:38:52.573462  3159 net.cpp:100] Creating Layer scale4c_branch2a
I0318 12:38:52.573465  3159 net.cpp:444] scale4c_branch2a <- res4c_branch2a
I0318 12:38:52.573468  3159 net.cpp:405] scale4c_branch2a -> res4c_branch2a (in-place)
I0318 12:38:52.573496  3159 layer_factory.hpp:77] Creating layer scale4c_branch2a
I0318 12:38:52.573577  3159 net.cpp:150] Setting up scale4c_branch2a
I0318 12:38:52.573582  3159 net.cpp:157] Top shape: 1 256 38 63 (612864)
I0318 12:38:52.573585  3159 net.cpp:165] Memory required for data: 2318076756
I0318 12:38:52.573590  3159 layer_factory.hpp:77] Creating layer res4c_branch2a_relu
I0318 12:38:52.573595  3159 net.cpp:100] Creating Layer res4c_branch2a_relu
I0318 12:38:52.573597  3159 net.cpp:444] res4c_branch2a_relu <- res4c_branch2a
I0318 12:38:52.573601  3159 net.cpp:405] res4c_branch2a_relu -> res4c_branch2a (in-place)
I0318 12:38:52.573606  3159 net.cpp:150] Setting up res4c_branch2a_relu
I0318 12:38:52.573608  3159 net.cpp:157] Top shape: 1 256 38 63 (612864)
I0318 12:38:52.573611  3159 net.cpp:165] Memory required for data: 2320528212
I0318 12:38:52.573612  3159 layer_factory.hpp:77] Creating layer res4c_branch2b
I0318 12:38:52.573618  3159 net.cpp:100] Creating Layer res4c_branch2b
I0318 12:38:52.573622  3159 net.cpp:444] res4c_branch2b <- res4c_branch2a
I0318 12:38:52.573627  3159 net.cpp:418] res4c_branch2b -> res4c_branch2b
I0318 12:38:52.574934  3159 net.cpp:150] Setting up res4c_branch2b
I0318 12:38:52.574959  3159 net.cpp:157] Top shape: 1 256 38 63 (612864)
I0318 12:38:52.574962  3159 net.cpp:165] Memory required for data: 2322979668
I0318 12:38:52.574970  3159 layer_factory.hpp:77] Creating layer bn4c_branch2b
I0318 12:38:52.574982  3159 net.cpp:100] Creating Layer bn4c_branch2b
I0318 12:38:52.574986  3159 net.cpp:444] bn4c_branch2b <- res4c_branch2b
I0318 12:38:52.574992  3159 net.cpp:405] bn4c_branch2b -> res4c_branch2b (in-place)
I0318 12:38:52.575191  3159 net.cpp:150] Setting up bn4c_branch2b
I0318 12:38:52.575212  3159 net.cpp:157] Top shape: 1 256 38 63 (612864)
I0318 12:38:52.575214  3159 net.cpp:165] Memory required for data: 2325431124
I0318 12:38:52.575235  3159 layer_factory.hpp:77] Creating layer scale4c_branch2b
I0318 12:38:52.575242  3159 net.cpp:100] Creating Layer scale4c_branch2b
I0318 12:38:52.575244  3159 net.cpp:444] scale4c_branch2b <- res4c_branch2b
I0318 12:38:52.575250  3159 net.cpp:405] scale4c_branch2b -> res4c_branch2b (in-place)
I0318 12:38:52.575368  3159 layer_factory.hpp:77] Creating layer scale4c_branch2b
I0318 12:38:52.575489  3159 net.cpp:150] Setting up scale4c_branch2b
I0318 12:38:52.575495  3159 net.cpp:157] Top shape: 1 256 38 63 (612864)
I0318 12:38:52.575497  3159 net.cpp:165] Memory required for data: 2327882580
I0318 12:38:52.575502  3159 layer_factory.hpp:77] Creating layer res4c_branch2b_relu
I0318 12:38:52.575507  3159 net.cpp:100] Creating Layer res4c_branch2b_relu
I0318 12:38:52.575510  3159 net.cpp:444] res4c_branch2b_relu <- res4c_branch2b
I0318 12:38:52.575515  3159 net.cpp:405] res4c_branch2b_relu -> res4c_branch2b (in-place)
I0318 12:38:52.575520  3159 net.cpp:150] Setting up res4c_branch2b_relu
I0318 12:38:52.575523  3159 net.cpp:157] Top shape: 1 256 38 63 (612864)
I0318 12:38:52.575525  3159 net.cpp:165] Memory required for data: 2330334036
I0318 12:38:52.575528  3159 layer_factory.hpp:77] Creating layer res4c_branch2c
I0318 12:38:52.575536  3159 net.cpp:100] Creating Layer res4c_branch2c
I0318 12:38:52.575537  3159 net.cpp:444] res4c_branch2c <- res4c_branch2b
I0318 12:38:52.575542  3159 net.cpp:418] res4c_branch2c -> res4c_branch2c
I0318 12:38:52.575858  3159 net.cpp:150] Setting up res4c_branch2c
I0318 12:38:52.575865  3159 net.cpp:157] Top shape: 1 1024 38 63 (2451456)
I0318 12:38:52.575867  3159 net.cpp:165] Memory required for data: 2340139860
I0318 12:38:52.575870  3159 layer_factory.hpp:77] Creating layer bn4c_branch2c
I0318 12:38:52.575875  3159 net.cpp:100] Creating Layer bn4c_branch2c
I0318 12:38:52.575878  3159 net.cpp:444] bn4c_branch2c <- res4c_branch2c
I0318 12:38:52.575881  3159 net.cpp:405] bn4c_branch2c -> res4c_branch2c (in-place)
I0318 12:38:52.576023  3159 net.cpp:150] Setting up bn4c_branch2c
I0318 12:38:52.576030  3159 net.cpp:157] Top shape: 1 1024 38 63 (2451456)
I0318 12:38:52.576031  3159 net.cpp:165] Memory required for data: 2349945684
I0318 12:38:52.576036  3159 layer_factory.hpp:77] Creating layer scale4c_branch2c
I0318 12:38:52.576041  3159 net.cpp:100] Creating Layer scale4c_branch2c
I0318 12:38:52.576045  3159 net.cpp:444] scale4c_branch2c <- res4c_branch2c
I0318 12:38:52.576047  3159 net.cpp:405] scale4c_branch2c -> res4c_branch2c (in-place)
I0318 12:38:52.576072  3159 layer_factory.hpp:77] Creating layer scale4c_branch2c
I0318 12:38:52.576169  3159 net.cpp:150] Setting up scale4c_branch2c
I0318 12:38:52.576174  3159 net.cpp:157] Top shape: 1 1024 38 63 (2451456)
I0318 12:38:52.576175  3159 net.cpp:165] Memory required for data: 2359751508
I0318 12:38:52.576179  3159 layer_factory.hpp:77] Creating layer res4c
I0318 12:38:52.576184  3159 net.cpp:100] Creating Layer res4c
I0318 12:38:52.576187  3159 net.cpp:444] res4c <- res4b_res4b_relu_0_split_1
I0318 12:38:52.576203  3159 net.cpp:444] res4c <- res4c_branch2c
I0318 12:38:52.576208  3159 net.cpp:418] res4c -> res4c
I0318 12:38:52.576225  3159 net.cpp:150] Setting up res4c
I0318 12:38:52.576230  3159 net.cpp:157] Top shape: 1 1024 38 63 (2451456)
I0318 12:38:52.576231  3159 net.cpp:165] Memory required for data: 2369557332
I0318 12:38:52.576233  3159 layer_factory.hpp:77] Creating layer res4c_relu
I0318 12:38:52.576238  3159 net.cpp:100] Creating Layer res4c_relu
I0318 12:38:52.576241  3159 net.cpp:444] res4c_relu <- res4c
I0318 12:38:52.576244  3159 net.cpp:405] res4c_relu -> res4c (in-place)
I0318 12:38:52.576248  3159 net.cpp:150] Setting up res4c_relu
I0318 12:38:52.576264  3159 net.cpp:157] Top shape: 1 1024 38 63 (2451456)
I0318 12:38:52.576267  3159 net.cpp:165] Memory required for data: 2379363156
I0318 12:38:52.576269  3159 layer_factory.hpp:77] Creating layer res4c_res4c_relu_0_split
I0318 12:38:52.576272  3159 net.cpp:100] Creating Layer res4c_res4c_relu_0_split
I0318 12:38:52.576275  3159 net.cpp:444] res4c_res4c_relu_0_split <- res4c
I0318 12:38:52.576278  3159 net.cpp:418] res4c_res4c_relu_0_split -> res4c_res4c_relu_0_split_0
I0318 12:38:52.576283  3159 net.cpp:418] res4c_res4c_relu_0_split -> res4c_res4c_relu_0_split_1
I0318 12:38:52.576308  3159 net.cpp:150] Setting up res4c_res4c_relu_0_split
I0318 12:38:52.576313  3159 net.cpp:157] Top shape: 1 1024 38 63 (2451456)
I0318 12:38:52.576315  3159 net.cpp:157] Top shape: 1 1024 38 63 (2451456)
I0318 12:38:52.576318  3159 net.cpp:165] Memory required for data: 2398974804
I0318 12:38:52.576319  3159 layer_factory.hpp:77] Creating layer res4d_branch2a
I0318 12:38:52.576325  3159 net.cpp:100] Creating Layer res4d_branch2a
I0318 12:38:52.576328  3159 net.cpp:444] res4d_branch2a <- res4c_res4c_relu_0_split_0
I0318 12:38:52.576333  3159 net.cpp:418] res4d_branch2a -> res4d_branch2a
I0318 12:38:52.577422  3159 net.cpp:150] Setting up res4d_branch2a
I0318 12:38:52.577435  3159 net.cpp:157] Top shape: 1 256 38 63 (612864)
I0318 12:38:52.577437  3159 net.cpp:165] Memory required for data: 2401426260
I0318 12:38:52.577442  3159 layer_factory.hpp:77] Creating layer bn4d_branch2a
I0318 12:38:52.577450  3159 net.cpp:100] Creating Layer bn4d_branch2a
I0318 12:38:52.577453  3159 net.cpp:444] bn4d_branch2a <- res4d_branch2a
I0318 12:38:52.577458  3159 net.cpp:405] bn4d_branch2a -> res4d_branch2a (in-place)
I0318 12:38:52.577641  3159 net.cpp:150] Setting up bn4d_branch2a
I0318 12:38:52.577647  3159 net.cpp:157] Top shape: 1 256 38 63 (612864)
I0318 12:38:52.577649  3159 net.cpp:165] Memory required for data: 2403877716
I0318 12:38:52.577656  3159 layer_factory.hpp:77] Creating layer scale4d_branch2a
I0318 12:38:52.577659  3159 net.cpp:100] Creating Layer scale4d_branch2a
I0318 12:38:52.577661  3159 net.cpp:444] scale4d_branch2a <- res4d_branch2a
I0318 12:38:52.577666  3159 net.cpp:405] scale4d_branch2a -> res4d_branch2a (in-place)
I0318 12:38:52.577708  3159 layer_factory.hpp:77] Creating layer scale4d_branch2a
I0318 12:38:52.577791  3159 net.cpp:150] Setting up scale4d_branch2a
I0318 12:38:52.577810  3159 net.cpp:157] Top shape: 1 256 38 63 (612864)
I0318 12:38:52.577811  3159 net.cpp:165] Memory required for data: 2406329172
I0318 12:38:52.577816  3159 layer_factory.hpp:77] Creating layer res4d_branch2a_relu
I0318 12:38:52.577819  3159 net.cpp:100] Creating Layer res4d_branch2a_relu
I0318 12:38:52.577822  3159 net.cpp:444] res4d_branch2a_relu <- res4d_branch2a
I0318 12:38:52.577826  3159 net.cpp:405] res4d_branch2a_relu -> res4d_branch2a (in-place)
I0318 12:38:52.577831  3159 net.cpp:150] Setting up res4d_branch2a_relu
I0318 12:38:52.577847  3159 net.cpp:157] Top shape: 1 256 38 63 (612864)
I0318 12:38:52.577849  3159 net.cpp:165] Memory required for data: 2408780628
I0318 12:38:52.577852  3159 layer_factory.hpp:77] Creating layer res4d_branch2b
I0318 12:38:52.577858  3159 net.cpp:100] Creating Layer res4d_branch2b
I0318 12:38:52.577860  3159 net.cpp:444] res4d_branch2b <- res4d_branch2a
I0318 12:38:52.577864  3159 net.cpp:418] res4d_branch2b -> res4d_branch2b
I0318 12:38:52.579215  3159 net.cpp:150] Setting up res4d_branch2b
I0318 12:38:52.579360  3159 net.cpp:157] Top shape: 1 256 38 63 (612864)
I0318 12:38:52.579367  3159 net.cpp:165] Memory required for data: 2411232084
I0318 12:38:52.579375  3159 layer_factory.hpp:77] Creating layer bn4d_branch2b
I0318 12:38:52.579385  3159 net.cpp:100] Creating Layer bn4d_branch2b
I0318 12:38:52.579391  3159 net.cpp:444] bn4d_branch2b <- res4d_branch2b
I0318 12:38:52.579396  3159 net.cpp:405] bn4d_branch2b -> res4d_branch2b (in-place)
I0318 12:38:52.579653  3159 net.cpp:150] Setting up bn4d_branch2b
I0318 12:38:52.579720  3159 net.cpp:157] Top shape: 1 256 38 63 (612864)
I0318 12:38:52.579777  3159 net.cpp:165] Memory required for data: 2413683540
I0318 12:38:52.579838  3159 layer_factory.hpp:77] Creating layer scale4d_branch2b
I0318 12:38:52.579900  3159 net.cpp:100] Creating Layer scale4d_branch2b
I0318 12:38:52.579958  3159 net.cpp:444] scale4d_branch2b <- res4d_branch2b
I0318 12:38:52.580016  3159 net.cpp:405] scale4d_branch2b -> res4d_branch2b (in-place)
I0318 12:38:52.580124  3159 layer_factory.hpp:77] Creating layer scale4d_branch2b
I0318 12:38:52.580293  3159 net.cpp:150] Setting up scale4d_branch2b
I0318 12:38:52.580356  3159 net.cpp:157] Top shape: 1 256 38 63 (612864)
I0318 12:38:52.580412  3159 net.cpp:165] Memory required for data: 2416134996
I0318 12:38:52.580471  3159 layer_factory.hpp:77] Creating layer res4d_branch2b_relu
I0318 12:38:52.580531  3159 net.cpp:100] Creating Layer res4d_branch2b_relu
I0318 12:38:52.580588  3159 net.cpp:444] res4d_branch2b_relu <- res4d_branch2b
I0318 12:38:52.580646  3159 net.cpp:405] res4d_branch2b_relu -> res4d_branch2b (in-place)
I0318 12:38:52.580705  3159 net.cpp:150] Setting up res4d_branch2b_relu
I0318 12:38:52.580763  3159 net.cpp:157] Top shape: 1 256 38 63 (612864)
I0318 12:38:52.580818  3159 net.cpp:165] Memory required for data: 2418586452
I0318 12:38:52.580873  3159 layer_factory.hpp:77] Creating layer res4d_branch2c
I0318 12:38:52.580936  3159 net.cpp:100] Creating Layer res4d_branch2c
I0318 12:38:52.580993  3159 net.cpp:444] res4d_branch2c <- res4d_branch2b
I0318 12:38:52.581063  3159 net.cpp:418] res4d_branch2c -> res4d_branch2c
I0318 12:38:52.581447  3159 net.cpp:150] Setting up res4d_branch2c
I0318 12:38:52.581516  3159 net.cpp:157] Top shape: 1 1024 38 63 (2451456)
I0318 12:38:52.581571  3159 net.cpp:165] Memory required for data: 2428392276
I0318 12:38:52.581629  3159 layer_factory.hpp:77] Creating layer bn4d_branch2c
I0318 12:38:52.581691  3159 net.cpp:100] Creating Layer bn4d_branch2c
I0318 12:38:52.581748  3159 net.cpp:444] bn4d_branch2c <- res4d_branch2c
I0318 12:38:52.581807  3159 net.cpp:405] bn4d_branch2c -> res4d_branch2c (in-place)
I0318 12:38:52.582062  3159 net.cpp:150] Setting up bn4d_branch2c
I0318 12:38:52.582130  3159 net.cpp:157] Top shape: 1 1024 38 63 (2451456)
I0318 12:38:52.582186  3159 net.cpp:165] Memory required for data: 2438198100
I0318 12:38:52.582247  3159 layer_factory.hpp:77] Creating layer scale4d_branch2c
I0318 12:38:52.582306  3159 net.cpp:100] Creating Layer scale4d_branch2c
I0318 12:38:52.582363  3159 net.cpp:444] scale4d_branch2c <- res4d_branch2c
I0318 12:38:52.582379  3159 net.cpp:405] scale4d_branch2c -> res4d_branch2c (in-place)
I0318 12:38:52.582432  3159 layer_factory.hpp:77] Creating layer scale4d_branch2c
I0318 12:38:52.582635  3159 net.cpp:150] Setting up scale4d_branch2c
I0318 12:38:52.582644  3159 net.cpp:157] Top shape: 1 1024 38 63 (2451456)
I0318 12:38:52.582646  3159 net.cpp:165] Memory required for data: 2448003924
I0318 12:38:52.582651  3159 layer_factory.hpp:77] Creating layer res4d
I0318 12:38:52.582656  3159 net.cpp:100] Creating Layer res4d
I0318 12:38:52.582660  3159 net.cpp:444] res4d <- res4c_res4c_relu_0_split_1
I0318 12:38:52.582664  3159 net.cpp:444] res4d <- res4d_branch2c
I0318 12:38:52.582667  3159 net.cpp:418] res4d -> res4d
I0318 12:38:52.582701  3159 net.cpp:150] Setting up res4d
I0318 12:38:52.582732  3159 net.cpp:157] Top shape: 1 1024 38 63 (2451456)
I0318 12:38:52.582736  3159 net.cpp:165] Memory required for data: 2457809748
I0318 12:38:52.582739  3159 layer_factory.hpp:77] Creating layer res4d_relu
I0318 12:38:52.582744  3159 net.cpp:100] Creating Layer res4d_relu
I0318 12:38:52.582747  3159 net.cpp:444] res4d_relu <- res4d
I0318 12:38:52.582752  3159 net.cpp:405] res4d_relu -> res4d (in-place)
I0318 12:38:52.582770  3159 net.cpp:150] Setting up res4d_relu
I0318 12:38:52.582792  3159 net.cpp:157] Top shape: 1 1024 38 63 (2451456)
I0318 12:38:52.582796  3159 net.cpp:165] Memory required for data: 2467615572
I0318 12:38:52.582799  3159 layer_factory.hpp:77] Creating layer res4d_res4d_relu_0_split
I0318 12:38:52.582803  3159 net.cpp:100] Creating Layer res4d_res4d_relu_0_split
I0318 12:38:52.582806  3159 net.cpp:444] res4d_res4d_relu_0_split <- res4d
I0318 12:38:52.582811  3159 net.cpp:418] res4d_res4d_relu_0_split -> res4d_res4d_relu_0_split_0
I0318 12:38:52.582816  3159 net.cpp:418] res4d_res4d_relu_0_split -> res4d_res4d_relu_0_split_1
I0318 12:38:52.582861  3159 net.cpp:150] Setting up res4d_res4d_relu_0_split
I0318 12:38:52.582891  3159 net.cpp:157] Top shape: 1 1024 38 63 (2451456)
I0318 12:38:52.582907  3159 net.cpp:157] Top shape: 1 1024 38 63 (2451456)
I0318 12:38:52.582921  3159 net.cpp:165] Memory required for data: 2487227220
I0318 12:38:52.582934  3159 layer_factory.hpp:77] Creating layer res4e_branch2a
I0318 12:38:52.582999  3159 net.cpp:100] Creating Layer res4e_branch2a
I0318 12:38:52.583005  3159 net.cpp:444] res4e_branch2a <- res4d_res4d_relu_0_split_0
I0318 12:38:52.583010  3159 net.cpp:418] res4e_branch2a -> res4e_branch2a
I0318 12:38:52.584746  3159 net.cpp:150] Setting up res4e_branch2a
I0318 12:38:52.584769  3159 net.cpp:157] Top shape: 1 256 38 63 (612864)
I0318 12:38:52.584771  3159 net.cpp:165] Memory required for data: 2489678676
I0318 12:38:52.584782  3159 layer_factory.hpp:77] Creating layer bn4e_branch2a
I0318 12:38:52.584789  3159 net.cpp:100] Creating Layer bn4e_branch2a
I0318 12:38:52.584807  3159 net.cpp:444] bn4e_branch2a <- res4e_branch2a
I0318 12:38:52.584815  3159 net.cpp:405] bn4e_branch2a -> res4e_branch2a (in-place)
I0318 12:38:52.585023  3159 net.cpp:150] Setting up bn4e_branch2a
I0318 12:38:52.585029  3159 net.cpp:157] Top shape: 1 256 38 63 (612864)
I0318 12:38:52.585031  3159 net.cpp:165] Memory required for data: 2492130132
I0318 12:38:52.585037  3159 layer_factory.hpp:77] Creating layer scale4e_branch2a
I0318 12:38:52.585062  3159 net.cpp:100] Creating Layer scale4e_branch2a
I0318 12:38:52.585072  3159 net.cpp:444] scale4e_branch2a <- res4e_branch2a
I0318 12:38:52.585137  3159 net.cpp:405] scale4e_branch2a -> res4e_branch2a (in-place)
I0318 12:38:52.585180  3159 layer_factory.hpp:77] Creating layer scale4e_branch2a
I0318 12:38:52.585340  3159 net.cpp:150] Setting up scale4e_branch2a
I0318 12:38:52.585347  3159 net.cpp:157] Top shape: 1 256 38 63 (612864)
I0318 12:38:52.585350  3159 net.cpp:165] Memory required for data: 2494581588
I0318 12:38:52.585355  3159 layer_factory.hpp:77] Creating layer res4e_branch2a_relu
I0318 12:38:52.585373  3159 net.cpp:100] Creating Layer res4e_branch2a_relu
I0318 12:38:52.585389  3159 net.cpp:444] res4e_branch2a_relu <- res4e_branch2a
I0318 12:38:52.585449  3159 net.cpp:405] res4e_branch2a_relu -> res4e_branch2a (in-place)
I0318 12:38:52.585458  3159 net.cpp:150] Setting up res4e_branch2a_relu
I0318 12:38:52.585461  3159 net.cpp:157] Top shape: 1 256 38 63 (612864)
I0318 12:38:52.585464  3159 net.cpp:165] Memory required for data: 2497033044
I0318 12:38:52.585466  3159 layer_factory.hpp:77] Creating layer res4e_branch2b
I0318 12:38:52.585474  3159 net.cpp:100] Creating Layer res4e_branch2b
I0318 12:38:52.585489  3159 net.cpp:444] res4e_branch2b <- res4e_branch2a
I0318 12:38:52.585505  3159 net.cpp:418] res4e_branch2b -> res4e_branch2b
I0318 12:38:52.587245  3159 net.cpp:150] Setting up res4e_branch2b
I0318 12:38:52.587265  3159 net.cpp:157] Top shape: 1 256 38 63 (612864)
I0318 12:38:52.587267  3159 net.cpp:165] Memory required for data: 2499484500
I0318 12:38:52.587275  3159 layer_factory.hpp:77] Creating layer bn4e_branch2b
I0318 12:38:52.587283  3159 net.cpp:100] Creating Layer bn4e_branch2b
I0318 12:38:52.587307  3159 net.cpp:444] bn4e_branch2b <- res4e_branch2b
I0318 12:38:52.587328  3159 net.cpp:405] bn4e_branch2b -> res4e_branch2b (in-place)
I0318 12:38:52.587520  3159 net.cpp:150] Setting up bn4e_branch2b
I0318 12:38:52.587527  3159 net.cpp:157] Top shape: 1 256 38 63 (612864)
I0318 12:38:52.587530  3159 net.cpp:165] Memory required for data: 2501935956
I0318 12:38:52.587549  3159 layer_factory.hpp:77] Creating layer scale4e_branch2b
I0318 12:38:52.587554  3159 net.cpp:100] Creating Layer scale4e_branch2b
I0318 12:38:52.587558  3159 net.cpp:444] scale4e_branch2b <- res4e_branch2b
I0318 12:38:52.587561  3159 net.cpp:405] scale4e_branch2b -> res4e_branch2b (in-place)
I0318 12:38:52.587591  3159 layer_factory.hpp:77] Creating layer scale4e_branch2b
I0318 12:38:52.587693  3159 net.cpp:150] Setting up scale4e_branch2b
I0318 12:38:52.587699  3159 net.cpp:157] Top shape: 1 256 38 63 (612864)
I0318 12:38:52.587702  3159 net.cpp:165] Memory required for data: 2504387412
I0318 12:38:52.587707  3159 layer_factory.hpp:77] Creating layer res4e_branch2b_relu
I0318 12:38:52.587721  3159 net.cpp:100] Creating Layer res4e_branch2b_relu
I0318 12:38:52.587725  3159 net.cpp:444] res4e_branch2b_relu <- res4e_branch2b
I0318 12:38:52.587743  3159 net.cpp:405] res4e_branch2b_relu -> res4e_branch2b (in-place)
I0318 12:38:52.587749  3159 net.cpp:150] Setting up res4e_branch2b_relu
I0318 12:38:52.587764  3159 net.cpp:157] Top shape: 1 256 38 63 (612864)
I0318 12:38:52.587766  3159 net.cpp:165] Memory required for data: 2506838868
I0318 12:38:52.587769  3159 layer_factory.hpp:77] Creating layer res4e_branch2c
I0318 12:38:52.587776  3159 net.cpp:100] Creating Layer res4e_branch2c
I0318 12:38:52.587779  3159 net.cpp:444] res4e_branch2c <- res4e_branch2b
I0318 12:38:52.587785  3159 net.cpp:418] res4e_branch2c -> res4e_branch2c
I0318 12:38:52.588089  3159 net.cpp:150] Setting up res4e_branch2c
I0318 12:38:52.588095  3159 net.cpp:157] Top shape: 1 1024 38 63 (2451456)
I0318 12:38:52.588099  3159 net.cpp:165] Memory required for data: 2516644692
I0318 12:38:52.588101  3159 layer_factory.hpp:77] Creating layer bn4e_branch2c
I0318 12:38:52.588107  3159 net.cpp:100] Creating Layer bn4e_branch2c
I0318 12:38:52.588111  3159 net.cpp:444] bn4e_branch2c <- res4e_branch2c
I0318 12:38:52.588114  3159 net.cpp:405] bn4e_branch2c -> res4e_branch2c (in-place)
I0318 12:38:52.588279  3159 net.cpp:150] Setting up bn4e_branch2c
I0318 12:38:52.588284  3159 net.cpp:157] Top shape: 1 1024 38 63 (2451456)
I0318 12:38:52.588300  3159 net.cpp:165] Memory required for data: 2526450516
I0318 12:38:52.588305  3159 layer_factory.hpp:77] Creating layer scale4e_branch2c
I0318 12:38:52.588312  3159 net.cpp:100] Creating Layer scale4e_branch2c
I0318 12:38:52.588315  3159 net.cpp:444] scale4e_branch2c <- res4e_branch2c
I0318 12:38:52.588320  3159 net.cpp:405] scale4e_branch2c -> res4e_branch2c (in-place)
I0318 12:38:52.588346  3159 layer_factory.hpp:77] Creating layer scale4e_branch2c
I0318 12:38:52.588433  3159 net.cpp:150] Setting up scale4e_branch2c
I0318 12:38:52.588439  3159 net.cpp:157] Top shape: 1 1024 38 63 (2451456)
I0318 12:38:52.588441  3159 net.cpp:165] Memory required for data: 2536256340
I0318 12:38:52.588445  3159 layer_factory.hpp:77] Creating layer res4e
I0318 12:38:52.588449  3159 net.cpp:100] Creating Layer res4e
I0318 12:38:52.588454  3159 net.cpp:444] res4e <- res4d_res4d_relu_0_split_1
I0318 12:38:52.588457  3159 net.cpp:444] res4e <- res4e_branch2c
I0318 12:38:52.588462  3159 net.cpp:418] res4e -> res4e
I0318 12:38:52.588481  3159 net.cpp:150] Setting up res4e
I0318 12:38:52.588486  3159 net.cpp:157] Top shape: 1 1024 38 63 (2451456)
I0318 12:38:52.588490  3159 net.cpp:165] Memory required for data: 2546062164
I0318 12:38:52.588491  3159 layer_factory.hpp:77] Creating layer res4e_relu
I0318 12:38:52.588495  3159 net.cpp:100] Creating Layer res4e_relu
I0318 12:38:52.588498  3159 net.cpp:444] res4e_relu <- res4e
I0318 12:38:52.588501  3159 net.cpp:405] res4e_relu -> res4e (in-place)
I0318 12:38:52.588510  3159 net.cpp:150] Setting up res4e_relu
I0318 12:38:52.588515  3159 net.cpp:157] Top shape: 1 1024 38 63 (2451456)
I0318 12:38:52.588516  3159 net.cpp:165] Memory required for data: 2555867988
I0318 12:38:52.588518  3159 layer_factory.hpp:77] Creating layer res4e_res4e_relu_0_split
I0318 12:38:52.588522  3159 net.cpp:100] Creating Layer res4e_res4e_relu_0_split
I0318 12:38:52.588526  3159 net.cpp:444] res4e_res4e_relu_0_split <- res4e
I0318 12:38:52.588529  3159 net.cpp:418] res4e_res4e_relu_0_split -> res4e_res4e_relu_0_split_0
I0318 12:38:52.588534  3159 net.cpp:418] res4e_res4e_relu_0_split -> res4e_res4e_relu_0_split_1
I0318 12:38:52.588562  3159 net.cpp:150] Setting up res4e_res4e_relu_0_split
I0318 12:38:52.588567  3159 net.cpp:157] Top shape: 1 1024 38 63 (2451456)
I0318 12:38:52.588570  3159 net.cpp:157] Top shape: 1 1024 38 63 (2451456)
I0318 12:38:52.588572  3159 net.cpp:165] Memory required for data: 2575479636
I0318 12:38:52.588574  3159 layer_factory.hpp:77] Creating layer res4f_branch2a
I0318 12:38:52.588579  3159 net.cpp:100] Creating Layer res4f_branch2a
I0318 12:38:52.588583  3159 net.cpp:444] res4f_branch2a <- res4e_res4e_relu_0_split_0
I0318 12:38:52.588588  3159 net.cpp:418] res4f_branch2a -> res4f_branch2a
I0318 12:38:52.589676  3159 net.cpp:150] Setting up res4f_branch2a
I0318 12:38:52.589689  3159 net.cpp:157] Top shape: 1 256 38 63 (612864)
I0318 12:38:52.589692  3159 net.cpp:165] Memory required for data: 2577931092
I0318 12:38:52.589699  3159 layer_factory.hpp:77] Creating layer bn4f_branch2a
I0318 12:38:52.589705  3159 net.cpp:100] Creating Layer bn4f_branch2a
I0318 12:38:52.589710  3159 net.cpp:444] bn4f_branch2a <- res4f_branch2a
I0318 12:38:52.589716  3159 net.cpp:405] bn4f_branch2a -> res4f_branch2a (in-place)
I0318 12:38:52.589872  3159 net.cpp:150] Setting up bn4f_branch2a
I0318 12:38:52.589879  3159 net.cpp:157] Top shape: 1 256 38 63 (612864)
I0318 12:38:52.589880  3159 net.cpp:165] Memory required for data: 2580382548
I0318 12:38:52.589885  3159 layer_factory.hpp:77] Creating layer scale4f_branch2a
I0318 12:38:52.589890  3159 net.cpp:100] Creating Layer scale4f_branch2a
I0318 12:38:52.589893  3159 net.cpp:444] scale4f_branch2a <- res4f_branch2a
I0318 12:38:52.589897  3159 net.cpp:405] scale4f_branch2a -> res4f_branch2a (in-place)
I0318 12:38:52.589957  3159 layer_factory.hpp:77] Creating layer scale4f_branch2a
I0318 12:38:52.590065  3159 net.cpp:150] Setting up scale4f_branch2a
I0318 12:38:52.590070  3159 net.cpp:157] Top shape: 1 256 38 63 (612864)
I0318 12:38:52.590073  3159 net.cpp:165] Memory required for data: 2582834004
I0318 12:38:52.590077  3159 layer_factory.hpp:77] Creating layer res4f_branch2a_relu
I0318 12:38:52.590083  3159 net.cpp:100] Creating Layer res4f_branch2a_relu
I0318 12:38:52.590086  3159 net.cpp:444] res4f_branch2a_relu <- res4f_branch2a
I0318 12:38:52.590090  3159 net.cpp:405] res4f_branch2a_relu -> res4f_branch2a (in-place)
I0318 12:38:52.590095  3159 net.cpp:150] Setting up res4f_branch2a_relu
I0318 12:38:52.590100  3159 net.cpp:157] Top shape: 1 256 38 63 (612864)
I0318 12:38:52.590101  3159 net.cpp:165] Memory required for data: 2585285460
I0318 12:38:52.590103  3159 layer_factory.hpp:77] Creating layer res4f_branch2b
I0318 12:38:52.590111  3159 net.cpp:100] Creating Layer res4f_branch2b
I0318 12:38:52.590112  3159 net.cpp:444] res4f_branch2b <- res4f_branch2a
I0318 12:38:52.590117  3159 net.cpp:418] res4f_branch2b -> res4f_branch2b
I0318 12:38:52.592773  3159 net.cpp:150] Setting up res4f_branch2b
I0318 12:38:52.592792  3159 net.cpp:157] Top shape: 1 256 38 63 (612864)
I0318 12:38:52.592793  3159 net.cpp:165] Memory required for data: 2587736916
I0318 12:38:52.592799  3159 layer_factory.hpp:77] Creating layer bn4f_branch2b
I0318 12:38:52.592808  3159 net.cpp:100] Creating Layer bn4f_branch2b
I0318 12:38:52.592826  3159 net.cpp:444] bn4f_branch2b <- res4f_branch2b
I0318 12:38:52.592831  3159 net.cpp:405] bn4f_branch2b -> res4f_branch2b (in-place)
I0318 12:38:52.593003  3159 net.cpp:150] Setting up bn4f_branch2b
I0318 12:38:52.593009  3159 net.cpp:157] Top shape: 1 256 38 63 (612864)
I0318 12:38:52.593013  3159 net.cpp:165] Memory required for data: 2590188372
I0318 12:38:52.593017  3159 layer_factory.hpp:77] Creating layer scale4f_branch2b
I0318 12:38:52.593039  3159 net.cpp:100] Creating Layer scale4f_branch2b
I0318 12:38:52.593044  3159 net.cpp:444] scale4f_branch2b <- res4f_branch2b
I0318 12:38:52.593050  3159 net.cpp:405] scale4f_branch2b -> res4f_branch2b (in-place)
I0318 12:38:52.593080  3159 layer_factory.hpp:77] Creating layer scale4f_branch2b
I0318 12:38:52.593225  3159 net.cpp:150] Setting up scale4f_branch2b
I0318 12:38:52.593230  3159 net.cpp:157] Top shape: 1 256 38 63 (612864)
I0318 12:38:52.593231  3159 net.cpp:165] Memory required for data: 2592639828
I0318 12:38:52.593235  3159 layer_factory.hpp:77] Creating layer res4f_branch2b_relu
I0318 12:38:52.593240  3159 net.cpp:100] Creating Layer res4f_branch2b_relu
I0318 12:38:52.593255  3159 net.cpp:444] res4f_branch2b_relu <- res4f_branch2b
I0318 12:38:52.593260  3159 net.cpp:405] res4f_branch2b_relu -> res4f_branch2b (in-place)
I0318 12:38:52.593264  3159 net.cpp:150] Setting up res4f_branch2b_relu
I0318 12:38:52.593267  3159 net.cpp:157] Top shape: 1 256 38 63 (612864)
I0318 12:38:52.593269  3159 net.cpp:165] Memory required for data: 2595091284
I0318 12:38:52.593271  3159 layer_factory.hpp:77] Creating layer res4f_branch2c
I0318 12:38:52.593289  3159 net.cpp:100] Creating Layer res4f_branch2c
I0318 12:38:52.593293  3159 net.cpp:444] res4f_branch2c <- res4f_branch2b
I0318 12:38:52.593298  3159 net.cpp:418] res4f_branch2c -> res4f_branch2c
I0318 12:38:52.593605  3159 net.cpp:150] Setting up res4f_branch2c
I0318 12:38:52.593611  3159 net.cpp:157] Top shape: 1 1024 38 63 (2451456)
I0318 12:38:52.593613  3159 net.cpp:165] Memory required for data: 2604897108
I0318 12:38:52.593617  3159 layer_factory.hpp:77] Creating layer bn4f_branch2c
I0318 12:38:52.593621  3159 net.cpp:100] Creating Layer bn4f_branch2c
I0318 12:38:52.593637  3159 net.cpp:444] bn4f_branch2c <- res4f_branch2c
I0318 12:38:52.593641  3159 net.cpp:405] bn4f_branch2c -> res4f_branch2c (in-place)
I0318 12:38:52.593786  3159 net.cpp:150] Setting up bn4f_branch2c
I0318 12:38:52.593791  3159 net.cpp:157] Top shape: 1 1024 38 63 (2451456)
I0318 12:38:52.593793  3159 net.cpp:165] Memory required for data: 2614702932
I0318 12:38:52.593811  3159 layer_factory.hpp:77] Creating layer scale4f_branch2c
I0318 12:38:52.593816  3159 net.cpp:100] Creating Layer scale4f_branch2c
I0318 12:38:52.593833  3159 net.cpp:444] scale4f_branch2c <- res4f_branch2c
I0318 12:38:52.593837  3159 net.cpp:405] scale4f_branch2c -> res4f_branch2c (in-place)
I0318 12:38:52.593876  3159 layer_factory.hpp:77] Creating layer scale4f_branch2c
I0318 12:38:52.594007  3159 net.cpp:150] Setting up scale4f_branch2c
I0318 12:38:52.594013  3159 net.cpp:157] Top shape: 1 1024 38 63 (2451456)
I0318 12:38:52.594015  3159 net.cpp:165] Memory required for data: 2624508756
I0318 12:38:52.594019  3159 layer_factory.hpp:77] Creating layer res4f
I0318 12:38:52.594023  3159 net.cpp:100] Creating Layer res4f
I0318 12:38:52.594040  3159 net.cpp:444] res4f <- res4e_res4e_relu_0_split_1
I0318 12:38:52.594043  3159 net.cpp:444] res4f <- res4f_branch2c
I0318 12:38:52.594048  3159 net.cpp:418] res4f -> res4f
I0318 12:38:52.594064  3159 net.cpp:150] Setting up res4f
I0318 12:38:52.594085  3159 net.cpp:157] Top shape: 1 1024 38 63 (2451456)
I0318 12:38:52.594089  3159 net.cpp:165] Memory required for data: 2634314580
I0318 12:38:52.594090  3159 layer_factory.hpp:77] Creating layer res4f_relu
I0318 12:38:52.594108  3159 net.cpp:100] Creating Layer res4f_relu
I0318 12:38:52.594111  3159 net.cpp:444] res4f_relu <- res4f
I0318 12:38:52.594128  3159 net.cpp:405] res4f_relu -> res4f (in-place)
I0318 12:38:52.594132  3159 net.cpp:150] Setting up res4f_relu
I0318 12:38:52.594135  3159 net.cpp:157] Top shape: 1 1024 38 63 (2451456)
I0318 12:38:52.594151  3159 net.cpp:165] Memory required for data: 2644120404
I0318 12:38:52.594153  3159 layer_factory.hpp:77] Creating layer res4f_res4f_relu_0_split
I0318 12:38:52.594158  3159 net.cpp:100] Creating Layer res4f_res4f_relu_0_split
I0318 12:38:52.594173  3159 net.cpp:444] res4f_res4f_relu_0_split <- res4f
I0318 12:38:52.594177  3159 net.cpp:418] res4f_res4f_relu_0_split -> res4f_res4f_relu_0_split_0
I0318 12:38:52.594182  3159 net.cpp:418] res4f_res4f_relu_0_split -> res4f_res4f_relu_0_split_1
I0318 12:38:52.594187  3159 net.cpp:418] res4f_res4f_relu_0_split -> res4f_res4f_relu_0_split_2
I0318 12:38:52.594223  3159 net.cpp:150] Setting up res4f_res4f_relu_0_split
I0318 12:38:52.594228  3159 net.cpp:157] Top shape: 1 1024 38 63 (2451456)
I0318 12:38:52.594230  3159 net.cpp:157] Top shape: 1 1024 38 63 (2451456)
I0318 12:38:52.594233  3159 net.cpp:157] Top shape: 1 1024 38 63 (2451456)
I0318 12:38:52.594235  3159 net.cpp:165] Memory required for data: 2673537876
I0318 12:38:52.594238  3159 layer_factory.hpp:77] Creating layer res5a_branch1
I0318 12:38:52.594243  3159 net.cpp:100] Creating Layer res5a_branch1
I0318 12:38:52.594246  3159 net.cpp:444] res5a_branch1 <- res4f_res4f_relu_0_split_0
I0318 12:38:52.594251  3159 net.cpp:418] res5a_branch1 -> res5a_branch1
I0318 12:38:52.598026  3159 net.cpp:150] Setting up res5a_branch1
I0318 12:38:52.598049  3159 net.cpp:157] Top shape: 1 2048 38 63 (4902912)
I0318 12:38:52.598052  3159 net.cpp:165] Memory required for data: 2693149524
I0318 12:38:52.598058  3159 layer_factory.hpp:77] Creating layer bn5a_branch1
I0318 12:38:52.598067  3159 net.cpp:100] Creating Layer bn5a_branch1
I0318 12:38:52.598070  3159 net.cpp:444] bn5a_branch1 <- res5a_branch1
I0318 12:38:52.598076  3159 net.cpp:405] bn5a_branch1 -> res5a_branch1 (in-place)
I0318 12:38:52.598269  3159 net.cpp:150] Setting up bn5a_branch1
I0318 12:38:52.598274  3159 net.cpp:157] Top shape: 1 2048 38 63 (4902912)
I0318 12:38:52.598278  3159 net.cpp:165] Memory required for data: 2712761172
I0318 12:38:52.598281  3159 layer_factory.hpp:77] Creating layer scale5a_branch1
I0318 12:38:52.598286  3159 net.cpp:100] Creating Layer scale5a_branch1
I0318 12:38:52.598289  3159 net.cpp:444] scale5a_branch1 <- res5a_branch1
I0318 12:38:52.598292  3159 net.cpp:405] scale5a_branch1 -> res5a_branch1 (in-place)
I0318 12:38:52.598335  3159 layer_factory.hpp:77] Creating layer scale5a_branch1
I0318 12:38:52.598505  3159 net.cpp:150] Setting up scale5a_branch1
I0318 12:38:52.598510  3159 net.cpp:157] Top shape: 1 2048 38 63 (4902912)
I0318 12:38:52.598512  3159 net.cpp:165] Memory required for data: 2732372820
I0318 12:38:52.598516  3159 layer_factory.hpp:77] Creating layer res5a_branch2a
I0318 12:38:52.598523  3159 net.cpp:100] Creating Layer res5a_branch2a
I0318 12:38:52.598539  3159 net.cpp:444] res5a_branch2a <- res4f_res4f_relu_0_split_1
I0318 12:38:52.598544  3159 net.cpp:418] res5a_branch2a -> res5a_branch2a
I0318 12:38:52.599848  3159 net.cpp:150] Setting up res5a_branch2a
I0318 12:38:52.599858  3159 net.cpp:157] Top shape: 1 512 38 63 (1225728)
I0318 12:38:52.599861  3159 net.cpp:165] Memory required for data: 2737275732
I0318 12:38:52.599865  3159 layer_factory.hpp:77] Creating layer bn5a_branch2a
I0318 12:38:52.599870  3159 net.cpp:100] Creating Layer bn5a_branch2a
I0318 12:38:52.599887  3159 net.cpp:444] bn5a_branch2a <- res5a_branch2a
I0318 12:38:52.599891  3159 net.cpp:405] bn5a_branch2a -> res5a_branch2a (in-place)
I0318 12:38:52.600080  3159 net.cpp:150] Setting up bn5a_branch2a
I0318 12:38:52.600085  3159 net.cpp:157] Top shape: 1 512 38 63 (1225728)
I0318 12:38:52.600087  3159 net.cpp:165] Memory required for data: 2742178644
I0318 12:38:52.600092  3159 layer_factory.hpp:77] Creating layer scale5a_branch2a
I0318 12:38:52.600113  3159 net.cpp:100] Creating Layer scale5a_branch2a
I0318 12:38:52.600116  3159 net.cpp:444] scale5a_branch2a <- res5a_branch2a
I0318 12:38:52.600118  3159 net.cpp:405] scale5a_branch2a -> res5a_branch2a (in-place)
I0318 12:38:52.600175  3159 layer_factory.hpp:77] Creating layer scale5a_branch2a
I0318 12:38:52.600316  3159 net.cpp:150] Setting up scale5a_branch2a
I0318 12:38:52.600320  3159 net.cpp:157] Top shape: 1 512 38 63 (1225728)
I0318 12:38:52.600322  3159 net.cpp:165] Memory required for data: 2747081556
I0318 12:38:52.600327  3159 layer_factory.hpp:77] Creating layer res5a_branch2a_relu
I0318 12:38:52.600348  3159 net.cpp:100] Creating Layer res5a_branch2a_relu
I0318 12:38:52.600350  3159 net.cpp:444] res5a_branch2a_relu <- res5a_branch2a
I0318 12:38:52.600353  3159 net.cpp:405] res5a_branch2a_relu -> res5a_branch2a (in-place)
I0318 12:38:52.600371  3159 net.cpp:150] Setting up res5a_branch2a_relu
I0318 12:38:52.600374  3159 net.cpp:157] Top shape: 1 512 38 63 (1225728)
I0318 12:38:52.600376  3159 net.cpp:165] Memory required for data: 2751984468
I0318 12:38:52.600378  3159 layer_factory.hpp:77] Creating layer res5a_branch2a_res5a_branch2a_relu_0_split
I0318 12:38:52.600383  3159 net.cpp:100] Creating Layer res5a_branch2a_res5a_branch2a_relu_0_split
I0318 12:38:52.600385  3159 net.cpp:444] res5a_branch2a_res5a_branch2a_relu_0_split <- res5a_branch2a
I0318 12:38:52.600404  3159 net.cpp:418] res5a_branch2a_res5a_branch2a_relu_0_split -> res5a_branch2a_res5a_branch2a_relu_0_split_0
I0318 12:38:52.600411  3159 net.cpp:418] res5a_branch2a_res5a_branch2a_relu_0_split -> res5a_branch2a_res5a_branch2a_relu_0_split_1
I0318 12:38:52.600450  3159 net.cpp:150] Setting up res5a_branch2a_res5a_branch2a_relu_0_split
I0318 12:38:52.600455  3159 net.cpp:157] Top shape: 1 512 38 63 (1225728)
I0318 12:38:52.600458  3159 net.cpp:157] Top shape: 1 512 38 63 (1225728)
I0318 12:38:52.600461  3159 net.cpp:165] Memory required for data: 2761790292
I0318 12:38:52.600462  3159 layer_factory.hpp:77] Creating layer res5a_branch2b_offset
I0318 12:38:52.600471  3159 net.cpp:100] Creating Layer res5a_branch2b_offset
I0318 12:38:52.600473  3159 net.cpp:444] res5a_branch2b_offset <- res5a_branch2a_res5a_branch2a_relu_0_split_0
I0318 12:38:52.600477  3159 net.cpp:418] res5a_branch2b_offset -> res5a_branch2b_offset
I0318 12:38:52.601678  3159 net.cpp:150] Setting up res5a_branch2b_offset
I0318 12:38:52.601692  3159 net.cpp:157] Top shape: 1 72 38 63 (172368)
I0318 12:38:52.601694  3159 net.cpp:165] Memory required for data: 2762479764
I0318 12:38:52.601701  3159 layer_factory.hpp:77] Creating layer res5a_branch2b
I0318 12:38:52.601709  3159 net.cpp:100] Creating Layer res5a_branch2b
I0318 12:38:52.601713  3159 net.cpp:444] res5a_branch2b <- res5a_branch2a_res5a_branch2a_relu_0_split_1
I0318 12:38:52.601717  3159 net.cpp:444] res5a_branch2b <- res5a_branch2b_offset
I0318 12:38:52.601735  3159 net.cpp:418] res5a_branch2b -> res5a_branch2b
I0318 12:38:52.606537  3159 net.cpp:150] Setting up res5a_branch2b
I0318 12:38:52.606567  3159 net.cpp:157] Top shape: 1 512 38 63 (1225728)
I0318 12:38:52.606570  3159 net.cpp:165] Memory required for data: 2767382676
I0318 12:38:52.606593  3159 layer_factory.hpp:77] Creating layer bn5a_branch2b
I0318 12:38:52.606608  3159 net.cpp:100] Creating Layer bn5a_branch2b
I0318 12:38:52.606614  3159 net.cpp:444] bn5a_branch2b <- res5a_branch2b
I0318 12:38:52.606621  3159 net.cpp:405] bn5a_branch2b -> res5a_branch2b (in-place)
I0318 12:38:52.606901  3159 net.cpp:150] Setting up bn5a_branch2b
I0318 12:38:52.606906  3159 net.cpp:157] Top shape: 1 512 38 63 (1225728)
I0318 12:38:52.606922  3159 net.cpp:165] Memory required for data: 2772285588
I0318 12:38:52.606926  3159 layer_factory.hpp:77] Creating layer scale5a_branch2b
I0318 12:38:52.606945  3159 net.cpp:100] Creating Layer scale5a_branch2b
I0318 12:38:52.606947  3159 net.cpp:444] scale5a_branch2b <- res5a_branch2b
I0318 12:38:52.606966  3159 net.cpp:405] scale5a_branch2b -> res5a_branch2b (in-place)
I0318 12:38:52.607020  3159 layer_factory.hpp:77] Creating layer scale5a_branch2b
I0318 12:38:52.607213  3159 net.cpp:150] Setting up scale5a_branch2b
I0318 12:38:52.607221  3159 net.cpp:157] Top shape: 1 512 38 63 (1225728)
I0318 12:38:52.607236  3159 net.cpp:165] Memory required for data: 2777188500
I0318 12:38:52.607240  3159 layer_factory.hpp:77] Creating layer res5a_branch2b_relu
I0318 12:38:52.607245  3159 net.cpp:100] Creating Layer res5a_branch2b_relu
I0318 12:38:52.607264  3159 net.cpp:444] res5a_branch2b_relu <- res5a_branch2b
I0318 12:38:52.607283  3159 net.cpp:405] res5a_branch2b_relu -> res5a_branch2b (in-place)
I0318 12:38:52.607313  3159 net.cpp:150] Setting up res5a_branch2b_relu
I0318 12:38:52.607318  3159 net.cpp:157] Top shape: 1 512 38 63 (1225728)
I0318 12:38:52.607321  3159 net.cpp:165] Memory required for data: 2782091412
I0318 12:38:52.607323  3159 layer_factory.hpp:77] Creating layer res5a_branch2c
I0318 12:38:52.607331  3159 net.cpp:100] Creating Layer res5a_branch2c
I0318 12:38:52.607334  3159 net.cpp:444] res5a_branch2c <- res5a_branch2b
I0318 12:38:52.607340  3159 net.cpp:418] res5a_branch2c -> res5a_branch2c
I0318 12:38:52.609359  3159 net.cpp:150] Setting up res5a_branch2c
I0318 12:38:52.609382  3159 net.cpp:157] Top shape: 1 2048 38 63 (4902912)
I0318 12:38:52.609385  3159 net.cpp:165] Memory required for data: 2801703060
I0318 12:38:52.609406  3159 layer_factory.hpp:77] Creating layer bn5a_branch2c
I0318 12:38:52.609434  3159 net.cpp:100] Creating Layer bn5a_branch2c
I0318 12:38:52.609439  3159 net.cpp:444] bn5a_branch2c <- res5a_branch2c
I0318 12:38:52.609444  3159 net.cpp:405] bn5a_branch2c -> res5a_branch2c (in-place)
I0318 12:38:52.609665  3159 net.cpp:150] Setting up bn5a_branch2c
I0318 12:38:52.609670  3159 net.cpp:157] Top shape: 1 2048 38 63 (4902912)
I0318 12:38:52.609673  3159 net.cpp:165] Memory required for data: 2821314708
I0318 12:38:52.609678  3159 layer_factory.hpp:77] Creating layer scale5a_branch2c
I0318 12:38:52.609685  3159 net.cpp:100] Creating Layer scale5a_branch2c
I0318 12:38:52.609701  3159 net.cpp:444] scale5a_branch2c <- res5a_branch2c
I0318 12:38:52.609704  3159 net.cpp:405] scale5a_branch2c -> res5a_branch2c (in-place)
I0318 12:38:52.609738  3159 layer_factory.hpp:77] Creating layer scale5a_branch2c
I0318 12:38:52.609832  3159 net.cpp:150] Setting up scale5a_branch2c
I0318 12:38:52.609836  3159 net.cpp:157] Top shape: 1 2048 38 63 (4902912)
I0318 12:38:52.609851  3159 net.cpp:165] Memory required for data: 2840926356
I0318 12:38:52.609855  3159 layer_factory.hpp:77] Creating layer res5a
I0318 12:38:52.609875  3159 net.cpp:100] Creating Layer res5a
I0318 12:38:52.609879  3159 net.cpp:444] res5a <- res5a_branch1
I0318 12:38:52.609881  3159 net.cpp:444] res5a <- res5a_branch2c
I0318 12:38:52.609885  3159 net.cpp:418] res5a -> res5a
I0318 12:38:52.609905  3159 net.cpp:150] Setting up res5a
I0318 12:38:52.609910  3159 net.cpp:157] Top shape: 1 2048 38 63 (4902912)
I0318 12:38:52.609912  3159 net.cpp:165] Memory required for data: 2860538004
I0318 12:38:52.609915  3159 layer_factory.hpp:77] Creating layer res5a_relu
I0318 12:38:52.609920  3159 net.cpp:100] Creating Layer res5a_relu
I0318 12:38:52.609921  3159 net.cpp:444] res5a_relu <- res5a
I0318 12:38:52.609926  3159 net.cpp:405] res5a_relu -> res5a (in-place)
I0318 12:38:52.609931  3159 net.cpp:150] Setting up res5a_relu
I0318 12:38:52.609946  3159 net.cpp:157] Top shape: 1 2048 38 63 (4902912)
I0318 12:38:52.609949  3159 net.cpp:165] Memory required for data: 2880149652
I0318 12:38:52.609952  3159 layer_factory.hpp:77] Creating layer res5a_res5a_relu_0_split
I0318 12:38:52.609957  3159 net.cpp:100] Creating Layer res5a_res5a_relu_0_split
I0318 12:38:52.609959  3159 net.cpp:444] res5a_res5a_relu_0_split <- res5a
I0318 12:38:52.609963  3159 net.cpp:418] res5a_res5a_relu_0_split -> res5a_res5a_relu_0_split_0
I0318 12:38:52.609968  3159 net.cpp:418] res5a_res5a_relu_0_split -> res5a_res5a_relu_0_split_1
I0318 12:38:52.610010  3159 net.cpp:150] Setting up res5a_res5a_relu_0_split
I0318 12:38:52.610028  3159 net.cpp:157] Top shape: 1 2048 38 63 (4902912)
I0318 12:38:52.610031  3159 net.cpp:157] Top shape: 1 2048 38 63 (4902912)
I0318 12:38:52.610033  3159 net.cpp:165] Memory required for data: 2919372948
I0318 12:38:52.610036  3159 layer_factory.hpp:77] Creating layer res5b_branch2a
I0318 12:38:52.610043  3159 net.cpp:100] Creating Layer res5b_branch2a
I0318 12:38:52.610045  3159 net.cpp:444] res5b_branch2a <- res5a_res5a_relu_0_split_0
I0318 12:38:52.610050  3159 net.cpp:418] res5b_branch2a -> res5b_branch2a
I0318 12:38:52.612432  3159 net.cpp:150] Setting up res5b_branch2a
I0318 12:38:52.612632  3159 net.cpp:157] Top shape: 1 512 38 63 (1225728)
I0318 12:38:52.612694  3159 net.cpp:165] Memory required for data: 2924275860
I0318 12:38:52.612758  3159 layer_factory.hpp:77] Creating layer bn5b_branch2a
I0318 12:38:52.612823  3159 net.cpp:100] Creating Layer bn5b_branch2a
I0318 12:38:52.612885  3159 net.cpp:444] bn5b_branch2a <- res5b_branch2a
I0318 12:38:52.612962  3159 net.cpp:405] bn5b_branch2a -> res5b_branch2a (in-place)
I0318 12:38:52.613248  3159 net.cpp:150] Setting up bn5b_branch2a
I0318 12:38:52.613312  3159 net.cpp:157] Top shape: 1 512 38 63 (1225728)
I0318 12:38:52.613368  3159 net.cpp:165] Memory required for data: 2929178772
I0318 12:38:52.613428  3159 layer_factory.hpp:77] Creating layer scale5b_branch2a
I0318 12:38:52.613488  3159 net.cpp:100] Creating Layer scale5b_branch2a
I0318 12:38:52.613544  3159 net.cpp:444] scale5b_branch2a <- res5b_branch2a
I0318 12:38:52.613602  3159 net.cpp:405] scale5b_branch2a -> res5b_branch2a (in-place)
I0318 12:38:52.613699  3159 layer_factory.hpp:77] Creating layer scale5b_branch2a
I0318 12:38:52.613864  3159 net.cpp:150] Setting up scale5b_branch2a
I0318 12:38:52.613927  3159 net.cpp:157] Top shape: 1 512 38 63 (1225728)
I0318 12:38:52.613997  3159 net.cpp:165] Memory required for data: 2934081684
I0318 12:38:52.614056  3159 layer_factory.hpp:77] Creating layer res5b_branch2a_relu
I0318 12:38:52.614117  3159 net.cpp:100] Creating Layer res5b_branch2a_relu
I0318 12:38:52.614174  3159 net.cpp:444] res5b_branch2a_relu <- res5b_branch2a
I0318 12:38:52.614231  3159 net.cpp:405] res5b_branch2a_relu -> res5b_branch2a (in-place)
I0318 12:38:52.614290  3159 net.cpp:150] Setting up res5b_branch2a_relu
I0318 12:38:52.614348  3159 net.cpp:157] Top shape: 1 512 38 63 (1225728)
I0318 12:38:52.614403  3159 net.cpp:165] Memory required for data: 2938984596
I0318 12:38:52.614459  3159 layer_factory.hpp:77] Creating layer res5b_branch2a_res5b_branch2a_relu_0_split
I0318 12:38:52.614516  3159 net.cpp:100] Creating Layer res5b_branch2a_res5b_branch2a_relu_0_split
I0318 12:38:52.614573  3159 net.cpp:444] res5b_branch2a_res5b_branch2a_relu_0_split <- res5b_branch2a
I0318 12:38:52.614632  3159 net.cpp:418] res5b_branch2a_res5b_branch2a_relu_0_split -> res5b_branch2a_res5b_branch2a_relu_0_split_0
I0318 12:38:52.614694  3159 net.cpp:418] res5b_branch2a_res5b_branch2a_relu_0_split -> res5b_branch2a_res5b_branch2a_relu_0_split_1
I0318 12:38:52.614797  3159 net.cpp:150] Setting up res5b_branch2a_res5b_branch2a_relu_0_split
I0318 12:38:52.614858  3159 net.cpp:157] Top shape: 1 512 38 63 (1225728)
I0318 12:38:52.614917  3159 net.cpp:157] Top shape: 1 512 38 63 (1225728)
I0318 12:38:52.614971  3159 net.cpp:165] Memory required for data: 2948790420
I0318 12:38:52.615027  3159 layer_factory.hpp:77] Creating layer res5b_branch2b_offset
I0318 12:38:52.615089  3159 net.cpp:100] Creating Layer res5b_branch2b_offset
I0318 12:38:52.615146  3159 net.cpp:444] res5b_branch2b_offset <- res5b_branch2a_res5b_branch2a_relu_0_split_0
I0318 12:38:52.615207  3159 net.cpp:418] res5b_branch2b_offset -> res5b_branch2b_offset
I0318 12:38:52.616595  3159 net.cpp:150] Setting up res5b_branch2b_offset
I0318 12:38:52.616614  3159 net.cpp:157] Top shape: 1 72 38 63 (172368)
I0318 12:38:52.616617  3159 net.cpp:165] Memory required for data: 2949479892
I0318 12:38:52.616626  3159 layer_factory.hpp:77] Creating layer res5b_branch2b
I0318 12:38:52.616638  3159 net.cpp:100] Creating Layer res5b_branch2b
I0318 12:38:52.616665  3159 net.cpp:444] res5b_branch2b <- res5b_branch2a_res5b_branch2a_relu_0_split_1
I0318 12:38:52.616683  3159 net.cpp:444] res5b_branch2b <- res5b_branch2b_offset
I0318 12:38:52.616701  3159 net.cpp:418] res5b_branch2b -> res5b_branch2b
I0318 12:38:52.622239  3159 net.cpp:150] Setting up res5b_branch2b
I0318 12:38:52.622354  3159 net.cpp:157] Top shape: 1 512 38 63 (1225728)
I0318 12:38:52.622373  3159 net.cpp:165] Memory required for data: 2954382804
I0318 12:38:52.622400  3159 layer_factory.hpp:77] Creating layer bn5b_branch2b
I0318 12:38:52.622426  3159 net.cpp:100] Creating Layer bn5b_branch2b
I0318 12:38:52.622433  3159 net.cpp:444] bn5b_branch2b <- res5b_branch2b
I0318 12:38:52.622439  3159 net.cpp:405] bn5b_branch2b -> res5b_branch2b (in-place)
I0318 12:38:52.622664  3159 net.cpp:150] Setting up bn5b_branch2b
I0318 12:38:52.622670  3159 net.cpp:157] Top shape: 1 512 38 63 (1225728)
I0318 12:38:52.622673  3159 net.cpp:165] Memory required for data: 2959285716
I0318 12:38:52.622678  3159 layer_factory.hpp:77] Creating layer scale5b_branch2b
I0318 12:38:52.622689  3159 net.cpp:100] Creating Layer scale5b_branch2b
I0318 12:38:52.622691  3159 net.cpp:444] scale5b_branch2b <- res5b_branch2b
I0318 12:38:52.622695  3159 net.cpp:405] scale5b_branch2b -> res5b_branch2b (in-place)
I0318 12:38:52.622731  3159 layer_factory.hpp:77] Creating layer scale5b_branch2b
I0318 12:38:52.622840  3159 net.cpp:150] Setting up scale5b_branch2b
I0318 12:38:52.622845  3159 net.cpp:157] Top shape: 1 512 38 63 (1225728)
I0318 12:38:52.622848  3159 net.cpp:165] Memory required for data: 2964188628
I0318 12:38:52.622853  3159 layer_factory.hpp:77] Creating layer res5b_branch2b_relu
I0318 12:38:52.622876  3159 net.cpp:100] Creating Layer res5b_branch2b_relu
I0318 12:38:52.622889  3159 net.cpp:444] res5b_branch2b_relu <- res5b_branch2b
I0318 12:38:52.622905  3159 net.cpp:405] res5b_branch2b_relu -> res5b_branch2b (in-place)
I0318 12:38:52.622923  3159 net.cpp:150] Setting up res5b_branch2b_relu
I0318 12:38:52.622939  3159 net.cpp:157] Top shape: 1 512 38 63 (1225728)
I0318 12:38:52.622951  3159 net.cpp:165] Memory required for data: 2969091540
I0318 12:38:52.622964  3159 layer_factory.hpp:77] Creating layer res5b_branch2c
I0318 12:38:52.622985  3159 net.cpp:100] Creating Layer res5b_branch2c
I0318 12:38:52.622997  3159 net.cpp:444] res5b_branch2c <- res5b_branch2b
I0318 12:38:52.623013  3159 net.cpp:418] res5b_branch2c -> res5b_branch2c
I0318 12:38:52.624963  3159 net.cpp:150] Setting up res5b_branch2c
I0318 12:38:52.624982  3159 net.cpp:157] Top shape: 1 2048 38 63 (4902912)
I0318 12:38:52.624985  3159 net.cpp:165] Memory required for data: 2988703188
I0318 12:38:52.624994  3159 layer_factory.hpp:77] Creating layer bn5b_branch2c
I0318 12:38:52.625003  3159 net.cpp:100] Creating Layer bn5b_branch2c
I0318 12:38:52.625010  3159 net.cpp:444] bn5b_branch2c <- res5b_branch2c
I0318 12:38:52.625016  3159 net.cpp:405] bn5b_branch2c -> res5b_branch2c (in-place)
I0318 12:38:52.625190  3159 net.cpp:150] Setting up bn5b_branch2c
I0318 12:38:52.625195  3159 net.cpp:157] Top shape: 1 2048 38 63 (4902912)
I0318 12:38:52.625197  3159 net.cpp:165] Memory required for data: 3008314836
I0318 12:38:52.625203  3159 layer_factory.hpp:77] Creating layer scale5b_branch2c
I0318 12:38:52.625210  3159 net.cpp:100] Creating Layer scale5b_branch2c
I0318 12:38:52.625212  3159 net.cpp:444] scale5b_branch2c <- res5b_branch2c
I0318 12:38:52.625216  3159 net.cpp:405] scale5b_branch2c -> res5b_branch2c (in-place)
I0318 12:38:52.625250  3159 layer_factory.hpp:77] Creating layer scale5b_branch2c
I0318 12:38:52.625344  3159 net.cpp:150] Setting up scale5b_branch2c
I0318 12:38:52.625350  3159 net.cpp:157] Top shape: 1 2048 38 63 (4902912)
I0318 12:38:52.625352  3159 net.cpp:165] Memory required for data: 3027926484
I0318 12:38:52.625357  3159 layer_factory.hpp:77] Creating layer res5b
I0318 12:38:52.625361  3159 net.cpp:100] Creating Layer res5b
I0318 12:38:52.625365  3159 net.cpp:444] res5b <- res5a_res5a_relu_0_split_1
I0318 12:38:52.625368  3159 net.cpp:444] res5b <- res5b_branch2c
I0318 12:38:52.625376  3159 net.cpp:418] res5b -> res5b
I0318 12:38:52.625396  3159 net.cpp:150] Setting up res5b
I0318 12:38:52.625401  3159 net.cpp:157] Top shape: 1 2048 38 63 (4902912)
I0318 12:38:52.625403  3159 net.cpp:165] Memory required for data: 3047538132
I0318 12:38:52.625406  3159 layer_factory.hpp:77] Creating layer res5b_relu
I0318 12:38:52.625411  3159 net.cpp:100] Creating Layer res5b_relu
I0318 12:38:52.625416  3159 net.cpp:444] res5b_relu <- res5b
I0318 12:38:52.625418  3159 net.cpp:405] res5b_relu -> res5b (in-place)
I0318 12:38:52.625423  3159 net.cpp:150] Setting up res5b_relu
I0318 12:38:52.625427  3159 net.cpp:157] Top shape: 1 2048 38 63 (4902912)
I0318 12:38:52.625428  3159 net.cpp:165] Memory required for data: 3067149780
I0318 12:38:52.625432  3159 layer_factory.hpp:77] Creating layer res5b_res5b_relu_0_split
I0318 12:38:52.625435  3159 net.cpp:100] Creating Layer res5b_res5b_relu_0_split
I0318 12:38:52.625437  3159 net.cpp:444] res5b_res5b_relu_0_split <- res5b
I0318 12:38:52.625442  3159 net.cpp:418] res5b_res5b_relu_0_split -> res5b_res5b_relu_0_split_0
I0318 12:38:52.625447  3159 net.cpp:418] res5b_res5b_relu_0_split -> res5b_res5b_relu_0_split_1
I0318 12:38:52.625474  3159 net.cpp:150] Setting up res5b_res5b_relu_0_split
I0318 12:38:52.625479  3159 net.cpp:157] Top shape: 1 2048 38 63 (4902912)
I0318 12:38:52.625483  3159 net.cpp:157] Top shape: 1 2048 38 63 (4902912)
I0318 12:38:52.625484  3159 net.cpp:165] Memory required for data: 3106373076
I0318 12:38:52.625488  3159 layer_factory.hpp:77] Creating layer res5c_branch2a
I0318 12:38:52.625494  3159 net.cpp:100] Creating Layer res5c_branch2a
I0318 12:38:52.625499  3159 net.cpp:444] res5c_branch2a <- res5b_res5b_relu_0_split_0
I0318 12:38:52.625502  3159 net.cpp:418] res5c_branch2a -> res5c_branch2a
I0318 12:38:52.627419  3159 net.cpp:150] Setting up res5c_branch2a
I0318 12:38:52.627440  3159 net.cpp:157] Top shape: 1 512 38 63 (1225728)
I0318 12:38:52.627444  3159 net.cpp:165] Memory required for data: 3111275988
I0318 12:38:52.627451  3159 layer_factory.hpp:77] Creating layer bn5c_branch2a
I0318 12:38:52.627461  3159 net.cpp:100] Creating Layer bn5c_branch2a
I0318 12:38:52.627466  3159 net.cpp:444] bn5c_branch2a <- res5c_branch2a
I0318 12:38:52.627472  3159 net.cpp:405] bn5c_branch2a -> res5c_branch2a (in-place)
I0318 12:38:52.627657  3159 net.cpp:150] Setting up bn5c_branch2a
I0318 12:38:52.627663  3159 net.cpp:157] Top shape: 1 512 38 63 (1225728)
I0318 12:38:52.627666  3159 net.cpp:165] Memory required for data: 3116178900
I0318 12:38:52.627673  3159 layer_factory.hpp:77] Creating layer scale5c_branch2a
I0318 12:38:52.627679  3159 net.cpp:100] Creating Layer scale5c_branch2a
I0318 12:38:52.627682  3159 net.cpp:444] scale5c_branch2a <- res5c_branch2a
I0318 12:38:52.627687  3159 net.cpp:405] scale5c_branch2a -> res5c_branch2a (in-place)
I0318 12:38:52.627718  3159 layer_factory.hpp:77] Creating layer scale5c_branch2a
I0318 12:38:52.627820  3159 net.cpp:150] Setting up scale5c_branch2a
I0318 12:38:52.627825  3159 net.cpp:157] Top shape: 1 512 38 63 (1225728)
I0318 12:38:52.627827  3159 net.cpp:165] Memory required for data: 3121081812
I0318 12:38:52.627832  3159 layer_factory.hpp:77] Creating layer res5c_branch2a_relu
I0318 12:38:52.627836  3159 net.cpp:100] Creating Layer res5c_branch2a_relu
I0318 12:38:52.627840  3159 net.cpp:444] res5c_branch2a_relu <- res5c_branch2a
I0318 12:38:52.627843  3159 net.cpp:405] res5c_branch2a_relu -> res5c_branch2a (in-place)
I0318 12:38:52.627848  3159 net.cpp:150] Setting up res5c_branch2a_relu
I0318 12:38:52.627851  3159 net.cpp:157] Top shape: 1 512 38 63 (1225728)
I0318 12:38:52.627853  3159 net.cpp:165] Memory required for data: 3125984724
I0318 12:38:52.627856  3159 layer_factory.hpp:77] Creating layer res5c_branch2a_res5c_branch2a_relu_0_split
I0318 12:38:52.627859  3159 net.cpp:100] Creating Layer res5c_branch2a_res5c_branch2a_relu_0_split
I0318 12:38:52.627862  3159 net.cpp:444] res5c_branch2a_res5c_branch2a_relu_0_split <- res5c_branch2a
I0318 12:38:52.627867  3159 net.cpp:418] res5c_branch2a_res5c_branch2a_relu_0_split -> res5c_branch2a_res5c_branch2a_relu_0_split_0
I0318 12:38:52.627873  3159 net.cpp:418] res5c_branch2a_res5c_branch2a_relu_0_split -> res5c_branch2a_res5c_branch2a_relu_0_split_1
I0318 12:38:52.627903  3159 net.cpp:150] Setting up res5c_branch2a_res5c_branch2a_relu_0_split
I0318 12:38:52.627908  3159 net.cpp:157] Top shape: 1 512 38 63 (1225728)
I0318 12:38:52.627912  3159 net.cpp:157] Top shape: 1 512 38 63 (1225728)
I0318 12:38:52.627913  3159 net.cpp:165] Memory required for data: 3135790548
I0318 12:38:52.627916  3159 layer_factory.hpp:77] Creating layer res5c_branch2b_offset
I0318 12:38:52.627924  3159 net.cpp:100] Creating Layer res5c_branch2b_offset
I0318 12:38:52.627928  3159 net.cpp:444] res5c_branch2b_offset <- res5c_branch2a_res5c_branch2a_relu_0_split_0
I0318 12:38:52.627933  3159 net.cpp:418] res5c_branch2b_offset -> res5c_branch2b_offset
I0318 12:38:52.629088  3159 net.cpp:150] Setting up res5c_branch2b_offset
I0318 12:38:52.629099  3159 net.cpp:157] Top shape: 1 72 38 63 (172368)
I0318 12:38:52.629102  3159 net.cpp:165] Memory required for data: 3136480020
I0318 12:38:52.629108  3159 layer_factory.hpp:77] Creating layer res5c_branch2b
I0318 12:38:52.629115  3159 net.cpp:100] Creating Layer res5c_branch2b
I0318 12:38:52.629120  3159 net.cpp:444] res5c_branch2b <- res5c_branch2a_res5c_branch2a_relu_0_split_1
I0318 12:38:52.629124  3159 net.cpp:444] res5c_branch2b <- res5c_branch2b_offset
I0318 12:38:52.629130  3159 net.cpp:418] res5c_branch2b -> res5c_branch2b
I0318 12:38:52.633126  3159 net.cpp:150] Setting up res5c_branch2b
I0318 12:38:52.633158  3159 net.cpp:157] Top shape: 1 512 38 63 (1225728)
I0318 12:38:52.633162  3159 net.cpp:165] Memory required for data: 3141382932
I0318 12:38:52.633172  3159 layer_factory.hpp:77] Creating layer bn5c_branch2b
I0318 12:38:52.633183  3159 net.cpp:100] Creating Layer bn5c_branch2b
I0318 12:38:52.633203  3159 net.cpp:444] bn5c_branch2b <- res5c_branch2b
I0318 12:38:52.633226  3159 net.cpp:405] bn5c_branch2b -> res5c_branch2b (in-place)
I0318 12:38:52.633450  3159 net.cpp:150] Setting up bn5c_branch2b
I0318 12:38:52.633457  3159 net.cpp:157] Top shape: 1 512 38 63 (1225728)
I0318 12:38:52.633460  3159 net.cpp:165] Memory required for data: 3146285844
I0318 12:38:52.633466  3159 layer_factory.hpp:77] Creating layer scale5c_branch2b
I0318 12:38:52.633471  3159 net.cpp:100] Creating Layer scale5c_branch2b
I0318 12:38:52.633473  3159 net.cpp:444] scale5c_branch2b <- res5c_branch2b
I0318 12:38:52.633477  3159 net.cpp:405] scale5c_branch2b -> res5c_branch2b (in-place)
I0318 12:38:52.633522  3159 layer_factory.hpp:77] Creating layer scale5c_branch2b
I0318 12:38:52.633688  3159 net.cpp:150] Setting up scale5c_branch2b
I0318 12:38:52.633694  3159 net.cpp:157] Top shape: 1 512 38 63 (1225728)
I0318 12:38:52.633697  3159 net.cpp:165] Memory required for data: 3151188756
I0318 12:38:52.633700  3159 layer_factory.hpp:77] Creating layer res5c_branch2b_relu
I0318 12:38:52.633705  3159 net.cpp:100] Creating Layer res5c_branch2b_relu
I0318 12:38:52.633708  3159 net.cpp:444] res5c_branch2b_relu <- res5c_branch2b
I0318 12:38:52.633728  3159 net.cpp:405] res5c_branch2b_relu -> res5c_branch2b (in-place)
I0318 12:38:52.633733  3159 net.cpp:150] Setting up res5c_branch2b_relu
I0318 12:38:52.633738  3159 net.cpp:157] Top shape: 1 512 38 63 (1225728)
I0318 12:38:52.633739  3159 net.cpp:165] Memory required for data: 3156091668
I0318 12:38:52.633743  3159 layer_factory.hpp:77] Creating layer res5c_branch2c
I0318 12:38:52.633749  3159 net.cpp:100] Creating Layer res5c_branch2c
I0318 12:38:52.633752  3159 net.cpp:444] res5c_branch2c <- res5c_branch2b
I0318 12:38:52.633757  3159 net.cpp:418] res5c_branch2c -> res5c_branch2c
I0318 12:38:52.635694  3159 net.cpp:150] Setting up res5c_branch2c
I0318 12:38:52.635712  3159 net.cpp:157] Top shape: 1 2048 38 63 (4902912)
I0318 12:38:52.635715  3159 net.cpp:165] Memory required for data: 3175703316
I0318 12:38:52.635720  3159 layer_factory.hpp:77] Creating layer bn5c_branch2c
I0318 12:38:52.635730  3159 net.cpp:100] Creating Layer bn5c_branch2c
I0318 12:38:52.635733  3159 net.cpp:444] bn5c_branch2c <- res5c_branch2c
I0318 12:38:52.635738  3159 net.cpp:405] bn5c_branch2c -> res5c_branch2c (in-place)
I0318 12:38:52.635903  3159 net.cpp:150] Setting up bn5c_branch2c
I0318 12:38:52.635908  3159 net.cpp:157] Top shape: 1 2048 38 63 (4902912)
I0318 12:38:52.635911  3159 net.cpp:165] Memory required for data: 3195314964
I0318 12:38:52.635916  3159 layer_factory.hpp:77] Creating layer scale5c_branch2c
I0318 12:38:52.635921  3159 net.cpp:100] Creating Layer scale5c_branch2c
I0318 12:38:52.635923  3159 net.cpp:444] scale5c_branch2c <- res5c_branch2c
I0318 12:38:52.635928  3159 net.cpp:405] scale5c_branch2c -> res5c_branch2c (in-place)
I0318 12:38:52.635960  3159 layer_factory.hpp:77] Creating layer scale5c_branch2c
I0318 12:38:52.636098  3159 net.cpp:150] Setting up scale5c_branch2c
I0318 12:38:52.636103  3159 net.cpp:157] Top shape: 1 2048 38 63 (4902912)
I0318 12:38:52.636106  3159 net.cpp:165] Memory required for data: 3214926612
I0318 12:38:52.636109  3159 layer_factory.hpp:77] Creating layer res5c
I0318 12:38:52.636113  3159 net.cpp:100] Creating Layer res5c
I0318 12:38:52.636116  3159 net.cpp:444] res5c <- res5b_res5b_relu_0_split_1
I0318 12:38:52.636121  3159 net.cpp:444] res5c <- res5c_branch2c
I0318 12:38:52.636123  3159 net.cpp:418] res5c -> res5c
I0318 12:38:52.636142  3159 net.cpp:150] Setting up res5c
I0318 12:38:52.636147  3159 net.cpp:157] Top shape: 1 2048 38 63 (4902912)
I0318 12:38:52.636163  3159 net.cpp:165] Memory required for data: 3234538260
I0318 12:38:52.636165  3159 layer_factory.hpp:77] Creating layer res5c_relu
I0318 12:38:52.636170  3159 net.cpp:100] Creating Layer res5c_relu
I0318 12:38:52.636173  3159 net.cpp:444] res5c_relu <- res5c
I0318 12:38:52.636176  3159 net.cpp:405] res5c_relu -> res5c (in-place)
I0318 12:38:52.636180  3159 net.cpp:150] Setting up res5c_relu
I0318 12:38:52.636183  3159 net.cpp:157] Top shape: 1 2048 38 63 (4902912)
I0318 12:38:52.636185  3159 net.cpp:165] Memory required for data: 3254149908
I0318 12:38:52.636188  3159 layer_factory.hpp:77] Creating layer rpn_conv/3x3
I0318 12:38:52.636196  3159 net.cpp:100] Creating Layer rpn_conv/3x3
I0318 12:38:52.636200  3159 net.cpp:444] rpn_conv/3x3 <- res4f_res4f_relu_0_split_2
I0318 12:38:52.636219  3159 net.cpp:418] rpn_conv/3x3 -> rpn/output
I0318 12:38:52.683467  3159 net.cpp:150] Setting up rpn_conv/3x3
I0318 12:38:52.683492  3159 net.cpp:157] Top shape: 1 512 38 63 (1225728)
I0318 12:38:52.683495  3159 net.cpp:165] Memory required for data: 3259052820
I0318 12:38:52.683516  3159 layer_factory.hpp:77] Creating layer rpn_relu/3x3
I0318 12:38:52.683542  3159 net.cpp:100] Creating Layer rpn_relu/3x3
I0318 12:38:52.683547  3159 net.cpp:444] rpn_relu/3x3 <- rpn/output
I0318 12:38:52.683552  3159 net.cpp:405] rpn_relu/3x3 -> rpn/output (in-place)
I0318 12:38:52.683576  3159 net.cpp:150] Setting up rpn_relu/3x3
I0318 12:38:52.683594  3159 net.cpp:157] Top shape: 1 512 38 63 (1225728)
I0318 12:38:52.683596  3159 net.cpp:165] Memory required for data: 3263955732
I0318 12:38:52.683598  3159 layer_factory.hpp:77] Creating layer rpn/output_rpn_relu/3x3_0_split
I0318 12:38:52.683617  3159 net.cpp:100] Creating Layer rpn/output_rpn_relu/3x3_0_split
I0318 12:38:52.683620  3159 net.cpp:444] rpn/output_rpn_relu/3x3_0_split <- rpn/output
I0318 12:38:52.683626  3159 net.cpp:418] rpn/output_rpn_relu/3x3_0_split -> rpn/output_rpn_relu/3x3_0_split_0
I0318 12:38:52.683631  3159 net.cpp:418] rpn/output_rpn_relu/3x3_0_split -> rpn/output_rpn_relu/3x3_0_split_1
I0318 12:38:52.683686  3159 net.cpp:150] Setting up rpn/output_rpn_relu/3x3_0_split
I0318 12:38:52.683691  3159 net.cpp:157] Top shape: 1 512 38 63 (1225728)
I0318 12:38:52.683706  3159 net.cpp:157] Top shape: 1 512 38 63 (1225728)
I0318 12:38:52.683708  3159 net.cpp:165] Memory required for data: 3273761556
I0318 12:38:52.683712  3159 layer_factory.hpp:77] Creating layer rpn_cls_score
I0318 12:38:52.683734  3159 net.cpp:100] Creating Layer rpn_cls_score
I0318 12:38:52.683737  3159 net.cpp:444] rpn_cls_score <- rpn/output_rpn_relu/3x3_0_split_0
I0318 12:38:52.683743  3159 net.cpp:418] rpn_cls_score -> rpn_cls_score
I0318 12:38:52.684128  3159 net.cpp:150] Setting up rpn_cls_score
I0318 12:38:52.684134  3159 net.cpp:157] Top shape: 1 32 38 63 (76608)
I0318 12:38:52.684135  3159 net.cpp:165] Memory required for data: 3274067988
I0318 12:38:52.684139  3159 layer_factory.hpp:77] Creating layer rpn_cls_score_rpn_cls_score_0_split
I0318 12:38:52.684144  3159 net.cpp:100] Creating Layer rpn_cls_score_rpn_cls_score_0_split
I0318 12:38:52.684161  3159 net.cpp:444] rpn_cls_score_rpn_cls_score_0_split <- rpn_cls_score
I0318 12:38:52.684166  3159 net.cpp:418] rpn_cls_score_rpn_cls_score_0_split -> rpn_cls_score_rpn_cls_score_0_split_0
I0318 12:38:52.684170  3159 net.cpp:418] rpn_cls_score_rpn_cls_score_0_split -> rpn_cls_score_rpn_cls_score_0_split_1
I0318 12:38:52.684240  3159 net.cpp:150] Setting up rpn_cls_score_rpn_cls_score_0_split
I0318 12:38:52.684247  3159 net.cpp:157] Top shape: 1 32 38 63 (76608)
I0318 12:38:52.684249  3159 net.cpp:157] Top shape: 1 32 38 63 (76608)
I0318 12:38:52.684252  3159 net.cpp:165] Memory required for data: 3274680852
I0318 12:38:52.684254  3159 layer_factory.hpp:77] Creating layer rpn_bbox_pred
I0318 12:38:52.684270  3159 net.cpp:100] Creating Layer rpn_bbox_pred
I0318 12:38:52.684275  3159 net.cpp:444] rpn_bbox_pred <- rpn/output_rpn_relu/3x3_0_split_1
I0318 12:38:52.684279  3159 net.cpp:418] rpn_bbox_pred -> rpn_bbox_pred
I0318 12:38:52.684846  3159 net.cpp:150] Setting up rpn_bbox_pred
I0318 12:38:52.684854  3159 net.cpp:157] Top shape: 1 64 38 63 (153216)
I0318 12:38:52.684855  3159 net.cpp:165] Memory required for data: 3275293716
I0318 12:38:52.684860  3159 layer_factory.hpp:77] Creating layer rpn_bbox_pred_rpn_bbox_pred_0_split
I0318 12:38:52.684866  3159 net.cpp:100] Creating Layer rpn_bbox_pred_rpn_bbox_pred_0_split
I0318 12:38:52.684870  3159 net.cpp:444] rpn_bbox_pred_rpn_bbox_pred_0_split <- rpn_bbox_pred
I0318 12:38:52.684875  3159 net.cpp:418] rpn_bbox_pred_rpn_bbox_pred_0_split -> rpn_bbox_pred_rpn_bbox_pred_0_split_0
I0318 12:38:52.684900  3159 net.cpp:418] rpn_bbox_pred_rpn_bbox_pred_0_split -> rpn_bbox_pred_rpn_bbox_pred_0_split_1
I0318 12:38:52.684931  3159 net.cpp:150] Setting up rpn_bbox_pred_rpn_bbox_pred_0_split
I0318 12:38:52.684937  3159 net.cpp:157] Top shape: 1 64 38 63 (153216)
I0318 12:38:52.684939  3159 net.cpp:157] Top shape: 1 64 38 63 (153216)
I0318 12:38:52.684942  3159 net.cpp:165] Memory required for data: 3276519444
I0318 12:38:52.684944  3159 layer_factory.hpp:77] Creating layer rpn_cls_score_reshape
I0318 12:38:52.684952  3159 net.cpp:100] Creating Layer rpn_cls_score_reshape
I0318 12:38:52.684954  3159 net.cpp:444] rpn_cls_score_reshape <- rpn_cls_score_rpn_cls_score_0_split_0
I0318 12:38:52.684959  3159 net.cpp:418] rpn_cls_score_reshape -> rpn_cls_score_reshape
I0318 12:38:52.684980  3159 net.cpp:150] Setting up rpn_cls_score_reshape
I0318 12:38:52.684985  3159 net.cpp:157] Top shape: 1 2 608 63 (76608)
I0318 12:38:52.684988  3159 net.cpp:165] Memory required for data: 3276825876
I0318 12:38:52.684990  3159 layer_factory.hpp:77] Creating layer rpn_cls_score_reshape_rpn_cls_score_reshape_0_split
I0318 12:38:52.684995  3159 net.cpp:100] Creating Layer rpn_cls_score_reshape_rpn_cls_score_reshape_0_split
I0318 12:38:52.684998  3159 net.cpp:444] rpn_cls_score_reshape_rpn_cls_score_reshape_0_split <- rpn_cls_score_reshape
I0318 12:38:52.685003  3159 net.cpp:418] rpn_cls_score_reshape_rpn_cls_score_reshape_0_split -> rpn_cls_score_reshape_rpn_cls_score_reshape_0_split_0
I0318 12:38:52.685008  3159 net.cpp:418] rpn_cls_score_reshape_rpn_cls_score_reshape_0_split -> rpn_cls_score_reshape_rpn_cls_score_reshape_0_split_1
I0318 12:38:52.685036  3159 net.cpp:150] Setting up rpn_cls_score_reshape_rpn_cls_score_reshape_0_split
I0318 12:38:52.685042  3159 net.cpp:157] Top shape: 1 2 608 63 (76608)
I0318 12:38:52.685045  3159 net.cpp:157] Top shape: 1 2 608 63 (76608)
I0318 12:38:52.685047  3159 net.cpp:165] Memory required for data: 3277438740
I0318 12:38:52.685050  3159 layer_factory.hpp:77] Creating layer rpn-data
I0318 12:38:52.686319  3159 net.cpp:100] Creating Layer rpn-data
I0318 12:38:52.686331  3159 net.cpp:444] rpn-data <- rpn_cls_score_rpn_cls_score_0_split_1
I0318 12:38:52.686336  3159 net.cpp:444] rpn-data <- gt_boxes_input-data_2_split_0
I0318 12:38:52.686341  3159 net.cpp:444] rpn-data <- im_info_input-data_1_split_0
I0318 12:38:52.686343  3159 net.cpp:444] rpn-data <- data_input-data_0_split_1
I0318 12:38:52.686349  3159 net.cpp:418] rpn-data -> rpn_labels
I0318 12:38:52.686357  3159 net.cpp:418] rpn-data -> rpn_bbox_targets
I0318 12:38:52.686363  3159 net.cpp:418] rpn-data -> rpn_bbox_inside_weights
I0318 12:38:52.686369  3159 net.cpp:418] rpn-data -> rpn_bbox_outside_weights
I0318 12:38:52.686990  3159 net.cpp:150] Setting up rpn-data
I0318 12:38:52.687001  3159 net.cpp:157] Top shape: 1 1 608 63 (38304)
I0318 12:38:52.687005  3159 net.cpp:157] Top shape: 1 64 38 63 (153216)
I0318 12:38:52.687007  3159 net.cpp:157] Top shape: 1 64 38 63 (153216)
I0318 12:38:52.687011  3159 net.cpp:157] Top shape: 1 64 38 63 (153216)
I0318 12:38:52.687026  3159 net.cpp:165] Memory required for data: 3279430548
I0318 12:38:52.687029  3159 layer_factory.hpp:77] Creating layer rpn_loss_cls
I0318 12:38:52.687036  3159 net.cpp:100] Creating Layer rpn_loss_cls
I0318 12:38:52.687038  3159 net.cpp:444] rpn_loss_cls <- rpn_cls_score_reshape_rpn_cls_score_reshape_0_split_0
I0318 12:38:52.687042  3159 net.cpp:444] rpn_loss_cls <- rpn_labels
…
I0318 12:38:52.688205  3159 net.cpp:157] Top shape: (1)
I0318 12:38:52.688266  3159 net.cpp:160]     with loss weight 1
I0318 12:38:52.688280  3159 net.cpp:165] Memory required for data: 3279430556
I0318 12:38:52.688288  3159 layer_factory.hpp:77] Creating layer rpn_cls_prob
I0318 12:38:52.688316  3159 net.cpp:100] Creating Layer rpn_cls_prob
I0318 12:38:52.688331  3159 net.cpp:444] rpn_cls_prob <- rpn_cls_score_reshape_rpn_cls_score_reshape_0_split_1
I0318 12:38:52.688361  3159 net.cpp:418] rpn_cls_prob -> rpn_cls_prob
I0318 12:38:52.688438  3159 net.cpp:150] Setting up rpn_cls_prob
I0318 12:38:52.688446  3159 net.cpp:157] Top shape: 1 2 608 63 (76608)
I0318 12:38:52.688447  3159 net.cpp:165] Memory required for data: 3279736988
I0318 12:38:52.688450  3159 layer_factory.hpp:77] Creating layer rpn_cls_prob_reshape
I0318 12:38:52.688455  3159 net.cpp:100] Creating Layer rpn_cls_prob_reshape
I0318 12:38:52.688457  3159 net.cpp:444] rpn_cls_prob_reshape <- rpn_cls_prob
I0318 12:38:52.688482  3159 net.cpp:418] rpn_cls_prob_reshape -> rpn_cls_prob_reshape
I0318 12:38:52.688534  3159 net.cpp:150] Setting up rpn_cls_prob_reshape
I0318 12:38:52.688554  3159 net.cpp:157] Top shape: 1 32 38 63 (76608)
I0318 12:38:52.688567  3159 net.cpp:165] Memory required for data: 3280043420
I0318 12:38:52.688580  3159 layer_factory.hpp:77] Creating layer proposal
I0318 12:38:52.691999  3159 net.cpp:100] Creating Layer proposal
I0318 12:38:52.692010  3159 net.cpp:444] proposal <- rpn_cls_prob_reshape
I0318 12:38:52.692015  3159 net.cpp:444] proposal <- rpn_bbox_pred_rpn_bbox_pred_0_split_1
I0318 12:38:52.692018  3159 net.cpp:444] proposal <- im_info_input-data_1_split_1
I0318 12:38:52.692023  3159 net.cpp:418] proposal -> rpn_rois
I0318 12:38:52.702596  3159 net.cpp:150] Setting up proposal
I0318 12:38:52.702616  3159 net.cpp:157] Top shape: 1 5 (5)
I0318 12:38:52.702620  3159 net.cpp:165] Memory required for data: 3280043440
I0318 12:38:52.702636  3159 layer_factory.hpp:77] Creating layer roi-data
I0318 12:38:52.703090  3159 net.cpp:100] Creating Layer roi-data
I0318 12:38:52.703099  3159 net.cpp:444] roi-data <- rpn_rois
I0318 12:38:52.703105  3159 net.cpp:444] roi-data <- gt_boxes_input-data_2_split_1
I0318 12:38:52.703111  3159 net.cpp:418] roi-data -> rois
I0318 12:38:52.703119  3159 net.cpp:418] roi-data -> labels
I0318 12:38:52.703122  3159 net.cpp:418] roi-data -> bbox_targets
I0318 12:38:52.703127  3159 net.cpp:418] roi-data -> bbox_inside_weights
I0318 12:38:52.703131  3159 net.cpp:418] roi-data -> bbox_outside_weights
I0318 12:38:52.703537  3159 net.cpp:150] Setting up roi-data
I0318 12:38:52.703547  3159 net.cpp:157] Top shape: 1 5 1 1 (5)
I0318 12:38:52.703549  3159 net.cpp:157] Top shape: 1 1 1 1 (1)
I0318 12:38:52.703552  3159 net.cpp:157] Top shape: 1 8 1 1 (8)
I0318 12:38:52.703554  3159 net.cpp:157] Top shape: 1 8 1 1 (8)
I0318 12:38:52.703557  3159 net.cpp:157] Top shape: 1 8 1 1 (8)
I0318 12:38:52.703558  3159 net.cpp:165] Memory required for data: 3280043560
I0318 12:38:52.703562  3159 layer_factory.hpp:77] Creating layer rois_roi-data_0_split
I0318 12:38:52.703567  3159 net.cpp:100] Creating Layer rois_roi-data_0_split
I0318 12:38:52.703569  3159 net.cpp:444] rois_roi-data_0_split <- rois
I0318 12:38:52.703573  3159 net.cpp:418] rois_roi-data_0_split -> rois_roi-data_0_split_0
I0318 12:38:52.703579  3159 net.cpp:418] rois_roi-data_0_split -> rois_roi-data_0_split_1
I0318 12:38:52.703583  3159 net.cpp:418] rois_roi-data_0_split -> rois_roi-data_0_split_2
I0318 12:38:52.703660  3159 net.cpp:150] Setting up rois_roi-data_0_split
I0318 12:38:52.703665  3159 net.cpp:157] Top shape: 1 5 1 1 (5)
I0318 12:38:52.703667  3159 net.cpp:157] Top shape: 1 5 1 1 (5)
I0318 12:38:52.703670  3159 net.cpp:157] Top shape: 1 5 1 1 (5)
I0318 12:38:52.703671  3159 net.cpp:165] Memory required for data: 3280043620
I0318 12:38:52.703673  3159 layer_factory.hpp:77] Creating layer labels_roi-data_1_split
I0318 12:38:52.703676  3159 net.cpp:100] Creating Layer labels_roi-data_1_split
I0318 12:38:52.703680  3159 net.cpp:444] labels_roi-data_1_split <- labels
I0318 12:38:52.703696  3159 net.cpp:418] labels_roi-data_1_split -> labels_roi-data_1_split_0
I0318 12:38:52.703701  3159 net.cpp:418] labels_roi-data_1_split -> labels_roi-data_1_split_1
I0318 12:38:52.703752  3159 net.cpp:150] Setting up labels_roi-data_1_split
I0318 12:38:52.703755  3159 net.cpp:157] Top shape: 1 1 1 1 (1)
I0318 12:38:52.703773  3159 net.cpp:157] Top shape: 1 1 1 1 (1)
I0318 12:38:52.703774  3159 net.cpp:165] Memory required for data: 3280043628
I0318 12:38:52.703776  3159 layer_factory.hpp:77] Creating layer bbox_targets_roi-data_2_split
I0318 12:38:52.703780  3159 net.cpp:100] Creating Layer bbox_targets_roi-data_2_split
I0318 12:38:52.703783  3159 net.cpp:444] bbox_targets_roi-data_2_split <- bbox_targets
I0318 12:38:52.703786  3159 net.cpp:418] bbox_targets_roi-data_2_split -> bbox_targets_roi-data_2_split_0
I0318 12:38:52.703790  3159 net.cpp:418] bbox_targets_roi-data_2_split -> bbox_targets_roi-data_2_split_1
I0318 12:38:52.703841  3159 net.cpp:150] Setting up bbox_targets_roi-data_2_split
I0318 12:38:52.703846  3159 net.cpp:157] Top shape: 1 8 1 1 (8)
I0318 12:38:52.703863  3159 net.cpp:157] Top shape: 1 8 1 1 (8)
I0318 12:38:52.703866  3159 net.cpp:165] Memory required for data: 3280043692
I0318 12:38:52.703867  3159 layer_factory.hpp:77] Creating layer bbox_inside_weights_roi-data_3_split
I0318 12:38:52.703871  3159 net.cpp:100] Creating Layer bbox_inside_weights_roi-data_3_split
I0318 12:38:52.703874  3159 net.cpp:444] bbox_inside_weights_roi-data_3_split <- bbox_inside_weights
I0318 12:38:52.703877  3159 net.cpp:418] bbox_inside_weights_roi-data_3_split -> bbox_inside_weights_roi-data_3_split_0
I0318 12:38:52.703882  3159 net.cpp:418] bbox_inside_weights_roi-data_3_split -> bbox_inside_weights_roi-data_3_split_1
I0318 12:38:52.703933  3159 net.cpp:150] Setting up bbox_inside_weights_roi-data_3_split
I0318 12:38:52.703936  3159 net.cpp:157] Top shape: 1 8 1 1 (8)
I0318 12:38:52.703939  3159 net.cpp:157] Top shape: 1 8 1 1 (8)
I0318 12:38:52.703943  3159 net.cpp:165] Memory required for data: 3280043756
I0318 12:38:52.703944  3159 layer_factory.hpp:77] Creating layer conv_new_1
I0318 12:38:52.703953  3159 net.cpp:100] Creating Layer conv_new_1
I0318 12:38:52.703955  3159 net.cpp:444] conv_new_1 <- res5c
I0318 12:38:52.703975  3159 net.cpp:418] conv_new_1 -> conv_new_1
I0318 12:38:52.724292  3159 net.cpp:150] Setting up conv_new_1
I0318 12:38:52.724313  3159 net.cpp:157] Top shape: 1 1024 38 63 (2451456)
I0318 12:38:52.724316  3159 net.cpp:165] Memory required for data: 3289849580
I0318 12:38:52.724339  3159 layer_factory.hpp:77] Creating layer conv_new_1_relu
I0318 12:38:52.724345  3159 net.cpp:100] Creating Layer conv_new_1_relu
I0318 12:38:52.724350  3159 net.cpp:444] conv_new_1_relu <- conv_new_1
I0318 12:38:52.724356  3159 net.cpp:405] conv_new_1_relu -> conv_new_1 (in-place)
I0318 12:38:52.724366  3159 net.cpp:150] Setting up conv_new_1_relu
I0318 12:38:52.724383  3159 net.cpp:157] Top shape: 1 1024 38 63 (2451456)
I0318 12:38:52.724385  3159 net.cpp:165] Memory required for data: 3299655404
I0318 12:38:52.724387  3159 layer_factory.hpp:77] Creating layer conv_new_1_conv_new_1_relu_0_split
I0318 12:38:52.724391  3159 net.cpp:100] Creating Layer conv_new_1_conv_new_1_relu_0_split
I0318 12:38:52.724393  3159 net.cpp:444] conv_new_1_conv_new_1_relu_0_split <- conv_new_1
I0318 12:38:52.724398  3159 net.cpp:418] conv_new_1_conv_new_1_relu_0_split -> conv_new_1_conv_new_1_relu_0_split_0
I0318 12:38:52.724405  3159 net.cpp:418] conv_new_1_conv_new_1_relu_0_split -> conv_new_1_conv_new_1_relu_0_split_1
I0318 12:38:52.724434  3159 net.cpp:150] Setting up conv_new_1_conv_new_1_relu_0_split
I0318 12:38:52.724452  3159 net.cpp:157] Top shape: 1 1024 38 63 (2451456)
I0318 12:38:52.724455  3159 net.cpp:157] Top shape: 1 1024 38 63 (2451456)
I0318 12:38:52.724470  3159 net.cpp:165] Memory required for data: 3319267052
I0318 12:38:52.724473  3159 layer_factory.hpp:77] Creating layer rfcn_cls
I0318 12:38:52.724494  3159 net.cpp:100] Creating Layer rfcn_cls
I0318 12:38:52.724498  3159 net.cpp:444] rfcn_cls <- conv_new_1_conv_new_1_relu_0_split_0
I0318 12:38:52.724503  3159 net.cpp:418] rfcn_cls -> rfcn_cls
I0318 12:38:52.725471  3159 net.cpp:150] Setting up rfcn_cls
I0318 12:38:52.725476  3159 net.cpp:157] Top shape: 1 98 38 63 (234612)
I0318 12:38:52.725478  3159 net.cpp:165] Memory required for data: 3320205500
I0318 12:38:52.725482  3159 layer_factory.hpp:77] Creating layer rfcn_bbox
I0318 12:38:52.725488  3159 net.cpp:100] Creating Layer rfcn_bbox
I0318 12:38:52.725505  3159 net.cpp:444] rfcn_bbox <- conv_new_1_conv_new_1_relu_0_split_1
I0318 12:38:52.725510  3159 net.cpp:418] rfcn_bbox -> rfcn_bbox
I0318 12:38:52.729410  3159 net.cpp:150] Setting up rfcn_bbox
I0318 12:38:52.729421  3159 net.cpp:157] Top shape: 1 392 38 63 (938448)
I0318 12:38:52.729424  3159 net.cpp:165] Memory required for data: 3323959292
I0318 12:38:52.729429  3159 layer_factory.hpp:77] Creating layer psroipooled_cls_rois
I0318 12:38:52.729434  3159 net.cpp:100] Creating Layer psroipooled_cls_rois
I0318 12:38:52.729437  3159 net.cpp:444] psroipooled_cls_rois <- rfcn_cls
I0318 12:38:52.729441  3159 net.cpp:444] psroipooled_cls_rois <- rois_roi-data_0_split_0
I0318 12:38:52.729445  3159 net.cpp:418] psroipooled_cls_rois -> psroipooled_cls_rois
I0318 12:38:52.729451  3159 psroi_align_layer.cpp:26] Spatial scale: 0.0625
I0318 12:38:52.729537  3159 net.cpp:150] Setting up psroipooled_cls_rois
I0318 12:38:52.729542  3159 net.cpp:157] Top shape: 1 2 7 7 (98)
I0318 12:38:52.729544  3159 net.cpp:165] Memory required for data: 3323959684
I0318 12:38:52.729547  3159 layer_factory.hpp:77] Creating layer ave_cls_score_rois
I0318 12:38:52.729552  3159 net.cpp:100] Creating Layer ave_cls_score_rois
I0318 12:38:52.729555  3159 net.cpp:444] ave_cls_score_rois <- psroipooled_cls_rois
I0318 12:38:52.729575  3159 net.cpp:418] ave_cls_score_rois -> cls_score
I0318 12:38:52.729619  3159 net.cpp:150] Setting up ave_cls_score_rois
I0318 12:38:52.729624  3159 net.cpp:157] Top shape: 1 2 1 1 (2)
I0318 12:38:52.729638  3159 net.cpp:165] Memory required for data: 3323959692
I0318 12:38:52.729641  3159 layer_factory.hpp:77] Creating layer cls_score_ave_cls_score_rois_0_split
I0318 12:38:52.729645  3159 net.cpp:100] Creating Layer cls_score_ave_cls_score_rois_0_split
I0318 12:38:52.729665  3159 net.cpp:444] cls_score_ave_cls_score_rois_0_split <- cls_score
I0318 12:38:52.729670  3159 net.cpp:418] cls_score_ave_cls_score_rois_0_split -> cls_score_ave_cls_score_rois_0_split_0
I0318 12:38:52.729674  3159 net.cpp:418] cls_score_ave_cls_score_rois_0_split -> cls_score_ave_cls_score_rois_0_split_1
I0318 12:38:52.729679  3159 net.cpp:418] cls_score_ave_cls_score_rois_0_split -> cls_score_ave_cls_score_rois_0_split_2
I0318 12:38:52.729728  3159 net.cpp:150] Setting up cls_score_ave_cls_score_rois_0_split
I0318 12:38:52.729733  3159 net.cpp:157] Top shape: 1 2 1 1 (2)
I0318 12:38:52.729737  3159 net.cpp:157] Top shape: 1 2 1 1 (2)
I0318 12:38:52.729739  3159 net.cpp:157] Top shape: 1 2 1 1 (2)
I0318 12:38:52.729742  3159 net.cpp:165] Memory required for data: 3323959716
I0318 12:38:52.729743  3159 layer_factory.hpp:77] Creating layer psroipooled_loc_rois
I0318 12:38:52.729748  3159 net.cpp:100] Creating Layer psroipooled_loc_rois
I0318 12:38:52.729774  3159 net.cpp:444] psroipooled_loc_rois <- rfcn_bbox
I0318 12:38:52.729780  3159 net.cpp:444] psroipooled_loc_rois <- rois_roi-data_0_split_1
I0318 12:38:52.729785  3159 net.cpp:418] psroipooled_loc_rois -> psroipooled_loc_rois
I0318 12:38:52.729790  3159 psroi_align_layer.cpp:26] Spatial scale: 0.0625
I0318 12:38:52.729845  3159 net.cpp:150] Setting up psroipooled_loc_rois
I0318 12:38:52.729862  3159 net.cpp:157] Top shape: 1 8 7 7 (392)
I0318 12:38:52.729866  3159 net.cpp:165] Memory required for data: 3323961284
I0318 12:38:52.729867  3159 layer_factory.hpp:77] Creating layer ave_bbox_pred_rois
I0318 12:38:52.729871  3159 net.cpp:100] Creating Layer ave_bbox_pred_rois
I0318 12:38:52.729876  3159 net.cpp:444] ave_bbox_pred_rois <- psroipooled_loc_rois
I0318 12:38:52.729879  3159 net.cpp:418] ave_bbox_pred_rois -> bbox_pred
I0318 12:38:52.729910  3159 net.cpp:150] Setting up ave_bbox_pred_rois
I0318 12:38:52.729915  3159 net.cpp:157] Top shape: 1 8 1 1 (8)
I0318 12:38:52.729918  3159 net.cpp:165] Memory required for data: 3323961316
I0318 12:38:52.729919  3159 layer_factory.hpp:77] Creating layer bbox_pred_ave_bbox_pred_rois_0_split
I0318 12:38:52.729923  3159 net.cpp:100] Creating Layer bbox_pred_ave_bbox_pred_rois_0_split
I0318 12:38:52.729926  3159 net.cpp:444] bbox_pred_ave_bbox_pred_rois_0_split <- bbox_pred
I0318 12:38:52.729930  3159 net.cpp:418] bbox_pred_ave_bbox_pred_rois_0_split -> bbox_pred_ave_bbox_pred_rois_0_split_0
I0318 12:38:52.729943  3159 net.cpp:418] bbox_pred_ave_bbox_pred_rois_0_split -> bbox_pred_ave_bbox_pred_rois_0_split_1
I0318 12:38:52.729982  3159 net.cpp:150] Setting up bbox_pred_ave_bbox_pred_rois_0_split
I0318 12:38:52.729986  3159 net.cpp:157] Top shape: 1 8 1 1 (8)
I0318 12:38:52.729990  3159 net.cpp:157] Top shape: 1 8 1 1 (8)
I0318 12:38:52.729991  3159 net.cpp:165] Memory required for data: 3323961380
I0318 12:38:52.729995  3159 layer_factory.hpp:77] Creating layer per_roi_loss_cls
I0318 12:38:52.730000  3159 net.cpp:100] Creating Layer per_roi_loss_cls
I0318 12:38:52.730002  3159 net.cpp:444] per_roi_loss_cls <- cls_score_ave_cls_score_rois_0_split_0
I0318 12:38:52.730006  3159 net.cpp:444] per_roi_loss_cls <- labels_roi-data_1_split_0
I0318 12:38:52.730010  3159 net.cpp:418] per_roi_loss_cls -> temp_loss_cls
I0318 12:38:52.730015  3159 net.cpp:418] per_roi_loss_cls -> temp_prob_cls
I0318 12:38:52.730020  3159 net.cpp:418] per_roi_loss_cls -> per_roi_loss_cls
I0318 12:38:52.730041  3159 layer_factory.hpp:77] Creating layer per_roi_loss_cls
I0318 12:38:52.730123  3159 net.cpp:150] Setting up per_roi_loss_cls
I0318 12:38:52.730128  3159 net.cpp:157] Top shape: (1)
I0318 12:38:52.730144  3159 net.cpp:157] Top shape: 1 2 1 1 (2)
I0318 12:38:52.730146  3159 net.cpp:157] Top shape: 1 1 1 1 (1)
I0318 12:38:52.730149  3159 net.cpp:165] Memory required for data: 3323961396
I0318 12:38:52.730150  3159 layer_factory.hpp:77] Creating layer per_roi_loss_bbox
I0318 12:38:52.730155  3159 net.cpp:100] Creating Layer per_roi_loss_bbox
I0318 12:38:52.730159  3159 net.cpp:444] per_roi_loss_bbox <- bbox_pred_ave_bbox_pred_rois_0_split_0
I0318 12:38:52.730162  3159 net.cpp:444] per_roi_loss_bbox <- bbox_targets_roi-data_2_split_0
I0318 12:38:52.730165  3159 net.cpp:444] per_roi_loss_bbox <- bbox_inside_weights_roi-data_3_split_0
I0318 12:38:52.730183  3159 net.cpp:418] per_roi_loss_bbox -> temp_loss_bbox
I0318 12:38:52.730188  3159 net.cpp:418] per_roi_loss_bbox -> per_roi_loss_bbox
I0318 12:38:52.730226  3159 net.cpp:150] Setting up per_roi_loss_bbox
I0318 12:38:52.730242  3159 net.cpp:157] Top shape: (1)
I0318 12:38:52.730247  3159 net.cpp:157] Top shape: 1 1 1 1 (1)
I0318 12:38:52.730248  3159 net.cpp:165] Memory required for data: 3323961404
I0318 12:38:52.730250  3159 layer_factory.hpp:77] Creating layer per_roi_loss
I0318 12:38:52.730254  3159 net.cpp:100] Creating Layer per_roi_loss
I0318 12:38:52.730258  3159 net.cpp:444] per_roi_loss <- per_roi_loss_cls
I0318 12:38:52.730262  3159 net.cpp:444] per_roi_loss <- per_roi_loss_bbox
I0318 12:38:52.730265  3159 net.cpp:418] per_roi_loss -> per_roi_loss
I0318 12:38:52.730294  3159 net.cpp:150] Setting up per_roi_loss
I0318 12:38:52.730299  3159 net.cpp:157] Top shape: 1 1 1 1 (1)
I0318 12:38:52.730301  3159 net.cpp:165] Memory required for data: 3323961408
I0318 12:38:52.730304  3159 layer_factory.hpp:77] Creating layer annotator_detector
I0318 12:38:52.730309  3159 net.cpp:100] Creating Layer annotator_detector
I0318 12:38:52.730312  3159 net.cpp:444] annotator_detector <- rois_roi-data_0_split_2
I0318 12:38:52.730316  3159 net.cpp:444] annotator_detector <- per_roi_loss
I0318 12:38:52.730319  3159 net.cpp:444] annotator_detector <- labels_roi-data_1_split_1
I0318 12:38:52.730322  3159 net.cpp:444] annotator_detector <- bbox_inside_weights_roi-data_3_split_1
I0318 12:38:52.730326  3159 net.cpp:418] annotator_detector -> labels_ohem
I0318 12:38:52.730331  3159 net.cpp:418] annotator_detector -> bbox_loss_weights_ohem
I0318 12:38:52.730360  3159 net.cpp:150] Setting up annotator_detector
I0318 12:38:52.730365  3159 net.cpp:157] Top shape: 1 1 1 1 (1)
I0318 12:38:52.730367  3159 net.cpp:157] Top shape: 1 8 1 1 (8)
I0318 12:38:52.730370  3159 net.cpp:165] Memory required for data: 3323961444
I0318 12:38:52.730372  3159 layer_factory.hpp:77] Creating layer labels_ohem_annotator_detector_0_split
I0318 12:38:52.730376  3159 net.cpp:100] Creating Layer labels_ohem_annotator_detector_0_split
I0318 12:38:52.730378  3159 net.cpp:444] labels_ohem_annotator_detector_0_split <- labels_ohem
I0318 12:38:52.730382  3159 net.cpp:418] labels_ohem_annotator_detector_0_split -> labels_ohem_annotator_detector_0_split_0
I0318 12:38:52.730387  3159 net.cpp:418] labels_ohem_annotator_detector_0_split -> labels_ohem_annotator_detector_0_split_1
I0318 12:38:52.730412  3159 net.cpp:150] Setting up labels_ohem_annotator_detector_0_split
I0318 12:38:52.730417  3159 net.cpp:157] Top shape: 1 1 1 1 (1)
I0318 12:38:52.730419  3159 net.cpp:157] Top shape: 1 1 1 1 (1)
I0318 12:38:52.730422  3159 net.cpp:165] Memory required for data: 3323961452
I0318 12:38:52.730423  3159 layer_factory.hpp:77] Creating layer silence
I0318 12:38:52.730427  3159 net.cpp:100] Creating Layer silence
I0318 12:38:52.730430  3159 net.cpp:444] silence <- bbox_outside_weights
I0318 12:38:52.730433  3159 net.cpp:444] silence <- temp_loss_cls
I0318 12:38:52.730437  3159 net.cpp:444] silence <- temp_prob_cls
…
