…
snapshot: 10000
snapshot_prefix: "resnet50_rfcn_ohem"
iter_size: 4
I0105 22:16:12.531666 30517 solver.cpp:81] Creating training net from train_net file: models/pascal_voc/ResNet-50/rfcn_end2end/train_agnostic_ohem.prototxt
I0105 22:16:12.537228 30517 net.cpp:58] Initializing net from parameters: 
name: "ResNet-50"
state {
  phase: TRAIN
}
layer {
  name: "input-data"
  type: "Python"
  top: "data"
  top: "im_info"
  top: "gt_boxes"
  python_param {
    module: "roi_data_layer.layer"
    layer: "RoIDataLayer"
    param_str: "\'num_classes\': 2"
  }
}
layer {
  name: "conv1"
  type: "Convolution"
  bottom: "data"
  top: "conv1"
  param {
    lr_mult: 0
  }
  param {
    lr_mult: 0
  }
  convolution_param {
    num_output: 64
    pad: 3
    kernel_size: 7
    stride: 2
  }
}
layer {
  name: "bn_conv1"
  type: "BatchNorm"
  bottom: "conv1"
  top: "conv1"
  param {
    lr_mult: 0
    decay_mult: 0
  }
  param {
    lr_mult: 0
    decay_mult: 0
  }
  param {
    lr_mult: 0
    decay_mult: 0
  }
  batch_norm_param {
    use_global_stats: true
  }
}
layer {
  name: "scale_conv1"
  type: "Scale"
  bottom: "conv1"
  top: "conv1"
  param {
    lr_mult: 0
    decay_mult: 0
  }
  param {
    lr_mult: 0
    decay_mult: 0
  }
  scale_param {
    bias_term: true
  }
}
layer {
  name: "conv1_relu"
  type: "ReLU"
  bottom: "conv1"
  top: "conv1"
}
layer {
  name: "pool1"
  type: "Pooling"
  bottom: "conv1"
  top: "pool1"
  pooling_param {
    pool: MAX
    kernel_size: 3
    stride: 2
  }
}
layer {
  name: "res2a_branch1"
  type: "Convolution"
  bottom: "pool1"
  top: "res2a_branch1"
  param {
    lr_mult: 0
  }
  convolution_param {
    num_output: 256
    bias_term: false
    pad: 0
    kernel_size: 1
    stride: 1
  }
}
layer {
  name: "bn2a_branch1"
  type: "BatchNorm"
  bottom: "res2a_branch1"
  top: "res2a_branch1"
  param {
    lr_mult: 0
    decay_mult: 0
  }
  param {
    lr_mult: 0
    decay_mult: 0
  }
  param {
    lr_mult: 0
    decay_mult: 0
  }
  batch_norm_param {
    use_global_stats: true
  }
}
layer {
  name: "scale2a_branch1"
  type: "Scale"
  bottom: "res2a_branch1"
  top: "res2a_branch1"
  param {
    lr_mult: 0
    decay_mult: 0
  }
  param {
    lr_mult: 0
    decay_mult: 0
  }
  scale_param {
    bias_term: true
  }
}
layer {
  name: "res2a_branch2a"
  type: "Convolution"
  bottom: "pool1"
  top: "res2a_branch2a"
  param {
    lr_mult: 0
  }
  convolution_param {
    num_output: 64
    bias_term: false
    pad: 0
    kernel_size: 1
    stride: 1
  }
}
layer {
  name: "bn2a_branch2a"
  type: "BatchNorm"
  bottom: "res2a_branch2a"
  top: "res2a_branch2a"
  param {
    lr_mult: 0
    decay_mult: 0
  }
  param {
    lr_mult: 0
    decay_mult: 0
  }
  param {
    lr_mult: 0
    decay_mult: 0
  }
  batch_norm_param {
    use_global_stats: true
  }
}
layer {
  name: "scale2a_branch2a"
  type: "Scale"
  bottom: "res2a_branch2a"
  top: "res2a_branch2a"
  param {
    lr_mult: 0
    decay_mult: 0
  }
  param {
    lr_mult: 0
    decay_mult: 0
  }
  scale_param {
    bias_term: true
  }
}
layer {
  name: "res2a_branch2a_relu"
  type: "ReLU"
  bottom: "res2a_branch2a"
  top: "res2a_branch2a"
}
layer {
  name: "res2a_branch2b"
  type: "Convolution"
  bottom: "res2a_branch2a"
  top: "res2a_branch2b"
  param {
    lr_mult: 0
  }
  convolution_param {
    num_output: 64
    bias_term: false
    pad: 1
    kernel_size: 3
    stride: 1
  }
}
layer {
  name: "bn2a_branch2b"
  type: "BatchNorm"
  bottom: "res2a_branch2b"
  top: "res2a_branch2b"
  param {
    lr_mult: 0
    decay_mult: 0
  }
  param {
    lr_mult: 0
    decay_mult: 0
  }
  param {
    lr_mult: 0
    decay_mult: 0
  }
  batch_norm_param {
    use_global_stats: true
  }
}
layer {
  name: "scale2a_branch2b"
  type: "Scale"
  bottom: "res2a_branch2b"
  top: "res2a_branch2b"
  param {
    lr_mult: 0
    decay_mult: 0
  }
  param {
    lr_mult: 0
    decay_mult: 0
  }
  scale_param {
    bias_term: true
  }
}
layer {
  name: "res2a_branch2b_relu"
  type: "ReLU"
  bottom: "res2a_branch2b"
  top: "res2a_branch2b"
}
layer {
  name: "res2a_branch2c"
  type: "Convolution"
  bottom: "res2a_branch2b"
  top: "res2a_branch2c"
  param {
    lr_mult: 0
  }
  convolution_param {
    num_output: 256
    bias_term: false
    pad: 0
    kernel_size: 1
    stride: 1
  }
}
layer {
  name: "bn2a_branch2c"
  type: "BatchNorm"
  bottom: "res2a_branch2c"
  top: "res2a_branch2c"
  param {
    lr_mult: 0
    decay_mult: 0
  }
  param {
    lr_mult: 0
    decay_mult: 0
  }
  param {
    lr_mult: 0
    decay_mult: 0
  }
  batch_norm_param {
    use_global_stats: true
  }
}
layer {
  name: "scale2a_branch2c"
  type: "Scale"
  bottom: "res2a_branch2c"
  top: "res2a_branch2c"
  param {
    lr_mult: 0
    decay_mult: 0
  }
  param {
    lr_mult: 0
    decay_mult: 0
  }
  scale_param {
    bias_term: true
  }
}
layer {
  name: "res2a"
  type: "Eltwise"
  bottom: "res2a_branch1"
  bottom: "res2a_branch2c"
  top: "res2a"
}
layer {
  name: "res2a_relu"
  type: "ReLU"
  bottom: "res2a"
  top: "res2a"
}
layer {
  name: "res2b_branch2a"
  type: "Convolution"
  bottom: "res2a"
  top: "res2b_branch2a"
  param {
    lr_mult: 0
  }
  convolution_param {
    num_output: 64
    bias_term: false
    pad: 0
    kernel_size: 1
    stride: 1
  }
}
layer {
  name: "bn2b_branch2a"
  type: "BatchNorm"
  bottom: "res2b_branch2a"
  top: "res2b_branch2a"
  param {
    lr_mult: 0
    decay_mult: 0
  }
  param {
    lr_mult: 0
    decay_mult: 0
  }
  param {
    lr_mult: 0
    decay_mult: 0
  }
  batch_norm_param {
    use_global_stats: true
  }
}
layer {
  name: "scale2b_branch2a"
  type: "Scale"
  bottom: "res2b_branch2a"
  top: "res2b_branch2a"
  param {
    lr_mult: 0
    decay_mult: 0
  }
  param {
    lr_mult: 0
    decay_mult: 0
  }
  scale_param {
    bias_term: true
  }
}
layer {
  name: "res2b_branch2a_relu"
  type: "ReLU"
  bottom: "res2b_branch2a"
  top: "res2b_branch2a"
}
layer {
  name: "res2b_branch2b"
  type: "Convolution"
  bottom: "res2b_branch2a"
  top: "res2b_branch2b"
  param {
    lr_mult: 0
  }
  convolution_param {
    num_output: 64
    bias_term: false
    pad: 1
    kernel_size: 3
    stride: 1
  }
}
layer {
  name: "bn2b_branch2b"
  type: "BatchNorm"
  bottom: "res2b_branch2b"
  top: "res2b_branch2b"
  param {
    lr_mult: 0
    decay_mult: 0
  }
  param {
    lr_mult: 0
    decay_mult: 0
  }
  param {
    lr_mult: 0
    decay_mult: 0
  }
  batch_norm_param {
    use_global_stats: true
  }
}
layer {
  name: "scale2b_branch2b"
  type: "Scale"
  bottom: "res2b_branch2b"
  top: "res2b_branch2b"
  param {
    lr_mult: 0
    decay_mult: 0
  }
  param {
    lr_mult: 0
    decay_mult: 0
  }
  scale_param {
    bias_term: true
  }
}
layer {
  name: "res2b_branch2b_relu"
  type: "ReLU"
  bottom: "res2b_branch2b"
  top: "res2b_branch2b"
}
layer {
  name: "res2b_branch2c"
  type: "Convolution"
  bottom: "res2b_branch2b"
  top: "res2b_branch2c"
  param {
    lr_mult: 0
  }
  convolution_param {
    num_output: 256
    bias_term: false
    pad: 0
    kernel_size: 1
    stride: 1
  }
}
layer {
  name: "bn2b_branch2c"
  type: "BatchNorm"
  bottom: "res2b_branch2c"
  top: "res2b_branch2c"
  param {
    lr_mult: 0
    decay_mult: 0
  }
  param {
    lr_mult: 0
    decay_mult: 0
  }
  param {
    lr_mult: 0
    decay_mult: 0
  }
  batch_norm_param {
    use_global_stats: true
  }
}
layer {
  name: "scale2b_branch2c"
  type: "Scale"
  bottom: "res2b_branch2c"
  top: "res2b_branch2c"
  param {
    lr_mult: 0
    decay_mult: 0
  }
  param {
    lr_mult: 0
    decay_mult: 0
  }
  scale_param {
    bias_term: true
  }
}
layer {
  name: "res2b"
  type: "Eltwise"
  bottom: "res2a"
  bottom: "res2b_branch2c"
  top: "res2b"
}
layer {
  name: "res2b_relu"
  type: "ReLU"
  bottom: "res2b"
  top: "res2b"
}
layer {
  name: "res2c_branch2a"
  type: "Convolution"
  bottom: "res2b"
  top: "res2c_branch2a"
  param {
    lr_mult: 0
  }
  convolution_param {
    num_output: 64
    bias_term: false
    pad: 0
    kernel_size: 1
    stride: 1
  }
}
layer {
  name: "bn2c_branch2a"
  type: "BatchNorm"
  bottom: "res2c_branch2a"
  top: "res2c_branch2a"
  param {
    lr_mult: 0
    decay_mult: 0
  }
  param {
    lr_mult: 0
    decay_mult: 0
  }
  param {
    lr_mult: 0
    decay_mult: 0
  }
  batch_norm_param {
    use_global_stats: true
  }
}
layer {
  name: "scale2c_branch2a"
  type: "Scale"
  bottom: "res2c_branch2a"
  top: "res2c_branch2a"
  param {
    lr_mult: 0
    decay_mult: 0
  }
  param {
    lr_mult: 0
    decay_mult: 0
  }
  scale_param {
    bias_term: true
  }
}
layer {
  name: "res2c_branch2a_relu"
  type: "ReLU"
  bottom: "res2c_branch2a"
  top: "res2c_branch2a"
}
layer {
  name: "res2c_branch2b"
  type: "Convolution"
  bottom: "res2c_branch2a"
  top: "res2c_branch2b"
  param {
    lr_mult: 0
  }
  convolution_param {
    num_output: 64
    bias_term: false
    pad: 1
    kernel_size: 3
    stride: 1
  }
}
layer {
  name: "bn2c_branch2b"
  type: "BatchNorm"
  bottom: "res2c_branch2b"
  top: "res2c_branch2b"
  param {
    lr_mult: 0
    decay_mult: 0
  }
  param {
    lr_mult: 0
    decay_mult: 0
  }
  param {
    lr_mult: 0
    decay_mult: 0
  }
  batch_norm_param {
    use_global_stats: true
  }
}
layer {
  name: "scale2c_branch2b"
  type: "Scale"
  bottom: "res2c_branch2b"
  top: "res2c_branch2b"
  param {
    lr_mult: 0
    decay_mult: 0
  }
  param {
    lr_mult: 0
    decay_mult: 0
  }
  scale_param {
    bias_term: true
  }
}
layer {
  name: "res2c_branch2b_relu"
  type: "ReLU"
  bottom: "res2c_branch2b"
  top: "res2c_branch2b"
}
layer {
  name: "res2c_branch2c"
  type: "Convolution"
  bottom: "res2c_branch2b"
  top: "res2c_branch2c"
  param {
    lr_mult: 0
  }
  convolution_param {
    num_output: 256
    bias_term: false
    pad: 0
    kernel_size: 1
    stride: 1
  }
}
layer {
  name: "bn2c_branch2c"
  type: "BatchNorm"
  bottom: "res2c_branch2c"
  top: "res2c_branch2c"
  param {
    lr_mult: 0
    decay_mult: 0
  }
  param {
    lr_mult: 0
    decay_mult: 0
  }
  param {
    lr_mult: 0
    decay_mult: 0
  }
  batch_norm_param {
    use_global_stats: true
  }
}
layer {
  name: "scale2c_branch2c"
  type: "Scale"
  bottom: "res2c_branch2c"
  top: "res2c_branch2c"
  param {
    lr_mult: 0
    decay_mult: 0
  }
  param {
    lr_mult: 0
    decay_mult: 0
  }
  scale_param {
    bias_term: true
  }
}
layer {
  name: "res2c"
  type: "Eltwise"
  bottom: "res2b"
  bottom: "res2c_branch2c"
  top: "res2c"
}
layer {
  name: "res2c_relu"
  type: "ReLU"
  bottom: "res2c"
  top: "res2c"
}
layer {
  name: "res3a_branch1"
  type: "Convolution"
  bottom: "res2c"
  top: "res3a_branch1"
  param {
    lr_mult: 1
  }
  convolution_param {
    num_output: 512
    bias_term: false
    pad: 0
    kernel_size: 1
    stride: 2
  }
}
layer {
  name: "bn3a_branch1"
  type: "BatchNorm"
  bottom: "res3a_branch1"
  top: "res3a_branch1"
  param {
    lr_mult: 0
    decay_mult: 0
  }
  param {
    lr_mult: 0
    decay_mult: 0
  }
  param {
    lr_mult: 0
    decay_mult: 0
  }
  batch_norm_param {
    use_global_stats: true
  }
}
layer {
  name: "scale3a_branch1"
  type: "Scale"
  bottom: "res3a_branch1"
  top: "res3a_branch1"
  param {
    lr_mult: 0
    decay_mult: 0
  }
  param {
    lr_mult: 0
    decay_mult: 0
  }
  scale_param {
    bias_term: true
  }
}
layer {
  name: "res3a_branch2a"
  type: "Convolution"
  bottom: "res2c"
  top: "res3a_branch2a"
  param {
    lr_mult: 1
  }
  convolution_param {
    num_output: 128
    bias_term: false
    pad: 0
    kernel_size: 1
    stride: 2
  }
}
layer {
  name: "bn3a_branch2a"
  type: "BatchNorm"
  bottom: "res3a_branch2a"
  top: "res3a_branch2a"
  param {
    lr_mult: 0
    decay_mult: 0
  }
  param {
    lr_mult: 0
    decay_mult: 0
  }
  param {
    lr_mult: 0
    decay_mult: 0
  }
  batch_norm_param {
    use_global_stats: true
  }
}
layer {
  name: "scale3a_branch2a"
  type: "Scale"
  bottom: "res3a_branch2a"
  top: "res3a_branch2a"
  param {
    lr_mult: 0
    decay_mult: 0
  }
  param {
    lr_mult: 0
    decay_mult: 0
  }
  scale_param {
    bias_term: true
  }
}
layer {
  name: "res3a_branch2a_relu"
  type: "ReLU"
  bottom: "res3a_branch2a"
  top: "res3a_branch2a"
}
layer {
  name: "res3a_branch2b"
  type: "Convolution"
  bottom: "res3a_branch2a"
  top: "res3a_branch2b"
  param {
    lr_mult: 1
  }
  convolution_param {
    num_output: 128
    bias_term: false
    pad: 1
    kernel_size: 3
    stride: 1
  }
}
layer {
  name: "bn3a_branch2b"
  type: "BatchNorm"
  bottom: "res3a_branch2b"
  top: "res3a_branch2b"
  param {
    lr_mult: 0
    decay_mult: 0
  }
  param {
    lr_mult: 0
    decay_mult: 0
  }
  param {
    lr_mult: 0
    decay_mult: 0
  }
  batch_norm_param {
    use_global_stats: true
  }
}
layer {
  name: "scale3a_branch2b"
  type: "Scale"
  bottom: "res3a_branch2b"
  top: "res3a_branch2b"
  param {
    lr_mult: 0
    decay_mult: 0
  }
  param {
    lr_mult: 0
    decay_mult: 0
  }
  scale_param {
    bias_term: true
  }
}
layer {
  name: "res3a_branch2b_relu"
  type: "ReLU"
  bottom: "res3a_branch2b"
  top: "res3a_branch2b"
}
layer {
  name: "res3a_branch2c"
  type: "Convolution"
  bottom: "res3a_branch2b"
  top: "res3a_branch2c"
  param {
    lr_mult: 1
  }
  convolution_param {
    num_output: 512
    bias_term: false
    pad: 0
    kernel_size: 1
    stride: 1
  }
}
layer {
  name: "bn3a_branch2c"
  type: "BatchNorm"
  bottom: "res3a_branch2c"
  top: "res3a_branch2c"
  param {
    lr_mult: 0
    decay_mult: 0
  }
  param {
    lr_mult: 0
    decay_mult: 0
  }
  param {
    lr_mult: 0
    decay_mult: 0
  }
  batch_norm_param {
    use_global_stats: true
  }
}
layer {
  name: "scale3a_branch2c"
  type: "Scale"
  bottom: "res3a_branch2c"
  top: "res3a_branch2c"
  param {
    lr_mult: 0
    decay_mult: 0
  }
  param {
    lr_mult: 0
    decay_mult: 0
  }
  scale_param {
    bias_term: true
  }
}
layer {
  name: "res3a"
  type: "Eltwise"
  bottom: "res3a_branch1"
  bottom: "res3a_branch2c"
  top: "res3a"
}
layer {
  name: "res3a_relu"
  type: "ReLU"
  bottom: "res3a"
  top: "res3a"
}
layer {
  name: "res3b_branch2a"
  type: "Convolution"
  bottom: "res3a"
  top: "res3b_branch2a"
  param {
    lr_mult: 1
  }
  convolution_param {
    num_output: 128
    bias_term: false
    pad: 0
    kernel_size: 1
    stride: 1
  }
}
layer {
  name: "bn3b_branch2a"
  type: "BatchNorm"
  bottom: "res3b_branch2a"
  top: "res3b_branch2a"
  param {
    lr_mult: 0
    decay_mult: 0
  }
  param {
    lr_mult: 0
    decay_mult: 0
  }
  param {
    lr_mult: 0
    decay_mult: 0
  }
  batch_norm_param {
    use_global_stats: true
  }
}
layer {
  name: "scale3b_branch2a"
  type: "Scale"
  bottom: "res3b_branch2a"
  top: "res3b_branch2a"
  param {
    lr_mult: 0
    decay_mult: 0
  }
  param {
    lr_mult: 0
    decay_mult: 0
  }
  scale_param {
    bias_term: true
  }
}
layer {
  name: "res3b_branch2a_relu"
  type: "ReLU"
  bottom: "res3b_branch2a"
  top: "res3b_branch2a"
}
layer {
  name: "res3b_branch2b"
  type: "Convolution"
  bottom: "res3b_branch2a"
  top: "res3b_branch2b"
  param {
    lr_mult: 1
  }
  convolution_param {
    num_output: 128
    bias_term: false
    pad: 1
    kernel_size: 3
    stride: 1
  }
}
layer {
  name: "bn3b_branch2b"
  type: "BatchNorm"
  bottom: "res3b_branch2b"
  top: "res3b_branch2b"
  param {
    lr_mult: 0
    decay_mult: 0
  }
  param {
    lr_mult: 0
    decay_mult: 0
  }
  param {
    lr_mult: 0
    decay_mult: 0
  }
  batch_norm_param {
    use_global_stats: true
  }
}
layer {
  name: "scale3b_branch2b"
  type: "Scale"
  bottom: "res3b_branch2b"
  top: "res3b_branch2b"
  param {
    lr_mult: 0
    decay_mult: 0
  }
  param {
    lr_mult: 0
    decay_mult: 0
  }
  scale_param {
    bias_term: true
  }
}
layer {
  name: "res3b_branch2b_relu"
  type: "ReLU"
  bottom: "res3b_branch2b"
  top: "res3b_branch2b"
}
layer {
  name: "res3b_branch2c"
  type: "Convolution"
  bottom: "res3b_branch2b"
  top: "res3b_branch2c"
  param {
    lr_mult: 1
  }
  convolution_param {
    num_output: 512
    bias_term: false
    pad: 0
    kernel_size: 1
    stride: 1
  }
}
layer {
  name: "bn3b_branch2c"
  type: "BatchNorm"
  bottom: "res3b_branch2c"
  top: "res3b_branch2c"
  param {
    lr_mult: 0
    decay_mult: 0
  }
  param {
    lr_mult: 0
    decay_mult: 0
  }
  param {
    lr_mult: 0
    decay_mult: 0
  }
  batch_norm_param {
    use_global_stats: true
  }
}
layer {
  name: "scale3b_branch2c"
  type: "Scale"
  bottom: "res3b_branch2c"
  top: "res3b_branch2c"
  param {
    lr_mult: 0
    decay_mult: 0
  }
  param {
    lr_mult: 0
    decay_mult: 0
  }
  scale_param {
    bias_term: true
  }
}
layer {
  name: "res3b"
  type: "Eltwise"
  bottom: "res3a"
  bottom: "res3b_branch2c"
  top: "res3b"
}
layer {
  name: "res3b_relu"
  type: "ReLU"
  bottom: "res3b"
  top: "res3b"
}
layer {
  name: "res3c_branch2a"
  type: "Convolution"
  bottom: "res3b"
  top: "res3c_branch2a"
  param {
    lr_mult: 1
  }
  convolution_param {
    num_output: 128
    bias_term: false
    pad: 0
    kernel_size: 1
    stride: 1
  }
}
layer {
  name: "bn3c_branch2a"
  type: "BatchNorm"
  bottom: "res3c_branch2a"
  top: "res3c_branch2a"
  param {
    lr_mult: 0
    decay_mult: 0
  }
  param {
    lr_mult: 0
    decay_mult: 0
  }
  param {
    lr_mult: 0
    decay_mult: 0
  }
  batch_norm_param {
    use_global_stats: true
  }
}
layer {
  name: "scale3c_branch2a"
  type: "Scale"
  bottom: "res3c_branch2a"
  top: "res3c_branch2a"
  param {
    lr_mult: 0
    decay_mult: 0
  }
  param {
    lr_mult: 0
    decay_mult: 0
  }
  scale_param {
    bias_term: true
  }
}
layer {
  name: "res3c_branch2a_relu"
  type: "ReLU"
  bottom: "res3c_branch2a"
  top: "res3c_branch2a"
}
layer {
  name: "res3c_branch2b"
  type: "Convolution"
  bottom: "res3c_branch2a"
  top: "res3c_branch2b"
  param {
    lr_mult: 1
  }
  convolution_param {
    num_output: 128
    bias_term: false
    pad: 1
    kernel_size: 3
    stride: 1
  }
}
layer {
  name: "bn3c_branch2b"
  type: "BatchNorm"
  bottom: "res3c_branch2b"
  top: "res3c_branch2b"
  param {
    lr_mult: 0
    decay_mult: 0
  }
  param {
    lr_mult: 0
    decay_mult: 0
  }
  param {
    lr_mult: 0
    decay_mult: 0
  }
  batch_norm_param {
    use_global_stats: true
  }
}
layer {
  name: "scale3c_branch2b"
  type: "Scale"
  bottom: "res3c_branch2b"
  top: "res3c_branch2b"
  param {
    lr_mult: 0
    decay_mult: 0
  }
  param {
    lr_mult: 0
    decay_mult: 0
  }
  scale_param {
    bias_term: true
  }
}
layer {
  name: "res3c_branch2b_relu"
  type: "ReLU"
  bottom: "res3c_branch2b"
  top: "res3c_branch2b"
}
layer {
  name: "res3c_branch2c"
  type: "Convolution"
  bottom: "res3c_branch2b"
  top: "res3c_branch2c"
  param {
    lr_mult: 1
  }
  convolution_param {
    num_output: 512
    bias_term: false
    pad: 0
    kernel_size: 1
    stride: 1
  }
}
layer {
  name: "bn3c_branch2c"
  type: "BatchNorm"
  bottom: "res3c_branch2c"
  top: "res3c_branch2c"
  param {
    lr_mult: 0
    decay_mult: 0
  }
  param {
    lr_mult: 0
    decay_mult: 0
  }
  param {
    lr_mult: 0
    decay_mult: 0
  }
  batch_norm_param {
    use_global_stats: true
  }
}
layer {
  name: "scale3c_branch2c"
  type: "Scale"
  bottom: "res3c_branch2c"
  top: "res3c_branch2c"
  param {
    lr_mult: 0
    decay_mult: 0
  }
  param {
    lr_mult: 0
    decay_mult: 0
  }
  scale_param {
    bias_term: true
  }
}
layer {
  name: "res3c"
  type: "Eltwise"
  bottom: "res3b"
  bottom: "res3c_branch2c"
  top: "res3c"
}
layer {
  name: "res3c_relu"
  type: "ReLU"
  bottom: "res3c"
  top: "res3c"
}
layer {
  name: "res3d_branch2a"
  type: "Convolution"
  bottom: "res3c"
  top: "res3d_branch2a"
  param {
    lr_mult: 1
  }
  convolution_param {
    num_output: 128
    bias_term: false
    pad: 0
    kernel_size: 1
    stride: 1
  }
}
layer {
  name: "bn3d_branch2a"
  type: "BatchNorm"
  bottom: "res3d_branch2a"
  top: "res3d_branch2a"
  param {
    lr_mult: 0
    decay_mult: 0
  }
  param {
    lr_mult: 0
    decay_mult: 0
  }
  param {
    lr_mult: 0
    decay_mult: 0
  }
  batch_norm_param {
    use_global_stats: true
  }
}
layer {
  name: "scale3d_branch2a"
  type: "Scale"
  bottom: "res3d_branch2a"
  top: "res3d_branch2a"
  param {
    lr_mult: 0
    decay_mult: 0
  }
  param {
    lr_mult: 0
    decay_mult: 0
  }
  scale_param {
    bias_term: true
  }
}
layer {
  name: "res3d_branch2a_relu"
  type: "ReLU"
  bottom: "res3d_branch2a"
  top: "res3d_branch2a"
}
layer {
  name: "res3d_branch2b"
  type: "Convolution"
  bottom: "res3d_branch2a"
  top: "res3d_branch2b"
  param {
    lr_mult: 1
  }
  convolution_param {
    num_output: 128
    bias_term: false
    pad: 1
    kernel_size: 3
    stride: 1
  }
}
layer {
  name: "bn3d_branch2b"
  type: "BatchNorm"
  bottom: "res3d_branch2b"
  top: "res3d_branch2b"
  param {
    lr_mult: 0
    decay_mult: 0
  }
  param {
    lr_mult: 0
    decay_mult: 0
  }
  param {
    lr_mult: 0
    decay_mult: 0
  }
  batch_norm_param {
    use_global_stats: true
  }
}
layer {
  name: "scale3d_branch2b"
  type: "Scale"
  bottom: "res3d_branch2b"
  top: "res3d_branch2b"
  param {
    lr_mult: 0
    decay_mult: 0
  }
  param {
    lr_mult: 0
    decay_mult: 0
  }
  scale_param {
    bias_term: true
  }
}
layer {
  name: "res3d_branch2b_relu"
  type: "ReLU"
  bottom: "res3d_branch2b"
  top: "res3d_branch2b"
}
layer {
  name: "res3d_branch2c"
  type: "Convolution"
  bottom: "res3d_branch2b"
  top: "res3d_branch2c"
  param {
    lr_mult: 1
  }
  convolution_param {
    num_output: 512
    bias_term: false
    pad: 0
    kernel_size: 1
    stride: 1
  }
}
layer {
  name: "bn3d_branch2c"
  type: "BatchNorm"
  bottom: "res3d_branch2c"
  top: "res3d_branch2c"
  param {
    lr_mult: 0
    decay_mult: 0
  }
  param {
    lr_mult: 0
    decay_mult: 0
  }
  param {
    lr_mult: 0
    decay_mult: 0
  }
  batch_norm_param {
    use_global_stats: true
  }
}
layer {
  name: "scale3d_branch2c"
  type: "Scale"
  bottom: "res3d_branch2c"
  top: "res3d_branch2c"
  param {
    lr_mult: 0
    decay_mult: 0
  }
  param {
    lr_mult: 0
    decay_mult: 0
  }
  scale_param {
    bias_term: true
  }
}
layer {
  name: "res3d"
  type: "Eltwise"
  bottom: "res3c"
  bottom: "res3d_branch2c"
  top: "res3d"
}
layer {
  name: "res3d_relu"
  type: "ReLU"
  bottom: "res3d"
  top: "res3d"
}
layer {
  name: "res4a_branch1"
  type: "Convolution"
  bottom: "res3d"
  top: "res4a_branch1"
  param {
    lr_mult: 1
  }
  convolution_param {
    num_output: 1024
    bias_term: false
    pad: 0
    kernel_size: 1
    stride: 2
  }
}
layer {
  name: "bn4a_branch1"
  type: "BatchNorm"
  bottom: "res4a_branch1"
  top: "res4a_branch1"
  param {
    lr_mult: 0
    decay_mult: 0
  }
  param {
    lr_mult: 0
    decay_mult: 0
  }
  param {
    lr_mult: 0
    decay_mult: 0
  }
  batch_norm_param {
    use_global_stats: true
  }
}
layer {
  name: "scale4a_branch1"
  type: "Scale"
  bottom: "res4a_branch1"
  top: "res4a_branch1"
  param {
    lr_mult: 0
    decay_mult: 0
  }
  param {
    lr_mult: 0
    decay_mult: 0
  }
  scale_param {
    bias_term: true
  }
}
layer {
  name: "res4a_branch2a"
  type: "Convolution"
  bottom: "res3d"
  top: "res4a_branch2a"
  param {
    lr_mult: 1
  }
  convolution_param {
    num_output: 256
    bias_term: false
    pad: 0
    kernel_size: 1
    stride: 2
  }
}
layer {
  name: "bn4a_branch2a"
  type: "BatchNorm"
  bottom: "res4a_branch2a"
  top: "res4a_branch2a"
  param {
    lr_mult: 0
    decay_mult: 0
  }
  param {
    lr_mult: 0
    decay_mult: 0
  }
  param {
    lr_mult: 0
    decay_mult: 0
  }
  batch_norm_param {
    use_global_stats: true
  }
}
layer {
  name: "scale4a_branch2a"
  type: "Scale"
  bottom: "res4a_branch2a"
  top: "res4a_branch2a"
  param {
    lr_mult: 0
    decay_mult: 0
  }
  param {
    lr_mult: 0
    decay_mult: 0
  }
  scale_param {
    bias_term: true
  }
}
layer {
  name: "res4a_branch2a_relu"
  type: "ReLU"
  bottom: "res4a_branch2a"
  top: "res4a_branch2a"
}
layer {
  name: "res4a_branch2b"
  type: "Convolution"
  bottom: "res4a_branch2a"
  top: "res4a_branch2b"
  param {
    lr_mult: 1
  }
  convolution_param {
    num_output: 256
    bias_term: false
    pad: 1
    kernel_size: 3
    stride: 1
  }
}
layer {
  name: "bn4a_branch2b"
  type: "BatchNorm"
  bottom: "res4a_branch2b"
  top: "res4a_branch2b"
  param {
    lr_mult: 0
    decay_mult: 0
  }
  param {
    lr_mult: 0
    decay_mult: 0
  }
  param {
    lr_mult: 0
    decay_mult: 0
  }
  batch_norm_param {
    use_global_stats: true
  }
}
layer {
  name: "scale4a_branch2b"
  type: "Scale"
  bottom: "res4a_branch2b"
  top: "res4a_branch2b"
  param {
    lr_mult: 0
    decay_mult: 0
  }
  param {
    lr_mult: 0
    decay_mult: 0
  }
  scale_param {
    bias_term: true
  }
}
layer {
  name: "res4a_branch2b_relu"
  type: "ReLU"
  bottom: "res4a_branch2b"
  top: "res4a_branch2b"
}
layer {
  name: "res4a_branch2c"
  type: "Convolution"
  bottom: "res4a_branch2b"
  top: "res4a_branch2c"
  param {
    lr_mult: 1
  }
  convolution_param {
    num_output: 1024
    bias_term: false
    pad: 0
    kernel_size: 1
    stride: 1
  }
}
layer {
  name: "bn4a_branch2c"
  type: "BatchNorm"
  bottom: "res4a_branch2c"
  top: "res4a_branch2c"
  param {
    lr_mult: 0
    decay_mult: 0
  }
  param {
    lr_mult: 0
    decay_mult: 0
  }
  param {
    lr_mult: 0
    decay_mult: 0
  }
  batch_norm_param {
    use_global_stats: true
  }
}
layer {
  name: "scale4a_branch2c"
  type: "Scale"
  bottom: "res4a_branch2c"
  top: "res4a_branch2c"
  param {
    lr_mult: 0
    decay_mult: 0
  }
  param {
    lr_mult: 0
    decay_mult: 0
  }
  scale_param {
    bias_term: true
  }
}
layer {
  name: "res4a"
  type: "Eltwise"
  bottom: "res4a_branch1"
  bottom: "res4a_branch2c"
  top: "res4a"
}
layer {
  name: "res4a_relu"
  type: "ReLU"
  bottom: "res4a"
  top: "res4a"
}
layer {
  name: "res4b_branch2a"
  type: "Convolution"
  bottom: "res4a"
  top: "res4b_branch2a"
  param {
    lr_mult: 1
  }
  convolution_param {
    num_output: 256
    bias_term: false
    pad: 0
    kernel_size: 1
    stride: 1
  }
}
layer {
  name: "bn4b_branch2a"
  type: "BatchNorm"
  bottom: "res4b_branch2a"
  top: "res4b_branch2a"
  param {
    lr_mult: 0
    decay_mult: 0
  }
  param {
    lr_mult: 0
    decay_mult: 0
  }
  param {
    lr_mult: 0
    decay_mult: 0
  }
  batch_norm_param {
    use_global_stats: true
  }
}
layer {
  name: "scale4b_branch2a"
  type: "Scale"
  bottom: "res4b_branch2a"
  top: "res4b_branch2a"
  param {
    lr_mult: 0
    decay_mult: 0
  }
  param {
    lr_mult: 0
    decay_mult: 0
  }
  scale_param {
    bias_term: true
  }
}
layer {
  name: "res4b_branch2a_relu"
  type: "ReLU"
  bottom: "res4b_branch2a"
  top: "res4b_branch2a"
}
layer {
  name: "res4b_branch2b"
  type: "Convolution"
  bottom: "res4b_branch2a"
  top: "res4b_branch2b"
  param {
    lr_mult: 1
  }
  convolution_param {
    num_output: 256
    bias_term: false
    pad: 1
    kernel_size: 3
    stride: 1
  }
}
layer {
  name: "bn4b_branch2b"
  type: "BatchNorm"
  bottom: "res4b_branch2b"
  top: "res4b_branch2b"
  param {
    lr_mult: 0
    decay_mult: 0
  }
  param {
    lr_mult: 0
    decay_mult: 0
  }
  param {
    lr_mult: 0
    decay_mult: 0
  }
  batch_norm_param {
    use_global_stats: true
  }
}
layer {
  name: "scale4b_branch2b"
  type: "Scale"
  bottom: "res4b_branch2b"
  top: "res4b_branch2b"
  param {
    lr_mult: 0
    decay_mult: 0
  }
  param {
    lr_mult: 0
    decay_mult: 0
  }
  scale_param {
    bias_term: true
  }
}
layer {
  name: "res4b_branch2b_relu"
  type: "ReLU"
  bottom: "res4b_branch2b"
  top: "res4b_branch2b"
}
layer {
  name: "res4b_branch2c"
  type: "Convolution"
  bottom: "res4b_branch2b"
  top: "res4b_branch2c"
  param {
    lr_mult: 1
  }
  convolution_param {
    num_output: 1024
    bias_term: false
    pad: 0
    kernel_size: 1
    stride: 1
  }
}
layer {
  name: "bn4b_branch2c"
  type: "BatchNorm"
  bottom: "res4b_branch2c"
  top: "res4b_branch2c"
  param {
    lr_mult: 0
    decay_mult: 0
  }
  param {
    lr_mult: 0
    decay_mult: 0
  }
  param {
    lr_mult: 0
    decay_mult: 0
  }
  batch_norm_param {
    use_global_stats: true
  }
}
layer {
  name: "scale4b_branch2c"
  type: "Scale"
  bottom: "res4b_branch2c"
  top: "res4b_branch2c"
  param {
    lr_mult: 0
    decay_mult: 0
  }
  param {
    lr_mult: 0
    decay_mult: 0
  }
  scale_param {
    bias_term: true
  }
}
layer {
  name: "res4b"
  type: "Eltwise"
  bottom: "res4a"
  bottom: "res4b_branch2c"
  top: "res4b"
}
layer {
  name: "res4b_relu"
  type: "ReLU"
  bottom: "res4b"
  top: "res4b"
}
layer {
  name: "res4c_branch2a"
  type: "Convolution"
  bottom: "res4b"
  top: "res4c_branch2a"
  param {
    lr_mult: 1
  }
  convolution_param {
    num_output: 256
    bias_term: false
    pad: 0
    kernel_size: 1
    stride: 1
  }
}
layer {
  name: "bn4c_branch2a"
  type: "BatchNorm"
  bottom: "res4c_branch2a"
  top: "res4c_branch2a"
  param {
    lr_mult: 0
    decay_mult: 0
  }
  param {
    lr_mult: 0
    decay_mult: 0
  }
  param {
    lr_mult: 0
    decay_mult: 0
  }
  batch_norm_param {
    use_global_stats: true
  }
}
layer {
  name: "scale4c_branch2a"
  type: "Scale"
  bottom: "res4c_branch2a"
  top: "res4c_branch2a"
  param {
    lr_mult: 0
    decay_mult: 0
  }
  param {
    lr_mult: 0
    decay_mult: 0
  }
  scale_param {
    bias_term: true
  }
}
layer {
  name: "res4c_branch2a_relu"
  type: "ReLU"
  bottom: "res4c_branch2a"
  top: "res4c_branch2a"
}
layer {
  name: "res4c_branch2b"
  type: "Convolution"
  bottom: "res4c_branch2a"
  top: "res4c_branch2b"
  param {
    lr_mult: 1
  }
  convolution_param {
    num_output: 256
    bias_term: false
    pad: 1
    kernel_size: 3
    stride: 1
  }
}
layer {
  name: "bn4c_branch2b"
  type: "BatchNorm"
  bottom: "res4c_branch2b"
  top: "res4c_branch2b"
  param {
    lr_mult: 0
    decay_mult: 0
  }
  param {
    lr_mult: 0
    decay_mult: 0
  }
  param {
    lr_mult: 0
    decay_mult: 0
  }
  batch_norm_param {
    use_global_stats: true
  }
}
layer {
  name: "scale4c_branch2b"
  type: "Scale"
  bottom: "res4c_branch2b"
  top: "res4c_branch2b"
  param {
    lr_mult: 0
    decay_mult: 0
  }
  param {
    lr_mult: 0
    decay_mult: 0
  }
  scale_param {
    bias_term: true
  }
}
layer {
  name: "res4c_branch2b_relu"
  type: "ReLU"
  bottom: "res4c_branch2b"
  top: "res4c_
I0105 22:16:12.538715 30517 layer_factory.hpp:77] Creating layer input-data
I0105 22:16:13.010015 30517 net.cpp:100] Creating Layer input-data
I0105 22:16:13.010383 30517 net.cpp:418] input-data -> data
I0105 22:16:13.010406 30517 net.cpp:418] input-data -> im_info
I0105 22:16:13.010414 30517 net.cpp:418] input-data -> gt_boxes
RoiDataLayer: name_to_top: {'gt_boxes': 2, 'data': 0, 'im_info': 1}
I0105 22:16:16.442764 30517 net.cpp:150] Setting up input-data
I0105 22:16:16.442808 30517 net.cpp:157] Top shape: 1 3 600 1000 (1800000)
I0105 22:16:16.442811 30517 net.cpp:157] Top shape: 1 3 (3)
I0105 22:16:16.442814 30517 net.cpp:157] Top shape: 1 4 (4)
I0105 22:16:16.442816 30517 net.cpp:165] Memory required for data: 7200028
I0105 22:16:16.442821 30517 layer_factory.hpp:77] Creating layer data_input-data_0_split
I0105 22:16:16.442847 30517 net.cpp:100] Creating Layer data_input-data_0_split
I0105 22:16:16.442852 30517 net.cpp:444] data_input-data_0_split <- data
I0105 22:16:16.442858 30517 net.cpp:418] data_input-data_0_split -> data_input-data_0_split_0
I0105 22:16:16.442867 30517 net.cpp:418] data_input-data_0_split -> data_input-data_0_split_1
I0105 22:16:16.442908 30517 net.cpp:150] Setting up data_input-data_0_split
I0105 22:16:16.442911 30517 net.cpp:157] Top shape: 1 3 600 1000 (1800000)
I0105 22:16:16.442914 30517 net.cpp:157] Top shape: 1 3 600 1000 (1800000)
I0105 22:16:16.442916 30517 net.cpp:165] Memory required for data: 21600028
I0105 22:16:16.442919 30517 layer_factory.hpp:77] Creating layer im_info_input-data_1_split
I0105 22:16:16.442921 30517 net.cpp:100] Creating Layer im_info_input-data_1_split
I0105 22:16:16.442924 30517 net.cpp:444] im_info_input-data_1_split <- im_info
I0105 22:16:16.442926 30517 net.cpp:418] im_info_input-data_1_split -> im_info_input-data_1_split_0
I0105 22:16:16.442930 30517 net.cpp:418] im_info_input-data_1_split -> im_info_input-data_1_split_1
I0105 22:16:16.442950 30517 net.cpp:150] Setting up im_info_input-data_1_split
I0105 22:16:16.442952 30517 net.cpp:157] Top shape: 1 3 (3)
I0105 22:16:16.442955 30517 net.cpp:157] Top shape: 1 3 (3)
I0105 22:16:16.442956 30517 net.cpp:165] Memory required for data: 21600052
I0105 22:16:16.442958 30517 layer_factory.hpp:77] Creating layer gt_boxes_input-data_2_split
I0105 22:16:16.442961 30517 net.cpp:100] Creating Layer gt_boxes_input-data_2_split
I0105 22:16:16.442978 30517 net.cpp:444] gt_boxes_input-data_2_split <- gt_boxes
I0105 22:16:16.442988 30517 net.cpp:418] gt_boxes_input-data_2_split -> gt_boxes_input-data_2_split_0
I0105 22:16:16.442998 30517 net.cpp:418] gt_boxes_input-data_2_split -> gt_boxes_input-data_2_split_1
I0105 22:16:16.443033 30517 net.cpp:150] Setting up gt_boxes_input-data_2_split
I0105 22:16:16.443043 30517 net.cpp:157] Top shape: 1 4 (4)
I0105 22:16:16.443050 30517 net.cpp:157] Top shape: 1 4 (4)
I0105 22:16:16.443061 30517 net.cpp:165] Memory required for data: 21600084
I0105 22:16:16.443068 30517 layer_factory.hpp:77] Creating layer conv1
I0105 22:16:16.443085 30517 net.cpp:100] Creating Layer conv1
I0105 22:16:16.443094 30517 net.cpp:444] conv1 <- data_input-data_0_split_0
I0105 22:16:16.443102 30517 net.cpp:418] conv1 -> conv1
I0105 22:16:17.519755 30517 net.cpp:150] Setting up conv1
I0105 22:16:17.519807 30517 net.cpp:157] Top shape: 1 64 300 500 (9600000)
I0105 22:16:17.519819 30517 net.cpp:165] Memory required for data: 60000084
I0105 22:16:17.519847 30517 layer_factory.hpp:77] Creating layer bn_conv1
I0105 22:16:17.520598 30517 net.cpp:100] Creating Layer bn_conv1
I0105 22:16:17.520633 30517 net.cpp:444] bn_conv1 <- conv1
I0105 22:16:17.520648 30517 net.cpp:405] bn_conv1 -> conv1 (in-place)
I0105 22:16:17.520967 30517 net.cpp:150] Setting up bn_conv1
I0105 22:16:17.520983 30517 net.cpp:157] Top shape: 1 64 300 500 (9600000)
I0105 22:16:17.520993 30517 net.cpp:165] Memory required for data: 98400084
I0105 22:16:17.521009 30517 layer_factory.hpp:77] Creating layer scale_conv1
I0105 22:16:17.521023 30517 net.cpp:100] Creating Layer scale_conv1
I0105 22:16:17.521034 30517 net.cpp:444] scale_conv1 <- conv1
I0105 22:16:17.521046 30517 net.cpp:405] scale_conv1 -> conv1 (in-place)
I0105 22:16:17.521104 30517 layer_factory.hpp:77] Creating layer scale_conv1
I0105 22:16:17.523277 30517 net.cpp:150] Setting up scale_conv1
I0105 22:16:17.523308 30517 net.cpp:157] Top shape: 1 64 300 500 (9600000)
I0105 22:16:17.523319 30517 net.cpp:165] Memory required for data: 136800084
I0105 22:16:17.523331 30517 layer_factory.hpp:77] Creating layer conv1_relu
I0105 22:16:17.523353 30517 net.cpp:100] Creating Layer conv1_relu
I0105 22:16:17.523365 30517 net.cpp:444] conv1_relu <- conv1
I0105 22:16:17.523376 30517 net.cpp:405] conv1_relu -> conv1 (in-place)
I0105 22:16:17.524003 30517 net.cpp:150] Setting up conv1_relu
I0105 22:16:17.524026 30517 net.cpp:157] Top shape: 1 64 300 500 (9600000)
I0105 22:16:17.524036 30517 net.cpp:165] Memory required for data: 175200084
I0105 22:16:17.524046 30517 layer_factory.hpp:77] Creating layer pool1
I0105 22:16:17.524065 30517 net.cpp:100] Creating Layer pool1
I0105 22:16:17.524075 30517 net.cpp:444] pool1 <- conv1
I0105 22:16:17.524087 30517 net.cpp:418] pool1 -> pool1
I0105 22:16:17.524528 30517 net.cpp:150] Setting up pool1
I0105 22:16:17.524556 30517 net.cpp:157] Top shape: 1 64 150 250 (2400000)
I0105 22:16:17.524566 30517 net.cpp:165] Memory required for data: 184800084
I0105 22:16:17.524575 30517 layer_factory.hpp:77] Creating layer pool1_pool1_0_split
I0105 22:16:17.524591 30517 net.cpp:100] Creating Layer pool1_pool1_0_split
I0105 22:16:17.524601 30517 net.cpp:444] pool1_pool1_0_split <- pool1
I0105 22:16:17.524615 30517 net.cpp:418] pool1_pool1_0_split -> pool1_pool1_0_split_0
I0105 22:16:17.524682 30517 net.cpp:418] pool1_pool1_0_split -> pool1_pool1_0_split_1
I0105 22:16:17.524729 30517 net.cpp:150] Setting up pool1_pool1_0_split
I0105 22:16:17.524741 30517 net.cpp:157] Top shape: 1 64 150 250 (2400000)
I0105 22:16:17.524750 30517 net.cpp:157] Top shape: 1 64 150 250 (2400000)
I0105 22:16:17.524757 30517 net.cpp:165] Memory required for data: 204000084
I0105 22:16:17.524765 30517 layer_factory.hpp:77] Creating layer res2a_branch1
I0105 22:16:17.524778 30517 net.cpp:100] Creating Layer res2a_branch1
I0105 22:16:17.524788 30517 net.cpp:444] res2a_branch1 <- pool1_pool1_0_split_0
I0105 22:16:17.524799 30517 net.cpp:418] res2a_branch1 -> res2a_branch1
I0105 22:16:17.525979 30517 net.cpp:150] Setting up res2a_branch1
I0105 22:16:17.526000 30517 net.cpp:157] Top shape: 1 256 150 250 (9600000)
I0105 22:16:17.526008 30517 net.cpp:165] Memory required for data: 242400084
I0105 22:16:17.526020 30517 layer_factory.hpp:77] Creating layer bn2a_branch1
I0105 22:16:17.526032 30517 net.cpp:100] Creating Layer bn2a_branch1
I0105 22:16:17.526041 30517 net.cpp:444] bn2a_branch1 <- res2a_branch1
I0105 22:16:17.526052 30517 net.cpp:405] bn2a_branch1 -> res2a_branch1 (in-place)
I0105 22:16:17.526917 30517 net.cpp:150] Setting up bn2a_branch1
I0105 22:16:17.526940 30517 net.cpp:157] Top shape: 1 256 150 250 (9600000)
I0105 22:16:17.526950 30517 net.cpp:165] Memory required for data: 280800084
I0105 22:16:17.526967 30517 layer_factory.hpp:77] Creating layer scale2a_branch1
I0105 22:16:17.526979 30517 net.cpp:100] Creating Layer scale2a_branch1
I0105 22:16:17.526988 30517 net.cpp:444] scale2a_branch1 <- res2a_branch1
I0105 22:16:17.527000 30517 net.cpp:405] scale2a_branch1 -> res2a_branch1 (in-place)
I0105 22:16:17.527048 30517 layer_factory.hpp:77] Creating layer scale2a_branch1
I0105 22:16:17.527199 30517 net.cpp:150] Setting up scale2a_branch1
I0105 22:16:17.527215 30517 net.cpp:157] Top shape: 1 256 150 250 (9600000)
I0105 22:16:17.527222 30517 net.cpp:165] Memory required for data: 319200084
I0105 22:16:17.527233 30517 layer_factory.hpp:77] Creating layer res2a_branch2a
I0105 22:16:17.527247 30517 net.cpp:100] Creating Layer res2a_branch2a
I0105 22:16:17.527257 30517 net.cpp:444] res2a_branch2a <- pool1_pool1_0_split_1
I0105 22:16:17.527268 30517 net.cpp:418] res2a_branch2a -> res2a_branch2a
I0105 22:16:17.529428 30517 net.cpp:150] Setting up res2a_branch2a
I0105 22:16:17.529450 30517 net.cpp:157] Top shape: 1 64 150 250 (2400000)
I0105 22:16:17.529460 30517 net.cpp:165] Memory required for data: 328800084
I0105 22:16:17.529471 30517 layer_factory.hpp:77] Creating layer bn2a_branch2a
I0105 22:16:17.529485 30517 net.cpp:100] Creating Layer bn2a_branch2a
I0105 22:16:17.529495 30517 net.cpp:444] bn2a_branch2a <- res2a_branch2a
I0105 22:16:17.529506 30517 net.cpp:405] bn2a_branch2a -> res2a_branch2a (in-place)
I0105 22:16:17.529709 30517 net.cpp:150] Setting up bn2a_branch2a
I0105 22:16:17.529721 30517 net.cpp:157] Top shape: 1 64 150 250 (2400000)
I0105 22:16:17.529729 30517 net.cpp:165] Memory required for data: 338400084
I0105 22:16:17.529742 30517 layer_factory.hpp:77] Creating layer scale2a_branch2a
I0105 22:16:17.529753 30517 net.cpp:100] Creating Layer scale2a_branch2a
I0105 22:16:17.529760 30517 net.cpp:444] scale2a_branch2a <- res2a_branch2a
I0105 22:16:17.529768 30517 net.cpp:405] scale2a_branch2a -> res2a_branch2a (in-place)
I0105 22:16:17.529808 30517 layer_factory.hpp:77] Creating layer scale2a_branch2a
I0105 22:16:17.529945 30517 net.cpp:150] Setting up scale2a_branch2a
I0105 22:16:17.529958 30517 net.cpp:157] Top shape: 1 64 150 250 (2400000)
I0105 22:16:17.529964 30517 net.cpp:165] Memory required for data: 348000084
I0105 22:16:17.529974 30517 layer_factory.hpp:77] Creating layer res2a_branch2a_relu
I0105 22:16:17.529986 30517 net.cpp:100] Creating Layer res2a_branch2a_relu
I0105 22:16:17.529994 30517 net.cpp:444] res2a_branch2a_relu <- res2a_branch2a
I0105 22:16:17.530004 30517 net.cpp:405] res2a_branch2a_relu -> res2a_branch2a (in-place)
I0105 22:16:17.530514 30517 net.cpp:150] Setting up res2a_branch2a_relu
I0105 22:16:17.530534 30517 net.cpp:157] Top shape: 1 64 150 250 (2400000)
I0105 22:16:17.530541 30517 net.cpp:165] Memory required for data: 357600084
I0105 22:16:17.530549 30517 layer_factory.hpp:77] Creating layer res2a_branch2b
I0105 22:16:17.530561 30517 net.cpp:100] Creating Layer res2a_branch2b
I0105 22:16:17.530570 30517 net.cpp:444] res2a_branch2b <- res2a_branch2a
I0105 22:16:17.530580 30517 net.cpp:418] res2a_branch2b -> res2a_branch2b
I0105 22:16:17.531512 30517 net.cpp:150] Setting up res2a_branch2b
I0105 22:16:17.531533 30517 net.cpp:157] Top shape: 1 64 150 250 (2400000)
I0105 22:16:17.531543 30517 net.cpp:165] Memory required for data: 367200084
I0105 22:16:17.531553 30517 layer_factory.hpp:77] Creating layer bn2a_branch2b
I0105 22:16:17.531563 30517 net.cpp:100] Creating Layer bn2a_branch2b
I0105 22:16:17.531572 30517 net.cpp:444] bn2a_branch2b <- res2a_branch2b
I0105 22:16:17.531582 30517 net.cpp:405] bn2a_branch2b -> res2a_branch2b (in-place)
I0105 22:16:17.531760 30517 net.cpp:150] Setting up bn2a_branch2b
I0105 22:16:17.531772 30517 net.cpp:157] Top shape: 1 64 150 250 (2400000)
I0105 22:16:17.531780 30517 net.cpp:165] Memory required for data: 376800084
I0105 22:16:17.531796 30517 layer_factory.hpp:77] Creating layer scale2a_branch2b
I0105 22:16:17.531806 30517 net.cpp:100] Creating Layer scale2a_branch2b
I0105 22:16:17.531814 30517 net.cpp:444] scale2a_branch2b <- res2a_branch2b
I0105 22:16:17.531824 30517 net.cpp:405] scale2a_branch2b -> res2a_branch2b (in-place)
I0105 22:16:17.531863 30517 layer_factory.hpp:77] Creating layer scale2a_branch2b
I0105 22:16:17.532001 30517 net.cpp:150] Setting up scale2a_branch2b
I0105 22:16:17.532013 30517 net.cpp:157] Top shape: 1 64 150 250 (2400000)
I0105 22:16:17.532021 30517 net.cpp:165] Memory required for data: 386400084
I0105 22:16:17.532028 30517 layer_factory.hpp:77] Creating layer res2a_branch2b_relu
I0105 22:16:17.532037 30517 net.cpp:100] Creating Layer res2a_branch2b_relu
I0105 22:16:17.532045 30517 net.cpp:444] res2a_branch2b_relu <- res2a_branch2b
I0105 22:16:17.532055 30517 net.cpp:405] res2a_branch2b_relu -> res2a_branch2b (in-place)
I0105 22:16:17.532615 30517 net.cpp:150] Setting up res2a_branch2b_relu
I0105 22:16:17.532640 30517 net.cpp:157] Top shape: 1 64 150 250 (2400000)
I0105 22:16:17.532649 30517 net.cpp:165] Memory required for data: 396000084
I0105 22:16:17.532656 30517 layer_factory.hpp:77] Creating layer res2a_branch2c
I0105 22:16:17.532670 30517 net.cpp:100] Creating Layer res2a_branch2c
I0105 22:16:17.532678 30517 net.cpp:444] res2a_branch2c <- res2a_branch2b
I0105 22:16:17.532690 30517 net.cpp:418] res2a_branch2c -> res2a_branch2c
I0105 22:16:17.533702 30517 net.cpp:150] Setting up res2a_branch2c
I0105 22:16:17.533728 30517 net.cpp:157] Top shape: 1 256 150 250 (9600000)
I0105 22:16:17.533737 30517 net.cpp:165] Memory required for data: 434400084
I0105 22:16:17.533748 30517 layer_factory.hpp:77] Creating layer bn2a_branch2c
I0105 22:16:17.533759 30517 net.cpp:100] Creating Layer bn2a_branch2c
I0105 22:16:17.533768 30517 net.cpp:444] bn2a_branch2c <- res2a_branch2c
I0105 22:16:17.533779 30517 net.cpp:405] bn2a_branch2c -> res2a_branch2c (in-place)
I0105 22:16:17.533948 30517 net.cpp:150] Setting up bn2a_branch2c
I0105 22:16:17.533962 30517 net.cpp:157] Top shape: 1 256 150 250 (9600000)
I0105 22:16:17.533967 30517 net.cpp:165] Memory required for data: 472800084
I0105 22:16:17.533977 30517 layer_factory.hpp:77] Creating layer scale2a_branch2c
I0105 22:16:17.533988 30517 net.cpp:100] Creating Layer scale2a_branch2c
I0105 22:16:17.533996 30517 net.cpp:444] scale2a_branch2c <- res2a_branch2c
I0105 22:16:17.534005 30517 net.cpp:405] scale2a_branch2c -> res2a_branch2c (in-place)
I0105 22:16:17.534047 30517 layer_factory.hpp:77] Creating layer scale2a_branch2c
I0105 22:16:17.534209 30517 net.cpp:150] Setting up scale2a_branch2c
I0105 22:16:17.534222 30517 net.cpp:157] Top shape: 1 256 150 250 (9600000)
I0105 22:16:17.534229 30517 net.cpp:165] Memory required for data: 511200084
I0105 22:16:17.534238 30517 layer_factory.hpp:77] Creating layer res2a
I0105 22:16:17.534795 30517 net.cpp:100] Creating Layer res2a
I0105 22:16:17.534806 30517 net.cpp:444] res2a <- res2a_branch1
I0105 22:16:17.534813 30517 net.cpp:444] res2a <- res2a_branch2c
I0105 22:16:17.534823 30517 net.cpp:418] res2a -> res2a
I0105 22:16:17.534849 30517 net.cpp:150] Setting up res2a
I0105 22:16:17.534860 30517 net.cpp:157] Top shape: 1 256 150 250 (9600000)
I0105 22:16:17.534867 30517 net.cpp:165] Memory required for data: 549600084
I0105 22:16:17.534873 30517 layer_factory.hpp:77] Creating layer res2a_relu
I0105 22:16:17.534880 30517 net.cpp:100] Creating Layer res2a_relu
I0105 22:16:17.534886 30517 net.cpp:444] res2a_relu <- res2a
I0105 22:16:17.534893 30517 net.cpp:405] res2a_relu -> res2a (in-place)
I0105 22:16:17.535033 30517 net.cpp:150] Setting up res2a_relu
I0105 22:16:17.535045 30517 net.cpp:157] Top shape: 1 256 150 250 (9600000)
I0105 22:16:17.535053 30517 net.cpp:165] Memory required for data: 588000084
I0105 22:16:17.535058 30517 layer_factory.hpp:77] Creating layer res2a_res2a_relu_0_split
I0105 22:16:17.535065 30517 net.cpp:100] Creating Layer res2a_res2a_relu_0_split
I0105 22:16:17.535073 30517 net.cpp:444] res2a_res2a_relu_0_split <- res2a
I0105 22:16:17.535104 30517 net.cpp:418] res2a_res2a_relu_0_split -> res2a_res2a_relu_0_split_0
I0105 22:16:17.535127 30517 net.cpp:418] res2a_res2a_relu_0_split -> res2a_res2a_relu_0_split_1
I0105 22:16:17.535177 30517 net.cpp:150] Setting up res2a_res2a_relu_0_split
I0105 22:16:17.535200 30517 net.cpp:157] Top shape: 1 256 150 250 (9600000)
I0105 22:16:17.535223 30517 net.cpp:157] Top shape: 1 256 150 250 (9600000)
I0105 22:16:17.535241 30517 net.cpp:165] Memory required for data: 664800084
I0105 22:16:17.535248 30517 layer_factory.hpp:77] Creating layer res2b_branch2a
I0105 22:16:17.535272 30517 net.cpp:100] Creating Layer res2b_branch2a
I0105 22:16:17.535293 30517 net.cpp:444] res2b_branch2a <- res2a_res2a_relu_0_split_0
I0105 22:16:17.535315 30517 net.cpp:418] res2b_branch2a -> res2b_branch2a
I0105 22:16:17.536473 30517 net.cpp:150] Setting up res2b_branch2a
I0105 22:16:17.536491 30517 net.cpp:157] Top shape: 1 64 150 250 (2400000)
I0105 22:16:17.536514 30517 net.cpp:165] Memory required for data: 674400084
I0105 22:16:17.536530 30517 layer_factory.hpp:77] Creating layer bn2b_branch2a
I0105 22:16:17.536556 30517 net.cpp:100] Creating Layer bn2b_branch2a
I0105 22:16:17.536562 30517 net.cpp:444] bn2b_branch2a <- res2b_branch2a
I0105 22:16:17.536571 30517 net.cpp:405] bn2b_branch2a -> res2b_branch2a (in-place)
I0105 22:16:17.537326 30517 net.cpp:150] Setting up bn2b_branch2a
I0105 22:16:17.537344 30517 net.cpp:157] Top shape: 1 64 150 250 (2400000)
I0105 22:16:17.537365 30517 net.cpp:165] Memory required for data: 684000084
I0105 22:16:17.537395 30517 layer_factory.hpp:77] Creating layer scale2b_branch2a
I0105 22:16:17.537418 30517 net.cpp:100] Creating Layer scale2b_branch2a
I0105 22:16:17.537425 30517 net.cpp:444] scale2b_branch2a <- res2b_branch2a
I0105 22:16:17.537433 30517 net.cpp:405] scale2b_branch2a -> res2b_branch2a (in-place)
I0105 22:16:17.537474 30517 layer_factory.hpp:77] Creating layer scale2b_branch2a
I0105 22:16:17.537618 30517 net.cpp:150] Setting up scale2b_branch2a
I0105 22:16:17.537631 30517 net.cpp:157] Top shape: 1 64 150 250 (2400000)
I0105 22:16:17.537649 30517 net.cpp:165] Memory required for data: 693600084
I0105 22:16:17.537658 30517 layer_factory.hpp:77] Creating layer res2b_branch2a_relu
I0105 22:16:17.537679 30517 net.cpp:100] Creating Layer res2b_branch2a_relu
I0105 22:16:17.537698 30517 net.cpp:444] res2b_branch2a_relu <- res2b_branch2a
I0105 22:16:17.537706 30517 net.cpp:405] res2b_branch2a_relu -> res2b_branch2a (in-place)
I0105 22:16:17.537909 30517 net.cpp:150] Setting up res2b_branch2a_relu
I0105 22:16:17.537921 30517 net.cpp:157] Top shape: 1 64 150 250 (2400000)
I0105 22:16:17.537928 30517 net.cpp:165] Memory required for data: 703200084
I0105 22:16:17.537948 30517 layer_factory.hpp:77] Creating layer res2b_branch2b
I0105 22:16:17.537961 30517 net.cpp:100] Creating Layer res2b_branch2b
I0105 22:16:17.537968 30517 net.cpp:444] res2b_branch2b <- res2b_branch2a
I0105 22:16:17.537992 30517 net.cpp:418] res2b_branch2b -> res2b_branch2b
I0105 22:16:17.538924 30517 net.cpp:150] Setting up res2b_branch2b
I0105 22:16:17.538942 30517 net.cpp:157] Top shape: 1 64 150 250 (2400000)
I0105 22:16:17.538965 30517 net.cpp:165] Memory required for data: 712800084
I0105 22:16:17.538974 30517 layer_factory.hpp:77] Creating layer bn2b_branch2b
I0105 22:16:17.538986 30517 net.cpp:100] Creating Layer bn2b_branch2b
I0105 22:16:17.538995 30517 net.cpp:444] bn2b_branch2b <- res2b_branch2b
I0105 22:16:17.539005 30517 net.cpp:405] bn2b_branch2b -> res2b_branch2b (in-place)
I0105 22:16:17.539206 30517 net.cpp:150] Setting up bn2b_branch2b
I0105 22:16:17.539217 30517 net.cpp:157] Top shape: 1 64 150 250 (2400000)
I0105 22:16:17.539224 30517 net.cpp:165] Memory required for data: 722400084
I0105 22:16:17.539249 30517 layer_factory.hpp:77] Creating layer scale2b_branch2b
I0105 22:16:17.539258 30517 net.cpp:100] Creating Layer scale2b_branch2b
I0105 22:16:17.539278 30517 net.cpp:444] scale2b_branch2b <- res2b_branch2b
I0105 22:16:17.539289 30517 net.cpp:405] scale2b_branch2b -> res2b_branch2b (in-place)
I0105 22:16:17.539330 30517 layer_factory.hpp:77] Creating layer scale2b_branch2b
I0105 22:16:17.539499 30517 net.cpp:150] Setting up scale2b_branch2b
I0105 22:16:17.539510 30517 net.cpp:157] Top shape: 1 64 150 250 (2400000)
I0105 22:16:17.539516 30517 net.cpp:165] Memory required for data: 732000084
I0105 22:16:17.539541 30517 layer_factory.hpp:77] Creating layer res2b_branch2b_relu
I0105 22:16:17.539549 30517 net.cpp:100] Creating Layer res2b_branch2b_relu
I0105 22:16:17.539556 30517 net.cpp:444] res2b_branch2b_relu <- res2b_branch2b
I0105 22:16:17.539566 30517 net.cpp:405] res2b_branch2b_relu -> res2b_branch2b (in-place)
I0105 22:16:17.539775 30517 net.cpp:150] Setting up res2b_branch2b_relu
I0105 22:16:17.539788 30517 net.cpp:157] Top shape: 1 64 150 250 (2400000)
I0105 22:16:17.539794 30517 net.cpp:165] Memory required for data: 741600084
I0105 22:16:17.539815 30517 layer_factory.hpp:77] Creating layer res2b_branch2c
I0105 22:16:17.539847 30517 net.cpp:100] Creating Layer res2b_branch2c
I0105 22:16:17.539867 30517 net.cpp:444] res2b_branch2c <- res2b_branch2b
I0105 22:16:17.539889 30517 net.cpp:418] res2b_branch2c -> res2b_branch2c
I0105 22:16:17.541019 30517 net.cpp:150] Setting up res2b_branch2c
I0105 22:16:17.541036 30517 net.cpp:157] Top shape: 1 256 150 250 (9600000)
I0105 22:16:17.541059 30517 net.cpp:165] Memory required for data: 780000084
I0105 22:16:17.541067 30517 layer_factory.hpp:77] Creating layer bn2b_branch2c
I0105 22:16:17.541091 30517 net.cpp:100] Creating Layer bn2b_branch2c
I0105 22:16:17.541112 30517 net.cpp:444] bn2b_branch2c <- res2b_branch2c
I0105 22:16:17.541136 30517 net.cpp:405] bn2b_branch2c -> res2b_branch2c (in-place)
I0105 22:16:17.541329 30517 net.cpp:150] Setting up bn2b_branch2c
I0105 22:16:17.541340 30517 net.cpp:157] Top shape: 1 256 150 250 (9600000)
I0105 22:16:17.541347 30517 net.cpp:165] Memory required for data: 818400084
I0105 22:16:17.541368 30517 layer_factory.hpp:77] Creating layer scale2b_branch2c
I0105 22:16:17.541390 30517 net.cpp:100] Creating Layer scale2b_branch2c
I0105 22:16:17.541398 30517 net.cpp:444] scale2b_branch2c <- res2b_branch2c
I0105 22:16:17.541419 30517 net.cpp:405] scale2b_branch2c -> res2b_branch2c (in-place)
I0105 22:16:17.541481 30517 layer_factory.hpp:77] Creating layer scale2b_branch2c
I0105 22:16:17.541642 30517 net.cpp:150] Setting up scale2b_branch2c
I0105 22:16:17.541653 30517 net.cpp:157] Top shape: 1 256 150 250 (9600000)
I0105 22:16:17.541659 30517 net.cpp:165] Memory required for data: 856800084
I0105 22:16:17.541680 30517 layer_factory.hpp:77] Creating layer res2b
I0105 22:16:17.541689 30517 net.cpp:100] Creating Layer res2b
I0105 22:16:17.541710 30517 net.cpp:444] res2b <- res2a_res2a_relu_0_split_1
I0105 22:16:17.541718 30517 net.cpp:444] res2b <- res2b_branch2c
I0105 22:16:17.541728 30517 net.cpp:418] res2b -> res2b
I0105 22:16:17.541754 30517 net.cpp:150] Setting up res2b
I0105 22:16:17.541765 30517 net.cpp:157] Top shape: 1 256 150 250 (9600000)
I0105 22:16:17.541785 30517 net.cpp:165] Memory required for data: 895200084
I0105 22:16:17.541792 30517 layer_factory.hpp:77] Creating layer res2b_relu
I0105 22:16:17.541800 30517 net.cpp:100] Creating Layer res2b_relu
I0105 22:16:17.541808 30517 net.cpp:444] res2b_relu <- res2b
I0105 22:16:17.541816 30517 net.cpp:405] res2b_relu -> res2b (in-place)
I0105 22:16:17.541965 30517 net.cpp:150] Setting up res2b_relu
I0105 22:16:17.541978 30517 net.cpp:157] Top shape: 1 256 150 250 (9600000)
I0105 22:16:17.541985 30517 net.cpp:165] Memory required for data: 933600084
I0105 22:16:17.541992 30517 layer_factory.hpp:77] Creating layer res2b_res2b_relu_0_split
I0105 22:16:17.542002 30517 net.cpp:100] Creating Layer res2b_res2b_relu_0_split
I0105 22:16:17.542009 30517 net.cpp:444] res2b_res2b_relu_0_split <- res2b
I0105 22:16:17.542019 30517 net.cpp:418] res2b_res2b_relu_0_split -> res2b_res2b_relu_0_split_0
I0105 22:16:17.542031 30517 net.cpp:418] res2b_res2b_relu_0_split -> res2b_res2b_relu_0_split_1
I0105 22:16:17.542068 30517 net.cpp:150] Setting up res2b_res2b_relu_0_split
I0105 22:16:17.542078 30517 net.cpp:157] Top shape: 1 256 150 250 (9600000)
I0105 22:16:17.542091 30517 net.cpp:157] Top shape: 1 256 150 250 (9600000)
I0105 22:16:17.542099 30517 net.cpp:165] Memory required for data: 1010400084
I0105 22:16:17.542106 30517 layer_factory.hpp:77] Creating layer res2c_branch2a
I0105 22:16:17.542119 30517 net.cpp:100] Creating Layer res2c_branch2a
I0105 22:16:17.542126 30517 net.cpp:444] res2c_branch2a <- res2b_res2b_relu_0_split_0
I0105 22:16:17.542135 30517 net.cpp:418] res2c_branch2a -> res2c_branch2a
I0105 22:16:17.543009 30517 net.cpp:150] Setting up res2c_branch2a
I0105 22:16:17.543026 30517 net.cpp:157] Top shape: 1 64 150 250 (2400000)
I0105 22:16:17.543035 30517 net.cpp:165] Memory required for data: 1020000084
I0105 22:16:17.543043 30517 layer_factory.hpp:77] Creating layer bn2c_branch2a
I0105 22:16:17.543054 30517 net.cpp:100] Creating Layer bn2c_branch2a
I0105 22:16:17.543062 30517 net.cpp:444] bn2c_branch2a <- res2c_branch2a
I0105 22:16:17.543072 30517 net.cpp:405] bn2c_branch2a -> res2c_branch2a (in-place)
I0105 22:16:17.543249 30517 net.cpp:150] Setting up bn2c_branch2a
I0105 22:16:17.543260 30517 net.cpp:157] Top shape: 1 64 150 250 (2400000)
I0105 22:16:17.543267 30517 net.cpp:165] Memory required for data: 1029600084
I0105 22:16:17.543278 30517 layer_factory.hpp:77] Creating layer scale2c_branch2a
I0105 22:16:17.543287 30517 net.cpp:100] Creating Layer scale2c_branch2a
I0105 22:16:17.543294 30517 net.cpp:444] scale2c_branch2a <- res2c_branch2a
I0105 22:16:17.543304 30517 net.cpp:405] scale2c_branch2a -> res2c_branch2a (in-place)
I0105 22:16:17.543340 30517 layer_factory.hpp:77] Creating layer scale2c_branch2a
I0105 22:16:17.543473 30517 net.cpp:150] Setting up scale2c_branch2a
I0105 22:16:17.543484 30517 net.cpp:157] Top shape: 1 64 150 250 (2400000)
I0105 22:16:17.543491 30517 net.cpp:165] Memory required for data: 1039200084
I0105 22:16:17.543501 30517 layer_factory.hpp:77] Creating layer res2c_branch2a_relu
I0105 22:16:17.543509 30517 net.cpp:100] Creating Layer res2c_branch2a_relu
I0105 22:16:17.543516 30517 net.cpp:444] res2c_branch2a_relu <- res2c_branch2a
I0105 22:16:17.543526 30517 net.cpp:405] res2c_branch2a_relu -> res2c_branch2a (in-place)
I0105 22:16:17.543949 30517 net.cpp:150] Setting up res2c_branch2a_relu
I0105 22:16:17.543965 30517 net.cpp:157] Top shape: 1 64 150 250 (2400000)
I0105 22:16:17.543973 30517 net.cpp:165] Memory required for data: 1048800084
I0105 22:16:17.543980 30517 layer_factory.hpp:77] Creating layer res2c_branch2b
I0105 22:16:17.543992 30517 net.cpp:100] Creating Layer res2c_branch2b
I0105 22:16:17.543999 30517 net.cpp:444] res2c_branch2b <- res2c_branch2a
I0105 22:16:17.544009 30517 net.cpp:418] res2c_branch2b -> res2c_branch2b
I0105 22:16:17.544893 30517 net.cpp:150] Setting up res2c_branch2b
I0105 22:16:17.544910 30517 net.cpp:157] Top shape: 1 64 150 250 (2400000)
I0105 22:16:17.544932 30517 net.cpp:165] Memory required for data: 1058400084
I0105 22:16:17.544941 30517 layer_factory.hpp:77] Creating layer bn2c_branch2b
I0105 22:16:17.544965 30517 net.cpp:100] Creating Layer bn2c_branch2b
I0105 22:16:17.544987 30517 net.cpp:444] bn2c_branch2b <- res2c_branch2b
I0105 22:16:17.545009 30517 net.cpp:405] bn2c_branch2b -> res2c_branch2b (in-place)
I0105 22:16:17.545773 30517 net.cpp:150] Setting up bn2c_branch2b
I0105 22:16:17.545792 30517 net.cpp:157] Top shape: 1 64 150 250 (2400000)
I0105 22:16:17.545799 30517 net.cpp:165] Memory required for data: 1068000084
I0105 22:16:17.545825 30517 layer_factory.hpp:77] Creating layer scale2c_branch2b
I0105 22:16:17.545847 30517 net.cpp:100] Creating Layer scale2c_branch2b
I0105 22:16:17.545867 30517 net.cpp:444] scale2c_branch2b <- res2c_branch2b
I0105 22:16:17.545878 30517 net.cpp:405] scale2c_branch2b -> res2c_branch2b (in-place)
I0105 22:16:17.545933 30517 layer_factory.hpp:77] Creating layer scale2c_branch2b
I0105 22:16:17.546069 30517 net.cpp:150] Setting up scale2c_branch2b
I0105 22:16:17.546082 30517 net.cpp:157] Top shape: 1 64 150 250 (2400000)
I0105 22:16:17.546089 30517 net.cpp:165] Memory required for data: 1077600084
I0105 22:16:17.546103 30517 layer_factory.hpp:77] Creating layer res2c_branch2b_relu
I0105 22:16:17.546113 30517 net.cpp:100] Creating Layer res2c_branch2b_relu
I0105 22:16:17.546120 30517 net.cpp:444] res2c_branch2b_relu <- res2c_branch2b
I0105 22:16:17.546130 30517 net.cpp:405] res2c_branch2b_relu -> res2c_branch2b (in-place)
I0105 22:16:17.546658 30517 net.cpp:150] Setting up res2c_branch2b_relu
I0105 22:16:17.546676 30517 net.cpp:157] Top shape: 1 64 150 250 (2400000)
I0105 22:16:17.546684 30517 net.cpp:165] Memory required for data: 1087200084
I0105 22:16:17.546691 30517 layer_factory.hpp:77] Creating layer res2c_branch2c
I0105 22:16:17.546703 30517 net.cpp:100] Creating Layer res2c_branch2c
I0105 22:16:17.546711 30517 net.cpp:444] res2c_branch2c <- res2c_branch2b
I0105 22:16:17.546721 30517 net.cpp:418] res2c_branch2c -> res2c_branch2c
I0105 22:16:17.547643 30517 net.cpp:150] Setting up res2c_branch2c
I0105 22:16:17.547665 30517 net.cpp:157] Top shape: 1 256 150 250 (9600000)
I0105 22:16:17.547673 30517 net.cpp:165] Memory required for data: 1125600084
I0105 22:16:17.547683 30517 layer_factory.hpp:77] Creating layer bn2c_branch2c
I0105 22:16:17.547695 30517 net.cpp:100] Creating Layer bn2c_branch2c
I0105 22:16:17.547703 30517 net.cpp:444] bn2c_branch2c <- res2c_branch2c
I0105 22:16:17.547713 30517 net.cpp:405] bn2c_branch2c -> res2c_branch2c (in-place)
I0105 22:16:17.547888 30517 net.cpp:150] Setting up bn2c_branch2c
I0105 22:16:17.547900 30517 net.cpp:157] Top shape: 1 256 150 250 (9600000)
I0105 22:16:17.547907 30517 net.cpp:165] Memory required for data: 1164000084
I0105 22:16:17.547922 30517 layer_factory.hpp:77] Creating layer scale2c_branch2c
I0105 22:16:17.547935 30517 net.cpp:100] Creating Layer scale2c_branch2c
I0105 22:16:17.547943 30517 net.cpp:444] scale2c_branch2c <- res2c_branch2c
I0105 22:16:17.547952 30517 net.cpp:405] scale2c_branch2c -> res2c_branch2c (in-place)
I0105 22:16:17.547992 30517 layer_factory.hpp:77] Creating layer scale2c_branch2c
I0105 22:16:17.548158 30517 net.cpp:150] Setting up scale2c_branch2c
I0105 22:16:17.548169 30517 net.cpp:157] Top shape: 1 256 150 250 (9600000)
I0105 22:16:17.548177 30517 net.cpp:165] Memory required for data: 1202400084
I0105 22:16:17.548197 30517 layer_factory.hpp:77] Creating layer res2c
I0105 22:16:17.548219 30517 net.cpp:100] Creating Layer res2c
I0105 22:16:17.548228 30517 net.cpp:444] res2c <- res2b_res2b_relu_0_split_1
I0105 22:16:17.548235 30517 net.cpp:444] res2c <- res2c_branch2c
I0105 22:16:17.548245 30517 net.cpp:418] res2c -> res2c
I0105 22:16:17.548270 30517 net.cpp:150] Setting up res2c
I0105 22:16:17.548280 30517 net.cpp:157] Top shape: 1 256 150 250 (9600000)
I0105 22:16:17.548287 30517 net.cpp:165] Memory required for data: 1240800084
I0105 22:16:17.548295 30517 layer_factory.hpp:77] Creating layer res2c_relu
I0105 22:16:17.548302 30517 net.cpp:100] Creating Layer res2c_relu
I0105 22:16:17.548310 30517 net.cpp:444] res2c_relu <- res2c
I0105 22:16:17.548318 30517 net.cpp:405] res2c_relu -> res2c (in-place)
I0105 22:16:17.548463 30517 net.cpp:150] Setting up res2c_relu
I0105 22:16:17.548476 30517 net.cpp:157] Top shape: 1 256 150 250 (9600000)
I0105 22:16:17.548483 30517 net.cpp:165] Memory required for data: 1279200084
I0105 22:16:17.548491 30517 layer_factory.hpp:77] Creating layer res2c_res2c_relu_0_split
I0105 22:16:17.548499 30517 net.cpp:100] Creating Layer res2c_res2c_relu_0_split
I0105 22:16:17.548506 30517 net.cpp:444] res2c_res2c_relu_0_split <- res2c
I0105 22:16:17.548516 30517 net.cpp:418] res2c_res2c_relu_0_split -> res2c_res2c_relu_0_split_0
I0105 22:16:17.548527 30517 net.cpp:418] res2c_res2c_relu_0_split -> res2c_res2c_relu_0_split_1
I0105 22:16:17.548565 30517 net.cpp:150] Setting up res2c_res2c_relu_0_split
I0105 22:16:17.548575 30517 net.cpp:157] Top shape: 1 256 150 250 (9600000)
I0105 22:16:17.548583 30517 net.cpp:157] Top shape: 1 256 150 250 (9600000)
I0105 22:16:17.548590 30517 net.cpp:165] Memory required for data: 1356000084
I0105 22:16:17.548597 30517 layer_factory.hpp:77] Creating layer res3a_branch1
I0105 22:16:17.548614 30517 net.cpp:100] Creating Layer res3a_branch1
I0105 22:16:17.548621 30517 net.cpp:444] res3a_branch1 <- res2c_res2c_relu_0_split_0
I0105 22:16:17.548630 30517 net.cpp:418] res3a_branch1 -> res3a_branch1
I0105 22:16:17.550108 30517 net.cpp:150] Setting up res3a_branch1
I0105 22:16:17.550174 30517 net.cpp:157] Top shape: 1 512 75 125 (4800000)
I0105 22:16:17.550185 30517 net.cpp:165] Memory required for data: 1375200084
I0105 22:16:17.550196 30517 layer_factory.hpp:77] Creating layer bn3a_branch1
I0105 22:16:17.550207 30517 net.cpp:100] Creating Layer bn3a_branch1
I0105 22:16:17.550216 30517 net.cpp:444] bn3a_branch1 <- res3a_branch1
I0105 22:16:17.550226 30517 net.cpp:405] bn3a_branch1 -> res3a_branch1 (in-place)
I0105 22:16:17.551009 30517 net.cpp:150] Setting up bn3a_branch1
I0105 22:16:17.551030 30517 net.cpp:157] Top shape: 1 512 75 125 (4800000)
I0105 22:16:17.551053 30517 net.cpp:165] Memory required for data: 1394400084
I0105 22:16:17.551066 30517 layer_factory.hpp:77] Creating layer scale3a_branch1
I0105 22:16:17.551091 30517 net.cpp:100] Creating Layer scale3a_branch1
I0105 22:16:17.551100 30517 net.cpp:444] scale3a_branch1 <- res3a_branch1
I0105 22:16:17.551122 30517 net.cpp:405] scale3a_branch1 -> res3a_branch1 (in-place)
I0105 22:16:17.551178 30517 layer_factory.hpp:77] Creating layer scale3a_branch1
I0105 22:16:17.551306 30517 net.cpp:150] Setting up scale3a_branch1
I0105 22:16:17.551318 30517 net.cpp:157] Top shape: 1 512 75 125 (4800000)
I0105 22:16:17.551326 30517 net.cpp:165] Memory required for data: 1413600084
I0105 22:16:17.551336 30517 layer_factory.hpp:77] Creating layer res3a_branch2a
I0105 22:16:17.551362 30517 net.cpp:100] Creating Layer res3a_branch2a
I0105 22:16:17.551369 30517 net.cpp:444] res3a_branch2a <- res2c_res2c_relu_0_split_1
I0105 22:16:17.551380 30517 net.cpp:418] res3a_branch2a -> res3a_branch2a
I0105 22:16:17.552388 30517 net.cpp:150] Setting up res3a_branch2a
I0105 22:16:17.552407 30517 net.cpp:157] Top shape: 1 128 75 125 (1200000)
I0105 22:16:17.552415 30517 net.cpp:165] Memory required for data: 1418400084
I0105 22:16:17.552424 30517 layer_factory.hpp:77] Creating layer bn3a_branch2a
I0105 22:16:17.552436 30517 net.cpp:100] Creating Layer bn3a_branch2a
I0105 22:16:17.552444 30517 net.cpp:444] bn3a_branch2a <- res3a_branch2a
I0105 22:16:17.552454 30517 net.cpp:405] bn3a_branch2a -> res3a_branch2a (in-place)
I0105 22:16:17.552620 30517 net.cpp:150] Setting up bn3a_branch2a
I0105 22:16:17.552633 30517 net.cpp:157] Top shape: 1 128 75 125 (1200000)
I0105 22:16:17.552639 30517 net.cpp:165] Memory required for data: 1423200084
I0105 22:16:17.552649 30517 layer_factory.hpp:77] Creating layer scale3a_branch2a
I0105 22:16:17.552659 30517 net.cpp:100] Creating Layer scale3a_branch2a
I0105 22:16:17.552667 30517 net.cpp:444] scale3a_branch2a <- res3a_branch2a
I0105 22:16:17.552675 30517 net.cpp:405] scale3a_branch2a -> res3a_branch2a (in-place)
I0105 22:16:17.552714 30517 layer_factory.hpp:77] Creating layer scale3a_branch2a
I0105 22:16:17.552820 30517 net.cpp:150] Setting up scale3a_branch2a
I0105 22:16:17.552832 30517 net.cpp:157] Top shape: 1 128 75 125 (1200000)
I0105 22:16:17.552839 30517 net.cpp:165] Memory required for data: 1428000084
I0105 22:16:17.552848 30517 layer_factory.hpp:77] Creating layer res3a_branch2a_relu
I0105 22:16:17.552858 30517 net.cpp:100] Creating Layer res3a_branch2a_relu
I0105 22:16:17.552866 30517 net.cpp:444] res3a_branch2a_relu <- res3a_branch2a
I0105 22:16:17.552875 30517 net.cpp:405] res3a_branch2a_relu -> res3a_branch2a (in-place)
I0105 22:16:17.553038 30517 net.cpp:150] Setting up res3a_branch2a_relu
I0105 22:16:17.553051 30517 net.cpp:157] Top shape: 1 128 75 125 (1200000)
I0105 22:16:17.553057 30517 net.cpp:165] Memory required for data: 1432800084
I0105 22:16:17.553078 30517 layer_factory.hpp:77] Creating layer res3a_branch2b
I0105 22:16:17.553091 30517 net.cpp:100] Creating Layer res3a_branch2b
I0105 22:16:17.553112 30517 net.cpp:444] res3a_branch2b <- res3a_branch2a
I0105 22:16:17.553122 30517 net.cpp:418] res3a_branch2b -> res3a_branch2b
I0105 22:16:17.554514 30517 net.cpp:150] Setting up res3a_branch2b
I0105 22:16:17.554535 30517 net.cpp:157] Top shape: 1 128 75 125 (1200000)
I0105 22:16:17.554558 30517 net.cpp:165] Memory required for data: 1437600084
I0105 22:16:17.554569 30517 layer_factory.hpp:77] Creating layer bn3a_branch2b
I0105 22:16:17.554579 30517 net.cpp:100] Creating Layer bn3a_branch2b
I0105 22:16:17.554587 30517 net.cpp:444] bn3a_branch2b <- res3a_branch2b
I0105 22:16:17.554597 30517 net.cpp:405] bn3a_branch2b -> res3a_branch2b (in-place)
I0105 22:16:17.554791 30517 net.cpp:150] Setting up bn3a_branch2b
I0105 22:16:17.554803 30517 net.cpp:157] Top shape: 1 128 75 125 (1200000)
I0105 22:16:17.554810 30517 net.cpp:165] Memory required for data: 1442400084
I0105 22:16:17.554833 30517 layer_factory.hpp:77] Creating layer scale3a_branch2b
I0105 22:16:17.554847 30517 net.cpp:100] Creating Layer scale3a_branch2b
I0105 22:16:17.554855 30517 net.cpp:444] scale3a_branch2b <- res3a_branch2b
I0105 22:16:17.554864 30517 net.cpp:405] scale3a_branch2b -> res3a_branch2b (in-place)
I0105 22:16:17.554919 30517 layer_factory.hpp:77] Creating layer scale3a_branch2b
I0105 22:16:17.555081 30517 net.cpp:150] Setting up scale3a_branch2b
I0105 22:16:17.555093 30517 net.cpp:157] Top shape: 1 128 75 125 (1200000)
I0105 22:16:17.555099 30517 net.cpp:165] Memory required for data: 1447200084
I0105 22:16:17.555121 30517 layer_factory.hpp:77] Creating layer res3a_branch2b_relu
I0105 22:16:17.555131 30517 net.cpp:100] Creating Layer res3a_branch2b_relu
I0105 22:16:17.555151 30517 net.cpp:444] res3a_branch2b_relu <- res3a_branch2b
I0105 22:16:17.555161 30517 net.cpp:405] res3a_branch2b_relu -> res3a_branch2b (in-place)
I0105 22:16:17.555333 30517 net.cpp:150] Setting up res3a_branch2b_relu
I0105 22:16:17.555346 30517 net.cpp:157] Top shape: 1 128 75 125 (1200000)
I0105 22:16:17.555352 30517 net.cpp:165] Memory required for data: 1452000084
I0105 22:16:17.555373 30517 layer_factory.hpp:77] Creating layer res3a_branch2c
I0105 22:16:17.555385 30517 net.cpp:100] Creating Layer res3a_branch2c
I0105 22:16:17.555407 30517 net.cpp:444] res3a_branch2c <- res3a_branch2b
I0105 22:16:17.555415 30517 net.cpp:418] res3a_branch2c -> res3a_branch2c
I0105 22:16:17.556403 30517 net.cpp:150] Setting up res3a_branch2c
I0105 22:16:17.556421 30517 net.cpp:157] Top shape: 1 512 75 125 (4800000)
I0105 22:16:17.556428 30517 net.cpp:165] Memory required for data: 1471200084
I0105 22:16:17.556435 30517 layer_factory.hpp:77] Creating layer bn3a_branch2c
I0105 22:16:17.556445 30517 net.cpp:100] Creating Layer bn3a_branch2c
I0105 22:16:17.556453 30517 net.cpp:444] bn3a_branch2c <- res3a_branch2c
I0105 22:16:17.556478 30517 net.cpp:405] bn3a_branch2c -> res3a_branch2c (in-place)
I0105 22:16:17.556674 30517 net.cpp:150] Setting up bn3a_branch2c
I0105 22:16:17.556684 30517 net.cpp:157] Top shape: 1 512 75 125 (4800000)
I0105 22:16:17.556690 30517 net.cpp:165] Memory required for data: 1490400084
I0105 22:16:17.556699 30517 layer_factory.hpp:77] Creating layer scale3a_branch2c
I0105 22:16:17.556708 30517 net.cpp:100] Creating Layer scale3a_branch2c
I0105 22:16:17.556715 30517 net.cpp:444] scale3a_branch2c <- res3a_branch2c
I0105 22:16:17.556735 30517 net.cpp:405] scale3a_branch2c -> res3a_branch2c (in-place)
I0105 22:16:17.556797 30517 layer_factory.hpp:77] Creating layer scale3a_branch2c
I0105 22:16:17.556957 30517 net.cpp:150] Setting up scale3a_branch2c
I0105 22:16:17.556967 30517 net.cpp:157] Top shape: 1 512 75 125 (4800000)
I0105 22:16:17.556988 30517 net.cpp:165] Memory required for data: 1509600084
I0105 22:16:17.557008 30517 layer_factory.hpp:77] Creating layer res3a
I0105 22:16:17.557018 30517 net.cpp:100] Creating Layer res3a
I0105 22:16:17.557025 30517 net.cpp:444] res3a <- res3a_branch1
I0105 22:16:17.557034 30517 net.cpp:444] res3a <- res3a_branch2c
I0105 22:16:17.557042 30517 net.cpp:418] res3a -> res3a
I0105 22:16:17.557081 30517 net.cpp:150] Setting up res3a
I0105 22:16:17.557091 30517 net.cpp:157] Top shape: 1 512 75 125 (4800000)
I0105 22:16:17.557098 30517 net.cpp:165] Memory required for data: 1528800084
I0105 22:16:17.557111 30517 layer_factory.hpp:77] Creating layer res3a_relu
I0105 22:16:17.557119 30517 net.cpp:100] Creating Layer res3a_relu
I0105 22:16:17.557126 30517 net.cpp:444] res3a_relu <- res3a
I0105 22:16:17.557137 30517 net.cpp:405] res3a_relu -> res3a (in-place)
I0105 22:16:17.557294 30517 net.cpp:150] Setting up res3a_relu
I0105 22:16:17.557307 30517 net.cpp:157] Top shape: 1 512 75 125 (4800000)
I0105 22:16:17.557314 30517 net.cpp:165] Memory required for data: 1548000084
I0105 22:16:17.557322 30517 layer_factory.hpp:77] Creating layer res3a_res3a_relu_0_split
I0105 22:16:17.557332 30517 net.cpp:100] Creating Layer res3a_res3a_relu_0_split
I0105 22:16:17.557338 30517 net.cpp:444] res3a_res3a_relu_0_split <- res3a
I0105 22:16:17.557348 30517 net.cpp:418] res3a_res3a_relu_0_split -> res3a_res3a_relu_0_split_0
I0105 22:16:17.557358 30517 net.cpp:418] res3a_res3a_relu_0_split -> res3a_res3a_relu_0_split_1
I0105 22:16:17.557397 30517 net.cpp:150] Setting up res3a_res3a_relu_0_split
I0105 22:16:17.557409 30517 net.cpp:157] Top shape: 1 512 75 125 (4800000)
I0105 22:16:17.557416 30517 net.cpp:157] Top shape: 1 512 75 125 (4800000)
I0105 22:16:17.557422 30517 net.cpp:165] Memory required for data: 1586400084
I0105 22:16:17.557430 30517 layer_factory.hpp:77] Creating layer res3b_branch2a
I0105 22:16:17.557440 30517 net.cpp:100] Creating Layer res3b_branch2a
I0105 22:16:17.557447 30517 net.cpp:444] res3b_branch2a <- res3a_res3a_relu_0_split_0
I0105 22:16:17.557457 30517 net.cpp:418] res3b_branch2a -> res3b_branch2a
I0105 22:16:17.558392 30517 net.cpp:150] Setting up res3b_branch2a
I0105 22:16:17.558410 30517 net.cpp:157] Top shape: 1 128 75 125 (1200000)
I0105 22:16:17.558418 30517 net.cpp:165] Memory required for data: 1591200084
I0105 22:16:17.558428 30517 layer_factory.hpp:77] Creating layer bn3b_branch2a
I0105 22:16:17.558439 30517 net.cpp:100] Creating Layer bn3b_branch2a
I0105 22:16:17.558446 30517 net.cpp:444] bn3b_branch2a <- res3b_branch2a
I0105 22:16:17.558456 30517 net.cpp:405] bn3b_branch2a -> res3b_branch2a (in-place)
I0105 22:16:17.558614 30517 net.cpp:150] Setting up bn3b_branch2a
I0105 22:16:17.558625 30517 net.cpp:157] Top shape: 1 128 75 125 (1200000)
I0105 22:16:17.558632 30517 net.cpp:165] Memory required for data: 1596000084
I0105 22:16:17.558642 30517 layer_factory.hpp:77] Creating layer scale3b_branch2a
I0105 22:16:17.558652 30517 net.cpp:100] Creating Layer scale3b_branch2a
I0105 22:16:17.558660 30517 net.cpp:444] scale3b_branch2a <- res3b_branch2a
I0105 22:16:17.558670 30517 net.cpp:405] scale3b_branch2a -> res3b_branch2a (in-place)
I0105 22:16:17.558706 30517 layer_factory.hpp:77] Creating layer scale3b_branch2a
I0105 22:16:17.558810 30517 net.cpp:150] Setting up scale3b_branch2a
I0105 22:16:17.558822 30517 net.cpp:157] Top shape: 1 128 75 125 (1200000)
I0105 22:16:17.558830 30517 net.cpp:165] Memory required for data: 1600800084
I0105 22:16:17.558837 30517 layer_factory.hpp:77] Creating layer res3b_branch2a_relu
I0105 22:16:17.558846 30517 net.cpp:100] Creating Layer res3b_branch2a_relu
I0105 22:16:17.558854 30517 net.cpp:444] res3b_branch2a_relu <- res3b_branch2a
I0105 22:16:17.558863 30517 net.cpp:405] res3b_branch2a_relu -> res3b_branch2a (in-place)
I0105 22:16:17.559006 30517 net.cpp:150] Setting up res3b_branch2a_relu
I0105 22:16:17.559020 30517 net.cpp:157] Top shape: 1 128 75 125 (1200000)
I0105 22:16:17.559026 30517 net.cpp:165] Memory required for data: 1605600084
I0105 22:16:17.559033 30517 layer_factory.hpp:77] Creating layer res3b_branch2b
I0105 22:16:17.559046 30517 net.cpp:100] Creating Layer res3b_branch2b
I0105 22:16:17.559054 30517 net.cpp:444] res3b_branch2b <- res3b_branch2a
I0105 22:16:17.559064 30517 net.cpp:418] res3b_branch2b -> res3b_branch2b
I0105 22:16:17.561123 30517 net.cpp:150] Setting up res3b_branch2b
I0105 22:16:17.561144 30517 net.cpp:157] Top shape: 1 128 75 125 (1200000)
I0105 22:16:17.561152 30517 net.cpp:165] Memory required for data: 1610400084
I0105 22:16:17.561161 30517 layer_factory.hpp:77] Creating layer bn3b_branch2b
I0105 22:16:17.561177 30517 net.cpp:100] Creating Layer bn3b_branch2b
I0105 22:16:17.561185 30517 net.cpp:444] bn3b_branch2b <- res3b_branch2b
I0105 22:16:17.561197 30517 net.cpp:405] bn3b_branch2b -> res3b_branch2b (in-place)
I0105 22:16:17.561362 30517 net.cpp:150] Setting up bn3b_branch2b
I0105 22:16:17.561373 30517 net.cpp:157] Top shape: 1 128 75 125 (1200000)
I0105 22:16:17.561380 30517 net.cpp:165] Memory required for data: 1615200084
I0105 22:16:17.561390 30517 layer_factory.hpp:77] Creating layer scale3b_branch2b
I0105 22:16:17.561400 30517 net.cpp:100] Creating Layer scale3b_branch2b
I0105 22:16:17.561408 30517 net.cpp:444] scale3b_branch2b <- res3b_branch2b
I0105 22:16:17.561417 30517 net.cpp:405] scale3b_branch2b -> res3b_branch2b (in-place)
I0105 22:16:17.561455 30517 layer_factory.hpp:77] Creating layer scale3b_branch2b
I0105 22:16:17.561560 30517 net.cpp:150] Setting up scale3b_branch2b
I0105 22:16:17.561573 30517 net.cpp:157] Top shape: 1 128 75 125 (1200000)
I0105 22:16:17.561579 30517 net.cpp:165] Memory required for data: 1620000084
I0105 22:16:17.561589 30517 layer_factory.hpp:77] Creating layer res3b_branch2b_relu
I0105 22:16:17.561599 30517 net.cpp:100] Creating Layer res3b_branch2b_relu
I0105 22:16:17.561605 30517 net.cpp:444] res3b_branch2b_relu <- res3b_branch2b
I0105 22:16:17.561614 30517 net.cpp:405] res3b_branch2b_relu -> res3b_branch2b (in-place)
I0105 22:16:17.562050 30517 net.cpp:150] Setting up res3b_branch2b_relu
I0105 22:16:17.562067 30517 net.cpp:157] Top shape: 1 128 75 125 (1200000)
I0105 22:16:17.562075 30517 net.cpp:165] Memory required for data: 1624800084
I0105 22:16:17.562083 30517 layer_factory.hpp:77] Creating layer res3b_branch2c
I0105 22:16:17.562094 30517 net.cpp:100] Creating Layer res3b_branch2c
I0105 22:16:17.562103 30517 net.cpp:444] res3b_branch2c <- res3b_branch2b
I0105 22:16:17.562111 30517 net.cpp:418] res3b_branch2c -> res3b_branch2c
I0105 22:16:17.563045 30517 net.cpp:150] Setting up res3b_branch2c
I0105 22:16:17.563064 30517 net.cpp:157] Top shape: 1 512 75 125 (4800000)
I0105 22:16:17.563072 30517 net.cpp:165] Memory required for data: 1644000084
I0105 22:16:17.563081 30517 layer_factory.hpp:77] Creating layer bn3b_branch2c
I0105 22:16:17.563091 30517 net.cpp:100] Creating Layer bn3b_branch2c
I0105 22:16:17.563098 30517 net.cpp:444] bn3b_branch2c <- res3b_branch2c
I0105 22:16:17.563109 30517 net.cpp:405] bn3b_branch2c -> res3b_branch2c (in-place)
I0105 22:16:17.563273 30517 net.cpp:150] Setting up bn3b_branch2c
I0105 22:16:17.563284 30517 net.cpp:157] Top shape: 1 512 75 125 (4800000)
I0105 22:16:17.563292 30517 net.cpp:165] Memory required for data: 1663200084
I0105 22:16:17.563302 30517 layer_factory.hpp:77] Creating layer scale3b_branch2c
I0105 22:16:17.563310 30517 net.cpp:100] Creating Layer scale3b_branch2c
I0105 22:16:17.563318 30517 net.cpp:444] scale3b_branch2c <- res3b_branch2c
I0105 22:16:17.563326 30517 net.cpp:405] scale3b_branch2c -> res3b_branch2c (in-place)
I0105 22:16:17.563362 30517 layer_factory.hpp:77] Creating layer scale3b_branch2c
I0105 22:16:17.563475 30517 net.cpp:150] Setting up scale3b_branch2c
I0105 22:16:17.563486 30517 net.cpp:157] Top shape: 1 512 75 125 (4800000)
I0105 22:16:17.563494 30517 net.cpp:165] Memory required for data: 1682400084
I0105 22:16:17.563503 30517 layer_factory.hpp:77] Creating layer res3b
I0105 22:16:17.563515 30517 net.cpp:100] Creating Layer res3b
I0105 22:16:17.563524 30517 net.cpp:444] res3b <- res3a_res3a_relu_0_split_1
I0105 22:16:17.563531 30517 net.cpp:444] res3b <- res3b_branch2c
I0105 22:16:17.563540 30517 net.cpp:418] res3b -> res3b
I0105 22:16:17.563567 30517 net.cpp:150] Setting up res3b
I0105 22:16:17.563577 30517 net.cpp:157] Top shape: 1 512 75 125 (4800000)
I0105 22:16:17.563585 30517 net.cpp:165] Memory required for data: 1701600084
I0105 22:16:17.563591 30517 layer_factory.hpp:77] Creating layer res3b_relu
I0105 22:16:17.563599 30517 net.cpp:100] Creating Layer res3b_relu
I0105 22:16:17.563607 30517 net.cpp:444] res3b_relu <- res3b
I0105 22:16:17.563616 30517 net.cpp:405] res3b_relu -> res3b (in-place)
I0105 22:16:17.563760 30517 net.cpp:150] Setting up res3b_relu
I0105 22:16:17.563773 30517 net.cpp:157] Top shape: 1 512 75 125 (4800000)
I0105 22:16:17.563781 30517 net.cpp:165] Memory required for data: 1720800084
I0105 22:16:17.563787 30517 layer_factory.hpp:77] Creating layer res3b_res3b_relu_0_split
I0105 22:16:17.563796 30517 net.cpp:100] Creating Layer res3b_res3b_relu_0_split
I0105 22:16:17.563805 30517 net.cpp:444] res3b_res3b_relu_0_split <- res3b
I0105 22:16:17.563813 30517 net.cpp:418] res3b_res3b_relu_0_split -> res3b_res3b_relu_0_split_0
I0105 22:16:17.563824 30517 net.cpp:418] res3b_res3b_relu_0_split -> res3b_res3b_relu_0_split_1
I0105 22:16:17.563864 30517 net.cpp:150] Setting up res3b_res3b_relu_0_split
I0105 22:16:17.563874 30517 net.cpp:157] Top shape: 1 512 75 125 (4800000)
I0105 22:16:17.563882 30517 net.cpp:157] Top shape: 1 512 75 125 (4800000)
I0105 22:16:17.563889 30517 net.cpp:165] Memory required for data: 1759200084
I0105 22:16:17.563896 30517 layer_factory.hpp:77] Creating layer res3c_branch2a
I0105 22:16:17.563907 30517 net.cpp:100] Creating Layer res3c_branch2a
I0105 22:16:17.563915 30517 net.cpp:444] res3c_branch2a <- res3b_res3b_relu_0_split_0
I0105 22:16:17.563925 30517 net.cpp:418] res3c_branch2a -> res3c_branch2a
I0105 22:16:17.564831 30517 net.cpp:150] Setting up res3c_branch2a
I0105 22:16:17.564848 30517 net.cpp:157] Top shape: 1 128 75 125 (1200000)
I0105 22:16:17.564857 30517 net.cpp:165] Memory required for data: 1764000084
I0105 22:16:17.564864 30517 layer_factory.hpp:77] Creating layer bn3c_branch2a
I0105 22:16:17.564875 30517 net.cpp:100] Creating Layer bn3c_branch2a
I0105 22:16:17.564883 30517 net.cpp:444] bn3c_branch2a <- res3c_branch2a
I0105 22:16:17.564893 30517 net.cpp:405] bn3c_branch2a -> res3c_branch2a (in-place)
I0105 22:16:17.565054 30517 net.cpp:150] Setting up bn3c_branch2a
I0105 22:16:17.565066 30517 net.cpp:157] Top shape: 1 128 75 125 (1200000)
I0105 22:16:17.565073 30517 net.cpp:165] Memory required for data: 1768800084
I0105 22:16:17.565083 30517 layer_factory.hpp:77] Creating layer scale3c_branch2a
I0105 22:16:17.565093 30517 net.cpp:100] Creating Layer scale3c_branch2a
I0105 22:16:17.565101 30517 net.cpp:444] scale3c_branch2a <- res3c_branch2a
I0105 22:16:17.565109 30517 net.cpp:405] scale3c_branch2a -> res3c_branch2a (in-place)
I0105 22:16:17.565147 30517 layer_factory.hpp:77] Creating layer scale3c_branch2a
I0105 22:16:17.565254 30517 net.cpp:150] Setting up scale3c_branch2a
I0105 22:16:17.565265 30517 net.cpp:157] Top shape: 1 128 75 125 (1200000)
I0105 22:16:17.565273 30517 net.cpp:165] Memory required for data: 1773600084
I0105 22:16:17.565281 30517 layer_factory.hpp:77] Creating layer res3c_branch2a_relu
I0105 22:16:17.565291 30517 net.cpp:100] Creating Layer res3c_branch2a_relu
I0105 22:16:17.565299 30517 net.cpp:444] res3c_branch2a_relu <- res3c_branch2a
I0105 22:16:17.565307 30517 net.cpp:405] res3c_branch2a_relu -> res3c_branch2a (in-place)
I0105 22:16:17.565452 30517 net.cpp:150] Setting up res3c_branch2a_relu
I0105 22:16:17.565465 30517 net.cpp:157] Top shape: 1 128 75 125 (1200000)
I0105 22:16:17.565472 30517 net.cpp:165] Memory required for data: 1778400084
I0105 22:16:17.565479 30517 layer_factory.hpp:77] Creating layer res3c_branch2b
I0105 22:16:17.565491 30517 net.cpp:100] Creating Layer res3c_branch2b
I0105 22:16:17.565500 30517 net.cpp:444] res3c_branch2b <- res3c_branch2a
I0105 22:16:17.565508 30517 net.cpp:418] res3c_branch2b -> res3c_branch2b
I0105 22:16:17.566771 30517 net.cpp:150] Setting up res3c_branch2b
I0105 22:16:17.566790 30517 net.cpp:157] Top shape: 1 128 75 125 (1200000)
I0105 22:16:17.566798 30517 net.cpp:165] Memory required for data: 1783200084
I0105 22:16:17.566808 30517 layer_factory.hpp:77] Creating layer bn3c_branch2b
I0105 22:16:17.566818 30517 net.cpp:100] Creating Layer bn3c_branch2b
I0105 22:16:17.566826 30517 net.cpp:444] bn3c_branch2b <- res3c_branch2b
I0105 22:16:17.566836 30517 net.cpp:405] bn3c_branch2b -> res3c_branch2b (in-place)
I0105 22:16:17.567003 30517 net.cpp:150] Setting up bn3c_branch2b
I0105 22:16:17.567018 30517 net.cpp:157] Top shape: 1 128 75 125 (1200000)
I0105 22:16:17.567025 30517 net.cpp:165] Memory required for data: 1788000084
I0105 22:16:17.567035 30517 layer_factory.hpp:77] Creating layer scale3c_branch2b
I0105 22:16:17.567045 30517 net.cpp:100] Creating Layer scale3c_branch2b
I0105 22:16:17.567052 30517 net.cpp:444] scale3c_branch2b <- res3c_branch2b
I0105 22:16:17.567062 30517 net.cpp:405] scale3c_branch2b -> res3c_branch2b (in-place)
I0105 22:16:17.567101 30517 layer_factory.hpp:77] Creating layer scale3c_branch2b
I0105 22:16:17.567209 30517 net.cpp:150] Setting up scale3c_branch2b
I0105 22:16:17.567219 30517 net.cpp:157] Top shape: 1 128 75 125 (1200000)
I0105 22:16:17.567226 30517 net.cpp:165] Memory required for data: 1792800084
I0105 22:16:17.567235 30517 layer_factory.hpp:77] Creating layer res3c_branch2b_relu
I0105 22:16:17.567245 30517 net.cpp:100] Creating Layer res3c_branch2b_relu
I0105 22:16:17.567251 30517 net.cpp:444] res3c_branch2b_relu <- res3c_branch2b
I0105 22:16:17.567260 30517 net.cpp:405] res3c_branch2b_relu -> res3c_branch2b (in-place)
I0105 22:16:17.567409 30517 net.cpp:150] Setting up res3c_branch2b_relu
I0105 22:16:17.567422 30517 net.cpp:157] Top shape: 1 128 75 125 (1200000)
I0105 22:16:17.567428 30517 net.cpp:165] Memory required for data: 1797600084
I0105 22:16:17.567435 30517 layer_factory.hpp:77] Creating layer res3c_branch2c
I0105 22:16:17.567447 30517 net.cpp:100] Creating Layer res3c_branch2c
I0105 22:16:17.567456 30517 net.cpp:444] res3c_branch2c <- res3c_branch2b
I0105 22:16:17.567466 30517 net.cpp:418] res3c_branch2c -> res3c_branch2c
I0105 22:16:17.568933 30517 net.cpp:150] Setting up res3c_branch2c
I0105 22:16:17.568953 30517 net.cpp:157] Top shape: 1 512 75 125 (4800000)
I0105 22:16:17.568962 30517 net.cpp:165] Memory required for data: 1816800084
I0105 22:16:17.568971 30517 layer_factory.hpp:77] Creating layer bn3c_branch2c
I0105 22:16:17.568982 30517 net.cpp:100] Creating Layer bn3c_branch2c
I0105 22:16:17.568990 30517 net.cpp:444] bn3c_branch2c <- res3c_branch2c
I0105 22:16:17.569000 30517 net.cpp:405] bn3c_branch2c -> res3c_branch2c (in-place)
I0105 22:16:17.569167 30517 net.cpp:150] Setting up bn3c_branch2c
I0105 22:16:17.569178 30517 net.cpp:157] Top shape: 1 512 75 125 (4800000)
I0105 22:16:17.569185 30517 net.cpp:165] Memory required for data: 1836000084
I0105 22:16:17.569195 30517 layer_factory.hpp:77] Creating layer scale3c_branch2c
I0105 22:16:17.569205 30517 net.cpp:100] Creating Layer scale3c_branch2c
I0105 22:16:17.569212 30517 net.cpp:444] scale3c_branch2c <- res3c_branch2c
I0105 22:16:17.569223 30517 net.cpp:405] scale3c_branch2c -> res3c_branch2c (in-place)
I0105 22:16:17.569258 30517 layer_factory.hpp:77] Creating layer scale3c_branch2c
I0105 22:16:17.569371 30517 net.cpp:150] Setting up scale3c_branch2c
I0105 22:16:17.569383 30517 net.cpp:157] Top shape: 1 512 75 125 (4800000)
I0105 22:16:17.569391 30517 net.cpp:165] Memory required for data: 1855200084
I0105 22:16:17.569399 30517 layer_factory.hpp:77] Creating layer res3c
I0105 22:16:17.569408 30517 net.cpp:100] Creating Layer res3c
I0105 22:16:17.569416 30517 net.cpp:444] res3c <- res3b_res3b_relu_0_split_1
I0105 22:16:17.569424 30517 net.cpp:444] res3c <- res3c_branch2c
I0105 22:16:17.569434 30517 net.cpp:418] res3c -> res3c
I0105 22:16:17.569460 30517 net.cpp:150] Setting up res3c
I0105 22:16:17.569471 30517 net.cpp:157] Top shape: 1 512 75 125 (4800000)
I0105 22:16:17.569478 30517 net.cpp:165] Memory required for data: 1874400084
I0105 22:16:17.569485 30517 layer_factory.hpp:77] Creating layer res3c_relu
I0105 22:16:17.569494 30517 net.cpp:100] Creating Layer res3c_relu
I0105 22:16:17.569501 30517 net.cpp:444] res3c_relu <- res3c
I0105 22:16:17.569509 30517 net.cpp:405] res3c_relu -> res3c (in-place)
I0105 22:16:17.569655 30517 net.cpp:150] Setting up res3c_relu
I0105 22:16:17.569667 30517 net.cpp:157] Top shape: 1 512 75 125 (4800000)
I0105 22:16:17.569674 30517 net.cpp:165] Memory required for data: 1893600084
I0105 22:16:17.569681 30517 layer_factory.hpp:77] Creating layer res3c_res3c_relu_0_split
I0105 22:16:17.569695 30517 net.cpp:100] Creating Layer res3c_res3c_relu_0_split
I0105 22:16:17.569703 30517 net.cpp:444] res3c_res3c_relu_0_split <- res3c
I0105 22:16:17.569712 30517 net.cpp:418] res3c_res3c_relu_0_split -> res3c_res3c_relu_0_split_0
I0105 22:16:17.569723 30517 net.cpp:418] res3c_res3c_relu_0_split -> res3c_res3c_relu_0_split_1
I0105 22:16:17.569763 30517 net.cpp:150] Setting up res3c_res3c_relu_0_split
I0105 22:16:17.569774 30517 net.cpp:157] Top shape: 1 512 75 125 (4800000)
I0105 22:16:17.569782 30517 net.cpp:157] Top shape: 1 512 75 125 (4800000)
I0105 22:16:17.569788 30517 net.cpp:165] Memory required for data: 1932000084
I0105 22:16:17.569795 30517 layer_factory.hpp:77] Creating layer res3d_branch2a
I0105 22:16:17.569806 30517 net.cpp:100] Creating Layer res3d_branch2a
I0105 22:16:17.569814 30517 net.cpp:444] res3d_branch2a <- res3c_res3c_relu_0_split_0
I0105 22:16:17.569823 30517 net.cpp:418] res3d_branch2a -> res3d_branch2a
I0105 22:16:17.570786 30517 net.cpp:150] Setting up res3d_branch2a
I0105 22:16:17.570807 30517 net.cpp:157] Top shape: 1 128 75 125 (1200000)
I0105 22:16:17.570816 30517 net.cpp:165] Memory required for data: 1936800084
I0105 22:16:17.570825 30517 layer_factory.hpp:77] Creating layer bn3d_branch2a
I0105 22:16:17.570835 30517 net.cpp:100] Creating Layer bn3d_branch2a
I0105 22:16:17.570843 30517 net.cpp:444] bn3d_branch2a <- res3d_branch2a
I0105 22:16:17.570852 30517 net.cpp:405] bn3d_branch2a -> res3d_branch2a (in-place)
I0105 22:16:17.571018 30517 net.cpp:150] Setting up bn3d_branch2a
I0105 22:16:17.571029 30517 net.cpp:157] Top shape: 1 128 75 125 (1200000)
I0105 22:16:17.571036 30517 net.cpp:165] Memory required for data: 1941600084
I0105 22:16:17.571053 30517 layer_factory.hpp:77] Creating layer scale3d_branch2a
I0105 22:16:17.571063 30517 net.cpp:100] Creating Layer scale3d_branch2a
I0105 22:16:17.571071 30517 net.cpp:444] scale3d_branch2a <- res3d_branch2a
I0105 22:16:17.571080 30517 net.cpp:405] scale3d_branch2a -> res3d_branch2a (in-place)
I0105 22:16:17.571120 30517 layer_factory.hpp:77] Creating layer scale3d_branch2a
I0105 22:16:17.571226 30517 net.cpp:150] Setting up scale3d_branch2a
I0105 22:16:17.571238 30517 net.cpp:157] Top shape: 1 128 75 125 (1200000)
I0105 22:16:17.571244 30517 net.cpp:165] Memory required for data: 1946400084
I0105 22:16:17.571254 30517 layer_factory.hpp:77] Creating layer res3d_branch2a_relu
I0105 22:16:17.571264 30517 net.cpp:100] Creating Layer res3d_branch2a_relu
I0105 22:16:17.571271 30517 net.cpp:444] res3d_branch2a_relu <- res3d_branch2a
I0105 22:16:17.571280 30517 net.cpp:405] res3d_branch2a_relu -> res3d_branch2a (in-place)
I0105 22:16:17.571422 30517 net.cpp:150] Setting up res3d_branch2a_relu
I0105 22:16:17.571435 30517 net.cpp:157] Top shape: 1 128 75 125 (1200000)
I0105 22:16:17.571442 30517 net.cpp:165] Memory required for data: 1951200084
I0105 22:16:17.571449 30517 layer_factory.hpp:77] Creating layer res3d_branch2b
I0105 22:16:17.571461 30517 net.cpp:100] Creating Layer res3d_branch2b
I0105 22:16:17.571470 30517 net.cpp:444] res3d_branch2b <- res3d_branch2a
I0105 22:16:17.571478 30517 net.cpp:418] res3d_branch2b -> res3d_branch2b
I0105 22:16:17.572695 30517 net.cpp:150] Setting up res3d_branch2b
I0105 22:16:17.572712 30517 net.cpp:157] Top shape: 1 128 75 125 (1200000)
I0105 22:16:17.572721 30517 net.cpp:165] Memory required for data: 1956000084
I0105 22:16:17.572731 30517 layer_factory.hpp:77] Creating layer bn3d_branch2b
I0105 22:16:17.572741 30517 net.cpp:100] Creating Layer bn3d_branch2b
I0105 22:16:17.572749 30517 net.cpp:444] bn3d_branch2b <- res3d_branch2b
I0105 22:16:17.572758 30517 net.cpp:405] bn3d_branch2b -> res3d_branch2b (in-place)
I0105 22:16:17.572922 30517 net.cpp:150] Setting up bn3d_branch2b
I0105 22:16:17.572934 30517 net.cpp:157] Top shape: 1 128 75 125 (1200000)
I0105 22:16:17.572942 30517 net.cpp:165] Memory required for data: 1960800084
I0105 22:16:17.572952 30517 layer_factory.hpp:77] Creating layer scale3d_branch2b
I0105 22:16:17.572960 30517 net.cpp:100] Creating Layer scale3d_branch2b
I0105 22:16:17.572971 30517 net.cpp:444] scale3d_branch2b <- res3d_branch2b
I0105 22:16:17.572983 30517 net.cpp:405] scale3d_branch2b -> res3d_branch2b (in-place)
I0105 22:16:17.573020 30517 layer_factory.hpp:77] Creating layer scale3d_branch2b
I0105 22:16:17.573128 30517 net.cpp:150] Setting up scale3d_branch2b
I0105 22:16:17.573139 30517 net.cpp:157] Top shape: 1 128 75 125 (1200000)
I0105 22:16:17.573146 30517 net.cpp:165] Memory required for data: 1965600084
I0105 22:16:17.573155 30517 layer_factory.hpp:77] Creating layer res3d_branch2b_relu
I0105 22:16:17.573164 30517 net.cpp:100] Creating Layer res3d_branch2b_relu
I0105 22:16:17.573171 30517 net.cpp:444] res3d_branch2b_relu <- res3d_branch2b
I0105 22:16:17.573179 30517 net.cpp:405] res3d_branch2b_relu -> res3d_branch2b (in-place)
I0105 22:16:17.573616 30517 net.cpp:150] Setting up res3d_branch2b_relu
I0105 22:16:17.573632 30517 net.cpp:157] Top shape: 1 128 75 125 (1200000)
I0105 22:16:17.573639 30517 net.cpp:165] Memory required for data: 1970400084
I0105 22:16:17.573647 30517 layer_factory.hpp:77] Creating layer res3d_branch2c
I0105 22:16:17.573658 30517 net.cpp:100] Creating Layer res3d_branch2c
I0105 22:16:17.573667 30517 net.cpp:444] res3d_branch2c <- res3d_branch2b
I0105 22:16:17.573676 30517 net.cpp:418] res3d_branch2c -> res3d_branch2c
I0105 22:16:17.574645 30517 net.cpp:150] Setting up res3d_branch2c
I0105 22:16:17.574662 30517 net.cpp:157] Top shape: 1 512 75 125 (4800000)
I0105 22:16:17.574671 30517 net.cpp:165] Memory required for data: 1989600084
I0105 22:16:17.574679 30517 layer_factory.hpp:77] Creating layer bn3d_branch2c
I0105 22:16:17.574689 30517 net.cpp:100] Creating Layer bn3d_branch2c
I0105 22:16:17.574697 30517 net.cpp:444] bn3d_branch2c <- res3d_branch2c
I0105 22:16:17.574707 30517 net.cpp:405] bn3d_branch2c -> res3d_branch2c (in-place)
I0105 22:16:17.574877 30517 net.cpp:150] Setting up bn3d_branch2c
I0105 22:16:17.574888 30517 net.cpp:157] Top shape: 1 512 75 125 (4800000)
I0105 22:16:17.574895 30517 net.cpp:165] Memory required for data: 2008800084
I0105 22:16:17.574905 30517 layer_factory.hpp:77] Creating layer scale3d_branch2c
I0105 22:16:17.574914 30517 net.cpp:100] Creating Layer scale3d_branch2c
I0105 22:16:17.574923 30517 net.cpp:444] scale3d_branch2c <- res3d_branch2c
I0105 22:16:17.574931 30517 net.cpp:405] scale3d_branch2c -> res3d_branch2c (in-place)
I0105 22:16:17.574980 30517 layer_factory.hpp:77] Creating layer scale3d_branch2c
I0105 22:16:17.575119 30517 net.cpp:150] Setting up scale3d_branch2c
I0105 22:16:17.575130 30517 net.cpp:157] Top shape: 1 512 75 125 (4800000)
I0105 22:16:17.575137 30517 net.cpp:165] Memory required for data: 2028000084
I0105 22:16:17.575146 30517 layer_factory.hpp:77] Creating layer res3d
I0105 22:16:17.575168 30517 net.cpp:100] Creating Layer res3d
I0105 22:16:17.575176 30517 net.cpp:444] res3d <- res3c_res3c_relu_0_split_1
I0105 22:16:17.575184 30517 net.cpp:444] res3d <- res3d_branch2c
I0105 22:16:17.575193 30517 net.cpp:418] res3d -> res3d
I0105 22:16:17.575220 30517 net.cpp:150] Setting up res3d
I0105 22:16:17.575230 30517 net.cpp:157] Top shape: 1 512 75 125 (4800000)
I0105 22:16:17.575237 30517 net.cpp:165] Memory required for data: 2047200084
I0105 22:16:17.575244 30517 layer_factory.hpp:77] Creating layer res3d_relu
I0105 22:16:17.575253 30517 net.cpp:100] Creating Layer res3d_relu
I0105 22:16:17.575260 30517 net.cpp:444] res3d_relu <- res3d
I0105 22:16:17.575269 30517 net.cpp:405] res3d_relu -> res3d (in-place)
I0105 22:16:17.575414 30517 net.cpp:150] Setting up res3d_relu
I0105 22:16:17.575426 30517 net.cpp:157] Top shape: 1 512 75 125 (4800000)
I0105 22:16:17.575434 30517 net.cpp:165] Memory required for data: 2066400084
I0105 22:16:17.575441 30517 layer_factory.hpp:77] Creating layer res3d_res3d_relu_0_split
I0105 22:16:17.575451 30517 net.cpp:100] Creating Layer res3d_res3d_relu_0_split
I0105 22:16:17.575459 30517 net.cpp:444] res3d_res3d_relu_0_split <- res3d
I0105 22:16:17.575469 30517 net.cpp:418] res3d_res3d_relu_0_split -> res3d_res3d_relu_0_split_0
I0105 22:16:17.575482 30517 net.cpp:418] res3d_res3d_relu_0_split -> res3d_res3d_relu_0_split_1
I0105 22:16:17.575523 30517 net.cpp:150] Setting up res3d_res3d_relu_0_split
I0105 22:16:17.575533 30517 net.cpp:157] Top shape: 1 512 75 125 (4800000)
I0105 22:16:17.575541 30517 net.cpp:157] Top shape: 1 512 75 125 (4800000)
I0105 22:16:17.575548 30517 net.cpp:165] Memory required for data: 2104800084
I0105 22:16:17.575556 30517 layer_factory.hpp:77] Creating layer res4a_branch1
I0105 22:16:17.575567 30517 net.cpp:100] Creating Layer res4a_branch1
I0105 22:16:17.575573 30517 net.cpp:444] res4a_branch1 <- res3d_res3d_relu_0_split_0
I0105 22:16:17.575583 30517 net.cpp:418] res4a_branch1 -> res4a_branch1
I0105 22:16:17.577253 30517 net.cpp:150] Setting up res4a_branch1
I0105 22:16:17.577275 30517 net.cpp:157] Top shape: 1 1024 38 63 (2451456)
I0105 22:16:17.577283 30517 net.cpp:165] Memory required for data: 2114605908
I0105 22:16:17.577293 30517 layer_factory.hpp:77] Creating layer bn4a_branch1
I0105 22:16:17.577303 30517 net.cpp:100] Creating Layer bn4a_branch1
I0105 22:16:17.577311 30517 net.cpp:444] bn4a_branch1 <- res4a_branch1
I0105 22:16:17.577322 30517 net.cpp:405] bn4a_branch1 -> res4a_branch1 (in-place)
I0105 22:16:17.577499 30517 net.cpp:150] Setting up bn4a_branch1
I0105 22:16:17.577510 30517 net.cpp:157] Top shape: 1 1024 38 63 (2451456)
I0105 22:16:17.577517 30517 net.cpp:165] Memory required for data: 2124411732
I0105 22:16:17.577527 30517 layer_factory.hpp:77] Creating layer scale4a_branch1
I0105 22:16:17.577536 30517 net.cpp:100] Creating Layer scale4a_branch1
I0105 22:16:17.577544 30517 net.cpp:444] scale4a_branch1 <- res4a_branch1
I0105 22:16:17.577553 30517 net.cpp:405] scale4a_branch1 -> res4a_branch1 (in-place)
I0105 22:16:17.577589 30517 layer_factory.hpp:77] Creating layer scale4a_branch1
I0105 22:16:17.577694 30517 net.cpp:150] Setting up scale4a_branch1
I0105 22:16:17.577706 30517 net.cpp:157] Top shape: 1 1024 38 63 (2451456)
I0105 22:16:17.577713 30517 net.cpp:165] Memory required for data: 2134217556
I0105 22:16:17.577721 30517 layer_factory.hpp:77] Creating layer res4a_branch2a
I0105 22:16:17.577733 30517 net.cpp:100] Creating Layer res4a_branch2a
I0105 22:16:17.577740 30517 net.cpp:444] res4a_branch2a <- res3d_res3d_relu_0_split_1
I0105 22:16:17.577749 30517 net.cpp:418] res4a_branch2a -> res4a_branch2a
I0105 22:16:17.579386 30517 net.cpp:150] Setting up res4a_branch2a
I0105 22:16:17.579411 30517 net.cpp:157] Top shape: 1 256 38 63 (612864)
I0105 22:16:17.579421 30517 net.cpp:165] Memory required for data: 2136669012
I0105 22:16:17.579429 30517 layer_factory.hpp:77] Creating layer bn4a_branch2a
I0105 22:16:17.579442 30517 net.cpp:100] Creating Layer bn4a_branch2a
I0105 22:16:17.579449 30517 net.cpp:444] bn4a_branch2a <- res4a_branch2a
I0105 22:16:17.579458 30517 net.cpp:405] bn4a_branch2a -> res4a_branch2a (in-place)
I0105 22:16:17.579625 30517 net.cpp:150] Setting up bn4a_branch2a
I0105 22:16:17.579637 30517 net.cpp:157] Top shape: 1 256 38 63 (612864)
I0105 22:16:17.579643 30517 net.cpp:165] Memory required for data: 2139120468
I0105 22:16:17.579653 30517 layer_factory.hpp:77] Creating layer scale4a_branch2a
I0105 22:16:17.579663 30517 net.cpp:100] Creating Layer scale4a_branch2a
I0105 22:16:17.579670 30517 net.cpp:444] scale4a_branch2a <- res4a_branch2a
I0105 22:16:17.579679 30517 net.cpp:405] scale4a_branch2a -> res4a_branch2a (in-place)
I0105 22:16:17.579732 30517 layer_factory.hpp:77] Creating layer scale4a_branch2a
I0105 22:16:17.579833 30517 net.cpp:150] Setting up scale4a_branch2a
I0105 22:16:17.579844 30517 net.cpp:157] Top shape: 1 256 38 63 (612864)
I0105 22:16:17.579851 30517 net.cpp:165] Memory required for data: 2141571924
I0105 22:16:17.579870 30517 layer_factory.hpp:77] Creating layer res4a_branch2a_relu
I0105 22:16:17.579880 30517 net.cpp:100] Creating Layer res4a_branch2a_relu
I0105 22:16:17.579887 30517 net.cpp:444] res4a_branch2a_relu <- res4a_branch2a
I0105 22:16:17.579895 30517 net.cpp:405] res4a_branch2a_relu -> res4a_branch2a (in-place)
I0105 22:16:17.580044 30517 net.cpp:150] Setting up res4a_branch2a_relu
I0105 22:16:17.580060 30517 net.cpp:157] Top shape: 1 256 38 63 (612864)
I0105 22:16:17.580067 30517 net.cpp:165] Memory required for data: 2144023380
I0105 22:16:17.580075 30517 layer_factory.hpp:77] Creating layer res4a_branch2b
I0105 22:16:17.580086 30517 net.cpp:100] Creating Layer res4a_branch2b
I0105 22:16:17.580093 30517 net.cpp:444] res4a_branch2b <- res4a_branch2a
I0105 22:16:17.580103 30517 net.cpp:418] res4a_branch2b -> res4a_branch2b
I0105 22:16:17.582336 30517 net.cpp:150] Setting up res4a_branch2b
I0105 22:16:17.582372 30517 net.cpp:157] Top shape: 1 256 38 63 (612864)
I0105 22:16:17.582379 30517 net.cpp:165] Memory required for data: 2146474836
I0105 22:16:17.582391 30517 layer_factory.hpp:77] Creating layer bn4a_branch2b
I0105 22:16:17.582404 30517 net.cpp:100] Creating Layer bn4a_branch2b
I0105 22:16:17.582413 30517 net.cpp:444] bn4a_branch2b <- res4a_branch2b
I0105 22:16:17.582422 30517 net.cpp:405] bn4a_branch2b -> res4a_branch2b (in-place)
I0105 22:16:17.582602 30517 net.cpp:150] Setting up bn4a_branch2b
I0105 22:16:17.582614 30517 net.cpp:157] Top shape: 1 256 38 63 (612864)
I0105 22:16:17.582621 30517 net.cpp:165] Memory required for data: 2148926292
I0105 22:16:17.582631 30517 layer_factory.hpp:77] Creating layer scale4a_branch2b
I0105 22:16:17.582641 30517 net.cpp:100] Creating Layer scale4a_branch2b
I0105 22:16:17.582648 30517 net.cpp:444] scale4a_branch2b <- res4a_branch2b
I0105 22:16:17.582659 30517 net.cpp:405] scale4a_branch2b -> res4a_branch2b (in-place)
I0105 22:16:17.582700 30517 layer_factory.hpp:77] Creating layer scale4a_branch2b
I0105 22:16:17.582800 30517 net.cpp:150] Setting up scale4a_branch2b
I0105 22:16:17.582825 30517 net.cpp:157] Top shape: 1 256 38 63 (612864)
I0105 22:16:17.582844 30517 net.cpp:165] Memory required for data: 2151377748
I0105 22:16:17.582852 30517 layer_factory.hpp:77] Creating layer res4a_branch2b_relu
I0105 22:16:17.582875 30517 net.cpp:100] Creating Layer res4a_branch2b_relu
I0105 22:16:17.582895 30517 net.cpp:444] res4a_branch2b_relu <- res4a_branch2b
I0105 22:16:17.582916 30517 net.cpp:405] res4a_branch2b_relu -> res4a_branch2b (in-place)
I0105 22:16:17.583111 30517 net.cpp:150] Setting up res4a_branch2b_relu
I0105 22:16:17.583123 30517 net.cpp:157] Top shape: 1 256 38 63 (612864)
I0105 22:16:17.583129 30517 net.cpp:165] Memory required for data: 2153829204
I0105 22:16:17.583150 30517 layer_factory.hpp:77] Creating layer res4a_branch2c
I0105 22:16:17.583161 30517 net.cpp:100] Creating Layer res4a_branch2c
I0105 22:16:17.583183 30517 net.cpp:444] res4a_branch2c <- res4a_branch2b
I0105 22:16:17.583192 30517 net.cpp:418] res4a_branch2c -> res4a_branch2c
I0105 22:16:17.584797 30517 net.cpp:150] Setting up res4a_branch2c
I0105 22:16:17.584820 30517 net.cpp:157] Top shape: 1 1024 38 63 (2451456)
I0105 22:16:17.584841 30517 net.cpp:165] Memory required for data: 2163635028
I0105 22:16:17.584852 30517 layer_factory.hpp:77] Creating layer bn4a_branch2c
I0105 22:16:17.584877 30517 net.cpp:100] Creating Layer bn4a_branch2c
I0105 22:16:17.584885 30517 net.cpp:444] bn4a_branch2c <- res4a_branch2c
I0105 22:16:17.584894 30517 net.cpp:405] bn4a_branch2c -> res4a_branch2c (in-place)
I0105 22:16:17.585091 30517 net.cpp:150] Setting up bn4a_branch2c
I0105 22:16:17.585103 30517 net.cpp:157] Top shape: 1 1024 38 63 (2451456)
I0105 22:16:17.585109 30517 net.cpp:165] Memory required for data: 2173440852
I0105 22:16:17.585119 30517 layer_factory.hpp:77] Creating layer scale4a_branch2c
I0105 22:16:17.585129 30517 net.cpp:100] Creating Layer scale4a_branch2c
I0105 22:16:17.585150 30517 net.cpp:444] scale4a_branch2c <- res4a_branch2c
I0105 22:16:17.585160 30517 net.cpp:405] scale4a_branch2c -> res4a_branch2c (in-place)
I0105 22:16:17.585198 30517 layer_factory.hpp:77] Creating layer scale4a_branch2c
I0105 22:16:17.585363 30517 net.cpp:150] Setting up scale4a_branch2c
I0105 22:16:17.585391 30517 net.cpp:157] Top shape: 1 1024 38 63 (2451456)
I0105 22:16:17.585410 30517 net.cpp:165] Memory required for data: 2183246676
I0105 22:16:17.585419 30517 layer_factory.hpp:77] Creating layer res4a
I0105 22:16:17.585453 30517 net.cpp:100] Creating Layer res4a
I0105 22:16:17.585474 30517 net.cpp:444] res4a <- res4a_branch1
I0105 22:16:17.585481 30517 net.cpp:444] res4a <- res4a_branch2c
I0105 22:16:17.585490 30517 net.cpp:418] res4a -> res4a
I0105 22:16:17.585517 30517 net.cpp:150] Setting up res4a
I0105 22:16:17.585528 30517 net.cpp:157] Top shape: 1 1024 38 63 (2451456)
I0105 22:16:17.585536 30517 net.cpp:165] Memory required for data: 2193052500
I0105 22:16:17.585542 30517 layer_factory.hpp:77] Creating layer res4a_relu
I0105 22:16:17.585551 30517 net.cpp:100] Creating Layer res4a_relu
I0105 22:16:17.585559 30517 net.cpp:444] res4a_relu <- res4a
I0105 22:16:17.585568 30517 net.cpp:405] res4a_relu -> res4a (in-place)
I0105 22:16:17.585743 30517 net.cpp:150] Setting up res4a_relu
I0105 22:16:17.585757 30517 net.cpp:157] Top shape: 1 1024 38 63 (2451456)
I0105 22:16:17.585764 30517 net.cpp:165] Memory required for data: 2202858324
I0105 22:16:17.585772 30517 layer_factory.hpp:77] Creating layer res4a_res4a_relu_0_split
I0105 22:16:17.585780 30517 net.cpp:100] Creating Layer res4a_res4a_relu_0_split
I0105 22:16:17.585788 30517 net.cpp:444] res4a_res4a_relu_0_split <- res4a
I0105 22:16:17.585798 30517 net.cpp:418] res4a_res4a_relu_0_split -> res4a_res4a_relu_0_split_0
I0105 22:16:17.585808 30517 net.cpp:418] res4a_res4a_relu_0_split -> res4a_res4a_relu_0_split_1
I0105 22:16:17.585880 30517 net.cpp:150] Setting up res4a_res4a_relu_0_split
I0105 22:16:17.585891 30517 net.cpp:157] Top shape: 1 1024 38 63 (2451456)
I0105 22:16:17.585899 30517 net.cpp:157] Top shape: 1 1024 38 63 (2451456)
I0105 22:16:17.585906 30517 net.cpp:165] Memory required for data: 2222469972
I0105 22:16:17.585913 30517 layer_factory.hpp:77] Creating layer res4b_branch2a
I0105 22:16:17.585927 30517 net.cpp:100] Creating Layer res4b_branch2a
I0105 22:16:17.585935 30517 net.cpp:444] res4b_branch2a <- res4a_res4a_relu_0_split_0
I0105 22:16:17.585944 30517 net.cpp:418] res4b_branch2a -> res4b_branch2a
I0105 22:16:17.587584 30517 net.cpp:150] Setting up res4b_branch2a
I0105 22:16:17.587607 30517 net.cpp:157] Top shape: 1 256 38 63 (612864)
I0105 22:16:17.587630 30517 net.cpp:165] Memory required for data: 2224921428
I0105 22:16:17.587652 30517 layer_factory.hpp:77] Creating layer bn4b_branch2a
I0105 22:16:17.587679 30517 net.cpp:100] Creating Layer bn4b_branch2a
I0105 22:16:17.587697 30517 net.cpp:444] bn4b_branch2a <- res4b_branch2a
I0105 22:16:17.587707 30517 net.cpp:405] bn4b_branch2a -> res4b_branch2a (in-place)
I0105 22:16:17.587949 30517 net.cpp:150] Setting up bn4b_branch2a
I0105 22:16:17.587960 30517 net.cpp:157] Top shape: 1 256 38 63 (612864)
I0105 22:16:17.587965 30517 net.cpp:165] Memory required for data: 2227372884
I0105 22:16:17.587975 30517 layer_factory.hpp:77] Creating layer scale4b_branch2a
I0105 22:16:17.587983 30517 net.cpp:100] Creating Layer scale4b_branch2a
I0105 22:16:17.587996 30517 net.cpp:444] scale4b_branch2a <- res4b_branch2a
I0105 22:16:17.588021 30517 net.cpp:405] scale4b_branch2a -> res4b_branch2a (in-place)
I0105 22:16:17.588125 30517 layer_factory.hpp:77] Creating layer scale4b_branch2a
I0105 22:16:17.588279 30517 net.cpp:150] Setting up scale4b_branch2a
I0105 22:16:17.588290 30517 net.cpp:157] Top shape: 1 256 38 63 (612864)
I0105 22:16:17.588297 30517 net.cpp:165] Memory required for data: 2229824340
I0105 22:16:17.588317 30517 layer_factory.hpp:77] Creating layer res4b_branch2a_relu
I0105 22:16:17.588338 30517 net.cpp:100] Creating Layer res4b_branch2a_relu
I0105 22:16:17.588346 30517 net.cpp:444] res4b_branch2a_relu <- res4b_branch2a
I0105 22:16:17.588353 30517 net.cpp:405] res4b_branch2a_relu -> res4b_branch2a (in-place)
I0105 22:16:17.588528 30517 net.cpp:150] Setting up res4b_branch2a_relu
I0105 22:16:17.588542 30517 net.cpp:157] Top shape: 1 256 38 63 (612864)
I0105 22:16:17.588549 30517 net.cpp:165] Memory required for data: 2232275796
I0105 22:16:17.588557 30517 layer_factory.hpp:77] Creating layer res4b_branch2b
I0105 22:16:17.588567 30517 net.cpp:100] Creating Layer res4b_branch2b
I0105 22:16:17.588578 30517 net.cpp:444] res4b_branch2b <- res4b_branch2a
I0105 22:16:17.588588 30517 net.cpp:418] res4b_branch2b -> res4b_branch2b
I0105 22:16:17.590848 30517 net.cpp:150] Setting up res4b_branch2b
I0105 22:16:17.590890 30517 net.cpp:157] Top shape: 1 256 38 63 (612864)
I0105 22:16:17.590899 30517 net.cpp:165] Memory required for data: 2234727252
I0105 22:16:17.590910 30517 layer_factory.hpp:77] Creating layer bn4b_branch2b
I0105 22:16:17.590924 30517 net.cpp:100] Creating Layer bn4b_branch2b
I0105 22:16:17.590934 30517 net.cpp:444] bn4b_branch2b <- res4b_branch2b
I0105 22:16:17.590956 30517 net.cpp:405] bn4b_branch2b -> res4b_branch2b (in-place)
I0105 22:16:17.591182 30517 net.cpp:150] Setting up bn4b_branch2b
I0105 22:16:17.591193 30517 net.cpp:157] Top shape: 1 256 38 63 (612864)
I0105 22:16:17.591199 30517 net.cpp:165] Memory required for data: 2237178708
I0105 22:16:17.591223 30517 layer_factory.hpp:77] Creating layer scale4b_branch2b
I0105 22:16:17.591235 30517 net.cpp:100] Creating Layer scale4b_branch2b
I0105 22:16:17.591256 30517 net.cpp:444] scale4b_branch2b <- res4b_branch2b
I0105 22:16:17.591265 30517 net.cpp:405] scale4b_branch2b -> res4b_branch2b (in-place)
I0105 22:16:17.591308 30517 layer_factory.hpp:77] Creating layer scale4b_branch2b
I0105 22:16:17.591454 30517 net.cpp:150] Setting up scale4b_branch2b
I0105 22:16:17.591464 30517 net.cpp:157] Top shape: 1 256 38 63 (612864)
I0105 22:16:17.591470 30517 net.cpp:165] Memory required for data: 2239630164
I0105 22:16:17.591493 30517 layer_factory.hpp:77] Creating layer res4b_branch2b_relu
I0105 22:16:17.591503 30517 net.cpp:100] Creating Layer res4b_branch2b_relu
I0105 22:16:17.591511 30517 net.cpp:444] res4b_branch2b_relu <- res4b_branch2b
I0105 22:16:17.591533 30517 net.cpp:405] res4b_branch2b_relu -> res4b_branch2b (in-place)
I0105 22:16:17.592025 30517 net.cpp:150] Setting up res4b_branch2b_relu
I0105 22:16:17.592041 30517 net.cpp:157] Top shape: 1 256 38 63 (612864)
I0105 22:16:17.592047 30517 net.cpp:165] Memory required for data: 2242081620
I0105 22:16:17.592068 30517 layer_factory.hpp:77] Creating layer res4b_branch2c
I0105 22:16:17.592080 30517 net.cpp:100] Creating Layer res4b_branch2c
I0105 22:16:17.592087 30517 net.cpp:444] res4b_branch2c <- res4b_branch2b
I0105 22:16:17.592111 30517 net.cpp:418] res4b_branch2c -> res4b_branch2c
I0105 22:16:17.593137 30517 net.cpp:150] Setting up res4b_branch2c
I0105 22:16:17.593154 30517 net.cpp:157] Top shape: 1 1024 38 63 (2451456)
I0105 22:16:17.593173 30517 net.cpp:165] Memory required for data: 2251887444
I0105 22:16:17.593183 30517 layer_factory.hpp:77] Creating layer bn4b_branch2c
I0105 22:16:17.593195 30517 net.cpp:100] Creating Layer bn4b_branch2c
I0105 22:16:17.593202 30517 net.cpp:444] bn4b_branch2c <- res4b_branch2c
I0105 22:16:17.593214 30517 net.cpp:405] bn4b_branch2c -> res4b_branch2c (in-place)
I0105 22:16:17.593456 30517 net.cpp:150] Setting up bn4b_branch2c
I0105 22:16:17.593467 30517 net.cpp:157] Top shape: 1 1024 38 63 (2451456)
I0105 22:16:17.593473 30517 net.cpp:165] Memory required for data: 2261693268
I0105 22:16:17.593497 30517 layer_factory.hpp:77] Creating layer scale4b_branch2c
I0105 22:16:17.593506 30517 net.cpp:100] Creating Layer scale4b_branch2c
I0105 22:16:17.593513 30517 net.cpp:444] scale4b_branch2c <- res4b_branch2c
I0105 22:16:17.593523 30517 net.cpp:405] scale4b_branch2c -> res4b_branch2c (in-place)
I0105 22:16:17.593574 30517 layer_factory.hpp:77] Creating layer scale4b_branch2c
I0105 22:16:17.593698 30517 net.cpp:150] Setting up scale4b_branch2c
I0105 22:16:17.593709 30517 net.cpp:157] Top shape: 1 1024 38 63 (2451456)
I0105 22:16:17.593716 30517 net.cpp:165] Memory required for data: 2271499092
I0105 22:16:17.593725 30517 layer_factory.hpp:77] Creating layer res4b
I0105 22:16:17.593747 30517 net.cpp:100] Creating Layer res4b
I0105 22:16:17.593755 30517 net.cpp:444] res4b <- res4a_res4a_relu_0_split_1
I0105 22:16:17.593765 30517 net.cpp:444] res4b <- res4b_branch2c
I0105 22:16:17.593775 30517 net.cpp:418] res4b -> res4b
I0105 22:16:17.593802 30517 net.cpp:150] Setting up res4b
I0105 22:16:17.593821 30517 net.cpp:157] Top shape: 1 1024 38 63 (2451456)
I0105 22:16:17.593827 30517 net.cpp:165] Memory required for data: 2281304916
I0105 22:16:17.593834 30517 layer_factory.hpp:77] Creating layer res4b_relu
I0105 22:16:17.593844 30517 net.cpp:100] Creating Layer res4b_relu
I0105 22:16:17.593852 30517 net.cpp:444] res4b_relu <- res4b
I0105 22:16:17.593860 30517 net.cpp:405] res4b_relu -> res4b (in-place)
I0105 22:16:17.594368 30517 net.cpp:150] Setting up res4b_relu
I0105 22:16:17.594386 30517 net.cpp:157] Top shape: 1 1024 38 63 (2451456)
I0105 22:16:17.594394 30517 net.cpp:165] Memory required for data: 2291110740
I0105 22:16:17.594403 30517 layer_factory.hpp:77] Creating layer res4b_res4b_relu_0_split
I0105 22:16:17.594411 30517 net.cpp:100] Creating Layer res4b_res4b_relu_0_split
I0105 22:16:17.594419 30517 net.cpp:444] res4b_res4b_relu_0_split <- res4b
I0105 22:16:17.594431 30517 net.cpp:418] res4b_res4b_relu_0_split -> res4b_res4b_relu_0_split_0
I0105 22:16:17.594444 30517 net.cpp:418] res4b_res4b_relu_0_split -> res4b_res4b_relu_0_split_1
I0105 22:16:17.594487 30517 net.cpp:150] Setting up res4b_res4b_relu_0_split
I0105 22:16:17.594498 30517 net.cpp:157] Top shape: 1 1024 38 63 (2451456)
I0105 22:16:17.594506 30517 net.cpp:157] Top shape: 1 1024 38 63 (2451456)
I0105 22:16:17.594513 30517 net.cpp:165] Memory required for data: 2310722388
I0105 22:16:17.594521 30517 layer_factory.hpp:77] Creating layer res4c_branch2a
I0105 22:16:17.594533 30517 net.cpp:100] Creating Layer res4c_branch2a
I0105 22:16:17.594542 30517 net.cpp:444] res4c_branch2a <- res4b_res4b_relu_0_split_0
I0105 22:16:17.594552 30517 net.cpp:418] res4c_branch2a -> res4c_branch2a
I0105 22:16:17.596184 30517 net.cpp:150] Setting up res4c_branch2a
I0105 22:16:17.596205 30517 net.cpp:157] Top shape: 1 256 38 63 (612864)
I0105 22:16:17.596215 30517 net.cpp:165] Memory required for data: 2313173844
I0105 22:16:17.596223 30517 layer_factory.hpp:77] Creating layer bn4c_branch2a
I0105 22:16:17.596235 30517 net.cpp:100] Creating Layer bn4c_branch2a
I0105 22:16:17.596242 30517 net.cpp:444] bn4c_branch2a <- res4c_branch2a
I0105 22:16:17.596251 30517 net.cpp:405] bn4c_branch2a -> res4c_branch2a (in-place)
I0105 22:16:17.596421 30517 net.cpp:150] Setting up bn4c_branch2a
I0105 22:16:17.596431 30517 net.cpp:157] Top shape: 1 256 38 63 (612864)
I0105 22:16:17.596438 30517 net.cpp:165] Memory required for data: 2315625300
I0105 22:16:17.596448 30517 layer_factory.hpp:77] Creating layer scale4c_branch2a
I0105 22:16:17.596459 30517 net.cpp:100] Creating Layer scale4c_branch2a
I0105 22:16:17.596467 30517 net.cpp:444] scale4c_branch2a <- res4c_branch2a
I0105 22:16:17.596474 30517 net.cpp:405] scale4c_branch2a -> res4c_branch2a (in-place)
I0105 22:16:17.596514 30517 layer_factory.hpp:77] Creating layer scale4c_branch2a
I0105 22:16:17.596618 30517 net.cpp:150] Setting up scale4c_branch2a
I0105 22:16:17.596629 30517 net.cpp:157] Top shape: 1 256 38 63 (612864)
I0105 22:16:17.596637 30517 net.cpp:165] Memory required for data: 2318076756
I0105 22:16:17.596645 30517 layer_factory.hpp:77] Creating layer res4c_branch2a_relu
I0105 22:16:17.596655 30517 net.cpp:100] Creating Layer res4c_branch2a_relu
I0105 22:16:17.596662 30517 net.cpp:444] res4c_branch2a_relu <- res4c_branch2a
I0105 22:16:17.596670 30517 net.cpp:405] res4c_branch2a_relu -> res4c_branch2a (in-place)
I0105 22:16:17.596822 30517 net.cpp:150] Setting up res4c_branch2a_relu
I0105 22:16:17.596833 30517 net.cpp:157] Top shape: 1 256 38 63 (612864)
I0105 22:16:17.596840 30517 net.cpp:165] Memory required for data: 2320528212
I0105 22:16:17.596848 30517 layer_factory.hpp:77] Creating layer res4c_branch2b
I0105 22:16:17.596858 30517 net.cpp:100] Creating Layer res4c_branch2b
I0105 22:16:17.596865 30517 net.cpp:444] res4c_branch2b <- res4c_branch2a
I0105 22:16:17.596875 30517 net.cpp:418] res4c_branch2b -> res4c_branch2b
I0105 22:16:17.599011 30517 net.cpp:150] Setting up res4c_branch2b
I0105 22:16:17.599038 30517 net.cpp:157] Top shape: 1 256 38 63 (612864)
I0105 22:16:17.599046 30517 net.cpp:165] Memory required for data: 2322979668
I0105 22:16:17.599062 30517 layer_factory.hpp:77] Creating layer bn4c_branch2b
I0105 22:16:17.599074 30517 net.cpp:100] Creating Layer bn4c_branch2b
I0105 22:16:17.599082 30517 net.cpp:444] bn4c_branch2b <- res4c_branch2b
I0105 22:16:17.599092 30517 net.cpp:405] bn4c_branch2b -> res4c_branch2b (in-place)
I0105 22:16:17.599274 30517 net.cpp:150] Setting up bn4c_branch2b
I0105 22:16:17.599285 30517 net.cpp:157] Top shape: 1 256 38 63 (612864)
I0105 22:16:17.599292 30517 net.cpp:165] Memory required for data: 2325431124
I0105 22:16:17.599300 30517 layer_factory.hpp:77] Creating layer scale4c_branch2b
I0105 22:16:17.599309 30517 net.cpp:100] Creating Layer scale4c_branch2b
I0105 22:16:17.599316 30517 net.cpp:444] scale4c_branch2b <- res4c_branch2b
I0105 22:16:17.599328 30517 net.cpp:405] scale4c_branch2b -> res4c_branch2b (in-place)
I0105 22:16:17.599369 30517 layer_factory.hpp:77] Creating layer scale4c_branch2b
I0105 22:16:17.599473 30517 net.cpp:150] Setting up scale4c_branch2b
I0105 22:16:17.599484 30517 net.cpp:157] Top shape: 1 256 38 63 (612864)
I0105 22:16:17.599490 30517 net.cpp:165] Memory required for data: 2327882580
I0105 22:16:17.599498 30517 layer_factory.hpp:77] Creating layer res4c_branch2b_relu
I0105 22:16:17.599508 30517 net.cpp:100] Creating Layer res4c_branch2b_relu
I0105 22:16:17.599515 30517 net.cpp:444] res4c_branch2b_relu <- res4c_branch2b
I0105 22:16:17.599524 30517 net.cpp:405] res4c_branch2b_relu -> res4c_branch2b (in-place)
I0105 22:16:17.599674 30517 net.cpp:150] Setting up res4c_branch2b_relu
I0105 22:16:17.599687 30517 net.cpp:157] Top shape: 1 256 38 63 (612864)
I0105 22:16:17.599694 30517 net.cpp:165] Memory required for data: 2330334036
I0105 22:16:17.599700 30517 layer_factory.hpp:77] Creating layer res4c_branch2c
I0105 22:16:17.599709 30517 net.cpp:100] Creating Layer res4c_branch2c
I0105 22:16:17.599716 30517 net.cpp:444] res4c_branch2c <- res4c_branch2b
I0105 22:16:17.599727 30517 net.cpp:418] res4c_branch2c -> res4c_branch2c
I0105 22:16:17.600767 30517 net.cpp:150] Setting up res4c_branch2c
I0105 22:16:17.600785 30517 net.cpp:157] Top shape: 1 1024 38 63 (2451456)
I0105 22:16:17.600791 30517 net.cpp:165] Memory required for data: 2340139860
I0105 22:16:17.600800 30517 layer_factory.hpp:77] Creating layer bn4c_branch2c
I0105 22:16:17.600808 30517 net.cpp:100] Creating Layer bn4c_branch2c
I0105 22:16:17.600816 30517 net.cpp:444] bn4c_branch2c <- res4c_branch2c
I0105 22:16:17.600826 30517 net.cpp:405] bn4c_branch2c -> res4c_branch2c (in-place)
I0105 22:16:17.601003 30517 net.cpp:150] Setting up bn4c_branch2c
I0105 22:16:17.601014 30517 net.cpp:157] Top shape: 1 1024 38 63 (2451456)
I0105 22:16:17.601020 30517 net.cpp:165] Memory required for data: 2349945684
I0105 22:16:17.601029 30517 layer_factory.hpp:77] Creating layer scale4c_branch2c
I0105 22:16:17.601037 30517 net.cpp:100] Creating Layer scale4c_branch2c
I0105 22:16:17.601044 30517 net.cpp:444] scale4c_branch2c <- res4c_branch2c
I0105 22:16:17.601053 30517 net.cpp:405] scale4c_branch2c -> res4c_branch2c (in-place)
I0105 22:16:17.601091 30517 layer_factory.hpp:77] Creating layer scale4c_branch2c
I0105 22:16:17.601199 30517 net.cpp:150] Setting up scale4c_branch2c
I0105 22:16:17.601210 30517 net.cpp:157] Top shape: 1 1024 38 63 (2451456)
I0105 22:16:17.601217 30517 net.cpp:165] Memory required for data: 2359751508
I0105 22:16:17.601224 30517 layer_factory.hpp:77] Creating layer res4c
I0105 22:16:17.601233 30517 net.cpp:100] Creating Layer res4c
I0105 22:16:17.601241 30517 net.cpp:444] res4c <- res4b_res4b_relu_0_split_1
I0105 22:16:17.601249 30517 net.cpp:444] res4c <- res4c_branch2c
I0105 22:16:17.601258 30517 net.cpp:418] res4c -> res4c
I0105 22:16:17.601286 30517 net.cpp:150] Setting up res4c
I0105 22:16:17.601296 30517 net.cpp:157] Top shape: 1 1024 38 63 (2451456)
I0105 22:16:17.601302 30517 net.cpp:165] Memory required for data: 2369557332
I0105 22:16:17.601308 30517 layer_factory.hpp:77] Creating layer res4c_relu
I0105 22:16:17.601315 30517 net.cpp:100] Creating Layer res4c_relu
I0105 22:16:17.601326 30517 net.cpp:444] res4c_relu <- res4c
I0105 22:16:17.601336 30517 net.cpp:405] res4c_relu -> res4c (in-place)
I0105 22:16:17.601490 30517 net.cpp:150] Setting up res4c_relu
I0105 22:16:17.601502 30517 net.cpp:157] Top shape: 1 1024 38 63 (2451456)
I0105 22:16:17.601510 30517 net.cpp:165] Memory required for data: 2379363156
I0105 22:16:17.601516 30517 layer_factory.hpp:77] Creating layer res4c_res4c_relu_0_split
I0105 22:16:17.601523 30517 net.cpp:100] Creating Layer res4c_res4c_relu_0_split
I0105 22:16:17.601531 30517 net.cpp:444] res4c_res4c_relu_0_split <- res4c
I0105 22:16:17.601539 30517 net.cpp:418] res4c_res4c_relu_0_split -> res4c_res4c_relu_0_split_0
I0105 22:16:17.601550 30517 net.cpp:418] res4c_res4c_relu_0_split -> res4c_res4c_relu_0_split_1
I0105 22:16:17.601591 30517 net.cpp:150] Setting up res4c_res4c_relu_0_split
I0105 22:16:17.601601 30517 net.cpp:157] Top shape: 1 1024 38 63 (2451456)
I0105 22:16:17.601609 30517 net.cpp:157] Top shape: 1 1024 38 63 (2451456)
I0105 22:16:17.601616 30517 net.cpp:165] Memory required for data: 2398974804
I0105 22:16:17.601624 30517 layer_factory.hpp:77] Creating layer res4d_branch2a
I0105 22:16:17.601634 30517 net.cpp:100] Creating Layer res4d_branch2a
I0105 22:16:17.601641 30517 net.cpp:444] res4d_branch2a <- res4c_res4c_relu_0_split_0
I0105 22:16:17.601651 30517 net.cpp:418] res4d_branch2a -> res4d_branch2a
I0105 22:16:17.603305 30517 net.cpp:150] Setting up res4d_branch2a
I0105 22:16:17.603327 30517 net.cpp:157] Top shape: 1 256 38 63 (612864)
I0105 22:16:17.603337 30517 net.cpp:165] Memory required for data: 2401426260
I0105 22:16:17.603346 30517 layer_factory.hpp:77] Creating layer bn4d_branch2a
I0105 22:16:17.603358 30517 net.cpp:100] Creating Layer bn4d_branch2a
I0105 22:16:17.603365 30517 net.cpp:444] bn4d_branch2a <- res4d_branch2a
I0105 22:16:17.603376 30517 net.cpp:405] bn4d_branch2a -> res4d_branch2a (in-place)
I0105 22:16:17.603549 30517 net.cpp:150] Setting up bn4d_branch2a
I0105 22:16:17.603560 30517 net.cpp:157] Top shape: 1 256 38 63 (612864)
I0105 22:16:17.603566 30517 net.cpp:165] Memory required for data: 2403877716
I0105 22:16:17.603576 30517 layer_factory.hpp:77] Creating layer scale4d_branch2a
I0105 22:16:17.603586 30517 net.cpp:100] Creating Layer scale4d_branch2a
I0105 22:16:17.603593 30517 net.cpp:444] scale4d_branch2a <- res4d_branch2a
I0105 22:16:17.603602 30517 net.cpp:405] scale4d_branch2a -> res4d_branch2a (in-place)
I0105 22:16:17.603643 30517 layer_factory.hpp:77] Creating layer scale4d_branch2a
I0105 22:16:17.603749 30517 net.cpp:150] Setting up scale4d_branch2a
I0105 22:16:17.603759 30517 net.cpp:157] Top shape: 1 256 38 63 (612864)
I0105 22:16:17.603765 30517 net.cpp:165] Memory required for data: 2406329172
I0105 22:16:17.603773 30517 layer_factory.hpp:77] Creating layer res4d_branch2a_relu
I0105 22:16:17.603781 30517 net.cpp:100] Creating Layer res4d_branch2a_relu
I0105 22:16:17.603788 30517 net.cpp:444] res4d_branch2a_relu <- res4d_branch2a
I0105 22:16:17.603797 30517 net.cpp:405] res4d_branch2a_relu -> res4d_branch2a (in-place)
I0105 22:16:17.603948 30517 net.cpp:150] Setting up res4d_branch2a_relu
I0105 22:16:17.603960 30517 net.cpp:157] Top shape: 1 256 38 63 (612864)
I0105 22:16:17.603967 30517 net.cpp:165] Memory required for data: 2408780628
I0105 22:16:17.603974 30517 layer_factory.hpp:77] Creating layer res4d_branch2b
I0105 22:16:17.603986 30517 net.cpp:100] Creating Layer res4d_branch2b
I0105 22:16:17.603992 30517 net.cpp:444] res4d_branch2b <- res4d_branch2a
I0105 22:16:17.604002 30517 net.cpp:418] res4d_branch2b -> res4d_branch2b
I0105 22:16:17.606109 30517 net.cpp:150] Setting up res4d_branch2b
I0105 22:16:17.606133 30517 net.cpp:157] Top shape: 1 256 38 63 (612864)
I0105 22:16:17.606149 30517 net.cpp:165] Memory required for data: 2411232084
I0105 22:16:17.606175 30517 layer_factory.hpp:77] Creating layer bn4d_branch2b
I0105 22:16:17.606204 30517 net.cpp:100] Creating Layer bn4d_branch2b
I0105 22:16:17.606227 30517 net.cpp:444] bn4d_branch2b <- res4d_branch2b
I0105 22:16:17.606250 30517 net.cpp:405] bn4d_branch2b -> res4d_branch2b (in-place)
I0105 22:16:17.606501 30517 net.cpp:150] Setting up bn4d_branch2b
I0105 22:16:17.606513 30517 net.cpp:157] Top shape: 1 256 38 63 (612864)
I0105 22:16:17.606518 30517 net.cpp:165] Memory required for data: 2413683540
I0105 22:16:17.606542 30517 layer_factory.hpp:77] Creating layer scale4d_branch2b
I0105 22:16:17.606554 30517 net.cpp:100] Creating Layer scale4d_branch2b
I0105 22:16:17.606562 30517 net.cpp:444] scale4d_branch2b <- res4d_branch2b
I0105 22:16:17.606583 30517 net.cpp:405] scale4d_branch2b -> res4d_branch2b (in-place)
I0105 22:16:17.606628 30517 layer_factory.hpp:77] Creating layer scale4d_branch2b
I0105 22:16:17.606786 30517 net.cpp:150] Setting up scale4d_branch2b
I0105 22:16:17.606796 30517 net.cpp:157] Top shape: 1 256 38 63 (612864)
I0105 22:16:17.606802 30517 net.cpp:165] Memory required for data: 2416134996
I0105 22:16:17.606825 30517 layer_factory.hpp:77] Creating layer res4d_branch2b_relu
I0105 22:16:17.606833 30517 net.cpp:100] Creating Layer res4d_branch2b_relu
I0105 22:16:17.606853 30517 net.cpp:444] res4d_branch2b_relu <- res4d_branch2b
I0105 22:16:17.606863 30517 net.cpp:405] res4d_branch2b_relu -> res4d_branch2b (in-place)
I0105 22:16:17.607312 30517 net.cpp:150] Setting up res4d_branch2b_relu
I0105 22:16:17.607329 30517 net.cpp:157] Top shape: 1 256 38 63 (612864)
I0105 22:16:17.607336 30517 net.cpp:165] Memory required for data: 2418586452
I0105 22:16:17.607358 30517 layer_factory.hpp:77] Creating layer res4d_branch2c
I0105 22:16:17.607370 30517 net.cpp:100] Creating Layer res4d_branch2c
I0105 22:16:17.607393 30517 net.cpp:444] res4d_branch2c <- res4d_branch2b
I0105 22:16:17.607434 30517 net.cpp:418] res4d_branch2c -> res4d_branch2c
I0105 22:16:17.608145 30517 net.cpp:150] Setting up res4d_branch2c
I0105 22:16:17.608160 30517 net.cpp:157] Top shape: 1 1024 38 63 (2451456)
I0105 22:16:17.608166 30517 net.cpp:165] Memory required for data: 2428392276
I0105 22:16:17.608189 30517 layer_factory.hpp:77] Creating layer bn4d_branch2c
I0105 22:16:17.608219 30517 net.cpp:100] Creating Layer bn4d_branch2c
I0105 22:16:17.608238 30517 net.cpp:444] bn4d_branch2c <- res4d_branch2c
I0105 22:16:17.608247 30517 net.cpp:405] bn4d_branch2c -> res4d_branch2c (in-place)
I0105 22:16:17.608500 30517 net.cpp:150] Setting up bn4d_branch2c
I0105 22:16:17.608510 30517 net.cpp:157] Top shape: 1 1024 38 63 (2451456)
I0105 22:16:17.608516 30517 net.cpp:165] Memory required for data: 2438198100
I0105 22:16:17.608539 30517 layer_factory.hpp:77] Creating layer scale4d_branch2c
I0105 22:16:17.608568 30517 net.cpp:100] Creating Layer scale4d_branch2c
I0105 22:16:17.608577 30517 net.cpp:444] scale4d_branch2c <- res4d_branch2c
I0105 22:16:17.608597 30517 net.cpp:405] scale4d_branch2c -> res4d_branch2c (in-place)
I0105 22:16:17.608685 30517 layer_factory.hpp:77] Creating layer scale4d_branch2c
I0105 22:16:17.608872 30517 net.cpp:150] Setting up scale4d_branch2c
I0105 22:16:17.608883 30517 net.cpp:157] Top shape: 1 1024 38 63 (2451456)
I0105 22:16:17.608888 30517 net.cpp:165] Memory required for data: 2448003924
I0105 22:16:17.608911 30517 layer_factory.hpp:77] Creating layer res4d
I0105 22:16:17.608920 30517 net.cpp:100] Creating Layer res4d
I0105 22:16:17.608939 30517 net.cpp:444] res4d <- res4c_res4c_relu_0_split_1
I0105 22:16:17.608947 30517 net.cpp:444] res4d <- res4d_branch2c
I0105 22:16:17.608968 30517 net.cpp:418] res4d -> res4d
I0105 22:16:17.609009 30517 net.cpp:150] Setting up res4d
I0105 22:16:17.609019 30517 net.cpp:157] Top shape: 1 1024 38 63 (2451456)
I0105 22:16:17.609025 30517 net.cpp:165] Memory required for data: 2457809748
I0105 22:16:17.609032 30517 layer_factory.hpp:77] Creating layer res4d_relu
I0105 22:16:17.609042 30517 net.cpp:100] Creating Layer res4d_relu
I0105 22:16:17.609050 30517 net.cpp:444] res4d_relu <- res4d
I0105 22:16:17.609071 30517 net.cpp:405] res4d_relu -> res4d (in-place)
I0105 22:16:17.609540 30517 net.cpp:150] Setting up res4d_relu
I0105 22:16:17.609557 30517 net.cpp:157] Top shape: 1 1024 38 63 (2451456)
I0105 22:16:17.609565 30517 net.cpp:165] Memory required for data: 2467615572
I0105 22:16:17.609576 30517 layer_factory.hpp:77] Creating layer res4d_res4d_relu_0_split
I0105 22:16:17.609586 30517 net.cpp:100] Creating Layer res4d_res4d_relu_0_split
I0105 22:16:17.609593 30517 net.cpp:444] res4d_res4d_relu_0_split <- res4d
I0105 22:16:17.609603 30517 net.cpp:418] res4d_res4d_relu_0_split -> res4d_res4d_relu_0_split_0
I0105 22:16:17.609616 30517 net.cpp:418] res4d_res4d_relu_0_split -> res4d_res4d_relu_0_split_1
I0105 22:16:17.609659 30517 net.cpp:150] Setting up res4d_res4d_relu_0_split
I0105 22:16:17.609670 30517 net.cpp:157] Top shape: 1 1024 38 63 (2451456)
I0105 22:16:17.609679 30517 net.cpp:157] Top shape: 1 1024 38 63 (2451456)
I0105 22:16:17.609685 30517 net.cpp:165] Memory required for data: 2487227220
I0105 22:16:17.609693 30517 layer_factory.hpp:77] Creating layer res4e_branch2a
I0105 22:16:17.609704 30517 net.cpp:100] Creating Layer res4e_branch2a
I0105 22:16:17.609711 30517 net.cpp:444] res4e_branch2a <- res4d_res4d_relu_0_split_0
I0105 22:16:17.609720 30517 net.cpp:418] res4e_branch2a -> res4e_branch2a
I0105 22:16:17.611487 30517 net.cpp:150] Setting up res4e_branch2a
I0105 22:16:17.611515 30517 net.cpp:157] Top shape: 1 256 38 63 (612864)
I0105 22:16:17.611523 30517 net.cpp:165] Memory required for data: 2489678676
I0105 22:16:17.611533 30517 layer_factory.hpp:77] Creating layer bn4e_branch2a
I0105 22:16:17.611546 30517 net.cpp:100] Creating Layer bn4e_branch2a
I0105 22:16:17.611555 30517 net.cpp:444] bn4e_branch2a <- res4e_branch2a
I0105 22:16:17.611565 30517 net.cpp:405] bn4e_branch2a -> res4e_branch2a (in-place)
I0105 22:16:17.611744 30517 net.cpp:150] Setting up bn4e_branch2a
I0105 22:16:17.611755 30517 net.cpp:157] Top shape: 1 256 38 63 (612864)
I0105 22:16:17.611763 30517 net.cpp:165] Memory required for data: 2492130132
I0105 22:16:17.611773 30517 layer_factory.hpp:77] Creating layer scale4e_branch2a
I0105 22:16:17.611783 30517 net.cpp:100] Creating Layer scale4e_branch2a
I0105 22:16:17.611791 30517 net.cpp:444] scale4e_branch2a <- res4e_branch2a
I0105 22:16:17.611799 30517 net.cpp:405] scale4e_branch2a -> res4e_branch2a (in-place)
I0105 22:16:17.611841 30517 layer_factory.hpp:77] Creating layer scale4e_branch2a
I0105 22:16:17.611950 30517 net.cpp:150] Setting up scale4e_branch2a
I0105 22:16:17.611961 30517 net.cpp:157] Top shape: 1 256 38 63 (612864)
I0105 22:16:17.611968 30517 net.cpp:165] Memory required for data: 2494581588
I0105 22:16:17.611979 30517 layer_factory.hpp:77] Creating layer res4e_branch2a_relu
I0105 22:16:17.611987 30517 net.cpp:100] Creating Layer res4e_branch2a_relu
I0105 22:16:17.611995 30517 net.cpp:444] res4e_branch2a_relu <- res4e_branch2a
I0105 22:16:17.612004 30517 net.cpp:405] res4e_branch2a_relu -> res4e_branch2a (in-place)
I0105 22:16:17.612159 30517 net.cpp:150] Setting up res4e_branch2a_relu
I0105 22:16:17.612171 30517 net.cpp:157] Top shape: 1 256 38 63 (612864)
I0105 22:16:17.612179 30517 net.cpp:165] Memory required for data: 2497033044
I0105 22:16:17.612185 30517 layer_factory.hpp:77] Creating layer res4e_branch2b
I0105 22:16:17.612196 30517 net.cpp:100] Creating Layer res4e_branch2b
I0105 22:16:17.612205 30517 net.cpp:444] res4e_branch2b <- res4e_branch2a
I0105 22:16:17.612213 30517 net.cpp:418] res4e_branch2b -> res4e_branch2b
I0105 22:16:17.614421 30517 net.cpp:150] Setting up res4e_branch2b
I0105 22:16:17.614449 30517 net.cpp:157] Top shape: 1 256 38 63 (612864)
I0105 22:16:17.614457 30517 net.cpp:165] Memory required for data: 2499484500
I0105 22:16:17.614467 30517 layer_factory.hpp:77] Creating layer bn4e_branch2b
I0105 22:16:17.614480 30517 net.cpp:100] Creating Layer bn4e_branch2b
I0105 22:16:17.614487 30517 net.cpp:444] bn4e_branch2b <- res4e_branch2b
I0105 22:16:17.614498 30517 net.cpp:405] bn4e_branch2b -> res4e_branch2b (in-place)
I0105 22:16:17.614691 30517 net.cpp:150] Setting up bn4e_branch2b
I0105 22:16:17.614703 30517 net.cpp:157] Top shape: 1 256 38 63 (612864)
I0105 22:16:17.614711 30517 net.cpp:165] Memory required for data: 2501935956
I0105 22:16:17.614720 30517 layer_factory.hpp:77] Creating layer scale4e_branch2b
I0105 22:16:17.614735 30517 net.cpp:100] Creating Layer scale4e_branch2b
I0105 22:16:17.614743 30517 net.cpp:444] scale4e_branch2b <- res4e_branch2b
I0105 22:16:17.614753 30517 net.cpp:405] scale4e_branch2b -> res4e_branch2b (in-place)
I0105 22:16:17.614796 30517 layer_factory.hpp:77] Creating layer scale4e_branch2b
I0105 22:16:17.614910 30517 net.cpp:150] Setting up scale4e_branch2b
I0105 22:16:17.614922 30517 net.cpp:157] Top shape: 1 256 38 63 (612864)
I0105 22:16:17.614928 30517 net.cpp:165] Memory required for data: 2504387412
I0105 22:16:17.614938 30517 layer_factory.hpp:77] Creating layer res4e_branch2b_relu
I0105 22:16:17.614946 30517 net.cpp:100] Creating Layer res4e_branch2b_relu
I0105 22:16:17.614955 30517 net.cpp:444] res4e_branch2b_relu <- res4e_branch2b
I0105 22:16:17.614964 30517 net.cpp:405] res4e_branch2b_relu -> res4e_branch2b (in-place)
I0105 22:16:17.615121 30517 net.cpp:150] Setting up res4e_branch2b_relu
I0105 22:16:17.615134 30517 net.cpp:157] Top shape: 1 256 38 63 (612864)
I0105 22:16:17.615141 30517 net.cpp:165] Memory required for data: 2506838868
I0105 22:16:17.615149 30517 layer_factory.hpp:77] Creating layer res4e_branch2c
I0105 22:16:17.615161 30517 net.cpp:100] Creating Layer res4e_branch2c
I0105 22:16:17.615170 30517 net.cpp:444] res4e_branch2c <- res4e_branch2b
I0105 22:16:17.615180 30517 net.cpp:418] res4e_branch2c -> res4e_branch2c
I0105 22:16:17.616322 30517 net.cpp:150] Setting up res4e_branch2c
I0105 22:16:17.616343 30517 net.cpp:157] Top shape: 1 1024 38 63 (2451456)
I0105 22:16:17.616350 30517 net.cpp:165] Memory required for data: 2516644692
I0105 22:16:17.616360 30517 layer_factory.hpp:77] Creating layer bn4e_branch2c
I0105 22:16:17.616370 30517 net.cpp:100] Creating Layer bn4e_branch2c
I0105 22:16:17.616377 30517 net.cpp:444] bn4e_branch2c <- res4e_branch2c
I0105 22:16:17.616387 30517 net.cpp:405] bn4e_branch2c -> res4e_branch2c (in-place)
I0105 22:16:17.616574 30517 net.cpp:150] Setting up bn4e_branch2c
I0105 22:16:17.616585 30517 net.cpp:157] Top shape: 1 1024 38 63 (2451456)
I0105 22:16:17.616592 30517 net.cpp:165] Memory required for data: 2526450516
I0105 22:16:17.616602 30517 layer_factory.hpp:77] Creating layer scale4e_branch2c
I0105 22:16:17.616611 30517 net.cpp:100] Creating Layer scale4e_branch2c
I0105 22:16:17.616619 30517 net.cpp:444] scale4e_branch2c <- res4e_branch2c
I0105 22:16:17.616627 30517 net.cpp:405] scale4e_branch2c -> res4e_branch2c (in-place)
I0105 22:16:17.616668 30517 layer_factory.hpp:77] Creating layer scale4e_branch2c
I0105 22:16:17.616781 30517 net.cpp:150] Setting up scale4e_branch2c
I0105 22:16:17.616793 30517 net.cpp:157] Top shape: 1 1024 38 63 (2451456)
I0105 22:16:17.616801 30517 net.cpp:165] Memory required for data: 2536256340
I0105 22:16:17.616809 30517 layer_factory.hpp:77] Creating layer res4e
I0105 22:16:17.616847 30517 net.cpp:100] Creating Layer res4e
I0105 22:16:17.616855 30517 net.cpp:444] res4e <- res4d_res4d_relu_0_split_1
I0105 22:16:17.616863 30517 net.cpp:444] res4e <- res4e_branch2c
I0105 22:16:17.616873 30517 net.cpp:418] res4e -> res4e
I0105 22:16:17.616901 30517 net.cpp:150] Setting up res4e
I0105 22:16:17.616912 30517 net.cpp:157] Top shape: 1 1024 38 63 (2451456)
I0105 22:16:17.616933 30517 net.cpp:165] Memory required for data: 2546062164
I0105 22:16:17.616953 30517 layer_factory.hpp:77] Creating layer res4e_relu
I0105 22:16:17.616962 30517 net.cpp:100] Creating Layer res4e_relu
I0105 22:16:17.616971 30517 net.cpp:444] res4e_relu <- res4e
I0105 22:16:17.616979 30517 net.cpp:405] res4e_relu -> res4e (in-place)
I0105 22:16:17.617156 30517 net.cpp:150] Setting up res4e_relu
I0105 22:16:17.617168 30517 net.cpp:157] Top shape: 1 1024 38 63 (2451456)
I0105 22:16:17.617175 30517 net.cpp:165] Memory required for data: 2555867988
I0105 22:16:17.617182 30517 layer_factory.hpp:77] Creating layer res4e_res4e_relu_0_split
I0105 22:16:17.617192 30517 net.cpp:100] Creating Layer res4e_res4e_relu_0_split
I0105 22:16:17.617200 30517 net.cpp:444] res4e_res4e_relu_0_split <- res4e
I0105 22:16:17.617209 30517 net.cpp:418] res4e_res4e_relu_0_split -> res4e_res4e_relu_0_split_0
I0105 22:16:17.617224 30517 net.cpp:418] res4e_res4e_relu_0_split -> res4e_res4e_relu_0_split_1
I0105 22:16:17.617269 30517 net.cpp:150] Setting up res4e_res4e_relu_0_split
I0105 22:16:17.617280 30517 net.cpp:157] Top shape: 1 1024 38 63 (2451456)
I0105 22:16:17.617287 30517 net.cpp:157] Top shape: 1 1024 38 63 (2451456)
I0105 22:16:17.617295 30517 net.cpp:165] Memory required for data: 2575479636
I0105 22:16:17.617300 30517 layer_factory.hpp:77] Creating layer res4f_branch2a
I0105 22:16:17.617312 30517 net.cpp:100] Creating Layer res4f_branch2a
I0105 22:16:17.617321 30517 net.cpp:444] res4f_branch2a <- res4e_res4e_relu_0_split_0
I0105 22:16:17.617331 30517 net.cpp:418] res4f_branch2a -> res4f_branch2a
I0105 22:16:17.619256 30517 net.cpp:150] Setting up res4f_branch2a
I0105 22:16:17.619284 30517 net.cpp:157] Top shape: 1 256 38 63 (612864)
I0105 22:16:17.619307 30517 net.cpp:165] Memory required for data: 2577931092
I0105 22:16:17.619330 30517 layer_factory.hpp:77] Creating layer bn4f_branch2a
I0105 22:16:17.619343 30517 net.cpp:100] Creating Layer bn4f_branch2a
I0105 22:16:17.619351 30517 net.cpp:444] bn4f_branch2a <- res4f_branch2a
I0105 22:16:17.619374 30517 net.cpp:405] bn4f_branch2a -> res4f_branch2a (in-place)
I0105 22:16:17.619653 30517 net.cpp:150] Setting up bn4f_branch2a
I0105 22:16:17.619665 30517 net.cpp:157] Top shape: 1 256 38 63 (612864)
I0105 22:16:17.619673 30517 net.cpp:165] Memory required for data: 2580382548
I0105 22:16:17.619698 30517 layer_factory.hpp:77] Creating layer scale4f_branch2a
I0105 22:16:17.619721 30517 net.cpp:100] Creating Layer scale4f_branch2a
I0105 22:16:17.619729 30517 net.cpp:444] scale4f_branch2a <- res4f_branch2a
I0105 22:16:17.619738 30517 net.cpp:405] scale4f_branch2a -> res4f_branch2a (in-place)
I0105 22:16:17.619782 30517 layer_factory.hpp:77] Creating layer scale4f_branch2a
I0105 22:16:17.619936 30517 net.cpp:150] Setting up scale4f_branch2a
I0105 22:16:17.619948 30517 net.cpp:157] Top shape: 1 256 38 63 (612864)
I0105 22:16:17.619954 30517 net.cpp:165] Memory required for data: 2582834004
I0105 22:16:17.619977 30517 layer_factory.hpp:77] Creating layer res4f_branch2a_relu
I0105 22:16:17.620000 30517 net.cpp:100] Creating Layer res4f_branch2a_relu
I0105 22:16:17.620007 30517 net.cpp:444] res4f_branch2a_relu <- res4f_branch2a
I0105 22:16:17.620015 30517 net.cpp:405] res4f_branch2a_relu -> res4f_branch2a (in-place)
I0105 22:16:17.620252 30517 net.cpp:150] Setting up res4f_branch2a_relu
I0105 22:16:17.620265 30517 net.cpp:157] Top shape: 1 256 38 63 (612864)
I0105 22:16:17.620271 30517 net.cpp:165] Memory required for data: 2585285460
I0105 22:16:17.620292 30517 layer_factory.hpp:77] Creating layer res4f_branch2b
I0105 22:16:17.620317 30517 net.cpp:100] Creating Layer res4f_branch2b
I0105 22:16:17.620326 30517 net.cpp:444] res4f_branch2b <- res4f_branch2a
I0105 22:16:17.620335 30517 net.cpp:418] res4f_branch2b -> res4f_branch2b
I0105 22:16:17.622714 30517 net.cpp:150] Setting up res4f_branch2b
I0105 22:16:17.622745 30517 net.cpp:157] Top shape: 1 256 38 63 (612864)
I0105 22:16:17.622768 30517 net.cpp:165] Memory required for data: 2587736916
I0105 22:16:17.622792 30517 layer_factory.hpp:77] Creating layer bn4f_branch2b
I0105 22:16:17.622817 30517 net.cpp:100] Creating Layer bn4f_branch2b
I0105 22:16:17.622826 30517 net.cpp:444] bn4f_branch2b <- res4f_branch2b
I0105 22:16:17.622836 30517 net.cpp:405] bn4f_branch2b -> res4f_branch2b (in-place)
I0105 22:16:17.623035 30517 net.cpp:150] Setting up bn4f_branch2b
I0105 22:16:17.623046 30517 net.cpp:157] Top shape: 1 256 38 63 (612864)
I0105 22:16:17.623052 30517 net.cpp:165] Memory required for data: 2590188372
I0105 22:16:17.623076 30517 layer_factory.hpp:77] Creating layer scale4f_branch2b
I0105 22:16:17.623100 30517 net.cpp:100] Creating Layer scale4f_branch2b
I0105 22:16:17.623108 30517 net.cpp:444] scale4f_branch2b <- res4f_branch2b
I0105 22:16:17.623117 30517 net.cpp:405] scale4f_branch2b -> res4f_branch2b (in-place)
I0105 22:16:17.623164 30517 layer_factory.hpp:77] Creating layer scale4f_branch2b
I0105 22:16:17.623327 30517 net.cpp:150] Setting up scale4f_branch2b
I0105 22:16:17.623338 30517 net.cpp:157] Top shape: 1 256 38 63 (612864)
I0105 22:16:17.623344 30517 net.cpp:165] Memory required for data: 2592639828
I0105 22:16:17.623368 30517 layer_factory.hpp:77] Creating layer res4f_branch2b_relu
I0105 22:16:17.623378 30517 net.cpp:100] Creating Layer res4f_branch2b_relu
I0105 22:16:17.623385 30517 net.cpp:444] res4f_branch2b_relu <- res4f_branch2b
I0105 22:16:17.623406 30517 net.cpp:405] res4f_branch2b_relu -> res4f_branch2b (in-place)
I0105 22:16:17.623883 30517 net.cpp:150] Setting up res4f_branch2b_relu
I0105 22:16:17.623899 30517 net.cpp:157] Top shape: 1 256 38 63 (612864)
I0105 22:16:17.623920 30517 net.cpp:165] Memory required for data: 2595091284
I0105 22:16:17.623929 30517 layer_factory.hpp:77] Creating layer res4f_branch2c
I0105 22:16:17.623951 30517 net.cpp:100] Creating Layer res4f_branch2c
I0105 22:16:17.623960 30517 net.cpp:444] res4f_branch2c <- res4f_branch2b
I0105 22:16:17.623970 30517 net.cpp:418] res4f_branch2c -> res4f_branch2c
I0105 22:16:17.624728 30517 net.cpp:150] Setting up res4f_branch2c
I0105 22:16:17.624743 30517 net.cpp:157] Top shape: 1 1024 38 63 (2451456)
I0105 22:16:17.624750 30517 net.cpp:165] Memory required for data: 2604897108
I0105 22:16:17.624773 30517 layer_factory.hpp:77] Creating layer bn4f_branch2c
I0105 22:16:17.624795 30517 net.cpp:100] Creating Layer bn4f_branch2c
I0105 22:16:17.624815 30517 net.cpp:444] bn4f_branch2c <- res4f_branch2c
I0105 22:16:17.624836 30517 net.cpp:405] bn4f_branch2c -> res4f_branch2c (in-place)
I0105 22:16:17.625067 30517 net.cpp:150] Setting up bn4f_branch2c
I0105 22:16:17.625078 30517 net.cpp:157] Top shape: 1 1024 38 63 (2451456)
I0105 22:16:17.625085 30517 net.cpp:165] Memory required for data: 2614702932
I0105 22:16:17.625130 30517 layer_factory.hpp:77] Creating layer scale4f_branch2c
I0105 22:16:17.625139 30517 net.cpp:100] Creating Layer scale4f_branch2c
I0105 22:16:17.625146 30517 net.cpp:444] scale4f_branch2c <- res4f_branch2c
I0105 22:16:17.625167 30517 net.cpp:405] scale4f_branch2c -> res4f_branch2c (in-place)
I0105 22:16:17.625232 30517 layer_factory.hpp:77] Creating layer scale4f_branch2c
I0105 22:16:17.625411 30517 net.cpp:150] Setting up scale4f_branch2c
I0105 22:16:17.625422 30517 net.cpp:157] Top shape: 1 1024 38 63 (2451456)
I0105 22:16:17.625427 30517 net.cpp:165] Memory required for data: 2624508756
I0105 22:16:17.625450 30517 layer_factory.hpp:77] Creating layer res4f
I0105 22:16:17.625460 30517 net.cpp:100] Creating Layer res4f
I0105 22:16:17.625468 30517 net.cpp:444] res4f <- res4e_res4e_relu_0_split_1
I0105 22:16:17.625476 30517 net.cpp:444] res4f <- res4f_branch2c
I0105 22:16:17.625485 30517 net.cpp:418] res4f -> res4f
I0105 22:16:17.625527 30517 net.cpp:150] Setting up res4f
I0105 22:16:17.625537 30517 net.cpp:157] Top shape: 1 1024 38 63 (2451456)
I0105 22:16:17.625545 30517 net.cpp:165] Memory required for data: 2634314580
I0105 22:16:17.625551 30517 layer_factory.hpp:77] Creating layer res4f_relu
I0105 22:16:17.625560 30517 net.cpp:100] Creating Layer res4f_relu
I0105 22:16:17.625567 30517 net.cpp:444] res4f_relu <- res4f
I0105 22:16:17.625578 30517 net.cpp:405] res4f_relu -> res4f (in-place)
I0105 22:16:17.626076 30517 net.cpp:150] Setting up res4f_relu
I0105 22:16:17.626094 30517 net.cpp:157] Top shape: 1 1024 38 63 (2451456)
I0105 22:16:17.626102 30517 net.cpp:165] Memory required for data: 2644120404
I0105 22:16:17.626111 30517 layer_factory.hpp:77] Creating layer res4f_res4f_relu_0_split
I0105 22:16:17.626119 30517 net.cpp:100] Creating Layer res4f_res4f_relu_0_split
I0105 22:16:17.626127 30517 net.cpp:444] res4f_res4f_relu_0_split <- res4f
I0105 22:16:17.626143 30517 net.cpp:418] res4f_res4f_relu_0_split -> res4f_res4f_relu_0_split_0
I0105 22:16:17.626174 30517 net.cpp:418] res4f_res4f_relu_0_split -> res4f_res4f_relu_0_split_1
I0105 22:16:17.626185 30517 net.cpp:418] res4f_res4f_relu_0_split -> res4f_res4f_relu_0_split_2
I0105 22:16:17.626241 30517 net.cpp:150] Setting up res4f_res4f_relu_0_split
I0105 22:16:17.626255 30517 net.cpp:157] Top shape: 1 1024 38 63 (2451456)
I0105 22:16:17.626265 30517 net.cpp:157] Top shape: 1 1024 38 63 (2451456)
I0105 22:16:17.626271 30517 net.cpp:157] Top shape: 1 1024 38 63 (2451456)
I0105 22:16:17.626278 30517 net.cpp:165] Memory required for data: 2673537876
I0105 22:16:17.626286 30517 layer_factory.hpp:77] Creating layer res5a_branch1
I0105 22:16:17.626296 30517 net.cpp:100] Creating Layer res5a_branch1
I0105 22:16:17.626304 30517 net.cpp:444] res5a_branch1 <- res4f_res4f_relu_0_split_0
I0105 22:16:17.626313 30517 net.cpp:418] res5a_branch1 -> res5a_branch1
I0105 22:16:17.631331 30517 net.cpp:150] Setting up res5a_branch1
I0105 22:16:17.631376 30517 net.cpp:157] Top shape: 1 2048 38 63 (4902912)
I0105 22:16:17.631386 30517 net.cpp:165] Memory required for data: 2693149524
I0105 22:16:17.631398 30517 layer_factory.hpp:77] Creating layer bn5a_branch1
I0105 22:16:17.631417 30517 net.cpp:100] Creating Layer bn5a_branch1
I0105 22:16:17.631427 30517 net.cpp:444] bn5a_branch1 <- res5a_branch1
I0105 22:16:17.631438 30517 net.cpp:405] bn5a_branch1 -> res5a_branch1 (in-place)
I0105 22:16:17.631649 30517 net.cpp:150] Setting up bn5a_branch1
I0105 22:16:17.631661 30517 net.cpp:157] Top shape: 1 2048 38 63 (4902912)
I0105 22:16:17.631667 30517 net.cpp:165] Memory required for data: 2712761172
I0105 22:16:17.631691 30517 layer_factory.hpp:77] Creating layer scale5a_branch1
I0105 22:16:17.631702 30517 net.cpp:100] Creating Layer scale5a_branch1
I0105 22:16:17.631711 30517 net.cpp:444] scale5a_branch1 <- res5a_branch1
I0105 22:16:17.631733 30517 net.cpp:405] scale5a_branch1 -> res5a_branch1 (in-place)
I0105 22:16:17.631795 30517 layer_factory.hpp:77] Creating layer scale5a_branch1
I0105 22:16:17.631937 30517 net.cpp:150] Setting up scale5a_branch1
I0105 22:16:17.631948 30517 net.cpp:157] Top shape: 1 2048 38 63 (4902912)
I0105 22:16:17.631955 30517 net.cpp:165] Memory required for data: 2732372820
I0105 22:16:17.631976 30517 layer_factory.hpp:77] Creating layer res5a_branch2a
I0105 22:16:17.632004 30517 net.cpp:100] Creating Layer res5a_branch2a
I0105 22:16:17.632011 30517 net.cpp:444] res5a_branch2a <- res4f_res4f_relu_0_split_1
I0105 22:16:17.632022 30517 net.cpp:418] res5a_branch2a -> res5a_branch2a
I0105 22:16:17.634037 30517 net.cpp:150] Setting up res5a_branch2a
I0105 22:16:17.634065 30517 net.cpp:157] Top shape: 1 512 38 63 (1225728)
I0105 22:16:17.634088 30517 net.cpp:165] Memory required for data: 2737275732
I0105 22:16:17.634109 30517 layer_factory.hpp:77] Creating layer bn5a_branch2a
I0105 22:16:17.634120 30517 net.cpp:100] Creating Layer bn5a_branch2a
I0105 22:16:17.634167 30517 net.cpp:444] bn5a_branch2a <- res5a_branch2a
I0105 22:16:17.634193 30517 net.cpp:405] bn5a_branch2a -> res5a_branch2a (in-place)
I0105 22:16:17.634402 30517 net.cpp:150] Setting up bn5a_branch2a
I0105 22:16:17.634414 30517 net.cpp:157] Top shape: 1 512 38 63 (1225728)
I0105 22:16:17.634420 30517 net.cpp:165] Memory required for data: 2742178644
I0105 22:16:17.634429 30517 layer_factory.hpp:77] Creating layer scale5a_branch2a
I0105 22:16:17.634438 30517 net.cpp:100] Creating Layer scale5a_branch2a
I0105 22:16:17.634446 30517 net.cpp:444] scale5a_branch2a <- res5a_branch2a
I0105 22:16:17.634456 30517 net.cpp:405] scale5a_branch2a -> res5a_branch2a (in-place)
I0105 22:16:17.634497 30517 layer_factory.hpp:77] Creating layer scale5a_branch2a
I0105 22:16:17.634613 30517 net.cpp:150] Setting up scale5a_branch2a
I0105 22:16:17.634624 30517 net.cpp:157] Top shape: 1 512 38 63 (1225728)
I0105 22:16:17.634629 30517 net.cpp:165] Memory required for data: 2747081556
I0105 22:16:17.634637 30517 layer_factory.hpp:77] Creating layer res5a_branch2a_relu
I0105 22:16:17.634646 30517 net.cpp:100] Creating Layer res5a_branch2a_relu
I0105 22:16:17.634654 30517 net.cpp:444] res5a_branch2a_relu <- res5a_branch2a
I0105 22:16:17.634662 30517 net.cpp:405] res5a_branch2a_relu -> res5a_branch2a (in-place)
I0105 22:16:17.634817 30517 net.cpp:150] Setting up res5a_branch2a_relu
I0105 22:16:17.634829 30517 net.cpp:157] Top shape: 1 512 38 63 (1225728)
I0105 22:16:17.634842 30517 net.cpp:165] Memory required for data: 2751984468
I0105 22:16:17.634850 30517 layer_factory.hpp:77] Creating layer res5a_branch2b
I0105 22:16:17.634861 30517 net.cpp:100] Creating Layer res5a_branch2b
I0105 22:16:17.634868 30517 net.cpp:444] res5a_branch2b <- res5a_branch2a
I0105 22:16:17.634877 30517 net.cpp:418] res5a_branch2b -> res5a_branch2b
I0105 22:16:17.638566 30517 net.cpp:150] Setting up res5a_branch2b
I0105 22:16:17.638620 30517 net.cpp:157] Top shape: 1 512 38 63 (1225728)
I0105 22:16:17.638628 30517 net.cpp:165] Memory required for data: 2756887380
I0105 22:16:17.638640 30517 layer_factory.hpp:77] Creating layer bn5a_branch2b
I0105 22:16:17.638666 30517 net.cpp:100] Creating Layer bn5a_branch2b
I0105 22:16:17.638675 30517 net.cpp:444] bn5a_branch2b <- res5a_branch2b
I0105 22:16:17.638685 30517 net.cpp:405] bn5a_branch2b -> res5a_branch2b (in-place)
I0105 22:16:17.638890 30517 net.cpp:150] Setting up bn5a_branch2b
I0105 22:16:17.638900 30517 net.cpp:157] Top shape: 1 512 38 63 (1225728)
I0105 22:16:17.638907 30517 net.cpp:165] Memory required for data: 2761790292
I0105 22:16:17.638916 30517 layer_factory.hpp:77] Creating layer scale5a_branch2b
I0105 22:16:17.638926 30517 net.cpp:100] Creating Layer scale5a_branch2b
I0105 22:16:17.638933 30517 net.cpp:444] scale5a_branch2b <- res5a_branch2b
I0105 22:16:17.638942 30517 net.cpp:405] scale5a_branch2b -> res5a_branch2b (in-place)
I0105 22:16:17.638983 30517 layer_factory.hpp:77] Creating layer scale5a_branch2b
I0105 22:16:17.639104 30517 net.cpp:150] Setting up scale5a_branch2b
I0105 22:16:17.639117 30517 net.cpp:157] Top shape: 1 512 38 63 (1225728)
I0105 22:16:17.639123 30517 net.cpp:165] Memory required for data: 2766693204
I0105 22:16:17.639132 30517 layer_factory.hpp:77] Creating layer res5a_branch2b_relu
I0105 22:16:17.639139 30517 net.cpp:100] Creating Layer res5a_branch2b_relu
I0105 22:16:17.639147 30517 net.cpp:444] res5a_branch2b_relu <- res5a_branch2b
I0105 22:16:17.639155 30517 net.cpp:405] res5a_branch2b_relu -> res5a_branch2b (in-place)
I0105 22:16:17.639354 30517 net.cpp:150] Setting up res5a_branch2b_relu
…
I0106 12:11:50.712116  5321 layer_factory.hpp:77] Creating layer scale4e_branch2b
I0106 12:11:50.712126  5321 net.cpp:100] Creating Layer scale4e_branch2b
I0106 12:11:50.712133  5321 net.cpp:444] scale4e_branch2b <- res4e_branch2b
I0106 12:11:50.712154  5321 net.cpp:405] scale4e_branch2b -> res4e_branch2b (in-place)
I0106 12:11:50.712194  5321 layer_factory.hpp:77] Creating layer scale4e_branch2b
I0106 12:11:50.712343  5321 net.cpp:150] Setting up scale4e_branch2b
I0106 12:11:50.712352  5321 net.cpp:157] Top shape: 1 256 14 14 (50176)
I0106 12:11:50.712358  5321 net.cpp:165] Memory required for data: 207527948
I0106 12:11:50.712381  5321 layer_factory.hpp:77] Creating layer res4e_branch2b_relu
I0106 12:11:50.712391  5321 net.cpp:100] Creating Layer res4e_branch2b_relu
I0106 12:11:50.712399  5321 net.cpp:444] res4e_branch2b_relu <- res4e_branch2b
I0106 12:11:50.712419  5321 net.cpp:405] res4e_branch2b_relu -> res4e_branch2b (in-place)
I0106 12:11:50.712576  5321 net.cpp:150] Setting up res4e_branch2b_relu
I0106 12:11:50.712589  5321 net.cpp:157] Top shape: 1 256 14 14 (50176)
I0106 12:11:50.712594  5321 net.cpp:165] Memory required for data: 207728652
I0106 12:11:50.712613  5321 layer_factory.hpp:77] Creating layer res4e_branch2c
I0106 12:11:50.712625  5321 net.cpp:100] Creating Layer res4e_branch2c
I0106 12:11:50.712632  5321 net.cpp:444] res4e_branch2c <- res4e_branch2b
I0106 12:11:50.712641  5321 net.cpp:418] res4e_branch2c -> res4e_branch2c
I0106 12:11:50.714251  5321 net.cpp:150] Setting up res4e_branch2c
I0106 12:11:50.714287  5321 net.cpp:157] Top shape: 1 1024 14 14 (200704)
I0106 12:11:50.714305  5321 net.cpp:165] Memory required for data: 208531468
I0106 12:11:50.714329  5321 layer_factory.hpp:77] Creating layer bn4e_branch2c
I0106 12:11:50.714340  5321 net.cpp:100] Creating Layer bn4e_branch2c
I0106 12:11:50.714349  5321 net.cpp:444] bn4e_branch2c <- res4e_branch2c
I0106 12:11:50.714359  5321 net.cpp:405] bn4e_branch2c -> res4e_branch2c (in-place)
I0106 12:11:50.714543  5321 net.cpp:150] Setting up bn4e_branch2c
I0106 12:11:50.714553  5321 net.cpp:157] Top shape: 1 1024 14 14 (200704)
I0106 12:11:50.714560  5321 net.cpp:165] Memory required for data: 209334284
I0106 12:11:50.714583  5321 layer_factory.hpp:77] Creating layer scale4e_branch2c
I0106 12:11:50.714594  5321 net.cpp:100] Creating Layer scale4e_branch2c
I0106 12:11:50.714602  5321 net.cpp:444] scale4e_branch2c <- res4e_branch2c
I0106 12:11:50.714610  5321 net.cpp:405] scale4e_branch2c -> res4e_branch2c (in-place)
I0106 12:11:50.714661  5321 layer_factory.hpp:77] Creating layer scale4e_branch2c
I0106 12:11:50.714787  5321 net.cpp:150] Setting up scale4e_branch2c
I0106 12:11:50.714797  5321 net.cpp:157] Top shape: 1 1024 14 14 (200704)
I0106 12:11:50.714804  5321 net.cpp:165] Memory required for data: 210137100
I0106 12:11:50.714831  5321 layer_factory.hpp:77] Creating layer res4e
I0106 12:11:50.714854  5321 net.cpp:100] Creating Layer res4e
I0106 12:11:50.714862  5321 net.cpp:444] res4e <- res4d_res4d_relu_0_split_1
I0106 12:11:50.714870  5321 net.cpp:444] res4e <- res4e_branch2c
I0106 12:11:50.714879  5321 net.cpp:418] res4e -> res4e
I0106 12:11:50.714907  5321 net.cpp:150] Setting up res4e
I0106 12:11:50.714918  5321 net.cpp:157] Top shape: 1 1024 14 14 (200704)
I0106 12:11:50.714926  5321 net.cpp:165] Memory required for data: 210939916
I0106 12:11:50.714932  5321 layer_factory.hpp:77] Creating layer res4e_relu
I0106 12:11:50.714941  5321 net.cpp:100] Creating Layer res4e_relu
I0106 12:11:50.714948  5321 net.cpp:444] res4e_relu <- res4e
I0106 12:11:50.714956  5321 net.cpp:405] res4e_relu -> res4e (in-place)
I0106 12:11:50.715100  5321 net.cpp:150] Setting up res4e_relu
I0106 12:11:50.715112  5321 net.cpp:157] Top shape: 1 1024 14 14 (200704)
I0106 12:11:50.715119  5321 net.cpp:165] Memory required for data: 211742732
I0106 12:11:50.715127  5321 layer_factory.hpp:77] Creating layer res4e_res4e_relu_0_split
I0106 12:11:50.715137  5321 net.cpp:100] Creating Layer res4e_res4e_relu_0_split
I0106 12:11:50.715143  5321 net.cpp:444] res4e_res4e_relu_0_split <- res4e
I0106 12:11:50.715152  5321 net.cpp:418] res4e_res4e_relu_0_split -> res4e_res4e_relu_0_split_0
I0106 12:11:50.715162  5321 net.cpp:418] res4e_res4e_relu_0_split -> res4e_res4e_relu_0_split_1
I0106 12:11:50.715204  5321 net.cpp:150] Setting up res4e_res4e_relu_0_split
I0106 12:11:50.715214  5321 net.cpp:157] Top shape: 1 1024 14 14 (200704)
I0106 12:11:50.715220  5321 net.cpp:157] Top shape: 1 1024 14 14 (200704)
I0106 12:11:50.715227  5321 net.cpp:165] Memory required for data: 213348364
I0106 12:11:50.715234  5321 layer_factory.hpp:77] Creating layer res4f_branch2a
I0106 12:11:50.715245  5321 net.cpp:100] Creating Layer res4f_branch2a
I0106 12:11:50.715252  5321 net.cpp:444] res4f_branch2a <- res4e_res4e_relu_0_split_0
I0106 12:11:50.715262  5321 net.cpp:418] res4f_branch2a -> res4f_branch2a
I0106 12:11:50.716256  5321 net.cpp:150] Setting up res4f_branch2a
I0106 12:11:50.716274  5321 net.cpp:157] Top shape: 1 256 14 14 (50176)
I0106 12:11:50.716281  5321 net.cpp:165] Memory required for data: 213549068
I0106 12:11:50.716291  5321 layer_factory.hpp:77] Creating layer bn4f_branch2a
I0106 12:11:50.716300  5321 net.cpp:100] Creating Layer bn4f_branch2a
I0106 12:11:50.716308  5321 net.cpp:444] bn4f_branch2a <- res4f_branch2a
I0106 12:11:50.716317  5321 net.cpp:405] bn4f_branch2a -> res4f_branch2a (in-place)
I0106 12:11:50.716482  5321 net.cpp:150] Setting up bn4f_branch2a
I0106 12:11:50.716493  5321 net.cpp:157] Top shape: 1 256 14 14 (50176)
I0106 12:11:50.716500  5321 net.cpp:165] Memory required for data: 213749772
I0106 12:11:50.716511  5321 layer_factory.hpp:77] Creating layer scale4f_branch2a
I0106 12:11:50.716521  5321 net.cpp:100] Creating Layer scale4f_branch2a
I0106 12:11:50.716528  5321 net.cpp:444] scale4f_branch2a <- res4f_branch2a
I0106 12:11:50.716536  5321 net.cpp:405] scale4f_branch2a -> res4f_branch2a (in-place)
I0106 12:11:50.716575  5321 layer_factory.hpp:77] Creating layer scale4f_branch2a
I0106 12:11:50.716672  5321 net.cpp:150] Setting up scale4f_branch2a
I0106 12:11:50.716682  5321 net.cpp:157] Top shape: 1 256 14 14 (50176)
I0106 12:11:50.716689  5321 net.cpp:165] Memory required for data: 213950476
I0106 12:11:50.716698  5321 layer_factory.hpp:77] Creating layer res4f_branch2a_relu
I0106 12:11:50.716707  5321 net.cpp:100] Creating Layer res4f_branch2a_relu
I0106 12:11:50.716714  5321 net.cpp:444] res4f_branch2a_relu <- res4f_branch2a
I0106 12:11:50.716722  5321 net.cpp:405] res4f_branch2a_relu -> res4f_branch2a (in-place)
I0106 12:11:50.716871  5321 net.cpp:150] Setting up res4f_branch2a_relu
I0106 12:11:50.716883  5321 net.cpp:157] Top shape: 1 256 14 14 (50176)
I0106 12:11:50.716891  5321 net.cpp:165] Memory required for data: 214151180
I0106 12:11:50.716910  5321 layer_factory.hpp:77] Creating layer res4f_branch2b
I0106 12:11:50.716938  5321 net.cpp:100] Creating Layer res4f_branch2b
I0106 12:11:50.716948  5321 net.cpp:444] res4f_branch2b <- res4f_branch2a
I0106 12:11:50.716956  5321 net.cpp:418] res4f_branch2b -> res4f_branch2b
I0106 12:11:50.719022  5321 net.cpp:150] Setting up res4f_branch2b
I0106 12:11:50.719048  5321 net.cpp:157] Top shape: 1 256 14 14 (50176)
I0106 12:11:50.719056  5321 net.cpp:165] Memory required for data: 214351884
I0106 12:11:50.719066  5321 layer_factory.hpp:77] Creating layer bn4f_branch2b
I0106 12:11:50.719077  5321 net.cpp:100] Creating Layer bn4f_branch2b
I0106 12:11:50.719086  5321 net.cpp:444] bn4f_branch2b <- res4f_branch2b
I0106 12:11:50.719095  5321 net.cpp:405] bn4f_branch2b -> res4f_branch2b (in-place)
I0106 12:11:50.719280  5321 net.cpp:150] Setting up bn4f_branch2b
I0106 12:11:50.719290  5321 net.cpp:157] Top shape: 1 256 14 14 (50176)
I0106 12:11:50.719296  5321 net.cpp:165] Memory required for data: 214552588
I0106 12:11:50.719321  5321 layer_factory.hpp:77] Creating layer scale4f_branch2b
I0106 12:11:50.719331  5321 net.cpp:100] Creating Layer scale4f_branch2b
I0106 12:11:50.719339  5321 net.cpp:444] scale4f_branch2b <- res4f_branch2b
I0106 12:11:50.719360  5321 net.cpp:405] scale4f_branch2b -> res4f_branch2b (in-place)
I0106 12:11:50.719403  5321 layer_factory.hpp:77] Creating layer scale4f_branch2b
I0106 12:11:50.719539  5321 net.cpp:150] Setting up scale4f_branch2b
I0106 12:11:50.719549  5321 net.cpp:157] Top shape: 1 256 14 14 (50176)
I0106 12:11:50.719555  5321 net.cpp:165] Memory required for data: 214753292
I0106 12:11:50.719578  5321 layer_factory.hpp:77] Creating layer res4f_branch2b_relu
I0106 12:11:50.719588  5321 net.cpp:100] Creating Layer res4f_branch2b_relu
I0106 12:11:50.719596  5321 net.cpp:444] res4f_branch2b_relu <- res4f_branch2b
I0106 12:11:50.719617  5321 net.cpp:405] res4f_branch2b_relu -> res4f_branch2b (in-place)
I0106 12:11:50.720067  5321 net.cpp:150] Setting up res4f_branch2b_relu
I0106 12:11:50.720082  5321 net.cpp:157] Top shape: 1 256 14 14 (50176)
I0106 12:11:50.720089  5321 net.cpp:165] Memory required for data: 214953996
I0106 12:11:50.720110  5321 layer_factory.hpp:77] Creating layer res4f_branch2c
I0106 12:11:50.720122  5321 net.cpp:100] Creating Layer res4f_branch2c
I0106 12:11:50.720130  5321 net.cpp:444] res4f_branch2c <- res4f_branch2b
I0106 12:11:50.720140  5321 net.cpp:418] res4f_branch2c -> res4f_branch2c
I0106 12:11:50.721405  5321 net.cpp:150] Setting up res4f_branch2c
I0106 12:11:50.721426  5321 net.cpp:157] Top shape: 1 1024 14 14 (200704)
I0106 12:11:50.721446  5321 net.cpp:165] Memory required for data: 215756812
I0106 12:11:50.721472  5321 layer_factory.hpp:77] Creating layer bn4f_branch2c
I0106 12:11:50.721482  5321 net.cpp:100] Creating Layer bn4f_branch2c
I0106 12:11:50.721490  5321 net.cpp:444] bn4f_branch2c <- res4f_branch2c
I0106 12:11:50.721500  5321 net.cpp:405] bn4f_branch2c -> res4f_branch2c (in-place)
I0106 12:11:50.721685  5321 net.cpp:150] Setting up bn4f_branch2c
I0106 12:11:50.721695  5321 net.cpp:157] Top shape: 1 1024 14 14 (200704)
I0106 12:11:50.721701  5321 net.cpp:165] Memory required for data: 216559628
I0106 12:11:50.721732  5321 layer_factory.hpp:77] Creating layer scale4f_branch2c
I0106 12:11:50.721742  5321 net.cpp:100] Creating Layer scale4f_branch2c
I0106 12:11:50.721750  5321 net.cpp:444] scale4f_branch2c <- res4f_branch2c
I0106 12:11:50.721772  5321 net.cpp:405] scale4f_branch2c -> res4f_branch2c (in-place)
I0106 12:11:50.721812  5321 layer_factory.hpp:77] Creating layer scale4f_branch2c
I0106 12:11:50.721966  5321 net.cpp:150] Setting up scale4f_branch2c
I0106 12:11:50.721976  5321 net.cpp:157] Top shape: 1 1024 14 14 (200704)
I0106 12:11:50.721982  5321 net.cpp:165] Memory required for data: 217362444
I0106 12:11:50.722003  5321 layer_factory.hpp:77] Creating layer res4f
I0106 12:11:50.722012  5321 net.cpp:100] Creating Layer res4f
I0106 12:11:50.722033  5321 net.cpp:444] res4f <- res4e_res4e_relu_0_split_1
I0106 12:11:50.722043  5321 net.cpp:444] res4f <- res4f_branch2c
I0106 12:11:50.722050  5321 net.cpp:418] res4f -> res4f
I0106 12:11:50.722100  5321 net.cpp:150] Setting up res4f
I0106 12:11:50.722121  5321 net.cpp:157] Top shape: 1 1024 14 14 (200704)
I0106 12:11:50.722127  5321 net.cpp:165] Memory required for data: 218165260
I0106 12:11:50.722133  5321 layer_factory.hpp:77] Creating layer res4f_relu
I0106 12:11:50.722175  5321 net.cpp:100] Creating Layer res4f_relu
I0106 12:11:50.722196  5321 net.cpp:444] res4f_relu <- res4f
I0106 12:11:50.722205  5321 net.cpp:405] res4f_relu -> res4f (in-place)
I0106 12:11:50.722695  5321 net.cpp:150] Setting up res4f_relu
I0106 12:11:50.722712  5321 net.cpp:157] Top shape: 1 1024 14 14 (200704)
I0106 12:11:50.722718  5321 net.cpp:165] Memory required for data: 218968076
I0106 12:11:50.722726  5321 layer_factory.hpp:77] Creating layer res4f_res4f_relu_0_split
I0106 12:11:50.722735  5321 net.cpp:100] Creating Layer res4f_res4f_relu_0_split
I0106 12:11:50.722743  5321 net.cpp:444] res4f_res4f_relu_0_split <- res4f
I0106 12:11:50.722753  5321 net.cpp:418] res4f_res4f_relu_0_split -> res4f_res4f_relu_0_split_0
I0106 12:11:50.722764  5321 net.cpp:418] res4f_res4f_relu_0_split -> res4f_res4f_relu_0_split_1
I0106 12:11:50.722774  5321 net.cpp:418] res4f_res4f_relu_0_split -> res4f_res4f_relu_0_split_2
I0106 12:11:50.722826  5321 net.cpp:150] Setting up res4f_res4f_relu_0_split
I0106 12:11:50.722836  5321 net.cpp:157] Top shape: 1 1024 14 14 (200704)
I0106 12:11:50.722843  5321 net.cpp:157] Top shape: 1 1024 14 14 (200704)
I0106 12:11:50.722851  5321 net.cpp:157] Top shape: 1 1024 14 14 (200704)
I0106 12:11:50.722858  5321 net.cpp:165] Memory required for data: 221376524
I0106 12:11:50.722865  5321 layer_factory.hpp:77] Creating layer res5a_branch1
I0106 12:11:50.722877  5321 net.cpp:100] Creating Layer res5a_branch1
I0106 12:11:50.722884  5321 net.cpp:444] res5a_branch1 <- res4f_res4f_relu_0_split_0
I0106 12:11:50.722893  5321 net.cpp:418] res5a_branch1 -> res5a_branch1
I0106 12:11:50.727159  5321 net.cpp:150] Setting up res5a_branch1
I0106 12:11:50.727216  5321 net.cpp:157] Top shape: 1 2048 14 14 (401408)
I0106 12:11:50.727223  5321 net.cpp:165] Memory required for data: 222982156
I0106 12:11:50.727236  5321 layer_factory.hpp:77] Creating layer bn5a_branch1
I0106 12:11:50.727249  5321 net.cpp:100] Creating Layer bn5a_branch1
I0106 12:11:50.727258  5321 net.cpp:444] bn5a_branch1 <- res5a_branch1
I0106 12:11:50.727267  5321 net.cpp:405] bn5a_branch1 -> res5a_branch1 (in-place)
I0106 12:11:50.727506  5321 net.cpp:150] Setting up bn5a_branch1
I0106 12:11:50.727519  5321 net.cpp:157] Top shape: 1 2048 14 14 (401408)
I0106 12:11:50.727525  5321 net.cpp:165] Memory required for data: 224587788
I0106 12:11:50.727536  5321 layer_factory.hpp:77] Creating layer scale5a_branch1
I0106 12:11:50.727546  5321 net.cpp:100] Creating Layer scale5a_branch1
I0106 12:11:50.727555  5321 net.cpp:444] scale5a_branch1 <- res5a_branch1
I0106 12:11:50.727562  5321 net.cpp:405] scale5a_branch1 -> res5a_branch1 (in-place)
I0106 12:11:50.727607  5321 layer_factory.hpp:77] Creating layer scale5a_branch1
I0106 12:11:50.727721  5321 net.cpp:150] Setting up scale5a_branch1
I0106 12:11:50.727732  5321 net.cpp:157] Top shape: 1 2048 14 14 (401408)
I0106 12:11:50.727740  5321 net.cpp:165] Memory required for data: 226193420
I0106 12:11:50.727747  5321 layer_factory.hpp:77] Creating layer res5a_branch2a
I0106 12:11:50.727759  5321 net.cpp:100] Creating Layer res5a_branch2a
I0106 12:11:50.727766  5321 net.cpp:444] res5a_branch2a <- res4f_res4f_relu_0_split_1
I0106 12:11:50.727776  5321 net.cpp:418] res5a_branch2a -> res5a_branch2a
I0106 12:11:50.729600  5321 net.cpp:150] Setting up res5a_branch2a
I0106 12:11:50.729663  5321 net.cpp:157] Top shape: 1 512 14 14 (100352)
I0106 12:11:50.729671  5321 net.cpp:165] Memory required for data: 226594828
I0106 12:11:50.729682  5321 layer_factory.hpp:77] Creating layer bn5a_branch2a
I0106 12:11:50.729694  5321 net.cpp:100] Creating Layer bn5a_branch2a
I0106 12:11:50.729703  5321 net.cpp:444] bn5a_branch2a <- res5a_branch2a
I0106 12:11:50.729712  5321 net.cpp:405] bn5a_branch2a -> res5a_branch2a (in-place)
I0106 12:11:50.729934  5321 net.cpp:150] Setting up bn5a_branch2a
I0106 12:11:50.729945  5321 net.cpp:157] Top shape: 1 512 14 14 (100352)
I0106 12:11:50.729953  5321 net.cpp:165] Memory required for data: 226996236
I0106 12:11:50.729961  5321 layer_factory.hpp:77] Creating layer scale5a_branch2a
I0106 12:11:50.729971  5321 net.cpp:100] Creating Layer scale5a_branch2a
I0106 12:11:50.729979  5321 net.cpp:444] scale5a_branch2a <- res5a_branch2a
I0106 12:11:50.729986  5321 net.cpp:405] scale5a_branch2a -> res5a_branch2a (in-place)
I0106 12:11:50.730026  5321 layer_factory.hpp:77] Creating layer scale5a_branch2a
I0106 12:11:50.730187  5321 net.cpp:150] Setting up scale5a_branch2a
I0106 12:11:50.730214  5321 net.cpp:157] Top shape: 1 512 14 14 (100352)
I0106 12:11:50.730237  5321 net.cpp:165] Memory required for data: 227397644
I0106 12:11:50.730260  5321 layer_factory.hpp:77] Creating layer res5a_branch2a_relu
I0106 12:11:50.730270  5321 net.cpp:100] Creating Layer res5a_branch2a_relu
I0106 12:11:50.730278  5321 net.cpp:444] res5a_branch2a_relu <- res5a_branch2a
I0106 12:11:50.730286  5321 net.cpp:405] res5a_branch2a_relu -> res5a_branch2a (in-place)
I0106 12:11:50.730450  5321 net.cpp:150] Setting up res5a_branch2a_relu
I0106 12:11:50.730463  5321 net.cpp:157] Top shape: 1 512 14 14 (100352)
I0106 12:11:50.730471  5321 net.cpp:165] Memory required for data: 227799052
I0106 12:11:50.730479  5321 layer_factory.hpp:77] Creating layer res5a_branch2b
I0106 12:11:50.730489  5321 net.cpp:100] Creating Layer res5a_branch2b
I0106 12:11:50.730497  5321 net.cpp:444] res5a_branch2b <- res5a_branch2a
I0106 12:11:50.730506  5321 net.cpp:418] res5a_branch2b -> res5a_branch2b
I0106 12:11:50.734357  5321 net.cpp:150] Setting up res5a_branch2b
I0106 12:11:50.734416  5321 net.cpp:157] Top shape: 1 512 14 14 (100352)
I0106 12:11:50.734424  5321 net.cpp:165] Memory required for data: 228200460
I0106 12:11:50.734436  5321 layer_factory.hpp:77] Creating layer bn5a_branch2b
I0106 12:11:50.734464  5321 net.cpp:100] Creating Layer bn5a_branch2b
I0106 12:11:50.734475  5321 net.cpp:444] bn5a_branch2b <- res5a_branch2b
I0106 12:11:50.734485  5321 net.cpp:405] bn5a_branch2b -> res5a_branch2b (in-place)
I0106 12:11:50.734681  5321 net.cpp:150] Setting up bn5a_branch2b
I0106 12:11:50.734691  5321 net.cpp:157] Top shape: 1 512 14 14 (100352)
I0106 12:11:50.734699  5321 net.cpp:165] Memory required for data: 228601868
I0106 12:11:50.734707  5321 layer_factory.hpp:77] Creating layer scale5a_branch2b
I0106 12:11:50.734719  5321 net.cpp:100] Creating Layer scale5a_branch2b
I0106 12:11:50.734725  5321 net.cpp:444] scale5a_branch2b <- res5a_branch2b
I0106 12:11:50.734735  5321 net.cpp:405] scale5a_branch2b -> res5a_branch2b (in-place)
I0106 12:11:50.734776  5321 layer_factory.hpp:77] Creating layer scale5a_branch2b
I0106 12:11:50.734882  5321 net.cpp:150] Setting up scale5a_branch2b
I0106 12:11:50.734892  5321 net.cpp:157] Top shape: 1 512 14 14 (100352)
I0106 12:11:50.734899  5321 net.cpp:165] Memory required for data: 229003276
I0106 12:11:50.734907  5321 layer_factory.hpp:77] Creating layer res5a_branch2b_relu
I0106 12:11:50.734915  5321 net.cpp:100] Creating Layer res5a_branch2b_relu
I0106 12:11:50.734922  5321 net.cpp:444] res5a_branch2b_relu <- res5a_branch2b
I0106 12:11:50.734931  5321 net.cpp:405] res5a_branch2b_relu -> res5a_branch2b (in-place)
I0106 12:11:50.735126  5321 net.cpp:150] Setting up res5a_branch2b_relu
I0106 12:11:50.735138  5321 net.cpp:157] Top shape: 1 512 14 14 (100352)
I0106 12:11:50.735144  5321 net.cpp:165] Memory required for data: 229404684
I0106 12:11:50.735152  5321 layer_factory.hpp:77] Creating layer res5a_branch2c
I0106 12:11:50.735162  5321 net.cpp:100] Creating Layer res5a_branch2c
I0106 12:11:50.735168  5321 net.cpp:444] res5a_branch2c <- res5a_branch2b
I0106 12:11:50.735178  5321 net.cpp:418] res5a_branch2c -> res5a_branch2c
I0106 12:11:50.737673  5321 net.cpp:150] Setting up res5a_branch2c
I0106 12:11:50.737709  5321 net.cpp:157] Top shape: 1 2048 14 14 (401408)
I0106 12:11:50.737716  5321 net.cpp:165] Memory required for data: 231010316
I0106 12:11:50.737737  5321 layer_factory.hpp:77] Creating layer bn5a_branch2c
I0106 12:11:50.737753  5321 net.cpp:100] Creating Layer bn5a_branch2c
I0106 12:11:50.737762  5321 net.cpp:444] bn5a_branch2c <- res5a_branch2c
I0106 12:11:50.737772  5321 net.cpp:405] bn5a_branch2c -> res5a_branch2c (in-place)
I0106 12:11:50.737962  5321 net.cpp:150] Setting up bn5a_branch2c
I0106 12:11:50.737973  5321 net.cpp:157] Top shape: 1 2048 14 14 (401408)
I0106 12:11:50.737979  5321 net.cpp:165] Memory required for data: 232615948
I0106 12:11:50.737989  5321 layer_factory.hpp:77] Creating layer scale5a_branch2c
I0106 12:11:50.737998  5321 net.cpp:100] Creating Layer scale5a_branch2c
I0106 12:11:50.738006  5321 net.cpp:444] scale5a_branch2c <- res5a_branch2c
I0106 12:11:50.738015  5321 net.cpp:405] scale5a_branch2c -> res5a_branch2c (in-place)
I0106 12:11:50.738055  5321 layer_factory.hpp:77] Creating layer scale5a_branch2c
I0106 12:11:50.738171  5321 net.cpp:150] Setting up scale5a_branch2c
I0106 12:11:50.738184  5321 net.cpp:157] Top shape: 1 2048 14 14 (401408)
I0106 12:11:50.738191  5321 net.cpp:165] Memory required for data: 234221580
I0106 12:11:50.738216  5321 layer_factory.hpp:77] Creating layer res5a
I0106 12:11:50.738237  5321 net.cpp:100] Creating Layer res5a
I0106 12:11:50.738245  5321 net.cpp:444] res5a <- res5a_branch1
I0106 12:11:50.738253  5321 net.cpp:444] res5a <- res5a_branch2c
I0106 12:11:50.738262  5321 net.cpp:418] res5a -> res5a
I0106 12:11:50.738291  5321 net.cpp:150] Setting up res5a
I0106 12:11:50.738301  5321 net.cpp:157] Top shape: 1 2048 14 14 (401408)
I0106 12:11:50.738307  5321 net.cpp:165] Memory required for data: 235827212
I0106 12:11:50.738313  5321 layer_factory.hpp:77] Creating layer res5a_relu
I0106 12:11:50.738322  5321 net.cpp:100] Creating Layer res5a_relu
I0106 12:11:50.738328  5321 net.cpp:444] res5a_relu <- res5a
I0106 12:11:50.738337  5321 net.cpp:405] res5a_relu -> res5a (in-place)
I0106 12:11:50.738483  5321 net.cpp:150] Setting up res5a_relu
I0106 12:11:50.738495  5321 net.cpp:157] Top shape: 1 2048 14 14 (401408)
I0106 12:11:50.738502  5321 net.cpp:165] Memory required for data: 237432844
I0106 12:11:50.738508  5321 layer_factory.hpp:77] Creating layer res5a_res5a_relu_0_split
I0106 12:11:50.738517  5321 net.cpp:100] Creating Layer res5a_res5a_relu_0_split
I0106 12:11:50.738524  5321 net.cpp:444] res5a_res5a_relu_0_split <- res5a
I0106 12:11:50.738533  5321 net.cpp:418] res5a_res5a_relu_0_split -> res5a_res5a_relu_0_split_0
I0106 12:11:50.738543  5321 net.cpp:418] res5a_res5a_relu_0_split -> res5a_res5a_relu_0_split_1
I0106 12:11:50.738585  5321 net.cpp:150] Setting up res5a_res5a_relu_0_split
I0106 12:11:50.738595  5321 net.cpp:157] Top shape: 1 2048 14 14 (401408)
I0106 12:11:50.738601  5321 net.cpp:157] Top shape: 1 2048 14 14 (401408)
I0106 12:11:50.738608  5321 net.cpp:165] Memory required for data: 240644108
I0106 12:11:50.738615  5321 layer_factory.hpp:77] Creating layer res5b_branch2a
I0106 12:11:50.738625  5321 net.cpp:100] Creating Layer res5b_branch2a
I0106 12:11:50.738632  5321 net.cpp:444] res5b_branch2a <- res5a_res5a_relu_0_split_0
I0106 12:11:50.738641  5321 net.cpp:418] res5b_branch2a -> res5b_branch2a
I0106 12:11:50.741369  5321 net.cpp:150] Setting up res5b_branch2a
I0106 12:11:50.741405  5321 net.cpp:157] Top shape: 1 512 14 14 (100352)
I0106 12:11:50.741412  5321 net.cpp:165] Memory required for data: 241045516
I0106 12:11:50.741425  5321 layer_factory.hpp:77] Creating layer bn5b_branch2a
I0106 12:11:50.741439  5321 net.cpp:100] Creating Layer bn5b_branch2a
I0106 12:11:50.741448  5321 net.cpp:444] bn5b_branch2a <- res5b_branch2a
I0106 12:11:50.741459  5321 net.cpp:405] bn5b_branch2a -> res5b_branch2a (in-place)
I0106 12:11:50.741648  5321 net.cpp:150] Setting up bn5b_branch2a
I0106 12:11:50.741659  5321 net.cpp:157] Top shape: 1 512 14 14 (100352)
I0106 12:11:50.741665  5321 net.cpp:165] Memory required for data: 241446924
I0106 12:11:50.741675  5321 layer_factory.hpp:77] Creating layer scale5b_branch2a
I0106 12:11:50.741693  5321 net.cpp:100] Creating Layer scale5b_branch2a
I0106 12:11:50.741701  5321 net.cpp:444] scale5b_branch2a <- res5b_branch2a
I0106 12:11:50.741709  5321 net.cpp:405] scale5b_branch2a -> res5b_branch2a (in-place)
I0106 12:11:50.741752  5321 layer_factory.hpp:77] Creating layer scale5b_branch2a
I0106 12:11:50.741861  5321 net.cpp:150] Setting up scale5b_branch2a
I0106 12:11:50.741871  5321 net.cpp:157] Top shape: 1 512 14 14 (100352)
I0106 12:11:50.741878  5321 net.cpp:165] Memory required for data: 241848332
I0106 12:11:50.741888  5321 layer_factory.hpp:77] Creating layer res5b_branch2a_relu
I0106 12:11:50.741897  5321 net.cpp:100] Creating Layer res5b_branch2a_relu
I0106 12:11:50.741904  5321 net.cpp:444] res5b_branch2a_relu <- res5b_branch2a
I0106 12:11:50.741912  5321 net.cpp:405] res5b_branch2a_relu -> res5b_branch2a (in-place)
I0106 12:11:50.742060  5321 net.cpp:150] Setting up res5b_branch2a_relu
I0106 12:11:50.742074  5321 net.cpp:157] Top shape: 1 512 14 14 (100352)
I0106 12:11:50.742080  5321 net.cpp:165] Memory required for data: 242249740
I0106 12:11:50.742087  5321 layer_factory.hpp:77] Creating layer res5b_branch2b
I0106 12:11:50.742099  5321 net.cpp:100] Creating Layer res5b_branch2b
I0106 12:11:50.742106  5321 net.cpp:444] res5b_branch2b <- res5b_branch2a
I0106 12:11:50.742115  5321 net.cpp:418] res5b_branch2b -> res5b_branch2b
I0106 12:11:50.745751  5321 net.cpp:150] Setting up res5b_branch2b
I0106 12:11:50.745808  5321 net.cpp:157] Top shape: 1 512 14 14 (100352)
I0106 12:11:50.745815  5321 net.cpp:165] Memory required for data: 242651148
I0106 12:11:50.745831  5321 layer_factory.hpp:77] Creating layer bn5b_branch2b
I0106 12:11:50.745848  5321 net.cpp:100] Creating Layer bn5b_branch2b
I0106 12:11:50.745858  5321 net.cpp:444] bn5b_branch2b <- res5b_branch2b
I0106 12:11:50.745870  5321 net.cpp:405] bn5b_branch2b -> res5b_branch2b (in-place)
I0106 12:11:50.746073  5321 net.cpp:150] Setting up bn5b_branch2b
I0106 12:11:50.746083  5321 net.cpp:157] Top shape: 1 512 14 14 (100352)
I0106 12:11:50.746089  5321 net.cpp:165] Memory required for data: 243052556
I0106 12:11:50.746099  5321 layer_factory.hpp:77] Creating layer scale5b_branch2b
I0106 12:11:50.746109  5321 net.cpp:100] Creating Layer scale5b_branch2b
I0106 12:11:50.746116  5321 net.cpp:444] scale5b_branch2b <- res5b_branch2b
I0106 12:11:50.746124  5321 net.cpp:405] scale5b_branch2b -> res5b_branch2b (in-place)
I0106 12:11:50.746203  5321 layer_factory.hpp:77] Creating layer scale5b_branch2b
I0106 12:11:50.746312  5321 net.cpp:150] Setting up scale5b_branch2b
I0106 12:11:50.746322  5321 net.cpp:157] Top shape: 1 512 14 14 (100352)
I0106 12:11:50.746328  5321 net.cpp:165] Memory required for data: 243453964
I0106 12:11:50.746336  5321 layer_factory.hpp:77] Creating layer res5b_branch2b_relu
I0106 12:11:50.746345  5321 net.cpp:100] Creating Layer res5b_branch2b_relu
I0106 12:11:50.746352  5321 net.cpp:444] res5b_branch2b_relu <- res5b_branch2b
I0106 12:11:50.746361  5321 net.cpp:405] res5b_branch2b_relu -> res5b_branch2b (in-place)
I0106 12:11:50.746965  5321 net.cpp:150] Setting up res5b_branch2b_relu
I0106 12:11:50.746981  5321 net.cpp:157] Top shape: 1 512 14 14 (100352)
I0106 12:11:50.746989  5321 net.cpp:165] Memory required for data: 243855372
I0106 12:11:50.746994  5321 layer_factory.hpp:77] Creating layer res5b_branch2c
I0106 12:11:50.747005  5321 net.cpp:100] Creating Layer res5b_branch2c
I0106 12:11:50.747014  5321 net.cpp:444] res5b_branch2c <- res5b_branch2b
I0106 12:11:50.747022  5321 net.cpp:418] res5b_branch2c -> res5b_branch2c
I0106 12:11:50.749433  5321 net.cpp:150] Setting up res5b_branch2c
I0106 12:11:50.749469  5321 net.cpp:157] Top shape: 1 2048 14 14 (401408)
I0106 12:11:50.749476  5321 net.cpp:165] Memory required for data: 245461004
I0106 12:11:50.749487  5321 layer_factory.hpp:77] Creating layer bn5b_branch2c
I0106 12:11:50.749502  5321 net.cpp:100] Creating Layer bn5b_branch2c
I0106 12:11:50.749511  5321 net.cpp:444] bn5b_branch2c <- res5b_branch2c
I0106 12:11:50.749522  5321 net.cpp:405] bn5b_branch2c -> res5b_branch2c (in-place)
I0106 12:11:50.749719  5321 net.cpp:150] Setting up bn5b_branch2c
I0106 12:11:50.749730  5321 net.cpp:157] Top shape: 1 2048 14 14 (401408)
I0106 12:11:50.749737  5321 net.cpp:165] Memory required for data: 247066636
I0106 12:11:50.749747  5321 layer_factory.hpp:77] Creating layer scale5b_branch2c
I0106 12:11:50.749758  5321 net.cpp:100] Creating Layer scale5b_branch2c
I0106 12:11:50.749765  5321 net.cpp:444] scale5b_branch2c <- res5b_branch2c
I0106 12:11:50.749773  5321 net.cpp:405] scale5b_branch2c -> res5b_branch2c (in-place)
I0106 12:11:50.749821  5321 layer_factory.hpp:77] Creating layer scale5b_branch2c
I0106 12:11:50.749929  5321 net.cpp:150] Setting up scale5b_branch2c
I0106 12:11:50.749940  5321 net.cpp:157] Top shape: 1 2048 14 14 (401408)
I0106 12:11:50.749948  5321 net.cpp:165] Memory required for data: 248672268
I0106 12:11:50.749956  5321 layer_factory.hpp:77] Creating layer res5b
I0106 12:11:50.749965  5321 net.cpp:100] Creating Layer res5b
I0106 12:11:50.749974  5321 net.cpp:444] res5b <- res5a_res5a_relu_0_split_1
I0106 12:11:50.749981  5321 net.cpp:444] res5b <- res5b_branch2c
I0106 12:11:50.749990  5321 net.cpp:418] res5b -> res5b
I0106 12:11:50.750020  5321 net.cpp:150] Setting up res5b
I0106 12:11:50.750030  5321 net.cpp:157] Top shape: 1 2048 14 14 (401408)
I0106 12:11:50.750036  5321 net.cpp:165] Memory required for data: 250277900
I0106 12:11:50.750043  5321 layer_factory.hpp:77] Creating layer res5b_relu
I0106 12:11:50.750052  5321 net.cpp:100] Creating Layer res5b_relu
I0106 12:11:50.750059  5321 net.cpp:444] res5b_relu <- res5b
I0106 12:11:50.750067  5321 net.cpp:405] res5b_relu -> res5b (in-place)
I0106 12:11:50.750253  5321 net.cpp:150] Setting up res5b_relu
I0106 12:11:50.750267  5321 net.cpp:157] Top shape: 1 2048 14 14 (401408)
I0106 12:11:50.750274  5321 net.cpp:165] Memory required for data: 251883532
I0106 12:11:50.750280  5321 layer_factory.hpp:77] Creating layer res5b_res5b_relu_0_split
I0106 12:11:50.750288  5321 net.cpp:100] Creating Layer res5b_res5b_relu_0_split
I0106 12:11:50.750296  5321 net.cpp:444] res5b_res5b_relu_0_split <- res5b
I0106 12:11:50.750305  5321 net.cpp:418] res5b_res5b_relu_0_split -> res5b_res5b_relu_0_split_0
I0106 12:11:50.750315  5321 net.cpp:418] res5b_res5b_relu_0_split -> res5b_res5b_relu_0_split_1
I0106 12:11:50.750358  5321 net.cpp:150] Setting up res5b_res5b_relu_0_split
I0106 12:11:50.750368  5321 net.cpp:157] Top shape: 1 2048 14 14 (401408)
I0106 12:11:50.750375  5321 net.cpp:157] Top shape: 1 2048 14 14 (401408)
I0106 12:11:50.750381  5321 net.cpp:165] Memory required for data: 255094796
I0106 12:11:50.750387  5321 layer_factory.hpp:77] Creating layer res5c_branch2a
I0106 12:11:50.750399  5321 net.cpp:100] Creating Layer res5c_branch2a
I0106 12:11:50.750406  5321 net.cpp:444] res5c_branch2a <- res5b_res5b_relu_0_split_0
I0106 12:11:50.750416  5321 net.cpp:418] res5c_branch2a -> res5c_branch2a
I0106 12:11:50.752857  5321 net.cpp:150] Setting up res5c_branch2a
I0106 12:11:50.752897  5321 net.cpp:157] Top shape: 1 512 14 14 (100352)
I0106 12:11:50.752907  5321 net.cpp:165] Memory required for data: 255496204
I0106 12:11:50.752920  5321 layer_factory.hpp:77] Creating layer bn5c_branch2a
I0106 12:11:50.752935  5321 net.cpp:100] Creating Layer bn5c_branch2a
I0106 12:11:50.752943  5321 net.cpp:444] bn5c_branch2a <- res5c_branch2a
I0106 12:11:50.752952  5321 net.cpp:405] bn5c_branch2a -> res5c_branch2a (in-place)
I0106 12:11:50.753144  5321 net.cpp:150] Setting up bn5c_branch2a
I0106 12:11:50.753155  5321 net.cpp:157] Top shape: 1 512 14 14 (100352)
I0106 12:11:50.753162  5321 net.cpp:165] Memory required for data: 255897612
I0106 12:11:50.753173  5321 layer_factory.hpp:77] Creating layer scale5c_branch2a
I0106 12:11:50.753183  5321 net.cpp:100] Creating Layer scale5c_branch2a
I0106 12:11:50.753190  5321 net.cpp:444] scale5c_branch2a <- res5c_branch2a
I0106 12:11:50.753199  5321 net.cpp:405] scale5c_branch2a -> res5c_branch2a (in-place)
I0106 12:11:50.753239  5321 layer_factory.hpp:77] Creating layer scale5c_branch2a
I0106 12:11:50.753350  5321 net.cpp:150] Setting up scale5c_branch2a
I0106 12:11:50.753367  5321 net.cpp:157] Top shape: 1 512 14 14 (100352)
I0106 12:11:50.753374  5321 net.cpp:165] Memory required for data: 256299020
I0106 12:11:50.753382  5321 layer_factory.hpp:77] Creating layer res5c_branch2a_relu
I0106 12:11:50.753391  5321 net.cpp:100] Creating Layer res5c_branch2a_relu
I0106 12:11:50.753398  5321 net.cpp:444] res5c_branch2a_relu <- res5c_branch2a
I0106 12:11:50.753407  5321 net.cpp:405] res5c_branch2a_relu -> res5c_branch2a (in-place)
I0106 12:11:50.753553  5321 net.cpp:150] Setting up res5c_branch2a_relu
I0106 12:11:50.753566  5321 net.cpp:157] Top shape: 1 512 14 14 (100352)
I0106 12:11:50.753572  5321 net.cpp:165] Memory required for data: 256700428
I0106 12:11:50.753578  5321 layer_factory.hpp:77] Creating layer res5c_branch2b
I0106 12:11:50.753588  5321 net.cpp:100] Creating Layer res5c_branch2b
I0106 12:11:50.753597  5321 net.cpp:444] res5c_branch2b <- res5c_branch2a
I0106 12:11:50.753605  5321 net.cpp:418] res5c_branch2b -> res5c_branch2b
I0106 12:11:50.757284  5321 net.cpp:150] Setting up res5c_branch2b
I0106 12:11:50.757339  5321 net.cpp:157] Top shape: 1 512 14 14 (100352)
I0106 12:11:50.757346  5321 net.cpp:165] Memory required for data: 257101836
I0106 12:11:50.757361  5321 layer_factory.hpp:77] Creating layer bn5c_branch2b
I0106 12:11:50.757378  5321 net.cpp:100] Creating Layer bn5c_branch2b
I0106 12:11:50.757388  5321 net.cpp:444] bn5c_branch2b <- res5c_branch2b
I0106 12:11:50.757400  5321 net.cpp:405] bn5c_branch2b -> res5c_branch2b (in-place)
I0106 12:11:50.757606  5321 net.cpp:150] Setting up bn5c_branch2b
I0106 12:11:50.757617  5321 net.cpp:157] Top shape: 1 512 14 14 (100352)
I0106 12:11:50.757623  5321 net.cpp:165] Memory required for data: 257503244
I0106 12:11:50.757633  5321 layer_factory.hpp:77] Creating layer scale5c_branch2b
I0106 12:11:50.757642  5321 net.cpp:100] Creating Layer scale5c_branch2b
I0106 12:11:50.757650  5321 net.cpp:444] scale5c_branch2b <- res5c_branch2b
I0106 12:11:50.757658  5321 net.cpp:405] scale5c_branch2b -> res5c_branch2b (in-place)
I0106 12:11:50.757700  5321 layer_factory.hpp:77] Creating layer scale5c_branch2b
I0106 12:11:50.757810  5321 net.cpp:150] Setting up scale5c_branch2b
I0106 12:11:50.757820  5321 net.cpp:157] Top shape: 1 512 14 14 (100352)
I0106 12:11:50.757827  5321 net.cpp:165] Memory required for data: 257904652
I0106 12:11:50.757835  5321 layer_factory.hpp:77] Creating layer res5c_branch2b_relu
I0106 12:11:50.757843  5321 net.cpp:100] Creating Layer res5c_branch2b_relu
I0106 12:11:50.757851  5321 net.cpp:444] res5c_branch2b_relu <- res5c_branch2b
I0106 12:11:50.757859  5321 net.cpp:405] res5c_branch2b_relu -> res5c_branch2b (in-place)
I0106 12:11:50.758050  5321 net.cpp:150] Setting up res5c_branch2b_relu
I0106 12:11:50.758062  5321 net.cpp:157] Top shape: 1 512 14 14 (100352)
I0106 12:11:50.758069  5321 net.cpp:165] Memory required for data: 258306060
I0106 12:11:50.758075  5321 layer_factory.hpp:77] Creating layer res5c_branch2c
I0106 12:11:50.758085  5321 net.cpp:100] Creating Layer res5c_branch2c
I0106 12:11:50.758093  5321 net.cpp:444] res5c_branch2c <- res5c_branch2b
I0106 12:11:50.758102  5321 net.cpp:418] res5c_branch2c -> res5c_branch2c
I0106 12:11:50.760736  5321 net.cpp:150] Setting up res5c_branch2c
I0106 12:11:50.760771  5321 net.cpp:157] Top shape: 1 2048 14 14 (401408)
I0106 12:11:50.760779  5321 net.cpp:165] Memory required for data: 259911692
I0106 12:11:50.760792  5321 layer_factory.hpp:77] Creating layer bn5c_branch2c
I0106 12:11:50.760802  5321 net.cpp:100] Creating Layer bn5c_branch2c
I0106 12:11:50.760812  5321 net.cpp:444] bn5c_branch2c <- res5c_branch2c
I0106 12:11:50.760823  5321 net.cpp:405] bn5c_branch2c -> res5c_branch2c (in-place)
I0106 12:11:50.761025  5321 net.cpp:150] Setting up bn5c_branch2c
I0106 12:11:50.761035  5321 net.cpp:157] Top shape: 1 2048 14 14 (401408)
I0106 12:11:50.761044  5321 net.cpp:165] Memory required for data: 261517324
I0106 12:11:50.761054  5321 layer_factory.hpp:77] Creating layer scale5c_branch2c
I0106 12:11:50.761063  5321 net.cpp:100] Creating Layer scale5c_branch2c
I0106 12:11:50.761075  5321 net.cpp:444] scale5c_branch2c <- res5c_branch2c
I0106 12:11:50.761085  5321 net.cpp:405] scale5c_branch2c -> res5c_branch2c (in-place)
I0106 12:11:50.761144  5321 layer_factory.hpp:77] Creating layer scale5c_branch2c
I0106 12:11:50.761314  5321 net.cpp:150] Setting up scale5c_branch2c
I0106 12:11:50.761325  5321 net.cpp:157] Top shape: 1 2048 14 14 (401408)
I0106 12:11:50.761333  5321 net.cpp:165] Memory required for data: 263122956
I0106 12:11:50.761343  5321 layer_factory.hpp:77] Creating layer res5c
I0106 12:11:50.761353  5321 net.cpp:100] Creating Layer res5c
I0106 12:11:50.761360  5321 net.cpp:444] res5c <- res5b_res5b_relu_0_split_1
I0106 12:11:50.761380  5321 net.cpp:444] res5c <- res5c_branch2c
I0106 12:11:50.761389  5321 net.cpp:418] res5c -> res5c
I0106 12:11:50.761449  5321 net.cpp:150] Setting up res5c
I0106 12:11:50.761459  5321 net.cpp:157] Top shape: 1 2048 14 14 (401408)
I0106 12:11:50.761467  5321 net.cpp:165] Memory required for data: 264728588
I0106 12:11:50.761474  5321 layer_factory.hpp:77] Creating layer res5c_relu
I0106 12:11:50.761483  5321 net.cpp:100] Creating Layer res5c_relu
I0106 12:11:50.761492  5321 net.cpp:444] res5c_relu <- res5c
I0106 12:11:50.761500  5321 net.cpp:405] res5c_relu -> res5c (in-place)
I0106 12:11:50.761663  5321 net.cpp:150] Setting up res5c_relu
I0106 12:11:50.761675  5321 net.cpp:157] Top shape: 1 2048 14 14 (401408)
I0106 12:11:50.761683  5321 net.cpp:165] Memory required for data: 266334220
I0106 12:11:50.761690  5321 layer_factory.hpp:77] Creating layer rpn_conv/3x3
I0106 12:11:50.761703  5321 net.cpp:100] Creating Layer rpn_conv/3x3
I0106 12:11:50.761711  5321 net.cpp:444] rpn_conv/3x3 <- res4f_res4f_relu_0_split_2
I0106 12:11:50.761720  5321 net.cpp:418] rpn_conv/3x3 -> rpn/output
I0106 12:11:50.801419  5321 net.cpp:150] Setting up rpn_conv/3x3
I0106 12:11:50.801456  5321 net.cpp:157] Top shape: 1 512 14 14 (100352)
I0106 12:11:50.801463  5321 net.cpp:165] Memory required for data: 266735628
I0106 12:11:50.801476  5321 layer_factory.hpp:77] Creating layer rpn_relu/3x3
I0106 12:11:50.801488  5321 net.cpp:100] Creating Layer rpn_relu/3x3
I0106 12:11:50.801497  5321 net.cpp:444] rpn_relu/3x3 <- rpn/output
I0106 12:11:50.801507  5321 net.cpp:405] rpn_relu/3x3 -> rpn/output (in-place)
I0106 12:11:50.801981  5321 net.cpp:150] Setting up rpn_relu/3x3
I0106 12:11:50.801997  5321 net.cpp:157] Top shape: 1 512 14 14 (100352)
I0106 12:11:50.802004  5321 net.cpp:165] Memory required for data: 267137036
I0106 12:11:50.802011  5321 layer_factory.hpp:77] Creating layer rpn/output_rpn_relu/3x3_0_split
I0106 12:11:50.802018  5321 net.cpp:100] Creating Layer rpn/output_rpn_relu/3x3_0_split
I0106 12:11:50.802027  5321 net.cpp:444] rpn/output_rpn_relu/3x3_0_split <- rpn/output
I0106 12:11:50.802037  5321 net.cpp:418] rpn/output_rpn_relu/3x3_0_split -> rpn/output_rpn_relu/3x3_0_split_0
I0106 12:11:50.802047  5321 net.cpp:418] rpn/output_rpn_relu/3x3_0_split -> rpn/output_rpn_relu/3x3_0_split_1
I0106 12:11:50.802104  5321 net.cpp:150] Setting up rpn/output_rpn_relu/3x3_0_split
I0106 12:11:50.802114  5321 net.cpp:157] Top shape: 1 512 14 14 (100352)
I0106 12:11:50.802121  5321 net.cpp:157] Top shape: 1 512 14 14 (100352)
I0106 12:11:50.802127  5321 net.cpp:165] Memory required for data: 267939852
I0106 12:11:50.802134  5321 layer_factory.hpp:77] Creating layer rpn_cls_score
I0106 12:11:50.802166  5321 net.cpp:100] Creating Layer rpn_cls_score
I0106 12:11:50.802175  5321 net.cpp:444] rpn_cls_score <- rpn/output_rpn_relu/3x3_0_split_0
I0106 12:11:50.802201  5321 net.cpp:418] rpn_cls_score -> rpn_cls_score
I0106 12:11:50.802942  5321 net.cpp:150] Setting up rpn_cls_score
I0106 12:11:50.802958  5321 net.cpp:157] Top shape: 1 18 14 14 (3528)
I0106 12:11:50.802964  5321 net.cpp:165] Memory required for data: 267953964
I0106 12:11:50.802973  5321 layer_factory.hpp:77] Creating layer rpn_bbox_pred
I0106 12:11:50.802983  5321 net.cpp:100] Creating Layer rpn_bbox_pred
I0106 12:11:50.802992  5321 net.cpp:444] rpn_bbox_pred <- rpn/output_rpn_relu/3x3_0_split_1
I0106 12:11:50.803009  5321 net.cpp:418] rpn_bbox_pred -> rpn_bbox_pred
I0106 12:11:50.804117  5321 net.cpp:150] Setting up rpn_bbox_pred
I0106 12:11:50.804134  5321 net.cpp:157] Top shape: 1 36 14 14 (7056)
I0106 12:11:50.804155  5321 net.cpp:165] Memory required for data: 267982188
I0106 12:11:50.804177  5321 layer_factory.hpp:77] Creating layer rpn_cls_score_reshape
I0106 12:11:50.804188  5321 net.cpp:100] Creating Layer rpn_cls_score_reshape
I0106 12:11:50.804196  5321 net.cpp:444] rpn_cls_score_reshape <- rpn_cls_score
I0106 12:11:50.804213  5321 net.cpp:418] rpn_cls_score_reshape -> rpn_cls_score_reshape
I0106 12:11:50.804245  5321 net.cpp:150] Setting up rpn_cls_score_reshape
I0106 12:11:50.804255  5321 net.cpp:157] Top shape: 1 2 126 14 (3528)
I0106 12:11:50.804261  5321 net.cpp:165] Memory required for data: 267996300
I0106 12:11:50.804268  5321 layer_factory.hpp:77] Creating layer rpn_cls_prob
I0106 12:11:50.804276  5321 net.cpp:100] Creating Layer rpn_cls_prob
I0106 12:11:50.804298  5321 net.cpp:444] rpn_cls_prob <- rpn_cls_score_reshape
I0106 12:11:50.804307  5321 net.cpp:418] rpn_cls_prob -> rpn_cls_prob
I0106 12:11:50.804833  5321 net.cpp:150] Setting up rpn_cls_prob
I0106 12:11:50.804848  5321 net.cpp:157] Top shape: 1 2 126 14 (3528)
I0106 12:11:50.804855  5321 net.cpp:165] Memory required for data: 268010412
I0106 12:11:50.804877  5321 layer_factory.hpp:77] Creating layer rpn_cls_prob_reshape
I0106 12:11:50.804886  5321 net.cpp:100] Creating Layer rpn_cls_prob_reshape
I0106 12:11:50.804894  5321 net.cpp:444] rpn_cls_prob_reshape <- rpn_cls_prob
I0106 12:11:50.804903  5321 net.cpp:418] rpn_cls_prob_reshape -> rpn_cls_prob_reshape
I0106 12:11:50.804947  5321 net.cpp:150] Setting up rpn_cls_prob_reshape
I0106 12:11:50.804958  5321 net.cpp:157] Top shape: 1 18 14 14 (3528)
I0106 12:11:50.804965  5321 net.cpp:165] Memory required for data: 268024524
I0106 12:11:50.804970  5321 layer_factory.hpp:77] Creating layer proposal
I0106 12:11:50.806109  5321 net.cpp:100] Creating Layer proposal
I0106 12:11:50.806125  5321 net.cpp:444] proposal <- rpn_cls_prob_reshape
I0106 12:11:50.806134  5321 net.cpp:444] proposal <- rpn_bbox_pred
I0106 12:11:50.806197  5321 net.cpp:444] proposal <- im_info
I0106 12:11:50.806210  5321 net.cpp:418] proposal -> rois
I0106 12:11:50.806721  5321 net.cpp:150] Setting up proposal
I0106 12:11:50.806740  5321 net.cpp:157] Top shape: 1 5 (5)
I0106 12:11:50.806747  5321 net.cpp:165] Memory required for data: 268024544
I0106 12:11:50.806754  5321 layer_factory.hpp:77] Creating layer rois_proposal_0_split
I0106 12:11:50.806762  5321 net.cpp:100] Creating Layer rois_proposal_0_split
I0106 12:11:50.806771  5321 net.cpp:444] rois_proposal_0_split <- rois
I0106 12:11:50.806780  5321 net.cpp:418] rois_proposal_0_split -> rois_proposal_0_split_0
I0106 12:11:50.806792  5321 net.cpp:418] rois_proposal_0_split -> rois_proposal_0_split_1
I0106 12:11:50.806838  5321 net.cpp:150] Setting up rois_proposal_0_split
I0106 12:11:50.806848  5321 net.cpp:157] Top shape: 1 5 (5)
I0106 12:11:50.806854  5321 net.cpp:157] Top shape: 1 5 (5)
I0106 12:11:50.806860  5321 net.cpp:165] Memory required for data: 268024584
I0106 12:11:50.806866  5321 layer_factory.hpp:77] Creating layer conv_new_1
I0106 12:11:50.806876  5321 net.cpp:100] Creating Layer conv_new_1
I0106 12:11:50.806885  5321 net.cpp:444] conv_new_1 <- res5c
I0106 12:11:50.806895  5321 net.cpp:418] conv_new_1 -> conv_new_1
I0106 12:11:50.824745  5321 net.cpp:150] Setting up conv_new_1
I0106 12:11:50.824803  5321 net.cpp:157] Top shape: 1 1024 14 14 (200704)
I0106 12:11:50.824812  5321 net.cpp:165] Memory required for data: 268827400
I0106 12:11:50.824827  5321 layer_factory.hpp:77] Creating layer conv_new_1_relu
I0106 12:11:50.824854  5321 net.cpp:100] Creating Layer conv_new_1_relu
I0106 12:11:50.824863  5321 net.cpp:444] conv_new_1_relu <- conv_new_1
I0106 12:11:50.824872  5321 net.cpp:405] conv_new_1_relu -> conv_new_1 (in-place)
I0106 12:11:50.825019  5321 net.cpp:150] Setting up conv_new_1_relu
I0106 12:11:50.825032  5321 net.cpp:157] Top shape: 1 1024 14 14 (200704)
I0106 12:11:50.825047  5321 net.cpp:165] Memory required for data: 269630216
I0106 12:11:50.825054  5321 layer_factory.hpp:77] Creating layer conv_new_1_conv_new_1_relu_0_split
I0106 12:11:50.825063  5321 net.cpp:100] Creating Layer conv_new_1_conv_new_1_relu_0_split
I0106 12:11:50.825072  5321 net.cpp:444] conv_new_1_conv_new_1_relu_0_split <- conv_new_1
I0106 12:11:50.825080  5321 net.cpp:418] conv_new_1_conv_new_1_relu_0_split -> conv_new_1_conv_new_1_relu_0_split_0
I0106 12:11:50.825090  5321 net.cpp:418] conv_new_1_conv_new_1_relu_0_split -> conv_new_1_conv_new_1_relu_0_split_1
I0106 12:11:50.825142  5321 net.cpp:150] Setting up conv_new_1_conv_new_1_relu_0_split
I0106 12:11:50.825152  5321 net.cpp:157] Top shape: 1 1024 14 14 (200704)
I0106 12:11:50.825160  5321 net.cpp:157] Top shape: 1 1024 14 14 (200704)
I0106 12:11:50.825167  5321 net.cpp:165] Memory required for data: 271235848
I0106 12:11:50.825175  5321 layer_factory.hpp:77] Creating layer rfcn_cls
I0106 12:11:50.825187  5321 net.cpp:100] Creating Layer rfcn_cls
I0106 12:11:50.825196  5321 net.cpp:444] rfcn_cls <- conv_new_1_conv_new_1_relu_0_split_0
I0106 12:11:50.825206  5321 net.cpp:418] rfcn_cls -> rfcn_cls
I0106 12:11:50.827615  5321 net.cpp:150] Setting up rfcn_cls
I0106 12:11:50.827669  5321 net.cpp:157] Top shape: 1 98 14 14 (19208)
I0106 12:11:50.827677  5321 net.cpp:165] Memory required for data: 271312680
I0106 12:11:50.827703  5321 layer_factory.hpp:77] Creating layer rfcn_bbox
I0106 12:11:50.827723  5321 net.cpp:100] Creating Layer rfcn_bbox
I0106 12:11:50.827733  5321 net.cpp:444] rfcn_bbox <- conv_new_1_conv_new_1_relu_0_split_1
I0106 12:11:50.827744  5321 net.cpp:418] rfcn_bbox -> rfcn_bbox
I0106 12:11:50.832446  5321 net.cpp:150] Setting up rfcn_bbox
I0106 12:11:50.832484  5321 net.cpp:157] Top shape: 1 392 14 14 (76832)
I0106 12:11:50.832491  5321 net.cpp:165] Memory required for data: 271620008
I0106 12:11:50.832504  5321 layer_factory.hpp:77] Creating layer psroipooled_cls_rois
I0106 12:11:50.832517  5321 net.cpp:100] Creating Layer psroipooled_cls_rois
I0106 12:11:50.832526  5321 net.cpp:444] psroipooled_cls_rois <- rfcn_cls
I0106 12:11:50.832536  5321 net.cpp:444] psroipooled_cls_rois <- rois_proposal_0_split_0
I0106 12:11:50.832559  5321 net.cpp:418] psroipooled_cls_rois -> psroipooled_cls_rois
I0106 12:11:50.832571  5321 psroi_pooling_layer.cpp:26] Spatial scale: 0.0625
I0106 12:11:50.832625  5321 net.cpp:150] Setting up psroipooled_cls_rois
I0106 12:11:50.832635  5321 net.cpp:157] Top shape: 1 2 7 7 (98)
I0106 12:11:50.832641  5321 net.cpp:165] Memory required for data: 271620400
I0106 12:11:50.832648  5321 layer_factory.hpp:77] Creating layer ave_cls_score_rois
I0106 12:11:50.832657  5321 net.cpp:100] Creating Layer ave_cls_score_rois
I0106 12:11:50.832666  5321 net.cpp:444] ave_cls_score_rois <- psroipooled_cls_rois
I0106 12:11:50.832675  5321 net.cpp:418] ave_cls_score_rois -> cls_score
I0106 12:11:50.832837  5321 net.cpp:150] Setting up ave_cls_score_rois
I0106 12:11:50.832850  5321 net.cpp:157] Top shape: 1 2 1 1 (2)
I0106 12:11:50.832856  5321 net.cpp:165] Memory required for data: 271620408
I0106 12:11:50.832862  5321 layer_factory.hpp:77] Creating layer psroipooled_loc_rois
I0106 12:11:50.832870  5321 net.cpp:100] Creating Layer psroipooled_loc_rois
I0106 12:11:50.832880  5321 net.cpp:444] psroipooled_loc_rois <- rfcn_bbox
I0106 12:11:50.832887  5321 net.cpp:444] psroipooled_loc_rois <- rois_proposal_0_split_1
I0106 12:11:50.832897  5321 net.cpp:418] psroipooled_loc_rois -> psroipooled_loc_rois
I0106 12:11:50.832912  5321 psroi_pooling_layer.cpp:26] Spatial scale: 0.0625
I0106 12:11:50.832957  5321 net.cpp:150] Setting up psroipooled_loc_rois
I0106 12:11:50.832967  5321 net.cpp:157] Top shape: 1 8 7 7 (392)
I0106 12:11:50.832973  5321 net.cpp:165] Memory required for data: 271621976
I0106 12:11:50.832978  5321 layer_factory.hpp:77] Creating layer ave_bbox_pred_rois
I0106 12:11:50.832986  5321 net.cpp:100] Creating Layer ave_bbox_pred_rois
I0106 12:11:50.832994  5321 net.cpp:444] ave_bbox_pred_rois <- psroipooled_loc_rois
I0106 12:11:50.833010  5321 net.cpp:418] ave_bbox_pred_rois -> bbox_pred_pre
I0106 12:11:50.833168  5321 net.cpp:150] Setting up ave_bbox_pred_rois
I0106 12:11:50.833180  5321 net.cpp:157] Top shape: 1 8 1 1 (8)
I0106 12:11:50.833186  5321 net.cpp:165] Memory required for data: 271622008
I0106 12:11:50.833194  5321 layer_factory.hpp:77] Creating layer cls_prob
I0106 12:11:50.833200  5321 net.cpp:100] Creating Layer cls_prob
I0106 12:11:50.833207  5321 net.cpp:444] cls_prob <- cls_score
I0106 12:11:50.833216  5321 net.cpp:418] cls_prob -> cls_prob_pre
I0106 12:11:50.833407  5321 net.cpp:150] Setting up cls_prob
I0106 12:11:50.833420  5321 net.cpp:157] Top shape: 1 2 1 1 (2)
I0106 12:11:50.833425  5321 net.cpp:165] Memory required for data: 271622016
I0106 12:11:50.833432  5321 layer_factory.hpp:77] Creating layer cls_prob_reshape
I0106 12:11:50.833441  5321 net.cpp:100] Creating Layer cls_prob_reshape
I0106 12:11:50.833449  5321 net.cpp:444] cls_prob_reshape <- cls_prob_pre
I0106 12:11:50.833458  5321 net.cpp:418] cls_prob_reshape -> cls_prob
I0106 12:11:50.833490  5321 net.cpp:150] Setting up cls_prob_reshape
I0106 12:11:50.833499  5321 net.cpp:157] Top shape: 1 2 (2)
I0106 12:11:50.833505  5321 net.cpp:165] Memory required for data: 271622024
I0106 12:11:50.833511  5321 layer_factory.hpp:77] Creating layer bbox_pred_reshape
I0106 12:11:50.833519  5321 net.cpp:100] Creating Layer bbox_pred_reshape
I0106 12:11:50.833525  5321 net.cpp:444] bbox_pred_reshape <- bbox_pred_pre
I0106 12:11:50.833534  5321 net.cpp:418] bbox_pred_reshape -> bbox_pred
I0106 12:11:50.833564  5321 net.cpp:150] Setting up bbox_pred_reshape
I0106 12:11:50.833573  5321 net.cpp:157] Top shape: 1 8 (8)
I0106 12:11:50.833580  5321 net.cpp:165] Memory required for data: 271622056
I0106 12:11:50.833585  5321 net.cpp:228] bbox_pred_reshape does not need backward computation.
I0106 12:11:50.833592  5321 net.cpp:228] cls_prob_reshape does not need backward computation.
I0106 12:11:50.833598  5321 net.cpp:228] cls_prob does not need backward computation.
I0106 12:11:50.833606  5321 net.cpp:228] ave_bbox_pred_rois does not need backward computation.
…
